Gym-DDPG-solution/results/DDPG_HalfCheetah-v4_3000-eps0.1-t32-l0.0001-s1.pth (torch, 193979 bytes, 13 tensors)

layers.0.weight f4 [128, 23]
0	0x3e216539	0.1576127
1	0xbd358a64	-0.044321433
2	0xbba4714b	-0.0050183884
3	0x3e13e04b	0.1444103
4	0xbe0ea7f8	-0.13931262
5	0x3eecfd07	0.46286795
6	0x3dd312f8	0.103063524
7	0x3d9f2870	0.07771385
8	0xbea853e6	-0.3287651
9	0x3e0b9ab7	0.13633238
10	0x3d8361ec	0.064151615
11	0x3aef1471	0.0018240345
12	0x3c8b893c	0.017033212
13	0xbc53a6c9	-0.012918183
14	0x3ce2e265	0.027695844
15	0xbd0646b3	-0.032782268
16	0xbc2ea08d	-0.0106583955
17	0x3cfe9a48	0.031079426
18	0x3e7b8dc6	0.24565801
19	0x3e49c690	0.19704652
20	0xbdbe4088	-0.09289652
21	0xbe367888	-0.17819417
22	0xbd690bf0	-0.05689615
23	0x3d9a8056	0.075440094
24	0xbd522a22	-0.051309712
25	0x3f37e524	0.71834016
26	0x3e9389e3	0.28816137
27	0x3de8a0c7	0.11358791
28	0xbdc28a40	-0.09499025
29	0x3ed20864	0.41022027
30	0xbe0c0508	-0.13673794
31	0x3eb2d2f9	0.34926584
32	0x3dd0e57c	0.10200021
33	0xbeba683e	-0.36407655
34	0xbc66ef83	-0.01409519
35	0xbd57548f	-0.052570876
36	0x3bcee7b9	0.0063142446
37	0xbd3b522b	-0.04573266
38	0x3d12abd4	0.0358084
39	0xbd098030	-0.033569515
40	0x3eed5cad	0.46359769
41	0x3ca5dfb3	0.02024827
42	0x3d9e7415	0.07736985
43	0x3dd18708	0.10230833
44	0xbe9fcd68	-0.312114
45	0x3daea70e	0.08527957
46	0x3e7fceec	0.24981278
47	0xbd099cdb	-0.033596855
48	0xbebd5763	-0.36980733
49	0x3de0e6a0	0.10981488
50	0x3d121334	0.035662845
51	0xbf6f1172	-0.93385994
52	0xbf1811ec	-0.59402347
53	0xbd73c81c	-0.05951701
54	0x3ebd5d6f	0.36985347
55	0x3ef01c6d	0.46896687
56	0xbe5a1c79	-0.21299924
57	0x3c406e80	0.011745095
58	0xbbd4288c	-0.00647456
59	0xbbf11482	-0.007357181
60	0xbcd70b80	-0.0262506
61	0xbc0f7a4d	-0.008757186
62	0xbc05463d	-0.008134422
63	0x3df3b2f3	0.11899366
64	0x3dae4b4f	0.08510458
65	0xbdff5a9e	-0.12468456
66	0x3d8f4bee	0.06996904
67	0xbdcd215c	-0.100161284
68	0xbd88895e	-0.06666826
69	0xbeac7d71	-0.33689454
70	0xbd3c6859	-0.04599795
71	0xbe1075c6	-0.14107427
72	0x3e47dd3a	0.19517985
73	0x3e7a33af	0.24433778
74	0x3e420053	0.18945436
75	0x3e3d6f20	0.18499422
76	0x3ddb4c2d	0.10707889
77	0xbdadfb86	-0.0849524
78	0xbf098193	-0.5371334
79	0xbe39b21c	-0.1813435
80	0xbe2e28ab	-0.17007701
81	0xbdc3b360	-0.095556974
82	0xbc2a3a5f	-0.010389893
83	0x3cef2698	0.029193208
84	0x3d37c0ce	0.044861607
85	0x3b49e4a3	0.0030806444
86	0xbe8fe954	-0.28107703
87	0x3e3f364d	0.18673058
88	0x3e1916c5	0.14950092
89	0x3dd98971	0.10621918
90	0x3e8d9656	0.2765376
91	0xbe185937	-0.14877783
92	0x3e99b6fb	0.30022416
93	0x3dd52344	0.10407117
94	0xbe893407	-0.26797506
95	0x3dbe3d39	0.09289021
96	0x3e16acbd	0.14714332
97	0x3e91e242	0.28492934
98	0xbea70652	-0.3262201
99	0xbe874c30	-0.26425314
100	0x3ebdc6ee	0.37065834
101	0xbd75a053	-0.05996735
102	0x3e827072	0.25476414
103	0x3d4bc216	0.04974564
104	0xbdbd64bd	-0.0924773
105	0xbd08144f	-0.033222493
106	0x3dc96e55	0.09835497
107	0x3c2f35df	0.010693996
108	0x3c96badd	0.01839965
109	0x3ddcc43f	0.107796185
110	0x3dda4f3e	0.106596455
111	0x3e0b142f	0.13581918
112	0x3ea6985e	0.32538122
113	0xbe49d017	-0.19708286
114	0xbb59e256	-0.003324648
115	0x3d8c7c02	0.0685959
116	0x3eeb5e8d	0.45970574
117	0xbe11a36d	-0.14222498
118	0xbf144569	-0.5791841
119	0xbb505cf8	-0.0031793695
120	0x3e1738fc	0.14767832
121	0x3e45d70d	0.19320317
122	0x3ebb6c8e	0.36606258
123	0xbdbf0a2d	-0.09328113
124	0x3dcf1588	0.10111529
125	0xbe40aee8	-0.18816721
126	0xbdc15ba5	-0.09441308
127	0xbdb38999	-0.08766479
128	0xbc16428f	-0.009171142
129	0x3bc0e465	0.0058866017
130	0x3d1e6506	0.038670562
131	0x3d214d54	0.039380386
132	0x3e6d9cd0	0.2320435
133	0x3e39b177	0.18134104
134	0x3dd1febc	0.10253665
135	0x3ecdc0ab	0.40186056
136	0x3e8441a7	0.2583134
137	0xbce28467	-0.027651025
138	0xbcb3f3de	-0.02196687
139	0xbd6765e3	-0.05649365
140	0x3e999d40	0.30002785
141	0x3d787e8a	0.060667552
142	0xbebdc9bc	-0.37067974
143	0xbe4d919b	-0.20075075
144	0xbe36d15d	-0.17853303
145	0xbda98e55	-0.08279101
146	0x3ec656b2	0.38738018
147	0x3ed927fc	0.42413318
148	0x3ea6e472	0.32596165
149	0x3da466cd	0.0802742
150	0x3d0ec9dc	0.034860477
151	0x3e194ea5	0.14971407
152	0xbd8813eb	-0.06644424
153	0x3c689ebf	0.014198004
154	0xbc9e5444	-0.01932729
155	0xbdd21660	-0.10258174
156	0xbde77635	-0.11301843
157	0xbec16c35	-0.37777868
158	0x3e8733a7	0.26406595
159	0xbe301009	-0.17193617
160	0xbddbb257	-0.10727375
161	0x3eae08f8	0.33991218
162	0x3e49ef8e	0.19720289
163	0x3f1be9b4	0.6090348
164	0xbe322786	-0.1739789
165	0x3dd51e64	0.10406187
166	0xbd9b7108	-0.075899184
167	0xbd296c08	-0.041362792
168	0xbdeb7f20	-0.114988565
169	0xbe9591c6	-0.2921278
170	0xbe851bef	-0.25997874
171	0x3e401ddb	0.18761389
172	0xbc9a1650	-0.018809468
173	0x3d723cdd	0.059140075
174	0x3cd7c46c	0.026338778
175	0x3d84a0c1	0.06475974
176	0x3c9a2d1e	0.018820342
177	0x3ce9d095	0.028541842
178	0xbe3144a7	-0.17311345
179	0x3ed557de	0.416686
180	0x3ca6f27d	0.0203793
181	0x3d48bad3	0.049006294
182	0xbe456af3	-0.19279079
183	0xbda59911	-0.08085836
184	0xbebad3d2	-0.3648973
185	0x3ebcbeea	0.36864406
186	0xbe65df71	-0.22448517
187	0xbd95f1c3	-0.07321503
188	0xbe1ea9e5	-0.15494497
189	0xbf0836f2	-0.5320884
190	0x3e84c0fc	0.25928485
191	0xbce7aae1	-0.028279724
192	0xbe9b1619	-0.30290297
193	0xbd5ed82c	-0.054405376
194	0x3e176ed3	0.1478837
195	0xbd0aed80	-0.033917904
196	0x3cee8a5d	0.029118711
197	0xbd197e7c	-0.03747414
198	0x3dcff9c7	0.10155063
199	0xbbca07e6	-0.0061654923
200	0x3c630369	0.0138557935
201	0xbebffb4c	-0.37496412
202	0x3e96b930	0.29438162
203	0xbda9ef21	-0.08297563
204	0xbd533a86	-0.051569484
205	0xbe22a612	-0.15883663
206	0xbd905afc	-0.07048604
207	0xbe7470ff	-0.2387123
208	0x3e761463	0.24031214
209	0x3e9ca0d4	0.30591452
210	0xbf4b65d2	-0.7945224
211	0x3e10bcb0	0.14134479
212	0xbe26e691	-0.16298892
213	0x3e00e2c1	0.125865
214	0x3ebace8e	0.36485714
215	0x3f071cc1	0.5277825
216	0x3efba782	0.49151236
217	0x3c48615d	0.012230244
218	0xbd08408b	-0.033264678
219	0x3d1b7366	0.03795185
220	0x3bebe87b	0.0071993447
221	0xbca2aeed	-0.019858802
222	0xbd9a788f	-0.07542526
223	0xbcd8131f	-0.026376305
224	0x3e40ca33	0.18827133
225	0x38e16562	0.0001074772
226	0x3dc27b65	0.09496192
227	0x3cef0123	0.029175347
228	0x3e883c5f	0.2660856
229	0x3e21c4ba	0.15797701
230	0x3e0abd3b	0.13548748
231	0xbf2d956d	-0.6780613
232	0x3e4e8cd5	0.2017091
233	0x3dd504d5	0.10401312
234	0xbd7499c5	-0.05971696
235	0x3e6f2764	0.2335487
236	0xbe02f914	-0.12790328
237	0xbde9ecf1	-0.11422146
238	0x3e8cdc78	0.27511954
239	0xbe87b908	-0.26508355
240	0xbced248f	-0.028948097
241	0xbd404de8	-0.046949297
242	0xbce5ec4e	-0.02806678
243	0xbc1a7d24	-0.00942925
244	0xbd5b60f2	-0.05355925
245	0xbb1aacdd	-0.002360157
246	0xbc3749db	-0.011187042
247	0xbded0464	-0.11573103
248	0xbcb6cf84	-0.022315748
249	0x3dd14706	0.10218625
250	0x3e06e804	0.13174444
251	0xbd9ba494	-0.0759975
252	0x3cf17b91	0.029477866
253	0x3f0d8d15	0.552934
254	0xbd58d808	-0.0529404
255	0x3e576ac0	0.21036816

layers.0.bias f4 [128]
0	0xbde35652	-0.11100449
1	0xbe1f877e	-0.1557903
2	0xbe6823c0	-0.22669888
3	0xbd1bf9d3	-0.038080048
4	0xbe4bbd56	-0.19896445
5	0x3e0cac0a	0.13737503
6	0xbcdbd986	-0.026837122
7	0xbe9f7523	-0.31144056
8	0x3e692631	0.22768475
9	0x3dede964	0.11616781
10	0xbe57b3f3	-0.21064739
11	0xbee4ce06	-0.44688433
12	0xbe50117d	-0.20319171
13	0xbe658605	-0.22414406
14	0xbc84a4ef	-0.016191928
15	0x3da16b6f	0.078818195
16	0xbc0de707	-0.008661038
17	0xbce37251	-0.027764471
18	0xbe4ba754	-0.1988805
19	0xbe34274c	-0.17593116
20	0x3e9732ae	0.29530853
21	0xbba175c8	-0.0049273707
22	0xbd51be45	-0.051206846
23	0xbe8cbd76	-0.27488297
24	0x3dac46b8	0.08411926
25	0xbce8214e	-0.028336193
26	0x3e31e6c9	0.17373194
27	0xbd070414	-0.032962874
28	0x3e83612c	0.25660074
29	0xbb692d97	-0.0035580152
30	0x3eb209d3	0.3477312
31	0xbe307732	-0.1723297
32	0x3eeccb2a	0.46248752
33	0xbde0a213	-0.10968413
34	0xbddf5c6b	-0.10906299
35	0x3e0ce980	0.13760948
36	0xbe6dba3f	-0.23215578
37	0x3d7a6178	0.06112811
38	0x3e0d365c	0.13790268
39	0xbeca2b98	-0.39486384
40	0x3dd39dd6	0.10332839
41	0xbe90d8ed	-0.282905
42	0x3bd6f225	0.0065596276
43	0xbe7ba941	-0.24576284
44	0x3d59aca1	0.053143147
45	0xbd0ec04a	-0.03485135
46	0xbeca642f	-0.3952956
47	0xbea2d4b4	-0.31802905
48	0x3e9647e7	0.29351732
49	0x3e21ec1c	0.15812725
50	0xbe910edb	-0.28331646
51	0xbe293e96	-0.16527781
52	0x3ebd183f	0.3693256
53	0x3eca79f6	0.39546174
54	0x3dbdc71a	0.09266491
55	0xbe9f0e7e	-0.31065744
56	0x3cfdefb7	0.030998094
57	0xbec31881	-0.38104632
58	0xbb01f122	-0.0019827564
59	0x3eece073	0.4626499
60	0xbddc9656	-0.10770862
61	0x3e3f16c0	0.18661022
62	0xbed5b171	-0.4173694
63	0x3d7545e1	0.059881095
64	0xbe31931f	-0.17341278
65	0x3e7e33e9	0.2482449
66	0xbdc0e90f	-0.094194524
67	0x3d5cec8c	0.053936526
68	0xbea81c2a	-0.32833987
69	0xbe602e5b	-0.21892683
70	0x3e3ae751	0.18252303
71	0xbd239468	-0.039936453
72	0x3ef89320	0.48549747
73	0xbebf74cd	-0.373938
74	0x3e33feac	0.17577618
75	0xbe2f8e2c	-0.17144078
76	0xbee41a3d	-0.44551268
77	0xbea68db6	-0.32529992
78	0xbd801855	-0.06254641
79	0x3e6f8298	0.23389661
80	0xbbdd1915	-0.006747375
81	0xbdb661a7	-0.089053445
82	0x3e041333	0.12897949
83	0xbdfa3cfc	-0.12218663
84	0xbe96819b	-0.29395756
85	0xbe65f118	-0.22455251
86	0xbdcb7055	-0.09933535
87	0x3e87e3e5	0.26541057
88	0x3e355f9a	0.1771225
89	0xbe93c170	-0.2885852
90	0xbcd8b042	-0.026451234
91	0xbe8ae76e	-0.27129692
92	0x3c9033e8	0.017602876
93	0xbe0cc1a0	-0.13745737
94	0x3b8e8ac1	0.004350037
95	0xbda92cd9	-0.08260507
96	0xbea1a84e	-0.3157372
97	0x3ea6c3b4	0.32571185
98	0xbddf780a	-0.109115675
99	0x3e2fd989	0.17172827
100	0xbdaaa0ac	-0.08331427
101	0xbd8ac5b7	-0.06775992
102	0xbe854540	-0.26029396
103	0x3ef800c7	0.48438093
104	0x3e1a7304	0.15082937
105	0xbcab202f	-0.02088937
106	0x3db33997	0.08751219
107	0x3c95af61	0.018272104
108	0xbe54cb51	-0.20780684
109	0xbe85d970	-0.26142454
110	0x3ea9fe6e	0.33201927
111	0x3eb28370	0.34865904
112	0x3eaa29e2	0.3323508
113	0x3e23da72	0.16001299
114	0x3e4f8740	0.20266438
115	0xbee23909	-0.4418414
116	0x3eb7beb6	0.35887688
117	0x3e925bd1	0.28585675
118	0x3b8da8fd	0.0043231235
119	0x3e9d24b2	0.3069206
120	0x3e0246ee	0.1272237
121	0xbd5538a9	-0.05205599
122	0xbdc350c6	-0.09536891
123	0xbe1cb7d8	-0.15304506
124	0xbda3a3d2	-0.079902306
125	0xbe6c4c95	-0.23076089
126	0x3c77fc09	0.015135773
127	0xbed1942b	-0.40933356

layers.1.weight f4 [128, 128]
0	0x3da512c6	0.080602214
1	0xbdf91b71	-0.12163437
2	0xbd0648ca	-0.03278426
3	0xbd5e3d96	-0.05425795
4	0xbd28b7d6	-0.041190945
5	0x3ca66f75	0.020316819
6	0x3d5e3202	0.05424691
7	0x3d30df60	0.043181777
8	0x3c2edc4e	0.010672642
9	0x3db4456c	0.08802304
10	0xbe164413	-0.14674406
11	0x3c74b677	0.014936081
12	0x3a8444e4	0.0010091332
13	0xbc82cac2	-0.015965823
14	0x3dd74d7c	0.10512826
15	0x3dbc743e	0.09201859
16	0x3cb0624b	0.021531245
17	0xbdd114a1	-0.10209013
18	0xbc9af0f5	-0.018913725
19	0x3d64d4ea	0.055867113
20	0xbd824d6b	-0.063624226
21	0x3ba62ab8	0.0050710104
22	0x3c8cbce1	0.017179908
23	0x3dbe3684	0.09287742
24	0x3d2ce899	0.04221401
25	0xbe236dae	-0.15959808
26	0xbe4fd617	-0.20296513
27	0x3daa1414	0.08304611
28	0x3c252245	0.010078971
29	0xbd76b466	-0.060230635
30	0x3d0bbc41	0.03411508
31	0x3d8cf0f5	0.068818964
32	0x3d449f5d	0.048003543
33	0x3bc63905	0.0060492777
34	0x3dde91a9	0.10867626
35	0xbcf71883	-0.030163055
36	0x3de5915a	0.11209364
37	0xbca7fa68	-0.020505145
38	0xbc1684b2	-0.00918691
39	0xbca7b003	-0.020469671
40	0x3de0821a	0.10962315
41	0x3dc357ab	0.09538206
42	0x3ca95a70	0.020673007
43	0x3da07dac	0.0783647
44	0xbd644a1f	-0.05573475
45	0x3c802312	0.015641723
46	0x3df36262	0.118839994
47	0x3c65ce68	0.014026262
48	0xbc98c377	-0.018647892
49	0x3d16fe9b	0.036863904
50	0xbe13acea	-0.1442143
51	0xbda926e5	-0.08259372
52	0xbcbea096	-0.023269933
53	0xbdc06019	-0.09393329
54	0xbd603e6c	-0.05474703
55	0xbe00aba3	-0.12565474
56	0x3d2c9b25	0.042140145
57	0x3d7d64e7	0.061863806
58	0x3cb9b6f6	0.02267025
59	0xbd813bd3	-0.06310239
60	0x3cc6ae11	0.024252923
61	0x3d7b890c	0.061409995
62	0x3e3795cc	0.17928237
63	0xbdb483f5	-0.08814231
64	0x3e0ed51e	0.13948485
65	0xbc403286	-0.011730796
66	0x3d85f17d	0.06540201
67	0xbd94fa43	-0.07274296
68	0x3c2ebb2a	0.010664741
69	0xbd2e3875	-0.04253431
70	0xbc348310	-0.011017576
71	0x3ddc9260	0.10770106
72	0xbce02de2	-0.027365629
73	0x3d091941	0.03347135
74	0xbd530615	-0.051519472
75	0xbd3a3193	-0.045457434
76	0xbd453920	-0.04815018
77	0xbe149031	-0.1450813
78	0xbd43c026	-0.04779067
79	0x3d1375ee	0.03600114
80	0x3d9b1845	0.075729884
81	0x3d6d4f6f	0.057937082
82	0xbcd38975	-0.02582238
83	0x3e294fac	0.16534299
84	0x3d8b8e22	0.06814219
85	0x3dc42a35	0.09578363
86	0x3d4dc754	0.050238922
87	0xbdce1a3f	-0.100636
88	0xbd591c94	-0.05300577
89	0xbd08b297	-0.03337344
90	0x3d2b7458	0.041859
91	0x3e1eb9f9	0.1550063
92	0xbd26ff56	-0.04077085
93	0xbda7a3c6	-0.08185534
94	0x3db4c317	0.08826273
95	0xbd15453c	-0.03644298
96	0xbe14d1db	-0.14533179
97	0xbc8503fd	-0.016237253
98	0x3c98d1fe	0.01865482
99	0x3d5f9d95	0.05459364
100	0xbd80825a	-0.062748626
101	0x3ce53807	0.027980817
102	0xbd614457	-0.054996815
103	0x3bf466e0	0.0074585527
104	0xbd167ca5	-0.036739964
105	0xbba10620	-0.0049140602
106	0x3d08ae6c	0.033369467
107	0x3d8aa474	0.06769648
108	0xbd8b7d51	-0.068110116
109	0xbca15b93	-0.019696986
110	0xbd865c81	-0.065606125
111	0xbdc29b6b	-0.095023
112	0x3d643e6b	0.05572359
113	0xbdc161d7	-0.094424896
114	0xbc4ee956	-0.012628874
115	0x3da63802	0.081161514
116	0xbd25301c	-0.040329084
117	0xbc0bb79e	-0.0085276645
118	0xbd707b36	-0.058711253
119	0x3ded77ed	0.1159514
120	0x3decdeb8	0.11565918
121	0x3cf0b846	0.029384743
122	0xbdc9cd7d	-0.09853647
123	0x3d26a5ed	0.040685583
124	0xbda26d43	-0.07930996
125	0x3e1633bd	0.14668174
126	0x3da377cf	0.07981836
127	0x3e1951ac	0.14972562
128	0xbdbe2d6c	-0.09286007
129	0x3d880ed2	0.06643452
130	0x3d2e2380	0.042514324
131	0xbd84734c	-0.06467304
132	0xbde2ddfe	-0.11077498
133	0xbcd43927	-0.025906159
134	0x3d9f2a05	0.077716865
135	0xbc4272eb	-0.011868219
136	0xbdc9b328	-0.098486245
137	0x3dd7ff8c	0.105467886
138	0xbddc30d4	-0.10751501
139	0x3d628f72	0.05531258
140	0xbcfa5e77	-0.030562622
141	0xbd3d6f72	-0.04624886
142	0xbd03148f	-0.032002028
143	0x3d16a7ec	0.036781237
144	0xbdd8739f	-0.10568928
145	0xbd50b82f	-0.0509569
146	0x3d7e5649	0.062094007
147	0x3d116a7f	0.035501953
148	0xbc3bf6fd	-0.011472461
149	0xbb1f04c7	-0.0024264322
150	0xbdc8c384	-0.09802917
151	0xbd119c2d	-0.03554933
152	0x3df1d80c	0.11808786
153	0xbcd9be05	-0.026579866
154	0xbc0bba9d	-0.008528379
155	0x3d6d87dc	0.057990894
156	0xbcc4d6da	-0.02402823
157	0xbc10d227	-0.008839167
158	0xbce03779	-0.027370201
159	0x3e0723dc	0.13197273
160	0x3dcb886e	0.09938131
161	0x3c41d16d	0.011829716
162	0x3d8c3a0e	0.068470106
163	0xbdeade93	-0.11468234
164	0x3d45c407	0.04828265
165	0x3db9b9e1	0.09068657
166	0x3d5a4282	0.053286083
167	0xbd583f96	-0.052795015
168	0x3d02f06b	0.03196756
169	0x3da4819b	0.08032533
170	0x3b904f3a	0.004403976
171	0x3e129e6e	0.14318249
172	0xbe362ee4	-0.17791325
173	0x3de2debc	0.110776395
174	0xbe0fd34a	-0.14045444
175	0xbc18f966	-0.009336805
176	0xbdaf6209	-0.085636206
177	0x3c1c8a12	0.009554403
178	0xbce7aeb0	-0.02828154
179	0xbcdecdf0	-0.027197808
180	0xbe0d14f6	-0.13777527
181	0xbdda273d	-0.10652015
182	0xbc7cb447	-0.015423841
183	0x3d5365ba	0.051610686
184	0xbd52ea68	-0.05149308
185	0xbcdf8011	-0.027282747
186	0xbe24988c	-0.16073817
187	0x3d9023db	0.07038089
188	0x3d54a554	0.05191548
189	0x3c06b99c	0.008222964
190	0x3a8ef036	0.0010905329
191	0xbc198760	-0.009370655
192	0x3d1a643d	0.03769325
193	0xbde5a28b	-0.11212643
194	0x3a42a267	0.00074247125
195	0x3d5c1d67	0.053738978
196	0x3d8f3f23	0.06994464
197	0x3d051d65	0.032498736
198	0xbd194f1e	-0.037428968
199	0xbd5d2f5c	-0.054000244
200	0xbcf776e0	-0.030208051
201	0xbe412e7b	-0.18865387
202	0x3cc941f9	0.024567591
203	0x3d7aa6d0	0.06119424
204	0xbd0f372e	-0.034964733
205	0xbc5a5e89	-0.013328203
206	0xbd525971	-0.05135483
207	0x3d7edb3b	0.062220793
208	0x3d655a5a	0.05599437
209	0x3cdf884e	0.027286675
210	0x3dac505e	0.08413766
211	0xbc448e92	-0.011996882
212	0x3e18efef	0.14935277
213	0x3db9886f	0.09059226
214	0x3dbe125e	0.09280847
215	0x3d20cbbf	0.039256807
216	0xbac5d8fa	-0.0015094571
217	0x3d27eabc	0.040995345
218	0xbe125f38	-0.14294136
219	0xbbd67175	-0.006544287
220	0xbc87bde8	-0.016570047
221	0x3c9b2f85	0.018943558
222	0xbe12572f	-0.1429107
223	0xbd44cf28	-0.048049122
224	0xbc8b34cd	-0.01699295
225	0xbcc244d6	-0.023714464
226	0xbddc9377	-0.10770314
227	0x3c71b055	0.0147515135
228	0xbd3fb5ed	-0.046804357
229	0x3ce00fa9	0.027351217
230	0x3c8c6b9e	0.01714116
231	0x3e298a04	0.16556555
232	0x3d0e6848	0.03476742
233	0xbd6680b6	-0.056275092
234	0xbac8112c	-0.0015263907
235	0x3b550ac3	0.0032507635
236	0x3c82090b	0.015873453
237	0x3c8c6992	0.017140184
238	0xbd8e4dba	-0.06948419
239	0x3c54f6b4	0.012998272
240	0x3d02aca5	0.031902928
241	0xbda472ca	-0.08029707
242	0x3cc387f6	0.023868542
243	0x3cfec07d	0.031097645
244	0xbd99ff1a	-0.0751936
245	0x3dc54a76	0.09633343
246	0xbd9e656e	-0.0773419
247	0x3cbadc40	0.022810102
248	0x3d772344	0.060336366
249	0xbd33686c	-0.043800756
250	0xbd305ac9	-0.04305533
251	0xbd684bf9	-0.05671308
252	0xbd3cfb33	-0.046138
253	0xbd570894	-0.052498415
254	0xbc9d278e	-0.0191839
255	0xbd07e4af	-0.033177074

layers.1.bias f4 [128]
0	0xbccdcc3f	-0.025121806
1	0xbcf34904	-0.029697903
2	0xbdabbc4c	-0.08385524
3	0xbcdfcdd4	-0.027319826
4	0xbd15a090	-0.036530077
5	0xbdf762ea	-0.12079413
6	0x3e01127e	0.1260471
7	0x3dbccf8e	0.092192754
8	0xbe0cb907	-0.13742457
9	0xbe0cc5df	-0.13747357
10	0x3d9e1a52	0.07719864
11	0xbe0e1e24	-0.13878685
12	0xbdbfbf5a	-0.09362669
13	0xbd014c37	-0.031566825
14	0x3d9ea831	0.07746924
15	0x3cd2aafc	0.025716297
16	0xbe001b5e	-0.1251044
17	0x3c9e1439	0.019296752
18	0xbcb8da71	-0.022565098
19	0x3d042bfe	0.032268517
20	0x3d975aa4	0.07390335
21	0xbdbbeda6	-0.09176187
22	0x3874ea35	5.8392256e-05
23	0xbcad5366	-0.021157932
24	0x3e55641e	0.20838973
25	0x3d17f426	0.037098072
26	0xbe03fa62	-0.12888482
27	0xbdea6711	-0.114454396
28	0xbdb1461b	-0.0865595
29	0xbc8cce62	-0.017188255
30	0x3d224adb	0.03962217
31	0x3dae5e57	0.08514088
32	0xbd267211	-0.040636126
33	0x3d3498dc	0.04409109
34	0x3d5edb7d	0.05440854
35	0xbc7a5253	-0.015278417
36	0x3df5118d	0.11966238
37	0xbdd4afe9	-0.10385115
38	0x3de106ee	0.1098765
39	0x3dcb2fa0	0.09921193
40	0xbdb76ef7	-0.08956712
41	0xbd037652	-0.03209526
42	0x3e06f12f	0.13177942
43	0xbc82cd56	-0.015967052
44	0xbe136862	-0.14395288
45	0x3d7175f2	0.058950372
46	0xbd85ade9	-0.06527311
47	0xbe429fac	-0.19006222
48	0xbdbe6af3	-0.09297743
49	0x3cb9433b	0.022615066
50	0x3cbd0c27	0.023077084
51	0xbd4897bf	-0.04897284
52	0xbdbb1b38	-0.09136051
53	0xbdace9ed	-0.08443055
54	0x3cd83227	0.026391102
55	0xbdcb7ba3	-0.09935691
56	0x3d9bb5db	0.076030456
57	0xbda2d7b0	-0.079512954
58	0x3d6762ce	0.056490712
59	0xbe174fd0	-0.1477654
60	0xbd7dfd1a	-0.062008955
61	0x3d9266f8	0.07148546
62	0xbd7fcfb9	-0.06245396
63	0xbdaf578e	-0.085616216
64	0xbe132b5b	-0.14372008
65	0x3c147e08	0.009063251
66	0x3d6d214d	0.057893086
67	0x3d402a5b	0.046915393
68	0xbc9e5cb5	-0.019331316
69	0xbda7e326	-0.08197622
70	0xbd77d405	-0.060504932
71	0xbd60ea05	-0.05491068
72	0xbce720f5	-0.028213957
73	0x3c8a0609	0.01684858
74	0x3d8d6cfd	0.069055535
75	0xbe062afb	-0.13102333
76	0xbe26a932	-0.1627548
77	0x3dd874b3	0.105691336
78	0xbd603c83	-0.05474521
79	0xbe5a9d74	-0.21349126
80	0xbc06a95c	-0.008219089
81	0x3b738906	0.003716053
82	0x3e165516	0.14680895
83	0x3e0d7a52	0.13816193
84	0x3d96d80a	0.07365425
85	0x3b288aa1	0.0025717395
86	0xbda22379	-0.07916922
87	0x3d37ac73	0.044842195
88	0x3bdb24ce	0.006687737
89	0xbd170ddb	-0.036878448
90	0xbda0d532	-0.07853164
91	0x3decf37c	0.115698785
92	0x3d65a36d	0.056064058
93	0xbcb84438	-0.022493467
94	0xbde0c2ce	-0.10974656
95	0x3d135990	0.035974085
96	0x3d335bba	0.04378865
97	0xbbee784a	-0.007277523
98	0xbe3f9f79	-0.18713178
99	0xbcbb9b36	-0.022901159
100	0xbd18e0ed	-0.03732388
101	0x3d919905	0.07109264
102	0xbd901472	-0.0703515
103	0xbdc40ac1	-0.09572364
104	0x3da9537b	0.08267876
105	0xbcf84eee	-0.030311074
106	0xbdb33a47	-0.0875135
107	0xbda95d50	-0.08269751
108	0x3cdba09c	0.026809983
109	0xbd716be1	-0.058940772
110	0x3df25e5f	0.11834406
111	0x3ce9c6b7	0.028537137
112	0xbd8eabb2	-0.06966342
113	0x3c5fceea	0.013660172
114	0x3df465b4	0.11933461
115	0xbdd3221b	-0.103092395
116	0x3ad43b08	0.0016191909
117	0xbdb91351	-0.090368874
118	0xbe3f84ef	-0.18703054
119	0xbd061b77	-0.032741036
120	0xbcd395ad	-0.025828207
121	0xbd394ef9	-0.04524133
122	0x3e10956c	0.141195
123	0x3e3ee660	0.18642569
124	0x3c42b0c1	0.011882962
125	0xbdf68eeb	-0.12038978
126	0x3da98036	0.082764074
127	0xbdc1ad71	-0.094569094

layers.2.weight f4 [64, 128]
0	0x3e11b321	0.14228489
1	0xbda502b5	-0.08057157
2	0xbcb2ff0f	-0.021850137
3	0x3d97ff60	0.07421756
4	0xbd334f74	-0.043776944
5	0xbcf5755c	-0.029963188
6	0x3d8dd547	0.06925445
7	0x3dd59a10	0.10429776
8	0x3d56270e	0.05228334
9	0x3dabaa4b	0.0838209
10	0x3cf2703c	0.029594533
11	0xbb8966cd	-0.004193163
12	0xbd467a6b	-0.04845659
13	0x3d07da13	0.033166956
14	0x3db0dd5e	0.086359724
15	0xbcbdc9be	-0.023167487
16	0x3dffd48d	0.12491713
17	0x3d10693a	0.035256602
18	0x3d22d67f	0.03975534
19	0xba651e52	-0.0008740175
20	0x3cdeb924	0.027187891
21	0x3d85075b	0.064955436
22	0x3ca13e51	0.019683035
23	0x3dd45aa7	0.10368853
24	0x3d396a38	0.045267314
25	0xbddb83df	-0.10718512
26	0xbd97531d	-0.073888995
27	0xbd96676f	-0.07343947
28	0xbd41d91c	-0.047326192
29	0xbd6e5448	-0.058185846
30	0x3baa389b	0.005194736
31	0x3d221fa5	0.03958096
32	0xbdd50748	-0.104017794
33	0x3dae9e14	0.08526245
34	0x3da1af5b	0.078947745
35	0xbd802c98	-0.062585056
36	0x3da1d3af	0.079017036
37	0xbd5e4906	-0.05426886
38	0x3e0b58d0	0.13608098
39	0x3dd0f455	0.10202853
40	0xbd42ac61	-0.047527675
41	0x3e24eaa7	0.16105138
42	0xbd5cf413	-0.053943705
43	0xbd4db744	-0.050223604
44	0xbb862e0f	-0.004094846
45	0x3dbfd389	0.09366519
46	0xbcacb404	-0.021081932
47	0x3e501ae3	0.20322756
48	0xbddcff26	-0.10790853
49	0x3d6a290a	0.057168044
50	0x3d58cdcd	0.052930642
51	0x3e0e6a74	0.13907796
52	0xbc71c97f	-0.014757513
53	0xbc80b04b	-0.015709063
54	0x3cce518c	0.025185369
55	0x3d8bac79	0.06820006
56	0xbabcd3e7	-0.0014406414
57	0x3b83ac99	0.004018378
58	0x3d792078	0.06082198
59	0xbd263f77	-0.04058787
60	0xbd0f3107	-0.034958865
61	0xbd3f7c90	-0.04674965
62	0xbd32cc03	-0.043651592
63	0xbd9a9bb0	-0.07549226
64	0x3d986328	0.074407876
65	0xbe0c8b74	-0.13725072
66	0x3dca14c8	0.09867245
67	0x3d99f168	0.07516748
68	0xbd120ae2	-0.03565491
69	0xbdd7a226	-0.10528974
70	0x3c28d953	0.01030572
71	0x3d88d69a	0.06681557
72	0x3d26ad45	0.040692586
73	0xbdb6df5f	-0.089293234
74	0x3e2c0579	0.16798963
75	0x3b38bd75	0.0028189097
76	0x3d093f34	0.03350754
77	0xbd332ee2	-0.043745883
78	0x3de24188	0.11047655
79	0xbdf2425e	-0.11829065
80	0x3dfa03b5	0.12207738
81	0x3d65cee7	0.05610552
82	0x3d93c765	0.07215766
83	0x3c7641f9	0.015030378
84	0x3d36324d	0.044481564
85	0xba4cf250	-0.000781809
86	0xbdaea7cf	-0.08528101
87	0x3d813df8	0.06310648
88	0xbd48fdc9	-0.049070153
89	0x3c8dfbf7	0.01733206
90	0x3dbc8b68	0.09206277
91	0x3dcf9aff	0.10136985
92	0x3d0b90fc	0.034073815
93	0x3e077d22	0.13231328
94	0xbdc2f4fd	-0.09519384
95	0x3dd65cbc	0.104669064
96	0xbd0b0e9a	-0.033949472
97	0x3da28c32	0.079368964
98	0x3acaf141	0.0015483276
99	0x3c9a6b48	0.018849984
100	0xbdaf8cdc	-0.08571789
101	0x3d616c1b	0.055034738
102	0x3dde7385	0.10861877
103	0xbae758d1	-0.0017650371
104	0x3d8ca1b2	0.068667784
105	0xbc40264a	-0.011727879
106	0xbe0d8295	-0.13819344
107	0xbcb4a237	-0.022050006
108	0xbc44a6bd	-0.012002644
109	0x3c6c6c21	0.014430077
110	0xbbc9f12d	-0.0061627836
111	0x3cc0c45b	0.02353113
112	0x3d184d53	0.037183117
113	0xbda4e272	-0.080510035
114	0xbda59ea0	-0.08086896
115	0xbe0c91c6	-0.13727483
116	0x3d791c60	0.060818076
117	0x3e008421	0.12550403
118	0xbe0b029e	-0.13575217
119	0x3bd06f91	0.006360956
120	0xbdd6b2fe	-0.10483359
121	0x3da869fc	0.0822334
122	0x3d297c6b	0.04137842
123	0x3d5cadf2	0.053876825
124	0x3dcdcbd7	0.10048645
125	0xbd5a92a2	-0.053362496
126	0x3e0f4e0f	0.1399462
127	0xbc34e8fe	-0.011041878
128	0xbd3d5eba	-0.046232916
129	0xbd692666	-0.056921385
130	0x3d9b5450	0.07584441
131	0x3e4ed1b2	0.2019718
132	0x3dc4aac2	0.09602882
133	0x3d31d8f9	0.043419812
134	0xbdd742e4	-0.10510805
135	0x3da89d17	0.082330875
136	0xbceec58b	-0.02914693
137	0xbbe1b7ff	-0.006888389
138	0xbbe6d30f	-0.007044203
139	0xbdd3ae31	-0.10335959
140	0x39da3729	0.00041621298
141	0xbcc62336	-0.024186712
142	0x3c92ef3f	0.017936347
143	0xbdc177aa	-0.09446652
144	0x3cedebe3	0.029043144
145	0xbd0ffd2b	-0.03515355
146	0xbdd4a08c	-0.103821844
147	0xbde40274	-0.111332804
148	0xbd163944	-0.036675707
149	0xbd9b8a3b	-0.07594725
150	0x3d7a0425	0.06103911
151	0x3d2ecd17	0.042676058
152	0xbcd7c880	-0.026340723
153	0xbd04802a	-0.03234879
154	0xbd515f00	-0.05111599
155	0xbd587b6c	-0.05285208
156	0xbe1381c8	-0.14404976
157	0xbda97faa	-0.08276303
158	0x3d6c31b9	0.057664607
159	0x3b09377b	0.002093761
160	0x3cadac8e	0.021200445
161	0x3d7ebb61	0.062190417
162	0x3be9769d	0.0071247355
163	0x3dbb0eae	0.09133659
164	0x3e0a83f3	0.13526897
165	0xbe0db187	-0.13837253
166	0xbe21072d	-0.15725394
167	0x3cab68d0	0.020924002
168	0xbdb6960f	-0.0891534
169	0x3caebf2f	0.021331398
170	0xbe15b1e5	-0.14618643
171	0x3d9f592e	0.077806816
172	0x3cb5db06	0.022199165
173	0x3e1c67d9	0.1527399
174	0xbe2ad915	-0.16684373
175	0x3e254565	0.16139753
176	0x3d0e2bee	0.034709863
177	0x3e47f913	0.19528608
178	0xbcd53f7c	-0.026031248
179	0x3e2620aa	0.16223398
180	0x3dfd3f44	0.123655826
181	0xbde90b8d	-0.11379156
182	0x3c5c8be6	0.013461089
183	0x3cd520c9	0.02601661
184	0x3db77901	0.089586265
185	0x3d9a42ae	0.075322494
186	0x3d9a740a	0.07541664
187	0xbdb97fa6	-0.0905755
188	0xbc9f4cff	-0.019445894
189	0x3dc56a1f	0.096393816
190	0x3d1ffcd2	0.039059468
191	0xbe1970a4	-0.14984375
192	0x3d3e2a05	0.04642679
193	0xbd5ca135	-0.053864677
194	0xb9d04208	-0.0003972205
195	0x3ca65b9b	0.020307353
196	0x3bfc0c82	0.0076919207
197	0xbd9158c2	-0.07097007
198	0x3ccdef1c	0.02513843
199	0x3ddb2572	0.107005015
200	0x3bac947f	0.0052667256
201	0xbda7be9d	-0.081906535
202	0x3d81b72f	0.063337676
203	0x3d93c742	0.0721574
204	0xbdc70203	-0.097171806
205	0xbd1c69fe	-0.03818702
206	0x3e0a1bbc	0.13487142
207	0xbdece05c	-0.11566231
208	0xbdbea963	-0.09309652
209	0x3e4ffce3	0.20311312
210	0x3df6a81f	0.12043785
211	0x3d711708	0.058859855
212	0xbd82fc68	-0.06395799
213	0x3d7c78c6	0.061638616
214	0xbd1aa67b	-0.037756424
215	0x3cbeffef	0.023315398
216	0x3d2e0b13	0.04249103
217	0xbc5f778c	-0.013639342
218	0x3e0e85b7	0.13918196
219	0x3d200a17	0.039072122
220	0xbdd288cf	-0.102800004
221	0xbd9d9407	-0.076942496
222	0xbd30affd	-0.043136586
223	0x3ddb0dda	0.10696001
224	0x3d1758bd	0.03694986
225	0xbd155199	-0.03645477
226	0xbc36a74f	-0.011148288
227	0x3cd3c617	0.025851293
228	0x3cb90944	0.022587426
229	0x3dd8532f	0.10562741
230	0x3e107647	0.14107619
231	0x3d094488	0.033512622
232	0x3d7154b6	0.058918677
233	0xbde6a9ea	-0.11262877
234	0xbde878a8	-0.11351138
235	0x3daba73d	0.083815075
236	0xbe3031d2	-0.17206505
237	0xbd5d4ce8	-0.05402842
238	0x3dbb27dd	0.09138463
239	0xbd54da7e	-0.051966183
240	0x3d3fe45e	0.046848647
241	0xbcacdf42	-0.021102551
242	0x3cbe23ee	0.023210492
243	0xbc0c5304	-0.008564714
244	0x3a8a7507	0.0010563441
245	0x3e44d4f1	0.19221856
246	0x3ddc3a0e	0.107532606
247	0xbda7f0c4	-0.08200219
248	0xbe1f748c	-0.15571803
249	0xbc915b89	-0.017743843
250	0xbcd64a16	-0.026158374
251	0xbe281e91	-0.1641791
252	0xbd1f6b1c	-0.038920507
253	0x3d63ec50	0.055645287
254	0x3d3ccedc	0.046095714
255	0xbd4c3073	-0.049850892

layers.2.bias f4 [64]
0	0x3d956998	0.07295531
1	0xbd1995e6	-0.03749647
2	0x3c6604b9	0.014039212
3	0x3d61e068	0.05514565
4	0xbc6720d8	-0.014106952
5	0x3da35b84	0.079764396
6	0xbe091882	-0.13388255
7	0x3dc34fdf	0.095367186
8	0xbdd8abac	-0.10579619
9	0xbd994924	-0.074846536
10	0xbcfc518f	-0.030800609
11	0xbc7b17b4	-0.0153254755
12	0xbcaf9b58	-0.021436378
13	0xbce654a2	-0.028116528
14	0xbd1f04e9	-0.038823042
15	0x3de1addb	0.110194884
16	0xbd9c7885	-0.07640175
17	0x3d4a36e0	0.04936874
18	0x3d5a08b5	0.05323096
19	0xbd262c98	-0.04056987
20	0x3dacd86e	0.08439718
21	0x3da60c64	0.08107832
22	0xbd458111	-0.04821879
23	0xbe035b92	-0.128279
24	0x3d61a1c5	0.055085916
25	0xbd8a67de	-0.06758092
26	0xbd31d64d	-0.043417264
27	0xb92178ae	-0.00015399113
28	0x3e1399d5	0.14414151
29	0xbd42f816	-0.047599874
30	0x3d439ea0	0.0477587
31	0xbd9389dd	-0.0720403
32	0x3d914e7b	0.07095047
33	0x3dcd8d2c	0.10036692
34	0x3e1bbfcf	0.15209888
35	0x3d00679f	0.03134882
36	0x3e04d6c7	0.12972556
37	0xbbf4c2d5	-0.007469515
38	0x3c163ef3	0.009170282
39	0x3c654a16	0.013994714
40	0xbda1359d	-0.07871554
41	0x3d85c319	0.065313525
42	0x3d250e8b	0.040297072
43	0x3c80c769	0.015720086
44	0xbd95175f	-0.07279848
45	0xbd87615b	-0.06610366
46	0xbde99aa4	-0.114064485
47	0xbe44b3de	-0.19209239
48	0x3df5503b	0.11978193
49	0xbdf40204	-0.11914447
50	0x3c9f4fb3	0.019447183
51	0xbd123c19	-0.035701845
52	0xbd31967d	-0.043356407
53	0x3e10a960	0.14127111
54	0xbdaf4e72	-0.08559884
55	0xbdf40c68	-0.11916429
56	0x3dff8d93	0.12478175
57	0xbe177af4	-0.14792997
58	0xbd3c49b8	-0.04596874
59	0x3dc08372	0.09400071
60	0xbd73962e	-0.059469394
61	0xbdd65cef	-0.104669444
62	0xbbbec968	-0.0058223493
63	0xbc81386f	-0.01577398

readout.weight f4 [1, 64]
0	0xbed313c2	-0.41226012
1	0xbea5dda5	-0.32395664
2	0xbe26f08e	-0.16302702
3	0x3e94a1be	0.2902965
4	0x3ebfd53e	0.37467378
5	0x3ea9e5c6	0.33183116
6	0xbec298f0	-0.38007307
7	0xbedf4f39	-0.4361513
8	0x3ed2bbae	0.41158813
9	0x3eb69dd8	0.356673
10	0xbe9bc998	-0.3042724
11	0x3ebee5cd	0.372847
12	0xbe9bc250	-0.30421686
13	0xbe6e92e2	-0.23298219
14	0x3ed91664	0.42399895
15	0xbea3ed61	-0.32017043
16	0xbf0239b6	-0.5086931
17	0x3e9519f6	0.2912137
18	0x3edd8c02	0.4327088
19	0xbe6bae6b	-0.23015754
20	0xbe901cc0	-0.28146935
21	0x3e950633	0.29106292
22	0x3e96aafa	0.2942732
23	0x3ea6cc13	0.3257757
24	0xbeb983db	-0.3623341
25	0xbebb0cc1	-0.36533168
26	0xbeb02cee	-0.3440928
27	0x3ea9bc9e	0.33151716
28	0xbe2b4e26	-0.1672903
29	0x3ed84b2d	0.42244855
30	0x3ec219a0	0.37910175
31	0xbda4f61b	-0.080547534
32	0xbe5269e2	-0.20548204
33	0x3ebf162c	0.37321603
34	0xbed2888b	-0.411198
35	0xbed784d7	-0.42093536
36	0x3ea4229a	0.3205765
37	0xbf008033	-0.50195616
38	0xbeb79111	-0.35852864
39	0x3eb2a409	0.34890774
40	0xbea872e2	-0.3290015
41	0xbe1ef4a5	-0.15523012
42	0xbeccacb7	-0.3997552
43	0xbebfbc62	-0.37448412
44	0x3eb2f9fa	0.34956342
45	0x3edc75b5	0.43058553
46	0x3e26cee8	0.16289866
47	0x3e2bbcae	0.16771194
48	0xbe860998	-0.26179194
49	0x3e4fdb71	0.20298554
50	0x3e46f8f8	0.19430912
51	0xbea5fd4d	-0.32419816
52	0xbe11cc29	-0.14238037
53	0xbf19f280	-0.6013565
54	0xbedec28c	-0.43507802
55	0x3eafbc1e	0.3432321
56	0xbe7bf94c	-0.24606818
57	0x3e581a76	0.21103844
58	0x3e14a5ab	0.14516322
59	0x3e3352b3	0.17512016
60	0x3e447331	0.19184567
61	0x3efc8b3f	0.49324986
62	0xbe7cb2ad	-0.24677534
63	0x3ec89958	0.39179492

layers.0.weight f4 [128, 17]
0	0x3e3773bf	0.17915247
1	0xbdaebb70	-0.085318446
2	0xbf33f35f	-0.7029323
3	0x3f29ba10	0.66299534
4	0x3dc06706	0.0939465
5	0x3f2904cf	0.6602296
6	0xbe334546	-0.17506894
7	0xbe711e3d	-0.23546691
8	0xbf11288b	-0.5670249
9	0xbf2cc7c5	-0.67492324
10	0xbeebb53c	-0.46036708
11	0x3bbba677	0.0057266313
12	0x3c56854c	0.013093304
13	0xbc92f5df	-0.017939506
14	0xbcb1794b	-0.021664282
15	0xbcab5fe0	-0.02091974
16	0x3bb00f3a	0.005372909
17	0xbe3779df	-0.17917584
18	0xbe0b23bf	-0.13587855
19	0xbe0af571	-0.13570191
20	0x3f649f28	0.89305353
21	0x3ec855ef	0.39128062
22	0x3f13840e	0.57623374
23	0xbea91805	-0.33026138
24	0x3d7f95f1	0.062398855
25	0xbee1e652	-0.44121033
26	0xbf2c6366	-0.6733917
27	0xbe829fc2	-0.2551251
28	0x3e08f8d6	0.13376173
29	0x3d8962f0	0.06708324
30	0xbe1dab01	-0.15397264
31	0x3d390d8e	0.045178942
32	0x3c054b90	0.008135691
33	0x3c839adf	0.01606506
34	0x3d740a8a	0.059580363
35	0xbc84b3a0	-0.016198933
36	0xbe2a665a	-0.16640607
37	0xbf835774	-1.0261064
38	0x3d121d8f	0.03567272
39	0xbe931144	-0.2872411
40	0x3f002380	0.5005417
41	0x3ee996b6	0.45622796
42	0xbf363d1d	-0.71187
43	0x3efe315a	0.49647027
44	0xbf1c6b92	-0.6110164
45	0xbe4bed54	-0.19914752
46	0xbd088fd8	-0.033340305
47	0x3d666073	0.056244325
48	0xbd228711	-0.03967959
49	0xbda1072c	-0.07862696
50	0xbb873580	-0.0041262507
51	0xbe84446a	-0.25833446
52	0x3d8cd781	0.068770416
53	0xbd2cd8a3	-0.04219879
54	0x3ea1d2f8	0.3160627
55	0x3dc41eb9	0.095761724
56	0xbe0f039f	-0.13966225
57	0xbe2bbff9	-0.1677245
58	0x3e75fbf7	0.24021898
59	0xbe63948f	-0.2222464
60	0x3cd509ba	0.026005615
61	0xbec0d010	-0.3765874
62	0xbd845b80	-0.06462765
63	0x3cfcb07f	0.030845879
64	0x3d0df936	0.034661494
65	0xbd8d047b	-0.0688562
66	0xbd09f382	-0.033679493
67	0x3b840200	0.0040285587
68	0xbeb6cdf8	-0.35704017
69	0xbf2c3dfb	-0.67282075
70	0xbf454e9d	-0.7707308
71	0xbbd1141c	-0.006380571
72	0x3e78fd2f	0.24315332
73	0x3f1cdfb7	0.6127886
74	0x3e67c979	0.2263545
75	0x3e0e13cf	0.13874744
76	0x3e8f3810	0.2797246
77	0xbe0447b9	-0.12917985
78	0xbdd05f92	-0.101744786
79	0x3d0ca554	0.034337357
80	0x3d049930	0.032372653
81	0xbcde5a5d	-0.027142698
82	0x3d6888cb	0.05677108
83	0x3cb92058	0.02259843
84	0x3c4f4c55	0.012652476
85	0x3f03c245	0.51468307
86	0xbf043cd4	-0.51655316
87	0x3d496368	0.049167067
88	0x3eaf60b1	0.34253457
89	0xbe9dca53	-0.30818424
90	0xbe6d098c	-0.23148173
91	0xbe454289	-0.19263662
92	0xbe5155b1	-0.20442845
93	0xbf334e4f	-0.70041364
94	0xbf434d8e	-0.76290214
95	0xbe8892bf	-0.26674458
96	0xbdf2cf39	-0.11855931
97	0x3e74969f	0.23885582
98	0x3e136e32	0.14397505
99	0xbe153923	-0.14572577
100	0xbdcc7564	-0.09983328
101	0xbd8b26b4	-0.067944914
102	0x3e1851d3	0.14874963
103	0x3e645d0a	0.22301117
104	0x3ec0611f	0.37574098
105	0xbf79a97c	-0.9752424
106	0xbc886bdd	-0.016652996
107	0x3e93b9cb	0.28852686
108	0x3dc79c23	0.097465776
109	0xbdbf4a91	-0.09340394
110	0x3cb12f0a	0.021628875
111	0x3eae3eb3	0.3403221
112	0x3f0061df	0.5014934
113	0x3d9338dd	0.0718858
114	0x3e361a7c	0.1778354
115	0xbe0d2b5c	-0.13786072
116	0xbe75375f	-0.23946904
117	0xbe28ebfb	-0.1649627
118	0xbd506237	-0.050874915
119	0xbed704e5	-0.41995922
120	0x3f064e85	0.5246356
121	0xbeebbd32	-0.46042782
122	0xbde843e0	-0.11341071
123	0xbe53c57a	-0.206808
124	0x3e5c9b8b	0.2154371
125	0xbe1e0a52	-0.15433624
126	0xbe0b1040	-0.13580418
127	0xbcc90d4c	-0.024542473
128	0x3e08850c	0.13332003
129	0x3e31ee7a	0.17376128
130	0x3d006ca0	0.031353593
131	0x3e22d9ad	0.15903349
132	0xba62a0f3	-0.0008645199
133	0x3e108dd6	0.14116606
134	0x3d98e09d	0.074647166
135	0xbc85f654	-0.01635281
136	0xbd5372d2	-0.051623173
137	0x3e909e0a	0.28245574
138	0x3e994859	0.2993801
139	0xbd3315f7	-0.04372212
140	0x3e23c233	0.1599205
141	0xbe07cd8f	-0.13262008
142	0x3dd46060	0.103699446
143	0x3d3e0a2b	0.046396416
144	0xbbb9c424	-0.0056691337
145	0xbeb132d2	-0.34609085
146	0xbd8902cf	-0.06689989
147	0xbdfbcec0	-0.12295294
148	0x3e429a95	0.19004281
149	0x3d459c2b	0.048244637
150	0xbd0cde1d	-0.03439151
151	0x3ca4eee5	0.020133445
152	0xbc029ed0	-0.007972434
153	0x3e8e2da9	0.2776921
154	0xbf22ddc0	-0.63619614
155	0xbee87463	-0.45401296
156	0x3ec23ec8	0.37938523
157	0xbe582a3b	-0.2110986
158	0x3e59d189	0.21271338
159	0xbdfd8127	-0.123781495
160	0xbeb10274	-0.34572184
161	0x3f350508	0.707108
162	0xbe4377c9	-0.19088663
163	0xbdef0e3c	-0.11672637
164	0xbe5b5347	-0.21418487
165	0xbe0e15f3	-0.1387556
166	0xbca46cd2	-0.02007142
167	0x3e4032a0	0.18769312
168	0x3dc85bc7	0.0978313
169	0x3d8316ea	0.06400855
170	0xbe98ee60	-0.29869366
171	0x3e9eec95	0.31039873
172	0x3d60013e	0.054688685
173	0x3e3a4173	0.1818903
174	0xbd7be392	-0.061496325
175	0x3ed98dc2	0.42490965
176	0xbe9a248c	-0.30106008
177	0xbc8e4e18	-0.017371222
178	0x3e4cc981	0.19998743
179	0xbc2d3f78	-0.010574214
180	0x3e8934c6	0.26798075
181	0x3eba9c48	0.36447358
182	0xbdd3932e	-0.10330807
183	0xbd9d0be4	-0.076682836
184	0xbcee8261	-0.029114904
185	0x3d87c40f	0.06629192
186	0x3abd7952	0.0014455712
187	0xbd89b0f8	-0.06723207
188	0xbe92d26d	-0.28676167
189	0xbf51bdea	-0.8193041
190	0x3bc2d591	0.0059458693
191	0x3e9950a4	0.29944336
192	0xbf0970c6	-0.53687704
193	0x3ef6ee8b	0.4822887
194	0xbe4532eb	-0.19257705
195	0x3e91b0eb	0.2845529
196	0x3e69202b	0.22766177
197	0x3d213a42	0.0393622
198	0x3e060a0a	0.13089767
199	0xbd45e3ce	-0.048312955
200	0x3c8840f7	0.01663254
201	0xbd92cb00	-0.071676254
202	0x3e2e22af	0.17005418
203	0xbb8695bc	-0.004107205
204	0x3da79856	0.08183353
205	0xbd8daba3	-0.06917503
206	0xbe922aba	-0.28548223
207	0x3fb46fa9	1.4096576
208	0x3f206860	0.62659264
209	0xbe14cb04	-0.1453057
210	0xbeea4717	-0.45757362
211	0xbc635c30	-0.01387696
212	0xbdc7a904	-0.09749034
213	0xbecfec31	-0.40609887
214	0x3db6d052	0.08926453
215	0x3e2a10b1	0.1660793
216	0x3e3dc896	0.18533549
217	0xbe2a2f87	-0.16619693
218	0x3e54e4aa	0.20790353
219	0x3e1dadcd	0.15398331
220	0x3d7d188c	0.061790988
221	0xbf1752fc	-0.59111
222	0x3f4874df	0.7830333
223	0x3ecf6485	0.40506378
224	0x3ee93117	0.45545265
225	0x3c9ba0b0	0.01899752
226	0x3ef56d74	0.4793507
227	0xbd4e24d4	-0.05032809
228	0x3e0a9f4c	0.1353733
229	0x3ea1177d	0.31463233
230	0xbf0f6463	-0.5601255
231	0xbe2095c2	-0.15682128
232	0xba809395	-0.0009809608
233	0x3dafe533	0.08588638
234	0x3c366318	0.011132024
235	0xbdb835b2	-0.089946166
236	0xbbd82b59	-0.0065969643
237	0x3c88e1fe	0.016709324
238	0x3e6017d0	0.21884084
239	0xbd333938	-0.04375574
240	0xbeb08518	-0.34476542
241	0xbf22209b	-0.63331
242	0x3e943126	0.28943747
243	0xbf70c6cf	-0.9405336
244	0xbf304da1	-0.6886845
245	0xbe91962b	-0.28434882
246	0xbf3d22a9	-0.7388101
247	0x3e510e47	0.20415603
248	0xbf197c98	-0.5995574
249	0xbe95866c	-0.29204118
250	0xbe084a95	-0.13309701
251	0xbdc07b99	-0.093985744
252	0xbd01f6f6	-0.03172966
253	0x3bf9b4f6	0.007620449
254	0x3cf7b5aa	0.030237991
255	0xbe8a272f	-0.2698302

layers.0.bias f4 [128]
0	0x3dd99986	0.106249854
1	0x3f0d6a89	0.55240685
2	0xbd68377f	-0.05669355
3	0x3f530fb2	0.82445824
4	0x3f4054a2	0.7512914
5	0xbe853ebc	-0.26024425
6	0xbd84f62f	-0.06492268
7	0x3e3fb8fc	0.1872291
8	0xbf25722b	-0.6462733
9	0x3dcd0529	0.1001075
10	0x3efa869c	0.48930824
11	0x3f09f581	0.53890234
12	0x3ef32747	0.47490904
13	0x3e1b254a	0.15150943
14	0x3e8cb4ad	0.27481595
15	0x3e0405a4	0.12892777
16	0xbdd99fc1	-0.10626174
17	0x3e2b010c	0.16699618
18	0x3f100dd5	0.56271106
19	0xbd4d36e2	-0.05010117
20	0x3e05f4c6	0.13081655
21	0x3f4bfe53	0.7968494
22	0xbed8eb8f	-0.42367217
23	0x3f5c7080	0.8610916
24	0xbee1b61a	-0.44084245
25	0x3f0cd3e4	0.5501082
26	0x3f0c24ac	0.54743457
27	0x3f0b6b89	0.5446096
28	0xbee7977a	-0.45232755
29	0x3f0632c6	0.52421224
30	0x3e302e85	0.17205246
31	0x3eef562f	0.4674544
32	0xbe73dae1	-0.23813964
33	0xbc6a9d05	-0.014319663
34	0xbd901982	-0.07036115
35	0xbf05cec8	-0.5226865
36	0xbe692b4a	-0.2277042
37	0x3f5409c8	0.82827425
38	0xbe3774bb	-0.17915623
39	0xbe0e51a5	-0.13898332
40	0xbe040b83	-0.12895016
41	0xbd97630b	-0.07391938
42	0xbe08c95f	-0.13358067
43	0xbd18960f	-0.037252482
44	0xbe8918cc	-0.2677673
45	0x3d63967d	0.05556344
46	0x3dfff5c1	0.12498046
47	0x3f3ba513	0.7329876
48	0xbea07bff	-0.31344602
49	0x3e537c88	0.20652974
50	0xbe967a0a	-0.29389983
51	0x3f2e62d6	0.6811956
52	0x3ee68e7d	0.45030585
53	0xbeba261b	-0.36357197
54	0x3ed6f7de	0.41985983
55	0xbf0753ec	-0.5286243
56	0x3e459959	0.19296779
57	0xbe1610a6	-0.14654788
58	0xbed32f2c	-0.41246927
59	0x3f3a7e23	0.7284872
60	0x3f2e7e1a	0.68161166
61	0x3ef19ce8	0.47190022
62	0xbe0a7a76	-0.13523278
63	0x3ed5d689	0.4176524
64	0xbef10247	-0.4707205
65	0x3d8bb4b8	0.06821579
66	0xbdcb761a	-0.099346355
67	0xbdaefe5e	-0.085446104
68	0xbdd66a45	-0.10469488
69	0xbd15104a	-0.036392488
70	0x3e284265	0.16431578
71	0x3f10ea68	0.56607676
72	0x3ee92166	0.45533293
73	0xbf04ed71	-0.51924807
74	0x3e397f22	0.18114904
75	0x3e9260ec	0.2858957
76	0xbe53962d	-0.20662756
77	0x3e5d2871	0.21597458
78	0x3e9cc3e2	0.30618197
79	0x3e6ba577	0.23012339
80	0x3ec9eeab	0.39439902
81	0xbf084f73	-0.5324623
82	0x3d05ed88	0.03269723
83	0xbd9e385f	-0.07725596
84	0x3efb98dd	0.49140063
85	0xbdb28f24	-0.08718708
86	0x3f2065c7	0.626553
87	0x3d0fa197	0.035066213
88	0x3ed195a8	0.4093449
89	0xbc1bd44b	-0.009511064
90	0xbe909b7f	-0.28243634
91	0xbeb30db2	-0.34971386
92	0xbea93b17	-0.33052894
93	0x3c069531	0.008214281
94	0x3e90074f	0.28130576
95	0xbebacd64	-0.36484826
96	0xbdc79102	-0.09744455
97	0xbf1e9912	-0.61952317
98	0xbeaf6d73	-0.3426319
99	0x3ef69303	0.48159036
100	0x3e8a4a66	0.27009887
101	0xbe1c8e67	-0.15288697
102	0x3db21e23	0.086971544
103	0xbe4b9395	-0.19880517
104	0x3f378ecd	0.7170227
105	0x3e6eab96	0.23307642
106	0xbd0c34e7	-0.03423014
107	0x3d6c1cf3	0.057644796
108	0x3c2acb50	0.01042445
109	0x3ec09cd3	0.37619647
110	0x3d98f701	0.07468987
111	0x3f82f636	1.0231388
112	0x3e4ea41d	0.20179792
113	0x3f026e52	0.50949585
114	0xbdc2120e	-0.094761
115	0xbe594350	-0.21217084
116	0xbf132630	-0.57480145
117	0x3ee4e45b	0.4470547
118	0x3e74fa06	0.23923501
119	0x3e6d9dc2	0.23204711
120	0x3d48abfb	0.04899214
121	0xbbf0da94	-0.0073502753
122	0x3ec26301	0.3796616
123	0x3df6c14f	0.120485894
124	0x3d2c4767	0.042060282
125	0xbe4fa3b0	-0.20277286
126	0xbdcc450d	-0.09974108
127	0x3e250deb	0.1611859

layers.1.weight f4 [128, 128]
0	0x3dac4d69	0.08413202
1	0x3e1b7fe1	0.151855
2	0x3c89592b	0.016766151
3	0x3d225dd5	0.039640266
4	0x3e9f810e	0.31153148
5	0xbd904be6	-0.070457265
6	0xbce50bc0	-0.027959704
7	0xbe0aa894	-0.1354087
8	0xbe191fb9	-0.14953507
9	0x3e25db2a	0.16196886
10	0xbd2ee37f	-0.042697426
11	0x3c1ce4ba	0.009576017
12	0x3d2a6ea2	0.041609414
13	0xbe377a92	-0.1791785
14	0x3bf83553	0.007574716
15	0x3cc474e8	0.023981526
16	0xbe70921d	-0.23493238
17	0x3d7890d2	0.060684986
18	0xbd3b6801	-0.045753483
19	0xbe44b5ad	-0.19209929
20	0x3b306b8d	0.0026919574
21	0x3dda31ce	0.10654031
22	0xbdf4e5eb	-0.11957916
23	0xbd1c447e	-0.038151257
24	0xbde2f62c	-0.1108211
25	0xbc96ce39	-0.018408882
26	0x3e992f46	0.2991888
27	0xbce09fad	-0.02741989
28	0xbd0027dd	-0.031288017
29	0x3cd931d8	0.026513025
30	0xbd80620d	-0.06268702
31	0xbd332fd2	-0.043746777
32	0x3e10355d	0.14082856
33	0xbdbdf6bd	-0.09275577
34	0x3e12857d	0.14308734
35	0xbe152537	-0.14564978
36	0xbb818893	-0.0039530485
37	0x3e9d857f	0.30765912
38	0x3dcf7949	0.10130555
39	0xbe89a566	-0.26884001
40	0xbcdcc6cb	-0.02695026
41	0x3d5b3a8b	0.053522628
42	0xbe464884	-0.193636
43	0x3e02516f	0.12726377
44	0x3d814c62	0.06313397
45	0xbd9a6f5f	-0.075407736
46	0x3df9650c	0.12177476
47	0xbcce3752	-0.025172863
48	0x3cbce071	0.02305624
49	0xbd91ef12	-0.07125677
50	0xbdab9888	-0.083787024
51	0x3d08df3d	0.03341602
52	0xbe295f57	-0.16540276
53	0xbce461e1	-0.027878704
54	0x3d8686a9	0.06568653
55	0x3c813a1d	0.01577478
56	0xbd345d38	-0.044034213
57	0xbd45cee3	-0.048293006
58	0x3d47833c	0.04870914
59	0xbcf0913d	-0.02936613
60	0xbcf8ed9f	-0.030386744
61	0xbd25b833	-0.04045887
62	0x3ca7b528	0.020472124
63	0x3e1fbdcd	0.15599747
64	0xbd7a5c92	-0.06112344
65	0xbcb2586a	-0.021770675
66	0xbe28268a	-0.16420951
67	0xbdcb871a	-0.09937878
68	0xbcca48ce	-0.02469292
69	0x3bf30dae	0.007417402
70	0xbbd619e3	-0.0065338477
71	0x3d71e4f1	0.059056226
72	0x3db5dfcd	0.08880577
73	0x3dc0990d	0.09404192
74	0x3d943c38	0.07238048
75	0xbbce688a	-0.006299083
76	0xbda40186	-0.08008103
77	0x3d494d87	0.0491462
78	0x3e1507c7	0.14553748
79	0x3e32c42a	0.17457643
80	0x3d81a6d7	0.0633065
81	0x3da3a8e9	0.079912014
82	0xbe807a1b	-0.2509316
83	0xb8e98ab6	-0.00011136143
84	0x3e21efb7	0.158141
85	0x3cf4091c	0.0297895
86	0x3e3cf159	0.18451442
87	0xbdcf443b	-0.10120436
88	0x3c3e671d	0.011621264
89	0x3c0e1565	0.008672093
90	0xbd9bf7f4	-0.07615653
91	0x3d99c2b6	0.07507841
92	0xbe5a37ca	-0.21310344
93	0x3d64255b	0.055699687
94	0x3e0eb208	0.13935101
95	0x3dca8c01	0.09889985
96	0xbe09715d	-0.13422151
97	0x3d85bf60	0.065306425
98	0xbdb19577	-0.08671086
99	0x3df70956	0.120623276
100	0xbbd0ae0c	-0.0063684043
101	0xbdcc9029	-0.09988434
102	0x3dae867a	0.08521743
103	0xbda704b8	-0.08155197
104	0x3e489f25	0.19591959
105	0x3df0527c	0.11734483
106	0x3d9366b3	0.07197323
107	0x3d71e662	0.0590576
108	0x3d5b2291	0.053499762
109	0x3d985225	0.07437543
110	0xbdff59c0	-0.1246829
111	0x3e8780f1	0.26465562
112	0x3d997698	0.07493323
113	0x3e7750dc	0.24151939
114	0xbdf9bbaa	-0.12193997
115	0x3db5a031	0.08868445
116	0xbd42b4ca	-0.047535695
117	0x3e0bc86c	0.13650674
118	0x3e1ec019	0.15502967
119	0x3cb8e9fc	0.02257251
120	0x3c08c233	0.008347082
121	0x3dbd5291	0.09244264
122	0x3e804832	0.2505508
123	0xbdf1aa8b	-0.118001066
124	0xbd0136aa	-0.031546272
125	0x3d55fc8f	0.05224281
126	0xbcf5f5ea	-0.030024488
127	0xbd96f9b5	-0.073718466
128	0x3db4da50	0.08830702
129	0x3d022baf	0.03177994
130	0xbcc16f79	-0.023612725
131	0xbcb3ee5b	-0.021964243
132	0xbd298105	-0.04138281
133	0xbb9fc012	-0.0048751915
134	0x3d0ff3ea	0.035144724
135	0xbdbe00fa	-0.0927753
136	0xbda6aa93	-0.08138003
137	0x3e4aa3c3	0.19789033
138	0xbd4deeec	-0.05027668
139	0x3d5d2ded	0.053998876
140	0x3e0ead6b	0.13933341
141	0x3d2c88c3	0.042122614
142	0xbdc5e834	-0.0966343
143	0x3de681d5	0.11255232
144	0xbc8fe405	-0.017564783
145	0x3d22eb47	0.03977516
146	0xbc858485	-0.016298542
147	0x3d7b7c55	0.06139787
148	0xbd697625	-0.056997437
149	0xbd86bc6d	-0.06578908
150	0xbdcb7840	-0.09935045
151	0xbdfb499f	-0.122699015
152	0x3db0f0dc	0.0863969
153	0x3e0eaee8	0.13933909
154	0xbd006e8e	-0.031355433
155	0x3da20a3f	0.079121105
156	0xbd0a83af	-0.03381699
157	0x3dafbe74	0.08581248
158	0x3d39e215	0.045381624
159	0xbd77f6f8	-0.060538262
160	0xbd7b21e2	-0.06131161
161	0xbdad41a6	-0.08459787
162	0x3c1afbc8	0.009459443
163	0xbb0eed37	-0.0021808872
164	0x3e076324	0.13221413
165	0xbd97f52d	-0.074198104
166	0x3cfc64da	0.030809809
167	0xbdb4a97c	-0.08821389
168	0x3deb4cb1	0.11489237
169	0x3d9f26f8	0.077711046
170	0xbccf2549	-0.025286334
171	0xbd506c9e	-0.050884835
172	0xbe023c4f	-0.12718318
173	0xbd4deae0	-0.050272822
174	0xbc972763	-0.018451398
175	0xbc4691b6	-0.012119701
176	0x3c8b594b	0.017010352
177	0x3d9263ba	0.071479276
178	0x3dc2597b	0.09489723
179	0xbd9233b5	-0.071387686
180	0xbe0f5758	-0.13998163
181	0x3c3c91b2	0.011509346
182	0x3d9c5328	0.07633048
183	0x3e0aef9c	0.13567966
184	0x3b9f0d44	0.0048538763
185	0xbe385402	-0.18000796
186	0xbd4b6f09	-0.04966644
187	0xb7edabac	-2.8332543e-05
188	0xbcfd87d9	-0.030948566
189	0x3e01de5c	0.1268248
190	0x3ca52e17	0.020163579
191	0x3c8c638f	0.017137317
192	0x3d7fed2a	0.062482037
193	0xbda08872	-0.07838525
194	0x3ce1dddf	0.027571617
195	0xbdf3bb9a	-0.119010165
196	0x3dde6cbd	0.10860584
197	0x3dfc4013	0.12316909
198	0x3d3d78f3	0.046257924
199	0xbc927e45	-0.017882476
200	0x3e3d340e	0.18476889
201	0x3d3d9a85	0.04628994
202	0xbdbee33b	-0.093206845
203	0xbe384c8e	-0.17997953
204	0xbb839a4b	-0.004016196
205	0x3ddb6753	0.10713067
206	0x3d4478d1	0.047966782
207	0x3d42b38a	0.047534503
208	0xbde2f853	-0.1108252
209	0x3de0c655	0.10975329
210	0x3d591fc0	0.053008795
211	0x3dd00266	0.101567075
212	0x3df3575b	0.11881896
213	0x3d0efb16	0.034907423
214	0xbd103671	-0.03520817
215	0x3d088614	0.033330992
216	0x3de6f163	0.112765096
217	0xbccb9b37	-0.024854286
218	0x3d8823f8	0.066474855
219	0xbbe3f5e7	-0.006956804
220	0x3d35961b	0.044332605
221	0xbd1a03d5	-0.03760131
222	0xbdcb4464	-0.09925154
223	0x3e32bb0c	0.17454165
224	0x3d39c1d9	0.045350883
225	0xbc189021	-0.009311707
226	0x3cdf88d3	0.027286923
227	0x3ccc0586	0.024904978
228	0x3df9f195	0.12204281
229	0xbe538f5b	-0.20660155
230	0x3d951aad	0.072804786
231	0x3d8c2c04	0.06844333
232	0xbdb99710	-0.09062016
233	0x3d6bb7b1	0.05754823
234	0x3df318cf	0.11869966
235	0xbc6f5ec9	-0.014610001
236	0x3d07d1ab	0.03315894
237	0xbb6893dc	-0.0035488522
238	0x3c6caabe	0.014445005
239	0xbdbc2f97	-0.091887645
240	0x3d558d1d	0.05213653
241	0xbdda3f34	-0.10656586
242	0xbc5db3d6	-0.013531646
243	0xbdd69870	-0.10478294
244	0xbe366fc4	-0.17816073
245	0xbcc5423e	-0.024079438
246	0x3d56f6d5	0.05248149
247	0x3c801602	0.015635494
248	0x3c7bced3	0.015369135
249	0xbd43a57a	-0.047765233
250	0x3cfe7c25	0.031065056
251	0x3d77e73b	0.060523253
252	0xbdbbc94a	-0.09169252
253	0xbd4e5ffe	-0.050384514
254	0x3d50ffb6	0.051025115
255	0xbca62f46	-0.020286214
