Gym-DDPG-solution/results/DDPG_HalfCheetah-v4_4500-eps0.5-t32-l0.0001-s1.pth (torch, 193979 bytes, 13 tensors)

layers.0.weight f4 [128, 23]
0	0x3f045a16	0.5169996
1	0xbe870b24	-0.26375687
2	0xbe3d5b54	-0.1849187
3	0xbe6a69e8	-0.22891963
4	0xbe3e52d2	-0.18586281
5	0x3e9fa8fd	0.31183615
6	0xbcf1abef	-0.02950093
7	0x3cb9fcc8	0.022703543
8	0x3e6137b2	0.21993902
9	0xbd5ad96d	-0.05343001
10	0x3cec011f	0.028809128
11	0x3c14dccb	0.009085844
12	0x3d2d55fd	0.042318333
13	0xbc043f4e	-0.008071734
14	0xbc582c42	-0.013194146
15	0x3b05a27c	0.0020391038
16	0xbc030487	-0.007996685
17	0x3badfbd8	0.005309563
18	0x3cc75c54	0.024336018
19	0x3cb49ac9	0.022046464
20	0xbd3ef2e7	-0.04661837
21	0x3952b5de	0.00020094911
22	0xbd1966ef	-0.03745168
23	0x3da261be	0.07928799
24	0xbe8d3d58	-0.27585864
25	0xbed1fcec	-0.41013277
26	0xbe121165	-0.14264448
27	0xbdcc69af	-0.09981095
28	0xbe3e6966	-0.18594894
29	0xbc3cd779	-0.011525982
30	0x3e284544	0.16432673
31	0xbebbdd38	-0.36692214
32	0x3d8bd0e3	0.06826951
33	0xbe8165e9	-0.25273064
34	0xbd9e54ca	-0.07731016
35	0xbd10e6eb	-0.03537647
36	0x3c562484	0.013070229
37	0xbd478c9f	-0.04871809
38	0xbc6abfb9	-0.014327937
39	0x3c2b11c6	0.010441249
40	0x3da19be6	0.078910634
41	0xbdd171d0	-0.10226786
42	0x3e9a7f6c	0.3017534
43	0xbdb4538b	-0.08804997
44	0xbc0b8950	-0.008516625
45	0x3e519c4f	0.20469783
46	0x3e14ca97	0.14530407
47	0x3cf17de9	0.029478984
48	0xbeb28f8b	-0.3487514
49	0xbcbbe699	-0.022937106
50	0xbe0c0912	-0.13675335
51	0xbdf56ee2	-0.1198404
52	0x3cdddd06	0.027082931
53	0x3c85d18e	0.016335275
54	0xbd84c9da	-0.06483813
55	0x3e1fa987	0.15592013
56	0xbcba6a6c	-0.022755824
57	0xbcab6973	-0.020924306
58	0x3c6fccfa	0.014636273
59	0xbbde3510	-0.006781228
60	0xbc6fe1e3	-0.014641258
61	0xbbf7d25f	-0.00756292
62	0x3c93f7df	0.01806253
63	0x3dea73a3	0.11447837
64	0xbe876545	-0.2644445
65	0xbd8bcd21	-0.068262346
66	0xbd0510e6	-0.03248682
67	0xbd8a6142	-0.06756832
68	0xbe1d9b1d	-0.15391202
69	0xbf26a546	-0.6509594
70	0x3e1902d8	0.14942491
71	0xbe742e7d	-0.23845859
72	0xbe911894	-0.28339064
73	0x3dee4080	0.11633396
74	0x3e9a6edc	0.30162704
75	0xbd30babb	-0.04314683
76	0x3da09805	0.078414954
77	0x3ea2e160	0.31812572
78	0xbe99f089	-0.30066326
79	0x3c0f18f4	0.008733977
80	0xbd2cd5c7	-0.04219606
81	0xbc8c37eb	-0.017116508
82	0xbb0e79d9	-0.0021740107
83	0xbbaefd03	-0.00534022
84	0xbc962d70	-0.018332213
85	0xba0fabfb	-0.0005480644
86	0xbef6b9d8	-0.48188663
87	0x3e084d1f	0.1331067
88	0xbdf49571	-0.11942566
89	0x3dcc0263	0.09961393
90	0x3cdcc90e	0.02695134
91	0xbd701c09	-0.058620486
92	0x3e3b292d	0.18277426
93	0xbdd0f0bd	-0.10202167
94	0x3ee0bd24	0.43894303
95	0x3eed077a	0.46294767
96	0x3ea544f5	0.32279173
97	0xbea2c6f1	-0.31792405
98	0x3d2fa4dc	0.04288183
99	0xbe3cc0a9	-0.18432869
100	0x3ed23a9b	0.41060337
101	0x3e9fd276	0.31215256
102	0x3e874f39	0.2642763
103	0x3da2b66e	0.07944952
104	0x3d734004	0.059387222
105	0xbc8c57e6	-0.017131757
106	0x3d4888d4	0.048958614
107	0x3d0199b5	0.031640727
108	0x3cf1727e	0.02947354
109	0x3dc9b744	0.09849408
110	0xbd5c7aab	-0.053827923
111	0x3dd1d67e	0.10245989
112	0x3ed22b39	0.410486
113	0xbd7d0a12	-0.061777182
114	0x3ce909e6	0.028447103
115	0x3f26d37f	0.6516647
116	0x3d720acf	0.05909234
117	0x3e61e1bf	0.22058772
118	0x3cf3584b	0.029705187
119	0xbe388816	-0.18020663
120	0xbd80dd58	-0.06292218
121	0xbd9ce93f	-0.07661676
122	0x3e29c84e	0.16580316
123	0xbecadd84	-0.39622128
124	0x3dce1a34	0.100635916
125	0x3ded1be7	0.115775876
126	0xbd3c6c52	-0.04600174
127	0xbd51eb7d	-0.05124997
128	0x3b1ecabe	0.002422973
129	0x3d719a8d	0.05898528
130	0x3d86153b	0.06547018
131	0xbaecc88c	-0.0018065139
132	0x3e43a2b3	0.19105034
133	0xbdae7bd9	-0.08519716
134	0x3d0fa734	0.035071567
135	0x3eeaf26c	0.45888078
136	0x3db3a013	0.08770766
137	0xbcd14f9d	-0.025550658
138	0xbc6f783f	-0.014616071
139	0xbe87b20a	-0.2650302
140	0xbe8ff1d0	-0.28114176
141	0x3d776e2e	0.06040781
142	0x3d805436	0.06266062
143	0x3f154a80	0.583168
144	0x3f28b1c6	0.6589626
145	0x3e8296ab	0.25505576
146	0x3df1e769	0.11811716
147	0xbd9268e2	-0.07148911
148	0xbe121897	-0.14267193
149	0x3d930322	0.07178332
150	0x3acfa13a	0.0015840896
151	0x3cf02790	0.02931574
152	0xbd3cff92	-0.04614217
153	0x3d52ed4d	0.05149584
154	0xb994bedd	-0.00028370964
155	0xbe178fe8	-0.1480099
156	0x3c5322d8	0.012886725
157	0xbd5ea8ec	-0.054360315
158	0x3e597e9c	0.21239704
159	0x3da38d49	0.079859324
160	0x3c6b3d59	0.014357888
161	0x3e8cf513	0.27530727
162	0x3d00e484	0.03146793
163	0x3ea2b37c	0.3177756
164	0xbe633bf0	-0.22190833
165	0x3dd5474c	0.104139894
166	0x3cbbb42a	0.022913057
167	0xbd4c92e5	-0.049944777
168	0xbe5ad25b	-0.21369307
169	0xbda33567	-0.0796917
170	0xbe1d9e68	-0.15392458
171	0x3e79564f	0.2434933
172	0x3ca650b1	0.020302149
173	0x3d25a144	0.040436998
174	0x3c0866c5	0.008325283
175	0x3e1b87e5	0.15188558
176	0x3d652e5a	0.055952407
177	0x3bfbe681	0.0076873903
178	0xbe319de6	-0.1734539
179	0x3e1012dd	0.14069696
180	0xbe0c1032	-0.13678053
181	0x3db0b1d7	0.0862767
182	0xbe2605ae	-0.16213104
183	0xbd882060	-0.066468
184	0xbe97160a	-0.29509002
185	0x3f6c9f09	0.9243017
186	0xbedacc0d	-0.42733803
187	0xbec36339	-0.38161638
188	0xbe0210cb	-0.12701719
189	0xbefef2e4	-0.49794686
190	0xbbd8c31d	-0.006615056
191	0x3c470d05	0.0121491
192	0x3d91b1f3	0.07114019
193	0x3e9db447	0.30801603
194	0x3e72252a	0.2364699
195	0xbda900a9	-0.08252079
196	0x3d53b2ad	0.05168407
197	0xbd6fed72	-0.058576055
198	0x3d5f69ba	0.054544188
199	0x3c35de38	0.011100344
200	0x3cf39617	0.029734654
201	0xbdd99283	-0.10623648
202	0x3da78f09	0.08181579
203	0xbdfd2633	-0.123608015
204	0xbd9063c5	-0.070502795
205	0xbc819aa4	-0.015820809
206	0xbd5976da	-0.05309186
207	0x3f15fc4e	0.5858811
208	0x3d2a3032	0.04154987
209	0x3d5762ea	0.052584566
210	0x3f05928c	0.5217674
211	0x3dbdf431	0.092750914
212	0xbf4e1095	-0.8049405
213	0xbdad6791	-0.08467019
214	0x3d43e70f	0.047827777
215	0x3e8f95ec	0.2804407
216	0x3f50abff	0.81512445
217	0xbebb33fe	-0.36563104
218	0xbd360496	-0.044437967
219	0x3dc7ffe9	0.09765608
220	0xbc8e7d22	-0.017393652
221	0x3d498e77	0.04920813
222	0xbd2b3a47	-0.041803624
223	0x3bb44e35	0.005502487
224	0x3c85ddb4	0.016341068
225	0xbcbd5ec9	-0.023116486
226	0x3cc61af8	0.024182782
227	0x3e492bea	0.19645658
228	0xbcd47763	-0.025935834
229	0xbc026fe6	-0.007961249
230	0xbe4e3160	-0.20136023
231	0xbf257280	-0.6462784
232	0x3f00a590	0.5025263
233	0x3e704207	0.23462687
234	0xbe76c807	-0.24099742
235	0xbe1b0e82	-0.15142253
236	0x3d10bbdc	0.035335407
237	0x3d090272	0.033449598
238	0x3eaf2ae8	0.34212422
239	0xbee6bd4f	-0.45066306
240	0xbeb768cf	-0.3582215
241	0x3cf03d94	0.029326238
242	0x3d5e2a69	0.054239664
243	0xbc934acd	-0.017980004
244	0xbd41864b	-0.047247212
245	0x3c986c6d	0.018606389
246	0x3a6ad84b	0.0008958622
247	0xbd29209f	-0.041290876
248	0x3d98109c	0.07425043
249	0x3d8c60f0	0.06854427
250	0x3e10da7d	0.14145847
251	0x3d81cf63	0.06338384
252	0xbcca957e	-0.024729487
253	0x3f16113e	0.5862006
254	0xbe849afb	-0.2589949
255	0xbf0f5972	-0.5599586

layers.0.bias f4 [128]
0	0x3cf60510	0.03003171
1	0xbd5f9b08	-0.05459121
2	0xbedeea09	-0.4353793
3	0xbe55e0cd	-0.20886536
4	0xbe6cb174	-0.23114568
5	0xbe7d95a5	-0.24764116
6	0x3e5d8393	0.21632223
7	0xbeb98dc1	-0.36240962
8	0x3dcbf592	0.09958948
9	0xbec26cc5	-0.3797361
10	0xbe0b3674	-0.13594991
11	0xbe6ee4b1	-0.23329426
12	0xbe6c86bd	-0.23098274
13	0xbea16d9b	-0.31528935
14	0x3e32249b	0.17396776
15	0x3e69f6d7	0.22848068
16	0x3e92f779	0.28704432
17	0xbeca7ab6	-0.39546746
18	0xbeb6d8bb	-0.35712227
19	0xbd490a9f	-0.049082395
20	0x3e8e9e51	0.2785516
21	0x3e0127bd	0.12612815
22	0xbe2b3e0b	-0.16722886
23	0xbe94183d	-0.28924742
24	0xbe6c6ee5	-0.23089178
25	0xbe29832b	-0.16553943
26	0xbe021295	-0.12702401
27	0x3dc3f13b	0.095674954
28	0x3e9c0e7e	0.30479807
29	0x3cbf27bc	0.023334377
30	0x3dd1999c	0.10234377
31	0xbe4bbe89	-0.19896902
32	0x3bb28192	0.005447575
33	0x3d139728	0.036032826
34	0xbe9dbd8f	-0.30808684
35	0xbc722818	-0.014780067
36	0xbeaa21de	-0.33228964
37	0x3e81bcc6	0.25339335
38	0x3e51a0b7	0.20471464
39	0xbdff2e83	-0.12460043
40	0xbe691b97	-0.22764431
41	0xbd9b2558	-0.07575482
42	0xbd37f620	-0.044912457
43	0xbeb0003b	-0.34375176
44	0xbda6c1c5	-0.08142427
45	0xbdd4ea2d	-0.10396228
46	0xbe382002	-0.1798096
47	0xbeb35f2e	-0.35033554
48	0x3d15bdc2	0.03655792
49	0x3ebde1a6	0.3708622
50	0xbeb2c127	-0.3491299
51	0xbecc9bd4	-0.39962637
52	0x3eb6395c	0.35590637
53	0x3b5a8bdf	0.003334753
54	0x3eeda44a	0.46414405
55	0xbe96927b	-0.2940863
56	0xbc178f0e	-0.0092504155
57	0xbdb77e8d	-0.089596845
58	0x3eaddaf9	0.33956125
59	0x3e955ff4	0.2917477
60	0xbe584747	-0.2112094
61	0x3e21deb3	0.1580761
62	0xbf0f958a	-0.56087554
63	0x3dfcee53	0.12350144
64	0xbe6ec3ab	-0.23316829
65	0x3ebd946c	0.370273
66	0xbe2c4094	-0.1682151
67	0xbe3a3b61	-0.18186714
68	0xbe93a480	-0.2883644
69	0xbec11eb3	-0.37718734
70	0x3d36eb9b	0.044658285
71	0x3e21cd01	0.15800859
72	0x3eb24008	0.34814477
73	0xbea598e3	-0.32343206
74	0xbe3f37a8	-0.18673575
75	0xbe23dc73	-0.16002063
76	0xbe475545	-0.19466121
77	0xbd0ff852	-0.035148926
78	0x3e1b4094	0.15161353
79	0xbe45807b	-0.19287293
80	0x3e218795	0.15774377
81	0xbe1799ca	-0.1480476
82	0x3ea97f17	0.33104774
83	0x3e547360	0.20747137
84	0xbbfc0d5c	-0.0076920222
85	0xbe391494	-0.18074256
86	0xbdd17bef	-0.102287166
87	0x3e701767	0.23446427
88	0x3e922af2	0.2854839
89	0xbd8b3dc5	-0.06798891
90	0x3e17eb62	0.14835885
91	0x3d0ea356	0.034823738
92	0xbe144cdc	-0.14482445
93	0xbedd8993	-0.43269023
94	0xbe029fbd	-0.12756248
95	0xbd147a94	-0.036249712
96	0xbe326ade	-0.17423579
97	0x3e21e32a	0.15809312
98	0xbe3c649a	-0.18397751
99	0x3e88e757	0.26738998
100	0xbcfa8e30	-0.030585378
101	0xbe3a8374	-0.18214208
102	0xbea847ee	-0.32867378
103	0x3ea796e7	0.32732317
104	0x3ebd0e92	0.3692518
105	0x3d6c07e5	0.057624716
106	0xbccf7de8	-0.025328591
107	0x3e452d30	0.19255519
108	0xbda0b64a	-0.07847269
109	0xbde38105	-0.11108593
110	0x3e64ee3a	0.22356501
111	0x3f02c264	0.51077867
112	0x3d571f9c	0.05252038
113	0xbcecb65c	-0.02889555
114	0x3e8b2a4b	0.27180704
115	0xbf023427	-0.5086083
116	0x3e79ff12	0.24413708
117	0x3ebe1452	0.37124878
118	0xbd083b75	-0.033259828
119	0x3e920067	0.28515932
120	0x3e3c7359	0.18403377
121	0xbcf631c8	-0.030053034
122	0x3ddff491	0.10935319
123	0x3ee79f45	0.452387
124	0x3e53ae51	0.20671965
125	0xbe97798f	-0.2958493
126	0x3e8c1686	0.27360934
127	0xbe780ecf	-0.24224399

layers.1.weight f4 [128, 128]
0	0x3e268151	0.16260268
1	0xbdc89ee5	-0.09795932
2	0xbde2eaff	-0.11079978
3	0x3d73eae9	0.0595502
4	0x3d3e173d	0.04640888
5	0x3dbc3c7d	0.09191225
6	0x3c4f2f32	0.01264553
7	0x3d83f839	0.06443829
8	0x3cdd607a	0.027023543
9	0x3de90b32	0.113790885
10	0xbde49869	-0.111618824
11	0xbd3dfa61	-0.046381358
12	0x3e02beb6	0.12768063
13	0xbd8a1a55	-0.06743304
14	0x3d4867f3	0.04892726
15	0x3d948ce7	0.072534375
16	0x3cc6fb28	0.024289683
17	0xbd96ff45	-0.073729075
18	0xbce031b9	-0.02736746
19	0x3d4a9193	0.049455237
20	0x3c83e3a9	0.016099768
21	0xbc021b28	-0.007941045
22	0x3d468295	0.048464376
23	0x3c8ce26a	0.017197806
24	0x3d858e73	0.06521311
25	0xbdb09826	-0.0862277
26	0xbe31b08e	-0.17352507
27	0x3d308b98	0.043101877
28	0x3ae289b8	0.0017283475
29	0xbd9de671	-0.07709969
30	0xbd606127	-0.05478015
31	0x3d66d5e7	0.056356337
32	0xbd8edcbb	-0.06975695
33	0x3de54c31	0.11196173
34	0x3d9b9f84	0.075987846
35	0xbd9761eb	-0.07391723
36	0x3c58729b	0.013210918
37	0x3ca2e9fe	0.019886967
38	0xbb946b65	-0.004529404
39	0x3c2c0ede	0.0105015915
40	0x3d0b6089	0.03402761
41	0x3cec6357	0.028855963
42	0x3d4b4a70	0.049631536
43	0x3dba5b9a	0.09099503
44	0xbd9ad9a4	-0.07561043
45	0xbd23b376	-0.03996607
46	0x3d96fc50	0.073723435
47	0x3c341192	0.010990517
48	0xbc908072	-0.017639372
49	0xbcf4b35d	-0.029870683
50	0xbcec08c1	-0.028812768
51	0x3d1025a1	0.035192136
52	0x3dca4f6e	0.09878431
53	0xbd6d3988	-0.057916194
54	0xbd08ca47	-0.03339603
55	0xbd96a848	-0.07356316
56	0xbe01ccfe	-0.12675855
57	0x3e0c21c5	0.13684757
58	0x3cbe8f6c	0.023261748
59	0xbda10b77	-0.07863515
60	0xbd439cd2	-0.047756977
61	0x3e20c435	0.15699847
62	0x3dc9b1a2	0.09848334
63	0x3d0475ee	0.03233903
64	0xbb3f84a6	-0.0029223352
65	0xbd6d05b7	-0.05786678
66	0x3d9f550a	0.07779892
67	0xbcd32ef1	-0.02577922
68	0xbba46626	-0.00501706
69	0x3d369b44	0.044581667
70	0xbc0dad41	-0.008647264
71	0x3dc2a08b	0.095032774
72	0xbd5e1d2b	-0.054227035
73	0x3c9ff952	0.019528065
74	0x3b11f16f	0.002226915
75	0xbd6ac3f2	-0.057315774
76	0xbe444a32	-0.19168928
77	0xbc9e279f	-0.019306002
78	0x3d853f4d	0.06506214
79	0x3d12f424	0.035877362
80	0xbc1e6ad1	-0.009669022
81	0x3dc69906	0.09697156
82	0x3d465d0a	0.048428573
83	0x3d7d8835	0.061897475
84	0xbcddcd81	-0.027075531
85	0x3d2eb1b6	0.042649947
86	0x3d0e4a2f	0.034738716
87	0xbd86d664	-0.065838605
88	0xbddd546a	-0.10807116
89	0xbd1e623b	-0.0386679
90	0x3ce49a67	0.027905656
91	0x3d9d8253	0.07690873
92	0xbd8d75ff	-0.069072716
93	0x3b77e95d	0.0037828304
94	0x3dd60bc8	0.10451466
95	0xbc440d9c	-0.011966135
96	0xbdcee761	-0.10102726
97	0xbd9f66e7	-0.07783299
98	0xbd3f47b5	-0.046699245
99	0x3b951d4b	0.004550611
100	0xbd99c63e	-0.07508515
101	0xbc87e3d5	-0.016588131
102	0xbda46063	-0.08026197
103	0x3e35e12f	0.17761682
104	0xbd896a52	-0.06709732
105	0x3dcd6fcf	0.100310914
106	0x3e063c8a	0.13109031
107	0x3cf1730d	0.029473806
108	0xbe01d039	-0.12677087
109	0xbcf3f33f	-0.029779075
110	0x3d059cbb	0.032620173
111	0xbdc1d899	-0.09465141
112	0xbc0184b5	-0.007905175
113	0xbd1b5cbe	-0.037930243
114	0x3d16ac91	0.036785666
115	0x3d7c279c	0.061561212
116	0xbd19316a	-0.03740064
117	0x3d38ad14	0.045086935
118	0x3b3f086f	0.0029149314
119	0x3de27b88	0.11058718
120	0x3dbc5e5b	0.091976844
121	0xbb0d09d3	-0.0021520748
122	0xbcfe33bf	-0.031030534
123	0x3c6f3beb	0.014601688
124	0xbc8c27b5	-0.017108778
125	0x3d936e86	0.07198815
126	0x3d9a64d6	0.07538764
127	0x3d4fd14b	0.050736707
128	0xbd6ed61c	-0.05830966
129	0x3dce03f0	0.10059345
130	0x3e2c7ad5	0.16843732
131	0xbd9e7532	-0.07737197
132	0xbd052c73	-0.032513093
133	0x3d83a05b	0.0642707
134	0x3c5fa86c	0.013650995
135	0x3dce2d46	0.10067229
136	0xbde9b436	-0.11411326
137	0x3e05db71	0.13071992
138	0x3c732151	0.014839486
139	0x3d9f8b86	0.07790284
140	0xbd0d11e2	-0.034440883
141	0xbdc408fe	-0.095720276
142	0xbcc411f0	-0.023934335
143	0xbd4316e7	-0.047629263
144	0x3c99e22f	0.01878461
145	0x3d083b52	0.033259697
146	0x3dcb4f8a	0.0992728
147	0xbd8f68c5	-0.07002405
148	0xbd0a19a0	-0.033715844
149	0x3db5886e	0.088639125
150	0xbd7e643c	-0.06210731
151	0xbdc37f3e	-0.09545754
152	0x3dc15d00	0.094415665
153	0x3cc1ad70	0.023642272
154	0x3a70c277	0.0009184251
155	0xbe148b64	-0.14506298
156	0xbcadd5f5	-0.021220187
157	0xbd0f417d	-0.034974564
158	0x3d3a68c1	0.045510057
159	0x3e0d52b2	0.13801077
160	0x3d9cc003	0.07653811
161	0xbbee5501	-0.007273317
162	0x3dab437f	0.08362483
163	0xbdb86a81	-0.09004689
164	0xbc37f362	-0.011227461
165	0x3da96964	0.08272055
166	0xbcc02ac7	-0.023457898
167	0xbc4a376c	-0.012342315
168	0xbd034e47	-0.032057073
169	0xbbabadf5	-0.005239243
170	0x3cf5119c	0.029915623
171	0x3d88a111	0.06671346
172	0xbdfdde46	-0.12395911
173	0x3db3d385	0.087805785
174	0xbdee0626	-0.116222665
175	0xbce94641	-0.028475882
176	0xbda25b17	-0.0792753
177	0xbd0a21ac	-0.03372352
178	0xbd324b32	-0.043528743
179	0xbd17715d	-0.036973346
180	0x3df610f5	0.12014953
181	0xbe36c550	-0.17848706
182	0xbd88596d	-0.066576816
183	0x3d9f3807	0.07774358
184	0xbb835cba	-0.0040088566
185	0x3bdde3d2	0.006771543
186	0xbd2d0ba1	-0.04224742
187	0x3dd2b25d	0.10287926
188	0x3d0f73aa	0.035022415
189	0xba0bbd0c	-0.00053305994
190	0xbbb2d834	-0.0054579023
191	0xbcebbda2	-0.028776947
192	0x3dcbcb36	0.09950869
193	0xbe05b197	-0.13056026
194	0xbd7bfb87	-0.061519172
195	0xbd84ad0c	-0.064783186
196	0x3d89bb7c	0.06725213
197	0xbdea39a4	-0.11436775
198	0xbb06a292	-0.0020543677
199	0xbceb0b66	-0.028691959
200	0xbcf5a6dd	-0.029986793
201	0xbde3d77e	-0.11125086
202	0x3d5ea8e6	0.054360293
203	0x3ca544af	0.020174352
204	0x3df64021	0.1202395
205	0xbdb8fff3	-0.090331934
206	0xbdabfa0e	-0.083973035
207	0x3d6c33e2	0.057666667
208	0x3d8a36ba	0.067487195
209	0x3c9dedc7	0.01927842
210	0xbd7d29fa	-0.06180761
211	0xbc622003	-0.0138015775
212	0x3ddf3914	0.10899559
213	0x3dbac17a	0.09118934
214	0xbbb31f18	-0.005466353
215	0xbd35963a	-0.04433272
216	0x3c09e43f	0.0084162345
217	0x3d2ab3db	0.04167543
218	0x3c37e3db	0.011223759
219	0x3d52471b	0.051337343
220	0x3c903526	0.017603468
221	0x3c1ac038	0.009445243
222	0x3c28baca	0.01029844
223	0x3ca525e4	0.02015967
224	0x3d65ca8c	0.056101367
225	0xbe131d79	-0.14366712
226	0xbd06cc66	-0.032909773
227	0x3dd4e489	0.10395152
228	0x3c2d39e2	0.010572882
229	0x3e41c1c5	0.18921573
230	0xbe261a85	-0.16221054
231	0x3d75232c	0.059847996
232	0xbdbc2d73	-0.09188356
233	0x3bf53903	0.007483603
234	0xbc7d64b0	-0.0154659
235	0xbd6f504a	-0.05842618
236	0xbdc14c43	-0.09438374
237	0x3d31cfdc	0.04341112
238	0xbdcd7553	-0.100321434
239	0x3d927e44	0.071529895
240	0x3ba690f7	0.005083199
241	0xbd77941f	-0.060443994
242	0xbd53011c	-0.05151473
243	0x3ca3543f	0.019937633
244	0xbd786e98	-0.060652345
245	0x3d6e251b	0.058140855
246	0xbd5fa8a7	-0.0546042
247	0xbd819822	-0.06327845
248	0x3d431a11	0.04763228
249	0xbd149b8f	-0.036281165
250	0xbe06477d	-0.13113208
251	0x3c3478c8	0.011015125
252	0xbd3f9105	-0.04676916
253	0xbdd5430c	-0.10413179
254	0xbd0bdc33	-0.034145545
255	0x3d5c98fd	0.05385684

layers.1.bias f4 [128]
0	0xbdd2cc20	-0.1029284
1	0xbdd3e01c	-0.1034548
2	0x3ca577c7	0.020198716
3	0xbdb3c493	-0.08777728
4	0x3c29f3d8	0.010373078
5	0xbd1f466e	-0.038885526
6	0x3e1d2c80	0.15349007
7	0x3d851a42	0.06499149
8	0xbdb3137f	-0.08743953
9	0xbdb7e318	-0.089788616
10	0x3db87a00	0.09007645
11	0xbdd40058	-0.10351628
12	0x3d39aff3	0.045333814
13	0xbd28272b	-0.04105298
14	0x3d8fdb0a	0.070242
15	0x3d944693	0.072400235
16	0xbddfa5ba	-0.10920282
17	0xbdab3175	-0.083590426
18	0xbd22ac76	-0.039715253
19	0x3b94c4d9	0.0045400676
20	0x3d0275a2	0.031850465
21	0xbce11317	-0.027474923
22	0xbc00e917	-0.007868073
23	0xbd37ca7a	-0.04487083
24	0x3e259a41	0.16172124
25	0x3dedfd60	0.11620593
26	0xbe1b9fe4	-0.15197712
27	0xbe55b497	-0.20869671
28	0xbc8ed4ce	-0.017435458
29	0xbcadcb9d	-0.021215254
30	0xbdd03c21	-0.10167719
31	0x3d5a5950	0.05330783
32	0x3c2cd691	0.0105492035
33	0x3dc24ca5	0.09487275
34	0x3da4c277	0.08044904
35	0x3dc553f5	0.09635154
36	0xba9cef4d	-0.0011973173
37	0xbe147fb9	-0.14501847
38	0xbc8126a0	-0.015765488
39	0x3e08aac4	0.13346392
40	0xbd39e824	-0.045387402
41	0x3d254078	0.040344685
42	0x3d717914	0.05895336
43	0xbd12b4ed	-0.035817076
44	0xbda93fbd	-0.0826411
45	0xbd1dc883	-0.0385213
46	0x3a3bfc5f	0.000717109
47	0xbe319829	-0.173432
48	0xbde6d376	-0.11270802
49	0xbd13fc07	-0.036129024
50	0xbd69e713	-0.057105135
51	0xbdc4ea3e	-0.09614991
52	0xbd1749fe	-0.0369358
53	0xbdf0db5a	-0.11760588
54	0x3d83c721	0.06434465
55	0xbd94355b	-0.07236739
56	0x3dc79f63	0.097471975
57	0xbd81ec41	-0.0634389
58	0x3d57d569	0.05269376
59	0xbdebb8a0	-0.11509824
60	0xbe110fb7	-0.14166151
61	0x3da33a66	0.07970123
62	0xbe2bb226	-0.16767177
63	0xbe30216f	-0.17200254
64	0xbe17a971	-0.1481073
65	0x3b811465	0.003939199
66	0x3da5f76e	0.08103834
67	0x3dcf685a	0.10127325
68	0xbdb99149	-0.09060914
69	0x3cc9804a	0.024597306
70	0xbdc31aff	-0.095266335
71	0xbd669096	-0.05629023
72	0x3d5ccc9b	0.053906064
73	0x3e069788	0.13143742
74	0xbde0294d	-0.109453775
75	0xbe2d32b8	-0.16913879
76	0xbe240f50	-0.16021466
77	0xbbdfb825	-0.0068273717
78	0x3bab2189	0.0052225036
79	0xbdf9c694	-0.12196079
80	0x3caa02cc	0.020753287
81	0x3d8e8a25	0.06959943
82	0x3e1511b4	0.14557534
83	0x3e6c2eec	0.23064774
84	0x3c20e89d	0.009821084
85	0xbd221f03	-0.039580356
86	0xbca9d49e	-0.020731267
87	0xbd911b3d	-0.070852734
88	0xbd8148df	-0.06312727
89	0x3de2afc2	0.110686794
90	0xbde11b36	-0.10991518
91	0x3d4dc04a	0.05023221
92	0x3da79bf5	0.08184043
93	0x3cc46b35	0.023976902
94	0xbd9d383a	-0.0767674
95	0x3dc1d98d	0.09465323
96	0xbda0d442	-0.07852985
97	0xbdf79f42	-0.12090923
98	0xbe75ac36	-0.23991475
99	0xbe032761	-0.1280799
100	0xbd264dbc	-0.040601477
101	0x3d294206	0.04132273
102	0xbd44eeab	-0.048079174
103	0xbd537543	-0.0516255
104	0x3dd5af3f	0.10433816
105	0x3c7e413f	0.015518486
106	0xbdda18e7	-0.10649281
107	0xbdc09ad9	-0.09404535
108	0xbd031103	-0.031998646
109	0xbcbc0d11	-0.02295545
110	0x3c98ae70	0.018637866
111	0x3d75fd7b	0.06005619
112	0x3d0450bd	0.03230356
113	0x3d7e7b07	0.062129047
114	0x3df58333	0.11987915
115	0xbd07c4ff	-0.033146854
116	0xbd70f634	-0.058828548
117	0xbdb235a5	-0.08701638
118	0xbe2ad8ae	-0.16684219
119	0xbd221d07	-0.039578464
120	0xbd1f2ab4	-0.038859084
121	0xbd4b63da	-0.049655773
122	0x3e38ef83	0.18060116
123	0x3e325ba7	0.17417775
124	0xbdd953ef	-0.10611712
125	0xbe00b667	-0.12569581
126	0x3d5fca40	0.05463624
127	0xbd6303f0	-0.055423677

layers.2.weight f4 [64, 128]
0	0x3dd6d1ef	0.104892604
1	0x3c428030	0.011871383
2	0xbde06a91	-0.10957826
3	0x3dddd7ac	0.10832152
4	0xbd224d6f	-0.039624628
5	0xbd6f5bef	-0.058437284
6	0x3dccf71e	0.10008071
7	0x3d219c6d	0.03945582
8	0x3c233159	0.009960496
9	0x3df7edce	0.121059045
10	0x3e05562a	0.1302115
11	0x3e27d410	0.16389489
12	0x3d1cd35a	0.038287498
13	0xbd98ec5a	-0.074669555
14	0x3d838031	0.06420935
15	0xbbaa7f4e	-0.005203164
16	0x3cb5c379	0.022187935
17	0x3e0be7c3	0.13662629
18	0x3e1e925b	0.15485518
19	0x3d1be831	0.03806323
20	0x3d580f83	0.052749168
21	0x3dbc9174	0.092074305
22	0x3cd33f79	0.025787102
23	0x3d678fd7	0.05653366
24	0x3d1d6f1f	0.03843605
25	0xbdedc03c	-0.116089314
26	0x3ba49983	0.005023183
27	0x3bb15500	0.005411744
28	0xbdc731f7	-0.09726327
29	0xbd805dff	-0.06267928
30	0x3d9640c7	0.07336574
31	0xbd181287	-0.037127044
32	0xbd9482ff	-0.07251548
33	0x3de9f821	0.1142428
34	0x3df985a2	0.121836916
35	0xbe6518dc	-0.22372764
36	0x3e24834e	0.16065714
37	0x3d514ee7	0.051100638
38	0x3e196c5e	0.14982745
39	0x3dda7e8d	0.10668669
40	0xbe55b4be	-0.20869729
41	0x3e1274b3	0.1430233
42	0xbbcc86be	-0.0062416485
43	0x3c033700	0.0080087185
44	0x3d62e922	0.055398114
45	0x3e049574	0.12947637
46	0x3dadc690	0.084851384
47	0x3cf803f9	0.030275332
48	0xbe1b9542	-0.15193656
49	0x3d4d8d98	0.050183862
50	0x3e683f8a	0.22680488
51	0x3d8adb1f	0.06780075
52	0xbdc72ce8	-0.09725362
53	0xbd060132	-0.032715984
54	0x3dd48fad	0.103789665
55	0x3dbe1f8c	0.09283361
56	0x3a5a3c45	0.0008325021
57	0x3d99ec93	0.07515826
58	0x3daf6b6a	0.085654095
59	0xbd30e5b5	-0.043187816
60	0x3d55d270	0.052202642
61	0xbd2babd1	-0.041911904
62	0xbddc0524	-0.10743168
63	0xbca868e2	-0.020557825
64	0x3e124da2	0.14287427
65	0xbda95b2f	-0.08269345
66	0x3dad686b	0.08467182
67	0x3dc1e291	0.09467042
68	0x3cc9a206	0.024613392
69	0xbe5db0d3	-0.21649484
70	0xbcef0d33	-0.029181099
71	0x3dc1766e	0.09446417
72	0x3dfccf92	0.123442784
73	0xbc5cbd00	-0.0134727955
74	0x3e3b9a66	0.18320617
75	0x3d022ec6	0.031782888
76	0xbd0858af	-0.0332877
77	0x3d01b8ba	0.03167031
78	0x3de3af4f	0.11117422
79	0xbdd257a6	-0.10270624
80	0x3d071e58	0.032987922
81	0x3c56e5e3	0.013116333
82	0xbc4f6f90	-0.012660876
83	0xbd822ff6	-0.06356804
84	0x3da31be2	0.079643026
85	0xbbf85200	-0.0075781345
86	0xbc7c2a62	-0.015390964
87	0x3db0712e	0.08615337
88	0x3bdee582	0.006802262
89	0xbe1374cd	-0.14400025
90	0x3c2eb2df	0.010662763
91	0x3d812bcc	0.06307182
92	0xbce96c6f	-0.028494088
93	0x3ddbca5c	0.10731956
94	0xbd44353a	-0.047902323
95	0x3d99fd0a	0.075189665
96	0xbdfae479	-0.12250609
97	0x3c80fc7d	0.015745396
98	0xbc004b2f	-0.007830425
99	0x3e61d3f6	0.22053513
100	0xbe04ca53	-0.12967806
101	0x3d168655	0.036749203
102	0x3e223a77	0.15842615
103	0x3c3ce544	0.011529271
104	0x3d9cd5b5	0.07657949
105	0x3cd94389	0.026521461
106	0xbe18104b	-0.14849965
107	0xbca65abd	-0.02030694
108	0x3d8fd31f	0.0702269
109	0x3e153c66	0.14573821
110	0x3cb45e89	0.022017734
111	0x3ca239a6	0.01980288
112	0xbdafe527	-0.08588629
113	0xb9c26aed	-0.0003708223
114	0x3cca3268	0.024682239
115	0x3d242dac	0.04008262
116	0x3dba5cc6	0.090997264
117	0xbd2213f7	-0.03956982
118	0xbdca4c33	-0.09877815
119	0x3c90280b	0.017597219
120	0x3d330c7c	0.043713078
121	0x3ce37e0f	0.02777007
122	0x3c8db863	0.017299837
123	0xbd59569c	-0.053061113
124	0x3d18350d	0.03715997
125	0x3d04ee32	0.032453723
126	0xbbbea951	-0.005818524
127	0x3e0f6e94	0.14007026
128	0xbda0c164	-0.07849386
129	0x3c836e79	0.016043888
130	0xbc8586e4	-0.016299672
131	0x3df761a5	0.12079171
132	0x3c78b874	0.015180696
133	0x3b27a73d	0.002558186
134	0x3c3d8344	0.011566941
135	0xbd584447	-0.05279949
136	0xbd797ed5	-0.060911972
137	0xbd107e20	-0.035276532
138	0xbc380037	-0.01123052
139	0x3c8e952c	0.017405115
140	0xbc96ec5e	-0.018423256
141	0xbe43eae6	-0.19132575
142	0xbc8365b1	-0.016039701
143	0xbcdf2217	-0.027237935
144	0xbdad677f	-0.08467006
145	0xbe02d738	-0.12777412
146	0xbc4fb01a	-0.012676263
147	0xbcb7f6de	-0.022456583
148	0xbd846e67	-0.0646637
149	0x3b4d1e2f	0.0031298508
150	0x3d01c2ac	0.031679794
151	0xbce11d7e	-0.027479883
152	0xbc4c5714	-0.012471933
153	0x3cd474c3	0.025934583
154	0xbc233c1c	-0.009963062
155	0xbd7ee639	-0.062231276
156	0xbdec54b0	-0.1153959
157	0xbd46acf1	-0.048504774
158	0x3ddf211e	0.108949885
159	0x3db1403f	0.08654832
160	0x3d60fd0a	0.054928817
161	0x3d9485a6	0.07252054
162	0x3db03f57	0.08605831
163	0xbb3be3bf	-0.0028669683
164	0x3d2f1696	0.04274615
165	0xbc2fe92a	-0.010736743
166	0x3bfab202	0.0076506147
167	0x3d5d83dc	0.05408083
168	0xbde65cdc	-0.1124818
169	0xbd0935a1	-0.03349841
170	0xba7ccb7f	-0.00096433604
171	0x3d7deee4	0.061995402
172	0x3d69bd5d	0.057065357
173	0x3df0621e	0.11737464
174	0xbd8e9d55	-0.069636025
175	0xbdb63ca1	-0.08898283
176	0x3ce753c1	0.02823818
177	0x3dddb343	0.10825207
178	0x3c662e7c	0.014049169
179	0x3dd2c62a	0.10291703
180	0x3cb621f2	0.022232983
181	0xbd8f7dec	-0.070064396
182	0xbd4a9616	-0.04945954
183	0x3d60c0ca	0.054871358
184	0x3aacfdc2	0.0013198184
185	0x3d8ffa2c	0.070301384
186	0x3c15768e	0.009122504
187	0xbdb144ea	-0.086557224
188	0x3d5b87bf	0.053596254
189	0x3c216f0f	0.009853139
190	0xbd87bdbf	-0.06627988
191	0xbd964d90	-0.073390126
192	0x3d206d27	0.039166596
193	0xbc68cdc8	-0.014209218
194	0xbdd4efa7	-0.103972726
195	0x3cd7de26	0.026351046
196	0x3dac7448	0.084206164
197	0xbdc96cc5	-0.09835199
198	0xbd49fe77	-0.049314942
199	0x3c747b0b	0.014921914
200	0x3d4f1df1	0.050565664
201	0x3d0e4355	0.03473218
202	0x3d4e9b70	0.050441206
203	0x3d3881b5	0.045045573
204	0xbe22b0c4	-0.15887743
205	0x3cb36584	0.021898992
206	0x3d9d285c	0.076737136
207	0xbe0ed3c5	-0.13947971
208	0xbde79418	-0.113075435
209	0x3d5c0c7f	0.053722855
210	0x3da8b0b2	0.08236827
211	0xbd0d68c6	-0.034523748
212	0xbd14b9f1	-0.03631014
213	0xbd8f20aa	-0.06988652
214	0xbcae62c5	-0.021287331
215	0x3e14e9e6	0.1454235
216	0xbc805a3a	-0.015668023
217	0xbd969011	-0.07351697
218	0x3d645d4d	0.05575304
219	0x3d3266ac	0.043554947
220	0xbde3228d	-0.110905744
221	0xbe00eb5a	-0.1258978
222	0xbc08bc34	-0.008345652
223	0x3e1124a6	0.14174137
224	0xbdbe3eb5	-0.09289304
225	0xbe74b43c	-0.23896879
226	0xbc0e5cae	-0.008689089
227	0x3e188c56	0.14897284
228	0x3b6023c2	0.0034201
229	0x3da77c6e	0.0817803
230	0x3d33832e	0.043826275
231	0x3e2dc3e4	0.16969258
232	0x3e1365b1	0.14394261
233	0x3d9e3fd8	0.07727021
234	0xbd8f7aed	-0.07005868
235	0x3d0841c3	0.03326584
236	0xbe363655	-0.17794164
237	0x3d8cf1d7	0.06882065
238	0x3dd3b221	0.1033671
239	0xbce3ed93	-0.027823245
240	0xbd5d75b5	-0.054067332
241	0x3df32a58	0.11873311
242	0xbbdd1998	-0.006747436
243	0x3df487fe	0.11940001
244	0x3d81893e	0.06325005
245	0x3d903b45	0.07042555
246	0x3d1f3924	0.038872853
247	0xbda01a3e	-0.07817505
248	0xbd50ca75	-0.050974328
249	0xbdf59b11	-0.11992467
250	0x3c98e302	0.018662933
251	0xbcf4d231	-0.029885383
252	0xbbdadab6	-0.0066789044
253	0x3d5d201b	0.053985696
254	0xbaf293ea	-0.0018507217
255	0x3d0bee7e	0.03416299

layers.2.bias f4 [64]
0	0x3d64dbf1	0.055873815
1	0xbca2d0b0	-0.0198749
2	0x3bed467a	0.0072410675
3	0x3d19004c	0.0373538
4	0xbd23819c	-0.039918527
5	0x3ca945fa	0.02066325
6	0xbd8bb341	-0.06821299
7	0x3ca07c04	0.019590385
8	0xbdaf86aa	-0.08570607
9	0xbd60a302	-0.054842956
10	0xbb48f1ce	-0.0030661705
11	0xbcaf785e	-0.0214197
12	0xbce5f4bc	-0.0280708
13	0xbc0a6370	-0.008446559
14	0xbd45f103	-0.04832555
15	0x3d9dc883	0.0770426
16	0xbd04fd5c	-0.032468185
17	0x3d22e0a9	0.039765034
18	0x3d1ce291	0.038302008
19	0xbd1b3791	-0.03789479
20	0x3dae344b	0.08506068
21	0x3d4e8af7	0.050425496
22	0xbda61f43	-0.081114314
23	0xbdd6f057	-0.1049506
24	0x3d71ad2b	0.059003036
25	0xbd147d8b	-0.03625254
26	0xbca71a45	-0.020398268
27	0xbce0602a	-0.027389605
28	0x3d8c4eb2	0.068509474
29	0xbd99c96f	-0.075091235
30	0x3d0b82d0	0.0340603
31	0xbd91d2a2	-0.07120253
32	0x3d899d8f	0.06719505
33	0x3d2bbf9a	0.041930772
34	0x3dc4f637	0.09617274
35	0x3cbbc5b1	0.022921415
36	0x3d991727	0.07475119
37	0x3b169360	0.0022976026
38	0x3c401a87	0.011725075
39	0x3d4ba291	0.049715582
40	0xbd80645c	-0.06269142
41	0x3d8fa6ad	0.07014213
42	0x3d343de3	0.044004332
43	0x3c3a64a8	0.011376537
44	0xbdd14e0b	-0.10219964
45	0xbcae9a62	-0.02131385
46	0xbdbb5195	-0.0914642
47	0xbdff4a8e	-0.12465392
48	0x3d8b0f86	0.0679007
49	0xbd5e86f8	-0.054327935
50	0xbc299adc	-0.010351863
51	0x3c91ddbc	0.017805927
52	0xbd333a10	-0.043756545
53	0x3e0a2d51	0.1349385
54	0xbd7b250e	-0.061314635
55	0xbdd86141	-0.10565425
56	0x3c180007	0.00927735
57	0xbddfd938	-0.10930103
58	0xbd34edc2	-0.044172056
59	0x3db89687	0.09013086
60	0xbdd18646	-0.10230689
61	0xbdc2ac07	-0.09505468
62	0xbd0064f4	-0.031346276
63	0xbcfc1b25	-0.030774662

readout.weight f4 [1, 64]
0	0xbeb1c214	-0.34718382
1	0xbeb44aa4	-0.35213196
2	0xbe5c0e24	-0.21489769
3	0x3ec71f4c	0.38891065
4	0x3efd9e0c	0.49534643
5	0x3edbe5b7	0.42948696
6	0xbef49ae3	-0.4777442
7	0xbea70b7a	-0.32625943
8	0x3eadaa95	0.33919206
9	0x3edd3d5e	0.43210882
10	0xbec467ca	-0.38360435
11	0x3e8ca4ee	0.2746958
12	0xbd836ea4	-0.064175874
13	0xbe999d1c	-0.30002677
14	0x3ee2737e	0.4422874
15	0xbeb37cdd	-0.350562
16	0xbeb12b18	-0.3460319
17	0x3e4f3134	0.20233613
18	0x3ead5e7c	0.33861148
19	0xbe61e8e0	-0.22061491
20	0xbeab9a92	-0.33516365
21	0x3ee4011a	0.4453209
22	0x3ead8f32	0.33898312
23	0x3eeb22e7	0.45925066
24	0xbec5501a	-0.38537675
25	0xbec1071a	-0.3770073
26	0xbeaf8d26	-0.34287375
27	0x3ed88ace	0.422934
28	0xbea2957c	-0.31754673
29	0x3ecc1f6e	0.3986773
30	0x3e7d03d1	0.24708487
31	0xbe29ee7f	-0.16594885
32	0xbee71836	-0.4513566
33	0x3ed2358b	0.41056475
34	0xbea353ad	-0.31899777
35	0xbec12a75	-0.37727705
36	0x3de6990b	0.112596594
37	0xbf04ba9c	-0.51847243
38	0xbeb18b28	-0.3467648
39	0x3ea2512d	0.31702557
40	0xbf126c5f	-0.5719661
41	0xbef89a06	-0.4855501
42	0xbdad0ab5	-0.08449308
43	0xbec31299	-0.38100126
44	0x3f152b88	0.5826955
45	0x3f0306ee	0.5118245
46	0x3edba3a4	0.42898285
47	0x3f0395bb	0.51400346
48	0xbe3bed1a	-0.18352166
49	0x3ec68c32	0.38778836
50	0x3ef100c9	0.47070912
51	0xbe800966	-0.2500717
52	0xbeb0ecdb	-0.34555706
53	0xbed9d517	-0.42545387
54	0xbec9f0e2	-0.39441592
55	0x3e9ff952	0.31244904
56	0xbe1f84b5	-0.15577967
57	0x3e90b050	0.28259516
58	0x3f133f4a	0.57518446
59	0x3e81c6c3	0.25346956
60	0x3de32fc4	0.11093095
61	0x3f233a25	0.63760597
62	0xbe1e4473	-0.15455799
63	0x3f040bc9	0.5158048

layers.0.weight f4 [128, 17]
0	0x3d9f9250	0.07791579
1	0x3e7cf6c6	0.24703512
2	0x3f100a77	0.5626597
3	0xbedaaf03	-0.42711648
4	0xbdcf07b1	-0.10108889
5	0x3eb904ab	0.36136374
6	0xbd702c41	-0.058635954
7	0x3a9d5397	0.0012003061
8	0x3e4f23b7	0.20228468
9	0xbec91f0d	-0.39281502
10	0x3dba719f	0.09103703
11	0xbc748742	-0.014924826
12	0x3d43e11f	0.047822114
13	0xbc505d8f	-0.012717619
14	0xbd4800f7	-0.048829045
15	0xbc30b14e	-0.01078446
16	0x3b82e9ef	0.003995172
17	0xbeac9c03	-0.33712777
18	0xbf09bbd4	-0.5380223
19	0x3dfb6f33	0.12277069
20	0x3f14a5dd	0.5806559
21	0xbda292a6	-0.07938127
22	0xbf0a4021	-0.540041
23	0xbf178a2a	-0.59195197
24	0xbc884986	-0.016636621
25	0xbda314e3	-0.07962968
26	0xbefd5504	-0.49478924
27	0x3eb5b088	0.35486245
28	0xbdc7bfeb	-0.09753402
29	0x3c1de920	0.009638101
30	0xbc4df620	-0.012570888
31	0x3b5361d9	0.0032254367
32	0xbcde8e64	-0.027167507
33	0x3c92ed22	0.01793534
34	0x3e10ebb6	0.14152417
35	0xbd1e37ff	-0.03862762
36	0x3f291d0b	0.6605994
37	0x3ef12253	0.470965
38	0x3d87056b	0.0659283
39	0x3f6e9a14	0.93203855
40	0x3e976420	0.29568577
41	0x3e929068	0.28625798
42	0xbf04fb03	-0.51945513
43	0xbd94ba2f	-0.07262074
44	0xbdf1111d	-0.11770842
45	0xbb8a59ef	-0.0042221467
46	0x3d37ea57	0.04490122
47	0xbc08a3ba	-0.008339817
48	0x3dd7d7f2	0.10539235
49	0x3cb337eb	0.02187725
50	0x3b9da34b	0.004810726
51	0x3ebf7298	0.37392116
52	0xbe38a968	-0.18033373
53	0x3e91a3e4	0.2844535
54	0x3f1f0abf	0.6212577
55	0x3d048fc3	0.032363664
56	0xbe9318e3	-0.28729925
57	0x3d89317a	0.0669889
58	0x3e560791	0.20901324
59	0xbe72b13f	-0.23700427
60	0xbebadf16	-0.36498326
61	0xbe918912	-0.2842489
62	0x3d563570	0.052297056
63	0x3c9689b6	0.018376213
64	0x3b197081	0.0023413005
65	0xbcd38d1c	-0.025824122
66	0xbd805ab0	-0.06267297
67	0xbcc795f6	-0.0243635
68	0xbd6de33a	-0.05807803
69	0xbf0df0a2	-0.554453
70	0xbd191c8e	-0.037380747
71	0x3d61620c	0.055025145
72	0xbea2babf	-0.317831
73	0xbcacc248	-0.021088734
74	0xbecd478e	-0.40093654
75	0x3d1fbeea	0.03900043
76	0x3ed078e8	0.40717244
77	0xbd9961ce	-0.07489358
78	0xbdf15cd9	-0.117852874
79	0xbe15cb52	-0.14628342
80	0xbdb33341	-0.0875001
81	0xbd001a4a	-0.03127507
82	0x3c68fbb0	0.014220163
83	0x3cd35c76	0.025800925
84	0x3c31998d	0.010839832
85	0x3ea718fa	0.32636243
86	0xbecf6308	-0.40505242
87	0x3ebaa28e	0.36452144
88	0xbe5dfaa2	-0.2167764
89	0xbce9edd7	-0.028555794
90	0xbe0c1f11	-0.13683726
91	0xbec475c0	-0.38371086
92	0xbd0c2d46	-0.034222864
93	0xbec30437	-0.38089153
94	0x3e8eb95c	0.27875793
95	0x3c0608ee	0.00818084
96	0xbe2560e7	-0.16150247
97	0x3e2d557d	0.16927142
98	0x3b8ab9b3	0.004233563
99	0xbe5e2389	-0.21693243
100	0xbde1e7af	-0.11030518
101	0xbc932eab	-0.017966589
102	0x3f214bca	0.6300627
103	0xbd91cd9a	-0.071192935
104	0x3eff41cc	0.49854887
105	0x3d10f957	0.03539404
106	0xbdb868d4	-0.090043694
107	0xbeef7ca9	-0.46774796
108	0x3e5acd4c	0.21367377
109	0xbcafba8e	-0.02145126
110	0x3ef5b4a7	0.4798939
111	0xbd8b383d	-0.06797836
112	0xbcb2086c	-0.021732531
113	0x3e13a13b	0.14416973
114	0xbd6905c1	-0.056890253
115	0xbd14bc2d	-0.03631227
116	0xbb0b5dd4	-0.0021265643
117	0xbd77e73a	-0.06052325
118	0x3d2c5b46	0.042079233
119	0x3c693125	0.014232908
120	0xbe920411	-0.28518727
121	0xbf248078	-0.6425853
122	0xbf0e2213	-0.55520743
123	0xbe2779b3	-0.16355018
124	0x3e913c17	0.28366157
125	0x3d917b3b	0.071035825
126	0x3e57d431	0.21077038
127	0x3f02264b	0.5083968
128	0x3f022721	0.50840956
129	0x3e2f59f7	0.17124163
130	0xbd11e448	-0.035618097
131	0xbcdabdf0	-0.026701897
132	0xbd041d72	-0.032254644
133	0x3d69d333	0.05708618
134	0x3d703563	0.058644664
135	0x3b99713c	0.004682688
136	0x3e32232b	0.17396228
137	0x3ed1a9e2	0.40949923
138	0xbe4874c0	-0.19575787
139	0x3e391452	0.18074158
140	0xbd7c55b9	-0.06160519
141	0xbe2cd1f0	-0.1687696
142	0x3ea3bca7	0.31979868
143	0x3e671ddc	0.22569984
144	0xbeebbe6e	-0.46043724
145	0x3e739891	0.23788668
146	0x3e4f64d0	0.202533
147	0x3bd783ce	0.0065769916
148	0x3cdd9c97	0.027052207
149	0xba17ea75	-0.00057951297
150	0xbcca8424	-0.024721213
151	0x3b58de1f	0.003309138
152	0xba9ee49b	-0.0012122573
153	0x3ee7b6cc	0.4525665
154	0xbe7fad30	-0.2496841
155	0xbfe0351b	-1.7516207
156	0xbf29de50	-0.66354847
157	0x3cbde101	0.02317858
158	0x3e9c5181	0.30530933
159	0xbe3985c6	-0.18117437
160	0x3ca6bf9f	0.020355044
161	0x3e957383	0.2918969
162	0xbe5ccdd3	-0.2156289
163	0x3c4bb87d	0.012434122
164	0xbe22d379	-0.15900983
165	0xbdce2f69	-0.100676365
166	0xbb037c85	-0.0020063233
167	0xbc965717	-0.018352075
168	0xbd61f861	-0.055168513
169	0xbc567f2b	-0.013091843
170	0x3d56539c	0.05232583
171	0xbd8d6780	-0.06904507
172	0x3f18f4f7	0.59748787
173	0xbd380206	-0.044923805
174	0xbd7ce32e	-0.061740093
175	0x3e53f1e0	0.20697737
176	0xbef9b93e	-0.4877414
177	0xbdc79c7c	-0.09746644
178	0x3efd969d	0.4952897
179	0xbec426cc	-0.3831085
180	0x3f06d4e5	0.526686
181	0xbca3f38a	-0.02001359
182	0xbcf062eb	-0.029344043
183	0x3b27c46a	0.002559925
184	0xbca80425	-0.020509789
185	0x3b0f5c9b	0.0021875266
186	0xbd05cdb8	-0.03266689
187	0x3eba26a5	0.36357608
188	0xbebebee0	-0.37255
189	0x3c17c54e	0.00926335
190	0xbeac4a93	-0.33650646
191	0x3d61ba93	0.05510957
192	0x3f856fc1	1.042473
193	0x3da2adca	0.07943304
194	0x3d8696eb	0.06571754
195	0xbeaaa621	-0.3332987
196	0x3e07233b	0.13197033
197	0xbdae468c	-0.085095495
198	0x3d6ef2cf	0.05833703
199	0x3c08560b	0.0083212955
200	0x3cb0b919	0.021572636
201	0x3c0c4a42	0.008562626
202	0xbc1fbcd5	-0.009749611
203	0x3cae74ea	0.021295983
204	0x3e97b76a	0.2963212
205	0xbec9a51e	-0.39383787
206	0x3f3b7677	0.7322764
207	0x3f31762c	0.6932094
208	0x3e19b7dc	0.15011543
209	0xbef963c9	-0.48708943
210	0x3de4ab17	0.11165445
211	0xbe5a4822	-0.21316579
212	0x3eaf79e6	0.3427269
213	0x3ebfbbc0	0.3744793
214	0x3ecca658	0.3997066
215	0xbc53127c	-0.012882825
216	0x3d8f5ed1	0.07000507
217	0xbaacfa2b	-0.0013197114
218	0x3dc137fc	0.09434506
219	0x3d966b2b	0.073446594
220	0x3c64f0f6	0.013973465
221	0x3d6cd7ce	0.057822995
222	0x3e540a5a	0.20707074
223	0x3eb86c25	0.36020008
224	0xbe38aa25	-0.18033655
225	0x3e83746d	0.25674763
226	0xbcce8100	-0.025207996
227	0x3f2bdb9a	0.6713196
228	0xbdce2c19	-0.10067005
229	0x3e826485	0.25467315
230	0x3d334ee8	0.043776423
231	0xbceb56f2	-0.028727982
232	0x3d671825	0.05641951
233	0x3d17e75d	0.03708588
234	0x3cc1d929	0.02366312
235	0x3da3235e	0.0796573
236	0xbc765244	-0.015034262
237	0xbcfb1077	-0.0306475
238	0x3f3f56d9	0.74741894
239	0xbd8decd4	-0.06929937
240	0xbecdf60f	-0.4022679
241	0xbf55375e	-0.8328761
242	0xbe275d62	-0.16344216
243	0xbec27cf3	-0.37985954
244	0x3e3917bc	0.1807546
245	0xbe8cf35e	-0.27529424
246	0xbeba91dc	-0.36439407
247	0x3f743a90	0.9540186
248	0xbe24a34e	-0.16077921
249	0xbd969875	-0.073532976
250	0xbce6f846	-0.028194558
251	0xbbf5dbed	-0.007503024
252	0x3d06b0c3	0.032883417
253	0xbc00edb5	-0.007869174
254	0x3d30720b	0.04307751
255	0x3d61908e	0.0550695

layers.0.bias f4 [128]
0	0x3e8a0d08	0.26963067
1	0x3ee09f3b	0.43871483
2	0xbdee7fda	-0.116454795
3	0x3f166537	0.5874819
4	0x3ed1caa6	0.4097492
5	0xbec3c8c0	-0.38239098
6	0x3ea134d2	0.3148561
7	0x3f134eed	0.57542306
8	0xbedcd640	-0.4313221
9	0x3d56c737	0.05243608
10	0x3e018610	0.12648797
11	0x3edb6412	0.42849785
12	0x3f0dcabe	0.55387485
13	0x3ed156a5	0.40886417
14	0x3e87e614	0.26542723
15	0xbe8fe293	-0.2810255
16	0xbf06c294	-0.5264065
17	0x3d33d566	0.043904684
18	0x3ec7e47d	0.3904151
19	0x3e1fc0fa	0.15600958
20	0x3de1dd8f	0.11028587
21	0x3f1380a3	0.5761816
22	0xbee115b1	-0.43961862
23	0xbdce8709	-0.1008435
24	0xbec87473	-0.39151344
25	0x3ed024fb	0.40653214
26	0x3ecc40cd	0.3989319
27	0x3f581415	0.8440564
28	0xbd69a7f1	-0.057044927
29	0x3f5c3a06	0.86026037
30	0x3d182fcb	0.037154954
31	0xbe5759b0	-0.21030307
32	0xbdaf1eeb	-0.08550819
33	0x3df42d01	0.11922646
34	0x3d07a6bc	0.033117995
35	0xbe6dabfa	-0.23210135
36	0xbef5a771	-0.4797931
37	0x3f11f673	0.57016677
38	0xbf0adaa5	-0.54239875
39	0x3cd9c384	0.026582487
40	0xbbd4ade8	-0.006490458
41	0x3edd02a5	0.4316608
42	0xbd4826b5	-0.04886504
43	0xbe221f1f	-0.15832184
44	0xbde78b5e	-0.11305879
45	0xbc73b689	-0.014875063
46	0x3e15e342	0.14637473
47	0x3ee3887c	0.44440067
48	0xbc8b17df	-0.016979156
49	0x3ebb603b	0.36596856
50	0x3d922a3e	0.07136963
51	0x3e78af10	0.24285531
52	0x3ef798bc	0.48358715
53	0xbeccedd0	-0.40025187
54	0x3e6e138e	0.23249647
55	0xbeedc585	-0.46439758
56	0xbdc5058c	-0.096201986
57	0x3d045b33	0.032313537
58	0x3c1f36b0	0.009717628
59	0xbd8f3180	-0.06991863
60	0x3ec05859	0.37567404
61	0x3f0d7e2a	0.55270636
62	0xbeed3d7c	-0.4633597
63	0x3f548316	0.8301252
64	0x3d707954	0.058709458
65	0xbea9fb92	-0.33199745
66	0x3e9d8057	0.30761978
67	0xbe371214	-0.1787799
68	0xbee87f0a	-0.45409423
69	0xbe61547c	-0.22004884
70	0x3efecbad	0.49764767
71	0x3f37290b	0.71547
72	0xbd921bea	-0.071342304
73	0xbe682c53	-0.22673158
74	0xbebe4246	-0.37159938
75	0x3e044e0d	0.12920399
76	0xbe961478	-0.2931249
77	0xbdbafbdb	-0.09130069
78	0x3dd6e30d	0.10492525
79	0xbf0429a4	-0.5162604
80	0xbe82b94b	-0.25531992
81	0xbe46bc85	-0.19407852
82	0x3c5fa90e	0.013651146
83	0xbe062a1f	-0.13102005
84	0x3f10c1ea	0.5654589
85	0x3d2da49b	0.042393308
86	0x3f09bd8c	0.5380485
87	0xbe1e6afc	-0.15470499
88	0xbe6611e2	-0.22467759
89	0x3e8ee033	0.27905425
90	0xbd9dc4f6	-0.07703583
91	0xbeb8c8f8	-0.36090827
92	0x3cc2f826	0.023799967
93	0x3e524335	0.2053345
94	0x3f1b93fc	0.6077268
95	0xbebf1556	-0.37320966
96	0x3ea0f3c2	0.31435972
97	0xbeb5aa51	-0.35481504
98	0xbe360762	-0.17776254
99	0x3e19c6ce	0.15017244
100	0x3f02011a	0.5078293
101	0xbeefccfe	-0.46836084
102	0x3ee35fd2	0.44409043
103	0x3e447df7	0.19188677
104	0x3f513ad1	0.8173037
105	0xbe841ab3	-0.2580162
106	0xbe849b88	-0.2589991
107	0xbed655bf	-0.41862294
108	0x3eda7aae	0.42671722
109	0x3f311cf3	0.691848
110	0x3ea1cb4f	0.31600425
111	0x3e4fc5b4	0.20290262
112	0xbe206ae7	-0.1566578
113	0x3ee7b807	0.4525759
114	0xbe1015bd	-0.14070792
115	0x3e8086fd	0.25102988
116	0xbf01e597	-0.5074095
117	0x3e97e312	0.29665428
118	0x3e4feafb	0.20304482
119	0xbeb0ed7d	-0.3455619
120	0x3ece995a	0.40351373
121	0xbe517820	-0.2045598
122	0xbdce3236	-0.10068171
123	0x3e9188c2	0.2842465
124	0x3e7f1a91	0.24912478
125	0xbefa0a9b	-0.48836216
126	0xbaf9d161	-0.0019059592
127	0x3e7dce43	0.24785714

layers.1.weight f4 [128, 128]
0	0x3df35751	0.11881889
1	0xbdffbc65	-0.12487105
2	0x3e1e36a7	0.15450536
3	0x3e040795	0.12893517
4	0xbc4c7202	-0.012478353
5	0xbd908b62	-0.07057835
6	0x3d46ba51	0.04851753
7	0xbc96d915	-0.01841406
8	0x3db00bee	0.085960254
9	0x3c85e321	0.016343655
10	0x3dabd59f	0.08390354
11	0x3dff42f7	0.124639444
12	0x3d51f9a2	0.05126346
13	0x3c20ce97	0.00981488
14	0xbde44163	-0.11145284
15	0xbd7339c1	-0.05938125
16	0x3cd96706	0.026538383
17	0x3e2944f1	0.16530205
18	0xbddcdf35	-0.10784761
19	0xbe41ee0b	-0.18938462
20	0xbdaf36ea	-0.08555396
21	0x3cc3606e	0.023849692
22	0x3d93dea6	0.07220201
23	0xbd78995d	-0.060693134
24	0xbd7e15bd	-0.06203245
25	0xbc7122d3	-0.014717775
26	0xbe426494	-0.1898368
27	0xbe791f8f	-0.24328445
28	0x3d917159	0.071016975
29	0x3ec4008a	0.3828166
30	0x3a6139e1	0.00085916935
31	0xbc02257c	-0.007943507
32	0x3df80018	0.12109393
33	0xbe920cbf	-0.2852535
34	0x3cf53fb5	0.029937604
35	0xbe5f279f	-0.21792458
36	0xbc8308fd	-0.015995497
37	0xb9f03b3f	-0.0004582051
38	0x3cbe49bc	0.023228519
39	0xbb2b3254	-0.0026122527
40	0xbd3f4631	-0.0466978
41	0x3d15acd8	0.03654179
42	0xbdd62555	-0.10456339
43	0x3d03b0ca	0.03215102
44	0x3dbadbb1	0.09123934
45	0xbd1b7d71	-0.037961427
46	0x3e6e0799	0.23245086
47	0xbb872a40	-0.0041249096
48	0xbdc8074a	-0.09767015
49	0x3c9bdea4	0.019027062
50	0xbdb4bd15	-0.08825127
51	0xbcef5c77	-0.029218895
52	0xbe048981	-0.12943079
53	0x3c7ebf7e	0.015548585
54	0xbd0fddab	-0.03512351
55	0x3d9bb47c	0.07602784
56	0xbe5cea20	-0.21573687
57	0xbb9a5dda	-0.004710895
58	0x3bf9a311	0.007618316
59	0x3c09ee19	0.008418583
60	0xbc334116	-0.010940811
61	0x3d944af5	0.072408594
62	0x3b85dc0d	0.00408507
63	0x3e4e61aa	0.20154443
64	0xbe0c4d09	-0.13701262
65	0x3dc72e1a	0.0972559
66	0xbd9da9df	-0.07698416
67	0x3cee651e	0.02910095
68	0x3d3ccda0	0.046094537
69	0xbe381d3d	-0.17979904
70	0xbe05408c	-0.13012904
71	0xbce7025f	-0.028199373
72	0x3e15ed30	0.14641261
73	0xbd843674	-0.064556986
74	0x3dea5b39	0.114431806
75	0x3c646dee	0.013942225
76	0x3d724ead	0.059157062
77	0x3d23a041	0.039947752
78	0xbb7f9b0f	-0.0039002334
79	0xbc4e010e	-0.012573494
80	0xbeb046fd	-0.3442916
81	0xbccb2808	-0.024799362
82	0xbd99168a	-0.07475002
83	0x3e59fa3a	0.2128686
84	0xbd86f6cc	-0.065900415
85	0xbe06d638	-0.13167655
86	0xbdb18dc7	-0.0866962
87	0xbd1daae1	-0.03849304
88	0xbd34c387	-0.044131782
89	0x3dc58f13	0.0964643
90	0xbe5904b6	-0.21193203
91	0xbd255a1d	-0.04036914
92	0x3d8821ae	0.06647049
93	0x3dc86fab	0.09786924
94	0x3ddeb597	0.10874479
95	0xbc84ebae	-0.016225662
96	0x3d8c3be9	0.068473645
97	0x3da67d12	0.08129324
98	0x3da831cf	0.08212625
99	0xb9db1907	-0.00041789582
100	0xbdca78f3	-0.098863505
101	0xbdf43beb	-0.11925491
102	0x3dde3220	0.10849404
103	0x3cd92bc1	0.026510121
104	0xbc8babe3	-0.017049735
105	0x3d8c7c89	0.06859691
106	0x3e18864d	0.14894982
107	0x3db02e83	0.086026214
108	0x3d955003	0.07290652
109	0xbd0f3269	-0.034960184
110	0xbe1adc86	-0.15123186
111	0xbbd71d4f	-0.006564773
112	0x3df22088	0.11822611
113	0xbde05425	-0.10953549
114	0xbdd7fc52	-0.10546173
115	0x3e040891	0.12893893
116	0xbde21a8f	-0.11040222
117	0x3d8a319c	0.067477435
118	0x3c44afdd	0.01200482
119	0x3ebb91c4	0.36634648
120	0xbe60383b	-0.2189645
121	0x3e65a66a	0.22426763
122	0x3d5cb2fc	0.05388163
123	0xbd5ad263	-0.053423297
124	0xbd73c184	-0.059510723
125	0x3b936fa8	0.0044993944
126	0xbbd86443	-0.006603749
127	0x3c90c3d0	0.017671496
128	0x3e42dd3b	0.19029705
129	0xbdb59fe5	-0.08868388
130	0xb9f8a117	-0.00047422267
131	0x3c95caee	0.018285241
132	0x3ccc026e	0.024903502
133	0xbc26af63	-0.010173651
134	0x3da4be3f	0.08044099
135	0x3c2479ec	0.010038834
136	0xbe801709	-0.25017574
137	0x3d84fab1	0.06493128
138	0xbd29f1a8	-0.041490227
139	0x3cf3de79	0.02976917
140	0x3dc99e06	0.09844594
141	0xbe09cea6	-0.13457736
142	0x3b41478e	0.0029492113
143	0x3d8eec14	0.06978622
144	0xbd903c50	-0.07042754
145	0xbd64b78f	-0.055839118
146	0x3cbbc4a1	0.022920908
147	0xbd7fd6da	-0.062460758
148	0x3c5aafe9	0.013347604
149	0x3d61c823	0.055122506
150	0x3d43e048	0.047821313
151	0x3ca53a86	0.020169508
152	0x3cbcf449	0.023065703
153	0x3dbc70eb	0.09201225
154	0x3d0fb96a	0.035088934
155	0x3e0044ae	0.12526199
156	0xbe4f355a	-0.20235196
157	0x3f0d3582	0.5515977
158	0xbd893311	-0.06699193
159	0xbdb7d8ac	-0.08976874
160	0xbe294ac5	-0.16532429
161	0x3e47e3a9	0.19520439
162	0x3d076569	0.033055697
163	0xbe3c1240	-0.18366337
164	0xbe3d6d86	-0.18498811
165	0x3d9c66e2	0.07636811
166	0xbcc10bb2	-0.023565147
167	0xbe53767a	-0.20650664
168	0x3b720d8f	0.003693435
169	0x3e8d0b3e	0.2754764
170	0xbbc9706b	-0.0061474345
171	0xbe0b0f96	-0.13580164
172	0xbe24c91d	-0.16092344
173	0xbd7cec8c	-0.061749026
174	0x3cba25bb	0.02272307
175	0x3d16a624	0.036779538
176	0xbe096657	-0.13417946
177	0x3e18c1a4	0.14917618
178	0xbde5d19c	-0.112216204
179	0x3e0d1709	0.13778318
180	0xbd920aeb	-0.07130989
181	0x3d48cbab	0.049022358
182	0xbd17c352	-0.037051506
183	0x3e99f84d	0.3007225
184	0x3b07cd2c	0.0020721657
185	0xbdf72656	-0.12067859
186	0x3d0922ce	0.033480458
187	0x3e921c41	0.2853718
188	0x3d7a5169	0.061112795
189	0x3cabfd84	0.02099491
190	0x3ceb35bf	0.028712152
191	0x3e0fbc8e	0.14036772
192	0x3e1fd512	0.15608624
193	0x3d1f95ed	0.03896134
194	0x3d8b720e	0.068088636
195	0xbe82407e	-0.2543983
196	0xbdbd2475	-0.09235469
197	0xbcec767c	-0.028865092
198	0x3e42f1b5	0.19037516
199	0x3e0032d2	0.12519386
200	0x3e2c9626	0.16854152
201	0xbd8a16a3	-0.06742599
202	0xbddc4e43	-0.10757115
203	0xbdceb41f	-0.10092949
204	0xbe595a99	-0.21225967
205	0x3db7cb87	0.08974367
206	0x3d456ff4	0.04820247
207	0x3e132aea	0.14371839
208	0x3c32e959	0.010919892
209	0xbc67bb93	-0.014143842
210	0xbcf3cf1f	-0.029761849
211	0xbd96c238	-0.07361263
212	0x3ea12348	0.3147223
213	0x3dc75dd5	0.09734694
214	0xbd991cc5	-0.074761905
215	0xbdee5189	-0.11636645
216	0xbde3b31c	-0.11118147
217	0xbd6febc1	-0.05857444
218	0x3d84742c	0.064674705
219	0x3cc85177	0.024452908
220	0x3e1dba6f	0.1540315
221	0x3e04f5e1	0.1298442
222	0x3d59c69b	0.05316792
223	0x3e1f592f	0.15561365
224	0x3da5208f	0.08062851
225	0xbe20c244	-0.15699106
226	0xbde7f1b7	-0.113254
227	0x3dcf1cca	0.10112913
228	0x3d806f99	0.062712856
229	0xbd9e7bd8	-0.07738465
230	0x3d978008	0.07397467
231	0x3d83cf7a	0.064360574
232	0x3db2ea35	0.08736078
233	0xbcd40f22	-0.025886122
234	0xbc979ec6	-0.018508326
235	0xbc934442	-0.017976884
236	0x3e2ff0b3	0.17181663
237	0xbe738de3	-0.23784594
238	0x3d5ff406	0.05467608
239	0x3d92b015	0.07162491
240	0xbd7a8b5f	-0.06116807
241	0x3ccf3e11	0.02529815
242	0xbd6423b1	-0.0556981
243	0xbe000d19	-0.12504996
244	0xbe7cec97	-0.24699627
245	0xbe1d335c	-0.15351623
246	0xbcb830ad	-0.022484148
247	0xbb043138	-0.0020170938
248	0x3e111a3b	0.14170162
249	0x3e51e46a	0.2049729
250	0x3e1cc42c	0.15309209
251	0x3dbef500	0.09324074
252	0xbe208fd4	-0.15679866
253	0x3c1b4410	0.009476677
254	0x3d25a42d	0.040439773
255	0xbc67875a	-0.014131391
