Gym-DDPG-solution/results/DDPG_HalfCheetah-v4_5000-eps0.3-t32-l0.0001-s1.pth (torch, 193979 bytes, 13 tensors)

layers.0.weight f4 [128, 23]
000000 39 e8 99 3e 2d 2f bb bd b1 78 e9 3d 80 fc 56 3e
       0.30059984 -0.091398574 0.11399973 0.20994759
000010 8b a3 b3 be e8 2f 0d 3f d5 e2 6c 3e 89 18 58 3e
       -0.3508571 0.55151224 0.23133405 0.2110311
000020 4c fc 9e bd 71 73 21 3e 4d 45 94 3d 06 4d fe ba
       -0.077629656 0.15766694 0.072397806 -0.0019401617
000030 ae df ac 3c 0c 2b 5d bc d5 2d dd 3b 83 d4 d9 39
       0.021102753 -0.013499033 0.0067498484 0.000415478
000040 f9 43 a1 3a 1b c1 1a 3e 32 f9 7a 3e 93 b6 1b 3e
       0.0012303583 0.15112726 0.24509123 0.15206365
000050 f4 c8 02 be d5 1d 01 be 73 d5 07 be 19 c2 86 be
       -0.1277197 -0.12609036 -0.13265018 -0.2631996
000060 11 67 35 be 2a 41 fb 3e d3 c7 1b 3e cb 10 44 be
       -0.17715098 0.49073154 0.15212946 -0.19147031
000070 bb 82 d8 be d5 9f d1 3e 74 8c 3c 3e 9b c5 86 3e
       -0.4228724 0.40942255 0.18412954 0.26322636
000080 51 cc c2 3e f1 b9 81 be 96 69 44 bd 3e d7 d8 bd
       0.38046506 -0.25337175 -0.047952257 -0.10587929
000090 df ad f2 3c 20 21 5b 3d 15 5e 61 3d 65 5f 37 bc
       0.029623924 0.053498387 0.055021364 -0.011192177
0000a0 e8 ca 08 3e 5c 54 08 be 9f a5 1b 3d 56 ab 10 bf
       0.13358653 -0.1331343 0.037999745 -0.5651144
0000b0 39 36 1d be b7 5e 15 bd 98 ab b0 3e 81 44 03 3e
       -0.15352716 -0.03646728 0.34505916 0.12819101
0000c0 c1 58 ac be 1b 68 35 3d 25 d7 4c be b2 c9 d9 3c
       -0.33661464 0.044288736 -0.20003946 0.026585434
0000d0 a5 dd ac 3e f6 a6 a9 3e cd c9 c4 3e 83 df ef 3e
       0.3376285 0.33135194 0.38435212 0.46850213
0000e0 d3 0b 8b 3e 3a 95 3d 3d da 69 06 3d 4e 4f 6c 3c
       0.2715746 0.04628489 0.03281579 0.014423205
0000f0 71 bc 1c 3d e2 25 2f 3d 18 ec f2 3c b9 dd ae 3e
       0.03826565 0.042760737 0.029653594 0.34153536
000100 bd b7 48 be c7 1c e5 ba 87 a9 2f be f8 0f c6 3d
       -0.1960134 -0.001747989 -0.17154513 0.096710145
000110 f1 54 97 bd 27 8c fb be 92 9b a3 3d 4c db 20 be
       -0.07389248 -0.49130365 0.07988657 -0.15708655
000120 d0 31 9a bd 07 0b e1 3c ea c2 41 3d 58 0f 3f be
       -0.07529032 0.027471079 0.047305025 -0.18658197
000130 e7 1d 1d 3e 6f 9f 8e 3e 07 b6 09 bf b5 7f 14 3e
       0.15343438 0.27856013 -0.53793377 0.14501841
000140 44 1d 83 bd e9 f7 87 bd 2e 73 85 bb d1 d0 fe 3c
       -0.06402066 -0.06639082 -0.0040725684 0.03110543
000150 73 57 4c 3d 1c 67 43 3c 4f c1 cf be f1 79 6b 3c
       0.049888086 0.011926439 -0.4057717 0.014372335
000160 51 cb 52 bb 38 44 1c 3e 58 26 23 3e 7e d0 36 be
       -0.0032164643 0.15260398 0.15932596 -0.17852971
000170 a9 cc 25 3f 8c a7 c3 3d 51 5b f5 be 72 7f c8 be
       0.6476541 0.095534414 -0.4792123 -0.39159733
000180 40 73 d6 3d ef d8 05 bd 22 c7 cd bd 96 ba 07 be
       0.10471201 -0.032677587 -0.10047747 -0.1325477
000190 a0 44 74 3e b6 a4 af 3d 04 14 83 3e 2e c3 d1 3c
       0.23854303 0.08576338 0.25601208 0.025605764
0001a0 73 83 8c 3c 6d 44 ef 3b 5c 6e 25 3d b8 8e fd 3c
       0.017152524 0.007301858 0.04038845 0.030951843
0001b0 1f b2 98 bc fb 92 bf 3d cf 11 b0 bc 4f 49 d8 3d
       -0.018639622 0.09354206 -0.021492867 0.105608575
0001c0 9a ee 81 3e 49 af fd bd b3 f3 96 3d 73 c2 32 3f
       0.2537735 -0.123869486 0.07370701 0.69827956
0001d0 e0 43 b0 3c 5f 9e 91 be 73 c1 98 be 6b 19 6d be
       0.02151674 -0.2844114 -0.2983509 -0.23154227
0001e0 7c 49 32 bd ab 7e c4 bd 29 cd 3e 3e 3c de 94 bd
       -0.04352711 -0.095944725 0.1863295 -0.0726895
0001f0 c1 7e ee bd dc 7f 83 be 02 ca 57 bd e2 75 03 bd
       -0.1164527 -0.25683486 -0.052682884 -0.032094844
000200 4e c3 e2 ba 6d cd a0 3c bb 9b 27 3c d1 0f ac 3a
       -0.0017300637 0.019629205 0.01023 0.0013127272
000210 5a 5d 30 3e df ff 28 3e 8a 3b 15 3e ac 5d 55 3e
       0.17223111 0.16503857 0.14573494 0.20836514
000220 9e e5 de 3c 63 4d 3a 3d 5b f8 e5 3c 5e 67 e6 be
       0.0272091 0.045483958 0.028072527 -0.45000738
000230 3a 78 3d bd 8f 8c 4a be d8 f4 80 be be a1 75 bd
       -0.046257235 -0.19780181 -0.251868 -0.059968702
000240 db 8f 21 3d c8 a5 8f 3e 89 f2 97 3e 04 65 16 3e
       0.039443832 0.2805617 0.29677227 0.14686972
000250 a2 a1 82 3d 80 ca 04 3d 02 d3 8a 3c 02 93 e9 3d
       0.06378485 0.03241968 0.01694632 0.11404993
000260 d2 c6 09 3b c6 28 21 bc 70 09 4a bc 46 55 cb be
       0.0021023047 -0.009836381 -0.012331352 -0.39713496
000270 66 bf 0a bc e7 d1 e9 bd 28 ba cb 3d 51 6f 80 bd
       -0.0084684845 -0.11416989 0.09947616 -0.06271232
000280 f4 4d b7 3d 76 8f 06 3f ab fb a9 bd ec 17 1e 3f
       0.08950415 0.52562654 -0.08299955 0.6175525
000290 f6 9f 33 3e 3c 1b db bc 34 4c 18 be 4f ba 81 be
       0.17541489 -0.026746385 -0.14872819 -0.25337455
0002a0 23 fc 71 be e8 5f bb 3c 8c 7d 8c 3d c4 bb 50 3d
       -0.23631339 0.02287288 0.06859884 0.050960317
0002b0 7c cc a9 bc 2a e9 fe 3c 63 06 a3 bb a4 b3 ba 3d
       -0.020727389 0.03111704 -0.0049751266 0.09116295
0002c0 b1 e3 22 3d 42 44 32 3b 28 a7 af be 72 d8 7a 3d
       0.039767925 0.002720133 -0.34307218 0.061241575
0002d0 a7 28 a4 bd 8d 20 86 ba f4 25 a1 bd c4 22 1b bc
       -0.08015566 -0.001023309 -0.07868567 -0.009468738
0002e0 6c c0 39 be eb 3e 1f 3e 12 f2 8a bf ab 49 6b be
       -0.1813981 0.15551345 -1.0855124 -0.22977321
0002f0 12 c9 82 3d 46 17 d2 be a6 56 e0 3d 31 b7 99 be
       0.06386007 -0.4103338 0.10954027 -0.30022576
000300 61 83 0b be f7 39 5a 3c 06 61 58 3e a6 b8 de bd
       -0.13624336 0.013319484 0.21130762 -0.10875063
000310 0f 42 ca 3b d2 64 78 3b e2 10 1c 3e ef fe f0 3c
       0.0061724256 0.003790189 0.15240815 0.029418437
000320 13 b3 82 3d 2e cd 89 be 61 93 32 3d 52 c6 05 be
       0.06381812 -0.26914352 0.043597583 -0.13063934
000330 31 2d 6f 3e 9a ea 3e 3e 5d b2 91 3e 39 6d fa 3e
       0.23357083 0.18644181 0.28456393 0.48911455
000340 82 b5 44 bd ab 66 6d be a2 5e 27 3f 2a 4a 28 3e
       -0.04802466 -0.23183696 0.65378773 0.16434541
000350 12 d1 12 be aa 5c b8 3c 5e 57 66 be df 91 bf 3e
       -0.14337566 0.022505123 -0.22494265 0.37415978
000360 4f f5 03 bf 0b e3 49 be 9e b2 c0 3d 88 58 2b 3d
       -0.51546186 -0.19715516 0.094090685 0.041832477
000370 63 83 ed 3c a5 cc 71 3d ef 3e 78 bb 04 92 1c bc
       0.028993314 0.059033055 -0.0037879308 -0.009556297
000380 44 95 a3 3e b6 5e 0e 3e 3b 2d 92 be e2 48 a7 3f
       0.31949818 0.13903317 -0.28550133 1.3069117
000390 f2 f3 94 bd 4a 3f 84 3e 94 7a 80 3e 39 3e 97 be
       -0.072730914 0.25829536 0.2509352 -0.2953966
0003a0 57 62 54 3f 58 21 58 3e 91 a4 18 bd 35 f7 22 3d
       0.82962555 0.2110647 -0.037266318 0.039786536
0003b0 a5 13 c6 3e f7 fd 2c 3e cd 7d 2d 3d 29 40 95 be
       0.38686863 0.16893755 0.0423563 -0.29150513
0003c0 ef 4a a7 be 8a 40 ec bc 97 ea 16 3b f1 1d f3 ba
       -0.32674357 -0.028839368 0.002302801 -0.0018548352
0003d0 b7 87 bb bd 4f 48 30 bd 38 d8 cb bc 09 a4 bc bd
       -0.09156745 -0.04303771 -0.024883375 -0.09210975
0003e0 fa 62 1f bd 3b 52 f3 3d ac e9 5a 3d 3f 56 2b 3d
       -0.03891275 0.118809186 0.053445503 0.041830298
0003f0 84 42 10 bc db aa 4e 3f 54 e9 cb bd a8 f2 07 3f
       -0.008804921 0.80729455 -0.09956613 0.5310464

layers.0.bias f4 [128]
000000 7f c8 d0 bd 4e 77 2e be 4b d4 e0 be 79 51 9f 3d
       -0.101944916 -0.17037699 -0.43911967 0.077792116
000010 7e 30 09 be c2 88 4f be eb 04 29 bd db 8e 3a be
       -0.13397405 -0.20267013 -0.041264456 -0.18218558
000020 50 6c cd bd 91 91 07 be 60 eb 8b be 7c 44 e6 be
       -0.100304246 -0.13239123 -0.27328014 -0.44974124
000030 84 67 df bd 9f da 77 be b3 3e 6b 3d 88 20 34 bd
       -0.10908416 -0.24204491 0.05743284 -0.043976337
000040 47 43 0d 3f d5 b8 5b be 10 4f 84 be b6 a2 e3 be
       0.5518078 -0.21457227 -0.2584157 -0.44460076
000050 e3 2d 0e 3f ca 9e 04 be 31 56 44 be eb be 67 be
       0.5553877 -0.12951198 -0.19173504 -0.22631423
000060 c3 5b 61 be 79 d6 74 be 86 39 a7 be 4a 9e ab be
       -0.2200766 -0.2390994 -0.32661074 -0.33519202
000070 d9 f7 36 be 5c bc 7f ba 57 63 47 3e 51 a5 44 3e
       -0.17867984 -0.0009755546 0.19471489 0.19203688
000080 00 56 29 3e f3 53 08 be be 51 b3 be df ff 43 3e
       0.16536713 -0.13313274 -0.35023302 0.19140576
000090 d6 49 da be 90 90 a9 be 4a 56 15 3e ba 33 3b be
       -0.42634457 -0.33118105 0.14583698 -0.18281451
0000a0 36 6a c8 bd 55 90 a3 be 92 8a ac 3d 6b 4b 2a be
       -0.09785883 -0.31946054 0.08424868 -0.16630332
0000b0 63 71 12 bd eb 34 2a bd df 1c e4 be e0 30 19 bf
       -0.035752665 -0.041554373 -0.44553277 -0.598402
0000c0 c3 00 15 be 37 ce df 3e d1 d2 ac be 82 07 d2 be
       -0.14551072 0.43712017 -0.3375459 -0.41021353
0000d0 ae fa 80 3e 27 06 c9 3e 8f 72 f1 3e fe d9 a9 be
       0.25191253 0.39262506 0.47157714 -0.33174127
0000e0 2a 71 0f bd e5 cd 04 be 22 dd b0 3e 0d 5f 62 3e
       -0.03502003 -0.12969168 0.3454371 0.22106571
0000f0 73 e1 e4 3c ad 68 09 3e c5 c5 03 bf 40 f2 7a bd
       0.027939534 0.13418837 -0.5147365 -0.061266184
000100 c4 4b be 3c e7 ee c3 3e e1 d4 74 bd 21 ca 7c be
       0.023229487 0.38268206 -0.05977333 -0.24686481
000110 39 2c b7 be 31 6e 90 be 4c ce 89 3e cb f9 c5 3e
       -0.35775927 -0.2820907 0.26915205 0.3866714
000120 4b 21 0e 3f 90 51 9a be a9 15 81 3c e4 78 d9 be
       0.5551955 -0.30140352 0.015757399 -0.42475045
000130 dd 5a 6c be e2 90 15 3d db fc 8a 3e bf d7 49 bd
       -0.23081537 0.036515124 0.27146038 -0.049278017
000140 2e c5 7b 3d 57 b0 c9 be 4e bf 2d 3e 20 d6 34 3e
       0.061467342 -0.3939235 0.16967508 0.17659807
000150 36 d4 d2 bd c7 c8 26 be 25 67 92 be 46 8a 4e 3e
       -0.10294382 -0.16287528 -0.28594318 0.20169935
000160 eb 58 a8 3e fb d0 b1 be ba bc b2 bd 82 18 86 3e
       0.3288034 -0.34729752 -0.08727403 0.26190573
000170 0b ce 97 bb c2 9a 98 be 7d 5c 11 bd 60 07 39 be
       -0.0046327165 -0.2980557 -0.035488594 -0.1806922
000180 a8 1c b6 be 08 b6 92 3e 9c 49 e1 3d 8c f1 8c 3e
       -0.35568738 0.28654504 0.11000368 0.27528036
000190 0e 63 5b 3e 87 8f 1d be b3 14 b1 be 0f 93 50 3e
       0.21424505 -0.15386783 -0.34586105 0.20368598
0001a0 58 41 92 3e 55 0a d3 3d 76 e8 22 bb 3a 01 bc 3c
       0.28565478 0.10304705 -0.0024857796 0.022949804
0001b0 8f 42 8a be 9c 3f 13 be 55 91 83 3e d1 05 1d 3f
       -0.27003905 -0.14379734 0.25696817 0.61337
0001c0 3e 59 2b 3e 7d 54 73 bc 4c 23 ae 3e 8a d7 02 bf
       0.16733262 -0.014851687 0.34011304 -0.51110137
0001d0 69 54 35 3e 15 f6 97 3e 35 a7 87 bd 5b ba c1 3e
       0.17707981 0.29679933 -0.06623689 0.3783749
0001e0 d7 72 1e 3e f3 aa 09 be ac db 60 be b9 c5 a7 3c
       0.15473495 -0.13444118 -0.21958798 0.020480024
0001f0 b5 fe b3 3c b1 2e 92 be 08 57 c5 bd 7d 15 17 bf
       0.02197204 -0.28551248 -0.096357405 -0.59017164

layers.1.weight f4 [128, 128]
000000 bd 9d ea bb 8a cd c3 bd eb 0d 9f bd 2d a8 0d 3d
       -0.007159917 -0.09560688 -0.077663265 0.034584213
000010 1b 4a 0a 3c a8 e8 7b 3c d9 bb 6e 3d a5 4d 1a 3c
       0.00844052 0.015375294 0.058284614 0.009417926
000020 59 97 89 bc ce 7b 07 3e 24 5d df bd 00 eb 16 3c
       -0.016795801 0.13230821 -0.10906437 0.009211302
000030 df c2 c0 3d 8a d4 32 bd f7 7d 0e 3c 32 02 2e 3d
       0.09412169 -0.043659724 0.008697025 0.042482562
000040 c6 8f c2 3d 7c 0b bc bd 31 f8 9b bd 7f 6f d8 3c
       0.09500079 -0.09181878 -0.07615698 0.026420353
000050 0f 60 1f 3b 1b e8 53 bd f1 fd 29 3d a6 e7 a9 bb
       0.002431873 -0.051735025 0.041501943 -0.0051850853
000060 c6 4e e5 b8 b0 1c 96 bd 83 33 58 be 5b e7 a9 bc
       -0.000109342436 -0.073296905 -0.211134 -0.020740202
000070 58 ac 3b 3d 6e f6 88 bd a9 c5 e7 bd 84 59 fb 3d
       0.045818657 -0.06687628 -0.113169976 0.12272933
000080 4c 06 79 bd 8a fa 1f 3d 7a fd f8 3d c5 6a e8 3a
       -0.06079702 0.039057292 0.12157722 0.0017732015
000090 49 ba 6f bc 6a e6 1b bc 1e d5 cb 3c 80 9c 74 3c
       -0.014631816 -0.009515384 0.024881896 0.014929891
0000a0 bf 9d c1 3d 2a 95 9a 3d 95 8e 3e 3b 95 80 79 bc
       0.09453916 0.07547982 0.0029076685 -0.01522841
0000b0 bf 11 68 bd db 76 76 bd 1b 76 a0 3d 92 90 9d 3c
       -0.05665755 -0.060171943 0.07835027 0.019233976
0000c0 53 68 89 bc d7 ec cf 3c 4a 5e cc bb 17 a3 67 3d
       -0.016773378 0.025381489 -0.006236826 0.05655202
0000d0 0a 51 4a bd d9 cd 59 bd 07 7d 5c bc fd 6b 88 bd
       -0.04939369 -0.053174827 -0.013457543 -0.06661222
0000e0 cf db 15 b9 38 d3 2b 3e 5b 0c b4 3d f3 52 b8 bd
       -0.00014291632 0.16779792 0.08791419 -0.09000196
0000f0 9b ce 2b bd c6 d7 0c 3e f8 bf cd 3d 0c c3 27 bd
       -0.04194508 0.13754186 0.10046381 -0.040957496
000100 4f 46 4e 3a e8 13 50 bd 73 19 1a 3d a8 dc 54 bd
       0.0007868753 -0.050800234 0.037621927 -0.051968247
000110 d4 a9 48 3d db df 04 3d 06 ae b9 3d 64 ba 8a bd
       0.048990086 0.032440048 0.090663955 -0.067738324
000120 c3 90 ca bc 30 db 15 bd 51 93 b1 3a f3 e2 60 bd
       -0.02472723 -0.036585987 0.0013547932 -0.054903936
000130 fb 53 aa 3d 8b 55 99 bd 6a 34 09 3e 7d 4e b8 3d
       0.08316799 -0.07487019 0.133989 0.089993455
000140 ec e7 26 3d 10 b6 2c 3e 18 80 cf 3d 01 8e ec 3b
       0.04074852 0.16866326 0.10131854 0.0072190766
000150 a8 79 97 bb 41 3f 83 3c eb 51 02 3b 51 80 13 be
       -0.004622657 0.016021373 0.0019885253 -0.14404418
000160 72 b5 72 bd 0c b2 49 bd be 0b 19 bb 16 4c ca 3d
       -0.05925507 -0.049242064 -0.0023352946 0.098777935
000170 97 ea 91 bd aa b3 b4 bc c8 70 af 3d a5 bc 3a 3d
       -0.071248226 -0.022058327 0.08566433 0.04559006
000180 a8 8c ac bd d3 a4 86 3d 06 14 07 3c fb c0 6d bd
       -0.084252656 0.065744065 0.00824452 -0.05804537
000190 e9 08 46 bc 70 4f 1e 3d 47 70 e4 bd 79 1f 9e bb
       -0.012087085 0.038649976 -0.11154228 -0.004825529
0001a0 89 f1 be bd 7c 99 10 3d 64 6f 9d 3d 19 41 11 3d
       -0.09323413 0.035302624 0.07687262 0.035462473
0001b0 4b 16 97 bc 55 09 a0 bd 9f b7 a0 3c 6c a1 65 be
       -0.018443247 -0.0781428 0.019618807 -0.22424859
0001c0 a0 15 c4 3d 64 07 0e bd 85 f4 65 bd 25 24 fa 3d
       0.09574437 -0.034675017 -0.056141395 0.12213925
0001d0 79 84 66 bd 7e 3d fb bc a8 5e f3 bc 91 76 0e 3e
       -0.05627868 -0.03066897 -0.029708222 0.13912417
0001e0 98 5c 0c 3d 3c 8b 0a bc 2d e5 0d be 50 39 b9 3d
       0.03426799 -0.008456048 -0.13856955 0.090441346
0001f0 56 a9 0f be 20 9d de 3d ce 02 01 3d 2b 2d df 3c
       -0.1402944 0.10869813 0.031496815 0.027243217
000200 56 b1 a2 3c fc 9e be 3d b4 92 ec 3d a1 13 81 3a
       0.019859951 0.093076676 0.11551419 0.0009847769
000210 c7 00 10 bd 8d 66 0f 39 2b 18 3b 3d 22 d9 cc 3d
       -0.03515699 0.00013675746 0.045677345 0.10002352
000220 55 d7 e3 bd 77 8d 2d 3e a3 5c 57 bd 2d 15 88 3d
       -0.11125056 0.16948496 -0.05257858 0.06644664
000230 03 32 89 bd e5 dc f5 bc af da f1 bc 3c a8 74 3c
       -0.06698992 -0.030012557 -0.029523222 0.014932688
000240 dc c9 6d bd 39 70 de 3c d3 40 a6 3d 0c bd 86 3c
       -0.058053836 0.027153121 0.08117833 0.016447566
000250 f3 68 b4 ba cf 5d f1 3d 7c 49 b1 bd cd 07 bc bb
       -0.0013764187 0.11785471 -0.08656594 -0.0057382346
000260 76 4a 6d 3c c1 5e 93 3d d9 78 3e bd 60 5c 8a 3c
       0.014483085 0.07195807 -0.046501968 0.016889751
000270 d0 0d ba 3b a7 f6 8e bd de 7f a7 bd 41 85 5b 3d
       0.005677916 -0.06980639 -0.081786856 0.053593878
000280 01 60 7f 3d 9a 23 1d bb d7 a6 bf 3d 8c 6b d0 bd
       0.062347416 -0.002397752 0.09357994 -0.10176763
000290 2c 96 ab bc 73 c5 7c 3d fd f7 3e 3d 6f cd b2 bd
       -0.020945631 0.06171174 0.04662322 -0.087305896
0002a0 c8 ef 6b bb 0f 9e 02 3e d2 b9 62 bb f2 32 33 3c
       -0.0036001075 0.12755607 -0.003459562 0.010937439
0002b0 ff 08 0e be f3 1e 86 3d 64 32 c5 bd 54 e6 ed 3d
       -0.13870619 0.06548872 -0.09628752 0.11616197
0002c0 95 0f 4d bd bd 8a a9 bc da 36 73 bd 50 71 16 3d
       -0.05006369 -0.020696038 -0.059378482 0.036729157
0002d0 20 73 de bb 6c af 09 be 1c d2 39 be 68 1d ed 3c
       -0.0067886263 -0.13445824 -0.18146557 0.028944686
0002e0 0f 80 0e 3c 58 8e 73 3d 7c 39 35 3b 3d 24 77 3d
       0.008697524 0.05946192 0.0027652672 0.060337294
0002f0 da 90 01 3d 0a e3 e7 bd 0c 9c 72 3d 24 32 bb 3c
       0.03163228 -0.11322601 0.05923085 0.022851057
000300 ea 1f fa 3d 18 fa 05 be b3 db 10 3c 89 b8 7a bd
       0.122131184 -0.13083684 0.008841443 -0.061211143
000310 c4 74 99 3d dc 6b bb 3d 0a da fb bc 0d 37 f9 bd
       0.074929744 0.09151432 -0.030743618 -0.12168703
000320 88 11 f2 bd 03 d6 0b be 16 c6 59 3d 2b c4 55 3d
       -0.1181975 -0.13655858 0.053167425 0.052189033
000330 a6 06 d9 3d 55 8c 74 bd ae 63 d7 3c b2 0c 13 3d
       0.10596971 -0.059704144 0.026292648 0.03590078
000340 22 76 7e 3c a2 90 68 3d 2b 42 8d bc da 9d a3 bd
       0.015531095 0.056778558 -0.017243465 -0.07989092
000350 8a b4 f5 bb 26 b8 92 3d 69 a3 a6 3d a5 04 f6 bc
       -0.0074983286 0.0716403 0.08136637 -0.030031512
000360 b5 0d 83 3d 93 cf 50 3d 4a 9b 8c bd a6 cd 0e 3d
       0.06399099 0.05097921 -0.068655565 0.03486409
000370 d9 19 71 3c 22 c3 4d 3d d5 be a8 bd 1a 5e 88 bd
       0.014715635 0.05023492 -0.08239523 -0.066585734
000380 10 81 ec 3d ef 68 a3 bd 46 93 e6 bd db 78 53 bd
       0.11548054 -0.07978999 -0.11258559 -0.05162893
000390 34 ef 85 bd 1d 3c 1c 3d d9 51 de bb 24 03 90 3d
       -0.06539765 0.038143266 -0.0067846593 0.07031849
0003a0 ad 7b 31 bb 42 4a db bd de d0 8c bc d1 82 22 bd
       -0.0027081773 -0.10707523 -0.01718944 -0.039675537
0003b0 16 ab f5 3c 60 6d 8c bc 99 fb 16 be 17 bf 3f bd
       0.029988807 -0.017141998 -0.14744414 -0.046813097
0003c0 97 58 66 3d ae 19 56 bd a1 11 ca 3c 8b 59 8b 3d
       0.05623683 -0.052270584 0.02466661 0.06804188
0003d0 57 67 95 bd 2c 60 80 3d e4 6b d1 bd e6 f5 30 3b
       -0.07295101 0.06268343 -0.10225657 0.0027002036
0003e0 bd b1 02 3d dd bc 60 3d 22 81 9f bd b3 64 13 bd
       0.031907786 0.054867614 -0.07788302 -0.035984706
0003f0 27 1b 34 bd 89 d7 be bc 46 e6 36 3d 88 24 c4 3d
       -0.043971207 -0.023296135 0.0446532 0.0957728

layers.1.bias f4 [128]
000000 8a 57 98 bd d3 d8 c8 bd 2a 2e 9a bd 67 de 34 bd
       -0.07438572 -0.09806981 -0.07528336 -0.044157412
000010 cb b6 0b 3d 43 dd 88 bd 7c 14 19 3e 59 4e 0f 3e
       0.03410987 -0.06682827 0.1494922 0.13994731
000020 ab 8d 98 bd 38 d5 b8 bd f9 ad ca 3d 78 fe 1a bd
       -0.07448896 -0.09025043 0.09896464 -0.037840337
000030 9b 7b a5 ba 7c 7a 02 bc 9b 9b 0a 3e eb 2e 98 bb
       -0.0012625338 -0.007963773 0.13535921 -0.004644265
000040 da 53 32 bc 41 52 c9 3c c1 0a b0 3c 7f 86 e6 3c
       -0.01088425 0.024575355 0.021489503 0.028140305
000050 66 78 be 3d 33 57 1c 3e cb 2f 8c bc 72 28 15 3e
       0.09300308 0.15267639 -0.017112633 0.1456621
000060 38 d3 41 3e 3e 6c 76 3d f5 4c ec bd cb 5b fb bd
       0.1892823 0.06016182 -0.11538116 -0.122733675
000070 28 ab 82 3b fb ed 09 3e 75 36 34 bc 10 8b c1 bd
       0.0039876886 0.13469689 -0.010999312 -0.09450352
000080 3b 6f 2f be e9 67 93 3d b2 61 11 3b d8 74 a7 3c
       -0.17132275 0.07197554 0.0022183475 0.020441458
000090 19 4c 58 3d 93 41 27 be fc 1b e9 3d 75 87 10 3e
       0.052806947 -0.16333608 0.11382291 0.14114173
0000a0 05 93 f1 bc eb d7 cf 3d 23 b2 05 3e 89 07 c1 3b
       -0.02948905 0.10148605 0.13056235 0.005890791
0000b0 b5 6c 0f be 71 4c 7d 3c 35 a2 b1 3c 65 90 02 be
       -0.14006312 0.01546012 0.021683792 -0.12750395
0000c0 3d 0a b3 bd 5e 08 ee 3c c0 ba eb bd bf 02 44 bd
       -0.08742187 0.029056724 -0.11510229 -0.04785418
0000d0 9f 28 59 bd c3 85 07 be ae 71 55 3d 54 11 db bd
       -0.053017255 -0.1323462 0.052110367 -0.106966645
0000e0 0d 6c 00 3e fa 88 20 be 8e 7b 07 b9 98 d1 e8 bd
       0.12541218 -0.15677252 -0.00012920631 -0.11368102
0000f0 a5 d4 48 be 9d 21 9e 3d 05 ce f3 bd 0a 12 f0 bc
       -0.19612367 0.07721255 -0.119045295 -0.029305477
000100 f1 21 13 be fa 88 9b bd 24 f0 5a 3d 6f 79 9d 3c
       -0.14368416 -0.075944856 0.053451672 0.019222943
000110 f0 99 b3 bb 1b 3e 06 be 6f 0e 32 be b5 a2 37 3d
       -0.0054809973 -0.13109629 -0.17388318 0.044832904
000120 76 e8 c0 3d 9e 36 85 3d a8 ce 3f bd a8 7d db bc
       0.094193384 0.06504558 -0.046827942 -0.026793316
000130 14 47 49 be 3d 72 38 3e 4f 1e db 3c ad d4 c9 bd
       -0.1965602 0.18012328 0.02674785 -0.09855018
000140 a4 76 eb 3d 0a 98 bd 3c 3d ea 61 3e 2b cd e8 3d
       0.11497238 0.023143787 0.22062011 0.11367258
000150 1c 10 30 3d d9 9c 5c bd 13 32 1c bb a8 e4 71 3d
       0.042984113 -0.05386052 -0.0023833557 0.059055954
000160 2c c0 ef bc 7a af e1 3d b4 c6 12 bd b1 39 fd 3d
       -0.02926644 0.110197976 -0.03583403 0.123645194
000170 62 0f 2e 3e 78 65 58 3d cd c7 e4 bd 1e 9c 35 3d
       0.16998056 0.052831143 -0.111709215 0.044338338
000180 ff 3a a6 3c 23 34 18 3d c1 62 0c be 56 99 1f 3d
       0.020291803 0.037159096 -0.13709547 0.038964592
000190 7f bd a5 bd 88 27 e3 3b 8e c6 0f bd 7c ea 16 be
       -0.08092784 0.0069322027 -0.035101466 -0.14737886
0001a0 b5 23 43 3d 99 00 d5 bd 5d fc 25 be 7f a3 fb bd
       0.047641475 -0.104005046 -0.1620955 -0.12287044
0001b0 dd de 09 3e 58 76 86 3c 8a 8c d7 3c 0f fa d1 3d
       0.13463922 0.016413853 0.026312131 0.10252773
0001c0 6e d2 f9 bc c7 02 7a 3d 2b c4 c1 3d 69 da f8 bd
       -0.030495849 0.061037805 0.09461244 -0.121510334
0001d0 3c f7 1a bd 3d 1c d1 bd e7 51 2c be 48 2d a9 bc
       -0.037833437 -0.10210464 -0.16828118 -0.020651475
0001e0 89 8b ce bd a4 12 b8 bc 09 7a 7c 3d 48 b9 99 3d
       -0.10085208 -0.022469826 0.06163982 0.07506043
0001f0 19 68 b8 bd fa ba 15 be 42 db 10 3d b4 67 22 3d
       -0.0900423 -0.14622107 0.03536535 0.03964968

layers.2.weight f4 [64, 128]
000000 7f 72 3d 3d 6c a7 79 be 30 e0 be bd 56 62 1e 3e
       0.04625177 -0.24380273 -0.09320104 0.154672
000010 d3 67 32 be e0 67 aa bd 07 9a 47 3e 27 d6 9a 3d
       -0.17422418 -0.08320594 0.1949235 0.075603776
000020 32 d7 8f 3e 48 75 43 3d ba 85 3c 3d bf 8c c0 3d
       0.28093868 0.04771927 0.04602597 0.09401845
000030 54 8f ea bd d3 6f 53 bd 94 be af 3d 9b 75 1c 3d
       -0.11453119 -0.051620316 0.08581272 0.038198095
000040 dd 8e 86 3c c5 7b 9f 3d c4 48 83 3d 9a c7 73 3d
       0.016425544 0.07787279 0.06410363 0.059516527
000050 b6 8a d8 3b f8 a6 7e 3e b4 1d 9e 3c 3b 0b 44 3e
       0.0066083325 0.24868381 0.019301273 0.19144909
000060 70 d0 37 3d da 1f b7 3d b9 cb 3a 3b 97 df 8d 3d
       0.044876516 0.08941622 0.0028502776 0.06927412
000070 a8 c9 02 bd b1 78 75 bd 88 11 4c bc 85 a8 80 3c
       -0.031930596 -0.059929553 -0.012455352 0.015705356
000080 b1 b7 12 be 83 f0 2f 3d b9 bd 57 3d 9a ff 41 bd
       -0.14327885 0.04295398 0.052671168 -0.0473629
000090 af f0 19 be 31 66 f7 bc 49 52 df 3d 39 78 64 3e
       -0.1503322 -0.030200096 0.109043665 0.22311486
0000a0 0f 00 08 be 7a 2b d3 3d 21 40 b6 3c ac 50 48 3d
       -0.13281272 0.10311027 0.022247376 0.04890506
0000b0 ec dc 31 be 60 85 b7 3d fa 92 99 3d 85 a4 11 3d
       -0.17369431 0.08960986 0.07498737 0.03555729
0000c0 e1 18 02 be 56 b4 b2 bd 88 20 e5 3d 50 ea d3 3d
       -0.12704803 -0.087258026 0.111878455 0.10347426
0000d0 20 14 f3 bd 89 22 b1 3d 43 fe f4 3d 31 8f 5e 3c
       -0.11869073 0.08649165 0.11962559 0.013583944
0000e0 99 f2 04 bd d4 77 92 3d be c1 f5 bd 42 88 2c bd
       -0.03245792 0.07151762 -0.11999844 -0.042122133
0000f0 3c ae 48 bd 37 63 8a bd ae 4b c9 bd 87 3b 71 3e
       -0.048994288 -0.06757205 -0.09828888 0.23557864
000100 fe 45 e5 3d d0 df 0a be f0 00 33 3d 16 2f b3 3d
       0.111949906 -0.1356194 0.043702066 0.08749215
000110 0b a6 49 bd de d9 94 bd a5 3e 6d bd 65 a5 85 3e
       -0.049230617 -0.07268117 -0.05792107 0.2610275
000120 77 95 4d 3e 94 24 e6 bd 90 d9 cf 3d ea 46 24 be
       0.20076548 -0.112374455 0.10148919 -0.16042677
000130 c7 34 00 bd 85 7e 24 3d 3f 58 2e 3d c3 9c 0b be
       -0.031300332 0.04015972 0.042564627 -0.13634019
000140 de 2a 3e 3d 66 e6 06 bd 22 c6 5c 3d e1 ef 8b bc
       0.0464276 -0.03293457 0.05389989 -0.017082157
000150 d5 3d 27 bd 28 0a 80 be 1f 29 4f be 78 35 1f 3c
       -0.040830452 -0.2500775 -0.2023053 0.009717338
000160 98 0d 9f 3d 57 d3 ed 3c 45 2e 66 3e 3a 0e 49 3d
       0.07766265 0.029031439 0.22478588 0.049085833
000170 4f cb f9 3d 0b 29 fd 3d 77 15 eb bd 20 72 39 3e
       0.12196981 0.12361344 -0.114787035 0.18109941
000180 1e a7 6c bd 3d 58 77 3d 65 73 22 3d 6c c7 16 3e
       -0.057776563 0.060386885 0.03966083 0.14724511
000190 e7 d5 50 bd 48 53 c9 3d e3 03 b5 bc c3 af 60 3c
       -0.050985243 0.09830338 -0.02209658 0.01371378
0001a0 41 84 80 bd f9 09 35 3c 01 4a 0d be 80 b1 7f bd
       -0.062752254 0.011049741 -0.13797761 -0.062425137
0001b0 c8 c4 0e 3e c8 6e 9d 3d 68 9c 5f 3c 04 c3 a7 3d
       0.13942254 0.076871455 0.01364813 0.08191493
0001c0 15 48 bd 3d 5d 10 2b bc 2c f4 87 bd 55 3d d8 bd
       0.09242264 -0.010440913 -0.06638369 -0.10558573
0001d0 57 4a 8e 3d 8d 08 61 bd 6b 77 15 be 17 dc 93 bd
       0.06947773 -0.054939795 -0.14596336 -0.07219713
0001e0 29 8b 9e 3d ae a2 37 3e 40 39 4e 3b 32 39 5b 3d
       0.077413864 0.17933151 0.003146723 0.053521343
0001f0 1d 3d 74 3d 64 de e7 bd a2 41 34 3d 61 f4 8e bd
       0.059628595 -0.113217145 0.044007905 -0.06980205
000200 c9 e8 fa bd 1d d7 1b 3d d2 14 8d bd 1c ce 6f 3e
       -0.122514315 0.038046945 -0.06888737 0.23418468
000210 73 5f af bd d7 d5 ea 3c 75 54 8c bd e1 05 9c 3c
       -0.08563127 0.02866642 -0.068520464 0.019045772
000220 66 a9 e6 bd 79 76 95 bd 9b a3 84 bd a1 31 a4 bc
       -0.11262779 -0.072979875 -0.06476518 -0.020043196
000230 67 82 f0 3d ea ab a6 be 78 96 87 bc 1c f3 91 bd
       0.11743622 -0.32553035 -0.016551241 -0.071264476
000240 89 0b ca bd 36 cc 85 bd f4 c8 ff bd 13 e2 b2 bd
       -0.098654814 -0.06533091 -0.12489501 -0.087345265
000250 f0 59 6a bd f4 11 7c 3c 75 b7 a8 ba 44 c2 49 3d
       -0.057214677 0.01538514 -0.0012872057 0.04925753
000260 a9 87 14 bd c1 1a 71 3d 4a 53 01 bc 96 6d 61 bd
       -0.036262188 0.058863405 -0.007893393 -0.05503615
000270 0e 8d 8c be d6 98 dc bd 12 aa 3c 3e 44 32 d1 3d
       -0.27451366 -0.10771339 0.18424252 0.102146655
000280 95 15 39 3c 01 d1 80 3d 6f e1 8d bc 74 4a 72 3e
       0.011296649 0.06289864 -0.01731941 0.23661214
000290 ae 43 b2 3e c2 84 b5 38 98 34 f3 bc 97 b6 e8 bb
       0.3481726 8.6554806e-05 -0.029688165 -0.0071018445
0002a0 90 bd 86 be df d7 4e bd 31 c4 c6 bd 9e 38 25 3e
       -0.263165 -0.05049884 -0.09705389 0.16134879
0002b0 e4 a5 33 3e 57 65 38 3e 52 86 93 3b 37 11 a2 bd
       0.17543751 0.18007408 0.004502096 -0.0791344
0002c0 81 5c 9e bc e6 1f 5c bd 33 f2 d3 3c 57 73 e7 bd
       -0.019331219 -0.05374136 0.025872326 -0.11301296
0002d0 2c 6d 1a 3c 06 0e 59 bd be 0f fd b9 18 59 93 bd
       0.009425443 -0.05299189 -0.0004826765 -0.07194728
0002e0 42 e0 12 3e 16 06 f5 3d a0 4f 45 3e 30 e1 66 be
       0.1434336 0.119640514 0.19268656 -0.2254684
0002f0 3b c0 e1 bb e4 7a a5 3d a4 26 95 bd f3 42 85 bd
       -0.0068893707 0.0808008 -0.07282761 -0.0650691
000300 62 c0 27 3d 59 62 54 bd 5e 96 e3 3d a9 06 4f 3e
       0.040954955 -0.051851604 0.11112665 0.20217384
000310 1e 19 0f bc e3 18 cd bd 02 8c c9 bc 1e 6a ab 3d
       -0.008734016 -0.100145124 -0.024602894 0.083698496
000320 7c 2b 0c 3e 3a d6 03 3e f9 19 02 3e 18 4e 4f 3d
       0.13688463 0.1287469 0.1270522 0.050611585
000330 c1 3f 9a bd 57 b4 6a 3c bb b8 41 3e 56 66 c3 bd
       -0.07531691 0.014325223 0.18918125 -0.095410034
000340 ea 14 fa bd 2d 2a 48 3e 3b c1 cb 3d 66 23 2d bc
       -0.1221102 0.19547339 0.09948965 -0.010567522
000350 1c a8 86 bd 3f db c6 3d 06 f0 54 3e a7 9a 76 3d
       -0.06575033 0.097097866 0.20794687 0.06020608
000360 4a 00 52 3e f4 01 57 3c 26 08 e1 bd 6f c0 f2 bc
       0.20507923 0.013123024 -0.10987882 -0.029632775
000370 72 d9 a5 bd 87 20 f7 3c 8d d3 b4 3c 5d b6 c0 3c
       -0.08098115 0.030166877 0.022073532 0.023524458
000380 05 04 cd bc 89 57 76 ba dd 11 04 3e bf 82 fe 3d
       -0.02502633 -0.0009397199 0.1289744 0.124272816
000390 1a a5 a8 3b 17 1a 13 bd c2 05 c1 bd c0 89 d1 bd
       0.0051466348 -0.035913553 -0.09424926 -0.10231352
0003a0 8d 65 cf 3d fe 98 91 be f0 a0 03 be 06 35 e7 3d
       0.10126791 -0.28437036 -0.12854362 0.1128941
0003b0 e9 f5 80 bd 49 32 7c 3d 22 f6 04 3e 6a 7f 2c be
       -0.06296904 0.061571393 0.12984517 -0.1684548
0003c0 93 8c 5a be e7 ed 23 3e 03 91 1f 3d 36 d1 54 3e
       -0.21342687 0.16008721 0.038956653 0.20782933
0003d0 04 46 88 3d 53 b0 02 3d f8 97 18 3d b2 d9 67 be
       0.066539794 0.031906437 0.037254304 -0.22641638
0003e0 ec f0 cf 3c e6 ca 0f be d2 a8 25 3d 5e da d7 be
       0.025383435 -0.14042243 0.040444203 -0.42158788
0003f0 3d 41 ca ba 4c c9 73 3d 19 e6 0a be ce 0f 49 be
       -0.001543082 0.059518144 -0.13564338 -0.19634935

layers.2.bias f4 [64]
000000 ed f2 d9 3d ad 03 37 bd 00 c4 54 3c 58 da 3e 3d
       0.106420375 -0.04468124 0.012986183 0.046594948
000010 b8 e7 1f bd c3 72 1d 3b 5c a3 33 bd a7 01 13 3d
       -0.039039344 0.0024024702 -0.043856964 0.035890248
000020 36 d5 51 bd 92 ff 59 bd 45 f1 74 bc 8e 6d f2 bc
       -0.051228724 -0.053222246 -0.014950101 -0.029593255
000030 d8 9e 68 bd 91 55 e0 bc b1 1c 7d bc ac 3a 8f 3d
       -0.05679211 -0.027384551 -0.015448735 0.06993613
000040 bd c4 db bc 18 a3 cb 3d 7c aa ed 3c 15 8a 86 bd
       -0.02682721 0.09943217 0.029011957 -0.06569306
000050 e4 3b 93 3d c9 f6 61 3d 93 e5 95 bd 13 f2 04 be
       0.071891576 0.055166993 -0.073191784 -0.12982969
000060 70 32 90 3d ad 63 99 bd e4 3d 94 3c d1 48 98 3b
       0.0704087 -0.07489715 0.018095918 0.0046473523
000070 c3 90 e0 3d a1 85 d0 bd a5 2a 34 3d 33 ef fd bd
       0.10965111 -0.10181738 0.04398598 -0.12399139
000080 5a 3a e1 3d 89 e7 66 3d c8 13 9e 3d 3c 2d 9d 3a
       0.10997458 0.056373153 0.07718617 0.001199163
000090 8a 91 82 3d eb f5 9e bc a3 62 1d bc 85 15 a3 3c
       0.063754156 -0.019404372 -0.009606036 0.019907722
0000a0 d6 c5 50 bd ff 42 87 3d 19 82 1a 3c 18 23 85 3c
       -0.05096992 0.06604575 0.009430432 0.016252086
0000b0 d5 ef d4 bd 4e 92 5b bd bb a1 81 bd 16 70 2b be
       -0.10397307 -0.053606324 -0.06329676 -0.16741976
0000c0 01 61 c6 3d 06 4d 5e bd 39 1d b9 3b 71 62 b7 bc
       0.09686471 -0.054272674 0.0056492356 -0.022385808
0000d0 7e 10 a1 39 df cc 2f 3e 30 3f 94 bd 42 6b 91 bd
       0.000307206 0.17167996 -0.072386146 -0.07100536
0000e0 80 a8 87 3d 91 d5 04 be 5c 91 7d bd 1e 57 eb 3c
       0.06623936 -0.12972094 -0.061906204 0.028728064
0000f0 9b 21 29 be c5 1f 09 be a1 c6 d0 3b b2 90 57 bc
       -0.16516726 -0.13391025 0.0063713347 -0.013157057

readout.weight f4 [1, 64]
000000 ac 73 f5 be 0a e9 d7 be 04 5c af be 1f fe b3 3e
       -0.47939813 -0.42169982 -0.3424989 0.35154817
000010 b1 8f f7 3e 8a c3 0d 3f 23 77 05 bf 59 11 0a bf
       0.48351815 0.55376494 -0.52134913 -0.5393272
000020 89 53 0a 3e 6a e8 20 3f 17 b5 de be 7b 58 f5 3e
       0.13508429 0.62854636 -0.43497536 0.47919068
000030 59 cd d0 be db 15 b2 be cb 58 04 3f a8 73 03 bf
       -0.40781668 -0.347823 0.5169799 -0.5134835
000040 13 34 fa be a0 99 b0 3e d5 28 08 3f 4a ed ba be
       -0.48867854 0.34492207 0.53187305 -0.36509162
000050 34 66 13 bf dd 3c ce 3e 5b 19 16 3f 0a ee c9 3e
       -0.57577825 0.4028081 0.5863244 0.39439422
000060 8e ef 10 bf 28 20 14 bf a9 0e 05 bf cf 50 13 3f
       -0.5661553 -0.57861567 -0.51975495 0.5754518
000070 d2 a1 18 bf 9c e1 0a 3f 45 17 b6 3e c3 f4 eb 3e
       -0.5962192 0.542505 0.35564628 0.46085176
000080 a9 d5 0f bf 5d e5 20 3f 0f 1c af be b2 56 13 be
       -0.56185395 0.6284998 -0.34201095 -0.1438854
000090 b7 44 a8 3e ae 89 f0 be 95 e5 d7 be 3e 4c 11 3f
       0.32864925 -0.4698004 -0.42167345 0.5675696
0000a0 99 a5 f8 be 8f 39 f0 be 7c e2 20 bf 94 aa 45 bf
       -0.4856384 -0.46918914 -0.6284559 -0.77213407
0000b0 7e 09 e2 3e a7 e7 18 3f cb 9b e4 3e cb 69 0d 3f
       0.44147867 0.59728473 0.4465011 0.5523955
0000c0 35 05 15 be 37 62 3a 3f 90 0c 0a 3f 70 f2 b4 be
       -0.14552768 0.72806114 0.5392542 -0.35341215
0000d0 2b 40 d5 be 85 a7 1f bf bf 61 b7 be c3 f1 da 3e
       -0.4165052 -0.6236499 -0.35816762 0.42762575
0000e0 23 29 0b be 2a 1f d6 3e 9e c4 10 3f 2a 51 38 3c
       -0.13589911 0.4182065 0.56550014 0.01124982
0000f0 38 61 be 3d 9e ab 1b 3f 3d 51 bc bd 66 53 04 3f
       0.09295887 0.6080874 -0.091951825 0.51689756

layers.0.weight f4 [128, 17]
000000 3e 83 b4 3e 12 b9 09 3f dc 95 b2 bd 9a 4e 94 bd
       0.3525638 0.5379802 -0.0871999 -0.072415546
000010 c2 d4 03 be c5 5a 43 be 3d a9 29 be 3c fa 1e be
       -0.1287413 -0.19077595 -0.16568466 -0.15525144
000020 b0 ac 18 3e 35 e6 8b be 04 a1 bf bd b1 10 7e bd
       0.14909625 -0.27324072 -0.09356883 -0.062027637
000030 4c 6e 5a 3d 5e b4 01 bd 40 43 25 be 33 8e cc 3b
       0.053327844 -0.031666152 -0.16138935 0.0062425374
000040 fa 36 97 3d 31 4b cf 3e 6d cd 18 bf 82 d9 1f bf
       0.07383533 0.40487054 -0.59688455 -0.62441266
000050 30 d9 9a 3e 4c d1 84 be 5d ea 10 3f 23 ae b8 bd
       0.30243826 -0.2594093 0.5660761 -0.09017589
000060 8e 8c 3e 3e e4 90 ee be e8 ff 16 bf 8b de 4f 3e
       0.18608305 -0.46594918 -0.5898423 0.20299737
000070 ad 8d 08 3e a0 88 2f 3e bc d4 b3 3b 0e 09 db bc
       0.13335295 0.17141962 0.0054880064 -0.026737716
000080 dd 22 07 3d a9 08 bc 3d 54 41 42 3d 51 35 09 bf
       0.032992233 0.09181339 0.047425583 -0.5359698
000090 9c 9b 9f be 88 50 fd 3e fd ce 1a be f7 01 bb 3f
       -0.31173408 0.49475503 -0.15118022 1.4609975
0000a0 71 db bb 3e dc ed 84 3e 7b 92 06 bf 68 f2 d9 3d
       0.36690858 0.25962722 -0.5256726 0.106419384
0000b0 17 8b db 3e 1a 58 83 bd bf de c9 3c 64 29 63 3c
       0.42879555 -0.064132884 0.024642346 0.013864849
0000c0 f9 5b bb 3e 4a 1a a6 3d 77 78 c9 3c ef 23 98 be
       0.36593607 0.08110483 0.024593575 -0.29714915
0000d0 da 62 36 bf 18 8d c0 3e 2b 1c ec be 28 4c a4 3d
       -0.71244586 0.37607646 -0.4611524 0.08022338
0000e0 e0 51 c9 3e e7 e1 9e 3e e1 6a 8c 3d 21 59 d4 3d
       0.39320278 0.31031725 0.06856323 0.103685625
0000f0 96 70 83 be 1a 24 55 be cf 34 e5 3d 6a 03 4e 3d
       -0.25671834 -0.20814553 0.11191713 0.050296225
000100 68 03 c9 3c 32 a0 46 bd ff e9 f8 bd 01 16 52 bd
       0.024537757 -0.048492618 -0.12154006 -0.051290516
000110 ff 3a b6 3e 6e 10 8b bd 81 a7 89 3f 93 a9 18 bf
       0.35591885 -0.06790243 1.0754243 -0.5963375
000120 98 0a 9f bc 66 98 a8 3e 9b a3 4c 3f 1b 02 88 3e
       -0.019414231 0.3292877 0.7993714 0.26564106
000130 54 e4 a5 3e db eb 80 3f 3b cf 76 3e 57 96 e4 3c
       0.32400763 1.0071977 0.2410249 0.027903719
000140 11 2d c1 bc 5b 90 2e bb e4 37 ea 3c 63 68 8f 3c
       -0.02358106 -0.0026636336 0.028591104 0.01750583
000150 12 0f e0 3b b1 ef 8f 3e 73 72 b1 be 09 b4 84 bd
       0.006837734 0.28112558 -0.3465763 -0.064796515
000160 de 38 e7 bd 88 e7 13 bf e9 1b 38 bf 66 2e 4f bf
       -0.112901434 -0.57775164 -0.7191759 -0.80930173
000170 d5 a6 a5 be 17 f1 0c bf 18 d5 aa 3e 38 9a 75 be
       -0.32353845 -0.55055374 0.33365703 -0.23984611
000180 d8 d8 c5 3d 41 ea 68 3e 3a 02 ea 3c 31 65 62 3e
       0.096605 0.22745611 0.028565515 0.22108914
000190 d9 80 c4 bd 98 20 8a 3d 41 c7 5e 3f b2 18 c5 bd
       -0.09594888 0.06744498 0.8702279 -0.09623851
0001a0 cb 43 9e bf b7 b6 07 3e 31 f7 03 3d 7a ce 37 bf
       -1.2364439 0.13253294 0.032218162 -0.71799433
0001b0 af bd ac be 56 d4 db bd 30 05 07 bf be e8 c3 3d
       -0.33738467 -0.10733859 -0.5274229 0.095658764
0001c0 97 a5 b2 be a3 c3 37 3d 61 17 c4 bc 6b df e8 3b
       -0.3489196 0.044864308 -0.02393693 0.0071067116
0001d0 b2 77 17 3d cd 65 7c bd d3 ce b2 3c bd 3a a3 be
       0.036979385 -0.061620522 0.021827137 -0.3188075
0001e0 38 4f 76 3d 04 df 72 bf d4 a1 09 3d 8b 43 22 be
       0.060134143 -0.94871545 0.033601597 -0.15846078
0001f0 b0 2d 29 3f 57 36 44 be b2 0b 40 bc 93 c7 0f 3e
       0.6608534 -0.19161354 -0.011721538 0.14040975
000200 42 07 68 3e c2 ae 78 3f 75 77 5b bd a7 60 d7 3d
       0.22659019 0.9714166 -0.05358072 0.10516482
000210 69 99 22 3c 47 c0 80 3d 37 67 e1 3d 69 4c 31 3c
       0.009924271 0.06286674 0.11006015 0.01082144
000220 01 4d c8 3e 82 5b 5f bf ec 9f 6c 3e 2b 17 9f bb
       0.3912125 -0.87249005 0.2310788 -0.0048550568
000230 6f 65 30 3f 3f 30 11 bc b5 5e 61 be ba 01 27 bd
       0.68904775 -0.0088616 -0.22008784 -0.04077313
000240 15 ce 5b bf 9f e1 1d 3e 6d f5 96 bd 9c 0e 85 bd
       -0.8586133 0.15418099 -0.0737103 -0.06496927
000250 7c b4 c9 3d de b4 2f 3c 79 bb 5f bd 70 c2 49 bd
       0.09848878 0.010724274 -0.054622147 -0.049257696
000260 00 8e e8 3c 84 fb c3 3e 79 dc 44 bf fe 07 69 be
       0.028388023 0.3827783 -0.76898915 -0.22756955
000270 ec 0b e5 3e 08 4f df bd bc 12 13 3f 73 0e 87 be
       0.44735658 -0.10903746 0.5745046 -0.2637821
000280 a6 89 75 bd 4f 97 83 3e 28 15 32 bf 06 63 06 bf
       -0.059945725 0.25701377 -0.6956353 -0.5249485
000290 de 77 10 be dc f7 a7 bd 61 47 cc 3c 32 cb d5 3d
       -0.14108226 -0.08201572 0.02493638 0.10439147
0002a0 82 3d ee 3c 21 01 0e 3a 3c f8 28 be 9a 34 e4 3b
       0.029082064 0.00054170383 -0.16500944 0.0069642784
0002b0 6b d0 25 3f 25 cc c7 3e de 65 ee be 7c f3 2f 3f
       0.64771146 0.39022937 -0.46562093 0.687309
0002c0 b6 74 9c be c6 a2 8d 3e 87 7c 11 3f 0f 25 63 bf
       -0.30557793 0.2766325 0.5683064 -0.8872842
0002d0 c4 dc 3e be 5e de de 3d 72 72 0b 3e 0f 61 81 3c
       -0.18638903 0.10882257 0.13617876 0.015793351
0002e0 c7 5e 5f 3b 88 20 82 3c 94 ca 60 3d 9b fa ce 3e
       0.0034083591 0.015884653 0.054880694 0.40425572
0002f0 8f 41 da bc 59 cb 0a 3e 19 22 59 bf 83 39 2e 3e
       -0.026642589 0.13554133 -0.84817654 0.17014126
000300 1b 6e 0c 3f 2b 4c 22 3f 4f d9 f9 3d cf 26 b9 be
       0.5485551 0.63397473 0.121996514 -0.3616242
000310 f0 22 4a 3f 03 37 56 be 49 8c 34 3d 97 81 81 bd
       0.7895956 -0.20919423 0.0440791 -0.063235454
000320 96 77 eb 3c 57 df 4e bc 59 ef b6 3b f0 36 84 bc
       0.028743546 -0.012626491 0.0055827317 -0.016139477
000330 7e 3a 3c 3f 50 c4 2f bd b5 37 b2 be e4 fc 1e be
       0.7352675 -0.042911828 -0.34808126 -0.15526158
000340 ca aa 0f bd 62 fd ae bf 9c 9c b2 be cd a7 8a be
       -0.035074987 -1.3671076 -0.34885108 -0.27081147
000350 4e a1 31 3f 49 99 4e 3f 18 3d 0c 3f e2 d2 f7 3c
       0.69386756 0.80702645 0.5478072 0.030251924
000360 11 34 0f bc a3 47 a1 bb 5d 07 43 3d b5 c1 b2 3d
       -0.008740441 -0.00492187 0.047614444 0.08728353
000370 8d 14 08 3d d2 bb ef be 03 68 86 3e a8 6c 88 3e
       0.033222724 -0.46822983 0.2625123 0.26645398
000380 fa 29 de 3e 9e 67 52 3d e8 42 74 3f d2 2d 85 3f
       0.433914 0.05136835 0.9541459 1.0404608
000390 ca 42 12 3f 1a f1 e6 be 1d db 4e 3e 91 1a e6 be
       0.5713316 -0.4510582 0.20200773 -0.44942144
0003a0 3d 1a 56 3d 0b 0a e3 3c ce 31 c2 bc 1e 70 f6 bb
       0.052271117 0.02771475 -0.02370539 -0.0075206896
0003b0 bd df 07 be 13 ec 79 bb 9f 06 74 3f 67 a0 72 bf
       -0.13268943 -0.0038135096 0.95322603 -0.94776005
0003c0 25 9e 47 bf 76 33 05 bf 3c da ea be 25 4d 47 be
       -0.77975684 -0.5203165 -0.45869625 -0.19463022
0003d0 ae c8 b2 3d 7e 72 30 be 25 4d bf be 88 45 19 3f
       0.08729683 -0.17231175 -0.37363544 0.5987172
0003e0 f0 61 aa bc 03 d8 fe bd 05 c2 16 3c 02 fd b1 3c
       -0.020798653 -0.12443545 0.009201531 0.021727089
0003f0 31 1c 91 be 26 4f c2 bc af bb a4 bd 9d 73 7b be
       -0.2834182 -0.023719382 -0.0804361 -0.24555822

layers.0.bias f4 [128]
000000 9b e3 65 3e a8 7e 5a 3f 8e d2 1e 3c 43 12 4b 3f
       0.22450106 0.8534951 0.009693755 0.7932474
000010 49 26 49 3f ad 85 c4 be a0 6c 0e 3f 4e 2e 46 3d
       0.78574044 -0.38383237 0.556345 0.048384003
000020 6f f7 72 be c5 e7 c3 3e bf 6b d7 3e 15 61 40 3f
       -0.23727201 0.38262764 0.4207439 0.75148135
000030 bc 8a 36 3f bf 5e af 3d 6e a7 39 bd fa 43 2e be
       0.7130544 0.08562993 -0.04532569 -0.17018119
000040 8b 93 32 3e ef 0a a5 3d 2d 99 3c 3f 2f b8 06 3f
       0.17439096 0.08058726 0.7367123 0.5262479
000050 d1 56 16 3f 1c e4 9d 3f 68 7e 09 3d e8 4a b8 3e
       0.5872622 1.2335238 0.033567816 0.3599465
000060 b5 e8 6f be 45 8b 81 3e 0f 4a 3f 3e cb 58 54 3f
       -0.23428614 0.25301567 0.18680595 0.8294799
000070 c1 f2 4c be 73 55 d0 3e 87 1b 3b be a0 28 04 be
       -0.20014478 0.40690193 -0.1827222 -0.12906122
000080 7b 3a 53 3d 56 a2 b1 3e bc 71 dc 3c 69 ae 93 be
       0.051569443 0.34694165 0.026909702 -0.28844002
000090 f3 44 34 bf 11 2c 16 3f f3 88 25 3e 76 b8 ad be
       -0.7041771 0.5866099 0.16165523 -0.33929795
0000a0 9d dd 20 be 23 85 ca 3e bd 2b ba be 88 bc 76 3d
       -0.15709539 0.395547 -0.36361495 0.06023839
0000b0 3d c1 9a 3e 40 0a c9 3d 94 74 1d 3f 79 eb 7d 3f
       0.30225554 0.09816408 0.6150601 0.9918743
0000c0 b7 cf b4 3e 54 b1 13 3e a2 08 58 bd c4 a6 af be
       0.35314724 0.14423114 -0.052742608 -0.3430692
0000d0 d9 3f b4 3e ad c7 0b bf fb ef 7e bd 7f e9 7e be
       0.35204962 -0.54601556 -0.062240582 -0.24893759
0000e0 6d 31 40 3e e6 92 ae be a3 a4 42 3e 57 82 62 be
       0.18768854 -0.3409645 0.19008116 -0.22120033
0000f0 79 44 cf 3e 3d db b0 3e c5 5e 99 be 66 60 81 3f
       0.40481928 0.34542266 -0.29955116 1.0107543
000100 4a f2 d0 be f7 b4 31 3e 85 28 dd be fd 77 8c be
       -0.40809852 0.17354189 -0.43194976 -0.27435294
000110 26 a4 15 be 00 0e 0d be 0a 6a 2e 3f 75 88 2b 3f
       -0.14613399 -0.13774872 0.6813055 0.6700509
000120 b4 53 c9 be 88 50 f9 bd 9c 6c a6 be ec 9b be 3e
       -0.39321673 -0.12173563 -0.32504737 0.37228334
000130 be 5e 2f 3d 39 00 0e 3e 27 9e ac 3e 6e c9 72 be
       0.042814963 0.13867272 0.3371441 -0.23709652
000140 c4 fc be be f6 57 05 bf 14 fb c2 be 4e 55 1b 3d
       -0.3730222 -0.5208734 -0.38082182 0.03792315
000150 17 57 f8 3e 18 75 c8 3c fa c2 8c 3e a7 8f 42 be
       0.48503944 0.024469897 0.27492505 -0.19000112
000160 6a 79 c7 be c0 0c a2 3e 5f 22 81 be 42 5d 8a 3e
       -0.3895982 0.31650352 -0.25221536 0.27024275
000170 6e 65 4f 3e ca d8 78 3f a8 ac 2e 3f a4 2d 9d be
       0.20253536 0.97205794 0.682322 -0.30698884
000180 ce ae 19 be 0e 14 27 bf d8 69 1e be ee 2d 4f 3f
       -0.15008089 -0.65264976 -0.15470064 0.8092946
000190 9c 0d 10 3e 0c e2 1f be a5 f6 00 3f 6a 99 64 3e
       0.14067692 -0.15613574 0.5037635 0.22324148
0001a0 1e 0b b7 3e ff 03 b9 3d 1e e5 9e be f9 1d 55 be
       0.3575067 0.09033965 -0.31034178 -0.20812215
0001b0 47 ad b1 be c2 aa 3b 3f c4 a8 fa 3e 7e d0 04 3f
       -0.34702513 0.7330743 0.48956883 0.51880634
0001c0 a4 99 b2 3e 0a c1 a9 3e 8a cc ac be b6 e9 4b bc
       0.34882843 0.3315509 -0.337498 -0.012445858
0001d0 8b e2 b1 3d 9a 19 1d 3f 6a df 37 3e 19 c9 cc 3e
       0.08685788 0.6136719 0.1795632 0.39997175
0001e0 1f 9e f0 3e 09 c5 76 3e ea 53 9e be 7d f0 b3 3c
       0.46995637 0.240986 -0.30923396 0.02196526
0001f0 74 45 a3 3e 76 af f5 be 2f 6d d2 3c a7 66 27 3f
       0.31888926 -0.4798543 0.025686828 0.6539101

layers.1.weight f4 [128, 128]
000000 b9 ba ac 3d 38 8c 31 be ca 18 5a 3e 48 4b 19 be
       0.08434052 -0.17338645 0.21298519 -0.14970124
000010 da a0 2d 3d 40 01 20 3e 34 77 85 3d ac f2 8e bd
       0.042389728 0.15625477 0.06516877 -0.0697988
000020 7f 30 a0 3d 68 5a f9 3d 65 36 a2 bc 1a 55 ae 3d
       0.0782175 0.12175447 -0.019801328 0.085123256
000030 4c e9 a9 be ba 04 10 3d 0a d5 b0 3c b5 9b f5 3c
       -0.33185804 0.035160758 0.02158596 0.029981473
000040 c3 85 8c 3b e5 86 44 3d 57 45 bd 3d 78 bb 6b bd
       0.0042884066 0.047980208 0.09241741 -0.05755183
000050 d8 83 03 be fe 14 5c be df 4f 7c 3d 96 d6 38 be
       -0.12843263 -0.21492383 0.06159961 -0.18050608
000060 77 ac 6c bd 51 0e 52 be 94 73 04 3e 8a ae da be
       -0.057781663 -0.20513274 0.12934715 -0.42711288
000070 94 b4 7e 3e 04 16 e8 3d ef 8f ff bd 37 34 8d 3d
       0.24873573 0.11332324 -0.12478625 0.06894725
000080 36 8f 0f be af 13 0f be 75 11 f9 3c 9b 42 2b 3e
       -0.14019474 -0.13972352 0.030403832 0.16724627
000090 87 44 a7 3d 9c 45 1f 3d c6 d0 1c 3d c1 c8 4f bc
       0.081673674 0.038884744 0.03828504 -0.012682141
0000a0 32 99 e9 3d 5e 8b 4e 3d 46 d6 40 be 1f 83 de 3d
       0.11406173 0.05042588 -0.18831739 0.10864853
0000b0 39 5b 72 3c 44 8e 88 bc 7b 39 ee bc a6 b8 c9 3d
       0.014792257 -0.0166694 -0.029080143 0.09849672
0000c0 ac 66 8a bc 6e 35 7f bd 0c 73 d3 bd fe 96 a3 bd
       -0.01689466 -0.062306814 -0.10324678 -0.07987784
0000d0 d9 62 21 bd 66 3e 1e bd 2f c0 c7 3d ca 0f d6 bd
       -0.03940091 -0.038633727 0.09753453 -0.1045223
0000e0 9f bc 8b 3d 23 6e 7b bd e9 98 e9 ba 96 45 53 3d
       0.06823086 -0.06138433 -0.001782206 0.051580034
0000f0 52 46 96 bd 1d eb fa 3c 00 3f 0f bd bd 61 e8 bd
       -0.07337631 0.030629689 -0.03497219 -0.11346767
000100 f0 90 15 3e 78 26 24 3e 52 96 89 3c 35 b3 af 3d
       0.1460607 0.160303 0.016795311 0.08579103
000110 cb 45 ab bd ff ed d5 bd a2 e5 8d bd 35 00 92 bd
       -0.08362921 -0.10445785 -0.069285646 -0.07128946
000120 d6 ac b6 3d fc eb 69 3e b0 5c 17 bd b3 92 c6 3d
       0.089196846 0.22843927 -0.036953628 0.096959494
000130 9f b4 26 3d 24 e9 1e bd ed 9e 93 bd a8 50 93 bc
       0.040699597 -0.03879656 -0.07208047 -0.017982796
000140 45 ae 81 3d 6a 89 c3 3d 3e 25 01 bb 95 0f df 3d
       0.063320674 0.09547694 -0.0019706036 0.10891644
000150 96 35 4e 3e 68 a4 9a 3d ac 81 c0 3d 59 c1 04 3d
       0.20137629 0.07550889 0.09399733 0.032410953
000160 65 71 ca 3b 27 f7 11 3d 7e fe 62 3d 7e 7b eb bc
       0.0061780685 0.035636093 0.055418484 -0.02874541
000170 b0 1b 23 bc 02 7e 1b be 0c 3e a0 bd 0f d7 99 bd
       -0.009955332 -0.15184787 -0.078243345 -0.07511722
000180 b2 64 56 3b b1 c8 26 3c 5c 94 0f be 14 f3 0a 3e
       0.0032713828 0.0101796845 -0.14021438 0.1356929
000190 f3 c7 b4 3d b9 13 bc 3d 86 e5 b3 3d f3 2a 58 3d
       0.088272 0.09183449 0.087840125 0.052775335
0001a0 2f dd d1 bc 89 c8 a0 3d 86 c6 04 3e e9 c1 28 be
       -0.025618164 0.07850749 0.12966356 -0.16480221
0001b0 6b be 72 3e 2a e4 08 3d da 3c 06 be d8 e8 93 3d
       0.23705451 0.03342072 -0.1310915 0.07222146
0001c0 d3 23 79 bd 47 f7 c8 bd 59 a4 78 bc 26 d3 a5 3b
       -0.06082518 -0.098127894 -0.015175902 0.0050605712
0001d0 b4 85 02 be 7a ca d7 bc 11 a2 3b 3d 07 87 0d 3e
       -0.12746316 -0.026341666 0.045808855 0.1382104
0001e0 6c df c6 3c 8e 0a 9a bd 7b a1 ee bc 44 58 5c 3d
       0.024276458 -0.075215444 -0.029129734 0.053795114
0001f0 78 fe c6 bd fc 44 08 3c de 6a 32 3d 86 74 84 be
       -0.09716505 0.008317228 0.043558948 -0.2587015
000200 38 e8 83 3d dd ac 32 3e 47 72 9b 3d f5 39 44 3e
       0.064407766 0.17448755 0.07590156 0.19162734
000210 1e ab 55 3c 76 29 27 3d 2a 33 98 bd b8 d7 6a be
       0.013041286 0.040811025 -0.07431634 -0.22933853
000220 c7 c8 f7 3b 56 69 5f 3d 11 25 43 bc b9 a0 2c be
       0.0075617763 0.054543816 -0.011910693 -0.16858186
000230 44 f8 86 3c 40 f5 d7 3d 80 37 dc bc 60 1d 22 3d
       0.016475804 0.105448246 -0.026881933 0.039578795
000240 6b c2 bf bd 89 cc a1 bd 0d 6f cd 3c 39 75 75 3d
       -0.09363254 -0.0790034 0.025077367 0.059926245
000250 4f 0e a3 bd a2 13 bf 3c 13 53 94 3d 36 35 a1 bd
       -0.079617135 0.023324791 0.07242408 -0.07871477
000260 82 6f 3b 3c 9f 02 9b 3d d5 08 aa 3d 6e c5 de 3d
       0.01144016 0.07568859 0.08302466 0.108775005
000270 99 6e 4a bd f6 ef 00 3e 7a 36 81 3d 8f 96 9d bc
       -0.04942188 0.12591538 0.06309219 -0.019236831
000280 b4 97 0e 3c 62 38 00 be b2 43 cb 3a 35 27 55 3d
       0.008703161 -0.12521508 0.0015507846 0.052039344
000290 43 0b 06 3d de 0f 39 3e 69 2a 52 3e 96 e5 ec bc
       0.032725584 0.18072459 0.2052399 -0.028918069
0002a0 4c 2c 80 3d 77 06 ad 3d b5 38 ac bd fb bb ef bb
       0.06258449 0.08448499 -0.084092535 -0.00731611
0002b0 bf 26 fe bc e4 74 08 bd a9 ed d6 3c 2c 3d 55 be
       -0.031024335 -0.0333146 0.026236372 -0.20824116
0002c0 72 53 9b 3d 78 56 39 3d 0e 00 4a bc 7f 10 49 3d
       0.07584275 0.04524848 -0.012329115 0.049087998
0002d0 9f a3 1e 3c 2a 60 71 3c 08 f4 66 3d f3 b0 be 3d
       0.009682565 0.0147324 0.05638507 0.09311094
0002e0 ad d8 c7 bd ed 5b f4 bd db 5e 50 3c ee 46 a5 3b
       -0.097581245 -0.11931596 0.012717928 0.005043856
0002f0 0a 54 19 bd 56 40 9f 3d 06 7b 17 bd bf b3 db bb
       -0.03743366 0.07775943 -0.03698256 -0.006704777
000300 ef a2 b5 3d df 1c 96 3c cd 11 1b 3b 96 f8 83 be
       0.08868968 0.018324314 0.0023661733 -0.25775594
000310 94 e2 83 3d b9 6b 9e ba 06 14 7b bd 93 17 b0 bc
       0.06439701 -0.0012086547 -0.061298393 -0.021495616
000320 1f b2 3b 3e 17 69 c4 bc f5 c4 ca 3d 38 e1 ab bc
       0.18329667 -0.023975892 0.09900848 -0.020981416
000330 8a 39 42 3d dc ef 9d 3d 4b 8c c5 bd e3 80 93 3e
       0.047418155 0.07711765 -0.096458994 0.2880927
000340 a9 03 22 bd de f0 dc bd 32 72 c2 3d c5 4b 39 3b
       -0.03955427 -0.10788129 0.09494437 0.0028273922
000350 a2 ef 15 3e 56 4b b5 3d e5 53 f1 ba 1a 0e c3 3c
       0.14642194 0.0885226 -0.0018411843 0.023810435
000360 df ed 12 bc 13 38 4a bd cf c5 a3 3d 43 ba 4c 3d
       -0.008967846 -0.049369883 0.07996713 0.04998232
000370 43 b1 65 3c 0b ac 59 3e 3f bc 58 3d 02 fd ac bd
       0.014019313 0.21257035 0.0529139 -0.08446695
000380 46 8a 03 bd 2c 27 2d 3d d1 ed 42 be 4c 91 7b bd
       -0.03211429 0.042273685 -0.19036032 -0.061417863
000390 13 78 d5 bc ca 93 37 bd 31 0e b8 bd 3c 7d 32 bd
       -0.026058232 -0.044818677 -0.08987082 -0.043576464
0003a0 89 07 23 bd 6a ac c8 3e 85 de 87 bb 9f 5e 82 bd
       -0.039802108 0.39194041 -0.0041463994 -0.06365704
0003b0 40 ca 72 3e 23 19 e1 bd e9 cc 11 be 0a 3a 93 bd
       0.23709965 -0.109911226 -0.14238323 -0.071888044
0003c0 7d 08 12 3e 58 6d 9d bc 7c 2a b1 3d ca f0 9c be
       0.1426105 -0.019217178 0.086506814 -0.30652457
0003d0 d1 80 0b 3e 2d 9b 6c 3d db 45 c2 3c b3 e8 eb 3d
       0.13623358 0.057765175 0.02371495 0.11518993
0003e0 74 72 35 3d c0 51 99 3e ae 99 d9 3d 99 b3 09 3e
       0.044298604 0.29945183 0.10625015 0.13447417
0003f0 f2 fc cc 3d a8 54 be 3c ed 5e 5c 3e 53 b0 00 be
       0.10009183 0.023233727 0.21520586 -0.12567262
