Gym-DDPG-solution/results/DDPG_HalfCheetah-v4_6000-eps0.1-t32-l0.0001-s1.pth (torch, 193979 bytes, 13 tensors)

layers.0.weight f4 [128, 23]
0	0x3e83a959	0.2571514
1	0x3cd4093d	0.025883311
2	0x3cb2d037	0.0218278
3	0x3e2f1c16	0.17100558
4	0xbda7814c	-0.08178958
5	0x3f178c1d	0.5919817
6	0x3e586f05	0.211361
7	0x3d09eefe	0.033675186
8	0xbe8ba31b	-0.27272877
9	0x3e05aa54	0.13053256
10	0x3d36534f	0.044513043
11	0x3c2175c5	0.009854739
12	0x3c5a3225	0.013317619
13	0xba5e8601	-0.0008488596
14	0x3bc8176d	0.006106308
15	0xbd006fe8	-0.031356722
16	0xbc7eedb0	-0.015559599
17	0xbcb1b294	-0.021691598
18	0x3e852915	0.26007906
19	0x3e838630	0.25688314
20	0xbdc87cc2	-0.09789421
21	0xbe80842d	-0.25100842
22	0xbdb01d42	-0.085993305
23	0x3e5a1fe1	0.21301223
24	0xbd491a69	-0.049097452
25	0x3f4d9abc	0.8031423
26	0x3ea6f327	0.32607386
27	0x3dabdf43	0.08392193
28	0x3ccee923	0.025257653
29	0x3ec06095	0.37573686
30	0xbe5e0748	-0.21682465
31	0x3e986ee0	0.2977209
32	0x3e3e8b9f	0.18607949
33	0xbecac475	-0.3960301
34	0xbc5e9bad	-0.013586921
35	0xbd54f30d	-0.051989604
36	0x3ca3d95f	0.020001112
37	0xbd4a7ded	-0.0494365
38	0x3cb7635d	0.022386247
39	0x3b7abdfe	0.0038260217
40	0x3eefbe1f	0.46824738
41	0x3d2f2a69	0.042765055
42	0x3b082a6e	0.0020777243
43	0x3e4312c8	0.19050133
44	0xbeb706d4	-0.35747397
45	0x3e4c864d	0.19973107
46	0x3ec386e3	0.38188848
47	0x3c6dec91	0.014521734
48	0xbecb51bb	-0.39710793
49	0x3d53195a	0.05153785
50	0xbd6db462	-0.058033355
51	0xbf9d1ee6	-1.2275054
52	0xbf52aea2	-0.8229772
53	0xbda5ffa7	-0.081054024
54	0x3ebd3aef	0.36959025
55	0x3edc12dc	0.4298314
56	0xbe8eab18	-0.2786491
57	0x3b336c59	0.0027377813
58	0xbd337d99	-0.04382095
59	0x3c971f8b	0.018447658
60	0xbcd67ffa	-0.02618407
61	0x3be4f6e6	0.0069874404
62	0xbbe4c3b8	-0.0069813393
63	0x3db9032c	0.09033808
64	0x3e087d77	0.13329111
65	0xbda2e3ac	-0.07953581
66	0x3e0a59c1	0.13510801
67	0xbe447176	-0.19183907
68	0xbd09333d	-0.03349613
69	0xbf2fb8b3	-0.68641204
70	0xbd873c04	-0.06603244
71	0xbe0f3c6e	-0.13987896
72	0x3e82a503	0.2551652
73	0x3e9d54e7	0.30728838
74	0x3e8fdf12	0.28099877
75	0x3eb9e312	0.36306053
76	0x3d43398c	0.047662303
77	0xbd3815d1	-0.04494268
78	0xbf113a3d	-0.5672949
79	0xbe280023	-0.16406302
80	0xbe1ccdc7	-0.15312873
81	0xbdb0292d	-0.08601604
82	0x3b278cfc	0.002556621
83	0x3d5cd85f	0.053917285
84	0x3c86101c	0.016365103
85	0xbc4494a1	-0.0119983265
86	0xbeaac051	-0.3334985
87	0x3e6b53d0	0.2298119
88	0x3dc2cc3b	0.0951161
89	0x3e68ec38	0.2274636
90	0x3e01040e	0.12599203
91	0xbe27cff8	-0.16387928
92	0x3f1f7fa0	0.62304115
93	0x3dd6db46	0.10491042
94	0xbe9f07fa	-0.31060773
95	0xbd041f7c	-0.03225659
96	0x3da8212d	0.08209453
97	0x3e8f7a98	0.2802322
98	0xbe347d2f	-0.17625879
99	0xbe14ba8e	-0.1452429
100	0x3ed353ef	0.41274974
101	0xbc83181d	-0.016002709
102	0x3e954f8c	0.29162252
103	0x3d484524	0.048894063
104	0xbd259aa5	-0.040430684
105	0xbcdb1611	-0.02674392
106	0x3d0e71b1	0.034776393
107	0x3bdca958	0.0067340545
108	0x3c0a997e	0.008459447
109	0x3c8a1d31	0.016859623
110	0x3e01cc65	0.12675627
111	0x3d94f192	0.072726384
112	0x3e827b53	0.25484714
113	0xbe46af0e	-0.19402716
114	0xbceedbd6	-0.02915756
115	0x3e89b9f5	0.26899686
116	0x3ef5cce2	0.48007876
117	0x3dd6c2f6	0.104864046
118	0xbf4c20a9	-0.79737335
119	0xbde8a770	-0.11360061
120	0x3ed175f0	0.40910292
121	0x3ed801e6	0.42188948
122	0x3eebf307	0.46083853
123	0xbd2202d4	-0.03955348
124	0x3e8660cc	0.26245725
125	0xbe82dcda	-0.2555912
126	0xbbc6dc57	-0.006068747
127	0xbdb83ce3	-0.08995988
128	0x3b6ee312	0.0036451262
129	0xbc2e3d1f	-0.01063469
130	0x3cfe1480	0.031015635
131	0xbb7f2f7a	-0.003893821
132	0x3dda107e	0.10647677
133	0x3e960f38	0.29308486
134	0x3e0eff22	0.13964513
135	0x3eeb616c	0.45972764
136	0x3edb2934	0.42804873
137	0x3d6ccaa7	0.05781045
138	0x3d900ec0	0.07034063
139	0x3c21f8f6	0.009886017
140	0x3e912be4	0.28353798
141	0x3dbf032b	0.09326776
142	0xbe4d744b	-0.20063893
143	0xbf01e43c	-0.50738883
144	0xbed21407	-0.41030905
145	0xbee8ef5f	-0.45495126
146	0x3efbec15	0.49203554
147	0x3f15d01e	0.58520687
148	0x3f1ce0a7	0.6128029
149	0x3d890b6a	0.0669163
150	0x3d4a16ef	0.049338277
151	0x3b85419b	0.0040666587
152	0xbc046b58	-0.008082233
153	0xbd35a77a	-0.04434917
154	0xbba33b21	-0.004981414
155	0xbe3425bd	-0.17592521
156	0xbe472f63	-0.1945167
157	0xbee3d1fa	-0.44496137
158	0x3e558182	0.20850185
159	0xbdc82827	-0.097732835
160	0x3b2be3d6	0.002622833
161	0x3efba589	0.4914973
162	0x3e8ae48a	0.27127486
163	0x3f0bf3af	0.54668707
164	0xbe00d3c1	-0.12580778
165	0x3e391387	0.18073855
166	0xbcd7bb79	-0.026334511
167	0xbd47e9b6	-0.04880687
168	0xbd65ce76	-0.0561051
169	0xbe862b30	-0.26204824
170	0xbe83feb3	-0.25780258
171	0x3e063dd4	0.13109523
172	0x3a82c636	0.0009977284
173	0x3d4116b1	0.04714078
174	0xbb22c61f	-0.0024837328
175	0x3d61555d	0.05501305
176	0x3b4ef995	0.0031581868
177	0x3c52aaa9	0.012858071
178	0xbe306ac1	-0.17228223
179	0x3ed722a0	0.42018604
180	0x3e0246c3	0.12722306
181	0x3e0acffb	0.13555901
182	0xbe271ea4	-0.16320282
183	0xbc154bf6	-0.009112349
184	0xbebfcf64	-0.37462914
185	0x3e917be6	0.2841484
186	0xbe354650	-0.17702603
187	0xbe0d9c3f	-0.13829134
188	0xbdc47d1a	-0.09594174
189	0xbf2bb6b0	-0.67075634
190	0x3e2a8ee3	0.1665607
191	0xbe002747	-0.12514983
192	0xbec61523	-0.38688
193	0x3d8b30bd	0.067964055
194	0x3e53dd64	0.20689923
195	0xbda58184	-0.08081344
196	0x3cbbacba	0.02290951
197	0xbb716ddf	-0.003683917
198	0x3d60a2b7	0.054842677
199	0xbbc98af1	-0.0061505963
200	0xbc5d011b	-0.013489033
201	0xbef8dcc6	-0.48605937
202	0x3ed7d53b	0.4215487
203	0xbd7b716e	-0.06138747
204	0xbdfbf62c	-0.12302813
205	0xbea2f4a8	-0.31827283
206	0x3d9fcacd	0.07802353
207	0xbeb120a4	-0.34595215
208	0x3e721d17	0.2364391
209	0x3ea66752	0.32500702
210	0xbf5cdbc9	-0.86272866
211	0x3e048f81	0.12945367
212	0xbe8d90c5	-0.27649513
213	0x3cb9220a	0.022599239
214	0x3eb78f05	0.35851303
215	0x3f09f74d	0.53892976
216	0x3ec98801	0.39361575
217	0x3d352fd8	0.04423508
218	0x3b65be74	0.0035056146
219	0x3d35f8b8	0.04442665
220	0x3d1e8ff8	0.038711518
221	0x3c5a2580	0.013314605
222	0xbd67694f	-0.056496914
223	0xbd022029	-0.03176895
224	0x3e3078e7	0.1723362
225	0xbd49de16	-0.049284063
226	0x3d0a2a9b	0.033732038
227	0x3dba23fd	0.090888955
228	0x3e8d529f	0.27602097
229	0x3d140698	0.0361391
230	0x3e820f71	0.25402406
231	0xbf5175b8	-0.8182025
232	0x3e15389d	0.14572378
233	0x3df1767c	0.11790177
234	0xbd92a7a0	-0.07160878
235	0x3ea29e16	0.31761235
236	0xbe12fc47	-0.14354049
237	0xbe61e3dc	-0.22059578
238	0x3e68a718	0.22719991
239	0xbe4c1a4b	-0.19931905
240	0xbd08f291	-0.033434454
241	0xbd6969d6	-0.0569857
242	0xbd5d892e	-0.054085903
243	0xbc89acb4	-0.016805984
244	0xbdd4fc0c	-0.103996366
245	0x3c88bbb3	0.016691064
246	0x3c92a89a	0.017902661
247	0x3c8ec671	0.017428609
248	0xbdd2fbb1	-0.103019126
249	0x3e14e7b3	0.14541511
250	0x3e4f8c18	0.20268285
251	0xbd597aac	-0.053095505
252	0x3c93cc88	0.018041864
253	0x3f53db56	0.82756555
254	0x3cc6bb10	0.02425912
255	0x3def3d45	0.11681608

layers.0.bias f4 [128]
0	0xbdc03978	-0.09385961
1	0xbe389015	-0.18023713
2	0xbe458df4	-0.19292432
3	0xbbedd13e	-0.0072576096
4	0xbea3fe82	-0.32030112
5	0x3e1c7937	0.15280615
6	0x3bed8c02	0.0072493562
7	0xbea52710	-0.32256365
8	0x3e257ab4	0.16160089
9	0x3db890e8	0.09012014
10	0xbe5f14d0	-0.21785283
11	0xbf0222cc	-0.50834346
12	0xbe089348	-0.13337433
13	0xbeb30968	-0.34968114
14	0xbdad8b4a	-0.08473833
15	0x3bff20a4	0.0077858735
16	0xbd8cf596	-0.06882779
17	0x3c50ecf9	0.012751811
18	0xbe983272	-0.29725987
19	0xbec7d079	-0.3902624
20	0x3eaaf9b3	0.3339363
21	0xbd9d34ec	-0.0767611
22	0xbc9fdf9a	-0.019515801
23	0xbe8b8dfc	-0.27256763
24	0x3dcd6eeb	0.100309215
25	0xbded4dd5	-0.11587111
26	0x3e2090d7	0.15680252
27	0xbda0baa6	-0.078481
28	0x3ec01474	0.37515604
29	0x3d0b965f	0.034078952
30	0x3ede9195	0.43470445
31	0xbe33fafe	-0.17576215
32	0x3ef99cde	0.48752493
33	0xbd311e86	-0.043242
34	0xbe5e8439	-0.21730126
35	0x3e13d549	0.1443683
36	0xbe4cbd20	-0.1999402
37	0x3dfbc179	0.12292761
38	0x3e02a4a2	0.12758115
39	0xbed38ab9	-0.41316774
40	0x3dac1ae8	0.084035695
41	0xbea1b01b	-0.3157967
42	0x3d7b9014	0.0614167
43	0xbeba64bd	-0.36404982
44	0x3dc2c54e	0.09510289
45	0x3c46998c	0.012121569
46	0xbf1a18f0	-0.601943
47	0xbec84eba	-0.39122564
48	0x3eb76d9c	0.35825813
49	0x3e070ab7	0.13187681
50	0xbe73fd96	-0.23827204
51	0xbe79a4d1	-0.24379279
52	0x3edc2b51	0.43001798
53	0x3ee4ae86	0.446644
54	0x3d9d3441	0.07675982
55	0xbe8a4db7	-0.27012417
56	0x3d0ed53b	0.03487132
57	0xbf198de5	-0.5998214
58	0x3caf0980	0.021366835
59	0x3eebd072	0.4605747
60	0xbdb6dac9	-0.08928449
61	0x3e48b166	0.19598922
62	0xbf0f12b1	-0.55887896
63	0x3e43d89c	0.19125599
64	0xbe18795e	-0.14890048
65	0x3e8f9ad0	0.280478
66	0xbe015db5	-0.12633403
67	0x3ddda610	0.108226895
68	0xbea27280	-0.31727982
69	0xbe820497	-0.25394127
70	0x3ea46993	0.32111797
71	0xbd492e6e	-0.049116544
72	0x3f2af57d	0.66780835
73	0xbed3b1e2	-0.4134665
74	0x3e097065	0.13421781
75	0xbe820e16	-0.25401372
76	0xbf15c7c8	-0.58507967
77	0xbecace4b	-0.39610514
78	0xbd399925	-0.045312066
79	0x3eb481d7	0.3525531
80	0xbda4bbfc	-0.08043668
81	0xbce0189f	-0.02735549
82	0x3e3aaa5b	0.18229048
83	0xbe109930	-0.14120936
84	0xbee7f634	-0.45305026
85	0xbe951d28	-0.29123807
86	0xbe116ed2	-0.14202431
87	0x3eae5969	0.3405259
88	0x3db0c928	0.086321175
89	0xbe20607f	-0.1566181
90	0xbe29ca0d	-0.16580983
91	0xbea87563	-0.3290206
92	0xbd59136f	-0.05299705
93	0xbdfe29ac	-0.12410292
94	0xbb652fa0	-0.0034971014
95	0xbd6c26ce	-0.057654195
96	0xbec10645	-0.37700096
97	0x3ed9a2b6	0.4250695
98	0xbdc635fc	-0.096782655
99	0x3e4c94d7	0.19978653
100	0xbd2bea78	-0.041971654
101	0xbe333d88	-0.17503941
102	0xbeb674b1	-0.35635903
103	0x3f0d4a3c	0.551914
104	0x3e64ee42	0.22356513
105	0xbda686f3	-0.08131208
106	0x3e2e22dc	0.17005485
107	0x3b34c4d7	0.0027583146
108	0xbe7f119d	-0.24909063
109	0xbe682a83	-0.22672467
110	0x3eba7f2a	0.36425143
111	0x3ef0719d	0.4696168
112	0x3eab6423	0.33474836
113	0x3e16dd13	0.1473277
114	0x3e54080d	0.20706196
115	0xbf217311	-0.630662
116	0x3ead520a	0.33851653
117	0x3e6138d4	0.21994334
118	0x3da98a24	0.08278301
119	0x3ef6b3af	0.48183963
120	0x3e3d751a	0.18501702
121	0xbd61cd7e	-0.055127613
122	0xbe2d93fd	-0.16950984
123	0xbea51195	-0.32239977
124	0x3d0ce530	0.034398258
125	0xbedf10eb	-0.43567595
126	0xbc207975	-0.009794583
127	0xbf0ff11f	-0.56227297

layers.1.weight f4 [128, 128]
0	0x3d9730bb	0.073823415
1	0xbe0da845	-0.13833721
2	0xbd7e5421	-0.06209195
3	0xbcb1fa7f	-0.021725891
4	0x3a00b6cd	0.0004910052
5	0x3ddc80ca	0.10766752
6	0x3d6634e7	0.056202795
7	0x3def4996	0.11683957
8	0x3d15d397	0.03657874
9	0x3db4198a	0.08793934
10	0xbe1eef3b	-0.15520947
11	0x3d7c8511	0.06165034
12	0xbd4c1ea5	-0.049833912
13	0xbcced867	-0.025249673
14	0x3db38290	0.08765137
15	0x3da3e99b	0.08003541
16	0x3c947106	0.0181203
17	0xbd71ff1a	-0.059081174
18	0xbc7848a0	-0.015154034
19	0x3cfbace6	0.030722093
20	0xbce4002e	-0.027832117
21	0x3d201a03	0.039087307
22	0xbc864af2	-0.016393159
23	0x3d852cbb	0.06502672
24	0x3cf5251b	0.02992492
25	0xbe5f8c10	-0.21830773
26	0xbe48da33	-0.19614486
27	0x3d1e591d	0.038659204
28	0x3c03cf9a	0.008045102
29	0xbe1bd310	-0.15217233
30	0xbc74b552	-0.014935808
31	0x3d56cd55	0.052441914
32	0x3d67238e	0.056430392
33	0xbd0016d0	-0.031271756
34	0x3e2269be	0.1586065
35	0x3c27509b	0.010212089
36	0x3dd03120	0.1016562
37	0xbd199534	-0.037495807
38	0x3cf2c8cc	0.029636763
39	0xbb45b8dd	-0.0030170002
40	0x3deff81b	0.11717244
41	0x3e2510f8	0.16119754
42	0x38da6942	0.00010414656
43	0x3dcdcbc7	0.10048633
44	0xbc122c55	-0.008921702
45	0x3c52cc27	0.0128660565
46	0x3de8b745	0.11363081
47	0x3ca62731	0.02028236
48	0xbc3e99dd	-0.011633364
49	0x3dc6c020	0.09704614
50	0xbe14ac62	-0.14518884
51	0xbde805dd	-0.11329243
52	0xbd057296	-0.03257998
53	0xbdc0600b	-0.09393319
54	0xbd48297f	-0.0488677
55	0xbe27540e	-0.16340658
56	0x3dc8df85	0.09808258
57	0x3cf43a2f	0.0298129
58	0x3d8522e0	0.065007925
59	0xbd10e356	-0.035373054
60	0xbb313907	-0.0027042048
61	0xbdd8b9d2	-0.105823174
62	0x3e6d7459	0.23188914
63	0xbdd990fb	-0.10623356
64	0x3e1a7f17	0.15087543
65	0xbd164396	-0.03668555
66	0x3da48536	0.080332205
67	0xbde7e7f1	-0.11323536
68	0x3c431b0b	0.011908303
69	0xbdb426e4	-0.0879648
70	0xbc72d978	-0.014822356
71	0x3db706f3	0.08936872
72	0xbd9625b3	-0.07331409
73	0xbaad9095	-0.0013241941
74	0xbc34ac6c	-0.011027437
75	0xbd7dcbb6	-0.061961852
76	0x3dac85bd	0.08423946
77	0xbe046d40	-0.129323
78	0xbcc48eaf	-0.023993818
79	0xbcb1f407	-0.021722807
80	0x3e2b719d	0.16742559
81	0x3d0880f6	0.03332611
82	0xbe1829d5	-0.14859708
83	0x3e153a5c	0.14573044
84	0x3d7a3d36	0.06109353
85	0x3de57718	0.11204356
86	0xbc545817	-0.012960455
87	0xbde1a8e6	-0.11018543
88	0xbbe2c1d3	-0.0069200783
89	0xbd58e037	-0.052948203
90	0x3dcec5d8	0.100963295
91	0x3e2efc0b	0.17088334
92	0x3cb70f42	0.022346143
93	0xbdbabf7d	-0.09118555
94	0x3da73174	0.08163729
95	0xbddac80d	-0.10682688
96	0xbe1223b2	-0.14271429
97	0xbd81d744	-0.06339887
98	0x3d797004	0.060897842
99	0x3d4155af	0.047200855
100	0xbd95576a	-0.072920635
101	0x3d52618a	0.05136255
102	0x3c1b834a	0.009491751
103	0xbd0069b6	-0.031350814
104	0xbcd5ea59	-0.026112722
105	0xbca104dc	-0.019655637
106	0xbcd68824	-0.026187964
107	0x3d937ae2	0.072011724
108	0xbdd26a25	-0.10274152
109	0xbcd4128f	-0.025887756
110	0xbca0ba47	-0.019620074
111	0xbdcceaef	-0.100057475
112	0x3d7e1ab0	0.06203717
113	0xbda89679	-0.082318254
114	0xbce79bb8	-0.028272495
115	0x3db4a4d8	0.08820504
116	0x3ca80a42	0.020512704
117	0x3d4713ae	0.048602752
118	0xbdc876c4	-0.09788278
119	0x3dc67bf9	0.09691615
120	0x3d9a657a	0.07538886
121	0x3d4a534f	0.049395856
122	0xbdcb8f3e	-0.09939431
123	0x3ce17906	0.027523529
124	0xbe1b2f5e	-0.15154788
125	0x3e3e92e6	0.18610725
126	0x3dab787a	0.083725885
127	0x3e24b30c	0.16083926
128	0xbe0bd200	-0.13654327
129	0x3d888dde	0.06667684
130	0x3d4fb3db	0.050708633
131	0xbe5bb1b9	-0.21454515
132	0xbdf8b123	-0.12143161
133	0xbd1153cd	-0.03548031
134	0x3e28149b	0.1641411
135	0xbdc072d9	-0.093969055
136	0xbe219578	-0.15779674
137	0x3df9dcaf	0.12200295
138	0xbdd92b4c	-0.10603961
139	0x3d6ba0e1	0.057526473
140	0xbd2488ce	-0.04016953
141	0xbb85ecbc	-0.004087059
142	0xbcffeb96	-0.031240266
143	0x3ddc6281	0.10760976
144	0xbe5d1704	-0.21590811
145	0xbda6dc3c	-0.08147475
146	0x3d6561bf	0.05600142
147	0x3dbc99cc	0.09209022
148	0xb74f1ff8	-1.2345605e-05
149	0xbd65ee08	-0.056135207
150	0xbdd1a101	-0.10235787
151	0xbd895b85	-0.06706909
152	0x3df5af95	0.1199638
153	0xbd7e23c3	-0.062045824
154	0xbb6cfccd	-0.0036161423
155	0xbd3b9065	-0.045792002
156	0xbac44590	-0.0014974345
157	0x3d104a6e	0.03522723
158	0xbd139ba5	-0.036037106
159	0x3e050c28	0.12992918
160	0x3d8a890f	0.06764423
161	0x3d2de4a5	0.04245438
162	0x3dde462b	0.10853227
163	0xbdbd9ec5	-0.092587985
164	0x3b125b3b	0.002233221
165	0x3de830e6	0.11337452
166	0x3df25cf2	0.11834134
167	0xbd8824f2	-0.06647672
168	0x3d2d12a3	0.0422541
169	0x3e2d648e	0.1693289
170	0x3cde557f	0.027140377
171	0x3e43a457	0.1910566
172	0xbe213f9f	-0.15746926
173	0x3de9901b	0.11404439
174	0xbe1a0342	-0.15040305
175	0xbd5f7033	-0.05455036
176	0xbca2a479	-0.019853817
177	0x3d3bc892	0.045845576
178	0xbb140ea0	-0.0022591725
179	0xbd0e3b21	-0.03472436
180	0xbe526aa4	-0.20548493
181	0x3d252907	0.04032233
182	0xbb5c0900	-0.00335747
183	0xbbee7393	-0.007276961
184	0x3cadcd5e	0.02121609
185	0xbd6a69f3	-0.057229947
186	0xbe4263c7	-0.18983375
187	0x3dc256f5	0.09489242
188	0x3d6bd036	0.057571612
189	0xbce519a6	-0.027966332
190	0x3c61c376	0.013779512
191	0xbdcbc577	-0.09949773
192	0x3d1fd44e	0.03902083
193	0xbdda59e1	-0.10661674
194	0xbc39f1fe	-0.011349199
195	0x3d629de7	0.05532637
196	0x3da6a22e	0.08136402
197	0x3d15a649	0.036535535
198	0xbcd9f4ff	-0.026606081
199	0xbdd48226	-0.10376386
200	0x3b531ae5	0.0032212075
201	0xbe43d246	-0.19123182
202	0x3b9e2b52	0.0048269415
203	0x3949b12a	0.00019234853
204	0x3cf6d5cd	0.030131245
205	0xbd413080	-0.047165394
206	0xbd81fb35	-0.06346742
207	0x3d609c2c	0.054836437
208	0x3dfa9926	0.12236242
209	0x3c909c04	0.017652519
210	0x3d5ee4c0	0.05441737
211	0xbc9501cf	-0.018189339
212	0x3e56d2fc	0.20978922
213	0x3da1950a	0.07889755
214	0x3e3a5b3e	0.18198869
215	0x3d9ce005	0.07659916
216	0xbd1b0634	-0.037847713
217	0x3d603dc5	0.054746408
218	0xbe1ed4ad	-0.15510817
219	0xbc79196a	-0.015203813
220	0xbcb1c105	-0.021698484
221	0x3caacc17	0.02084927
222	0xbe38277a	-0.17983809
223	0xbda91433	-0.08255806
224	0xbdb010fb	-0.08596989
225	0x3dcae17e	0.099062905
226	0xbd553368	-0.052050978
227	0x3ba7bd78	0.005119022
228	0xbd26b97e	-0.040704243
229	0x3cd020ea	0.02540632
230	0x3d2afd9c	0.041745767
231	0x3e329e21	0.17443134
232	0x3dc5b238	0.09653133
233	0xbc13a073	-0.009010422
234	0xb9e9ae04	-0.00044570875
235	0x3ce423f3	0.027849173
236	0x3dbcecec	0.09224877
237	0x3c1b0d8f	0.009463682
238	0xbd1d80fe	-0.038453095
239	0x3d029f8f	0.03189045
240	0x3d2100ec	0.03930752
241	0xbd970882	-0.073746696
242	0x3d8e7aee	0.06957041
243	0x3c8dd13b	0.017311683
244	0xbddc757c	-0.10764596
245	0x3df13b11	0.11778844
246	0xbda8d603	-0.082439445
247	0x3bd2c5c0	0.006432265
248	0x3d83cf84	0.06436065
249	0xbdbb8d20	-0.09157777
250	0x3afb98a9	0.0019195277
251	0xbd822706	-0.063550994
252	0xbd1b8311	-0.03796679
253	0xbceb4280	-0.028718233
254	0xbcffc136	-0.03122006
255	0xbd0f24d8	-0.034947246

layers.1.bias f4 [128]
0	0xbc3c3b7a	-0.01148879
1	0xbcdc7c44	-0.026914723
2	0xbda6fe4b	-0.08153971
3	0xbd0c50bc	-0.03425668
4	0xbd3c882e	-0.04602831
5	0xbe0fe842	-0.14053443
6	0x3e09e5a0	0.13466501
7	0x3dba010d	0.09082232
8	0xbdf4b45c	-0.11948463
9	0xbe41a85b	-0.18911879
10	0x3daeb696	0.08530919
11	0xbe11d4a0	-0.14241266
12	0xbe052e7d	-0.13006015
13	0xbd85b0cc	-0.06527862
14	0x3d590056	0.052978836
15	0x3d473572	0.048634954
16	0xbe1119e9	-0.1417004
17	0x3c9be198	0.01902847
18	0xbdaa6f13	-0.08321967
19	0x3d445f23	0.047942292
20	0x3d9a83bd	0.07544658
21	0xbd93438f	-0.0719062
22	0xbb482967	-0.0030542256
23	0xbce271e6	-0.027642202
24	0x3e82fe94	0.25584853
25	0x3c4f6d6d	0.0126603665
26	0xbdf088eb	-0.11744865
27	0xbdcbc23f	-0.09949159
28	0xbda1c359	-0.07898588
29	0xbc1efcb6	-0.009703806
30	0x3c8aff5d	0.01696747
31	0x3ddf97f1	0.109176524
32	0xbca06b20	-0.019582331
33	0x3d6ff951	0.058587376
34	0x3d9e6232	0.07733573
35	0xbc721c1f	-0.014777212
36	0x3dcb39d9	0.09923143
37	0xbdaca99d	-0.08430789
38	0x3e196996	0.14981684
39	0x3de4c18a	0.11169727
40	0xbe24ab9c	-0.16081089
41	0xbd3ee8ea	-0.046608843
42	0x3e48ded4	0.19616252
43	0xbd474fc4	-0.048660055
44	0xbe2f3415	-0.17109711
45	0x3d8c0840	0.06837511
46	0xbd680eeb	-0.056654852
47	0xbe5092be	-0.20368478
48	0xbdd7b15b	-0.10531875
49	0x3cce4ee7	0.025184108
50	0x3b91d59e	0.004450514
51	0xbd8e7230	-0.06955373
52	0xbdee46d6	-0.11634605
53	0xbd512c78	-0.0510678
54	0xbabec0ae	-0.0014553273
55	0xbdbcc343	-0.09216931
56	0x3d9fbaa2	0.07799269
57	0xbdcbfe6e	-0.09960638
58	0x3d69c651	0.057073895
59	0xbdfc5681	-0.12321187
60	0xbd522ce8	-0.051312357
61	0x3d81c31c	0.06336042
62	0xbd921f5c	-0.071348876
63	0xbd34e11b	-0.04415999
64	0xbe11f38a	-0.14253059
65	0x3d5ee1b4	0.054414466
66	0x3d8108b0	0.06300485
67	0x3d177974	0.03698106
68	0x3ca1f108	0.019768253
69	0xbd939c47	-0.07207542
70	0xbd80ae36	-0.06283228
71	0xbda4920f	-0.08035671
72	0xbd027c28	-0.031856686
73	0x3c4dc069	0.012558081
74	0x3e0a8253	0.13526277
75	0xbe1d8df6	-0.15386185
76	0xbe54f4cf	-0.20796512
77	0x3dad0f9d	0.084502436
78	0xbd8a9d74	-0.06768313
79	0xbe428b57	-0.18998466
80	0xbca56099	-0.020187663
81	0xbcb8214f	-0.02247682
82	0x3e28da18	0.16489446
83	0x3e221692	0.15828922
84	0x3deb4e80	0.11489582
85	0xbc634cc0	-0.013873279
86	0xbd8857ff	-0.06657409
87	0x3d96088a	0.073258474
88	0x3cc24427	0.023714138
89	0xbcd07421	-0.025446
90	0xbdb7c35f	-0.08972811
91	0x3db6b477	0.0892114
92	0x3c9fadb9	0.019492017
93	0xbd473444	-0.04863383
94	0xbddc4179	-0.107546754
95	0x3d78c6e5	0.060736556
96	0x3cd0486a	0.025425155
97	0xbc83114e	-0.015999462
98	0xbe4ab5bd	-0.1979589
99	0xb81a488d	-3.678403e-05
100	0xbd4c5e44	-0.049894586
101	0x3e14fed3	0.14550333
102	0xbdcf991b	-0.101366244
103	0xbdbed60d	-0.09318171
104	0x3df1dea3	0.11810043
105	0xbb2474c6	-0.0025094016
106	0xbdbadcda	-0.09124155
107	0xbdca9210	-0.098911405
108	0x3d5fb859	0.054619167
109	0xbd3a85e6	-0.04553785
110	0x3e19dc53	0.15025453
111	0x3d6797fb	0.056541424
112	0xbc80f0cd	-0.015739823
113	0x3d46eb5d	0.048564304
114	0x3d9d3d7c	0.07677743
115	0xbdfd2ea3	-0.12362411
116	0x3bf38047	0.0074310633
117	0xbdd96c9d	-0.106164195
118	0xbe49d644	-0.19710642
119	0xbd1c550e	-0.038167052
120	0xbbf384e4	-0.0074316133
121	0xbdeeaeed	-0.11654458
122	0x3e1d08dc	0.15335411
123	0x3e4c13db	0.1992945
124	0x3d16261d	0.03665744
125	0xbdcc4a87	-0.099751525
126	0x3de0dff1	0.109802134
127	0xbe15d8be	-0.14633462

layers.2.weight f4 [64, 128]
0	0x3e2d427b	0.16919892
1	0xbd837d17	-0.06420343
2	0x3cfb34a0	0.030664742
3	0x3ded0d46	0.11574797
4	0xbd4327eb	-0.04764549
5	0xbb929c97	-0.0044742334
6	0x3da6fe74	0.08154002
7	0x3e0c64da	0.13710347
8	0x3d841594	0.06449428
9	0x3d2fbe1b	0.042905908
10	0x3d181950	0.037133515
11	0x3c7c9091	0.015415327
12	0xbdc6ee60	-0.09713435
13	0x3dbd1353	0.092322014
14	0x3da31043	0.07962086
15	0xbc9324bf	-0.017961858
16	0x3e31055f	0.17287205
17	0x3d930af8	0.071798265
18	0x3d95d0a3	0.07315185
19	0x3cc8f7d5	0.024532238
20	0x3cb518ff	0.022106646
21	0x3d8ea70c	0.069654554
22	0x3c988036	0.018615823
23	0x3debe0a1	0.11517454
24	0x3d3cb98f	0.0460754
25	0xbd932d5d	-0.07186387
26	0xbe08e5e0	-0.1336894
27	0xbe08823a	-0.13330927
28	0xbc0b37b8	-0.008497171
29	0xbd7d69e5	-0.061868567
30	0x3d802faa	0.06259091
31	0x3e329ee7	0.17443429
32	0xbe436663	-0.19082026
33	0x3e112bf6	0.14176926
34	0x3db4209d	0.08795283
35	0xbded3949	-0.11583192
36	0x3dc4c900	0.0960865
37	0xbc81a445	-0.0158254
38	0x3e03c196	0.12866816
39	0x3dcfa2ef	0.10138499
40	0xbd307037	-0.043075766
41	0x3e63a2c3	0.22230057
42	0xbd0bab1e	-0.034098737
43	0xbdade995	-0.08491818
44	0xbc8d2685	-0.017230282
45	0x3e2683e8	0.16261256
46	0xbc441cf7	-0.011969796
47	0x3e86451d	0.26224604
48	0xbe186dc0	-0.14885616
49	0x3d041000	0.03224182
50	0x3dc06c6d	0.093956806
51	0x3e48582e	0.19564888
52	0x3d5f32c2	0.054491766
53	0x3d8c31b3	0.06845417
54	0x3cefab55	0.029256502
55	0x3db7a1d4	0.08966413
56	0xbd2dbd9e	-0.04241716
57	0x3c91a99d	0.017781073
58	0x3ced78b2	0.028988216
59	0xbd8b783c	-0.06810042
60	0xbd5cea71	-0.05393452
61	0xbc52bb8d	-0.012862098
62	0xbd02ada6	-0.031903885
63	0x3c9fb66c	0.019496165
64	0x3daa32f9	0.083105035
65	0xbe62b127	-0.22137891
66	0x3dd2228f	0.10260498
67	0x3dde71ca	0.10861547
68	0xbd8345c3	-0.0640979
69	0xbdc2bef9	-0.095090814
70	0x3d12c20e	0.035829596
71	0x3da282eb	0.07935127
72	0xbc319c7f	-0.010840534
73	0xbe19e4ff	-0.15028761
74	0x3e8b24a0	0.2717638
75	0x3b9e0120	0.0048219115
76	0x3cd24da2	0.025671784
77	0xbd2f4c00	-0.04279709
78	0x3e14c6ed	0.14529009
79	0xbe2f142b	-0.17097537
80	0x3e58122d	0.21100684
81	0x3db4e11a	0.08831997
82	0x3cf28236	0.029603105
83	0x3d912e39	0.070888944
84	0x3d8d726b	0.06906589
85	0x3bfd6d2d	0.007733962
86	0xbd87d799	-0.06632919
87	0x3dc22965	0.09480552
88	0xbd0b473a	-0.034003474
89	0xbbccfa89	-0.006255452
90	0x3e0dde92	0.13854435
91	0x3e473059	0.19452037
92	0xbd6338f3	-0.055474233
93	0x3e33878d	0.17532177
94	0xbdf756bc	-0.1207709
95	0x3d9bef10	0.07613957
96	0xbab10eb3	-0.0013508409
97	0x3e09e491	0.13466097
98	0x3cbdb052	0.023155365
99	0x3d34efca	0.044173993
100	0xbddf5475	-0.10904781
101	0x3df34984	0.11879256
102	0x3e1582ba	0.1460065
103	0x3ca560ae	0.020187702
104	0x3dfa3884	0.12217811
105	0x3c14ea51	0.0090890685
106	0xbe48dc56	-0.19615301
107	0xbbab24ed	-0.0052229078
108	0xbd491126	-0.04908862
109	0x3d88753c	0.06662986
110	0xbdc4b45f	-0.096047156
111	0x3d03d9ba	0.032190062
112	0x3dd5e4e6	0.104440495
113	0xbd24caa4	-0.040232316
114	0xbe46d0a2	-0.19415525
115	0xbe4acf36	-0.19805607
116	0x3e0cdaf1	0.13755395
117	0x3e47190b	0.19443147
118	0xbdce5ab9	-0.10075898
119	0xbd32c0d3	-0.043640923
120	0xbe219c5a	-0.157823
121	0x3d119ffa	0.035552956
122	0x3e10d483	0.14143567
123	0x3d99de9f	0.07513165
124	0x3dbf6188	0.093447745
125	0xbdff7375	-0.124731936
126	0x3e9114b9	0.28336123
127	0xbdd78226	-0.10522871
128	0xbd111a23	-0.035425317
129	0xbcf1c179	-0.0295112
130	0x3d5e2acb	0.05424003
131	0x3e86340a	0.26211578
132	0x3e110fef	0.14166234
133	0x3db7863b	0.08961149
134	0xbdbe6675	-0.09296886
135	0x3ded2736	0.115797445
136	0xbd1ad70b	-0.037802737
137	0x3d72d7c9	0.05928782
138	0xbcaed27a	-0.021340597
139	0xbdc5a051	-0.096497186
140	0x3d993f58	0.07482785
141	0x3b97824c	0.004623687
142	0x3d91416b	0.070925556
143	0xbe09ba32	-0.13449934
144	0x3d82976b	0.06376537
145	0xbd77c70f	-0.06049257
146	0xbe11afab	-0.14227168
147	0xbe14a2d7	-0.14515243
148	0xbd9a18c9	-0.07524259
149	0xbde24017	-0.110473804
150	0x3de87d96	0.113520786
151	0x3dd5c58b	0.10438069
152	0xbd4884f2	-0.04895491
153	0xbc0442c9	-0.008072563
154	0xbd83b072	-0.06430139
155	0xbd2e8e69	-0.04261628
156	0xbe5f2885	-0.217928
157	0xbd87af43	-0.066252254
158	0x3db01f0f	0.08599674
159	0x3c054fe0	0.008136719
160	0xbd8d8e92	-0.06911959
161	0x3d466507	0.04843619
162	0xbbcac7c4	-0.0061883647
163	0x3dbc674b	0.09199389
164	0x3e670d92	0.2256377
165	0xbe60fb9d	-0.21970983
166	0xbe573bde	-0.21018931
167	0x3c0cbf7b	0.008590574
168	0xbd89402b	-0.06701692
169	0x3d7bc2fe	0.061465256
170	0xbe40b5d0	-0.18819356
171	0x3dc7e053	0.09759583
172	0x3d22a992	0.039712496
173	0x3eaf0698	0.34184718
174	0xbe28fe42	-0.16503242
175	0x3e4fa277	0.20276819
176	0x3d39646d	0.04526179
177	0x3e7c9340	0.24665546
178	0x3c82a9b7	0.015950067
179	0x3e5a8228	0.21338713
180	0x3e29e143	0.16589837
181	0xbe4ccb7a	-0.19999495
182	0x3e2f4255	0.17115147
183	0x3d99faee	0.07518564
184	0x3e2e46ac	0.17019147
185	0x3def1ecf	0.11675798
186	0x3db8d51c	0.090250224
187	0xbd93ec60	-0.07222819
188	0xbd1aefe8	-0.03782645
189	0x3e562925	0.20914133
190	0x3d5fdf59	0.05465636
191	0xbe2355bc	-0.15950674
192	0x3d155a51	0.036463086
193	0xbd3b616d	-0.04574721
194	0x3af131a5	0.0018401636
195	0x3c8dd384	0.017312773
196	0xbd06dd3f	-0.03292584
197	0xbddd96cf	-0.1081978
198	0x3d28e64a	0.041235246
199	0x3e033985	0.1281491
200	0x3c799dc6	0.01523537
201	0xbdeb3d4d	-0.114863016
202	0x3b943bf4	0.0045237485
203	0x3dea7d59	0.114496894
204	0xbdbef944	-0.093248874
205	0xbd4b6f2c	-0.04966657
206	0x3e2dddc2	0.16979125
207	0xbda90b8b	-0.08254155
208	0xbd99caf8	-0.07509416
209	0x3ea6f231	0.32606652
210	0x3dfd44ed	0.12366662
211	0x3d29325b	0.04130779
212	0xbdca9062	-0.0989082
213	0x3dcc966f	0.099896304
214	0xbd1fab9f	-0.03898203
215	0xbb9dbc7a	-0.004813728
216	0x3cf1f3ad	0.029535139
217	0xbd14e1cf	-0.03634816
218	0x3e8be992	0.27326638
219	0x3d93ae96	0.07211034
220	0xbdf4af78	-0.119475305
221	0xbd69da1d	-0.057092775
222	0xbd942133	-0.07232895
223	0x3dfee57a	0.12446113
224	0x3dd7d676	0.10538952
225	0xbcbd3d47	-0.023100508
226	0x3c971116	0.018440764
227	0xbd87fbeb	-0.066398464
228	0x3d826b85	0.06368164
229	0xbe176a82	-0.14786723
230	0x3e50deac	0.20397443
231	0x3d828ed5	0.06374899
232	0x3d515944	0.05111052
233	0xbe123e21	-0.14281513
234	0xbe103514	-0.14082748
235	0x3de71e3e	0.11285065
236	0xbe7a9efc	-0.2447471
237	0xbcca98c1	-0.024731042
238	0x3b7e26c3	0.0038780428
239	0xbd15492f	-0.036446746
240	0xbc22bf81	-0.009933353
241	0xbd833ba3	-0.06407859
242	0x3d6221ee	0.05520814
243	0xbc182db7	-0.009288243
244	0x3c23d431	0.009999321
245	0x3e37365b	0.17891829
246	0x3e28f943	0.16501336
247	0xbde35cce	-0.111016855
248	0xbe1daa17	-0.15396915
249	0x3e1cefb6	0.15325817
250	0x3c363847	0.011121816
251	0xbe54d9ec	-0.20786256
252	0xbe1496a4	-0.1451059
253	0x3d7633e8	0.060108095
254	0x3d994a7e	0.074849114
255	0xbc523643	-0.01283032

layers.2.bias f4 [64]
0	0x3cc1b192	0.023644242
1	0xbda64edd	-0.08120511
2	0x3cc6ec1a	0.024282504
3	0x3dc06bb0	0.0939554
4	0x3c78ded3	0.015189844
5	0x3de7f64a	0.11326273
6	0xbdfacc8f	-0.12246048
7	0x3dafbaf8	0.08580583
8	0xbe0e2912	-0.13882855
9	0xbd91e772	-0.07124223
10	0xbd78a92d	-0.060708214
11	0x3dbf97db	0.09355136
12	0xbd6dbc30	-0.058040798
13	0xbd4d976d	-0.05019324
14	0xbcb1c92b	-0.02170237
15	0x3e072426	0.13197383
16	0xbdb547fa	-0.08851619
17	0x3dab573e	0.083662495
18	0x3e00b310	0.12568307
19	0xbdc11c16	-0.09429185
20	0x3d899ce7	0.0671938
21	0x3dd53812	0.10411085
22	0x3d2c0546	0.041997217
23	0xbdb93145	-0.090426005
24	0xbb572ccf	-0.0032833104
25	0xbdc18bba	-0.09450479
26	0xbd468b7e	-0.048472874
27	0x3d3d209d	0.04617368
28	0x3d3e2267	0.046419527
29	0x3cf7f3ee	0.030267682
30	0x3db80132	0.08984603
31	0xbddac03a	-0.106811956
32	0x3d2c4662	0.04205931
33	0x3de745c1	0.112926014
34	0x3db518dc	0.08842632
35	0xbd7e023b	-0.062013846
36	0x3e0f7aa5	0.14011629
37	0xbdc8dec9	-0.09808118
38	0xbd081a5a	-0.033228256
39	0x3d7946b3	0.06085844
40	0xbdd637c9	-0.10459859
41	0x3ca73299	0.020409869
42	0x3d1b38e9	0.03789607
43	0x3cb11a7e	0.021619078
44	0xbd81610f	-0.063173406
45	0xbdaa87a0	-0.0832665
46	0xbd933812	-0.07188429
47	0xbe70fe9a	-0.23534623
48	0x3da243a9	0.079230614
49	0xbde28362	-0.110602155
50	0x3d5fb46b	0.05461542
51	0xbd12d332	-0.035845943
52	0xbdb6c7a8	-0.089248
53	0x3ddb490e	0.107072935
54	0xbde8cc43	-0.11367085
55	0xbe0cf740	-0.13766193
56	0x3db1218b	0.08648976
57	0xbe43ca2b	-0.1912009
58	0x3d3b7beb	0.045772474
59	0x3e056f15	0.13030656
60	0xbd298bb3	-0.041392993
61	0xbdb0c8a0	-0.08632016
62	0xbcbba88f	-0.022907523
63	0x3ccc4b22	0.02493817

readout.weight f4 [1, 64]
0	0xbf2b57b2	-0.6693069
1	0xbf13f41a	-0.57794344
2	0x3c0fcbbd	0.008776602
3	0x3f09460b	0.536225
4	0x3f2bdcc8	0.6713376
5	0x3f138ee6	0.5763992
6	0xbf4e4bc1	-0.8058434
7	0xbf461a48	-0.7738385
8	0x3f43df47	0.7651257
9	0x3f21f813	0.63269156
10	0xbf0bf6f0	-0.5467367
11	0x3f1d051d	0.6133593
12	0xbf187245	-0.5954936
13	0xbf06954d	-0.52571565
14	0x3f35bccd	0.7099121
15	0xbf1f6672	-0.62265694
16	0xbf8234c2	-1.017235
17	0x3f07e0c3	0.53077334
18	0x3f39a0d0	0.72511005
19	0xbeff1f79	-0.498287
20	0xbf18714b	-0.5954787
21	0x3f15e2f7	0.58549446
22	0x3f06f7d2	0.52721894
23	0x3f1d2431	0.6138335
24	0xbf1be3f6	-0.60894716
25	0xbf5bcb38	-0.8585696
26	0xbf591d81	-0.84810644
27	0x3f11577f	0.56774133
28	0xbc9ce855	-0.019153753
29	0x3f312a1f	0.69204897
30	0x3f2b61bb	0.66946
31	0xbeafa976	-0.34308976
32	0xbf0c821a	-0.5488602
33	0x3f789713	0.9710552
34	0xbf29a47b	-0.662666
35	0xbf2d524c	-0.677037
36	0x3f5e9515	0.8694623
37	0xbf437c87	-0.7636189
38	0xbf1ab23b	-0.6042821
39	0x3f22213e	0.63331974
40	0xbf16ede6	-0.58956754
41	0xbee758f4	-0.45185053
42	0xbf447728	-0.7674432
43	0xbf470742	-0.7774545
44	0x3f25c79d	0.6475771
45	0x3f4aa102	0.7915193
46	0x3eb3ac7d	0.35092536
47	0xbce4baa7	-0.027921034
48	0xbd9903f5	-0.07471458
49	0x3c45a4f4	0.012063254
50	0x3c259c42	0.010108056
51	0xbf4be8a5	-0.7965186
52	0xbed12519	-0.40848616
53	0xbf62ea84	-0.8863909
54	0xbf641cf3	-0.89106673
55	0x3f23c27d	0.6396864
56	0xbd661dd4	-0.05618079
57	0x3c93ca21	0.018040719
58	0xbd33750c	-0.043812796
59	0xbb549cc6	-0.0032442077
60	0x3c855f7b	0.01628088
61	0x3f4d8a7f	0.80289453
62	0xbe9b5a06	-0.3034212
63	0x3f24f9ea	0.6444384

layers.0.weight f4 [128, 17]
0	0xbd073dab	-0.033017796
1	0xbe21b8d2	-0.1579316
2	0xbf1adfb9	-0.60497624
3	0x3f316e25	0.6930869
4	0xbd9830b8	-0.07431167
5	0x3f2c4419	0.6729141
6	0xbe04607b	-0.1292743
7	0x3a0b6e78	0.00053188903
8	0xbebd8a19	-0.37019423
9	0xbf87f1f0	-1.0620708
10	0xbf1f055c	-0.6211755
11	0xbd04dff4	-0.03244014
12	0x3d0b8215	0.034059603
13	0xbc13ca5b	-0.009020413
14	0xbda379af	-0.07982194
15	0xbdd33a2f	-0.10313832
16	0xbc155ec4	-0.009116832
17	0xbf040b74	-0.51579976
18	0xbe62572f	-0.2210357
19	0xbc89964b	-0.016795298
20	0x3f759abe	0.9593924
21	0x3e369f31	0.17834164
22	0x3f472201	0.7778626
23	0xbeac1914	-0.33612883
24	0x3e317f05	0.1733361
25	0xbecbbcfc	-0.3979262
26	0xbf5496a3	-0.83042353
27	0xbed0ed21	-0.40805915
28	0x3e113436	0.14180073
29	0x3d968004	0.07348636
30	0xbd6af1b3	-0.05735941
31	0x3d835ccf	0.06414186
32	0xbb8ad021	-0.0042362367
33	0x3d369c95	0.044582922
34	0xbeb8537e	-0.360012
35	0x3dea0e72	0.114285365
36	0xbeb4be76	-0.3530156
37	0xbf495181	-0.7863999
38	0xbf3dac5d	-0.7409113
39	0xbee40290	-0.44533205
40	0x3e4d633d	0.20057388
41	0x3e7af43d	0.24507232
42	0xbf072398	-0.52788687
43	0xbe020249	-0.12696184
44	0xbf5f037f	-0.8711471
45	0xbe177de5	-0.14794119
46	0xbcf94a5a	-0.030430961
47	0x3d12a319	0.035800073
48	0xbe340e38	-0.17583549
49	0xbdcb09a3	-0.099139474
50	0xbd35ec69	-0.04441491
51	0xbe56c186	-0.20972261
52	0xbd01b64e	-0.031668
53	0x3e400305	0.18751152
54	0x3ecc7c63	0.3993865
55	0xbe412117	-0.18860279
56	0xbee47a6f	-0.4462466
57	0xbe6296fd	-0.2212791
58	0x3e51274e	0.2042515
59	0xbddf31b4	-0.10898152
60	0xbe91cdcd	-0.28477326
61	0xbea39b19	-0.31954268
62	0xbdfb9482	-0.12284185
63	0x3d1a40b4	0.037659362
64	0x3d4b28e7	0.049599554
65	0xbdf2a5fd	-0.11848066
66	0xbcd15e70	-0.025557727
67	0xbc857770	-0.016292304
68	0xbf2c9875	-0.6742013
69	0xbf3a04ca	-0.7266356
70	0xbf158ea1	-0.5842076
71	0x3e88c99b	0.26716313
72	0xbd820064	-0.06347731
73	0x3f203334	0.6257813
74	0x3d9d7dd6	0.07690017
75	0x3e0647b9	0.13113298
76	0x3e13bd2e	0.14427635
77	0xbf155e7d	-0.583473
78	0xbe63ac8b	-0.22233789
79	0x3c8a7b16	0.016904395
80	0x3b8404f9	0.004028913
81	0xbc14de69	-0.00908623
82	0x3c5a9c80	0.013342977
83	0xbd132af2	-0.035929628
84	0x3c958bf2	0.018255208
85	0x3ecbcb7d	0.39803687
86	0xbf03279e	-0.51232326
87	0x3dfc5d6c	0.12322506
88	0x3ef2af54	0.4739939
89	0xbe83a672	-0.25712925
90	0xbef10f8d	-0.47082177
91	0xbf05d03e	-0.5227088
92	0xbeea695f	-0.45783517
93	0xbf480f38	-0.7814822
94	0xbf8e41b2	-1.1113799
95	0xbd865097	-0.0655834
96	0xbe1070d7	-0.14105545
97	0x3e5fd8ff	0.21860121
98	0xbc17f46e	-0.009274585
99	0xbe8b2d21	-0.27182868
100	0xbe087fc7	-0.13329993
101	0xbc5d3460	-0.013501257
102	0x3ec038e4	0.37543404
103	0x3e350cfb	0.17680733
104	0x3ebc5ba3	0.36788663
105	0xbf6b91cb	-0.9201934
106	0xbd8aac72	-0.067711726
107	0x3ec31f31	0.38109735
108	0x3df71030	0.120636344
109	0x3e80d675	0.25163618
110	0xbe02c49a	-0.1277031
111	0x3f1f4a7b	0.62223023
112	0x3f399f7e	0.7250899
113	0x3dbe3a4b	0.09288462
114	0x3e4d1363	0.20026927
115	0xbdcbcbbf	-0.09950971
116	0xbe2a559b	-0.16634218
117	0xbdec82d2	-0.115483895
118	0xbd00a989	-0.03141168
119	0xbe061cb5	-0.13096888
120	0x3f079e1a	0.5297562
121	0xbeddcd69	-0.43320778
122	0xbd950bfc	-0.072776765
123	0xbe12c9f1	-0.14334847
124	0xbdbcbc69	-0.09215624
125	0xbe60fe1b	-0.21971934
126	0xbe679567	-0.22615586
127	0xbd560fd1	-0.052261177
128	0x3d1a8b99	0.037730787
129	0x3e85a3ef	0.26101634
130	0x3caacd1c	0.020849757
131	0x3e392bd4	0.18083125
132	0xbc937aee	-0.018002953
133	0x3dbca56d	0.0921124
134	0x3c46a5cd	0.012124491
135	0x3c3dc74f	0.011583163
136	0xbe28800e	-0.16455099
137	0x3e6c662b	0.23085849
138	0x3ee2079f	0.4414644
139	0xbe3cfda2	-0.18456128
140	0x3e932517	0.28739235
141	0xbe313fe8	-0.17309535
142	0xbc88b45b	-0.016687563
143	0x3e90c792	0.2827726
144	0x3cc9991d	0.024609143
145	0xbf14ca28	-0.58120966
146	0x3e8398c8	0.257025
147	0xbdb8536f	-0.09000289
148	0x3e09c77c	0.13455003
149	0xbc8b31d8	-0.01699154
150	0xbd6e964e	-0.05824881
151	0x3cd41e72	0.025893424
152	0x3d30aa95	0.04313143
153	0x3e70aa71	0.23502518
154	0xbf30f319	-0.6912094
155	0xbeee572c	-0.46550882
156	0x3f255128	0.6457696
157	0xbd3093e1	-0.04310978
158	0x3c3a7610	0.011380687
159	0xbe9a8e04	-0.30186474
160	0xbc6ad24c	-0.014332365
161	0x3f1547f3	0.5831291
162	0xbec867d8	-0.39141726
163	0x3d007695	0.03136309
164	0xbe838db5	-0.2569405
165	0xbdb08c7e	-0.08620547
166	0xbcaeb483	-0.02132631
167	0x3dda42e2	0.10657288
168	0xbce9509f	-0.028480826
169	0x3c8dcef7	0.017310603
170	0xbe7574f4	-0.23970395
171	0x3e14c341	0.14527608
172	0x3e97c32e	0.29641098
173	0xbde4c5c9	-0.11170537
174	0xbdbd6a18	-0.092487514
175	0x3ebe4621	0.3716288
176	0xbe378c4c	-0.17924613
177	0x3dd8a8bc	0.105790585
178	0x3c13a9d5	0.009012659
179	0x3e4219bf	0.18955134
180	0x3eab7070	0.3348422
181	0x3ea2d81a	0.31805497
182	0xbca15204	-0.019692428
183	0xbd3bb1eb	-0.045823973
184	0x3caaef06	0.020865928
185	0x3d599d9b	0.05312882
186	0x3d5ee32d	0.05441587
187	0x3e8ffba9	0.2812169
188	0xbe9f325a	-0.31093103
189	0xbf67f118	-0.90602255
190	0xbe8156cd	-0.25261536
191	0x3db97d4f	0.09057104
192	0xbf46e8f9	-0.7769924
193	0x3ebb6cf9	0.36606577
194	0x3d4893c9	0.048969064
195	0x3d211b83	0.039332878
196	0x3ea082ca	0.31349784
197	0x3e9b13f5	0.30288664
198	0x3da6961f	0.08134102
199	0xbd1f5634	-0.03890057
200	0x3c8dd1db	0.017311981
201	0xbdc5c312	-0.09656347
202	0x3d91510e	0.07095538
203	0x3d88fb43	0.06688549
204	0xbd32fc27	-0.043697502
205	0xbd594687	-0.053045776
206	0xbefa4191	-0.48878148
207	0x3fd71d8d	1.6805893
208	0x3e9bddb0	0.30442572
209	0xbedeecfc	-0.4354018
210	0xbf28c908	-0.6593175
211	0xbe3d5c7d	-0.18492313
212	0x3dc3bb2d	0.09557185
213	0xbf22ec0f	-0.63641447
214	0xbdf1ba34	-0.118030936
215	0x3e07eb49	0.13273348
216	0x3e1b6d3e	0.15178391
217	0xbccb383d	-0.02480709
218	0x3e1f4057	0.15551887
219	0x3d6ed6b5	0.05831023
220	0x3b48b775	0.0030626927
221	0xbf657e85	-0.8964618
222	0x3f2ed32d	0.6829098
223	0x3e8b2bfe	0.27182
224	0x3f042340	0.5161629
225	0xbcc1bfdb	-0.023651054
226	0x3f0022d2	0.5005313
227	0xbd5916c4	-0.053000227
228	0x3d842489	0.06452281
229	0x3ea8e85c	0.32989776
230	0xbf2af04d	-0.6677292
231	0xbdb659ab	-0.089038216
232	0xbd086e2e	-0.0333082
233	0x3d911592	0.07084192
234	0xbb8cfada	-0.004302365
235	0xbdba048d	-0.09082899
236	0x3c11e675	0.008905043
237	0xbc957b05	-0.018247137
238	0x3e63b1a2	0.2223573
239	0x3e4baee7	0.19890939
240	0xbf3b7f15	-0.73240787
241	0xbeee5edf	-0.46556756
242	0x3f01679f	0.5054874
243	0xbf8c1328	-1.0943346
244	0xbf573fb4	-0.8408158
245	0xbea77a3b	-0.32710442
246	0xbefc7474	-0.49307597
247	0x3eb525e3	0.35380468
248	0xbf4d02fc	-0.8008268
249	0xbe7ff483	-0.24995618
250	0xbe2ac802	-0.1667786
251	0xbd8aedf6	-0.06783669
252	0xbdaf82b5	-0.08569852
253	0xbd44dbf2	-0.04806132
254	0xbce4c439	-0.027925598
255	0x3c8f0ba2	0.017461602

layers.0.bias f4 [128]
0	0x3d84c2f6	0.06482498
1	0x3f004895	0.5011075
2	0x3d960b47	0.0732637
3	0x3f4f4631	0.8096648
4	0x3f47e429	0.7808252
5	0xbe8696a1	-0.26286796
6	0xbdeabca1	-0.11461759
7	0x3e05dbf0	0.13072181
8	0xbf2e5a53	-0.68106574
9	0x3dc4dc00	0.09612274
10	0x3e9df092	0.30847603
11	0x3f2882b7	0.65824455
12	0x3eeb085d	0.45904818
13	0x3db82a57	0.08992451
14	0x3f0a17b6	0.5394243
15	0x3e84d116	0.2594077
16	0xbe0c3a19	-0.13694037
17	0x3c7533db	0.014965977
18	0x3f2f83d3	0.6856052
19	0xbdc458e7	-0.09587269
20	0x3e2fa8b6	0.17154202
21	0x3f65890a	0.8966223
22	0xbe990e8a	-0.29893905
23	0x3f5b227b	0.8559949
24	0xbea60a4c	-0.3242973
25	0x3f141347	0.57841915
26	0x3f145cff	0.579544
27	0x3f2d1381	0.67607886
28	0xbef01844	-0.46893513
29	0x3f28cb48	0.6593518
30	0x3e443b3b	0.1916322
31	0x3f1e5996	0.6185545
32	0xbe6c2d26	-0.23064098
33	0xbd049777	-0.03237101
34	0xbe048be3	-0.12943988
35	0xbf0c4d40	-0.54805374
36	0xbe664c01	-0.2248993
37	0x3fa30be7	1.2738007
38	0xbd95662e	-0.0729488
39	0xbe882ace	-0.26595157
40	0x3c86f729	0.016475277
41	0x3ddcd780	0.10783291
42	0xbe1eb6cc	-0.15499419
43	0x3dba5bf3	0.09099569
44	0xbdc97b09	-0.0983792
45	0x3d074068	0.033020407
46	0x3e415278	0.18879116
47	0x3f42fd02	0.7616731
48	0xbec64ff3	-0.3873287
49	0x3e5f6437	0.21815573
50	0xbea2a5a0	-0.31766987
51	0x3f2e03d2	0.6797458
52	0x3ee02883	0.43780908
53	0xbe5a3d5a	-0.21312466
54	0x3ed12a7a	0.4085272
55	0xbee64bb1	-0.44979623
56	0x3e309689	0.17244925
57	0xbe9cbb85	-0.30611816
58	0xbeb91496	-0.36148518
59	0x3f45623d	0.77103025
60	0x3f2dd75f	0.67906755
61	0x3f0029ad	0.5006359
62	0xbdcd9a2c	-0.100391716
63	0x3ef37f08	0.47557855
64	0xbee7e96b	-0.4529527
65	0x3e2d9bad	0.16953917
66	0xbe3d1c56	-0.1846784
67	0xbdd3275e	-0.10310243
68	0xbe5e9cba	-0.21739474
69	0x3dca642a	0.09882386
70	0x3e07a372	0.13245943
71	0x3f31d1eb	0.69460934
72	0x3efd4933	0.4946991
73	0xbf0c7f76	-0.5488199
74	0x3e6cc6b2	0.23122671
75	0x3e725c75	0.23668082
76	0xbe6f9765	-0.23397596
77	0x3e2c6aec	0.16837662
78	0x3f20582a	0.6263453
79	0x3e3b20be	0.18274209
80	0x3ec4b3c6	0.38418406
81	0xbe97bf35	-0.29638067
82	0x3cc10ab7	0.02356468
83	0xbe7296b5	-0.23690303
84	0x3f21e4b2	0.63239586
85	0xbe6b8dc4	-0.23003298
86	0x3f3863dc	0.72027373
87	0x3d5f4334	0.05450745
88	0x3efff000	0.49987793
89	0x3dbfcdd3	0.0936543
90	0xbea361fb	-0.3191069
91	0xbe3bf537	-0.18355261
92	0xbea594a3	-0.32339963
93	0x3c8ef4a4	0.017450638
94	0x3ea43e55	0.32078806
95	0xbedc7cc6	-0.43063945
96	0xbe278361	-0.16358711
97	0xbf35428d	-0.70804673
98	0xbeb0728c	-0.34462392
99	0x3ec457e7	0.38348314
100	0x3e8f48f8	0.27985358
101	0x3d4060fd	0.046967495
102	0x3daf2d23	0.08553531
103	0xbe2bfb0a	-0.16794983
104	0x3f8b50fb	1.0884088
105	0x3e7bb9be	0.24582574
106	0xbe09db5b	-0.13462584
107	0xbc93d278	-0.018044695
108	0xbe019734	-0.12655336
109	0x3ed01480	0.4064064
110	0x3e08060a	0.13283554
111	0x3f8d95e1	1.1061364
112	0x3e83296e	0.25617546
113	0x3f17ae60	0.5925045
114	0xbe18450b	-0.14870088
115	0xbe124e6c	-0.14287728
116	0xbf0b7dec	-0.54489017
117	0x3f173bc4	0.5907557
118	0x3e82f599	0.25578
119	0x3e5547a9	0.20828117
120	0x3ef97e23	0.48729047
121	0x3d621eb8	0.055205077
122	0x3e8e7eda	0.27831155
123	0x3d3f9994	0.046777323
124	0x3e4af964	0.19821697
125	0xbe8fd41f	-0.28091523
126	0xbe40b374	-0.18818456
127	0x3daa5e36	0.083187506

layers.1.weight f4 [128, 128]
0	0x3e93e143	0.288828
1	0x3e8802d0	0.26564646
2	0x3d988d9f	0.07448887
3	0x3dd2340a	0.10263832
4	0x3e16d94e	0.14731333
5	0xbd898db8	-0.06716484
6	0xbda09409	-0.078407355
7	0xbe4be014	-0.19909698
8	0xbdb10cd5	-0.08645026
9	0x3d86c5cf	0.06580698
10	0xbd4f49cd	-0.05060749
11	0xbd84a389	-0.06476504
12	0x3d8e4ba4	0.06948021
13	0xbd4edd03	-0.050503742
14	0xbdbc30fe	-0.09189032
15	0xbdb90109	-0.090334006
16	0xbe85354e	-0.2601723
17	0x3e07aeda	0.13250294
18	0xbe04cb83	-0.12968259
19	0x3c957d42	0.018248204
20	0xbe1333b3	-0.1437519
21	0x3cb8bce8	0.022551015
22	0xbeb0796a	-0.34467632
23	0xbe44ccc7	-0.19218741
24	0xbdbb98a1	-0.09159971
25	0xbd115db7	-0.035489764
26	0x3ed244fb	0.41068253
27	0xbd81fd11	-0.06347097
28	0x3da116a3	0.07865646
29	0xbdf2516c	-0.11831936
30	0xbdcbc5cc	-0.09949836
31	0xbe459f84	-0.19299132
32	0x3df7e6b1	0.12104548
33	0xbc9fd586	-0.019510996
34	0xbc387682	-0.011258723
35	0x3c89227f	0.016740082
36	0xbd6b152b	-0.057393234
37	0x3e4d9373	0.20075779
38	0x3cc6ec6e	0.02428266
39	0xbe146241	-0.14490606
40	0xbd8360af	-0.06414925
41	0x3d49f5e3	0.04930676
42	0xbddeab10	-0.10872471
43	0x3dd833a2	0.10556723
44	0xbdd46859	-0.10371465
45	0xbdbaa63f	-0.0911374
46	0x3e0390c4	0.12848192
47	0x3a7a47e5	0.0009547456
48	0x3deb0e7a	0.114773706
49	0x3ab954dc	0.001413967
50	0x3dc918e2	0.09819199
51	0xbc817fae	-0.015807953
52	0xbdf3f5da	-0.11912127
53	0xbca54072	-0.020172331
54	0x3e45dc6e	0.19322369
55	0xbba5d418	-0.005060684
56	0x3bfde188	0.0077478327
57	0xbd613ca2	-0.054989465
58	0xbd61b4d5	-0.055104095
59	0xbdbd8b1d	-0.092550494
60	0x3d81bcc1	0.0633483
61	0xbe1372a7	-0.14399205
62	0x3c7f53ce	0.015583945
63	0x3dc7b168	0.097506344
64	0xbddc5661	-0.10758663
65	0xbdc46fd9	-0.09591646
66	0xbe057155	-0.13031514
67	0x3d37a28e	0.04483276
68	0x3cfd3dff	0.030913351
69	0xbdb8d057	-0.09024113
70	0x3c308ce6	0.01077578
71	0xbe0be2ea	-0.1366078
72	0x3c5c36f2	0.013440834
73	0x3e34b208	0.17646039
74	0xbd8e46b0	-0.06947076
75	0xbd9a9c6b	-0.075493656
76	0x3c43407e	0.011917232
77	0x3d90b595	0.07065884
78	0x3e1284d4	0.14308482
79	0x3ea43be0	0.3207693
80	0xbc8b1dc9	-0.016981976
81	0x3ca4cb00	0.02011633
82	0xbdd2c056	-0.102905914
83	0xbd9dbe3a	-0.077022985
84	0x3d1b9c69	0.03799096
85	0x3db63125	0.08896092
86	0x3e84755d	0.2587079
87	0xbdcd4718	-0.10023326
88	0xbced73e6	-0.028985929
89	0xbcbff8f4	-0.02343414
90	0x3cc2d43d	0.023782844
91	0xbdeb0cce	-0.11477052
92	0xbe800e3d	-0.25010863
93	0x3d2b6c6a	0.04185144
94	0x3e62befb	0.22143166
95	0xbd0c4b36	-0.034251414
96	0xbd509d83	-0.050931465
97	0x3d3d7552	0.046254463
98	0xbe0d44b4	-0.1379574
99	0x3e3a3e9d	0.18187948
100	0xbda13ec0	-0.07873297
101	0xbe15c638	-0.14626396
102	0xbcf035b8	-0.02932249
103	0xbe019557	-0.12654625
104	0x3e8a38b3	0.26996383
105	0x3db598fa	0.088670686
106	0x3e1f21ad	0.1554019
107	0x3ce2f9c2	0.027706984
108	0x3d08da4e	0.033411317
109	0x3d952159	0.07281751
110	0xbe403bd7	-0.18772827
111	0x3e30c44d	0.17262383
112	0x3d8100e5	0.06298999
113	0x3e82f4a5	0.25577274
114	0xbd7928dc	-0.060829982
115	0x3dab1b3e	0.083548054
116	0xbd6e524d	-0.058183957
117	0x3e01f079	0.1268939
118	0x3e09e513	0.13466291
119	0x3d6cae78	0.057783574
120	0xbde96d01	-0.11397744
121	0x3d80303e	0.062592015
122	0x3e6277e4	0.22116047
123	0xbd1b8e87	-0.03797772
124	0xbd9a6af1	-0.07539929
125	0xba6dee4b	-0.0009076341
126	0x3d222f3e	0.039595835
127	0xbc34c1ea	-0.011032561
128	0x3db65447	0.089027934
129	0x3d75502a	0.059890904
130	0x3d2beb6d	0.041972566
131	0x3b81ce37	0.0039613503
132	0x3e4eb35d	0.20185609
133	0xbda045ed	-0.07825837
134	0xba195574	-0.00058492203
135	0xbc44f49a	-0.012021208
136	0xbd253ee2	-0.040343173
137	0x3d8d61dc	0.06903431
138	0xbd434276	-0.047670804
139	0x394e66cc	0.00019683986
140	0x3e2897ad	0.1646411
141	0x3d8d1180	0.068881035
142	0x3d990fd2	0.074737206
143	0x3db8c2fd	0.09021566
144	0xbd3d792c	-0.046258137
145	0x3d03bd48	0.032162935
146	0xbd44053a	-0.047856547
147	0x3df020ed	0.1172503
148	0x3d786aa0	0.06064856
149	0xbd3f3bd2	-0.04668791
150	0xbd8eb4fb	-0.06968113
151	0xbda76872	-0.08174218
152	0x3cf42921	0.029804768
153	0x3e13d157	0.14435326
154	0x3a4d58be	0.0007833353
155	0x3d93ad40	0.07210779
156	0xbd2bcea2	-0.041945107
157	0x3e2197bd	0.1578054
158	0x3d8420cf	0.0645157
159	0x3da55e12	0.08074583
160	0xbc232694	-0.009957928
161	0xbd379f4e	-0.04482966
162	0xbdf1cadf	-0.11806273
163	0xbd63b4e3	-0.05559243
164	0x3e08c5ef	0.13356756
165	0xbd778977	-0.06043383
166	0xbd1f6b28	-0.03892055
167	0xbe001877	-0.12509333
168	0x3d5296e2	0.051413424
169	0xbdbdc42c	-0.092659324
170	0xbd011c68	-0.03152123
171	0xbe16dddf	-0.14733075
172	0xbdb67e9f	-0.0891087
173	0xbd649896	-0.05580958
174	0xbdab8eef	-0.08376872
175	0x3b42b4da	0.0029709847
176	0x3cab483b	0.020908466
177	0x3d61fa32	0.055170245
178	0x3e336d0f	0.17522071
179	0xbea40ba2	-0.32040125
180	0xbe493b2a	-0.19651476
181	0x3d8066cf	0.06269609
182	0x3a1e8d60	0.0006048288
183	0x3e1c17a3	0.15243392
184	0xbce2fed5	-0.027709404
185	0xbe063cca	-0.13109127
186	0xbc5c0cdb	-0.013430799
187	0xbd33c06a	-0.043884672
188	0x3d69458c	0.05695109
189	0x3e2db6f4	0.16964322
190	0x3cc2b9ba	0.023770202
191	0x3d971a54	0.073780686
192	0xbc8be940	-0.017078996
193	0xbe0426f4	-0.12905484
194	0xbab1564f	-0.001352975
195	0xbd90bd33	-0.07067337
196	0x3df25744	0.11833051
197	0x3df1319a	0.11777039
198	0x3d5c5b51	0.053798024
199	0xbc64774b	-0.013944457
200	0xbe2fc76e	-0.1716592
201	0x3e10c87d	0.1413898
202	0xbe126238	-0.1429528
203	0xbd5dd578	-0.054158658
204	0xbd32bf33	-0.043639373
205	0x3e20a1bd	0.15686698
206	0xbd812dee	-0.063075885
207	0x3db42c9c	0.08797571
208	0xbdc02978	-0.093829095
209	0x3e8339cb	0.2563003
210	0xbd0c2b05	-0.034220714
211	0x3e4dc6e3	0.200954
212	0xbc3402b8	-0.010986976
213	0x3cc9e9f6	0.024647694
214	0xbd6acb03	-0.057322513
215	0x3d09e84c	0.0336688
216	0x3e09bf1c	0.13451809
217	0xbe14ac00	-0.14518738
218	0x3d9a3a20	0.07530618
219	0x3d6b58c4	0.0574577
220	0xbcb36be0	-0.021902025
221	0x3d395ca2	0.045254357
222	0xbd7707c5	-0.060310144
223	0x3d863060	0.065521955
224	0xbc8efff4	-0.017456032
225	0x3d33f905	0.043938655
226	0xbe3169b1	-0.17325474
227	0xbd1aa952	-0.037759133
228	0x3dee1979	0.11625952
229	0xbe8e7a24	-0.2782756
230	0xbcf754e1	-0.03019184
231	0x3e0876b9	0.13326539
232	0xbe09574a	-0.13412204
233	0x3e539a05	0.20664223
234	0x3da26391	0.07929147
235	0xba58d389	-0.0008271267
236	0x3e17d933	0.14828949
237	0x3cfebc1b	0.031095555
238	0xbbd74e6e	-0.006570629
239	0xbe1276ce	-0.14303133
240	0x3e0a6042	0.13513282
241	0xbdb83ab4	-0.08995572
242	0xbd5f9be4	-0.05459203
243	0xbda0fa35	-0.07860223
244	0xbdd33c20	-0.10314202
245	0xbe188ab0	-0.14896655
246	0x3e1de9aa	0.15421167
247	0x3c090d65	0.00836501
248	0xbd627611	-0.05528838
249	0xbe0e1961	-0.13876869
250	0x3d3976bc	0.04527925
251	0x3d94608a	0.07244976
252	0xbd19264b	-0.037390035
253	0xbcb876c1	-0.022517564
254	0x3dea0941	0.11427546
255	0xbcecdb16	-0.028913062
