Gym-DDPG-solution/results/DDPG_HalfCheetah-v4_2500-eps0.3-t32-l0.0001-s1.pth (torch, 193979 bytes, 13 tensors)

layers.0.weight f4 [128, 23]
0.22366633 -0.08902438 0.056179132 0.082272284 -0.36040315 0.46168637 0.1652789 0.2529986
-0.0719181 0.083098374 0.0752731 0.00014430808 0.024494767 -0.011799906 -0.012167295 -0.003875588
0.0005115002 0.10499247 0.21542853 0.1536078 -0.10519738 -0.12560007 -0.11850314 -0.1680312
-0.17308043 0.389688 0.2894874 -0.2636912 -0.21971996 0.33528155 0.3014565 0.27830902
0.22631368 -0.27421647 -0.07247032 -0.12104992 0.045137648 0.002188745 0.14228062 -0.10399116
0.24177812 -0.046236265 0.079883166 -0.24255802 -0.24087699 0.101532236 0.16507217 0.0122756995
-0.32396227 -0.12267148 -0.26114428 0.121592134 0.31996903 0.2026805 0.29949307 0.38216358
0.22795942 0.03053463 0.065468036 0.036641035 -0.0040484755 0.09874849 0.05879385 0.32916507
-0.1400055 -0.059905723 -0.13916978 0.1276516 -0.28144866 -0.33983612 0.13351606 -0.18838473
-0.11367352 -0.022801403 0.09746182 -0.16086417 0.17260836 0.2615884 -0.50597954 0.13211004
-0.057101957 -0.066249475 -0.034631792 0.012560001 0.045883413 -0.026285931 -0.3828442 0.083618335
-0.073646605 0.09332327 0.14550765 -0.19976954 0.43470666 0.07938415 -0.46457124 -0.3245771
0.18941174 0.0020945927 -0.12995404 -0.06531774 0.2367316 0.012613161 0.1853043 0.07887778
-0.03973774 -0.015065511 0.0712995 0.066705585 0.014645893 0.13988833 0.007040003 0.22406481
0.28092718 -0.1217445 0.11249067 0.50323737 0.020433819 -0.21180548 -0.25698775 -0.20657915
-0.06405584 -0.058648463 0.2315236 -0.12418604 0.035089232 -0.26235887 -0.07391255 -0.027200626
0.0048890146 0.06910106 0.018960286 0.028494598 0.17560369 0.1832572 0.18670146 0.17189272
0.07798752 0.08886001 0.03316095 -0.48890415 0.08829915 -0.116290495 -0.17118748 0.015455876
0.010790722 0.094864406 0.19927502 0.1883437 0.060112644 0.03475851 0.007738869 0.12129799
-0.0022723868 -0.01374525 -0.032103766 -0.34596908 -0.04156533 -0.06256024 0.123699695 0.04064715
0.006477852 0.40827727 -0.1133768 0.60050684 0.14663462 -0.020316876 -0.14366911 -0.19883831
-0.2931856 -0.045984346 0.073303536 0.07674275 -0.0069657136 0.038652033 -0.0055791065 0.09114123
0.06510512 0.0069029406 -0.33409303 0.060505528 -0.05415086 0.015358005 -0.11553018 -0.11675567
-0.16989683 0.40033635 -0.67099434 -0.027446594 -0.027482528 -0.19756545 0.07721481 -0.111126594
-0.15645272 -0.0355902 0.26613772 -0.14835426 0.07644578 -0.051080488 0.25572485 -0.06329939
0.1579742 -0.10708244 0.15459499 -0.16658017 0.092817 0.14444819 0.14726499 0.35908526
-0.11078527 -0.09447868 0.51790994 -0.053444162 -0.08264493 0.25014105 0.17119105 0.25876972
-0.038745247 -0.08977486 0.10365291 0.10084383 -0.059939966 0.142102 -0.15662621 -0.024632746
0.48195964 0.112597845 -0.24153854 0.46254295 0.27636376 0.32669646 0.27063796 -0.27802882
0.4891794 0.1606655 -0.14349768 -0.012257121 0.06329616 0.27964878 0.047763556 -0.16950646
-0.2673824 -0.027377898 0.025160246 0.023896214 -0.09732693 -0.00826841 -0.039507218 -0.0936523
-0.10913189 0.1914185 0.12672041 0.011520923 0.08994649 0.56308603 -0.11650633 0.2788164
00000000: c908 653e 6a52 b6bd 171c 663d 5f7e a83d
00000010: c386 b8be 2862 ec3e df3e 293e 0889 813e
00000020: cc49 93bd 7b2f aa3d c828 9a3d 6851 1739
00000030: 40a9 c83c 6554 41bc 5659 47bc 94fd 7dbb
00000040: 3316 063a 4b06 d73d 4c99 5c3e 5d4b 1d3e
00000050: b971 d7bd 4e9d 00be c6b1 f2bd 5f10 2cbe
00000060: ff3b 31be 2f85 c73e b137 943e 8802 87be
00000070: 45fe 60be 06aa ab3e 8258 9a3e 857e 8e3e
00000080: c6be 673e 1a66 8cbe 526b 94bd 05e9 f7bd
00000090: 41e2 383d 0c71 0f3b 03b2 113e 51f9 d4bd
000000a0: af94 773e 3d62 3dbd c999 a33d 2161 78be
000000b0: 75a8 76be 22f0 cf3d ae08 293e 0420 493c
000000c0: 62de a5be 2f3b fbbd b4b4 85be 4c05 f93d
000000d0: fbd2 a33e 7a8b 4f3e 2857 993e f2aa c33e
000000e0: 326e 693e c323 fa3c 1b14 863d e914 163d
000000f0: 13a9 84bb a63c ca3d d2d1 703d 5388 a83e
00000100: 9a5d 0fbe b45f 75bd 8682 0ebe 1ab7 023e
00000110: 0a1a 90be 00ff adbe 6fb8 083e ede7 40be
00000120: aacd e8bd 02ca babc 109a c73d 94b9 24be
00000130: 3fc0 303e eaee 853e e087 01bf db47 073e
00000140: bee3 69bd cead 87bd 11da 0dbd 76c8 4d3c
00000150: 3ff0 3b3d 9855 d7bc 2804 c4be 1740 ab3d
00000160: 08d4 96bd 4520 bf3d f5ff 143e 6390 4cbe
00000170: df91 de3e 2894 a23d 48dc edbe f82e a6be
00000180: 27f5 413e 6f45 093b ac12 05be 4fc5 85bd
00000190: c569 723e 6ea7 4e3c 69c0 3d3e ac8a a13d
000001a0: 0ac4 22bd 55d5 76bc 7905 923d f09c 883d
000001b0: 54f5 6f3c e33e 0f3e d3af e63b 3f71 653e
000001c0: b0d5 8f3e 2e55 f9bd 8261 e63d 2ad4 003f
000001d0: d364 a73c 89e3 58be e693 83be 7c89 53be
000001e0: b52f 83bd 5f39 70bd 8614 6d3e 4055 febd
000001f0: bab9 0f3d e753 86be 775f 97bd d9d3 debc
00000200: 0734 a03b db84 8d3d 9a52 9b3c 816d e93c
00000210: 74d1 333e c7a7 3b3e ab2e 3f3e a504 303e
00000220: ecb7 9f3d 3dfc b53d c7d3 073d a551 fabe
00000230: 2fd6 b43d b629 eebd c54b 2fbe a43a 7d3c
00000240: 92cb 303c 4548 c23d c00e 4c3e 2cdd 403e
00000250: ad38 763d f05e 0e3d 5796 fd3b 156b f83d
00000260: 53ec 14bb c233 61bc 3d7f 03bd dc22 b1be
00000270: 6840 2abd 951f 80bd 4456 fd3d a07d 263d
00000280: 2944 d43b b809 d13e 1932 e8bd d1ba 193f
00000290: 6327 163e 946f a6bc ff1d 13be 459c 4bbe
000002a0: 6c1c 96be 155a 3cbd 2a20 963d 4e2b 9d3d
000002b0: a440 e4bb 9851 1e3d f0d0 b6bb 41a8 ba3d
000002c0: d555 853d 1032 e23b 3e0e abbe a5d4 773d
000002d0: 4bcd 5dbd 24a0 7b3c 169b ecbd 991d efbd
000002e0: 6ff9 2dbe e3f8 cc3e 49c6 2bbf aed7 e0bc
000002f0: 0a23 e1bc 994e 4abe cc22 9e3d 5796 e3bd
00000300: 2435 20be 08c7 11bd 3443 883e 2eea 17be
00000310: 9b8f 9c3d c639 51bd 5eee 823e 1ca3 81bd
00000320: fdc3 213e 0a4e dbbd 264e 1e3e fe93 2abe
00000330: d716 be3d 3aea 133e a2cc 163e 06da b73e
00000340: 63e3 e2bd 0a7e c1bd bf95 043f 44e8 5abd
00000350: bf41 a9bd 7d12 803e b54c 2f3e 777d 843e
00000360: 56b3 1ebd e2db b7bd fa47 d43d 3687 ce3d
00000370: 9c83 75bd 3083 113e 9f62 20be 9dca c9bc
00000380: 6ac3 f63e b399 e63d e155 77be 6ed2 ec3e
00000390: 8d7f 8d3e c244 a73e 0f91 8a3e cb59 8ebe
000003a0: b975 fa3e 7f85 243e 0ef1 12be 17d2 48bc
000003b0: 6ba1 813d 202e 8f3e b8a3 433d 1a93 2dbe
000003c0: 59e6 88be 9d47 e0bc dc1c ce3c fec1 c33c
000003d0: 5753 c7bd 3a78 07bc 52d2 21bd c7cc bfbd
000003e0: 8a80 dfbd 3603 443e ffc2 013e 41c2 3c3c
000003f0: de35 b83d 6826 103f df9a eebd 06c1 8e3e

layers.0.bias f4 [128]
-0.08474113 -0.15880667 -0.4273861 0.09997638 -0.08484911 -0.17163302 -0.101521716 -0.1681885
0.106011495 -0.078529105 -0.29438308 -0.40331334 -0.121197335 -0.18307123 0.07174282 -0.041298315
0.3886604 -0.2793696 -0.24386355 -0.3403134 0.43134236 -0.12224469 -0.13633595 -0.10722101
-0.23058107 -0.12747666 -0.26032314 -0.08131012 -0.033045243 0.03138381 0.06593201 0.15995426
0.1182661 -0.13380183 -0.321541 0.1757506 -0.3120936 -0.33656263 0.12496854 -0.22148839
-0.06636979 -0.19204772 0.069789395 -0.16457948 -0.029945424 -0.034921765 -0.24741317 -0.4748454
0.046357844 0.4400344 -0.29553768 -0.3474687 0.2781878 0.33017963 0.4178752 -0.26945528
-0.03930526 -0.14750192 0.3697825 0.21153738 -0.0071932706 0.12043942 -0.3607065 -0.025117679
-0.00906541 0.2968525 -0.09331448 -0.2516815 -0.3088097 -0.19223 0.16336758 0.2623229
0.35203695 -0.30761582 0.010007065 -0.3320847 -0.22858877 -0.022939852 0.25486127 -0.06221407
0.046842173 -0.39476907 0.13715707 0.07028399 -0.02963258 -0.16291995 -0.20470771 0.21709855
0.3447104 -0.31944472 -0.09584717 0.04168794 0.03656365 -0.27322057 -0.08323422 -0.21456009
-0.19163127 0.20543392 0.018426584 0.26537922 0.18739018 -0.18632549 -0.27652144 0.22919859
0.2961426 0.08326341 -0.011608542 0.08462918 -0.25931978 -0.18688054 0.24573395 0.50610334
0.18027647 0.08345627 0.29565102 -0.44464576 0.16816768 0.3110973 -0.15866804 0.31661156
0.06617756 -0.03923623 -0.1639953 -0.041676752 -0.12127958 -0.1409558 -0.06732842 -0.36591858
00000000: c28c adbd 379e 22be 5ad2 dabe 6bc0 cc3d
00000010: 5fc5 adbd 91c0 2fbe 9eea cfbd 9b39 2cbe
00000020: 8e1c d93d ded3 a0bd 61b9 96be 167f cebe
00000030: 4f36 f8bd 0677 3bbe e6ed 923d 6c28 29bd
00000040: 7ffe c63e 8809 8fbe 5eb7 79be 8f3d aebe
00000050: e8d8 dc3e 6d5b fabd a79b 0bbe b096 dbbd
00000060: 721d 6cbe 3e89 02be 1349 85be ec85 a6bd
00000070: 735a 07bd 4f8c 003d 5d07 873d 0dcb 233e
00000080: 7f35 f23d 5903 09be 06a1 a4be f7f7 333e
00000090: bbca 9fbe f051 acbe 82ef ff3d dacd 62be
000000a0: e2ec 87bd 28a8 44be beed 8e3d 8687 28be
000000b0: 1b50 f5bc 200a 0fbd e159 7dbe f01e f3be
000000c0: b9e1 3d3d 304c e13e b750 97be 6be7 b1be
000000d0: a26e 8e3e 4e0d a93e bdf3 d53e 0bf6 89be
000000e0: 8dfe 20bd be0a 17be 2254 bd3e 419d 583e
000000f0: 87b5 ebbb f1a8 f63d 86ae b8be 97c3 cdbc
00000100: 1687 14bc 0dfd 973e a91b bfbd 66dc 80be
00000110: 4e1c 9ebe f1d7 44be d549 273e 304f 863e
00000120: 303e b43e d27f 9dbe acf4 233c 0107 aabe
00000130: 2d13 6abe 5bec bbbc 2d7d 823e 2ed4 7ebd
00000140: 94dd 3f3d 2c1f cabe e772 0c3e 0df1 8f3d
00000150: 06c0 f2bc 7dd4 26be e69e 51be 154f 5e3e
00000160: e27d b03e 428e a3be 854b c4bd f9c0 2a3d
00000170: c4c3 153d 91e3 8bbe b476 aabd a4b5 5bbe
00000180: fd3a 44be 455d 523e 59f3 963c c9df 873e
00000190: 36e3 3f3e 1ccc 3ebe 3894 8dbe 09b3 6a3e
000001a0: 01a0 973e 0286 aa3d c131 3ebc 1052 ad3d
000001b0: 90c5 84be 9d5d 3fbe aea1 7b3e fd8f 013f
000001c0: 659a 383e 1feb aa3d 925f 973e 9ca8 e3be
000001d0: 2634 2c3e 2548 9f3e e079 22be e91a a23e
000001e0: 1a88 873d 2bb6 20bd 62ee 27be 3eb5 2abd
000001f0: 6e61 f8bd b856 10be 7ce3 89bd ae59 bbbe

layers.1.weight f4 [128, 128]
0.033233583 -0.061051786 -0.050151322 0.03157364 -0.008849163 0.07741342 0.06251663 0.038029235
-0.02362029 0.071280755 -0.07050637 -0.0070781563 0.08662132 -0.04273222 0.017690277 0.061643984
0.078554966 -0.06887023 -0.025763808 0.06644415 -0.019840688 -0.0011278621 0.06555601 -0.022698719
0.064631574 -0.108646385 -0.19702414 -0.020172257 0.005274341 -0.06771654 -0.08302464 0.09385177
-0.055822283 0.08894131 0.091233745 -0.01440529 0.0031346178 0.016392158 -0.03082673 0.034948148
0.05153503 0.07585791 0.0161483 0.012212223 -0.045376733 -0.05214315 0.10145952 -0.0034402176
-0.033768144 -0.0128546655 0.017226972 0.039381597 0.00034087923 -0.07079511 -0.05669288 -0.030716175
-0.044564135 0.11246544 0.06581995 -0.13578826 -0.044077203 0.11453527 0.047626626 -0.04911029
0.0053048446 -0.08025864 0.041463643 -0.047022603 0.024600418 -0.013301099 0.09709098 -0.06234043
-0.010644625 -0.025232952 0.0017183031 -0.053670894 0.06868563 -0.06117261 0.08795471 0.05883456
0.061587922 0.1679192 0.03773069 0.038417984 0.0067713363 0.036482558 0.0049974397 -0.13779871
-0.09544648 -0.057614364 0.016214237 0.09245976 -0.058889396 -0.024427384 0.10619599 0.04772435
-0.074836515 0.022425858 0.004698498 -0.034894884 0.013458586 0.05258459 -0.106245376 -0.012675979
-0.11056458 0.06564613 0.085720815 0.070365064 -0.02372928 -0.051055793 -0.03032725 -0.17102188
0.04993777 -0.034721706 -0.04740557 0.12707525 -0.13263589 -0.023705306 -0.0049059433 0.11958069
0.044969663 -0.011798333 -0.12536255 0.039246876 -0.104801305 0.10644604 0.047747567 0.030087395
0.0037352273 0.08297843 0.1081999 0.007949664 -0.03060812 -0.012515227 0.071884796 0.10032422
-0.09336052 0.10862463 -0.04626802 0.06375089 -0.10053255 -0.0028725134 -0.003260545 0.056645527
-0.03001804 -0.0032390496 0.12336091 -0.007395682 -0.010946261 0.048168372 -0.08787594 -0.030759038
0.034031175 0.058406204 -0.06372734 0.007485737 -0.03623442 -0.058782794 -0.06689401 0.062773466
0.06567707 0.007827415 0.04853384 -0.093986236 -0.018084351 0.063388295 0.05465728 -0.081750445
-0.010936456 0.107479416 0.029868502 0.0089318175 -0.15641655 0.09397197 -0.08391278 0.06671304
-0.059972875 -0.013207634 -0.03213156 0.0021773118 -0.009824713 -0.09827105 -0.045294456 0.03060085
-0.044679035 0.034452647 -0.00092494773 0.023605987 0.02818389 -0.1000698 0.030660132 -0.00077639916
0.101158366 -0.12453877 0.019859377 -0.042712897 0.062099304 0.040423125 -0.021966556 -0.076240316
-0.05395389 -0.09527235 0.06318537 0.035567094 0.046847902 -0.038061704 0.0121304775 0.029293012
0.03576684 0.03600312 -0.014586243 -0.05526248 -0.03561342 0.070223935 0.10403698 -0.02854013
0.06685035 0.046541188 -0.07588043 0.05302035 0.0088625485 0.038553603 -0.06742408 -0.029253496
0.09538781 -0.0815622 -0.110805206 0.027542358 -0.056292687 0.027927544 -0.024393473 0.09525929
0.015765114 -0.06795989 0.00081043516 -0.061353154 0.041178867 -0.0041507874 -0.12508777 -0.02562722
0.042574164 -0.040227566 0.018429121 0.031815834 -0.0794335 0.04712055 -0.08167902 0.018505795
0.03856908 0.0098580485 -0.09092786 -0.0380232 -0.0098294895 -0.032508343 0.04192116 0.04965617
00000000: f01f 083d 7011 7abd 796b 4dbd 5c53 013d
00000010: 14fc 10bc ed8a 9e3d b808 803d 8bc4 1b3d
00000020: 577f c1bc a5fb 913d a565 90bd e1ef e7bb
00000030: 8566 b13d fb07 2fbd 33eb 903c 677e 7c3d
00000040: 6de1 a03d d60b 8dbd 9f0e d3bc df13 883d
00000050: f088 a2bc c6d4 93ba 3b42 863d aaf2 b9bc
00000060: 8f5d 843d ff81 debd b2c0 49be 4a40 a5bc
00000070: 61d4 ac3b f8ae 8abd d308 aabd 5b35 c03d
00000080: e8a5 64bd dd26 b63d c2d8 ba3d 2a04 6cbc
00000090: 296e 4d3b d948 863c 5788 fcbc ca25 0f3d
000000a0: 6516 533d 645b 9b3d 7149 843c c715 483c
000000b0: f4dc 39bd 0e94 55bd 02ca cf3d 4675 61bb
000000c0: 7750 0abd 609c 52bc 941f 8d3c 994e 213d
000000d0: 09b8 b239 07fd 90bd cb36 68bd 7da0 fbbc
000000e0: e288 36bd 4854 e63d 9ccc 863d 140c 0bbe
000000f0: 4c8a 34bd 7891 ea3d 2314 433d df27 49bd
00000100: 43d4 ad3b a45e a4bd c8d5 293d c69a 40bd
00000110: d186 c93c daec 59bc a3d7 c63d ae58 7fbd
00000120: cb66 2ebc 56b5 cebc af38 e13a 03d6 5bbd
00000130: 0dab 8c3d 2190 7abd 9921 b43d 82fc 703d
00000140: 9e43 7c3d 03f3 2b3e 7f8b 1a3d 2d5c 1d3d
00000150: 16e2 dd3b bc6e 153d 90c1 a33b 1b1b 0dbe
00000160: 7279 c3bd 0afd 6bbd b8d3 843c 8b5b bd3d
00000170: 0236 71bd f01b c8bc 497d d93d 9c7a 433d
00000180: e343 99bd 6fb6 b73c dcf5 993b f0ed 0ebd
00000190: 6781 5c3c f062 573d 2d97 d9bd e9ae 4fbc
000001a0: af6f e2bd 7a71 863d 658e af3d 8f1b 903d
000001b0: e863 c2bc e11f 51bd da70 f8bc 5c20 2fbe
000001c0: 8c8b 4c3d 5938 0ebd 582c 42bd 0420 023e
000001d0: b4d1 07be a131 c2bc 09c2 a0bb b9e6 f43d
000001e0: 1c32 383d cc4d 41bc 0a5f 00be 55c1 203d
000001f0: 11a2 d6bd 6200 da3d f492 433d d779 f63c
00000200: b7ca 743b 98f0 a93d e997 dd3d 4f3f 023c
00000210: e1bd fabc ab0c 4dbc 5638 933d c976 cd3d
00000220: cd33 bfbd 9776 de3d 8983 3dbd d48f 823d
00000230: 02e4 cdbd c740 3cbb deae 55bb 2405 683d
00000240: 65e8 f5bc 3c46 54bb a5a4 fc3d 7a57 f2bb
00000250: f257 33bc 334c 453d 4df8 b3bd 61fa fbbc
00000260: 4664 0b3d 583b 6f3d 7b83 82bd ea4a f53b
00000270: 8b6a 14bd 3ac6 70bd baff 88bd 608f 803d
00000280: b381 863d 8f3e 003c 6bcb 463d db7b c0bd
00000290: a225 94bc b9d1 813d 50e0 5f3d c76c a7bd
000002a0: d22e 33bc 2b1e dc3d caae f43c c256 123c
000002b0: a92b 20be 6074 c03d 77da abbd d9a0 883d
000002c0: 1ea6 75bd d564 58bc 629c 03bd 3bb1 0e3b
000002d0: d5f7 20bc 5542 c9bd ae86 39bd a2ae fa3c
000002e0: 5d01 37bd 381e 0d3d 3178 72ba 5861 c13c
000002f0: e7e1 e63c 65f1 ccbd f52a fb3c 4487 4bba
00000300: 1e2c cf3d 2f0e ffbd 22b0 a23c b8f3 2ebd
00000310: d75b 7e3d b892 253d 35f3 b3bc e223 9cbd
00000320: c1fe 5cbd 261e c3bd 5567 813d cdae 113d
00000330: 96e3 3f3d 97e6 1bbd e9be 463c e6f7 ef3c
00000340: 4080 123d 0278 133d 23fb 6ebc e95a 62bd
00000350: 61df 11bd 91d1 8f3d 5711 d53d fecc e9bc
00000360: d6e8 883d f9a1 3e3d 3367 9bbd de2b 593d
00000370: 3934 113c 62ea 1d3d a315 8abd 07a5 efbc
00000380: af5a c33d 150a a7bd d7ed e2bd 83a0 e13c
00000390: 2993 66bd 4ec8 e43c d2d4 c7bc 4d17 c33d
000003a0: d725 813c 8e2e 8bbd 6273 543a 724d 7bbd
000003b0: 2cab 283d 5403 88bb 0217 00be 2df0 d1bc
000003c0: 3f62 2e3d a9c5 24bd abf8 963c 5251 023d
000003d0: 08ae a2bd 7a01 413d 5447 a7bd 7799 973c
000003e0: 9dfa 1d3d a783 213c 6338 babd 37be 1bbd
000003f0: de0b 21bc 7827 05bd 86b5 2b3d 4564 4b3d

layers.1.bias f4 [128]
-0.09865143 -0.0945937 -0.08622556 -0.028497819 0.025487822 -0.052790005 0.14709793 0.14116903
-0.07318267 -0.09180267 0.08640809 -0.040165015 -0.012023729 -0.02151129 0.13435479 0.0074491557
-0.082474865 0.055195983 0.027913552 0.012667756 0.083459206 0.12173691 0.00027991447 0.11528118
0.16517207 0.029155737 -0.108217314 -0.12743971 -0.0022498383 0.11416156 -0.007839165 -0.08745935
-0.080673054 0.084761046 0.018942762 0.0027335412 0.08275618 -0.15862344 0.0872762 0.14070165
-0.045260996 0.09558372 0.12088998 0.03462588 -0.12173663 0.020491818 0.043197088 -0.13761546
-0.10400487 0.012655723 -0.080567926 -0.065091066 -0.050142616 -0.114274435 0.0533307 -0.081081815
0.13521433 -0.13491285 0.019065022 -0.13598153 -0.18442945 0.074882254 -0.12205414 -0.07002578
-0.14730458 -0.039755628 0.07046498 0.03401197 -0.01575899 -0.12701699 -0.15274844 0.030582847
0.093608394 0.08849298 -0.04152193 -0.025026113 -0.1763613 0.12174873 0.020646792 -0.14575025
0.067082636 0.041725833 0.20212565 0.10831166 0.029104017 -0.0037841746 0.0047349357 0.061146144
-0.019871254 0.100263484 -0.06669498 0.12349092 0.1551757 0.045301277 -0.09791283 0.04263871
0.030168954 0.047732923 -0.12356065 0.029463109 -0.061408117 -0.016694361 -0.05016875 -0.14160784
0.056855805 -0.10019878 -0.14564468 -0.09770517 0.13555485 0.021081591 0.024866698 0.08317836
-0.042178497 0.068098634 0.08362649 -0.09315776 -0.034331385 -0.12265413 -0.14534195 -0.018772306
-0.06090797 -0.023814721 0.052397106 0.067846715 -0.08308113 -0.14910148 0.0029009979 0.035417445
00000000: c309 cabd 57ba c1bd 0797 b0bd 4274 e9bc
00000010: d6cb d03c 553a 58bd d7a0 163e 9d8e 103e
00000020: cce0 95bd 0a03 bcbd baf6 b03d 1284 24bd
00000030: 2dff 44bc 7238 b0bc 4d94 093e 0c18 f43b
00000040: 95e8 a8bd 2f15 623d f6aa e43c 6b8c 4f3c
00000050: a9ec aa3d 3351 f93d 7cc1 9239 8a18 ec3d
00000060: de22 293e 03d8 ee3c 0aa1 ddbd 8e7f 02be
00000070: 0672 13bb 89cd e93d d76f 00bc e31d b3bd
00000080: ea37 a5bd 3397 ad3d da2d 9b3c 3625 333b
00000090: 127c a93d 2f6e 22be ddbd b23d 1814 103e
000000a0: 9863 39bd 66c1 c33d 2a95 f73d ded3 0d3d
000000b0: 0e51 f9bd 75de a73c 6eef 303d 11eb 0cbe
000000c0: 8100 d5bd f359 4f3c cc00 a5bd 774e 85bd
000000d0: 5862 4dbd b708 eabd 4b71 5a3d 390e a6bd
000000e0: a075 0a3e 9826 0abe 402e 9c3c be3e 0bbe
000000f0: 13db 3cbe de5b 993d 85f7 f9bd ad69 8fbd
00000100: 03d7 16be ccd6 22bd f24f 903d 2350 0b3d
00000110: ff18 81bc be10 02be 166a 1cbe e188 fa3c
00000120: c2b5 bf3d cf3b b53d e612 2abd 9003 cdbc
00000130: 0e98 34be 6657 f93d 7623 a93c 8e3f 15be
00000140: 9f62 893d b5e8 2a3d 07fa 4e3e 81d2 dd3d
00000150: 8c6b ee3c eaff 77bb 8527 9b3b 6174 7a3d
00000160: 0ac9 a2bc f156 cd3d 6197 88bd cfe8 fc3d
00000170: 61e6 1e3e d58d 393d 8686 c8bd eea5 2e3d
00000180: e224 f73c 9983 433d 5e0d fdbd 9e5c f13c
00000190: 1487 7bbd 9dc2 88bc bf7d 4dbd a501 11be
000001a0: a2e1 683d 0535 cdbd e123 15be a619 c8bd
000001b0: e4ce 0a3e 4db3 ac3c 3fb5 cb3c 6a59 aa3d
000001c0: 5cc3 2cbd 4c77 8b3d 5d44 ab3d 7fc9 bebd
000001d0: 119f 0cbd 1732 fbbd 85d4 14be 61c8 99bc
000001e0: a37a 79bd 1717 c3bc 599e 563d 38f3 8a3d
000001f0: 7126 aabd 0fae 18be ab1e 3e3b e211 113d

layers.2.weight f4 [64, 128]
0.02129739 -0.11844576 -0.10327867 0.104018174 -0.1646693 -0.034529876 0.14153987 0.0729399
0.0901667 0.0343891 0.032150757 0.083629265 -0.028488798 -0.061527614 0.082859784 0.034263045
0.021133091 0.06310952 0.02477514 0.051833376 0.026048366 0.15032463 -0.0026614182 0.11300061
0.04288157 -0.032904718 -0.030405551 0.0056326464 -0.075151674 -0.08532177 0.0011117635 -0.019834373
-0.098469116 0.08290074 0.039067864 -0.051436663 0.05026881 -0.015943088 0.1111706 0.12150238
-0.12169898 0.09974506 -0.016788162 0.042095963 -0.0064224293 0.12421298 0.04894005 0.010030307
-0.13850857 -0.06559305 0.09337773 0.041028652 -0.08933936 0.03975695 0.10302132 0.0008495453
0.022172177 0.073281184 0.015545036 -0.068222664 -0.05392776 -0.035244238 -0.09912963 0.017051592
0.06047548 -0.1364337 0.1243343 0.09715599 -0.023659732 -0.0870343 -0.07359442 0.12357375
0.13484885 3.2375e-05 0.11191206 -0.01932827 0.017989721 0.014256622 0.0864971 -0.11171408
0.047911596 -0.026112096 0.06765351 0.01603615 -0.020170618 -0.06454628 -0.034042183 -0.0002694403
0.07474207 0.014058823 0.06335451 0.045063954 0.09097141 0.09816094 -0.07994714 0.1074814
-0.020097291 0.03991731 0.03214939 0.114192486 -0.11196812 0.07887406 -0.033652257 -0.01602835
0.055490304 0.011206694 -0.10913084 -0.025417106 0.09143284 0.047824882 -0.0141101265 -0.023426656
0.009733314 0.0017939445 -0.026780726 -0.032332454 0.020883447 0.0017779522 -0.1441316 -0.027981697
0.06620631 0.08176642 0.028099326 -0.011129606 0.07971865 -0.10343858 0.052518364 -0.037106387
-0.09856836 -0.026707401 -0.01754187 0.15483527 -0.06086975 -0.0048075146 -0.046645697 0.021017073
-0.0027939049 -0.09327459 -0.03892477 -0.026869308 -0.0020677675 -0.13655828 -0.020183861 -0.07012685
-0.09080148 -0.05661644 -0.08537642 -0.058182593 -0.032778323 0.018881043 0.00810286 0.028601032
-0.04404812 0.046875823 -0.03428633 -0.019407237 -0.15809184 -0.09371736 0.10312692 0.033967
0.026268011 0.0507301 -0.0062066736 0.09414454 0.08119445 -0.08459805 -0.039612707 0.020264057
-0.13297927 -0.05918048 -0.06775726 0.10349477 0.04417379 0.13808236 -0.079750374 -0.049488984
0.037673198 -0.026183276 0.0074617825 0.035580985 0.031277247 -0.07077736 -0.022855548 -0.006465573
0.043268282 0.1015966 0.051450998 -0.09264471 0.014294824 0.05429182 -0.05290781 -0.043249734
-0.00019530345 -0.014609031 0.037084725 0.13573703 0.0053878687 -0.060878523 -0.02365079 0.0945054
0.036281794 -0.014086859 0.1055293 0.025662277 -0.07435561 -0.0129912095 0.0708808 -0.11141045
-0.11830302 0.085164756 0.10979499 0.020898871 -0.032887507 -0.010615848 0.0609871 0.07374197
0.13741966 0.0050924127 0.043599714 -0.010167725 -0.09054364 -0.029629406 0.0046642693 0.011038293
0.013620589 -0.025099196 0.0113482615 0.12980016 0.036304984 0.02105287 -0.024733461 -0.036279894
0.07227921 -0.103010885 -0.076924235 0.05799125 -0.07676894 0.06347305 0.10328584 -0.11158304
-0.056873247 0.11703746 0.025254887 0.10041938 0.03795711 0.056353148 0.043285426 -0.07909741
0.03209038 -0.054931596 0.018957876 -0.18224066 0.03622857 0.054314837 -0.032910157 -0.1442115
00000000: dd77 ae3c b193 f2bd c483 d3bd 7b07 d53d
00000010: 129f 28be 336f 0dbd d4ef 103e 8461 953d
00000020: 52a9 b83d 96db 0c3d 83b0 033d d245 ab3d
00000030: 5761 e9bc 6104 7cbd 64b2 a93d 6857 0c3d
00000040: 4e1f ad3c 903f 813d 3cf5 ca3c 3c4f 543d
00000050: 6263 d53c b3ee 193e 306b 2ebb dd6c e73d
00000060: 96a4 2f3d 19c7 06bd 1015 f9bc 1092 b83b
00000070: 1fe9 99bd 2ebd aebd 98b8 913a b27b a2bc
00000080: 2daa c9bd ddc7 a93d a005 203d 40af 52bd
00000090: abe6 4d3d 149b 82bc 69ad e33d 3dd6 f83d
000000a0: 513d f9bd 2347 cc3d 5487 89bc d16c 2c3d
000000b0: 3e73 d2bb 6063 fe3d 5d75 483d 2856 243c
000000c0: 31d5 0dbe a655 86bd d33c bf3d a90d 283d
000000d0: 8ef7 b6bd 2fd8 223d d8fc d23d 05b4 5e3a
000000e0: 6da2 b53c 7214 963d 9bb0 7e3c 53b8 8bbd
000000f0: 5be3 5cbd 435c 10bd 7a04 cbbd c8af 8b3c
00000100: 23b5 773d 47b5 0bbe fba2 fe3d b8f9 c63d
00000110: 0ed2 c1bc 0a3f b2bd acb8 96bd 3c14 fd3d
00000120: d115 0a3e 64ca 0738 2632 e53d 5256 9ebc
00000130: 2e5f 933c 9b94 693c 6425 b13d 5aca e4bd
00000140: f33e 443d 09e9 d5bc ec8d 8a3d 3e5e 833c
00000150: da3c a5bc d730 84bd d16f 0bbd aa43 8db9
00000160: 5f12 993d fa56 663c 02c0 813d fb94 383d
00000170: 384f ba3d 9a08 c93d 53bb a3bd 351f dc3d
00000180: 13a3 a4bc 5580 233d 14af 033d c0dd e93d
00000190: 8b4f e5bd b988 a13d f3d6 09bd e34d 83bc
000001a0: cd49 633d 489c 373c fd7f dfbd 8937 d0bc
000001b0: 2441 bb3d 06e4 433d 292e 67bc 42e9 bfbc
000001c0: 7a78 1f3c ca22 eb3a 4163 dbbc 096f 04bd
000001d0: c313 ab3c 2d0a e93a 3c97 13be df39 e5bc
000001e0: 2d97 873d 2775 a73d 8f30 e63c f358 36bc
000001f0: 8843 a33d 9bd7 d3bd 7f1d 573d defc 17bd
00000200: 35de c9bd 7bc9 dabc f8b3 8fbc 238d 1e3e
00000210: 8f52 79bd 5b88 9dbb 8f0f 3fbd ff2b ac3c
00000220: f219 37bb c006 bfbd 946f 1fbd 061d dcbc
00000230: 6283 07bb efd5 0bbe a058 a5bc aa9e 8fbd
00000240: 20f6 b9bd a4e6 67bd d5d9 aebd df50 6ebd
00000250: 9042 06bd 6bac 9a3c dcc1 043c b64c ea3c
00000260: cd6b 34bd dd00 403d d36f 0cbd edfb 9ebc
00000270: d4e2 21be e3ee bfbd 3534 d33d fb20 0b3d
00000280: 0330 d73c 5eca 4f3d 5a61 cbbb dace c03d
00000290: 4749 a63d be41 adbd ef40 22bd cf00 a63c
000002a0: b82b 08be 3b67 72bd 51c4 8abd 11f5 d33d
000002b0: 93ef 343d 7665 0d3e 2a54 a3bd f6b4 4abd
000002c0: 364f 1a3d 4f7e d6bc f881 f43b 5ebd 113d
000002d0: 921c 003d b8f3 90bd 8f3b bbbc 28dd d3bb
000002e0: 153a 313d e111 d03d 48be 523d 82bc bdbd
000002f0: d634 6a3c 1961 5e3d dcb5 58bd a226 31bd
00000300: 5fca 4cb9 b85a 6fbc 27e6 173d a6fe 0a3e
00000310: b88c b03b c25b 79bd 4dbf c1bc 0c8c c13d
00000320: 389c 143d 92cc 66bc bf1f d83d b239 d23c
00000330: c147 98bd 15d9 54bc f429 913d 292b e4bd
00000340: db48 f2bd dc6a ae3d 32dc e03d 1c34 ab3c
00000350: 0db5 06bd 18ee 2dbc 9ccd 793d 0806 973d
00000360: bdb7 0c3e 41de a63b 9d95 323d 8896 26bc
00000370: f26e b9bd 5eb9 f2bc bad6 983b f5d9 343c
00000380: e428 5f3c d49c cdbc 0fee 393c 55ea 043e
00000390: 89b4 143d 1277 ac3c d49d cabc 3a9a 14bd
000003a0: 1f07 943d 5ff7 d2bd 748a 9dbd 3c88 6d3d
000003b0: 0939 9dbd 29fe 813d 8787 d33d a685 e4bd
000003c0: ecf3 68bd 56b1 ef3d 56e3 ce3c ada8 cd3d
000003d0: ea78 1b3d 8fd2 663d 0f4c 313d d3fd a1bd
000003e0: 3471 033d f4ff 60bd 8c4d 9b3c 4c9d 3abe
000003f0: 6964 143d 3c79 5e3d cdcc 06bd 2eac 13be

layers.2.bias f4 [64]
0.10210635 -0.022074882 0.03067589 0.022117814 -0.06430544 -0.0030065908 -0.023329515 0.043749493
-0.08531585 -0.08656927 0.010980743 -0.037347585 -0.03623092 -0.0011679797 -0.024077723 0.06477089
-0.020502962 0.05999801 0.0013512399 -0.021378104 0.061651345 0.01720092 -0.064343445 -0.14299892
0.08520157 -0.062204026 0.037450615 -0.023769775 0.115983024 -0.114287816 0.019155541 -0.109213874
0.10960885 0.038864225 0.10346194 0.03432127 0.03458993 0.027188508 0.016016953 0.030511562
-0.028370516 0.0966818 0.016285343 0.01587464 -0.12324931 -0.05640944 -0.09713904 -0.1693627
0.09020462 -0.082969196 -0.036840074 0.018768407 0.03433656 0.16585886 -0.05400151 -0.11959106
0.07241089 -0.13283077 -0.0697521 0.014279644 -0.1370812 -0.15224208 0.032804627 -0.023756577
00000000: 221d d13d 62d6 b4bc 014c fb3c 6b30 b53c
00000010: 92b2 83bd 390a 45bb 8a1d bfbc ab32 333d
00000020: 14ba aebd 3b4b b1bd 93e8 333c c8f9 18bd
00000030: e066 14bd e516 99ba a53e c5bc 9aa6 843d
00000040: d4f5 a7bc 79c0 753d 161c b13a 2221 afbc
00000050: 1f86 7c3d f2e8 8c3c 7fc6 83bd 4f6e 12be
00000060: 297e ae3d a6c9 7ebd d165 193d d5b8 c2bc
00000070: 8288 ed3d bb0f eabd 15ec 9c3c 86ab dfbd
00000080: 9b7a e03d 1830 1f3d dbe3 d33d 7694 0c3d
00000090: 2cae 0d3d 6fba de3c fc35 833c 62f3 f93c
000000a0: 4969 e8bc 1c01 c63d d768 853c 880b 823c
000000b0: 226a fcbd 960d 67bd d5f0 c6bd 6a6d 2dbe
000000c0: 33bd b83d c1eb a9bd 9ee5 16bd 34c0 993c
000000d0: 7ea4 0c3d e8d6 293e b030 5dbd 28ec f4bd
000000e0: 294c 943d ca04 08be 30da 8ebd 2bf5 693c
000000f0: 045f 0cbe 59e5 1bbe 255e 063d 279d c2bc

readout.weight f4 [1, 64]
-0.29323196 -0.24350332 -0.15687916 0.20653887 0.26659796 0.36920777 -0.34186625 -0.29025197
0.22949736 0.4505819 -0.296592 0.20739494 -0.23033004 -0.20284106 0.34487638 -0.34341255
-0.2914777 0.20205732 0.33056962 -0.21544558 -0.2937696 0.27783406 0.32877433 0.24943411
-0.21316767 -0.38197297 -0.26680928 0.3795014 -0.302295 0.3111378 0.19280745 0.24851596
-0.37310255 0.29017845 -0.17504214 -0.23567387 0.18796118 -0.34487915 -0.24216592 0.303554
-0.3334582 -0.33142447 -0.3488033 -0.3935375 0.27887204 0.38007516 0.28702098 0.37456587
-0.23858263 0.46735907 0.39728755 -0.22471909 -0.28205764 -0.39756808 -0.21875036 0.29855245
-0.22783594 0.22569698 0.3083409 0.10534056 0.18305525 0.36364815 -0.18377616 0.36058223
00000000: 8022 96be ef58 79be eea4 20be ed7e 533e
00000010: 877f 883e cd08 bd3e 1809 afbe e89b 94be
00000020: 5b01 6b3e acb2 e63e e8da 97be 575f 543e
00000030: a3db 6bbe 91b5 4fbe a393 b03e c5d3 afbe
00000040: 913c 95be 1de8 4e3e 6c40 a93e c49d 5cbe
00000050: f868 96be 4440 8e3e 1c55 a83e a86b 7f3e
00000060: a048 5abe f691 c3be 3a9b 88be 024e c23e
00000070: 69c6 9abe 744d 9f3e 516f 453e f87a 7e3e
00000080: 4c07 bfbe 4592 943e 3f3e 33be 7e54 71be
00000090: e578 403e 0094 b0be 58fa 77be 6e6b 9b3e
000000a0: 08bb aabe 78b0 a9be 5996 b2be bf7d c9be
000000b0: 51c8 8e3e 3699 c23e 6af4 923e 19c7 bf3e
000000c0: 014f 74be b049 ef3e 4669 cb3e c31c 66be
000000d0: dc69 90be 0b8e cbbe 1800 60be dedb 983e
000000e0: d34d 69be 1c1d 673e dcde 9d3e cbbc d73d
000000f0: d672 3b3e 1730 ba3e d12f 3cbe 3c9e b83e

layers.0.weight f4 [128, 17]
0.03724686 0.5278403 -0.06871297 0.16001262 -0.035546213 -0.02452897 -0.09313096 0.07525083
0.12539035 -0.17576936 -0.008807984 -0.06329961 0.07059519 0.004679064 -0.21861485 -0.053596828
0.05667976 0.05343569 -0.6920174 -0.4573483 -0.0730764 -0.24720986 0.552822 -0.12164764
0.10631107 -0.46246606 -0.029191723 -0.01974493 0.12148983 0.17315958 -0.08429011 -0.068443745
0.02635636 0.06549357 0.4055758 -0.5751296 0.25501335 -0.05866706 0.016581591 0.65291977
-0.04740911 0.216328 -0.68631655 0.24336345 0.112341955 -0.15275982 0.002057283 0.021030517
0.3566365 0.13804744 0.07990606 -0.18421456 -0.77089316 -0.12515782 -0.17687687 -0.018640498
0.055728532 0.14689851 0.10943211 0.088387564 0.05302606 -0.07953557 0.0763471 0.036512896
0.0018050831 -0.15674904 -0.16829866 -0.06234589 0.26623967 -0.20434888 0.6736365 -0.15646334
-0.2832936 -0.067041606 0.38735598 0.36134654 0.38810858 0.38679776 0.024671981 0.06495544
-0.049911834 0.09302881 -0.07061171 -0.035233274 -0.13061252 0.47029465 -0.48788676 -0.020822544
-0.14571375 -0.48717135 -0.2794241 -0.2664543 -0.031740848 -0.518376 0.19791752 -0.11638548
0.1429239 0.26113343 -0.09316002 0.18786535 -0.24157335 0.055904537 0.44555375 -0.19851908
-0.69075316 -0.18945888 0.07793572 -0.47283402 -0.07049082 0.06295885 -0.44377825 -0.024476968
-0.06788524 0.1202477 -0.049551353 -0.15914796 -0.10607454 -0.1868144 0.10555125 -0.20812058
0.11680164 -0.6877182 -0.32731396 -0.39187452 0.4806999 -0.14440128 0.45997536 0.30499646
-0.17817873 0.5922317 -0.110646576 0.16328938 0.102643445 0.05958299 0.08384697 0.008443697
0.41685686 -0.8888838 -0.06441827 0.025827073 0.54711723 -0.06933224 -0.18698864 -0.017912941
-0.7754841 0.26660737 -0.09248965 -0.030741885 0.05289256 -0.064139076 -0.11530123 -0.042155866
0.0043028854 0.49567717 -0.7686455 -0.36457655 0.018795652 0.140148 0.31472796 -0.17518052
-0.03293402 -0.014639261 -0.19467093 -0.2671033 -0.16360383 -0.070551425 -0.017063389 0.21206754
0.11780352 0.069599904 -0.08526339 0.17819346 0.541022 0.20668902 -0.6984111 0.36880586
-0.5934082 0.053717047 0.50103116 -0.412826 -0.03345812 0.16153629 0.08833011 -0.079951234
0.034523685 0.074140474 0.08750808 0.066705935 -0.2029644 0.042022504 -0.78982824 0.15961894
0.6886196 0.7515857 0.3463352 -0.13118097 0.5358895 -0.19642867 0.035432816 -0.10942287
-0.01145663 0.02062098 0.027080052 -0.012427287 0.2738937 -0.13463637 -0.23307885 -0.09377571
-0.41723529 -1.0764921 -0.15785396 -0.25335994 0.6428445 0.26779604 0.39146578 -0.011171204
0.016073147 0.039776742 0.028212236 0.09095064 0.013734193 -0.22849707 0.25563592 0.2227923
0.15941955 -0.08410372 0.6871768 0.82476336 0.6722266 -0.40670055 0.30725205 -0.26778477
0.024907412 0.1423865 0.060981132 -0.1609108 -0.12694132 0.025036208 0.77945215 -1.0216811
-0.81775206 -0.50601286 -0.2510445 -0.11525434 -0.015526164 -0.2060388 -0.21049735 0.44333783
-0.054658543 -0.18404017 -0.08551524 -0.005932992 -0.25950962 0.058208723 -0.0004895299 -0.45523584
00000000: 2a90 183d 8b20 073f 63b9 8cbd 59da 233e
00000010: e898 11bd faf0 c8bc 72bb bebd 1b1d 9a3d
00000020: 5466 003e e2fc 33be 5d4f 10bc 3aa3 81bd
00000030: 3694 903d d552 993b 92dc 5fbe 5988 5bbd
00000040: 0929 683d 62df 5a3d 0d28 31bf 8e29 eabe
00000050: 14a9 95bd 9524 7dbe be85 0d3f 6622 f9bd
00000060: 9eb9 d93d 5ac8 ecbe 7b23 efbc 1fc0 a1bc
00000070: a9cf f83d bf50 313e 4ba0 acbd 3c2c 8cbd
00000080: 4be9 d73c 7e21 863d a2a7 cf3e b23b 13bf
00000090: 1c91 823e df4c 70bd 1ed6 873c c025 273f
000000a0: 0e30 42bd 1685 5d3e 71b2 2fbf 4534 793e
000000b0: 8a13 e63d 126d 1cbe 7bd3 063b 3148 ac3c
000000c0: 0f99 b63e 4f5c 0d3e caa5 a33d bea2 3cbe
000000d0: 4159 45bf 5f29 00be 361f 35be f5b3 98bc
000000e0: 9a43 643d 906c 163e f11d e03d 8a04 b53d
000000f0: db31 593d 8ce3 a2bd de5b 9c3d 8c8e 153d
00000100: 8a98 ec3a d282 20be 7c56 2cbe 675e 7fbd
00000110: 9150 883e d540 51be 7173 2c3f ed37 20be
00000120: dc0b 91be 1c4d 89bd 8653 c63e 6a02 b93e
00000130: 2bb6 c63e 5b0a c63e e51c ca3c 5c07 853d
00000140: 5a70 4cbd e485 be3d df9c 90bd c450 10bd
00000150: 4abf 05be 76ca f03e 4bcc f9be 0a94 aabc
00000160: fc35 15be 866e f9be ad10 8fbe b36c 88be
00000170: b102 02bd 4ab4 04bf e4aa 4a3e 835b eebd
00000180: a55a 123e 48b3 853e aeca bebd c65f 403e
00000190: 015f 77be 28fc 643d 9f1f e43e 9648 4bbe
000001a0: 33d5 30bf 8201 42be c39c 9f3d 4d17 f2be
000001b0: 7e5d 90bd 92f0 803d e736 e3be ec83 c8bc
000001c0: 6b07 8bbd 6d44 f63d 5cf6 4abd aff7 22be
000001d0: 9c3d d9bd 464c 3fbe 412b d83d 901d 55be
000001e0: b335 ef3d 4d0e 30bf b295 a7be c7a3 c8be
000001f0: 4c1e f63e eedd 13be e481 eb3e 7f28 9c3e
00000200: 7c74 36be 7f9c 173f ac9a e2bd 5535 273e
00000210: ba36 d23d 4b0d 743d f6b7 ab3d 6f57 0a3c
00000220: 436e d53e e48d 63bf baed 83bd 4c93 d33c
00000230: e00f 0c3f 10fe 8dbd f379 3fbe 29be 92bc
00000240: 2086 46bf c380 883e 376b bdbd 68d6 fbbc
00000250: dea5 583d 595b 83bd 0d23 ecbd a1ab 2cbd
00000260: 38ff 8c3b 66c9 fd3e f4c5 44bf c7a9 babe
00000270: 57f9 993c f582 0f3e 0624 a13e 8662 33be
00000280: d3e5 06bd 83d9 6fbc d157 47be c4c1 88be
00000290: c387 27be 447d 90bd 85c8 8bbc 3c28 593e
000002a0: f942 f13d 658a 8e3d 929e aebd 5978 363e
000002b0: 6b80 0a3f 49a6 533e 12cb 32bf 1fd4 bc3e
000002c0: 9ae9 17bf 6806 5c3d 9443 003f ee5d d3be
000002d0: 620b 09bd c569 253e 6be6 b43d 79bd a3bd
000002e0: b568 0d3d f6d6 973d 7037 b33d 1f9d 883d
000002f0: e6d5 4fbe ca1f 2c3d 2f32 4abf 2673 233e
00000300: 6049 303f ec67 403f d952 b13e 4e54 06be
00000310: 0e30 093f 9924 49be 0022 113d 1919 e0bd
00000320: 97b4 3bbc 54ed a83c fcd6 dd3c d29b 4bbc
00000330: cc3b 8c3e 1ede 09be 39ac 6ebe 7b0d c0bd
00000340: dd9f d5be 7eca 89bf 78a4 21be 65b8 81be
00000350: 7591 243f 901c 893e 346e c83e 6d07 37bc
00000360: d5ab 833c f0ec 223d 591d e73c 5444 ba3d
00000370: 6105 613c 23fb 69be b6e2 823e aa23 643e
00000380: e13e 233e 923e acbd d2ea 2f3f b123 533f
00000390: 0b17 2c3f 0e3b d0be 2450 9d3e 161b 89be
000003a0: a10a cc3c c4cd 113e 5ac7 793d cdc5 24be
000003b0: e8fc 01be bc18 cd3c 2d8a 473f 72c6 82bf
000003c0: 3358 51bf 0f8a 01bf e888 80be 780a ecbd
000003d0: 7461 7ebc d6fb 52be 9e8c 57be 2dfd e23e
000003e0: a3e1 5fbd 0775 3cbe 9d22 afbd 8b69 c2bb
000003f0: 72de 84be 456c 6e3d cc53 00ba ac14 e9be

layers.0.bias f4 [128]
0.27547628 0.5071079 -0.01970174 0.59291995 0.5537146 -0.37863594 0.53223145 0.07592567
-0.36373875 0.23186255 0.4685674 0.43795168 0.6432114 -0.018082388 -0.14152978 -0.20035629
0.04472582 0.14563498 0.7331448 0.4433353 0.37690154 0.81574625 -0.09473975 0.34006655
-0.0896534 0.31355852 0.2199673 0.6076956 -0.09968169 0.41320163 -0.16981237 -0.06252481
-0.16795714 0.25406003 0.008855066 -0.18109745 -0.6759656 0.42511517 -0.072367445 -0.23013912
-0.14512074 0.34279078 -0.2707277 -0.10903343 0.09362478 0.1981405 0.44536126 0.6056722
0.3184039 0.17635894 0.010407365 -0.4098247 0.30539295 -0.4780882 -0.13229206 -0.33917448
0.16873553 -0.5790037 0.1418902 -0.18282543 0.19753067 0.2869864 -0.39915493 0.4504898
-0.21020259 -0.04729245 -0.3488775 -0.47407934 0.03572096 0.044323582 0.6446653 0.46248347
-0.2366487 -0.20825405 -0.49926648 0.26404098 -0.081987515 0.12659909 0.13424866 -0.17007017
-0.24482997 -0.4904956 -0.26146895 -0.28778884 0.31071588 0.072708905 0.36286733 -0.040679596
-0.33487195 0.23307276 -0.11582624 0.009526738 0.134585 0.4777719 0.5630717 -0.41410252
-0.10743982 -0.4173026 -0.18848446 0.43911034 0.17657731 -0.015644837 0.48901966 0.17062055
0.38317233 -0.037338693 -0.174174 -0.024127247 -0.14651771 0.699017 0.48173678 0.4675749
0.23413035 0.03581874 -0.19283572 -0.1273283 -0.047868676 0.33126396 0.24253209 0.37151065
0.48565236 -0.04237404 -0.076828495 0.09318117 0.20496124 -0.33220595 0.030546859 0.6187256
00000000: 3a0b 8d3e d3d1 013f 8b65 a1bc 9ac9 173f
00000010: 3dc0 0d3f 92dc c1be 5240 083f eb7e 9b3d
00000020: f73b babe 606d 6d3e 11e8 ef3e 343b e03e
00000030: 81a9 243f 8421 94bc 2fed 10be 332a 4dbe
00000040: 6c32 373d 5621 153e 61af 3b3f d8fc e23e
00000050: 3df9 c03e bfd4 503f ea06 c2bd 341d ae3e
00000060: 349c b7bd be8a a03e 1c3f 613e f091 1b3f
00000070: ea25 ccbd 2a8f d33e 4be3 2dbe 020d 80bd
00000080: f5fc 2bbe 2814 823e d714 113c 9c71 39be
00000090: 150c 2dbf b2a8 d93e 6235 94bd 97a9 6bbe
000000a0: 889a 14be 4682 af3e d29c 8abe eb4c dfbd
000000b0: 59be bf3d 58e5 4a3e 6406 e43e 550d 1b3f
000000c0: d605 a33e 7097 343e a783 2a3c 8bd4 d1be
000000d0: 775c 9c3e fac7 f4be 9277 07be 47a8 adbe
000000e0: 02c9 2c3e 9639 14bf aa4b 113e 9736 3bbe
000000f0: 7b45 4a3e e2ef 923e 095e ccbe 99a6 e63e
00000100: 593f 57be bab5 41bd 12a0 b2be 87ba f2be
00000110: 2450 123d a58c 353d c908 253f a2ca ec3e
00000120: 0954 72be 8d40 55be db9f ffbe 6130 873e
00000130: 12e9 a7bd 31a3 013e 7b78 093e e026 2ebe
00000140: b5b4 7abe 3d22 fbbe 42df 85be 0f59 93be
00000150: 2716 9f3e 68e8 943d bfc9 b93e a69f 26bd
00000160: 5674 abbe a0aa 6e3e 4f36 edbd 0916 1c3c
00000170: a6d0 093e 859e f43e 7825 103f 3f05 d4be
00000180: 6909 dcbd b0a8 d5be 1202 41be 12d3 e03e
00000190: afd0 343e 9a29 80bc c960 fa3e 27b7 2e3e
000001a0: 2a2f c43e 75f0 18bd ab5a 32be 81a6 c5bc
000001b0: bd08 16be c7f2 323f 34a6 f63e fa65 ef3e
000001c0: debf 6f3e acb6 123d ba76 45be 5a62 02be
000001d0: f211 44bd 6e9b a93e 555a 783e a536 be3e
000001e0: 6da7 f83e 6790 2dbd 4258 9dbd c5d5 be3d
000001f0: 5ce1 513e e616 aabe 683d fa3c cd64 1e3f

layers.1.weight f4 [128, 128]
0.06641872 0.07405304 0.09951144 -0.07951102 -0.07817786 -0.114362694 0.012559414 -0.020770751
0.0014930795 -0.04092257 -0.028751135 0.009684144 -0.1569575 -0.06924876 -0.18811682 0.0391803
0.039244402 0.052184947 -0.10978435 -0.021579176 -0.098887555 -0.05737504 -0.010796345 -0.14615464
0.021398075 -0.18302044 0.09968865 -0.22621067 0.18178804 -0.11814226 -0.09288529 0.017325487
-0.029829036 -0.11393369 0.07228185 0.055352364 0.06780596 0.0016846315 0.03462381 0.004084178
0.04453626 0.05557129 0.016912792 0.05582857 0.0014928605 -0.03917986 -0.10949474 -0.099718556
0.012441657 -0.04729392 -0.13843624 -0.066740416 -0.019930635 0.04855972 0.10553193 0.019116515
0.034585264 -0.06805779 0.028961653 -0.10004315 -0.19558777 0.020854454 -0.015234332 0.028682891
0.19430326 0.07464355 -0.032343723 0.05096766 -0.021771533 -0.09730517 0.033505253 0.06911984
0.13476364 0.22597623 0.21211667 0.0324844 0.036767457 -0.032543577 -0.10728343 -0.043574978
0.027088737 0.11780724 -0.007551662 -0.017343018 -0.079245016 0.04651562 0.1169639 -0.05046452
0.035506256 0.013043154 0.03865502 0.055607725 0.017237838 -0.14409694 -0.006468782 0.030436879
-0.0646411 0.07423587 -0.12328738 -0.033953372 0.07229296 0.071816064 0.07315825 0.012889531
-0.07287778 0.02000617 0.097794846 -0.14080252 0.08981755 -0.10774184 -0.065701924 0.043966692
0.08778434 -0.23226166 -0.019508181 -0.0668749 -0.05517965 -0.023958875 0.07305263 0.12420364
0.13832994 0.056805354 0.054693464 0.04292094 -0.04315484 0.07957812 -0.09434561 -0.19692022
0.06994123 0.0313751 0.12859632 0.06355444 0.0046150954 0.04784435 -0.029746853 -0.06541068
0.077152416 0.04882069 -0.043422136 -0.037366208 0.09220546 0.03992791 0.008206436 0.07371889
-0.10916185 -0.018735383 -0.048874944 0.040764783 0.0077621615 -0.009181664 0.054698218 -0.08119818
-0.04903964 0.12768298 0.08053234 0.11854834 -0.030854007 0.03933619 0.03227073 0.02549982
-0.029620387 -0.11577808 0.0080090435 0.03757293 -0.009227865 0.011401868 0.19713402 -0.058381815
0.08072762 0.07092165 -0.0840708 -0.11487403 0.00718564 -0.022226019 -0.05763183 -0.03979753
0.036371212 0.058329202 -0.014367204 0.0020080418 -0.014060596 -0.01121138 0.017019654 0.12465511
-0.100748315 0.015449042 -0.02078855 0.14970797 0.006257855 0.06703049 0.00073481887 -0.04300597
0.07787134 0.08976918 0.058269545 -0.095221125 0.049905133 0.01640402 -0.0068176202 -0.043075264
0.12865487 0.047083277 0.08214128 -0.07047536 -0.04970093 0.084344305 -0.006418572 0.08284767
-0.08578078 0.043498278 0.078886166 0.11451094 0.090432204 0.061437327 -0.01892473 -0.028768225
0.07552327 -0.100493 0.008705088 -0.021338472 0.01032553 0.05192667 0.01723876 0.026044624
-0.056778267 0.030275647 -0.08459523 -0.18002267 0.030892437 -0.074514836 -0.0490408 -0.05783057
0.05344398 -0.077674106 0.09203902 -0.013686457 0.20160729 -0.06161259 -0.08651619 0.007416947
0.13782722 0.13052884 0.06216375 -0.076476775 0.115373544 -0.011481992 0.054339033 0.010406721
-0.01409761 0.06445833 0.08982476 0.10503873 -0.08481852 0.0120391315 0.097592175 -0.14676066
00000000: 8a06 883d 1fa9 973d a7cc cb3d acd6 a2bd
00000010: b71b a0bd fd36 eabd 00c6 4d3c 6c27 aabc
00000020: 6fb3 c33a 6d9e 27bd 8087 ebbc 3eaa 1e3c
00000030: 78b9 20be 4bd2 8dbd b2a1 40be 867b 203d
00000040: bdbe 203d e2bf 553d 9ed6 e0bd d0c6 b0bc
00000050: 8f85 cabd 1702 6bbd 27e3 30bc 90a9 15be
00000060: 044b af3c b669 3bbe 9029 cc3d c5a3 67be
00000070: a526 3a3e 92f4 f1bd a53a bebd 2eee 8d3c
00000080: 065c f4bc 1156 e9bd 8208 943d 29b9 623d
00000090: dadd 8a3d dace dc3a b2d1 0d3d 91d4 853b
000000a0: a76b 363d b99e 633d b28c 8a3c 80ac 643d
000000b0: 16ac c33a 107b 20bd c73e e0bd 3e39 ccbd
000000c0: 17d8 4b3c 45b7 41bd 3bc2 0dbe 33af 88bd
000000d0: 9245 a3bc 8fe6 463d 2021 d83d 3d9a 9c3c
000000e0: 47a9 0d3d e261 8bbd fd40 ed3c 6ce3 ccbd
000000f0: 2948 48be f6d6 aa3c 6b99 79bc 62f8 ea3c
00000100: 6ff7 463e b8de 983d da7a 04bd 77c3 503d
00000110: 375a b2bc ef47 c7bd ce3c 093d b48e 8d3d
00000120: 7bff 093e 5066 673e 1d35 593e 5d0e 053d
00000130: 7999 163d 6a4c 05bd 6ab7 dbbd ad7b 32bd
00000140: 33e9 dd3c ec44 f13d ef73 f7bb f212 8ebc
00000150: 364b a2bd 2a87 3e3d c58a ef3d e2b3 4ebd
00000160: 026f 113d f4b2 553c ba54 1e3d edc4 633d
00000170: 5e36 8d3c 268e 13be 14f8 d3bb c356 f93c
00000180: 8e62 84bd fa08 983d 187e fcbd b112 0bbd
00000190: 550e 943d 4d14 933d fed3 953d 9d2e 533c
000001a0: f240 95bd fbe3 a33c aa48 c83d 892e 10be
000001b0: 43f2 b73d c1a7 dcbd bb8e 86bd 6b16 343d
000001c0: 47c8 b33d 00d6 6dbe 9fcf 9fbc b5f5 88bd
000001d0: 0f04 62bd 6745 c4bc 9e9c 953d 7a5e fe3d
000001e0: 5da6 0d3e bbac 683d 4106 603d decd 2f3d
000001f0: 21c3 30bd daf9 a23d 4538 c1bd 74a5 49be
00000200: 593d 8f3d 2d83 003d c1ae 033e d528 823d
00000210: 3a3a 973b 70f8 433d acaf f3bc 09f6 85bd
00000220: 1602 9e3d 34f8 473d 69db 31bd 4f0d 19bd
00000230: 37d6 bc3d 738b 233d 4a74 063c eef9 963d
00000240: 3f90 dfbd f27a 99bc 1831 48bd f9f8 263d
00000250: bb59 fe3b b16e 16bc 3d0b 603d 3b4b a6bd
00000260: cadd 48bd 54bf 023e 24ee a43d 79c9 f23d
00000270: 8bc1 fcbc fc1e 213d 502e 043d 00e5 d03c
00000280: 74a6 f2bc 0f1d edbd 5d38 033c 13e6 193d
00000290: 7930 17bc e7ce 3a3c 80dd 493e c521 6fbd
000002a0: 8654 a53d 5f3f 913d 502d acbd 1343 ebbd
000002b0: 8475 eb3b 5713 b6bc 5b0f 6cbd bc02 23bd
000002c0: fbf9 143d 9aea 6e3d 6c64 6bbc 5a99 033b
000002d0: 6a5e 66bc f0af 37bc cd6c 8b3c 2e4b ff3d
000002e0: 2255 cebd fb1d 7d3c c04c aabc 0c4d 193e
000002f0: b10e cd3b 4847 893d dca0 403a 0727 30bd
00000300: 027b 9f3d e7d8 b73d 0cac 6e3d 4b03 c3bd
00000310: 5369 4c3d b961 863c 5866 dfbb b06f 30bd
00000320: 1abe 033e 65da 403d b039 a83d 6355 90bd
00000330: 3493 4bbd b5bc ac3d e252 d2bb 0aac a93d
00000340: d5ad afbd 402b 323d 128f a13d b684 ea3d
00000350: 8534 b93d b5a5 7b3d 0908 9bbc 57ab ebbc
00000360: f2ab 9a3d 46cf cdbd c99f 0e3c 05ce aebc
00000370: 692c 293c 0fb1 543d 4d38 8d3c 895b d53c
00000380: 5490 68bd a204 f83c 4440 adbd dd57 38be
00000390: 2312 fd3c 3c9b 98bd 02df 48bd bfdf 6cbd
000003a0: 13e8 5a3d 9a13 9fbd f47e bc3d 293d 60bc
000003b0: 2472 4e3e 7c5d 7cbd 662f b1bd dc09 f33b
000003c0: 9422 0d3e 5aa9 053e 6b9f 7e3d db9f 9cbd
000003d0: f748 ec3d f71e 3cbc 9b92 5e3d f480 2a3c
000003e0: a9f9 66bc bb02 843d 0bf6 b73d 8c1e d73d
000003f0: 55b5 adbd c73f 453c 68de c73d 6d48 16be

layers.1.bias f4 [128]
-0.21048594 -0.18245299 0.1571648 0.0140424175 0.07835986 -0.08065881 0.16231677 -0.043370683
-0.021852382 0.11000601 0.02805004 -0.05552384 0.19691128 0.2015604 -0.093044624 -0.10424424
0.19996417 0.10867073 -0.15012881 -0.03835582 0.13106245 0.45453903 -0.09116913 -0.21216683
-0.23283844 0.040947113 -0.09830624 0.0683453 -0.25091097 0.23109579 0.19545804 0.039935842
-0.12830006 -0.35456973 -0.03599222 0.24778229 -0.059524804 -0.035094686 0.3563903 -0.025973478
0.0018326265 -0.12608463 -0.18946694 -0.30227065 0.17713423 0.03707662 -0.046301533 0.034308776
-0.205727 0.073980644 0.13881084 0.044659037 -0.22894709 -0.117646225 0.13099074 -0.2331352
-0.15611905 -0.27419126 -0.0077549787 0.0071263034 0.0033152178 -0.16988164 -0.050138116 0.10829881
0.12863465 0.07455429 -0.21765096 -0.0074950736 0.20441736 -0.23371305 -0.033673316 0.10362915
-0.09947412 -0.009202903 0.077370785 0.16911474 0.15997201 0.03540298 0.25018534 -0.036314208
0.037862472 -0.05532469 0.33431616 -0.030435493 -0.03004949 -0.20851494 0.060182475 -0.32072446
-0.16787142 0.12893037 -0.12574363 -0.10289181 -0.12794875 0.03606392 -0.028735481 0.0062900656
0.06417494 -0.12201468 -0.061169494 0.22794694 0.23585354 0.23898545 -0.09779874 0.11477364
-0.26658788 0.07448463 -0.12617771 -0.11702115 0.19197454 -0.316369 0.06402713 0.006459594
-0.13088907 0.06068764 0.13024074 0.12893856 -0.22312434 -0.042484164 -0.051011585 -0.27773884
0.14598429 0.10437539 -0.14360929 -0.086179346 0.043107904 0.03176583 0.058823146 0.05679205
00000000: a089 57be f5d4 3abe cfef 203e 2b12 663c
00000010: 227b a03d 7230 a5bd 5e36 263e 75a5 31bd
00000020: c403 b3bc d54a e13d 33c9 e53c f76c 63bd
00000030: 1ca3 493e d965 4e3e 2e8e bebd 017e d5bd
00000040: 68c3 4c3e c28e de3d 5ebb 19be fe1a 1dbd
00000050: 3c35 063e 57b9 e83e e1b6 babd 4342 59be
00000060: 336d 6ebe 29b8 273d c854 c9bd 9ff8 8b3d
00000070: 6777 80be 60a4 6c3e 2726 483e c493 233d
00000080: 1761 03be 2a8a b5be 946c 13bd a4ba 7d3e
00000090: 48d0 73bd 72bf 0fbd ca78 b63e 55c6 d4bc
000000a0: be34 f03a 541c 01be 9f03 42be 38c3 9abe
000000b0: ad62 353e a7dd 173d ada6 3dbd 5c87 0c3d
000000c0: 19aa 52be 2a83 973d 6e24 0e3e 65ec 363d
000000d0: 1b71 6abe 81f0 f0bd 7022 063e feba 6ebe
000000e0: acdd 1fbe cc62 8cbe 7a1d febb c483 e93b
000000f0: 2044 593b 74f5 2dbe a05d 4dbd c4cb dd3d
00000100: cdb8 033e ebaf 983d e5df 5ebe 3c99 f5bb
00000110: c952 513e 7952 6fbe 08ed 09bd 853b d43d
00000120: 16b9 cbbd c6c7 16bc 9374 9e3d 6a2c 2d3e
00000130: b4cf 233e b702 113d 4b18 803e 35be 14bd
00000140: ae15 1b3d 249c 62bd 7d2b ab3e db53 f9bc
00000150: 592a f6bc f184 55be e681 763d ff35 a4be
00000160: 7ce6 2bbe 5306 043e f0c2 00be f1b8 d2bd
00000170: ff04 03be c3b7 133d ac66 ebbc e51c ce3b
00000180: 276e 833d d5e2 f9bd dd8c 7abd ec6a 693e
00000190: 9783 713e 9ab8 743e b54a c8bd 710e eb3d
000001a0: 357e 88be 668b 983d bb34 01be c9a8 efbd
000001b0: f994 443e 1efb a1be a820 833d 00ab d33b
000001c0: c907 06be 9a93 783d d45d 053e 7808 043e
000001d0: b57a 64be e003 2ebd 86f1 50bd c933 8ebe
000001e0: e87c 153e c4c2 d53d 500e 13be cc7e b0bd
000001f0: ea91 303d e31c 023d 8af0 703d c89e 683d
