Gym-DDPG-solution/results/DDPG_HalfCheetah-v4_3000-eps0.3-t32-l0.0001-s1.pth (torch, 193979 bytes, 13 tensors)

layers.0.weight f4 [128, 23]
0.24090467 -0.08770221 0.07961152 0.11468089 -0.33290634 0.481514 0.21897717 0.23573059
-0.06997508 0.10967338 0.08270163 0.00031598713 0.024349159 -0.008282948 -0.007822512 -0.0051161223
-0.0019316913 0.103784144 0.22925037 0.14973167 -0.12572713 -0.10951756 -0.11602431 -0.22358117
-0.1791599 0.47503132 0.26045242 -0.22041836 -0.30920905 0.3797532 0.29691067 0.24657932
0.30857098 -0.27147135 -0.06877503 -0.06586513 0.020393038 0.026744056 0.08913736 -0.04602347
0.23067208 -0.0807846 0.08627764 -0.39166477 -0.23904899 0.01666002 0.16566037 0.08369505
-0.33754274 -0.0307743 -0.2620117 0.063521035 0.3283799 0.301661 0.3100494 0.48740923
0.25064906 0.042484015 0.06264413 0.014923303 0.014501717 0.06427148 0.052544188 0.32547072
-0.14110972 -0.033833466 -0.23375313 0.12271357 -0.22218329 -0.38463074 0.10972547 -0.17442955
-0.0873099 -0.023020064 0.088323064 -0.16232291 0.16152734 0.26792964 -0.5173103 0.12741198
-0.062572226 -0.06451428 -0.039661005 0.01562036 0.049980722 -0.018938279 -0.39631194 0.082004115
-0.080103226 0.08922119 0.14179422 -0.1915082 0.4848502 0.08065658 -0.4827528 -0.3265033
0.15639456 -0.021627646 -0.11616474 -0.081903666 0.22617179 0.041589294 0.19815136 0.06417555
-0.008254196 -0.008829063 0.0629427 0.053601835 -0.0049743108 0.13799192 0.008176799 0.19501631
0.2697852 -0.12071591 0.10461948 0.5702185 0.016584482 -0.24135096 -0.301467 -0.21517941
-0.038635407 -0.09021833 0.20643798 -0.09359424 -0.048575044 -0.26480561 -0.057596084 -0.03594343
0.0111930715 0.051600434 0.023267116 0.014755235 0.17409545 0.15873496 0.18621157 0.17699456
0.060086004 0.076053075 0.058823116 -0.48400387 0.004479395 -0.13062061 -0.1866715 0.0071729077
-0.007563928 0.12328216 0.21679963 0.23118517 0.06381456 0.03924423 0.012704099 0.112181574
-0.0014957774 -0.007364776 -0.041580193 -0.3621982 -0.06172222 -0.09141045 0.16329034 0.036767054
0.053692486 0.44035596 -0.10107692 0.59871286 0.18087378 -0.051395476 -0.13018216 -0.230999
-0.29182428 0.0047177533 0.06815803 0.054730292 -0.015929531 0.035579182 -0.005443855 0.09572827
0.051713508 0.010024939 -0.3328147 0.04281207 -0.05977369 0.018856535 -0.11146167 -0.09046847
-0.1306627 0.33405527 -0.8001175 -0.09067346 0.0028359822 -0.16212311 0.052789975 -0.15119259
-0.11860469 -0.04773757 0.25970197 -0.13998608 0.03275206 -0.056402817 0.2435358 -0.046688158
0.12634167 -0.113239676 0.13530205 -0.18488322 0.18467768 0.19050166 0.23880751 0.43038875
-0.118482456 -0.107729405 0.5387663 0.008874357 -0.011402036 0.21431611 0.040049184 0.27455062
-0.11983826 -0.038224276 0.12162702 0.05323308 -0.012714898 0.1147906 -0.0784902 -0.04109846
0.4642334 0.17465906 -0.23080307 0.6441396 0.21877187 0.30825096 0.23556824 -0.2793134
0.62516344 0.18513168 -0.15077205 0.0059600812 0.106328815 0.23685007 0.049865574 -0.25479957
-0.3045825 -0.025779974 0.014359551 0.008081522 -0.08997341 -0.019333884 -0.044840585 -0.10732959
-0.05625357 0.13781418 0.12893258 -0.00031093427 0.08791059 0.5780076 -0.088729285 0.41506988
00000000: b7af 763e 379d b3bd 5d0b a33d d1dd ea3d
00000010: b372 aabe 0189 f63e 8d3b 603e 5c63 713e
00000020: 184f 8fbd 709c e03d 795f a93d 13ab a539
00000030: e377 c73c 34b5 07bc fe29 00bc 25a5 a7bb
00000040: ce30 fdba c88c d43d 9cc0 6a3e 4253 193e
00000050: 9dbe 00be be4a e0bd 279e edbd 76f2 64be
00000060: b175 37be 4e37 f33e 055a 853e 5ab5 61be
00000070: a650 9ebe 036f c23e ad04 983e 4a7f 7c3e
00000080: 04fd 9d3e 4bfe 8abe ecd9 8cbd 4ce4 86bd
00000090: 4d0f a73c 5a16 db3c a68d b63d 1b83 3cbd
000000a0: 4d35 6c3e 6572 a5bd 55b2 b03d 4988 c8be
000000b0: 42c9 74be 987a 883c dfa2 293e 4f68 ab3d
000000c0: 67d2 acbe 631a fcbc 6626 86be 5117 823d
000000d0: 6921 a83e 5073 9a3e ccbe 9e3e b48d f93e
000000e0: 1355 803e b803 2e3d 914b 803d df80 743c
000000f0: 9c98 6d3c c4a0 833d 9338 573d 19a4 a63e
00000100: 117f 10be f694 0abd fb5c 6fbe 4151 fb3d
00000110: 0484 63be 52ee c4be bfb7 e03d a99d 32be
00000120: 88cf b2bd 9394 bcbc b9e2 b43d fa37 26be
00000130: 6c67 253e 132e 893e 736e 04bf 4978 023e
00000140: de25 80bd 1020 84bd 9473 22bd 8aec 7f3c
00000150: 96b8 4c3d 7324 9bbc 66e9 cabe c6f1 a73d
00000160: 290d a4bd 99b9 b63d 8132 113e ba1a 44be
00000170: 493e f83e 472f a53d 602b f7be 712b a7be
00000180: e525 203e 762c b1bc c7e7 edbd 1cbd a7bd
00000190: 9499 673e 8959 2a3d 31e8 4a3e 796e 833d
000001a0: 9b3c 07bc c6a7 10bc 1ae8 803d 998d 5b3d
000001b0: 8bff a2bb c14d 0d3e fbf7 053c 5bb2 473e
000001c0: 4921 8a3e e739 f7bd bd42 d63d d7f9 113f
000001d0: 2edc 873c b524 77be e259 9abe fe57 5cbe
000001e0: 2940 1ebd 63c4 b8bd 7a64 533e 56ae bfbd
000001f0: a0f6 46bd 9a94 87be dfe9 6bbd 6b39 13bd
00000200: 2563 373c fa5a 533d ae9a be3c f1bf 713c
00000210: 1446 323e 6b8b 223e 3fae 3e3e 103e 353e
00000220: be1c 763d b7c1 9b3d 82f0 703d 5bcf f7be
00000230: e4c7 923b 69c1 05be d026 3fbe b60a eb3b
00000240: d4da f7bb 5b7b fc3d b900 5e3e cebb 6c3e
00000250: 35b1 823d 8fbe 203d da24 503c 74bf e53d
00000260: f60d c4ba 3854 f1bb fe4f 2abd 0b72 b9be
00000270: 70d0 7cbd 6735 bbbd 9535 273e 0d99 163d
00000280: a7ec 5b3d 5676 e13e 6b01 cfbd 3f45 193f
00000290: fa36 393e 1084 52bd 794e 05be 008b 6cbe
000002a0: fe69 95be 6297 9a3b 7096 8b3d df2c 603d
000002b0: a67e 82bc 7abb 113d 5e62 b2bb 2f0d c43d
000002c0: 8bd1 533d a43f 243c b066 aabe b65b 2f3d
000002d0: 42d5 74bd 0579 9a3c 0446 e4bd 8847 b9bd
000002e0: 71cc 05be 4b09 ab3e 80d4 4cbf 02b3 b9bd
000002f0: e3db 393b 9a03 26be 4d3a 583d 3bd2 1abe
00000300: 04e7 f2bd 7888 43bd a8f7 843e 8358 0fbe
00000310: 0627 063d a406 67bd 7361 793e 153c 3fbd
00000320: b65f 013e 34ea e7bd 9f8c 0a3e 0752 3dbe
00000330: 251c 3d3e de12 433e f589 743e ea5b dc3e
00000340: eea6 f2bd 3ca1 dcbd 97ec 093f c065 113c
00000350: 9bcf 3abc af75 5b3e 9d0a 243d e691 8c3e
00000360: c36d f5bd 0f91 1cbd 9617 f93d ee0a 5a3d
00000370: 2652 50bc 5617 eb3d 78bf a0bd dc56 28bd
00000380: 00b0 ed3e d3d9 323e a457 6cbe 55e6 243f
00000390: bc05 603e 12d3 9d3e cd38 713e 2a02 8fbe
000003a0: b60a 203f 2993 3d3e fd63 1abe c94c c33b
000003b0: ecc2 d93d d388 723e d83f 4c3d 1775 82be
000003c0: 3df2 9bbe 8630 d3bc 5244 6b3c 5c68 043c
000003d0: fb43 b8bd 1862 9ebc c3aa 37bd 9ecf dbbd
000003e0: 256a 66bd 291f 0d3e e706 043e e404 a3b9
000003f0: 780a b43d 4ef8 133f b3b7 b5bd 0a84 d43e

layers.0.bias f4 [128]
-0.089663796 -0.15530501 -0.40956208 0.091412015 -0.097268865 -0.18629386 -0.09423933 -0.17454833
0.062680714 -0.10542334 -0.28759935 -0.3774871 -0.10779293 -0.16159388 0.049386784 -0.04583415
0.41470197 -0.27201807 -0.24086863 -0.3874967 0.4763222 -0.12793039 -0.12171695 -0.12854464
-0.23579305 -0.147065 -0.28310242 -0.13032366 -0.045575425 0.0353428 0.07801555 0.176979
0.11463033 -0.13420443 -0.33114463 0.1738501 -0.3242548 -0.3517254 0.14799438 -0.2219916
-0.059873585 -0.21991232 0.07225613 -0.17537205 -0.036139227 -0.034699105 -0.3016833 -0.4945586
0.006785361 0.4457352 -0.32652834 -0.3438105 0.25695646 0.33433396 0.4374961 -0.27959216
-0.047669988 -0.15180607 0.3738046 0.21328133 -0.019855041 0.13361265 -0.4178901 -0.052077506
-0.032945313 0.3131256 -0.0809219 -0.26781058 -0.32071707 -0.21273826 0.19815743 0.290638
0.4225237 -0.31656638 0.02095786 -0.35200125 -0.24380521 -0.022451181 0.25751913 -0.05366325
0.05715381 -0.39624718 0.15340517 0.09043168 -0.034250826 -0.1680468 -0.21467867 0.2191914
0.34643963 -0.3284031 -0.09506428 0.1229123 -0.00773147 -0.278478 -0.09496103 -0.2090526
-0.21514778 0.21086316 0.043372367 0.2742562 0.19402343 -0.18593714 -0.274521 0.21987405
0.29244342 0.08434221 -0.0013566889 0.0808414 -0.25900155 -0.18422474 0.26162583 0.53115886
0.19689824 0.06296833 0.3249169 -0.47774786 0.16253628 0.31230897 -0.14277302 0.3392458
0.10311477 -0.054605868 -0.19018596 -0.028681878 -0.09444907 -0.16663837 -0.07464436 -0.40928555
00000000: a7a1 b7bd 4708 1fbe 1fb2 d1be 3936 bb3d
00000010: e634 c7bd d1c3 3ebe 8d00 c1bd ccbc 32be
00000020: bf5e 803d 31e8 d7bd 3940 93be fd45 c1be
00000030: 8ac2 dcbd de78 25be cc49 4a3d 97bc 3bbd
00000040: d153 d43e f445 8bbe 44a6 76be f865 c6be
00000050: 81e0 f33e 2f00 03be bc46 f9bd 35a1 03be
00000060: bc73 71be 3598 16be cdf2 90be 9173 05be
00000070: 4cad 3abd 9dc3 103d 9ec6 9f3d fc39 353e
00000080: 4ec3 ea3d e36c 09be ca8b a9be c305 323e
00000090: ba04 a6be 5a15 b4be d78b 173e c451 63be
000000a0: 013e 75bd b230 61be 06fb 933d bb94 33be
000000b0: ba06 14bd a620 0ebd 3c76 9abe c936 fdbe
000000c0: bc57 de3b 6737 e43e b92e a7be ee07 b0be
000000d0: cc8f 833e d22d ab3e 7dff df3e b426 8fbe
000000e0: 9b41 43bd 0d73 1bbe 5163 bf3e 6c66 5a3e
000000f0: 0aa7 a2bc c1d1 083e b1f5 d5be 394f 55bd
00000100: aaf1 06bd 0052 a03e 62ba a5bd 781e 89be
00000110: 0735 a4be 0fd8 59be c8e9 4a3e 81ce 943e
00000120: 0755 d83e fd14 a2be d1af ab3c 8239 b4be
00000130: 13a8 79be 8aeb b7bc 8cd9 833e ffcd 5bbd
00000140: 1d1a 6a3d e9e0 cabe 3f16 1d3e 3f34 b93d
00000150: 984a 0cbd 7614 2cbe bad4 5bbe b673 603e
00000160: 8960 b13e 7324 a8be 10b1 c2bd 72b9 fb3d
00000170: 4558 fdbb ab94 8ebe ee7a c2bd e311 56be
00000180: b34f 5cbe 83ec 573e 39a7 313d 4f6b 8c3e
00000190: 14ae 463e 4e66 3ebe 048e 8cbe aa26 613e
000001a0: 25bb 953e 9cbb ac3d edd2 b1ba 2d90 a53d
000001b0: da9b 84be 69a5 3cbe d2f3 853e 07fa 073f
000001c0: b19f 493e 8af5 803d 825b a63e 5e9b f4be
000001d0: e96f 263e f6e6 9f3e 1733 12be a0b1 ad3e
000001e0: d62d d33d 67aa 5fbd 1cc0 42be 42f6 eabc
000001f0: 846e c1bd 40a3 2abe 24df 98bd e08d d1be

layers.1.weight f4 [128, 128]
0.033834636 -0.06552174 -0.059670232 0.02587327 -0.0062575 0.06161913 0.06836506 0.018472945
-0.027695186 0.080272436 -0.07627401 0.0045123813 0.09739829 -0.04146605 0.015553627 0.05991255
0.08872259 -0.07409807 -0.03884029 0.05352991 -0.014204611 -0.009719984 0.06882035 -0.03984418
0.051634617 -0.10453929 -0.21603471 -0.024263093 0.012381282 -0.0646352 -0.08600958 0.11329188
-0.061157275 0.078321256 0.096771635 -0.0067417114 -5.6247674e-05 0.011604813 -0.010404539 0.030124972
0.07808593 0.08049523 0.01696176 0.007858484 -0.055578016 -0.054697417 0.09195094 -0.0002793118
-0.025464877 -0.0009832361 0.012750399 0.04436495 -0.015487633 -0.08018925 -0.047645546 -0.04110197
-0.03600518 0.1283947 0.06711515 -0.123219915 -0.03582476 0.11972299 0.058147743 -0.04252614
0.007691517 -0.07458727 0.046224266 -0.03749486 0.042945754 -0.000302623 0.0991114 -0.06522364
-0.011679629 -0.019306784 -0.013722389 -0.04829905 0.066625096 -0.05993814 0.09413408 0.07109592
0.061224323 0.16810785 0.0690859 0.035136666 0.003039021 0.03426944 -0.0036556162 -0.14467466
-0.08426505 -0.04801748 -0.0009185564 0.105034664 -0.05285795 -0.01660718 0.09728212 0.062128324
-0.08064988 0.026255276 0.0069664 -0.050894707 0.01075131 0.039002486 -0.10801971 -0.008503214
-0.10863888 0.06242313 0.08420422 0.058939368 -0.010957401 -0.05344608 -0.01599526 -0.2016463
0.05457852 -0.0315873 -0.058909968 0.119841136 -0.1324782 -0.028147098 0.0027851695 0.12779513
0.050267354 -0.009727955 -0.13795249 0.051757567 -0.10613616 0.10015188 0.045265593 0.026873518
0.005162766 0.09174583 0.11041296 -0.0009982394 -0.038458128 -0.019131064 0.06812688 0.09473451
-0.09309705 0.10895138 -0.052653108 0.06187622 -0.10683706 -0.013560536 -0.011253714 0.048799805
-0.028477747 0.00049294595 0.10701702 0.0013798809 -0.010733711 0.0619541 -0.090521805 -0.039492525
0.041175265 0.063891985 -0.07377308 0.0055355052 -0.026048329 -0.057370704 -0.070130505 0.07095146
0.06615085 0.007162778 0.048141554 -0.09722076 -0.0061277775 0.06086397 0.057782806 -0.08449552
0.006575919 0.1111132 0.023787718 0.016443102 -0.15236863 0.09119838 -0.09054611 0.061959337
-0.05114326 -0.012576031 -0.018352535 0.0003621869 -0.03496645 -0.09850291 -0.058527123 0.029931303
-0.023799337 0.035397507 0.0017535799 0.024355812 0.023335455 -0.092684075 0.04037509 0.032427795
0.09886627 -0.12245811 0.017787063 -0.04158166 0.06534479 0.053798158 -0.023265589 -0.08436839
-0.06721524 -0.09641169 0.038706817 0.03586057 0.05973829 -0.04650441 0.010615783 0.031257916
0.026728783 0.048833366 -0.006440529 -0.0596561 -0.024244204 0.07061397 0.09064766 -0.02917312
0.056946054 0.037918787 -0.06753618 0.047990825 0.010351596 0.048220776 -0.06595712 -0.018477255
0.08920729 -0.074179485 -0.11038837 0.0074481117 -0.054236915 0.018845873 -0.029251117 0.100335345
0.016024265 -0.0762285 -0.004594355 -0.05714231 0.0431857 -0.007250027 -0.12968612 -0.028325168
0.041419487 -0.040436357 0.018379623 0.043636262 -0.094217755 0.055892374 -0.07843859 0.018803861
0.037738763 0.017021276 -0.09234988 -0.048674796 -0.006604006 -0.034277536 0.0390246 0.05088781
00000000: 3096 0a3d 4330 86bd c668 74bd 2ef4 d33c
00000010: b70b cdbb 5764 7c3d fb02 8c3d 9354 973c
00000020: 04e1 e2bc e065 a43d 8c35 9cbd 99dc 933b
00000030: c178 c73d 4ed8 29bd a4d4 7e3c dd66 753d
00000040: 30b4 b53d bbc0 97bd ff16 1fbd 2e42 5b3d
00000050: 75ba 68bc 9140 1fbc aff1 8c3d a733 23bd
00000060: d27e 533d b218 d6bd 3438 5dbe 65c3 c6bc
00000070: dcda 4a3c 765f 84bd ca25 b0bd 9305 e83d
00000080: 0d80 7abd e566 a03d 3530 c63d 93e9 dcbb
00000090: 7beb 6bb8 1d22 3e3c cd77 2abc a5c8 f63c
000000a0: 84eb 9f3d afda a43d 64f3 8a3c dfc0 003c
000000b0: c6a5 63bd 660a 60bd c650 bc3d 9870 92b9
000000c0: b89b d0bc eedf 80ba 0de7 503c 06b8 353d
000000d0: d7bf 7dbc 433a a4bd fa27 43bd 8a5a 28bd
000000e0: 2b7a 13bd e679 033e ab73 893d b95a fcbd
000000f0: fcbc 12bd 5431 f53d 542c 6e3d e42f 2ebd
00000100: 1f09 fc3b 36c1 98bd a855 3d3d 3694 19bd
00000110: e3e7 2f3d 5fa9 9eb9 ebfa ca3d f993 85bd
00000120: ea5b 3fbc 4329 9ebc dfd3 60bc 3ad5 45bd
00000130: bd72 883d b281 75bd 5ec9 c03d bd9a 913d
00000140: 5bc6 7a3d 7724 2c3e e97c 8d3d 77eb 0f3d
00000150: 502a 473b 1d5e 0c3d 1093 6fbb 9825 14be
00000160: 2893 acbd faad 44bd 47cb 70ba 6a1c d73d
00000170: 9481 58bd c80b 88bc d93b c73d 457a 7e3d
00000180: c42b a5bd 4e15 d73c 6646 e43b f876 50bd
00000190: 4326 303c 12c1 1f3d 7039 ddbd 1151 0bbc
000001a0: 107e debd 65af 7f3d 4373 ac3d 686a 713d
000001b0: ac86 33bc 47ea 5abd 7e08 83bc 5e7c 4ebe
000001c0: ba8d 5f3d af61 01bd 944b 71bd 456f f53d
000001d0: 5ea8 07be be94 e6bc 6487 363b badc 023e
000001e0: 24e5 4d3d 0062 1fbc 6b43 0dbe beff 533d
000001f0: ea5d d9bd 6e1c cd3d 6a68 393d da25 dc3c
00000200: 6c2c a93b 3de5 bb3d 3120 e23d 5bd7 82ba
00000210: 4586 1dbd c0b8 9cbc 1b86 8b3d 2b04 c23d
00000220: aba9 bebd e721 df3d c9aa 57bd eb71 7d3d
00000230: 63cd dabd 032d 5ebc 7f61 38bc 4ee2 473d
00000240: 2a4a e9bc 0b39 013a bd2b db3d 1fdd b43a
00000250: 72dc 2fbc 95c3 7d3d 7f63 b9bd eac2 21bd
00000260: 65a7 283d cdd9 823d 5716 97bd 2f63 b53b
00000270: 4e63 d5bc 8bfd 6abd 95a0 8fbd 004f 913d
00000280: 197a 873d bdb5 ea3b 1430 453d ae1b c7bd
00000290: 86cb c8bb 804c 793d aaad 6c3d fd0b adbd
000002a0: cf7a d73b 518f e33d 76de c23c afb3 863c
000002b0: 8606 1cbe 37c6 ba3d 3d70 b9bd 13c9 7d3d
000002c0: 987b 51bd b20b 4ebc 0e58 96bc e7e3 bd39
000002d0: fb38 0fbd e5bb c9bd 23ba 6fbd 7e32 f53c
000002e0: d4f6 c2bc fafc 103d 61d8 e53a d785 c73c
000002f0: ff29 bf3c 26d1 bdbd 5a60 253d 02d3 043d
00000300: 667a ca3d 51cb fabd 2db6 913c 8851 2abd
00000310: 7dd3 853d 755b 5c3d 7a97 bebc 56c9 acbd
00000320: 25a8 89bd 7e73 c5bd 0a8b 1e3d 88e2 123d
00000330: 23b0 743d 697b 3ebd d2ed 2d3c 4d08 003d
00000340: 52f6 da3c 7f05 483d 130b d3bb f459 74bd
00000350: c89b c6bc 0f9e 903d 7ba5 b93d 78fc eebc
00000360: 4440 693d bb50 1b3d 6950 8abd 0792 443d
00000370: be99 293c 2683 453d 8714 87bd 9d5d 97bc
00000380: 50b2 b63d 6aeb 97bd 4c13 e2bd 4a0f f43b
00000390: 8727 5ebd a962 9a3c 0aa0 efbc 9e7c cd3d
000003a0: 5245 833c b01d 9cbd 3e8c 96bb 0e0e 6abd
000003b0: 7de3 303d a291 edbb 70cc 04be 2f0a e8bc
000003c0: 7ba7 293d 98a0 25bd dd90 963c f0bb 323d
000003d0: 3df5 c0bd 67ef 643d 69a4 a0bd 8e0a 9a3c
000003e0: f693 1a3d 3470 8b3c ef21 bdbd 395f 47bd
000003f0: 6b66 d8bb 9a66 0cbd 42d8 1f3d bc6f 503d

layers.1.bias f4 [128]
-0.09704297 -0.092499584 -0.079559244 -0.033048347 0.038598947 -0.056536604 0.14605004 0.13509285
-0.075714454 -0.09341147 0.0825455 -0.03686293 -0.009396899 -0.016396314 0.13307913 0.008714132
-0.067629 0.04909583 0.029668136 0.015110122 0.08613099 0.12443791 -0.0044284915 0.11734048
0.1505841 0.034898218 -0.11181549 -0.1231003 0.00017129414 0.12205478 -0.010249132 -0.09007624
-0.10844735 0.0805646 0.021298911 0.0059480416 0.0855611 -0.15685982 0.08866203 0.14180544
-0.041172452 0.09533928 0.11991308 0.035471972 -0.12077713 0.019169094 0.028933385 -0.124825604
-0.097104214 0.01070956 -0.07642272 -0.06325469 -0.047508385 -0.124649435 0.05376948 -0.08205117
0.13237783 -0.122155115 0.013880267 -0.13617356 -0.1877199 0.072621845 -0.11755603 -0.055231523
-0.14529175 -0.04623155 0.065951906 0.029215414 -0.014921109 -0.12996638 -0.1597391 0.035064448
0.09924118 0.082551956 -0.04121284 -0.026746944 -0.17911832 0.14659695 0.02431886 -0.13982373
0.09291389 0.033786945 0.20663588 0.11130647 0.033959225 -0.010612539 -0.002176201 0.058487576
-0.030029275 0.09817721 -0.05901611 0.12182848 0.16150637 0.04524131 -0.09987794 0.039933268
0.036497984 0.04742774 -0.12087065 0.031886403 -0.066288106 -0.0122392215 -0.044608194 -0.14365052
0.0558778 -0.10213638 -0.14111356 -0.09714782 0.13422002 0.017515864 0.021178732 0.10236708
-0.038848206 0.063060544 0.08393778 -0.1041009 -0.035851825 -0.1180259 -0.14943938 -0.02477929
-0.07870633 -0.028849155 0.056693 0.07190923 -0.07951239 -0.14793535 0.012638401 0.038854454
00000000: 77be c6bd 6c70 bdbd f5ef a2bd b45d 07bd
00000010: ee19 1e3d ed92 67bd 248e 153e c855 0a3e
00000020: 2e10 9bbd 834e bfbd 9d0d a93d 95fd 16bd
00000030: 73f5 19bc 9051 86bc e545 083e b8c5 0e3c
00000040: 1381 8abd b618 493d 970a f33c 7290 773c
00000050: 7265 b03d 4ed9 fe3d e11c 91bb 3550 f03d
00000060: b832 1a3e 6ff1 0e3d 85ff e4bd 031c fcbd
00000070: 6c9d 3339 dbf7 f93d faeb 27bc e479 b8bd
00000080: a519 debd 0eff a43d 0e7b ae3c cae7 c23b
00000090: a83a af3d dc9f 20be 7094 b53d 7235 113e
000000a0: 72a4 28bd 3e41 c33d fd94 f53d 0f4b 113d
000000b0: 005a f7bd 8108 9d3c b505 ed3c 91a4 ffbd
000000c0: 93de c6bd 2677 2f3c 8483 9cbd ad8b 81bd
000000d0: 2798 42bd 3448 ffbd 633d 5c3d 720a a8bd
000000e0: 0e8e 073e 762c fabd 0f6a 633c 1571 0bbe
000000f0: a539 40be c3ba 943d 37c1 f0bd 733a 62bd
00000100: 5cc7 14be 4b5d 3dbd cb11 873d 2a55 ef3c
00000110: ab77 74bc e815 05be a692 23be bd9f 0f3d
00000120: f63e cb3d 0011 a93d cbce 28bd 681c dbbc
00000130: cb6a 37be 831d 163e 5938 c73c f42d 0fbe
00000140: a349 be3d 2e64 0a3d 5b98 533e a6f4 e33d
00000150: d418 0b3d 37e0 2dbc 989e 0ebb ab90 6f3d
00000160: f4ff f5bc 2211 c93d e0ba 71bd 3681 f93d
00000170: ed61 253e f44e 393d ce8c ccbd 1191 233d
00000180: e97e 153d 9743 423d 088b f7bd 519b 023d
00000190: 0fc2 87bd 0487 48bc 15b7 36bd 1f19 13be
000001a0: 1fe0 643d e12c d1bd 1380 10be 70f5 c6bd
000001b0: f970 093e 6e7d 8f3c 057f ad3c d5a5 d13d
000001c0: 4c1f 1fbd e325 813d 92e7 ab3d da32 d5bd
000001d0: 5dd9 12bd 90b7 f1bd a306 19be f0fd cabc
000001e0: c930 a1bd 1055 ecbc eb36 683d 2545 933d
000001f0: 64d7 a2bd 5d7c 17be 4c11 4f3c d925 1f3d

layers.2.weight f4 [64, 128]
0.025551971 -0.11429998 -0.10776223 0.111140065 -0.16855408 -0.040806454 0.15276077 0.07079024
0.094628386 0.028709851 0.030902065 0.08975723 -0.022069976 -0.06637441 0.08654196 0.031792715
0.025455827 0.061297692 0.036668487 0.046158873 0.026320273 0.16065183 -0.0008152243 0.11937748
0.040828504 -0.01662303 -0.025017593 0.015982583 -0.08032383 -0.086251825 0.006045189 -0.012634261
-0.10789279 0.07875543 0.03483332 -0.04974407 0.026417086 -0.019724907 0.109456226 0.11278721
-0.12670064 0.10886987 -0.01639228 0.039074257 0.007053483 0.123981744 0.04414978 0.011320795
-0.12909767 -0.06936715 0.098168276 0.042810943 -0.08404631 0.06351252 0.11001656 0.0028128799
0.020904737 0.07709623 0.030674158 -0.06560294 -0.05306395 -0.04032718 -0.101217136 0.037042774
0.05053087 -0.13654624 0.11984501 0.10664558 -0.028590288 -0.07965062 -0.06898698 0.14116867
0.13571312 0.0063122422 0.11521025 -0.023349632 -0.0015105729 0.020433487 0.0827131 -0.109337136
0.05099122 -0.019082036 0.06370759 0.010842895 -0.01951495 -0.07866088 -0.02744193 0.002377165
0.07435765 0.017160274 0.088979684 0.04235201 0.08492598 0.10570299 -0.09971523 0.11340772
-0.028791891 0.041385137 0.051308647 0.11724225 -0.1211493 0.07469115 -0.029602401 -0.030691795
0.03805084 0.011948385 -0.11493863 -0.028929733 0.09714651 0.054533526 -0.006736423 -0.017778471
0.0089822 0.005003006 -0.03625517 -0.028723756 0.02793159 -0.0064085927 -0.14322588 -0.034859385
0.060418956 0.082969524 0.0386197 -0.020854477 0.061216876 -0.09897236 0.045862705 -0.041143548
-0.09820187 -0.03130129 -0.036363825 0.17954277 -0.06925049 -0.0011399271 -0.05077942 0.018064277
-0.023819735 -0.094403595 -0.042967394 -0.01812302 0.018816274 -0.16679415 -0.022269003 -0.0713465
-0.087442555 -0.060411833 -0.10258001 -0.06943955 -0.034388497 0.03357809 0.0063297995 0.03617982
-0.045264024 0.049603395 -0.02800544 -0.027938416 -0.20144218 -0.10088982 0.1330466 0.04791004
0.01722902 0.04708225 -0.011967727 0.112459384 0.103938736 -0.07457872 -0.034291174 0.023516614
-0.15293112 -0.05743914 -0.07277076 0.11011513 0.057440024 0.15532145 -0.07015377 -0.049002804
0.03128699 -0.026071008 0.015012719 0.004833723 0.027412234 -0.073309034 -0.014389631 -0.011897347
0.056615103 0.11060214 0.083231844 -0.10906904 0.0150303915 0.06438687 -0.055310678 -0.040538453
0.0013801287 -0.021053141 0.044625778 0.1717385 -0.000866145 -0.056153826 -0.018739918 0.09623492
0.064363785 -0.0024069154 0.11283301 0.029243428 -0.087742336 -0.0040670307 0.10095489 -0.104124084
-0.11819016 0.11301394 0.10409122 0.015294078 -0.035765994 0.0026066063 0.08691093 0.07644167
0.16814068 0.00381475 0.032546964 -0.0033381989 -0.11833086 -0.021870693 0.0012847449 0.026546149
0.01422194 -0.016223392 0.021087784 0.13223413 0.0324448 -0.0033267688 -0.01991181 -0.053536758
0.083183885 -0.13227957 -0.08762544 0.05839778 -0.07425331 0.06601801 0.10713973 -0.118142374
-0.09439488 0.14427593 0.018140513 0.12678772 0.044577293 0.04761676 0.043027177 -0.11335658
0.026372893 -0.06563064 0.028109882 -0.23270454 0.0059624915 0.05213863 -0.0698165 -0.15763354
00000000: 5e52 d13c 1c16 eabd 72b2 dcbd 679d e33d
00000010: 7199 2cbe ab24 27bd 526d 1c3e 79fa 903d
00000020: 87cc c13d ec30 eb3c 5426 fd3c a3d2 b73d
00000030: 18cc b4bc 4fef 87bd e93c b13d 1439 023d
00000040: bd88 d03c 4a13 7b3d b231 163d 1611 3d3d
00000050: 9d9d d73c ea81 243e c7b4 55ba 2e7c f43d
00000060: ca3b 273d 052d 88bc b2f1 ccbc e8ed 823c
00000070: d280 a4bd cca4 b0bd b916 c63b eeff 4ebc
00000080: e5f6 dcbd 874a a13d 62ad 0e3d 70c0 4bbd
00000090: a568 d83c 2196 a1bc 962a e03d fbfc e63d
000000a0: d0bd 01be 2bf7 de3d 1a49 86bc 540c 203d
000000b0: e720 e73b 24ea fd3d 66d6 343d db7a 393c
000000c0: 2e32 04be 5d10 8ebd 730c c93d 875a 2f3d
000000d0: 7920 acbd da12 823d 5d50 e13d 4b58 383b
000000e0: 6940 ab3c a1e4 9d3d 5f48 fb3c d65a 86bd
000000f0: 9659 59bd 1d2e 25bd ee4a cfbd 2aba 173d
00000100: 75f9 4e3d c7d2 0bbe 4d71 f53d ff68 da3d
00000110: 2e36 eabc dd1f a3bd 0c49 8dbd 858e 103e
00000120: 61f8 0a3e edd6 ce3b 5af3 eb3d ba47 bfbc
00000130: 6afe c5ba 2164 a73c 7c65 a93d 26ec dfbd
00000140: 2bdc 503d ee51 9cbc 2079 823d 66a6 313c
00000150: d1dd 9fbc f518 a1bd e6cd e0bc 36ca 1b3b
00000160: d348 983d b493 8c3c fb3a b63d 4d79 2d3d
00000170: aced ad3d cf7a d83d 8037 ccbd 4f42 e83d
00000180: f9dc ebbc 7683 293d 0429 523d b41c f03d
00000190: 201d f8bd acf7 983d bc80 f2bc 5c6d fbbc
000001a0: 33db 1b3d 29c3 433c f264 ebbd 0cfe ecbc
000001b0: c0f4 c63d 8c5e 5f3d 36bd dcbb 28a4 91bc
000001c0: 142a 133c 42f0 a33b 4d80 14bd 154e ebbc
000001d0: cad0 e43c 2cff d1bb cea9 12be b7c8 0ebd
000001e0: de79 773d edeb a93d b12f 1e3d 02d7 aabc
000001f0: 8cbe 7a3d 05b2 cabd 88da 3b3d 2386 28bd
00000200: 101e c9bd c835 00bd 3cf2 14bd 0fda 373e
00000210: 33d3 8dbd 9b69 95ba 15fe 4fbd 89fb 933c
00000220: 9b21 c3bc ac56 c1bd 94fe 2fbd ba76 94bc
00000230: 9624 9a3c 16cc 2abe 7c6d b6bc 1d1e 92bd
00000240: 1515 b3bd 6672 77bd 7815 d2bd 5336 8ebd
00000250: f4da 0cbd 2e89 093d 356a cf3b 4a31 143d
00000260: c566 39bd ee2c 4b3d aa6b e5bc 1bdf e4bc
00000270: dc46 4ebe 529f cebd 5e3d 083e 513d 443d
00000280: e023 8d3c 51d9 403d 4914 44bc 1b51 e63d
00000290: d5dd d43d babc 98bd e774 0cbd eaa5 c03c
000002a0: fa99 1cbe 4e45 6bbd d608 95bd 0b84 e13d
000002b0: 3b46 6b3d 960c 1f3e c8ac 8fbd 2ab7 48bd
000002c0: c926 003d de92 d5bc e8f7 753c 3564 9e3b
000002d0: 9f8f e03c 0c23 96bd 7dc2 6bbc 17ed 42bc
000002e0: 3de5 673d 6083 e23d 7575 aa3d 975f dfbd
000002f0: 0842 763c 43dd 833d 738d 62bd a60b 26bd
00000300: 6fe5 b43a a377 acbc 85c9 363d 38dc 2f3e
00000310: 020e 63ba 8e01 66bd 7584 99bc d016 c53d
00000320: 29d1 833d 57bd 1dbb fe14 e73d ea8f ef3c
00000330: 41b2 b3bd ba44 85bb 70c1 ce3d 023f d5bd
00000340: af0d f2bd da73 e73d c72d d53d 0394 7a3c
00000350: 5d7f 12bd 99d3 2a3b 5cfe b13d 738d 9c3d
00000360: 122d 2c3e e200 7a3b f74f 053d afc5 5abb
00000370: 7357 f2bd 2b2a b3bc e364 a83a 4f77 d93c
00000380: 2403 693c ebe6 84bc 4ac0 ac3c 6268 073e
00000390: d7e4 043d eb05 5abb 181e a3bc 5c49 5bbd
000003a0: 505c aa3d 4c74 07be f774 b3bd 8332 6f3d
000003b0: 1f12 98bd 7334 873d 136c db3d a1f4 f1bd
000003c0: 1a52 c1bd 12bd 133e 6a9b 943c a4d4 013e
000003d0: ae96 363d cb09 433d 443d 303d 7f27 e8bd
000003e0: f70b d83c 5b69 86bd b246 e63c 194a 6ebe
000003f0: 0161 c33b 518f 553d f4fb 8ebd b06a 21be

layers.2.bias f4 [64]
0.09897109 -0.031559248 0.023591917 0.02351757 -0.062160317 -0.0012169712 -0.028570518 0.04057943
-0.06953523 -0.08348776 0.011951156 -0.03700263 -0.04177327 -0.005678324 -0.023261817 0.06390415
-0.022072358 0.06655238 0.004591912 -0.029571876 0.05894361 0.026196992 -0.06505445 -0.14250001
0.08491357 -0.063708894 0.038505144 -0.021233205 0.116217844 -0.116063856 0.023434687 -0.103433676
0.11202762 0.045704946 0.095694534 0.008472894 0.040308967 0.017326618 0.009951879 0.032682348
-0.03108729 0.08988834 0.016004413 0.015205734 -0.11870238 -0.05518778 -0.09031836 -0.16867322
0.09428292 -0.07941932 -0.031107282 0.010818355 0.029369934 0.16562122 -0.06192446 -0.11285577
0.06542151 -0.1348116 -0.06623542 0.012202737 -0.119057104 -0.14977004 0.024109418 -0.023357835
00000000: 5bb1 ca3d 4544 01bd d643 c13c eba7 c03c
00000010: d19b 7ebd c782 9fba b80c eabc 9e36 263d
00000020: 7d68 8ebd a1fb aabd c8ce 433c 1290 17bd
00000030: 731a 2bbd 3c11 babb 918f bebc 2ee0 823d
00000040: 17d1 b4bc 9d4c 883d c077 963b b840 f2bc
00000050: db6e 713d 139b d63c 443b 85bd 86eb 11be
00000060: 2ae7 ad3d cf79 82bd 92b7 1d3d 42f1 adbc
00000070: 9f03 ee3d e3b2 edbd 1afa bf3c 09d5 d3bd
00000080: bd6e e53d 1c35 3b3d 7ffb c33d e5d1 0a3c
00000090: 041b 253d 8df0 8d3c 350d 233c eddd 053d
000000a0: c6aa febc 6117 b83d b01b 833c 7921 793c
000000b0: 3c1a f3bd 950c 62bd d5f8 b8bd acb8 2cbe
000000c0: 6717 c13d 99a6 a2bd b3d4 febc 783f 313c
000000d0: 3799 f03c 9c98 293e 81a4 7dbd ed20 e7bd
000000e0: b6fb 853d 0d0c 0abe 70a6 87bd fded 473c
000000f0: 36d4 f3bd 515d 19be 1d81 c53c ee58 bfbc

readout.weight f4 [1, 64]
-0.32688105 -0.27075663 -0.2050166 0.2311755 0.3341427 0.40540278 -0.37462243 -0.34736043
0.2105768 0.49666816 -0.32211167 0.2926706 -0.27501544 -0.23138307 0.3681917 -0.37632257
-0.31795746 0.23733962 0.39346543 -0.25245127 -0.32772174 0.3006056 0.37553418 0.27602667
-0.25709265 -0.42697603 -0.3334296 0.43575191 -0.3615404 0.3712162 0.23174688 0.27855468
-0.4101978 0.35795256 -0.21946897 -0.21842113 0.2141984 -0.3671242 -0.27045545 0.33387467
-0.37034166 -0.3582536 -0.4006672 -0.4731454 0.30497992 0.425606 0.32703912 0.4115855
-0.22120932 0.55937296 0.42524996 -0.2505854 -0.30718386 -0.4280731 -0.24660823 0.32397327
-0.20975931 0.27658185 0.35440597 0.08788612 0.16446799 0.40140876 -0.16750538 0.39228195
00000000: f45c a7be 9da0 8abe dfef 51be 45b9 6c3e
00000010: c114 ab3e f490 cf3e 83ce bfbe 3ad9 b1be
00000020: 72a1 573e 4a4b fe3e d2eb a4be ecd8 953e
00000030: d3ce 8cbe afef 6cbe 9f83 bc3e 5aad c0be
00000040: 52cb a2be 2809 733e 4d74 c93e 4b41 81be
00000050: 25cb a7be fae8 993e 0446 c03e 5e53 8d3e
00000060: a6a1 83be 9a9c dabe 49b7 aabe e01a df3e
00000070: d31b b9be 0d10 be3e 0e4f 6d3e b89e 8e3e
00000080: 7205 d2be 8f45 b73e 79bc 60be caa9 5fbe
00000090: d356 5b3e b4f7 bbbe 2379 8abe 9ff1 aa3e
000000a0: 6c9d bdbe 046d b7be 4024 cdbe 1d40 f2be
000000b0: 5426 9c3e 08e9 d93e ac71 a73e 56bb d23e
000000c0: b284 62be 1133 0f3f 5dba d93e bb4c 80be
000000d0: 3447 9dbe 662c dbbe de86 7cbe d3df a53e
000000e0: 25cb 56be 239c 8d3e b374 b53e a3fd b33d
000000f0: 4c6a 283e 7385 cd3e 8886 2bbe 2ed9 c83e

layers.0.weight f4 [128, 17]
0.1069273 0.52758163 -0.08354532 0.0735769 -0.10076177 -0.15572084 -0.15254907 -0.012011878
0.19232576 -0.21032317 -0.07608616 -0.05192631 0.06933711 0.019053547 -0.19697784 -0.040328976
0.06950699 0.14720908 -0.70055234 -0.49922755 -0.01015102 -0.3539939 0.5847053 -0.09828794
0.17367715 -0.45547566 -0.22041133 0.074145325 0.10712496 0.17929575 -0.03014228 -0.009438144
0.0055682473 0.091915 0.3694629 -0.56242377 0.17012015 0.061781917 -0.049475335 0.83122844
0.11402319 0.25132033 -0.562091 0.12695606 0.23212482 -0.10525706 -0.007908628 0.008601943
0.38143447 0.13293262 0.07437843 -0.25361276 -0.7389112 -0.032383513 -0.26400632 0.09740354
0.21044797 0.27635235 -0.0059824414 0.13069694 -0.0099419635 -0.13370791 0.071966335 0.07356706
0.017028904 -0.136542 -0.14689296 -0.04845307 0.20722951 -0.12627903 0.8760721 -0.26942632
-0.24102564 -0.022893133 0.5690009 0.39950764 0.41825712 0.59524393 0.06933488 0.048983287
-0.031020692 0.060882453 -0.039395984 -0.025045216 -0.06495668 0.43825543 -0.44894996 -0.07772314
-0.25576684 -0.47562075 -0.51929957 -0.40171435 -0.27216202 -0.58923817 0.230177 -0.19182894
0.16016138 0.22424917 -0.057140615 0.21338482 -0.22473836 0.019039854 0.46628746 -0.16269916
-0.7887642 -0.15571076 -0.061469596 -0.5477805 -0.18556936 0.1600422 -0.5239091 0.005684929
-0.114855595 0.11535047 -0.041105874 -0.099121064 -0.005719664 -0.14634901 0.062695876 -0.2624227
0.11170006 -0.9075199 -0.15338121 -0.37377927 0.4662062 -0.04479786 0.36542872 0.30133897
-0.067797065 0.6882739 -0.12003015 0.13026594 0.065344095 0.044782884 0.07239795 -0.05034923
0.47394606 -0.87603813 -0.025049059 0.0111393 0.57467705 -0.1347384 -0.231855 -0.030687865
-0.8002208 0.28020826 -0.08714215 -0.021839749 0.039261054 -0.044533525 -0.11331735 -0.058617815
0.022894127 0.5292037 -0.7838734 -0.21066691 0.15184611 0.1359129 0.36254865 -0.19318059
-0.0089842 0.05107385 -0.3009592 -0.33222422 -0.14730567 -0.026382167 0.00065626076 0.1880632
0.111121096 0.08001425 -0.12919785 0.14106035 0.56541675 0.34402612 -0.5776695 0.66288924
-0.477325 0.027244145 0.62980086 -0.6525228 -0.009139643 0.11030101 0.10430548 -0.049498748
0.021307116 0.064136945 0.048193492 0.08454441 -0.16623949 0.060513623 -0.8447393 0.19465671
0.63358057 0.750299 0.30433336 -0.24724422 0.662463 -0.20357788 0.027393883 -0.09645799
0.032376565 0.033295643 -0.0035216282 -0.0241831 0.2864295 -0.08286053 -0.27634212 -0.17523487
-0.36506104 -1.1274556 -0.19262317 -0.30492622 0.6703696 0.4965552 0.41472596 -0.0035052854
0.012024083 0.027268203 0.026580712 0.0848035 0.012491022 -0.26557982 0.27833274 0.2365229
0.27405548 -0.02113865 0.8663492 0.89320153 0.7327302 -0.44254687 0.3454516 -0.31961024
0.048208494 0.086825356 0.043242093 -0.11508111 -0.13334298 0.0072702025 0.79611474 -1.01111
-0.8823646 -0.5006115 -0.4114614 -0.09208347 0.076417595 -0.08670748 -0.20804347 0.57663864
-0.017219678 -0.17793559 -0.07831661 -0.018611029 -0.2393888 0.07282522 0.0033818744 -0.4128912
00000000: b3fc da3d 970f 073f cf19 abbd 7caf 963d
00000010: 305c cebd 4975 1fbe d335 1cbe 78cd 44bc
00000020: 0bf1 443e f55e 57be 10d3 9bbd afb0 54bd
00000030: 9d00 8e3d 2f16 9c3c 8fb4 49be ff2f 25bd
00000040: ae59 8e3d fabd 163e 6657 33bf c19a ffbe
00000050: 7750 26bc b03e b5be 3faf 153f 304b c9bd
00000060: 6cd8 313e 1b34 e9be 82b3 61be 81d9 973d
00000070: 5564 db3d 4e99 373e f1ec f6bc 72a2 1abc
00000080: d875 b63b ee3d bc3d 3e2a bd3e 01fb 0fbf
00000090: fa33 2e3e 090f 7d3d a6a6 4abd 63cb 543f
000000a0: fe84 e93d 0fad 803e 32e5 0fbf c500 023e
000000b0: 21b2 6d3e 0391 d7bd 3193 01bc 2aef 0c3c
000000c0: 614b c33e 7d1f 083e b853 983d 88d9 81be
000000d0: 4929 3dbf 93a4 04bd d62b 87be 827b c73d
000000e0: ac7f 573e 0e7e 8d3e 5b08 c4bb 6bd5 053e
000000f0: 9ee3 22bc baea 08be 1663 933d 54aa 963d
00000100: 3380 8b3c abd1 0bbe 1c6b 16be ba76 46bd
00000110: f933 543e 4a4f 01be 4346 603f 3ff2 89be
00000120: 6dcf 76be 618a bbbc 0baa 113f 448c cc3e
00000130: cc25 d63e e861 183f 72ff 8d3d b3a2 483d
00000140: 1b1f febc e15f 793d af5d 21bd a02b cdbc
00000150: 0208 85bd 0463 e03e c5dc e5be 4f2d 9fbd
00000160: dff3 82be 9084 f3be d1f0 04bf 81ad cdbe
00000170: d258 8bbe 50d8 16bf 85b3 6b3e ce6e 44be
00000180: 5801 243e 93a1 653e 470c 6abd 8d81 5a3e
00000190: d021 66be 78f9 9b3c 3bbd ee3e 9c9a 26be
000001a0: 73ec 49bf a472 1fbe 8bc7 7bbd 583b 0cbf
000001b0: e505 3ebe 1ae2 233e e81e 06bf a448 ba3b
000001c0: 6939 ebbd de3c ec3d a25e 28bd fcff cabd
000001d0: 056c bbbb 84dc 15be b266 803d 455c 86be
000001e0: 00c3 e43d 3953 68bf f70f 1dbe ff5f bfbe
000001f0: 94b2 ee3e f67d 37bd 7919 bb3e 1a49 9a3e
00000200: 30d9 8abd b832 303f 5ed2 f5bd 6f64 053e
00000210: 20d3 853d 426e 373d 6045 943d ff3a 4ebd
00000220: 0fa9 f23e 0944 60bf af33 cdbc 9c81 363c
00000230: 091e 133f ddf8 09be 666b 6dbe 1e65 fbbc
00000240: 45db 4cbf 7577 8f3e 9577 b2bd 46e9 b2bc
00000250: 33d0 203d c968 36bd ed12 e8bd 3c19 70bd
00000260: 778c bb3c e579 073f edab 48bf 11b9 57be
00000270: 8c7d 1b3e c02c 0b3e fa9f b93e 22d1 45be
00000280: 7732 13bc d032 513d 5317 9abe 4b19 aabe
00000290: 4cd7 16be 6a1f d8bc ea08 2c3a a493 403e
000002a0: 7593 e33d 83de a33d 714c 04be 2072 103e
000002b0: 27bf 103f 3124 b03e 26e2 13bf 1cb3 293f
000002c0: f163 f4be 1d2f df3c a13a 213f bc0b 27bf
000002d0: 71be 15bc 7fe5 e13d 1d9e d53d 33bf 4abd
000002e0: 438c ae3c 3b5a 833d 8a66 453d 9f25 ad3d
000002f0: af3a 2abe 22dd 773d d640 58bf 1754 473e
00000300: 5632 223f 9813 403f 95d1 9b3e 972d 7dbe
00000310: 2d97 293f b876 50be 2369 e03c c48b c5bd
00000320: 4a9d 043d 0361 083d 1ecb 66bb a31b c6bc
00000330: e3a6 923e c8b2 a9bd b77c 8dbe c570 33be
00000340: 48e9 babe 7750 90bf 023f 45be 4a1f 9cbe
00000350: 589d 2b3f 7c3c fe3e f656 d43e eeb8 65bb
00000360: a900 453c 9161 df3c cbbf d93c 75ad ad3d
00000370: 25a7 4c3c 14fa 87be a181 8e3e 0f33 723e
00000380: 0051 8c3e f62a adbc 10c9 5d3f dba8 643f
00000390: 3594 3b3f 8195 e2be 08df b03e f4a3 a3be
000003a0: 4576 453d 7ed1 b13d 9f1e 313d a5af ebbd
000003b0: 108b 08be e13a ee3b 2dce 4b3f 0d6c 81bf
000003c0: a5e2 61bf 1328 00bf 12ab d2be 4296 bcbd
000003d0: d480 9c3d b193 b1bd 5909 55be 979e 133f
000003e0: 4810 8dbc bf34 36be 7564 a0bd 2876 98bc
000003f0: 5622 75be 6425 953d 70a2 5d3b 7a66 d3be

layers.0.bias f4 [128]
0.28049034 0.63055205 -0.009401242 0.672472 0.6452396 -0.38879964 0.58922887 0.05858121
-0.3439894 0.27274188 0.44232747 0.4934963 0.73095983 0.016444216 -0.08419974 -0.20175722
0.12036096 0.076689996 0.7399689 0.5077747 0.44810757 0.92021996 -0.07290175 0.35456365
-0.14148112 0.3051436 0.21073094 0.6417725 -0.12065483 0.43718526 -0.13803428 -0.0985203
-0.10019177 0.34227383 -0.054632064 -0.22287041 -0.7011985 0.43289137 0.0304536 -0.21326639
-0.14745216 0.36769098 -0.29144108 -0.108008236 0.1861903 0.1693511 0.5245708 0.6574092
0.3631729 0.18845369 -0.052308075 -0.37020454 0.32075718 -0.4733941 -0.12969273 -0.27109602
0.1697694 -0.5149175 0.16432345 -0.17886485 0.29638448 0.28338125 -0.2967631 0.62678486
-0.3141067 0.034047205 -0.39135686 -0.39626488 -0.00042404974 0.012996432 0.67735094 0.4995165
-0.2999666 -0.16430697 -0.5352892 0.3101478 -0.028638683 0.12530482 0.23074111 -0.114051834
-0.30223277 -0.53179276 -0.28778884 -0.2650501 0.3771155 0.056416128 0.28752965 -0.088525124
-0.31389293 0.24573827 -0.19653386 0.073539004 0.15911362 0.6513225 0.6294597 -0.3882556
-0.08039231 -0.48629832 -0.12047906 0.4953049 0.18140179 -0.06773036 0.49022746 0.21948338
0.37038568 -0.048256744 -0.2136735 -0.06459942 -0.14167875 0.72694284 0.50604445 0.47864285
0.27940378 0.026123872 -0.23362806 -0.08832007 0.010220301 0.39929372 0.22406445 0.37566593
0.4887936 0.033078454 -0.1534609 0.07245278 0.23529549 -0.40713647 0.05005744 0.64922637
00000000: 6e9c 8f3e dc6b 213f ab07 1abc 2027 2c3f
00000010: 6c2e 253f bf10 c7be b4d7 163f daf2 6f3d
00000020: 611f b0be d3a4 8b3e bf78 e23e 8cab fc3e
00000030: 2f20 3b3f 05b6 863c ea70 acbd 7299 4ebe
00000040: cf7f f63d a50f 9d3d 9a6e 3d3f 86fd 013f
00000050: 5b6e e53e 8993 6b3f 834d 95bd 5e89 b53e
00000060: 6de0 10be c83b 9c3e dac9 573e 344b 243f
00000070: e119 f7bd bfd6 df3e dc58 0dbe 03c5 c9bd
00000080: 5831 cdbd 843e af3e dfc5 5fbd 2438 64be
00000090: bf81 33bf f0a3 dd3e d479 f93c 8162 5abe
000000a0: b3fd 16be fe41 bc3e c437 95be 6c33 ddbd
000000b0: aca8 3e3e 606a 2d3e 464a 063f f84b 283f
000000c0: ccf1 b93e 01fa 403e fe40 56bd 738b bdbe
000000d0: 493a a43e b660 f2be 2cce 04be 19cd 8abe
000000e0: 08d8 2d3e a2d1 03bf 6844 283e 5928 37be
000000f0: b5bf 973e 5917 913e 55f1 97be f974 203f
00000100: 98d2 a0be 1575 0b3d ed5f c8be 3be3 cabe
00000110: fe52 deb9 fdee 543c df66 2d3f a0c0 ff3e
00000120: 3995 99be 1640 28be b708 09bf b1cb 9e3e
00000130: ac9b eabc e84f 003e 6647 6c3e 0294 e9bd
00000140: 41be 9abe 9223 08bf 0f59 93be a6b4 87be
00000150: 4815 c13e 9914 673d 1637 933e a94c b5bd
00000160: 93b6 a0be d0a2 7b3e 2c40 49be 9e9b 963d
00000170: aeee 223e 12bd 263f 4524 213f 70c9 c6be
00000180: b9a4 a4bd 18fc f8be babd f6bd 9b98 fd3e
00000190: 64c1 393e 37b6 8abd 18ff fa3e 40c0 603e
000001a0: 31a3 bd3e dda8 45bd 3acd 5abe b34c 84bd
000001b0: 3c14 11be ed18 3a3f 218c 013f ad10 f53e
000001c0: 030e 8f3e bb01 d63c 323c 6fbe 27e1 b4bd
000001d0: 0d73 273c 3a70 cc3e 2771 653e 4957 c03e
000001e0: 2843 fa3e 467d 073d db24 1dbe 2062 943d
000001f0: 4df1 703e 3174 d0be 0809 4d3d b333 263f

layers.1.weight f4 [128, 128]
0.07173347 0.06211258 0.1374708 -0.058302715 -0.032366 -0.058072113 0.022616027 -0.06859899
0.024047598 -0.014009109 -0.017485455 0.026349505 -0.1977165 -0.06044847 -0.08316441 0.050524134
0.041731775 0.04371441 -0.10343393 -0.03885113 -0.14526375 -0.07586278 -0.057039868 -0.1631784
0.027039919 -0.20239186 0.15223141 -0.23927818 0.20527725 -0.12768178 -0.09313753 0.0066312347
-0.07639253 -0.083487056 0.100473665 0.08315705 0.10294473 -0.02859109 0.058247767 0.005691868
0.034269672 0.05960408 -0.009735008 0.063810706 0.1001072 -0.061052233 -0.11108742 -0.10062621
0.009084033 -0.043316565 -0.12792367 -0.06157051 -0.01774208 -0.04914399 0.09444479 0.00628239
0.03644624 -0.050495863 0.015921045 -0.078863166 -0.12530419 0.0073126494 -0.020807283 0.0030892994
0.19482917 0.12080416 -0.053541288 0.06863 -0.058716044 -0.09173231 0.0011584805 0.0045769815
0.13758324 0.2484671 0.12453044 0.07497146 0.0050059236 -0.025213 -0.08762305 -0.010948224
0.018192781 0.11257701 -0.007274934 -0.016556446 -0.10576929 0.03008577 0.12480533 -0.042104714
0.051331878 0.034436353 0.02378694 0.03310336 0.029545374 -0.10562737 0.0018509622 -0.010816888
-0.028307592 0.058614764 -0.13843878 0.0088076955 0.047122218 0.07370092 0.057973746 0.019382741
-0.07599092 0.07544695 0.124287255 -0.10596364 0.08766941 -0.14281626 -0.056550395 0.06576293
0.008322098 -0.24234922 -0.015886288 -0.09407358 -0.06407285 -0.027345197 0.02341467 0.14305212
0.123212494 0.05125943 0.08357496 0.049580235 -0.008909034 0.06395188 -0.06123301 -0.22418573
0.063544795 0.04801042 0.10746658 0.06221153 -0.033899315 0.045678984 -0.06679558 -0.05603284
0.049317986 0.010771106 -0.053747028 -0.05198263 0.063656546 0.059776995 -0.0031359545 0.0740866
-0.11957944 -0.0150964195 -0.05989173 0.04836623 0.018071044 -0.082021385 0.07644 -0.084497355
-0.060485695 0.123670846 0.07236335 0.09105488 -0.04999312 0.06822211 0.036588114 0.03613002
-0.111657664 -0.13140032 -0.08232693 0.041371718 -0.009757344 0.025584495 0.17611195 -0.054879226
0.075312205 0.067002885 -0.08202186 -0.06608117 0.028100973 -0.019974051 -0.059784908 -0.05287805
0.029451784 0.060320184 -0.022763051 0.014812098 -0.018470865 -0.016593026 -0.01961138 0.124860324
-0.09903569 0.01465208 -0.01911974 0.14765473 0.002943623 0.06005329 -0.017056152 -0.025736716
0.07125609 0.0128054 0.06066145 -0.11652945 0.06465008 0.017898947 -0.019444339 -0.11895094
0.1368828 0.027203897 0.036748387 -0.09657638 -0.009204093 0.0870472 -0.015454263 0.07833138
-0.08322818 0.022399677 0.08057477 0.07202163 0.09502615 0.06871242 -0.006550824 -0.030454522
0.06404151 -0.095711276 0.05214732 0.031102253 -0.011819137 0.106493525 0.011452425 0.028120553
-0.09284498 0.03659496 -0.086604714 -0.22768787 0.021201354 -0.065589815 -0.06626467 -0.08323208
0.035052218 0.044610366 0.06562919 -0.020317731 0.1917841 -0.058302116 -0.09099747 -0.0026114841
0.17462635 0.17084636 0.047278903 -0.023859007 0.11793132 0.0041385223 0.013834835 0.04419631
-0.015439353 0.07135544 0.11330162 0.10695241 -0.12602273 0.022261098 0.11133874 -0.14849938
00000000: ffe8 923d c369 7e3d 25c5 0c3e d4ce 6ebd
00000010: 3692 04bd 06dd 6dbd 3f45 b93c a17d 8cbd
00000020: 78ff c43c 7686 65bc a83d 8fbc ebda d73c
00000030: 3276 4abe d198 77bd 1a52 aabd 65f2 4e3d
00000040: f0ee 2a3d e20d 333d 2bd5 d3bd 5d22 1fbd
00000050: 05c0 14be f25d 9bbd a3a2 69bd 3d18 27be
00000060: d282 dd3c d03f 4fbe 8de2 1b3e 5705 75be
00000070: 3334 523e 03bf 02be e4be bebd d44a d93b
00000080: b073 9cbd 43fb aabd 23c5 cd3d 3e4e aa3d
00000090: b0d4 d23d dd37 eabc 3695 6e3d d982 ba3b
000000a0: 5b5e 0c3d 6823 743d 957f 1fbc 30af 823d
000000b0: 0105 cd3d e811 7abd cd81 e3bd 1d15 cebd
000000c0: 32d5 143c b66c 31bd 6cfe 02be 5c31 7cbd
000000d0: d757 91bc 354b 49bd 456c c13d 82dc cd3b
000000e0: a748 153d c0d4 4ebd da6c 823c 0383 a1bd
000000f0: be4f 00be f39e ef3b 0974 aabc d875 4a3b
00000100: 4c81 473e 2c68 f73d 1c4e 5bbd e38d 8c3d
00000110: 3c80 70bd 26de bbbd 28d8 973a 81fa 953b
00000120: 9fe2 0c3e 296e 7e3e d109 ff3d a38a 993d
00000130: bb08 a43b 7e8b cebc b773 b3bd 2e60 33bc
00000140: 0709 953c c78e e63d 9262 eebb 62a1 87bc
00000150: 929d d8bd 6f76 f63c f099 ff3d fe75 2cbd
00000160: 6041 523d 220d 0d3d d4dc c23c 6497 073d
00000170: 2409 f23c 2a53 d8bd fc9b f23a 5139 31bc
00000180: 53e5 e7bc 0916 703d e5c2 0dbe 274e 103c
00000190: 3a03 413d 82f0 963d e175 6d3d 8ec8 9e3c
000001a0: 21a1 9bbd ee83 9a3d 518a fe3d 7703 d9bd
000001b0: 058c b33d 6d3e 12be 63a1 67bd b7ae 863d
000001c0: 6959 083c 652a 78be f623 82bc a6a9 c0bd
000001d0: a038 83bd 0903 e0bc 1fd0 bf3c 417c 123e
000001e0: d556 fc3d 68f5 513d 5929 ab3d a514 4b3d
000001f0: 32f7 11bc 34f9 823d 77cf 7abd f290 65be
00000200: c623 823d 93a6 443d 7017 dc3d 84d1 7e3d
00000210: 02da 0abd e319 3b3d 1fcc 88bd b182 65bd
00000220: a801 4a3d 4b79 303c d825 5cbd bdeb 54bd
00000230: 5d5e 823d b9d8 743d 9684 4dbb b7ba 973d
00000240: 11e6 f4bd f956 77bc 0851 75bd ab1b 463d
00000250: ba09 943c d4fa a7bd 938c 9c3d f30c adbd
00000260: d9bf 77bd 2447 fd3d 3c33 943d fb7a ba3d
00000270: 96c5 4cbd 09b8 8b3d 6bdd 153d 12fd 133d
00000280: c6ac e4bd ce8d 06be 059b a8bd 6475 293d
00000290: 44dd 1fbc 9396 d13c b156 343e 0ac9 60bd
000002a0: 493d 9a3d cf38 893d 14fb a7bd 9155 87bd
000002b0: 0334 e63c 9fa0 a3bc 05e1 74bd a796 58bd
000002c0: de44 f13c 4c12 773d 9479 babc 71ae 723c
000002d0: 3650 97bc 19ee 87bc 0ba8 a0bc c5b6 ff3d
000002e0: 39d3 cabd 470f 703c 00a1 9cbc cd32 173e
000002f0: cde9 403b 70fa 753d 58b9 8bbc ced5 d2bc
00000300: b7ee 913d becd 513c 2478 783d fea6 eebd
00000310: 4367 843d d0a0 923c bc49 9fbc 8d9c f3bd
00000320: 012b 0c3e b5da de3c 7a85 163d d6c9 c5bd
00000330: c4cc 16bc cd45 b23d e133 7dbc 346c a03d
00000340: 8973 aabd 877f b73c 6304 a53d 1480 933d
00000350: 129d c23d 19b9 8c3d 4ba8 d6bb c37b f9bc
00000360: 3228 833d 4604 c4bd 6e98 553d 27ca fe3c
00000370: 0ea5 41bc 4719 da3d f4a2 3b3c 135d e63c
00000380: 8225 bebd 99e4 153d d05d b1bd 0227 69be
00000390: 76ae ad3c f453 86bd c5b5 87bd 9575 aabd
000003a0: ea92 0f3d 5cb9 363d 9968 863d 5f71 a6bc
000003b0: 0d63 443e 33ce 6ebd e25c babd 6f25 2bbb
000003c0: 40d1 323e 59f2 2e3e 86a7 413d f773 c3bc
000003d0: fa85 f13d 719c 873b 81ab 623c 3107 353d
000003e0: 57f5 7cbc cd22 923d ae0a e83d dd09 db3d
000003f0: 1a0c 01be e85c b63c 9105 e43d 3910 18be

layers.1.bias f4 [128]
-0.21729943 -0.19960305 0.16131777 0.037541345 0.04055842 -0.07983375 0.14828198 -0.054417364
-0.025616644 0.11005574 0.0030873572 -0.06143945 0.22087076 0.19969304 -0.10915557 -0.1113296
0.20475616 0.06004581 -0.12918246 -0.036715765 0.14411357 0.46932745 -0.11612559 -0.20207828
-0.22144958 0.088043325 -0.09584189 0.06102281 -0.25672802 0.21777487 0.20412162 0.05433152
-0.039156813 -0.37078068 -0.035223547 0.25536102 -0.070187815 -0.0442421 0.3556315 -0.0069689653
0.009964214 -0.11697044 -0.18705398 -0.32320234 0.19443893 0.058628447 -0.04330486 -0.012968168
-0.21815865 0.07744164 0.15223004 0.027646888 -0.24387786 -0.11488805 0.12974459 -0.2399796
-0.13313103 -0.28471324 -0.0078035635 0.030229352 0.018849833 -0.19183284 -0.0411131 0.10629217
0.14843023 0.060857706 -0.24882951 0.0149058 0.21614976 -0.23078123 -0.012651978 0.07468115
-0.11414322 -0.00990228 0.08316092 0.14203896 0.16198051 0.055761762 0.2593765 -0.032227844
0.047921255 -0.07969238 0.35296583 -0.032748155 -0.056956477 -0.2102625 0.046893585 -0.31841964
-0.20588212 0.13527468 -0.13693461 -0.07668853 -0.13095766 0.049852878 -0.033651333 0.00097086665
0.063254945 -0.13031954 -0.08045578 0.23469843 0.26600695 0.24287522 -0.11041582 0.15644687
-0.26718915 0.05133749 -0.1216873 -0.09503446 0.20081696 -0.3037741 0.06063778 0.013540443
-0.1348001 0.07853394 0.15550184 0.15967573 -0.22786869 -0.048191775 -0.047346685 -0.2499226
0.16811162 0.0849652 -0.11927767 -0.11396888 0.07344874 0.028461426 0.061537933 0.09012806
00000000: be83 5ebe be64 4cbe 7c30 253e f4c4 193d
00000010: 9620 263d e17f a3bd 3bd7 173e bee4 5ebd
00000020: ffd9 d1bc e764 e13d 4255 4a3b efa7 7bbd
00000030: f22b 623e 557c 4c3e f58c dfbd c600 e4bd
00000040: 99ab 513e 98f2 753d 6848 04be 4563 16bd
00000050: 8292 133e b04b f03e 41d3 edbd 9ced 4ebe
00000060: aec3 62be 0f50 b43d c148 c4bd 0ef3 793d
00000070: db71 83be 6000 5f3e 4205 513e ba8a 5e3d
00000080: e562 20bd f7d6 bdbe 9146 10bd aebe 823e
00000090: a1be 8fbd 3437 35bd 5515 b63e eb5b e4bb
000000a0: f140 233c 338e efbd 148b 3fbe c77a a5be
000000b0: 001b 473e 6224 703d 7060 31bd 7078 54bc
000000c0: fb64 5fbe b999 9e3d 31e2 1b3e ba7b e23c
000000d0: 1ebb 79be 6d4a ebbd c4db 043e 36bd 75be
000000e0: 8053 08be efc5 91be 09b5 ffbb 8ca3 f73c
000000f0: f76a 9a3c d46f 44be 3666 28bd b6af d93d
00000100: 18fe 173e ee45 793d 2acd 7ebe 7537 743c
00000110: 5d56 5d3e ea51 6cbe 3e4a 4fbc 6ef2 983d
00000120: ecc3 e9bd 2c3d 22bc 4650 aa3d a972 113e
00000130: 38de 253e 7266 643d ffcc 843e 5801 04bd
00000140: 1449 443d c235 a3bd f0b7 b43e ee22 06bd
00000150: 324b 69bd 0e4f 57be 7d13 403d e607 a3be
00000160: c3d2 52be 7285 0a3e 9638 0cbe e00e 9dbd
00000170: c419 06be 8832 4c3d fbd5 09bd c281 7e3a
00000180: cf8b 813d 7c72 05be 00c6 a4bd c954 703e
00000190: 1032 883e 48b4 783e b021 e2bd 9c33 203e
000001a0: 04cd 88be 4347 523d 3137 f9bd 6da1 c2bd
000001b0: f6a2 4d3e 4788 9bbe 525f 783d bcd8 5d3c
000001c0: 0a09 0abe 67d6 a03d e03b 1f3e 0982 233e
000001d0: 6956 69be bd64 45bd 99ee 41bd b6eb 7fbe
000001e0: 7425 2c3e 3c02 ae3d da47 f4bd 8468 e9bd
000001f0: 4b6c 963d f027 e93c 330f 7c3d 0f95 b83d
