Gym-DDPG-solution/results/DDPG_HalfCheetah-v4_1000-eps0.5-t32-l0.0001-s1.pth (torch, 193979 bytes, 13 tensors)

layers.0.weight f4 [128, 23]
000000 cb 01 97 3e 6b 6f 88 be d8 e8 cd bd 5f e9 20 bd
       0.29493555 -0.26647505 -0.10054177 -0.03928506
000010 05 3d 61 be 7a ac 7c 3e cc cd 2b 3c bd 30 8e 3d
       -0.21995933 0.2467517 0.0104860775 0.0694289
000020 40 6f 57 3e ec 7e 8b bc e2 c2 17 3d 80 e4 a9 3a
       0.21038532 -0.017028295 0.03705109 0.0012961775
000030 c1 eb 17 3d ee a6 a2 bc 19 64 c8 bb dd e6 67 3a
       0.037090067 -0.019854989 -0.006115448 0.0008846352
000040 09 50 99 3c fb 73 2b bd 81 80 94 3d 3a 4a 23 3d
       0.018714922 -0.041858654 0.07251073 0.03986571
000050 5f ca 9c bd 34 40 4e bd 05 fe 72 bc 34 3a 3a bd
       -0.07655787 -0.050354198 -0.014831071 -0.045465663
000060 1b 90 6f be dd 8e 09 be 5c 8a 84 bd 73 c8 9b 3d
       -0.23394816 -0.13433404 -0.064717025 0.07606592
000070 6b 0f 8d be d7 73 1f 3d 65 55 77 3d 16 14 50 be
       -0.27550825 0.038928833 0.060384173 -0.20320162
000080 d9 14 57 3d 73 39 91 be fe 88 08 be d1 a4 96 bd
       0.052510116 -0.28364143 -0.13333508 -0.07355655
000090 3b c9 69 3d 27 62 8a bd ed 31 7a 3c 56 5f 26 bc
       0.057076674 -0.06757002 0.015270692 -0.010154566
0000a0 05 06 0c 3e 0b e0 4c be 10 8e 91 3e 95 ff aa bd
       0.13674171 -0.2000734 0.28428698 -0.0834953
0000b0 e4 71 87 bd 23 9b 3e 3e 26 ab 1a 3d fd d7 84 3c
       -0.0661352 0.18613867 0.037760876 0.016216272
0000c0 e3 6d 78 be b6 92 02 bd 18 71 31 be 03 75 1d be
       -0.24260668 -0.031878196 -0.17328298 -0.15376668
0000d0 00 ce 19 bc 80 88 91 bb db 9a 33 bc 88 7e 58 3e
       -0.009387493 -0.004441321 -0.010962213 0.21142018
0000e0 08 49 d7 bc f7 fe 72 bd e3 d3 33 3d bf 80 2e 3a
       -0.026279941 -0.059325185 0.043903243 0.0006656758
0000f0 e2 c3 bd bc b2 13 ba 3b 60 5a 56 3d eb 40 22 3e
       -0.023164693 0.0056786174 0.052332282 0.15845077
000100 a9 a6 69 be e6 34 25 bd a1 e2 b9 bb dc 36 4f bd
       -0.22817482 -0.04033365 -0.005672768 -0.050589427
000110 bd 60 4b be cc 17 76 be 6d 88 74 3e 5e b5 3f bd
       -0.19861121 -0.24032515 0.23880167 -0.046803825
000120 1e 5b d5 bd eb 18 2f 3e 2d 05 93 3e 27 c7 d8 3d
       -0.1041777 0.17099349 0.28714886 0.1058486
000130 c0 af 25 3e d7 8c ac 3e d1 bc 8f be de e7 69 3d
       0.16180325 0.33701202 -0.28073743 0.05710589
000140 9a 12 39 be 70 bd 83 bd 1b 12 3f bc a6 07 a1 3c
       -0.18073502 -0.06432617 -0.0116620315 0.019656967
000150 46 f4 ea 3b 6e 72 e7 3b d1 3a b0 be b2 e5 11 3e
       0.007170233 0.0070632016 -0.34419873 0.14247778
000160 f0 f2 1d bd ab 72 04 3e c6 61 5d 3e f9 37 2b be
       -0.03856176 0.12934367 0.21619329 -0.1672057
000170 68 0b d0 3d 7d de 14 bd c0 84 31 be c2 bb a1 bd
       0.101584256 -0.036344994 -0.17335796 -0.0789714
000180 31 6f 3a 3c 22 b2 65 3b 9e 07 03 3c b7 10 15 be
       0.011379049 0.0035048802 0.007997422 -0.14557157
000190 44 76 7e 3e 02 d2 d1 3d 4b 33 1c 3e ce 15 2c 3d
       0.24849802 0.10245134 0.15253942 0.042012982
0001a0 0e b0 f5 bd 60 26 f0 bd 88 71 1e 3e bc c1 27 3d
       -0.119964704 -0.117260695 0.15472996 0.040956244
0001b0 52 ab fc 3d a0 1b 37 3d 8f 81 89 3d ef 87 97 3d
       0.12337364 0.04470408 0.067141645 0.07398974
0001c0 03 cf 7f 3e 0e 35 93 bd 37 2a 9b 3d c0 3b 9d 3e
       0.24981312 -0.07187854 0.07576411 0.30709648
0001d0 85 db 78 3d 1e 51 71 3b cf b5 20 be 91 55 7c be
       0.060756225 0.0036822031 -0.15694354 -0.24642016
0001e0 1f a3 37 bd 94 37 04 3d 4f 9e 69 3e 42 b3 67 be
       -0.0448333 0.032279566 0.22814296 -0.22626975
0001f0 4d 33 dc 3d ff 92 df bd 0e f6 0d be 09 5d 41 3c
       0.10751972 -0.10916709 -0.13863394 0.0118019665
000200 47 1e 40 3d 78 a0 c1 3d 80 45 20 bd 5d 1f 3c 3d
       0.046903875 0.09454435 -0.03912878 0.045928348
000210 b2 68 0a 3e 5c 2d 2a 3e e6 ed 0a 3e ea 28 64 3e
       0.135165 0.16618866 0.13567314 0.22281232
000220 0f ad ca 3d d8 13 2a 3d 59 90 4d bd 88 c1 9a be
       0.098962896 0.04152283 -0.05018649 -0.30225778
000230 eb cd 64 bd a7 89 36 3c 6f a5 d4 3b ef 47 b3 3e
       -0.05586044 0.011141217 0.006489448 0.35015818
000240 52 80 af 3d 66 4d 16 3e 17 e2 8e 3d 21 bd 6c 3e
       0.08569397 0.14677963 0.06976717 0.23119022
000250 a8 c0 b1 3d aa 03 f1 3d 6c e9 3f 3c e5 b9 1e 3e
       0.086793244 0.11768277 0.011713367 0.155006
000260 c8 8e 28 bd 9c f4 f4 3c 88 a1 0b be 47 32 58 be
       -0.04115179 0.029901795 -0.13635838 -0.2111293
000270 bd dc f8 bd 0f 4f 46 bd c3 a4 68 3e 13 85 46 3b
       -0.121514775 -0.04841524 0.22719102 0.003029172
000280 3d 5a 30 bd 06 b4 6b 3e 3d c1 89 bc 8b a6 6d 3e
       -0.043054808 0.23017892 -0.016815776 0.23208062
000290 8c ee 3b be 9b 21 f9 3d 35 82 db 3d bd 9b 9e bd
       -0.18352717 0.12164613 0.107181944 -0.077445485
0002a0 b6 c4 52 be 2a 5b 49 be ef c5 9a bd 80 bc cd 3d
       -0.20582852 -0.19663683 -0.07557284 0.10045719
0002b0 69 4b f9 3c 95 aa 6f 3d c6 bd cb 3d 24 fb 2f 3e
       0.030431466 0.05851229 0.09948306 0.17185646
0002c0 bb c2 a9 3d 11 bf 17 3c b8 76 12 be 48 1c 71 3e
       0.08289095 0.009261862 -0.143031 0.23545945
0002d0 af 7f 82 bd 9c 8e 76 bb 06 3f 63 be 59 8b 0c bd
       -0.0637201 -0.0037621623 -0.2219201 -0.03431258
0002e0 54 d3 c0 be 19 9c 4a 3f 74 89 42 be 4f 83 0e be
       -0.3766123 0.79144436 -0.18997747 -0.13917278
0002f0 13 15 01 bd b5 8b c9 be 98 b9 04 3e ca f8 76 bc
       -0.03151424 -0.393644 0.12961423 -0.015073964
000300 7e c7 dc 3d 52 a1 2e 3d 93 b9 13 3e 9d a0 99 bd
       0.107802376 0.042634316 0.1442626 -0.07501338
000310 32 76 7b 3d ec d4 38 3d 6d 56 b5 3d c1 d6 70 bd
       0.061392017 0.045124933 0.08854375 -0.058798555
000320 f3 56 eb 3c ea ea 8e bd 2a 76 22 3e 00 8b 96 bd
       0.028727984 -0.069784 0.15865389 -0.07350731
000330 4d 90 1d 3d e2 1c a3 bb 6d 84 1e bd af d7 f9 3d
       0.038467694 -0.0049778083 -0.03870051 0.121993415
000340 bc cf 16 3e 17 78 9a bc fc ab 39 3e 1d d3 fa 3d
       0.14727682 -0.018856091 0.18132013 0.12247298
000350 e9 01 2e bf 9f 68 e3 3d 64 63 35 3e 1b a7 5b 3e
       -0.67971665 0.11103939 0.17713696 0.21450464
000360 25 9a f0 3d a2 c2 7b be 9a 47 66 bc d2 3b 44 3e
       0.11748151 -0.24585965 -0.014055157 0.19163445
000370 65 99 27 be e2 e8 dd 3d 61 b1 ea bd 44 4e 86 bd
       -0.16367109 0.108354345 -0.114596136 -0.06557897
000380 7b 2d bf 3c d0 a5 ee bd 80 51 c7 bc 04 eb 9b bd
       0.023337116 -0.1165272 -0.024330854 -0.07613185
000390 f4 54 df 3d 91 56 a1 3d 22 5c bd 3d 78 55 0b bf
       0.109048754 0.07877839 0.092460886 -0.5442729
0003a0 fd ad 99 3e fb 86 cc 3c cd b8 3c be 4f f3 6e be
       0.30015555 0.024966707 -0.18429871 -0.23335002
0003b0 55 e6 ac bd 97 30 72 3d 85 18 0a 3e 4a 11 59 be
       -0.0844237 0.05912837 0.13485916 -0.21198002
0003c0 f5 d2 8d be b8 9b 0a 3c 32 26 07 3d d5 fa 51 3b
       -0.2770001 0.008459978 0.03299541 0.0032040377
0003d0 f1 0a 42 bd ca ff 24 bc 24 df d1 bd cb 81 90 bd
       -0.047373716 -0.0100707505 -0.10247639 -0.07056006
0003e0 db 00 a8 bd a7 cf af 3d 2d f1 db 3d e0 56 ea 3a
       -0.08203288 0.085845284 0.1073936 0.0017878674
0003f0 f7 89 09 bd 9a 3f b1 3e b3 cf 79 be 87 b2 7c be
       -0.03357884 0.34618837 -0.24395637 -0.24677478

layers.0.bias f4 [128]
000000 28 30 0f bd 20 a8 39 be d6 7e cf be 19 8a bb 3c
       -0.034958035 -0.18130541 -0.40526456 0.022892999
000010 76 f1 24 be 95 3e 2e be e4 0f 74 bc 71 bd 95 be
       -0.16107735 -0.1701606 -0.014896367 -0.29246095
000020 6b 7a 7f 3e 4c 6f d2 bd 98 3b 72 be 56 bf 8b be
       0.24949042 -0.102751344 -0.23655546 -0.27294415
000030 88 c4 51 be 28 df 6f be c2 5a a6 3d 99 77 f4 3d
       -0.20485127 -0.23424971 0.081227794 0.11936874
000040 a0 4c f7 3c 58 91 43 be d5 f7 93 be e9 d3 4e bc
       0.030187905 -0.19098413 -0.28900018 -0.0126237655
000050 51 ce 53 3e 69 47 40 3e 3a 8b 81 be 7b b6 1e be
       0.20684172 0.18777241 -0.25301534 -0.15499298
000060 32 df 7c be 2d d1 b1 3d dd 2d 80 bd 84 ab e8 3d
       -0.24694517 0.08682475 -0.06258748 0.11360839
000070 fb b6 8c 3e c3 0a 3c bd 66 b1 9e 3c 61 dc 61 be
       0.27483353 -0.0459087 0.0193717 -0.22056724
000080 ca ac 05 bd 01 a6 bd bd cb bb 97 be a3 22 05 3e
       -0.032635488 -0.09260178 -0.29635462 0.13001494
000090 71 ad 9a be 89 8b 62 bd 23 28 4b 3d 78 25 83 be
       -0.3021045 -0.055308852 0.049598824 -0.25614524
0000a0 a6 d6 14 be 17 82 57 3d a5 e8 88 bc d7 89 29 be
       -0.14535007 0.052614298 -0.016712496 -0.16556488
0000b0 02 2b c1 bc 98 82 31 be dd 37 c0 bc b6 f0 71 be
       -0.023580078 -0.17334974 -0.023464138 -0.2362698
0000c0 d6 37 71 3d fd e2 aa 3e df c9 ab be 89 55 46 be
       0.05889114 0.33376303 -0.33552453 -0.19368567
0000d0 f3 ab 98 3e 10 95 35 3e 97 1a 5f 3e f1 08 5e be
       0.29818687 0.17732644 0.21787487 -0.21683098
0000e0 29 11 4a 3d 28 7c 91 bd 87 27 a5 3e ae cf 3c 3e
       0.04933277 -0.07103759 0.3225672 0.18438599
0000f0 7c 18 06 be 58 43 e5 3d 6a 84 5a be 32 57 2a 3e
       -0.13095278 0.111944854 -0.21339574 0.16634825
000100 8d 65 46 be dc 35 97 3e b6 7f 1c be 1f 13 8f be
       -0.19374676 0.2953328 -0.15283093 -0.27944276
000110 98 f0 4e be 93 cb 3b be f2 f6 86 bd ae b6 e0 3d
       -0.20208967 -0.18339376 -0.0659007 0.109723434
000120 35 89 1e 3e fd be 90 be 8e e4 40 be 15 63 1b be
       0.15482028 -0.28270712 -0.18837187 -0.15174516
000130 30 8c 38 be 15 48 06 be 40 68 22 3e 1a e8 bd 3c
       -0.18022227 -0.13113435 0.1586008 0.023181964
000140 20 fb 3d bd c9 f5 e8 bd 38 7d 64 3d 13 53 d8 bc
       -0.04638207 -0.11375005 0.05578348 -0.0264068
000150 a7 0d cc bc a0 e7 c6 bd ec 0c db bd 1e 74 55 3e
       -0.024908854 -0.09712148 -0.10695824 0.20845076
000160 2b 71 9f 3e f9 ed 66 bc 07 2e 6c 3d d5 c0 de bd
       0.31141028 -0.014094823 0.057661083 -0.108766235
000170 c6 f1 0d be 9a 2d b3 be a6 0e fe bd 68 a4 f4 bd
       -0.1386176 -0.3499573 -0.12405138 -0.119454205
000180 fb ff 4a be 51 9c 26 3e 13 f4 16 3b 32 13 42 3e
       -0.19824211 0.16270567 0.0023033663 0.18952635
000190 58 f5 6c 3b a7 60 1b be e7 d1 69 be 23 fd 77 3e
       0.0036156978 -0.15173589 -0.22833978 0.24217658
0001a0 f6 ac bc 3e 90 f3 2a 3d 32 a3 57 be 51 3b 58 3e
       0.3685071 0.041736186 -0.21058348 0.21116377
0001b0 46 f4 ac bd eb fc 3c be 6b 82 73 3e 6a 41 c7 3e
       -0.08445029 -0.18455856 0.2378022 0.38917094
0001c0 3f 8f 49 3e d2 dc 30 3e f5 55 92 3e 15 12 ac be
       0.1968355 0.17271736 0.28581205 -0.33607545
0001d0 54 f3 12 3e 1e 82 ae 3e af 8d 44 be 6a 7a d1 3d
       0.14350635 0.34083647 -0.19194673 0.10228427
0001e0 c1 9d 91 3a 6e 99 71 3d 2c d0 61 3e b0 7f a7 3d
       0.0011109636 0.058984213 0.22052068 0.08178651
0001f0 17 47 09 be 85 35 18 be bc d4 d6 bc 51 92 fb bd
       -0.13406025 -0.14864166 -0.026224487 -0.12283767

layers.1.weight f4 [128, 128]
000000 cd 52 16 3e 5e 5e a8 bd dc fb 9c bd 93 1d c1 3c
       0.14680023 -0.08221124 -0.07665226 0.023573672
000010 a3 62 32 3c d3 02 88 3d 37 ae 67 3c 7c 16 ce 3c
       0.010887775 0.06641164 0.014140657 0.025157206
000020 db 82 88 3c ae b0 0b 3d 9a d6 d5 bd 91 23 0c bd
       0.01666396 0.03410404 -0.104413226 -0.034213606
000030 73 cf a4 3d c6 3b ad bd eb 8a 2b 3d e0 ce 7e 3d
       0.0804738 -0.084586665 0.04188053 0.06220901
000040 32 dc c1 3c 74 ce 7b bd 65 3b 2b bd 23 20 57 3c
       0.023664568 -0.061476186 -0.04180469 0.013130221
000050 39 08 41 bd 05 4a 08 3d 0d bf 44 3d 4f 59 30 3c
       -0.047126982 0.033273716 0.048033763 0.01076348
000060 42 ae 7b 3d 77 b6 b4 bd 67 b2 e9 bd 2f 7f 69 3d
       0.061445482 -0.08823865 -0.11410981 0.057006057
000070 7a 7a 4c bd 1d fa a8 bd c1 92 d2 bc 7c 0f 5d 3d
       -0.04992149 -0.0825083 -0.025704743 0.053969845
000080 fc 00 82 bd 90 de 3a 3d ba 7e 2b 3d 1d 14 33 bd
       -0.06347844 0.04562241 0.041868903 -0.043720353
000090 72 51 05 3d 6b a2 0d 3b ac ee 4c bd 41 18 7c bc
       0.032548375 0.0021611701 -0.050032303 -0.015386642
0000a0 0d 98 09 3d d7 fa 25 3d c6 f8 27 3c a5 4a ad bc
       0.033592273 0.040522423 0.010252183 -0.021153757
0000b0 49 f0 c0 bd f2 f9 44 bd ab f6 4c 3d f4 38 55 bc
       -0.09420831 -0.04808993 0.05003993 -0.013014067
0000c0 7f a3 14 bc e6 a7 b2 3a 7a d9 74 bd c5 de b1 3c
       -0.009072184 0.001363036 -0.059777714 0.02171267
0000d0 aa a7 91 bc 0d 6a d2 bd a4 18 24 bd aa c0 8b bd
       -0.017780144 -0.10274134 -0.04006256 -0.06823857
0000e0 00 b3 04 be b3 6f 7a 3d 10 e6 d7 3c c6 b4 7b bd
       -0.12958908 0.06114168 0.02635482 -0.061451696
0000f0 57 4e 4c bd 68 53 1b 3d 4e 7a 94 3d 65 69 35 39
       -0.0498794 0.03792134 0.0724989 0.00017300768
000100 80 e8 5b bc 5e 6a a7 bd ff ae 8f 3d 2d 22 6b bc
       -0.013422132 -0.08174585 0.070158 -0.01435141
000110 c9 f0 ca bb ef 87 0b bc 11 79 07 3d 7c e2 9d 3b
       -0.0061932546 -0.008516296 0.033074442 0.004818259
000120 1f e8 4b bd 91 3f 6b bc 12 91 18 3b c5 ad 8b bd
       -0.049781915 -0.014358417 0.0023279828 -0.06820253
000130 61 da bb bc 2e b2 e2 bc a2 18 b5 3d 4b 44 1c 3d
       -0.02293128 -0.027672853 0.08842589 0.038151067
000140 b8 fb 88 bc 3c c9 74 3d 1c 0d 71 3c f4 36 8a 3d
       -0.016721591 0.059762225 0.014712598 0.06748763
000150 07 3f 9e 3b 5f 90 1d 3d de 4c 46 3d 2b bc 51 bd
       0.004829291 0.03846776 0.04841315 -0.05120484
000160 39 86 9c bd c2 e0 53 bd 96 dd 86 3d 1f 6b 47 3d
       -0.076427884 -0.051728018 0.06585233 0.048686143
000170 8a 10 d2 bc f1 f3 af bc 57 33 a1 3d 3b 4b 8c 3c
       -0.025642652 -0.021478625 0.078711204 0.017125716
000180 59 86 2d bd dd 10 19 bd ee 37 bb bc c8 eb 4d 3c
       -0.042364452 -0.037369598 -0.022853818 0.012568422
000190 74 20 c9 bc 27 06 01 bb 10 b1 84 bd a1 75 19 3d
       -0.024551608 -0.0019687505 -0.064790845 0.037465695
0001a0 65 3d 58 bd 9b b1 dd 3d a7 3b c9 3d 2e 9a 51 3d
       -0.052792925 0.10824891 0.09825831 0.051172428
0001b0 47 62 82 bd 42 ed 3a bd 86 3f d6 bc d5 19 b4 bd
       -0.06366401 -0.045636423 -0.026153337 -0.087939896
0001c0 05 6a 1c 3d f1 d7 3f bd ce 21 31 3c b8 47 7a 3d
       0.038187046 -0.046836797 0.010811282 0.061103553
0001d0 34 f8 77 bd 45 9a 45 3d f3 64 4b bc fc fd af 3d
       -0.06053944 0.048242826 -0.012414205 0.085933656
0001e0 d8 5b 9b 3d 3b 06 ac bc 90 5f 55 bd 8a 84 68 3d
       0.07585877 -0.020999065 -0.05209309 0.056767024
0001f0 82 8c c5 bc a7 a5 c4 3d 8b 59 b0 3d 47 2a 51 3d
       -0.02411485 0.09601908 0.08610829 0.05106571
000200 f1 b1 9b bd 53 1d b4 3d 71 93 13 3e df fa 87 bc
       -0.07602299 0.08794656 0.14411713 -0.016599117
000210 81 e6 63 bd 84 2c 1f 3a e9 7a 80 3d d4 4c aa 3d
       -0.055639748 0.0006072002 0.06273443 0.08315435
000220 bd 4b d5 bd b2 98 96 3d 79 eb ee bc 4c 45 4a 3d
       -0.104148366 0.07353343 -0.029165016 0.049382493
000230 4e bc 14 bd 83 37 3d bd bc b7 a3 b9 ee 8d 79 bc
       -0.036312394 -0.04619552 -0.00031226675 -0.015231593
000240 2a 83 87 bd 4d 40 72 3c d6 b4 8f 3d 00 3b d5 bb
       -0.066168144 0.014785838 0.070169136 -0.0065072775
000250 08 76 2b bd 46 a7 a6 3d 37 77 95 bd 9a 83 25 bd
       -0.04186061 0.081373736 -0.07298129 -0.04040871
000260 af 70 ae 3d d1 93 24 3d 65 7f 90 3c 3b 2a c4 bd
       0.085175864 0.04018003 0.017638871 -0.09578367
000270 43 98 c2 bc ac bc 83 bd 73 38 9d 3c a2 21 e9 3d
       -0.023754245 -0.06432471 0.019191956 0.11383368
000280 03 1d 5c 3d 33 0e b0 bc 40 7c 57 3d bb 30 a9 bd
       0.053738605 -0.021491146 0.05260873 -0.08261248
000290 bf 63 79 bb 63 01 ad 3d 96 21 c3 3c 4c 84 2a bd
       -0.0038053838 0.0844753 0.023819726 -0.041630074
0002a0 61 e4 d5 3c 05 ec 08 bc f4 79 cc bc 3d b6 69 3d
       0.026109876 -0.008357053 -0.024960496 0.05705856
0002b0 65 a9 9e bd 34 7d a6 3d 50 b6 c6 bd 5a 41 fe 3c
       -0.07747153 0.08129349 -0.09702742 0.031037021
0002c0 ce 34 ad bd 01 95 98 bc d1 ad ed bc 30 82 10 bd
       -0.08457337 -0.018625738 -0.029013546 -0.035280406
0002d0 0b 3e 03 3d e0 b8 a9 bd 71 92 82 bd 5b 22 9e 3d
       0.03204159 -0.08287215 -0.06375588 0.077213965
0002e0 ba ad 09 3d 76 18 0c 3c eb 2e 92 bc d0 df d4 3c
       0.033612944 0.008550754 -0.017844638 0.025985628
0002f0 63 24 09 3d 74 12 04 bc 5f a4 d2 3a a8 64 c3 bc
       0.033481967 -0.00806104 0.0016070715 -0.023851708
000300 71 b1 dc 3d 62 7d cf bd 30 57 5d bd dc 8c 8e bd
       0.10776032 -0.10131337 -0.054038227 -0.069604605
000310 8c e5 8f 3c fd 6a 34 bd ac 11 55 bc fe 5a 97 bc
       0.017565511 -0.044047344 -0.013004702 -0.018476006
000320 ea 09 cf 3c 75 bf 9b bd 48 27 16 39 5c 8b 78 3d
       0.025273282 -0.07604877 0.00014319748 0.06067978
000330 af a0 8e 3d a2 57 84 bd 15 e6 06 bd b7 30 3c 3d
       0.06964242 -0.06462027 -0.032934267 0.045944896
000340 41 a3 3f 3d 95 c0 20 3d 4d 14 42 3c 39 e6 bd bc
       0.04678655 0.03924616 0.01184566 -0.023181068
000350 8b 44 76 3d b7 a8 7f 3d e8 31 a8 bb fc 31 36 bd
       0.06012396 0.06241676 -0.0051329024 -0.044481263
000360 a7 20 9e 3c e7 df 8f 3d 23 2d ee bc 84 5c b1 3c
       0.01930268 0.07025128 -0.029074257 0.02165056
000370 69 14 f8 3b 90 19 49 3c 1e 68 77 bd 58 a3 87 bb
       0.0075707925 0.012274161 -0.06040203 -0.004139345
000380 a3 13 05 3d 97 21 ab bd 2b 57 5d bd eb 3e b5 3c
       0.03248943 -0.08356016 -0.054038208 0.022124728
000390 88 61 36 bd 79 0f c3 3d fe 59 45 bd 3c 00 ba 3d
       -0.044526607 0.095244355 -0.048181526 0.09082076
0003a0 53 b3 84 bd fa b9 7a bd 6f ed a6 3b 5b ce b6 bc
       -0.06479516 -0.061212517 0.0050942223 -0.022315195
0003b0 2c 0f bf 3c 4b 13 ea 3c 3e 4f a7 bd 0b 55 30 3d
       0.023322664 0.028573653 -0.08169411 0.043049853
0003c0 b8 29 8d 3c c4 34 56 bd 64 2c 7f bc 0e 47 b8 3c
       0.017231807 -0.052296415 -0.015574548 0.022494819
0003d0 7c 84 aa bd 95 09 8e 3d 56 f7 b6 bd cb fb 72 bd
       -0.08326051 0.069354214 -0.08933894 -0.05932216
0003e0 38 6b 63 3d b5 d2 e4 bc 0f d5 c3 bd b7 b9 82 bc
       0.055522174 -0.027932504 -0.09562122 -0.015957696
0003f0 27 09 58 3b ea 83 0e bd e6 82 09 bd 87 2b 57 3d
       0.003296444 -0.03479377 -0.0335721 0.052531745

layers.1.bias f4 [128]
000000 3a db e6 bd d0 ea b7 bd 63 b8 27 bc a8 d0 c3 bd
       -0.11272283 -0.08980334 -0.010236832 -0.095612824
000010 94 4e 2b 3d 7d bc b8 bc c0 58 18 3e 84 49 a2 3d
       0.041822985 -0.022550816 0.14877605 0.07924178
000020 b8 79 d5 bd bc 1e e5 bd 24 6d c6 3d 39 49 dc bd
       -0.10423607 -0.11187503 0.09688786 -0.107561536
000030 f2 fc 36 3d 1e 41 fc 3c 53 3e de 3d ad 56 0c 3d
       0.04467482 0.030792769 0.10851731 0.034262348
000040 79 61 06 be a6 cf 7e bb f7 af 8a bc b9 19 22 bd
       -0.1312312 -0.0038881092 -0.01692961 -0.039575312
000050 7a 79 9c 3d 71 e8 e3 bd c6 a1 7d bc 48 89 84 bd
       0.07640357 -0.11128319 -0.015480464 -0.06471497
000060 78 1d 2e 3e f4 84 98 3d b3 ce b3 bd 32 98 21 be
       0.17003429 0.07447234 -0.08779659 -0.15780714
000070 7c af 20 bd 8e b5 ab bc 96 bc 4e bb 9f 42 2b 3b
       -0.039229855 -0.020960595 -0.0031545511 0.0026132239
000080 39 51 0f 3c e0 ba f6 3d 24 7e c9 3d 2b b6 c9 3d
       0.008747392 0.12047362 0.098385125 0.09849199
000090 cc 45 af 3c 7d 64 1f be 19 a7 df bc d0 ec 02 3e
       0.021395586 -0.15565677 -0.027301358 0.1278565
0000a0 ea 02 2f bd d9 4f 8c 3d 53 84 ba 3d c3 74 1b bd
       -0.04272739 0.06851167 0.0910727 -0.03795315
0000b0 2c a5 d7 bd b7 dd 62 bc 72 54 43 bc 12 08 31 be
       -0.10529551 -0.013846806 -0.011921989 -0.17288235
0000c0 b4 c5 fb bd 9c 9e 9d bd f1 b2 1d bd fd 5e f9 bd
       -0.12293568 -0.07696268 -0.03850073 -0.12176321
0000d0 e5 3b 85 bd f6 31 e9 bd 91 1e 8b 3d 3d 61 92 bd
       -0.065055646 -0.113864824 0.067929395 -0.07147453
0000e0 1e db 05 3e c8 5b bd bd 39 af 77 3d 40 3e 0f be
       0.13071868 -0.092460215 0.06046984 -0.1398859
0000f0 2e a2 0c be 7d 40 8d 3d 8e 48 0e be 18 7d 23 be
       -0.13733742 0.06897066 -0.13894865 -0.15965688
000100 a9 b5 14 be c0 98 9f bc 93 88 d9 3d ae 64 c4 3d
       -0.14522423 -0.019482017 0.106217526 0.095895156
000110 4b 96 ae bd 0b d1 43 3c 05 ff d8 bd 1c d7 7e bd
       -0.0852476 0.011951695 -0.10595516 -0.062216863
000120 f4 41 9e 3d f3 ec db 3d 74 ca 60 bd 02 64 1b be
       0.07727423 0.10738554 -0.054880574 -0.15174869
000130 e7 0b 25 be 4a 40 f3 3c ec 29 f7 3c e5 dd 30 be
       -0.16117822 0.029693741 0.030171357 -0.17272146
000140 c6 38 7b bc 22 75 bb 3d b7 fd 17 3e ec 9e e2 3d
       -0.01533336 0.09153201 0.14842878 0.11065468
000150 a8 80 b9 3c 59 dc 02 3d 50 38 1b 3d d5 5b b8 bc
       0.022644356 0.03194842 0.0378955 -0.022504726
000160 85 f5 8e bc 43 0a 6f 3d 1d 2a 99 bd 36 2a b1 3d
       -0.017451057 0.058359396 -0.074787356 0.08650629
000170 49 e0 69 3d 96 89 20 3d 5f 9e 88 bd e9 84 06 3d
       0.05709866 0.039193712 -0.06670832 0.032841597
000180 20 fc 11 bd b3 a6 9b bd 90 d0 ea bd 06 74 01 be
       -0.035640836 -0.07600155 -0.114655614 -0.12641916
000190 19 12 9d bd 3b 9e bc bc 6a f1 72 bd 54 b6 b4 bd
       -0.076694675 -0.023024669 -0.05931226 -0.08823839
0001a0 6f 25 ac 3d 6f a7 32 bd ff 58 ad bd 52 19 a7 bd
       0.084055774 -0.04361671 -0.0846424 -0.08159126
0001b0 a0 82 91 3d 28 60 2f bc e8 09 ee 3c c4 a9 37 bd
       0.07104993 -0.010704078 0.029057458 -0.044839635
0001c0 10 3b 07 3d 68 5d 93 3d c5 36 e2 3d cf 05 44 bc
       0.03301531 0.0719555 0.11045603 -0.0119642755
0001d0 69 53 bc bc 4b 28 cc bd 44 63 25 be 41 ac 44 bd
       -0.022988992 -0.09968623 -0.16151148 -0.048015837
0001e0 5d e3 b4 bc 0c 7b ba bc de ff 02 3e eb 3c ac 3d
       -0.022081072 -0.022763751 0.12792918 0.08410057
0001f0 53 54 d6 bd 48 90 05 be ce c6 94 3c 4b c6 85 bd
       -0.10465302 -0.1304332 0.018161204 -0.06531962

layers.2.weight f4 [64, 128]
000000 df da 82 3d 92 be d1 bc a8 11 dc bd 47 72 c3 3d
       0.063894026 -0.025603566 -0.10745555 0.09543281
000010 42 bc 6f bd 76 23 3d bd 4a cc d9 3d b4 73 5f 3d
       -0.058529146 -0.046176396 0.10634668 0.054553702
000020 7e 3d 2e 3d 56 02 a1 3d 0f 90 bb 3d 0e 28 07 3e
       0.042539112 0.07861774 0.09158336 0.13198873
000030 13 2e f4 bc 5c d4 26 bd 89 36 85 3d 0f 73 25 bc
       -0.029807126 -0.040729865 0.065045424 -0.010098233
000040 a0 f5 80 3d 73 0e 27 3d 27 dc 98 3d a8 da 9b 3c
       0.06296849 0.040785264 0.07463866 0.019025162
000050 86 28 e7 3c df 7a 82 3d d2 74 5d 3c f6 8c d5 3c
       0.028217565 0.06371092 0.013516622 0.026068192
000060 71 2a c6 3c 57 0b bc bd 19 c1 1f bd dc 16 06 3d
       0.02419016 -0.091818504 -0.03900251 0.032736644
000070 f2 1a a7 bd 02 98 40 bd ee 57 ec 3c f3 88 8f bd
       -0.08159436 -0.047019966 0.028850522 -0.07008543
000080 0b 30 9f bd aa f7 b3 3d c5 d0 62 3d 33 33 f1 bd
       -0.07772835 0.087874725 0.05537488 -0.117773436
000090 d7 b6 ac 3d 1b 0d 01 bd d5 97 cf 3d 06 66 bd 3d
       0.084333114 -0.03150664 0.101363815 0.09247975
0000a0 d6 a6 bf bd 28 38 01 3e b2 e7 ac ba 22 0d 1a bc
       -0.09357993 0.12619078 -0.0013191609 -0.009402545
0000b0 b3 17 5f bc 13 7e b5 3d 0d 98 9c 3d ee 3c 21 3d
       -0.01361649 0.088619374 0.07646189 0.039364748
0000c0 c4 4a 09 be 6e e9 fc 3c 99 56 c3 3d 17 6a 89 3d
       -0.13407427 0.030873027 0.095380016 0.06709688
0000d0 74 52 9c bd f7 bc 00 bd f1 b8 a9 3d 7f 8f be 3d
       -0.07632914 -0.03143021 0.08287228 0.093047135
0000e0 39 8d b5 3c d8 ef 49 3d 68 6d c4 3d f6 84 62 bd
       0.022162067 0.049301 0.0959118 -0.055302583
0000f0 87 e4 dd bc dd 13 13 bd 2f f5 03 be e1 c3 2b bd
       -0.02708651 -0.035907615 -0.12886499 -0.04193485
000100 c3 cd 8b 3d 76 15 af bd 08 20 be 3d ab ae ac 3d
       0.06826355 -0.08549015 0.09283453 0.08431753
000110 58 98 a4 bc 27 1f b5 bd 06 f5 3a bd 86 77 84 3d
       -0.020092174 -0.088438325 -0.04564383 0.0646811
000120 ca 42 d6 3d 80 7c 48 bd 8c 4b dc 3d 5b 1a 15 3c
       0.10461958 -0.048946857 0.10756597 0.009100522
000130 43 69 0a bd 94 5e 36 3c 0c 61 c7 3d 1b 0e c5 bd
       -0.03379179 0.011130948 0.09735307 -0.09621831
000140 81 ec 23 3d 3e 9a e0 3b 4a e3 26 3d 9b 02 4e bc
       0.04002047 0.0068543246 0.040744103 -0.012573863
000150 14 d2 8b 3d 1d ff 26 bd 94 99 24 bd 20 67 6a 3d
       0.068271786 -0.04077064 -0.040185526 0.057227254
000160 e9 6b 36 3c 1c 29 8f bd b4 40 63 3d 27 61 17 3d
       0.011134126 -0.06990263 0.055481628 0.036957886
000170 aa c4 38 3d ee 97 db 3d e2 fd 91 bd 03 ce 35 3d
       0.04510943 0.10722338 -0.071285024 0.04438592
000180 c1 da bb bc bf 87 09 3d 59 d4 b5 3c bb 1f 0e 3e
       -0.022931458 0.033576723 0.022195982 0.13879292
000190 4a 54 ed bd 7a 46 3b 3d bf d3 22 3d a5 10 a2 bb
       -0.115883425 0.04572151 0.039752718 -0.004945832
0001a0 b5 9a 56 3d 31 96 13 3c 2b ce a7 bd 8b e2 3c bb
       0.052393634 0.009007976 -0.0819362 -0.0028821554
0001b0 a5 72 50 3d 4f ef c3 3d be 43 a9 38 05 5b 91 3d
       0.050890584 0.09567129 8.071166e-05 0.07097439
0001c0 e7 14 b8 bd 1a 8d 08 bc 4c 4f 03 bc 3f c5 6a bc
       -0.08988362 -0.0083344225 -0.008014511 -0.014329254
0001d0 13 bc 08 3d d0 1b 25 3d 2f 81 fa bd 6e 30 90 3c
       0.033382487 0.040309727 -0.12231671 0.017601218
0001e0 65 b3 c9 3c 39 01 30 3d 54 e9 83 3b 4a 44 9a 3b
       0.024621675 0.042969916 0.0040256176 0.0047078477
0001f0 78 9b 57 3d fd 59 5e bd f3 0c 73 3d 5d f3 13 3e
       0.0526385 -0.05428504 0.05933852 0.14448304
000200 2f 83 cb bd 22 29 49 bb 00 60 3f bc e6 eb d7 3d
       -0.09937131 -0.0030694683 -0.011680603 0.10543041
000210 d6 e7 6f 3d 6a 46 88 bc ab ea 95 3c f7 9e 96 3c
       0.058570705 -0.016635139 0.018300375 0.018386347
000220 e3 2d 39 bd f2 ee 46 bd 5c 78 52 bd 67 6c 43 bc
       -0.045209777 -0.04856772 -0.051384315 -0.011927701
000230 0a 3c 50 bd e5 89 cd bd 84 54 dc bc a4 12 45 bd
       -0.050838508 -0.10036067 -0.026895769 -0.04811348
000240 2f d8 8f bd af f6 a3 bd 1e 4a 5f bd e5 66 90 bd
       -0.070236556 -0.080060355 -0.054514043 -0.070508756
000250 b8 48 3b bd 3e 9c 3a bd 88 4f 03 3c 21 1d d5 bc
       -0.045723647 -0.04555916 0.008014567 -0.026014866
000260 13 30 24 bd cd 6c 1e bb 96 7e 28 bd fd bd 5a 3b
       -0.04008491 -0.0024173737 -0.041136347 0.0033377402
000270 3e a8 b7 bd 66 43 b8 bc 04 4c 9c 3d 60 1c 25 bb
       -0.089676365 -0.022493076 0.07631686 -0.0025193915
000280 76 89 90 3d 98 f7 a6 3d 3f a9 dd bb 68 2e 4c 3d
       0.070574686 0.081526935 -0.0067645605 0.049848944
000290 21 d1 f6 3c 3c c8 aa bd 19 d1 24 bd 86 45 15 3d
       0.030129017 -0.08338973 -0.040238474 0.036443256
0002a0 97 11 dd bd f7 ee 19 bd fc cb ad bc 29 2b ac 3c
       -0.107943706 -0.03758141 -0.021215431 0.021016674
0002b0 a1 f3 93 3c d2 7b ae 3d 06 62 a9 bc 7c bb 6c bd
       0.018060507 0.085197106 -0.020676624 -0.057795987
0002c0 6c 01 30 3d ff 3e 71 3d 00 c1 9e bc 43 e0 8b 3d
       0.042970106 0.05889797 -0.019379139 0.06829884
0002d0 08 21 19 3c 22 cd 8f bd ba b0 37 bd 39 d5 6a 3d
       0.009346254 -0.07021548 -0.044846274 0.05733225
0002e0 11 92 51 3d ef 2c 15 3d 20 72 89 3d 9d de d1 bd
       0.05116469 0.036419805 0.06711221 -0.10247538
0002f0 ef c3 aa 3c 48 44 fd 3c 62 b9 4c bd 1a 46 c3 bd
       0.020845382 0.030916348 -0.049981482 -0.09534855
000300 06 ed fe 3c 94 a5 c3 bc 43 d8 ff bb 31 9b 4c 3d
       0.031118881 -0.023882665 -0.007807763 0.04995269
000310 07 57 cf 3c 10 c3 d5 38 4d e8 04 bd 1d 21 78 3d
       0.025310053 0.00010192965 -0.0324481 0.060578454
000320 5a 53 01 3d 96 b1 d3 bb 5d 27 80 3d bd a7 55 3c
       0.03157363 -0.006460379 0.06257508 0.01304048
000330 5d 4c 14 be 7e da ec bc be 20 6d 3d 62 2e e3 bd
       -0.14482255 -0.028912779 0.057892554 -0.11092831
000340 6a 62 06 be 97 62 7b 3d 47 fa ee 3d e9 d2 ed 3b
       -0.1312348 0.06137332 0.1166883 0.0072578085
000350 9d 9b a5 bc d0 dc 98 bb 52 2b 03 3d 68 c5 c2 3d
       -0.020215804 -0.004664995 0.032023735 0.095103085
000360 e5 75 43 3d a2 b6 bb bc 33 a6 8f 3d 8e 39 bc bc
       0.047719855 -0.022914235 0.07014122 -0.022976663
000370 05 93 ab bd 94 02 1a bd 78 13 48 bd fd f6 05 3d
       -0.08377651 -0.037600115 -0.04884669 0.03270625
000380 85 3a 4a bc c1 e4 cc bd 3c 9e ef 3c 4f 64 17 3e
       -0.012343054 -0.10004569 0.029250257 0.14784358
000390 ee 6c 85 3c 78 71 44 3d 6d 9c 94 3c 1e 12 ad 3d
       0.016287293 0.047959775 0.018140996 0.08450721
0003a0 70 b2 a6 3d df d5 3a bd 81 ce 32 bd 97 84 0b 3d
       0.08139503 -0.04561412 -0.04365397 0.034061994
0003b0 c3 4a d1 bd 36 36 09 3d f6 a6 a0 3d dc 3d 97 bb
       -0.10219338 0.033498965 0.07844345 -0.0046155285
0003c0 9e 6f 1b bd 10 4e af 3d 09 e0 10 bd 44 8f cf 3d
       -0.037948243 0.08559811 -0.035369907 0.101347476
0003d0 9f d3 04 3d 1d 74 d2 3d ac 19 0c 3d db de 41 bd
       0.03242838 0.10276053 0.03420417 -0.047331672
0003e0 be 25 06 bd a4 e3 9f bd a0 b3 94 3b 54 f2 9e bd
       -0.032750838 -0.07807091 0.0045380145 -0.07761064
0003f0 4e 60 2f bc f4 4e e1 3c 25 e1 2f 3b 40 de 2d 3d
       -0.010704113 0.027503468 0.0026837077 0.042448282

layers.2.bias f4 [64]
000000 41 f6 8a 3d a8 6e bc b8 4c f8 74 3d 12 47 ca 3c
       0.067852505 -8.98515e-05 0.059807107 0.024692092
000010 86 4f 24 bd 71 68 87 3c 25 de 12 bd d3 d0 5e 3d
       -0.040114902 0.016529294 -0.035856385 0.05439837
000020 8d 2c b6 bd af 1b 92 bd 5a 26 ba 3b 8f 00 12 bd
       -0.08895216 -0.071341865 0.0056808414 -0.035645064
000030 09 a7 9a bc 22 af 37 bc f2 5e 0c bd a4 a4 86 3d
       -0.018878477 -0.0112111885 -0.034270234 0.065743715
000040 f3 a9 8f bc 6e b0 df 3c 64 9a 74 3c 2b 37 91 bc
       -0.017537093 0.027305808 0.014929388 -0.017726501
000050 3a 32 88 3d 04 28 e4 3c af a6 94 bd f0 45 f9 bd
       0.06650205 0.027851112 -0.07258355 -0.12171543
000060 85 4e 90 3d d3 9d e7 bc 47 38 13 3b e7 81 f9 bc
       0.070462264 -0.028273499 0.0022463964 -0.03045745
000070 c4 f7 d2 3d 43 77 ad bd ea 09 c4 3c d2 71 31 bd
       0.10301164 -0.08470013 0.023930509 -0.043321438
000080 7a a3 b9 3d e7 90 c9 3c f3 1b 03 3e e2 77 08 3d
       0.09064384 0.024605228 0.1280363 0.033317454
000090 68 39 3a 3d 78 0e 9b 3c b7 a4 92 3c fd ba 24 3d
       0.045464903 0.018927798 0.017900808 0.04021739
0000a0 4b d8 1a bd d1 e2 b7 3d e6 3b 33 3d fe ee 18 3c
       -0.03780393 0.08978809 0.043758295 0.009334324
0000b0 69 40 d8 bd ea 46 1f bd bf 1d dc bd a6 6e 0d be
       -0.1055916 -0.03888599 -0.10747861 -0.1381174
0000c0 30 06 97 3d ad 15 a1 bd 89 44 74 bc aa 39 94 3c
       0.07374227 -0.078654625 -0.014908918 0.018093903
0000d0 47 46 34 3b 29 01 0e 3e fa b1 1f bd 44 8a f2 bd
       0.002750771 0.1386763 -0.03898809 -0.11842778
0000e0 9c 76 36 3d f8 66 ea bd e9 86 3d bd ff 4a 5f 3d
       0.04454671 -0.11445421 -0.04627124 0.05451488
0000f0 0c 85 0d be 1a e7 e4 bd c9 92 86 bb 0c 2f 9a bc
       -0.13820285 -0.111768916 -0.0041068536 -0.018821262

readout.weight f4 [1, 64]
000000 6f e4 56 be 21 95 43 be a4 15 00 be 7d eb 31 3e
       -0.20985578 -0.19099857 -0.12508255 0.17374988
000010 58 84 6b 3e 2a 4c 8f 3e d9 67 66 be 82 00 63 be
       0.22999704 0.27987796 -0.22500552 -0.22168162
000020 07 11 5b 3e dc 29 85 3e 0a 8d 7a be 2b 65 ce 3d
       0.21393214 0.260085 -0.24467865 0.1007789
000030 66 eb c4 bd e1 5a 3f be 53 61 93 3e a3 40 3e be
       -0.09615211 -0.18687011 0.2878519 -0.18579344
000040 1c 4c 2e be b1 14 00 3e 15 de 2b 3e 61 63 95 bd
       -0.17021221 0.12507893 0.16783936 -0.07294346
000050 fe b4 57 be 26 ff 4f 3e 28 09 48 3e b1 ff 4a 3e
       -0.21065137 0.20312175 0.19534743 0.19824101
000060 14 db 25 be e6 74 7a be b9 d5 7f be a6 c4 66 3e
       -0.16196853 -0.24458656 -0.24983872 0.22535953
000070 e9 78 2a be 16 74 86 3e be 54 06 3e b6 eb 7d bc
       -0.16647686 0.26260442 0.13118264 -0.015498092
000080 8c 4e 84 be f6 3e 61 3e 0e bf 1b be bb 21 56 be
       -0.25841177 0.21996674 -0.152096 -0.20911305
000090 26 c2 0a 3e 49 79 91 be f0 81 64 be ec 85 59 3e
       0.13550624 -0.28412846 -0.22315192 0.21242493
0000a0 84 02 9a be fa ca 55 be af 3a ff bd 7f 95 5d be
       -0.30080044 -0.2087821 -0.12462365 -0.2163906
0000b0 48 c5 99 3e bd 05 9e 3e c5 a3 3b 3e a1 1f 66 3e
       0.30033326 0.30863753 0.18324192 0.22473003
0000c0 74 bd 47 be 12 42 44 3e 25 34 a6 3e 4b 2a 18 be
       -0.19505864 0.19165829 0.32461658 -0.14859883
0000d0 ab b4 73 be 00 58 99 be 28 90 1c be 28 6c 4c 3e
       -0.23799388 -0.2994995 -0.15289366 0.19963133
0000e0 16 c5 3f be fc 6e 3b 3e 23 0e 5b 3e b4 4d fb 3d
       -0.18727526 0.18304056 0.21392111 0.1227068
0000f0 ed be 13 3e 20 78 65 3e 61 96 39 be e7 6d b3 3e
       0.14428301 0.22409105 -0.18123771 0.35044786

layers.0.weight f4 [128, 17]
000000 03 bb 40 3e 81 d6 2b 3e 96 e7 09 3f 84 4f b4 3c
       0.1882134 0.16781045 0.53869 0.022010572
000010 c8 11 1c be 29 94 40 3e 16 15 8e be 25 5a 39 be
       -0.15241158 0.18806519 -0.27750462 -0.18100794
000020 57 ed d6 bd 6d a3 62 be 61 bc b7 3d 01 f2 be bd
       -0.10494488 -0.22132654 0.08971477 -0.09323502
000030 b8 81 02 bc e4 06 b0 bd cb 8d 98 bc 8e 5f cc 3d
       -0.007965498 -0.08595064 -0.0186223 0.09979163
000040 eb 6b c9 bc 13 af 06 be 7b b0 ff be 96 97 c5 3d
       -0.024587592 -0.13152723 -0.4993933 0.09648053
000050 38 c8 6a 3e e7 68 b9 3e d2 8a da be 4e c5 b6 be
       0.2292794 0.36212847 -0.42684036 -0.35697407
000060 97 b8 20 3e 5a d2 b7 be c8 14 33 be c4 21 08 3d
       0.15695415 -0.35902673 -0.17488396 0.033235326
000070 49 2d a9 bd 75 0c dd 3d 9c 41 c9 3a 62 9d 34 3d
       -0.082605906 0.107933916 0.0015354636 0.044095404
000080 32 5e 34 3c b9 60 ce bd 33 07 61 3e 6b 30 f3 bd
       0.011008786 -0.10077042 0.21975403 -0.11874469
000090 5e a9 cb 3e ea ec 34 3e 7b 3f 03 3e 78 62 3d 3e
       0.39777654 0.176685 0.12817185 0.18494594
0000a0 07 e9 c6 3b 75 0f a2 3e 9e 0f 51 be d3 39 b0 3e
       0.0060702595 0.31652418 -0.20416114 0.34419116
0000b0 ed 9e 47 be 98 d4 41 bd a6 09 16 3e b4 ef 99 3d
       -0.19494219 -0.047321886 0.14652118 0.07516423
0000c0 9c 5f 39 3e 28 68 b8 3c 6c 99 ec 3d 59 05 0b bd
       0.18102878 0.022510603 0.115527004 -0.033940647
0000d0 d1 c0 4d be ed 37 c0 3e ee a3 26 bd d9 8e 14 3e
       -0.20093085 0.37542668 -0.04068368 0.14507617
0000e0 f6 54 ab bd 54 f7 40 3e f0 22 ac 3e 34 19 02 3e
       -0.083658144 0.18844348 0.33620405 0.12704927
0000f0 2a 92 df bc 9f 52 58 be 36 45 87 3d d2 dc fe 3d
       -0.027291376 -0.21125267 0.06604998 0.12444462
000100 a6 04 dd bc 28 3d 06 be 1f 4c 01 be 2f 33 c9 bd
       -0.026979756 -0.13109267 -0.12626694 -0.098242156
000110 17 02 fc bd 55 d6 e4 be 85 a4 9c be 7b 1e 95 3e
       -0.12305086 -0.44694772 -0.30594268 0.29124817
000120 39 f8 5a be 33 27 66 be 36 5e e7 be 7c 75 67 3e
       -0.21383752 -0.22475891 -0.45189065 0.2260341
000130 6f e8 3c 3e 2c 48 c7 3d 69 95 03 3d d8 c5 a7 bd
       0.18448041 0.097305626 0.03212491 -0.081920326
000140 8e 53 d1 bd dd f1 95 bd b7 5c 3f 3d de 47 8a 3c
       -0.10221015 -0.073215224 0.04671928 0.016879972
000150 55 1f 73 bd 6d 8f fb 3e d9 2c 09 bf 19 56 66 3e
       -0.059356052 0.49132863 -0.5358406 0.22493781
000160 be b8 37 be 26 09 fd bd 02 56 f3 bd 32 67 ae be
       -0.17941567 -0.123552606 -0.11881639 -0.34063107
000170 e9 6d ec ba 5e ed f3 be 1c 37 65 be e3 00 e7 bd
       -0.0018038127 -0.47642034 -0.22384304 -0.11279466
000180 67 42 e2 bc 16 41 15 3e 1c 5c 5f 3d d8 37 05 be
       -0.027619554 0.1457561 0.0545312 -0.13009584
000190 b4 5f f0 bd 72 42 1f 3d a3 41 b6 3e 5b 7e 14 be
       -0.11737004 0.038881727 0.35596952 -0.14501326
0001a0 78 24 44 3e 36 37 1b be 8e 60 ad 3d b3 04 8e be
       0.19154537 -0.1515778 0.08465682 -0.2773796
0001b0 d2 7f 9c 3e 88 67 91 bc 21 73 4b be 29 d9 5b 3e
       0.3056627 -0.017749563 -0.19868137 0.21469559
0001c0 64 77 af 3c 55 40 3d 3e a8 85 91 3d d1 f1 61 be
       0.021419235 0.18481572 0.07105571 -0.22064902
0001d0 22 8c 35 be af f8 23 be f8 fb 05 3e 93 4b b3 bd
       -0.17729238 -0.16012834 0.130844 -0.08754649
0001e0 d6 f0 a5 be 80 52 d9 be 7c 72 3c be 74 ed 60 bd
       -0.32410306 -0.42445755 -0.18403047 -0.054913953
0001f0 8c b9 83 3e c2 48 92 bd 01 5c 3b 3b 42 86 70 3e
       0.257275 -0.07142784 0.0028588774 0.23488715
000200 64 7d 30 3e 40 33 9c 3e 2a f7 70 3c 1e 4e 09 3c
       0.17235333 0.3050785 0.014707366 0.008380441
000210 06 41 e5 bc 65 67 36 3e a7 31 0f 3e b6 05 c5 3d
       -0.027985107 0.1781288 0.13983785 0.0962023
000220 7f 7d 35 3e c9 3f 95 3e 23 5a e5 bd fd 69 19 3e
       0.17723654 0.29150227 -0.11198833 0.14981838
000230 b2 46 b9 b9 ed a6 32 be 30 96 c1 3e 7f 15 1a 3e
       -0.00035338622 -0.1744649 0.37809896 0.15047263
000240 d2 d0 84 be dd 40 ca 3e f7 f5 6c 3c 84 32 96 bd
       -0.25940567 0.39502612 0.014462939 -0.07333854
000250 55 e5 a0 3d c8 b1 87 bd 16 9c 5d be 7e e4 6f ba
       0.078562416 -0.06625706 -0.21641573 -0.00091511745
000260 b3 be 60 bd 7e d2 f1 3e 88 47 c7 be 4b d4 fe be
       -0.054869365 0.47230905 -0.38921762 -0.49771342
000270 b0 ba b0 bd 8b 65 99 bd 98 bc 5a bc e2 8d 4a be
       -0.08629358 -0.07490071 -0.013350628 -0.19780686
000280 df 55 bf bc b5 5b 96 3d eb a8 d0 3d a8 9b 78 bc
       -0.023356376 0.073417105 0.101884685 -0.01517383
000290 18 e7 e8 bd d7 ca f7 bd 0c 06 37 3e 66 31 a9 3d
       -0.11372203 -0.120992355 0.178734 0.08261375
0002a0 3e fe d7 3d 1c f9 ce bd 27 39 dd 3c 37 7e 7f bd
       0.1054654 -0.101061076 0.027004791 -0.062376227
0002b0 8d b1 0d 3e 3e dc 8f be 80 25 4b be 3b 0b 8d 3d
       0.13837261 -0.2809772 -0.19838524 0.06886908
0002c0 0c 42 a6 be d0 4c ee 3c 23 59 ef 3b e6 a6 ee be
       -0.32472265 0.029089361 0.007304327 -0.46611708
0002d0 34 8a c2 3e 23 e5 d8 3d 3a 2f 47 be 3a 8b 18 be
       0.37996066 0.10590579 -0.19451609 -0.1489686
0002e0 fc 3d 08 3d 34 bc d0 3d 13 26 91 3d f0 e6 10 3e
       0.033262238 0.10192147 0.0708734 0.14150596
0002f0 25 40 73 be 7a 93 f1 be f9 68 c1 bd 08 09 03 3e
       -0.23754938 -0.47182828 -0.0944385 0.12796414
000300 58 bd 25 3f 3e 6c f0 bb c4 d3 79 3e 8c 7a 9b 3d
       0.6474204 -0.007337122 0.24397188 0.07591733
000310 72 d8 90 bc 2c 29 f1 bd d6 6b 80 bd f8 ff c5 bd
       -0.017681334 -0.11775431 -0.06270568 -0.09667963
000320 b2 fd 95 3d d1 30 c7 bd 93 15 c2 3d 90 db 4d 3d
       0.07323779 -0.09726108 0.09476771 0.05025822
000330 f0 c0 01 3e 29 9d fe be 09 91 9f 3e 79 33 7b 3d
       0.12671256 -0.4972928 0.3116534 0.061328385
000340 12 55 1e 3d 2e 5b 08 bf e2 a8 0d be c5 17 2f bc
       0.038655348 -0.5326413 -0.13833955 -0.010686819
000350 b2 99 f7 bc 66 ec 23 bd 58 0e 8c 3e d6 93 bc bb
       -0.030224655 -0.04002037 0.27354693 -0.005754928
000360 06 17 90 3d 4c d0 08 be 93 d0 d7 3d ca 90 61 3e
       0.07035641 -0.13360709 0.10537829 0.22027889
000370 33 e8 00 3d 5a 6d 6d bd fa 29 63 3e bd ea c8 3e
       0.031471442 -0.057965614 0.22183982 0.3924159
000380 5c de ab 3d 14 a8 d5 3c 5a b6 cc bd 0a 22 27 3f
       0.08392021 0.026081122 -0.09995718 0.65286314
000390 17 98 f9 bb e4 ad 90 3e 50 7a 96 3d 63 c3 0c be
       -0.0076170075 0.28257668 0.07347548 -0.13746409
0003a0 5c 61 cb 3d c1 62 3f 3e fc 17 cc 3d e9 4d 26 bd
       0.09930679 0.18690015 0.09965512 -0.040601645
0003b0 3b 54 91 ba e4 6d 9b 3d be bc b4 3e 81 b6 63 be
       -0.0011087725 0.07589319 0.3530025 -0.22237588
0003c0 76 eb 02 be cb 69 93 be 93 11 d2 be b5 58 d6 be
       -0.12785134 -0.2879165 -0.41029033 -0.41864553
0003d0 9f 89 1f 3d d3 d7 2a bf fd 9c d2 be a5 30 e1 3e
       0.038949605 -0.6673557 -0.41135398 0.43982425
0003e0 8c c9 35 bd 3b e2 20 be eb 24 04 3d 89 b4 98 3c
       -0.044381663 -0.157113 0.03226177 0.018640773
0003f0 e8 d7 49 bd d4 1f 3b 39 23 ff 12 3e b6 2c c3 ba
       -0.04927817 0.00017845567 0.1435514 -0.0014890644

layers.0.bias f4 [128]
000000 df cf 16 3e 67 c3 d4 3d 69 89 aa be 58 08 bb 3e
       0.14727734 0.103888325 -0.3330796 0.36529803
000010 a9 a5 87 3e d2 7f ff be a3 df 1a 3e 98 46 5a 3e
       0.26493576 -0.49902207 0.15124373 0.21315992
000020 34 3d da be 41 38 6c be 8c 4a 2a 3e d9 d0 7b 3e
       -0.4262482 -0.23068334 0.1663 0.24591388
000030 56 cc a1 3e 43 70 be 3e 63 8e b2 bc 77 ad 6a be
       0.31601208 0.37195024 -0.02179641 -0.22917734
000040 dc be e8 be f6 27 a0 3d 91 cb 33 3e 9d 56 8a 3d
       -0.45458114 0.07820122 0.17558123 0.067548014
000050 44 fc 8e 3d 01 05 d3 3e c4 26 da be 3e d3 61 3d
       0.069817096 0.41214755 -0.426077 0.055133097
000060 92 12 a7 be a0 d0 77 3e ad fd 8e 3e d1 98 ba 3e
       -0.32631356 0.24200678 0.27927914 0.36444715
000070 09 74 59 3d 75 1b d9 3e a6 b6 b0 3d 25 c9 82 bc
       0.053089175 0.4240376 0.086285874 -0.015965054
000080 27 26 5a be 23 61 d0 bd 37 45 17 bd 90 47 7f be
       -0.21303616 -0.10174777 -0.036931243 -0.24929643
000090 91 46 b9 be a7 89 23 3e 20 e3 a9 be a6 37 88 3d
       -0.3618665 0.15970479 -0.33181095 0.06651239
0000a0 4d e9 37 bd 59 7b 3f 3e 04 40 b9 bd 3f d9 93 bd
       -0.044900227 0.18699397 -0.09045413 -0.07219171
0000b0 cc 25 97 be b0 2b ee 3d 1a 5a 0e 3d b7 98 d3 3e
       -0.29521024 0.116294265 0.034753896 0.4132745
0000c0 d0 2c 00 be be 63 67 3e 98 e7 03 3c 7f 41 4c 3e
       -0.12517095 0.22596642 0.008050822 0.1994686
0000d0 57 a8 d6 3d 32 65 cf be d4 28 8a 3d 88 e2 0c bf
       0.10481327 -0.40506893 0.067460686 -0.5503316
0000e0 5e 3f c1 3c 6a c3 b8 bd 20 f1 50 be 3a c9 6b be
       0.023589786 -0.09021647 -0.20404482 -0.2302598
0000f0 28 91 63 3e 13 a7 f0 3c d8 11 17 bf 1a b4 8e 3e
       0.22223341 0.029376542 -0.590116 0.27871782
000100 c3 44 a3 bd f1 4e b3 be 22 8a a3 3e 01 71 86 be
       -0.079721 -0.35021165 0.31941324 -0.2625809
000110 c9 d0 88 be c8 43 98 be 5e 22 8f 3e b9 5a bd 3e
       -0.2672179 -0.29739213 0.27955908 0.36983278
000120 36 93 c0 be 9c c0 5c bd e5 0b eb be 1a 9b a8 3d
       -0.37612313 -0.053894624 -0.45907512 0.08232708
000130 b3 ae 82 be 68 00 88 be 2e b6 fb 3c 3e 45 f3 be
       -0.2552391 -0.2656281 0.030726518 -0.47513765
000140 ce d2 34 3d 6a df 70 be 8c 4e b2 bd 64 a7 68 be
       0.04414635 -0.23522726 -0.08706388 -0.22720104
000150 4e d6 5a 3e be 57 c5 bd 94 7f 90 3e 1d b6 d1 bc
       0.21370813 -0.09635876 0.28222334 -0.025599534
000160 8f ec cf be 3d 06 86 3e ec 53 11 be 11 df 8e be
       -0.40610167 0.26176634 -0.1419217 -0.2790456
000170 7b 80 d2 bc 2e 78 e3 3d 20 b1 9c 3e 22 17 07 bf
       -0.02569603 0.11106907 0.30603886 -0.5276967
000180 e9 54 c2 bc 6d 54 27 be cc e0 3c be f1 da 3a 3e
       -0.023722129 -0.163408 -0.18445128 0.18247582
000190 de 25 95 3e 1b 3a 0c bf f1 bb 93 3e 21 af f0 3c
       0.29130453 -0.5477616 0.28854325 0.029380383
0001a0 12 16 b8 3e 8e 0c a2 be 20 b2 0b be 0a ba c6 be
       0.35954338 -0.31650203 -0.13642168 -0.38813812
0001b0 b1 9f 8a 3e d5 19 82 3e b6 82 c7 3e aa 88 6a 3e
       0.2707496 0.25410333 0.38966912 0.22903696
0001c0 52 ee da be 30 77 90 3e 18 46 c2 bd c3 ee 1a be
       -0.4275995 0.28215933 -0.094860256 -0.15130143
0001d0 a8 5c 8e be c4 91 61 3b 7c 40 39 3e 6f f9 cf be
       -0.27805066 0.0034419158 0.18091005 -0.4061999
0001e0 fb e0 32 3e 2e a0 8c be 83 76 f9 bd cf 66 64 3e
       0.17468636 -0.27465957 -0.121808074 0.22304843
0001f0 7e 58 b4 bc ef 7b a0 be fe 9d 71 bd 77 92 21 3e
       -0.022014853 -0.31344554 -0.058988564 0.15778528

layers.1.weight f4 [128, 128]
000000 0a db 73 3d 4b bc f6 3c 23 34 7a 3d b0 1d 05 bd
       0.059535064 0.030119082 0.061084878 -0.032499015
000010 da 76 a0 3d 65 8a 96 bb 24 9f 90 bd d3 bb a6 bd
       0.07835169 -0.0045941346 -0.07061604 -0.081412934
000020 e9 10 9b 3d fb 0e 98 3d a2 07 34 bd f6 56 bb 3d
       0.07571585 0.07424732 -0.04395259 0.09147446
000030 fe f2 df bc d0 d4 25 bd f6 bd 8e bd 39 b8 a6 b9
       -0.027337547 -0.040486157 -0.06969826 -0.00031799244
000040 53 7a f9 3d a8 df 6a 3d 02 c4 37 3d c3 7e 35 be
       0.121815346 0.0573422 0.044864662 -0.17724137
000050 d5 92 32 bd c1 a0 82 3c d1 44 be 3d e3 01 7a 3d
       -0.04359706 0.015945794 0.092904694 0.061036956
000060 d7 c9 0d 3c f1 83 01 bd 35 20 ec 3c 1f 07 bd bd
       0.008654079 -0.03161997 0.028823951 -0.09229874
000070 d3 6b 6a 3d 65 00 20 3e b3 24 93 bd af 8a 72 bd
       0.057231735 0.1562515 -0.07184734 -0.05921429
000080 61 43 f4 3b ff e2 04 be f7 b6 b4 3d 89 46 0f be
       0.0074543213 -0.12977217 0.0882396 -0.13991751
000090 65 bb 39 3d 77 42 48 3b 57 e1 a7 3d 00 36 8b bd
       0.04534473 0.0030557194 0.08197277 -0.06797409
0000a0 c6 97 83 bd ad 82 71 3d b1 d0 1d bd 29 d2 1a 3d
       -0.06425433 0.058962513 -0.0385291 0.03779808
0000b0 2a ef b0 3d 14 c6 51 bd 7d 2f 10 bb d1 cf dc bc
       0.08639367 -0.051214293 -0.0022000961 -0.026954563
0000c0 09 6f ab bd cd 11 47 bd 72 b0 90 bd c9 c0 40 3c
       -0.08370788 -0.04860096 -0.07064904 0.011764714
0000d0 9c 9c d9 3c 9a 77 9b 3d c0 f0 a1 bd 7d e8 38 bd
       0.026563935 0.075911716 -0.079072475 -0.045143593
0000e0 2a 6e 0a be 68 66 e4 bd 84 e2 87 ba 65 7a a0 3c
       -0.13518587 -0.11152345 -0.001036719 0.019589612
0000f0 9c 72 73 bd 77 65 85 bd 9c 55 37 3d 23 c4 03 3e
       -0.059435472 -0.065134935 0.044759378 0.12867789
000100 08 54 87 bb 12 9c 8a bd 49 72 92 bd 26 94 ad bd
       -0.0041298904 -0.06768049 -0.071507044 -0.08475523
000110 0f a0 f5 3d 17 44 72 3c 3d d2 ac bd fc 85 a6 bd
       0.119934194 0.014786742 -0.08438537 -0.08131024
000120 bc c9 5d 3d 56 1c 28 3e fa ec 84 3d f6 cf 01 bc
       0.054147467 0.1641706 0.06490512 -0.007923117
000130 45 bc 1d bc 84 58 cc 3d f9 c1 91 3a 89 7e da 3d
       -0.0096274065 0.099778205 0.001112043 0.10668666
000140 cf 90 87 3d 48 c5 79 3d a7 08 22 bd a3 8f c4 3d
       0.06619417 0.060979158 -0.039559033 0.09597709
000150 16 ee 19 bd fe 02 bc bb 60 d4 5b 3d fc f9 ea 3c
       -0.037580572 -0.0057376614 0.053669333 0.028683655
000160 8c a3 4f bd cd c3 08 3d 93 0c 36 bd 65 41 37 3d
       -0.05069308 0.033389855 -0.044445585 0.0447401
000170 29 56 8b bc a4 4a cf bc ea 5c 0e 3d 6e 85 70 bd
       -0.017008858 -0.025304146 0.03475658 -0.058721
000180 6f f1 28 bd e0 df bc 3b af 55 c9 bd d3 50 45 be
       -0.041245874 0.0057639927 -0.09830796 -0.19269113
000190 19 2e 93 bd 5f 45 91 bd b8 01 99 bc 12 70 38 bd
       -0.07186527 -0.070933096 -0.018677577 -0.045028754
0001a0 ba 14 de bd d2 3c 02 3e 3c db 6c 3d 9d 13 76 bb
       -0.10843797 0.12718514 0.057826266 -0.0037548312
0001b0 11 67 cc 3c 1d 69 81 3c 6b 9f 21 be 9b d2 10 3d
       0.02495149 0.015797192 -0.1578347 0.0353571
0001c0 03 3d b8 3d d5 3f 86 3c c0 a5 cf bd 63 72 b3 3d
       0.08996012 0.01638786 -0.10139036 0.08762052
0001d0 44 38 86 bd d9 ed 52 3e c6 eb 3e 3d 42 02 3e 3e
       -0.065537006 0.20598544 0.04661157 0.18555549
0001e0 0a e6 bb bc b0 22 f9 3d 40 af 37 3e 0a 1b 30 3d
       -0.02293684 0.12164819 0.17937946 0.042994536
0001f0 a4 33 c8 bb 8f 39 10 3d 3e 78 71 3a 73 11 f1 bc
       -0.0061096717 0.035211142 0.0009211338 -0.029427266
000200 2a 46 38 3e 5c 61 63 3d 90 cb af bc c7 11 7a bc
       0.17995515 0.05551277 -0.02145937 -0.0152630275
000210 15 1b 85 3c a9 e1 ee 3c 28 a3 9b bc 9d 30 0f bd
       0.016248265 0.029160338 -0.018998697 -0.03495847
000220 ae 83 9a bd 33 1d c2 3d 66 26 81 bd c4 47 3e 3d
       -0.07544647 0.094782256 -0.06306152 0.04645516
000230 f9 c3 b1 3d 84 0d f2 bc 6a f8 43 3d eb 55 9c 3d
       0.08679957 -0.02954746 0.047844328 0.07633575
000240 39 19 f8 bc 4b 35 77 3c 75 bb a4 3d ae 52 0b bc
       -0.030285465 0.01508839 0.08043567 -0.008503599
000250 68 3e e1 3c 70 d7 84 bc 03 8d 1e bd ba 86 45 bd
       0.027495578 -0.01621601 -0.038708698 -0.04822419
000260 85 66 2a bd a9 45 4a 3d 3a 16 c2 3d 77 57 1e 3e
       -0.041601676 0.04938284 0.09476896 0.15463053
000270 43 10 a2 bc e6 eb f5 3d aa ca 28 3c aa 67 2b 3d
       -0.019783145 0.12007885 0.010302225 0.04184691
000280 9d bb 8e bd 30 eb 91 3c 69 7b db 3b 98 a2 f2 3d
       -0.06969378 0.017812341 0.0066980612 0.118474185
000290 2c 2f 8b bd 97 a3 be 3d 02 34 51 bd d7 db da bd
       -0.06796107 0.09308546 -0.05107499 -0.106864624
0002a0 09 73 bd bc 55 1d f5 3d 07 40 6c bd 56 80 b3 bd
       -0.023126142 0.11968485 -0.05767825 -0.087647125
0002b0 f4 0b 87 be d8 c2 72 bd da da 64 3d 5b 30 5b 3a
       -0.26376307 -0.05926785 0.055872776 0.00083613925
0002c0 ec 76 a2 3c ac 69 ea 3d d2 94 9a bd 11 7d b5 3d
       0.019832097 0.114459366 -0.075479165 0.08861745
0002d0 8d 26 1e 3c d7 2d 89 3d 2a 69 0c 3c 29 03 de 3d
       0.009652746 0.066981964 0.008569995 0.108404465
0002e0 f0 d8 00 bc 92 bd 46 bd 15 a7 d1 bc 6d b2 88 3e
       -0.007864222 -0.048520632 -0.025592366 0.26698628
0002f0 79 02 08 bd bd 56 1a 3e 62 0f b6 bd ba 28 85 bc
       -0.033205483 0.1507215 -0.08889653 -0.016254772
000300 9e 10 89 3d b4 dd ba 3d 98 a4 34 3c d9 f5 71 be
       0.066926226 0.09124318 0.01102557 -0.2362894
000310 79 11 14 3d 0c 8d f9 bd 85 1a ce 3c cb 8d 9b 3d
       0.036149476 -0.12185106 0.02515913 0.07595404
000320 55 9e 21 3e 99 6f 02 be d4 f7 9a bd c5 3f e9 bd
       0.15783055 -0.12737884 -0.07566801 -0.11389116
000330 2d 5d a5 bd da a6 42 3d 07 4f a1 3d 14 f3 5f 3d
       -0.080744125 0.047522403 0.078764014 0.054675177
000340 e0 43 eb bd 5f 76 b8 3d 66 0d 58 bc 17 71 56 bc
       -0.114875555 0.090069525 -0.013186788 -0.013088486
000350 f5 de 52 3e fe c3 c3 3d a6 de a0 bd cd f5 34 bd
       0.20592864 0.09558867 -0.07854967 -0.044179726
000360 a1 0b b6 3d c8 e5 b9 bc da 74 da bc db 5f dd bc
       0.08888937 -0.022692576 -0.026667047 -0.027023247
000370 a4 d1 a4 3d 88 64 51 3a 8f 72 2e bd 4c 35 f0 3b
       0.08047798 0.00079876976 -0.04258972 0.007330572
000380 b4 57 c7 3c fe 57 e4 bc cc 34 a9 bd 7d 1f 4e 3c
       0.024333812 -0.02787399 -0.08262023 0.01258075
000390 93 ff ab 3d c2 90 9a bd ca 81 75 3d 38 de 1e 3d
       0.08398356 -0.075471416 0.05993823 0.038786143
0003a0 7a 0e ff 3d f7 c6 bb bc dd a0 87 3d e5 05 15 be
       0.12453933 -0.022922022 0.06622479 -0.1455303
0003b0 23 30 2e 3e 03 2f 15 3d 17 d8 d8 bc 07 e2 6d ba
       0.1701055 0.036421787 -0.026470227 -0.0009074513
0003c0 4c d1 17 3d 22 9e 98 3d 16 a7 22 bd 64 00 0b be
       0.037064835 0.074520364 -0.039710127 -0.13574368
0003d0 73 75 16 be 25 ec d0 bd d5 b1 53 3d 25 e0 8c 3c
       -0.14693241 -0.10201291 0.051683266 0.017196724
0003e0 51 59 00 3d be dd ea 3d 7d 0c 05 3d f9 49 57 3d
       0.03133518 0.11468075 0.032482613 0.05256078
0003f0 42 ec 1f bd 67 9b 20 bd 61 02 06 3d 6d 9a 88 bd
       -0.039043672 -0.039210703 0.032717112 -0.066700794
