Gym-DDPG-solution/results/DDPG_HalfCheetah-v4_500-eps0.3-t32-l0.0001-s1.pth (torch, 193979 bytes, 13 tensors)

layers.0.weight f4 [128, 23]
0	0x3e0f5df3	0.14000683
1	0xbdc7b7be	-0.09751843
2	0x3b6c05d9	0.0036014228
3	0x3c533570	0.012891158
4	0xbe5319aa	-0.20615259
5	0x3e754eb8	0.2395581
6	0x3c278d3f	0.010226547
7	0x3df4ef45	0.119596995
8	0xbd8a2352	-0.06745018
9	0xbc57e1a0	-0.013176352
10	0x3d5d9646	0.05409839
11	0xbc3fbc98	-0.011702679
12	0x3d3f3e6a	0.046690382
13	0xbd971f86	-0.073790595
14	0xbd3dfa38	-0.046381205
15	0xbc7648d9	-0.015032017
16	0xb65d59c0	-3.2983808e-06
17	0x3d1ec00d	0.038757373
18	0x3e4fd9fa	0.20297995
19	0x3e11442a	0.14186159
20	0xbd449f75	-0.048003633
21	0xbdf2a819	-0.11848468
22	0xbddf7e97	-0.10912817
23	0xbdbd6880	-0.092484474
24	0xbe2c62f7	-0.16834627
25	0x3c51c2f5	0.012802829
26	0x3e0131f7	0.12616716
27	0x3db693f3	0.08914938
28	0xbe37057a	-0.17873183
29	0x3e129b31	0.14317013
30	0x3d0687db	0.032844406
31	0x3e170471	0.14747788
32	0x3d8dc4af	0.0692228
33	0xbdf90a13	-0.12160125
34	0xbe2fbb67	-0.17161332
35	0xbdf58e8e	-0.11990081
36	0x3df51cf9	0.11968417
37	0xbca8f8dd	-0.02062648
38	0x3dc098d9	0.094041534
39	0xbdecc670	-0.115612864
40	0x3e69da5b	0.22837202
41	0xbe00511a	-0.12530938
42	0x3e31dc43	0.1736918
43	0xbd1c9211	-0.038225237
44	0xbe26cdd5	-0.16289456
45	0x3dd4d21f	0.1039164
46	0x3d1ff2dc	0.039049968
47	0xbc7fb6a4	-0.01560751
48	0xbe2ee056	-0.17077765
49	0xbda0e94c	-0.07856998
50	0xbe1d3ed0	-0.15355992
51	0xbe0ec699	-0.13942946
52	0x3deb528b	0.11490353
53	0xbdfac654	-0.12244859
54	0x3e099b8e	0.13438246
55	0x3e2863f1	0.16444375
56	0x3d93a7d3	0.07209744
57	0xbdb8419a	-0.089968875
58	0x3e0ef732	0.13961485
59	0x3da7346e	0.08164297
60	0xbd96e54b	-0.07367953
61	0x3df3fcdd	0.11913464
62	0x3dccde65	0.10003356
63	0x3e6ff7ae	0.23434326
64	0xbe192562	-0.14955667
65	0xbdbdd057	-0.09268253
66	0xbd7f64a4	-0.062351838
67	0x3d3b8416	0.045780264
68	0xbe37569e	-0.17904136
69	0xbe48e7f8	-0.19619739
70	0x3dda9aa1	0.106740244
71	0xbdbfb92b	-0.0936149
72	0xbba98375	-0.0051731416
73	0xbdf35c69	-0.1188286
74	0x3d380928	0.044930607
75	0xbd30606d	-0.04306071
76	0x3d9a7568	0.07541925
77	0x3e759191	0.2398131
78	0xbe3d73a7	-0.18501149
79	0x3d9a4d3c	0.075342625
80	0xbe38f65a	-0.18062726
81	0xbe3bce17	-0.18340336
82	0xbc44e869	-0.0120183015
83	0x3a228a1e	0.00062003906
84	0x3ce33e40	0.027739644
85	0xbde4b561	-0.11167408
86	0xbe688dc5	-0.22710331
87	0x3e0fbd07	0.14036952
88	0x3ac85ce7	0.0015286476
89	0x3e23e1d1	0.16004111
90	0x3e5b44dc	0.21412987
91	0xbe531e6c	-0.20617074
92	0x3e023524	0.12715584
93	0x3d9018dd	0.07035992
94	0xbe4f0f6e	-0.2022073
95	0xbe675e91	-0.22594668
96	0x3e2ebc74	0.17064077
97	0x3cbafede	0.022826608
98	0xbdbcc584	-0.092173606
99	0xbb3ffd32	-0.0029295203
100	0x3e916372	0.28396183
101	0xbd9c45b6	-0.07630484
102	0x3e390e0e	0.18071768
103	0x3e17916b	0.14801566
104	0xbe0b1e24	-0.13585716
105	0xbdfb55c1	-0.12272216
106	0x3e280fe8	0.16412318
107	0x3d6ff352	0.058581658
108	0x3dfbf3be	0.123023495
109	0x3daf20bd	0.08551166
110	0xbd42bd06	-0.047543548
111	0x3e247a44	0.16062266
112	0x3e57f3c3	0.21089081
113	0xbdf7203b	-0.12066694
114	0x3c0c42fc	0.008560892
115	0x3e8b6b54	0.27230322
116	0x3d840865	0.06446914
117	0xbc5028dc	-0.012705054
118	0xbe4ae2d4	-0.1981309
119	0xbe2deda3	-0.16985182
120	0xbe1da9f2	-0.1539686
121	0xbcff7f72	-0.0311887
122	0x3e63b0fe	0.22235486
123	0xbe58dbca	-0.21177593
124	0x3d99f34b	0.075171076
125	0xbe19fde1	-0.15038253
126	0xbe2a947c	-0.16658205
127	0xbc39aee0	-0.011333197
128	0x3d8bec70	0.06832206
129	0x3e385a22	0.18003133
130	0xbdca1a25	-0.09868268
131	0x3d890890	0.06691086
132	0x3e388595	0.18019708
133	0x3e14682b	0.14492862
134	0x3e0b4ae6	0.1360279
135	0x3dd78da9	0.105250664
136	0x3dc0e3cc	0.09418449
137	0x3dd01af0	0.10161388
138	0x3bc597f0	0.0060300753
139	0xbeb196da	-0.34685403
140	0x3db34039	0.08752484
141	0x3dea5de5	0.1144369
142	0xbdfa48e6	-0.122209355
143	0x3deff36e	0.117163524
144	0x3d02bee1	0.031920318
145	0x39b915d8	0.00035302225
146	0x3d0bd492	0.03413827
147	0x3d51b894	0.051201418
148	0x3e15f03f	0.14642428
149	0x3d8c7456	0.06858127
150	0xbc7a00b8	-0.01525896
151	0x3e55dc52	0.20884827
152	0xbcdfb633	-0.027308559
153	0x3cac29d8	0.021016046
154	0xbdfcaafa	-0.12337299
155	0xbe90daba	-0.28291875
156	0xbe07485c	-0.13211197
157	0xbdb0738d	-0.086157896
158	0x3db2c383	0.08728697
159	0xbd810399	-0.06299514
160	0xbe0c9727	-0.13729535
161	0x3e2b4bf7	0.16728197
162	0xbe1fa882	-0.15591624
163	0x3ebe4ced	0.37168065
164	0x3e59ed93	0.21282034
165	0x3d9c19f0	0.07622135
166	0xbcc31a4f	-0.023816256
167	0xbd56249b	-0.052281003
168	0xbe21b7f3	-0.15792827
169	0x3d394362	0.045230277
170	0xbd9f044b	-0.07764491
171	0x3dc0f1fb	0.09421154
172	0x3c39fd0e	0.011351837
173	0x3d6a6f79	0.057235215
174	0x3e0e75d6	0.13912138
175	0x3e08b049	0.13348497
176	0x3dc82c9d	0.09774134
177	0x3ce51d8d	0.027968192
178	0xbe9d86bc	-0.30766857
179	0x3d89ddd8	0.067317665
180	0x3d586a42	0.05283571
181	0xbc7afe41	-0.015319408
182	0xbdf3aaaa	-0.11897786
183	0xbcd6ab4a	-0.026204724
184	0xbe6deb91	-0.23234393
185	0x3eae6dad	0.3406805
186	0xbe39bb6c	-0.18137902
187	0xbe4d97bd	-0.20077415
188	0xbd20794b	-0.039178174
189	0xbe6eeb88	-0.23332036
190	0x3d52b576	0.051442586
191	0xbdce32ac	-0.10068259
192	0xbd339fdc	-0.043853626
193	0x3dcfb51d	0.101419665
194	0x3deb6ab0	0.114949584
195	0xbe00fad7	-0.12595688
196	0x3d6ad91e	0.057335965
197	0x3d969343	0.07352307
198	0x3e32a53e	0.17445847
199	0xbde6456f	-0.11243712
200	0x3d75c6bf	0.060003992
201	0xbe01c12a	-0.12671342
202	0x3e459b81	0.19297601
203	0xbce05bc9	-0.027387517
204	0x3d69ae2d	0.057050873
205	0x3d61a6de	0.055090778
206	0xbd8417ca	-0.0644985
207	0x3e73a3ef	0.23793004
208	0xbdeaca0f	-0.11464321
209	0x3ddf2ec2	0.1089759
210	0x3d7182d8	0.058962673
211	0x3e0ccc39	0.1374978
212	0xbe586dcb	-0.21135633
213	0x3e1d708e	0.15374967
214	0x3dfda7d1	0.12385524
215	0x3e5acf79	0.21368207
216	0x3d0cda4e	0.03438788
217	0xbdef9160	-0.1169765
218	0xbccc5aad	-0.024945581
219	0x3e084b79	0.1331004
220	0xbe08cf56	-0.13360342
221	0x3e96e436	0.29470986
222	0xbe3ebc0c	-0.18626422
223	0xbdd7d08c	-0.10537824
224	0x3e69007e	0.22754094
225	0xbe0b95ef	-0.13631414
226	0xbde75c76	-0.112969324
227	0x3de3bea4	0.11120346
228	0x3e15b543	0.14619927
229	0x3e8309da	0.25593454
230	0x3e1ecfa8	0.15508902
231	0xbe7dfe4d	-0.2480404
232	0x3ea0e83d	0.31427184
233	0xbbdabae2	-0.00667511
234	0x3b8f3c64	0.004371213
235	0x3c90f718	0.017695948
236	0xbd9aa133	-0.075502776
237	0x3e4d3ac4	0.20041949
238	0x3dbb7acc	0.09154281
239	0xbd77ad80	-0.060468197
240	0xbe2311fe	-0.15924832
241	0xbce97bd6	-0.028501432
242	0x3da16c74	0.07882014
243	0x3d967c60	0.073479414
244	0xbe323901	-0.17404558
245	0x3ba3f54a	0.005003606
246	0xbddaad2c	-0.10677561
247	0xbddc27f7	-0.1074981
248	0xbdb984d8	-0.09058541
249	0x3e6ca7ad	0.23110838
250	0x3e38a02c	0.1802985
251	0xbcf0718d	-0.02935102
252	0x3d00b8c5	0.03142621
253	0x3eb03cfe	0.34421533
254	0xbdfc5050	-0.12320006
255	0xbdadd1d5	-0.08487288

layers.0.bias f4 [128]
0	0xbd935f51	-0.071959145
1	0xbe4fe2d6	-0.20301375
2	0xbebf621c	-0.3737954
3	0x3ddbdd9a	0.107356265
4	0xbe463d30	-0.19359279
5	0xbe167cb0	-0.14696002
6	0xbdbad046	-0.09121756
7	0xbe446b3d	-0.19181533
8	0x3e554158	0.20825708
9	0xbe44d6c7	-0.19222556
10	0xbea603f3	-0.32424888
11	0xbeb93868	-0.36175847
12	0xbe5b3579	-0.21407117
13	0xbe2c431f	-0.1682248
14	0x3de241ae	0.11047684
15	0xbc8c1914	-0.017101802
16	0x3cf2156f	0.029551236
17	0xbea43ae7	-0.3207619
18	0xbe8712e4	-0.263816
19	0xbe8a5798	-0.27019954
20	0x3e938391	0.28811315
21	0xbda95e57	-0.08269947
22	0xbe73f415	-0.23823579
23	0xbd59e1a5	-0.053193707
24	0xbe7f97d6	-0.24960265
25	0x3d0d5dde	0.034513347
26	0xbdffd9cb	-0.124927126
27	0x3d252955	0.04032262
28	0x3e407dd7	0.18798004
29	0xbc64bedd	-0.013961521
30	0xbdbff46f	-0.09372794
31	0xbcb4b557	-0.022059126
32	0x3c9c3cb0	0.019071907
33	0xbe4caaf9	-0.19987096
34	0xbe8afd67	-0.27146456
35	0x3e50ef6e	0.20403835
36	0xbe879830	-0.26483297
37	0xbea9bef3	-0.33153495
38	0x3c9dfca4	0.019285508
39	0xbe7c01c8	-0.24610054
40	0xbd318987	-0.043344047
41	0xbab1a3d8	-0.0013552858
42	0x3c46558a	0.012105355
43	0xbe22f75a	-0.1591467
44	0xbd3f9c23	-0.046779763
45	0xbe2f63a6	-0.17127857
46	0x3c57e9ec	0.01317833
47	0xbea4f537	-0.32218334
48	0x3e0d6749	0.13808931
49	0x3e8bd6e4	0.27312386
50	0xbe94e9a4	-0.29084504
51	0xbe41188f	-0.18857025
52	0x3e915ca3	0.2839099
53	0x3e8900aa	0.2675832
54	0x3e8bf46b	0.27334914
55	0xbe395508	-0.18098843
56	0x3c30c7b3	0.0107897995
57	0xbde97530	-0.11399305
58	0x3ea14bc7	0.31503126
59	0x3e71d42b	0.23616092
60	0x3c4b7df7	0.012420169
61	0x3dbb0a2c	0.091327995
62	0xbe4dca88	-0.20096791
63	0x3d9f6961	0.07783771
64	0xbdad7050	-0.084686875
65	0x3ea54572	0.32279545
66	0xbe1dd570	-0.15413451
67	0xbe6a3572	-0.2287195
68	0xbe810195	-0.2519652
69	0xbe1140a0	-0.14184809
70	0xba0da567	-0.000540337
71	0x3da89a32	0.082325354
72	0x3d65c360	0.056094527
73	0xbe9cae1f	-0.30601594
74	0xbd9f5c4f	-0.07781278
75	0xbe0ecee6	-0.13946113
76	0xbe104c61	-0.14091636
77	0xbdd6dca5	-0.10491303
78	0x3e3a4479	0.18190183
79	0x3dec6775	0.1154317
80	0xbde7eb03	-0.11324122
81	0xbdb9ce29	-0.09072525
82	0xbd08c3b6	-0.03338977
83	0xbd77b440	-0.060474634
84	0xbcfe1aa1	-0.031018557
85	0xbdf1cca9	-0.11806614
86	0xbe26ca10	-0.16288018
87	0x3e758a65	0.23978575
88	0x3e87f686	0.2655527
89	0xbe9f8c22	-0.311616
90	0x3d64b351	0.055835072
91	0xbdb2a272	-0.0872239
92	0xbd0c8f18	-0.034316152
93	0xbe96fbdb	-0.29489025
94	0xbdd4b694	-0.103863865
95	0xbe46c282	-0.19410136
96	0xbe1f8140	-0.15576649
97	0x3e5e6884	0.21719557
98	0x3d0926fc	0.033484444
99	0x3e1d54c4	0.15364367
100	0xbad9b3f7	-0.001660942
101	0xbe188229	-0.14893402
102	0xbe443dff	-0.19164275
103	0x3e43228a	0.19056144
104	0x3e95cfca	0.29260093
105	0xbd8b4095	-0.067994274
106	0xbddb8326	-0.10718374
107	0x3e1ef629	0.1552359
108	0xbdb5ae6c	-0.08871159
109	0xbe6746e6	-0.2258564
110	0x3e3a8644	0.18215281
111	0x3ec6f4d5	0.38858667
112	0x3e3ab679	0.1823367
113	0x3e4a8ef1	0.1978109
114	0x3e910859	0.2832668
115	0xbeb162ab	-0.3464559
116	0x3d8f5af8	0.06999773
117	0x3e8bb175	0.27283826
118	0xbe0e5c9d	-0.13902517
119	0x3e1fed30	0.15617824
120	0xbd5880a8	-0.05285707
121	0x3d1bc51d	0.03802978
122	0xbad1f7ad	-0.0016019248
123	0xbe0d0e32	-0.13774946
124	0xbdad3675	-0.084576525
125	0xbd88a770	-0.06672561
126	0xbd46870a	-0.048468627
127	0xbdc2b415	-0.09507004

layers.1.weight f4 [128, 128]
0	0x3d2b6f4a	0.04185418
1	0xbd5dbf33	-0.05413742
2	0xbd1254e3	-0.035725486
3	0x3c9af0b4	0.018913604
4	0xbaad445f	-0.0013219229
5	0x3d91ba2f	0.0711559
6	0x3d428b5b	0.04749618
7	0x3af965b5	0.0019027503
8	0xba3a37f0	-0.0007103672
9	0x3d8d6eff	0.069059364
10	0xbd9facbe	-0.0779662
11	0xbd1172f4	-0.03551002
12	0x3d87976c	0.06620678
13	0xbd74b53b	-0.059743147
14	0x3c48e42c	0.012261432
15	0x3d77e5bf	0.060521837
16	0x3ccfb5f3	0.025355315
17	0xbd682d0c	-0.056683585
18	0xbd4432dc	-0.047900066
19	0x3d0edcdb	0.034878593
20	0xbd330e97	-0.043715086
21	0x3d2b873c	0.041877016
22	0x3d2a3613	0.041555475
23	0x3b362953	0.0027795627
24	0x3d9658e5	0.07341174
25	0xbdb11ad0	-0.08647692
26	0xbe0132fe	-0.12617108
27	0x3cf17bbb	0.029477945
28	0xbc595b9c	-0.01326647
29	0xbda6a1fd	-0.081363656
30	0xbd5811d3	-0.052751373
31	0x3d901eeb	0.07037147
32	0xbcad224f	-0.021134524
33	0x3d77805f	0.06042516
34	0x3d9aaa34	0.07551995
35	0xbcc052ae	-0.023476925
36	0x3cb16ed6	0.021659296
37	0x3d150551	0.036382023
38	0xbd5ba58b	-0.05362467
39	0xbade8a9d	-0.0016978566
40	0x3d187bcb	0.037227433
41	0x3d153a6a	0.03643266
42	0x3cf20bf3	0.029546713
43	0xbb1b7b78	-0.0023724716
44	0xbd76f850	-0.060295403
45	0xbd1e45b4	-0.038640693
46	0x3d9c2df3	0.076259516
47	0xbcfc9ff8	-0.030837998
48	0xbd098f8e	-0.03358417
49	0xba8dc458	-0.0010815961
50	0xbd2c2e59	-0.042036388
51	0x3c25f9c8	0.010130353
52	0xbafe27ee	-0.0019390562
53	0xbd686870	-0.056740224
54	0xbd7c5ce4	-0.061612025
55	0xbd1f2a66	-0.038858794
56	0xbd9c43f8	-0.076301515
57	0x3d9c5f68	0.07635385
58	0x3d173df3	0.036924314
59	0xbdcfa834	-0.10139504
60	0xbd747ece	-0.059691243
61	0x3d79c589	0.0609794
62	0x3d8f39c6	0.06993441
63	0x3cc572da	0.024102617
64	0xbbfb6104	-0.0076714773
65	0xbda97875	-0.082749285
66	0x3d1bd584	0.03804542
67	0xbd4bde4b	-0.049772542
68	0x3d2af44a	0.04173688
69	0xbb36224d	-0.002779144
70	0x3d447e7e	0.047972195
71	0xbcea1b0c	-0.02857735
72	0xbcb8a684	-0.022540338
73	0xbcc80535	-0.024416545
74	0xbc3ea1e2	-0.011635276
75	0xbd6ff81a	-0.058586217
76	0x3ca7ab16	0.020467322
77	0xbd909216	-0.07059114
78	0x3da90b45	0.082541026
79	0x3cf729f8	0.03017138
80	0x3cdc7bb9	0.026914464
81	0x3dbc2223	0.091861986
82	0x3c256675	0.010095228
83	0x3d7b6b25	0.061381478
84	0xbbd9e680	-0.006649792
85	0x3d387232	0.04503078
86	0x3c1e7137	0.009670547
87	0xbdae2963	-0.08503988
88	0xbdd309c2	-0.103045955
89	0xbd641385	-0.055682678
90	0x3d6871db	0.056749206
91	0x3d8539f1	0.06505192
92	0xbd16e60f	-0.036840495
93	0xbc483e7c	-0.012221929
94	0x3db7a4b0	0.089669585
95	0x3d25ff04	0.040526405
96	0xbd862b53	-0.06551232
97	0xbcabcf8b	-0.020972988
98	0xbca5e30b	-0.020249864
99	0xbce522ed	-0.027970755
100	0xbc3a56c6	-0.011373227
101	0x3d24aac3	0.040201914
102	0xbdc28484	-0.094979316
103	0x3d385f21	0.045012597
104	0xbdb053b8	-0.08609718
105	0x3d7a2c37	0.061077323
106	0x3d732eec	0.05937092
107	0x3d7f0141	0.062257055
108	0xbdaa6b5e	-0.0832126
109	0xbd5a5a97	-0.05330905
110	0xbd515b55	-0.05111249
111	0xbdfb2c3c	-0.122642964
112	0x3d0488d0	0.032357037
113	0xbd1a482c	-0.037666485
114	0xbd14f754	-0.036368683
115	0x3da4aff2	0.080413714
116	0xbdb9afd7	-0.09066742
117	0xba4cafac	-0.00078081596
118	0xbba8d0a8	-0.005151827
119	0x3d8c7a5e	0.06859277
120	0x3d7eade8	0.06217757
121	0xbca4c0e8	-0.020111516
122	0xbd9d081e	-0.07667564
123	0x3d1c6ace	0.038187794
124	0xbd869f53	-0.065733574
125	0x3dc142ab	0.09436544
126	0x3d79eedd	0.061018813
127	0x3d3661b9	0.04452679
128	0xbcbadbfe	-0.022809979
129	0x3d7b2b26	0.061320446
130	0x3d9cbba7	0.07652979
131	0xbc678e33	-0.014133024
132	0xbd3fa029	-0.0467836
133	0xbc80df09	-0.015731351
134	0x3dcab863	0.0989845
135	0x3dbcd5b9	0.09220452
136	0xbda55d4f	-0.08074438
137	0x3d9f5da3	0.07781532
138	0xbd3c681c	-0.045997724
139	0x3d1a904b	0.037735265
140	0xbd65a72b	-0.056067627
141	0xbd06af08	-0.032881767
142	0xbc30137c	-0.010746833
143	0x3ccaa5af	0.024737207
144	0xbd8af6b6	-0.067853376
145	0xbc2e9dd7	-0.010657749
146	0x3de2823a	0.11059995
147	0xbcd01219	-0.025399255
148	0xbd115a57	-0.035486545
149	0x3d85b14d	0.06527958
150	0xbdabc041	-0.08386279
151	0xbc9d8f3e	-0.019233342
152	0x3d63f2ee	0.055651598
153	0x3cb9ac0a	0.022665042
154	0xbd66f4ba	-0.056385733
155	0xbd0c4db5	-0.034253795
156	0xbc9796db	-0.01850455
157	0xbd833cc1	-0.06408072
158	0xbc59d345	-0.0132949995
159	0x3d962805	0.07331852
160	0x3d356d36	0.044293605
161	0xbc586dd6	-0.013209781
162	0x3d26e9e0	0.040750384
163	0xbda6cee9	-0.08144934
164	0xbcbba583	-0.02290607
165	0x3d966df6	0.07345192
166	0x3cbd0fc2	0.023078803
167	0xbd9fc18b	-0.07800587
168	0xbbeddc5f	-0.0072589363
169	0x3d72ac92	0.059246607
170	0xbc0c6e30	-0.008571193
171	0x3d1a17f2	0.037620492
172	0xbd9c52b1	-0.0763296
173	0x3da90ea3	0.08254745
174	0xbd974b71	-0.07387436
175	0x3d5ceb34	0.053935245
176	0xbd960ef3	-0.0732707
177	0xbd2057dc	-0.03914629
178	0xbb99e236	-0.004696156
179	0x3c07988d	0.008276117
180	0xbbf1edd0	-0.007383086
181	0xbda375ed	-0.07981477
182	0xbd12df7c	-0.035857663
183	0x3d26e6fe	0.040747635
184	0xbd4bee5d	-0.049787868
185	0x3d1954f1	0.037434522
186	0xbc97a543	-0.01851142
187	0x3cf1eccb	0.029531857
188	0x3cd82231	0.026383491
189	0xbd4b612d	-0.04965322
190	0x3b4c703d	0.003119483
191	0xbb5ab291	-0.0033370594
192	0x3db5002b	0.08837923
193	0xbdb9729a	-0.09055062
194	0x3b2cd826	0.0026373952
195	0xbd1c6754	-0.03818448
196	0x3d4db9a5	0.050225873
197	0xbd1f0b83	-0.038829338
198	0xbca560da	-0.020187784
199	0xbd8f3b7e	-0.06993769
200	0xbc687f60	-0.014190525
201	0xbdc1c828	-0.09462005
202	0x3cee6a85	0.029103527
203	0x3d85e1a2	0.06537177
204	0x3d7d267a	0.061804272
205	0xbd47e310	-0.048800528
206	0xbbf876ed	-0.0075825364
207	0x3d21ad1d	0.039471734
208	0x3cf92ce7	0.030416919
209	0x3d475857	0.04866823
210	0xbc5c8009	-0.01345826
211	0xbccdc9c5	-0.025120625
212	0x3ce97cbd	0.028501863
213	0x3d9d9f76	0.076964304
214	0x3d80101e	0.06253074
215	0xbca3eaeb	-0.020009479
216	0x3d45570d	0.04817872
217	0x3d5f8d3d	0.054578055
218	0xbd584521	-0.0528003
219	0x3cf72e3a	0.03017341
220	0xbc472509	-0.012154826
221	0x3c875594	0.016520299
222	0xbd8ea204	-0.06964496
223	0xbc8c40aa	-0.017120678
224	0x3d024484	0.031803623
225	0xbd726e2b	-0.059187096
226	0xbd64c2e2	-0.055849917
227	0x3cab0a69	0.020878987
228	0xbd908301	-0.07056237
229	0x3d25f7d9	0.04051957
230	0xbcd98821	-0.02655417
231	0x3d6d8312	0.057986327
232	0x3bd4866f	0.0064857523
233	0xbd6de2c7	-0.0580776
234	0x3c354d63	0.011065814
235	0xbce4818d	-0.027893806
236	0x3cab94a4	0.0209449
237	0x3c4f50b5	0.012653519
238	0xbda6751e	-0.08127807
239	0xbc954c03	-0.018224722
240	0x3d60e357	0.05490431
241	0xbd3d6c07	-0.0462456
242	0x3c310920	0.010805398
243	0x3d0e28b0	0.03470677
244	0xbd4b7128	-0.04966846
245	0x3d31b3a3	0.043384206
246	0xbd757e4e	-0.059934907
247	0xbc159614	-0.00913002
248	0x3cb955c5	0.022623906
249	0xbd167eed	-0.03674214
250	0xbda423a5	-0.08014611
251	0xbd3ccb78	-0.04609248
252	0xbbe74a79	-0.0070584384
253	0xbcf3e1ed	-0.029770816
254	0xbb9d1025	-0.0047931843
255	0x3d4908a2	0.0490805

layers.1.bias f4 [128]
0	0xbdde39fc	-0.108509034
1	0xbdc7a68d	-0.09748564
2	0xbda1f68d	-0.07908354
3	0xbd4c0890	-0.049812853
4	0xbb83fce7	-0.004027951
5	0xbbdc4536	-0.006722118
6	0x3e1aa400	0.15101624
7	0x3e032f37	0.1281098
8	0xbdcd0f96	-0.100127384
9	0xbdee55de	-0.116374716
10	0x3dc69983	0.09697249
11	0xbd3755c6	-0.044759534
12	0x3cc43822	0.023952547
13	0xbd16a08f	-0.036774214
14	0x3e106ed6	0.1410478
15	0xbc74de31	-0.014945553
16	0xbe15f42d	-0.14643927
17	0x3d887e16	0.06664674
18	0xbc2d7682	-0.0105873365
19	0xbc89fc84	-0.016844042
20	0x3d8fc9a7	0.07020884
21	0x3cfb0b4e	0.030645039
22	0xbcf73e40	-0.03018105
23	0x3c4ba860	0.01243028
24	0x3e3c4445	0.18385418
25	0xbc0308fc	-0.0079977475
26	0xbd8254af	-0.06363808
27	0xbe18a83c	-0.14907926
28	0xbcd0ef8a	-0.025504846
29	0x3d0fb277	0.035082307
30	0x3ceabe8d	0.028655315
31	0xbd777e00	-0.060422897
32	0xbce47409	-0.027887361
33	0x3de8e169	0.113711186
34	0x3d75073a	0.059821345
35	0x3d35c455	0.04437669
36	0x3d951264	0.07278898
37	0xbe2bc3c2	-0.16773894
38	0x3dac890b	0.08424576
39	0x3e0dd0fc	0.13849252
40	0xbd76f7af	-0.060294803
41	0x3dc5f153	0.096651696
42	0x3defd1b2	0.11709918
43	0xbd4f33e4	-0.050586596
44	0xbe0b6f78	-0.1361674
45	0x3c336cc5	0.010951226
46	0x3d0359e4	0.03206815
47	0xbe28172b	-0.16415088
48	0xbe0b4f75	-0.13604529
49	0xbd5fecae	-0.054669075
50	0xbc7010cf	-0.014652445
51	0xbde8e8bc	-0.113725156
52	0xbd9ce912	-0.07661642
53	0xbdd97c19	-0.10619373
54	0x3d265daf	0.040616687
55	0xbd9f7f33	-0.07787933
56	0x3e13fbf4	0.14451581
57	0xbdc0859d	-0.09400485
58	0x3d41063c	0.047125086
59	0xbe2469cb	-0.16055982
60	0xbe236d62	-0.15959695
61	0x3d9979a2	0.07493903
62	0xbe02063d	-0.12697692
63	0xbdf95301	-0.12174035
64	0xbe2c64f4	-0.16835386
65	0xbd0e0976	-0.03467699
66	0x3dfd7d18	0.12377375
67	0x3dadd868	0.08488542
68	0xbd6ba70d	-0.05753236
69	0xbdd76c40	-0.10518694
70	0xbe0bfc9e	-0.13670585
71	0xbbd61a29	-0.0065338803
72	0x3d920a02	0.07130815
73	0x3d873028	0.06600982
74	0x3c3c93b8	0.011509828
75	0xbcb5076d	-0.022098267
76	0xbe35b27f	-0.17743872
77	0x3dcaf97d	0.09910867
78	0x3d93fb8d	0.07225714
79	0xbe32d5e7	-0.1746441
80	0xbcfccc5c	-0.030859165
81	0x3d958a5f	0.07301783
82	0x3e39b5f5	0.18135817
83	0x3dc5157b	0.09623238
84	0x3d36f64e	0.04466849
85	0x3cf3c5bc	0.029757373
86	0x3d503e8c	0.0508409
87	0x3ba6ab70	0.005086355
88	0xbc1e4f83	-0.009662512
89	0x3dd705b6	0.10499136
90	0xbd91acc8	-0.071130335
91	0x3df8c82b	0.12147554
92	0x3de1f073	0.1103219
93	0x3d2a903a	0.04164145
94	0xbdc03870	-0.093857646
95	0x3d36173d	0.044455756
96	0x3d66c7a6	0.056342743
97	0x3c56f953	0.013120967
98	0xbe0370df	-0.12836026
99	0xbc025e58	-0.007957064
100	0xbdc1f8a7	-0.09471255
101	0xbd33ae29	-0.043867264
102	0xbdca0dd6	-0.0986592
103	0xbe13bd09	-0.1442758
104	0x3db5c11f	0.088747256
105	0xbdd25b00	-0.10271263
106	0xbe01e61f	-0.1268544
107	0xbdd0c71a	-0.101942256
108	0x3e078e92	0.1323798
109	0x3d21781e	0.039421193
110	0x3d4c3fb2	0.049865432
111	0xbd3207b0	-0.043464363
112	0xbd9caa71	-0.076496966
113	0x3d9f160f	0.07767879
114	0x3dc461e2	0.09588982
115	0xbb740bbf	-0.0037238447
116	0xbb13b467	-0.0022537948
117	0xbdef06cc	-0.11671218
118	0xbe19d97d	-0.15024371
119	0x3bb06a78	0.005383786
120	0x3c80bf5a	0.015716244
121	0xbcf245b3	-0.02957425
122	0x3d762569	0.06009427
123	0x3d0f03a4	0.03491558
124	0xbdfa73c4	-0.12229112
125	0xbe131c2a	-0.14366212
126	0xbc775db5	-0.015098025
127	0x3cb0b56f	0.02157089

layers.2.weight f4 [64, 128]
0	0x3d33a6f0	0.043860376
1	0xbdc8e8f6	-0.09810059
2	0xbdbef729	-0.09324486
3	0x3d6209d9	0.055185173
4	0xbe042b59	-0.12907161
5	0xbd290146	-0.04126098
6	0x3dde3bc4	0.10851243
7	0x3d51bb6b	0.051204126
8	0x3d33d4b2	0.043904014
9	0x3d6938ed	0.056939054
10	0x3dad28c3	0.0845504
11	0x3db47c07	0.08812719
12	0x38717c44	5.757461e-05
13	0xbd0f8dfa	-0.03504751
14	0x3d87e070	0.06634605
15	0xbb11bc85	-0.002223761
16	0x3d2ac8f1	0.04169554
17	0x3d587d04	0.0528536
18	0x3d1ad8da	0.037804462
19	0x3d3644ac	0.044499084
20	0xbb961dce	-0.0045811897
21	0x3db0b2f3	0.08627882
22	0xbb89f945	-0.0042106234
23	0x3d7c84ba	0.061650015
24	0x3cf40219	0.029786156
25	0xbd73181f	-0.059349176
26	0xbd2c3396	-0.042041384
27	0x3c7bb6c9	0.015363404
28	0xbdb263cd	-0.08710442
29	0xbd8a73f9	-0.06760401
30	0xbac01369	-0.0014654222
31	0xbd355a4c	-0.044275567
32	0xbda53a16	-0.0806772
33	0x3d97a4b1	0.07404459
34	0x3cc7a44c	0.024370335
35	0xbd4f5f3e	-0.05062794
36	0x3d96655b	0.07343551
37	0xbd603c90	-0.054745257
38	0x3d91d65a	0.071209624
39	0x3da4da17	0.0804941
40	0xbde5529c	-0.11197397
41	0x3ded240c	0.11579141
42	0xbcbc2920	-0.022968829
43	0x3c81a1e7	0.015824271
44	0xbc43e8e2	-0.011957379
45	0x3d9a9722	0.075483575
46	0x3d41e45f	0.047336932
47	0x3d258273	0.04040761
48	0xbdf6713d	-0.12033317
49	0xbd303422	-0.043018468
50	0x3d9961f3	0.074893855
51	0x3d6577d9	0.0560225
52	0xbd9bf224	-0.07614544
53	0xbd09b64f	-0.03362113
54	0x3dab7b09	0.083730765
55	0x3ceaff8c	0.028686307
56	0x3cd55d21	0.026045384
57	0x3d4624f3	0.04837508
58	0x3d740c70	0.059582174
59	0xbd80798e	-0.06273185
60	0xbd51cfff	-0.05122375
61	0xbc812307	-0.015763773
62	0xbe00c3f3	-0.12574749
63	0xbd0ec9b5	-0.03486033
64	0x3d569e21	0.052396897
65	0xbdbdde45	-0.0927091
66	0x3dfcfc84	0.12352851
67	0x3d9d9b92	0.07695688
68	0xbcb0f9a1	-0.021603407
69	0xbd97a8d3	-0.074052475
70	0xbd7aefec	-0.061263964
71	0x3da46522	0.08027102
72	0x3d8b8588	0.068125784
73	0xbd4cf110	-0.050034583
74	0x3ddd4768	0.10804635
75	0xbd383a1d	-0.044977296
76	0x3ccb8e7a	0.024848212
77	0xbc3fa047	-0.011695928
78	0x3dcbbcd5	0.09948126
79	0xbdcb0ce6	-0.099145696
80	0x3d7f88c9	0.062386308
81	0xbca483c4	-0.020082362
82	0x3d7a5907	0.06112006
83	0x3cb9a0a4	0.022659607
84	0x3c15b565	0.009137486
85	0xbd4404d2	-0.04785616
86	0xbcf95031	-0.030433746
87	0x3b4c802e	0.003120433
88	0x3d836218	0.06415194
89	0xbc86958b	-0.01642873
90	0x3d90a872	0.070633784
91	0x3d107b2a	0.03527371
92	0x3db54ff2	0.08853139
93	0x3dcf7936	0.10130541
94	0xbd82bb8d	-0.06383429
95	0x3d26cb1b	0.04072104
96	0xbba6a3a6	-0.0050854264
97	0x3d41ce90	0.047316134
98	0x3c3b1a51	0.011419849
99	0x3daeb4a0	0.08530545
100	0xbdc1b2c3	-0.09457924
101	0x3d4038da	0.046929218
102	0x3aadcdd2	0.0013260192
103	0xbd062cd5	-0.0327576
104	0x3d3e35da	0.046438076
105	0xbc9e0a55	-0.019292036
106	0xbdb2514a	-0.08706911
107	0xbcc35e9f	-0.02384883
108	0x3d9c7ede	0.076413855
109	0x3d83a178	0.06427282
110	0xbce8c5ea	-0.028414685
111	0x3bf10436	0.0073552383
112	0xbcf8ac5d	-0.030355627
113	0xbc14473d	-0.009050188
114	0xbd17166d	-0.03688662
115	0xbd193541	-0.037404303
116	0x3ca6a57e	0.020342585
117	0x3cf4e080	0.029892206
118	0xbde98786	-0.11402802
119	0x3cb5f91d	0.022213513
120	0x3d174a54	0.03693612
121	0x3d98b582	0.07456495
122	0x3c90d20b	0.017678281
123	0xbca1b8d8	-0.01974146
124	0x3d8e1fbc	0.069396466
125	0xbd905a68	-0.070484936
126	0x3d59fe05	0.053220768
127	0xbd0a1ff7	-0.03372189
128	0xbdb1c54e	-0.08680211
129	0xbd503f48	-0.0508416
130	0x3bae3ea7	0.0053175273
131	0x3ddf36ae	0.10899101
132	0xbca04f14	-0.019568957
133	0xbc4c4288	-0.012467034
134	0xba8f6028	-0.0010938691
135	0x3c8872aa	0.016656239
136	0xbccfad82	-0.02535129
137	0xbd617139	-0.05503962
138	0xbd17618a	-0.036958255
139	0xbd4e2ffd	-0.050338734
140	0xbd15f0d1	-0.036606614
141	0xbdc9da37	-0.09856074
142	0xbced2f5e	-0.02895325
143	0xbd7b0aa8	-0.06128946
144	0xbda673b4	-0.08127537
145	0xbd5590ed	-0.052140165
146	0xbda22be9	-0.079185314
147	0xbd09d8d4	-0.03365405
148	0xbd85de45	-0.06536535
149	0xbd2ab029	-0.041671906
150	0x3d153d4b	0.036435407
151	0x3b24b710	0.0025133528
152	0xbd287869	-0.041130457
153	0x3cf22cfd	0.029562468
154	0xbd71dd8e	-0.05904918
155	0xbb8a2f32	-0.004217052
156	0xbe082fcb	-0.13299482
157	0xbd30b42f	-0.043140586
158	0x3d6c4443	0.057682287
159	0xbc2db863	-0.010603043
160	0x3d82533a	0.063635305
161	0x3d62b9ab	0.055352848
162	0xbc014df9	-0.007892125
163	0x3db9947f	0.090615265
164	0x3ceb452a	0.028719503
165	0xbdc929e4	-0.09822443
166	0xbd8f0fe1	-0.069854505
167	0x3cef8eb6	0.029242855
168	0xbdd7ba55	-0.10533587
169	0xbd880ae1	-0.066427
170	0xbd5982f5	-0.053103406
171	0x3d7287a1	0.059211377
172	0x3cb2c9af	0.021824686
173	0x3dadbecd	0.08483658
174	0xbd598e9a	-0.05311451
175	0xbd31fd61	-0.04345453
176	0x3d3d308f	0.046188887
177	0x3c8e89a5	0.017399618
178	0xbd2a5251	-0.04158241
179	0x3d801eab	0.062558495
180	0x3ccebec8	0.025237456
181	0xbda30a3c	-0.079609364
182	0xbd322954	-0.043496445
183	0x3b29e47d	0.0025923543
184	0x3d5459d5	0.051843483
185	0x3d8f4015	0.069946446
186	0x3d5000bf	0.05078196
187	0xbdd07951	-0.10179389
188	0x3b8ea618	0.004353296
189	0x3d39ad78	0.04533145
190	0xbd215cc8	-0.039395124
191	0xbda41855	-0.080124535
192	0x3cda1dae	0.02662548
193	0xbcca715f	-0.024712263
194	0x3c5304e9	0.012879589
195	0x3d94a9ec	0.072589725
196	0x3cd0dd59	0.025496172
197	0xbd1752ce	-0.036944203
198	0xbd001b92	-0.031276293
199	0x3d628a10	0.055307448
200	0xbbcd5937	-0.0062667388
201	0xbca02886	-0.019550573
202	0x3db4f30f	0.08835422
203	0xbbb5e116	-0.005550514
204	0xbdaec332	-0.08533324
205	0xbd2958c7	-0.04134443
206	0x3d61effc	0.055160508
207	0xbde81a93	-0.11333194
208	0xbdcf80fa	-0.10132022
209	0x3d78cd2c	0.060742542
210	0x3df5cd1c	0.12002012
211	0x3d0fde8f	0.035124358
212	0xbd5e2223	-0.054231774
213	0x393af07c	0.0001782793
214	0x3d48c7e0	0.04901874
215	0x3d993f6f	0.07482802
216	0x3def3961	0.11680866
217	0x3bad0b9d	0.0052809254
218	0x3d9f9874	0.0779275
219	0xbc671b9e	-0.014105706
220	0xbd88459d	-0.06653903
221	0xbd3c8323	-0.0460235
222	0xbcc06d1c	-0.023489527
223	0x3cae2d22	0.021261755
224	0x3c8eb061	0.017418088
225	0xbd3e8616	-0.046514593
226	0xbb4f35cf	-0.0031617766
227	0x3dcc9630	0.099895835
228	0x3d1abd75	0.037778337
229	0x3d5755ce	0.052572064
230	0xbb69388d	-0.0035586685
231	0xba1fb1ec	-0.0006091881
232	0x3d8a4664	0.06751707
233	0xbda5b0e6	-0.08090381
234	0xbd6ade89	-0.057341132
235	0x3d1d35ba	0.038381316
236	0xbd986f0e	-0.07443057
237	0x3cbc3cde	0.022978242
238	0x3db47092	0.088105336
239	0xbd5ff72e	-0.05467909
240	0x3bb3b3e5	0.0054840916
241	0x3db66186	0.0890532
242	0xbcb6b7b0	-0.022304386
243	0x3d8a436f	0.06751143
244	0x3d04aed7	0.032393303
245	0x3d9c7e92	0.07641329
246	0x3d48b96d	0.04900496
247	0xbd2978be	-0.041374914
248	0xbbbcf6ae	-0.005766711
249	0xbd9c6970	-0.07637298
250	0xbc287f79	-0.010284298
251	0xbe02678f	-0.12734817
252	0x3c82573b	0.015910735
253	0x3d0918e1	0.033470992
254	0xbc4619f4	-0.012091149
255	0xbdc07060	-0.09396434

layers.2.bias f4 [64]
0	0x3dc009c4	0.09376863
1	0x3c14ad39	0.009074503
2	0x3ddb32f1	0.10703076
3	0x3c61581b	0.013753916
4	0xbda3e179	-0.0800199
5	0xbb160e57	-0.002289673
6	0xbc913e88	-0.017730013
7	0x3d87ea48	0.066364825
8	0xbdc821cd	-0.09772072
9	0xbdbd78b0	-0.09251535
10	0x3cbed121	0.02329308
11	0xbd4fe45a	-0.050754882
12	0xbb4fb8c8	-0.0031695832
13	0x3c090e7e	0.008365272
14	0xbd61d5ee	-0.05513566
15	0x3da081f5	0.07837287
16	0xbc086c00	-0.00832653
17	0x3c649c59	0.013953292
18	0xbbda9790	-0.0066708997
19	0x3b9e27dc	0.004826529
20	0x3d9634dd	0.073343016
21	0x3c12c233	0.0089574335
22	0xbd9f2fc5	-0.07772783
23	0xbe1bf7ed	-0.15231295
24	0x3dc546a3	0.096326135
25	0xbcbcfd45	-0.023069987
26	0x3d39d92c	0.045373127
27	0xbd3022ff	-0.043002125
28	0x3e0cd7f7	0.13754259
29	0xbe046721	-0.12929966
30	0x3bbb0e2a	0.0057084756
31	0xbdea96d7	-0.11454552
32	0x3df04362	0.11731602
33	0x3c94656e	0.018114772
34	0x3e278e25	0.16362818
35	0x3d7c953e	0.061665766
36	0x3c9c78e6	0.019100618
37	0x3d2684ee	0.040654115
38	0x3cc0fa5b	0.023556879
39	0x3ca78194	0.02044753
40	0xbcb3a2f6	-0.021928292
41	0x3de0b9de	0.10972951
42	0x3d873b7f	0.06603145
43	0x3c5d4227	0.0135045415
44	0xbe001b45	-0.12510403
45	0xbd8253d2	-0.06363644
46	0xbe08c5ac	-0.13356656
47	0xbe3390a8	-0.1753565
48	0x3dc971e5	0.09836177
49	0xbdcf90fb	-0.10135075
50	0xbd293c54	-0.0413173
51	0x3d264a69	0.040598307
52	0x3d2ea495	0.042637426
53	0x3e26ca1b	0.16288035
54	0xbcfba810	-0.030719787
55	0xbe0027b6	-0.12515149
56	0x3dea5300	0.11441612
57	0xbe21c1c5	-0.15796573
58	0xbd8e2ff8	-0.06942743
59	0x3c94faa3	0.01818592
60	0xbe22a552	-0.15883377
61	0xbe149bea	-0.14512601
62	0x3d1dc8cf	0.038521584
63	0xbcdf36c2	-0.02724779

readout.weight f4 [1, 64]
0	0xbe2db431	-0.16963269
1	0xbe188139	-0.14893045
2	0xbdc9c8c1	-0.09852744
3	0x3de2200c	0.11041269
4	0x3dcfd2dc	0.1014764
5	0x3dfacbee	0.12245928
6	0xbe5c16ce	-0.21493074
7	0xbdf8ce18	-0.12148684
8	0x3e50800b	0.20361345
9	0x3e3a159c	0.18172306
10	0xbe1ee384	-0.15516478
11	0x3db5a19b	0.088687144
12	0xbda9115f	-0.082552664
13	0xbdd0078c	-0.101576895
14	0x3e92180c	0.2853397
15	0xbe0de53a	-0.13856974
16	0xbe32e0d0	-0.17468572
17	0x3dced2ec	0.10098824
18	0x3e27f2b5	0.16401179
19	0xbd5791fe	-0.052629463
20	0xbe0a4403	-0.13502507
21	0x3e32a5c2	0.17446044
22	0x3de3df86	0.11126618
23	0x3e0e4794	0.13894492
24	0xbdf732db	-0.12070247
25	0xbe43a6a1	-0.19106533
26	0xbe3176b0	-0.17330432
27	0x3e275c23	0.16343741
28	0xbe283c6d	-0.164293
29	0x3e453d10	0.19261575
30	0x3d85ad3e	0.06527184
31	0x3d97c05d	0.07409737
32	0xbe5c2729	-0.21499313
33	0x3dacee6b	0.08443912
34	0xbe1401e2	-0.14453843
35	0xbe47d712	-0.19515637
36	0x3ddd88dc	0.108171195
37	0xbe6ee7e1	-0.23330642
38	0xbe15014c	-0.14551276
39	0x3e2b33cc	0.16718978
40	0xbe5b021b	-0.21387522
41	0xbe21b6d3	-0.15792398
42	0xbe3fdea8	-0.1873728
43	0xbe3cc2c6	-0.18433675
44	0x3e34d4d7	0.17659317
45	0x3e7928ee	0.2433202
46	0x3e0f3a78	0.13987148
47	0x3e1f0f86	0.15533265
48	0xbe465f06	-0.19372186
49	0x3e420148	0.18945801
50	0x3e7ad6de	0.24496028
51	0xbd8d3c86	-0.068963096
52	0xbe195415	-0.14973481
53	0xbe8c9fe0	-0.27465725
54	0xbe09445d	-0.13404985
55	0x3e375f79	0.17907514
56	0xbe3bc02b	-0.18335025
57	0x3e1dcfc3	0.15411286
58	0x3e273b32	0.16331175
59	0x3db33964	0.08751181
60	0x3e0be658	0.13662088
61	0x3e4cc27c	0.19996065
62	0xbe1944c1	-0.14967634
63	0x3e50b900	0.20383072

layers.0.weight f4 [128, 17]
0	0x3d2646be	0.04059481
1	0x3eef2b81	0.46712878
2	0x38baba3f	8.903862e-05
3	0xbc2416af	-0.010015174
4	0xbda905f1	-0.08253086
5	0x3d0c6e12	0.03428466
6	0xbdeddb45	-0.11614088
7	0x3e4c5bfe	0.19956967
8	0x3bd594e5	0.0065179938
9	0xbddce26b	-0.10785373
10	0xbb3495d6	-0.002755513
11	0xbdad5f85	-0.084654845
12	0x3e2c1e2d	0.16808386
13	0xb99231c3	-0.00027884365
14	0xbeafc05d	-0.3432645
15	0x3d5acab5	0.053415973
16	0x3da0c955	0.07850901
17	0xbd73de0c	-0.059537932
18	0xbec72381	-0.38894275
19	0xbdbf7df9	-0.09350199
20	0x3e101955	0.14072163
21	0x3e38a023	0.18029837
22	0x3d9be166	0.07611351
23	0xbe258555	-0.16164143
24	0xbd5e96a4	-0.05434288
25	0xbebcebaa	-0.36898547
26	0x3dd7e7ff	0.105422966
27	0xbe1a0258	-0.15039957
28	0x3d1b45f3	0.037908506
29	0x3e7df4e9	0.24800457
30	0xbe4e4e4d	-0.20147057
31	0x3daf7642	0.08567478
32	0x3d6b2f62	0.057418235
33	0xbd4838af	-0.048882183
34	0x3ef6c84e	0.48199695
35	0xbf10af55	-0.56517535
36	0x3e225b37	0.15855108
37	0x3e41b7e3	0.18917803
38	0x3e97669d	0.29570475
39	0x3e06205e	0.13098285
40	0x3d41810c	0.04724221
41	0x3d93a1bf	0.07208585
42	0xbf03cd25	-0.514849
43	0x3e8137e9	0.2523797
44	0xbdc2b2b6	-0.09506743
45	0xbdada5fb	-0.08478924
46	0x3db540bc	0.08850238
47	0x3cd7ed50	0.026358277
48	0x3e852af8	0.26009345
49	0xbdcee9d9	-0.10103197
50	0x3e4c2e9a	0.19939652
51	0xbe2cf78c	-0.16891307
52	0xbea2d6f4	-0.3180462
53	0xbde895ab	-0.11356672
54	0xbe600bc2	-0.21879485
55	0x3da614b8	0.081094205
56	0xbdb020ab	-0.08599981
57	0x3c10aeaf	0.00883071
58	0x3d073096	0.03300532
59	0x3d1414ff	0.036152836
60	0xbdd7661c	-0.10517523
61	0xbdc5f1ee	-0.09665285
62	0x3d85d8a1	0.06535459
63	0x3e455b10	0.19273019
64	0xbb1ebbab	-0.0024220746
65	0xbe01b21e	-0.12665603
66	0xbe7bccc7	-0.24589835
67	0xbd5f8eae	-0.05457943
68	0xbcf82b9a	-0.030294228
69	0xbe408b9f	-0.18803261
70	0xbce9c486	-0.028536092
71	0x3dfd5250	0.123692155
72	0xbe34b85b	-0.17648451
73	0x3e0935f9	0.13399495
74	0xbe6ee7ff	-0.23330687
75	0x3d35cf9d	0.04438745
76	0x3e0c54c4	0.1370421
77	0x3c50fe0d	0.012755883
78	0x3d6d1d99	0.057889555
79	0x3d8fa609	0.070140906
80	0xbd6bc122	-0.057557233
81	0x3e50dcbc	0.20396703
82	0x3d11fecc	0.035643384
83	0xbb9d8d5b	-0.0048081107
84	0xbe7b574e	-0.24545023
85	0x3eab65e4	0.33476174
86	0xbea6e926	-0.32599753
87	0xbdaa5a32	-0.08317985
88	0xbd4306e7	-0.047614004
89	0xbdb7d0c7	-0.08975368
90	0xbe988a0d	-0.29792824
91	0xbe9d6c2b	-0.30746588
92	0x3dd3d7a9	0.10343868
93	0xbe97c7c0	-0.29644585
94	0xbe0432ee	-0.12910053
95	0xbe4aa759	-0.197904
96	0x3c795005	0.015216832
97	0x3e99b99d	0.30024424
98	0x3b951e60	0.00455074
99	0x3e0c5530	0.13704371
100	0xbe9692e0	-0.29408932
101	0xbd14af84	-0.036300197
102	0x3e410cbe	0.18852517
103	0xbe3675f6	-0.17818436
104	0xbdc2dca1	-0.09514738
105	0xbe192c62	-0.14958337
106	0x3d6f6eb8	0.0584552
107	0xbe07e8ce	-0.13272402
108	0x3eb3b782	0.35100943
109	0xbd32f3e9	-0.043689642
110	0xbe2edcd7	-0.17076431
111	0x3e91ab86	0.28451174
112	0xbdef4c8e	-0.116845235
113	0x3e732747	0.23745452
114	0x3dd80c3d	0.10549209
115	0xbe720778	-0.23635662
116	0xbd747903	-0.05968572
117	0xbe84110f	-0.25794265
118	0x3e57a933	0.21060638
119	0xbe1990b6	-0.14996609
120	0x3e1a2810	0.15054345
121	0xbdfad1d1	-0.122470506
122	0xbeaa074f	-0.332087
123	0xbd85598d	-0.06511221
124	0x3e96bf7a	0.2944296
125	0xbd6e9f07	-0.05825713
126	0x3d98ff5a	0.074705794
127	0x3e6358c6	0.22201833
128	0xbdf6a439	-0.12043042
129	0x3e8b1f85	0.27172485
130	0xbe0a37b2	-0.13497809
131	0x3e5852a1	0.2112527
132	0x3e4ef374	0.20210057
133	0x3e12101d	0.14263959
134	0x3e4d320f	0.20038627
135	0x3d5a0b5d	0.053233493
136	0x3eb8e050	0.36108637
137	0xbea11f3b	-0.3146914
138	0x3da13e57	0.078732185
139	0x3e8367f0	0.25665236
140	0x3e968f9c	0.2940644
141	0xbd01bad1	-0.031672303
142	0xbe8c6801	-0.274231
143	0xbe32e392	-0.17469624
144	0xbf181717	-0.5941023
145	0x3e899ccb	0.26877436
146	0xbd1dbde6	-0.03851118
147	0xbd8d7bad	-0.06908355
148	0x3d87bc9a	0.0662777
149	0xbca54b71	-0.020177575
150	0xbe838949	-0.25690678
151	0xbd06da77	-0.032923188
152	0xbcdb1b3b	-0.026746383
153	0x3e72ec54	0.23722965
154	0xbefa692b	-0.48908362
155	0xbea7cb48	-0.3277228
156	0x3e6b91a0	0.2300477
157	0x3e5363da	0.20643559
158	0x3e0e65b4	0.13905984
159	0xbe539214	-0.20661193
160	0xbd693cef	-0.056942876
161	0x3e7a3be8	0.24436915
162	0xbe4be355	-0.19910939
163	0xbe18259b	-0.14858095
164	0xbdc94894	-0.09828296
165	0xbcf080d9	-0.029358314
166	0x3dd3efdb	0.10348483
167	0x3eb96792	0.3621183
168	0x3c832dd9	0.016013073
169	0xbe1c6c5a	-0.15275708
170	0xbe4a05b2	-0.19728735
171	0x3e33dae1	0.17563964
172	0x3e91ad7e	0.28452677
173	0xbe3f9e51	-0.18712737
174	0xbee05f53	-0.43822727
175	0x3e010d68	0.1260277
176	0xbf0facab	-0.56122845
177	0x3e4030c0	0.18768597
178	0x3e8d632f	0.27614734
179	0xbe9b753b	-0.30362877
180	0xbd8cd377	-0.06876271
181	0x3e42831d	0.18995328
182	0xbd85188f	-0.06498825
183	0xbd6f70e9	-0.05845729
184	0x3e0b7d4f	0.1362202
185	0x3e5c8ffb	0.21539299
186	0x3e749708	0.23885739
187	0x3e1abbd8	0.15110719
188	0xbe153e9d	-0.14574666
189	0xbe032305	-0.12806328
190	0xbe27ec80	-0.16398811
191	0x3d67225f	0.056429263
192	0x3edd5aaf	0.4323325
193	0x3da9388b	0.08262738
194	0xbe041f1d	-0.12902494
195	0xbe9a46df	-0.30132195
196	0x3e9cb167	0.30604097
197	0xbee528c3	-0.4475766
198	0x3e296acd	0.16544648
199	0xbe212570	-0.15736938
200	0x3e62e270	0.22156692
201	0x3cba5b5c	0.022748642
202	0x3e339f18	0.17541158
203	0x3d900de2	0.07033898
204	0x3d1eadf1	0.038740102
205	0x3b7c6068	0.003850961
206	0xbd8b44a5	-0.06800202
207	0x3d81108f	0.063019864
208	0xbe8205ec	-0.25395143
209	0xbf1271ac	-0.572047
210	0xbe70356d	-0.2345788
211	0xbde0edb9	-0.10982842
212	0x3e201fb3	0.15637092
213	0x3d87731a	0.06613751
214	0x3e90306f	0.28161952
215	0x3cc3a425	0.023881981
216	0x3e3a2558	0.18178308
217	0xbe074fd2	-0.13214043
218	0xbe4e8512	-0.2016795
219	0x3e197a1e	0.1498799
220	0x3e055ad2	0.13022926
221	0xbdfab187	-0.12240892
222	0x3e857e70	0.26073027
223	0x3e16f3c0	0.14741421
224	0x3e0b9374	0.13630468
225	0xbdb3ec6a	-0.08785327
226	0x3d480ea1	0.048842076
227	0x3e02bc08	0.1276704
228	0x3e30e3a8	0.17274344
229	0xbdbc3ed9	-0.09191675
230	0x3e1a9967	0.15097581
231	0xbe80923f	-0.25111577
232	0xbcb08700	-0.021548748
233	0x3e9c129d	0.3048295
234	0x3e882ce4	0.2659675
235	0xbe307e7a	-0.17235747
236	0xbda4f6b6	-0.08054869
237	0x3de25e00	0.11053085
238	0x3ef3220b	0.4748691
239	0xbee159ab	-0.44013724
240	0xbec32e17	-0.381211
241	0xbe67ce89	-0.2263738
242	0xbe87efef	-0.26550242
243	0xbdee1341	-0.11624766
244	0xbe756843	-0.23965554
245	0xbe9660f5	-0.29370847
246	0xbe8b6b08	-0.27230096
247	0x3e74623f	0.23865603
248	0x3c1e24ab	0.009652297
249	0xbe97e289	-0.2966502
250	0x3e0e96dc	0.13924736
251	0x3dde596b	0.10856899
252	0xbe3c80a7	-0.18408452
253	0x3d0aa2d6	0.0338467
254	0x3e0950c7	0.1340972
255	0x3cc16df6	0.023612004

layers.0.bias f4 [128]
0	0x3e669b92	0.22520283
1	0x3e2df2ba	0.16987124
2	0xbe8b8b06	-0.27254504
3	0x3eaee33e	0.34157747
4	0x3e86b897	0.26312706
5	0xbe937bf4	-0.28805506
6	0x3d9aa43f	0.07550859
7	0x3d218518	0.03943357
8	0xbeeb8d4f	-0.46006247
9	0x3d6b5d56	0.05746206
10	0x3e9edb9d	0.31026927
11	0x3dfb1a2a	0.1226085
12	0x3eb9fb09	0.36324337
13	0x3e04ea7c	0.12980074
14	0xbea625dc	-0.3245076
15	0xbe398a04	-0.18119055
16	0xbda09213	-0.078403614
17	0x3e7ed89b	0.24887316
18	0x3e8b62e4	0.27223885
19	0x3d9811c9	0.07425267
20	0x3d21d13c	0.039506182
21	0x3e7c9c9b	0.24669115
22	0xbe86db97	-0.2633941
23	0x3e81f915	0.25385347
24	0xbe2e86ca	-0.17043605
25	0x3e949fe7	0.29028246
26	0x3e472e75	0.19451316
27	0x3e9f44d4	0.311072
28	0xbdb036b3	-0.08604183
29	0x3e215c1a	0.1575779
30	0x3d180639	0.03711531
31	0x3dd96588	0.10615069
32	0xbe8247ef	-0.25445506
33	0x3d651e2a	0.05593697
34	0xbdca439e	-0.09876178
35	0xbeb98b63	-0.36239156
36	0xbecdaf68	-0.40172887
37	0x3ea61075	0.3243443
38	0xbe7573e3	-0.23969989
39	0xbdb9a383	-0.090643905
40	0xbd157f9e	-0.03649866
41	0x3e9ad009	0.30236843
42	0xbe4e620f	-0.20154594
43	0x3b9923c3	0.0046734526
44	0xbd342d92	-0.04398877
45	0x3e407e9e	0.187983
46	0x3d561211	0.052263323
47	0x3ea8fe82	0.33006674
48	0xbe1d3e96	-0.15355906
49	0x3e3ee99b	0.18643801
50	0x3e6e27c9	0.23257364
51	0x3d4f9738	0.050681323
52	0x3e876df9	0.2645109
53	0xbeeaa804	-0.4583131
54	0xbe52299d	-0.20523687
55	0xbeb9637c	-0.36208713
56	0xbb9cdd4a	-0.004787122
57	0xbe890d71	-0.26768067
58	0xbe1a0e94	-0.15044624
59	0xbe4253e3	-0.18977313
60	0x3d846421	0.064644106
61	0xbd4094d4	-0.047016934
62	0xbebdb580	-0.37052536
63	0x3e1e27e6	0.15444908
64	0xbd7aaf2d	-0.061202217
65	0xbe781fc0	-0.24230862
66	0x3de0b1c0	0.10971403
67	0xbedf58eb	-0.43622527
68	0xbe075ee1	-0.13219787
69	0xbdc29bdf	-0.09502386
70	0x3e400edf	0.18755673
71	0x3e63a9a4	0.22232682
72	0xbe8095e7	-0.25114366
73	0xbe14cfe5	-0.1453243
74	0xbefdd278	-0.49574637
75	0x3e493b22	0.19651464
76	0xbe251183	-0.16119961
77	0x3dbe621a	0.09296055
78	0x3da05848	0.07829338
79	0xbe8fabcb	-0.28060755
80	0x3d666c69	0.05625573
81	0xbe403bed	-0.1877286
82	0xbccd4eb9	-0.025061952
83	0xbe56a6be	-0.20962045
84	0x3db44926	0.088030145
85	0x3d427159	0.047471378
86	0x3e9312de	0.28725332
87	0xbcca496c	-0.024693213
88	0xbe44ed7b	-0.19231217
89	0x3e85291e	0.26007932
90	0xbe80c480	-0.25149918
91	0xbe5272e9	-0.20551647
92	0x3c2f3d9c	0.010695841
93	0x3e007bdb	0.12547247
94	0x3ebdf56c	0.37101305
95	0xbec92b4d	-0.39290848
96	0xbd80a5a3	-0.06281593
97	0xbe0488a4	-0.1294275
98	0xbde6df4f	-0.112730615
99	0x3e7e289e	0.24820182
100	0x3da7ba79	0.08189864
101	0xbc2be84b	-0.010492395
102	0x3e34db8e	0.17661878
103	0xb9231fcc	-0.00015556737
104	0x3efb5451	0.49087766
105	0xbe11a8a2	-0.14224485
106	0x3c896954	0.016773857
107	0xbd84d885	-0.0648661
108	0x3d5561b6	0.052095138
109	0x3ebd340b	0.36953768
110	0x3e14493a	0.14481059
111	0x3ef91036	0.4864518
112	0xbe5337e0	-0.20626783
113	0xbc99ea43	-0.018788463
114	0x3d9cb180	0.07651043
115	0xbea6564c	-0.32487714
116	0xbe9b45ce	-0.30326694
117	0xbd018c22	-0.03162778
118	0x3e259862	0.1617141
119	0xbd919168	-0.07107812
120	0x3dac2d69	0.08407099
121	0xbe022b8a	-0.12711921
122	0x3d7ceca4	0.061749116
123	0x3e968dd4	0.2940508
124	0x3cac123b	0.021004787
125	0xbe40bec9	-0.18822779
126	0x3def5049	0.11685235
127	0x3e2ba4cc	0.16762084

layers.1.weight f4 [128, 128]
0	0x3d02d4da	0.031941272
1	0x3e0433d1	0.12910391
2	0x3dc37692	0.095441
3	0xbcc74ed4	-0.02432958
4	0xbe259001	-0.16168214
5	0xbcbff178	-0.023430571
6	0x3bebe458	0.0071988516
7	0x3b921ac2	0.004458756
8	0x3dea815b	0.11450454
9	0xbd9a8378	-0.07544607
10	0xbde111ef	-0.10989749
11	0x3d124170	0.035706937
12	0xbdcd0fcc	-0.10012779
13	0x3d03d736	0.032187663
14	0xbd9b1dc6	-0.07574038
15	0xbe1a49b5	-0.1506718
16	0x3b81b3d7	0.003958206
17	0x3e0ab5e3	0.13545947
18	0x3c27d123	0.010242733
19	0xbcebc978	-0.028782591
20	0xbd9a02bb	-0.07520052
21	0x3d86f40c	0.06589517
22	0x3d8f8c22	0.0700915
23	0x3d890f59	0.066923805
24	0x3d251c28	0.040310055
25	0xbe3caf22	-0.18426183
26	0x3e16aa5b	0.14713423
27	0xbd58df28	-0.052947193
28	0x3e3e794e	0.18600962
29	0x3de2fbe7	0.11083203
30	0x3cf1bc11	0.029508622
31	0xbd032b5f	-0.032023784
32	0x3d073f55	0.033019383
33	0xbdadf488	-0.08493906
34	0xbdea0f5c	-0.11428711
35	0xbda3cecb	-0.07998427
36	0x3cd8cd2a	0.026465017
37	0xbd61fcd0	-0.05517274
38	0xbd4627df	-0.048377868
39	0x3d824fe6	0.06362896
40	0xbddc7950	-0.10765326
41	0x3c467f0b	0.01211525
42	0xbd7048b7	-0.058663096
43	0x3d5908ab	0.052986782
44	0x3d7def78	0.061995953
45	0x3cba0457	0.022707148
46	0x3d8c95f5	0.068645395
47	0xbbc07330	-0.0058731064
48	0x3d89c4db	0.06727
49	0xbd854ba2	-0.065085664
50	0xbdbf3154	-0.093355805
51	0x3d01dcb9	0.03170464
52	0xbc5176c0	-0.01278466
53	0x3de50d40	0.11184168
54	0x3c64cd40	0.013964951
55	0x3da0e0c4	0.07855371
56	0xbd7079c3	-0.05870987
57	0xbde9d5c7	-0.11417728
58	0x3dad2af5	0.08455459
59	0xbe2b1d8d	-0.16710491
60	0xbd85f406	-0.065406844
61	0x3be5ed68	0.0070168264
62	0xbbb2ec65	-0.0054603093
63	0x3dab9a21	0.08379007
64	0x3d5cf3ea	0.053943552
65	0x3d841dbf	0.06450986
66	0xbdde41b5	-0.10852376
67	0x3d7a0b82	0.06104613
68	0x3d7eb0a1	0.062180165
69	0xbd8fd053	-0.070221566
70	0xbd8fe73d	-0.07026527
71	0x3cb45793	0.022014415
72	0xbda9d530	-0.082926154
73	0x3d8b6542	0.06806423
74	0x3d3bd83a	0.045860507
75	0xbda3b163	-0.07992818
76	0x3c004adb	0.007830347
77	0xbd5660f6	-0.052338563
78	0xbd44d18b	-0.0480514
79	0x3da90347	0.08252578
80	0x3de07e3a	0.10961576
81	0x3ddfac0e	0.10921489
82	0xbd9417ae	-0.07231079
83	0xbe23fe41	-0.16014959
84	0xbd83c7b1	-0.064345725
85	0x3db6a0eb	0.089174114
86	0x3db00244	0.08594182
87	0x3d33d013	0.043899607
88	0x3d822c25	0.06356076
89	0x3d4a533b	0.04939578
90	0xbdff900c	-0.12478647
91	0xbd2f6873	-0.04282422
92	0x3d00eb15	0.03147419
93	0xbc69381b	-0.014234568
94	0xbd9ff225	-0.07809857
95	0xbd2b6a61	-0.041849498
96	0xbd03f486	-0.032215618
97	0x3dd38dad	0.10329757
98	0xbd8cce6b	-0.068753086
99	0xbdf13d04	-0.11779216
100	0xbd531230	-0.051531017
101	0xbdc90ee9	-0.09817297
102	0xbc934e4e	-0.017981675
103	0xbd616a32	-0.055032916
104	0xbe7515e8	-0.23934138
105	0x3ccd9d25	0.025099346
106	0x3da493d8	0.080360115
107	0xbdf77772	-0.12083329
108	0x3cdb0bd9	0.026739048
109	0xbddfec30	-0.10933721
110	0xbc1df76c	-0.0096415095
111	0xbd808e5a	-0.062771514
112	0x3b9af32d	0.004728696
113	0xbdaa69d6	-0.08320968
114	0xbe03a057	-0.12854134
115	0x3dcd8036	0.1003422
116	0xbbb0ea55	-0.0053990283
117	0x3d0cbbdf	0.034358855
118	0x3db21776	0.08695881
119	0xbda769af	-0.081744544
120	0xbde8d076	-0.11367886
121	0x3ccdeb62	0.025136653
122	0xbc85d075	-0.016334752
123	0x3db3f394	0.08786693
124	0xbd1a8148	-0.03772095
125	0x3d97495a	0.073870376
126	0xbd1e4a72	-0.038645215
127	0xbd1d002d	-0.038330246
128	0x3d0dd0ea	0.034623064
129	0x3d966cf0	0.07344997
130	0x3dd616bb	0.10453554
131	0x3d341fdf	0.043975707
132	0x3a69ca66	0.00089184043
133	0x3d164f72	0.03669686
134	0xbd46dabd	-0.04854845
135	0xbd56a4ea	-0.052403368
136	0x3e0be72f	0.13662408
137	0x3d979a49	0.074024744
138	0x3c0732ef	0.00825189
139	0x3d194a1e	0.0374242
140	0x3e10b292	0.14130619
141	0x3ca072da	0.019586015
142	0x3d386eec	0.04502766
143	0x3daaf16d	0.083468296
144	0xbd36cc40	-0.04462838
145	0x3c9cc908	0.019138828
146	0x3c536996	0.012903592
147	0x3d574ed4	0.05256541
148	0x3d51fc7e	0.051266186
149	0xbcc5e8a7	-0.024158789
150	0x3e1e8536	0.15480503
151	0xbdb6270a	-0.08894165
152	0x3c23c0eb	0.009994726
153	0x3dedadbe	0.11605404
154	0x3d34c1bb	0.04413007
155	0x3dd922a5	0.10602311
156	0xbd95fc27	-0.07323485
157	0x3d33ba17	0.04387864
158	0x3cc031da	0.023461271
159	0x3d92b7e6	0.07163982
160	0x3ce2ef8a	0.027702112
161	0xbd631476	-0.055439435
162	0x3de9d7c1	0.11418105
163	0x3d509463	0.050922763
164	0xbd888176	-0.06665318
165	0x3cbd2176	0.023087244
166	0x3d9fdd8a	0.07805927
167	0xbdb32a9d	-0.08748362
168	0x3d32bdd9	0.043638084
169	0x3de55f80	0.11199856
170	0xbcd6ebe4	-0.026235528
171	0xbd89ead3	-0.06734242
172	0xbc0d3aeb	-0.008620004
173	0x3bc5e4a0	0.006039217
174	0x3d282cbf	0.0410583
175	0xb91f0e0c	-0.00015168654
176	0x3d79e689	0.06101087
177	0x3da4ea4e	0.080525026
178	0xbc9606ce	-0.018313792
179	0x3cd00675	0.025393704
180	0xbd69e450	-0.0571025
181	0xbc3346f8	-0.010942213
182	0x3d304a3b	0.04303954
183	0x3dab9e2a	0.08379777
184	0xbd4b988a	-0.04970602
185	0xbd446185	-0.047944564
186	0xbca7b72c	-0.020473085
187	0x3de8d081	0.11367894
188	0xbd14f5d9	-0.03636727
189	0x3da23b98	0.07921523
190	0xbd021590	-0.031758845
191	0x3dba81fb	0.09106823
192	0x3d63f840	0.05565667
193	0x3d91c534	0.07117692
194	0x3d443160	0.04789865
195	0xbddb9f6a	-0.10723765
196	0x3cf305c4	0.029665835
197	0x3d90da6d	0.070729114
198	0x3ca82eec	0.020530187
199	0x3cb4a7ff	0.022052763
200	0x3d947ea1	0.07250715
201	0x3d1a7725	0.03771128
202	0x3c808f6f	0.015693394
203	0xbd395326	-0.045245312
204	0xbd842213	-0.06451812
205	0x3d40b2f3	0.04704566
206	0x3d6fb02d	0.058517624
207	0x3d8df0cd	0.06930695
208	0xbdac53c0	-0.084144115
209	0x3dc1f5d6	0.094707176
210	0xbd1cb63e	-0.038259737
211	0x3d38c893	0.045113157
212	0x3df5d934	0.12004319
213	0x3d86e800	0.06587219
214	0xbd0d893a	-0.034554698
215	0xbd6e875d	-0.05823456
216	0x3d729615	0.05922516
217	0xbd59c2e6	-0.053164385
218	0xbd038928	-0.032113224
219	0x3c09cff7	0.008411399
220	0x3d2732b6	0.040819846
221	0xbcbff55f	-0.023432432
222	0x3ba837ad	0.00513359
223	0x3cbbbcb6	0.022917133
224	0x39fd8102	0.0004835204
225	0x3c907b42	0.017636899
226	0xbd5cab52	-0.05387432
227	0x3dd17f9b	0.10229417
228	0x3d098517	0.03357419
229	0xbe02744c	-0.12739676
230	0x3c913bd9	0.017728733
231	0x3cf62e56	0.030051392
232	0x3d9d4116	0.0767843
233	0x3d07eccb	0.033184808
234	0x3d28126b	0.04103319
235	0xbd2648f3	-0.040596914
236	0x3dda9c15	0.106743015
237	0x3d2756f1	0.0408544
238	0x3b7026f4	0.0036644312
239	0x3d2c1c34	0.042019084
240	0x3e06bf53	0.13158922
241	0x3df2b61c	0.11851141
242	0xbcdcaf9a	-0.026939202
243	0x3b6a9904	0.003579677
244	0xbdc4e52a	-0.09614022
245	0x3d851960	0.064989805
246	0x3da141ac	0.07873854
247	0x3d662724	0.05618967
248	0xbce8b438	-0.028406247
249	0x3dedaee6	0.11605625
250	0x3d941098	0.072297275
251	0x3daed151	0.08536018
252	0x3c078d84	0.008273486
253	0xbc303a33	-0.010756063
254	0x3dd67748	0.1047197
255	0xbd048c77	-0.03236052
