Gym-DDPG-solution/results/DDPG_HalfCheetah-v4_2500-eps0.1-t32-l0.0001-s1.pth (torch, 193979 bytes, 13 tensors)

layers.0.weight f4 [128, 23]
0.13760573 -0.054199684 0.015137418 0.1298119 -0.15640612 0.43187857 0.058452874 0.10310997
-0.34184155 0.13407734 0.066533655 0.01328512 0.014230224 -0.010551137 0.033055983 -0.025762187
-0.007076001 0.05061486 0.24005955 0.19193375 -0.10572579 -0.17513485 -0.058335498 -0.005512045
-0.027134394 0.7021512 0.30714488 0.11333443 -0.13844736 0.3670927 -0.118975796 0.3786416
0.13080251 -0.32347387 -0.015002381 -0.053223956 0.0044984194 -0.038185503 0.03213282 -0.0011610024
0.4424396 0.025813213 0.09649837 0.11330435 -0.33499846 0.06569512 0.2041374 -0.043595824
-0.33158255 0.14171168 -0.023899617 -0.8679183 -0.46597016 -0.06210009 0.38210896 0.5094077
-0.14478126 -0.00025073977 0.005778716 -0.002580559 -0.023211958 -0.01218002 -0.003621718 0.1253303
0.059075017 -0.10876915 0.044408876 -0.14552133 -0.051005088 -0.27187097 -0.007890642 -0.14015819
0.23134646 0.2129706 0.11077583 0.14639631 0.14897436 -0.09648306 -0.47971272 -0.06698506
-0.16732551 -0.10561403 -0.021876791 0.036159452 0.044168007 -0.004965747 -0.2505092 0.13166161
0.122868456 0.11364218 0.23840836 -0.17955074 0.2463152 0.08850806 -0.23859297 0.0695972
0.15893073 0.29098085 -0.29553097 -0.28483352 0.37290397 -0.052532226 0.22745381 0.04739194
-0.12706383 -0.04476592 0.09369761 0.013156729 0.017346926 0.13384092 0.09493752 0.14451508
0.28275868 -0.13758168 0.0019819054 0.009236328 0.48305017 -0.2224989 -0.4809572 0.03186317
0.121581286 0.19197945 0.35639134 -0.10722544 0.11029705 -0.15038183 -0.11190377 -0.06637302
0.02193192 0.06564406 0.041332465 0.035167012 0.17283373 0.18470216 0.12583369 0.3780402
0.19602384 0.008682399 -0.020716822 -0.08347866 0.30295342 0.012136436 -0.32746872 -0.038678024
-0.060897656 0.020300979 0.38119957 0.2933661 0.20238343 0.114901744 -0.009089102 0.22052203
-0.09630022 -0.009230049 -0.024275878 -0.07573389 -0.121193446 -0.34255087 0.2593212 -0.11357343
-0.08983694 0.28968516 0.18344176 0.6200049 -0.1833997 0.14870517 -0.028123362 -0.052654956
-0.14654909 -0.32440406 -0.21177565 0.18614317 -0.014149741 0.037365217 0.051062927 0.0911868
0.015466736 0.038013157 -0.14862257 0.3807959 0.003335432 0.058837928 -0.18323371 -0.12657978
-0.39693576 0.3829831 -0.22022493 -0.05548754 -0.1525568 -0.43708676 0.25382304 -0.07475587
-0.26850694 -0.12084331 0.10812418 -0.028626898 0.022871492 -0.021183444 0.107111044 -0.014641605
0.013597593 -0.35165328 0.30719253 -0.04379245 0.05630232 -0.113142215 -0.08265964 -0.16361555
0.26385465 0.22437298 -0.75609386 0.14531302 -0.15885945 0.1085474 0.37863106 0.5183168
0.43938154 -0.008255687 -0.042669475 0.061272733 0.003398316 -0.019247396 -0.08399402 -0.024919333
0.22174215 -0.0004156204 0.09250149 0.019769633 0.2979217 0.20553495 0.12598439 -0.6358002
0.19005983 0.10627023 -0.0103499135 0.22826816 -0.1248868 -0.099314936 0.28034645 -0.2747505
-0.04293754 -0.037462275 -0.02467232 -0.0078718625 -0.036713246 -0.00094831566 -0.0062796054 -0.10108687
-0.04788382 0.13196635 0.119311735 -0.08107801 0.018613713 0.5511295 -0.07286562 0.2118256
00000000: 84e8 0c3e 7d00 5ebd ef02 783c 69ed 043e
00000010: ed28 20be 301f dd3e 486c 6f3d 522b d33d
00000020: db05 afbe 924b 093e cc42 883d d5a9 593c
00000030: e325 693c adde 2cbc b665 073d 390b d3bc
00000040: ccdd e7bb 8751 4f3d 2cd2 753e 488a 443e
00000050: c386 d8bd 8d56 33be 34f1 6ebd 639e b4bb
00000060: f348 debc 2ec0 333f 1842 9d3e e21b e83d
00000070: 25c5 0dbe 93f3 bb3e 95a9 f3bd 50dd c13e
00000080: 18f1 053e 5e9e a5be 8ccc 75bc 5d01 5abd
00000090: 7a67 933b 6768 1cbd b49d 033d c72c 98ba
000000a0: 7187 e23e 3b76 d33c f0a0 c53d 1c0c e83d
000000b0: eb84 abbe 2a8b 863d 6509 513e 8991 32bd
000000c0: 30c5 a9be de1c 113e 21c9 c3bc e52f 5ebf
000000d0: a493 eebe aa5c 7ebd c9a3 c33e 8b68 023f
000000e0: 8a41 14be b975 83b9 625b bd3b 991e 29bb
000000f0: 0127 bebc b58e 47bc 585a 6dbb 9656 003e
00000100: a5f8 713d 5cc2 debd 15e6 353d 8b03 15be
00000110: b6ea 50bd ac32 8bbe c047 01bc a185 0fbe
00000120: 16e6 6c3e f714 5a3e 70de e23d eae8 153e
00000130: bc8c 183e e998 c5bd e89c f5be 772f 89bd
00000140: 6157 2bbe 2b4c d8bd f536 b3bc ef1b 143d
00000150: 83e9 343d b4b7 a2bb be42 80be 4dd2 063e
00000160: 75a2 fb3d 3bbd e83d 5221 743e 26dc 37be
00000170: 0d3a 7c3e b743 b53d b751 74be fa88 8e3d
00000180: bdbe 223e 71fb 943e d64f 97be b3d5 91be
00000190: 45ed be3e 082c 57bd a7e9 683e 0d1e 423d
000001a0: 051d 02be 785c 37bd 88e4 bf3d 528f 573c
000001b0: 241b 8e3c 980d 093e 9a6e c23d c3fb 133e
000001c0: bfc5 903e 36e2 0cbe dbe2 013b f853 173c
000001d0: 5a52 f73e c0d6 63be 0640 f6be f582 023d
000001e0: 9cff f83d 4396 443e ed78 b63e 0399 dbbd
000001f0: 6be3 e13d b2fd 19be ce2d e5bd 94ee 87bd
00000200: 92aa b33c 6570 863d 3b4c 293d 490b 103d
00000210: 53fb 303e 9022 3d3e 8cda 003e 7c8e c13e
00000220: 79ba 483e 9f40 0e3c 53b6 a9bc dcf6 aabd
00000230: b61c 9b3e e7d7 463c fba9 a7be d96c 1ebd
00000240: d26f 79bd 3d4e a63c 972c c33e 1534 963e
00000250: 9a3d 4f3e 9b51 eb3d 75ea 14bc 87d0 613e
00000260: 0d39 c5bd a239 17bc 35de c6bc 5f1a 9bbd
00000270: 4534 f8bd d462 afbe c0c5 843e 3099 e8bd
00000280: 6efc b7bd 9d51 943e 28d8 3b3e a4b8 1e3f
00000290: 22cd 3bbe 2b46 183e f762 e6bc b9ac 57bd
000002a0: f710 16be 4a18 a6be b7db 58be 519c 3e3e
000002b0: 51d4 67bc 450c 193d 5c27 513d 25c0 ba3d
000002c0: 3168 7d3c afb3 1b3d 8430 18be aef7 c23e
000002d0: 4397 5a3b 0a00 713d 9ea1 3bbe 219e 01be
000002e0: 2a3b cbbe 5c16 c43e a582 61be e746 63bd
000002f0: da37 1cbe d6c9 dfbe 18f5 813e 9b19 99bd
00000300: be79 89be b37c f7bd 3670 dd3d f582 eabc
00000310: ff5c bb3c e788 adbc 095d db3d 58e3 6fbc
00000320: 70c8 5e3c e60b b4be 5748 9d3e b65f 33bd
00000330: 439d 663d 1bb7 e7bd 7549 a9bd d68a 27be
00000340: f517 873e 08c2 653e 5e8f 41bf f0cc 143e
00000350: 0dac 22be 194e de3d eedb c13e 69b0 043f
00000360: 9ef6 e03e dc42 07bc 30c6 2ebd 1ef9 7a3d
00000370: 48b6 5e3b b7ac 9dbc 0f05 acbd a123 ccbc
00000380: 6010 633e a0e7 d9b9 6c71 bd3d edf3 a13c
00000390: 3189 983e c177 523e 0d02 013e cdc3 22bf
000003a0: 0b9f 423e 35a4 d93d af92 29bc 21bf 693e
000003b0: a7c4 ffbd a165 cbbd 9289 8f3e 19ac 8cbe
000003c0: 46df 2fbd 0b72 19bd 9b1d cabc fcf8 00bc
000003d0: a160 16bd 6398 78ba 26c5 cdbb a206 cfbd
000003e0: d321 44bd 3022 073e b659 f43d 3a0c a6bd
000003f0: c97b 983c d316 0d3f 923a 95bd cfe8 583e

layers.0.bias f4 [128]
-0.11552303 -0.12774912 -0.23881158 0.0011394361 -0.19802308 0.12475786 -0.06474164 -0.31234306
0.23944153 0.13614592 -0.19624427 -0.4597397 -0.1977746 -0.2507253 -0.030585276 0.045517545
0.009010172 -0.01801454 -0.17878678 -0.18279608 0.3118154 -0.012602642 -0.0783982 -0.2269982
0.08743259 -0.004148644 0.17643693 -0.032673553 0.23045407 0.008806722 0.33614865 -0.18447387
0.42670915 -0.12094743 -0.1280736 0.12369983 -0.22670119 0.046730347 0.100779645 -0.38153556
0.07849099 -0.29088423 0.034991223 -0.22790214 0.045175705 -0.057919808 -0.3617329 -0.32098958
0.2641377 0.21916047 -0.25811142 -0.14403674 0.3872033 0.41190845 0.10574912 -0.28327015
0.037784092 -0.36588028 -0.0009423993 0.46491927 -0.1351279 0.19850428 -0.42705593 0.066077396
-0.1786338 0.24337946 -0.09712501 0.046420798 -0.30613258 -0.20826486 0.15788336 -0.039458375
0.42902032 -0.3699207 0.17307058 -0.18909127 -0.3454135 -0.32819828 -0.061560955 0.21737804
0.012156206 -0.07375757 0.12729006 -0.12362077 -0.2935076 -0.2199687 -0.094253294 0.2304112
0.16505994 -0.28858244 0.008549655 -0.26398295 0.027346026 -0.12631135 0.025608793 -0.06964588
-0.3141814 0.3038671 -0.10322581 0.14553764 -0.10312164 -0.05011622 -0.2681179 0.47372347
0.15256068 -0.008607536 0.08167695 0.026489116 -0.1995206 -0.26813957 0.3349661 0.31023827
0.331966 0.20476873 0.18644963 -0.4568377 0.35539076 0.31797302 -0.022862643 0.26737645
0.103434265 -0.05579172 -0.08167873 -0.14962406 -0.09621467 -0.20106949 0.034231532 -0.4044394
00000000: 5797 ecbd aad0 02be 068b 74be 2259 953a
00000010: 90c6 4abe 0d81 ff3d 4497 84bd 6eeb 9fbe
00000020: 2930 753e d669 0b3e 42f4 48be 0163 ebbe
00000030: 6d85 4abe 115f 80be f98d fabc 9b70 3a3d
00000040: 679f 133c 3b93 93bc e213 37be e52e 3bbe
00000050: 45a6 9f3e 507b 4ebc 3c8f a0bd 3772 68be
00000060: dc0f b33d 59f1 87bb e2ab 343e b4d4 05bd
00000070: 27fc 6b3e 124a 103c ad1b ac3e b8e6 3cbe
00000080: 9f79 da3e 49b3 f7bd ba25 03be 5656 fd3d
00000090: 5b24 68be 5268 3f3d 8f65 ce3d a158 c3be
000000a0: e2bf a03d c7ee 94be f552 0f3d 2e5f 69be
000000b0: 290a 393d 523d 6dbd 0e35 b9be bf58 a4be
000000c0: 0e3d 873e 9a6b 603e 2e27 84be 5e7e 13be
000000d0: 833f c63e aae5 d23e ff92 d83d c908 91be
000000e0: 7ec3 1a3d a954 bbbe 590b 77ba e609 ee3e
000000f0: f85e 0abe b544 4b3e 13a7 dabe 9653 873d
00000100: c7eb 36be 7738 793e 7ae9 c6bd bc23 3e3d
00000110: 69bd 9cbe 6243 55be 2dac 213e 1b9f 21bd
00000120: 8da8 db3e 3f66 bdbe 6a39 313e 24a1 41be
00000130: 0ada b0be 9b09 a8be 5727 7cbd 5998 5e3e
00000140: d32a 473c 350e 97bd 5358 023e e32c fdbd
00000150: a146 96be 7a3f 61be df07 c1bd eaf0 6b3e
00000160: 7905 293e 14c1 93be da13 0c3c c628 87be
00000170: c604 e03c c357 01be 88c9 d13c 80a2 8ebd
00000180: 62dc a0be 7894 9b3e 0e68 d3bd d207 153e
00000190: 7031 d3bd aa46 4dbd c046 89be e28b f23e
000001a0: de38 1c3e 9f06 0dbc 3f46 a73d b4ff d83c
000001b0: 214f 4cbe 9749 89be ad80 ab3e 8dd7 9e3e
000001c0: 73f7 a93e e5ae 513e a7ec 3e3e a2e6 e9be
000001d0: c7f5 b53e 5ccd a23e 704a bbbc 91e5 883e
000001e0: 58d5 d33d dc85 64bd 2e47 a7bd 0d37 19be
000001f0: 320c c5bd 29e5 4dbe 5d36 0c3d ae12 cfbe

layers.1.weight f4 [128, 128]
0.069436744 -0.09666253 -0.013975609 -0.015629038 -0.03073931 0.015913052 0.043343943 0.020830441
0.01232598 0.07040491 -0.1466566 -0.020942496 0.01670069 -0.032071576 0.08888988 0.07317134
0.012962377 -0.09402776 -0.017022658 0.056575432 -0.05234288 0.008010934 0.023679795 0.059930697
0.043074764 -0.15041246 -0.20138979 0.07377527 -0.0035363059 -0.04204057 0.038416155 0.07030051
0.0076383776 0.010101649 0.09664629 -0.043696936 0.12690955 -0.01362848 -0.004162298 -0.01934761
0.095084235 0.0861888 0.038401544 0.055075776 -0.028183624 0.008106186 0.10239796 -0.0013193315
-0.0508022 0.017033571 -0.1425998 -0.05393476 -0.043362062 -0.07194089 -0.0669234 -0.10884141
0.019732438 0.055202004 0.019947486 -0.07265674 0.028510917 0.08554597 0.17146091 -0.04123885
0.13683262 -0.030204847 0.059954718 -0.07251879 0.01639219 -0.050945133 -0.018547695 0.11297841
-0.027098512 0.030918488 -0.06073262 -0.058932025 -0.040863037 -0.13817365 -0.038252592 0.027204702
0.056396727 0.054776907 0.012108813 0.16375114 0.09311983 0.103641696 0.054539785 -0.08836426
-0.057542633 -0.054494485 0.03643068 0.14155301 -0.056491803 -0.0744014 0.122131675 0.0025288244
-0.147215 -0.024939204 -0.002939539 0.04447228 -0.059992213 0.03167635 -0.08332956 0.023555985
-0.068616144 -0.00020374225 0.03429892 0.051022917 -0.07796165 -0.021708496 -0.047433205 -0.109168015
0.05217255 -0.06688878 -0.008452774 0.08144537 -0.02236615 0.0004649374 -0.05785145 0.111832306
0.11616572 0.009764632 -0.07669735 0.037646513 -0.0656099 0.13904418 0.07602389 0.15342401
-0.07930053 0.05552049 0.032191616 -0.077570036 -0.104312345 -0.023737991 0.06312533 0.021535074
-0.09744498 0.10410496 -0.10937433 0.052221023 -0.03711278 -0.054492865 -0.031549767 0.025002915
-0.085402474 -0.05037514 0.053736467 0.03262718 -0.016375994 0.0011568883 -0.100822724 -0.025868822
0.12112989 -0.036256824 -0.009357992 0.061189566 -0.03596902 -0.0083647575 -0.036864206 0.13511038
0.1196411 0.0017658328 0.08031735 -0.104995325 0.037883103 0.088426344 0.040304545 -0.047426023
0.020639135 0.059414905 0.0016481421 0.1484148 -0.16821873 0.115008295 -0.14092211 -0.004136026
-0.077996135 0.018349936 -0.014852631 -0.027014162 -0.096838556 -0.10712181 -0.013809426 0.049169183
-0.0326738 -0.008318018 -0.15189254 0.07705123 0.031173345 -0.0052058147 0.00251245 0.0057503968
0.04165896 -0.09804134 -0.0003522732 0.055436216 0.07870734 0.025548218 -0.032992154 -0.054486535
-0.02795643 -0.18849787 0.04352761 0.054783475 -0.02805212 -0.023961812 -0.055770975 0.062113363
0.054888573 0.04008042 0.0714476 -0.015104795 0.12129887 0.107413225 0.09756419 0.020231053
0.013242517 0.05659266 -0.15209745 -0.013528952 -0.01943506 0.01971772 -0.14753444 -0.052871488
-0.008665568 -0.020088572 -0.08331425 0.032749206 -0.043263882 0.025411401 0.014138106 0.14418687
0.045725346 -0.047263823 -0.009910679 -0.0058702254 0.017818758 0.01904794 -0.05339027 0.0007119947
0.032972384 -0.0670695 0.009590782 0.03367701 -0.063037425 0.09001606 -0.07612819 0.024960961
0.053210083 -0.036593545 -0.049480595 -0.0554995 -0.05268096 -0.05608024 -0.012191021 -0.0378712
00000000: da34 8e3d 01f7 c5bd f4f9 64bc 7808 80bc
00000010: 01d1 fbbc 175c 823c 6b89 313d 9aa4 aa3c
00000020: e8f2 493c 7330 903d 262d 16be 998f abbc
00000030: e3cf 883c 7c5d 03bd e60b b63d dbda 953d
00000040: 2660 543c a091 c0bd 1a73 8bbc a4bb 673d
00000050: 7d65 56bd 4b40 033c 21fc c13c e479 753d
00000060: 2a6f 303d b905 1abe 2039 4ebe 7d17 973d
00000070: 5ec1 67bb bc32 2cbd 425a 1d3d b7f9 8f3d
00000080: 5b4b fa3b 6381 253c 7dee c53d 8ffb 32bd
00000090: 94f4 013e fd49 5fbc e363 88bb e17e 9ebc
000000a0: 86bb c23d c183 b03d f04a 1d3d 2397 613d
000000b0: 58e1 e6bc cfcf 043c 06b6 d13d 6bed acba
000000c0: f815 50bd fd89 8b3c af05 12be b2ea 5cbd
000000d0: 6b9c 31bd bf55 93bd 230f 89bd 3fe8 debd
000000e0: eca5 a13c 7f1b 623d e968 a33c 0fcd 94bd
000000f0: ba8f e93c ba32 af3d 7393 2f3e 12ea 28bd
00000100: da1d 0c3e 2870 f7bc 1493 753d bb84 94bd
00000110: ea48 863c d8ab 50bd 56f1 97bc 3a61 e73d
00000120: b3fd ddbc c548 fd3c c5c2 78bd b562 71bd
00000130: 0060 27bd 657d 0dbe c0ae 1cbd 65dc de3c
00000140: 4100 673d c05d 603d 0b64 463c 61ae 273e
00000150: 9cb5 be3d 1942 d43d 1c65 5f3d 52f8 b4bd
00000160: d3b1 6bbd 9c35 5fbd 5638 153d 46f3 103e
00000170: f363 67bd c35f 98bd 2c20 fa3d a2ba 253b
00000180: 87bf 16be 4d4d ccbc 48a5 40bb 9128 363d
00000190: 65ba 75bd 0fbf 013d b0a8 aabd 7bf8 c03c
000001a0: 9f86 8cbd a5a3 55b9 067d 0c3d 68fd 503d
000001b0: 5caa 9fbd 04d6 b1bc 5249 42bd 7b93 dfbd
000001c0: e2b2 553d fcfc 88bd 817d 0abc d5cc a63d
000001d0: 3739 b7bc d7c2 f339 a4f5 6cbd 5608 e53d
000001e0: 4be8 ed3d d6fb 1f3c 8013 9dbd 3b33 1a3d
000001f0: 7c5e 86bd 9961 0e3e 6ab2 9b3d 2f1b 1d3e
00000200: 5168 a2bd 7469 633d 5bdb 033d 0add 9ebd
00000210: b6a1 d5bd 2d76 c2bc da47 813d 536a b03c
00000220: 3c91 c7bd fb34 d53d a6ff dfbd b6e5 553d
00000230: 9203 18bd e933 5fbd 543a 01bd ead2 cc3c
00000240: 7ee7 aebd 2a56 4ebd c51a 5c3d 14a4 053d
00000250: f326 86bc bba2 973a 257c cebd daea d3bc
00000260: f312 f83d 0982 14bd 4352 19bc e9a1 7a3d
00000270: 4054 13bd 560c 09bc ecfe 16bd 605a 0a3e
00000280: 6506 f53d 8473 e73a 6c7d a43d ca07 d7bd
00000290: 502b 1b3d df18 b53d 6116 253d ca41 42bd
000002a0: 6713 a93c 0b5d 733d 7906 d83a 0dfa 173e
000002b0: 8841 2cbe 7889 eb3d e34d 10be 8087 87bb
000002c0: 70bc 9fbd 9b52 963c 7358 73bc ce4c ddbc
000002d0: 4b53 c6bd ae62 dbbd ee40 62bc a065 493d
000002e0: f6d4 05bd 4c48 08bc b889 1bbe 09cd 9d3d
000002f0: 3e5f ff3c 8a95 aabb eba7 243b d36d bc3b
00000300: 96a2 2a3d e6c9 c8bd 4fb1 b8b9 1611 633d
00000310: 5031 a13d 7f4a d13c c822 07bd 462d 5fbd
00000320: e204 e5bc 9605 41be 024a 323d a364 603d
00000330: 8fcd e5bc 904b c4bc 1b70 64bd 956a 7e3d
00000340: d7d2 603d 5e2b 243d 1f53 923d 1a7a 77bc
00000350: 8b6b f83d 77fb db3d bccf c73d 98bb a53c
00000360: 24f7 583c b4cd 673d 6fbf 1bbe 8aa8 5dbc
00000370: 4636 9fbc 0e87 a13c 4513 17be c68f 58bd
00000380: 07fa 0dbc ca90 a4bc a9a0 aabd 0824 063d
00000390: 7835 31bd 922b d03c 84a3 673c b9a5 133e
000003a0: 804a 3b3d b697 41bd 6760 22bc 055b c0bb
000003b0: a5f8 913c 6d0a 9c3c c1af 5abd 28a5 3a3a
000003c0: 0d0e 073d bc5b 89bd a822 1d3c e8f0 093d
000003d0: c419 81bd 575a b83d 19e9 9bbd ee7a cc3c
000003e0: d1f2 593d 1de3 15bd 2aac 4abd 7253 63bd
000003f0: fec7 57bd 65b4 65bd d9bc 47bc d51e 1bbd

layers.1.bias f4 [128]
-0.023943782 -0.030528825 -0.06807171 -0.02353742 -0.036706354 -0.11870607 0.12611888 0.09472618
-0.13615824 -0.13800946 0.072763585 -0.13426103 -0.08295973 -0.028084232 0.07819538 0.023401888
-0.078817025 0.02330685 -0.0142694665 0.035937402 0.07386723 -0.09116967 0.00065142394 -0.022681292
0.21183155 0.035961416 -0.13388419 -0.10632036 -0.078883536 -0.016841408 0.0428317 0.07893109
-0.028844202 0.037218794 0.0711183 -0.016801896 0.12548634 -0.1035556 0.11221564 0.094607614
-0.08225823 -0.02099746 0.12226765 -0.018403832 -0.13158895 0.047449034 -0.04984261 -0.15637779
-0.0920258 0.017183984 0.021789186 -0.044993237 -0.08231147 -0.097126745 0.036875986 -0.07120076
0.072927445 -0.072403245 0.05732697 -0.15938282 -0.058563605 0.07122064 -0.06358164 -0.09661375
-0.14312923 0.011323842 0.05932954 0.04616395 -0.025262855 -0.07562093 -0.056966413 -0.054618604
-0.03144513 0.01703383 0.06689146 -0.12869108 -0.16154477 0.10694186 -0.052517492 -0.22801554
-0.003089232 0.0027482517 0.14802828 0.13458249 0.06719235 0.007008647 -0.082719915 0.045335542
0.009716846 -0.041487392 -0.07264163 0.11343692 0.056227252 -0.017687593 -0.10825694 0.04129735
0.03798087 -0.0016150683 -0.18761593 -0.027170744 -0.038784556 0.051623702 -0.062695906 -0.09250983
0.07401375 -0.03405627 -0.0902374 -0.076517716 0.019855075 -0.06356596 0.11365548 0.019846983
-0.056038637 0.014838282 0.11855725 -0.106036104 0.0032950235 -0.0895663 -0.18414554 -0.030344764
-0.029544521 -0.030710364 0.1361636 0.17035234 0.0043124817 -0.12172578 0.06972112 -0.08485838
00000000: c025 c4bc 9617 fabc 2e69 8bbd 8cd1 c0bc
00000010: 6759 16bd 2b1c f3bd 4f25 013e cdff c13d
00000020: 116d 0bbe 5a52 0dbe 1305 953d b97b 09be
00000030: cae6 a9bd e710 e6bc e624 a03d 51b5 bf3c
00000040: d26a a1bd 02ee be3c 7bca 69bc 1933 133d
00000050: b447 973d 2ab7 babd 52c4 2a3a 1ece b9bc
00000060: 5fea 583e 474c 133d f018 09be 7dbe d9bd
00000070: b18d a1bd fef6 89bc 4b70 2f3d a0a6 a13d
00000080: ad4a ecbc bc72 183d 79a6 913d 21a4 89bc
00000090: 7e7f 003e f514 d4bd 50d1 e53d a3c1 c13d
000000a0: 0177 a8bd dd02 acbc 7667 fa3d a2c3 96bc
000000b0: 41bf 06be eb59 423d c427 4cbd 8021 20be
000000c0: 0678 bcbd 6dc5 8c3c 3c7f b23c d44a 38bd
000000d0: ea92 a8bd 63ea c6bd 460b 173d b4d1 91bd
000000e0: fc5a 953d 2748 94bd afcf 6a3d 4035 23be
000000f0: 64e0 6fbd 20dc 913d 1737 82bd 6edd c5bd
00000100: 7890 12be a387 393c 8803 733d 6916 3d3d
00000110: 0cf4 cebc 25df 9abd 9d55 69bd c2b7 5fbd
00000120: 9ccc 00bd 888a 8b3c 64fe 883d 98c7 03be
00000130: fe6b 25be 5504 db3d 951c 57bd e87c 69be
00000140: b674 4abb 031c 343b ba94 173e fecf 093e
00000150: 259c 893d cba8 e53b 0f69 a9bd c3b1 393d
00000160: 6833 1f3c afee 29bd 23c5 94bd 9e51 e83d
00000170: 8c4e 663d 92e5 90bc d1b5 ddbd 6927 293d
00000180: d491 1b3d b3b0 d3ba 641e 40be 2e95 debc
00000190: 8edc 1ebd 6073 533d b666 80bd cb75 bdbd
000001a0: 8594 973d 967e 0bbd 63ce b8bd 52b5 9cbd
000001b0: 1ca7 a23c df2e 82bd 34c4 e83d 2496 a23c
000001c0: c588 65bd 441c 733c 25ce f23d 7529 d9bd
000001d0: 52f1 573b 896e b7bd a690 3cbe 9595 f8bc
000001e0: 5a07 f2bc 4d94 fbbc 796e 0b3e d870 2e3e
000001f0: b84f 8d3b 5e4b f9bd f2c9 8e3d 3bca adbd

layers.2.weight f4 [64, 128]
0.13569959 -0.06942588 -0.024918374 0.079015344 -0.04767472 -0.031137351 0.075433455 0.11073153
0.043966223 0.0789753 0.042138074 -0.0051584537 -0.049524125 0.032988887 0.09053573 -0.020048821
0.12258178 0.04673046 0.033489633 -0.014431865 0.014204884 0.07010968 0.012132226 0.085135505
0.026978876 -0.10000101 -0.08289237 -0.066640675 -0.04206675 -0.045287605 0.009343856 0.033783883
-0.102437936 0.08162582 0.07316229 -0.07187733 0.081831686 -0.054428075 0.120077625 0.100883536
-0.068724714 0.15483001 -0.03658628 -0.052972175 -0.0052762344 0.09589211 -0.021890996 0.20080698
-0.10152156 0.046593856 0.050753817 0.12809017 -0.016349701 -0.017857287 0.035482977 0.0678997
0.0063178306 0.00030970186 0.07632856 -0.03410073 -0.04009223 -0.041497424 -0.052625153 -0.083690636
0.08289999 -0.13165042 0.10399169 0.0710353 -0.03100317 -0.10212829 0.007842417 0.0718722
0.013021616 -0.09154539 0.1580738 0.00025535925 0.03817996 -0.04357686 0.10563488 -0.11527788
0.117841914 0.055532057 0.059129834 0.02564848 0.034550037 -0.01932437 -0.08362115 0.045343056
-0.036527243 0.014485515 0.088365294 0.09278756 0.04895844 0.13298836 -0.108206324 0.0995025
-0.03235583 0.052749835 0.007529668 0.04296101 -0.08392034 0.061243642 0.10799601 -0.007172926
0.06286231 -0.01519116 -0.15456556 -0.02209967 -0.0054916292 0.010488349 0.007061065 0.02440359
0.025091905 -0.085485354 -0.06462733 -0.12699883 0.0367681 0.11279978 -0.1441098 0.003987733
-0.08062961 0.09330526 0.04173416 0.03375045 0.098247916 -0.05990935 0.1336968 -0.0100027565
-0.035709873 -0.056062307 0.073614694 0.18827453 0.086271 0.033564523 -0.08028941 0.0642773
-0.03071625 -0.021359757 -0.031044854 -0.10689425 -0.016050171 -0.02349701 0.012702218 -0.08364025
0.025145713 -0.03677147 -0.092864364 -0.09559169 -0.036252238 -0.065907285 0.0665924 0.03882079
-0.029215537 -0.028215813 -0.056659415 -0.052372977 -0.12672044 -0.07986 0.060199104 0.0077151572
0.026397612 0.05500427 0.0065512704 0.08800349 0.098764345 -0.14203033 -0.15237236 0.019443542
-0.09036145 0.018837195 -0.14168105 0.0763445 0.020587401 0.12692274 -0.16276856 0.15728283
0.037903838 0.18920346 -0.031586554 0.15630282 0.11999166 -0.10358675 -0.018952455 0.019717796
0.08428806 0.073425554 0.07022527 -0.089414835 -0.016954452 0.07651919 0.036778912 -0.14181392
0.03694847 -0.04953655 -0.0016268909 0.0286934 0.007660454 -0.06059667 0.023041155 0.093011275
0.0027830473 -0.07831438 0.06827868 0.07179419 -0.090430275 -0.04577359 0.13146126 -0.11677829
-0.09067323 0.17930427 0.113890596 0.04538766 -0.06550948 0.044679075 -0.03390874 0.042195253
0.039327044 -0.016565496 0.13673696 0.033158682 -0.11831025 -0.07826099 -0.043112814 0.10269626
0.034431197 -0.037444633 -0.010024341 0.032027382 0.02527578 0.099119395 0.12580495 0.025538098
0.058016263 -0.10679966 -0.10515572 0.086765856 -0.16352127 -0.05351785 0.07770928 -0.046883993
0.04752368 -0.010983989 0.025945535 0.0017416326 0.011161402 0.18650858 0.09306179 -0.069426395
-0.1424368 -0.015908105 -0.028623872 -0.14131029 -0.013615676 0.062372684 0.038912237 -0.044530045
00000000: d5f4 0a3e 282f 8ebd 9e21 ccbc ccd2 a13d
00000010: 9146 43bd c213 ffbc db7c 9a3d 36c7 e23d
00000020: ed15 343d cdbd a13d f998 2c3d 3f08 a9bb
00000030: cfd9 4abd 5b1f 073d cc6a b93d 6d3d a4bc
00000040: 280c fb3d 7068 3f3d 6d2c 093d a173 6cbc
00000050: 9abb 683c aa95 8f3d 3ec6 463c 865b ae3d
00000060: ce02 dd3c 54cd ccbd 7ac3 a9bd e87a 88bd
00000070: 2f4e 2cbd 7f7f 39bd f916 193c f860 0a3d
00000080: fbca d1bd 702b a73d 1cd6 953d 6c34 93bd
00000090: 5f97 a73d f9ef 5ebd 42eb f53d 079c ce3d
000000a0: 8bbf 8cbd c28b 1e3e 7fdb 15bd 5af9 58bd
000000b0: 43e4 acbb 1563 c43d bf54 b3bc 58a0 4d3e
000000c0: 89ea cfbd 33d9 3e3d 3ce3 4f3d 122a 033e
000000d0: cfef 85bc 7249 92bc 9956 113d ff0e 8b3d
000000e0: ce05 cf3b 7b5f a239 2652 9c3d 35ad 0bbd
000000f0: c037 24bd 34f9 29bd 798d 57bd ff65 abbd
00000100: 78c7 a93d 5ecf 06be 98f9 d43d f57a 913d
00000110: 5cfa fdbc a328 d1bd 7b7d 003c bb31 933d
00000120: 9e58 553c 267c bbbd 19de 213e bde1 8539
00000130: 9762 1c3d a67d 32bd 1a57 d83d cf16 ecbd
00000140: 1a57 f13d 9575 633d 2032 723d c31c d23c
00000150: 5784 0d3d 244e 9ebc 9141 abbd a4b9 393d
00000160: 979d 15bd a754 6d3c ddf8 b43d 6707 be3d
00000170: a588 483d 1a2e 083e 479b ddbd f7c7 cb3d
00000180: 8c87 04bd 3610 583d 6fbb f63b e2f7 2f3d
00000190: 6dde abbd 9dda 7a3d 032d dd3d dd0a ebbb
000001a0: f4bd 803d 58e4 78bc 6f46 1ebe 5e0a b5bc
000001b0: 20f3 b3bb 53d7 2b3c 8260 e73b 0aea c73c
000001c0: 8a8d cd3c f212 afbd 555b 84bd fb0b 02be
000001d0: 269a 163d 9203 e73d 8591 13be 87ab 823b
000001e0: 2321 a5bd d416 bf3d 70f1 2a3d e93d 0a3d
000001f0: 3436 c93d 8263 75bd d0e7 083e 9ae2 23bc
00000200: 8444 12bd 97a1 65bd 4dc3 963d 0acb 403e
00000210: daae b03d f47a 093d c66e a4bd d1a3 833d
00000220: a5a0 fbbc a8fa aebc c751 febc 5feb dabd
00000230: a67b 83bc cd7c c0bc f71c 503c 944b abbd
00000240: 62fe cd3c ae9d 16bd ac2f bebd 93c5 c3bd
00000250: 3a7d 14bd 66fa 86bd 9961 883d 8c02 1f3d
00000260: 6c55 efbc d924 e7bc b413 68bd 0c85 56bd
00000270: 01c3 01be a48d a3bd 5693 763d 6ecf fc3b
00000280: ce3f d83c 284c 613d 0aac d63b 2c3b b43d
00000290: f644 ca3d 6670 11be 8007 1cbe 1048 9f3c
000002a0: 6d0f b9bd 7650 9a3c d614 11be 815a 9c3d
000002b0: e9a6 a83c 09f8 013e cdac 26be c00e 213e
000002c0: 0e41 1b3d 8dbe 413e e760 01bd d90d 203e
000002d0: 30be f53d 4a25 d4bd 2e42 9bbc 3787 a13c
000002e0: 389f ac3d 2360 963d 44d2 8f3d 201f b7bd
000002f0: 10e4 8abc 18b6 9c3d 7ca5 163d ab37 11be
00000300: 4757 173d d6e6 4abd 663d d5ba 6c0e eb3c
00000310: 8c04 fb3b 3734 78bd cec0 bc3c b27c be3d
00000320: c963 363b 4a63 a0bd b1d5 8b3d d508 933d
00000330: 8233 b9bd 177d 3bbd c89d 063e 7529 efbd
00000340: e3b2 b9bd 8a9b 373e 793f e93d 69e8 393d
00000350: d629 86bd 6801 373d e4e3 0abd eed4 2c3d
00000360: 6515 213d 5db4 87bc c604 0c3e 66d1 073d
00000370: a54c f2bd 4c47 a0bd 1097 30bd 6b52 d23d
00000380: ba07 0d3d 8b5f 19bd 223d 24bc 252f 033d
00000390: 270f cf3c 1cff ca3d 03d3 003e 4635 d13c
000003a0: 76a2 6d3d c8b9 dabd e25b d7bd 4cb2 b13d
000003b0: 1f72 27be 8835 5bbd 0b26 9f3d 6e09 40bd
000003c0: 31a8 423d 30f6 33bc bb8b d43c 7e47 e43a
000003d0: 50de 363c 1bfc 3e3e 2e97 be3d 6d2f 8ebd
000003e0: f4da 11be b751 82bc 9c7c eabc a5b3 10be
000003f0: 4914 5fbc 807a 7f3d 7062 1f3d 2365 36bd

layers.2.bias f4 [64]
0.07652749 -0.03257935 0.029639455 0.053111695 -0.017484883 0.06667213 -0.13350533 0.08650125
-0.09826903 -0.077249184 -0.025502449 -0.0205439 -0.011506252 -0.017322175 -0.042667467 0.102999374
-0.07306615 0.039220486 0.0537131 -0.029633626 0.078860216 0.07363372 -0.06163171 -0.13705137
0.060305238 -0.06714152 -0.039707415 -0.011923665 0.17738682 -0.048344325 0.045916762 -0.058089856
0.096044 0.09662174 0.1593567 0.03792029 0.12133651 -0.005040232 0.01426657 0.014497469
-0.070405975 0.082001925 0.045944773 0.01196718 -0.081532605 -0.06385023 -0.13763621 -0.17818661
0.111068256 -0.11377422 -0.008002145 -0.0336153 -0.03111498 0.14640035 -0.081223205 -0.117407925
0.12309839 -0.13029502 -0.06455392 0.08357891 -0.06290112 -0.10995159 -0.030127382 -0.018022006
00000000: 72ba 9c3d ed71 05bd 71ce f23c a68b 593d
00000010: 753c 8fbc 668b 883d 9fb5 08be 9127 b13d
00000020: 4641 c9bd d234 9ebd 83ea d0bc ae4b a8bc
00000030: b884 3cbc 3ce7 8dbc 15c4 2ebd 56f1 d23d
00000040: b5a3 95bd a9a5 203d 4402 5c3d 38c2 f2bc
00000050: 7781 a13d 47cd 963d 8871 7cbd 3257 0cbe
00000060: a002 773d 7e81 89bd 3ea4 22bd 7a5b 43bc
00000070: e4a4 353e b304 46bd 3713 3c3d a1ef 6dbd
00000080: b7b2 c43d 9ee1 c53d 672e 233e 4e52 1b3d
00000090: 477f f83d 8828 a5bb 55be 693c cb86 6d3c
000000a0: 0231 90bd a0f0 a73d 9630 3c3d fe11 443c
000000b0: 91fa a6bd e9c3 82bd 82f0 0cbe 8d76 36be
000000c0: c177 e33d 7502 e9bd 6e1b 03bc 32b0 09bd
000000d0: d8e4 febc f9e9 153e 5a58 a6bd 9173 f0bd
000000e0: 021b fc3d 0f6c 05be d834 84bd 6b2b ab3d
000000f0: 4dd2 80bd 4d2e e1bd b3cd f6bc e3a2 93bc

readout.weight f4 [1, 64]
-0.38625512 -0.29671702 -0.17458978 0.26531893 0.3332922 0.30915615 -0.31352815 -0.38018832
0.38203493 0.33040586 -0.27993312 0.32701105 -0.2669819 -0.20180163 0.39511117 -0.27771467
-0.4428737 0.26823834 0.37660322 -0.2069562 -0.24621409 0.26822862 0.27287644 0.29527465
-0.33776975 -0.27737767 -0.31470054 0.30890393 -0.1835856 0.37710568 0.3470669 -0.060676258
-0.21107376 0.3031101 -0.3555461 -0.37447813 0.2883882 -0.46552652 -0.332542 0.32528275
-0.30561513 -0.14095789 -0.3668512 -0.33886325 0.31756943 0.417934 0.1769727 0.18235324
-0.2765126 0.2174196 0.21083082 -0.2682011 -0.14131689 -0.54735464 -0.39077634 0.32063183
-0.26120806 0.22533545 0.15956509 0.18893754 0.20408833 0.46173027 -0.26209104 0.3657726
00000000: 3bc3 c5be 4beb 97be aac7 32be e2d7 873e
00000010: 46a5 aa3e b749 9e3e c386 a0be 0ba8 c2be
00000020: 159a c33e f52a a93e 6553 8fbe fe6d a73e
00000030: dab1 88be 16a5 4ebe 034c ca3e 9e30 8ebe
00000040: 57c0 e2be 8956 893e 23d2 c03e 53ec 53be
00000050: 8c1f 7cbe 4355 893e 76b6 8b3e 3d2e 973e
00000060: 28f0 acbe 7204 8ebe 6e20 a1be a828 9e3e
00000070: ddfd 3bbe ff13 c13e c1b2 b13e ab87 78bd
00000080: b823 58be 3f31 9b3e 230a b6be 99bb bfbe
00000090: 9ea7 933e 7e59 eebe f242 aabe 768b a63e
000000a0: 9679 9cbe 4457 10be ecd3 bbbe 7c7f adbe
000000b0: 7698 a23e 72fb d53e 5538 353e cfba 3a3e
000000c0: 0f93 8dbe 3ea3 5e3e 09e4 573e a851 89be
000000d0: 60b5 10be 6f1f 0cbf d613 c8be db29 a43e
000000e0: 10bd 85be 56be 663e 0865 233e d878 413e
000000f0: 88fc 503e e967 ec3e cc30 86be 8c46 bb3e

layers.0.weight f4 [128, 17]
0.14528589 0.018786233 -0.6548376 0.4684986 -0.043226846 0.54844713 -0.08440283 -0.26495034
-0.5778237 -0.38304746 -0.39040735 -0.006462404 0.017421486 -0.0036130971 0.005436049 0.031162132
0.02964255 -0.1434793 -0.106190324 -0.08074216 0.737408 0.26525578 0.37001735 -0.23517194
0.118759155 -0.44722062 -0.6195963 -0.25948668 0.15623675 0.06154608 -0.16459125 0.055080026
0.041072164 0.03518332 0.06506285 -0.024324449 -0.24532975 -0.8540115 -0.023280304 -0.24960084
0.5825684 0.3642166 -0.7578718 0.4365102 -0.50388336 -0.22646798 -0.025004178 0.11769798
-0.0240345 -0.057550132 -0.037453644 -0.31061462 0.07736584 0.040630784 0.093958676 0.12411359
-0.17470326 -0.066407815 0.25218245 -0.25331694 -0.076960295 -0.27753514 -0.061432097 0.05027686
0.03368314 -0.082837254 -0.047962636 0.0024045187 -0.3637296 -0.6856039 -0.68925065 -0.053839706
0.13082103 0.4771472 0.2778143 0.20059572 0.32997563 -0.0012427655 -0.044734843 0.050801393
0.05253628 -0.01580278 0.05944291 0.03767315 0.025423417 0.548281 -0.5441617 -0.04934167
0.3781622 -0.322579 -0.25929737 -0.16600485 0.0009394493 -0.71407056 -0.49727386 -0.23166674
-0.13183096 0.2537301 0.12763296 -0.10548527 -0.13932624 -0.060413808 0.18503174 0.17852381
0.3281069 -0.87291986 0.060020022 0.26714528 -0.0028680502 0.00044013365 0.07088764 0.36801252
0.3187859 0.092029355 0.21114329 -0.1748996 -0.33106482 -0.1855785 0.002708554 -0.52124095
0.5337999 -0.45898312 -0.1895453 -0.14555462 0.29693925 -0.07145103 -0.21183161 -0.00018414986
0.120532945 0.21337336 0.032923426 0.15453641 -0.0066187982 0.15980563 0.08512727 -0.0025182106
-0.023222685 0.26799524 0.3660493 0.044369753 0.23071091 0.013400633 0.052821238 0.10643384
0.007425627 -0.3422765 -0.10553687 -0.12986065 0.18790437 0.10119463 -0.014970256 0.025685681
-0.015264354 0.294636 -0.64802736 -0.5159791 0.3066996 -0.19055232 0.112861454 -0.22456202
-0.16476244 0.6646174 -0.09264656 -0.20860098 -0.20972298 -0.11018017 -0.0061112638 0.22167942
0.10552467 0.07196972 -0.26124373 0.3237309 0.121703655 0.15558715 -0.18858683 0.36422423
-0.16691785 -0.021840898 0.056387063 -0.083795615 0.15344635 0.4080165 -0.1077142 -0.065058134
0.029910842 0.096746825 0.017262321 -0.15373757 -0.29380846 -0.7697051 -0.12156992 0.3248909
-0.37365672 0.5316424 -0.37186196 0.36143923 0.2378053 0.0030461415 0.12303945 -0.050502397
0.0349348 -0.0890271 0.1510608 0.03953178 -0.008074632 -0.05722404 -0.22024076 1.2652057
0.45790574 -0.21176077 -0.30933544 -0.1462463 -0.10002483 -0.2948859 0.018757995 0.15043588
0.17467688 -0.1884676 0.2950292 0.19338946 0.060524035 -0.5293523 0.80570924 0.33846346
0.39794695 0.03089768 0.29133323 -0.02856158 0.14385007 0.323147 -0.5614698 -0.095045984
0.001047455 0.08311237 0.01518434 -0.07941055 0.0033206525 0.0002798819 0.2081417 -0.11206737
-0.33675426 -0.527129 0.16312945 -0.8600952 -0.47989947 -0.4179598 -0.7659256 0.09572614
-0.6010035 -0.3222015 -0.107298315 -0.09594695 0.013112838 0.08446513 0.11054693 -0.30917838
00000000: d3c5 143e 96e5 993c 70a3 27bf 0cdf ef3e
00000010: a20e 31bd 0867 0c3f 64db acbd 92a7 87be
00000020: 41ec 13bf cc1e c4be 79e3 c7be 93c2 d3bb
00000030: 81b7 8e3c b6c9 6cbb e220 b23b ba47 ff3c
00000040: efd4 f23c 3dec 12be 507a d9bd 255c a5bd
00000050: c5c6 3c3f 9bcf 873e ea72 bd3e ead0 70be
00000060: 0038 f33d 1afa e4be dd9d 1ebf 70db 84be
00000070: 87fc 1f3e be17 7c3d 9c8a 28be 989b 613d
00000080: 493b 283d 631c 103d ac3f 853d 1144 c7bc
00000090: b937 7bbe 7fa0 5abf 56b6 bebc 5d97 7fbe
000000a0: 3423 153f 997a ba3e e303 42bf 447e df3e
000000b0: 80fe 00bf 39e7 67be 90d5 ccbc a30b f13d
000000c0: 00e4 c4bc b0b9 6bbd fe68 19bd e108 9fbe
000000d0: fb71 9e3d 776c 263d 686d c03d 442f fe3d
000000e0: 69e5 32be d200 88bd 0f1e 813e c2b2 81be
000000f0: 5c9d 9dbd 1619 8ebe 39a0 7bbd 1cef 4d3d
00000100: 55f7 093d 94a6 a9bd 7874 44bd 2195 1d3b
00000110: c43a babe bd83 2fbf bb72 30bf 0687 5cbd
00000120: f3f5 053e a34c f43e ad3d 8e3e f768 4d3e
00000130: 91f2 a83e 4ae4 a2ba e23b 37bd 1f15 503d
00000140: 4830 573d d574 81bc 697a 733d 294f 1a3d
00000150: c544 d03c 255c 0c3f 2e4e 0bbf 7e1a 4abd
00000160: 7a9e c13e 1329 a5be a0c2 84be 2dfd 29be
00000170: 6045 763a 54cd 36bf ae9a febe 0c3a 6dbe
00000180: b2fe 06be e9e8 813e 37b2 023e a908 d8bd
00000190: 8aab 0ebe 7874 77bd f678 3d3e f2ce 363e
000001a0: a1fd a73e ad77 5fbf 8ed7 753d 44c7 883e
000001b0: e6f5 3bbb bdc1 e639 8a2d 913d 236c bc3e
000001c0: e837 a33e e379 bc3d f235 583e e118 33be
000001d0: 5481 a9be 4a08 3ebe ff81 313b 0c70 05bf
000001e0: 1ca7 083f d6ff eabe 2a18 42be 450c 15be
000001f0: 6c08 983e eb54 92bd 63ea 58be 5a18 41b9
00000200: fad9 f63d 8c7e 5a3e b7da 063d cb3e 1e3e
00000210: 81e2 d8bb 16a4 233e 3557 ae3d 9008 25bb
00000220: 803d bebc ac36 893e d06a bb3e 0fbd 353d
00000230: 7b3f 6c3e 548e 5b3c 155b 583d fcf9 d93d
00000240: ad52 f33b de3e afbe b723 d8bd 31fa 04be
00000250: 016a 403e 213f cf3d ce45 75bc c76a d23c
00000260: 5717 7abc 88da 963e 1fe5 25bf 3517 04bf
00000270: bb07 9d3e 2620 43be e823 e73d 96f3 65be
00000280: 7cb7 28be 5e24 2a3f 7bbd bdbd 7f9b 55be
00000290: 9fc1 56be 24a6 e1bd ff40 c8bb eeff 623e
000002a0: 511d d83d dc64 933d bdc1 85be 0ec0 a53e
000002b0: c43f f93d 3d52 1f3e e81c 41be 997b ba3e
000002c0: 83ec 2abe afeb b2bc 1ff6 663d 099d abbd
000002d0: 0a21 1d3e 8ae7 d03e 4399 dcbd 333d 85bd
000002e0: 9507 f53c 3323 c63d b669 8d3c 626d 1dbe
000002f0: 106e 96be 650b 45bf a6f9 f8bd 1a58 a63e
00000300: ef4f bfbe b719 083f b164 bebe 900e b93e
00000310: 3c83 733e c6a1 473b 1bfc fb3d 9adb 4ebd
00000320: cb17 0f3d d753 b6bd afaf 1a3e 13ec 213d
00000330: 764b 04bc c163 6abd cb86 61be 43f2 a13f
00000340: 9f72 ea3e d1d7 58be 3761 9ebe 97c1 15be
00000350: d1d9 ccbd 49fb 96be 5eaa 993c dd0b 1a3e
00000360: 7fde 323e a7fd 40be 110e 973e e307 463e
00000370: 0de8 773d a283 07bf f642 4e3f 154b ad3e
00000380: b4bf cb3e 221d fd3c a129 953e faf9 e9bc
00000390: 6f4d 133e 8673 a53e 7cbc 0fbf 78a7 c2bd
000003a0: c24a 893a d136 aa3d bdc7 783c 00a2 a2bd
000003b0: 4e9f 593b 1dbd 9239 1923 553e 9483 e5bd
000003c0: 0e6b acbe edf1 06bf 680b 273e 332f 5cbf
000003d0: 62b5 f5be d4fe d5be b313 44bf 110c c43d
000003e0: 5edb 19bf 98f7 a4be 38bf dbbd d67f c4bd
000003f0: 3bd7 563c 0efc ac3d 6e66 e23d a14c 9ebe

layers.0.bias f4 [128]
0.2186995 0.5865411 -0.05912774 0.83761007 0.7162456 -0.2757872 -0.12124214 0.1797655
-0.647122 0.09103827 0.5163844 0.5167442 0.45992172 0.21098681 0.18914114 0.116559505
-0.14453653 0.14113483 0.52455413 -0.04413618 0.0288653 0.68993795 -0.48932222 0.80764735
-0.4520295 0.5376129 0.594133 0.48607498 -0.47371092 0.5124231 0.17712757 0.48708785
-0.2727121 0.03158402 0.013538378 -0.4468493 -0.23036587 0.6970936 -0.2097296 -0.12425279
-0.13531195 -0.06317593 -0.11918814 -0.04655952 -0.34765774 0.0600064 0.03447303 0.7306555
-0.2503896 0.20807505 -0.25931212 0.630979 0.42490765 -0.41140345 0.4162374 -0.57877034
0.21091849 -0.15307762 -0.48523083 0.68417686 0.62812513 0.4305424 -0.10182233 0.38379133
-0.47879148 -0.08982656 -0.040742315 -0.05943179 -0.08311046 -0.09283829 0.19797735 0.4687758
0.36091232 -0.5377688 0.073293746 0.23263255 -0.24038686 0.24856448 0.27204102 0.23433112
0.40639192 -0.6121834 0.021424184 -0.022305476 0.43556082 -0.048729297 0.5201475 0.03627657
0.374107 -0.030739442 -0.26059657 -0.34166968 -0.33986297 0.08294797 0.30403367 -0.40825135
-0.109202065 -0.5776955 -0.41404063 0.49134973 0.25473493 -0.1536387 0.06920074 -0.21064721
0.6842844 0.27091128 -0.080580905 0.052081607 0.015304174 0.42032242 0.053565472 0.8855314
0.2572586 0.4343966 -0.06963919 -0.23284061 -0.5811575 0.40091622 0.24534093 0.18915689
-0.08498615 -0.09359945 0.4046704 0.14901115 -0.022024589 -0.16126674 -0.10652139 0.17408703
00000000: c3f2 5f3e 8f27 163f ee2f 72bd 9d6d 563f
00000010: df5b 373f fb33 8dbe cd4d f8bd 7214 383e
00000020: caa9 25bf 4672 ba3d c531 043f 5949 043f
00000030: dc7a eb3e ed0c 583e 37ae 413e c0b6 ee3d
00000040: 6201 14be a685 103e 2e49 063f 24c8 34bd
00000050: ec76 ec3c c69f 303f 7188 fabe fac1 4e3f
00000060: 6970 e7be 00a1 093f 1a19 183f d2de f83e
00000070: 3d8a f2be 292e 033f ee60 353e 9463 f93e
00000080: eca0 8bbe 3f5e 013d 13d0 5d3c 6ec9 e4be
00000090: 08e5 6bbe ba74 323f 5bc3 56be 3f78 febd
000000a0: 378f 0abe 6262 81bd e918 f4bd 32b5 3ebd
000000b0: 3200 b2be 45c9 753d 9833 0d3d 3d0c 3b3f
000000c0: 1133 80be a011 553e 8fc4 84be d787 213f
000000d0: 7f8d d93e 79a3 d2be 121d d53e 4b2a 14bf
000000e0: 04fb 573e 61c0 1cbe 2d70 f8be 3726 2f3f
000000f0: cfcc 203f 0e70 dc3e 3a88 d0bd 4c80 c43e
00000100: 2824 f5be fdf6 b7bd 6ae1 26bd c06e 73bd
00000110: d135 aabd 0022 bebd 93ba 4a3e 6203 f03e
00000120: 80c9 b83e 37ab 09bf 081b 963d 3a37 6e3e
00000130: f927 76be b087 7e3e f648 8b3e 7ff4 6f3e
00000140: 9a12 d03e 0db8 1cbf c581 af3c f9b9 b6bc
00000150: d401 df3e 5f98 47bd 6328 053f be96 143d
00000160: f48a bf3e 48d1 fbbc ea6c 85be 54ef aebe
00000170: 8502 aebe a0e0 a93d 4daa 9b3e 5206 d1be
00000180: 55a5 dfbd dae3 13bf 22fd d3be 3192 fb3e
00000190: 9e6c 823e 7753 1dbe 1eb9 8d3d e7b3 57be
000001a0: 432d 2f3f e2b4 8a3e 9a07 a5bd 8653 553d
000001b0: 5cbe 7a3c 8034 d73e 7867 5b3d 30b2 623f
000001c0: 66b7 833e 3b69 de3e fe9e 8ebd c56d 6ebe
000001d0: bdc6 14bf e444 cd3e a73a 7b3e 58b2 413e
000001e0: 380d aebd 12b1 bfbd f530 cf3e 6196 183e
000001f0: e96c b4bc 1c23 25be e327 dabd df43 323e

layers.1.weight f4 [128, 128]
0.010864746 0.12517679 0.035696987 0.06402831 0.3516661 -0.061104186 -0.038145285 -0.12540048
-0.15650937 0.17852385 -0.029745225 0.085854694 0.04013616 -0.22489741 0.035616167 0.0047861924
-0.18494627 0.06221878 -0.09080555 -0.27220553 0.016297227 0.14596714 -0.035876285 0.029495748
-0.10354196 -0.00027496196 0.24485482 -0.031454425 -0.14323452 0.08547326 -0.074321344 -0.062982924
0.13142356 -0.11918192 0.14166738 -0.14942539 -0.054672528 0.31477255 0.14844483 -0.286192
-0.027208854 0.009417772 -0.20467195 0.1093235 0.08311246 -0.11260102 0.11522975 -0.019519417
-0.0138754565 -0.05512485 -0.08259282 0.10846735 -0.14660053 0.05693656 0.020218939 0.0075016324
-0.07559264 -0.03756563 0.055898387 0.0028792762 0.024750238 -0.04628075 0.027366167 0.18446365
-0.10078613 -0.014185069 -0.20521316 -0.11444012 -0.10018441 0.05078313 -0.03332767 0.07852992
0.09035066 0.042818572 0.06647648 0.02569643 -0.060549766 0.0036670514 0.14021409 0.12859228
0.04692653 0.10534503 -0.2406139 -0.0009784511 0.13091886 -0.023363985 0.15485413 -0.13219067
0.015988113 0.044378683 -0.17488588 0.082105614 -0.21911791 0.03481628 0.12299837 0.15308957
-0.1065868 0.0406331 -0.100014485 0.14735082 0.052652005 -0.02498574 0.08999755 -0.11742068
0.16303214 0.08304223 0.028908445 0.04304056 0.033636693 0.044585112 -0.08019768 0.25249323
0.06678546 0.2395444 -0.10229426 0.0770858 -0.028647073 0.1376809 0.1261394 -0.023141796
0.059787232 0.10980536 0.23374504 -0.18404478 0.0628493 -0.0066122846 -0.086102515 -0.088927336
0.09758447 0.016655266 0.042209625 0.020601291 -0.09657865 0.045712695 -0.0064291074 -0.11215402
-0.028628634 0.18608326 -0.055646867 0.0598365 0.14285499 0.033865068 -0.03956777 0.13129415
-0.010737678 0.03895704 -0.029224891 0.042092126 -0.027070269 -0.05764045 -0.04834365 -0.08743678
0.080784254 0.15059513 0.0069787875 0.08157504 -0.045475308 0.086764574 0.065664664 -0.012259335
-0.08561449 -0.09512133 0.03762173 0.029002603 0.117510445 -0.03224372 0.04858815 -0.09078518
0.10837236 0.095301844 -0.026985029 -0.042861976 -0.1254399 -0.06637649 -0.036246 -0.0060198526
0.003856236 0.0888375 0.060626745 -0.025333043 -0.13449605 0.047762956 0.06265421 0.13951701
-0.0027300573 -0.16417332 -0.042760216 0.014050078 -0.06167107 0.08578107 0.023945706 0.0117505025
0.10177752 -0.062590264 0.02303275 -0.14917284 0.089519255 0.12717399 0.05046485 -0.009296114
0.156075 0.058604613 -0.051527582 -0.16776901 0.023095682 0.11258827 0.0075979773 0.060655836
-0.12902054 0.115666755 0.03423181 0.057737693 0.050668884 0.04382389 -0.036804654 0.032563332
0.09635856 -0.030511795 0.06515202 -0.03268914 0.030261992 -0.020758059 -0.07834491 0.045815542
0.053288877 -0.017977998 0.02921224 0.08411739 0.11754772 -0.15247948 0.100798376 0.06346851
0.0017503586 0.020206364 0.102901235 -0.04440049 0.047476217 -0.010792349 0.004530731 -0.10303617
0.046386566 -0.13397598 0.013844995 -0.09882899 -0.15802127 -0.06479694 0.022806017 0.012820985
0.031084107 -0.031578105 0.044389732 0.05501635 -0.15718222 -0.09497446 0.07725769 -0.025064418
00000000: 0c02 323c 582e 003e 0137 123d 4621 833d
00000010: 940d b43e 6248 7abd 3b3e 1cbd fc68 00be
00000020: fe43 20be f5ce 363e 42ac f3bc 96d4 af3d
00000030: d065 243d 824b 66be 42e2 113d 7ed5 9c3b
00000040: 8e62 3dbe 1fd9 7e3d 43f8 b9bd 865e 8bbe
00000050: c381 853c 6978 153e 03f3 12bd 11a1 f13c
00000060: cf0d d4bd c528 90b9 39bb 7a3e 5bd6 00bd
00000070: 12ac 12be 9b0c af3d ca35 98bd 31fd 80bd
00000080: e693 063e a715 f4bd 4111 113e f802 19be
00000090: 4df0 5fbd de29 a13e ec01 183e c287 92be
000000a0: 1ae5 debc 004d 1a3c 8695 51be 00e5 df3d
000000b0: de36 aa3d 5d9b e6bd 93fd eb3d 2fe7 9fbc
000000c0: e255 63bc 98ca 61bd 6d26 a9bd 2124 de3d
000000d0: 731e 16be 4f36 693d 30a2 a53c 41d0 f53b
000000e0: 50d0 9abd 6bde 19bd b5f5 643d 3db2 3c3b
000000f0: 03c1 ca3c e290 3dbd 032f e03c 0ae4 3c3e
00000100: f568 cebd 7e68 68bc 6623 52be 955f eabd
00000110: 7c2d cdbd f901 503d 9882 08bd 4bd4 a03d
00000120: c409 b93d 8762 2f3d d224 883d 5281 d23c
00000130: 0803 78bd ea52 703b 4894 0f3e b2ad 033e
00000140: 0836 403d 23bf d73d 7d63 76be 5f3f 80ba
00000150: 980f 063e d465 bfbc 1592 1e3e fe5c 07be
00000160: 81f9 823c 6cc6 353d 4915 33be fd26 a83d
00000170: 7260 60be 849b 0e3d 92e6 fb3d 83c3 1c3e
00000180: 2e4a dabd e56e 263d 65d4 ccbd 22e3 163e
00000190: a1a9 573d e5ae ccbc a350 b83d 417a f0bd
000001a0: e6f1 263e 0b12 aa3d 67d1 ec3c 4c4b 303d
000001b0: a1c6 093d e19e 363d ae3e a4bd cb46 813e
000001c0: d1c6 883d 214b 753e a77f d1bd 29df 9d3d
000001d0: 44ad eabc 39fc 0c3e b02a 013e dd93 bdbc
000001e0: 75e3 743d a2e1 e03d dc5a 6f3e 3c76 3cbe
000001f0: 22b7 803d ddab d8bb 8456 b0bd 891f b6bd
00000200: 5eda c73d a070 883c 00e4 2c3d 0ac4 a83c
00000210: 07cb c5bd 3c3d 3b3d 43ab d2bb 02b1 e5bd
00000220: 9986 eabc 9c8c 3e3e f8ed 63bd 1e17 753d
00000230: 9448 123e 19b6 0a3d d011 22bd f971 063e
00000240: 16ed 2fbc 6b91 1f3d 0a69 efbc cb68 2c3d
00000250: 78c2 ddbc 6418 6cbd fe03 46bd 0e12 b3bd
00000260: 3772 a53d 9c35 1a3e 50ae e43b d110 a73d
00000270: 5144 3abd a0b1 b13d 327b 863d 61db 48bc
00000280: a656 afbd f9ce c2bd 3e19 1a3d de96 ed3c
00000290: 51a9 f03d fe11 04bd 5e04 473d 95ed b9bd
000002a0: 54f2 dd3d 9d2d c33d b50f ddbc 0a90 2fbd
000002b0: 5173 00be 66f0 87bd b076 14bd 2f42 c5bb
000002c0: e8b8 7c3b 6ff0 b53d c053 783d 3e87 cfbc
000002d0: 55b9 09be 17a3 433d da50 803d 8cdd 0e3e
000002e0: c3ea 32bb 0d1d 28be 5625 2fbd 4c32 663c
000002f0: ce9a 7cbd fcad af3d c929 c43c 2e85 403c
00000300: bb70 d03d 532f 80bd 2daf bc3c c4c0 18be
00000310: df55 b73d e639 023e 3bb4 4e3d ba4e 18bc
00000320: 20d2 1f3e 640b 703d 960e 53bd a4cb 2bbe
00000330: 2833 bd3c ae94 e63d 74f8 f83b 4172 783d
00000340: f61d 04be b1e2 ec3d a836 0c3d 5c7e 6c3d
00000350: 2d8a 4f3d ae80 333d 7ac0 16bd 2161 053d
00000360: a357 c53d dff3 f9bc 6c6e 853d 0ce5 05bd
00000370: ffe7 f73c ce0c aabc 4c73 a0bd 14a9 3b3d
00000380: 7045 5a3d 9846 93bc 824e ef3c bd45 ac3d
00000390: dcbc f03d 9523 1cbe 616f ce3d c7fb 813d
000003a0: 4a6c e53a d187 a53c e2bd d23d 4add 35bd
000003b0: 6c76 423d 65d2 30bc 8776 943b a104 d3bd
000003c0: d7ff 3d3d 0031 09be 1ed6 623c da66 cabd
000003d0: 54d0 21be 42b4 84bd afd3 ba3c 1c0f 523c
000003e0: 19a4 fe3c 0b58 01bd 02d2 353d d358 613d
000003f0: 60f4 20be f881 c2bd 4839 9e3d e553 cdbc

layers.1.bias f4 [128]
0.23338018 -0.08567425 0.058686014 0.084784366 0.110547684 -0.017450819 -0.4269962 0.018457733
-0.00037519966 -0.042462237 0.081186086 0.0024782205 0.080283016 0.13029762 -0.025577666 -0.04149419
0.031266566 0.016072342 0.022930762 0.01898833 0.1525407 -0.19625217 0.091884606 0.03383166
-0.23859988 -0.021574149 0.025626335 -0.20819375 0.0885694 0.14640506 0.09520158 0.08027812
-0.039816722 -0.27861297 0.09036684 -0.1179173 -0.116690084 0.08417334 0.11147295 -0.357325
-0.3778394 -0.1340552 0.012580354 0.035033673 0.2013517 -0.032953188 0.14478853 0.06386592
0.06898043 -0.16924037 -0.030712351 0.11316787 0.06996715 0.017986165 0.08962783 0.048284948
-0.27581847 -0.0031430796 -0.004289726 0.19374654 0.10990051 -0.07454395 0.104267076 -0.13850008
0.12383908 0.17792453 -0.43260008 0.010514198 0.096054085 0.15784091 -0.00085091894 0.08620114
-0.034113627 0.16792674 0.0743045 0.0057976157 0.0389558 -0.0010456118 0.08075115 0.2076943
0.2514166 0.0007474801 0.11842028 0.016082438 0.02293557 -0.17910394 0.16055152 0.00032661256
-0.03079085 -0.1803899 0.0067119054 -0.22230981 0.16983292 -0.07507277 -0.3261118 0.13110483
-0.08372681 -0.1094505 0.09992712 -0.15966359 -0.15509121 0.044694714 0.0028351466 0.031567283
-0.07579686 -0.055130433 -0.059325848 -0.18153359 0.13416247 -0.08976571 -0.035962194 -0.1743493
0.1395347 -0.22148268 0.085297115 -0.34204638 -0.03692308 -0.06139102 0.04025938 -0.5878215
0.14927945 0.03080862 -0.10395752 -0.06468255 0.06634008 0.0013516893 -0.3724118 -0.036568437
00000000: 37fb 6e3e fb75 afbd bf60 703d 6da3 ad3d
00000010: d366 e23d 05f5 8ebc 3f9f dabe ac34 973c
00000020: 72b6 c4b9 e2ec 2dbd e444 a63d a469 223b
00000030: 6c6b a43d bd6c 053e 4188 d1bc d0f5 29bd
00000040: 5f11 003d 25aa 833c 4bd9 bb3c 6a8d 9b3c
00000050: a133 1c3e 54f6 48be ff2d bc3d 1193 0a3d
00000060: 8753 74be 45bc b0bc 52ee d13c be30 55be
00000070: e063 b53d 35eb 153e 0cf9 c23d db68 a43d
00000080: dc16 23bd 5ca6 8ebe 4012 b93d a07e f1bd
00000090: 36fb eebd 1263 ac3d ee4b e43d 4df3 b6be
000000a0: 2a74 c1be c445 09be d41d 4e3c 787f 0f3d
000000b0: 242f 4e3e ecf9 06bd 7243 143e 23cc 823d
000000c0: 9d45 8d3d 594d 2dbe 7898 fbbc 8ec4 e73d
000000d0: f04a 8f3d b957 933c cc8e b73d 70c6 453d
000000e0: 1438 8dbe 20fc 4dbb d490 8cbb 7e65 463e
000000f0: 8513 e13d 80aa 98bd fa89 d53d f7d2 0dbe
00000100: 589f fd3d d931 363e c27d ddbe be43 2c3c
00000110: 01b8 c43d 0ca1 213e 3410 5fba 398a b03d
00000120: bbba 0bbd fdf4 2b3e f52c 983d edf9 bd3b
00000130: 1e90 1f3d e90c 89ba dc60 a53d d1ad 543e
00000140: adb9 803e 8af2 433a 5586 f23d 51bf 833c
00000150: 60e3 bb3c 0667 37be 9e67 243e 323d ab39
00000160: 183d fcbc 21b8 38be 8bef db3b 2fa5 63be
00000170: aee8 2d3e c1bf 99bd 20f8 a6be 5840 063e
00000180: f678 abbd 9527 e0bd 97a6 cc3d da7e 23be
00000190: 3bd0 1ebe ce11 373d decd 393b b24c 013d
000001a0: 623b 9bbd 73d0 61bd a9ff 72bd f1e3 39be
000001b0: e361 093e 16d7 b7bd 184d 13bd 9f88 32be
000001c0: 2fe2 0e3e 5bcc 62be 41b0 ae3d b420 afbe
000001d0: a83c 17bd 2675 7bbd 05e7 243d 787b 16bf
000001e0: b6dc 183e 5c62 fc3c aee7 d4bd 4978 84bd
000001f0: 4fdd 873d 2b2b b13a c2ac bebe c9c8 15bd
