Gym-DDPG-solution/results/DDPG_HalfCheetah-v4_5000-eps0.1-t32-l0.0001-s1.pth (torch, 193979 bytes, 13 tensors)

layers.0.weight f4 [128, 23]
00000000: 22b1 5d3e 9564 133c 0ae1 8cba 9bf2 323e
00000010: 068b babd 7d90 133f c63b 293e 24e3 b13d
00000020: 152c 8fbe 58e1 1c3e 8ba8 6e3d 71de fb3b
00000030: 003a 733c 99e5 843b 9fae b83b 64f7 02bd
00000040: e10d 83bc a513 babb 942d 813e 2d96 783e
00000050: d05a 8bbd 4db4 5fbe 4c30 5bbd c179 323e
00000060: 1462 51bd 1f50 463f 78be 993e 7757 003e
00000070: ba61 0a3d fe74 c43e 0b1b 79be 24f1 9f3e
00000080: d1de 2d3e e488 d5be 39aa 9bbb de5e 86bd
00000090: 1d53 6a3c c15f 48bd 2741 cd3c 3bbd 363c
000000a0: 119a e63e 869f 333d efb8 273d d65c 273e
000000b0: 1a85 b5be d02a 5c3e c916 af3e f791 bbbb
000000c0: 8364 cfbe b79e a23d 1852 d2bc de17 96bf
000000d0: 3f79 3ebf 0ed9 cb3a d759 b13e 70bc dd3e
000000e0: 1c0e 8fbe d5f0 983b 7a24 15bd b210 893b
000000f0: bb7b c9bc 27a0 933c d566 89bb a338 073e
00000100: bb8f b93d 0c75 b7bd 6e90 333e 3b7e 21be
00000110: 1429 82bd 38b9 13bf ecef 7dbd 6a2b efbd
00000120: b14f 8d3e 1d4d 363e f1ec ad3e 6b4a 913e
00000130: d00a 013e 6826 45bd 42c5 1abf 2b7c 44be
00000140: d6af 23be c88d b0bd dd18 c739 b93e 443d
00000150: e895 aa3c 84c8 843b dc62 9fbe f910 783e
00000160: 1a29 3c3e 3cd3 133e 2277 3b3e 271e fbbd
00000170: 16c7 023f edfb bd3d 4dde 9cbe e155 b5bc
00000180: 4259 0b3e f336 853e a9e6 6abe 43c9 39be
00000190: 2b83 d33e eda8 86bc 846c a03e 1d5a 603d
000001a0: e21a 6dbd e15c 80bc 3248 1f3d 11c3 833c
000001b0: 313c fb3c 8523 203d a1ed bf3d f4d5 b23d
000001c0: 06ef 933e 1269 40be 4887 a7bb 0597 3f3e
000001d0: a023 e33e 65ac 973d e927 41bf a99f 6cbb
000001e0: d5df a23e 4e6c c93e d99a dd3e 5318 92bd
000001f0: b44c 9c3e 8bb6 89be e46c 5fbc 8a05 e4bd
00000200: 0f0e 06bc 2fce a6bc b810 573d b4be e1bc
00000210: b091 013e 669a 9f3e 046e 223e 2366 d63e
00000220: 8006 ad3e 202a 053d de7b 773d 5e34 96bc
00000230: cdff 8e3e 770b c13c 15f6 84be a433 b1be
00000240: bb13 9fbe c8ed 60be e7ce e43e dda1 103f
00000250: 6514 063f bd2d 873d 3296 363d a393 853d
00000260: 5a3d 86bb aadc 2ebd 7190 95ba 999c 28be
00000270: f1b1 2cbe 2ee5 cabe 92de 7f3e 8802 c3bd
00000280: 123d d5bd a865 da3e a32b 7a3e 3001 153f
00000290: 4844 1fbe 76ad 4b3e 0f8a 28bd cfaf 2cbd
000002a0: d898 d1bd 8563 92be 9b9c 75be 7f52 353e
000002b0: f886 a5ba 4c47 443d 7191 8cb9 1275 643d
000002c0: 80e7 2a3c 9239 b63c e31b 3ebe f5e4 df3e
000002d0: 323f 123e 1261 d03d f8b7 48be ed2c 93bc
000002e0: 5f49 b0be 9044 943e db19 5fbe 24e6 d1bd
000002f0: 354e 6fbe 43c0 30bf a009 493e b9e0 19bd
00000300: e248 ccbe bd0a 973c 12b4 783e ee6e 8bbd
00000310: 31e5 8b3c 5649 163a 17ff 8d3d 5afa 623a
00000320: b01c 34bc f55a f6be e763 e13e 3ede f4bd
00000330: 600b 12be 8a55 9cbe bdf1 d23c e8ba aabe
00000340: e2fd 663e 0a5e b53e 2ae5 5fbf 5fe0 113e
00000350: b2a7 55be 0ac8 8f3d 9b9b aa3e b80e 093f
00000360: 7028 fc3e 6d6c 033d 25c8 66bc 8333 623d
00000370: a67e cd3c f255 0dba 2354 6fbd 9466 84bc
00000380: e6c6 393e 28db 76bd 3b8d 703d f18e b43d
00000390: df82 903e 9937 053d df66 6e3e 109d 44bf
000003a0: 2af4 093e ff55 063e b01a debd babf 793e
000003b0: 0deb 07be e6ee 6ebe cfe5 833e c96e 88be
000003c0: 18d5 05bd e25e 93bd f7c0 5cbd 1fae 3e3c
000003d0: 84ec f7bd eea1 3d3c d5c4 6aba c447 72bc
000003e0: 714d f8bc 170a d83d cb10 4e3e a9c5 4ebd
000003f0: 50a7 f13c 0995 3c3f 55da 9cbc 6040 f63d
0.21649602 0.008996149 -0.0010748219 0.17475359 -0.09108548 0.57642347 0.16526708 0.08685902
-0.2796332 0.15320337 0.058266204 0.007686429 0.014845371 0.0040556905 0.005636051 -0.03197421
-0.015997829 -0.0056786113 0.25230086 0.24276038 -0.068044305 -0.21846123 -0.053512856 0.17429258
-0.051118925 0.77466005 0.3002813 0.12533365 0.033784606 0.38370508 -0.24326722 0.31238663
0.16979529 -0.41706002 -0.0047505167 -0.06561063 0.014302042 -0.048919443 0.025055481 0.0111535145
0.45039418 0.043853305 0.04094785 0.16344008 -0.3545311 0.21500707 0.3419707 -0.0057241875
-0.40506372 0.07940429 -0.025673911 -1.1726034 -0.74403757 0.0015552358 0.34638855 0.4330783
-0.27940452 0.0046673813 -0.03641174 0.0041828984 -0.024595132 0.018020703 -0.0041931667 0.13205199
0.090606175 -0.08957872 0.17535564 -0.1577081 -0.06355491 -0.57704496 -0.061996385 -0.116782025
0.27599862 0.17802854 0.33969834 0.2837709 0.12601781 -0.04813233 -0.6045724 -0.19187991
-0.15985045 -0.086207926 0.00037974762 0.04791138 0.020823434 0.0040522236 -0.3113011 0.24225225
0.18375054 0.14436048 0.18307164 -0.122616105 0.5108503 0.09276567 -0.30638352 -0.022135677
0.13608268 0.26018485 -0.22939552 -0.18143182 0.4131101 -0.016437972 0.3133279 0.05477344
-0.057886966 -0.015669288 0.03888721 0.016084226 0.03066835 0.039096374 0.09371496 0.087322146
0.28893298 -0.18790081 -0.0051125623 0.18709953 0.44363117 0.074059285 -0.75451523 -0.0036105907
0.31811395 0.39340442 0.43282202 -0.07133546 0.3052727 -0.26897082 -0.013636801 -0.11133869
-0.008182063 -0.020361988 0.05250618 -0.027556755 0.12653232 0.31172484 0.1586228 0.418748
0.33794022 0.032510877 0.060420863 -0.018335517 0.27929536 0.023565037 -0.25968996 -0.3460971
-0.3106974 -0.21965706 0.44689104 0.56496984 0.5237487 0.06600521 0.04457683 0.065223
-0.004096669 -0.04269091 -0.0011410845 -0.16465987 -0.16864754 -0.39627975 0.24987248 -0.09521967
-0.10412039 0.42655683 0.24430709 0.58204937 -0.15553391 0.19890389 -0.041147288 -0.04215985
-0.10234231 -0.28591552 -0.23985521 0.17707251 -0.0012628725 0.047919556 -0.00026811243 0.05577571
0.01043117 0.022244249 -0.18565325 0.43729368 0.1428192 0.10174765 -0.19601429 -0.017965758
-0.34430978 0.2895856 -0.21787207 -0.10248974 -0.23369677 -0.6904337 0.19632578 -0.037567828
-0.39899355 0.018437738 0.24287441 -0.068082675 0.01707706 0.0005732974 0.0693342 0.0008658521
-0.010993168 -0.4811627 0.44021532 -0.11956452 -0.14262152 -0.3053401 0.025750035 -0.33345723
0.22557786 0.3542331 -0.8745905 0.14245747 -0.20864752 0.07020576 0.33321843 0.53538084
0.492496 0.032085825 -0.014085804 0.055224907 0.025084805 -0.000539153 -0.05842985 -0.016162194
0.1814228 -0.060267597 0.058728438 0.088163264 0.28224847 0.032523725 0.2328143 -0.7680216
0.13472047 0.13118742 -0.10844934 0.24389544 -0.13273259 -0.2333332 0.25761268 -0.26647022
-0.032673925 -0.07195832 -0.053894963 0.011638193 -0.12105659 0.011574252 -0.0008955722 -0.014787618
-0.030310364 0.105487995 0.20123594 -0.050481472 0.029498726 0.7366491 -0.019147078 0.12023997

layers.0.bias f4 [128]
00000000: 7098 babd f561 31be 2399 59be 43ca afbc
00000010: 2897 93be 62bb 0f3e 3dc4 d9bb 8f9e a2be
00000020: d2f4 213e 91a3 a73d a31c 5ebe 13ca 01bf
00000030: 8af0 30be a556 97be bb9a 94bd c5a3 693d
00000040: 3e85 12bd c499 453c 0f14 85be e78e b0be
00000050: 9a61 a03e 5df6 36bd 1b2d 18bd 3726 93be
00000060: dfc0 c53d 3344 c1bd 32c3 143e 06d6 85bd
00000070: 3e4e b13e 3b56 483c b16d ce3e 3e23 2bbe
00000080: 09a3 fe3e 347a 88bd 0184 46be aabb f43d
00000090: 351d 63be 096c dc3d bd40 153e abde c8be
000000a0: 23db a33d 4483 97be f6b0 eb3c aa67 aabe
000000b0: 6945 a73d d1ed b8ba 465c 11bf a3e6 bbbe
000000c0: 1991 9b3e 6587 233e 5dc2 76be 57f6 6abe
000000d0: 6bcb d23e e64d d73e 17d6 d53d e5b3 97be
000000e0: fe7d 003d c515 0fbf 77e3 293c d79d e73e
000000f0: d116 bbbd 473c 483e 6237 02bf da4a 273e
00000100: 1b06 28be 323b 8b3e acdb cdbd e633 b23d
00000110: 1afe a8be 7e18 7abe 523b 9a3e 5df8 48bd
00000120: cd69 1f3f d2b2 cabe 0c69 163e f35a 69be
00000130: 477b 0dbf 8c0d c3be 1e40 78bd b9bd aa3e
00000140: b421 82bd 3b09 bfbb 6621 1e3e 5865 11be
00000150: c4c5 e0be 9165 89be 11da 0dbe 1a3f 9d3e
00000160: 8e3d f13d b590 4cbe d718 f3bd e05e a2be
00000170: 74f0 cdbc 67b8 2abe 2964 c1bc 850f 92bd
00000180: 1eb8 b4be 4286 ba3e 24bc d1bd 9067 513e
00000190: 3da3 35bd e730 1cbe 014f a1be 0e85 083f
000001a0: 04e0 303e 62ff 4abd 28a0 103e d424 2a3c
000001b0: e14d 72be 1ab4 69be 20d0 ba3e 8640 e43e
000001c0: ab79 ae3e be84 fc3d 2d2c 413e e7a0 1cbf
000001d0: 626a b03e 714d 6c3e 9132 693d e149 e03e
000001e0: b899 2a3e b11c 53bd bf7d 2dbe e087 90be
000001f0: 7a61 5f3d 1cec c6be b334 1ebc 8293 03bf
-0.091111064 -0.17322524 -0.21249823 -0.02145875 -0.2882626 0.14036325 -0.006645708 -0.31761596
0.15816048 0.08185495 -0.21690612 -0.50698966 -0.17279258 -0.29558292 -0.07256075 0.05704095
-0.0357716 0.012060586 -0.25991866 -0.34484026 0.31324464 -0.044668544 -0.03715239 -0.28740093
0.09655928 -0.09436836 0.14527586 -0.06534962 0.34630007 0.01222759 0.40318063 -0.16712663
0.4973376 -0.066639334 -0.19386293 0.119498566 -0.2217911 0.107627936 0.14575477 -0.39232382
0.080007814 -0.29592335 0.028770905 -0.33282214 0.08167536 -0.0014108961 -0.56781423 -0.366994
0.30384138 0.15969618 -0.24097581 -0.22945534 0.4117082 0.4205162 0.10441225 -0.29629436
0.031370156 -0.5589259 0.010369173 0.4523761 -0.09135211 0.19554244 -0.5086576 0.16337147
-0.16408579 0.271936 -0.10051665 0.08701305 -0.33006364 -0.24423406 0.30123383 -0.049064983
0.62270814 -0.39589554 0.1468851 -0.227886 -0.5526623 -0.38096273 -0.060608022 0.33347872
-0.063540846 -0.005829958 0.15442428 -0.14198816 -0.43900883 -0.26835302 -0.13852717 0.30712205
0.11779319 -0.19977076 -0.11869972 -0.3171301 -0.025139071 -0.16671906 -0.02360733 -0.07131866
-0.3529672 0.36430556 -0.10240963 0.20449662 -0.04434513 -0.1525303 -0.31505588 0.53328025
0.17272955 -0.04955996 0.14123595 0.010384757 -0.23662521 -0.2282261 0.36486912 0.44580477
0.340772 0.12330006 0.18864508 -0.6118302 0.34456164 0.23076417 0.05693299 0.43806365
0.16660202 -0.051541034 -0.169425 -0.28228664 0.05453632 -0.38852012 -0.009656119 -0.51396954

layers.1.weight f4 [128, 128]
00000000: a65a b93d 9e43 16be 2432 85bd 3b9d 2ebd
00000010: 32a4 b4bc 6994 613d 7184 4e3d 3882 e83d
00000020: 4be2 d83c d3b2 a73d 9c52 19be a4bc 693d
00000030: 72e0 debb 8dcd b3bc f7ae bd3d 3b1f a93d
00000040: 9883 cf3b bcc7 77bd 66d1 eebc e011 313d
00000050: 23ed 2fbd d7a0 143d 0498 f13b e174 ab3d
00000060: afb4 213d bdf1 4dbe da96 4ebe 628c fa3c
00000070: df2f 2e3c 7031 dabd bf02 143c 9660 a33d
00000080: c161 093d 9e6d 8cbc f4d2 193e 8f22 1c3c
00000090: e4c3 de3d 948b 01bd f3ac fd3b b9d2 10bc
000000a0: 5919 dc3d 949b df3d adf0 4d3c 8714 d83d
000000b0: 5478 25bd 7deb 993c ad08 eb3d 1a71 613c
000000c0: df43 58bc 98a2 953d e539 06be 4933 c2bd
000000d0: cd43 afbc 071b 81bd aec3 39bd a581 25be
000000e0: 6d01 d73d 3578 3c3d 566a 4d3d 6b01 37bd
000000f0: c9ac 7e3a cc29 77bd 1b0c 523e b615 c3bd
00000100: c32d 163e 6c2f 933b cec4 b23d afd7 b0bd
00000110: 8180 683c 45c6 bdbd 2277 d7bb afdd bd3d
00000120: 7b84 3dbd 084a 4a3c 3e4f c0bc ca8e 84bd
00000130: 06ba dd3c 20ce 09be 6662 2ebd 4edf 26bc
00000140: f82c 123e 8b35 2d3d 5b24 d8bd 0d2b 243e
00000150: 67b3 b13c 70ce e13d a575 053c 7d75 f6bd
00000160: cc84 87bb 88ce 34bd ce22 ad3d cf3a 443e
00000170: 7628 0cbb d213 cebd 3708 bb3d c0de d2bd
00000180: 8394 0cbe 4de1 9bbd aae5 6a3d eb83 543d
00000190: afc1 68bd 9364 ff3c 09b1 6ebc f220 cfbc
000001a0: 88b3 15bd 3f3d d5bc 1798 683c 5ba3 8c3d
000001b0: 56d4 9abd 3cfc a1bc 0ff5 02bd 19c2 babd
000001c0: 59b1 4e3d 99e8 aabd 2ade 11bd 15c8 be3d
000001d0: b56e 9d3a 8f33 b33c cbd6 92bd ca8a f13d
000001e0: cc26 d43d b58e 5a3d 33d1 e2bd 1f1c 113d
000001f0: 698e 14be 774f 243e fe2e b33d 484e 193e
00000200: dfc9 efbd f473 a93d e5ab 063d 8e87 14be
00000210: f70c b1bd 245d 26bd 267f ee3d 7338 a2bd
00000220: 58b6 1dbe 8d30 db3d 72cf d3bd 9743 823d
00000230: ba71 b6bc 2b04 2ebc 75f8 3dbd a0d6 9e3d
00000240: 1ebf 4abe c58f aebd 6799 593d 6ba0 9e3d
00000250: 5c6f 82bb 5063 60bd 5ccc c7bd faf8 41bd
00000260: 7cb5 fa3d ec14 52bd 689a 0bbc 878f 6b3c
00000270: 9350 10bc bf5d 6f3c 1980 f2bc 43f2 e83d
00000280: e358 b13d 515e 4d3d e825 de3d 884c cbbd
00000290: 3350 aa3c 50f7 f13d 5eb5 b83d bcd3 6bbd
000002a0: e1dc 0e3d 41cd 0c3e d71f 803c d0bd 383e
000002b0: d10f 53be b2a2 f23d f840 21be 5e39 64bd
000002c0: ba73 3dbd d3cc 4e3d 81b8 833c b08f b1bc
000002d0: ba32 28be 2a31 c8bc 8ff2 d03b 23b4 22bb
000002e0: fcce 61bc 928b 88bd 91b8 42be cbd5 9d3d
000002f0: 53a1 9d3d 35a5 593c 5c96 083c 76e8 88bd
00000300: 7fd3 1b3d 8ba3 dfbd e34a 70bc f34f 653d
00000310: f7a5 b93d eff5 dc3c d23e d2bc 487a a5bd
00000320: 7182 9fba 38f1 46be 711e 4b3d 182a 0c3d
00000330: 321e 823b 08bc 16bd e1f0 51bd 0f1e 5d3d
00000340: 736b c83d 9b78 873c 81a6 ab3d d25f a2bc
00000350: 7169 343e f3fc b83d a2cf 203e d8a1 3e3d
00000360: b9c6 89bc 3f53 ac3c c2d3 eebd 5970 19bc
00000370: e4d3 3ebb b012 153d c2dd 2dbe e287 cebd
00000380: a719 a4bd ac46 8e3d 0e06 b4bd 3bec 733c
00000390: 8c65 4abd bd6b dd3c fb4a 963c 28e4 473e
000003a0: bf75 b43d ccd7 97bc 84fc 913c 2d22 fb3b
000003b0: 1a65 893d e2be 753c 2452 2cbd 40cf 8d3c
000003c0: b73f 0b3d 62ba 8ebd 1255 513d 9114 093d
000003d0: aa53 f3bd 7c4b f73d ee87 a3bd 2534 893c
000003e0: bd7c 633d 9a3d b7bd 5ea7 85bc ff87 73bd
000003f0: e577 fcbc 2afc 1ebd 0294 bcbc 55b2 17bd
0.09050493 -0.14674231 -0.06503704 -0.042630415 -0.02205095 0.055073176 0.050419275 0.11352962
0.026475092 0.08188405 -0.14972919 0.057064667 -0.0068016583 -0.0219486 0.092618875 0.0825791
0.006332826 -0.060493216 -0.029152583 0.043229938 -0.04295076 0.0362862 0.007372858 0.08371902
0.039478954 -0.20111747 -0.20174733 0.030584518 0.010631531 -0.10653961 0.009033858 0.07977407
0.03354049 -0.017142113 0.15021878 0.009529724 0.10877207 -0.031627253 0.0077415644 -0.008839303
0.10747022 0.10918346 0.012569589 0.1055079 -0.040397957 0.018789047 0.11476264 0.013759876
-0.0131997755 0.07306403 -0.13108023 -0.09482438 -0.021394635 -0.06303983 -0.04535263 -0.16162737
0.10498319 0.046013076 0.050150238 -0.044679087 0.0009715078 -0.060342595 0.2051243 -0.095256254
0.14665894 0.004491737 0.08728944 -0.086348884 0.014190794 -0.092663325 -0.006575481 0.092707984
-0.04626892 0.012346752 -0.023475286 -0.06472547 0.027066242 -0.13457537 -0.04257431 -0.010185076
0.14274967 0.04228739 -0.10553809 0.16032048 0.021691991 0.11025703 0.008145724 -0.12034128
-0.0041357037 -0.044142276 0.08453904 0.19163059 -0.0021386421 -0.10062374 0.09132426 -0.102963924
-0.13728528 -0.07611332 0.05734793 0.05188362 -0.056825336 0.031175887 -0.014568576 -0.025284264
-0.036548167 -0.026030181 0.014196417 0.06867095 -0.07560031 -0.019773595 -0.031971987 -0.091190524
0.0504621 -0.08345146 -0.035612263 0.09315506 0.0012011143 0.021875171 -0.07169875 0.1179405
0.103589624 0.053358752 -0.11075058 0.03542721 -0.1450745 0.16045938 0.087491974 0.14971268
-0.11708426 0.082740694 0.032878775 -0.14504835 -0.08645051 -0.04061617 0.116453454 -0.07920923
-0.1540159 0.1070262 -0.103423014 0.06360548 -0.022271026 -0.010621111 -0.046379525 0.0775578
-0.19799468 -0.085235156 0.05312481 0.07745441 -0.00398056 -0.05478221 -0.09755775 -0.047356583
0.12241647 -0.051289484 -0.0085207 0.014377481 -0.008808273 0.014609753 -0.029602097 0.11374333
0.08659532 0.050138775 0.10847074 -0.099267066 0.020790195 0.11814749 0.09018968 -0.057574973
0.034878615 0.13750173 0.015640182 0.18041158 -0.20611502 0.11847438 -0.1574744 -0.055718772
-0.046252944 0.050488304 0.01607919 -0.02167496 -0.164256 -0.024437506 0.0063765715 -0.0024826608
-0.013782259 -0.06667246 -0.19015719 0.077067934 0.07696786 0.013284017 0.00833663 -0.066849634
0.038043495 -0.10919865 -0.014666292 0.05598445 0.090648584 0.026972739 -0.02566472 -0.08079964
-0.0012169612 -0.19427955 0.049589578 0.03421983 0.0039708847 -0.036800414 -0.05125511 0.053983744
0.09786119 0.016537001 0.083813675 -0.019821081 0.17618348 0.09032621 0.15704206 0.046541065
-0.016818391 0.021035789 -0.11661483 -0.009365165 -0.0029117996 0.036394775 -0.16979125 -0.10084511
-0.08012705 0.06947073 -0.08790217 0.014887865 -0.04941325 0.027028913 0.0183463 0.19520628
0.08811521 -0.018535517 0.017820604 0.007663986 0.06708737 0.014999123 -0.042070523 0.017310739
0.03399631 -0.069691435 0.05110652 0.03346688 -0.11881192 0.120749444 -0.07984911 0.016748497
0.05553888 -0.089472964 -0.016315158 -0.059455868 -0.030818889 -0.0388147 -0.023019794 -0.037035305

layers.1.bias f4 [128]
00000000: b36f 9ebc 24d6 00bd 7fd2 aabd 2229 08bd
00000010: c5c4 44bd 873c 0ebe 45c4 073e 9dea c23d
00000020: a3e3 05be 028c 2cbe 411c af3d 76f5 10be
00000030: ea68 06be 4c1c 60bd 3482 733d 7d84 133d
00000040: 89cc 07be 5f47 c23c ff52 92bd dba2 303d
00000050: c2d5 9d3d 7052 a7bd fb7f 81bc ac5e d4bc
00000060: d0f4 7e3e 9cad 903c 34dc f6bd fb4e e8bd
00000070: b0e6 b7bd 613d 48bc 3638 fc3c 16fa dd3d
00000080: 9e9e 15bd f1b0 6d3d 29ad 803d 0d7e 8bbc
00000090: 7e78 ce3d 6698 b9bd 8fa5 193e 90e4 d93d
000000a0: 264a 0ebe 7b17 20bd 586f 2f3e 2d5d 23bd
000000b0: f5b1 25be 7163 853d 26d9 76bd bb14 4fbe
000000c0: eb92 c5bd ebbf e83c fdba ce3c 335a 82bd
000000d0: d302 e4bd beed 94bd 5443 8b39 c14a d5bd
000000e0: 9b8a aa3d 15b9 b0bd 5eaa 4f3d 7fce 08be
000000f0: f0ed 56bd 8d85 883d 9530 94bd 06ca 5cbd
00000100: 863e 15be 307f 4b3d 32cd 773d 8599 0c3d
00000110: 5bd3 0f3b aa94 98bd 5767 66bd ab79 92bd
00000120: 492a 08bd 0bda 2f3c 9488 f43d 20d0 15be
00000130: 116e 40be b3a8 b33d 9ef4 57bd 2da8 45be
00000140: 1007 43bc 9e4f 65bc 1d38 2c3e 5aeb 213e
00000150: badc cb3d b762 01bc c271 91bd d047 843d
00000160: a8e3 f43c c901 05bd 59d9 b0bd f3be d13d
00000170: 6ee7 053d b831 1cbd 7dd2 d1bd 0c98 4e3d
00000180: 4755 e43c 329b 9bbc 49a0 44be 4d4e 503b
00000190: 45d8 61bd f00b 083e d60d b7bd 228d c4bd
000001a0: 1177 d73d 3198 9abc 3569 b6bd 0bd3 b5bd
000001b0: 6495 363d ce08 45bd 02a4 0f3e b1e2 503d
000001c0: fe5e b5bc 02ac 113d 5b86 b53d 6d07 f7bd
000001d0: f08e 6e3b bee5 ccbd 9b44 49be c41a 25bd
000001e0: c4ad 43bc 1ddd d8bd 4c6b 183e 51e4 443e
000001f0: 7e89 db3c 9967 fbbd 92c1 de3d e79d 04be
-0.019340372 -0.03145422 -0.0834093 -0.033242352 -0.048039217 -0.13890277 0.13258465 0.09517405
-0.13075118 -0.16850284 0.08550311 -0.14156136 -0.13125959 -0.054714486 0.059450343 0.036015023
-0.13261618 0.023715673 -0.071447365 0.04312406 0.07706787 -0.081700206 -0.015808096 -0.02592405
0.24898076 0.017660908 -0.12053719 -0.11343189 -0.08979547 -0.012221665 0.030788522 0.10838716
-0.036528222 0.058030073 0.06283028 -0.01702788 0.10081576 -0.09062271 0.15004562 0.10639298
-0.13895473 -0.039084893 0.17132318 -0.03988378 -0.16181166 0.065131076 -0.060265683 -0.20222752
-0.09647163 0.028411826 0.025235647 -0.063648604 -0.11133351 -0.07271908 0.0002656231 -0.10414649
0.08327218 -0.086290516 0.050699584 -0.13360022 -0.05247301 0.06666098 -0.07235829 -0.053903602
-0.14574632 0.049681842 0.060498424 0.034326095 0.0021946046 -0.074502304 -0.056250896 -0.071521126
-0.03324345 0.010733138 0.11940113 -0.14630175 -0.18791987 0.08772411 -0.05272352 -0.19302435
-0.011903539 -0.013996033 0.1681828 0.15812436 0.099542096 -0.007897071 -0.07101776 0.0645901
0.029893711 -0.032472406 -0.08635206 0.10241499 0.03269141 -0.038133353 -0.102452256 0.050437972
0.027872695 -0.018994901 -0.19201769 0.0031784952 -0.05513789 0.13285804 -0.08938186 -0.095972314
0.10520757 -0.018871399 -0.089067854 -0.08878144 0.044576064 -0.0481041 0.14027408 0.05099744
-0.022140022 0.03556443 0.08863517 -0.12061963 0.0036401115 -0.10004757 -0.19655077 -0.04030873
-0.011943284 -0.10589049 0.1488468 0.19227721 0.02679896 -0.12275619 0.10876764 -0.1295086

layers.2.weight f4 [64, 128]
00000000: a5b9 1c3e 3f17 94bd dcda c73b 29b3 ae3d
00000010: 7cc9 1bbd 38c8 8abc 69ad b03d 8303 0a3e
00000020: c388 913d 1bbb 683d 350b 133d 5cf4 86bb
00000030: d2ce a4bd 623a 673d bfe2 9e3d f5bd 6abc
00000040: 700c 1a3e 98c1 2b3d 7910 7d3d 2856 493d
00000050: 15ba 073d fd8a 843d 876d d8b9 11a9 f13d
00000060: 2462 1c3d 66da b4bd 3035 01be bdb3 d5bd
00000070: 798d bebc f6cc a0bd 6466 ef3c 3162 143e
00000080: 29c7 20be 11d3 f23d e5fb 903d 3be5 aebd
00000090: b033 983d 1d17 85bc 2bf9 163e a926 c23d
000000a0: 2fef 5bbd 8667 433e fc1f a1bc 82d6 8cbd
000000b0: 60b5 93bc d1a8 053e c544 1abc 4db1 653e
000000c0: 6c43 0bbe 318f 533d e4de a03d aac9 1a3e
000000d0: bd1d 933c e756 203d cbfe d73c fde6 a93d
000000e0: 404e 7abc c2a6 d23b 15f6 1a3d 7119 37bd
000000f0: a498 13bd eb0a a0bc 8972 01bd a737 49bc
00000100: a8a1 7d3d 9fcc 3ebe 789d bf3d 3116 de3d
00000110: 46a8 21bd 1d74 b8bd c101 bc3c 3b79 903d
00000120: c24b 7d3c da41 11be c7b8 7c3e bab3 d9bb
00000130: 568b 08ba 6c6b 90bd 6667 ed3d 63e3 14be
00000140: cea2 223e 4dc0 7d3d 8613 823d a903 413d
00000150: 228d 8a3d 01a6 d9bc 9f60 a6bd 1197 da3d
00000160: 4480 09bd 1a38 873c 9ad1 d23d 849e 1b3e
00000170: 4c71 d9ba 5644 163e af88 dfbd db82 ba3d
00000180: 9ee6 d1bc 8740 ea3d ae24 773c 3ac2 0e3d
00000190: bf2b 9dbd d571 d83d 7fbb 0a3e 1ffb b23c
000001a0: 9eae d83d 2109 243c 2ef7 46be a05a f3bc
000001b0: d805 b8bc 0a19 0b3d ff33 81bd 847e fc3c
000001c0: 949c 903d e39d 09bd 1198 27be 31ee 39be
000001d0: 1e17 e93d da1e 233e 31b7 02be 332b 0fbd
000001e0: 8f64 f5bd ebc5 383d 4c96 073e f38c 9e3d
000001f0: b5dd d63d f3ea d3bd 77d4 783e e469 c0bd
00000200: 8b08 00bd d37c debc 7de4 713d a634 8b3e
00000210: 6bb2 f03d c0fb a33d 9531 d3bd 9324 d73d
00000220: 56db 0fbd 047c 263d f571 eabc 81a1 e2bd
00000230: 97f3 663d bc77 4abb 3cda 483d 19b9 04be
00000240: c833 6b3d 3c31 59bd 44bb d3bd 2bef 4abe
00000250: cc69 a6bd 4b16 b8bd 4b5b 603d 1d20 a73d
00000260: b5a0 3cbd c59c c2bc 9b45 7fbd e7f8 41bd
00000270: a3b6 24be 65c7 8cbd a929 a13d 9068 803b
00000280: 01ed 0dbd 3493 5b3d fc67 80bc 7298 ad3d
00000290: e5e7 433e e3c7 42be c4c1 38be 1ed4 4b3c
000002a0: 94f4 84bd 0f25 513d dd40 46be 4f3d ae3d
000002b0: 7976 1e3d f537 6a3e b657 37be 04ff 463e
000002c0: 942d 3c3d ce66 843e 173e a93b 1986 493e
000002d0: ca17 213e 69b5 1dbe 9426 163e 62c5 523d
000002e0: cf27 0b3e c326 ea3d 009f b53d 0d0f 98bd
000002f0: 2e52 eebc 9c7d 323e 9422 303d ea35 20be
00000300: 1fcc 163d e08e 4dbd 6c1d eabb 733d aa3c
00000310: 3733 c8bc 2257 92bd 08b2 153d d2ba 003e
00000320: 5cd5 f43c 2501 d2bd d7e1 283d 2eb9 d23d
00000330: 8d20 03be 51f6 20bd 9c75 293e 9053 b5bd
00000340: 070a 9bbd d88a 9c3e 01eb f73d 1dd4 2f3d
00000350: 47b9 c2bd 02b9 ed3d 548d c0bc e1c6 d73c
00000360: 531b 093d c624 87bc 2740 563e cfcf 8c3d
00000370: 048b dabd c9b0 81bd 9ab9 39bd 198a e53d
00000380: 9d55 8b3d 5bde 81bc b8e7 47bb 1fe9 00bd
00000390: 490b 643d cd31 27bd 58b9 3b3e b10c a43d
000003a0: 8cd5 613d 0a43 f4bd bbf8 09be a6e5 e93d
000003b0: 008c 61be 30e4 ffbc cc02 3a3c 5ac3 14bd
000003c0: 4f2f 103d 1886 3dbd fc89 173d 10c3 b5bc
000003d0: deeb a43c 2de1 443e ceed 223e 1c8e cbbd
000003e0: 3ed6 3dbe ac2c 9a3d e71a 06bc f812 4ebe
000003f0: b774 ffbd 8ffc 803d 9e3c 8e3d 8a67 00bd
0.15305193 -0.07230996 0.006099088 0.08530266 -0.038033947 -0.016941175 0.08626825 0.13477902
0.07106163 0.056819063 0.03589936 -0.0041184854 -0.0804726 0.056452163 0.07758092 -0.014327516
0.15043807 0.041932672 0.061783288 0.04915443 0.033136446 0.064718224 -0.00041280335 0.11799825
0.03817953 -0.08830719 -0.12617946 -0.10434673 -0.023260819 -0.07851593 0.029223628 0.14490582
-0.15700974 0.11856664 0.07079295 -0.08539816 0.074317336 -0.016246373 0.14743488 0.0948003
-0.0536949 0.1908246 -0.019668572 -0.068768516 -0.018030822 0.1305268 -0.00941581 0.22430916
-0.13599938 0.05165023 0.07855013 0.15115991 0.017958516 0.039145377 0.026366612 0.08296011
-0.015277445 0.0064285705 0.03783234 -0.044701997 -0.03603424 -0.019536456 -0.03160337 -0.012281335
0.061921746 -0.18632744 0.09356207 0.108440764 -0.03946712 -0.09006522 0.022950055 0.07054373
0.015459957 -0.14185277 0.24679862 -0.0066437395 -0.0005208751 -0.07051739 0.11591987 -0.14539866
0.15882418 0.06195097 0.0635138 0.04712263 0.067652 -0.026568415 -0.08123898 0.10673345
-0.03356959 0.016506243 0.102938846 0.15197188 -0.0016589551 0.14674506 -0.10914742 0.0910699
-0.025622662 0.11438089 0.015084429 0.034853198 -0.076743595 0.10568587 0.13548087 0.02184826
0.105801806 0.010011942 -0.19430229 -0.0297063 -0.022463724 0.033959426 -0.063087456 0.030822046
0.07061115 -0.033597838 -0.16366602 -0.18157269 0.113813624 0.15929738 -0.12765194 -0.034953307
-0.11982071 0.045110624 0.13240927 0.07741728 0.10491506 -0.103475474 0.24299799 -0.09395197
-0.031258147 -0.02715913 0.059055794 0.27188605 0.117527805 0.08007002 -0.103121914 0.10505023
-0.035121284 0.040645614 -0.028618792 -0.11065961 0.05638465 -0.003089412 0.04903625 -0.12961234
0.05742243 -0.05302547 -0.103384525 -0.19817798 -0.08125648 -0.08988627 0.054774564 0.08160422
-0.0460517 -0.023756394 -0.06232224 -0.047356512 -0.16085295 -0.06873969 0.07869274 0.003918715
-0.034649853 0.05360718 -0.015674584 0.08476342 0.1913143 -0.19021563 -0.18042666 0.012440709
-0.06491962 0.051060732 -0.19360681 0.085077874 0.038687203 0.22872908 -0.17904553 0.19433218
0.045941904 0.25859684 0.0051648724 0.1968006 0.15731731 -0.15401234 0.14663154 0.05145777
0.13589405 0.114331745 0.088682175 -0.07424746 -0.02909192 0.17430729 0.043001726 -0.15645567
0.03681576 -0.050185084 -0.0071446206 0.020781254 -0.024438484 -0.071455255 0.036546737 0.12571266
0.029886894 -0.102541246 0.041231003 0.102892265 -0.12805386 -0.039297406 0.1654877 -0.08853829
-0.07570272 0.3057468 0.1210537 0.042926896 -0.09507995 0.11607553 -0.02350489 0.02633995
0.033473324 -0.016497027 0.2092291 0.06875574 -0.106710464 -0.06332547 -0.04534302 0.11207981
0.06803439 -0.015853098 -0.0030503105 -0.03147232 0.055674825 -0.040818978 0.18332422 0.08010233
0.055135295 -0.11926849 -0.1347379 0.11420755 -0.22026062 -0.031236738 0.011353206 -0.036319114
0.035201367 -0.04627046 0.036996827 -0.02218774 0.020132001 0.19226523 0.15911028 -0.099392146
-0.18538758 0.07528052 -0.008185125 -0.20124424 -0.124734335 0.06298172 0.069451556 -0.031348743

layers.2.bias f4 [64]
00000000: fb37 603d d3e0 94bd deab 103c b4c4 bc3d
00000010: 93e2 ef3b a801 d43d d20a 02be 2bdb b23d
00000020: 75bc ffbd f5e6 8abd 5530 4dbd 928b 893d
00000030: ffb5 43bd af72 30bd 4c2f 14bd 5054 f43d
00000040: 2918 a3bd 8c5d 943d 9dd6 ae3d 64b6 9ebd
00000050: 9c27 973d 86e9 bd3d ffca ae3c 17d2 dabd
00000060: d984 1e3d ae41 97bd 9780 31bd dfb7 183d
00000070: 68e5 983d a196 0ebc 9dfd 933d aebd d7bd
00000080: 90c4 543d 97cb e43d 5437 f13d d9cc 62bc
00000090: 5188 083e 1d33 13bd 9f12 77bc b12b 403d
000000a0: cd96 bbbd 8c8f f93c ae71 3a3d f111 9d3c
000000b0: becd 89bd 7c0d a3bd ba27 aebd c3d3 5dbe
000000c0: 9ef2 933d 579b 17be cada 923d 311c f2bc
000000d0: d948 9dbd c5f4 053e b3d5 cdbd 039d 05be
000000e0: fe4b c83d 2ed0 49be 8a9d 6f3c 8a6f 023e
000000f0: 2985 f4bc 09d2 c6bd 9979 dbbb 89ab b73b
0.054740887 -0.07269444 0.008830039 0.09217206 0.007320711 0.103518784 -0.1269944 0.08733209
-0.12487117 -0.06782333 -0.05009492 0.06716074 -0.047780987 -0.04307812 -0.03617792 0.11930144
-0.079635926 0.07244405 0.08537028 -0.07749632 0.07380602 0.09273057 0.02133703 -0.10684603
0.038700912 -0.07385574 -0.043335523 0.03728473 0.07465631 -0.008702905 0.07226107 -0.105342254
0.05194527 0.11171644 0.11778131 -0.013842785 0.1333325 -0.035937417 -0.015080123 0.046916667
-0.09159622 0.030463956 0.04551857 0.019173594 -0.06728695 -0.07961556 -0.08503671 -0.21662812
0.0722401 -0.14805351 0.07170637 -0.029554458 -0.0767991 0.13081653 -0.100505255 -0.13048176
0.09780119 -0.1970832 0.014624963 0.12737861 -0.029848652 -0.0970803 -0.006697845 0.0056051654

readout.weight f4 [1, 64]
00000000: 4670 14bf a9ac fbbe 2f03 71bd 7cbe e43e
00000010: 8e97 133f a770 f83e 8bf8 35bf b8a3 2cbf
00000020: 44bc 1c3f 13fa 073f a008 eabe db18 073f
00000030: 31ba fcbe d203 d2be a9e1 1b3f 01ed 06bf
00000040: d82d 55bf c102 e33e d7cc 233f 7c58 cabe
00000050: 0c18 fdbe faf9 ed3e 6220 e23e b00d 023f
00000060: 0cef 05bf 10a5 42bf 2791 2ebf 8059 f63e
00000070: 4417 64bd ef4e 1b3f abbc 133f d86f 73be
00000080: 52ad e7be d9f2 4a3f 8786 13bf c680 17bf
00000090: 1026 363f 1f9a 2dbf b083 04bf 3ef1 083f
000000a0: 7f45 febe 01cd b2be 6b94 27bf 0fb5 1cbf
000000b0: ac1a 093f cb7b 273f 35ca 6d3e 0e24 493d
000000c0: 62f5 14be eaa5 b13d 1b1f a53d ada8 22bf
000000d0: 864f 9ebe ad0c 4cbf ca03 32bf 78ea 023f
000000e0: dbc2 03be 0fcb bf3d 6a6b 013d dd5e 8c3d
000000f0: a668 a93d 9a47 333f 1780 34be 5a3b 0e3f
-0.57983816 -0.49155167 -0.058840927 0.44676578 0.5765313 0.48523447 -0.7108237 -0.67437315
0.6122477 0.5311596 -0.45709705 0.527723 -0.49360803 -0.4101854 0.60891205 -0.5270539
-0.83273077 0.4433804 0.63984436 -0.39520633 -0.4943241 0.4647978 0.4416533 0.50802135
-0.5231788 -0.76033115 -0.68190235 0.48115158 -0.05568625 0.6066732 0.5770976 -0.23773134
-0.4524942 0.79276806 -0.5762715 -0.5918087 0.7115183 -0.67813295 -0.5176344 0.53493106
-0.49662396 -0.3492203 -0.6546084 -0.61213773 0.53556323 0.6542327 0.23221667 0.04910665
-0.14546731 0.08674224 0.080625735 -0.6353863 -0.30920047 -0.7970684 -0.6953703 0.5113902
-0.128673 0.09364902 0.03159658 0.06854031 0.08271913 0.7003113 -0.17626987 0.55559313

layers.0.weight f4 [128, 17]
00000000: 5fe1 2f3d dee9 13be 8cd5 19bf f13c 2d3f
00000010: 4122 113d 6af9 4e3f 6b48 d9bd 5884 fb3d
00000020: 9f92 c8be c4ef 80bf 8a2a 28bf a2a3 51bc
00000030: 764c 903c 850f 0bbd 3631 95bd c20b 9ebd
00000040: b150 a1b9 7433 d2be f89c 31be 4abf acbd
00000050: 1bbf 783f ae64 533e 6fc1 483f 491d c7be
00000060: 1c6e 7f3e a121 b7be 1bbd 5dbf 0510 dabe
00000070: a7aa 1a3e 7e77 8b3d 7d8d 2dbd 7616 5a3d
00000080: a143 5cbc 8674 6b3c 864f 05be ca97 d13d
00000090: c8b5 bdbe 0633 5fbf 6a4f 0bbf d149 aebe
000000a0: cb53 a23e 58e0 c33e 1805 0cbf fe9e 59bc
000000b0: fae9 61bf 26ff 3ebe 47fc b93a b957 8d3b
000000c0: 0532 1cbe 682f fabd e886 81ba 4e71 1bbe
000000d0: 12ed 2cbb 7bc3 203e 3138 b53e da33 90bd
000000e0: e104 acbe 55eb 2bbe f5e3 703e f154 d4bd
000000f0: 155f 78be a79f b7be e1b5 ecbd abf5 453d
00000100: 0c28 6d3d 9622 bcbd 3c70 35bd aafa f33a
00000110: 120d 03bf 7ae8 34bf 8a1a 28bf c718 4a3e
00000120: 08cb f2bc ea68 383f 5a08 ad3d 4b25 b73e
00000130: 7aac 593e 9915 0abf c506 82be acb1 943c
00000140: 63d0 b73c cf95 cbbb 5de5 133c 7cdc b6bc
00000150: 3614 cd3b 9bb9 fa3e 02f9 f7be 1ef1 b03e
00000160: 44bf 7d3e 3471 4ebe 7595 20be 6cbb 6ebe
00000170: 6229 a6be a868 43bf 4691 85bf d1b1 71bd
00000180: 083c f5bd cb0d 6b3e 3ceb 093d 3ad6 91be
00000190: 3930 e1bd fc0e a5bc 098d 873e c0f4 313e
000001a0: 1b3a d13e 97fe 7cbf 64ae 12bd e464 aa3e
000001b0: 0ab3 be3d 3083 2bbc 6d8d b7bd be0b 1a3f
000001c0: 3003 393f 1f70 6e3d 6a87 4a3e 240a 0fbe
000001d0: 6a82 4bbe b969 13be bc9d 03bd 5717 85be
000001e0: f481 043f 5205 e4be 5d29 9ebd 9c08 11be
000001f0: 863f f7bd f903 20be 89fb 48be bb6f 82bd
00000200: a763 9d3d f068 8b3e 96aa ee3c 733f 233e
00000210: a6ad 813b 032d 043e 033a c93c 4425 223d
00000220: a555 a7bd 60d1 833e fba2 ba3e 3338 3ebe
00000230: 0106 0f3e e17e 6ebd 2140 273e d2d5 8a3d
00000240: 46a9 cbbb 7661 f6be e79b 213e 4fab 95bd
00000250: 9a65 fd3d 7ab0 463c 9f72 9fbd 71db eb3c
00000260: 9c62 363d 750a 853e 7bf9 2cbf 316c ddbe
00000270: 5149 153f 9511 2ebe 9a8a 8e3d 586d 0cbe
00000280: 46bb c83d 92ac 1a3f 823f 98be e33a 8ebd
00000290: 5d6c 87be 93a7 cbbd 2073 3ebb e2a3 f03d
000002a0: 35e3 3dbb 5123 f23c 431c 3fbe 3f38 1e3e
000002b0: a0f3 373e 14e1 7c3c b9b6 0e3c 59e9 a93e
000002c0: b56c c0be 05ae f23d cb99 013d 6364 a93d
000002d0: 8c6f cd3e 766c a63e bb54 51bd f24b 38bd
000002e0: b8ab d2ba afb6 ac3d 976f 5c3d a2c4 8d3e
000002f0: 0b99 a4be f08b 5cbf bc33 5ebe f225 623e
00000300: c3c6 44bf 27a8 df3e f958 4f3d 0a91 423d
00000310: ea06 9f3e 768c 833e f9df 933d 188e eebc
00000320: 1568 273c 7d26 a5bd f968 dc3d a554 6f3d
00000330: 0bcd eabb ba67 ecbd d5f5 b8be f75c c03f
00000340: 11a0 2a3f 655c 4cbe 4db4 13bf d6df a7bd
00000350: 2254 62bc 079d 1bbf ebb8 2ebc 9e19 0f3e
00000360: 83dd 423e 6aaa 58bd 1077 1c3e d095 403d
00000370: d1a9 633c f9f9 40bf d174 3b3f e07e 9e3e
00000380: 6e30 e93e e48c e6bd 0045 123f 37cb 00bd
00000390: 86b1 0a3e e0d2 a63e e747 21bf e171 f7bd
000003a0: c623 1cba 09a4 903d a7be 66bb a50b b8bd
000003b0: 6a9a 553a dae2 883a 4dee 933e b972 1c3e
000003c0: 4568 1cbf 0713 fabe 612c fe3e 58d1 8bbf
000003d0: a0cd 3ebf 592f bdbe 2bd8 14bf c0ee b33e
000003e0: f9be 2ebf 0c3a 8fbe ebc9 37be fb9a 73bd
000003f0: 5b2c 4fbd 66f8 0abc 0439 11bc fa50 50be
0.04293954 -0.14444682 -0.6009147 0.67671114 0.035433058 0.80849326 -0.10609516 0.12281102
-0.39174363 -1.0073171 -0.6568991 -0.012795361 0.017614584 -0.033950347 -0.07284777 -0.077170864
-0.00030768433 -0.4105488 -0.17345035 -0.08434923 0.97166604 0.20643875 0.78420156 -0.3888953
0.24944347 -0.35767844 -0.8661668 -0.42590347 0.15104161 0.06809901 -0.042371262 0.053244077
-0.013443858 0.014371043 -0.13018617 0.102340296 -0.3705275 -0.8718723 -0.5441805 -0.34040692
0.31704554 0.38257098 -0.5469527 -0.013282536 -0.88247645 -0.18652019 0.0014189564 0.004313436
-0.15253456 -0.12216073 -0.0009882124 -0.15179941 -0.0026386422 0.1569957 0.35394433 -0.0704114
-0.33597472 -0.16788991 0.23524459 -0.10367764 -0.24255021 -0.35863993 -0.11558128 0.04832999
0.05789952 -0.09186284 -0.04429649 0.0018614132 -0.5119182 -0.7066723 -0.65665495 0.19736014
-0.029637828 0.72035086 0.084488586 0.3577064 0.21257201 -0.53939205 -0.2539579 0.018151127
0.022438234 -0.006212927 0.009026852 -0.022321932 0.006258513 0.4896973 -0.48432165 0.34558958
0.24779993 -0.20160371 -0.15682013 -0.23313683 -0.32453448 -0.7633157 -1.0434959 -0.05900747
-0.11974341 0.2295448 0.033671603 -0.28483754 -0.10995526 -0.020148747 0.2647479 0.17378521
0.40864643 -0.98825973 -0.035810843 0.33280098 0.09311493 -0.010468289 -0.08962522 0.6017417
0.7227049 0.058212396 0.19778219 -0.13968712 -0.19873968 -0.14395799 -0.03213285 -0.2599437
0.5176079 -0.4453531 -0.07722733 -0.1416344 -0.12072663 -0.15626515 -0.19627203 -0.06368967
0.07685023 0.27228498 0.029134076 0.15942173 0.003957468 0.12907796 0.024563795 0.03958632
-0.08170632 0.25745678 0.3645247 -0.18576126 0.13967134 -0.05822647 0.16333057 0.06779064
-0.0062152473 -0.48121232 0.15782128 -0.07308065 0.123728946 0.012127036 -0.07785534 0.028791161
0.044527635 0.2598454 -0.67568177 -0.43246606 0.58314997 -0.16998895 0.0696003 -0.13713586
0.098013446 0.6041957 -0.29735953 -0.069448255 -0.26449862 -0.099440716 -0.002906032 0.11750008
-0.0028974537 0.029557856 -0.18663125 0.15451144 0.1796403 0.015434522 0.008710557 0.33185843
-0.37582937 0.11849598 0.03164081 0.082711 0.40124166 0.32504624 -0.051106196 -0.044994302
-0.0016072905 0.08433282 0.053817358 0.2768908 -0.32148013 -0.8615103 -0.21699423 0.22084787
-0.76865786 0.43682978 0.05062196 0.0475016 0.31059963 0.256931 0.07220454 -0.02912049
0.010217686 -0.08063982 0.107622094 0.058430333 -0.0071655563 -0.11543222 -0.36125055 1.5028371
0.6665049 -0.1995712 -0.5769699 -0.0819699 -0.013814004 -0.6078648 -0.010664205 0.13974616
0.19029813 -0.052896895 0.15279794 0.047017872 0.013895468 -0.7538143 0.7322512 0.30956173
0.4554476 -0.112573415 0.57136536 -0.0314438 0.13544282 0.3258276 -0.6300034 -0.120822676
-0.00059562584 0.07062537 -0.0035208852 -0.08986596 0.00081483147 0.0010443584 0.28892747 0.15278138
-0.610966 -0.48842642 0.49643233 -1.0923262 -0.7453251 -0.36950186 -0.58142346 0.3514309
-0.6826015 -0.27973974 -0.1794812 -0.059473973 -0.05057941 -0.008482074 -0.008863691 -0.2034339

layers.0.bias f4 [128]
00000000: 0107 763d 87f5 053f e14b 733c 5aee 543f
00000010: 00f8 413f 72c0 88be d526 debd a8ac 1f3e
00000020: 3e1f 30bf 66f7 ca3d a1f4 9c3e 3c4a 253f
00000030: df2c d53e bc83 b53d a427 f93e a4cc 8c3e
00000040: e977 f5bd 2061 b13a f781 313f f941 d9bd
00000050: 5e38 813e affa 603f 17a4 9ebe 9b47 5f3f
00000060: 422e a1be 3800 1b3f 8273 0f3f 5bcc 253f
00000070: 5e62 f1be 70ae 213f 4a0a 573e e8b6 183f
00000080: 5917 68be 6a60 ef3b 82cc debd 9da7 0bbf
00000090: de07 5bbe 6f19 963f 2fdb c5bd de1d 78be
000000a0: 2ad6 9f3c 202b 0e3d a1d1 08be 2233 9f3d
000000b0: 333d d9bd 4715 783d 2c08 363e 6cfb 3a3f
000000c0: abf1 b3be 1fa0 683e fa24 a6be 8042 3a3f
000000d0: cfb9 e93e 6f70 6fbe 529b ca3e 1dd6 e6be
000000e0: 4049 273e ddd1 97be b780 c0be 5dfe 493f
000000f0: 3bfa 373f 0b17 083f 9611 09be d9c5 e03e
00000100: a83f fabe f291 433e 40cf 24be ef25 07be
00000110: cebc 4bbe 0154 ca3d c512 203e 1f98 2b3f
00000120: 5997 093f e002 0cbf 02ed 773e 46c1 6d3e
00000130: e874 75be fe3b 363e 4450 043f f4ab 3f3e
00000140: d702 cc3e a350 a2be 893e 6339 5eb0 4bbe
00000150: 39c0 1d3f 7768 53be 4a14 333f fb70 603d
00000160: 5d86 fb3e 60e3 873d 8de2 a2be 770d 46be
00000170: be41 b1be 1bc1 cd3c ce21 8c3e 247c dcbe
00000180: 6f57 09be 171d 33bf de6f b5be 8515 c43e
00000190: 46ef 983e 6714 ef3c ae38 a43d 58c9 17be
000001a0: fb3a 873f e1a9 693e e9df cabd e81f 57bc
000001b0: 06f2 86bd 40f7 d33e 80be 013e 3e76 8a3f
000001c0: 3fba 8d3e 2f7a 103f 456b cbbd 54ae 2ebe
000001d0: 4319 0ebf ed51 0e3f b73c 7c3e 42c9 643e
000001e0: 93f6 dc3e 8251 d83d a8cf 893e 5c1c 483d
000001f0: 1641 4a3e 14a1 78be 2c68 38be cca6 083e
0.060065273 0.5232777 0.014849634 0.83176196 0.7576904 -0.26709324 -0.1084725 0.15593207
-0.6879767 0.09910469 0.30655387 0.645664 0.41635796 0.08863017 0.48663056 0.27499878
-0.11985762 0.0013532974 0.69338936 -0.106082864 0.25238317 0.8788251 -0.30984566 0.87218636
-0.31480604 0.6054721 0.56035626 0.64764947 -0.4714536 0.63156796 0.21000019 0.5965409
-0.22665156 0.0073051946 -0.108788505 -0.5455263 -0.2138972 1.1726512 -0.096609466 -0.24230143
0.019511301 0.034709096 -0.13361217 0.07773425 -0.10607376 0.060567167 0.17776555 0.7303989
-0.35145316 0.22717331 -0.32450086 0.7275772 0.45649573 -0.23382734 0.39571625 -0.4508523
0.16336536 -0.296523 -0.37598202 0.7890375 0.71866196 0.5316016 -0.13385615 0.43900946
-0.4887669 0.19098642 -0.16094685 -0.13198064 -0.19896242 0.09879304 0.1563216 0.67028993
0.53746563 -0.54691887 0.24211505 0.23218259 -0.23970377 0.17796323 0.51684976 0.18717939
0.39845917 -0.31702146 0.00021671703 -0.19891497 0.61621433 -0.20645319 0.69952834 0.054795247
0.4912595 0.06635165 -0.3181347 -0.19341074 -0.3462047 0.025116494 0.2736954 -0.43063462
-0.1341226 -0.6996626 -0.3543691 0.38297668 0.2987005 0.029184533 0.08018623 -0.148229
1.0564874 0.2281871 -0.09905989 -0.013130166 -0.06589131 0.41399574 0.12670326 1.0817335
0.27681157 0.5643644 -0.099325694 -0.17058688 -0.55507296 0.5559376 0.24632536 0.22342399
0.4315687 0.105624214 0.26916242 0.04885517 0.19751391 -0.24280196 -0.18008488 0.13344878

layers.1.weight f4 [128, 128]
00000000: 8129 903e dc9b 843e 10c8 bbbc 4e09 043e
00000010: 0b33 3b3e c113 93bd 6f63 47bc 63d7 3ebe
00000020: b858 eebd 0af5 cf3d adb7 5ebd 9694 79bd
00000030: 90a2 9b3d 952b 4abd 40a1 1cbd ae79 a6bd
00000040: f680 9abe a8b9 c73d b057 08be 6f40 d13c
00000050: 6094 b9bd 7639 b83d d441 98be 8abe 13be
00000060: ae41 50bd 4b18 8abc ed77 d83e 46ab cbbd
00000070: c57f 983d afa8 a0bd 2923 bfbd ccf9 0ebe
00000080: 5e7b db3d d5a3 a9bc f355 a83d 7bb4 9d3c
00000090: b344 8cbd c75f 713e dcc4 1e3d 69ab 1abe
000000a0: 7a66 00bd a1f5 473d 3606 f5bd d7cd dd3d
000000b0: 33a4 c3bd eda7 c1bd 43fc 143e 880b b1bc
000000c0: 4917 cb3d 2f86 f2bb fb4a be3c 85ad 0a3d
000000d0: 36bf 11be ea09 5e3d 6d4d 0f3e 7120 193c
000000e0: 1807 cd3a ccf0 8abd 8e01 8abd cf89 f7bd
000000f0: c927 0dbb 67e6 19be a2f2 023c 9fe5 e23d
00000100: ba7a cfbd 2e09 d8bd d165 14be 9e75 7d3c
00000110: 1002 0d3d 00d2 d0bd 9918 183a 40ec 1cbd
00000120: d835 783d a87d 923e aa46 78bc d3f5 5dbd
00000130: f2ba ea3c 2609 b03d c0c0 0e3e 3fc3 9d3e
00000140: 6249 773b 0659 7fbc 22cf abbd 16ec 7dbd
00000150: dd16 a03d 4aec b03d 3757 853e c3ee c4bd
00000160: a98f 43bc 9860 333c 5613 d03c e7a7 e4bd
00000170: a07a 56be b07a 2b3d bbbc 243e f711 a6bc
00000180: be04 6dbd 3a91 143d ca49 b4bd 027b 363e
00000190: f99b 86bd 1071 0cbe 61f4 973d ecb6 02be
000001a0: 86b3 743e 05ee dd3d 199f 1f3e 7a4b 0a3d
000001b0: cfe9 633d b7ca b83d 00bc 08be 8239 293e
000001c0: 7913 663d 2a2e 9c3e a6dd d0bd ac87 6f3d
000001d0: 0159 19bd 825b 103e 5938 363e 9691 633d
000001e0: caa2 2cbd 1843 4b3d c527 4c3e 4d19 03bd
000001f0: fb3a 39bd 163f bfbb 7654 353d c9c1 7bbc
00000200: cc06 113e 74af 483d 33e6 213d c113 deba
00000210: 634c 413e e0cd a3bd f732 1c3c 76a1 8abc
00000220: 86d2 26bd 1368 d83d 8a8c 2ebd 18f4 8c3d
00000230: 95d8 293e bd73 8c3d 2217 633d 543f 853d
00000240: af10 22bd 97c9 823d 3729 51bd b8f1 ed3d
00000250: 7d7f d03c 2a24 93bc 4460 edbd 0198 aabd
00000260: 3ff1 5d3c 857f 083e 0570 7dbc 1915 c73d
00000270: 74e8 0abd f581 183e 64ce 493d da8e 853d
00000280: 0a7b 44bc 49d1 5bbd 6eb9 ccbd 5eb7 99bd
00000290: ece1 fb3d 3034 fdbc c57a 1bbd ee9e e6bd
000002a0: ebc8 3d3d 6a19 38bd aca8 c1bc ae75 f3bd
000002b0: 727b edbd 3026 53bd 3f0d 89bc 1262 29bb
000002c0: 6378 313d ffd3 583d 0437 203e 5dc4 55be
000002d0: 53ce 42be 8af5 563d 69e1 233d ff10 343e
000002e0: ab7e a2ba 60b5 19be f8be 17bd 46e0 f5bc
000002f0: 5a60 4c3d 55ab 323e 2fbe 653c 89e0 743d
00000300: d76f 59bc 9abe ebbd 61e6 7e3c 94ac 79bd
00000310: c561 053e b98e bc3d 8e32 793d 660e 6538
00000320: 6a0e ee3d 2a72 ff3d 09c8 28be ca0b 4ebd
00000330: 673d 11bd cf30 163e ec33 51bd 14ec ac3d
00000340: 5d1f bcbd daf3 7b3e 04e7 d13b caa2 2d3e
00000350: 27b8 993d 7880 2f3c 67a8 04bd 8837 0a3d
00000360: a9a2 293e ffb8 e9bd 9da1 803d 9f76 463d
00000370: 5c61 dd3c 6d23 363d ebc9 9ebd a67f 8b3d
00000380: 20a6 aeb9 9cce 103d a31f 25be 21a3 ef3a
00000390: 589c fd3d 009d 8cbe f02b 09bc e126 ef3d
000003a0: a628 23be 9d93 343e 62a6 aa3d 57fb 493c
000003b0: 8065 083e ef20 853c 36f4 6ab7 5fab 0bbe
000003c0: 58d3 f43d fbd5 fcbd 00f6 58bd 9f31 e1bd
000003d0: 1975 00be 2fee babd 2b7c 2b3e a40d 2e3c
000003e0: 4e86 5dbd 882c aebd 441c a93c b884 8d3d
000003f0: f07b 66bd 6701 c1bc 86ab 843d 5b9f 96bc
0.28156665 0.2590016 -0.022922546 0.12894174 0.1828119 -0.07181502 -0.012169703 -0.18636851
-0.116380155 0.10154159 -0.054374386 -0.06093272 0.07599366 -0.04935797 -0.038239717 -0.08128677
-0.30176514 0.09752208 -0.133147 0.02554342 -0.090615034 0.08995335 -0.29737723 -0.14428154
-0.050843887 -0.016857287 0.42278996 -0.09944777 0.07446245 -0.07844674 -0.09332878 -0.13962477
0.1071689 -0.020708004 0.082195185 0.019251099 -0.06849041 0.23571692 0.03876196 -0.1510445
-0.03134773 0.048818234 -0.11964075 0.108302765 -0.09552803 -0.094558574 0.14549355 -0.021611944
0.09916551 -0.00740125 0.023229113 0.033856887 -0.14233097 0.054208674 0.1399438 0.009346114
0.0015642373 -0.067842096 -0.06738578 -0.12086832 -0.0021538606 -0.15029298 0.0079924185 0.11078953
-0.1013083 -0.10548626 -0.14491965 0.015469937 0.034425795 -0.10196304 0.0005802005 -0.038311243
0.060598224 0.28611493 -0.015153566 -0.054189514 0.028653596 0.08595495 0.13940716 0.30813023
0.0037732949 -0.01558519 -0.08389117 -0.061992727 0.07816861 0.086388186 0.26043102 -0.09615853
-0.011936107 0.010948323 0.025399845 -0.11164837 -0.20945215 0.04186505 0.1608762 -0.020272238
-0.05786585 0.03627131 -0.08803137 0.17820361 -0.06572718 -0.13715005 0.074196585 -0.12765092
0.23896608 0.10836414 0.15588035 0.033763386 0.0556429 0.0902304 -0.13352966 0.16525844
0.056170914 0.3050397 -0.10198526 0.058478996 -0.037438396 0.14097407 0.17794932 0.055558763
-0.042147435 0.049624532 0.19937046 -0.03200655 -0.045222264 -0.005836378 0.04427 -0.015366026
0.14162749 0.04899545 0.039526176 -0.0016943143 0.18876795 -0.07998252 0.009533635 -0.016922694
-0.040728115 0.105667256 -0.042614497 0.06882495 0.16586526 0.06858013 0.055441983 0.065062195
-0.039566692 0.063861065 -0.051064696 0.1161837 0.025451416 -0.01796158 -0.11590627 -0.08329774
0.013546287 0.13329895 -0.015468602 0.09720821 -0.03391309 0.14893325 0.049269095 0.065213874
-0.011992225 -0.053666387 -0.099963054 -0.07505678 0.122989506 -0.030908674 -0.03795888 -0.11260782
0.04633419 -0.04494611 -0.02364 -0.1188768 -0.11595811 -0.05155009 -0.016729949 -0.0025845808
0.0433277 0.05293655 0.15645987 -0.20875688 -0.19024019 0.052480258 0.04000989 0.17584608
-0.0012397369 -0.15010595 -0.037047356 -0.030014168 0.049896576 0.1744817 0.014022394 0.059784446
-0.013271294 -0.11510964 0.015557856 -0.0609556 0.13025577 0.0920691 0.06083923 5.4611264e-05
0.11623843 0.12472947 -0.16482557 -0.05030421 -0.03545895 0.14667057 -0.051074907 0.08443466
-0.091856696 0.2460474 0.006405713 0.1695663 0.075058274 0.010711782 -0.032387163 0.033744365
0.16565956 -0.11412238 0.06280825 0.04845297 0.027023964 0.04446738 -0.077533565 0.068114564
-0.0003331164 0.035353288 -0.1612535 0.0018282869 0.12383336 -0.27463531 -0.008372292 0.116773374
-0.15933475 0.17634435 0.08332516 0.0123279905 0.13319969 0.016251056 -1.4004347e-05 -0.13639592
0.11954373 -0.12345501 -0.05296898 -0.109957926 -0.12544669 -0.09127461 0.16746585 0.010623369
-0.05408316 -0.085045874 0.02064336 0.0691008 -0.05627054 -0.023560239 0.06478028 -0.018386533

layers.1.bias f4 [128]
00000000: 6c2e 673e 5176 60bd f716 b33d d182 983d
00000010: 0215 2a3d 8917 253d 539a c9be 622b ce3c
00000020: a4ad 02bc 3c0d 3bbd 4944 3c3d 46ff a63c
00000030: 20f7 033b 5a03 243e 5fe4 f0bc e692 2bbd
00000040: 2fd2 833d fbb1 103d c673 c63d a250 afbd
00000050: 9036 733e 540f 4fbe 4635 013e fdb5 c33d
00000060: f4e1 83be 2bd3 873c d2bb 41bc 8902 7dbe
00000070: 4058 703d ee18 bf3d b4db 963c f33b ad3d
00000080: 5886 42bd 4e9b 80be 4b48 4a3d 58b3 13bd
00000090: dbd4 9ebd ebbb 523e a1d4 e83d b20b b6be
000000a0: 82f6 d1be e18f 0ebe 421e dc3c 0b8a 2a3d
000000b0: 5225 3f3e 36f1 88bd 02e2 ca3d c33b 823d
000000c0: 2c91 063d fce3 15be cf6e 43bd 3fd9 003d
000000d0: 2e63 023d ee71 863c 93bc 073c 02e3 05bd
000000e0: 7f5d 7cbe c1cb 7c3d 0f62 8ebc 1bc2 263e
000000f0: 6b1f 9a3d 5bf8 5dbd 5f7d 433d df70 b1bd
00000100: 892c 3f3e 2d52 0f3e 122f d8be f91c 4a3d
00000110: 0bc0 be3d 9f06 003e 3c4f b5bc 0179 03bc
00000120: 07f2 003d 513c 143e 2150 b53d b524 a9bb
00000130: 22d9 68bc f1a7 6abd eec6 113d 4507 3b3e
00000140: 9749 6d3e bc2d 363d 60ef d83d 0629 bc3d
00000150: dfa2 b53d 207d 05be 88c5 3b3d 5423 cebc
00000160: f9a1 1f3e c419 2cbe 452b 18bd 5c1a 9abe
00000170: 7be3 f73d a2a0 a1bd bc92 afbe 46e7 d43d
00000180: 0ee6 6fbd b837 ecbd 742f 953c 8fd7 1abe
00000190: 402e 68be e3e0 163d f3a6 3dbd a933 e33a
000001a0: fd0e 65bd 3153 033b d41a 1cbe f7d2 15be
000001b0: 9379 dd3d 0338 23bd 61ad 303b f6ff 2fbe
000001c0: c605 fd3d 3f01 04be 4e34 dc3d 2cd1 bfbe
000001d0: 0fd2 45bc a181 1e3d 6591 af3b 4453 1dbf
000001e0: a02b e73d 4a4f debc 84ce d9bd 7289 eabd
000001f0: 4657 883d 0ae4 d5ba 7dcc d0be 66e3 ac3d
0.22576302 -0.054800335 0.087446146 0.07446826 0.04152394 0.040305648 -0.39375553 0.02516717
-0.007975969 -0.04566692 0.04596356 0.020385396 0.0020136312 0.16016904 -0.02940577 -0.04188814
0.06436574 0.035325985 0.09690051 -0.08560301 0.23751283 -0.20220691 0.12617978 0.09556196
-0.25758326 0.016580185 -0.011824565 -0.24707998 0.05867791 0.09330927 0.01841531 0.084587
-0.0474914 -0.25118488 0.04938535 -0.036059707 -0.07755443 0.20579498 0.11368681 -0.35555798
-0.41008383 -0.13922073 0.026869897 0.041635554 0.1866658 -0.06686632 0.09906389 0.06359055
0.03285329 -0.1463775 -0.047713097 0.031457182 0.031832866 0.016411748 0.008284706 -0.032687195
-0.24645041 0.061717752 -0.017380742 0.16284983 0.07525524 -0.05419193 0.047726985 -0.086641066
0.18669333 0.13996191 -0.42223412 0.049344037 0.09313973 0.12502526 -0.022132508 -0.008024455
0.031480815 0.14476134 0.08853174 -0.0051618465 -0.014211925 -0.057289068 0.035590105 0.18264492
0.23172604 0.04447721 0.10592532 0.09187512 0.08868956 -0.13036013 0.045842677 -0.02516333
0.15589131 -0.16806704 -0.03715064 -0.30098236 0.12103935 -0.078919664 -0.34291637 0.103956744
-0.058569007 -0.11534065 0.018211104 -0.15121292 -0.22673893 0.036835562 -0.046301793 0.0017334122
-0.055922497 0.00200386 -0.15244609 -0.14631258 0.10814204 -0.03984834 0.002695881 -0.17187485
0.12354617 -0.128911 0.10752164 -0.37464273 -0.012074008 0.038697843 0.0053579086 -0.6145518
0.11287618 -0.027137417 -0.10635093 -0.11451997 0.06657271 -0.0016318571 -0.40781012 0.0844181
