Gym-DDPG-solution/results/DDPG_HalfCheetah-v4_2000-eps0.5-t32-l0.0001-s1.pth (torch, 193979 bytes, 13 tensors)

layers.0.weight f4 [128, 23]
000000 7f f2 be 3e 3b a3 96 be 0b 55 d3 bd 1a b6 6f bd
       0.37294385 -0.2942141 -0.10318955 -0.058523275
000010 09 59 6d be a5 df 8a 3e 3d bc e0 bc d6 a0 14 3d
       -0.23178495 0.27123752 -0.027433509 0.036286198
000020 b7 1d 51 3e 31 2f 26 37 f1 30 27 3c d7 83 3e 3c
       0.20421492 9.905359e-06 0.01020454 0.011628113
000030 1c 33 30 3d ac 24 7c bc 92 4b ef bb 41 1c f3 bb
       0.04301749 -0.015389603 -0.00730271 -0.0074191396
000040 ea 43 ec 3b 1b 38 ef bc a2 a3 82 3d 19 b2 20 3d
       0.0072102444 -0.029201558 0.06378867 0.039232347
000050 f3 a8 86 bd b9 39 60 bd ae fb 11 bc 7b 84 cb 3d
       -0.06575193 -0.05474255 -0.008910103 0.09937378
000060 b6 06 80 be e2 11 63 be 6b 6a b7 bd 7a 92 2d 3c
       -0.2500512 -0.2217479 -0.089558445 0.010594005
000070 d1 4f 8e be 09 67 2f 3d 6a fc d4 3d f6 55 81 be
       -0.2779527 0.04282287 0.10399707 -0.25260895
000080 be 6a 16 3e f0 84 cc be c0 05 0a be 52 6e 32 bd
       0.14689156 -0.39945173 -0.13478756 -0.04356224
000090 26 f4 0d 3d 34 79 88 bd 54 62 59 3c 06 02 56 bb
       0.034656666 -0.06663743 0.013268072 -0.0032655015
0000a0 7f 8b a6 3d ba 6c 37 be 7c 41 9d 3e 12 b8 8b bd
       0.081320755 -0.1791257 0.30714023 -0.06822218
0000b0 01 02 60 bc 95 78 16 3e 4a 8b af 3d fc ee 97 3b
       -0.013672353 0.14694436 0.08571489 0.0046366435
0000c0 95 6d 8e be 86 dd 08 bd 87 d5 2b be aa f5 ee bd
       -0.2781798 -0.033414386 -0.16780673 -0.116679505
0000d0 eb 09 cc ba 8f fe ab 3b 35 9b 45 bd 6c 8b 4d 3e
       -0.0015566921 0.0052488516 -0.04824372 0.20072716
0000e0 8f 7f 9d bc 42 c2 65 bd b5 0c e8 3c fd 02 9d bb
       -0.019225864 -0.05609346 0.028326372 -0.004791616
0000f0 40 6b 43 bc 5c db 5f bb 36 54 d9 3c d7 c7 fa 3d
       -0.011927426 -0.0034157848 0.026529413 0.12245148
000100 0b e2 62 be 7b b9 09 bd 66 54 c4 bc 0f 90 22 bd
       -0.22156541 -0.033624154 -0.023966026 -0.039688166
000110 45 49 54 be 31 cf e8 be ff 80 7d 3e df 00 43 be
       -0.20731075 -0.45470574 0.2475624 -0.19043301
000120 5e 08 19 be 3a b4 64 3e ba e6 af 3e 6b 83 8e 3a
       -0.14944598 0.22334376 0.34355718 0.0010872906
000130 d3 83 49 3e 3c 46 c1 3e 8c 21 c2 be 2e 99 70 3d
       0.19679193 0.37748897 -0.3791622 0.058739834
000140 a4 0f ba bd 0c cc 41 bd 76 bf 30 3c b3 2c 47 3b
       -0.090850145 -0.047313735 0.010787835 0.0030391633
000150 82 52 95 3a 37 31 d8 ba 5a 4d ea be 1d 25 a2 3d
       0.0011392387 -0.0016494159 -0.4576214 0.07917235
000160 4f 76 3b bd 59 89 9b 3d 7d 95 92 3d d4 1a 06 be
       -0.045767125 0.07594556 0.07157419 -0.13096172
000170 20 59 29 3e ee be 8c bd 80 1d 92 bd 30 13 7f bd
       0.16537905 -0.068723544 -0.07134533 -0.062274158
000180 f0 95 07 3e 4a 55 7b bd e6 ca 9b bc 13 c9 30 be
       0.1324079 -0.061360635 -0.019017648 -0.17264204
000190 5c 23 c0 3e 2a 20 19 3e 53 f3 dd 3d 69 6c 86 3d
       0.37526977 0.14953676 0.10837426 0.06563646
0001a0 23 b7 3e bd 75 83 a3 bd 19 a0 f0 3d 8f 3e 47 bb
       -0.04656137 -0.07984058 0.11749286 -0.0030402278
0001b0 7d 93 f4 3d e0 6d 41 3d e7 10 83 3d 18 6f dc 3d
       0.11942194 0.047223926 0.06399708 0.10763377
0001c0 90 cd 71 3e 71 e2 04 be a1 55 a2 3d c1 29 02 3f
       0.23613572 -0.12977006 0.07926489 0.5084496
0001d0 6e d1 b5 3d 72 40 27 3d d2 ab a4 bd a5 4a 6a be
       0.08877836 0.040832944 -0.080405846 -0.22880037
0001e0 de ba e1 bd d9 7e 93 bd 00 6f 70 3e a1 61 7e be
       -0.1102197 -0.07201929 0.23479843 -0.2484193
0001f0 a0 f4 0a 3e ea 99 ea bd 96 2c e2 bd a0 e6 cc ba
       0.1356988 -0.11455138 -0.1104366 -0.0015632696
000200 c6 39 10 3c 05 31 95 3d 53 9d e1 bb 90 56 85 3d
       0.008802837 0.0728474 -0.0068852096 0.06510651
000210 0f 5f f2 3d 64 6f 15 3e b9 53 df 3d cf 78 9d 3e
       0.11834537 0.14593273 0.10904641 0.30756232
000220 4f 70 81 3d 6a d3 47 3d f0 ac c3 bd 01 be aa be
       0.06320249 0.048785605 -0.095544696 -0.33348086
000230 e8 3d fe bd 58 f1 a2 bd 2a 33 0a bd 52 6d d5 3e
       -0.124141514 -0.07956189 -0.0337402 0.41684967
000240 12 1c 16 3e 89 97 de 3d 3a ae 00 3e 73 4a ec 3d
       0.14659145 0.10868747 0.12566462 0.115376376
000250 89 5d 9d 3d 16 67 80 3d bf c7 81 3c 60 f0 01 3e
       0.07683856 0.06269662 0.015842317 0.12689352
000260 55 33 d2 3b a6 8f 36 3d bf 9f de bd c1 a9 57 be
       0.0064148107 0.044570588 -0.10870313 -0.2106085
000270 27 71 af bd 54 47 7b bd 29 9b 5d 3e 4e 6c 6a bc
       -0.08566504 -0.06134732 0.2164122 -0.014308048
000280 59 ff b9 bd 6f c7 68 3e 3d 72 b4 bb 5d a6 81 3e
       -0.09081907 0.22732328 -0.0055067823 0.25322238
000290 df 04 48 be 91 1a fa 3d 86 54 9a 3d 62 76 f2 bd
       -0.19533108 0.122120984 0.07535653 -0.11838986
0002a0 22 5b 74 be 6d c6 5c be ff f3 05 be 09 5c 2e 3e
       -0.2386289 -0.21560068 -0.13081358 0.17027296
0002b0 ca a4 4c 3d f7 58 4e 3d 18 03 be 3d 25 20 20 3e
       0.049961843 0.050377812 0.09277934 0.15637262
0002c0 97 fb 6c 3d 05 33 27 3a 9e f6 06 be b4 14 54 3e
       0.057857122 0.0006378147 -0.13180014 0.20711023
0002d0 cf 56 c4 bd 11 a3 6b 3c ab 30 37 be 84 78 50 bd
       -0.0958687 0.01438214 -0.17889659 -0.050896183
0002e0 18 5c 92 be 68 a0 61 3f b4 5f 8d be c1 40 1a be
       -0.28585887 0.88135386 -0.27612078 -0.15063764
0002f0 59 d9 6a bb ed 10 f6 be 6e ad 3b 3d 85 29 37 bd
       -0.0035835116 -0.48059788 0.045819692 -0.04471733
000300 59 b2 09 3e 27 ce 96 3b e2 2a 5f 3e 1f f6 39 bd
       0.1344694 0.004602212 0.21793702 -0.045400735
000310 b0 68 9c 3d 27 08 51 3c e1 2f 9e 3d 67 20 91 bd
       0.07637155 0.012758291 0.07723976 -0.070862584
000320 5e 38 75 3b 53 30 b7 bd 3d 41 1f 3e 27 2d 9f bd
       0.003741763 -0.08944764 0.1555223 -0.07772284
000330 02 90 19 3d 53 da 89 bd bb d0 6d bd 39 ad db 3e
       0.037490852 -0.06731095 -0.05806039 0.42905596
000340 f1 cc 21 3e d7 22 60 3d 76 2d 9d 3e 1d 7d d1 3d
       0.15800835 0.054720726 0.30698746 0.102289416
000350 5d df 40 bf d3 19 60 bd e7 2c cb 3d 6b 8d 6d 3e
       -0.75340825 -0.054712128 0.09920674 0.23198478
000360 47 07 b8 3e fd 08 a3 be 7d a3 ff bc ae 2b 5e 3e
       0.35943052 -0.31842795 -0.031205887 0.2169635
000370 3d b1 23 be 5e 92 a3 3d 96 25 e8 bd fe e6 17 be
       -0.1598558 0.07986902 -0.11335294 -0.1483421
000380 1c 2a 5f 3d a9 73 a2 bd 3e cc 0c bd 61 53 3b 3d
       0.054483518 -0.07932217 -0.034374468 0.045733813
000390 da b0 bb 3d d8 25 0c 3d 44 d1 72 3d bf 86 23 bf
       0.09164591 0.034215778 0.059281603 -0.6387748
0003a0 57 55 b4 3e 4b 4c 21 bd 21 ae 3d be 66 76 57 be
       0.3522136 -0.0393794 -0.18523456 -0.21041259
0003b0 91 39 a1 bb d3 d3 b8 3c d1 c4 1c 3e 49 7b 8d be
       -0.0049201925 0.022561943 0.15309455 -0.27633122
0003c0 9f 6c a6 be 55 d0 e6 3c 4d cf 6a 3d f4 76 e5 3c
       -0.32504746 0.028175512 0.057326604 0.028010823
0003d0 11 8f 23 bd 22 da 0c bc 38 40 c9 bd e7 92 f0 bd
       -0.03993136 -0.008596929 -0.09826702 -0.117467694
0003e0 08 57 b0 bd 3f e4 bd 3d a7 f6 4c 3e 33 0f 8a 3d
       -0.0861035 0.0927205 0.20015965 0.0674118
0003f0 aa 98 cf bc 4f d6 18 3f ea a3 86 be f2 e0 92 be
       -0.02534135 0.5970201 -0.26296932 -0.28687245

layers.0.bias f4 [128]
000000 92 4f 94 bb 21 91 e8 bd 0b 7b dc be 25 1a cb bd
       -0.004526087 -0.11355806 -0.43062624 -0.09917096
000010 6f 6f 25 be 6f a4 1d be 6a c5 c9 3d 5b 2e a0 be
       -0.1615579 -0.15394758 0.09852107 -0.31285366
000020 05 64 4e 3e bf d0 89 be 80 36 5b be 8b 0f 88 be
       0.20155342 -0.26917073 -0.21407509 -0.26574358
000030 ae 4a 64 be 3a 82 8e be 28 4d c9 3d 96 ce 28 3e
       -0.22294113 -0.2783373 0.098291695 0.16485056
000040 5c 54 17 3e 61 3d 7c be 84 96 a4 be 47 69 7e bd
       0.14778274 -0.24632789 -0.32146084 -0.06211212
000050 4e ce 6f 3e 4f c0 27 3e e5 8d 4f be 62 8c 4a be
       0.23418543 0.16381954 -0.20268972 -0.19780114
000060 4c ec 73 be 6a f2 f2 bc e5 9a c9 bd 4a 75 d0 3d
       -0.23820609 -0.029656608 -0.09843997 0.10178621
000070 be ec 86 3e 78 a3 64 3d 16 89 52 3d 70 9d 57 be
       0.26352495 0.05581996 0.051400267 -0.21056151
000080 bc 81 e7 bc 0d a8 05 3d f9 25 a3 be 56 dc 8e 3d
       -0.028260104 0.03263097 -0.31864908 0.069756195
000090 37 d6 9d be 31 1b 8d bc d0 7a e5 3d 21 bf 40 be
       -0.30827495 -0.01722488 0.11205065 -0.1882291
0000a0 57 51 53 be 37 0f 28 3d a5 fd e5 bc 1d 10 88 be
       -0.20636497 0.041030135 -0.028075049 -0.26574793
0000b0 f2 c9 94 bd ed 86 32 be 4b 98 e5 bd 33 77 9e be
       -0.072650805 -0.17434283 -0.11210688 -0.30950317
0000c0 31 da 48 3d 1c b7 ad 3e 37 9f aa be 89 98 67 be
       0.04903621 0.33928764 -0.33324596 -0.22616781
0000d0 19 51 b1 3e 93 6b b8 3c a3 0d a6 3e 34 10 8a be
       0.34632185 0.022512233 0.3243228 -0.26965487
0000e0 5e 2a ab 3c 8c 10 9e bd 96 e7 9f 3e 12 11 54 3e
       0.020894226 -0.07718 0.31231374 0.20709637
0000f0 a5 c4 b7 bd 47 02 01 3e 74 c3 cd be 41 2c 39 3e
       -0.08973054 0.12598525 -0.4018818 0.18083288
000100 2f 11 3f be a1 06 a5 3e df ef 0d be b2 74 5d be
       -0.18658899 0.3223162 -0.13861035 -0.21626547
000110 7c 24 43 be 33 7e 96 be ac c8 82 bc 7d 0f 21 3e
       -0.19056886 -0.29393157 -0.015964828 0.15728565
000120 5f 37 64 3e 2e 29 9a be 14 0e 28 be 1d 5a 23 be
       0.22286747 -0.30109543 -0.1641162 -0.15952344
000130 7c 8e 44 be 4e a4 5f bc 52 1e 26 3e b5 1b e1 bd
       -0.19194978 -0.013650013 0.16222504 -0.10991613
000140 4c c6 e1 3d a3 92 12 be fe 46 89 3e 74 45 9f bb
       0.1102415 -0.1431375 0.26811975 -0.0048605744
000150 1a e8 38 bd f1 ea d6 bd c5 f1 b0 bd 46 f6 30 3e
       -0.045143224 -0.1049403 -0.08639864 0.17281446
000160 99 2d a8 3e ba b3 0a bd f0 a6 a1 3d 75 b0 c8 bc
       0.32847288 -0.033862807 0.07893169 -0.024498204
000170 c7 d3 0a be 26 9d c0 be 2a 84 fb bd fb 5f 82 bd
       -0.13557349 -0.37619895 -0.12281068 -0.06365963
000180 62 ac 17 be a2 27 3f 3e 48 02 e4 bd d9 d1 5e 3e
       -0.14811853 0.18667462 -0.111332476 0.21759738
000190 fd a9 5b 3d f8 96 2e be dc dd 89 be 81 1c 91 3e
       0.05362891 -0.17049778 -0.26927078 0.2834206
0001a0 1a 97 b8 3e c0 14 2d 3d 1c 9d 20 bd 13 b5 35 3e
       0.3605278 0.042256117 -0.03921233 0.17744856
0001b0 9c 05 ca bd be 76 36 be c2 ab 72 3e a3 21 d7 3e
       -0.09864351 -0.17818734 0.23698333 0.4201785
0001c0 55 a4 10 3e ee c3 6f 3d 61 b9 8a 3e dc 3b d8 be
       0.14125188 0.058536462 0.27094558 -0.4223317
0001d0 d6 23 31 3e 42 3c c0 3e ae 4c 18 be 2a ff 3c 3e
       0.17298827 0.37545973 -0.14873001 0.18456712
0001e0 f0 78 95 3d 54 61 f7 3c 3a 3c 12 3e 57 77 93 3e
       0.072984576 0.030197777 0.14280787 0.28801987
0001f0 c9 72 88 b8 22 16 71 be ad e3 02 3e ae ea 47 be
       -6.506366e-05 -0.23543599 0.12782164 -0.19523117

layers.1.weight f4 [128, 128]
000000 25 99 25 3e 48 c0 bc bd 42 4e 9e bd 53 27 22 3d
       0.16171701 -0.09216362 -0.0772977 0.039588284
000010 e7 13 5c bb 49 f0 b1 3d 5e 5e 10 3c 9c 36 25 3d
       -0.0033581199 0.08688409 0.008811561 0.040335283
000020 62 3a 8d 3c 5a ae 52 3d 2d 1f e0 bd 2c ad fb bc
       0.017239753 0.051435806 -0.10943446 -0.030722223
000030 f3 fa a0 3d 54 71 8d bd 58 78 78 3d 2c 1a 65 3d
       0.07860365 -0.06906381 0.060661644 0.055933163
000040 77 40 cc 3c 7c e3 16 bd 2c 09 be bc 09 78 18 3d
       0.024933083 -0.03683804 -0.023197733 0.03722385
000050 91 88 df bc 5e 94 14 3d eb 6c 6a 3d fe 43 a4 3c
       -0.0272868 0.036274306 0.05723278 0.020051952
000060 ad af 8b 3d 0e e9 d6 bd 82 26 06 be f1 5a 55 3d
       0.06820617 -0.104936704 -0.13100627 0.05208868
000070 46 3a 01 bd 0c 0f 90 bd 76 3a 18 bd 00 51 53 3d
       -0.031549715 -0.0703412 -0.037165128 0.05159092
000080 34 e4 8b bd 1b dc 49 3d 9d e0 1b 3d 43 a9 6c bd
       -0.06830636 0.049282175 0.038056005 -0.057778608
000090 1c 5d b2 3c d5 f0 93 bb e4 3d 06 bd 12 03 1e bc
       0.021772914 -0.0045147934 -0.032773867 -0.009644287
0000a0 2e f5 3a 3d 12 05 13 3d 96 96 87 3c 35 a1 9b bc
       0.045643978 0.035893507 0.016551297 -0.018997768
0000b0 55 15 bc bd fe e5 27 bd 79 a7 6e 3d 20 07 0f 3c
       -0.09183756 -0.040990822 0.058265183 0.008729726
0000c0 ee 76 be bc 79 45 0e bc d3 be 7b bd 03 1f af 3c
       -0.02325007 -0.008683556 -0.06146128 0.021377092
0000d0 b5 e4 88 bb f1 6c 00 be 4c 66 08 bd ff 04 8e bd
       -0.0041776546 -0.12541558 -0.033300683 -0.06934547
0000e0 55 a5 11 be fc c0 64 3d 65 a8 be 3c 61 dd 90 bd
       -0.14223225 0.055848107 0.023273656 -0.07073475
0000f0 b4 a6 0e bd 78 b7 8f 3d 16 1a a1 3d 97 89 4d bb
       -0.03482695 0.07017416 0.078663036 -0.0031362528
000100 f9 01 7d bc db 21 be bd c1 ad 9d 3d da 77 83 bc
       -0.015442365 -0.09283801 0.076991566 -0.01604836
000110 67 30 2a bc 7b 01 01 bb b7 34 ee 3c 6b 69 09 3d
       -0.010387517 -0.001968472 0.02907787 0.0335478
000120 c9 f8 27 bd 58 1f 19 bb 8f f0 ef 3b e6 ef 82 bd
       -0.041008744 -0.002336463 0.007322378 -0.06393413
000130 3f 1c 22 bd 12 60 04 bd 90 1b c3 3d 08 99 0b 3d
       -0.03957772 -0.032318182 0.095267415 0.03408149
000140 d1 f7 49 bc d9 36 7d 3d 57 b0 b6 3c 6f dd 90 3d
       -0.01232715 0.061819885 0.022300882 0.07073485
000150 36 b4 75 3a 64 a0 e9 3c b1 15 63 3d a4 02 6a bd
       0.0009372862 0.028518863 0.05544061 -0.057131425
000160 a9 95 8d bd 81 d6 72 bd 5d 86 61 3d 7b 61 80 3d
       -0.06913311 -0.059286598 0.05505978 0.06268593
000170 c0 73 fd bc b9 13 c0 bc aa 50 85 3d 62 28 8c 3c
       -0.030938983 -0.023446904 0.06509526 0.0171091
000180 9a 60 9b bd 7e 87 79 bd 8a 57 5a bc 4a 45 33 3d
       -0.07586785 -0.06092023 -0.013326535 0.04376725
000190 06 bf 01 bd 25 5b 0b bc d7 ab 87 bd 46 b7 5e 3d
       -0.031676315 -0.008505617 -0.06624573 0.054374002
0001a0 00 11 8c bd 65 0f 03 3e 56 88 ed 3d 6e 44 71 3d
       -0.0683918 0.12798841 0.1159827 0.05890315
0001b0 54 e2 ac bd 0c 69 45 bd 7c 9d df bc 3e a6 b2 bd
       -0.08441606 -0.048195884 -0.027296774 -0.087231144
0001c0 52 1a 09 3d ab b3 87 bd 96 9a 02 3c b8 97 62 3d
       0.033472367 -0.06626066 0.0079714265 0.05532047
0001d0 13 a7 14 bd fa 83 3b 3d d4 c4 3c bc b4 1f c1 3d
       -0.036292147 0.04578016 -0.011521537 0.09429875
0001e0 b4 58 cc 3d 04 6e 09 39 09 c9 1e bd cb 5c 49 3d
       0.09977856 0.00013106322 -0.03876594 0.04916076
0001f0 6e 5e d1 bc 13 c7 80 3d f6 cc c7 3d a3 7a 5d 3d
       -0.025557723 0.062879704 0.0975589 0.054072034
000200 ac 51 85 bd 6c bb ef 3d c0 2b 2e 3e 31 b9 83 bd
       -0.06509718 0.1170567 0.17008877 -0.06431807
000210 7f 10 46 bd 0b 7f 68 3d 32 48 69 3d cb 49 b2 3d
       -0.048355576 0.056761783 0.056953616 0.08705481
000220 22 3f df bd 41 20 f7 3d 5d cb 75 bc a4 1b 90 3d
       -0.109007135 0.12066699 -0.015002099 0.07036522
000230 8f 83 7f bd 82 00 39 bd a8 c2 6d 3c 18 b7 59 bd
       -0.062381323 -0.0451665 0.014511742 -0.053153127
000240 2e 91 52 bd 2b 2d ed 3c fc ab aa 3d d9 3b 2c bd
       -0.051407985 0.028952202 0.08333585 -0.042049263
000250 4f 67 03 bc 2c d6 af 3d f4 1c 94 bd a8 af 95 bd
       -0.008020236 0.08585772 -0.07232085 -0.073088944
000260 bf 04 ab 3d 5e 7d 2c 3d a3 08 52 3c 9b 08 f4 bd
       0.083505146 0.042111747 0.012819442 -0.11915704
000270 12 5d f3 bc fa cf 70 bd aa 08 89 3d d6 21 ff 3d
       -0.029707465 -0.058792092 0.06691106 0.124576256
000280 a3 f3 7f 3d 62 93 e6 bc 64 cf a9 3d 57 85 9e bd
       0.06248821 -0.02814645 0.0829151 -0.07740276
000290 e2 f4 81 ba 52 e6 bd 3d ac 32 0a 3d 4f 6f f5 bb
       -0.00099149 0.09272446 0.03373973 -0.0074900757
0002a0 34 78 ab 3c 11 8b c1 bc 1c 18 28 bd dc 87 d2 3b
       0.02093134 -0.023625882 -0.041038617 0.006424887
0002b0 d8 4a a7 bd f8 ee ce 3d 73 d7 ca bd b1 11 73 3c
       -0.08168572 0.101041734 -0.09904375 0.014835761
0002c0 06 40 e0 bd cf b3 42 bc 10 d3 30 bd 95 21 1f bd
       -0.109497115 -0.01188369 -0.043170035 -0.038850386
0002d0 41 df 5d 3d 5e 9d dd bd 7e 73 a0 bd 76 f0 a4 3d
       0.05416799 -0.10821031 -0.078345284 0.08053677
0002e0 1b 83 71 3c d8 ed a8 bc 86 82 94 bc 64 26 61 3d
       0.014740731 -0.020621225 -0.018128645 0.054968253
0002f0 14 3f b2 3d 04 6d b4 bb 1a 6e dc bc 72 d2 18 bd
       0.087034374 -0.0055061597 -0.02690797 -0.03731007
000300 14 8a ef 3d c3 6b 0a be 64 4a 28 bd 40 a6 a0 bd
       0.11696258 -0.1351767 -0.04108657 -0.0784421
000310 a4 84 48 bc d2 53 6e bd 6a 59 4b 3c 36 ec 99 3c
       -0.012238655 -0.058185406 0.012411455 0.018789392
000320 c7 fa 64 3d da 36 9a bd 10 81 c9 3b 42 0b b3 3d
       0.055903222 -0.07529993 0.0061494187 0.08742382
000330 44 98 98 3d fd 8e 51 bd 9a e8 dd bc d3 79 54 3d
       0.07450917 -0.051161755 -0.027088452 0.051873993
000340 fd 4a 2b 3d 32 d6 20 3c 95 fc 0e 3c 05 2f 60 bc
       0.04181956 0.009816693 0.008727212 -0.013683085
000350 16 a8 27 3d 4a 23 90 3d 6b 87 b8 bb 56 3c 53 bd
       0.040931784 0.07037981 -0.0056313775 -0.051571213
000360 14 b1 90 ba 68 02 6e 3d 11 3f b6 bc 5f b9 1b 3d
       -0.0011039102 0.058107764 -0.02224687 0.03801858
000370 32 ce 49 3c a5 cf 23 3c 7c b6 03 bd ff 2e e5 3a
       0.012317227 0.009998237 -0.032156453 0.0017485319
000380 7c 7c 8b 3d ed ea e0 bd ee 75 41 bd 32 df 73 3d
       0.06810853 -0.109823085 -0.047231607 0.059539028
000390 c3 0e be bc 59 d4 19 3e c7 92 a8 bd a2 cb c6 3d
       -0.023200398 0.1502241 -0.082311206 0.097068086
0003a0 57 30 ce bd 9a e2 40 bd b3 73 8e bc 71 a9 25 bd
       -0.10067814 -0.047091104 -0.017389154 -0.040444795
0003b0 90 34 38 bd 46 20 4c 3d d4 81 b1 bd b4 c9 6a 3d
       -0.044972003 0.049835466 -0.08667341 0.057321265
0003c0 18 cb 3d 3c 09 18 70 bd 75 c6 ea bc a0 c8 c7 3b
       0.011584066 -0.05861667 -0.028659085 0.0060969144
0003d0 dd 02 60 bd 8b 3d 92 3d e0 62 90 bd 26 c5 68 bd
       -0.05469023 0.07140645 -0.07050109 -0.05682864
0003e0 f4 d0 98 3d 4a 0b 67 bd 7b 10 0c be 4f 58 49 3c
       0.0746173 -0.05640725 -0.13678162 0.012289121
0003f0 fd 89 bb 3b b6 79 25 bd 84 aa 04 bd 6f 92 54 3d
       0.0057232366 -0.040399276 -0.03238918 0.051897462

layers.1.bias f4 [128]
000000 ca 41 df bd 70 1e c2 bd ea 9d 16 bb 13 5a b4 bd
       -0.1090122 -0.09478462 -0.0022982308 -0.08806243
000010 29 df 1f 3d 14 8c e1 bc 89 45 1e 3e 66 9b 86 3d
       0.03903118 -0.027532615 0.15456213 0.06572609
000020 49 a7 c8 bd 88 d8 d5 bd 4d f3 cf 3d 75 9d d9 bd
       -0.09797532 -0.10441691 0.10153828 -0.10625736
000030 6e a4 26 3d 50 78 a0 39 2b 13 c7 3d e4 6c 22 3d
       0.040684156 0.00030607218 0.09720453 0.039654627
000040 a0 00 f7 bd 19 aa 5a bd d4 b3 91 bc ee cf 7e 3b
       -0.12060666 -0.053384874 -0.017785944 0.003888126
000050 3e 01 6b 3d 90 c5 8b bd 50 05 2c bc d9 e6 54 bd
       0.05737423 -0.068247914 -0.0104993135 -0.051977966
000060 10 61 34 3e 9d 65 eb 3d f1 7a 38 be c5 63 37 be
       0.17615151 0.114939906 -0.18015648 -0.17909153
000070 8b 95 08 bd d1 b3 ad bc 96 9e 96 bd ff 47 b8 3c
       -0.03334574 -0.021203907 -0.073544666 0.022495268
000080 59 25 0b 3c 29 3e 10 3e 83 59 c4 3d 1c 38 ae 3d
       0.008492791 0.14086212 0.095873855 0.08506796
000090 ec 2c 8d 3c aa 86 1e be e1 75 a1 bc 91 f7 e2 3d
       0.017233334 -0.15481058 -0.01970953 0.11082376
0000a0 db 3b 21 bd 3f 7d 86 3d a4 5d aa 3d fc 68 16 bd
       -0.039363723 0.065668575 0.08318642 -0.036721215
0000b0 45 36 cb bd 71 59 d2 bc e1 1c 37 bc af 4a 24 be
       -0.099224605 -0.025677415 -0.011176319 -0.16044115
0000c0 7d 47 d9 bd 70 36 6d bd d7 3f 0f bd d7 61 e0 bd
       -0.106093384 -0.057913244 -0.03497299 -0.109561615
0000d0 4a ff 5b bd 53 be eb bd ff 9a 74 3d b0 30 8c bd
       -0.05371026 -0.11510911 0.05971813 -0.06845224
0000e0 42 a4 ee 3d 2c 94 a3 bd ba bf 70 3d 4b 96 08 be
       0.116524234 -0.07987246 0.058776595 -0.13338582
0000f0 3f 18 11 be 14 20 93 3d fa 78 19 be ce 6a 23 be
       -0.14169405 0.07183853 -0.14987555 -0.15958712
000100 40 81 13 be d5 3f ed bb 67 af c0 3d 39 7d c3 3d
       -0.14404774 -0.0072402754 0.09408455 0.09545369
000110 1e ec ad bd 5b 65 ec 3c 10 65 b6 bd 98 7d 6d bd
       -0.084923014 0.028856924 -0.08905995 -0.057981104
000120 9b 49 9c 3d fd 99 d6 3d b8 9b ad bd 0d 33 1d be
       0.07631227 0.1047859 -0.084769666 -0.15351506
000130 26 af 4a be 56 f0 11 3d d3 e6 ca 3c 53 1e 25 be
       -0.19793376 0.035629593 0.024768269 -0.16124849
000140 0b 12 10 3c fe 4d 9a 3d d9 44 19 3e 9b a9 59 3e
       0.008793364 0.07534407 0.1496767 0.21256106
000150 1f 2c b4 3c 06 68 1c bb a0 40 07 bc 95 bb 12 bd
       0.021993695 -0.0023865714 -0.008255154 -0.035823423
000160 70 b1 04 bd 86 5c a2 3d d7 37 a1 bd d5 10 9c 3d
       -0.03239578 0.07927804 -0.07871979 0.07620398
000170 79 4c 86 3d 69 b5 ed 3c 0c 1e 8b bd 44 16 72 3d
       0.06557555 0.029017167 -0.0679284 0.059103265
000180 15 0d 8a bd 89 14 d7 bd c3 0f 2a be 18 2a eb bd
       -0.067407764 -0.10501964 -0.16607575 -0.11482638
000190 4b 4a d8 bd 99 9e 75 3c a5 39 29 bd fc fe 99 bd
       -0.10561045 0.014991426 -0.04131474 -0.075193375
0001a0 8c 65 af 3d ef 23 97 bc 45 5c b7 bd 30 85 ad bd
       0.085642904 -0.018449752 -0.08953146 -0.08472669
0001b0 62 98 66 bb 71 c9 0b bc 67 5f a0 3c 28 a0 03 3d
       -0.0035186042 -0.008531914 0.019576741 0.03213516
0001c0 47 62 19 3d 74 9c 98 3d 0f a4 cb 3d f0 95 ff bb
       0.03744724 0.07451716 0.09943401 -0.0077998564
0001d0 62 8f ea bc b7 f5 bd bd e1 5f 27 be ec 45 41 bd
       -0.028632823 -0.09275382 -0.16345169 -0.047185823
0001e0 41 0b fc bc 3a b7 e6 bc 33 d2 16 3e 21 9b 3b 3e
       -0.030767085 -0.028163541 0.14728622 0.18320896
0001f0 ca 0b c3 bd 99 33 07 be 5c 9c 19 3d 6e 99 29 bd
       -0.09523733 -0.13203277 0.03750263 -0.041406088

layers.2.weight f4 [64, 128]
000000 6e be 7d 3d 73 3a 35 ba e3 eb d2 bd ca 1c c2 3d
       0.061949186 -0.00069133117 -0.10298898 0.09478147
000010 f7 d6 81 bd 27 06 42 bd 46 f7 d3 3d fe 21 5b 3d
       -0.063398294 -0.04736915 0.10349898 0.053499214
000020 bf 62 0d 3d e8 c0 c1 3d d1 eb d1 3d 35 e0 21 3e
       0.034518 0.09460622 0.102500565 0.15808184
000030 b4 5a f2 bb 10 ec 6a bd 7c 87 8f 3d d0 14 55 bc
       -0.0073960666 -0.057354033 0.070082635 -0.01300545
000040 76 4a 7e 3d 9f 1e 19 3d d8 b6 9f 3d da b4 19 3c
       0.06208273 0.03738272 0.077985466 0.009381497
000050 32 da 10 3d 70 e6 93 3d a5 0d 8b 3c b7 45 ba 3c
       0.035364337 0.07221687 0.01697428 0.02273832
000060 74 f1 fb 3c c4 5d c4 bd 82 fb 72 bc 8e 08 18 3d
       0.030754782 -0.09588197 -0.014830472 0.037117533
000070 25 88 b2 bd 6b 33 49 bd cd 4a 78 3d dc 2f 2b bd
       -0.08717374 -0.0491213 0.06061821 -0.04179369
000080 da 2a 9e bd ec 0e be 3d 47 94 a2 3d 08 71 06 be
       -0.07723017 0.0928019 0.07938438 -0.13129056
000090 41 7f c1 3d a2 fa bf bc ff 56 01 3e 34 56 c8 3d
       0.094481 -0.02343494 0.12630843 0.09782067
0000a0 ed 13 f4 bd 7f 4c 09 3e 99 99 60 b8 bf 92 13 bb
       -0.11917863 0.13408087 -5.354881e-05 -0.0022517887
0000b0 d5 a6 36 bc 46 a5 ca 3d b2 30 af 3d 02 49 08 3d
       -0.011148174 0.09894805 0.0855421 0.03327275
0000c0 b2 ca 11 be aa 29 38 3d cc 23 e5 3d e2 d3 9b 3d
       -0.14237478 0.04496161 0.11188468 0.07608773
0000d0 ac b7 a8 bd 50 e4 19 bd f3 3f b2 3d b9 73 d5 3d
       -0.08238158 -0.03757125 0.087036036 0.10422463
0000e0 c2 7f b6 3c c5 e0 62 3d 8c 3d b6 3d 90 d8 65 bd
       0.022277717 0.05539014 0.08898458 -0.056114733
0000f0 98 08 ae bc b2 59 0c bc bd ad 10 be 17 35 05 bd
       -0.021244332 -0.008566307 -0.14128776 -0.032521334
000100 9f d1 9e 3d c0 24 a6 bd 0f 84 ca 3d 42 67 c1 3d
       0.07754826 -0.08112478 0.098884694 0.09443523
000110 90 a7 94 bc 83 46 ea bd 38 d1 3d bd 61 35 d7 3d
       -0.018146306 -0.1143923 -0.046342105 0.10508228
000120 b8 cd ec 3d 56 95 64 bd 93 f0 f9 3d 9d 9f f1 3b
       0.11562675 -0.05580648 0.12204089 0.0073737637
000130 9e 5b 2c bd 71 c3 a3 3c c7 60 de 3d 5b 9c d5 bd
       -0.04207956 0.019990655 0.108583026 -0.10430213
000140 1a 33 b8 3c 3c 45 e6 3b 98 86 1b 3d 8b 3f 37 bd
       0.022485305 0.0070272963 0.037970155 -0.044738334
000150 14 4c a9 3d 3f 4d 36 bd 2d 07 14 bd a8 ef 79 3d
       0.08266464 -0.04450726 -0.036139656 0.06101957
000160 6c 9b c7 3a 24 10 ab bd fe 05 27 3d b5 e3 f0 3c
       0.0015228814 -0.08352688 0.0407772 0.029405454
000170 02 b8 16 3d bc f2 df 3d 6b 7f 7f bd d4 87 5a 3d
       0.036796577 0.1093497 -0.062377375 0.053352192
000180 07 6d 8a bd 78 c5 34 3c 63 95 0f 3c 39 e1 21 3e
       -0.067590766 0.011033408 0.008763644 0.15808572
000190 63 a3 f9 bd a0 75 22 3d 63 61 73 3d 74 af bf 3a
       -0.12189367 0.039662957 0.059419047 0.0014624433
0001a0 3f c0 4b 3d 4b 22 89 3c 9e 02 f4 bd 60 f4 14 bc
       0.049743887 0.016739985 -0.11914562 -0.009091467
0001b0 c6 be 85 3d 15 ad dd 3d f3 11 e8 3b 38 e7 aa 3d
       0.06530528 0.108240284 0.007082218 0.08344883
0001c0 10 89 ab bd bf 40 d3 bb f6 79 fd 3c 1f c6 6d bc
       -0.08375752 -0.0064469273 0.030941945 -0.014512568
0001d0 3c 5b 6e 3d 28 d6 e5 3c e7 1c f0 bd c7 a0 7d 3b
       0.058192477 0.02805622 -0.11724263 0.0038700567
0001e0 83 3e 00 3d cb 0a 11 3d 56 1f 95 3c 13 e3 21 bd
       0.031309616 0.035410684 0.018203419 -0.039523195
0001f0 fa 9d 4a 3d f9 37 59 bd 07 ce 53 3d df 55 14 3e
       0.049467064 -0.053031895 0.051710155 0.14485882
000200 57 dc c5 bd 03 a9 e3 3b 37 00 86 bc 59 c7 ef 3d
       -0.09661167 0.006947638 -0.016357524 0.117079444
000210 da c0 52 3d e4 4e a7 bc e7 ab 3c 3c 3d ba 40 3c
       0.05145345 -0.02042336 0.011515594 0.011763153
000220 07 5f 91 bd 6b ab 44 bd 72 0e 3b bd 57 7d 78 3b
       -0.07098203 -0.04801504 -0.045668073 0.0037916505
000230 52 9b 26 bd 1e 04 0c be 4f 75 fc bc 31 53 5a bd
       -0.04067547 -0.13673446 -0.030817656 -0.053301994
000240 89 27 92 bd 9e 2e af bd c5 e9 3f bd fd e2 8d bd
       -0.07136447 -0.085538134 -0.0468538 -0.0692806
000250 3c 41 53 bd 72 ae 0c bd 08 be a3 3a 4a 01 15 bd
       -0.051575884 -0.03434605 0.0012492547 -0.036378182
000260 85 37 35 bd d5 fd 82 3b 64 93 bb bc 5f 22 95 3b
       -0.0442424 0.0039975443 -0.02289743 0.0045512165
000270 1d bf c8 bd 42 d7 fd bc 77 04 c9 3d 39 d0 a6 3c
       -0.09802077 -0.030986432 0.09815305 0.02036296
000280 03 61 84 3d 1e c2 9e 3d 25 4b a0 3c 31 01 18 3d
       0.06463816 0.07751869 0.019567082 0.03711051
000290 47 69 13 3d 68 75 8f bd 11 fb c0 bc dd ad 10 3d
       0.035989072 -0.07004815 -0.023557218 0.03532206
0002a0 c0 f7 ec bd 12 7a 07 bd 12 6d c8 bc 48 88 dd 3c
       -0.11570692 -0.0330754 -0.024466071 0.027042523
0002b0 ee 70 ba 3c 95 9b cb 3d c3 f1 8e bc e8 00 5a bd
       0.022758927 0.09941784 -0.017449265 -0.05322352
0002c0 e0 9e 3f 3d 77 37 b5 3d e7 62 d4 bb 9f b7 a0 3d
       0.046782374 0.0884847 -0.0064815166 0.07847523
0002d0 64 5c 8a 3c e7 b2 82 bd e6 4b 1b bd fb 8f 8f 3d
       0.016889758 -0.06381779 -0.03791418 0.07009884
0002e0 5e 5b 3a 3d d9 b9 50 3d 64 90 94 3d 34 71 c8 bd
       0.04549729 0.050958488 0.07254103 -0.09787217
0002f0 79 d9 e2 3c 52 65 1e 3d 91 47 85 bd dc 9b a7 bd
       0.02769159 0.038670845 -0.06507791 -0.08184025
000300 13 fe f8 3c 1c 93 9f bc f0 ba 3d bc 85 37 51 3d
       0.03039459 -0.019479327 -0.011580214 0.05107834
000310 20 de 1c 3d 16 8f 73 bc 3f e4 d2 bc 1a b6 99 3d
       0.038297772 -0.014865657 -0.025743602 0.07505436
000320 9a fb 03 3d 4b 5f a6 3a 8d 58 89 3d 8c f8 9f 3c
       0.032222368 0.0012693194 0.06706343 0.019527696
000330 fa 9f 0f be 6c f2 64 bc 5e bd 86 3d 8b 31 df bd
       -0.1402587 -0.0139738135 0.06579088 -0.108981214
000340 49 09 12 be 6a a0 59 3d 30 bc e5 3d 61 b7 b8 bc
       -0.14261355 0.0531315 0.112175345 -0.02254838
000350 ed 74 97 bb c5 36 3a bc 43 1d b9 3c de e0 e2 3d
       -0.004622093 -0.011365597 0.02259696 0.11078046
000360 a3 45 1f 3d 62 9f 07 bd 67 d8 7e 3d 9a da c2 3b
       0.03888477 -0.033110984 0.062218096 0.0059464695
000370 9c 8d c0 bd c7 f8 60 bd e4 3f 43 bd 1b 68 41 3d
       -0.0940201 -0.054924753 -0.047668353 0.047218423
000380 66 40 27 bd 86 9c 00 be 42 d2 e4 3c 9a 96 23 3e
       -0.0408329 -0.12559709 0.02793229 0.15975419
000390 8a df af 3c 38 d7 54 3d 3e 7c cb 3c 0e b0 d5 3d
       0.021468896 0.05196306 0.024839517 0.104339704
0003a0 56 b1 99 3d 7a 18 97 bc eb 8b 6c bd 31 17 de 3c
       0.07504527 -0.018444289 -0.057750624 0.027110668
0003b0 a1 75 de bd 32 a0 32 3d 4b 02 b2 3d f0 a0 d7 ba
       -0.1086228 0.043609805 0.086918436 -0.0016451161
0003c0 fb 00 33 bd 19 a4 bb 3d 9b b4 94 bc 74 03 d4 3d
       -0.043702107 0.091621585 -0.018152526 0.10352221
0003d0 22 9b 4e 3d 27 7b f8 3d 57 12 22 3d 1a 10 6b bd
       0.050440915 0.121328644 0.03956827 -0.057388403
0003e0 40 4b 31 bd de ba cc bd e8 7c 6c 3c 70 c4 cf bd
       -0.043284655 -0.099965796 0.014434077 -0.10144889
0003f0 d2 a6 75 bb c4 94 01 3d 31 28 d3 bb bc 38 64 3d
       -0.0037483466 0.031636015 -0.006444 0.05571817

layers.2.bias f4 [64]
000000 87 b0 90 3d e4 98 b0 bb eb c5 14 3d 04 82 f2 3c
       0.0706492 -0.0053893197 0.03632156 0.029603012
000010 0c 79 1b bd 33 25 73 3c ce ff 69 bd 35 0b 47 3d
       -0.037957236 0.014840412 -0.05712872 0.048594672
000020 ae c2 ca bd 4f 74 87 bd 22 19 06 3c 06 8a 08 bd
       -0.099004135 -0.06613981 0.008184703 -0.033334754
000030 63 71 4f bc 33 a8 a4 bb b7 9d 1d bd b0 4f 97 3d
       -0.012661311 -0.0050249337 -0.038480487 0.07388246
000040 a4 80 92 bc 0a 7b b4 3c b7 76 a8 3c 3d d8 99 bc
       -0.017883606 0.022031326 0.02056442 -0.018779868
000050 7d 38 9b 3d 3b 51 25 3d b9 fb 9e bd 7a 34 ed bd
       0.07579134 0.04036067 -0.07762856 -0.11582275
000060 f5 c1 8a 3d f9 bf df bc 43 07 ec 3b 4f c6 04 bd
       0.067752756 -0.02731322 0.007203014 -0.032415684
000070 15 2c bc 3d 7a 73 b2 bd e2 00 c6 3c 1c f0 3d bd
       0.091880955 -0.08713432 0.024170343 -0.046371564
000080 18 cc b7 3d 5e f1 cb 3c 1b e1 ed 3d 9f a0 12 3d
       0.08974475 0.024895366 0.11615201 0.03579771
000090 03 59 3b 3d 3d 90 f4 3b b1 65 8e 3c e3 02 15 3d
       0.045739185 0.0074634836 0.017382475 0.036379706
0000a0 d1 12 54 bd e4 64 a0 3d 81 62 5a 3d 0b 3a 25 3c
       -0.051775757 0.07831743 0.053316597 0.010084639
0000b0 42 5a dd bd e5 04 19 bd 0b 6a cd bd 0b 48 0c be
       -0.10808231 -0.037358183 -0.10029992 -0.13699357
0000c0 ce 43 6e 3d 2b 66 99 bd e4 a2 83 bc c8 85 f2 3c
       0.058170132 -0.0749019 -0.016068883 0.029604807
0000d0 4d fe 02 bc b8 4c 18 3e 9b 92 50 bd ed e0 f5 bd
       -0.0079952 0.14873016 -0.050921064 -0.12005792
0000e0 71 d7 6f 3d f4 20 e9 bd 8d 98 5b bd 01 39 88 3d
       0.05855507 -0.113832384 -0.05361228 0.06651498
0000f0 5b b1 0d be 80 3e df bd 61 01 40 bb d6 32 e5 bc
       -0.13837187 -0.10900593 -0.0029297697 -0.027978342

readout.weight f4 [1, 64]
000000 09 21 7b be e4 1c 93 be a9 2f 0a be 1d e5 5d 3e
       -0.2452432 -0.2873298 -0.13494743 0.21669431
000010 92 4c a6 3e 64 a2 a9 3e f6 b6 96 be c0 86 87 be
       0.32480294 0.33131707 -0.29436463 -0.26469994
000020 fc 36 7f 3e b2 1b ac 3e 2a 0a 97 be 4c 74 04 3e
       0.24923319 0.3361488 -0.29499942 0.12934989
000030 4d fe d0 bd 85 c6 5c be 76 56 a6 3e 77 b1 74 be
       -0.10204754 -0.21560104 0.3248784 -0.23895822
000040 11 94 7a be fc c9 15 3e ec 9b 5c 3e d1 f3 05 be
       -0.24470545 0.14627832 0.21543854 -0.1308129
000050 bf 20 81 be ea 1e 8a 3e 8c 88 70 3e fc bd 86 3e
       -0.25220296 0.2697671 0.23489588 0.26316822
000060 06 67 58 be 50 44 96 be 56 42 8d be 04 c0 8a 3e
       -0.2113305 -0.29348993 -0.27589673 0.2709962
000070 76 ff 41 be 26 91 9a 3e d6 81 2e 3e c7 80 71 bd
       -0.18945107 0.30188864 0.17041716 -0.058960702
000080 ca 9c bb be f7 4a a2 3e d7 16 30 be cb 06 79 be
       -0.36643058 0.3169782 -0.17196213 -0.24318998
000090 c1 30 14 3e bc 9a ad be ca f7 87 be 4c a8 79 3e
       0.14471723 -0.33907115 -0.26556236 0.24380606
0000a0 20 f2 ba be d1 92 8b be 32 3e 04 be 79 f9 89 be
       -0.36512852 -0.2726045 -0.1291435 -0.26948145
0000b0 83 54 c6 3e f4 de c4 3e 76 97 7b 3e 9b 49 a5 3e
       0.38736352 0.3845135 0.24569497 0.3228272
0000c0 41 3c 50 be 96 18 73 3e c3 58 bd 3e dd ab 2f be
       -0.20335485 0.23739848 0.36981782 -0.17155404
0000d0 dd 22 8f be 20 06 aa be 5b 05 5e be 51 ad 70 3e
       -0.27956286 -0.33207798 -0.2168173 0.23503615
0000e0 72 c1 47 be 3f c0 60 3e b1 63 9d 3e 0b 77 0e 3e
       -0.19507387 0.21948336 0.3074012 0.13912599
0000f0 e0 64 16 3e 1e f8 9f 3e 8e 22 41 be 91 a1 cf 3e
       0.14686918 0.31243986 -0.18860838 0.40552953

layers.0.weight f4 [128, 17]
000000 59 dd 73 3e f9 a5 23 3e 58 e1 fa 3e c1 80 00 be
       0.23814906 0.15981282 0.4900005 -0.12549116
000010 ad 14 a3 bd 67 8b a7 3e 04 7a 05 be 07 de 9a 3d
       -0.07962928 0.32723543 -0.13034827 0.075618796
000020 ce 3e 48 3d 8e 5a 8c be ea 73 92 3d f1 f6 b8 bd
       0.04888802 -0.27412838 0.07151015 -0.09031475
000030 1c 1d 39 3d 0d 3b 72 bd 5b 92 ee bc 2c f2 b1 3d
       0.045193776 -0.059138346 -0.029122522 0.08688769
000040 98 97 5b 3c a0 0f 27 be 27 10 20 bf 6b 0b 91 3e
       0.013402842 -0.16314554 -0.62524647 0.28329024
000050 6d a8 bb 3e 8c 29 18 3e d3 66 c6 be c4 76 bb be
       0.36651936 0.14859599 -0.38750324 -0.36614048
000060 02 8a 28 3e 07 7f bd be 6f 5e 43 be 0c 1c 02 3e
       0.16458896 -0.37010977 -0.19078992 0.12706012
000070 2a af 27 bd d7 d6 aa 3d 61 c9 a2 bd ec c8 79 3d
       -0.040938534 0.08341759 -0.07948566 0.06098263
000080 7e fc 48 bd 21 68 94 bd 28 3c 12 3e 39 46 04 be
       -0.04906892 -0.072464235 0.1428076 -0.12917413
000090 1e 73 0c 3f 09 3b fe 3d c4 41 1b bd 3a d2 00 3f
       0.54863155 0.12413604 -0.037904516 0.5032078
0000a0 5d 03 bc 3d 74 d5 75 3e 98 36 7f be 89 58 b3 3e
       0.09180329 0.24007207 -0.2492317 0.35028484
0000b0 a0 42 9c be d9 71 2f 3d 91 9e 3c 3e 10 09 69 3d
       -0.3051958 0.042833183 0.18419863 0.05689341
0000c0 99 5d 03 3e 21 51 13 3d ca 4d f4 3d 60 e7 e4 3d
       0.12828673 0.035966042 0.119288996 0.11176944
0000d0 dc 84 41 be 69 7c 87 3e 2d da a7 3d d1 94 20 3d
       -0.18898338 0.26462105 0.081959106 0.039204422
0000e0 f3 a2 83 3c 2c 2b e6 3d c2 b6 b1 3e eb 06 3b be
       0.016068911 0.11238703 0.34709746 -0.18264358
0000f0 6a 61 db bd 15 dd 76 be 62 30 18 3e 14 01 b3 3d
       -0.1071194 -0.24107774 0.14862207 0.0874044
000100 2e 9a 6d 3b a8 2a e4 bd da 1c cb bd 51 7c 1c bd
       0.0036255228 -0.111409485 -0.099176124 -0.038204495
000110 86 19 e6 bd 74 27 0d bf 05 e9 9d be 37 a7 08 3e
       -0.11235337 -0.55138326 -0.30841842 0.13345037
000120 d5 b2 76 be c3 20 40 be 9c 0a f2 be 7b 42 c0 3b
       -0.24091657 -0.18762498 -0.4727372 0.0058673
000130 df ea 6d 3e 4c ca f1 3c b9 c9 46 bd 59 e1 d2 bd
       0.23234127 0.029515408 -0.04853222 -0.10296888
000140 55 6c db bd f9 09 88 bd 7d b0 87 3c 33 7d 8f 3d
       -0.10714022 -0.06642527 0.016563648 0.07006302
000150 9b f6 72 3c 62 2e ff 3e 6d 9a 0f bf 09 72 a3 3e
       0.014829303 0.49840075 -0.5609501 0.3192294
000160 63 35 6e be 7d 89 a0 bd 67 ac e6 bd 08 57 bd be
       -0.23262553 -0.07838724 -0.11263352 -0.36980462
000170 73 f3 23 bc 9d 6b cd be 2b 56 c3 bd ec 9b bc bd
       -0.010006773 -0.40121165 -0.095379196 -0.09209427
000180 e8 f3 67 bd 67 41 13 3e 27 8d 7b 3d e7 f0 15 be
       -0.05662909 0.14380418 0.06141391 -0.14642678
000190 0f 7b e4 bd 42 fd 86 3d c3 dd d3 3e b3 75 bd bd
       -0.11156284 0.06591274 0.41380128 -0.09250965
0001a0 a5 5a a2 3e 13 80 49 be 50 f9 f2 3d 6e d8 9e bd
       0.3170978 -0.19677763 0.11863959 -0.077561244
0001b0 e2 8a d4 3e 4d 02 bb 3d bc 41 08 bd 91 91 6c 3e
       0.4151221 0.09131298 -0.033265814 0.23102404
0001c0 94 49 af bd fc 96 4d 3e dd 0c 09 3d 20 d8 28 be
       -0.08558956 0.20077127 0.033459533 -0.16488695
0001d0 c9 2a e7 bd ae f5 96 bd 80 e8 3f 3e 78 90 0b bd
       -0.112874575 -0.073710784 0.18741035 -0.034073323
0001e0 fe 11 b5 be 7a 42 20 bf 1f 54 81 be fb 28 78 bd
       -0.3536529 -0.62601435 -0.25259492 -0.060585957
0001f0 3e 7c 85 3e db 4a 22 bc 3b b5 26 bd cc 94 d9 3e
       0.26071352 -0.009905542 -0.04070018 0.42496336
000200 9a 06 11 3e 3e 32 ad 3e aa 29 46 bd e7 6c 45 3c
       0.14162675 0.33827394 -0.048379578 0.01204989
000210 13 86 6d 3a 85 05 d6 3d e7 a5 d9 3d 56 b4 8c 3d
       0.0009060811 0.104502715 0.106273465 0.06870334
000220 6c 78 f5 3d c4 9d 9b 3e a9 d3 a3 3b af 83 6b 3e
       0.11985859 0.30393803 0.004999597 0.22999452
000230 d3 01 2c 3d dd 7f 2a be 15 59 bd 3e 04 25 3d 3e
       0.041993927 -0.16650338 0.36982027 0.18471152
000240 7d 80 0d bf cb 0c 9d 3e ff c4 5c 3e 8a df 84 bc
       -0.5527418 0.30673823 0.21559523 -0.016219873
000250 43 d9 85 3d 60 d1 82 bc 99 c1 03 be 51 23 c6 3c
       0.0653558 -0.015968978 -0.1286682 0.024186762
000260 27 eb 26 3d 05 95 d7 3e e0 fa a9 be 39 65 38 bf
       0.040751603 0.4210588 -0.33199215 -0.72029454
000270 a2 84 d1 be 0c 84 ac 3d a6 c0 19 3e 34 d9 e6 bd
       -0.40921503 0.084236234 0.15014896 -0.11271897
000280 97 92 1f 3c c5 c6 a0 3e 70 9e ac 3d ca f3 ca 3d
       0.00973954 0.3140165 0.08428657 0.0990978
000290 b1 2d 47 be b2 cd 0d be d8 bc 11 3e 28 14 75 3d
       -0.19451024 -0.13847998 0.14232194 0.059833676
0002a0 56 58 ba 3d a9 b5 cb bd af 12 a0 3d 53 0a c4 bd
       0.0909888 -0.09946758 0.078160636 -0.09572282
0002b0 ed c2 b7 3e 27 f0 ab be 53 15 67 bd c1 bd 84 3e
       0.35890904 -0.3358166 -0.05641682 0.2592602
0002c0 65 1a aa be 11 4c 80 be 54 3c 61 3e 0a e9 32 bf
       -0.33223262 -0.25058034 0.2199567 -0.6988684
0002d0 41 25 c0 3e 61 24 47 bc 39 aa ec bd 9f 94 b8 bd
       0.37528422 -0.0121546695 -0.11555905 -0.09012722
0002e0 44 37 8e bc 9e 19 a0 3d 9f 90 be 3b 51 a9 2e 3e
       -0.017360337 0.07817386 0.00581558 0.17056777
0002f0 90 80 80 be d4 fd 75 be 01 1e ac be b7 2f 52 bd
       -0.25098085 -0.24022609 -0.3361664 -0.051315036
000300 20 3c 81 3f da cd 89 3d ac 78 ee bc f8 81 96 bd
       1.0096474 0.06728716 -0.029110275 -0.07349008
000310 2d 5f 4a 3c c0 bd 92 be 25 9b aa bc cc 51 07 be
       0.012351793 -0.28660393 -0.020825932 -0.13214797
000320 4e 90 23 3d 94 3b 3b bb ee ba c6 3d 2c 31 f2 3c
       0.03993254 -0.0028569447 0.09703623 0.029564463
000330 eb 09 bb 3e 42 e6 ec be b3 d3 cd 3e f9 55 f3 3d
       0.36531004 -0.46269423 0.40200576 0.11881632
000340 17 e3 9e 3d 07 35 ee be cd 0e de bd 19 0a 69 bd
       0.07758158 -0.46524832 -0.10842667 -0.056894396
000350 2c f0 37 bd 4f 5c 62 bc a6 b8 8f 3e 79 a8 c1 3c
       -0.04490678 -0.013815953 0.28070563 0.023639904
000360 73 fd bd 3d 26 ac 0f be 66 a9 b6 3d b3 a0 31 3e
       0.09276857 -0.14030513 0.08919029 0.17346458
000370 b6 f4 10 3d 30 c4 cd 3c 4a 2d 4f 3e 73 8a d4 3e
       0.035389625 0.025117964 0.2023212 0.41511878
000380 e2 56 9f bb a5 14 4b 3e d6 a0 b3 bd 3c 94 21 3f
       -0.004862652 0.19832094 -0.087709114 0.6311681
000390 9d 83 78 bd 60 05 91 3e 61 92 af 3d 85 83 c1 bd
       -0.06067239 0.28324413 0.085728414 -0.094489135
0003a0 d3 92 9b 3d 07 7f 15 3e 37 c5 dc 3d 01 6b 1d 3d
       0.07596364 0.14599238 0.10779803 0.038432125
0003b0 4d 13 ef bc c7 9a ae 3c 73 32 0f 3f 84 8d 2a be
       -0.029184008 0.021314038 0.55936354 -0.16655546
0003c0 25 7c 47 be 25 e5 6b be a8 e6 b6 be 2b 68 03 bf
       -0.19480951 -0.2303663 -0.35722852 -0.5133082
0003d0 86 78 2b 3e 35 49 0c bf cf 10 ef be a9 88 1f 3f
       0.16745195 -0.54799205 -0.4669251 0.623179
0003e0 a9 db de bd 00 88 a0 bd 83 de 1c 3d 9d 4e d8 bc
       -0.108817406 -0.0783844 0.03829814 -0.026404673
0003f0 1c fd 0d bd 4d 47 15 bd 0a bd 02 3e f1 87 16 bd
       -0.034665212 -0.03644495 0.12767425 -0.036750738

layers.0.bias f4 [128]
000000 9d 60 35 3e 98 48 34 3e e0 71 4c be 85 32 ea 3e
       0.17712636 0.17605817 -0.19965315 0.45741668
000010 79 bc af 3e df d9 00 bf be 5c 7a 3e 9e 2b aa 3e
       0.3432348 -0.50332445 0.24449441 0.33236402
000020 38 cc ef be d1 e6 c3 bd 3b 16 0a 3e 5b 62 a4 3e
       -0.46835494 -0.09565509 0.13485043 0.3210629
000030 e3 e7 e1 3e 63 97 c2 3e b7 7a 6c 3d 83 73 a7 be
       0.44122228 0.38006124 0.057734217 -0.32705316
000040 d7 73 fa be 41 25 4b 3c 99 71 88 3e ce 4e a1 3d
       -0.48916504 0.012399019 0.26649168 0.07876359
000050 31 64 07 3e 6c 0b ef 3e cb 18 d7 be 11 56 ae 3d
       0.13221814 0.46688402 -0.42011103 0.085125096
000060 77 a0 c2 be fd cc 8b 3e ad 1b db 3e 9a 25 00 3f
       -0.3801305 0.2730483 0.42794552 0.50057375
000070 bd f5 1a 3d bf 5c 07 3f e0 44 f5 3c 00 67 ec bd
       0.03783201 0.52875894 0.029940069 -0.11543083
000080 23 72 eb bd cd 72 4a 3d 25 97 b6 ba c4 40 82 be
       -0.11496379 0.04942589 -0.0013930543 -0.25440037
000090 83 dd dc be b3 57 ae 3e c0 01 98 be ed 9e 86 3d
       -0.4313775 0.34051284 -0.29688835 0.065732814
0000a0 64 eb 3f bd 30 0b 9a 3e eb 0d 46 bd b9 ca bc bd
       -0.046855345 0.3008666 -0.048353117 -0.09218354
0000b0 1a b8 41 be 73 b4 4e 3d 03 c1 a5 3d cf d3 da 3e
       -0.18917885 0.05046506 0.08093455 0.42739722
0000c0 ec 30 e4 bd 80 dc 7e 3e 46 2e 8e bd 43 f1 43 3e
       -0.111421436 0.24888802 -0.0694242 0.19135003
0000d0 a9 7b 75 3e 04 84 d0 be 11 c4 b6 3d 9d f6 04 bf
       0.23972954 -0.4072572 0.089241154 -0.519388
0000e0 da 24 20 3d 7d 8f 0c bd e9 c0 de bd 43 44 9a bd
       0.039097644 -0.03431653 -0.108766384 -0.07532551
0000f0 67 8d 80 3e 72 3d 11 3e 87 eb 0f bf 27 2f d1 3e
       0.2510788 0.14183596 -0.5621876 0.40856287
000100 f7 71 2a bd 23 00 9d be 13 59 a7 3e 19 ec 85 be
       -0.04161259 -0.30664167 0.32685146 -0.2615669
000110 79 fb a8 be 07 2d 96 be 0b fa a7 3e 72 eb 05 3f
       -0.33004358 -0.29331228 0.32807955 0.52312386
000120 f5 d9 8d be 69 91 c2 bd 09 48 e9 be 5a 35 0c 3e
       -0.2770535 -0.09500391 -0.4556277 0.13692227
000130 16 2f 7f be f8 3d 4a be 3c f0 71 3c ed df f4 be
       -0.24920306 -0.19750202 0.014766749 -0.47827092
000140 00 8e e6 bd 5b 8a 49 be e7 41 0b be 0b 45 68 be
       -0.11257553 -0.19681685 -0.13599358 -0.22682588
000150 9d ce 8b 3e e4 1d da bd 59 64 be 3e 7b ce 4f bd
       0.2730607 -0.106502324 0.37185934 -0.050734024
000160 0f c0 a6 be 56 52 87 3e 8c 76 10 be 82 49 90 be
       -0.32568404 0.26430005 -0.14107722 -0.28181082
000170 d3 bc 98 3d 01 f1 f1 3d f4 bf d6 3e 61 10 01 bf
       0.0745789 0.11813546 0.41943324 -0.5041562
000180 03 1c 91 3d ac a5 42 be 70 24 5a be d5 36 e4 3d
       0.07085421 -0.19008511 -0.21302962 0.11143271
000190 af 7d c2 3e 1e a0 f8 be bd bc a9 3e fa cc 1a 3e
       0.37986514 -0.4855966 0.33151808 0.15117255
0001a0 b2 82 0b 3f 41 af 89 be 74 fe 3d be fd df f3 be
       0.544963 -0.2689152 -0.18554097 -0.47631827
0001b0 35 14 92 3e 63 eb b4 3e 7a 3f ca 3e fa 42 0c 3e
       0.28531042 0.35335836 0.39501554 0.13697425
0001c0 0d 08 b3 be f6 0a a8 3e 55 00 c5 bd 69 17 1b be
       -0.3496708 0.32820863 -0.09619204 -0.15145649
0001d0 6e 1f c9 be a8 8a 99 3d e8 bd 70 3e 26 8e a8 be
       -0.3928179 0.0749715 0.23509943 -0.3292095
0001e0 bc e6 8c 3e 8e 59 76 be 69 61 93 bd 72 4b 6b 3e
       0.27519786 -0.240576 -0.07196314 0.22977999
0001f0 4e ad 6a 3d 9f ce ad be 39 51 2d bd c6 30 65 3e
       0.057294182 -0.33946702 -0.042313788 0.22381887

layers.1.weight f4 [128, 128]
000000 e1 bd d8 3c 94 7a 6e 3d 12 c8 3d 3c f0 d9 73 bd
       0.026457729 0.05822237 0.011583345 -0.059534013
000010 f3 94 1c 3b 0e 57 eb bc 59 37 3d bd 2b 1b 51 bd
       0.0023892492 -0.028728034 -0.04619536 -0.0510513
000020 9a 7b 19 3e f8 ca 04 3d e0 43 37 bd fb 63 17 3e
       0.14988557 0.03242013 -0.044742465 0.14784233
000030 db ae 5b ba 96 81 43 bc a9 1f 90 3c 52 20 93 bd
       -0.00083802425 -0.011932751 0.017593222 -0.07183899
000040 e4 6b 89 3d 6e 05 bf 3d bd 6b 3c bc ed 83 31 be
       0.06710032 0.093272075 -0.011500296 -0.17335482
000050 96 11 d8 bd e2 6e 06 3d 37 66 76 3d c7 96 46 bd
       -0.10550229 0.03282059 0.060156073 -0.048483636
000060 ab 17 80 3d 11 11 9b 3c 73 29 e3 bc 6c 73 d4 bd
       0.06254514 0.018929036 -0.027729725 -0.103735775
000070 62 06 09 3d 07 42 1f 3e 19 23 88 bd f0 03 b3 3c
       0.033453353 0.15552531 -0.06647319 0.021852463
000080 3c 65 a4 bc 69 22 3d be 4c 9f 31 3d 52 ab 8c be
       -0.020067804 -0.18470158 0.043364808 -0.27474457
000090 27 b3 72 3d 21 8b 95 3d f4 25 0b 3d b0 95 ad bc
       0.059252884 0.07301927 0.03397174 -0.02118954
0000a0 7d 6d e6 3c 95 a0 fb 3d e1 c3 38 3a 94 78 c1 3d
       0.02812838 0.12286488 0.0007048231 0.094468266
0000b0 e2 57 25 3e 7a d0 98 bd 20 d8 90 3d e5 12 ec bb
       0.16146806 -0.07461639 0.070724726 -0.007204401
0000c0 42 22 14 be 2b bb 41 3a aa 83 e0 bd df 3c 80 3b
       -0.14466193 0.0007390256 -0.10962613 0.0039135064
0000d0 20 91 42 bc 9a a5 83 3c 4a 14 83 3d 2c 08 87 bd
       -0.011875421 0.016070176 0.06400354 -0.065933555
0000e0 cf e4 80 be 4b 39 11 bd e9 e5 ad bb cd 2b 96 3b
       -0.25174567 -0.03545503 -0.0053069484 0.004582858
0000f0 53 ea 0c be ad 92 23 3c 51 9d 02 3d ff 8a 45 3e
       -0.13761263 0.009983701 0.03188831 0.19291304
000100 fa 27 82 bd 34 71 14 bd 9f 07 8d bd 49 4c 9a bc
       -0.06355281 -0.03624077 -0.06886219 -0.018835204
000110 66 fc 9e 3d 0f 0f 00 be 32 26 29 be 80 89 c2 bd
       0.07762985 -0.12505744 -0.16518477 -0.09498882
000120 d5 76 d5 3d 5b 38 42 3e e5 42 dd 3d ff a8 57 3d
       0.10423056 0.1896681 0.10803775 0.0526514
000130 e5 7f 01 be 2f c9 93 3b bb 4e 93 3d 89 65 92 3d
       -0.12646444 0.004510067 0.07192751 0.071482725
000140 94 a6 64 3c 17 ca 24 3d 72 44 7d bd 20 4e 60 3e
       0.013955731 0.04023179 -0.061832853 0.21904802
000150 91 5e 1f 3a 83 7b 87 bd 86 7f 2f bb 6e b9 93 bc
       0.000607946 -0.06615355 -0.002677889 -0.018032756
000160 13 25 8c 3c 4e c6 2b bd 12 94 e2 bd 22 16 9f 3d
       0.017107522 -0.041937165 -0.110633984 0.077678934
000170 d0 ff 80 bd d0 a5 8c bd de e1 b1 3d 55 aa 28 bd
       -0.06298792 -0.06867564 0.08685659 -0.041178066
000180 bb b7 c0 3c d2 db 5d 3d fa d9 aa bd 87 a1 32 be
       0.02352511 0.054164715 -0.08342357 -0.1744443
000190 8d b3 02 be 3b cd 2e be 74 08 83 3d 4d 4b bd bc
       -0.12763806 -0.17070477 0.06398097 -0.023107195
0001a0 6e 1f e2 bc c5 4b e7 3d 4e 11 f0 3d 96 bb cf 3c
       -0.027602877 0.11293749 0.117220506 0.025358003
0001b0 ce 05 68 3d e6 e0 fe 3c 78 00 33 be ef 0c 2b bb
       0.05664616 0.0311131 -0.17480648 -0.0026100238
0001c0 64 37 e6 3d 1d 8e 9c 3c 0d ef ac bd dc 96 0e 3e
       0.11241034 0.019110734 -0.08444033 0.13924736
0001d0 ff 4b e5 bd 79 af 8e 3e df 04 2c bd 40 c7 40 3e
       -0.11196136 0.2786825 -0.041996833 0.18826008
0001e0 b7 da 57 bd d9 66 78 3e b1 07 16 3e d5 2e 8a bc
       -0.052698817 0.24257983 0.14651372 -0.016868034
0001f0 53 40 10 bc 64 10 a1 3d 66 02 d8 3b ed c1 c5 bc
       -0.008804399 0.078644544 0.006592083 -0.024140323
000200 22 62 28 3e b5 d1 21 bc ad 05 a8 bc a1 42 4a 3c
       0.16443685 -0.009876658 -0.020510519 0.012344987
000210 00 95 93 bc 92 4e 06 3c cf b6 c0 bb c6 f1 cc bc
       -0.018015385 0.008197444 -0.0058811675 -0.02501763
000220 90 47 f7 bc 8f 45 a5 3d 8f e3 88 bd 54 9b e6 3d
       -0.03018549 0.08069908 -0.06684028 0.11260095
000230 2a fe d4 3d 87 20 8e bd f3 04 f2 3d 8f 35 94 3d
       0.104000404 -0.06939798 0.1181735 0.07236778
000240 29 83 0e bd c0 41 79 3c 9b 57 8b 3d f1 41 ca bb
       -0.034793053 0.01521343 0.06803819 -0.0061724116
000250 d8 03 19 3d cf fe ac 3d 86 9e 5a 3d b6 ae 74 bc
       0.03735718 0.084470384 0.053373836 -0.014934232
000260 03 19 9a 3c 2f fd d5 3d 14 56 7a 3d 66 22 37 3e
       0.018810755 0.104486816 0.061117247 0.17884216
000270 9b 00 bb bd bc dd 5a 3d 88 6c be bc 80 29 7a 3d
       -0.09130975 0.05343412 -0.023245111 0.061074734
000280 90 a3 87 bd 2a bc 0c 3e 66 d1 99 3d 6a 24 21 3e
       -0.06622994 0.13743654 0.07510643 0.15736547
000290 12 4d ef bd 16 18 fc 3d 2c 9b d4 bc 94 e4 18 be
       -0.11684622 0.123092815 -0.025952898 -0.14930946
0002a0 b8 3d 31 bc 15 70 29 3e c1 bf d2 b9 66 e6 06 be
       -0.010817938 0.16546662 -0.0004019719 -0.13173828
0002b0 0a b6 4e be 64 82 cd bd ad d5 41 3c 77 95 ad 3c
       -0.2018663 -0.10034636 0.011830729 0.021189434
0002c0 ea f3 e3 3b ce 11 04 3e 87 84 ff bd 3b 1f 28 3e
       0.006956567 0.12897417 -0.124764495 0.16418163
0002d0 a8 c0 8b bd 14 28 7d 3d be b7 bc bb 03 ea d7 3d
       -0.06823856 0.0618058 -0.0057592085 0.10542681
0002e0 c9 52 d8 3c 2e f7 e8 bb e0 f2 82 3c 07 d4 bf 3e
       0.026406663 -0.0071095442 0.015984952 0.37466452
0002f0 27 46 61 bb 44 7f f9 3d 68 dc a5 bd 0a c0 32 bc
       -0.003437409 0.12182477 -0.0809868 -0.0109100435
000300 45 2c df 3d 1c 76 72 3d d1 72 43 3d 27 a5 8f be
       0.108971156 0.05919467 0.04771692 -0.2805569
000310 fa 74 33 bd ec 3a d1 bd 6d c2 cd 3d 35 ea fb 3c
       -0.04381273 -0.102163166 0.100468494 0.030751327
000320 3a d2 17 3e b2 b1 33 be 0c 11 3d bd ca 1f 05 be
       0.14826289 -0.17548254 -0.046158835 -0.13000408
000330 06 f0 8a bd 27 88 95 3d 7c 46 23 3e c2 46 02 3d
       -0.06784062 0.073013596 0.15944856 0.03180576
000340 34 10 8c bd 3a 29 b8 3d 87 43 0b 3d b0 63 cb 3d
       -0.06839028 0.08992238 0.033999946 0.09931123
000350 74 5f 42 3e 05 f4 60 3d 9a f1 7e bd 26 12 15 be
       0.18981725 0.054920215 -0.062242128 -0.14557704
000360 00 ab 7e 3d e2 49 65 bc a4 98 20 3c f8 70 aa 3c
       0.062174797 -0.013994666 0.009802017 0.02080582
000370 9d 8f c6 3d f8 19 4b 3d 4d da 93 bb 61 7b fc 3c
       0.09695361 0.049585313 -0.0045121075 0.03082055
000380 25 06 a1 3d 2c a9 56 bd b3 8a 31 bc a1 27 fe 3c
       0.078625 -0.05240743 -0.010836291 0.031024756
000390 6b 23 14 3e 43 e1 6d bd 23 b7 4e 3d 6c f6 00 3d
       0.14466636 -0.058076154 0.05046762 0.031485006
0003a0 a2 8f dc 3d 49 2f 95 bc ea 28 54 3d 9d cf d2 bd
       0.10769583 -0.018211024 0.05179683 -0.10293505
0003b0 b9 15 2f 3e a2 85 da 3d 82 48 2f bd 7e e1 8e 3c
       0.1709813 0.1067002 -0.04279376 0.017441507
0003c0 85 a2 9d 3d 28 69 9b 3d ee 28 62 bd 3d 7f 7b bd
       0.07697014 0.07588416 -0.055214815 -0.06140064
0003d0 b2 3a 43 be 73 97 12 be 8a 0d ce 3c 95 40 81 bd
       -0.19065359 -0.14315586 0.02515294 -0.06311146
0003e0 cc 0a b1 3d d9 fe 54 3e 2d 99 cd 3d 96 50 53 3d
       0.086446375 0.20800342 0.100389816 0.051590525
0003f0 ef 79 a5 bc 17 13 37 bd 34 91 c1 3c 09 99 32 bd
       -0.020199744 -0.04469594 0.023628809 -0.043602977
