Gym-DDPG-solution/results/DDPG_LunarLander-v2_1000-eps0.1-t32-l0.0001-s1.pth (torch, 180667 bytes, 13 tensors)

layers.0.weight f4 [128, 10]
0	0x3dab5a9c	0.08366892
1	0xbe35a257	-0.17737709
2	0xbdfa53c5	-0.12223009
3	0x3e874c28	0.2642529
4	0xbf1b5cb7	-0.60688347
5	0x3e54b8cf	0.20773624
6	0xbe3917e8	-0.18075526
7	0x3ee10290	0.43947268
8	0x3d3b48bf	0.045723673
9	0xbd441c8c	-0.047878787
10	0x3d9a97ad	0.07548461
11	0x3be28cc0	0.0069137514
12	0x3d65069a	0.0559145
13	0xbe4379fd	-0.19089504
14	0x3d2fbaf6	0.04290291
15	0x3bbb7fc4	0.005722018
16	0x3db68fa1	0.08914114
17	0x3e1334c3	0.14375596
18	0x3e90732e	0.28212875
19	0x3db338cc	0.087510675
20	0xbe50eb62	-0.20402291
21	0xbe3421f3	-0.17591076
22	0xbdeeb9b8	-0.11656517
23	0xbe38a80c	-0.18032855
24	0xbe1d0f03	-0.15337758
25	0x3d5fc3c7	0.054630067
26	0x3e676ccd	0.22600098
27	0xbdb50e33	-0.08840599
28	0xbea02e3e	-0.3128528
29	0x3e2521ba	0.16126147
30	0x3e28269a	0.16420975
31	0x3e97250b	0.2952045
32	0x3e7bab27	0.24577008
33	0xbea3258f	-0.31864592
34	0xbebcea0f	-0.36897323
35	0xbea96f9f	-0.33092973
36	0x3e6fb7aa	0.23409906
37	0xbe1bb749	-0.15206636
38	0x3e0aa11e	0.13538024
39	0xbe1e0a1c	-0.15433544
40	0x3eb77cc1	0.35837367
41	0xbdf27a13	-0.1183969
42	0x3e783a4e	0.24240991
43	0xbd31b9dd	-0.043390144
44	0xbe879cf5	-0.26486936
45	0x3d83804e	0.064209566
46	0xbe1dc020	-0.15405321
47	0xbe72e8c6	-0.23721609
48	0xbc85f3ea	-0.016351659
49	0xbc8ddb84	-0.017316587
50	0xbe53238e	-0.20619032
51	0xbe2e1aa3	-0.17002349
52	0x3e057983	0.13034634
53	0xbe89ab9b	-0.26888737
54	0x3f6378e4	0.8885634
55	0x3e9ca7c0	0.30596733
56	0x3e7aeb82	0.24503902
57	0xbed685bb	-0.41898903
58	0x3d9b6c79	0.07589049
59	0x3e536d4e	0.20647165
60	0xbe8e529e	-0.27797407
61	0x3e5b17e7	0.21395837
62	0x3e100a43	0.14066415
63	0x3ed8a446	0.4231283
64	0xbebc2acc	-0.367514
65	0x3d4d74dd	0.050160278
66	0xbe042201	-0.12903596
67	0x3e9c2d66	0.30503386
68	0xbe07d09b	-0.1326317
69	0xbe86462a	-0.26225406
70	0x3e2d3134	0.16913301
71	0xbd83912e	-0.06424175
72	0x3e48c01d	0.19604535
73	0x3d28e629	0.041235123
74	0x3dc20a99	0.094746776
75	0x3dd27705	0.102766074
76	0x3df69f8a	0.120421484
77	0xbd215540	-0.03938794
78	0xbeaa35fa	-0.33244306
79	0x3e39e570	0.1815393
80	0xbe5b414c	-0.21411628
81	0xbe82e9ef	-0.25569102
82	0x3d873802	0.066024795
83	0xbc032a87	-0.008005745
84	0x3e35cb46	0.17753324
85	0xbe77adb5	-0.24187358
86	0xbeea9ddc	-0.45823562
87	0xbddea128	-0.10870582
88	0xbdaa582f	-0.08317601
89	0x3e2b5d4e	0.16734812
90	0x3de7d800	0.113204956
91	0xbe879325	-0.2647945
92	0x3d6842a8	0.056704193
93	0x3e0e6360	0.13905096
94	0xbe8b79d1	-0.27241376
95	0xbe3955a1	-0.18099071
96	0x3d972fa1	0.07382131
97	0x3e8b7119	0.27234724
98	0xbe0c248d	-0.13685818
99	0xbd6a5469	-0.057209406
100	0x3e8ad51b	0.27115712
101	0xbcf12a26	-0.029439043
102	0x3e929d6a	0.28635722
103	0x3dd4324d	0.103611566
104	0xbed5ef9e	-0.41784376
105	0xbec792d6	-0.38979214
106	0x3e9f75ac	0.31144464
107	0xbe1ad9a2	-0.15122083
108	0x3e694f4e	0.22784159
109	0x3d9b9a04	0.075977355
110	0x3cd993a4	0.026559658
111	0x3e8c6ed1	0.27428296
112	0x3ea8e30e	0.3298573
113	0xbe9a7f19	-0.30175093
114	0xbc223705	-0.009900813
115	0x3e284603	0.16432957
116	0x3e845e39	0.25853136
117	0x3e952af5	0.29134336
118	0xbe2dc066	-0.16967925
119	0xbe432063	-0.19055323
120	0xbe22185c	-0.15829605
121	0x3d2e410b	0.0425425
122	0x3ea1ee5d	0.3162717
123	0xbea9137a	-0.33022672
124	0x3e4f808a	0.20263878
125	0xbe34bea0	-0.17650843
126	0xbe6dd4ab	-0.23225658
127	0x3d7e5bca	0.062099256
128	0x3e290956	0.16507468
129	0x3e669ab0	0.22519946
130	0xbe264140	-0.16235828
131	0x3d15d2c4	0.036577955
132	0x3e682e56	0.22673926
133	0x3ea9e9b5	0.33186117
134	0x3e832fae	0.25622314
135	0x3e71e90c	0.23624057
136	0x3e86f16a	0.2635606
137	0x3ec7f6f8	0.3905561
138	0xbe41ee33	-0.18938522
139	0xbe6ec34a	-0.23316684
140	0xbe86c0d7	-0.26319
141	0xbd9b0dcc	-0.07570991
142	0xbe8b17c1	-0.2716656
143	0x3e81117c	0.25208652
144	0x3e5f6745	0.21816738
145	0xbdc3093a	-0.09523244
146	0x3db69413	0.08914962
147	0x3f03fdd5	0.5155919
148	0x3e12cd17	0.14336048
149	0x3e45cb2b	0.19315784
150	0xbd9f19bc	-0.0776858
151	0x3eaf21b2	0.34205395
152	0x3d2d4575	0.042302568
153	0xbe042b50	-0.12907147
154	0xbea7a0f8	-0.32739997
155	0xbee9477c	-0.4556235
156	0xbe1784d6	-0.14796767
157	0xbe823a46	-0.25435084
158	0x3e36de27	0.17858182
159	0xbd8bde92	-0.06829561
160	0xbe9d2ea4	-0.30699646
161	0x3dd34fe6	0.10317974
162	0x3d8bf4ad	0.068337776
163	0x3e5f27fb	0.21792595
164	0xbe1d2840	-0.15347385
165	0x3dd8ac3f	0.10579728
166	0xbe1a950f	-0.15095924
167	0xbe30b995	-0.17258294
168	0xbe4fa09b	-0.2027611
169	0xbe0a63e3	-0.13514666
170	0xbdc86f79	-0.09786887
171	0x3e3b217d	0.18274494
172	0x3dc97885	0.098374404
173	0xbd1450a9	-0.036209736
174	0x3eaf1194	0.341931
175	0x3ee30969	0.44343117
176	0x3eb4a260	0.35280132
177	0xbe0e956a	-0.13924184
178	0xbe64feda	-0.22362843
179	0x3e8efab3	0.27925643
180	0xbd5efd4a	-0.054440774
181	0x3b1528ca	0.0022759908
182	0xbe8aa28b	-0.27077135
183	0xbe225e10	-0.15856194
184	0xbe81251d	-0.25223628
185	0x3eceab83	0.40365228
186	0xbe45abd0	-0.19303823
187	0xbdf16368	-0.11786538
188	0x3d20660c	0.03915982
189	0xbe1ceb1b	-0.1532406
190	0x3e0b9cc4	0.1363402
191	0xbe242d68	-0.16032946
192	0xbdfa5ba0	-0.12224507
193	0x3dc50e12	0.09621824
194	0x3e68cc48	0.22734177
195	0xbe5e336e	-0.21699306
196	0x3df4887b	0.11940094
197	0x3eeab336	0.45839852
198	0x3e8d0fd0	0.27551126
199	0xbe9d0721	-0.306695
200	0x3e0b0a26	0.1357809
201	0xbe82d83b	-0.25555596
202	0x3eb43ea3	0.35204038
203	0xbe36dd33	-0.17857818
204	0x3ea44cef	0.32089946
205	0xbcf8bfaf	-0.03036484
206	0xbd4bc6d8	-0.04975018
207	0xbe7eb457	-0.24873482
208	0x3c0f8e48	0.00876195
209	0x3df06abf	0.1173911
210	0xbcc78fb5	-0.024360517
211	0x3dd9ab4e	0.10628377
212	0xbec288b1	-0.37994912
213	0x3e7eea61	0.24894096
214	0x3edacd47	0.4273474
215	0x3ec7867c	0.3896979
216	0x3e559478	0.20857418
217	0xbdd98197	-0.106204204
218	0xbe2417b3	-0.16024666
219	0x3e798719	0.24367942
220	0xbd95ceb1	-0.07314814
221	0x3e9d8023	0.30761823
222	0xbe75e22a	-0.24012056
223	0xbec0df17	-0.37670204
224	0x3dcd5f7f	0.1002798
225	0xbe33231a	-0.17493859
226	0xbcdd9800	-0.027050018
227	0x3ec7e784	0.3904382
228	0x3e3552a1	0.17707302
229	0x3e829d02	0.25510412
230	0xbd495b7f	-0.049159523
231	0xbe95194d	-0.29120865
232	0x3eaffcb4	0.34372485
233	0xbe2617de	-0.16220042
234	0xbe1907e1	-0.14944412
235	0x3ded5930	0.11589277
236	0xbe3514ee	-0.17683765
237	0x3efc3825	0.49261585
238	0x3e27bfb3	0.16381721
239	0xbe7eb203	-0.24872594
240	0xbec2ab09	-0.38021114
241	0xbaf5d88e	-0.0018756555
242	0x3de37a16	0.111072704
243	0xbd67acc5	-0.05656125
244	0xbe54798c	-0.20749491
245	0xbdbb6c71	-0.09151543
246	0xbeba3570	-0.36368895
247	0xbee4005d	-0.44531527
248	0xbe1247b3	-0.14285164
249	0x3e8c4a53	0.27400455
250	0x3e6604a3	0.22462706
251	0xbe04e857	-0.12979256
252	0x3b68828d	0.0035478205
253	0x3e9fe768	0.31231236
254	0xbca17a37	-0.019711597
255	0xbea22b3c	-0.3167361

layers.0.bias f4 [128]
0	0xbce79cb1	-0.028272958
1	0xba4fa161	-0.00079204707
2	0x3d5b1c4e	0.05349379
3	0xbd3b4779	-0.04572246
4	0x3e4826e3	0.19546084
5	0x3da95984	0.08269027
6	0x3e6d0436	0.23146138
7	0x3da1c2ef	0.07898509
8	0xbd31a6d2	-0.043371983
9	0x3c17b5eb	0.009259681
10	0x3e63ce94	0.22246772
11	0x3dbcef9f	0.092253916
12	0x3e7d581f	0.24740647
13	0xbd839364	-0.06424597
14	0xbc9f3626	-0.019435
15	0x3e986554	0.29764807
16	0xbea9d003	-0.33166513
17	0x3dd2c04c	0.10290584
18	0x3ea94c5a	0.33066064
19	0xbe525030	-0.20538402
20	0xbd8cf035	-0.06881753
21	0x3c13306e	0.0089837145
22	0x3e213032	0.15741041
23	0x3ddb2495	0.10700337
24	0x3d940387	0.07227235
25	0x3d6a6c8b	0.05723242
26	0xbe0cd2e9	-0.13752331
27	0x3e203664	0.15645748
28	0xbe0cc138	-0.13745582
29	0x3e23153d	0.1592607
30	0xbe07ccf2	-0.13261774
31	0xbe93ddc0	-0.2888012
32	0x3dc30c94	0.095238835
33	0x3e548bf1	0.20756508
34	0xbd5eeba1	-0.054423932
35	0x3d8078b4	0.06273022
36	0xbcd652e8	-0.02616258
37	0x3e5e72c3	0.21723466
38	0xbd481625	-0.048849244
39	0xbe96333d	-0.29335967
40	0xbe675416	-0.2259067
41	0x3d7ff148	0.062485963
42	0x3d6d1529	0.057881508
43	0x3ea06c14	0.31332457
44	0x3c328868	0.01089678
45	0x3e876c79	0.26449946
46	0xbe9e6548	-0.30936646
47	0xbe97451e	-0.2954492
48	0xbd9be1ae	-0.07611404
49	0xbe510693	-0.20412664
50	0xbdb98dcd	-0.090602495
51	0x3cb16915	0.021656552
52	0xbe9a2e10	-0.30113268
53	0x3e7e1b05	0.24814995
54	0xbe82c011	-0.2553716
55	0x3e65addb	0.22429602
56	0x3e1199ff	0.14218901
57	0xbd83cfbe	-0.06436108
58	0xbeb16d08	-0.34653497
59	0x3dd757ab	0.10514768
60	0xbe89681d	-0.26837245
61	0x3e95c1b3	0.29249343
62	0xbe896878	-0.26837516
63	0xbdd7af37	-0.105314665
64	0xbe471e4f	-0.19445156
65	0xbe680432	-0.2265785
66	0xbdda6080	-0.10662937
67	0xbd237df0	-0.039915025
68	0x3d96760a	0.07346733
69	0x3dac3c17	0.08409899
70	0x3e031a0f	0.1280291
71	0xbe2d387a	-0.16916075
72	0xbe288654	-0.16457492
73	0xbd6e7268	-0.058214575
74	0x3e7fcbd2	0.24980095
75	0x3ba9cafd	0.005181669
76	0xbe933d33	-0.2875763
77	0x3ea61dd6	0.32444638
78	0x3dd1c325	0.10242299
79	0x38e8f964	0.00011109075
80	0x3d1d3058	0.038376182
81	0x3e8e646f	0.27811
82	0xbe21199c	-0.15732425
83	0x3e907a37	0.28218243
84	0x3ea26042	0.31714064
85	0xbd7b4479	-0.061344597
86	0x3e4bf939	0.1991929
87	0x3e451fde	0.19250438
88	0x3e955019	0.29162672
89	0xbded1f3a	-0.115782216
90	0xbe652af2	-0.22379664
91	0xbdaf9bea	-0.0857466
92	0xbe75d0e9	-0.24005474
93	0xbd1a44ba	-0.0376632
94	0x3ebf6c3b	0.3738726
95	0x3e815572	0.25260502
96	0x3ea5eb16	0.3240592
97	0x3c65feb5	0.014037778
98	0x3b85ac5e	0.0040793857
99	0x3e83dbc6	0.2575361
100	0x3e5e5638	0.21712577
101	0xbd75de5e	-0.06002652
102	0xbcf14c54	-0.029455341
103	0x3de7e02c	0.11322054
104	0x3d4ad483	0.049519073
105	0xbe8988e9	-0.26862267
106	0xbe10c54c	-0.14137763
107	0x3e7d6623	0.24745993
108	0x3e90b4f1	0.28263047
109	0xbddf3ae5	-0.10899905
110	0xbd080317	-0.03320607
111	0xbe28b139	-0.16473855
112	0xbdc8355b	-0.09775802
113	0x3eb490f5	0.35266843
114	0xbe865cf3	-0.2624279
115	0x3e410017	0.1884769
116	0xbe6daf49	-0.23211397
117	0xbe3e03f9	-0.18556203
118	0xbcf5597d	-0.029949898
119	0x3d91594f	0.070971124
120	0xbc540b47	-0.012942142
121	0xbdc5647a	-0.09638305
122	0xbe3afb8d	-0.18260022
123	0xbe370e3f	-0.17876528
124	0xbe6ae256	-0.22937903
125	0xbe47a416	-0.19496188
126	0x3eb9fb3a	0.36324483
127	0xbe5891ca	-0.21149364

layers.1.weight f4 [128, 128]
0	0xbe8f61fe	-0.2800445
1	0x3e3302d5	0.17481549
2	0x3c572d64	0.013133381
3	0x3b753955	0.0037418206
4	0xbe07b4df	-0.1325259
5	0x3c9e6d2a	0.019339163
6	0xbdda7423	-0.106666826
7	0xbd3dca05	-0.04633524
8	0xbbdeef96	-0.006803463
9	0xbcab3a5d	-0.020901853
10	0xbd7e7aaf	-0.06212872
11	0xbd19b5fa	-0.037527062
12	0x3e0cd75d	0.1375403
13	0xbd2e8b82	-0.042613514
14	0x3ce0bbbb	0.027433267
15	0xbc8ce9c2	-0.017201308
16	0xbe03af01	-0.12859727
17	0x3d96287a	0.07331939
18	0x3c870c1c	0.016485266
19	0x3df9634c	0.121771425
20	0x3cc699e1	0.024243297
21	0x3e44abbd	0.19206138
22	0x3dc80457	0.09766453
23	0xbde7b07b	-0.11312958
24	0xbdb4f30b	-0.08835419
25	0xbc946494	-0.018114366
26	0x3d3a1098	0.04542598
27	0xbda86a14	-0.08223358
28	0x3b0d92d8	0.0021602418
29	0xbe31aee9	-0.17351879
30	0x3d50b241	0.050951246
31	0xbd475a05	-0.048669834
32	0x3e068e00	0.13140106
33	0x3db92a34	0.09041253
34	0xbd3093f7	-0.04310986
35	0xbc81daf2	-0.015851472
36	0xbdfb04cb	-0.122567736
37	0x3dbf4803	0.09339907
38	0xbdc2e497	-0.09516256
39	0x3e40cd33	0.18828277
40	0xbc5e3e61	-0.013564677
41	0x3bcfa049	0.006336246
42	0xbd051115	-0.032486994
43	0x3e22c46c	0.15895241
44	0x3cebe121	0.028793873
45	0x3a64c3ca	0.00087266846
46	0xbdc21fea	-0.094787434
47	0x3d092b3a	0.03348849
48	0x3d4910f8	0.04908845
49	0xbd44a6b2	-0.048010536
50	0xbd99e1bc	-0.075137585
51	0xbda1b38e	-0.078955755
52	0xbbfd405a	-0.0077286186
53	0xbd9a4ed9	-0.0753457
54	0x3c20392c	0.009779256
55	0x3d01d0d8	0.03169331
56	0xbce86f3d	-0.028373355
57	0x3d803dab	0.06261762
58	0xbd92a63d	-0.07160614
59	0xbd100f80	-0.035171032
60	0xbc1db4a1	-0.009625585
61	0xbd864179	-0.06555457
62	0xbd167055	-0.036728222
63	0xbc90c62c	-0.01767262
64	0x3c8be6c5	0.017077813
65	0xbd0e8df7	-0.034803357
66	0x3db5cdff	0.08877181
67	0xbd7b6d04	-0.061383262
68	0x3dcb6fb9	0.09933419
69	0xbd6ce61a	-0.05783663
70	0xbe05c0c8	-0.13061821
71	0xbd7f02c7	-0.062258508
72	0x3c83a05c	0.016067676
73	0x3dfde715	0.12397591
74	0xbe3134be	-0.17305276
75	0xbd2dc1cc	-0.042421147
76	0xbc89547d	-0.01676392
77	0xbc719c76	-0.014746776
78	0xbdfceda5	-0.123500146
79	0x3d51660e	0.051122718
80	0xbd7b564b	-0.061361592
81	0x3dc42c33	0.09578743
82	0x3c0b148b	0.008488785
83	0x3e1c4160	0.15259314
84	0x3de009b1	0.109393485
85	0xbda1137e	-0.07865046
86	0xbda01962	-0.078173414
87	0xbc7891c9	-0.015171477
88	0x3bd69a8e	0.006549186
89	0xbdd84034	-0.10559121
90	0x3d3fd67f	0.04683542
91	0xbdbe0cf2	-0.09279813
92	0xbd64a95d	-0.05582558
93	0xbe05935b	-0.13044493
94	0x3c794dab	0.015216271
95	0xbe6d800d	-0.23193379
96	0x3daa3d0f	0.08312427
97	0x3da79765	0.08183173
98	0xbdf5eb7f	-0.12007808
99	0x3dde4855	0.1085364
100	0x3c011dae	0.007880611
101	0x3cdc31ce	0.026879217
102	0x3d1bb22c	0.038011715
103	0xbd4ede98	-0.05050525
104	0xbd801d19	-0.0625555
105	0x3c8fdb7d	0.017560715
106	0x3bae0c6f	0.005311541
107	0xbd667284	-0.056261554
108	0x3e4e754a	0.2016193
109	0x3eae5034	0.34045565
110	0xbc5f06e0	-0.013612479
111	0xbc10c988	-0.008837111
112	0xbd04f639	-0.03246138
113	0x3ce2f0e5	0.027702758
114	0xbd8b9c9e	-0.06816982
115	0x3d6741bc	0.056459174
116	0xbd80b23c	-0.062839955
117	0x3d54cd43	0.051953565
118	0xbc95993b	-0.018261543
119	0x3e0b837d	0.13624378
120	0x3df81f41	0.12115336
121	0x3d70cffc	0.0587921
122	0xbd029cf7	-0.031887975
123	0x3e0c7940	0.13718128
124	0xbc12f33b	-0.0089691235
125	0x3d51be19	0.051206682
126	0x3d69bd59	0.05706534
127	0xbd3ed6bd	-0.04659151
128	0xbc888356	-0.016664188
129	0x3cb35458	0.021890804
130	0x3d87a2f5	0.066228785
131	0xbd15d2b1	-0.036577884
132	0x3c9a832e	0.01886138
133	0x3d3317b2	0.04372377
134	0xbd573bab	-0.05254714
135	0xbdab279c	-0.08357164
136	0xbd59f257	-0.05320963
137	0x3dba2e1c	0.09090826
138	0xbe23d37a	-0.1599864
139	0xbd847a8a	-0.06468685
140	0x3d70db41	0.058802847
141	0x3db1c475	0.08680049
142	0xbd978dcb	-0.07400092
143	0x3bef7489	0.0073075932
144	0xbcdfc975	-0.027317742
145	0xbc8776f6	-0.016536217
146	0xbd2a3e02	-0.04156304
147	0x3cc4d922	0.024029318
148	0xbca35c37	-0.019941432
149	0x3dfb1cfa	0.12261386
150	0x3d95d69c	0.07316324
151	0xbd24a13d	-0.04019283
152	0xbdb23ec1	-0.087033756
153	0xbc518406	-0.0127878245
154	0xbcee75ea	-0.02910896
155	0x3c8dd08f	0.017311363
156	0xbdb3377c	-0.08750817
157	0x3c9d9434	0.019235708
158	0x3cf2bea3	0.029631918
159	0xbcfd4d3c	-0.030920617
160	0x3dc27c0c	0.09496316
161	0xbca3c486	-0.01999117
162	0xbdb4419d	-0.08801577
163	0xbdc3b206	-0.0955544
164	0xbaead254	-0.0017915466
165	0xbd4afe10	-0.0495587
166	0x3cd36867	0.025806619
167	0x3d5e8f30	0.054335773
168	0xbcca2a71	-0.02467844
169	0xbd521fd4	-0.051299885
170	0x3d7db33b	0.061938506
171	0x3dc445b2	0.09583606
172	0x3d260f93	0.040542196
173	0xbd11e76d	-0.035621095
174	0xbcd2b7b9	-0.025722371
175	0xbcea3ade	-0.028592523
176	0xbb6c44c0	-0.003605172
177	0x3d815709	0.06315429
178	0xbbd7a6fa	-0.0065811845
179	0xbd500d3f	-0.050793882
180	0x3da7178b	0.08158787
181	0x3c64cd46	0.013964957
182	0x3d9b5919	0.075853534
183	0xbb901825	-0.0043974095
184	0xbc880ec4	-0.016608603
185	0x3d5d38ee	0.05400937
186	0xbd6d0265	-0.05786361
187	0xbd80bbc9	-0.06285817
188	0x3e0e12d4	0.1387437
189	0xbbf44e1f	-0.007455602
190	0x3dd642d7	0.104619674
191	0xbd415e78	-0.047209233
192	0xbca7f608	-0.020503059
193	0x3c5c0250	0.013428286
194	0xbda95b76	-0.08269398
195	0x3db3beee	0.08776651
196	0x3dc5bc04	0.09655002
197	0xbd0b4b68	-0.03400746
198	0x3ded8a85	0.11598686
199	0x3d946b2d	0.07247005
200	0xbde0e2aa	-0.10980733
201	0xbcf95b0d	-0.030438924
202	0x3dafbfcb	0.085815035
203	0xbd646282	-0.055758007
204	0x3bad9dca	0.005298351
205	0xbd9060fa	-0.07049747
206	0x3c66eb8d	0.014094246
207	0x3db05ff8	0.086120546
208	0x3d7de760	0.061988235
209	0x3dcdde96	0.100522205
210	0xbd5f13c8	-0.054462224
211	0xbd8813d9	-0.06644411
212	0x3d52e164	0.05148448
213	0x3c9413a1	0.018075766
214	0x3c00e005	0.00786591
215	0x3d8a522d	0.06753955
216	0xbc41221d	-0.011787918
217	0xbd154354	-0.036441162
218	0x3d9c3287	0.07626825
219	0x3d858060	0.06518626
220	0x3d34782a	0.04405991
221	0x3c5f3477	0.013623348
222	0x3d117b87	0.035518195
223	0xbd786b6a	-0.060649313
224	0xbd6c9d81	-0.057767395
225	0xbc13c30b	-0.00901867
226	0xbd3f181a	-0.046653844
227	0x3ca19235	0.019723037
228	0x3b10512d	0.002202104
229	0x3da67e78	0.08129591
230	0xbd396642	-0.045263536
231	0x3d82cd30	0.06386793
232	0xbd7ae05e	-0.06124913
233	0x3d05b89d	0.032646764
234	0x3d99abf6	0.07503502
235	0xbd66ab8b	-0.05631594
236	0xbd23d948	-0.040002137
237	0x3b2db766	0.002650702
238	0xbd85596b	-0.06511196
239	0x3d9069c6	0.07051425
240	0xbad77381	-0.0016437621
241	0x3c4fd36d	0.012684685
242	0xbd7658ea	-0.06014339
243	0x3d8ad1a3	0.06778266
244	0x3d9eecee	0.077600345
245	0xbc406a1f	-0.011744051
246	0x3d0a6c7d	0.03379487
247	0xbc95ee6b	-0.018302163
248	0x3d12c1d7	0.03582939
249	0xbd7b3825	-0.06133284
250	0xbdbbb294	-0.091649204
251	0xbce6901d	-0.02814489
252	0xbd06de2b	-0.03292672
253	0x3b9d5f47	0.0048026177
254	0x3d09c63e	0.033636324
255	0x3cc69bbd	0.024244184

layers.1.bias f4 [128]
0	0x3dcfe23a	0.10150571
1	0x3d8e0f8e	0.069365606
2	0xbcfedc44	-0.03111089
3	0x3dee2efd	0.11630056
4	0xbcb10293	-0.021607673
5	0xbd840379	-0.06445975
6	0xbe10cbe2	-0.14140275
7	0x3dbf6208	0.0934487
8	0x3ddfb32a	0.10922845
9	0x3cebc6a5	0.028781245
10	0xbdce282a	-0.100662544
11	0x3cd44f1a	0.025916625
12	0xbde8ea37	-0.11372798
13	0xbcd12d04	-0.02553416
14	0x3c67f737	0.014158062
15	0x3cbf7284	0.023370035
16	0x3dd44f6b	0.1036671
17	0xbdd2501f	-0.10269188
18	0xbda906fc	-0.08253285
19	0xbda51d82	-0.08062269
20	0x3dd19483	0.102334045
21	0x3d55b7b1	0.052177135
22	0x3c9eb0a6	0.019371342
23	0xbc05bd25	-0.008162771
24	0xbd266b88	-0.040629894
25	0xbe0041ae	-0.12525055
26	0xbca54197	-0.020172877
27	0xba975577	-0.0011545856
28	0x3d563ae9	0.052302275
29	0x3d85890c	0.0652028
30	0x3d9accf2	0.075586215
31	0xbdf28c58	-0.11843175
32	0x3e00f301	0.12592699
33	0x3e16c9fc	0.14725488
34	0x3dce14d4	0.100625664
35	0x3cbe9ba4	0.023267575
36	0x3dd7aaf3	0.10530653
37	0xbd899350	-0.06717551
38	0x3d3415da	0.04396615
39	0x3dc830cc	0.09774932
40	0xbdbe02bc	-0.09277865
41	0xbe4186c9	-0.18899073
42	0xbd8b1fd2	-0.067931786
43	0x3da9b4e7	0.082864575
44	0x3d1d7550	0.038441956
45	0xbd2636eb	-0.040579718
46	0xbd92854b	-0.0715433
47	0xbdd86073	-0.10565271
48	0x3d674466	0.056461714
49	0xbd3fa3c3	-0.046787035
50	0xbd84ce9f	-0.06484722
51	0xbcab762f	-0.020930378
52	0xbd831bf4	-0.06401816
53	0x3cbdc9bf	0.02316749
54	0x3dba033b	0.090826474
55	0xbd2a0233	-0.041506004
56	0xbca65334	-0.020303346
57	0xbda51be9	-0.08061964
58	0x3e04d154	0.12970477
59	0xbdc285f6	-0.09498207
60	0x3ca1d9cf	0.01975718
61	0x3d76a92c	0.06021993
62	0xbda95ef1	-0.08270062
63	0xbddcf613	-0.107891224
64	0x3d38e289	0.045137916
65	0x3df7bfc3	0.120971225
66	0xbdf9c688	-0.1219607
67	0x3ddc3bcd	0.107535936
68	0x3ddd0e3d	0.10793731
69	0x3de2fd9c	0.110835284
70	0x3d524bfd	0.051342
71	0x3b6af235	0.0035849933
72	0xbd9966bc	-0.07490298
73	0x3dee8dc0	0.116481304
74	0xbcc29526	-0.02375276
75	0xbd23342a	-0.03984467
76	0xbd10373d	-0.03520893
77	0x3ccb2b6e	0.024800982
78	0x3d138941	0.036019567
79	0x3cc12e79	0.02358173
80	0x3dded236	0.10879938
81	0x3d6f9f46	0.058501504
82	0xbce94321	-0.028474392
83	0x3c40b9cc	0.011763047
84	0xbd0e7f9a	-0.03478966
85	0x3d8c5ee9	0.0685404
86	0xbc627533	-0.013821888
87	0x3cf2b1ab	0.029625734
88	0xbc124374	-0.008927215
89	0xbdde2287	-0.10846429
90	0x3d368c46	0.04456737
91	0x3ded0e51	0.11574996
92	0x3d85136e	0.064978465
93	0x3c0ba371	0.008522854
94	0x3d0f98b5	0.035057742
95	0xbdc376ae	-0.09544121
96	0x3d2c8690	0.042120516
97	0x3dafa587	0.08576494
98	0xbcdaed2e	-0.026724424
99	0xbde62756	-0.112379715
100	0xbdb3e704	-0.08784297
101	0xbb59f558	-0.0033257809
102	0x3d23fb80	0.04003477
103	0xbaad7ef6	-0.001323669
104	0xbcb29156	-0.021797817
105	0xbd9bd519	-0.076090045
106	0xbe261e1b	-0.16222422
107	0xbd758f5f	-0.059951182
108	0x3baea807	0.005330089
109	0xbd017085	-0.031601448
110	0xbdf67046	-0.12033133
111	0xbc3d4df9	-0.011554235
112	0x3d21d2f3	0.039507817
113	0xbd812ca6	-0.06307344
114	0xbd85f30d	-0.06540499
115	0xbd1d9f93	-0.03848226
116	0xbd04edcf	-0.032453354
117	0x3dc3b1d8	0.095554054
118	0xbd90b00e	-0.0706483
119	0xbd51a398	-0.051181406
120	0x3c89b4b3	0.016809797
121	0xbe019929	-0.12656082
122	0xbc28d8ea	-0.010305623
123	0xba7bee39	-0.0009610388
124	0xbd2bb85c	-0.041923866
125	0xbcfb34b5	-0.030664781
126	0x3da84939	0.08217091
127	0x3e03ce94	0.12871772

layers.2.weight f4 [64, 128]
0	0x3dc55f50	0.0963732
1	0x3da547bb	0.08070322
2	0x3d4f36d1	0.050589386
3	0x3e192130	0.14954066
4	0xbdaadbe9	-0.08342726
5	0x3e16fa26	0.14743862
6	0xbdba3c5b	-0.09093543
7	0x3d7d3a95	0.061823446
8	0x3defeda8	0.11715251
9	0xbda41566	-0.08011894
10	0xbdc46ef3	-0.095914744
11	0xbc030f7f	-0.0079993
12	0xbda04b4d	-0.078268625
13	0x3cf48eaa	0.029853184
14	0x3d900cdf	0.07033705
15	0x3cd37490	0.025812417
16	0x3df9608e	0.121766195
17	0x3cc4f68e	0.024043348
18	0xbd5be96b	-0.0536894
19	0x3d52f978	0.051507443
20	0x3e16f131	0.14740445
21	0xbdbde363	-0.09271886
22	0x3cc4cbd5	0.024022976
23	0xbd702baa	-0.05863539
24	0xbd5711a7	-0.05250707
25	0x3d13b779	0.036063645
26	0x3db02ae6	0.08601932
27	0x3ca5fa37	0.020260913
28	0xbb56e8a9	-0.0032792485
29	0x3dbcf7b7	0.09226935
30	0x3db192c1	0.08670569
31	0xbdece9cd	-0.115680315
32	0x3de200f6	0.110353395
33	0x3d36c729	0.044623528
34	0x3d605915	0.054772455
35	0x3d389d91	0.045072142
36	0x3dac68ff	0.08418464
37	0xbe005cc7	-0.12535392
38	0x3dbbf4f3	0.0917758
39	0x3dc371ae	0.09543167
40	0xbc604cd9	-0.013690197
41	0x3e136a15	0.14395936
42	0x3e016f51	0.1264012
43	0x3bf4e9de	0.007474168
44	0xbd6a9dd0	-0.057279408
45	0xbce0a3d9	-0.027421879
46	0xbd3fd0ac	-0.046829864
47	0xbd18bf0d	-0.037291575
48	0xbdc7cf84	-0.09756377
49	0xbda913d8	-0.08255738
50	0xbc759254	-0.014988501
51	0x3dec6804	0.11543277
52	0xbd3e112c	-0.046403095
53	0xbc22ce09	-0.009936818
54	0x3e0fb284	0.14032942
55	0xbba57c06	-0.005050185
56	0x3c38a938	0.011270814
57	0xbc1d6b43	-0.009608093
58	0x3d71c501	0.05902577
59	0xbda424d2	-0.080148354
60	0x3d681563	0.05666102
61	0x3b277e7f	0.0025557575
62	0xbd677d87	-0.056516197
63	0xbe12397f	-0.14279746
64	0x3e4395fd	0.19100185
65	0x3d3a6a51	0.045511547
66	0xbde0f608	-0.10984427
67	0x3d9cf061	0.07663036
68	0xbc00a646	-0.007852143
69	0xbc09c270	-0.008408174
70	0x3c71f847	0.014768667
71	0xbdc2e97c	-0.0951719
72	0x3cb1a6b2	0.021685932
73	0x3dd71b1b	0.10503217
74	0xbd119a3e	-0.035547487
75	0x3d1b7430	0.037952602
76	0xbd4503df	-0.048099395
77	0x3d726705	0.05918028
78	0x3d142b8a	0.036174335
79	0x3d633d2e	0.055478267
80	0x3ddab776	0.10679524
81	0x3c8f3a1d	0.017483765
82	0x3d9876f9	0.07444567
83	0x37e394bb	2.7129767e-05
84	0x3b3cc8ef	0.002880629
85	0x3d59124e	0.052995972
86	0xbcbc0276	-0.022950392
87	0xbcc51381	-0.024057152
88	0x3da85891	0.08220018
89	0xbc11bd04	-0.0088951625
90	0xbc5c58af	-0.013448878
91	0x3e0321d9	0.1280588
92	0x3d03faf3	0.032221746
93	0x3d73c6b0	0.059515655
94	0xbcce458d	-0.025179649
95	0x3c93ed9e	0.01805764
96	0xbd270f7e	-0.04078626
97	0x3db8039f	0.08985066
98	0x3e17f9ab	0.14841335
99	0x3e15c13c	0.14624494
100	0x3cf6dbb8	0.030134067
101	0x3b9c7bdd	0.004775508
102	0x3c0c77b9	0.008573466
103	0x3dfb4d1c	0.12270567
104	0x3da6889f	0.08131527
105	0xbc6fe5cd	-0.014642191
106	0x3e0da7ae	0.13833496
107	0x3d1246ac	0.03571193
108	0x3db6ca9e	0.08925365
109	0xbd2f7981	-0.042840485
110	0xbd98b93e	-0.07457207
111	0x3c2a29fe	0.010385988
112	0xbcbd80ba	-0.02313267
113	0xbe11015e	-0.14160678
114	0xbdec6492	-0.1154262
115	0xbe0568aa	-0.13028207
116	0xbd9eb4b8	-0.07749313
117	0xbc781eaa	-0.01514403
118	0xbd978626	-0.07398634
119	0xbe28e27c	-0.16492647
120	0x3d8f44e9	0.069955654
121	0xbdf1353c	-0.11777732
122	0xbd0bade5	-0.034101386
123	0xbdd141d6	-0.10217635
124	0xbcd3ccf1	-0.02585456
125	0x3ce223ba	0.027604926
126	0xbde75211	-0.1129495
127	0x3df67b6b	0.12035259
128	0xbdf4f209	-0.11960227
129	0x3bc8a39d	0.00612302
130	0x3d187bb5	0.03722735
131	0xbcf2a041	-0.02961743
132	0x3de45188	0.11148363
133	0xbe0d8c96	-0.1382316
134	0x3dee3091	0.11630357
135	0xbda09115	-0.07840172
136	0xbe0ecb4d	-0.1394474
137	0xbc9cfa9f	-0.019162474
138	0x3e197fc1	0.1499014
139	0x3dd1858c	0.1023055
140	0x3db5a2c5	0.088689364
141	0x3c87c849	0.016574996
142	0xbe086774	-0.13320714
143	0x3c80908d	0.015693927
144	0xbdd9d3dd	-0.10636113
145	0xbd986c30	-0.0744251
146	0x3da968bc	0.082719296
147	0x3d98717b	0.0744352
148	0xbd7396d6	-0.05947002
149	0x3d8a97bd	0.06767223
150	0xbe2614fd	-0.16218944
151	0x3dafaac4	0.08577493
152	0x3b0e7e71	0.0021742845
153	0x3c8f27ed	0.017475093
154	0xbdfde0c0	-0.12396383
155	0x3c89aea9	0.016806917
156	0xbdaf717a	-0.08566566
157	0xbdb61281	-0.08890248
158	0xbd2ce733	-0.042212676
159	0x3d286bc6	0.041118406
160	0x3af2276d	0.0018474885
161	0x3db4be62	0.08825375
162	0xbd17deb4	-0.03707762
163	0xbd19690b	-0.037453692
164	0xbdcec92c	-0.10096964
165	0x3dac2885	0.08406166
166	0xbda13a2b	-0.07872423
167	0x3bb4db75	0.0055193254
168	0xba508a95	-0.00079552206
169	0xbbacbc84	-0.0052714963
170	0xbddcf0e6	-0.10788135
171	0xbe3f0ca2	-0.18657163
172	0x3cd80583	0.026369816
173	0x3de9d25e	0.114170775
174	0x3cbc3a08	0.02297689
175	0x3e4d339b	0.20039217
176	0x3d912b18	0.070882976
177	0xbc021c70	-0.00794135
178	0xbcf4ed36	-0.029898267
179	0xbe0a53ce	-0.13508531
180	0x3df02294	0.11725345
181	0x3dee837c	0.116461724
182	0xbd6e87b7	-0.058234897
183	0x3d1e7a59	0.0386909
184	0x3d8fd9fa	0.070239976
185	0x3cae7c7b	0.021299591
186	0xbe0b8a7c	-0.13627046
187	0xbc9d9077	-0.019233925
188	0xbe2d215a	-0.16907254
189	0x3daf8a16	0.0857126
190	0x3cd098e1	0.025463523
191	0x3d888d21	0.06667543
192	0xbe284126	-0.16431102
193	0xbdeeca7f	-0.11659717
194	0x3d8e918a	0.06961353
195	0xbe0a9425	-0.13533075
196	0xbd8c5435	-0.06851999
197	0xbd460611	-0.04834563
198	0xbc935e5c	-0.01798933
199	0xbcc0b051	-0.023521574
200	0xbc9ff41e	-0.019525584
201	0x3b8c670f	0.0042847465
202	0x3bb54450	0.005531825
203	0x3cf3b7b4	0.029750682
204	0x3dd044a2	0.10169341
205	0xbdd650a5	-0.104646005
206	0xbdc560a0	-0.096375704
207	0xbd15ed13	-0.036603045
208	0xbe0d054f	-0.13771556
209	0x3c19b266	0.009380912
210	0xbc8f1901	-0.017467977
211	0xbd2e9a73	-0.042627763
212	0x3d9cc20e	0.076542005
213	0x3cf2791d	0.029598767
214	0xbde02bc8	-0.109458506
215	0x3ceed7a4	0.02915556
216	0xbdaa26fc	-0.08308217
217	0x3b931a7e	0.004489242
218	0x3bb3a40b	0.005482202
219	0xbc01aad0	-0.00791426
220	0xbdeb4a86	-0.114888236
221	0xbd8bf60b	-0.06834038
222	0x3cdadfd6	0.026718061
223	0x3d0c5f21	0.03427041
224	0x3de51029	0.11184723
225	0xbd6f72a6	-0.058458947
226	0xbdaf1a86	-0.08549981
227	0xbda5e720	-0.08100724
228	0xbd9ba8bf	-0.07600545
229	0x3bcf5ede	0.0063284477
230	0x3d85eac5	0.06538919
231	0xbd5007a1	-0.050788525
232	0xbe035902	-0.12826923
233	0x3e137d8e	0.14403364
234	0xbd9595b7	-0.073039465
235	0xbcf6661c	-0.030077986
236	0xbe08a2ed	-0.13343401
237	0x3dbc2bc5	0.09188036
238	0x3db7c82e	0.08973728
239	0x3cfd7a2b	0.030942043
240	0x3da39f66	0.07989387
241	0xbd0e5d9f	-0.034757253
242	0xba9d5c73	-0.0012005701
243	0x3e0017cb	0.12509076
244	0x3dcdeaa4	0.1005452
245	0xbd8c4037	-0.068481855
246	0x3e37a6dd	0.17934747
247	0x3e1aee45	0.15129955
248	0xbd20cd0c	-0.039258048
249	0x3d9206b9	0.071301885
250	0x3e077a44	0.13230234
251	0x3e43545f	0.19075154
252	0x3cac9279	0.021065937
253	0xbd475ee5	-0.048674483
254	0x3d80edfb	0.06295391
255	0xbc3fadd9	-0.011699163

layers.2.bias f4 [64]
0	0x3d8e92bb	0.0696158
1	0x3ca95cf8	0.020674214
2	0x3d4599e9	0.048242483
3	0x3df80f6e	0.12112318
4	0xbd3c2460	-0.045933127
5	0x3de79510	0.11307728
6	0x3d5f138b	0.054461997
7	0xbcf0bfce	-0.029388335
8	0x3df84b75	0.12123767
9	0xbdf0575f	-0.11735415
10	0x3c3be4d8	0.011468135
11	0x3c103b64	0.008803222
12	0xbe09e6b3	-0.13466911
13	0x3d26af25	0.040694375
14	0xba80203f	-0.0009775235
15	0xbde8d92b	-0.113695465
16	0xbc5a76cb	-0.0133339865
17	0x3d62f997	0.05541381
18	0x3d7b8fd0	0.061416447
19	0x3d8de7dc	0.06928989
20	0x3dc2cbf4	0.09511557
21	0x3d953480	0.07285404
22	0x3be003e1	0.0068364
23	0x3d6f61df	0.058442947
24	0xbdb309eb	-0.08742126
25	0xbd32114f	-0.043473538
26	0x3c318852	0.010835724
27	0x3c0ea18f	0.008705511
28	0xbd6b9934	-0.057519153
29	0x3c9c3aec	0.019071065
30	0xbc8d2526	-0.017229628
31	0xbd88b642	-0.06675388
32	0x3c813e00	0.015776634
33	0x3d80ca40	0.06288576
34	0xbde0973b	-0.10966345
35	0x3d11da2f	0.035608467
36	0x3d14611c	0.036225423
37	0x3ba636c9	0.005072449
38	0x3d80f298	0.06296271
39	0x3d12ca5c	0.035837516
40	0xbd23240a	-0.03982929
41	0x3de8d4a1	0.11368681
42	0xbdae265c	-0.0850341
43	0xbdc3caeb	-0.09560188
44	0x3c16225b	0.009163464
45	0x3dc19a43	0.09453251
46	0x3da3d911	0.080003865
47	0x3da4aba4	0.0804055
48	0x3d4bf786	0.049796604
49	0x3ccb4f4f	0.02481809
50	0x3dc6cc84	0.09706977
51	0xbd573bd2	-0.052547283
52	0x3d8f6d4c	0.070032686
53	0xbd470197	-0.0485855
54	0x3ddd8fb2	0.10818423
55	0x3d2e2584	0.042516246
56	0x3e0f616d	0.14002009
57	0xbcdd0b44	-0.02698291
58	0x3c075876	0.008260837
59	0xbc8efe56	-0.017455261
60	0x3d0d6de7	0.03452864
61	0x3d434b34	0.04767914
62	0xbcb3628d	-0.021897579
63	0xbdd05041	-0.10171557

readout.weight f4 [1, 64]
0	0xbf288eab	-0.65842694
1	0x3f81eb47	1.0149926
2	0xbf416fab	-0.75561017
3	0xbf17236c	-0.59038424
4	0x3f32eeca	0.69895613
5	0xbf21b4a2	-0.6316625
6	0x3f89e261	1.077221
7	0xbf510c3d	-0.816593
8	0xbf4c839d	-0.79888326
9	0x3f396fa6	0.72435987
10	0xbf82b78b	-1.0212263
11	0xbf2957a5	-0.6614936
12	0x3f8acb10	1.084322
13	0xbf1347d2	-0.57531464
14	0xbf47200a	-0.7778326
15	0x3f3aeb03	0.7301485
16	0x3f8c5159	1.0962325
17	0x3f3bc875	0.7335275
18	0x3f107c5c	0.5643976
19	0xbf6a0371	-0.914115
20	0xbf241eea	-0.6410967
21	0xbf5255eb	-0.8216235
22	0x3f307d1b	0.68940896
23	0xbf1c452d	-0.61043054
24	0x3f239212	0.6389476
25	0x3f5b33c8	0.85625887
26	0xbf5956e8	-0.84898233
27	0x3f8659b0	1.049612
28	0x3f6eefdd	0.9333475
29	0x3f678627	0.90439075
30	0x3f0c9629	0.54916626
31	0x3f280122	0.6562673
32	0x3f42e50a	0.76130736
33	0xbf25674f	-0.6461076
34	0x3f1c5df0	0.6108084
35	0xbf10c316	-0.5654768
36	0xbf18a62c	-0.5962856
37	0x3f17c99c	0.59292006
38	0xbf6931d7	-0.91091675
39	0xbefec01f	-0.49755952
40	0x3f758c29	0.9591699
41	0xbf18d8d7	-0.5970587
42	0x3f6657c1	0.8997765
43	0x3f99a611	1.2003804
44	0xbf9862f2	-1.1905196
45	0xbf47c9e5	-0.7804244
46	0xbf238ab2	-0.6388351
47	0xbf6f690f	-0.9351968
48	0xbf2c0c89	-0.6720663
49	0x3f80b851	1.0056249
50	0xbf81c717	-1.0138882
51	0x3f17db1f	0.5931873
52	0xbf65be0d	-0.8974312
53	0x3f5f8204	0.87307763
54	0xbf8a65a5	-1.081227
55	0xbf4adf6c	-0.79247165
56	0xbf4e30d2	-0.80543244
57	0x3f73581a	0.9505631
58	0x3f039209	0.51394707
59	0x3f4b91df	0.79519457
60	0xbf683741	-0.9070931
61	0xbf6828ca	-0.9068724
62	0xbf784dc3	-0.96993655
63	0x3f685bf9	0.9076534

layers.0.weight f4 [128, 8]
0	0x3e0a3609	0.13497175
1	0xbe8a3184	-0.26990902
2	0x3ec9c137	0.39405224
3	0xbe7891bc	-0.24274343
4	0xbdd65092	-0.10464586
5	0xbe92c8ab	-0.28668723
6	0xbe528a0c	-0.20560473
7	0xbe4c5e8e	-0.19957945
8	0x3e4a4d97	0.1975616
9	0x3e252f93	0.1613143
10	0xbe9232f6	-0.28554505
11	0x3e3906a6	0.18068942
12	0x3eebac63	0.46029958
13	0x3e721528	0.23640883
14	0xbe5d3beb	-0.21604888
15	0xbec61ab9	-0.38692263
16	0x3e0d30d0	0.13788152
17	0xbdabc3b9	-0.083869405
18	0x3dd47425	0.10373715
19	0xbe3abe67	-0.18236695
20	0x3ea4f293	0.3221632
21	0x3ea0d258	0.3141048
22	0xbe5f2257	-0.21790443
23	0xbec242ab	-0.3794149
24	0x3e11e833	0.14248733
25	0x3e11bc8f	0.14232086
26	0x3dbd0668	0.092297375
27	0x3eb025f5	0.3440396
28	0xbefa5332	-0.48891598
29	0xbdab80c2	-0.08374168
30	0xbe20f6d1	-0.15719153
31	0xbe887943	-0.26655015
32	0xbdc27247	-0.09494453
33	0x3e19fa59	0.15036906
34	0x3ebd62a5	0.36989322
35	0x3e360923	0.17776923
36	0xbe6c4f7c	-0.23077196
37	0xbcbf03e8	-0.023317292
38	0x3e285fa3	0.16442733
39	0xbd4b74fd	-0.049672116
40	0x3de4ef40	0.11178446
41	0x3d88ee7d	0.06686113
42	0x3eab41bd	0.33448592
43	0x3d99fd7d	0.07519052
44	0xbe17395d	-0.14767976
45	0x3dc1a934	0.09456101
46	0xbe942755	-0.28936258
47	0x3d2f591b	0.042809587
48	0xbe45ffd5	-0.19335873
49	0x3e154fae	0.14581177
50	0x3e06ecc9	0.13176264
51	0xbed882f2	-0.42287403
52	0xbf0f0d18	-0.55879354
53	0x3ddb70d0	0.10714877
54	0xbdfd239e	-0.12360309
55	0x3ec9040d	0.39260903
56	0x3c04b927	0.008100784
57	0x3eb151de	0.34632772
58	0xbe76e974	-0.24112493
59	0x3e37f937	0.17966162
60	0xbe5dc262	-0.21656182
61	0xbe620ebf	-0.22075938
62	0xbe0ed9f5	-0.13950332
63	0x3dad9826	0.08476286
64	0xbd1bcb1e	-0.038035505
65	0xbd29f5a5	-0.04149403
66	0xbf02c49b	-0.51081246
67	0xbea7fd8a	-0.32810622
68	0x3ee567c8	0.4480574
69	0x3ea0d741	0.31414226
70	0x3d93d7d5	0.07218901
71	0xbdd225d9	-0.10261125
72	0x3d517fd0	0.051147282
73	0x3e67ab74	0.22623998
74	0x3de6a82f	0.11262547
75	0xbd85c899	-0.065324016
76	0xbea7688a	-0.32696944
77	0x3f07e652	0.53085816
78	0x3e37dee9	0.17956127
79	0x3ebf9aff	0.3742294
80	0xbe9cde51	-0.30638364
81	0x3eb594d4	0.3546511
82	0x3e168e4c	0.1470272
83	0x3e6fb94e	0.23410532
84	0x3d9438c6	0.07237391
85	0x3e7c7735	0.24654849
86	0x3e916553	0.28397617
87	0xbd307a96	-0.043085657
88	0x3ecdd67a	0.40202695
89	0x3eace9de	0.33772177
90	0x3e99b022	0.3001719
91	0x3ee6aeef	0.4505534
92	0x3f1b0149	0.60548836
93	0xbd9a4994	-0.07533565
94	0x3eacf2c9	0.3377898
95	0xbc492007	-0.012275702
96	0x3e203eb2	0.15648916
97	0x3ee1e257	0.44117996
98	0xbe946513	-0.28983364
99	0xbeab610c	-0.33472478
100	0x3eac642e	0.3367018
101	0x3ca38f21	0.01996571
102	0x3e2dfc6e	0.16990826
103	0xbe416b8b	-0.1888868
104	0xbe4bcaf4	-0.19901639
105	0x3e695ca7	0.2278925
106	0x3d226c41	0.03965402
107	0x3eb656e5	0.3561317
108	0x3df883a6	0.12134485
109	0x3f0e0f1b	0.554918
110	0xbe847cac	-0.25876367
111	0x3e4ba523	0.19887213
112	0x3ee1b292	0.4408155
113	0x3e2ffc18	0.1718601
114	0x3eb28b50	0.34871912
115	0xbd938ce0	-0.07204604
116	0x3ea115f0	0.3146205
117	0xbd2a3fad	-0.041564632
118	0x3e941fbf	0.2893047
119	0xbe1ea44c	-0.15492362
120	0xbd1b4a8e	-0.037912898
121	0x3e2b012c	0.16699666
122	0x3f06d214	0.52664304
123	0xbe623dbe	-0.22093865
124	0x3e61a073	0.22033863
125	0xbc8cf6d8	-0.017207548
126	0x3ed80d57	0.42197677
127	0x3ecb5c07	0.3971865
128	0x3d62e43a	0.055393435
129	0x3ed3b8d8	0.41351962
130	0x3debfa54	0.11522356
131	0xbe89ab7d	-0.26888648
132	0x3f0f26c6	0.5591854
133	0x3df7f5a4	0.12107399
134	0xbddde852	-0.10835327
135	0xbdb11f86	-0.08648591
136	0xbd0e2d3b	-0.034711104
137	0x3e5a07f1	0.21292092
138	0x3ec171c8	0.3778212
139	0x3ebbf1dd	0.36707965
140	0xbedb1da4	-0.42796052
141	0x3e73d659	0.23812236
142	0x3d21b112	0.039475508
143	0x3ebc6a87	0.36800024
144	0x3e17a648	0.14809525
145	0x3e6c31e2	0.23065904
146	0xbc76799d	-0.015043643
147	0xbe36b9aa	-0.17844263
148	0xbe54cc7d	-0.20781131
149	0x3eefc898	0.46832728
150	0x3e3424b8	0.17592132
151	0xbe26856a	-0.16261831
152	0xbe407c3f	-0.18797396
153	0x3e8377bf	0.25677297
154	0x3ef91012	0.48645073
155	0xbec62d90	-0.38706636
156	0xbf281e17	-0.65670913
157	0x3e910310	0.2832265
158	0xbdbcdbc0	-0.092216015
159	0x3efbc3a3	0.49172696
160	0x3e917d8e	0.28416103
161	0xbca2f2c1	-0.019891145
162	0x3ee10a55	0.43953195
163	0xbe56364c	-0.2091915
164	0x3df73a66	0.120716855
165	0x3ee09bd3	0.43868884
166	0xbdc14198	-0.09436339
167	0x3e9543db	0.29153332
168	0x3e497cda	0.19676533
169	0x3c3b7914	0.0114424415
170	0x3ec90a8f	0.39265868
171	0x3eeabcaf	0.4584708
172	0x3c958b47	0.01825489
173	0xbe9c3aac	-0.30513513
174	0xbe9677ac	-0.29388177
175	0x3e595d21	0.21226932
176	0x3ed3c431	0.4136062
177	0x3e83083a	0.25592214
178	0x3ebfaebb	0.37437996
179	0x3d96a25d	0.07355187
180	0xbe88ef6c	-0.26745164
181	0xbed0a3ff	-0.4075012
182	0xbe1ba94b	-0.15201299
183	0xbc35a11c	-0.011085775
184	0x3e5e5272	0.21711138
185	0xbc3a32f6	-0.011364689
186	0xbd9163b5	-0.07099096
187	0x3e4c24a4	0.19935852
188	0xbedaaedf	-0.4271154
189	0xbe63db4e	-0.22251627
190	0x3e061e38	0.13097465
191	0x3bbe9d4c	0.005817091
192	0x3e3d6597	0.18495785
193	0x3e9e15b6	0.3087594
194	0x3eb8c594	0.3608824
195	0x3d9e2aa9	0.077229805
196	0xbe23b0e2	-0.15985444
197	0x3c8704c5	0.016481766
198	0x3e2bc825	0.16775568
199	0x3d6e454c	0.058171555
200	0x3e421f83	0.18957333
201	0xbe95b2fb	-0.29238114
202	0xbda3cfa2	-0.07998587
203	0xbda97220	-0.08273721
204	0x3ef24b65	0.47323146
205	0x3e9a5ebf	0.3015041
206	0x3dffa39a	0.124823764
207	0xbf01cc01	-0.5070191
208	0xbe886bfb	-0.26644883
209	0x3e53b928	0.206761
210	0x3ea261d1	0.31715253
211	0xbed7c36f	-0.42141291
212	0x3ed5590e	0.41669506
213	0x3ea45d32	0.32102352
214	0x3ba2aa35	0.004964138
215	0xbd4daf5a	-0.050216056
216	0x3ca8773d	0.02056467
217	0x3e5f84ca	0.21827999
218	0xbca0d888	-0.0196345
219	0x3ec2aec8	0.38023973
220	0xbec0ce12	-0.3765722
221	0x3b436719	0.002981609
222	0xbe0ddf0a	-0.13854614
223	0x3dc1771f	0.09446549
224	0xbe9c1a55	-0.3048884
225	0x3ea84513	0.328652
226	0x3e35fc8d	0.17772122
227	0x3decec70	0.115685344
228	0xbed28b20	-0.4112177
229	0x3f2a5fd8	0.66552496
230	0x3d673193	0.056443762
231	0xbe0a3163	-0.13495402
232	0xbcea4594	-0.02859763
233	0x3dfc1a05	0.1230965
234	0x3cab7229	0.02092846
235	0xbda9d5f3	-0.08292761
236	0xbf3dc868	-0.7413392
237	0xbcc22c33	-0.023702716
238	0xbe52c7c6	-0.2058402
239	0x3e4c448f	0.19948028
240	0x3ce3bd65	0.027800271
241	0x3ebed96f	0.37275264
242	0xbdc9e9f6	-0.09859078
243	0xbd8ec571	-0.06971253
244	0x3cdaa04c	0.026687764
245	0xbec89e9e	-0.39183515
246	0x3ea2f1b9	0.31825045
247	0xbd83f59e	-0.06443332
248	0x3db31d18	0.087457836
249	0xbd52d0c7	-0.051468637
250	0x3ec0aa8d	0.3763012
251	0x3eeec82d	0.46637097
252	0x3dc161c5	0.09442476
253	0x3cf7bc43	0.030241137
254	0xbcda9e76	-0.026686888
255	0xbe738096	-0.2377952

layers.0.bias f4 [128]
0	0x3cf9b348	0.030480996
1	0x3e0d61fb	0.13806908
2	0x3bee3ce1	0.007270441
3	0x3e428130	0.18994594
4	0xbe8a0060	-0.2695341
5	0x3eab5438	0.3346269
6	0xbe68d9c8	-0.22739327
7	0x3ce52c06	0.027975094
8	0xbd747230	-0.05967921
9	0xbe0c71f4	-0.13715345
10	0x3e598e61	0.2124572
11	0xbe5a59f3	-0.21323375
12	0xbdb73220	-0.089451075
13	0x3e153698	0.14571607
14	0xbda88a8f	-0.08229553
15	0xbdccac27	-0.09993773
16	0xbe516972	-0.2045038
17	0xbe412f89	-0.1886579
18	0xbe42e742	-0.1903353
19	0xbe28762f	-0.16451333
20	0xbc6eaf5d	-0.014568177
21	0x3e51d446	0.20491132
22	0xbe4d2a6f	-0.20035718
23	0x3ecc6fe2	0.3992911
24	0x3ea1eca2	0.3162585
25	0x3e73ae8c	0.23797053
26	0xbdea23ee	-0.11432634
27	0x3dac99d3	0.08427777
28	0x3ddc9cff	0.10772132
29	0x3da56d22	0.08077456
30	0xbe16c6ca	-0.1472427
31	0x3e934e48	0.2877066
32	0x3dda9187	0.106722884
33	0x3e13a49b	0.14418261
34	0xbe19a673	-0.15004902
35	0xbe44d3c5	-0.19221409
36	0x3ea6a7cd	0.32549897
37	0x3e50cb2c	0.20390004
38	0x3e5fe013	0.21862821
39	0x3da24ed7	0.07925194
40	0x3e89b819	0.26898268
41	0xbea49b9a	-0.32149965
42	0xbd5f1b59	-0.05446944
43	0x3e9c888d	0.3057293
44	0x3ce350dc	0.027748518
45	0x3e4b8fb5	0.19879039
46	0xbe119fe7	-0.14221154
47	0xbe5718b6	-0.2100552
48	0x3db0d492	0.086342946
49	0x3d859188	0.065218985
50	0xbe3f35a7	-0.1867281
51	0x3e5e1a34	0.21689683
52	0x3ec79dec	0.38987672
53	0x3e0dceb2	0.13848379
54	0x3dfc5d7d	0.12322519
55	0x3e6e3308	0.23261654
56	0x3e451f54	0.19250232
57	0xbe917167	-0.28406832
58	0x3d3ef4b1	0.046620075
59	0x3ec88027	0.39160272
60	0xbd7cc446	-0.06171062
61	0x3e44ee44	0.19231516
62	0x3da62599	0.0811264
63	0x3cfa7c2a	0.030576784
64	0x3e887f87	0.26659796
65	0x3e65ed1f	0.22453736
66	0xbe64b174	-0.22333318
67	0x3ce9f9d3	0.028561508
68	0xbe369283	-0.17829327
69	0xbd80e161	-0.062929876
70	0x3e64496c	0.22293633
71	0x3dcf8c04	0.10134128
72	0x3dec320b	0.115329824
73	0xbdbe64d6	-0.09296577
74	0xbe3b836c	-0.18311852
75	0x3debb585	0.115092315
76	0x3ebbea2e	0.36702102
77	0x3d38c944	0.045113817
78	0xbd01743d	-0.031604994
79	0xbe545dbe	-0.20738885
80	0x3cc756a2	0.024333302
81	0xbe455433	-0.192704
82	0x3e224a27	0.158486
83	0x3e442c42	0.19157508
84	0xbca1c7c4	-0.019748576
85	0xbe697bc5	-0.2280112
86	0xbdb977da	-0.09056063
87	0x3ef2f1ce	0.47450107
88	0xbe6baa2a	-0.23014131
89	0xbe5e3642	-0.21700385
90	0xbe5650e4	-0.20929295
91	0x3eb42324	0.3518306
92	0x3ebd6a44	0.36995137
93	0x3e91f546	0.2850744
94	0x3e804805	0.25054947
95	0x3c94b977	0.018154843
96	0xbda07d18	-0.0783636
97	0x3e5b2957	0.21402489
98	0x3e18c34a	0.14918247
99	0x3c5f6a7b	0.013636227
100	0x3e1d2153	0.15344743
101	0xbec36b08	-0.38167596
102	0x3db1869e	0.08668254
103	0xbe5313d4	-0.20613033
104	0xbe4caf62	-0.19988778
105	0xbd5f8ee9	-0.05457965
106	0xbdd7b998	-0.10533446
107	0x3d04076f	0.03223365
108	0xbdacccad	-0.08437476
109	0xbe15f405	-0.14643867
110	0x3e6babd2	0.23014763
111	0xbe38918e	-0.18024275
112	0x3d8fb9cc	0.0701786
113	0x3db2b75d	0.0872638
114	0xbe719db8	-0.23595321
115	0xbe84a826	-0.25909537
116	0xbe120224	-0.14258629
117	0xbd0faff6	-0.03507992
118	0xbe3478df	-0.17624234
119	0xbcb1c026	-0.021698069
120	0x3e7b6e48	0.24553788
121	0x3e87062d	0.263719
122	0x3e163a1f	0.14670609
123	0x3e68e7cb	0.22744672
124	0x3ece683f	0.40313908
125	0x3e910ebb	0.2833155
126	0x3eaf087b	0.34186158
127	0xbe3e30f2	-0.18573359

layers.1.weight f4 [128, 128]
0	0x3efc3053	0.49255618
1	0xbdc523d4	-0.09625974
2	0xbe836d15	-0.2566916
3	0x3d701347	0.058612134
4	0x3ed96d64	0.4246627
5	0x3c7780f8	0.015106432
6	0xbcdf0523	-0.027224129
7	0xbdeacb38	-0.11464542
8	0x3e2a4358	0.16627252
9	0xbddaa1dc	-0.106754035
10	0xbc62c689	-0.01384128
11	0x3d377ba1	0.044795636
12	0xbe91094f	-0.28327414
13	0x3e31d70e	0.17367193
14	0xbe5a1370	-0.21296477
15	0xbd83e2c6	-0.06439738
16	0xbea29758	-0.3175609
17	0x3edfbcaa	0.43698627
18	0xbe00e58d	-0.12587567
19	0x3d2839cc	0.041070744
20	0xbe09c41a	-0.13453713
21	0x3de52a75	0.11189739
22	0x3d1244c4	0.03571011
23	0xbbcea3cf	-0.0063061486
24	0xbdfeb49f	-0.124367945
25	0xbe44d7a6	-0.19222888
26	0xbeb5215b	-0.3537701
27	0x3de9081b	0.11378499
28	0xbe0bf10e	-0.13666174
29	0x3c0288b5	0.007967164
30	0xbe8747d4	-0.26421988
31	0x3d9e5a26	0.07732038
32	0x3ed2124a	0.41029578
33	0x3dc25c15	0.094902195
34	0xbe0f0db5	-0.13970073
35	0x3e70ae5c	0.23504013
36	0x3db1de87	0.08685022
37	0x3daa0afb	0.083028756
38	0x3e63ca02	0.22245029
39	0x3ccc40da	0.024933267
40	0xbdb690fc	-0.08914372
41	0x3e0f4da3	0.1399446
42	0x3dc86623	0.09785106
43	0xbdb113e2	-0.086463705
44	0xbe49bdc9	-0.19701304
45	0x3dbd0b9b	0.09230729
46	0xbe911c54	-0.28341925
47	0xbd23b2ef	-0.039965566
48	0xbd37a71e	-0.04483711
49	0x3e0c834f	0.13721965
50	0x3d7e0008	0.06201175
51	0x3e605d15	0.21910508
52	0xbdf78289	-0.120854445
53	0xbd34361d	-0.04399692
54	0x3e1a100b	0.15045182
55	0x3e1fd93b	0.1561021
56	0xbda3b2c4	-0.07993081
57	0x3e4fe0f2	0.20300654
58	0xbf0cd2fd	-0.5500944
59	0x3c130c2a	0.008975068
60	0x3eb7c9f0	0.35896254
61	0x3d9c5dfe	0.07635115
62	0xbdc05e3e	-0.09392975
63	0xbd87d1be	-0.06631802
64	0x3c5cf35c	0.013485756
65	0xbd811883	-0.06303503
66	0x3bb5c732	0.0055474276
67	0xbe88ca3f	-0.26716802
68	0xbeab5ab3	-0.33467636
69	0x3cd5e2b1	0.026109071
70	0x3d8b422b	0.0679973
71	0xbe04765d	-0.12935777
72	0xbe992edb	-0.2991856
73	0x3c82f4d9	0.015985893
74	0x3eddc698	0.43315578
75	0xbe854f85	-0.2603723
76	0xbe243613	-0.16036253
77	0xbe65303a	-0.22381678
78	0x3e9497ae	0.29021972
79	0xbe2a5b52	-0.16636398
80	0x3ea2ba1b	0.31782612
81	0x3ec544c7	0.38529035
82	0xbe6ec843	-0.23318581
83	0xbb752f13	-0.0037412092
84	0x3e67a28d	0.22620602
85	0xbecae307	-0.39626333
86	0xbc4ad13b	-0.012378986
87	0x3ea0497b	0.3130606
88	0x3e274d19	0.16338004
89	0x3e9dd4a2	0.30826288
90	0xbf005356	-0.5012716
91	0x3d438053	0.0477298
92	0xbd53d5c5	-0.05171754
93	0xbc4add9c	-0.012381937
94	0x3d1b553b	0.03792308
95	0x3ed98e6e	0.42491478
96	0xbe1bbce4	-0.15208775
97	0xbe794501	-0.24342729
98	0x3e4ea014	0.20178252
99	0x3ddcb9d7	0.10777634
100	0xbe80dc5e	-0.25168127
101	0x3dc414f6	0.095743105
102	0x3e7353fa	0.23762503
103	0xbd8ffdb9	-0.07030816
104	0xbe43e1c6	-0.19129094
105	0x3bceed3d	0.006314902
106	0x3e5ad33b	0.2136964
107	0xbe8c87ce	-0.2744736
108	0xbe2374bd	-0.15962501
109	0x3e191de0	0.14952803
110	0x3c915aab	0.01774343
111	0x3ec41d01	0.38303378
112	0xbec4eefa	-0.38463575
113	0x3ce2c463	0.027681535
114	0x3e8f983e	0.2804584
115	0x3e9061a2	0.28199488
116	0x3de0d742	0.10978557
117	0xbe96b27d	-0.2943305
118	0x3e05794e	0.13034555
119	0x3ed40123	0.41407117
120	0xbe60d1f8	-0.21955097
121	0x3e43d05f	0.19122456
122	0xbe0bc076	-0.13647637
123	0xbe152677	-0.14565454
124	0x3ee43236	0.44569558
125	0x3d9b924e	0.07596265
126	0xbe565541	-0.2093096
127	0xbeee2b00	-0.4651718
128	0x3d778224	0.060426846
129	0x3cd3688e	0.025806691
130	0x3dc809bb	0.09767481
131	0x3dcfbc6b	0.1014336
132	0x3e847690	0.25871706
133	0x3d62997f	0.055322167
134	0xbe322627	-0.17397366
135	0x3d3a6f16	0.045516096
136	0x3e845325	0.25844684
137	0xbe264f65	-0.16241224
138	0x3bc7a006	0.0060920743
139	0x3d487bd1	0.048946206
140	0xbdc6eae1	-0.09712768
141	0x3d54328d	0.05180602
142	0x3d856cde	0.065149054
143	0xbd647b72	-0.05578179
144	0x3b64f491	0.0034935812
145	0x3e9a03ff	0.30081174
146	0xbde02792	-0.109450474
147	0xbcc1f62d	-0.023676956
148	0xbcd18f32	-0.025580976
149	0x3dfa5d06	0.12224774
150	0x3cd47b4f	0.025937704
151	0x3d90a4e2	0.07062699
152	0xbdbcc86f	-0.09217917
153	0x3d23e0e3	0.04000939
154	0xbd70ef69	-0.05882207
155	0x3dcdce82	0.10049154
156	0xbc3f5040	-0.011676848
157	0xbe8db8da	-0.27680093
158	0x3d3c6e24	0.046003476
159	0x3cb9ac88	0.022665277
160	0x3ec577a0	0.3856783
161	0xbce6497d	-0.028111214
162	0x3e861ec7	0.26195356
163	0x3e49d8bb	0.19711582
164	0x3ba6962c	0.00508382
165	0x3c6ffca8	0.01464764
166	0x3e513f98	0.20434415
167	0xbdd64915	-0.10463158
168	0x3c89ec07	0.01683618
169	0x3e418e94	0.18902045
170	0x3e85c979	0.26130274
171	0xbcba1a37	-0.022717578
172	0x3dab5313	0.083654545
173	0xbd9192d9	-0.07108087
174	0xbd652538	-0.055943698
175	0x3da4b5b3	0.08042469
176	0xbe771cc1	-0.24132062
177	0xbdc710f8	-0.097200334
178	0x3ed32609	0.41239956
179	0x3e2d1be7	0.16905175
180	0xbdca5736	-0.098799154
181	0x3dae3be1	0.08507515
182	0x3d87dac0	0.0663352
183	0x3e3826da	0.1798357
184	0xbcd2a4d7	-0.025713367
185	0x3e318a3c	0.17337888
186	0xbda777d0	-0.08177149
187	0xbe33dd45	-0.17564876
188	0x3e1020cf	0.14075015
189	0x3e7fb3f0	0.24970984
190	0xbd4cb4a7	-0.04997697
191	0xbd2e3f4d	-0.042540837
192	0x3bd5ad57	0.006520908
193	0x3d57017c	0.05249165
194	0x3e9ed428	0.31021237
195	0x3d1c3529	0.038136635
196	0x3e7cca76	0.24686608
197	0x3dd99cc9	0.106256075
198	0xbd08413f	-0.03326535
199	0xbe7af1d4	-0.24506313
200	0xbe17a7b1	-0.14810063
201	0x3e664e4a	0.22490802
202	0x3d7d518d	0.06184535
203	0xbde30590	-0.11085045
204	0x3c84d21d	0.016213471
205	0xbd47de55	-0.048796017
206	0x3ee11dae	0.43967956
207	0x3d179d3b	0.03701518
208	0x3e4c0054	0.19922
209	0x3eb1fdef	0.34764048
210	0xbbc7b072	-0.006094032
211	0xbe557145	-0.2084399
212	0xbcdbe589	-0.02684285
213	0xbcae9b52	-0.021314297
214	0x3c81a204	0.015824325
215	0x3cb3c64b	0.02194514
216	0x3e126c8e	0.14299223
217	0x3e317acc	0.17332
218	0x3cd8d304	0.026467808
219	0xbe015678	-0.12630641
220	0xbd7de011	-0.061981265
221	0x3c766062	0.015037628
222	0xbc8fefa1	-0.017570319
223	0x3cb1bff8	0.021697983
224	0xbdf86fc2	-0.12130691
225	0xbdd891ae	-0.10574661
226	0x3e2b37bf	0.16720484
227	0xbde5e378	-0.11225027
228	0xbe11b1b5	-0.14227946
229	0x3eae9a71	0.34102204
230	0x3e0d312a	0.13788286
231	0x3f069818	0.52575827
232	0xbc5ca52e	-0.013467116
233	0xbe371ff2	-0.1788328
234	0x3e9bfea4	0.30467713
235	0xbd8a04c2	-0.06739189
236	0x3da9ce14	0.082912594
237	0x3f0251d4	0.5090611
238	0xbe108156	-0.14111838
239	0x3e27be83	0.16381268
240	0xbe02f255	-0.12787755
241	0x3df45ec3	0.11932137
242	0x3ed31ff4	0.41235316
243	0x3e4c000e	0.19921896
244	0xbdc79cdb	-0.09746715
245	0x3dad2adc	0.084554404
246	0x3e410a08	0.18851483
247	0x3dfaf929	0.12254555
248	0xbda05bdc	-0.07830021
249	0xbe014415	-0.12623627
250	0xbcc2da3b	-0.023785701
251	0xbdd79a71	-0.10527504
252	0x3e3ddecc	0.18542022
253	0x3d80339b	0.06259843
254	0x3cdeb6cb	0.027186772
255	0x3e815c69	0.25265816
