Gym-DDPG-solution/results/DDPG_HalfCheetah-v4_4000-eps0.5-t32-l0.0001-s1.pth (torch, 193979 bytes, 13 tensors)

layers.0.weight f4 [128, 23]
0	0x3f01ca07	0.50698894
1	0xbe89caac	-0.2691244
2	0xbe3c419c	-0.18384403
3	0xbe63755f	-0.22212742
4	0xbe4036f7	-0.18770967
5	0x3ea3a16f	0.31959102
6	0xbcd416a5	-0.025889704
7	0x3d0bdc66	0.034145735
8	0x3e67f67f	0.22652625
9	0xbd3092d8	-0.04310879
10	0x3d488264	0.048952475
11	0x3c110883	0.008852127
12	0x3d3b6b4f	0.045756634
13	0xbc4dcd4e	-0.0125611555
14	0xbc80eab6	-0.015736919
15	0x3bb1d7aa	0.0054273205
16	0xbba14564	-0.004921602
17	0x396a2994	0.00022331468
18	0x3ce24453	0.02762047
19	0x3cc373eb	0.023858985
20	0xbd2f9d52	-0.04287464
21	0xbb21437e	-0.002460688
22	0xbd05fab9	-0.03270981
23	0x3dcee3fb	0.101020776
24	0xbe897590	-0.26847506
25	0xbee61cab	-0.44943747
26	0xbe144e71	-0.14483048
27	0xbda4ccf4	-0.08046904
28	0xbe5feecb	-0.21868436
29	0x3c54c505	0.012986426
30	0x3e1e989f	0.15487908
31	0xbeb794e2	-0.35855776
32	0x3d653e91	0.05596787
33	0xbe8a21e5	-0.26978984
34	0xbd9cdba9	-0.07659084
35	0xbd1c4a08	-0.03815654
36	0x3cf6a13b	0.030106178
37	0xbd4d0af8	-0.05005929
38	0xbc2cb339	-0.010540777
39	0x3c8ddc00	0.017316818
40	0x3d819888	0.06327921
41	0xbddbea0d	-0.10738001
42	0x3e9a391e	0.30121702
43	0xbdac24f5	-0.084054865
44	0x3c5fd01f	0.01366046
45	0x3e47ad33	0.19499664
46	0x3df74f78	0.12075704
47	0x3caaf56a	0.020868976
48	0xbeb5f41e	-0.3553781
49	0xbcda7b9f	-0.026670275
50	0xbe1717ac	-0.14755124
51	0xbdee7a37	-0.116444044
52	0x3d495de4	0.049161807
53	0x3ca22957	0.019795103
54	0xbd9eb32a	-0.077490166
55	0x3e078a71	0.13236405
56	0xbce8116d	-0.028328622
57	0xbcf46126	-0.02983148
58	0x3c13697b	0.0089973165
59	0xbaed16ee	-0.0018088499
60	0xbc3e0ef1	-0.011600242
61	0xbb98a2be	-0.0046580723
62	0x3c8cb875	0.0171778
63	0x3df3d397	0.11905592
64	0xbe7aada5	-0.24480303
65	0xbd6752fc	-0.056475624
66	0xbd096196	-0.03354033
67	0xbd72a816	-0.05924233
68	0xbe31090c	-0.17288607
69	0xbf1b944a	-0.60773146
70	0x3e27a0c3	0.1636992
71	0xbe6f67cd	-0.2337944
72	0xbe79b6f0	-0.24386191
73	0x3e24aa2d	0.16080542
74	0x3e9f64c3	0.31131563
75	0xbd83dbd8	-0.06438416
76	0x3d1d4c54	0.03840287
77	0x3eb8f136	0.3612153
78	0xbe9c7c16	-0.3056342
79	0x3ce071a1	0.027397932
80	0xbd0dc8cb	-0.03461532
81	0xbcd4e4dc	-0.025988035
82	0x3b40896f	0.0029378792
83	0xbba6ac39	-0.0050864485
84	0xbcb46e71	-0.022025319
85	0xbb8426f7	-0.0040329653
86	0xbefbc9b8	-0.49177337
87	0x3de991ee	0.11404787
88	0xbdd4c4a8	-0.10389072
89	0x3de5a7c6	0.11213641
90	0x3d41b09c	0.04728757
91	0xbd9615cc	-0.07328376
92	0x3e179781	0.14803888
93	0xbdc8fddf	-0.09814047
94	0x3ece1f36	0.40258187
95	0x3ef90114	0.48633635
96	0x3ea5f08d	0.32410088
97	0xbeb144af	-0.34622714
98	0x3d4d800a	0.050170936
99	0xbe4e11af	-0.20123933
100	0x3ed20cb8	0.4102533
101	0x3e940ecf	0.28917548
102	0x3e6eeb6d	0.23331995
103	0x3d9baa72	0.07600869
104	0x3d60a9d4	0.05484946
105	0xbcd8b1b5	-0.026451925
106	0x3d6172be	0.055041067
107	0x3c9c1a0c	0.019055389
108	0x3cf2ccb2	0.029638622
109	0x3d92b21a	0.071628764
110	0xbd4098fb	-0.047020894
111	0x3dfb1160	0.122591734
112	0x3ecd9371	0.4015155
113	0xbd9ec52e	-0.07752453
114	0x3cc465ba	0.023974288
115	0x3f1d17d0	0.6136446
116	0x3da85f1b	0.08221265
117	0x3e6843bc	0.22682089
118	0x3d0713fa	0.032978036
119	0xbe24a8e3	-0.1608005
120	0xbdf6e11d	-0.12054656
121	0xbdd9ae47	-0.10628944
122	0x3dfcd10b	0.12344559
123	0xbebddb76	-0.37081498
124	0x3dbd0974	0.09230319
125	0x3e06adce	0.13152239
126	0xbd34716f	-0.04405349
127	0xbd1bd339	-0.038043234
128	0x3b63a70c	0.003473702
129	0x3d77c168	0.06048718
130	0x3d8787bd	0.06617687
131	0x3c825b33	0.015912628
132	0x3e60b484	0.21943861
133	0xbd81d514	-0.063394696
134	0x3c8c1859	0.017101454
135	0x3ee81af8	0.45333076
136	0x3d5df0b7	0.05418464
137	0xbd2aadae	-0.04166954
138	0xbcbe07ad	-0.02319702
139	0xbe90461b	-0.28178486
140	0xbe93b249	-0.28846958
141	0xbb742227	-0.0037251802
142	0x3c861beb	0.016370734
143	0x3f1a6558	0.6031089
144	0x3f1ae40d	0.6050423
145	0x3e7fd2f7	0.2498282
146	0x3e127516	0.14302477
147	0xbce20a79	-0.027592884
148	0xbdb60246	-0.088871524
149	0x3d63c1d5	0.055604775
150	0x3c7547f1	0.014970765
151	0x3d74ff15	0.059813578
152	0xbd5ef956	-0.054437004
153	0x3d58c644	0.052923456
154	0xbc50c2db	-0.01274177
155	0xbe2dd37e	-0.16975209
156	0xbb992e04	-0.004674675
157	0xbc93bdf9	-0.018034922
158	0x3e56b3bc	0.20967
159	0x3cf14606	0.029452335
160	0xbd063646	-0.032766603
161	0x3e7fb2b5	0.24970515
162	0x3d24222f	0.040071663
163	0x3ea9d2fd	0.33168784
164	0xbe6bdfc9	-0.23034586
165	0x3dce19e3	0.10063531
166	0x3d734ed5	0.059401352
167	0xbd6bda2f	-0.057581123
168	0xbe82cf17	-0.25548622
169	0xbdaf6a05	-0.085651435
170	0xbe29f05d	-0.16595598
171	0x3e82cc41	0.25546458
172	0x3c3cc729	0.011522093
173	0x3d426ee2	0.047469027
174	0xbb1dd829	-0.002408514
175	0x3e1c9687	0.15291797
176	0x3d826486	0.063668296
177	0x3c35e683	0.011102322
178	0xbe0ef486	-0.13960466
179	0x3e17b0a3	0.14813475
180	0xbe1a37d8	-0.15060365
181	0x3db5e80f	0.08882152
182	0xbe2d3861	-0.16916038
183	0xbd29784f	-0.0413745
184	0xbe91df62	-0.2849074
185	0x3f6a7205	0.9158023
186	0xbebb2711	-0.36553243
187	0xbea69db2	-0.32542187
188	0xbdd1b522	-0.102396265
189	0xbf013cf6	-0.50483644
190	0x3c7c9020	0.015415221
191	0x3debec09	0.115196295
192	0x3da20db1	0.07912768
193	0x3e877d87	0.26462957
194	0x3e6c56f8	0.23080051
195	0xbd9d42a1	-0.07678724
196	0x3da653af	0.0812143
197	0xbd5a5f8b	-0.053313773
198	0x3d8c36d4	0.06846395
199	0xbb74fb7c	-0.0037381342
200	0x3ce4a7c5	0.02791203
201	0xbddd2e72	-0.10799874
202	0x3e05a01e	0.13049361
203	0xbdff9599	-0.12479705
204	0xbcb1c1fd	-0.021698946
205	0xbd14d8d8	-0.03633961
206	0xbc3fad7f	-0.01169908
207	0x3f1015e7	0.5628342
208	0x3d5783bd	0.05261587
209	0x3d99e65d	0.075146414
210	0x3f03c5a7	0.5147347
211	0x3d7b012a	0.061280407
212	0xbf56dd74	-0.8393166
213	0xbd8da759	-0.06916685
214	0x3d1a7033	0.037704658
215	0x3e5b014f	0.21387218
216	0x3f348657	0.70517486
217	0xbec76905	-0.3894731
218	0xbce146e4	-0.027499624
219	0x3db7b1c5	0.08969454
220	0xbc9b0c87	-0.018926872
221	0x3d7277a5	0.059196133
222	0xbd4614fc	-0.048359856
223	0xb90b51be	-0.00013286524
224	0xbcdd97c5	-0.027049908
225	0xbc3fda00	-0.01170969
226	0xbcd56bbb	-0.026052346
227	0x3e447694	0.19185859
228	0x3c84ed1e	0.016226348
229	0x3bff85c5	0.007797929
230	0xbe16559a	-0.14681092
231	0xbf244950	-0.64174366
232	0x3ef79722	0.48357493
233	0x3e73f6ef	0.23824666
234	0xbe92a4f6	-0.2864148
235	0xbdefd181	-0.117098816
236	0x3d75eb71	0.060038988
237	0x3d1cecbe	0.038311712
238	0x3ead57b5	0.33855978
239	0xbee4e3c7	-0.4470503
240	0xbebe5aaa	-0.37178546
241	0x3cc403ef	0.023927657
242	0x3d5dfd7f	0.05419683
243	0xbcd7a160	-0.026322067
244	0xbd5aa27c	-0.053377613
245	0x3c8e42e4	0.01736588
246	0xbae95535	-0.0017801883
247	0xbcba0b5d	-0.022710497
248	0x3d95667e	0.072949395
249	0x3db5c14e	0.088747606
250	0x3e0abe05	0.13549049
251	0x3d3094f7	0.043110814
252	0xbd56968b	-0.052389663
253	0x3f17d4b8	0.5930896
254	0xbe8f4751	-0.27984098
255	0xbf010849	-0.5040327

layers.0.bias f4 [128]
0	0x3cb185df	0.02167028
1	0xbd8051c9	-0.06265599
2	0xbedcfd7f	-0.43162152
3	0xbe4e1a99	-0.20127334
4	0xbe4fbcea	-0.20286909
5	0xbe4ee671	-0.20205094
6	0x3e3c0dd3	0.18364649
7	0xbeac58fa	-0.33661634
8	0x3e0302cc	0.12794036
9	0xbebfcb26	-0.37459677
10	0xbe1babb8	-0.15202224
11	0xbe7364ae	-0.23768875
12	0xbe82fb8a	-0.25582534
13	0xbe9dc077	-0.30810902
14	0x3e292410	0.16517663
15	0x3e62f09c	0.22162098
16	0x3e92c4a6	0.28665656
17	0xbeb4871a	-0.35259324
18	0xbeb30aa6	-0.34969062
19	0xbd3a5e44	-0.045500055
20	0x3e84896f	0.25886104
21	0x3e130516	0.14357409
22	0xbe29e267	-0.16590272
23	0xbe893ada	-0.26802713
24	0xbe6cbe76	-0.2311953
25	0xbe1e2279	-0.15442838
26	0xbdf9d98d	-0.12199698
27	0x3dbc1956	0.0918452
28	0x3e9c5253	0.30531558
29	0x3d0e118b	0.0346847
30	0x3dcc36eb	0.09971412
31	0xbe50829a	-0.2036232
32	0xbc3025b9	-0.010751181
33	0x3d3b9efa	0.04580591
34	0xbe9cd340	-0.3062992
35	0xbce944d7	-0.028475208
36	0xbeab3ea5	-0.3344623
37	0x3e5d21b0	0.21594882
38	0x3e3f191d	0.18661924
39	0xbdffefa3	-0.12496879
40	0xbe5d691b	-0.21622126
41	0xbdb32790	-0.0874778
42	0xbd36f084	-0.044662967
43	0xbeae5933	-0.3405243
44	0xbd8d05f1	-0.06885899
45	0xbdd587df	-0.10426306
46	0xbe2e53f4	-0.17024213
47	0xbeaa735f	-0.33291146
48	0x3d133bbf	0.03594565
49	0x3eb8f61f	0.36125275
50	0xbeaf034a	-0.34182197
51	0xbebb1436	-0.36538857
52	0x3ebaa112	0.36451012
53	0x3c6dd82d	0.014516872
54	0x3ed68cb3	0.4190422
55	0xbe93bf8a	-0.2885707
56	0xbb0bdbf8	-0.0021340828
57	0xbdb63f45	-0.088987865
58	0x3eb10014	0.34570372
59	0x3e866418	0.2624824
60	0xbe2a3849	-0.16623034
61	0x3e168678	0.14699733
62	0xbf05b4d1	-0.5222903
63	0x3df9542f	0.1217426
64	0xbe644366	-0.22291335
65	0x3ebd38ae	0.36957306
66	0xbe1c3339	-0.15253915
67	0xbe420102	-0.18945697
68	0xbe92c7f2	-0.2866817
69	0xbeb820dc	-0.3596257
70	0x3d274869	0.04084054
71	0x3e2026bb	0.15639775
72	0x3ea3b6a4	0.3197528
73	0xbea5179f	-0.32244584
74	0xbe3f0758	-0.18655145
75	0xbe0fe517	-0.14052235
76	0xbe3fbba4	-0.18723923
77	0xbca56cf3	-0.020193553
78	0x3e223401	0.1584015
79	0xbe30fc26	-0.17283687
80	0x3e19792b	0.14987628
81	0xbe1d4e21	-0.15361835
82	0x3ea6ba30	0.32563925
83	0x3e20123e	0.15631959
84	0xbc162cb9	-0.009165936
85	0xbe307134	-0.17230684
86	0xbdbc112d	-0.091829635
87	0x3e5fb77a	0.21847335
88	0x3e8d098b	0.27546343
89	0xbd987675	-0.07444469
90	0x3e0946db	0.13405935
91	0x3cb76670	0.022387713
92	0xbe0e4ded	-0.13896914
93	0xbeda267c	-0.42607486
94	0xbdfd1657	-0.123577766
95	0xbd20f087	-0.039291885
96	0xbe2ca8cf	-0.1686127
97	0x3e2302c9	0.15919031
98	0xbe3e40e0	-0.18579435
99	0x3e84b279	0.25917414
100	0xbcbeb832	-0.02328119
101	0xbe3a5656	-0.18196997
102	0xbe9db06a	-0.30798656
103	0x3ea2d54e	0.31803364
104	0x3eb868a0	0.36017323
105	0x3d65529c	0.055986986
106	0x3af1c1d8	0.0018444611
107	0x3e36300f	0.1779177
108	0xbd8f86ea	-0.07008155
109	0xbe06d531	-0.13167264
110	0x3e56fc0d	0.20994587
111	0x3ef7fd5f	0.48435494
112	0x3d6d796e	0.057977132
113	0xbc577600	-0.013150692
114	0x3e8ac867	0.2710602
115	0xbef7ec6a	-0.48422557
116	0x3e70f71b	0.23531763
117	0x3ec561d7	0.38551208
118	0xbd396670	-0.045263708
119	0x3e874042	0.26416212
120	0x3e226161	0.1585746
121	0xbc259e9d	-0.010108617
122	0x3de84058	0.113403976
123	0x3edf4c74	0.43613017
124	0x3e51951b	0.20467035
125	0xbe8ea39c	-0.278592
126	0x3e7f9bc9	0.24961771
127	0xbe667f5e	-0.22509524

layers.1.weight f4 [128, 128]
0	0x3e294e7c	0.16533846
1	0xbdbc723c	-0.09201476
2	0xbddf8217	-0.109134845
3	0x3d411fd7	0.047149505
4	0x3d0ac29c	0.033877
5	0x3dc434e3	0.095804
6	0x3c3ad1bc	0.011402544
7	0x3d68e295	0.05685671
8	0x3cc69992	0.02424315
9	0x3dc6b57f	0.097025864
10	0xbdd78e05	-0.10525135
11	0xbd36784a	-0.04454831
12	0x3dfd0eb7	0.12356322
13	0xbd8c35c4	-0.068461925
14	0x3d2b9eae	0.041899376
15	0x3d927b89	0.07152469
16	0x3c57741d	0.013150242
17	0xbd8b1a03	-0.06792071
18	0xbce020a3	-0.027359312
19	0x3d22cab8	0.03974411
20	0x3b993c49	0.004676376
21	0xba679c10	-0.0008835206
22	0x3d4e9d32	0.050442882
23	0x3c353e35	0.011062195
24	0x3d7f8f9b	0.062392812
25	0xbda7ab6e	-0.081869945
26	0xbe292de5	-0.16521414
27	0x3d2e3ed1	0.042540375
28	0xbbf19655	-0.0073726573
29	0xbd954b8c	-0.072898
30	0xbd731747	-0.05934837
31	0x3d63fc8c	0.05566077
32	0xbd89e5fa	-0.06733318
33	0x3dd09a1e	0.101856455
34	0x3d8fb290	0.0701648
35	0xbd890f45	-0.066923656
36	0x3c86f44e	0.016473915
37	0x3c50a725	0.012735163
38	0xbbd2977f	-0.006426751
39	0x3ba3d367	0.0049995664
40	0x3d0d1101	0.034440044
41	0x3d188908	0.03724006
42	0x3d5e1865	0.054222483
43	0x3db7a2fe	0.08966635
44	0xbd9f0f9f	-0.07766651
45	0xbd25f370	-0.040515363
46	0x3d91eafe	0.07124899
47	0x3b5bd5fd	0.0033544295
48	0xbc96ceae	-0.0184091
49	0xbcbe609a	-0.023239423
50	0xbd0275a1	-0.03185046
51	0x3ce22fa1	0.027610602
52	0x3dadc673	0.08485117
53	0xbd876c71	-0.066124804
54	0xbd18fe8e	-0.037352137
55	0xbd93961f	-0.07206368
56	0xbe01c0d4	-0.12671214
57	0x3e05d56d	0.13069697
58	0x3cb931f5	0.02260683
59	0xbdae8e58	-0.08523244
60	0xbd372e1e	-0.044721715
61	0x3e11bd13	0.14232282
62	0x3dc33452	0.09531464
63	0x3d285021	0.041092042
64	0xb98ab7a9	-0.0002645825
65	0xbd750d96	-0.05982741
66	0x3d9aa8a3	0.07551696
67	0xbcb114e2	-0.021616403
68	0xbc9b600d	-0.018966699
69	0x3d2e9770	0.04262489
70	0xbb2708ff	-0.002548754
71	0x3dbe3785	0.09287933
72	0xbd465f85	-0.04843094
73	0x3cae9ca1	0.02131492
74	0xbc2cc968	-0.010546066
75	0xbd7566a8	-0.059912354
76	0xbe343f04	-0.17602164
77	0xbc96c624	-0.018405028
78	0x3d8ba636	0.068188116
79	0x3d111c75	0.03542753
80	0xbc259425	-0.010106121
81	0x3db3063a	0.08741422
82	0x3d18c498	0.03729686
83	0x3d83c6b4	0.06434384
84	0xbd1dbda9	-0.038510952
85	0x3d31793a	0.0433285
86	0x3d17f8dd	0.03710257
87	0xbd8a8b6d	-0.067648746
88	0xbdcd1043	-0.10012867
89	0xbce5cedb	-0.028052738
90	0x3cf1fb4f	0.029538779
91	0x3da607d0	0.08106959
92	0xbd61f571	-0.05516571
93	0x3b28b584	0.0025742957
94	0x3dcb8ca2	0.09938933
95	0xbbe8598e	-0.007090754
96	0xbdc9f579	-0.09861273
97	0xbd77b731	-0.06047744
98	0xbd285caf	-0.041104015
99	0x3bb0969f	0.005389049
100	0xbd8acdfa	-0.06777568
101	0xbc6eac6f	-0.014567479
102	0xbda1c074	-0.07898036
103	0x3e1ea45d	0.15492387
104	0xbd623409	-0.055225406
105	0x3de0978d	0.10966406
106	0x3e086919	0.13321342
107	0x3d1735d4	0.03691657
108	0xbdf07a57	-0.117420845
109	0xbd14ef00	-0.03636074
110	0x3cece5a6	0.028918099
111	0xbd9ea56b	-0.07746395
112	0xbb6bdfb5	-0.0035991494
113	0xbd4f4ff7	-0.05061337
114	0x3d26cf44	0.040725008
115	0x3d836cfb	0.06417271
116	0xbd110742	-0.035407312
117	0x3d37f725	0.04491343
118	0xba28cfe5	-0.000643967
119	0x3ddd3f5e	0.10803102
120	0x3db52319	0.08844585
121	0xb96c853c	-0.00022556348
122	0xbceb56a9	-0.028727846
123	0x3c928029	0.017883377
124	0xbb59c559	-0.00332292
125	0x3d828cc1	0.06374503
126	0x3da6558d	0.08121786
127	0x3d45825d	0.048220027
128	0xbd722f03	-0.059126865
129	0x3dc6d6b7	0.09708922
130	0x3e2b398a	0.16721168
131	0xbd870094	-0.06591907
132	0xbd1314c8	-0.03590849
133	0x3d76a34e	0.060214333
134	0x3c9dec30	0.019277662
135	0x3dc8fba2	0.0981362
136	0xbde3af3a	-0.11117406
137	0x3df95479	0.12174315
138	0x3c4e625c	0.012596693
139	0x3d923d3c	0.07140586
140	0xbce617b1	-0.028087469
141	0xbdc48bcf	-0.09596979
142	0xbcb635ce	-0.022242453
143	0xbd3699c2	-0.04458023
144	0x3c6d1edf	0.014472692
145	0x3ce66878	0.028125986
146	0x3dbe3e83	0.09289267
147	0xbd84f857	-0.064926796
148	0xbd180bce	-0.037120633
149	0x3da9be3e	0.08288239
150	0xbd801782	-0.06254484
151	0xbdbf1cd2	-0.09331669
152	0x3dbeedb3	0.09322681
153	0x3cbff9f2	0.023434613
154	0x3bcbdb92	0.006221243
155	0xbe179244	-0.1480189
156	0xbcb06ef9	-0.02153729
157	0xbd02da0e	-0.031946234
158	0x3d3a2be4	0.045452014
159	0x3e06aa54	0.13150913
160	0x3d8e4fe8	0.06948835
161	0xbc643f5f	-0.0139311245
162	0x3dc1aa8d	0.09456358
163	0xbdc45298	-0.09586066
164	0xbc184156	-0.009292921
165	0x3da21019	0.07913227
166	0xbcb1590f	-0.021648912
167	0xbbf3e211	-0.0074427207
168	0xbd28b718	-0.041190237
169	0xbc7b2bce	-0.015330268
170	0x3cacefdd	0.02111047
171	0x3d8ba48a	0.06818493
172	0xbe000694	-0.1250251
173	0x3da825b8	0.08210319
174	0xbde1f040	-0.11032152
175	0xbcf261b1	-0.029587599
176	0xbd9a07c3	-0.07521012
177	0xbce71d0a	-0.02821209
178	0xbd4b00bf	-0.04956126
179	0xbd222bb1	-0.03959245
180	0x3dd2e4e0	0.10297561
181	0xbe1891b6	-0.14899334
182	0xbd7dba05	-0.06194498
183	0x3da38d75	0.07985965
184	0xbb02d779	-0.0019964857
185	0x3bcf00a6	0.006317216
186	0xbd1f9880	-0.038963795
187	0x3da9d7e7	0.08293133
188	0x3cea450f	0.028597383
189	0xbba9eae4	-0.005185472
190	0xbbbc2373	-0.0057415306
191	0xbd0e7a7e	-0.034784786
192	0x3dc11541	0.09427882
193	0xbe00d99a	-0.12583008
194	0xbd7417c9	-0.059592996
195	0xbd8a62db	-0.067571364
196	0x3d60f539	0.054921363
197	0xbdd3b812	-0.10337843
198	0xbbe954f2	-0.007120722
199	0xbd0e3dde	-0.03472697
200	0xbd042f9d	-0.03227197
201	0xbdf6f11c	-0.12057707
202	0x3d41c2a1	0.047304753
203	0x3c9aaddc	0.01888173
204	0x3ded30ef	0.11581599
205	0xbdb93971	-0.09044159
206	0xbdab8d1e	-0.08376525
207	0x3d79194e	0.060815148
208	0x3d84686c	0.064652294
209	0x3ca591f8	0.020211205
210	0xbd48defd	-0.049040783
211	0xbc9959a3	-0.0187195
212	0x3dc0def4	0.09417525
213	0x3db2caba	0.08730073
214	0xbc0e23d4	-0.008675534
215	0xbd2e3006	-0.042526267
216	0x3bcf632e	0.006328962
217	0x3d09b1be	0.033616774
218	0x3c131892	0.008978026
219	0x3d378468	0.044804007
220	0x3c7bac1b	0.015360857
221	0x3c4bc814	0.012437839
222	0x3c271feb	0.010200481
223	0x3cbfe2d7	0.023423595
224	0x3d6d9acf	0.058008965
225	0xbe0d52af	-0.13801073
226	0xbd084589	-0.03326944
227	0x3dc56af4	0.0963954
228	0x3c473ff9	0.012161248
229	0x3e3c5ee1	0.18395568
230	0xbe233508	-0.15938199
231	0x3d8ceb09	0.06880767
232	0xbdba4ada	-0.09096308
233	0x3a7f739e	0.00097447063
234	0xbca3dc8a	-0.020002622
235	0xbd67f54b	-0.056630414
236	0xbda5de58	-0.08099049
237	0x3d21dd18	0.039517492
238	0xbde2751d	-0.11057494
239	0x3d934e8d	0.07192717
240	0x3c0f2568	0.008736946
241	0xbd3ba836	-0.045814715
242	0xbd5704e2	-0.05249489
243	0x3c8c6227	0.017136646
244	0xbd8538ad	-0.06504951
245	0x3d824ff6	0.063629076
246	0xbd72b65f	-0.059255954
247	0xbd88432b	-0.06653436
248	0x3d3bbf08	0.04583648
249	0xbcf7d17a	-0.030251253
250	0xbe08faea	-0.13376966
251	0x3b8fb411	0.0043854793
252	0xbd3456f7	-0.04402825
253	0xbda98dea	-0.08279021
254	0xbd293ddb	-0.041318756
255	0x3d57c874	0.0526814

layers.1.bias f4 [128]
0	0xbdd28840	-0.10279894
1	0xbdd145d1	-0.102183945
2	0x3c9b4dbe	0.018957969
3	0xbdb3aa9d	-0.08772776
4	0x3c895798	0.0167654
5	0xbd10a786	-0.035316013
6	0x3e1e586d	0.1546342
7	0x3d87e890	0.06636155
8	0xbdb5c2fc	-0.08875081
9	0xbdb260a1	-0.08709837
10	0x3dbb7270	0.091526866
11	0xbdd7e09b	-0.10540887
12	0x3d458fb2	0.04823274
13	0xbced8695	-0.028994838
14	0x3d8e36f0	0.06944072
15	0x3d7ed7d8	0.062217563
16	0xbde4b18f	-0.11166679
17	0xbda27386	-0.079321906
18	0xbd34dbe8	-0.04415503
19	0x3b936f4e	0.0044993525
20	0x3d09458d	0.033513594
21	0xbd041f7f	-0.0322566
22	0xbc473545	-0.012158697
23	0xbd3c5734	-0.0459816
24	0x3e34bf7e	0.17651173
25	0x3deb99d9	0.115039535
26	0xbe207dd9	-0.15673007
27	0xbe54e734	-0.20791322
28	0xbca5fc4d	-0.020261908
29	0xbc8b646b	-0.017015656
30	0xbdd0becd	-0.10192642
31	0x3d5b0e38	0.053480357
32	0x3bf735cb	0.0075442544
33	0x3dd1bd17	0.10241144
34	0x3dad9695	0.08475987
35	0x3dc2305a	0.094818786
36	0x3b94c12e	0.0045396304
37	0xbe131c80	-0.1436634
38	0xbca660a0	-0.020309746
39	0x3dffbd12	0.12487234
40	0xbd3a145e	-0.04542958
41	0x3d3a7829	0.04552475
42	0x3d99ce32	0.07510032
43	0xbd02339a	-0.031787492
44	0xbdadf93c	-0.08494803
45	0xbd1fd888	-0.03902486
46	0x3ab5b749	0.0013863827
47	0xbe3a7d5b	-0.18211882
48	0xbde1018d	-0.10986624
49	0xbd2bc614	-0.04193695
50	0xbd606725	-0.054785866
51	0xbdc3f8f4	-0.095689684
52	0xbd1dd558	-0.03853354
53	0xbdfc5388	-0.1232062
54	0x3d7d9338	0.061907977
55	0xbd962b77	-0.07332509
56	0x3dc50403	0.09619906
57	0xbd87982b	-0.066208206
58	0x3d56d6d4	0.05245097
59	0xbdef71a9	-0.11691601
60	0xbe0dc129	-0.13843216
61	0x3d9fb73a	0.077986196
62	0xbe2779fa	-0.16355124
63	0xbe38cf70	-0.18047881
64	0xbe110c4a	-0.14164844
65	0x3b6c0da0	0.0036018863
66	0x3da93516	0.082620785
67	0x3dc3e4c2	0.095651165
68	0xbdb4274a	-0.08796556
69	0x3cbef665	0.02331085
70	0xbdadc699	-0.08485145
71	0xbd64ae15	-0.05583008
72	0x3d570653	0.052496266
73	0x3dfed478	0.12442869
74	0xbdd9414b	-0.10608157
75	0xbe2acbd9	-0.16679324
76	0xbe2ab56c	-0.1667077
77	0xbc4192e3	-0.011814806
78	0x3c03508d	0.00801481
79	0xbe040736	-0.12893376
80	0x3cd5e3f9	0.026109682
81	0x3d91247e	0.070870385
82	0x3e12287b	0.14273255
83	0x3e6c6ef7	0.23089205
84	0x3c136924	0.008997235
85	0xbd0198ab	-0.031639736
86	0xbc21b792	-0.009870427
87	0xbd8b2fd9	-0.067962356
88	0xbd62220a	-0.055208243
89	0x3ddfdc64	0.10930708
90	0xbdc8bac2	-0.09801246
91	0x3d74c32f	0.059756454
92	0x3dab4cc4	0.08364251
93	0x3ce35355	0.027749697
94	0xbd99505e	-0.07486032
95	0x3db2079f	0.0869286
96	0xbda05fb2	-0.078307524
97	0xbdf1bc4f	-0.11803495
98	0xbe67ab63	-0.22623973
99	0xbdfdcf95	-0.12393109
100	0xbd39725b	-0.045275073
101	0x3d1b9cee	0.037991457
102	0xbd481eca	-0.048857488
103	0xbd7a25e4	-0.06107129
104	0x3dce75a6	0.100810334
105	0x3c01b5b9	0.007916861
106	0xbdd96b59	-0.10616178
107	0xbdbd6c47	-0.09249168
108	0xbcbf1a76	-0.023328047
109	0xbca90ce4	-0.02063603
110	0x3c8dbfc7	0.01730336
111	0x3d7582c0	0.059939146
112	0x3cf70405	0.030153284
113	0x3d80d541	0.06290675
114	0x3def9d5c	0.11699936
115	0xbcdba83d	-0.02681362
116	0xbd60d3b7	-0.054889407
117	0xbdb92d34	-0.09041825
118	0xbe27ed41	-0.16399099
119	0xbd30c0d2	-0.043152638
120	0xbd0b9d04	-0.03408529
121	0xbd23c751	-0.039985005
122	0x3e302e66	0.172052
123	0x3e30d82f	0.17269967
124	0xbde1180d	-0.109909154
125	0xbdfacad4	-0.12245718
126	0x3d588be2	0.052867778
127	0xbd66c71f	-0.05634224

layers.2.weight f4 [64, 128]
0	0x3db4942e	0.088173255
1	0x3b0dd34e	0.002164084
2	0xbddf208b	-0.10894879
3	0x3dd1ca00	0.102436066
4	0xbd607665	-0.05480041
5	0xbd4bdf5f	-0.04977357
6	0x3dceb2d2	0.10092701
7	0x3d401070	0.046890676
8	0x3b079ded	0.0020693496
9	0x3dd673e0	0.1047132
10	0x3de17a69	0.11009676
11	0x3e20ec6d	0.1571519
12	0x3ccabf61	0.02474946
13	0xbd91fb2e	-0.07127987
14	0x3d968e47	0.07351356
15	0xbb0f8c3e	-0.002190366
16	0x3d1d5bc5	0.038417596
17	0x3dd0f6e1	0.102033384
18	0x3de89d74	0.11358157
19	0x3d3e5de3	0.046476256
20	0x3d4cfd7b	0.050046425
21	0x3dc380a2	0.09546019
22	0x3ce7bbd2	0.028287802
23	0x3d52a5bb	0.051427584
24	0x3d114b26	0.035472058
25	0xbdf7d6c2	-0.12101509
26	0x3be79d48	0.00706831
27	0x3ba2043e	0.0049443534
28	0xbdc6f8b6	-0.097154066
29	0xbd684fb5	-0.05671664
30	0x3d9b9a4d	0.0759779
31	0xbcff04be	-0.031130191
32	0xbd641f83	-0.055694114
33	0x3dcce8a6	0.10005312
34	0x3e05d0d4	0.13067943
35	0xbe46ba94	-0.19407111
36	0x3df9d187	0.12198167
37	0x3d414b3a	0.047190882
38	0x3e16ed64	0.14738995
39	0x3de0be06	0.10973744
40	0xbe3992b2	-0.18122366
41	0x3e0d71af	0.13812898
42	0xbb7f3d24	-0.0038946355
43	0x3c0c1844	0.008550707
44	0x3d2fa39a	0.042880632
45	0x3e0527a8	0.13003409
46	0x3daf0f9b	0.085478984
47	0x3cce40d0	0.02517739
48	0xbe1f8f19	-0.15581931
49	0x3d47dc4e	0.048794083
50	0x3e2f0380	0.17091179
51	0x3d9329c4	0.071857005
52	0xbdc85eaa	-0.09783681
53	0xbd25629f	-0.040377256
54	0x3dbf0b30	0.09328306
55	0x3dbee6dc	0.09321377
56	0x3bfe45a1	0.0077597653
57	0x3d876890	0.066117406
58	0x3dbf41f9	0.09338755
59	0xbd592e70	-0.053022802
60	0x3d212005	0.039337177
61	0xbb4ddec9	-0.0031413308
62	0xbdfa750c	-0.12229356
63	0xbd19dfb6	-0.037566863
64	0x3e02898a	0.1274778
65	0xbdb195e9	-0.08671171
66	0x3da9ab1a	0.08284588
67	0x3dc49578	0.095988214
68	0x3c2dd313	0.010609406
69	0xbe4f7aa1	-0.20261623
70	0xbd39056e	-0.045171194
71	0x3dcda401	0.10041047
72	0x3e02fb64	0.1279121
73	0xbc5a0cec	-0.013308745
74	0x3e2ee32a	0.17078844
75	0x3cf429cd	0.029805088
76	0xbd1b9bfa	-0.037990548
77	0x3cd72c36	0.026266199
78	0x3ddec4dc	0.10877392
79	0xbdd94dac	-0.10610518
80	0x3cec7f89	0.028869407
81	0x3c1b3a26	0.009474313
82	0x3bfdad1e	0.0077415844
83	0xbd8f121f	-0.06985878
84	0x3dabf7ff	0.08396911
85	0xbccf0c2d	-0.02527436
86	0xbcc1c351	-0.023652704
87	0x3da04066	0.07824783
88	0x3b835b9d	0.004008724
89	0xbdf01c03	-0.11724093
90	0xbb4d4490	-0.0031321384
91	0x3d801f02	0.06255914
92	0xbb86947b	-0.0041070557
93	0x3ddb50f6	0.107088014
94	0xbd50a8b4	-0.050942138
95	0x3d8e4a4c	0.06947765
96	0xbde4e690	-0.11176789
97	0x39d69a9a	0.00040932448
98	0xbb3332c5	-0.0027343493
99	0x3e3f4f9e	0.18682715
100	0xbe04ff25	-0.12987955
101	0x3d128288	0.035769016
102	0x3e0179e0	0.12644148
103	0x3bf1c625	0.007378357
104	0x3d876bbd	0.06612346
105	0x3cec9051	0.02887741
106	0xbdfee9ab	-0.124469124
107	0xbc5c740c	-0.013455402
108	0x3d5846ab	0.05280177
109	0x3e0950d9	0.13409747
110	0x3c9d3837	0.019191844
111	0x3d0f04f5	0.034916837
112	0xbda31422	-0.079628244
113	0xbb393068	-0.0028257612
114	0x3cd8071a	0.026370574
115	0x3c91c63a	0.017794717
116	0x3da47d6a	0.08031733
117	0xbcb1cd45	-0.021704325
118	0xbdd8b5e0	-0.10581565
119	0x3b7aba4d	0.0038258017
120	0x3d1c4c76	0.038158856
121	0x3cf9a5c4	0.030474551
122	0x3c9bb9cb	0.019009491
123	0xbd3d1119	-0.046158884
124	0x3d116272	0.035494275
125	0xbb2212df	-0.0024730486
126	0x3ce2b5ab	0.027674517
127	0x3e10bfbd	0.14135642
128	0xbd8845af	-0.06653916
129	0x3ca7d5da	0.020487715
130	0xbcd0ef1b	-0.02550464
131	0x3e0e76b9	0.13912477
132	0x3d06c7f6	0.03290554
133	0x3b1f0c34	0.0024268748
134	0x3c0a7b0b	0.008452187
135	0xbd0f569f	-0.034994718
136	0xbd8c4373	-0.068488024
137	0xbd371578	-0.04469821
138	0xbc8242a3	-0.015900915
139	0x3c9ae9e3	0.018910354
140	0xbc931bdd	-0.017957622
141	0xbe3dded4	-0.18542033
142	0xbcfa9fdb	-0.030593803
143	0xbd3fafc8	-0.046798497
144	0xbd96d48b	-0.07364758
145	0xbdd841f9	-0.10559458
146	0xbc196bdf	-0.009364097
147	0xbd292446	-0.04129436
148	0xbd5b4a50	-0.053537667
149	0xbc747082	-0.014919402
150	0x3cbd0c13	0.023077046
151	0xbce09f29	-0.027419643
152	0xbd0c4c17	-0.034252252
153	0x3c491b9a	0.012274647
154	0xbbad15b3	-0.0052821278
155	0xbd544420	-0.05182278
156	0xbded727f	-0.11594104
157	0xbd61f1a9	-0.055162106
158	0x3dc26dd7	0.094936065
159	0x3d87dbcb	0.06633719
160	0x3d75ee38	0.060041636
161	0x3d685916	0.056725584
162	0x3d99a9a4	0.075030595
163	0xbc1689e1	-0.009188146
164	0x3d727598	0.059194177
165	0xbcb0c8a6	-0.021580052
166	0xbbeec098	-0.0072861426
167	0x3d318435	0.043338973
168	0xbdef88df	-0.11696028
169	0xbce257c9	-0.02762975
170	0xbcbd85d1	-0.023135098
171	0x3d440895	0.047859747
172	0x3d6acfae	0.057326965
173	0x3e03672e	0.12832329
174	0xbd47d76e	-0.048789434
175	0xbd92afd6	-0.07162444
176	0x3d1b34d4	0.037892178
177	0x3e02c3c2	0.12769988
178	0x3cce60eb	0.025192698
179	0x3db7effb	0.089813195
180	0x3c6cb372	0.01444708
181	0xbd626fb9	-0.05528233
182	0xbc8e972b	-0.017406067
183	0x3d9e387a	0.07725616
184	0x3c19e831	0.009393738
185	0x3d9ea180	0.077456474
186	0x3d3436d3	0.043997597
187	0xbd9c60b8	-0.07635635
188	0x3d6a9f57	0.057280865
189	0x3d427f6c	0.0474848
190	0xbd87d631	-0.06632651
191	0xbda73d6a	-0.08166011
192	0x3d5ecfb2	0.054397292
193	0xbc3598b9	-0.011083775
194	0xbd9e4c93	-0.07729449
195	0x3d28cf50	0.041213334
196	0x3dafa736	0.08576815
197	0xbda2b54d	-0.07944737
198	0xbd0680c9	-0.032837663
199	0x3cd9b78a	0.026576776
200	0x3d1a96f7	0.037741628
201	0x3ce1ab7a	0.027547587
202	0x3da70245	0.0815473
203	0x3d549cae	0.051907234
204	0xbe12c5a1	-0.14333202
205	0x3c921835	0.017833808
206	0x3d9edcda	0.07756968
207	0xbdffc442	-0.12488605
208	0xbdea1ae1	-0.11430908
209	0x3d281250	0.04103309
210	0x3d9ffb9e	0.07811664
211	0xbcf6e1ac	-0.030136906
212	0x3b7989f0	0.0038076602
213	0xbd0fbad6	-0.03509029
214	0x3bc43ed7	0.0059889364
215	0x3e1d0cf0	0.15336967
216	0xbc130f5c	-0.00897583
217	0xbdaff6e8	-0.085920155
218	0x3d82390f	0.06358539
219	0x3d155b8b	0.036464255
220	0xbe002189	-0.12512793
221	0xbdc83aa9	-0.097768135
222	0xbc685a2b	-0.014181654
223	0x3e00e803	0.12588505
224	0xbdb0a402	-0.08625032
225	0xbe5aea01	-0.21378328
226	0x3bced12c	0.0063115563
227	0x3e2a808a	0.16650596
228	0x3c5920f4	0.013252486
229	0x3d9c9651	0.07645858
230	0x3d0b6b5e	0.03403794
231	0x3e166f0a	0.14690796
232	0x3de11ff7	0.10992425
233	0x3d653608	0.05595973
234	0xbd849fe7	-0.064758115
235	0x3cd7274c	0.026263855
236	0xbe146da5	-0.14494951
237	0x3d93e092	0.07220568
238	0x3dd520df	0.1040666
239	0xbd19b5c5	-0.037526865
240	0xbd6121ae	-0.05496376
241	0x3df131b9	0.11777062
242	0xbc305409	-0.010762223
243	0x3dcefd28	0.101068795
244	0x3d87fcc4	0.06640008
245	0x3db881f1	0.09009159
246	0x3d52369d	0.051321615
247	0xbdce3ba4	-0.10069969
248	0xbd640040	-0.0556643
249	0xbde5fc43	-0.11229756
250	0x3c9b1c1f	0.018934308
251	0xbd84ac46	-0.06478171
252	0xbc113db3	-0.008864808
253	0x3d84cbb3	0.06484165
254	0xbce240fc	-0.027618878
255	0x3d3896a5	0.04506554

layers.2.bias f4 [64]
0	0x3d7bedd8	0.061506122
1	0xbcdb1456	-0.026743095
2	0x3c23e7ac	0.010003965
3	0x3d17c5f0	0.037054002
4	0xbd1ca436	-0.03824254
5	0x3cac941c	0.021066718
6	0xbd8c0c85	-0.068383254
7	0x3c9ed06f	0.019386498
8	0xbdbe2148	-0.09283692
9	0xbd69bf6e	-0.057067327
10	0xbb1cd92c	-0.0023933155
11	0xbcab7c2f	-0.020933239
12	0xbcd00c17	-0.02539639
13	0xbc3ca22a	-0.011513272
14	0xbd3a2d5c	-0.045453414
15	0x3d9fd016	0.07803361
16	0xbcd65f5d	-0.02616852
17	0x3cfb2981	0.030659439
18	0x3d1265b3	0.03574152
19	0xbd191312	-0.037371702
20	0x3da96c8f	0.08272659
21	0x3d4dc03c	0.050232157
22	0xbda0e54e	-0.078562364
23	0xbdd9ed54	-0.1064097
24	0x3d800f35	0.062529005
25	0xbd102d04	-0.03519918
26	0xbca4f456	-0.02013604
27	0xbce214c4	-0.027597792
28	0x3d8e99a2	0.06962897
29	0xbda166f0	-0.07880962
30	0x3d045fc2	0.032317884
31	0xbd8851cc	-0.066562265
32	0x3d917989	0.07103259
33	0x3d2d1f56	0.042266212
34	0x3dcbb503	0.099466346
35	0x3cdcfafe	0.026975151
36	0x3d8b9fbb	0.068175755
37	0x3a55a517	0.00081499055
38	0x3c573fb5	0.0131377475
39	0x3d387dbd	0.04504179
40	0xbd7a582f	-0.061119255
41	0x3d8ea18b	0.069644056
42	0x3d543e99	0.05181751
43	0x3c214f19	0.0098455185
44	0xbdd2a48a	-0.102852896
45	0xbcb5ea1c	-0.022206359
46	0xbdb7a5c0	-0.08967161
47	0xbe0068d3	-0.12539987
48	0x3d976ffb	0.073944055
49	0xbd6f0327	-0.058352616
50	0xbbfc7adb	-0.007705075
51	0x3cba55c4	0.022745974
52	0xbd3caa46	-0.046060823
53	0x3e0f227e	0.13978001
54	0xbd831fcc	-0.06402549
55	0xbddea14f	-0.10870611
56	0x3cb73062	0.022361938
57	0xbde3a6f8	-0.11115831
58	0xbd2dcfcd	-0.042434502
59	0x3db63674	0.08897105
60	0xbde19e16	-0.110164806
61	0xbdc72082	-0.09722997
62	0xbd03dba0	-0.032191873
63	0xbcfa2421	-0.030534806

readout.weight f4 [1, 64]
0	0xbea54ad4	-0.32283652
1	0xbeac2140	-0.33619118
2	0xbe3eac68	-0.18620455
3	0x3ea7817f	0.32715985
4	0x3ee7ea13	0.45295772
5	0x3ecfaa7c	0.40559757
6	0xbee16493	-0.44022045
7	0xbe9eccdf	-0.3101568
8	0x3e945a42	0.2897511
9	0x3ed2187b	0.41034302
10	0xbeba5c8a	-0.36398727
11	0x3e70b047	0.23504744
12	0xbd9603b1	-0.07324923
13	0xbe8edf1b	-0.2790459
14	0x3ed64ae6	0.41854018
15	0xbea481bf	-0.32130238
16	0xbea232b8	-0.3167932
17	0x3e32192a	0.17392412
18	0x3e9a5456	0.30142468
19	0xbe4cb7ea	-0.19992033
20	0xbea3eade	-0.32015127
21	0x3ed61e37	0.41819927
22	0x3ea03934	0.31293643
23	0x3ede5d73	0.4343067
24	0xbeb7a88e	-0.35870785
25	0xbeb21f96	-0.34789723
26	0xbea19c72	-0.3156467
27	0x3ec11bb6	0.37716454
28	0xbe93fc82	-0.28903586
29	0x3ebeb8c1	0.3725033
30	0x3e6a9b06	0.22910699
31	0xbe1887e3	-0.14895587
32	0xbedeee0d	-0.43540993
33	0x3ec7c809	0.39019802
34	0xbe96e32c	-0.29470193
35	0xbeb2be04	-0.34910595
36	0x3dfa0e2a	0.12209733
37	0xbef45453	-0.47720584
38	0xbea5d9b8	-0.3239267
39	0x3e99d6ce	0.30046695
40	0xbf0a29df	-0.5397014
41	0xbee28a6e	-0.44246238
42	0xbdc28118	-0.09497279
43	0xbeb066b9	-0.3445337
44	0x3f083b01	0.5321503
45	0x3efb2f8f	0.49059722
46	0x3ec9b1d4	0.39393485
47	0x3ef742fe	0.48293298
48	0xbe3f92de	-0.18708369
49	0x3eb8e85b	0.36114773
50	0x3ee2adb5	0.44273153
51	0xbe6d6ea4	-0.23186737
52	0xbea7fc3d	-0.3280963
53	0xbece3309	-0.40273312
54	0xbebcf04c	-0.36902082
55	0x3e95f236	0.29286355
56	0xbe290dda	-0.1650919
57	0x3e8376f4	0.25676692
58	0x3f05d7cf	0.5228242
59	0x3e6961f9	0.2279128
60	0x3df612f4	0.12015334
61	0x3f0e79ef	0.55654806
62	0xbe27e49f	-0.16395806
63	0x3efa9cfc	0.48947895

layers.0.weight f4 [128, 17]
0	0x3ddcad19	0.10775203
1	0x3e80b17f	0.2513542
2	0x3f08117a	0.5315167
3	0xbec45075	-0.38342634
4	0xbda95108	-0.082674086
5	0x3ec8cdf8	0.39219642
6	0xbdd82981	-0.10554791
7	0xbc0440f7	-0.008072129
8	0x3e409a61	0.18808891
9	0xbecc0ab6	-0.39851922
10	0x3de990d7	0.11404579
11	0xbcbc4c98	-0.022985741
12	0x3d3afa48	0.045648843
13	0xbcb875bc	-0.022517078
14	0xbd28bde5	-0.041196723
15	0xbc01be25	-0.007918869
16	0x3bcae846	0.00619224
17	0xbe824032	-0.25439602
18	0xbf0fa7d4	-0.5611546
19	0x3e13d32f	0.14436029
20	0x3f08d6ca	0.5345274
21	0xbdaac115	-0.08337609
22	0xbef741df	-0.48292443
23	0xbf0d0e03	-0.55099505
24	0xbbed2667	-0.007237244
25	0xbe29b8ab	-0.16574351
26	0xbf101cc4	-0.5629389
27	0x3eac3d5e	0.3364057
28	0xbe0dd248	-0.13849747
29	0x3ccbec63	0.024892991
30	0xbd150f8e	-0.036391787
31	0xbbd2cd2a	-0.006433149
32	0xbd5c0527	-0.05371585
33	0xbc35f330	-0.011105344
34	0x3dfe299e	0.124102816
35	0xbd2479a3	-0.040155064
36	0x3f39f4ab	0.7263896
37	0x3ec2f555	0.38077798
38	0x3d280ffd	0.041030873
39	0x3f575803	0.8411867
40	0x3e80c0ab	0.25146994
41	0x3edcc9d9	0.43122748
42	0xbede92f8	-0.43471503
43	0x3cc9fcc2	0.024656657
44	0xbe481fd4	-0.19543391
45	0x3c38a7d4	0.011270482
46	0x3d47ba33	0.048761558
47	0xbcdd351f	-0.02700287
48	0x3dee2cea	0.116296604
49	0x3cdf77a5	0.02727873
50	0xbc0d4c85	-0.008624201
51	0x3e91be0d	0.2846531
52	0xbe354137	-0.17700659
53	0x3e5b625d	0.21424241
54	0x3f05bad4	0.522382
55	0xbc6e1308	-0.014530905
56	0xbe5df6ce	-0.2167618
57	0x3d86976f	0.065718524
58	0x3e7e9ccb	0.248645
59	0xbe99b262	-0.30018908
60	0xbeb0f628	-0.34562802
61	0xbea59903	-0.323433
62	0x3d819ef9	0.0632915
63	0x3bccc7e9	0.006249417
64	0xbca2e734	-0.019885637
65	0xbc5f55b3	-0.013631272
66	0xbdb3b96a	-0.08775599
67	0xbd37749f	-0.044788953
68	0xbcd35f02	-0.02580214
69	0xbf13a133	-0.57667845
70	0xbe550c7f	-0.20805548
71	0x3dd372a8	0.10324603
72	0xbed2e809	-0.41192654
73	0x3d1455bb	0.03621457
74	0xbef8b970	-0.48578978
75	0x3ca37cd7	0.01995699
76	0x3ea7ac59	0.32748678
77	0xbd82b07e	-0.063813195
78	0xbdc6b2ab	-0.09702047
79	0xbe0c2a68	-0.13688052
80	0xbda3cb1e	-0.07997726
81	0xbcb77fac	-0.022399746
82	0x3beecb18	0.0072873943
83	0x3d0feca0	0.035137773
84	0x3caa6654	0.020800747
85	0x3ea9fd82	0.33201224
86	0xbed362d9	-0.41286352
87	0x3eb95579	0.36198023
88	0xbe6cf985	-0.23142059
89	0xbd87e832	-0.066360846
90	0xbd983358	-0.07431668
91	0xbeb228fb	-0.3479689
92	0x38b3abfe	8.567421e-05
93	0xbecda13a	-0.4016207
94	0x3e4b8d97	0.19878231
95	0xbd255ba9	-0.040370617
96	0xbe44c68d	-0.19216366
97	0x3e3c926b	0.18415229
98	0x3d51fb72	0.051265188
99	0xbe5ad673	-0.21370868
100	0xbd92c3de	-0.07166265
101	0x3ba2ea85	0.0049718046
102	0x3f0d6f3d	0.5524786
103	0xbdb3afdd	-0.08773778
104	0x3f03ac05	0.51434356
105	0x3d5d347a	0.054005124
106	0xbcdb5ba2	-0.026777092
107	0xbee2784b	-0.442324
108	0x3e0024a1	0.12513973
109	0xbc24956b	-0.01004539
110	0x3eda4ae0	0.4263525
111	0xbc318c0e	-0.010836614
112	0xbceb5d38	-0.028730974
113	0x3e1edda0	0.1551423
114	0xbd55d6bb	-0.052206736
115	0xbd1f2409	-0.038852725
116	0xbb82c28a	-0.003990476
117	0xbd7ec106	-0.0621958
118	0x3d719132	0.05897636
119	0x3caf4b51	0.021398218
120	0xbe9b672d	-0.30352154
121	0xbf2b0ca5	-0.6681617
122	0xbf0d1cb6	-0.55121934
123	0xbe049133	-0.12946014
124	0x3ebc2844	0.3674947
125	0x3de40cdd	0.11135266
126	0x3e36dc49	0.1785747
127	0x3ee4c1f8	0.44679236
128	0x3eefe580	0.46854782
129	0x3e24f3e0	0.16108656
130	0xbd488eb1	-0.048964206
131	0xbd094fec	-0.033523485
132	0xbca16181	-0.019699814
133	0x3d624ee0	0.055251002
134	0x3d945849	0.072434016
135	0x3cf9f4b0	0.030512184
136	0x3dcef2a1	0.101048715
137	0x3ecca365	0.3996841
138	0xbe3e1c06	-0.18565378
139	0x3e37cfc2	0.17950347
140	0xbd66cd36	-0.05634805
141	0xbe2c8208	-0.16846478
142	0x3ecbba94	0.39790785
143	0x3e783894	0.24240333
144	0xbf0f003c	-0.5585973
145	0x3e6f1f6d	0.23351832
146	0x3e2066e7	0.15664254
147	0xbbb025f0	-0.0053756163
148	0x3d1b0f4e	0.037856393
149	0xbc0ba9c8	-0.008524366
150	0xbcd0d4c8	-0.025492087
151	0xbb45c4f1	-0.00301772
152	0x3c6e99fb	0.014563079
153	0x3efba800	0.4915161
154	0xbe9673be	-0.2938518
155	0xbfbbe1e1	-1.4678308
156	0xbf294300	-0.6611786
157	0xbd4e0404	-0.0502968
158	0x3ea07045	0.31335655
159	0xbda7323d	-0.08163879
160	0x3d933b61	0.0718906
161	0x3ebcc6ca	0.36870414
162	0xbe146a6f	-0.14493726
163	0x3d21925b	0.039446216
164	0xbe26e5b5	-0.16298564
165	0xbdec0b29	-0.11525566
166	0xbc80b251	-0.015710028
167	0xbc413e2f	-0.011794611
168	0xbd64ef78	-0.055892438
169	0xba2617dd	-0.00063359534
170	0x3d859084	0.06521705
171	0xbd864962	-0.065569654
172	0x3f1f0e37	0.62131065
173	0xbd3fd2ef	-0.04683202
174	0xbdaa23f0	-0.08307636
175	0x3e80c205	0.25148025
176	0xbeeaaf0b	-0.45836672
177	0xbdd1c7d2	-0.10243191
178	0x3edfff0b	0.4374927
179	0xbed31809	-0.41229275
180	0x3f1203af	0.5703687
181	0xbcf89af5	-0.030347327
182	0xbd08be6a	-0.033384718
183	0xbb4f9723	-0.0031675778
184	0xbd37c8dc	-0.04486929
185	0xbb868539	-0.004105237
186	0xbd14507f	-0.03620958
187	0x3eaa89f2	0.3330837
188	0xbec310c1	-0.3809872
189	0x3d9c3542	0.076273456
190	0xbe8bc4ef	-0.27298686
191	0x3b23d8fd	0.0025001161
192	0x3f819e55	1.0126444
193	0x3c8813df	0.016611038
194	0x3dde6318	0.108587444
195	0xbe877d8a	-0.26462966
196	0x3e3cea48	0.18448746
197	0xbdca338b	-0.09873112
198	0x3d898db5	0.067164816
199	0xbca1b561	-0.019739809
200	0x3c990535	0.01867924
201	0x3c92af2f	0.0179058
202	0xbc942177	-0.018082364
203	0xbba8bc3e	-0.0051493933
204	0x3ea9a93e	0.33136934
205	0xbecf4b14	-0.40486968
206	0x3f42e3e1	0.76128966
207	0x3f1d2f0c	0.6139991
208	0x3d8ea50b	0.06965073
209	0xbeeaaa01	-0.45832828
210	0x3db5c178	0.08874792
211	0xbe735905	-0.23764427
212	0x3e8fe060	0.28100872
213	0x3ea77be4	0.3271171
214	0x3eb2cc30	0.34921408
215	0xbd8cff18	-0.06884593
216	0x3d9b0a10	0.07570279
217	0xbc9310eb	-0.017952403
218	0x3de52f8e	0.11190711
219	0x3da80051	0.08203185
220	0x3cdbf7b9	0.026851522
221	0x3d0004b0	0.03125447
222	0x3e5fa6b1	0.21840931
223	0x3ebb00e5	0.3652412
224	0xbe0edd9c	-0.13951725
225	0x3e7f16da	0.24911061
226	0xbc934538	-0.017977342
227	0x3f2934c4	0.6609614
228	0xbd9ba89c	-0.07600519
229	0x3e8cff7d	0.27538672
230	0x3d9e3f7f	0.07726955
231	0xbc8ae46f	-0.016954629
232	0x3d6e98ba	0.05825112
233	0x3d3090ff	0.04310703
234	0x3c67baa3	0.014143619
235	0x3da484e3	0.08033159
236	0xbcb233ca	-0.02175321
237	0xbcd31710	-0.025767833
238	0x3f455428	0.7708154
239	0xbdbd0113	-0.092287205
240	0xbebdb1c4	-0.37049687
241	0xbf39cbee	-0.72576797
242	0xbe245eca	-0.16051784
243	0xbecad99c	-0.39619148
244	0x3e968da6	0.29404944
245	0xbec21d59	-0.37913015
246	0xbef08380	-0.46975327
247	0x3f3e4f03	0.7433931
248	0xbe4a58da	-0.19760457
249	0xbdbda372	-0.0925969
250	0xbca11890	-0.019665033
251	0xbb44244d	-0.0029928864
252	0x3d541c05	0.051784534
253	0xbbecf714	-0.0072316024
254	0x3d9031cb	0.07040747
255	0x3d7bfddb	0.061521392

layers.0.bias f4 [128]
0	0x3e89e19c	0.2692994
1	0x3ecef89a	0.40424043
2	0xbdc3ff17	-0.09570139
3	0x3f106da7	0.56417316
4	0x3ebc309f	0.36755845
5	0xbec5f28e	-0.38661617
6	0x3e971528	0.29508328
7	0x3f0c9ad0	0.54923725
8	0xbed15b65	-0.4089004
9	0x3ca9cb06	0.020726692
10	0x3e032070	0.12805343
11	0x3ed5a4b5	0.41727224
12	0x3f05a23f	0.5220069
13	0x3ed6148f	0.4181256
14	0x3e742f6f	0.2384622
15	0xbea7c8b5	-0.32770315
16	0xbf036a7f	-0.51334375
17	0x3d259892	0.040428706
18	0x3ec20e9e	0.37901777
19	0x3e2654db	0.16243307
20	0x3dcc24ef	0.09967982
21	0x3f1463c1	0.5796471
22	0xbee498d1	-0.4464784
23	0xbd99f1b8	-0.07516807
24	0xbecf26d8	-0.40459323
25	0x3ecbd367	0.39809725
26	0x3ece7edc	0.4033116
27	0x3f4bbecd	0.79588014
28	0xbd38673c	-0.045020327
29	0x3f4d710b	0.80250615
30	0x3cfd7eb3	0.030944204
31	0xbe5af5a6	-0.2138277
32	0xbde8d4fb	-0.11368748
33	0x3decdfff	0.11566161
34	0x3cada001	0.02119446
35	0xbe62a179	-0.2213191
36	0xbef02d68	-0.46909642
37	0x3f164566	0.58699644
38	0xbf001712	-0.500352
39	0x3d4841b6	0.04889079
40	0xbca4b06e	-0.02010366
41	0x3ee12d96	0.43980092
42	0xbd73c309	-0.059512172
43	0xbe01c90b	-0.12674348
44	0xbdfabe44	-0.122433215
45	0xbc5a0e4d	-0.013309074
46	0x3e293d3a	0.16527262
47	0x3edd89d3	0.43269214
48	0xbbf3b5f7	-0.0074374634
49	0x3eac4a2e	0.33650345
50	0x3d0ee033	0.03488178
51	0x3e86bdc6	0.2631666
52	0x3ee55196	0.44788808
53	0xbec875da	-0.39152414
54	0x3e5ad683	0.21370892
55	0xbef5db7a	-0.4801901
56	0xbdafc4e8	-0.08582479
57	0x3d3e17af	0.046409305
58	0x3b038080	0.0020065606
59	0xbd699779	-0.05702922
60	0x3eaef318	0.3416984
61	0x3f048c18	0.51776266
62	0xbeece182	-0.462658
63	0x3f48b83d	0.78406125
64	0x3d05a277	0.03262564
65	0xbeb0ce2e	-0.34532303
66	0x3ea359c1	0.31904414
67	0xbe2f8044	-0.17138773
68	0xbee146be	-0.43999285
69	0xbe5aefd2	-0.21380547
70	0x3ee7e0ce	0.452887
71	0x3f238113	0.63868827
72	0xbda5c8c7	-0.08094936
73	0xbe6ee8dc	-0.23331016
74	0xbeb1327e	-0.34608835
75	0x3e1b1607	0.15145122
76	0xbe824e01	-0.25450137
77	0xbe0d3fd2	-0.13793877
78	0x3da6a00c	0.08135995
79	0xbf026a2b	-0.5094325
80	0xbe858e3a	-0.26085073
81	0xbe40773f	-0.18795489
82	0xbc954953	-0.01822344
83	0xbe0dd71f	-0.13851593
84	0x3f081919	0.53163296
85	0x3d53eb81	0.051738266
86	0x3f06525c	0.5246942
87	0xbe0b72da	-0.13618031
88	0xbe397150	-0.18109632
89	0x3e9585f6	0.29203767
90	0xbd6225ed	-0.05521195
91	0xbeb58450	-0.3545251
92	0x3c318cc9	0.010836788
93	0x3e4aa2a7	0.1978861
94	0x3f170b53	0.59001654
95	0xbef642c6	-0.4809782
96	0x3ea3f5ba	0.32023412
97	0xbeb384f1	-0.35062364
98	0xbe3f317b	-0.18671219
99	0x3e24b145	0.16083248
100	0x3f00ce6a	0.5031496
101	0xbefc2592	-0.49247414
102	0x3ede8db5	0.4346749
103	0x3e355c93	0.17711096
104	0x3f492c2e	0.7858304
105	0xbe9bd42a	-0.30435306
106	0xbe80b8fe	-0.25141138
107	0xbede86ab	-0.43462119
108	0x3ecd8906	0.40143603
109	0x3f1bc5ac	0.608485
110	0x3eba939c	0.36440742
111	0x3e5f7368	0.21821368
112	0xbe36b04a	-0.17840686
113	0x3ed4e539	0.41581133
114	0xbde3195e	-0.11088823
115	0x3e114bc6	0.14189062
116	0xbf00ea00	-0.50357056
117	0x3e6bfaa6	0.23044834
118	0x3e2f8fc4	0.17144686
119	0xbeaf4774	-0.34234202
120	0x3eca0ee1	0.39464477
121	0xbe614c90	-0.22001863
122	0xbdefcac2	-0.11708595
123	0x3e9262c8	0.2859099
124	0x3e611f04	0.21984488
125	0xbef40d44	-0.4766637
126	0xbc191dd8	-0.009345494
127	0x3e859585	0.26090637

layers.1.weight f4 [128, 128]
0	0x3de18e68	0.1101349
1	0xbdf3dbe4	-0.11907175
2	0x3e03af3d	0.12859817
3	0x3d8a21b4	0.067447096
4	0xbd1c914f	-0.038224515
5	0xbd763882	-0.060112484
6	0x3cb0d97a	0.021588076
7	0xbd186c37	-0.037212577
8	0x3dbe2f7a	0.09286399
9	0x3cd4e761	0.025989236
10	0x3d9d3766	0.07676582
11	0x3df73ea9	0.12072498
12	0x3d3cc1e2	0.04608334
13	0x3c7dc63a	0.015489155
14	0xbdd4b51f	-0.103861086
15	0xbd62bb59	-0.05535445
16	0x3d473fc1	0.048644785
17	0x3e4d3496	0.20039591
18	0xbdfd1e24	-0.123592645
19	0xbe40bd9a	-0.18822327
20	0xbd3be6c4	-0.045874372
21	0xbc01bf76	-0.007919183
22	0x3da7af54	0.08187738
23	0xbd6b003d	-0.057373274
24	0xbc74eac6	-0.0149485525
25	0xbcdf68b0	-0.027271599
26	0xbe5ed844	-0.21762186
27	0xbe67c5f3	-0.22634105
28	0x3dbd3cf0	0.092401385
29	0x3ec5cb7b	0.38631806
30	0xbb84a18e	-0.004047579
31	0x3cbc0475	0.022951344
32	0x3dda9c12	0.10674299
33	0xbe929484	-0.28628933
34	0x3d094631	0.033514205
35	0xbe56ce91	-0.20977236
36	0x3cdf1c33	0.027235126
37	0x3c99ba9e	0.018765744
38	0x3b045a75	0.0020195518
39	0xbcda8fac	-0.026679836
40	0xbd126f6d	-0.035750795
41	0x3cfc2d94	0.030783452
42	0xbdcaf8e7	-0.099107556
43	0x3d770e3d	0.060316313
44	0x3dac49a2	0.08412482
45	0xbc71ab45	-0.0147503065
46	0x3e5b6c35	0.21427996
47	0x3b2966bf	0.0025848595
48	0xbdcc5d33	-0.09978714
49	0xbab94a5b	-0.001413654
50	0xbdbe547e	-0.09293459
51	0xbce5d4f9	-0.028055655
52	0xbdb14284	-0.08655265
53	0x3d3827b5	0.044959743
54	0x3bfd7b49	0.007735644
55	0x3de8ace3	0.113611005
56	0xbe7cdfb6	-0.24694714
57	0xbc1922e3	-0.009346697
58	0xbc703fd0	-0.014663652
59	0xbc8e8db6	-0.017401557
60	0xbd68b9c5	-0.05681779
61	0x3d81f43c	0.06345412
62	0x3d19befd	0.037535656
63	0x3e3a471e	0.18191192
64	0xbd7cfb59	-0.06176314
65	0x3dfbce55	0.12295214
66	0xbdcabe49	-0.09899575
67	0x3d200fa3	0.039077412
68	0x3d9d52e9	0.076818295
69	0xbe24ccee	-0.160938
70	0xbe076347	-0.13221465
71	0xbd838bd9	-0.06423158
72	0x3dd8ed0e	0.105920896
73	0x3bbc11a8	0.0057394095
74	0x3dfa7672	0.12229623
75	0x3c8a82a0	0.01690799
76	0x3d2db450	0.042408288
77	0x3d0c5be1	0.03426731
78	0xbcab1ba5	-0.020887205
79	0x3c90702b	0.01763161
80	0xbe77f13b	-0.24213116
81	0xbc598a20	-0.0132775605
82	0xbdaf4ebf	-0.085599415
83	0x3e669020	0.22515917
84	0xbd305fca	-0.0430601
85	0xbe067425	-0.13130243
86	0xbddc4a06	-0.10756306
87	0xbc98505f	-0.018593011
88	0xbc93a271	-0.018021794
89	0x3e06c8e9	0.13162579
90	0xbe507334	-0.20356447
91	0x3c090636	0.008363297
92	0x3c978ab4	0.018498756
93	0x3d01fa33	0.03173275
94	0x3db237b8	0.08702034
95	0xbd45ad41	-0.04826093
96	0x3cdfd782	0.027324442
97	0x3e0760a6	0.13220462
98	0xbc291f94	-0.01032247
99	0x3bd97817	0.0066366303
100	0xbe011533	-0.12605743
101	0xbe205f93	-0.15661459
102	0x3de4d2bf	0.11173009
103	0x3d5c050d	0.053715754
104	0xbcfe6e54	-0.031058468
105	0x3d9ac8e3	0.07557847
106	0x3e4200d8	0.18945634
107	0x3da6f2cf	0.08151781
108	0x3dc105f0	0.094249606
109	0x3ce5ede2	0.028067533
110	0xbe16a4fc	-0.14711374
111	0xbc26450c	-0.010148298
112	0x3daf587a	0.085617974
113	0xbde8a7ea	-0.11360152
114	0xbdcc3351	-0.09970725
115	0x3e1b2631	0.15151288
116	0xbe00331e	-0.125195
117	0x3d989959	0.07451124
118	0x3cd6527a	0.026162375
119	0x3e9f6bc1	0.31136897
120	0xbe811c8b	-0.2521709
121	0x3e66126a	0.22467962
122	0x3d4bbd85	0.049741287
123	0xbd3d6ba6	-0.04624524
124	0xbd7c54d4	-0.061604336
125	0x3cc50dc9	0.024054425
126	0xbc93b411	-0.018030198
127	0x3d19bf93	0.037536215
128	0x3e280122	0.16406682
129	0xbdb283cd	-0.08716545
130	0x3c911a38	0.017712697
131	0x3cee458f	0.029085902
132	0x3cb88e83	0.022528892
133	0xbd05b670	-0.03264469
134	0x3d195a14	0.03743942
135	0x3bc00367	0.0058597806
136	0xbe87be13	-0.26512203
137	0x3da35c5b	0.079766
138	0xbd584628	-0.05280128
139	0x3d9fdff0	0.078063846
140	0x3dc5d796	0.096602604
141	0xbe0bb216	-0.13642153
142	0x3d14108c	0.036148593
143	0x3d878b52	0.0661837
144	0xbd79d234	-0.06099148
145	0xbd891ef2	-0.066953555
146	0x3d3f3fb5	0.046691615
147	0xbd64deda	-0.05587659
148	0x3cb8ab8c	0.022542737
149	0x3d43f0a1	0.047836903
150	0x3cdd3cf2	0.0270066
151	0x3bbf7a47	0.005843434
152	0x3d10d1c6	0.035356306
153	0x3dddcda3	0.10830238
154	0x3d0d4c84	0.0344968
155	0x3e04c8de	0.1296725
156	0xbe3bcea7	-0.1834055
157	0x3f056f23	0.52122706
158	0xbd3b6a67	-0.04575577
159	0xbe084a82	-0.13309672
160	0xbe06c245	-0.13160045
161	0x3e5a343d	0.2130899
162	0x3d741a8c	0.05959563
163	0xbcfa4247	-0.030549182
164	0xbe3c191c	-0.18368953
165	0x3d7764f0	0.060398996
166	0xbcc98687	-0.02460028
167	0xbe5aea78	-0.21378505
168	0x3cc2eb8f	0.023793964
169	0x3e81e551	0.25370267
170	0xbc74bbd3	-0.014937359
171	0xbe5e4c71	-0.21708848
172	0xbe315d90	-0.17320848
173	0xbd86ce41	-0.065823086
174	0x3d279e3f	0.0409224
175	0x3c26dbd6	0.010184249
176	0xbe16108f	-0.14654754
177	0x3df8dd89	0.121516295
178	0xbdf488e9	-0.11940176
179	0x3e101efb	0.14074318
180	0xbdae68d8	-0.08516091
181	0x3d3c862e	0.0460264
182	0xbd54f5f1	-0.05199236
183	0x3e8e3c14	0.2778021
184	0x3c3b63c4	0.01143736
185	0xbdeb65c3	-0.11494019
186	0x3d4b23ec	0.049594805
187	0x3e98f904	0.29877484
188	0x3da2a4af	0.07941567
189	0x3d9dc836	0.07704203
190	0xbd4c4f2d	-0.049880195
191	0x3e01d66a	0.12679449
192	0x3e2b5268	0.16730654
193	0x3d032a56	0.032022797
194	0x3d79bf55	0.060973484
195	0xbe873a36	-0.264116
196	0xbdaf4ab1	-0.08559168
197	0xbcb8a319	-0.022538709
198	0x3e3c6119	0.18396415
199	0x3e04386e	0.12912151
200	0x3e2461a6	0.16052875
201	0xbd70d21a	-0.05879412
202	0xbddb0a6d	-0.10695348
203	0xbe01b9a3	-0.12668471
204	0xbe5ce0a0	-0.21570063
205	0x3d9efd46	0.07763152
206	0x3d15a7b4	0.036536887
207	0x3e1dd828	0.15414488
208	0xb97fc939	-0.00024393656
209	0x3c804124	0.015656061
210	0xbd16a552	-0.036778755
211	0xbd1b4cd7	-0.037915077
212	0x3e95ebc1	0.29281428
213	0x3d9251ee	0.07144533
214	0xbd5025a7	-0.050817158
215	0xbe0567e7	-0.13027917
216	0xbdbe9618	-0.09305972
217	0xbd57d051	-0.0526889
218	0x3d84deaa	0.06487782
219	0x3d02209e	0.031769387
220	0x3df69152	0.120394364
221	0x3e044797	0.12917934
222	0x3d67f5de	0.05663096
223	0x3e463420	0.19355822
224	0x3d8579ab	0.06517347
225	0xbe141c6e	-0.1446397
226	0xbd9a3c1a	-0.07530995
227	0x3d8fc3ac	0.07019743
228	0x3d90471f	0.07044815
229	0xbd46b00b	-0.04850773
230	0x3d98d945	0.07463316
231	0x3d69e320	0.05710137
232	0x3dd2b7a6	0.102889344
233	0xbce698a3	-0.028148955
234	0xbce7707c	-0.028251879
235	0xbce19a5b	-0.027539423
236	0x3e320505	0.17384727
237	0x3ce69194	0.028145589
238	0x3d30c7f6	0.043159448
239	0x3d903a89	0.07042415
240	0xbccfee88	-0.025382295
241	0xb99b79ab	-0.00029654554
242	0xbd6bd986	-0.057580493
243	0xbde8e318	-0.1137144
244	0xbe70cb23	-0.2351499
245	0xbe062801	-0.13101198
246	0xbc89b3df	-0.016809402
247	0xbc18b9e6	-0.009321665
248	0x3e1d92c3	0.15388016
249	0x3e589972	0.21152285
250	0x3e219f5b	0.15783446
251	0x3daf1c87	0.08550363
252	0xbd3beb6e	-0.04587882
253	0x3c0775d3	0.008267838
254	0x3d06eb4e	0.032939248
255	0xbd64faeb	-0.055903357
