Gym-DDPG-solution/results/DDPG_HalfCheetah-v4_2000-eps0.1-t32-l0.0001-s1.pth (torch, 193979 bytes, 13 tensors)

layers.0.weight f4 [128, 23]
0	0x3dda81e9	0.1066931
1	0xbd78c140	-0.060731173
2	0x3c757a65	0.014982794
3	0x3dbac732	0.09120025
4	0xbe1bf015	-0.15228303
5	0x3ec0920f	0.37611434
6	0x3da32ed5	0.07967917
7	0x3dc827cc	0.09773216
8	0xbeaf0159	-0.34180716
9	0x3e05bf2e	0.1306121
10	0x3d95707f	0.072968476
11	0x3cbf2a4b	0.023335597
12	0x3c805ed4	0.015670218
13	0xbc6a1064	-0.014286134
14	0x3ca07a9d	0.019589717
15	0xbc9fe52b	-0.019518455
16	0xbc4613bc	-0.012089666
17	0x3d1e6938	0.038674563
18	0x3e755c9b	0.23961107
19	0x3e60fe2f	0.21971963
20	0xbe092e42	-0.13396552
21	0xbe1d2240	-0.15345097
22	0xbd81911f	-0.06326508
23	0xbd6efb57	-0.058345165
24	0xbc9d8809	-0.019229906
25	0x3f19bb7c	0.60051703
26	0x3eb41d1e	0.35178465
27	0x3e0f7376	0.14008889
28	0xbe1be07a	-0.1522235
29	0x3ea48819	0.32135084
30	0xbdad6d0e	-0.08468066
31	0x3eccc32d	0.39992657
32	0x3e042f34	0.12908632
33	0xbe9a7673	-0.30168495
34	0xbc5b100a	-0.013370523
35	0xbd4d6542	-0.050145395
36	0xbbb54152	-0.0055314684
37	0xbd2e1ecc	-0.04250984
38	0x3cdb5e3d	0.026778335
39	0xbc2bcdf5	-0.010486116
40	0x3ef75af6	0.48311585
41	0x3cf15703	0.029460436
42	0x3e18e24b	0.14930074
43	0x3dea2ebe	0.114346966
44	0xbeaf779a	-0.34270936
45	0x3d9853a1	0.07437826
46	0x3e0c6ad8	0.13712633
47	0xbd93c5c8	-0.07215458
48	0xbe95bc95	-0.2924544
49	0x3e19c27b	0.15015595
50	0xbdb95114	-0.090486676
51	0xbf49c507	-0.78816265
52	0xbea1335c	-0.31484497
53	0xbdcc87a4	-0.09986809
54	0x3ecc19c7	0.39863417
55	0x3f0198c5	0.5062373
56	0xbdb9ea97	-0.090779476
57	0xbc886f42	-0.016654614
58	0x3d1e5218	0.03865251
59	0x3c03ae03	0.008037093
60	0xbd448c3c	-0.0479853
61	0xbbb3d2b5	-0.0054877647
62	0x3c419e98	0.011817597
63	0x3e12c427	0.14332639
64	0x3d1f0d5d	0.038831104
65	0xbdd8a443	-0.105782054
66	0x3ca82bd9	0.02052872
67	0xbe25a20f	-0.16175102
68	0xbd0556ed	-0.032553602
69	0xbe2147c1	-0.15750028
70	0xbbeb91dc	-0.0071890187
71	0xbdbcc6c7	-0.09217601
72	0x3e449784	0.19198424
73	0x3dea5767	0.11442452
74	0x3cca0dbf	0.024664758
75	0x3daa8561	0.08326221
76	0x3d90434a	0.07044084
77	0xbda413e0	-0.08011603
78	0xbee7e8ed	-0.45294896
79	0xbcd49278	-0.025948748
80	0xbe473a84	-0.19455916
81	0xbde43bc5	-0.11144213
82	0xbcae49a8	-0.021275356
83	0x3cf1e7f5	0.029529551
84	0x3d5c0227	0.05371299
85	0x3c7a7826	0.015287435
86	0xbe6a9995	-0.2291015
87	0x3ddb04e8	0.10694295
88	0x3d7d169b	0.061789136
89	0x3e1cd6e4	0.1531635
90	0x3e5234c4	0.20527941
91	0xbe163781	-0.1466961
92	0x3e54b9a7	0.20773946
93	0x3d9eb09d	0.0774853
94	0xbe65bea6	-0.22436008
95	0x3c01a884	0.007913712
96	0x3e2e61ac	0.17029446
97	0x3e3ec378	0.18629253
98	0xbe4f3716	-0.20235857
99	0xbe61f7c8	-0.22067177
100	0x3ebd8495	0.37015215
101	0xbd79ff7a	-0.061034657
102	0x3e5f765c	0.21822494
103	0x3d66c115	0.05633648
104	0xbdfa8780	-0.12232876
105	0xbd9759d2	-0.07390179
106	0x3dd9c35d	0.10632966
107	0x3c63a9e1	0.013895483
108	0x3d510c7a	0.05103729
109	0x3dd19210	0.10232937
110	0x3d9ac048	0.07556206
111	0x3df48fda	0.119415
112	0x3e64f764	0.22359997
113	0xbdcd77c3	-0.10032608
114	0xbcc82191	-0.024430068
115	0x3be21a95	0.0069001415
116	0x3efe2032	0.49633938
117	0xbe22d899	-0.15902938
118	0xbeea3258	-0.45741534
119	0xbd7fe049	-0.062469754
120	0x3db932e0	0.09042907
121	0x3e2af569	0.16695179
122	0x3eb56330	0.35427237
123	0xbdf4982b	-0.11943086
124	0x3e04b989	0.12961401
125	0xbe09aefc	-0.13445657
126	0xbdc96026	-0.09832792
127	0xbdc88d2d	-0.09792552
128	0x3d16373d	0.036673773
129	0x3da2199a	0.07915039
130	0x3c98e798	0.01866512
131	0x3d66902f	0.056289848
132	0x3e353106	0.17694482
133	0x3e1e0496	0.15431437
134	0x3dda800d	0.10668955
135	0x3ea6165e	0.3243894
136	0x3e237d03	0.15965657
137	0x3d4c9ca3	0.049954068
138	0xbd28a6e2	-0.041174777
139	0xbdcfbe42	-0.10143711
140	0x3e6b4b4f	0.22977947
141	0x3d5c740b	0.053821605
142	0xbe502073	-0.20324878
143	0x3d1f10b0	0.038834274
144	0x3cd29049	0.025703566
145	0xbd2e5b89	-0.042567763
146	0x3ea91baa	0.33028919
147	0x3ea3e5d5	0.32011285
148	0x3d605c87	0.05477574
149	0x3e3e44f7	0.18580996
150	0xbd6a3c52	-0.057186432
151	0x3e613c20	0.21995592
152	0xbde57c66	-0.11205368
153	0xbb20a694	-0.002451335
154	0xbbd9603b	-0.006633786
155	0xbbc5dbb2	-0.0060381526
156	0xbe1331ca	-0.14374462
157	0xbe91a4ae	-0.28445953
158	0x3e8bb2bb	0.27284798
159	0xbd91b784	-0.07115081
160	0xbe1c5adc	-0.15269035
161	0x3e781002	0.24224856
162	0x3e37acfa	0.17937079
163	0x3f0ed37a	0.5579144
164	0xbe326d73	-0.17424564
165	0x3e3e1102	0.18561175
166	0xbd2f694e	-0.042825036
167	0xbdcf959f	-0.1013596
168	0xbe52db19	-0.20591392
169	0xbec2a72b	-0.38018164
170	0xbe04abf7	-0.12956224
171	0x3e6ebc59	0.23314036
172	0xbcea066a	-0.028567512
173	0x3bff821a	0.0077974917
174	0x3d963eed	0.07336221
175	0x3e04fa95	0.12986214
176	0x3d3f5425	0.046711106
177	0x3d15e1f9	0.036592457
178	0xbd889d9a	-0.06670685
179	0x3e90179d	0.28143016
180	0x3ad307cb	0.0016100345
181	0x3d28b2c4	0.04118611
182	0xbe60a29d	-0.21937032
183	0xbdf92e77	-0.121670656
184	0xbede057b	-0.43363556
185	0x3ec23d20	0.3793726
186	0xbe7d2cc8	-0.24724114
187	0xbb895d5a	-0.0041920366
188	0xbe37b125	-0.17938669
189	0xbed425db	-0.4143513
190	0x3e0badb8	0.13640487
191	0xbd6a61cb	-0.05722217
192	0xbe61e21e	-0.22058913
193	0xbd980179	-0.07422156
194	0x3df5bd7d	0.11999033
195	0xbcf534f7	-0.029932482
196	0x3ca0f87a	0.019649733
197	0xbc9b9c4a	-0.018995423
198	0x3de2da8a	0.11076839
199	0xbd449c72	-0.04800076
200	0x3ccd1882	0.0250361
201	0xbea176a9	-0.31535843
202	0x3e9c00bb	0.30469307
203	0xbdb13bcb	-0.08653983
204	0x3d55ada2	0.052167542
205	0xbd4b5201	-0.049638752
206	0xbd165ec5	-0.036711473
207	0xbe127f5f	-0.143064
208	0x3e91b4cd	0.28458253
209	0x3d2cd7ff	0.042198177
210	0xbf245f50	-0.64207935
211	0x3e180987	0.14847384
212	0xbe17d385	-0.14826782
213	0x3cb4dc30	0.02207765
214	0x3e915b3a	0.28389913
215	0x3ef26a0c	0.47346532
216	0x3eb601aa	0.35548145
217	0xbd734142	-0.059388407
218	0xbd572583	-0.05252601
219	0x3dcec03f	0.10095262
220	0xbd1562b7	-0.036471095
221	0x3ac9ae43	0.0015387017
222	0xbd769efe	-0.06021022
223	0xbd846692	-0.06464876
224	0x3e92b3b5	0.2865273
225	0xbd41ff55	-0.047362644
226	0x3dfac83e	0.122452244
227	0x3d3613ee	0.0444526
228	0x3ea201ca	0.3164199
229	0x3e5dd350	0.2166264
230	0x3dfb63c8	0.12274891
231	0xbf15ea07	-0.5856022
232	0x3e3821b6	0.1798161
233	0x3db4831d	0.088140704
234	0x3cce6c4a	0.02519812
235	0x3e470dc6	0.19438848
236	0xbdfdb954	-0.12388864
237	0xbccd256a	-0.025042254
238	0x3e858fda	0.26086313
239	0xbe905648	-0.28190827
240	0xbdb0f89e	-0.0864117
241	0xbd1b7802	-0.037956245
242	0xbc8a2350	-0.016862541
243	0x39e3411c	0.00043345324
244	0xbc9c270e	-0.019061591
245	0xbb93f853	-0.0045156865
246	0xbc844d88	-0.016150251
247	0xbdd3ed74	-0.10348025
248	0xbd6e27f3	-0.058143567
249	0x3e0e1e41	0.13878728
250	0x3dd05bf5	0.101737894
251	0xbdf0db00	-0.11760521
252	0x3cdeceed	0.02719828
253	0x3f13cabf	0.5773124
254	0xbdc2293b	-0.0948052
255	0x3e1a041b	0.15040629

layers.0.bias f4 [128]
0	0xbdf7cb10	-0.12099278
1	0xbdfc15db	-0.12308856
2	0xbe82d3cd	-0.25552216
3	0x3c8569ce	0.016285803
4	0xbe4e50ce	-0.20148012
5	0x3e02a8fa	0.12759772
6	0xbdab0fb5	-0.08352605
7	0xbe9f253f	-0.31083104
8	0x3e78808d	0.24267788
9	0x3e27a84c	0.16372794
10	0xbe4b7f97	-0.1987289
11	0xbef13ece	-0.4711823
12	0xbe3e6a9a	-0.18595353
13	0xbe5e20a6	-0.21692142
14	0xbceb839c	-0.02874928
15	0x3d0cbdf5	0.034360845
16	0x3d5c6448	0.053806573
17	0xbcb809bf	-0.022465585
18	0xbe22ebfb	-0.15910332
19	0xbe3f5cfb	-0.18687813
20	0x3e8121d8	0.25221133
21	0xbc2417ed	-0.01001547
22	0xbdc7659d	-0.09736178
23	0xbe5c5e24	-0.21520287
24	0x3d9c7dd6	0.07641189
25	0x3c84d336	0.016213994
26	0x3e4dae13	0.20085935
27	0xbd018322	-0.0316192
28	0x3e3658d9	0.1780733
29	0xbb34f154	-0.0027609663
30	0x3ea10247	0.3144705
31	0xbe42aa8c	-0.19010371
32	0x3eba2731	0.36358026
33	0xbde83ec8	-0.113400996
34	0xbe2e5621	-0.17025043
35	0x3dbefbe5	0.09325389
36	0xbe63e4e2	-0.2225528
37	0x3d3abf72	0.045592733
38	0x3d610f96	0.054946505
39	0xbecc28c6	-0.39874858
40	0x3d6db6d8	0.0580357
41	0xbe8c7b92	-0.27438027
42	0x3d5b8f15	0.05360325
43	0xbe5160e8	-0.20447123
44	0x3d32f38c	0.043689296
45	0xbdb5ad11	-0.088709004
46	0xbeaa7e84	-0.3329965
47	0xbea3815e	-0.31934637
48	0x3e656838	0.22403038
49	0x3e897821	0.26849464
50	0xbe8d43b4	-0.27590716
51	0xbdfc9454	-0.12332979
52	0x3ece62a0	0.4030962
53	0x3ecfd56e	0.4059252
54	0x3e047ae5	0.12937506
55	0xbe7fd4b6	-0.24983487
56	0x3d285c74	0.041103795
57	0xbeb7f964	-0.35932457
58	0x39b5ebee	0.00034698792
59	0x3ee36c02	0.4441834
60	0xbe12c58c	-0.1433317
61	0x3e52b0d8	0.20575273
62	0xbebb0b42	-0.36532027
63	0x3d7f210c	0.062287375
64	0xbe3eea32	-0.18644026
65	0x3e7aad96	0.2448028
66	0xbdd60bac	-0.10451445
67	0x3d19a652	0.03751213
68	0xbea77e84	-0.3271371
69	0xbe4035c1	-0.18770505
70	0x3e08e7ad	0.13369627
71	0xbd3963c1	-0.04526115
72	0x3ec5977e	0.38592142
73	0xbebb9b7a	-0.36642057
74	0x3e225cf2	0.15855768
75	0xbe4fe6da	-0.20302907
76	0xbea04ce3	-0.3130866
77	0xbea2afc0	-0.31774712
78	0xbd61c4bf	-0.055119272
79	0x3e6d86ea	0.23195997
80	0x3c39a214	0.011330146
81	0xbcd02e7f	-0.025412796
82	0x3dcffdbf	0.1015582
83	0xbe15b283	-0.14618878
84	0xbe9cc0d2	-0.3061586
85	0xbe5c961d	-0.21541639
86	0xbdb55add	-0.088552214
87	0x3e65b175	0.22430976
88	0x3e15ed26	0.14641246
89	0xbe8d7ce7	-0.27634355
90	0x3d0d0efa	0.03443811
91	0xbe870dec	-0.2637781
92	0x3ce3ed55	0.02782313
93	0xbe36d54d	-0.17854805
94	0x3c463bc4	0.01209921
95	0xbcf5c62f	-0.030001728
96	0xbea257ee	-0.3170771
97	0x3ea58280	0.32326126
98	0xbdc4e283	-0.09613516
99	0x3e0e20b3	0.13879661
100	0xbd94987f	-0.07255649
101	0xbd146a85	-0.036234397
102	0xbe831a5b	-0.25606045
103	0x3eeaa515	0.45829073
104	0x3e431d58	0.19054163
105	0xbd311a37	-0.04323789
106	0x3d9fe7fa	0.07807918
107	0x3d667061	0.056259517
108	0xbe3f5578	-0.18684947
109	0xbe936f03	-0.28795633
110	0x3eaf03e3	0.34182653
111	0x3e9a6204	0.30152905
112	0x3eabd91f	0.33564088
113	0x3e5bbe4a	0.21459308
114	0x3e34cd96	0.1765655
115	0xbefc89ee	-0.49323982
116	0x3ea00100	0.31250763
117	0x3ea69c45	0.325411
118	0xbd2cfb80	-0.042232037
119	0x3e77e3ae	0.24207947
120	0x3d8549c1	0.06508208
121	0xbd2c7579	-0.04210422
122	0xbd795aa8	-0.060877472
123	0xbdf83eaf	-0.12121331
124	0xbdd1f531	-0.10251845
125	0xbe24a1a5	-0.16077287
126	0x3d3cb0a5	0.0460669
127	0xbebd74fe	-0.3700332

layers.1.weight f4 [128, 128]
0	0x3d88a949	0.066729136
1	0xbdbbccd9	-0.09169931
2	0xbd194c14	-0.03742607
3	0x3c4d04e8	0.012513377
4	0xbc97efd4	-0.018546976
5	0x3cb99a60	0.02265662
6	0x3d5b6886	0.05356648
7	0x3ca76d4e	0.020437863
8	0x3c868d07	0.016424669
9	0x3d8cfa07	0.068836264
10	0xbe18b46f	-0.1491258
11	0xbd001f36	-0.031279765
12	0x3d071f28	0.032988697
13	0xbd82d90a	-0.06389053
14	0x3dbb67ec	0.09150681
15	0x3d974e39	0.07387967
16	0x3cc6b42f	0.02425584
17	0xbd98f3f7	-0.074684076
18	0xbd7a56ca	-0.061117925
19	0x3d2aba15	0.041681368
20	0xbd44c6fb	-0.048041325
21	0x3bb782d9	0.005600315
22	0x3cebb742	0.028773908
23	0x3d855e5f	0.065121405
24	0x3d3e8d51	0.04652149
25	0xbe1fcf69	-0.15606464
26	0xbe467d68	-0.19383776
27	0x3d3d6124	0.04623522
28	0xbb310a8f	-0.002701435
29	0xbd2b3adf	-0.04180419
30	0x3d0fc905	0.035103817
31	0x3d9aed4e	0.075647935
32	0xbc99ec0f	-0.01878932
33	0xbb1a0540	-0.0023501664
34	0x3ddf5039	0.10903973
35	0xbd24ef57	-0.040267315
36	0x3df6b708	0.12046629
37	0xbc35717e	-0.011074422
38	0xbcbb2063	-0.022842592
39	0xbca12cb2	-0.019674633
40	0x3dbc1cea	0.091852024
41	0x3db3fd4c	0.08788547
42	0x3d4f8d07	0.050671604
43	0x3d4787ba	0.048713423
44	0xbcbdd010	-0.023170501
45	0x3b37abe7	0.0028026046
46	0x3dc9cc12	0.098533764
47	0x3abb7f52	0.0014304912
48	0xbd6c532d	-0.05769651
49	0xba3777a4	-0.0006998724
50	0xbe17b595	-0.14815362
51	0xbd10d1ae	-0.035356216
52	0xbd243ce8	-0.040097147
53	0xbd95cf35	-0.07314912
54	0xbdb2ef1a	-0.08737011
55	0xbda577df	-0.08079504
56	0x3c46a919	0.012125277
57	0x3d69e192	0.057099886
58	0x3cecb6f7	0.028895838
59	0xbd8d8716	-0.06910531
60	0x3cd6d68a	0.026225347
61	0x3d97eb6a	0.074179485
62	0x3e0e62c4	0.13904864
63	0xbcbf26c4	-0.023333915
64	0x3e090eaa	0.133845
65	0xbc936409	-0.017992036
66	0x3d2899e1	0.041162375
67	0xbd99a7fa	-0.07502742
68	0x3cc8f88b	0.024532577
69	0xbd3718ef	-0.044701513
70	0xbc96d1ea	-0.018410642
71	0x3dd9938e	0.10623847
72	0xbce9ed04	-0.0285554
73	0x3cdddb88	0.02708222
74	0xbd7bbeee	-0.06146138
75	0xbd43889c	-0.047737703
76	0xbd12cad3	-0.03583796
77	0xbe11bfe7	-0.14233361
78	0xbbe0fb43	-0.00686589
79	0x3cc38796	0.023868363
80	0x3d3dbd29	0.046322975
81	0x3d21c10e	0.039490752
82	0x3ccb0bde	0.024785932
83	0x3e2a6a95	0.1664222
84	0x3ddc8401	0.10767365
85	0x3deaaf68	0.11459237
86	0x3d2710b9	0.040787432
87	0xbda19ef9	-0.0789165
88	0xbd89b616	-0.06724183
89	0xbd71ea3c	-0.059061274
90	0x3d1e5ea9	0.038664494
91	0x3e05a93d	0.1305284
92	0xbd81ed3c	-0.06344077
93	0xbd91a9bd	-0.07112453
94	0x3e07772a	0.13229051
95	0x3c6c9ff0	0.014442429
96	0xbe18fb98	-0.14939725
97	0xbcb291fe	-0.02179813
98	0x3c9db342	0.019250516
99	0x3d5857b0	0.052818
100	0xbd574c6b	-0.052563112
101	0x3d128d11	0.035779063
102	0xbdaf1d1e	-0.085504755
103	0x3d0beff3	0.03416438
104	0xbda430c0	-0.08017111
105	0x3b819aad	0.0039552064
106	0x3cdd0e51	0.026984366
107	0x3d5a4e79	0.053297494
108	0xbda23ba6	-0.07921533
109	0xbcf1011a	-0.02941947
110	0xbd14d872	-0.03633923
111	0xbdd15f15	-0.102232136
112	0x3d5203c6	0.05127313
113	0xbd4261b7	-0.04745647
114	0xbc97b4ec	-0.018518887
115	0x3d97c2d2	0.07410206
116	0xbce3a231	-0.0277873
117	0x3c4e7881	0.012601973
118	0xbd6b73c0	-0.057483435
119	0x3dda8fe7	0.106719784
120	0x3df389eb	0.1189154
121	0x3c61268a	0.013742099
122	0xbd81b380	-0.06333065
123	0x3d1d13c6	0.038348936
124	0xbd85c72d	-0.065321304
125	0x3e0f0af7	0.13969027
126	0x3d96edc2	0.073695675
127	0x3e1c2153	0.15247087
128	0xbd9319e7	-0.07182675
129	0x3d2f3e83	0.042784225
130	0x3d4f4ddf	0.050611373
131	0xbd90e176	-0.07074253
132	0xbdb08871	-0.08619774
133	0xbcbc1ecb	-0.022963902
134	0x3d595b1a	0.053065397
135	0x3d1a0d4b	0.037610333
136	0xbdc0b7f6	-0.09410088
137	0x3dde05b4	0.108409315
138	0xbdea0205	-0.114261664
139	0x3d4916f3	0.04909415
140	0xbd3c79e4	-0.04601468
141	0xbd0cc1dd	-0.03436457
142	0xbcef440c	-0.029207252
143	0x3cb911e6	0.022591542
144	0xbd9174ca	-0.07102354
145	0xbd59985b	-0.053123813
146	0x3d861c1a	0.06548329
147	0x3cceab43	0.025228148
148	0xbcc556a3	-0.024089163
149	0x3c5a45f9	0.013322347
150	0xbde181ef	-0.11011111
151	0xbcd1b37e	-0.025598284
152	0x3df34f0e	0.11880313
153	0xbce47eb2	-0.027892444
154	0xbc1d0df3	-0.009585845
155	0x3d9229fd	0.07136915
156	0xbd19c33a	-0.0375397
157	0xbcb3824c	-0.021912716
158	0xbd1bdf00	-0.038054466
159	0x3e0596c5	0.13045795
160	0x3e0bb31c	0.13642544
161	0xbc77ebab	-0.015131871
162	0x3d97953b	0.0740151
163	0xbde04878	-0.10951322
164	0x3d07379e	0.033012025
165	0x3dabd41a	0.083900645
166	0x3d13313f	0.035935637
167	0xbd66c330	-0.05633849
168	0x3cc0a108	0.023514286
169	0x3d50ea36	0.05100461
170	0x3b5273b5	0.0032112424
171	0x3e0c9a06	0.1373063
172	0xbe0db5dc	-0.13838905
173	0x3de4d518	0.11173457
174	0xbdfe2383	-0.12409117
175	0x3baf478d	0.0053491057
176	0xbd884845	-0.06654409
177	0x3cc19188	0.023628965
178	0xbce6f39a	-0.02819233
179	0xbc84a1e9	-0.016190486
180	0xbd9b40cc	-0.075807184
181	0xbdda129e	-0.10648082
182	0xbc9a1f78	-0.018813834
183	0x3d1970f5	0.03746124
184	0xbccc0841	-0.02490628
185	0xba9ebd1c	-0.0012110802
186	0xbe1a1fdd	-0.15051217
187	0x3daa8715	0.08326546
188	0x3c926f72	0.017875407
189	0x3b29849d	0.0025866397
190	0x3bda1670	0.006655507
191	0xbc1b7191	-0.009487526
192	0x3d4da18b	0.050202888
193	0xbdb09283	-0.08621695
194	0x3b8101b3	0.00393697
195	0x3d4aa3fd	0.049472798
196	0x3da1b43f	0.07895707
197	0x3c1abc41	0.009444297
198	0xbd141b54	-0.036158875
199	0xbd3ff0f4	-0.04686065
200	0xbcf0f472	-0.029413436
201	0xbe48012d	-0.19531699
202	0x3d876bd1	0.06612361
203	0x3d5a43a9	0.053287182
204	0xbcc3ada9	-0.023886519
205	0xbd0a13b7	-0.033710208
206	0xbd70bf24	-0.058776036
207	0x3d5c6566	0.05380764
208	0x3d5c41cb	0.053773683
209	0x3d10200b	0.03518681
210	0x3d576913	0.05259044
211	0xbc8a7cd6	-0.01690523
212	0x3dc11916	0.09428613
213	0x3de5e051	0.112244256
214	0x3dc5b02f	0.09652745
215	0x3c471564	0.012151096
216	0x3c78edf3	0.01519345
217	0x3d656e3e	0.05601334
218	0xbe155ec0	-0.14586926
219	0xbc59d63a	-0.0132957045
220	0xbcfeb37f	-0.03109145
221	0x3ca146ff	0.019687174
222	0xbe124704	-0.14284903
223	0xbd485c86	-0.048916362
224	0xb7d0219a	-2.481118e-05
225	0xbca700db	-0.02038615
226	0xbdaeafa8	-0.085295975
227	0x3d2cbfb3	0.042175006
228	0xbd57e45b	-0.05270801
229	0x3cee5428	0.029092863
230	0x3c40b6aa	0.0117623005
231	0x3e039aad	0.12851973
232	0x3d4cf920	0.05004227
233	0xbd3778ef	-0.044793066
234	0xbc8a207b	-0.016861191
235	0xbb1c83a5	-0.0023882177
236	0x3b887c8d	0.0041652382
237	0x3c9ae09a	0.018905926
238	0xbd0fd28c	-0.035112903
239	0xbb27aa9d	-0.0025583871
240	0x3d3c94ef	0.04604047
241	0xbd884af1	-0.06654919
242	0x3c37d060	0.011219114
243	0x3cdbe121	0.026840748
244	0xbd3403bc	-0.043948874
245	0x3dbced4f	0.092249505
246	0xbda3790f	-0.079820745
247	0x3cdf3825	0.027248451
248	0x3d1bb520	0.03801453
249	0xbce4381a	-0.027858783
250	0xbd32eb6b	-0.043681543
251	0xbd87c22f	-0.066288345
252	0xbd3e6aae	-0.046488456
253	0xbd5a4482	-0.05328799
254	0xbc1e2f0f	-0.009654774
255	0xbceebc2f	-0.029142467

layers.1.bias f4 [128]
0	0xbca4f0ce	-0.020134356
1	0xbcee45f7	-0.029086096
2	0xbd808c31	-0.062767394
3	0xbc9ec74f	-0.019382147
4	0xbcfd0e5b	-0.030890634
5	0xbde25676	-0.11051647
6	0x3e03235e	0.1280646
7	0x3dbd25a3	0.09235694
8	0xbe08d286	-0.13361558
9	0xbe0e3ee1	-0.13891174
10	0x3d90b812	0.070663586
11	0xbe0d3f55	-0.1379369
12	0xbd9c8889	-0.076432295
13	0xbc9cdaa2	-0.019147221
14	0x3dade634	0.084911734
15	0x3cc11dab	0.023573717
16	0xbd72760e	-0.059194617
17	0x3cbfb0ba	0.0233997
18	0xbc99b1fc	-0.018761627
19	0x3d156f68	0.0364832
20	0x3d9fdf6f	0.078062885
21	0xbdc216de	-0.09477018
22	0x3b4a237a	0.00308439
23	0xbc986e1c	-0.018607192
24	0x3e646324	0.22303444
25	0x3d2395a2	0.039937623
26	0xbe1976c9	-0.14986719
27	0xbde7d51c	-0.11319944
28	0xbda162d3	-0.07880177
29	0xbcaf5489	-0.021402614
30	0x3d520a8a	0.051279582
31	0x3d922866	0.07136612
32	0xbcc9f5e5	-0.024653384
33	0x3d2dcd81	0.042432312
34	0x3dc3db21	0.0956328
35	0xbc9c98ca	-0.019115824
36	0x3e054fe4	0.13018757
37	0xbddaed37	-0.106897764
38	0x3df3265e	0.11872552
39	0x3dbe9159	0.093050666
40	0xbda7f2a4	-0.08200577
41	0xbc6cbb51	-0.014448957
42	0x3df71e35	0.120663084
43	0xbc9fc5ed	-0.019503558
44	0xbdf220db	-0.11822673
45	0x3d3eb00e	0.046554618
46	0xbd2af98d	-0.041741896
47	0xbe0ad4b1	-0.13557698
48	0xbdd0cc9d	-0.10195277
49	0x3ca569ac	0.02019199
50	0x3d0920ca	0.033478536
51	0xbd1d457d	-0.038396347
52	0xbda0d396	-0.07852857
53	0xbdd28eb3	-0.10281124
54	0x3cfdf84f	0.031002192
55	0xbd1b25f2	-0.037877984
56	0x3da7a805	0.08186344
57	0xbd8d49a6	-0.06898813
58	0x3d5625af	0.05228203
59	0xbe23f680	-0.16012001
60	0xbd86489f	-0.0655682
61	0x3d9ac964	0.075579435
62	0xbd85e3d8	-0.06537598
63	0xbdd2f789	-0.1030112
64	0xbe1680d0	-0.14697576
65	0x3c390964	0.011293743
66	0x3d89ddeb	0.067317806
67	0x3d4285ba	0.047490813
68	0xbd05da8c	-0.032679126
69	0xbd8e7445	-0.069557704
70	0xbd6ff2ca	-0.05858115
71	0xbd6627df	-0.056190368
72	0xbcf464cc	-0.02983322
73	0x3c469763	0.012121054
74	0x3d8f5e11	0.070003636
75	0xbdfaae0c	-0.12240228
76	0xbe299c71	-0.16563584
77	0x3dea1210	0.114292264
78	0xbd3e0281	-0.046389107
79	0xbe68e720	-0.22744417
80	0x3af30fca	0.0018544134
81	0x3c3d7772	0.0115641225
82	0x3e1b4700	0.15163803
83	0x3e0bc0d0	0.13647771
84	0x3d885c43	0.066582225
85	0x3c2f0f69	0.010684826
86	0xbda8ddc4	-0.082454234
87	0x3d137a81	0.0360055
88	0x3c372ecc	0.011180591
89	0xbd2dd1d6	-0.042436443
90	0xbd823057	-0.06356876
91	0x3de819e2	0.11333062
92	0x3d70b0a0	0.058762193
93	0xbc308314	-0.010773439
94	0xbddb1672	-0.106976405
95	0x3d26291a	0.04056654
96	0x3ceab53f	0.028650878
97	0xbafef76b	-0.0019452398
98	0xbe44db1f	-0.19224213
99	0xbcca713b	-0.024712196
100	0xbd40e23a	-0.047090746
101	0x3d471c1c	0.04861079
102	0xbd563d10	-0.052304327
103	0xbdbf5ea5	-0.09344224
104	0x3d998418	0.07495898
105	0xbd182366	-0.037143134
106	0xbdb8e34a	-0.09027727
107	0xbda13ea4	-0.07873276
108	0x3c7d0e1f	0.015445261
109	0xbd7fdfe8	-0.062469393
110	0x3dcfc3fd	0.10144804
111	0x3cc43cb6	0.02395473
112	0xbd54c039	-0.05194113
113	0x3c42f1c5	0.011898463
114	0x3dfd5412	0.12369551
115	0xbdd4701c	-0.10372946
116	0x3c094e80	0.008380532
117	0xbdaed9db	-0.085376464
118	0xbe3f8949	-0.18704714
119	0xbd0101bb	-0.03149579
120	0xbcdf02a2	-0.027222935
121	0xbce0670c	-0.027392887
122	0x3e0c40f0	0.13696647
123	0x3e2dd626	0.16976222
124	0x3b9f17e9	0.0048551452
125	0xbe00b6b6	-0.12569699
126	0x3d88720d	0.066623785
127	0xbd9e5219	-0.07730503

layers.2.weight f4 [64, 128]
0	0x3dfc8de8	0.12331754
1	0xbd962dcc	-0.07332954
2	0xbccfa4ce	-0.02534714
3	0x3d9c25a9	0.076243706
4	0xbd48fc84	-0.049068943
5	0xbd167f0a	-0.036742248
6	0x3da6dff5	0.08148185
7	0x3dd7f48b	0.1054469
8	0x3d30c9cf	0.04316121
9	0x3d8fb7dd	0.07017491
10	0x3d4c955a	0.04994712
11	0xbb381744	-0.002809004
12	0xbd51cce9	-0.05122081
13	0x3ce36079	0.027755963
14	0x3db6578d	0.08903418
15	0xbc76bb51	-0.015059308
16	0x3deab320	0.11459947
17	0x3d45ef50	0.04832393
18	0x3d10704f	0.035263356
19	0xbcb8a575	-0.022539834
20	0x3c4b6ae9	0.012415626
21	0x3d8ea3b4	0.06964818
22	0x3c0f657e	0.008752225
23	0x3da23154	0.07919565
24	0x3ccb5d51	0.02482477
25	0xbdc7ba3f	-0.097523205
26	0xbdb6e372	-0.089301005
27	0xbd790fd3	-0.060806107
28	0xbd21a410	-0.039463103
29	0xbd1405e1	-0.03613842
30	0x3bd18703	0.0063942685
31	0x3cfa381e	0.030544337
32	0xbdcb74e0	-0.099344015
33	0x3da5fe50	0.08105147
34	0x3d8c586f	0.06852805
35	0xbdacb9a7	-0.08433848
36	0x3db35375	0.087561525
37	0xbd60db56	-0.054896675
38	0x3df116b6	0.1177191
39	0x3dd7a135	0.10528795
40	0xbdaa8c44	-0.08327535
41	0x3e10a86c	0.14126748
42	0xbc94de27	-0.018172337
43	0xbd4aeb28	-0.04954067
44	0xbbd9ea01	-0.00665021
45	0x3dac6e3f	0.08419465
46	0xbc6b0b64	-0.014345977
47	0x3e4386f2	0.19094446
48	0xbdcbe5b9	-0.099559255
49	0x3d04c275	0.03241201
50	0x3d46e51f	0.04855835
51	0x3df8d6f8	0.12150377
52	0xbcb43eed	-0.022002662
53	0xbcc20cd1	-0.023687752
54	0x3d43591f	0.047692414
55	0x3d80c459	0.0628745
56	0x3bfba292	0.007679292
57	0xbc0dc754	-0.008653481
58	0x3d8cff2a	0.06884606
59	0xbd029911	-0.031884257
60	0xbd2614a0	-0.040547013
61	0xbd2d204c	-0.04226713
62	0xbd7993a8	-0.06093183
63	0xbdaa2c98	-0.08309287
64	0x3da5220e	0.08063136
65	0xbe01c9cd	-0.12674637
66	0x3ddcb130	0.10775983
67	0x3d714cd0	0.058911145
68	0xbcf5a54f	-0.029986052
69	0xbdcd136e	-0.100134715
70	0x3bdcefbd	0.006742446
71	0x3d957f78	0.07299703
72	0x3c230b89	0.009951481
73	0xbdbd79c9	-0.09251744
74	0x3e1ceb47	0.15324126
75	0xbbfbb306	-0.0076812534
76	0x3c89810e	0.01678517
77	0xbd1c3f40	-0.038146257
78	0x3dc79930	0.09746015
79	0xbde99a6b	-0.11406406
80	0x3de4fb25	0.111807145
81	0x3d432ced	0.047650266
82	0x3d6447d6	0.05573257
83	0x3cc8eb45	0.024526248
84	0x3d0126ea	0.031531252
85	0xbce92101	-0.02845812
86	0xbdad62be	-0.08466099
87	0x3d0ff717	0.035147753
88	0xbc421906	-0.011846786
89	0x3c338c04	0.010958675
90	0x3da9a265	0.082829274
91	0x3dabdfe4	0.08392313
92	0x3d6419a8	0.05568853
93	0x3e021224	0.12702233
94	0xbdf43a2b	-0.11925157
95	0x3dbc7c9e	0.09203456
96	0xbcdc95ab	-0.026926836
97	0x3d5842aa	0.05279795
98	0x3c0dbff9	0.008651727
99	0x3d44ec5f	0.048076984
100	0xbdae35b9	-0.085063405
101	0x3d84da8e	0.064869985
102	0x3dc5d2b2	0.096593276
103	0xbc4ba327	-0.012429035
104	0x3d7a05d0	0.0610407
105	0xbcaf3239	-0.021386253
106	0xbe1f1767	-0.15536271
107	0xbc7f3480	-0.015576482
108	0x3b378bd2	0.0028006923
109	0x3c6bd126	0.014393127
110	0xbc060a0a	-0.008181104
111	0x3cd85091	0.026405605
112	0x3c9844c3	0.018587476
113	0xbdb238cf	-0.08702242
114	0xbd96aac0	-0.07356787
115	0xbe0098ab	-0.12558238
116	0x3d12de99	0.035856817
117	0x3dd6322d	0.10458789
118	0xbe17f6ab	-0.1484019
119	0x3b1fe98c	0.002440068
120	0xbd8413c0	-0.064490795
121	0x3db4375f	0.08799624
122	0x3d298534	0.041386798
123	0x3d09cd0f	0.033642825
124	0x3dcebcca	0.100946024
125	0xbd9d3794	-0.07676616
126	0x3e04b0ae	0.12958023
127	0xbc40a48b	-0.01175798
128	0xbd1f8fa4	-0.038955346
129	0xbd7ee0b0	-0.062225997
130	0x3d9d3c0d	0.076774694
131	0x3e2a9a7c	0.16660494
132	0x3da6fd1d	0.08153746
133	0x3ca1d48b	0.019754669
134	0xbd86f1f4	-0.06589118
135	0x3d35d310	0.044390738
136	0xbcf2664a	-0.02958979
137	0xbcddd0b3	-0.027077055
138	0xbd249be7	-0.040187743
139	0xbdd277fb	-0.10276791
140	0xbce9a8fd	-0.028522963
141	0xbd032c94	-0.032024935
142	0x3bab9e1a	0.005237353
143	0xbd8adc09	-0.067802496
144	0x3c7b60c8	0.015342899
145	0xbd20c437	-0.039249625
146	0xbdbbc250	-0.091679215
147	0xbdc76468	-0.09735948
148	0xbd4d9049	-0.05018643
149	0xbd807079	-0.062714525
150	0x3d82351e	0.063577875
151	0x3d41a329	0.047274742
152	0xbce6d1fe	-0.028176304
153	0xbcbc7b18	-0.023007914
154	0xbd6d0b09	-0.057871852
155	0xbd5e2b31	-0.05424041
156	0xbdef2dc2	-0.116786495
157	0xbd5e9b7e	-0.054347508
158	0x3d76e45e	0.06027638
159	0x3c2bb5ed	0.010480386
160	0x3d016755	0.031592686
161	0x3d57bf93	0.052672934
162	0x3bd98f30	0.0066393837
163	0x3d94ac00	0.07259369
164	0x3d992b94	0.07479015
165	0xbe1043ac	-0.14088315
166	0xbe15047f	-0.14552496
167	0x3cb636e3	0.022242969
168	0xbdc61340	-0.096716404
169	0x3c32e3da	0.010918582
170	0xbe0dbef4	-0.13842374
171	0x3d9f3791	0.0777427
172	0x3cac3733	0.021022415
173	0x3de5dc90	0.112237096
174	0xbe11ff42	-0.1425753
175	0x3e128312	0.14307812
176	0x3d1d5175	0.03840776
177	0x3e1dcd73	0.15410404
178	0xbd188bb9	-0.037242625
179	0x3e14901b	0.14508097
180	0x3de50e9d	0.11184428
181	0xbdd8dafd	-0.10588644
182	0xbc4cc5bb	-0.0124983145
183	0x3c409d40	0.011756241
184	0x3d9dadbe	0.07699154
185	0x3d7ce68d	0.061743308
186	0x3d7702d0	0.060305417
187	0xbdbb3acd	-0.09142075
188	0xbc6a76fc	-0.014310595
189	0x3d8ef672	0.069805995
190	0x3cef624e	0.02922168
191	0xbe0e4cef	-0.13896535
192	0x3d2c127b	0.04200981
193	0xbd37afc7	-0.04484537
194	0xba86312f	-0.0010238047
195	0x3cf5925f	0.029977022
196	0x3ca5a48f	0.02022007
197	0xbd4a461e	-0.049383275
198	0x3ca697f9	0.020336138
199	0x3da831bf	0.08212613
200	0x3bddd002	0.006769181
201	0xbd97c277	-0.07410138
202	0x3d8fbf50	0.07018912
203	0x3d72975b	0.059226375
204	0xbdb211e1	-0.086948164
205	0xbd490044	-0.04907252
206	0x3dfb2c0f	0.12264263
207	0xbdf507fc	-0.119644135
208	0xbdc731e4	-0.09726313
209	0x3e2693d6	0.16267332
210	0x3dee45b8	0.116343915
211	0x3cecf2c7	0.028924359
212	0xbd8b4ee2	-0.06802155
213	0x3d0a35aa	0.033742584
214	0xbd0437c6	-0.032279752
215	0x3d4081e6	0.04699888
216	0x3d602297	0.054720487
217	0xbcc5dba2	-0.02415258
218	0x3e05d10e	0.1306803
219	0x3ca89514	0.020578898
220	0xbde6f684	-0.11277488
221	0xbd9bc496	-0.07605855
222	0xbd2b65dc	-0.041845188
223	0x3db9bda9	0.09069378
224	0x3d235e98	0.039885134
225	0xbd321f62	-0.04348696
226	0xbc090ef2	-0.00836538
227	0x3cbe0169	0.023194032
228	0x3cdb0d2e	0.026739683
229	0x3dc97f67	0.09838753
230	0x3dcc76c2	0.09983589
231	0x3ce83616	0.028346103
232	0x3d80357e	0.06260203
233	0xbdcb7ea2	-0.09936263
234	0xbdba298a	-0.09089954
235	0x3daecadf	0.08534788
236	0xbe1bd3aa	-0.15217462
237	0xbd5f0f3b	-0.054457884
238	0x3d49d407	0.04927447
239	0xbd3b3fda	-0.04571519
240	0x3d11cdb0	0.03559655
241	0x3af6374a	0.0018784788
242	0x3bf7b5b1	0.007559501
243	0x3b17cb76	0.0023162044
244	0x3c8b1f33	0.01698265
245	0x3e395475	0.18098624
246	0x3db1e184	0.08685592
247	0xbd88c396	-0.0667793
248	0xbe0adaf7	-0.13560091
249	0xbce38b9c	-0.027776532
250	0xbc9d7324	-0.019219942
251	0xbdfeb8b4	-0.12437573
252	0xbcb01586	-0.021494638
253	0x3d76fc08	0.06029895
254	0x3cfb24b2	0.030657146
255	0xbd2b1584	-0.041768566

layers.2.bias f4 [64]
0	0x3dae0588	0.08497149
1	0xbcb10c14	-0.021612205
2	0x3d1c1255	0.03810342
3	0x3d709c88	0.05874303
4	0xbca8d7ba	-0.020610679
5	0x3d6b0404	0.057376876
6	0xbe0a3642	-0.1349726
7	0x3db1bbd8	0.086784065
8	0xbdcc20c4	-0.09967187
9	0xbdac4820	-0.08412194
10	0xbc4c713b	-0.012478168
11	0xbccb7024	-0.024833746
12	0xbb47461d	-0.003040678
13	0xbc01c391	-0.007920162
14	0xbd48a0e2	-0.048981555
15	0x3dd71707	0.10502439
16	0xbd8c9c22	-0.068657175
17	0x3d02622e	0.031831913
18	0x3d46918b	0.048478644
19	0xbc878b47	-0.016545905
20	0x3da7d6de	0.081952795
21	0x3d8c1515	0.068399586
22	0xbda091b0	-0.07840288
23	0xbe13eff3	-0.14447002
24	0x3d938dfd	0.072048165
25	0xbd7db5e3	-0.06194104
26	0xbd30c8a8	-0.04316011
27	0xbcd63fdb	-0.026153496
28	0x3e4669ca	0.19376293
29	0xbd54df90	-0.05197102
30	0x3d2fbe07	0.042905834
31	0xbd43e4ad	-0.047825504
32	0x3dcb7c92	0.09935869
33	0x3dc5a15a	0.09649916
34	0x3e26cd66	0.16289291
35	0x3d456ac6	0.04819753
36	0x3dfde526	0.12397222
37	0x3ac05431	0.0014673528
38	0x3cc1ef7a	0.023673762
39	0x3c261e35	0.010139038
40	0xbd83aaaf	-0.0642904
41	0x3db78b8a	0.08962162
42	0x3d6776ad	0.056509662
43	0x3c9f7cb2	0.019468639
44	0xbdb7a5b1	-0.0896715
45	0xbd83f594	-0.06443325
46	0xbe2494d2	-0.16072395
47	0xbe3ce0e6	-0.18445167
48	0x3dd25258	0.10269612
49	0xbe05d0d2	-0.1306794
50	0xbcc36d1f	-0.023855744
51	0xbcedcd30	-0.029028505
52	0xbcb2d2bc	-0.021829002
53	0x3e19f35e	0.15034243
54	0xbd9e2c7e	-0.0772333
55	0xbdfed1cc	-0.12442359
56	0x3dfc0bb1	0.123069175
57	0xbe0bd88c	-0.13656825
58	0xbdcab474	-0.098977
59	0x3d8572de	0.0651605
60	0xbd813b7e	-0.06310175
61	0xbdee08a9	-0.116227455
62	0xbc75a1b0	-0.014992163
63	0xbce666a3	-0.028125113

readout.weight f4 [1, 64]
0	0xbeb8cd8c	-0.3609432
1	0xbe892d11	-0.26792195
2	0xbe2ea881	-0.17056467
3	0x3e7b7421	0.24556018
4	0x3e8c273d	0.27373686
5	0x3e9160ac	0.28394067
6	0xbe909bc6	-0.28243846
7	0xbea844ac	-0.32864892
8	0x3eb82539	0.359659
9	0x3e9df380	0.30849838
10	0xbe849567	-0.25895235
11	0x3e8b9b56	0.2726695
12	0xbe6f8d61	-0.23393776
13	0xbe16a9fa	-0.14713278
14	0x3eb9578c	0.36199605
15	0xbe77ddab	-0.24205653
16	0xbebefeb2	-0.37303692
17	0x3e7d2ff5	0.24725325
18	0x3ea708ab	0.326238
19	0xbe3a0f1c	-0.18169826
20	0xbe65e87b	-0.22451966
21	0x3e7b8aaa	0.24564615
22	0x3e81d0da	0.25354654
23	0x3e817d5f	0.25290963
24	0xbea14725	-0.3149959
25	0xbe7bd5d7	-0.24593292
26	0xbe9553af	-0.29165408
27	0x3e9393ca	0.28823692
28	0xbe40129a	-0.18757096
29	0x3ea34649	0.3188956
30	0x3e9fbeb7	0.3120019
31	0xbd60e8d7	-0.054909553
32	0xbe577c50	-0.21043515
33	0x3e8a2d06	0.26987475
34	0xbea08bcd	-0.3135666
35	0xbea6d00b	-0.325806
36	0x3e848ba8	0.258878
37	0xbecb60d2	-0.39722306
38	0xbe9e3bfb	-0.30905136
39	0x3e9bb95e	0.3041486
40	0xbe8e2f1a	-0.2777031
41	0xbe0c74eb	-0.13716476
42	0xbe9aaa89	-0.30208233
43	0xbe9be216	-0.30445927
44	0x3e8b8656	0.27250928
45	0x3ecc2682	0.3987313
46	0x3e3835ad	0.17989226
47	0x3e3f9e83	0.18712811
48	0xbe8f15e5	-0.27946392
49	0x3e63d062	0.2224746
50	0x3e5c2247	0.21497451
51	0xbe5631a9	-0.20917381
52	0xbe052ce1	-0.13005401
53	0xbeefb2e7	-0.4681618
54	0xbea3c526	-0.3198635
55	0x3e9a1524	0.30094254
56	0xbe861490	-0.26187563
57	0x3e699f3b	0.22814648
58	0x3e279e8f	0.16369079
59	0x3e413f46	0.18871793
60	0x3e4efb94	0.20213157
61	0x3ed8f0eb	0.42371306
62	0xbe842fa2	-0.2581759
63	0x3eb040ba	0.34424382

layers.0.weight f4 [128, 17]
0	0x3d923c6b	0.0714043
1	0x3de67472	0.11252679
2	0xbe20da8d	-0.1570837
3	0x3e0cad6a	0.13738027
4	0xbd523498	-0.05131969
5	0x3ef5f6fb	0.48039994
6	0xbc5c4e82	-0.013446452
7	0xbe91bae1	-0.2846289
8	0xbee2d074	-0.44299662
9	0xbd905c15	-0.07048813
10	0xbeb302a2	-0.34962946
11	0xbdefc9a2	-0.1170838
12	0x3d6f7407	0.05846026
13	0x3b683245	0.0035430354
14	0xbd436b65	-0.04770984
15	0x3d835d4f	0.064142816
16	0x3cdd3687	0.02700354
17	0xbd2386a1	-0.039923314
18	0xbe4447a8	-0.1916796
19	0xbdd930bf	-0.10605001
20	0x3eb13a5c	0.34614837
21	0x3e46e79b	0.19424288
22	0x3e9f25b6	0.3108346
23	0xbe074813	-0.13211088
24	0x3c65161c	0.013982322
25	0xbecaf6ee	-0.39641517
26	0xbed74e88	-0.42052102
27	0xbe03aa28	-0.12857878
28	0x3e35d552	0.17757156
29	0x3d3bf71d	0.045889962
30	0xbe4dc3e7	-0.20094262
31	0x3da57389	0.08078677
32	0x3d83c1f9	0.06433482
33	0xbc1e69bd	-0.009668765
34	0x3d5eb7e4	0.05437459
35	0xbd53c2ce	-0.051699452
36	0xbe74deda	-0.23913136
37	0xbec4e40b	-0.38455233
38	0x3de57ac8	0.11205059
39	0xbd99c6aa	-0.07508595
40	0x3f2e1574	0.68001485
41	0x3eea142c	0.45718515
42	0xbf640150	-0.890645
43	0x3e1ecc73	0.15507679
44	0xbf25bf05	-0.647446
45	0xbe5f7c52	-0.21824768
46	0xbc764b38	-0.015032582
47	0x3ddf7d7d	0.10912607
48	0x3a768ef0	0.00094054546
49	0xbbb9fc0c	-0.0056757983
50	0xbce2c4ea	-0.027681787
51	0xbe9efd32	-0.31052548
52	0x3d77c985	0.06049492
53	0x3d551683	0.052023422
54	0xbdc8b311	-0.09799779
55	0x3dbf9829	0.09355194
56	0xbcd4e414	-0.025987662
57	0x3d51e814	0.051246718
58	0x3e50bc28	0.20384276
59	0xbe86bdea	-0.26316768
60	0xbe595990	-0.21225572
61	0xbe61f7ca	-0.2206718
62	0xbd8b69d4	-0.068072945
63	0x3d4f4b53	0.050608944
64	0x3d6bc818	0.05756387
65	0xbdfc05a5	-0.12305764
66	0xbd1497c5	-0.03627755
67	0xbc795745	-0.015218561
68	0xbeadb9b8	-0.33930755
69	0xbf1dedd6	-0.61691034
70	0xbf1c9dc1	-0.61178213
71	0xbdc0e326	-0.09418325
72	0x3e30e264	0.17273861
73	0x3e9314f1	0.28726915
74	0x3e9928cf	0.29913947
75	0x3e5a4b8e	0.21317884
76	0x3ecebef9	0.40380076
77	0x3d00ba53	0.031427693
78	0xbd6ee2a2	-0.058321603
79	0xba4bbac8	-0.0007771668
80	0x3d237c1f	0.039913293
81	0xbc7c5c3f	-0.015402853
82	0x3d3734e2	0.044728167
83	0x3d356372	0.04428429
84	0x3cef9d2c	0.02924975
85	0x3f16fa71	0.58975893
86	0xbf11e901	-0.5699616
87	0xbe00af21	-0.12566806
88	0x3ee740c4	0.451666
89	0xbeba1c2d	-0.3634962
90	0xbdcfea40	-0.101521015
91	0xbe370b4c	-0.17875403
92	0x3e2fa001	0.1715088
93	0xbf2b2482	-0.6685258
94	0xbf07bf1c	-0.53025985
95	0xbea80851	-0.32818845
96	0xbe060da1	-0.13091137
97	0x3ea6d4cd	0.3258423
98	0x3d1bd9c2	0.038049467
99	0xbd1bedfe	-0.038068764
100	0xbdedbd92	-0.11608423
101	0xbbc3bc50	-0.0059733763
102	0x3e3519fb	0.17685692
103	0x3e0b23ba	0.13587847
104	0x3e9e5461	0.3092375
105	0xbf171118	-0.5901046
106	0x3c737900	0.014860392
107	0x3e6f976c	0.23397607
108	0x3cf20d63	0.029547399
109	0x3e02419a	0.12720338
110	0xbb35db12	-0.0027748984
111	0x3e9e0eb8	0.30870605
112	0x3e49da1c	0.19712108
113	0x3e10477c	0.14089769
114	0x3e50097d	0.2031612
115	0xbe4f9994	-0.20273429
116	0xbeb43285	-0.35194793
117	0xbe7b4977	-0.24539743
118	0xbc1b5d3f	-0.009482681
119	0xbef8abba	-0.48568517
120	0x3f048db2	0.5177871
121	0xbeab861a	-0.3350075
122	0xbe9d9192	-0.30775124
123	0xbda86ad4	-0.08223501
124	0x3e9d7b7b	0.3075827
125	0x3c5406c6	0.012941068
126	0xbe9bcf32	-0.30431515
127	0x3e1871f2	0.14887217
128	0xbb69d16c	-0.0035677804
129	0x3e86d229	0.26332214
130	0x3d1c20a1	0.038117055
131	0x3e27a7ee	0.16372654
132	0xbd2b293c	-0.04178737
133	0x3e268e10	0.1626513
134	0x3ddf2c53	0.10897126
135	0x39b4f205	0.00034512594
136	0xbe1a751f	-0.1508374
137	0x3ec95eee	0.39330238
138	0x3eaea1ca	0.3410781
139	0x3e5b0332	0.21387938
140	0x3dc57fd5	0.09643523
141	0xbd9d544b	-0.07682093
142	0xbd897951	-0.067125924
143	0x3de3c33c	0.111212224
144	0x3a960928	0.001144682
145	0x3afb9c2c	0.0019196323
146	0xbe10a1f5	-0.14124282
147	0xbdd436e0	-0.10362029
148	0x3e5c8797	0.21536098
149	0x3db0b9c6	0.086291835
150	0xbcef06bd	-0.029178018
151	0x3de54aea	0.11195929
152	0x3d30a9f4	0.04313083
153	0x3e84bf98	0.25927424
154	0xbf1e101f	-0.6174335
155	0xbecd26ea	-0.40068752
156	0x3e6840bc	0.22680944
157	0xbe7f9dc0	-0.2496252
158	0xbddf08ea	-0.10890372
159	0xbe39dda2	-0.18150952
160	0xbe051b70	-0.12998748
161	0x3f293279	0.6609264
162	0xbdeff804	-0.11717227
163	0xbe7435ee	-0.23848698
164	0xbe46781f	-0.1938176
165	0xbe0c05b4	-0.1367405
166	0xbd3b2ac9	-0.0456951
167	0x3e64f339	0.22358407
168	0x3e2e2261	0.17005302
169	0xbc29fc6a	-0.010375122
170	0xbe94a4e7	-0.2903206
171	0x3eafd8f9	0.34345224
172	0x3cf6f217	0.030144734
173	0xbe59cf38	-0.21270454
174	0xbe804685	-0.25053802
175	0x3ecb1f11	0.3967214
176	0xbd8b7d0e	-0.06810962
177	0xbdac46c6	-0.084119365
178	0x3e5fc80a	0.21853653
179	0xbe60c910	-0.219517
180	0x3eaf2e8f	0.3421521
181	0x3eddb7c8	0.43304276
182	0xbdd3e59d	-0.1034653
183	0xbda1e2d3	-0.079045914
184	0x3d8a2e82	0.06747152
185	0x3dc2fc9c	0.09520838
186	0x3c1e9e21	0.009681256
187	0xbdc2b056	-0.0950629
188	0xbead4f4b	-0.33849558
189	0xbf1393de	-0.576475
190	0xbe7e980e	-0.24862692
191	0x3ebbc0e1	0.36670592
192	0xbed754d1	-0.42056897
193	0x3ee80f73	0.45324287
194	0xbe8f922d	-0.2804121
195	0x3eba9f3b	0.36449608
196	0x3e09f893	0.1347373
197	0xbe2b72f8	-0.16743076
198	0x3daf6aa4	0.08565262
199	0xbd2ec757	-0.042670574
200	0x3c859333	0.016305542
201	0xbe0c7260	-0.13715506
202	0x3dd1db13	0.10246863
203	0x3d75f14f	0.060044583
204	0x3e134833	0.1438301
205	0xbe7a2756	-0.24429068
206	0xbc9356e6	-0.017985772
207	0x3f0f2ada	0.5592476
208	0x3e15e584	0.14638335
209	0xbe2d8c62	-0.16948083
210	0x3ca299a6	0.019848656
211	0xbe8800e7	-0.26563188
212	0x3d92d4ce	0.071694955
213	0xbdec1903	-0.11528208
214	0x3e23b5dc	0.15987343
215	0x3e210c4d	0.15727349
216	0x3de9462d	0.11390338
217	0xbea46d39	-0.3211458
218	0x3ea231b2	0.3167854
219	0x3ddd4b67	0.108053975
220	0x3da68e9a	0.08132668
221	0xbf0d17bf	-0.5511436
222	0x3f527360	0.822073
223	0x3eb023fe	0.3440246
224	0x3e8017de	0.2501821
225	0xbe158071	-0.14599778
226	0x3e5a8726	0.21340618
227	0xbd1c944a	-0.038227357
228	0xbc552c7a	-0.013011092
229	0x3eb58339	0.35451677
230	0xbec7f6aa	-0.39055377
231	0xbcb8ee8d	-0.022574687
232	0xbb8a28af	-0.0042162756
233	0x3dba979d	0.09110949
234	0xba4cb5cc	-0.0007809072
235	0xbd9c9dc8	-0.07647282
236	0xbc2ea08f	-0.010658397
237	0x3c8e7d36	0.01739369
238	0x3e48108f	0.19537567
239	0xbe0e43de	-0.13893077
240	0xbe15da9e	-0.14634177
241	0xbe1f649d	-0.15565725
242	0x3d7682ad	0.060183216
243	0xbf3ac19f	-0.7295169
244	0xbeaa6e47	-0.3328726
245	0xbed20feb	-0.4102777
246	0xbf36b4aa	-0.7136942
247	0xbcda5b0f	-0.026654748
248	0xbf059658	-0.5218253
249	0xbed900a4	-0.423833
250	0xbe015d17	-0.12633167
251	0xbd68f37e	-0.056872837
252	0xbb83639f	-0.0040096785
253	0x3dd9bfb9	0.10632271
254	0x3e05235b	0.13001768
255	0xbe9b56d3	-0.3033968

layers.0.bias f4 [128]
0	0x3ea44067	0.32080385
1	0x3f06b6f3	0.5262291
2	0xbd8512f2	-0.06497754
3	0x3f5026d8	0.8130927
4	0x3f2da9eb	0.678374
5	0xbe71aad0	-0.23600316
6	0xbe2383f5	-0.15968306
7	0x3e13e8e9	0.14444317
8	0xbf058fa3	-0.521723
9	0x3daa84d2	0.08326115
10	0x3f08054d	0.5313309
11	0x3ee72b50	0.45150232
12	0x3e92a22d	0.28639355
13	0x3e7ae170	0.2450006
14	0x3e1d50b0	0.15362811
15	0x3dd11215	0.10208527
16	0xbe2cfc5b	-0.16893141
17	0x3df5ec26	0.12007932
18	0x3edec9ca	0.43513328
19	0xbc1a2ffb	-0.0094108535
20	0xbd7ed60e	-0.062215857
21	0x3f1ad688	0.604836
22	0xbefd8f4a	-0.49523383
23	0x3f326812	0.6969005
24	0xbeebef5d	-0.46081057
25	0x3f0461b1	0.51711565
26	0x3f22557c	0.6341169
27	0x3eeb9bc0	0.46017265
28	0xbee58bb7	-0.44833156
29	0x3ee617cc	0.4494003
30	0x3e403b78	0.18772686
31	0x3efd114e	0.49427265
32	0xbe9714e9	-0.2950814
33	0x3d574fcb	0.05256633
34	0x3e01a877	0.1266192
35	0xbeb71c4d	-0.3576378
36	0xbe747942	-0.23874381
37	0x3f2a71ff	0.66580194
38	0xbe8f1542	-0.27945906
39	0xbdaea228	-0.085270226
40	0xbdbebe1d	-0.09313605
41	0xbc427428	-0.011868514
42	0xbdcd71bc	-0.10031459
43	0xbdca4829	-0.09877045
44	0xbed5fc64	-0.4179412
45	0x3d690c3f	0.056896444
46	0x3ce9c729	0.02853735
47	0x3f3a75cd	0.72836
48	0xbe8a70f6	-0.27039307
49	0x3e885fc7	0.26635572
50	0xbe7f761e	-0.24947402
51	0x3f1f51aa	0.62233984
52	0x3ed1f9c6	0.41010875
53	0xbed19a89	-0.40938213
54	0x3ec30362	0.38088518
55	0xbf1b5a10	-0.606843
56	0x3e649382	0.22321895
57	0xbe55dc01	-0.20884706
58	0xbf064fae	-0.5246533
59	0x3f26094e	0.6485795
60	0x3f141e5d	0.5785883
61	0x3edc71dd	0.4305562
62	0xbe04b0be	-0.12958047
63	0x3e96044b	0.2930015
64	0xbef1e1db	-0.47242627
65	0xbe002f1a	-0.12517968
66	0x3bc0a0ff	0.005878567
67	0xbd12bdb5	-0.03582545
68	0xbd531e49	-0.051542554
69	0xbe416c93	-0.18889074
70	0x3e1d65d9	0.15370883
71	0x3ecebd2c	0.40378702
72	0x3e88c96b	0.2671617
73	0xbeed5d98	-0.4636047
74	0x3d1e01fd	0.038576115
75	0x3e45c3fc	0.19313043
76	0xbe8a9320	-0.27065372
77	0x3e8c535c	0.27407348
78	0x3e7b0ae0	0.24515867
79	0x3e3ec702	0.18630603
80	0x3eceecfe	0.40415186
81	0xbf24377c	-0.6414716
82	0x3dcdd051	0.10049499
83	0xbdbf9c10	-0.093559384
84	0x3ec5d2a2	0.38637263
85	0xbd4bf285	-0.04979183
86	0x3eecaf25	0.46227375
87	0x3d39f498	0.04539928
88	0x3e86b5f9	0.2631071
89	0xbc6b8d9d	-0.014377025
90	0xbe89e99b	-0.2693604
91	0xbeb3446e	-0.35013145
92	0xbeb28636	-0.3486802
93	0x3de577fc	0.11204526
94	0x3eacec70	0.33774137
95	0xbed54143	-0.41651353
96	0xbe040811	-0.12893702
97	0xbf08def1	-0.5346518
98	0xbebc80cf	-0.36817023
99	0x3f06f86f	0.5272283
100	0x3e864b3d	0.26229277
101	0xbe8630b1	-0.26209024
102	0x3d610e22	0.05494512
103	0xbe3e5c38	-0.18589866
104	0x3f2b25fe	0.66854846
105	0x3e9b019b	0.30274662
106	0xbda63b77	-0.08116811
107	0x3dd93bb6	0.10607092
108	0x3d2658e3	0.040612113
109	0x3ec12283	0.37721643
110	0x3d09ccd8	0.03364262
111	0x3f516ec5	0.81809646
112	0x3e5d57ee	0.21615574
113	0x3ea54579	0.32279566
114	0xbda89429	-0.08231384
115	0xbe5ec7aa	-0.21755853
116	0xbf219cf1	-0.631301
117	0x3eb6995e	0.35663885
118	0x3e40a86a	0.18814245
119	0x3e57854c	0.21046942
120	0xbe1fe4aa	-0.15614572
121	0xbdd608f2	-0.10450925
122	0x3eb9e7f9	0.36309794
123	0x3e299a42	0.16562751
124	0xbd900467	-0.0703209
125	0xbe5ba25e	-0.21448657
126	0xbdef30b2	-0.1167921
127	0x3e52f32d	0.20600577

layers.1.weight f4 [128, 128]
0	0xbd3fb7a6	-0.046806
1	0x3de98688	0.11402613
2	0x3dabac6c	0.08382496
3	0x3da86f81	0.08224393
4	0x3e9d1353	0.30678806
5	0xbda91bf3	-0.08257284
6	0xbd21af58	-0.03947386
7	0xbe1b711b	-0.15179865
8	0xbe2a53bf	-0.16633509
9	0x3e1e4f3e	0.15459916
10	0x3cc2d914	0.023785152
11	0x3e179fba	0.14807025
12	0x3bf6d070	0.007532172
13	0xbe8c6f53	-0.27428684
14	0x3d8e0d55	0.06936137
15	0xbd1faed9	-0.038985107
16	0xbe0b98e4	-0.13632542
17	0x3d55fbcc	0.052242085
18	0xbe013011	-0.12615992
19	0xbe9b8f16	-0.30382603
20	0x3d5cd363	0.05391253
21	0x3e33c08f	0.17553924
22	0x3cf56231	0.029954048
23	0x3d1f5afa	0.03890512
24	0xbd6b252b	-0.057408493
25	0xbc10f9d9	-0.008848631
26	0x3e116ae9	0.14200939
27	0xbc50d59f	-0.012746244
28	0xbd842802	-0.064529434
29	0x3e1e15fc	0.15438074
30	0xbd00d10d	-0.031449366
31	0xbd449a8b	-0.047998946
32	0x3d8cfc6e	0.06884085
33	0xbe0644a7	-0.13112126
34	0x3de8cc55	0.11367098
35	0xbe306a1a	-0.17227975
36	0xbdba045a	-0.09082861
37	0x3e9f23a0	0.31081867
38	0x3e2bf0d0	0.16791081
39	0xbe8ed9ec	-0.27900636
40	0xbd8c4ada	-0.06850214
41	0x3d1ea3fd	0.03873061
42	0xbe54ff94	-0.2080062
43	0x3d61f8c1	0.05516887
44	0x3d9bb6c1	0.07603217
45	0xbe1696b1	-0.14705922
46	0x3e186b25	0.14884622
47	0xbc03603d	-0.00801855
48	0xbcdef84e	-0.02721801
49	0xbd8b513d	-0.06802604
50	0xbdb2e094	-0.08734241
51	0x3e0dd21d	0.13849683
52	0xbe2579d4	-0.16159755
53	0x3de17942	0.11009456
54	0xbd147e0a	-0.036253013
55	0x3c7fed14	0.015620489
56	0xbd152780	-0.036414623
57	0xbd839de2	-0.06426598
58	0x3d9953c6	0.07486682
59	0xbc8140e2	-0.015778009
60	0x3cdbbfe3	0.026824897
61	0xbc8a947f	-0.016916512
62	0x3d0918ea	0.033471026
63	0x3e6d92db	0.23200552
64	0xbda54516	-0.08069818
65	0xbc65fa34	-0.014036704
66	0xbe7ad07b	-0.24493591
67	0xbe1c7aeb	-0.15281264
68	0xbe112933	-0.14175873
69	0x3d8af642	0.06785251
70	0x3b5888e8	0.0033040587
71	0x3d90fe9b	0.07079812
72	0x3d9b79a3	0.0759156
73	0x3d2fda72	0.042932935
74	0x3d46f857	0.04857668
75	0x3d91b184	0.071139365
76	0x3cc9ee28	0.024649695
77	0xbd667771	-0.056266252
78	0x3e111dda	0.14171544
79	0x3db53c6a	0.08849414
80	0x3d3abf4c	0.04559259
81	0x3e2beed9	0.16790332
82	0xbe63be76	-0.22240624
83	0xbd0b1725	-0.03395762
84	0x3e031395	0.12800439
85	0xbc35b1b6	-0.011089733
86	0x3df0672b	0.11738428
87	0xbe3daee9	-0.18523754
88	0x3c6eff3a	0.014587218
89	0x3cd81bd1	0.026380451
90	0xbe1c1721	-0.15243198
91	0x3dfef40e	0.124488935
92	0xbe0efd2e	-0.13963768
93	0x3ce26d72	0.027640078
94	0x3d7776e1	0.060416106
95	0x3e0fc492	0.1403983
96	0xbdc8f6ec	-0.098127216
97	0x3d540fc2	0.05177284
98	0xbdd502c3	-0.104009174
99	0x3e1bfdfa	0.15233603
100	0x3de65545	0.112467326
101	0xbd0e7292	-0.03477723
102	0x3d974174	0.07385531
103	0xbe2bd38b	-0.16779916
104	0x3e186dff	0.1488571
105	0x3d341cc3	0.04397274
106	0x3d18801e	0.037231557
107	0xbc50dea7	-0.012748397
108	0x3db90f14	0.09036079
109	0x3d2046a7	0.03912988
110	0xbe0764ed	-0.13222094
111	0x3e7f4272	0.2492769
112	0x3d909179	0.07058997
113	0x3e8e7eb3	0.2783104
114	0xbe07e427	-0.13270627
115	0x3dab3fc0	0.08361769
116	0xbc8289c1	-0.015934827
117	0x3e11b5ff	0.14229582
118	0x3e0fa76a	0.14028707
119	0xbcd130fb	-0.025536051
120	0x3dcda939	0.10042042
121	0x3e2efc63	0.17088465
122	0x3e810613	0.25199947
123	0xbe40a27e	-0.18811986
124	0x3d8c2d01	0.06844521
125	0xbd199302	-0.037493713
126	0xbdbdb3a3	-0.092627786
127	0xbd807d63	-0.062739156
128	0x3daa2052	0.08306946
129	0x3ce05874	0.027385928
130	0x3cb039fc	0.021512024
131	0x3cbfe5d4	0.02342502
132	0xbe0574ff	-0.13032912
133	0x3d2ce7a9	0.042213116
134	0x3bf2f655	0.007414619
135	0xbdf89484	-0.12137702
136	0x3c4aac25	0.012370144
137	0x3e00e692	0.12587956
138	0xbd90a6a7	-0.070630364
139	0x3d38d29d	0.04512273
140	0x3e14bb16	0.14524493
141	0x3d02417f	0.031800743
142	0x3be74b1b	0.007058514
143	0x3e1de43f	0.154191
144	0x3a31d259	0.00067833584
145	0x3d1bb1ab	0.038011234
146	0x3cb5c2e8	0.022187665
147	0x3d0a5b77	0.033778634
148	0xbc646a68	-0.013941385
149	0xbd7d4ef5	-0.061842877
150	0xbcfdca48	-0.030980244
151	0xbd7dbfce	-0.061950497
152	0x3dbbef90	0.09176552
153	0x3e17b816	0.14816317
154	0x39a07ae5	0.00030609142
155	0x3df0744b	0.11740931
156	0xbd32e59c	-0.043676004
157	0x3d960ca3	0.07326629
158	0x3d9e1866	0.077194974
159	0x3c9945ab	0.018709978
160	0xbdc22771	-0.09480179
161	0xbd8a7138	-0.06759876
162	0x3d4d9fd3	0.05020125
163	0x3d479bd1	0.048732582
164	0x3e0bfe3a	0.13671198
165	0xbd70f12f	-0.05882376
166	0x3d3d085f	0.04615056
167	0xbdca137c	-0.098669976
168	0x3e0181fe	0.12647244
169	0x3de291d1	0.110629685
170	0xbc4d2740	-0.012521565
171	0xbd346953	-0.044045758
172	0xbe16dafd	-0.14731975
173	0xbd1b6d48	-0.037946016
174	0xb97f8033	-0.00024366453
175	0xbb0109d9	-0.0019689708
176	0x3c0ebe47	0.008712358
177	0x3da1b4be	0.07895802
178	0x3d1f935a	0.038958885
179	0xbd57245b	-0.052524906
180	0xbdf17db7	-0.11791556
181	0x3cdbf5a4	0.026850529
182	0x3dd60a3f	0.10451173
183	0x3e09f2f6	0.13471588
184	0x3ba46d4d	0.0050179125
185	0xbe09cce2	-0.13457063
186	0xbd7353b3	-0.059405994
187	0x3d3766d8	0.044775814
188	0xbd797566	-0.060902975
189	0x3de8a7d2	0.11360134
190	0x3c5d9c6b	0.0135260625
191	0x3c9a1bae	0.018812027
192	0x3dd795a5	0.10526589
193	0xbd41e8cb	-0.04734115
194	0x3cd2343f	0.025659679
195	0xbe0252ee	-0.12726948
196	0x3dc0d99f	0.09416508
197	0x3d9e6b22	0.07735278
198	0x3d562ae9	0.052287016
199	0xbbd7a91c	-0.0065814387
200	0x3e2a23c3	0.16615205
201	0x3daf9de7	0.08575039
202	0xbce01872	-0.027355406
203	0xbdf9dc79	-0.12200255
204	0xbb58eb04	-0.0033099065
205	0x3ddcdb06	0.10783963
206	0x3d141798	0.036155313
207	0x3d842e42	0.064541355
208	0xbdabd98d	-0.08391104
209	0x3dcd83f7	0.10034936
210	0x3c9132ee	0.01772448
211	0x3da239e6	0.079211995
212	0x3d94a57a	0.07258125
213	0x3ce156dd	0.02750724
214	0x3b236ae7	0.0024935545
215	0x3d5dca96	0.05414828
216	0x3d588c9e	0.052868478
217	0xbc300a73	-0.010744679
218	0x3d873fee	0.066039905
219	0xbd1435d8	-0.036184162
220	0x3cc030f3	0.02346084
221	0xbc6a2577	-0.014291159
222	0xbd80190b	-0.062547766
223	0x3c085bea	0.008322695
224	0x3d746341	0.05966497
225	0x3ccf774a	0.025325436
226	0x3d18d9c9	0.03731707
227	0x3d9ed14a	0.077547625
228	0x3deb5095	0.11489979
229	0xbddde484	-0.108346015
230	0x3ddb842a	0.10718568
231	0x3dc19a35	0.09453241
232	0x3bbc4746	0.005745801
233	0xbb86e4b2	-0.004116618
234	0x3dcbd280	0.09952259
235	0xbd6491dd	-0.05580317
236	0x3d8fbf57	0.07018917
237	0x3d22cbb7	0.03974506
238	0x3cf6f28a	0.030144949
239	0xbd956634	-0.07294884
240	0x3d4acdda	0.04951272
241	0xbdc70f82	-0.09719755
242	0x3d1bda2f	0.038049873
243	0xbdc6c496	-0.097054645
244	0xbde6c287	-0.11267572
245	0xbdd02d82	-0.1016493
246	0x3dac38bf	0.08409261
247	0xbbe019bd	-0.0068390057
248	0x3ce6fa19	0.028195428
249	0x3c833921	0.016018452
250	0x3d4fbc0b	0.05071644
251	0x3d4a6b7a	0.049418904
252	0xbe08d7fd	-0.13363643
253	0xbdc58c8b	-0.09645947
254	0x3da35840	0.07975817
255	0xbcd5f8ff	-0.026119707
