Gym-DDPG-solution/results/DDPG_HalfCheetah-v4_1000-eps0.3-t32-l0.0001-s1.pth (torch, 193979 bytes, 13 tensors)

layers.0.weight f4 [128, 23]
000000 ee be 33 3e 54 1c cf bd 6f ee 5a bb cd 78 b6 3c
       0.17553303 -0.10112825 -0.0033406278 0.0222744
000010 f4 b0 6b be 5c 51 9e 3e 0a cf c1 bc 62 ad 03 3e
       -0.23016721 0.30921447 -0.023658294 0.12859109
000020 e5 95 96 bd 9b 27 26 3d 82 f7 33 3d dd 26 96 bc
       -0.07352809 0.040565114 0.043937214 -0.018329078
000030 48 f9 34 3d 7b d2 22 bd ad 7f ef bc 13 8c ad bc
       0.044183046 -0.03975151 -0.029235685 -0.021184957
000040 94 df f9 3a 40 d7 9c 3d 45 e4 3a 3e f5 e7 12 3e
       0.0019063824 0.07658243 0.1825114 0.14346297
000050 9d f8 97 bd 51 0f 07 be af b0 d7 bd df 97 d5 bd
       -0.07420466 -0.13189436 -0.105317466 -0.10429358
000060 31 42 41 be 9d 99 1b bd b6 13 4f 3e 7e 80 33 3d
       -0.18872906 -0.037988294 0.20222363 0.04382371
000070 06 92 39 be 47 11 21 3e c2 ca 85 3d 9e a0 2b 3e
       -0.1812211 0.15729247 0.065328136 0.1676049
000080 e3 09 d7 3d 9b a7 10 be cb f8 25 be e2 54 df bd
       0.104999326 -0.14126436 -0.16208188 -0.10904862
000090 8d 69 e4 3d a3 09 05 bd 33 6d e1 3d 9e e6 db bd
       0.11152945 -0.032479893 0.11007156 -0.10737346
0000a0 0d 1a 43 3e c1 81 c0 bd 01 b9 33 3e 6b af ad bd
       0.19052906 -0.093997486 0.17551042 -0.08480724
0000b0 48 0c 4e be 1e 0f 03 3e 5f 93 1b 3e 6a 0e 43 bd
       -0.20121872 0.12798735 0.15192936 -0.04762117
0000c0 d5 1b 9b be 73 e5 a5 bd 32 38 f5 bd 5e 9a b5 bd
       -0.30294672 -0.081004046 -0.11973609 -0.08867334
0000d0 fe c7 2f 3e 35 62 32 bd 50 06 14 3e 3c 42 04 3e
       0.17166135 -0.04355069 0.14455533 0.12915891
0000e0 08 16 cb 3d 10 46 ca bc 63 6e de 3d 1b 27 50 3d
       0.099163115 -0.024691612 0.10860898 0.050818544
0000f0 4d 57 6b bd 98 2b b6 3d d7 cb a6 3d 05 eb 71 3e
       -0.057456303 0.088950336 0.08144348 0.23624809
000100 7b 51 21 be f0 52 31 bd e9 57 4d bd 78 75 d6 3d
       -0.15753739 -0.043291986 -0.050132666 0.10471624
000110 c1 1e 50 be 8e 43 5b be 48 0d 18 3e a2 9f 11 be
       -0.20324232 -0.21412489 0.14848816 -0.14221051
000120 8a 7c 0d be d5 13 55 bd 75 66 83 3d fe 4d dd bd
       -0.13817039 -0.052020866 0.064160265 -0.108058915
000130 28 80 9b 3d ff d8 8d 3e 3d 7b 7f be db c1 b8 3d
       0.07592803 0.27704617 -0.24949355 0.0902135
000140 3c f8 0d be fc 87 04 be 53 32 08 bc bc 7d e2 bb
       -0.13864225 -0.12942499 -0.0083127795 -0.0069119614
000150 7f 16 40 3d 4d f5 87 bd 62 b0 8b be 4e c4 9c 3d
       0.046896454 -0.06638584 -0.27283007 0.0765463
000160 f6 a7 35 bd c1 2b 5a 3e 52 d6 28 3e d4 a2 79 be
       -0.044349633 0.21305753 0.16488007 -0.2437852
000170 5a 15 3a 3e f2 83 84 3d ac 6f a7 be 89 52 8f be
       0.18172207 0.06470479 -0.32702386 -0.27992657
000180 3f 3f 43 3e f8 39 35 3d 98 be aa bd ec 1f 24 3d
       0.19067095 0.044244736 -0.08337134 0.040069506
000190 60 52 9d 3e fa a7 cf bd 42 82 3c 3e cf 35 12 3e
       0.3072691 -0.10139461 0.18409064 0.14278339
0001a0 86 eb d2 bd c2 b0 b0 bd 10 fe 00 3e 99 3f 4b 3d
       -0.10298829 -0.08627464 0.12596917 0.0496212
0001b0 4f 8e d3 3d 08 f3 e9 3d 8b 11 1b bd 15 ef 35 3e
       0.103298776 0.11423308 -0.037858527 0.17766984
0001c0 78 91 53 3e d4 56 f1 bd 7e 52 86 3d f8 6c a8 3e
       0.2066096 -0.11784139 0.06558703 0.32895637
0001d0 a7 b3 9f 3c 70 5c c1 bc 4c bc 09 be 9d 2f 3f be
       0.019494845 -0.023603648 -0.13450736 -0.18670507
0001e0 9f 17 76 bd 88 5f a5 3c 41 a4 b7 3e a1 26 6e be
       -0.06008112 0.020187154 0.35867503 -0.23256923
0001f0 93 ce 95 3d 20 7c 55 be 25 f8 fe bd 32 de 12 bd
       0.073147915 -0.20848131 -0.124496736 -0.035856433
000200 cb b7 3f 3d e4 4a f3 3d 0f 5c 54 bd 7b 61 10 3d
       0.046806138 0.11879519 -0.051845606 0.035249215
000210 ec d8 3f 3e af d8 4e 3e b2 bb 32 3e 95 94 c1 3d
       0.18735093 0.20199846 0.17454413 0.09452168
000220 e5 c1 9a 3d b8 94 eb 3d b6 e9 48 3d 98 d6 e5 be
       0.07556514 0.11502975 0.04905101 -0.44890285
000230 55 dc 77 3e 43 b7 9c 3d 00 58 8e be 41 75 4c 3e
       0.24205144 0.07652142 -0.27801514 0.19966604
000240 74 a5 7f 3d 9e 20 a2 3c b5 ff 7f 3d 59 3a 0f 3d
       0.062413648 0.019790944 0.06249972 0.034967754
000250 f0 b7 4e 3d 3f 78 9d 3d 18 d5 98 3b ff 6a ff 3d
       0.050468385 0.07688951 0.0046640746 0.1247158
000260 fe bd b5 bc dd 1d 9f 3b 01 d9 82 bd cb e7 76 be
       -0.022185322 0.004855855 -0.063890465 -0.2411186
000270 92 37 ab bd 5a cb 11 be d8 d6 d5 3d 1e d6 91 3c
       -0.083602086 -0.14237729 0.10441369 0.017802294
000280 fd e6 b4 bd a3 89 81 3e fb f7 1b be 10 d6 0b 3f
       -0.0883312 0.2530032 -0.15231316 0.5462351
000290 e7 1f 91 3e 83 7f 69 3d 9c 4d 30 bd 45 21 87 bd
       0.28344652 0.05700637 -0.043042764 -0.065981425
0002a0 8d dc 52 be a7 2a 34 bd 58 fd 86 bb bc 86 b2 3d
       -0.20591946 -0.04398599 -0.0041195564 0.08717105
0002b0 85 2d cf 3a 9e 38 4e 3d 92 ed 90 3d d6 2f ec 3d
       0.0015806413 0.050346963 0.07076563 0.115325615
0002c0 da ad 71 3d 28 05 d8 3b 34 e4 99 be 03 d8 e7 3d
       0.05900369 0.0065924115 -0.30056918 0.11320498
0002d0 ab 75 a3 3d 10 05 b2 bb 32 95 f8 bd fb 0b bf bd
       0.07981428 -0.0054327324 -0.12137832 -0.09328457
0002e0 1b d1 9f be d5 4b e4 3e d7 f4 61 be 6e 76 69 be
       -0.31214222 0.44589105 -0.22066055 -0.22799084
0002f0 e6 4b 8e bc 99 ac a5 be 4e d2 34 3e bb 9e 08 bd
       -0.017370176 -0.32358244 0.1765835 -0.033354502
000300 bf d2 71 bc 05 49 99 3d f8 8c 1a 3e 2b d8 b2 bd
       -0.014759718 0.074846305 0.15092838 -0.08732637
000310 ad be ea 3c 30 77 8c 3d 51 b0 34 3e ab 6d 1a bd
       0.028655374 0.06858671 0.17645384 -0.037702244
000320 1a 9c 23 3d ef 53 1a be 9d 5c 22 3e c4 7b 7f bc
       0.039943792 -0.1507108 0.15855642 -0.015593473
000330 2c d7 28 3d 54 d2 00 3d fa 86 a5 bd 10 a2 a2 3e
       0.04122083 0.031450585 -0.08082385 0.3176427
000340 c5 2d 26 be 81 99 1b 3e a6 12 41 3e 05 3e 24 3e
       -0.16228397 0.15195276 0.1885477 0.16039284
000350 b3 d4 07 be d5 0e 91 3e c5 1d 56 3e 42 57 29 3e
       -0.13264732 0.28331628 0.20909794 0.16537192
000360 3a 01 41 3d f7 cd 24 be ea eb 46 3c 22 b6 01 3e
       0.04712031 -0.16094194 0.012141207 0.12667134
000370 56 4a 8d bd ad db 65 3e 73 5b 4f be 18 29 db bd
       -0.06898944 0.22447081 -0.20249729 -0.107011974
000380 08 a4 7c 3e 53 27 a8 bd 46 2c ed bd 2f e0 b5 3d
       0.24671948 -0.082106255 -0.1158071 0.0888065
000390 cf 0f 61 3e 21 d0 7d 3e 04 b4 80 3e fc 02 9a be
       0.21978687 0.24786426 0.2513734 -0.30080402
0003a0 cf 62 c8 3e bf 56 a0 3d c4 40 d4 3c 19 3e a3 bb
       0.39137885 0.078290455 0.025909789 -0.004981768
0003b0 2e fa 38 bd be 32 46 3e 89 71 5c 3d 18 04 1c bd
       -0.045160465 0.19355294 0.053819213 -0.03808984
0003c0 b4 d5 35 be b2 74 02 bd 96 10 87 3d 2c 90 82 3d
       -0.17757303 -0.03184957 0.065949604 0.06375155
0003d0 e4 05 01 be 37 5c ff bc e7 37 a8 bd 8d 04 ab bd
       -0.12599903 -0.031171901 -0.082137875 -0.08350477
0003e0 a1 6b 8f bd 8b 40 7b 3e 18 05 17 3e 00 6b 2b bd
       -0.070029505 0.2453634 0.14748037 -0.04185009
0003f0 83 13 94 3b 59 5d 06 3f c1 d8 37 be 41 cb 80 bb
       0.0045189275 0.5248619 -0.17953779 -0.0039304798

layers.0.bias f4 [128]
000000 33 7d a5 bd 68 34 53 be 7d 35 e1 be cb 0c da 3d
       -0.080805205 -0.2062546 -0.4398612 0.10646971
000010 43 97 0a be a1 75 2a be f6 b0 d0 bd f1 3b 29 be
       -0.13534264 -0.16646434 -0.101900026 -0.16526772
000020 40 9c 4a 3e d1 91 46 be ed 50 a7 be d3 41 d7 be
       0.19786167 -0.19391562 -0.3267893 -0.42042407
000030 10 fb 5b be 8a b6 2a be 84 33 ce 3d b6 7d 4d bd
       -0.21482491 -0.16671196 0.100684196 -0.050168715
000040 66 66 f5 3d 2a d3 a9 be 50 d8 8a be c0 e0 97 be
       0.119824216 -0.33168918 -0.27118158 -0.29663658
000050 8c 21 c7 3e 3f e7 fa bd 26 a9 34 be c3 2a 97 bd
       0.38892782 -0.12251138 -0.1764265 -0.07381203
000060 5a 59 6b be 9a 8b df bc fc 3b 30 be eb e6 66 3c
       -0.22983304 -0.027288247 -0.17210382 0.014093141
000070 a1 3f 2c 3e 36 5a c8 3b da b1 20 bd 92 18 46 3d
       0.16821148 0.0061142696 -0.039232112 0.048363276
000080 0b ff 33 3d e0 59 2c be 40 13 a7 be d5 ec 47 3e
       0.0439444 -0.1683116 -0.32631874 0.19523938
000090 9a 01 9a be c3 94 a9 be c3 7f 8f 3d bf ad 8a be
       -0.30079347 -0.3312131 0.070067905 -0.27085683
0000a0 09 d8 50 bd 7e d9 94 bd e4 4f 40 3d 85 c2 27 be
       -0.050987277 -0.07268046 0.04695119 -0.16382797
0000b0 f7 44 d2 bc 88 b6 f6 bd 17 42 a9 bd 77 15 ce be
       -0.02566765 -0.12046534 -0.08264559 -0.4025075
0000c0 84 ca d5 3d a6 82 a5 3e c2 40 99 be 94 3c 94 be
       0.104390174 0.3232624 -0.2993222 -0.28952467
0000d0 73 38 8a 3e 35 0e a4 3e 02 ce a2 3e 57 f8 2a be
       0.26996192 0.3204209 0.31797796 -0.16696297
0000e0 f5 c8 5a bc e9 ef b7 bd 2a f9 b6 3e 77 77 50 3e
       -0.013353576 -0.08981306 0.35736972 0.20358072
0000f0 a5 7b 9f bc 52 1e c4 3d 04 e5 89 be e6 8a f9 3d
       -0.019468138 0.09576096 -0.26932538 0.12184696
000100 36 ce 82 bd 00 6a ab 3e 8e ef 06 be 8c 39 63 be
       -0.06386988 0.3347931 -0.1317732 -0.22189921
000110 e9 f5 84 be c5 14 2c be 17 8e 86 3d d2 f9 0d 3e
       -0.25968865 -0.16804798 0.0657007 0.1386483
000120 cb 68 23 3e af 3d 9e be 91 ad 77 bd f2 81 8f be
       0.15957944 -0.30906436 -0.06046826 -0.28028828
000130 0d 4c 71 be c5 a6 92 bd 40 dc 74 3e 39 71 f2 3c
       -0.23564167 -0.07160715 0.23912144 0.029595004
000140 f4 52 13 bd fe 94 50 be 93 85 8f 3b 51 02 d5 bc
       -0.035967782 -0.20369336 0.004379937 -0.026002081
000150 40 46 12 bd 9b 3d 0b be 99 6b 42 be f8 0f 6b 3e
       -0.035711527 -0.1359772 -0.18986358 0.2295531
000160 0a b0 b3 3e ca 06 9a be 23 9d 2e 3d d8 ff 2b bd
       0.35095245 -0.30083305 0.042630326 -0.04199204
000170 3a 32 9d bc b5 8b a2 be 47 a7 e5 bd c4 cb 4e be
       -0.019188989 -0.31747213 -0.11213546 -0.20194918
000180 75 5f 27 be d9 0e 66 3e 47 1f 26 3d d9 a6 3a 3e
       -0.16345008 0.22466601 0.040557172 0.1822771
000190 57 d7 c1 3d 5c 43 36 be d2 92 45 be e7 72 6b 3e
       0.09464901 -0.17799133 -0.19294289 0.2299305
0001a0 50 ba 9b 3e 9c 35 03 bd 80 db 87 bd 42 d5 31 3e
       0.30415583 -0.032033548 -0.06633663 0.17366508
0001b0 94 0c 25 be 1e 3d 57 be 26 b3 51 3e 8a d9 f8 3e
       -0.1611808 -0.21019408 0.20478496 0.4860347
0001c0 db 77 3a 3e 4e 4c 2e 3e da 38 9b 3e 69 37 ca be
       0.18209784 0.17021295 0.30316812 -0.394954
0001d0 a8 7a c5 3d 81 f8 a4 3e 8d 18 3a be aa fe 70 3e
       0.096425354 0.32220843 -0.18173428 0.23534647
0001e0 d8 40 62 bb 55 6c 02 3d da bb 9e bd 0c 60 d5 bd
       -0.0034523513 0.031841595 -0.077506736 -0.1041871
0001f0 d1 a7 f1 bd 5c c0 87 bd e7 51 b9 bd 9b d0 43 be
       -0.117995866 -0.066284865 -0.09048825 -0.19122545

layers.1.weight f4 [128, 128]
000000 b9 38 8b 3d 55 e4 06 bd 3c 82 42 bc a7 af ec 3b
       0.06797928 -0.0329326 -0.011871871 0.007223088
000010 ff 78 b6 bb 33 c5 89 3d 20 bb a2 3d 69 c3 96 3c
       -0.005568623 0.06727066 0.079458475 0.018403726
000020 c5 db c0 bc 60 2d 8c 3d 28 40 7c bd 82 7f 81 bc
       -0.023542294 0.06844592 -0.06158462 -0.01580787
000030 1e 1f b2 3d 7e 0d 7a bd 80 61 78 3c 8d 9a b1 3d
       0.086973414 -0.061048023 0.015159965 0.08672056
000040 49 1b 0f 3d 1e a5 4e bd 4d f9 0b bd 17 50 54 3d
       0.03493813 -0.050450437 -0.0341733 0.051834192
000050 40 a0 17 bd 1a ef 80 3d 21 80 6b 3d 8a b6 b8 bc
       -0.03701806 0.06295605 0.05749524 -0.022547979
000060 d3 8c ac 3d 5a 67 ba bd 72 19 04 be 54 d5 2e 3c
       0.084252976 -0.09101744 -0.12900332 0.010670979
000070 af eb ea b8 8f 08 7c bd 8c 8d 71 bd e0 17 a5 3d
       -0.00011201889 -0.0615316 -0.05897288 0.080611944
000080 18 f3 3e bd 2a 0a ad 3d b0 89 a2 3d d2 af 7c bc
       -0.04661855 0.08449204 0.07936418 -0.015422778
000090 ca f1 50 3b bb 56 fa 3c fc bb 64 bd f0 f1 24 3b
       0.0031882399 0.030558934 -0.05584334 0.002516862
0000a0 c7 fd 1b 3d 4b f5 6f 3d 04 ad 03 3d a5 c0 38 bc
       0.038083818 0.05858354 0.032147422 -0.011276399
0000b0 de 15 cc bd ac ec 28 bd 4f bc a8 3d b0 97 12 bd
       -0.09965108 -0.041241333 0.08239042 -0.03578919
0000c0 b4 b4 4a bd 96 ba a6 bc c1 2b 8a bc cd b3 35 3d
       -0.04948874 -0.020352643 -0.016866567 0.044360925
0000d0 77 68 c4 3b b7 b5 7b bd 0e 82 45 bd 9e f8 1d bd
       0.0059938985 -0.061452594 -0.048219733 -0.038567178
0000e0 94 0f 95 bd ab 2b 89 3d 72 a4 55 3d a5 0c 03 be
       -0.07278362 0.06697782 0.05215878 -0.12797792
0000f0 e7 d0 46 bd 45 96 1f 3d 9d 85 49 3d 70 d9 9f 3c
       -0.04853907 0.038961668 0.04919969 0.019512862
000100 ed a5 a5 bc 2a 94 d5 bd 41 a6 23 3d 3e 5b 4f bd
       -0.020220721 -0.10428651 0.039953474 -0.050624125
000110 f2 23 e7 3c 3c 4a 9f bb 7e 62 8c 3d 13 39 53 bd
       0.028215382 -0.0048611443 0.068547234 -0.051568102
000120 71 51 02 bc 41 c8 e2 bc fc a8 9a bc 04 23 07 bd
       -0.007953987 -0.02768338 -0.018879406 -0.032992378
000130 39 55 eb 3c a7 d6 87 bd 88 d6 c5 3d 0c 56 dd 3c
       0.02872716 -0.066327386 0.09660059 0.02701857
000140 64 36 67 3d b9 4a f5 3d 2b 7d e1 3c ff 52 53 3d
       0.056448355 0.11977143 0.027525505 0.051592823
000150 f7 be a9 bc 07 18 4e 3d 9b c1 e6 3c 9c e7 d1 bd
       -0.020720942 0.050315883 0.02816849 -0.10249254
000160 11 c5 d1 bd fc cd 75 bd 53 50 a4 3d 99 a7 80 3d
       -0.102426656 -0.060010895 0.08023133 0.06281967
000170 50 e2 2e bd 5a f3 4c bc b4 c6 c9 3d 14 06 32 3d
       -0.042696297 -0.012509191 0.09852353 0.043462828
000180 db 30 21 bd 51 b0 11 bd f2 13 2e bd c0 6e 39 bd
       -0.039353233 -0.03556854 -0.04249949 -0.045271635
000190 9d c0 38 bc 41 00 63 3d b5 fc b8 bd 94 dc 24 3d
       -0.011276391 0.055420164 -0.09032575 0.040249422
0001a0 7b 54 d4 bd ab 3b ba 3d 95 15 99 3d d0 0c 2c 3d
       -0.10367676 0.09093412 0.074748196 0.042004406
0001b0 10 2f 6e bd fd a8 3d bd 3e 23 8d bd db f3 07 be
       -0.05815035 -0.046303738 -0.068914875 -0.13276617
0001c0 2e 0a 07 3d 2b c9 4a bd b3 e6 0c bd d9 88 c8 3d
       0.032968692 -0.049508255 -0.0343997 0.097917266
0001d0 72 92 e6 bd a5 43 3d bc 1a e1 cd 3b 30 97 b8 3d
       -0.11258401 -0.011551772 0.0062829377 0.09013212
0001e0 7b 8b 93 3d c1 5b ad bc a4 41 e7 bd b8 27 35 3d
       0.07204338 -0.021161916 -0.11291817 0.044227332
0001f0 55 22 a8 bd 0c 25 ce 3d 7e 39 6b 3d 33 ab f8 3c
       -0.08209673 0.1006566 0.057427876 0.030355072
000200 7c 30 3e 3c 18 fa 83 3d 43 9d b7 3d 4c 74 bd bb
       0.011608239 0.06444186 0.08965542 -0.005781686
000210 b6 60 88 bc 83 0c 9e bb 4a 62 b5 3d 09 d9 a8 3d
       -0.016647678 -0.004823269 0.08856638 0.08244521
000220 a0 e5 d3 bd ec a3 bf 3d 2e 43 24 bd d0 d6 45 3d
       -0.10346532 0.093574375 -0.04010313 0.048300564
000230 7a 63 1f bd b7 a9 fa bb e8 4a 03 bb e3 d5 2b 3d
       -0.038913228 -0.007649626 -0.0020033661 0.041952025
000240 53 d5 3a bd b0 ed 94 bb 9b 01 00 3e 9b c2 32 bc
       -0.045613598 -0.004544936 0.12500612 -0.010910655
000250 97 ec 1d bd 48 d2 80 3d 41 e0 9f bd 43 cc d9 bc
       -0.038555708 0.06290108 -0.07806445 -0.026586657
000260 03 7c 4f 3d 07 60 01 3d 26 ac 3e bd 3d 56 01 bc
       0.050655376 0.03158572 -0.046550892 -0.007894096
000270 f9 1a 18 bd c1 ee 89 bd 25 c0 18 bd 7a e8 89 3d
       -0.037135098 -0.06734992 -0.03729262 0.067337945
000280 74 5a 50 3d c3 12 93 3a db 9d 20 3d 99 3e c7 bd
       0.050867513 0.0011220801 0.039213043 -0.097287364
000290 35 27 03 bd 79 98 97 3d f0 02 9c 3b 32 76 8a bd
       -0.032019813 0.07402129 0.0047610924 -0.06760825
0002a0 28 84 e7 bc ef dd af 3d b8 cb 8a 3c 9e 14 36 3d
       -0.02826126 0.08587252 0.016942844 0.044453256
0002b0 ca 5c 02 be e7 31 9e 3d 59 51 b2 bd d5 aa 58 3d
       -0.12730709 0.07724362 -0.08706922 0.052897293
0002c0 f8 ab 7c bd 5a c3 21 bd a3 7a 13 3c e6 28 30 3b
       -0.06168744 -0.039492942 0.009001407 0.0026879846
0002d0 4f 45 8a 3b 1c 6c c9 bd be f7 28 bd b4 cf 1e 3d
       0.004219688 -0.09835073 -0.04125189 0.0387723
0002e0 70 e7 fc bc 32 df c8 3c 95 8d 6f bc 9e f8 ad 3c
       -0.030872077 0.02452049 -0.014621158 0.021236714
0002f0 a1 fe 82 3c 55 9d 81 bd 30 5d 2d 3c d3 6a 95 bc
       0.015990557 -0.06328837 0.0105813 -0.018239414
000300 52 11 b0 3d 00 e0 08 be d7 f2 92 3c 15 70 11 bd
       0.085970536 -0.13366699 0.01793806 -0.03550728
000310 c0 68 6e 3d f9 ca 5e bc aa ca c2 bc e9 24 9a bd
       0.058205366 -0.013598197 -0.023778278 -0.07526571
000320 c3 11 05 bd ae 64 bb bd 6e 94 26 3d bf b2 39 3d
       -0.032487642 -0.091500625 0.040668897 0.04533648
000330 7a 05 86 3d 8d 8d 3a bd cd 25 98 3b 02 af be 3c
       0.06544013 -0.04554515 0.004643178 0.02327681
000340 c3 a9 38 3d 3c 60 38 3d 91 6f 7f bc bc a8 0d bd
       0.045083772 0.04501365 -0.015590564 -0.034584746
000350 e2 ba c4 3c 79 e1 a4 3d 48 3a a6 3d 2a 4a d2 bc
       0.024014894 0.08050818 0.08116585 -0.02567013
000360 43 ba 29 3d c6 f8 3d 3d a4 cf 76 bd 6a e2 ee 3c
       0.0414374 0.046379827 -0.060256615 0.029160697
000370 9d 8c 84 bb b8 68 19 3d d7 87 84 bd bb 0d 12 bd
       -0.0040450827 0.037453383 -0.06471222 -0.035657626
000380 89 70 9c 3d 87 38 77 bd c6 00 b3 bd 06 80 f1 3c
       0.07638652 -0.060356643 -0.08740382 0.029479992
000390 ed 7f 48 bd 5b 0a 0f 3d 4f 9e c2 bc df 34 89 3d
       -0.048950125 0.034921985 -0.023757128 0.066995375
0003a0 e4 e2 f6 3b 82 0b 0e bd ca b3 ca 3c 88 54 2e bd
       0.0075343717 -0.034678943 0.024743933 -0.042561084
0003b0 d3 62 78 3c fd 02 1c 3c 86 d6 ce bd ba dc 66 bc
       0.01516028 0.009522197 -0.10099511 -0.014090711
0003c0 03 be 0a 3d 0a 99 3f bd 55 d9 3e 3c 7b a6 2a 3d
       0.033872616 -0.04677681 0.011648496 0.041662674
0003d0 c4 bf 92 bd 24 2e f7 3c eb 7b 80 bd a3 8e 4d b9
       -0.07165483 0.030173369 -0.062736355 -0.0001960346
0003e0 3b 23 d3 3c 3f 41 7e bc e4 f8 bb bd c5 ee e9 bc
       0.025773635 -0.015518486 -0.091783315 -0.028556237
0003f0 76 2f 6f 3b f9 64 2c bd 5d 6d b9 3c 1d 46 51 3d
       0.0036496795 -0.042088483 0.022635156 0.051092256

layers.1.bias f4 [128]
000000 4a 94 ea bd 22 25 d8 bd 5d d5 a8 bd f2 e6 e9 bc
       -0.11454065 -0.105539575 -0.08243821 -0.028552506
000010 66 13 9c 3c 0d e7 e0 bc 0e 83 22 3e c7 fd 1c 3e
       0.019052219 -0.027453924 0.15870306 0.15331183
000020 b1 3a ba bd d9 58 d9 bd 33 98 c0 3d 19 fb 37 bd
       -0.09093226 -0.106126495 0.0940403 -0.0449172
000030 a9 9e 9c bb 42 81 bc bc fd e9 0a 3e b9 6a 8e ba
       -0.004779656 -0.023010854 0.13565822 -0.0010865546
000040 11 f0 ff bd 86 62 80 3d ac d8 eb 3a 35 ab 02 3a
       -0.12496961 0.06268792 0.001799365 0.0004984618
000050 e4 1f a3 3d b8 42 bf 3d 78 3d 98 bc b5 a3 a9 3d
       0.07965067 0.093388975 -0.018583998 0.08283178
000060 c2 b6 38 3e d4 2e fc bb 72 a8 af bd ee f2 0d be
       0.18038467 -0.007696012 -0.0857705 -0.13862202
000070 7b be 5c bc 09 c1 8f 3d 8d d8 9f 3b 1f 48 a1 bd
       -0.013473148 0.070192404 0.00487811 -0.07875084
000080 f2 e9 41 bd e2 db c2 3d 7e 07 27 3d 29 f2 d2 3c
       -0.04734225 0.095145956 0.04077863 0.025750237
000090 8c 17 85 3d 5f c4 2d be 32 70 c8 3d 8b e6 18 3e
       0.06498632 -0.16969441 0.097870246 0.14931695
0000a0 09 05 4d bd b2 d8 c8 3d 3c fb 00 3e 09 71 ae bc
       -0.05005363 0.09806956 0.12595838 -0.021294134
0000b0 8b 67 09 be f7 a6 68 3c f6 9f 3a 3d 89 48 29 be
       -0.13418405 0.014199964 0.045562707 -0.16531576
0000c0 af 92 01 be 3b 8f e9 bc 85 39 68 bd c7 c9 cb bd
       -0.12653612 -0.02851068 -0.05669548 -0.09950595
0000d0 3e 66 88 bd b5 16 d5 bd d3 8d 58 3d 6e f1 d2 bd
       -0.06660126 -0.10404722 0.05286963 -0.10299955
0000e0 2b f9 1c 3e 20 12 f3 bd 61 27 eb 3c 65 65 1f be
       0.15329425 -0.118686914 0.0287053 -0.15566023
0000f0 ad fc 2f be d7 4b 9d 3d 51 87 06 be c2 9b c9 bd
       -0.17186232 0.07680481 -0.13137557 -0.098441616
000100 0e e9 20 be 24 e7 3c bd 79 75 be 3d 3d 3b 4a 3d
       -0.15713903 -0.04611887 0.0929975 0.0493729
000110 ec d2 1b bd ca d1 fb bd e0 17 14 be fc 4e 94 3a
       -0.038042948 -0.122958735 -0.14462233 0.0011315043
000120 2a a8 aa 3d ec 68 9d 3d ab fa 54 bc da d3 96 bc
       0.08332856 0.07686028 -0.012999217 -0.018411566
000130 ea 8c 45 be 03 17 e0 3d 2c 1d 75 3d 76 e8 2c be
       -0.19292036 0.10941889 0.059842274 -0.16885552
000140 63 80 f4 3b 6e d9 75 3d 38 7a 4d 3e 5f af d1 3d
       0.007461594 0.06002181 0.20066154 0.102385275
000150 d6 73 06 3d f3 c9 ba 3c 44 8f 16 3d d7 eb 45 3d
       0.032825314 0.022801375 0.036757722 0.048320618
000160 5a 5c 28 bc f3 54 df 3d b1 c6 64 bd 95 ce f8 3d
       -0.010275925 0.10904875 -0.05585355 0.121487774
000170 03 57 fb 3d e9 ab 26 3d 66 f4 ce bd e2 4f 47 3d
       0.122724555 0.04069129 -0.10105209 0.048660167
000180 c3 36 1c 3d a4 8d 0c 3d c9 d0 04 be c0 23 a0 3c
       0.038138162 0.034314767 -0.1297027 0.019548297
000190 49 c2 af bd 40 40 e9 bc e5 ee c4 bd db dd 16 be
       -0.08581979 -0.02847302 -0.09615878 -0.14733069
0001a0 ba c8 ac 3d e5 99 c4 bd 8d 4f 09 be 31 43 c7 bd
       0.08436723 -0.095996656 -0.13409252 -0.097296126
0001b0 b5 7c 10 3e 31 36 1b 3d 05 0b e7 3c ee 49 b0 b9
       0.14110072 0.037893478 0.028203497 -0.00033624418
0001c0 41 e8 5a bd 17 51 9c 3d 12 ed ab 3d 8c b8 5d bd
       -0.05344415 0.07632654 0.08394827 -0.054131076
0001d0 2d d7 cc bb e0 6d f8 bd 9f 49 1f be 33 48 6d bc
       -0.006251237 -0.12130332 -0.15555428 -0.014482546
0001e0 7d 82 c0 bc 85 81 fa bc d6 ad 67 3d 58 49 76 3d
       -0.023499722 -0.030579338 0.056562267 0.06012854
0001f0 d0 2c ef bd 9b e7 1c be b9 9b b2 bc f4 47 09 3d
       -0.11678469 -0.15322725 -0.02180277 0.033515885

layers.2.weight f4 [64, 128]
000000 4c 75 d6 3c 72 b6 d4 bd 86 8f cd bd b9 d2 7d 3d
       0.026178978 -0.10386361 -0.100371405 0.06196854
000010 96 eb 20 be 13 17 33 bd 2d 0a f3 3d 40 d7 85 3d
       -0.15714869 -0.043723177 0.11867175 0.06535196
000020 75 7e 75 3d 20 d0 5c 3d 36 cc 94 3d a4 43 a7 3d
       0.059935052 0.05390942 0.07265513 0.08167198
000030 53 7b bc bc 7b 09 3b bd 48 bf 94 3d 75 19 58 3c
       -0.023008024 -0.04566334 0.072630465 0.013189663
000040 80 69 df 3c d8 6e 70 3d 8a 16 06 3d 34 87 5a 3d
       0.027271986 0.05869946 0.03273634 0.053351596
000050 1e 5b 33 3c b4 49 ed 3d f1 2e 93 3a ff af ab 3d
       0.010947017 0.115863234 0.00112292 0.08383178
000060 fc b0 06 3d 04 f6 60 bd 0f 62 0b bd e8 28 20 3c
       0.03288363 -0.05492212 -0.034029063 0.009775378
000070 d3 2a a2 bd ee 7c a1 bd f4 93 94 bb 2e 42 d0 bc
       -0.07918324 -0.078851566 -0.004534239 -0.025422182
000080 87 90 b0 bd 28 92 a2 3d 91 b8 ef 3c 7c 6f 5e bd
       -0.086213164 0.07938033 0.029262813 -0.05430554
000090 3d 26 6b 3d 03 8b 2b bd 2d 0e b7 3d 98 a8 ce 3d
       0.057409514 -0.04188062 0.08938251 0.100907505
0000a0 62 57 e2 bd 1f d9 c1 3d b5 ae a2 bc 17 e0 cd 3c
       -0.11051823 0.09465241 -0.019858697 0.025131268
0000b0 71 69 80 bc 1d 23 ca 3d 91 1b 43 3d af 6c da 3c
       -0.015675278 0.098699786 0.04763371 0.026663153
0000c0 32 96 04 be da 40 19 bd 26 81 bb 3d ad 1b 61 3d
       -0.1294792 -0.037415363 0.091554925 0.054958034
0000d0 4b cb a5 bd d2 a3 d0 bc 02 ce ba 3d f2 d1 26 3c
       -0.08095416 -0.02546874 0.09121324 0.010181891
0000e0 f7 33 9b 3c e7 85 8e 3d 2a ef 1b 3d 19 d4 80 bd
       0.018945677 0.069591336 0.03806988 -0.062904544
0000f0 23 aa 3c bd 67 89 97 bc c2 2b f2 bd b8 64 53 bc
       -0.046060693 -0.018498136 -0.118247524 -0.012902431
000100 1a 6d 62 3d 0f 4d dc bd 2d 67 ef 3d a9 23 a2 3d
       0.05527983 -0.10756885 0.11689601 0.07916958
000110 36 53 e2 bc 60 96 88 bd 7d e9 91 bd 1f 7b cc 3d
       -0.027627569 -0.06669307 -0.071246125 0.09984421
000120 35 96 c9 3d 4d 86 87 bc 9b f1 f1 3d 6d b8 36 bd
       0.09843103 -0.016543532 0.11813661 -0.044609476
000130 8a 8d aa 3c e9 22 da 3b 32 ac 93 3d 58 c4 d7 bd
       0.020819444 0.0066569936 0.07210578 -0.105354965
000140 e3 8a 5f 3d 6a c9 ec bc 42 9c 87 3d 5e 24 8e 3c
       0.054575812 -0.028904635 0.06621601 0.017351326
000150 3d 68 24 ba 44 78 82 bd 83 b8 2e bd b4 07 af ba
       -0.0006271636 -0.06370595 -0.042656433 -0.0013353736
000160 4d 91 90 3d f9 1a e8 ba 46 52 9b 3d e3 7b 1c 3d
       0.07058964 -0.0017708234 0.07584052 0.038204085
000170 66 f1 bb 3d 37 67 c5 3d 3c 94 86 bd d7 88 8b 3d
       0.091769025 0.09638827 -0.06571242 0.068132095
000180 6e 0b 8c bc e2 14 2b 3d eb 2a 7d 3c c6 0b cc 3d
       -0.017095294 0.041767962 0.015452127 0.09963183
000190 06 a6 c4 bd 63 68 5f 3d ef 8c 84 bc fa 85 e9 bc
       -0.09601979 0.05454291 -0.016180484 -0.028506268
0001a0 ff e1 4a 3d 92 eb c7 3b 63 0e b7 bd f4 f6 f2 bc
       0.049531933 0.00610108 -0.08938291 -0.029658772
0001b0 e1 0b 9b 3d 92 51 8e 3d 06 65 9b bc 62 fd 09 bc
       0.07570625 0.06949152 -0.01896907 -0.008422228
0001c0 08 15 69 bc 4d fb be bb 76 09 7d bc 79 60 22 bd
       -0.014226206 -0.005828297 -0.01544415 -0.039642785
0001d0 b8 49 d3 3c 20 7c a8 3c 79 27 03 be 87 61 dc bb
       0.025791988 0.020567 -0.12808026 -0.0067254934
0001e0 7f 43 74 3d de c2 9d 3d 69 20 73 3c dd af a1 bb
       0.05963468 0.077031836 0.01483927 -0.0049342946
0001f0 d0 a0 ae 3d 29 4d c1 bd 90 30 75 3d 08 3e 10 bd
       0.08526766 -0.09438545 0.059860766 -0.035215408
000200 cd e7 cc bd 88 50 4e bd 51 ea 4b bb 14 58 f0 3d
       -0.1000515 -0.05036977 -0.0031115005 0.117355496
000210 8e 77 5a bd c9 d7 d4 bb 40 1f df bb 16 cc ac 3c
       -0.053336672 -0.00649545 -0.006809145 0.02109341
000220 40 16 88 bc 8e 14 90 bd b0 23 1c bd 82 f6 1a bd
       -0.016612172 -0.070351705 -0.03811997 -0.037832744
000230 a1 06 21 bd 09 bb dc bd 05 a7 df bc af 66 90 bd
       -0.039312962 -0.107778616 -0.02730132 -0.07050835
000240 0a da b7 bd 9a 83 57 bd 37 13 b5 bd c7 a2 1e bd
       -0.089771345 -0.05261574 -0.088415556 -0.038729455
000250 38 02 5a bd a6 73 61 bc 1b b7 7d 3c 4e 73 cf 3b
       -0.053224772 -0.013760483 0.01548555 0.006330884
000260 11 69 2f bd 07 e5 04 3d e4 d1 50 bd ed e6 d2 bb
       -0.04282481 0.03244498 -0.050981417 -0.00643622
000270 06 7d 04 be 0a c4 90 bd 80 d5 91 3d 03 da 89 3c
       -0.12938318 -0.070686415 0.071208 0.016827589
000280 7f d4 3c 3d 92 5a 6c 3d a8 cd 0e bc 97 ff b8 3d
       0.04610109 0.057703562 -0.008716024 0.09033125
000290 8f cb 71 3c 5e cc b7 bd b4 70 81 bd 65 98 19 3d
       0.014758005 -0.08974527 -0.063203245 0.03749885
0002a0 73 36 df bd c7 d8 94 bd 48 fb 5f bd b2 ce 87 3d
       -0.10899057 -0.072679095 -0.054683 0.06631221
0002b0 a4 5b b3 3c e1 4f d4 3d 35 c2 63 bd 17 35 46 bd
       0.021894284 0.10366798 -0.055605132 -0.048390474
0002c0 0e 16 24 3d 15 b7 bd b8 01 70 3c bc 7d 5f 75 3d
       0.040060095 -9.046324e-05 -0.011501313 0.059905518
0002d0 5f 20 da 3c 51 be 95 bd 50 e5 1c bd 2e da a9 bb
       0.026626764 -0.073116906 -0.038304627 -0.0051834797
0002e0 d8 05 47 3d 18 c5 bd 3d 1c cf 37 3d 3e 46 cc bd
       0.048589557 0.09266108 0.04487525 -0.09974335
0002f0 e2 68 cc 3b f4 32 1f 3d 1a a0 35 bd a4 38 7b bd
       0.006238089 0.038866952 -0.044342138 -0.061333314
000300 48 83 90 3c fc 04 0b bd 28 66 f3 3c 5f e2 b7 3d
       0.017640725 -0.0339403 0.029711798 0.08978724
000310 e7 45 78 3c 7e a4 a3 bc cd a2 f8 bc b0 a9 9a 3d
       0.015153385 -0.019975897 -0.030351067 0.075518966
000320 d4 f5 d3 3b 65 f8 36 bc 98 17 c3 3d aa 94 aa bb
       0.006468514 -0.01116762 0.095259845 -0.0052057104
000330 8e 19 aa bd 80 9e a3 bc 4b 0f 45 3d 82 a5 ee bd
       -0.083056554 -0.01997304 0.048110288 -0.11652662
000340 d2 87 eb bd 9c 30 78 3d 50 4d ee 3d bd 8f d4 3c
       -0.11500515 0.060593233 0.1163584 0.025947446
000350 88 39 5a bd f9 23 6f bc 32 7f 4d 3d a2 38 95 3d
       -0.053277522 -0.014595979 0.05017013 0.072861925
000360 97 67 01 3e d9 95 12 3c 9c f7 ac 3d 5b 06 54 bc
       0.12637173 0.008946859 0.08445665 -0.012940968
000370 f8 dc 9c bd 62 38 2f bd 7e 35 94 bc 39 b2 a1 3c
       -0.07659334 -0.04277838 -0.018091913 0.019738303
000380 a0 26 40 3c b8 cf 24 bd ed aa 22 bb 29 1f ee 3d
       0.011727959 -0.04023716 -0.0024821118 0.11627037
000390 ae cc 25 3d ec b7 39 3d 8d e5 7f bc 2c 39 be 3b
       0.0404784 0.045341417 -0.015618694 0.0058051553
0003a0 99 a8 a4 3d 80 ec 8e bd 0a 8d 73 bd c7 14 2c 3d
       0.0803997 -0.069787025 -0.059460677 0.042012002
0003b0 38 a4 91 bd c7 b1 07 3d 82 9e c3 3d fc 59 b8 bd
       -0.071114 0.033128526 0.09551717 -0.09001538
0003c0 a7 54 21 bb ae d5 c2 3d 98 e9 21 bc 60 c0 b2 3d
       -0.0024617107 0.095134124 -0.009882353 0.08728099
0003d0 05 fe ee 3c eb 55 98 3d 90 45 0c 3d e8 e2 5f bd
       0.02917386 0.074382626 0.034246027 -0.054659754
0003e0 d2 ad cc 3c e6 1b 91 bd 7f 07 0a bc d7 06 0c be
       0.024985228 -0.07085399 -0.008424639 -0.13674484
0003f0 d7 02 bb 3c f4 42 dd 3c 9b 0b 2d bc 3e d3 e9 bd
       0.022828503 0.027009465 -0.010561849 -0.114172444

layers.2.bias f4 [64]
000000 92 fc ca 3d 84 1d 49 bb 16 c8 a5 3d c7 6a 91 3c
       0.09911455 -0.0030687759 0.08094804 0.01775111
000010 9b 59 99 bd c2 03 dc bb e3 dc 9e bc a0 17 74 3d
       -0.07487794 -0.006714315 -0.019392436 0.059592843
000020 ad ee c0 bd 45 63 ba bd 18 31 a7 3c 80 d2 36 bd
       -0.09420524 -0.091009654 0.020409152 -0.044634342
000030 5a c6 66 bc e1 97 9f 3b 6d df 10 bd f6 56 96 3d
       -0.014085377 0.0048704003 -0.035369325 0.07340805
000040 1b 3c 0c bc bb 05 d8 3c 62 1e 62 bc 7d 9c ed 39
       -0.008559252 0.02636992 -0.013801189 0.00045320755
000050 b8 f2 8b 3d 4b b3 2b 3c df f1 93 bd 9b f8 17 be
       0.06833404 0.0104797585 -0.072238676 -0.14840929
000060 6e 99 bb 3d 0b 1c e6 bc a5 38 49 3d ac a9 17 bd
       0.09160124 -0.028089544 0.049126286 -0.037027046
000070 8e 62 07 3e bd 99 fd bd 6a c7 a6 3b ec 70 f5 bd
       0.1322119 -0.12382839 0.00508969 -0.11984429
000080 52 f6 e5 3d dd 25 ff 3c 24 02 1a 3e f6 5c c9 3c
       0.112286225 0.031145984 0.15039879 0.02458046
000090 7e 62 e3 3c e4 b5 1b 3d 8a 6d ad 3c 33 bf c3 3c
       0.027756926 0.03801526 0.021170396 0.023894882
0000a0 32 d3 bb bc bc 86 d6 3d 69 5c 19 3d 81 90 a2 3c
       -0.022927854 0.10474917 0.037441645 0.019844295
0000b0 b5 48 f9 bd ea 40 85 bd 4e 34 ee bd 4c be 32 be
       -0.12172071 -0.06506522 -0.1163107 -0.17455405
0000c0 de 91 75 3d 93 d0 c0 bd b8 8d 32 bd 45 b9 0d 3d
       0.059953563 -0.094147824 -0.043592185 0.034600515
0000d0 17 dc 29 3d 62 07 29 3e 9b 12 1b bd 58 ab 01 be
       0.04146966 0.16506723 -0.03785954 -0.12663019
0000e0 0c 5f 87 3d a9 e3 29 be 18 40 90 bd 21 91 92 3c
       0.06609926 -0.16590752 -0.07043475 0.017891468
0000f0 86 ce 09 be e5 33 18 be 5e 21 c3 3c 06 7a e0 bc
       -0.13457689 -0.14863546 0.023819622 -0.027401935

readout.weight f4 [1, 64]
000000 e1 1d 69 be ba 22 47 be 6b 7c fc bd bf d4 1f 3e
       -0.22765304 -0.19446841 -0.12328418 0.156085
000010 b7 a1 0c 3e f6 8d 4a 3e 38 e4 8e be 10 14 24 be
       0.13733564 0.19780716 -0.27908492 -0.16023278
000020 d0 1d 71 3e 9c 64 8d 3e 34 bf 61 be 2a f1 f7 3d
       0.23546529 0.2761582 -0.22045594 0.12106545
000030 d1 09 f0 bd fc 65 18 be 77 4c a4 3e 73 cb 56 be
       -0.11720622 -0.14882654 0.32089588 -0.20976047
000040 74 e6 6c be 62 f2 fe 3d 04 3d 5f 3e 8e 7e c7 bd
       -0.23134786 0.124485746 0.2180062 -0.09740935
000050 c4 7a 3a be 86 16 68 3e 54 55 4c 3e ab c7 51 3e
       -0.18210894 0.22664842 0.19954425 0.20486324
000060 9e 50 17 be d6 e6 8d be 09 55 46 be 71 00 7f 3e
       -0.14776847 -0.27715176 -0.19368376 0.24902512
000070 97 c0 4f be 03 ba 64 3e 7a 8e d6 3d ce 8c 18 3e
       -0.20288311 0.22336583 0.10476394 0.14897463
000080 fa 9f 94 be 19 5e 07 3e ed 17 2b be 8c 42 73 be
       -0.29028302 0.13219489 -0.16708346 -0.23755854
000090 f1 05 10 3e d6 3c 9c be db 7d 37 be 90 1c 50 3e
       0.14064766 -0.30515164 -0.17919104 0.20323396
0000a0 9b 19 8b be 49 e7 86 be b1 c1 69 be 44 e4 8f be
       -0.27167973 -0.26348332 -0.22827794 -0.2810384
0000b0 df 6a 6f 3e 2b 01 95 3e 8a 22 37 3e 92 77 5e 3e
       0.23380612 0.29102454 0.1788427 0.217253
0000c0 06 bc 75 be 7d b7 96 3e 0e 89 ac 3e b9 85 14 be
       -0.23997506 0.29436865 0.33698314 -0.14504136
0000d0 c5 3e 62 be d1 69 ac be c9 79 27 be a1 d9 5e 3e
       -0.22094257 -0.33674482 -0.16355051 0.21762706
0000e0 92 80 6b be 85 2a 4a 3e e9 2d 59 3e 46 e6 e7 3d
       -0.22998264 0.19742782 0.2120892 0.11323218
0000f0 6e 38 33 3e ee 42 94 3e 6a 0c 3f be b3 73 8d 3e
       0.17501995 0.28957313 -0.1865708 0.27627334

layers.0.weight f4 [128, 17]
000000 39 5d 82 3d eb 23 0f 3f a9 63 8f be 0d d7 c1 3d
       0.06365437 0.5591418 -0.28005722 0.09464846
000010 86 b5 48 be bb 82 4c 3e b7 91 cb 3c 65 2a 5c 3e
       -0.19600496 0.19971745 0.024849756 0.21500547
000020 d0 db 85 3b bc df 60 be ee fa b0 3c a6 a1 bc bd
       0.0040850416 -0.21960348 0.021604028 -0.092105195
000030 7d 52 10 3e b3 a0 06 bd 45 eb 96 be c0 fc ed 3c
       0.14093967 -0.0328681 -0.2947637 0.029051185
000040 6f d0 a5 3d b4 2b da bc 1b 0c 21 bf 18 bd ad be
       0.08096396 -0.026632167 -0.62909096 -0.3393333
000050 d9 a1 91 bd fc c0 02 be 97 cb bf 3e 80 6b 2f be
       -0.07110948 -0.1276893 0.37460014 -0.17130852
000060 46 7d ff 3c 06 b8 f4 be c5 e0 1c 3e 98 7c 01 bd
       0.031187665 -0.4779665 0.15320118 -0.031612962
000070 41 b5 5f 3d e9 87 59 3e 14 e3 17 be ff bb c4 3c
       0.054616217 0.21243252 -0.14832717 0.024015425
000080 ba 6c 51 3c 7e 57 38 bd a5 fe e1 3e d0 f8 36 bf
       0.01278227 -0.045005314 0.4413959 -0.7147341
000090 14 6d 79 3e 20 21 69 3e f1 9e 3b 3e b8 9b 9b 3e
       0.24358016 0.22766542 0.1832235 0.3039224
0000a0 e2 37 0b bd cf 47 50 3d ad b1 1f bf df 0a 89 3e
       -0.03398884 0.050849732 -0.62380487 0.26766106
0000b0 77 0a 46 bb c0 dd 1e be cf ec b4 bc 9b d5 7e 3c
       -0.003021864 -0.15514278 -0.022085575 0.015553857
0000c0 48 7d 86 3e 15 b9 ca 3b 43 94 11 3e 92 c4 88 be
       0.26267457 0.0061866143 0.14216714 -0.2671247
0000d0 41 b3 0b bf a2 90 76 be 26 b1 bf be 87 7e 23 bd
       -0.54570395 -0.2407861 -0.3743984 -0.039915588
0000e0 02 b1 55 bd d7 e4 60 bd 10 a7 35 3d 1a 99 a5 bc
       -0.05217076 -0.05490574 0.044348776 -0.020214606
0000f0 69 4a 30 bd 71 cc cc bd f7 8d a5 3d d2 dd 12 3e
       -0.043039713 -0.099999316 0.08083718 0.1434243
000100 0c 97 5a 3c d9 41 29 be 4c 71 3b be 2d ab a5 bc
       0.013341676 -0.16529025 -0.18304938 -0.020223225
000110 d0 5f 28 3d 12 5e 8d be c9 c9 c0 3d d3 06 20 3d
       0.041107 -0.27610832 0.094134875 0.039069008
000120 80 85 fb be 03 77 2b 3e 01 c2 86 3c 27 fe a3 3d
       -0.4912529 0.16744618 0.01644993 0.0800746
000130 5c f6 3f 3e f0 dd 2d 3e 4a 02 bd bc 5e 22 89 3d
       0.18746322 0.16979194 -0.02307238 0.06696008
000140 63 3c 42 3b 14 3a 2f 3e aa 93 02 bd cf 74 29 bd
       0.0029638044 0.17111999 -0.031879105 -0.041371163
000150 43 a7 6d be 18 5f e3 3e cb fc f0 be e1 b9 56 be
       -0.23208337 0.44408488 -0.47067866 -0.20969345
000160 ef 1c 62 be 33 18 27 be 8f e5 39 be 28 90 9a be
       -0.2208135 -0.16317825 -0.18153976 -0.30188107
000170 a5 c2 b7 3d 23 bd c5 be 5c 5c 0a be 44 cc 34 be
       0.089726724 -0.38620862 -0.13511795 -0.17656046
000180 00 18 bb 3d 31 54 89 3e e1 90 8a 3d 4d 7e f8 3d
       0.09135437 0.26822045 0.06765915 0.12133465
000190 60 6d 8c be 82 e5 23 bd 03 39 82 3e 5e fa 79 be
       -0.27427197 -0.040013798 0.2543412 -0.24411914
0001a0 e7 ce d7 bd 09 2c 91 be 34 9f bc 3e e7 37 49 be
       -0.1053751 -0.2835391 0.36840212 -0.19650231
0001b0 b9 10 44 3e 3c 83 92 bd 0a 30 ba be 8f 2a b4 3e
       0.19147004 -0.07153937 -0.36364776 0.3518872
0001c0 7c d8 d8 bd 31 51 3d 3e c7 3a 9b 3c 28 c9 69 be
       -0.10588166 0.18488003 0.018948926 -0.22830641
0001d0 13 b2 99 bd a6 db 63 be 55 86 1a 3e 9f 38 fa bd
       -0.07504668 -0.22251758 0.15090306 -0.12217831
0001e0 be 18 12 3e 0b 1b 7d be 6a dd e1 be 95 b3 ea bd
       0.14267251 -0.24717347 -0.44114238 -0.11460034
0001f0 43 8b cb 3d 38 9b 85 be d2 85 70 3d 58 e7 89 3e
       0.099386714 -0.26094985 0.05872137 0.26934314
000200 f9 fe 41 be a2 20 a5 3e f2 c2 e9 bd 05 f4 39 3e
       -0.1894492 0.3225146 -0.11414136 0.18159492
000210 27 4a ea 3d 96 96 05 3e 48 0f 43 3e 65 f5 79 3d
       0.11439925 0.13045725 0.19048798 0.061025042
000220 35 d9 e9 3e cd a8 40 bf 2b 67 7e bd 0e ef 74 3c
       0.45673528 -0.7525757 -0.062110107 0.014949573
000230 64 15 d6 3e 81 94 c8 bd f9 0a 1d be 75 ff fb bd
       0.41813195 -0.0979395 -0.15336217 -0.12304584
000240 ee 90 2d bf b0 f7 85 3e 81 ae a4 bd 2a c1 c9 bc
       -0.6779927 0.26165533 -0.080410965 -0.02462824
000250 7b 5e 2b 3d 04 f4 2a bd f4 2d d3 bd 03 ed 36 bd
       0.04183815 -0.041736618 -0.10311499 -0.044659626
000260 5a de b9 bc b7 1e 8f 3e c1 02 36 bf ed a4 c9 be
       -0.022689033 0.2795312 -0.7109795 -0.3938364
000270 94 fc 3f 3e 6c 24 05 3e c5 2c a9 3e 8b 83 99 be
       0.18748695 0.13002175 0.3304197 -0.29983172
000280 5e a1 d6 3d 87 9d c0 3d 2c bc 13 be c0 ed 6d be
       0.10479997 0.09405046 -0.1442725 -0.23235226
000290 53 55 f0 bd 1d 3c da bd 25 56 cd 3c 1a 1b 82 3e
       -0.11735024 -0.10655997 0.025065491 0.25411302
0002a0 ff 7b 83 3d 29 2d 0e 3c 7d 8c 54 be 11 d1 65 3e
       0.06420135 0.008677759 -0.20756717 0.22443034
0002b0 3e 1b 04 3f 64 84 d1 bd 72 70 01 bf 0b dc 49 3e
       0.5160407 -0.1023033 -0.505622 0.19712846
0002c0 04 d1 1e bf b9 a9 59 3c ac 3c ac 3e bf 00 52 be
       -0.6203768 0.013285094 0.3364004 -0.20508097
0002d0 6f d6 bf bd 27 8b 1f 3e c0 d1 1d bc 91 4a d3 bd
       -0.09367072 0.15580426 -0.009632528 -0.10316957
0002e0 a7 14 5e 3d 06 9e 11 3e dc db 1b 3e 3f c6 be 3d
       0.054218914 0.14220437 0.15220588 0.09315156
0002f0 8d aa 10 be 56 13 a9 be e4 5c dd be 02 4f 3a 3d
       -0.1412756 -0.33022565 -0.43234932 0.045485504
000300 00 2a d2 3e 4f 19 50 3e 84 79 1d be 4c d5 dc bd
       0.41047668 0.20322154 -0.15378386 -0.10782871
000310 1c 4a 72 3e 0e 5e db be db 7e f3 3d 79 50 05 be
       0.23661083 -0.42845196 0.1188943 -0.13018979
000320 0a ad 39 3e 1b 1c a1 3c 82 88 ec 3d f2 69 cc 3d
       0.18132415 0.019666722 0.11549474 0.09981145
000330 39 5d 0a 3e 45 8e 3c be b1 d5 29 3e ff 0c 75 3d
       0.13512124 -0.18413647 0.16585423 0.059826847
000340 be 62 0c be 41 2e 43 bf fb 95 3f be 47 52 2b be
       -0.13709542 -0.7624245 -0.18709557 -0.16730605
000350 de 1e e1 3e e7 79 74 3d a8 e2 cc 3e 59 1f 42 3d
       0.43968862 0.059686568 0.40016675 0.047393177
000360 14 9b c9 3d 7e b6 6b bd 6d b8 29 be 0f bc f4 3d
       0.09844032 -0.057547085 -0.16574259 0.11949932
000370 0d b8 ab 3d 6e 5c 15 be 65 0d a0 3e f2 e9 9c 3e
       0.08384714 -0.1458604 0.3126022 0.30647236
000380 5d dd af 3e 46 86 39 3d 78 00 0f 3e de d8 b8 3e
       0.34348574 0.04529407 0.13965023 0.36102957
000390 ea 37 cb 3e d7 8c 35 be 02 6b 87 3e eb 08 3b be
       0.39691097 -0.17729507 0.26448828 -0.1826512
0003a0 9b 73 cc bb 5a b4 82 3e 37 e8 4d 3e 77 f6 6d be
       -0.006239367 0.25528222 0.20108114 -0.2323855
0003b0 71 4f 85 bd 11 54 8d 3d ae bc 27 3f c1 f7 65 bf
       -0.06509293 0.069008 0.6552228 -0.8983117
0003c0 04 99 29 bf f8 f5 bd be 30 59 26 be 2a 38 3c be
       -0.6624911 -0.37101722 -0.1624496 -0.183808
0003d0 98 21 ca bd 2f 32 c6 be 52 8c 4b be 85 1e b3 3e
       -0.09869689 -0.38710162 -0.19877747 0.34984222
0003e0 66 47 90 bd 9d d4 6c be 30 c9 7a 3d 72 56 17 3d
       -0.07044868 -0.2312798 0.061227024 0.036947675
0003f0 7c 3c 47 be da 7d ec 3c 38 f8 ac 3d 0d cd 97 bd
       -0.19456667 0.028868604 0.084457815 -0.07412157

layers.0.bias f4 [128]
000000 41 1c 5b 3e ed 2a 9a 3e 3a f8 3b be 65 f3 06 3f
       0.21397497 0.30110875 -0.1835641 0.5271514
000010 5e 2f 9f 3e 7a 69 b0 be 63 1c 7f 3e 08 86 9c 3d
       0.31090826 -0.34455472 0.24913172 0.07642752
000020 3d 52 f9 be 45 db 6f 3e 1a 4d e1 3e 0c 39 9c 3e
       -0.48695555 0.23423488 0.44004136 0.30512273
000030 03 73 ed 3e 43 03 11 3e cc 4f 99 be c4 33 3a be
       0.4637681 0.141614 -0.29943693 -0.1818381
000040 38 52 8d bd 6d 28 9a 3e 38 fa fe 3e af 37 96 3e
       -0.069004476 0.30108967 0.49800277 0.29339358
000050 27 cc 87 3e 9a 98 0c 3f ee 44 9c be d9 62 ae 3e
       0.26522943 0.5492035 -0.3052134 0.3405979
000060 4e 5b 01 be 66 8e a2 3e ac 4f 33 3e fc 1c 0d 3f
       -0.12632486 0.31749266 0.17510861 0.5512235
000070 c3 b1 45 3d 18 0d e1 3e ac bd 34 bd 52 e4 a0 3d
       0.04826523 0.43955302 -0.044126198 0.07856049
000080 dc 21 50 be d7 a7 86 3d 09 ed 34 3d 4d e6 c8 be
       -0.20325416 0.06574982 0.044171367 -0.39238206
000090 db 62 fb be f8 e2 bd 3e 5b 87 90 be ba de e8 bd
       -0.49098858 0.37087226 -0.28228268 -0.11370607
0000a0 50 1e 01 be 37 ca a1 3e 89 84 96 be 00 22 42 bd
       -0.1260922 0.3159959 -0.2939799 -0.047395706
0000b0 b2 e0 09 3d 48 52 83 3e af 95 18 3e 22 42 e7 3e
       0.03366155 0.25648713 0.1490085 0.45167643
0000c0 bf 0f 8e 3c 47 78 b7 3d 67 23 45 3e 65 94 3e be
       0.017341493 0.08958488 0.19251786 -0.18611296
0000d0 93 6c ac 3e b6 bd fc be 3d c0 2e be b0 cc e1 be
       0.33676586 -0.49363488 -0.1706552 -0.44101477
0000e0 a8 79 21 3e 88 cc 16 bf fd da 5a be 22 3f 1f be
       0.15769064 -0.5890584 -0.213726 -0.15551427
0000f0 c6 be 8a 3d fd 08 d7 3d 72 e7 e6 be 0c fa 72 3e
       0.067746684 0.10499761 -0.45098454 0.23728198
000100 43 57 c7 bd ea 97 33 be be 28 23 be ce 2b 11 bf
       -0.09733441 -0.1753842 -0.1593351 -0.56707466
000110 1e 87 ff bc 89 db 50 bd 12 ee d9 3e 99 49 a3 3e
       -0.031192359 -0.050990615 0.42564446 0.31892088
000120 99 ee 34 be f3 11 9c be 92 ca 03 bf 0d d9 62 3e
       -0.17669143 -0.30482444 -0.5148097 0.22153111
000130 bc ba 05 be 88 51 c5 3d 00 b7 b4 3d 5a 15 9d be
       -0.13059515 0.096346915 0.08823967 -0.30680352
000140 81 52 fd bd 14 1b a1 be 61 cd 11 be 78 62 83 be
       -0.12369252 -0.3146597 -0.14238502 -0.25661063
000150 25 57 54 3e 71 02 77 3d 48 66 a4 3e ec f0 06 3d
       0.20736368 0.060305063 0.32109284 0.032944605
000160 c0 77 b1 be ff eb 92 3e 77 a8 5d be 9d 1b 9f bd
       -0.34661674 0.28695676 -0.21646295 -0.07768939
000170 5a e3 c7 3d 92 5d b5 3e dd 1d d2 3e 5e 27 d6 be
       0.09760161 0.3542295 0.4103841 -0.4182691
000180 4d d5 31 bd af c6 4d be 59 91 03 be 1f d6 87 3e
       -0.04341631 -0.20095323 -0.12848414 0.2653055
000190 2e dc 6e 3d b6 77 94 3d 99 72 9f 3e 63 fd 08 3e
       0.05831545 0.072493955 0.3114212 0.1337791
0001a0 7d 5f 00 3f 92 d8 15 be 85 85 87 bd fd b9 19 bd
       0.50145704 -0.14633396 -0.06617264 -0.037530888
0001b0 ff 9d 8c 3c 5b 80 14 3f 51 94 80 3e cf 84 05 3f
       0.017165182 0.58008355 0.25113156 0.52155775
0001c0 b5 fb f2 3c 6c 7f 0d 3d b2 9b 62 bd ff 8f a6 be
       0.029661039 0.034545347 -0.055324264 -0.32531735
0001d0 75 83 73 be bc 8a 1e 3e 3d 62 88 3e c1 e4 1a 3e
       -0.23780616 0.1548261 0.2663745 0.15126325
0001e0 42 3d 3c 3e f3 07 f8 bd fb 02 d4 bc 79 66 5a 3e
       0.18382743 -0.12110891 -0.025880327 0.21328153
0001f0 14 63 36 3e 01 07 7e be 69 06 8f 3d ec 8a df 3e
       0.17811233 -0.2480736 0.069836445 0.43660676

layers.1.weight f4 [128, 128]
000000 03 70 3e 3d 90 09 b7 3d 50 e1 c8 3d 89 85 c1 bd
       0.04649354 0.08937371 0.098086 -0.09449298
000010 77 f0 3d be 49 ee 7d bd 2c 23 18 3d 14 8a 2d 3b
       -0.18548761 -0.061994825 0.037142918 0.0026480006
000020 34 49 19 3c 49 9d 8c bd 31 a7 b6 bd 65 1d a6 bc
       0.009355832 -0.06865937 -0.08918608 -0.020277688
000030 67 64 c3 bd 9d 90 18 bc cd 79 d3 bd 65 ab fa bd
       -0.095406346 -0.009311822 -0.10325966 -0.12239722
000040 af 49 20 3d 00 ab 8f 3d d2 6d bd bd ae 79 0e bd
       0.03913277 0.070150375 -0.09249462 -0.03478401
000050 de 4b b6 bd 00 8a 3d bd 7d 34 87 3d 02 fc 8e bc
       -0.08901189 -0.046274185 0.06601808 -0.017454151
000060 30 bf 2e bd b4 8b 40 be a2 fe 02 3e c6 52 32 be
       -0.0426628 -0.18803293 0.12792447 -0.17414388
000070 11 c3 2b 3e 20 34 fa bc 4f e3 2f 3b f7 d5 3a bd
       0.1677363 -0.030542433 0.0026838367 -0.04561421
000080 9f ca d2 bc e1 3a 19 be 38 ff 43 bd c5 89 be bc
       -0.025731383 -0.14963867 -0.047850817 -0.023259053
000090 2a e8 1b bd d7 0e 72 bd ce 1b 9a bd 44 81 36 3d
       -0.038063206 -0.059096184 -0.075248346 0.04455687
0000a0 b8 3f 9e ba 99 b2 10 3b e2 54 60 bc 5c 90 21 3d
       -0.0012073433 0.0022079109 -0.013692113 0.039444312
0000b0 ca 0d 1d 3d 68 01 83 bd 37 ba 20 3d 0a fa 51 bd
       0.03834323 -0.063967526 0.03924009 -0.051263846
0000c0 3f 5e 8b 3d fc c6 45 bd f9 26 f5 bd 1f bb 8b bc
       0.068050854 -0.04828547 -0.11970324 -0.017057
0000d0 09 da 49 bd 16 64 cd 3d 07 d9 b8 3c 73 24 fd 3d
       -0.0492802 0.100288555 0.022564424 0.12360468
0000e0 27 7b 51 bd b9 4c 45 bd 23 bc 5f 3d f2 b9 18 be
       -0.051142838 -0.04816887 0.05462278 -0.14914683
0000f0 01 2f 1f be e3 14 ea bb 71 b7 0f be 5a 57 ff bb
       -0.15545274 -0.007143603 -0.14034821 -0.0077923955
000100 68 7b 78 3d 77 d9 8e 3d e8 41 ce bd 68 87 55 3d
       0.060664564 0.06975072 -0.10071164 0.052131087
000110 ba eb 38 3d 7b 90 05 bd 93 45 8f bd e3 bd 86 3c
       0.04514668 -0.03260849 -0.06995692 0.016447967
000120 a7 fb 5c bc ed bd 1b 3e d6 0b 05 3e f0 db 95 bc
       -0.013487733 0.1520917 0.12992796 -0.018293351
000130 b2 53 09 bd 38 74 2c bd 77 e6 d5 bd 99 eb ab 3d
       -0.033527084 -0.042103022 -0.10444348 0.08394546
000140 e7 c2 7a 3d 32 13 ce 3d 5e 01 5d bc d5 4d 87 bd
       0.06122103 0.10062255 -0.0134890955 -0.06606642
000150 2a 79 da bd f8 f1 65 3d b2 83 75 3d 6a 87 ec bc
       -0.106676415 0.056138963 0.059940048 -0.028873164
000160 6e 0a 6c 3d bf 44 75 3d e2 e9 25 bd ec 03 0a bd
       0.057627134 0.059880015 -0.04050625 -0.033695146
000170 40 ec 12 3d ed 35 82 bd 8b fb fe bc 0e 5f d7 bb
       0.035869837 -0.06357942 -0.031125804 -0.0065726107
000180 88 20 50 bd e6 d3 83 3d 93 64 ae bd a5 a3 98 bd
       -0.050812274 0.06436901 -0.08515277 -0.07453088
000190 0e 19 82 bd 86 07 da bd 31 7e dd bc 32 f3 d0 bc
       -0.06352435 -0.10645966 -0.027037712 -0.02550659
0001a0 4d 8e 6a be da 29 e6 3c c4 12 ba 3d 48 39 03 be
       -0.22905846 0.028096128 0.090856105 -0.1281482
0001b0 34 ff f9 3c b9 8c 65 be 3b 57 61 bd 2d 1c 02 bd
       0.030517198 -0.22416963 -0.05501483 -0.03176515
0001c0 db bf 8e 3c 4d 7f 43 be 23 71 9f bd 2a a3 f8 3c
       0.017425468 -0.1909153 -0.07785251 0.03035124
0001d0 41 87 b0 bb 27 5a 06 3c 82 6b 8e 3d 43 03 14 bd
       -0.0053872173 0.008200205 0.06954099 -0.036135923
0001e0 d9 e1 3b be 8a cf 1d 3d 67 23 0a 3d e8 be 3a 3d
       -0.18347873 0.038528003 0.03372517 0.04559222
0001f0 12 a2 97 bc 55 a1 02 3d 67 a0 8c bd fe 6e c4 bd
       -0.018509898 0.03189214 -0.06866532 -0.095914826
000200 b1 2c 8c 3d 81 fb 82 3d c5 f7 c3 3d 82 a0 75 3d
       0.06844462 0.06395627 0.09568743 0.059967525
000210 08 0f 25 bd f8 56 0e 3d d6 c1 2a bd 4e 35 cd bd
       -0.040297538 0.03475091 -0.041688763 -0.10019933
000220 86 0e fa 3d 22 ca 8d 3d 71 52 ce bc 04 72 19 3d
       0.122098014 0.069233194 -0.025185796 0.03746225
000230 db 90 fa 3d a8 58 b5 3c df ab e9 bc 10 ee ab 3d
       0.1223466 0.022137001 -0.028524337 0.08395016
000240 c3 98 31 bc 83 37 a5 3b af 29 b2 bc cd 14 0d 3d
       -0.010839644 0.005042018 -0.021748392 0.034443665
000250 fa d8 0b 3d 99 5d 3c bd 5f 1b f3 3d 29 08 b4 bd
       0.03414247 -0.0459877 0.11870455 -0.08790619
000260 62 a3 c2 bc 4c 3a e7 3d e1 30 64 3d dc 4a c8 3d
       -0.023759548 0.11290416 0.055710677 0.09779903
000270 9f 32 d4 bc 39 61 0c 3d 78 46 c7 3c 0d bd b1 3d
       -0.025903044 0.034272406 0.024325594 0.08678637
000280 69 f0 a4 bc 2a a0 8c bd 4e 3c be 3d 59 af 90 3d
       -0.020134168 -0.06866486 0.09288846 0.07064695
000290 05 1c 87 bc e8 36 ee 3c b5 ce 32 3d 52 45 97 bd
       -0.016492853 0.029078916 0.043654162 -0.07386269
0002a0 2c 33 bf 3d 27 e3 dc 3d 67 d2 14 bd 47 58 75 bd
       0.09335932 0.10785513 -0.036333468 -0.05989864
0002b0 89 91 be bc 1f 08 ca bb 51 fd a1 3b a0 3e 43 bd
       -0.023262756 -0.006165519 0.0049435277 -0.047667146
0002c0 de 84 66 3d c8 93 b7 3d 54 e5 58 bc 87 b2 25 3d
       0.056279056 0.08963734 -0.01323827 0.04045346
0002d0 31 72 23 bd 3c fa e1 bc 4b 2d e1 3c 2e bc e3 3d
       -0.039903823 -0.027585141 0.027487418 0.11119877
0002e0 85 6b 91 bd cd 79 88 bd 1c 50 c6 bc 89 fd d9 3d
       -0.07100586 -0.06663857 -0.024208121 0.10644061
0002f0 23 1b 65 bd e9 bb 9f 3d e9 80 45 bd 61 90 e0 3c
       -0.055934083 0.07799513 -0.04821864 0.027412595
000300 0c f6 b0 3d 5d 2c 72 3d 22 16 85 3d c0 b5 e0 bd
       0.0864068 0.05912434 0.06498362 -0.10972166
000310 33 7e 84 3c 67 80 95 3d 0f ed 2e bc c0 4c 26 3d
       0.016173458 0.072998814 -0.010676636 0.04060054
000320 db 12 34 3d 77 d7 a8 3c 8e 10 d7 ba 18 6d 59 bd
       0.043963294 0.020610554 -0.0016408132 -0.053082556
000330 f1 97 9c bd b5 25 4b 3d a8 84 be ba cf 46 08 3d
       -0.07646168 0.049596507 -0.0014535384 0.033270653
000340 5d e7 6b bd 41 75 d2 3d 4d ef 94 3d 52 90 03 3d
       -0.057593692 0.10276271 0.072722055 0.032120056
000350 3a 69 e5 3d 6d 9e bd 3d 73 30 9a bd f7 e9 b3 bc
       0.11201711 0.09258733 -0.07528772 -0.02196215
000360 69 fc 40 3d e8 d0 1b bd 81 0e 07 bd db d4 d4 bc
       0.047115717 -0.038041025 -0.032972816 -0.025980404
000370 a2 d4 e7 3c 99 64 53 bd 23 49 b9 bb e3 d1 98 3c
       0.028299633 -0.05160961 -0.0056544705 0.01865477
000380 ea 77 68 bb 9b 8b 47 3d 9c d5 69 bd b8 cd 0b 3c
       -0.0035471865 0.048717123 -0.05708848 0.008532934
000390 89 5c 1d 3d 8f 53 a5 bd 70 8a 1e bd fb 5b 32 3c
       0.038418327 -0.08072578 -0.038706243 0.010886188
0003a0 23 f4 d2 3d 4e 42 c3 bb 03 14 ab 3d 43 b1 09 bd
       0.10300472 -0.005958832 0.08353426 -0.033616316
0003b0 4a f8 24 3e b9 7e 13 3c e9 c1 c6 bb a3 7d 92 3c
       0.1611034 0.009002381 -0.0060655964 0.017882174
0003c0 67 3c 01 3e e0 96 dd 3d da 87 8e 3d 6b a7 7a bd
       0.12620698 0.10819793 0.069595054 -0.06119482
0003d0 02 06 b9 bd 85 2c c8 3b 56 af 16 3d 77 e6 29 3d
       -0.09034349 0.0061088228 0.036788307 0.041479554
0003e0 03 16 b4 bc e5 93 80 3d 81 18 ab 3d 0a 1b 08 3e
       -0.021983152 0.06278209 0.08354283 0.13291565
0003f0 f9 32 c8 bc 26 95 94 3c 8d 04 9b 3d b0 7f c7 bd
       -0.024438368 0.018137526 0.07569227 -0.09741151
