Gym-DDPG-solution/results/DDPG_HalfCheetah-v4_4500-eps0.1-t32-l0.0001-s1.pth (torch, 193979 bytes, 13 tensors)

layers.0.weight f4 [128, 23]
00000000: b8f3 503e d917 c8bb ef23 2abc c1a1 2b3e
00000010: 85a9 cabd bb2f 0e3f 4586 103e ae9c cc3d
00000020: b72b 95be 8d6f 293e 0b89 903d 65cc 843b
00000030: 7236 7a3c 0371 dcbb 89e1 263c dd5c 08bd
00000040: 2e5e 8fbc 7298 873c 897b 7b3e 6b0a 5d3e
00000050: bb1a 7bbd 0f81 46be da53 5abd 05e6 1a3e
00000060: 6c6d 45bd 48ac 413f c8bb 9d3e 0839 fb3d
00000070: 8fe0 e53c dec6 c33e dbce 51be c1d2 a43e
00000080: 78ff 213e 2537 d2be 9d7a 5bbc dda3 90bd
00000090: 5ee6 a93c 16de 62bd c518 b53c 5f9f 91bb
000000a0: 6d98 e63e 4c67 603d 45c1 503d 7a40 173e
000000b0: 0110 bfbe 8de4 503e 34e8 a03e d009 30bc
000000c0: 3e74 d1be 2930 f03d 7fe5 c9bc 39d9 8ebf
000000d0: 2a66 35bf be18 e7b9 218e b23e 5d09 e43e
000000e0: 094c 8fbe 7da2 083c 2ab0 f6bc fdb0 d43b
000000f0: 5b54 b5bc f73c 263c f86d 1fbc 3b80 1c3e
00000100: fa32 9e3d bdc8 dbbd 3dff 343e 9ec6 19be
00000110: c2aa 62bd 8b3f 06bf 492f 7cbd 8e08 bebd
00000120: dce1 6d3e 7a8f 523e 1f58 aa3e 8542 863e
00000130: b66f 3b3e 8382 81bd 84cc 23bf 65df 49be
00000140: 320a 21be 2d7c b5bd 49e0 813b 5854 413d
00000150: 7403 b83c cb56 813b a235 a2be b29d 723e
00000160: 3f7f 5f3e 5047 d83d 53e6 303e f003 f4bd
00000170: e5c2 f13e 1f05 ad3d 7abd 9dbe 5d7c 85b9
00000180: 1a02 283e b05a 5d3e 3d26 75be bd5a 27be
00000190: 76ad d23e 122f 2bbd 0ff6 9f3e 4561 753d
000001a0: 544d 81bd 56d4 05bc c79f 393d 4034 9e3c
000001b0: edfe e03c 2cd8 4a3d 9a81 d13d 0164 a93d
000001c0: 2f9e 973e 78a4 36be a5da 333b 756f 133e
000001d0: 9dc7 e33e 4ae8 5f3d 9060 36bf 8f06 7fbd
000001e0: 1342 883e fe51 b73e a4b0 cf3e 3f47 98bd
000001f0: 7203 8c3e 3ee8 8dbe da73 8fbc 6e26 e2bd
00000200: 2f93 8fbc 7820 6ebc f6a9 813d 2cf4 c6bc
00000210: 2755 093e 0652 a23e 07a4 ed3d d698 db3e
00000220: fc51 8f3e 9af9 13bc 381d dd3c e5ff d9bc
00000230: 2f2a 8f3e 494e 053d f364 85be a53e a7be
00000240: d3ba 8bbe 499c 13be fc2e db3e 62f8 133f
00000250: 2ed4 003f d783 a73d 8ce6 f23c 2fdd 9c3d
00000260: 2aca 37b9 db5c 67bb be4b 973c 33f8 15be
00000270: 685a 21be 8286 afbe e45f 933e 5286 dabd
00000280: 6f52 f2bd 86c1 cd3e 7cf8 713e 4994 173f
00000290: 6d98 20be bf14 393e 7396 64bd 785c 6ebd
000002a0: 535a b7bd 8ab5 90be 06f1 72be 01f7 443e
000002b0: 837a d3ba 7b8d 433d f9e0 323c 9d6f 793d
000002c0: f12e eb3b 0322 913c eb9e 3dbe 4a05 e63e
000002d0: 4226 fa3d d9d1 c33d 45bb 47be 3584 c9bc
000002e0: 9fcd b4be d5f2 9d3e 8bfc 58be cbba dabd
000002f0: 9c6c 65be 315e 26bf a252 563e acdd 59bc
00000300: 92fd c3be ade4 223d 5634 613e 712d 84bd
00000310: 09ab bc3c 529c 41bc dc5e 983d 0bfc 163b
00000320: a90e 2cbc 0398 e8be 91bf d03e 3cfa e2bd
00000330: a6b3 f8bd 8f46 7bbe 5659 fd3b d623 a8be
00000340: 6983 683e 4fbb b73e 0516 5fbf 7ce3 a83d
00000350: c6b3 40be 27ad b73d 85dc a73e 29a2 103f
00000360: 5c7d 043f b818 0c3d 7aab d6bc 998b 573d
00000370: 434d f23c b97f 82bc 280b 5fbd ba17 5bba
00000380: 3cb8 303e e21f 3bbd a820 153d 2a3d ae3d
00000390: afff 893e c7a0 f43c c58d 7c3e 8a44 44bf
000003a0: 1f4a 1d3e 0ab4 f03d 6c11 bfbd 8f9f 663e
000003b0: 9085 0cbe a8d1 41be 66b3 793e 3488 8bbe
000003c0: 4d8f 4dbd 39e8 88bd c697 31bd 7bcd 233c
000003d0: 05f8 d5bd 3e9c e23b 4726 94bc 603b 1bbd
000003e0: 2ef3 7f3b c22b ba3d 9c09 213e 041d 82bd
000003f0: c0d5 7d3c c140 2e3f c7ca aabc e48f e63d
0.20405471 -0.0061063585 -0.010384544 0.16760923 -0.098956145 0.5554158 0.1411372 0.09990822
-0.29134914 0.1654646 0.07057389 0.004052686 0.01527177 -0.0067273392 0.010185608 -0.033291686
-0.017500963 0.016552184 0.24558844 0.21586005 -0.06130479 -0.1938517 -0.053302623 0.15126808
-0.048200056 0.75653505 0.30807328 0.12266737 0.02806118 0.3823766 -0.20489065 0.32192042
0.1582011 -0.41057697 -0.0133959325 -0.070625044 0.02073973 -0.05538758 0.022106538 -0.0044440473
0.45038167 0.05478601 0.050965566 0.1477069 -0.37316898 0.20399685 0.31427157 -0.010744527
-0.40908998 0.11727936 -0.024645565 -1.1160041 -0.70859015 -0.00044078188 0.3487406 0.44538394
-0.27987698 0.0083395215 -0.030113298 0.006490825 -0.02213495 0.010146371 -0.009730808 0.15283291
0.07724567 -0.10731647 0.1767549 -0.15017173 -0.05533863 -0.5244071 -0.061568532 -0.092789754
0.2323069 0.20562544 0.33270356 0.26222625 0.18304333 -0.06323721 -0.6398394 -0.19714125
-0.15726545 -0.08861575 0.0039635045 0.047199577 0.022462584 0.003947114 -0.31681544 0.23692968
0.21825884 0.10560477 0.17275362 -0.119148135 0.47219005 0.084482424 -0.30808622 -0.00025460395
0.16407052 0.21616626 -0.23940368 -0.16343208 0.41147965 -0.041792937 0.31242415 0.059907217
-0.06313577 -0.008168301 0.04531839 0.019312024 0.027465308 0.049522564 0.10229798 0.08271027
0.29612872 -0.17836177 0.0027443555 0.14397986 0.4448823 0.054664887 -0.7124109 -0.062262114
0.2661291 0.35804743 0.40564454 -0.07435464 0.2734638 -0.2771625 -0.017511297 -0.11042486
-0.017526237 -0.014534108 0.063312456 -0.024286352 0.1341139 0.31703204 0.11603551 0.42890042
0.27992237 -0.009031678 0.026991472 -0.026611278 0.2796187 0.03254536 -0.2605358 -0.3266498
-0.27290973 -0.14415087 0.42809284 0.5780088 0.5032376 0.08179443 0.029650949 0.07659375
-0.00017527552 -0.003530315 0.018468734 -0.14645462 -0.15757143 -0.3428231 0.28784096 -0.10670151
-0.11832129 0.4018671 0.23629946 0.5921064 -0.15683146 0.1807432 -0.055807542 -0.058193654
-0.08952775 -0.28263503 -0.23724756 0.1923485 -0.0016134534 0.04774235 0.0109178955 0.06089746
0.0071772267 0.017716413 -0.18517654 0.4492591 0.12214328 0.0956151 -0.19505031 -0.024599174
-0.35313126 0.3084933 -0.21190087 -0.10680159 -0.22404712 -0.64987475 0.2092996 -0.01329748
-0.38279396 0.039768863 0.21992621 -0.0645398 0.023030775 -0.011817055 0.07439968 0.0023038413
-0.010501542 -0.45428476 0.40771154 -0.11082885 -0.1214364 -0.24538635 0.007731597 -0.3283984
0.22706379 0.35885093 -0.87142974 0.08246514 -0.18818578 0.08968573 0.3278543 0.56497437
0.51753783 0.03420326 -0.026204813 0.052623365 0.029577857 -0.015930044 -0.054454 -0.00083577225
0.1725778 -0.045684703 0.036408097 0.0850776 0.26952884 0.02986182 0.24663456 -0.7666708
0.15360306 0.1175309 -0.09329495 0.22521804 -0.13722825 -0.18927634 0.24384841 -0.27252352
-0.05018549 -0.06684918 -0.043357633 0.009997721 -0.104476966 0.006915598 -0.018084658 -0.03789842
0.0039054858 0.090903774 0.15726322 -0.063531905 0.0154928565 0.68067557 -0.020848645 0.11257914

layers.0.bias f4 [128]
00000000: bc12 c3bd b9f3 28be b0d1 57be 8d75 d9bc
00000010: 0085 8bbe 9274 113e 82a2 10bb eb9b a0be
00000020: d3b4 2c3e cb26 bd3d 5d54 6fbe 768a f8be
00000030: 1c98 3bbe 77ae 8abe 58c5 7abd 4bcf 993d
00000040: a32b e7bc 7421 723b 72eb 7abe c346 9abe
00000050: 2716 a13e 1084 03bd 34e1 f1bc 3258 95be
00000060: 004c b93d 4510 b1bd d86b 1b3e 4a34 6fbd
00000070: 285a a63e 2ae3 b33a 89fe c33e 7d9d 2cbe
00000080: cf40 003f 2b2c 9dbd 7e02 21be 71b9 f03d
00000090: ef5b 58be 4094 d33d 6ffb 1f3e fab2 c5be
000000a0: 33e9 973d 34b2 91be a557 663c eb63 a2be
000000b0: 46e7 a03d e295 18bc 97eb 09bf accc b4be
000000c0: 01e0 9a3e 725e 1a3e e078 7dbe 51f9 60be
000000d0: eef4 d73e 7c6d d03e 30e1 d13d 172d 9dbe
000000e0: dacd fb3c a398 07bf 5834 fd3b 1578 e73e
000000f0: d447 b6bd bbdf 433e c0c3 fcbe 7e6f 193e
00000100: 22b5 28be 51b8 853e acb0 d7bd f477 993d
00000110: c518 aebe c89c 77be cf14 903e 0da9 42bd
00000120: 0ac1 193f 3753 c8be a483 1a3e 6a23 59be
00000130: 6753 08bf 26e5 c1be 0dca 80bd de9b 9e3e
00000140: 9158 1ebd f33f d0bc b6da 0e3e bf75 18be
00000150: 18c4 cfbe 7025 88be 2e1a 08be 0239 9a3e
00000160: 4dde 0a3e 1890 6bbe 5592 cbbd 6194 9abe
00000170: ed2c 0fbd 2530 28be 36e1 d5bc 937e 8dbd
00000180: 8eb7 acbe 0a31 ae3e 94d5 ccbd 4dcc 473e
00000190: f3a5 7bbd 61ce 0cbe b1da 98be 6714 063f
000001a0: a6da 1f3e 6748 23bd 0f27 013e f3a5 563c
000001b0: 95ad 63be 8cf8 6cbe decd b93e f71e d83e
000001c0: f494 a93e 71a2 043e a8b5 413e c88a 15bf
000001d0: f98d b53e 0fa9 7a3e 8e02 3e3d 8f48 d63e
000001e0: f881 203e 2b1c 57bd 1653 21be 8c8e 7fbe
000001f0: c570 523d cb83 bcbe 811a 16ba 2c27 fcbe
-0.09525058 -0.16499223 -0.21076083 -0.02654531 -0.27249908 0.14204624 -0.0022069518 -0.31368956
0.16865854 0.09235915 -0.23372026 -0.48543137 -0.18319744 -0.2708623 -0.061223358 0.07510241
-0.02821905 0.003694621 -0.24503878 -0.30132112 0.31462213 -0.032108366 -0.02952633 -0.2916885
0.09047699 -0.08645681 0.15177858 -0.058399476 0.3249066 0.0013724316 0.38280132 -0.16856952
0.5009889 -0.0767444 -0.15723607 0.1175412 -0.2112882 0.10331011 0.15623258 -0.3861311
0.07417526 -0.2845627 0.014058982 -0.31716856 0.07856612 -0.009313079 -0.53875107 -0.35312402
0.30249026 0.1507509 -0.24753141 -0.21970107 0.42179054 0.4070853 0.10248029 -0.30698463
0.030737806 -0.5296728 0.007727187 0.45208803 -0.08900419 0.19128315 -0.49368095 0.14983937
-0.16475347 0.26117185 -0.10531744 0.07493582 -0.34003273 -0.24180901 0.28140876 -0.0475245
0.6006018 -0.39125988 0.1508928 -0.21204916 -0.5325226 -0.3787014 -0.06288538 0.30978292
-0.038658682 -0.025421118 0.13950619 -0.14888667 -0.40579295 -0.26591063 -0.13291237 0.30121619
0.13561364 -0.23004186 -0.0994002 -0.3019133 -0.034954954 -0.16424616 -0.026108366 -0.06908908
-0.3373379 0.3402179 -0.10001674 0.19511528 -0.06143756 -0.13750602 -0.29854348 0.5237488
0.15610752 -0.03986397 0.12612556 0.013101089 -0.22234185 -0.23141688 0.36289877 0.42211124
0.33121455 0.12952591 0.18916953 -0.5841489 0.3545988 0.24478553 0.046389155 0.41852233
0.15674579 -0.052517097 -0.15754351 -0.24956721 0.051377077 -0.368193 -0.0005725995 -0.49248636

layers.1.weight f4 [128, 128]
00000000: 436c c33d 2852 14be de74 9cbd 05d3 8dbd
00000010: 61d8 bfbc ccd1 3a3d d2c1 3e3d 0eee bf3d
00000020: 3a9d 8a3c def0 a13d c8b0 1cbe dc30 8c3d
00000030: 69bc 6c3a 4594 b2bc 0746 cb3d e465 ca3d
00000040: 2e5b 973c 57c6 90bd 3a7f 2fbd 122b a93c
00000050: c304 28bd dbd8 073d fbd9 3b3c 4e20 b83d
00000060: 27e5 243d 0f51 51be bcdf 4bbe 2655 423d
00000070: 2107 1d3c 22d4 b8bd 8f8b 573c 66ee a93d
00000080: 5a22 413d ad2c 99bc 97a1 0f3e a942 68bc
00000090: 167a 023e 4845 02bd 2e23 45bc 262f 8fbc
000000a0: 06fa d93d 11c4 c73d 4c4f 393c 1db4 d23d
000000b0: afeb 88bd 5be8 903c dc72 e73d d743 703c
000000c0: ec3c 83bc 4a18 8d3d 9528 06be 0a82 c9bd
000000d0: bc59 a4bc 9f01 96bd 6def 1ebd 1973 1ebe
000000e0: 2f45 c33d 9e72 4f3d 0d72 2b3d b39b 54bd
000000f0: 13cd d8ba e191 6ebd 2dbe 4e3e 084e bfbd
00000100: de7b 143e 7dec 0dbc b354 ac3d dfab a8bd
00000110: 8a94 793c 3711 a9bd 681e 4fbc 7df7 aa3d
00000120: 3d1e 28bd 1038 9b3c 0640 5cbd d8f2 88bd
00000130: 651b 21ba 869f 13be 875c 03bd 279a 15bb
00000140: 77f8 0b3e f1aa 0a3d 3fb9 b7bd 6728 253e
00000150: dde5 203d 51bc e53d de37 a13c 44e7 ecbd
00000160: ffb6 6abc 4654 06bd 5003 963d 45f4 423e
00000170: cc95 e7bb 9372 d1bd 054c bb3d 9a7a d3bd
00000180: 560d ecbd d02f 85bd a850 4f3d c5a4 803d
00000190: 3734 23bd 1a9d 013d 3b2f e5bc 749c b0bc
000001a0: 13fa 0abd b943 16bd 8c9d 943c ba58 8b3d
000001b0: 2b70 86bd dca5 adbc 322e 47bd 7924 a8bd
000001c0: a878 4c3d ea0b afbd ecf0 06bd 0641 b93d
000001d0: 0db6 35bc 6031 dc3c 943f 8bbd cb3a 023e
000001e0: 036d d83d ee44 693d e102 f0bd 5cff 153d
000001f0: 2b5b 09be 247f 1a3e 2f0d be3d 743c 193e
00000200: 7a79 ebbd 3452 863d 718b 4d3d 2e96 e5bd
00000210: 40f5 bebd a03f 18bd 7a84 e33d 32bf 91bd
00000220: 3faf f4bd 7a07 dd3d 6068 d3bd 50e9 483d
00000230: ec42 e6bc 7905 aebc 19b0 39bd f76e 7f3d
00000240: 16e6 38be 91ca a4bd cb67 953d 5404 a83d
00000250: e06d 5bbc d508 26bd b5fb c8bd 546f ecbc
00000260: 2f60 f63d 549c 30bd 1312 16bc e5ba 4b3c
00000270: c492 75ba 4eed 593c eff4 d2bc 170c e63d
00000280: e032 9f3d d713 323d 0b1e c83d 8e23 c0bd
00000290: bac9 293d 6c35 da3d 7d37 9d3d 13a2 76bd
000002a0: 1547 233d bda5 ed3d aba2 4d3c 5b0a 2f3e
000002b0: 0524 39be fcbd e03d 621a 19be 2f46 2cbd
000002c0: a9b5 61bd 2a1e 283d aac7 863c a06e d4bc
000002d0: d646 1dbe 5f4e 05bd dd29 12bc 2510 1a3c
000002e0: caad d3bc 3bfd 58bd 2a55 31be a5f7 933d
000002f0: 3ea4 8d3d d4b7 4c3d 62fb db3b 6d34 6dbd
00000300: fd5b 1a3d bf73 c5bd bc5a ffbb c9ef 653d
00000310: 1179 b73d 690d 923c 8b13 e7bc 4f50 86bd
00000320: 4093 2bbc c91b 45be c212 8c3d 4108 2e3d
00000330: cde2 813c f205 03bd b8e8 44bd 11f6 5f3d
00000340: dbf9 993d 0561 f53b 6d98 953d eb10 8dbc
00000350: 0fee 2d3e dc11 ac3d 04ce 103e 16e3 023d
00000360: 2a45 cabc 0de6 8d3c 9e71 e1bd 795d 07bc
00000370: fed9 87bc 31c0 153d 3a6d 30be 4f0a cfbd
00000380: b51e a9bd 3bbd 583d abc1 b7bd df60 4a3c
00000390: 2e77 86bd 58d8 db3c 5977 ce3c afbc 453e
000003a0: dd03 a63d 0264 d2bc 96c1 953c 3759 603c
000003b0: d8e6 573d 2eee 813c 2044 35bd 7350 733c
000003c0: e23f 1b3d 4425 9dbd b2dd 443d 59d7 133d
000003d0: ca81 debd ea5f d53d b5c5 9dbd b6e6 643c
000003e0: a81c 673d 58fb aabd 8866 8bbc de84 6fbd
000003f0: b19a e7bc b6e2 2abd 4d66 c9bc 3b7f febc
0.09542134 -0.14484465 -0.07639478 -0.069250144 -0.023418607 0.045610234 0.04657156 0.09371577
0.016920675 0.0790727 -0.15301812 0.06845257 0.0009030761 -0.021799216 0.09925466 0.09882715
0.018476095 -0.0706908 -0.042845942 0.02065042 -0.041020166 0.033165794 0.011465545 0.08990537
0.0402576 -0.20441078 -0.19909567 0.047444485 0.009584219 -0.09024836 0.013155832 0.08297424
0.0471519 -0.01869806 0.14026485 -0.014176049 0.12741885 -0.031804353 -0.012032313 -0.017478537
0.10643391 0.097541936 0.01131041 0.1028826 -0.06685578 0.01768892 0.113012046 0.014664612
-0.01602026 0.068893984 -0.13101418 -0.09839256 -0.02006232 -0.07324528 -0.038802553 -0.15473594
0.0953468 0.050646417 0.041856814 -0.0519063 -0.0016540609 -0.05824459 0.20189734 -0.09341055
0.14500377 -0.00866234 0.084145926 -0.08235907 0.015233168 -0.082552366 -0.012641527 0.08347986
-0.041044462 0.018947631 -0.053771995 -0.06686944 -0.00061457447 -0.14416322 -0.032070663 -0.0022827478
0.13669 0.03385443 -0.0897088 0.16128694 0.039281715 0.11217559 0.01967996 -0.11567548
-0.014325856 -0.032795213 0.073248506 0.19038494 -0.0070674177 -0.102269314 0.09145359 -0.10326119
-0.11525981 -0.0650326 0.05061403 0.06281427 -0.039844718 0.031643964 -0.027976623 -0.021558978
-0.033929896 -0.03668568 0.01814153 0.068040326 -0.06564363 -0.021197252 -0.04862804 -0.082100816
0.049919754 -0.08547194 -0.032944605 0.09045605 -0.011090768 0.026879013 -0.06799236 0.1271774
0.10567667 0.056950502 -0.11719299 0.036620483 -0.13413684 0.15087563 0.09279858 0.14964467
-0.11497779 0.06558648 0.05018181 -0.11210285 -0.093241215 -0.037170053 0.11109252 -0.07116546
-0.11947488 0.10792442 -0.10322642 0.04905063 -0.028108083 -0.021242844 -0.045333955 0.062361684
-0.18056521 -0.08046449 0.072951876 0.082039505 -0.013392895 -0.040535767 -0.09813634 -0.02886168
0.12030064 -0.043117836 -0.009159583 0.012434696 -0.0009367878 0.013301207 -0.025751559 0.11232775
0.077733755 0.043475952 0.09771355 -0.093817815 0.041452147 0.10654721 0.07676599 -0.06021316
0.03986271 0.11603878 0.01255099 0.17093794 -0.18080147 0.10973737 -0.1495147 -0.04205912
-0.055104885 0.04104439 0.01645263 -0.025931656 -0.15359053 -0.032545444 -0.008921114 0.009403263
-0.025839705 -0.052975874 -0.17317644 0.07224969 0.06916092 0.04998 0.006713317 -0.057911325
0.037685383 -0.096412174 -0.007792799 0.05613688 0.089586385 0.01782866 -0.028207561 -0.065582864
-0.010472119 -0.1924888 0.06839515 0.04248834 0.015855217 -0.03198809 -0.0480735 0.054678027
0.07518359 0.0074883723 0.073044635 -0.017219981 0.16985343 0.08401844 0.14141089 0.031954847
-0.024691183 0.01732161 -0.11007999 -0.008262032 -0.016583439 0.03656024 -0.17229167 -0.10109388
-0.0825781 0.05291484 -0.08972486 0.012352197 -0.065657005 0.02683656 0.025203394 0.19310258
0.081062056 -0.025682453 0.018280786 0.0136931455 0.052710384 0.015860643 -0.044254422 0.014850724
0.03790272 -0.076731235 0.048062988 0.036094043 -0.10864599 0.10418685 -0.07703725 0.013971021
0.056423813 -0.08348721 -0.017016664 -0.05847632 -0.028272005 -0.041720115 -0.024584914 -0.031066528

layers.1.bias f4 [128]
00000000: d8aa 9cbc d184 04bd ba7c b6bd 37b5 02bd
00000010: d6d5 2fbd b1e2 0abe 6ec7 033e d2d3 bf3d
00000020: be53 04be 1036 25be 0672 ae3d 5106 15be
00000030: 4b97 02be d948 3bbd fc99 863d 1afc 0e3d
00000040: 18b0 05be c8f1 ce3c de2d 78bd 97d0 223d
00000050: d2ab 9d3d 551a a9bd 7b20 a5bc 6afa cebc
00000060: 1157 733e 0e29 cb3c 743d f6bd b177 debd
00000070: 80d9 c3bd 0572 61bc 5a68 093d 0b70 cd3d
00000080: 3360 28bd a059 803d 878a 823d 2d1a 95bc
00000090: 47fd d53d e409 c3bd 95b4 163e 45d0 d73d
000000a0: 9bde fbbd 6e3c 1fbd 3bac 263e 70be 13bd
000000b0: 49ac 25be ad27 7e3d 2cf5 68bd df67 59be
000000c0: 92bf cfbd ba9a f23c 78b8 d03c e0b6 70bd
000000d0: db20 dbbd 396b a8bd 232e 103c 4671 d2bd
000000e0: f6f7 ab3d 5f9e a8bd 19e5 443d 9056 0ebe
000000f0: 3162 5fbd 505f 903d 7369 93bd ab5a 77bd
00000100: ce48 18be 0098 363d 8b34 7d3d 6bfb 0b3d
00000110: e5a0 0abb 720e 99bd 56c0 77bd f070 85bd
00000120: c3ca 0bbd 10ef 1f3c c4ab e03d 7af5 11be
00000130: ccf8 38be 63e0 bd3d a724 4dbd 2945 4bbe
00000140: b580 3fbc 5e8d 2bbc 1d6a 233e d477 1a3e
00000150: 9660 cc3d fd85 b5bb 2ade 94bd ab5e 673d
00000160: e7ee d13c 131d 11bd 7641 a8bd b9ba e03d
00000170: 44ed 1b3d 59c3 12bd e979 d3bd 1b12 2d3d
00000180: a675 df3c c408 9abc dbea 3fbe c373 983a
00000190: d7c1 65bd b9c7 fb3d 0eed b0bd 94a0 c4bd
000001a0: 4db9 ce3d 35b8 a9bc 4988 b6bd 7ddf b4bd
000001b0: f638 253d e6c6 50bd 4999 093e 118b 4d3d
000001c0: f5d9 11bd 6f4e 063d ec95 c53d c09f f9bd
000001d0: 584b 4a3b c584 c0bd f6f5 4bbe e22b 30bd
000001e0: fa6a 72bc 0f5e bebd 2dda 153e d3f1 463e
000001f0: d802 b23c b614 f9bd f39f e63d f14b febd
-0.019124433 -0.032353226 -0.089105085 -0.0319111 -0.04292854 -0.13563038 0.12869045 0.093665734
-0.1292257 -0.16133904 0.08517842 -0.14553191 -0.12753026 -0.04572377 0.06572339 0.03490839
-0.13055456 0.025261775 -0.060590617 0.039749708 0.07698788 -0.082569756 -0.02015709 -0.025265891
0.23763682 0.02479985 -0.1202344 -0.10862673 -0.09562969 -0.0137600945 0.033546783 0.10031136
-0.041107368 0.062670946 0.06374078 -0.018200958 0.104486994 -0.09523371 0.14717324 0.10537771
-0.12298318 -0.03887599 0.16276638 -0.036070287 -0.16179003 0.062049557 -0.05687444 -0.2123103
-0.10143961 0.029614795 0.025478587 -0.058768153 -0.10699626 -0.08223576 0.008800062 -0.102755114
0.08396904 -0.08233332 0.048070047 -0.13900208 -0.054537002 0.070494294 -0.07197847 -0.060389202
-0.14871523 0.044578552 0.061817687 0.034175318 -0.002115303 -0.07473458 -0.06048616 -0.06515682
-0.034128916 0.009761587 0.10970262 -0.14253798 -0.18063658 0.09271314 -0.050083783 -0.19850601
-0.011688401 -0.010470716 0.15958448 0.15084773 0.0997936 -0.0055396543 -0.07268937 0.056486767
0.025626613 -0.035428118 -0.08215611 0.109731145 0.03806807 -0.03583083 -0.10325987 0.042253595
0.027277779 -0.018803008 -0.18741934 0.0011631179 -0.056093063 0.122939534 -0.086389646 -0.0960094
0.10093937 -0.02071772 -0.08912713 -0.088316895 0.040337525 -0.050970934 0.1343738 0.050181452
-0.03560825 0.032789644 0.09647736 -0.12188673 0.0030867662 -0.09400324 -0.19918045 -0.0430106
-0.014796013 -0.09295284 0.14634009 0.19428186 0.021729872 -0.121621534 0.11260977 -0.124168284

layers.2.weight f4 [64, 128]
00000000: bd51 223e 64a8 83bd fd2c 55bc ede3 cd3d
00000010: 7106 49bd 461c d8bc 2623 9d3d 4dcf fe3d
00000020: 581a 863d 63b7 813d 5343 993c 1e41 593b
00000030: 1895 7abd 9c6d 3f3d d96b a13d 1914 8fbc
00000040: 8c36 123e 18bd e93c 8de4 843d 0029 4a3d
00000050: ceac 4b3c 5143 8f3d 4f0f 89bc deea e73d
00000060: f611 333d 9a12 bdbd cf2d fdbd 9163 c3bd
00000070: da97 11bd 1a11 9fbd 6fbd 993c 18f4 e73d
00000080: 1c56 0cbe a9b2 c83d 4170 a33d f5ff b6bd
00000090: 9b99 923d 0bae 55bc 2e5d 1d3e 7baa b33d
000000a0: 961f 43bd 0883 353e f41d 4bbd 9e3b 7cbd
000000b0: 14f6 d4bc d903 f63d 2fd9 ffbc 277e 5b3e
000000c0: 3ce2 e9bd cb1e 7a3d 4e87 813d 1902 133e
000000d0: f3cc 4a3c 9a25 b93c c1f1 153d 58cf 9a3d
000000e0: fd1c 8bbc c78b 163c 3aff 413d bffe 39bd
000000f0: 857c 16bd 9510 01bd d2c1 2bbd bf41 25bc
00000100: f9fa 983d 6c8f 26be f5c4 ba3d 7070 ce3d
00000110: dbb1 1bbd 6930 bbbd 5e67 d73c 0abe 713d
00000120: 2cd3 053d 8b6c f4bd 7039 663e d680 8cbb
00000130: 1ce8 7d3a 9631 aabd 7890 e43d c87a 11be
00000140: 5838 183e 3e17 6d3d 1a89 6d3d 2775 8a3c
00000150: cfbc 873d 5ae6 fabc e889 94bd a5d8 d53d
00000160: d099 20bd a983 213c 83d3 c73d 526f 0e3e
00000170: cd08 a93c ee97 0c3e 5250 f1bd 1b48 bf3d
00000180: 5f85 06bd 4f0f d53d b909 1c3c 4324 033c
00000190: 6b9f 98bd d537 ac3d f9fc f73d 30f7 aa3c
000001a0: bfc0 c23d affd 823c c878 30be a621 90bc
000001b0: 1fdc a3bc ebdb 203d ce53 60bd 9e8f 033d
000001c0: 66bd 7b3d 2ba4 22bd 325a 13be 2731 32be
000001d0: cb97 e33d aa1c 123e d0c7 08be c6b3 66bc
000001e0: fc12 efbd 01ee 5b3d f84b e13d b722 963d
000001f0: c18a e23d aef4 a4bd 800b 5a3e 0af7 88bd
00000200: 0d1a 11bd c8d5 10bd 1dec 893d fc72 883e
00000210: 8876 d73d f77e 883d aee9 e2bd fbba b93d
00000220: 2064 17bd f4fb 263d 2a39 e4bc 1213 fcbd
00000230: 7d8c 793d a528 65bc 9969 173d 95cc f0bd
00000240: ad7b 3c3d 799d 2cbd b2ac debd 0e81 39be
00000250: df21 89bd 3873 a6bd 5165 213d f792 ad3d
00000260: 1836 10bd d1aa 0ebd 9b44 57bd a781 59bd
00000270: 667d 1fbe a405 88bd 0d82 8f3d 6183 b7bb
00000280: 5bf4 60bc e073 7a3d 507a a43b 07c6 c13d
00000290: b235 273e b64a 2fbe 4e00 2ebe 3655 aa3c
000002a0: 71c3 86bd 3359 153d b301 4abe c9fc 943d
000002b0: b539 f63c f5e5 443e 80b3 46be 1f5a 393e
000002c0: 8aae 1e3d 5ce3 8a3e 17cb 24bc 043d 373e
000002d0: c474 123e 61d5 12be edd2 f03d 4268 063d
000002e0: 7314 fe3d 8719 cd3d 5508 c13d f137 b1bd
000002f0: 0a63 08bd 7b66 1c3e ac6a 3f3d 067c 18be
00000300: bf68 183d 316f 69bd 256e a2bb 7f9f 563c
00000310: f36f 13bc 8fbe 83bd 07d9 e83c da8f e83d
00000320: 1ae7 0a3d f5ba bdbd d2a8 483d 5c7d b73d
00000330: 3ba7 08be 1a34 efbc dbae 1c3e 05d6 cdbd
00000340: 9e7c adbd bac8 913e 3d7f 053e f7ba 283d
00000350: 2a0f a7bd 01e9 ec3d ea7b f8bc 8862 f93c
00000360: 1711 2c3d bb3f 85ba 1489 333e 7b98 2e3d
00000370: 03b7 d1bd 677e 9dbd af84 34bd 7c80 ea3d
00000380: 9f71 533d 10e8 a0bc b582 7fbc b91e 8bbc
00000390: 1996 233d ba6e da3c 533b 2b3e d266 9d3d
000003a0: a33b 7d3d e4e2 f4bd b66f f9bd f42e e93d
000003b0: bc66 53be ab07 47bd df18 033d 4c98 3abd
000003c0: d0ba e43c 7f14 96bc b209 063d 8bae 04bd
000003d0: a512 833c 41ab 413e 2fd9 163e 7947 b8bd
000003e0: 1270 41be dcdc 453d ceb6 c6bc 6069 4fbe
000003f0: 5abf ddbd 8dd2 943d d5d0 553d 71f2 e4bc
0.15851493 -0.06428602 -0.013011214 0.10053239 -0.04907841 -0.02638067 0.0767272 0.12441883
0.065479934 0.06333806 0.01870886 0.0033150385 -0.061177343 0.04673539 0.078818984 -0.017465638
0.1427862 0.02853255 0.06488905 0.049355507 0.012431337 0.069952615 -0.016730933 0.11324094
0.0437183 -0.092320636 -0.12362253 -0.09540475 -0.035545208 -0.07766934 0.018767087 0.11325854
-0.13704723 0.09799702 0.07980395 -0.08935539 0.07158204 -0.013041983 0.15367576 0.08772751
-0.047637545 0.17725766 -0.049589112 -0.061580293 -0.025996245 0.12012453 -0.03123149 0.21434842
-0.11420104 0.061064523 0.063246354 0.14356269 0.012377965 0.022600938 0.036607508 0.07559079
-0.016981596 0.009188599 0.047362544 -0.04540896 -0.036739845 -0.031509954 -0.04193289 -0.010086476
0.07469744 -0.16265649 0.09119598 0.100800395 -0.038011413 -0.09140093 0.026294407 0.059019126
0.032672092 -0.119347654 0.22482848 -0.0042878194 0.0009685771 -0.08310239 0.11160368 -0.14206994
0.14865243 0.057883494 0.05799208 0.016901566 0.06627809 -0.030627418 -0.07252866 0.10441712
-0.039209187 0.00985805 0.097571395 0.13909653 0.02063408 0.13729832 -0.11782898 0.09339925
-0.032842036 0.104033105 0.009523802 0.008004251 -0.074522816 0.084090866 0.121087976 0.020869821
0.0950942 0.015990106 -0.17233574 -0.01759417 -0.020002423 0.03927223 -0.054767422 0.032119386
0.06145992 -0.039707344 -0.14389876 -0.17401563 0.111129366 0.14268747 -0.13357472 -0.014080947
-0.11673543 0.053693775 0.11000818 0.0733084 0.110616215 -0.080544814 0.2129345 -0.06687744
-0.035425235 -0.035360128 0.06734488 0.26650226 0.10520655 0.066648416 -0.11079727 0.09068867
-0.03696072 0.040767625 -0.02785929 -0.12308325 0.060924996 -0.013986741 0.03696594 -0.11757771
0.046016384 -0.042142365 -0.10872783 -0.18115637 -0.066959135 -0.08127445 0.039403263 0.08475297
-0.035207838 -0.034830872 -0.05255566 -0.05310216 -0.1557518 -0.06641701 0.07007227 -0.0056003784
-0.013730134 0.061145663 0.0050194636 0.09461599 0.16329077 -0.17118344 -0.16992304 0.020792585
-0.06580246 0.03646202 -0.1972721 0.072747774 0.030056814 0.19228347 -0.19404411 0.18100785
0.038740672 0.27126586 -0.010058186 0.1789437 0.14302355 -0.1433921 0.11758981 0.03281427
0.12406244 0.100146346 0.09425417 -0.08653248 -0.033297576 0.15273468 0.04673259 -0.14891061
0.03720927 -0.056990806 -0.004956978 0.01309955 -0.008998859 -0.064328305 0.0284238 0.113555625
0.033911802 -0.09264175 0.048989125 0.08959457 -0.13345043 -0.029199649 0.15301077 -0.100505866
-0.084710345 0.28473455 0.13036819 0.04119393 -0.08157189 0.115678795 -0.030332524 0.030442491
0.042008486 -0.0010166088 0.1753276 0.042625885 -0.10239985 -0.07690125 -0.04407185 0.11450288
0.05162203 -0.019641906 -0.015595128 -0.016982423 0.039938066 0.026664127 0.16721849 0.07685627
0.061824452 -0.119573385 -0.1217951 0.11385909 -0.20644659 -0.048591297 0.03200614 -0.045555398
0.02792111 -0.01832032 0.03272409 -0.03239302 0.016000101 0.18912984 0.14731286 -0.08998007
-0.18890408 0.04830633 -0.02425709 -0.20255041 -0.10827513 0.07266722 0.05220111 -0.027947636

layers.2.bias f4 [64]
00000000: 608e 7f3d 7c9a 71bd 6a85 9a3b bdec b03d
00000010: 2cf2 803a eb22 c63d dbb3 08be cc1d c03d
00000020: 4a6c f5bd cc41 94bd ff57 5bbd afaa 1e3d
00000030: 5d39 05bd fcad 26bd 7f99 20bd 6fca f63d
00000040: c242 a0bd 5fd7 843d 5c2f 963d 46f4 8bbd
00000050: 2991 a03d a60e b13d 701e d73b 6605 e5bd
00000060: 05f0 303d 20b0 8fbd b41e 39bd 47b5 113d
00000070: ba41 ba3d d471 bfbc 68d0 843d 3676 edbd
00000080: 17bd 613d af17 dc3d bf21 fb3d ed5f 4f3b
00000090: 5be7 053e e7c5 dfbc 95de efbb 6b96 083d
000000a0: c6a2 b0bd ed58 203d a2be 3c3d 648b ba3c
000000b0: cbfb 87bd 9f8f 99bd c014 cabd 1f05 5dbe
000000c0: c1b0 a83d 371a 17be 3d25 9e3d 537a f7bc
000000d0: 77df 96bd 6d35 0a3e d334 c3bd 0a82 05be
000000e0: b0fb dd3d ec95 45be 3307 783c c4af 103e
000000f0: d35e e3bc d737 cabd bf91 1fbc 9ba4 b839
0.06239164 -0.05898522 0.004715611 0.08638904 0.0009837798 0.09674629 -0.1334986 0.09380683
-0.11983545 -0.07239112 -0.053550716 0.038736995 -0.03252541 -0.04069327 -0.039208885 0.1205033
-0.07825233 0.06486391 0.07333252 -0.06833701 0.07840187 0.08645372 0.0065649077 -0.1118267
0.04319765 -0.07016015 -0.045195296 0.03557327 0.090945676 -0.023369707 0.06485063 -0.115948126
0.05511197 0.10746705 0.12262296 0.003164287 0.13076536 -0.027316047 -0.007320235 0.033346575
-0.086247966 0.039147306 0.04608024 0.022771545 -0.066398226 -0.07498097 -0.09867239 -0.21583985
0.08236838 -0.14756094 0.077219464 -0.030209696 -0.07366841 0.13496943 -0.0953156 -0.13037887
0.10839021 -0.19295472 0.015138435 0.1412955 -0.027755177 -0.09873932 -0.009739338 0.00035217855

readout.weight f4 [1, 64]
00000000: b0f3 08bf b2cf e5be 8dbf b7bd 3731 cf3e
00000010: 4d42 073f de33 e23e 9432 23bf 91e4 1ebf
00000020: b4a8 0f3f a3c4 f63e e67d d3be 660f f93e
00000030: 0eec e2be 9352 b8be e448 0e3f b660 f4be
00000040: 3abe 3ebf 0cdd cc3e 3afc 183f 49f5 b1be
00000050: 0c09 e3be 1bb4 d33e 9eb8 cc3e 9210 ea3e
00000060: 9c0b f5be c402 34bf ec80 15bf 3ea7 e03e
00000070: b3aa b3bd 765c 103f ef5d 073f db7f 47be
00000080: f656 cdbe 2bda 343f f134 08bf 4ad0 0cbf
00000090: 2517 203f ea3d 22bf 1bd2 f2be 9a28 f73e
000000a0: f234 e6be 22cc 9abe 1848 15bf c4c6 0bbf
000000b0: 2103 f63e 0183 173f dbeb 403e d20b ac3d
000000c0: 5a48 36be 9f6c f83d ae17 e83d 38cf 0cbf
000000d0: 83af 85be c772 3fbf d1e3 1bbf e0d1 ed3e
000000e0: e88a 26be d773 033e f03e 833d e3d0 cb3d
000000f0: a1b8 e73d 3b34 253f 087b 28be fc45 023f
-0.5349684 -0.4488502 -0.08972082 0.40467235 0.5283554 0.44180197 -0.6374905 -0.62067515
0.56116796 0.48196897 -0.4130699 0.4864456 -0.4432072 -0.360005 0.5557997 -0.47730035
-0.7450901 0.40012395 0.5975987 -0.3475745 -0.4434284 0.41348347 0.39984602 0.45715767
-0.4786042 -0.7031672 -0.58399844 0.43877596 -0.08772793 0.56391084 0.52877706 -0.19482367
-0.40105408 0.706454 -0.5320578 -0.55005324 0.62535316 -0.63375723 -0.47425923 0.48273164
-0.4496227 -0.30233866 -0.5831313 -0.5460017 0.48049262 0.5918427 0.18839972 0.08400692
-0.17801037 0.12130093 0.113326415 -0.5500369 -0.26110467 -0.7478451 -0.60894495 0.46449184
-0.16263926 0.12837158 0.06408489 0.09951951 0.11314512 0.6453282 -0.16453183 0.5088804

layers.0.weight f4 [128, 17]
00000000: 202c c53d fc6a 15be ed5f 1abf 8696 303f
00000010: ab52 523e 2fc9 493f bf20 2fbe f88c 1b3e
00000020: 37e1 d0be 2fb3 7abf 5786 28bf f449 013c
00000030: b971 433b 4a3a 2abb 8ec5 7cbd dd16 9bbd
00000040: f252 2d3c f792 a2be 4389 3fbe 142e adbd
00000050: afd0 743f 19db ce3e 7759 3e3f 0337 e1be
00000060: ffe3 8c3e ac08 bebe f294 5dbf 526a c8be
00000070: 5bd1 0c3e f57c 9c3d f403 59bd fecc 343d
00000080: dd60 1fbd a8c0 823c 6aad e9bc c384 8f3d
00000090: deb9 82be b9a9 6dbf c6c3 b3be db67 2bbe
000000a0: 22e4 ad3e e6a0 ff3e 0f89 17bf 5f57 433e
000000b0: d328 40bf 8c8b 43be 006a 793b 0aef e6bb
000000c0: b95b 0abe 457c fdbd 71c4 9d3c 8fc1 2ebe
000000d0: 6cc1 b3ba 2776 963d ecac 923e 7706 06be
000000e0: d375 7dbe 1e96 80bd f2b3 a23e 8f5c e9bd
000000f0: a52a 3abe dbd1 cdbe 746c d5bd 4eb2 313d
00000100: 32d9 903d 2d53 bdbd c478 1ebd 0793 3db9
00000110: 355d e1be 5421 30bf 0a9b 39bf f187 2d3e
00000120: 4b1e 803e 0881 2a3f 0ae8 1b3d 2188 ba3e
00000130: ad47 5d3e d351 05bf 9403 75be ad8c d63c
00000140: c81e 073c fba3 56bb 901a 833c 126d e5bc
00000150: dd30 0d3b 34ad fa3e b2df f4be 40e8 af3e
00000160: d86a 2c3e b650 78be d27c 84be 8bbb 0bbe
00000170: b006 94be 2e32 3cbf 6887 83bf 7e36 4abd
00000180: 8bb3 fabd 5028 6f3e 56d4 143d f249 6dbe
00000190: f76e dcbd e8e5 063c f4bc 6c3e f281 403e
000001a0: 1158 cd3e 9008 7dbf 9607 14bd 4296 853e
000001b0: e2a0 883d d931 14be d9e7 98bd ac19 093f
000001c0: d897 2e3f 440a 563d c6dd 4e3e cf32 13be
000001d0: 9614 6abe 61bc 0ebe a247 abbd 2ac4 a3be
000001e0: 75e1 063f f9fa 02bf be55 a5bd 8d7c 7bbe
000001f0: 881c b4bd bff4 02be 5ffd 20be 22f5 5fbd
00000200: b2e7 d33d 06f3 713e 902a e33c 4204 233e
00000210: ed91 c93c 9972 0e3e 05df 4e3d dc60 ec3c
00000220: 6216 15bd 2d8f 863e 8180 be3e 6e5c 9dbd
00000230: f555 063e c89f adbd 96f2 1d3e 94c1 243d
00000240: 2c57 c3bc aecf 01bf 1d17 c73d 489d a5bd
00000250: 70c2 203e cc5c 023d d453 29bd c09e f13c
00000260: 474e 1e3d bacd 803e 4c1b 2dbf c70a bebe
00000270: bcab 0a3f 42a7 94bc 63fe 983c 44d6 c5bd
00000280: c3e5 ccbb f384 1b3f 1875 82be 221b a2bd
00000290: f236 85be 77f1 e0bd ec5d afbc b650 1e3e
000002a0: 4bca 27bb 603b 8a3d cab7 1bbe 00c6 1e3e
000002b0: b333 393e 5030 393d dcaa d23d 4fe8 ac3e
000002c0: 8597 bbbe 073b de3c 09cf da3c 5b97 553d
000002d0: db82 cc3e 027e a83e 136e 97bd c067 b4bb
000002e0: cac6 863c 3cd8 a43d a5ba 573d 4885 703e
000002f0: 5d5b abbe 238d 67bf ac6d 13be 4b89 4b3e
00000300: 7b07 3ebf 71b4 d03e f8eb 8f3c f01d 863d
00000310: 2e7e a23e 7211 893e 16a2 a23d cf3b c1bc
00000320: ec4d 963c 60bc babd 231c e53d c290 323d
00000330: 013f 383d b2e9 22be e345 b0be 563b bd3f
00000340: b81c 493f bcac e8bd cac9 1fbf a359 713d
00000350: 4b64 cdbd d93b 04bf 1cf8 243d 4fe3 233e
00000360: dfbb 333e 4a49 6cbd f699 383e 3f32 833d
00000370: 36f3 1e3d deef 31bf f4a7 3d3f 8f3c bb3e
00000380: 31c6 ef3e fe15 063c 0dce 103f c48b 6abd
00000390: 195b 053e d964 aa3e 53af 1abf 1510 04be
000003a0: 78d0 1f3b 9295 8f3d 3eed 8ebb 6a39 b5bd
000003b0: b01f 09bc b4b3 fb3b a0e5 8d3e 7059 073e
000003c0: 14dd 12bf bb62 00bf 97c8 d03e 6dd9 85bf
000003d0: f18d 37bf b8eb cfbe 8d6e 22bf d43d a63e
000003e0: 578b 22bf cdf8 8cbe a021 1ebe f941 5abd
000003f0: ebf4 34bd 3a50 99bc 859c 8cbc 26e0 83be
0.09627557 -0.14591593 -0.6030262 0.6897968 0.20539348 0.78822607 -0.17102335 0.15190494
-0.40796825 -0.9792966 -0.65829986 0.007891167 0.0029822423 -0.0025974684 -0.06171184 -0.0757272
0.010578858 -0.3175275 -0.18704705 -0.08456054 0.95630926 0.40401533 0.7435526 -0.43987283
0.27517697 -0.3711599 -0.865554 -0.39143616 0.13751738 0.07641021 -0.052982286 0.04414081
-0.038910735 0.015961006 -0.028525073 0.07007744 -0.2553243 -0.928371 -0.351103 -0.16738836
0.33963114 0.49927443 -0.5919351 0.19076298 -0.7506229 -0.19096202 0.0038057566 -0.0070475386
-0.13511552 -0.12377218 0.01925871 -0.17066024 -0.001371426 0.073467545 0.28647554 -0.13088404
-0.24751978 -0.062786326 0.31777912 -0.11394607 -0.1818033 -0.4019917 -0.104210764 0.043382935
0.07072677 -0.0924438 -0.03868939 -0.00018079217 -0.44016424 -0.68800855 -0.72502196 0.16946389
0.25023112 0.66603136 0.038063087 0.36431983 0.21609373 -0.5207798 -0.23927146 0.026190126
0.008247085 -0.0032751549 0.016003877 -0.02800611 0.0021544017 0.48960268 -0.47826916 0.3435688
0.16837633 -0.24249539 -0.2587648 -0.1364576 -0.28911352 -0.7351407 -1.0275698 -0.049368374
-0.12241276 0.23355222 0.03633531 -0.23172739 -0.10763352 0.008233525 0.23118955 0.1879957
0.40106252 -0.9884119 -0.036140047 0.260912 0.06671311 -0.1447214 -0.074660964 0.535548
0.68200445 0.052255884 0.20201787 -0.1437485 -0.22859415 -0.13939048 -0.08363272 -0.319856
0.5268777 -0.51164204 -0.08072995 -0.24559231 -0.087945044 -0.12788676 -0.15721653 -0.054677136
0.10346927 0.23627862 0.027730256 0.15919593 0.024605716 0.13910903 0.050505657 0.02885478
-0.0363983 0.2628111 0.37207416 -0.07683645 0.13118728 -0.084777415 0.1542457 0.040223673
-0.023845278 -0.5070752 0.097212054 -0.0808664 0.15699172 0.03182678 -0.04133971 0.029494643
0.03864887 0.25156957 -0.67619777 -0.37117597 0.54168296 -0.018146161 0.018675989 -0.096600085
-0.0062529757 0.6074974 -0.2547996 -0.079153314 -0.26018482 -0.10983556 -0.02140709 0.15460476
-0.0025602754 0.06749606 -0.15206829 0.15505219 0.18086128 0.04521209 0.10286495 0.33770987
-0.36639038 0.027127756 0.02671005 0.052146297 0.39943585 0.32908636 -0.07394042 -0.005505532
0.016452212 0.08049056 0.052668232 0.23488343 -0.33468142 -0.9044973 -0.14397305 0.19876592
-0.74230164 0.40762666 0.017568573 0.06548679 0.31736892 0.26771122 0.07941072 -0.02358809
0.018347703 -0.09117961 0.11187007 0.043595083 0.04498196 -0.1590946 -0.3442832 1.4783733
0.78559446 -0.113610715 -0.6241728 0.058923375 -0.10028895 -0.5165382 0.040275678 0.1600468
0.17552136 -0.05768708 0.18027481 0.06406068 0.038806163 -0.69506633 0.740844 0.3656964
0.46830896 0.008183954 0.5656441 -0.057262197 0.13023032 0.33280066 -0.60423774 -0.1289676
0.0024385732 0.0701095 -0.0043617776 -0.088488415 -0.008369371 0.0076813344 0.27714252 0.13217711
-0.5736859 -0.5015065 0.40778038 -1.0456978 -0.7170096 -0.40609527 -0.6344994 0.32469046
-0.63493866 -0.2753357 -0.15442514 -0.053285573 -0.044178884 -0.018715013 -0.017164478 -0.2575695

layers.0.bias f4 [128]
00000000: 34e3 553d 7d6c ff3e e3d1 aabc c914 563f
00000010: fb5f 403f 80f0 77be 45f6 b4bd 2dc5 383e
00000020: d5cb 33bf 8ed5 c93d 5f04 9f3e 4fad 1d3f
00000030: 0855 be3e 48a2 b03d 084a f03e ee7f 823e
00000040: fb71 edbd 49b2 0c3c c6c9 2f3f 89f2 ebbd
00000050: 368d 893e 462b 643f 4548 98be 10ca 643f
00000060: bf15 aabe 4fc1 1d3f f2c9 013f b450 253f
00000070: 6efc f7be b461 1a3f 2399 5d3e dcda 123f
00000080: 4904 71be 3ede 0f3d 07f3 edbd fa22 04bf
00000090: e262 4fbe c1a4 8c3f 1bd9 26be cbc5 73be
000000a0: 3541 72bc 7c7f b43c 4b9d 07be e05c d23d
000000b0: dbcc d8bd fc49 9c3d 5575 463e 9a54 3d3f
000000c0: ef76 b3be e8d9 593e 6be7 a3be 9ff9 383f
000000d0: 80e0 eb3e 0182 57be 6b96 c33e 6950 e7be
000000e0: e059 383e c5bb 7bbe 2381 c3be a5f3 4c3f
000000f0: f93c 393f b23d 073f ae7d 27be 6836 e53e
00000100: 69e9 fcbe f607 543e 98fc 1cbe 2fbf 08be
00000110: 6679 46be a5e8 dc3d 7026 2c3e c92b 2a3f
00000120: bb3e 133f f991 09bf b7fa 703e b653 733e
00000130: f279 83be 8b9b 3a3e 3f65 033f 03b2 3b3e
00000140: 5ec0 d53e a0a3 a2be df70 72bc 35b8 2fbe
00000150: 4d16 143f e933 33be f91e 343f 5b2b 773d
00000160: 39af fe3e 87cc 4b3d ffac 9ebe 1054 53be
00000170: f15d a7be 894d 043d 301c 6c3e 7a2f dabe
00000180: 37cf e4bd 89c8 30bf 0d02 b3be 1bf7 ca3e
00000190: 06c7 a13e f89f 873c 2ce9 a13d 1947 15be
000001a0: 087d 833f 1f78 7d3e b021 ccbd 7074 0a3c
000001b0: c8a7 8bbd 1266 c83e ad50 eb3d 607e 8b3f
000001c0: b61e 8f3e 321a 0e3f 8ac0 bfbd b020 1dbe
000001d0: bf75 16bf 1219 0a3f a28e 683e e97d 703e
000001e0: 1e40 c13e 78c2 fc3d 2169 9b3e 5a80 1b3d
000001f0: e4d8 233e 4a6d 77be 27fc 2cbe 9f7c 0f3e
0.05221863 0.49887457 -0.020852035 0.83625466 0.75146455 -0.24212837 -0.08836035 0.18043967
-0.702329 0.098551854 0.31058022 0.6159257 0.3717425 0.08624703 0.4693148 0.25488228
-0.11594006 0.008587428 0.68667257 -0.11520869 0.26865548 0.8912853 -0.29742637 0.8937082
-0.33219716 0.6162309 0.5069877 0.6457627 -0.48434776 0.60305333 0.21640448 0.573652
-0.23536791 0.035124056 -0.116186194 -0.5161587 -0.20252565 1.0987779 -0.16293757 -0.23805921
-0.014786054 0.022033446 -0.13243596 0.10271621 -0.10585948 0.07631299 0.19380696 0.73957217
-0.35051677 0.21274531 -0.32012495 0.7225589 0.46069717 -0.21045686 0.38200697 -0.45178536
0.18003035 -0.24583347 -0.3818446 0.8005927 0.7235866 0.52828515 -0.16356537 0.4476807
-0.49396828 0.20706162 -0.15330732 -0.13354181 -0.19382247 0.10786561 0.16811538 0.6647306
0.57517594 -0.5373836 0.2353314 0.23762402 -0.25678974 0.18223397 0.51326364 0.18329625
0.41748327 -0.3176546 -0.014797418 -0.17160113 0.5784653 -0.17500271 0.7035976 0.06034408
0.4974306 0.0497556 -0.3099136 -0.20637536 -0.3268886 0.032300506 0.23057628 -0.42614347
-0.111723356 -0.6905599 -0.34962502 0.39641652 0.31597155 0.016555771 0.07905802 -0.14577903
1.0272532 0.24752854 -0.09967363 0.008450612 -0.06819111 0.39140373 0.11489997 1.0897942
0.27953118 0.5550872 -0.09362896 -0.153445 -0.58773416 0.53944504 0.2271066 0.23485531
0.3774423 0.123417795 0.30353644 0.037964202 0.16000706 -0.24162784 -0.16893063 0.14012383

layers.1.weight f4 [128, 128]
00000000: b31c 873e 765f 773e 600d dd3c 02a1 183e
00000010: 16f5 913e 96f0 47bd 8d59 893c 4f47 44be
00000020: 47f3 6dbd 6b23 c53d 3b57 42bd c978 82bd
00000030: e4b2 6b3d 11ce 7abd 275d 7fbd f5a9 87bd
00000040: 1e8a 6bbe e21f c73d 720a 0cbe af77 1e3c
00000050: 7431 75bd 7194 c63d 0353 a2be 2e0e 1dbe
00000060: cba6 0ebd 01d5 b1bc 07fe d03e 9ee2 ccbd
00000070: 01b2 8c3d b7ca 69bd 6b5d 80bd 6b3b e4bd
00000080: ca77 bd3d 98e8 18bc 501d f63d 98fe 453d
00000090: d870 78bd 9730 773e 69f6 a43c 2bf3 2cbe
000000a0: 3d2d b8bc c969 6d3d c424 f7bd 2c2e f83d
000000b0: 9369 cfbd c875 e0bd c062 193e 8838 05bd
000000c0: c37f bd3d bf77 513c 7696 713d af0d 443d
000000d0: 3114 34be 3474 453d b1cb 003e 4e88 f8bb
000000e0: 88dc 283c d328 35bd 1453 96bd b417 06be
000000f0: 1894 88bb 8dd3 12be ec2c c33c bf2a 263e
00000100: c75d c3bd 51bb f6bd 8768 1ebe 5047 4cbc
00000110: 3323 813c 2fad a5bd ecb7 87b9 c01b 17bc
00000120: 6321 cf3d 3af4 aa3e d0d6 1cbb 88f1 b939
00000130: a183 0a3d 51a5 9b3d 72bd 1f3e aee3 993e
00000140: 0c14 c0bc b072 693d 3822 a2bd 658e 89bd
00000150: a32f 1a3e 9b5b a23d c514 7a3e c786 c6bd
00000160: 006f 133c 1ea8 663c f559 d33c 5c8d 70bd
00000170: b7b0 63be 1573 5f3d a69a 0d3e 0624 a63c
00000180: c724 b0bd 0c9b 2f3d 338e 80bd ae82 3f3e
00000190: 6c33 86bd cfd6 d2bd 1cd8 203e 3d82 03be
000001a0: 2122 673e 010e f13d 868f 123e 1cd7 143d
000001b0: 8815 7f3d 2d25 af3d cb80 19be 4788 443e
000001c0: 0bb5 be3d 9f9f ae3e 3bd8 07be bb62 7d3d
000001d0: 0450 33bc 25f9 2f3e 57be 3b3e 5961 6d3d
000001e0: 6d71 07bd 1673 b33d c4ad 5e3e 51ae 33bd
000001f0: f5bd acbc 4f13 ebbc 125b 3b3d 57f8 dcbc
00000200: 603e 2d3e 6ef8 193d e898 223c 62e6 30bd
00000210: add4 c83c e58d d5bd d26f 2d3d 2b65 45bd
00000220: 4a12 a0bd 63a0 fe3d fb66 3ebd 273c 703d
00000230: 8de3 293e e38a 573d e0cb e43a f053 713d
00000240: ca39 bebc 83aa 3d3d 5145 8cbd bac9 e43d
00000250: ab23 8fbb 3691 2abd 1d5f eabd a637 d2bd
00000260: 3d1d 1b3d c0b1 023e 6f3f 47bd 7352 b33d
00000270: c0b3 78bd 0184 df3d b9b7 0b3d c73e 583c
00000280: 16d6 86bb 2b69 54bd cdfc d5bd 2c4f 8cbd
00000290: 0e6a d53d 6971 b0bd d9d9 413d c8b5 c1bd
000002a0: d12e 1cbd 741a 0fbd 72a5 09bd 6046 b8bd
000002b0: 4460 f3bd cad5 54bd 2d64 523d 3512 25bc
000002c0: c12c 3c3d 643b 6a3d 53c2 293e dedd 14be
000002d0: a2c9 26be 9a73 4e3b 9ad5 4f3d 3c97 263e
000002e0: 799e 95bb efc1 2dbe e667 33bd 4243 a7bc
000002f0: ff0b 623d 005a 333e 9fd6 b03b 2559 0d3d
00000300: c569 3dbc b1dc dbbd 516c b63b 133f 9cbd
00000310: 4274 003e 88a8 de3d 4ca7 653d 1259 2a3c
00000320: 4260 f73d 4751 263e c5b7 2dbe 4329 f4bd
00000330: def2 26bc ebf7 fc3d 5b30 67bd 84b2 ad3d
00000340: d63c b5bd 6bcf 7d3e 3d3a 5d3c 3a9d 2c3e
00000350: 464c a13d bd9e 913c 3111 9cbc 66d6 013d
00000360: 6348 2d3e 3ac6 91bd 834d 613d 255c 3f3d
00000370: ffb4 003d bf59 4bbb 5f9a 9bbd eb1b 8c3d
00000380: a900 8b3c 2001 993c 3cb9 2abe f945 8d3c
00000390: 87c7 fc3d 3e85 8bbe f979 463d 3d4f b33d
000003a0: c510 6abe 680d 0e3e a967 bf3d ae2a febb
000003b0: 53ae d53d 2098 16bb e386 593c eac0 febd
000003c0: b200 083e 98ad f8bd 178e 7cbd eb25 e7bd
000003d0: b214 0cbe 2643 4ebd e944 2b3e 115e 043c
000003e0: 57dd 0abe eb6c 3cbd 99f2 c43c fafd 853d
000003f0: 3b81 42bc 6fde a0bc eeba 813d 6cc8 92bc
0.26389083 0.24157509 0.026983917 0.1490517 0.28507298 -0.048813425 0.016766334 -0.19167827
-0.058093335 0.09625896 -0.04744647 -0.06370694 0.05754365 -0.061231676 -0.062344696 -0.066242136
-0.23001906 0.09722878 -0.1367586 0.0096720895 -0.059861615 0.09696282 -0.31703958 -0.1533744
-0.034827035 -0.021708013 0.40818807 -0.10004161 0.06869889 -0.05707809 -0.06267818 -0.111441456
0.092513636 -0.009332798 0.1201731 0.048338503 -0.06065449 0.2413963 0.020137029 -0.16889636
-0.022482509 0.057962213 -0.12067559 0.121181816 -0.101275586 -0.10959965 0.14979076 -0.032524616
0.09252884 0.012784897 0.05898138 0.047864612 -0.17585827 0.048206523 0.12577702 -0.007584608
0.010306485 -0.044228386 -0.07340065 -0.1309498 -0.004168045 -0.14338513 0.023825131 0.16227244
-0.09539371 -0.120474465 -0.15469562 -0.012468174 0.015763855 -0.08089673 -0.0002588624 -0.009222925
0.1011379 0.33389455 -0.002393175 0.00035465905 0.033816937 0.07599891 0.15599611 0.30056518
-0.02344706 0.05699414 -0.07916683 -0.06716613 0.15057234 0.079276286 0.24421985 -0.096936755
0.008998632 0.014078168 0.02579973 -0.05872856 -0.2223538 0.05455311 0.13828525 0.02028085
-0.08600765 0.042872474 -0.06277122 0.18702194 -0.06552777 -0.10294878 0.15707439 -0.1284265
0.22571613 0.11770249 0.14312562 0.036337957 0.062276393 0.085520126 -0.14990537 0.1919261
0.09311875 0.34106156 -0.13266079 0.061861735 -0.01094437 0.17184885 0.18334328 0.057954166
-0.033067156 0.08762185 0.21745974 -0.043867413 -0.021086672 -0.02869573 0.04574115 -0.026973886
0.16918325 0.037590437 0.009924151 -0.04318846 0.024515474 -0.10427455 0.04234297 -0.048192184
-0.07815988 0.12432935 -0.04648493 0.058651116 0.1659071 0.052622687 0.0017455779 0.05891794
-0.023220915 0.04630519 -0.068491586 0.11171289 -0.0043682656 -0.04164239 -0.11443923 -0.1026452
0.03786968 0.12763119 -0.04864448 0.0875596 -0.060718298 0.109138496 0.03411076 0.013198561
-0.0041148765 -0.05185811 -0.104486085 -0.06851038 0.10420619 -0.08615381 0.047326896 -0.094585
-0.038130585 -0.034937337 -0.033605047 -0.08997798 -0.118835956 -0.051961698 0.051365066 -0.010075142
0.04594112 0.057185546 0.16578035 -0.1453776 -0.16287854 0.003150201 0.050740816 0.16268629
-0.0045660106 -0.16968511 -0.043800257 -0.020417813 0.05518722 0.17514801 0.0053966786 0.034508843
-0.011560862 -0.10735453 0.0055671115 -0.07629218 0.12544349 0.108719885 0.05606775 0.010397213
0.120789066 0.16241942 -0.16964634 -0.119219325 -0.01018974 0.12351974 -0.0564426 0.08481315
-0.08849494 0.24786155 0.013502655 0.16856852 0.07875876 0.017775888 -0.019051166 0.031698607
0.16922145 -0.07117887 0.05500556 0.046718735 0.03142261 -0.0031028835 -0.07597803 0.068412624
0.016968088 0.018677294 -0.16672224 0.01724528 0.12342744 -0.27250093 0.048456166 0.08755348
-0.2285796 0.13872302 0.093459435 -0.0077565527 0.1043364 -0.0022978857 0.013276788 -0.12439139
0.13281515 -0.121424854 -0.061658945 -0.11286529 -0.1367977 -0.050357006 0.16725506 0.008079068
-0.13560997 -0.04600231 0.02404146 0.06542583 -0.011871631 -0.019637315 0.06334482 -0.017917834

layers.1.bias f4 [128]
00000000: 3f02 5e3e 169e a7bd 50fa b13d a3ae a23d
00000010: 421e 2d3d 1d9f 433d 3d60 cbbe 2e26 eb3c
00000020: b133 6ebc f332 47bd cfa8 173d d870 993c
00000030: 0f0f a53a 9a1c 2a3e 0c4f d9bc 2462 60bd
00000040: f225 8b3d 4658 fd3c 4f32 b03d b295 47bd
00000050: c06c 683e cdf5 48be 27cd ff3d 73df dc3d
00000060: fafb 87be 907d f83b 6664 02bc 56c1 85be
00000070: 0613 653d 272e b33d 6c0d ce3c 0ebb bf3d
00000080: 679d 2fbd 00ff 7cbe a34e 103d 33b7 26bd
00000090: 523c 98bd 6191 403e e853 fa3d f853 babe
000000a0: ca03 d5be 7105 0fbe bf2c 163d ca66 563d
000000b0: 3385 3b3e 4c5b 6abd 736c ce3d 5969 8f3d
000000c0: 6da7 023d 806a 19be 4b4c 10bd 1e21 bc3c
000000d0: 859c c83c 0d92 833c a894 a73b e5b8 e7bc
000000e0: 1983 81be 1db9 923d 2135 73bc a10d 233e
000000f0: 02fd 953d 8bfb 61bd 6829 223d a25c 99bd
00000100: b7fb 343e 00c3 0e3e 4e65 d8be 5e4f 683d
00000110: 2b93 b93d 976a f93d f961 ccbc e935 1cbc
00000120: 5910 ad3c fd9c 1a3e c61d bd3d 765f d23b
00000130: e573 8fbc 616a 97bd b68a 543d a33f 403e
00000140: 2ea5 673e df11 443d 8d1e d23d ebbf b23d
00000150: 493d b73d 725b 06be 5ffe 843d 0284 efbc
00000160: 7a76 063e 131f 23be 4994 3bbd 43d1 95be
00000170: 9937 eb3d 7e6f a8bd ac8b b2be 719e df3d
00000180: 74a3 58bd 8110 f9bd 407e d73c 273b 18be
00000190: 242b 69be d0b2 283d b7c4 50bd 5da1 9cbb
000001a0: 9bb9 56bd c8b2 ed3a 7716 22be c283 18be
000001b0: 5abe fa3d f13f f5bc 25cd ac3b f4df 36be
000001c0: 3716 063e d861 03be 5c98 d83d a391 b8be
000001d0: 8458 92bc 7e8c 1f3d 1d47 7d3b 1984 1cbf
000001e0: 8911 ef3d 6633 30ba 2f2f d8bd 6a02 cfbd
000001f0: e5bf 933d 97d1 adbb 9000 ccbe 6002 bc3d
0.21680544 -0.081844494 0.086903214 0.079434656 0.042265184 0.047759164 -0.3972186 0.028704729
-0.014538691 -0.048632573 0.037026223 0.018730566 0.0012592989 0.16612473 -0.02652695 -0.054781094
0.06794347 0.030925881 0.086033456 -0.048726745 0.22697735 -0.19625016 0.124903016 0.10784807
-0.2655943 0.0075833276 -0.007958507 -0.26124066 0.055926345 0.08749037 0.025152884 0.0936185
-0.04287472 -0.2470665 0.035231244 -0.040702056 -0.0743338 0.18805458 0.12223035 -0.36392188
-0.41604453 -0.1396692 0.036663767 0.05234412 0.1831253 -0.057215974 0.10079279 0.07002515
0.03189795 -0.14982033 -0.03522901 0.02296501 0.024488697 0.016060853 0.0051141568 -0.028286407
-0.25295332 0.07164214 -0.01484421 0.15923168 0.07323648 -0.05517153 0.03959027 -0.074883714
0.17674147 0.13941574 -0.4226479 0.056716315 0.09061273 0.121785335 -0.02494906 -0.009534338
0.02112596 0.15098949 0.092341945 0.0064200712 -0.017511318 -0.07393337 0.051890098 0.18774275
0.22621605 0.047868606 0.10259733 0.08728012 0.08947236 -0.13120821 0.0649383 -0.02923775
0.13131133 -0.15929823 -0.045795713 -0.29261217 0.11485214 -0.082243904 -0.34872186 0.10918892
-0.052890256 -0.12161351 0.026305318 -0.14866315 -0.22770363 0.041186154 -0.050968852 -0.004779978
-0.0524231 0.0018134946 -0.15828882 -0.14894012 0.12243338 -0.029937716 0.0052734786 -0.17858869
0.13094412 -0.12830293 0.10575935 -0.36048612 -0.017864473 0.038952343 0.0038647123 -0.61139065
0.116732664 -0.0006721526 -0.105558746 -0.10107882 0.07214335 -0.005304526 -0.3984418 0.091801405
