Gym-DDPG-solution/results/DDPG_HalfCheetah-v4_5500-eps0.1-t32-l0.0001-s1.pth (torch, 193979 bytes, 13 tensors)

layers.0.weight f4 [128, 23]
0.2333525 0.01986649 0.016094033 0.17120193 -0.07030867 0.57337546 0.2019391 0.048326965
-0.27261215 0.14398468 0.05883262 0.009572152 0.012782167 -0.0014592507 -0.0014174612 -0.032753512
-0.017405387 -0.021348804 0.26004654 0.24441959 -0.08994424 -0.23362245 -0.06793104 0.19546756
-0.054515675 0.79533446 0.302286 0.10946606 0.025660496 0.39411065 -0.23922816 0.3028994
0.17512216 -0.40991428 -0.0039672228 -0.060754124 0.022699207 -0.047956172 0.029102415 0.010353038
0.45773497 0.040878564 0.014962765 0.175335 -0.35464886 0.19359021 0.36796528 0.0006975884
-0.40334412 0.054297633 -0.06449338 -1.1984729 -0.78794795 -0.013056278 0.35156885 0.4388832
-0.2868609 0.0018569559 -0.037905198 0.0109555265 -0.025372306 0.011835392 -0.008843355 0.10420402
0.11618628 -0.08632577 0.15136144 -0.17221114 -0.054103985 -0.63909894 -0.054298084 -0.13622089
0.2687755 0.2324714 0.27672294 0.31539032 0.07697144 -0.03798332 -0.59874153 -0.18267289
-0.15376523 -0.08539938 0.0059130047 0.055155307 0.014738098 -0.0061970153 -0.32798505 0.23711893
0.09588783 0.19577797 0.17406271 -0.1373882 0.5673955 0.10136369 -0.3097242 -0.028805088
0.097702116 0.27132842 -0.19952478 -0.15211302 0.41542748 -0.018290179 0.30519143 0.05322865
-0.046778996 -0.026637439 0.039434213 0.008471055 0.020775333 0.027967347 0.105920784 0.07358202
0.27516478 -0.19302367 -0.01681498 0.23373094 0.45649213 0.0771344 -0.7695919 -0.03487885
0.37561297 0.424784 0.47012153 -0.059322514 0.30446425 -0.2762828 -0.0065703215 -0.10283426
0.00648488 -0.021283444 0.04542797 -0.01206339 0.109966554 0.31210995 0.15536043 0.42690533
0.38483468 0.02890112 0.06385255 0.0114375735 0.26747558 0.06643753 -0.26603118 -0.42269537
-0.35337982 -0.33447486 0.48736256 0.5531295 0.54838896 0.06966511 0.046620034 0.036499515
0.00060894684 -0.04201734 0.008021845 -0.16442756 -0.15472424 -0.38301727 0.20731167 -0.1341031
-0.05423748 0.4619567 0.2526272 0.56351036 -0.13791652 0.19898163 -0.030473087 -0.04279003
-0.085113764 -0.2822711 -0.24440642 0.14833872 0.0014186285 0.045613494 -0.002555575 0.054061905
0.0060253018 0.017922962 -0.18052737 0.4324223 0.14198884 0.116113015 -0.1827754 -0.012096088
-0.3460512 0.27288944 -0.21470027 -0.09306828 -0.1655108 -0.65847147 0.16525802 -0.14240475
-0.406155 0.05034677 0.23106532 -0.0818918 0.021869855 0.0008982602 0.06524006 -0.0033326214
-0.010641731 -0.4889654 0.44209307 -0.07011381 -0.13091426 -0.31733152 0.05857629 -0.33432233
0.2307014 0.33951935 -0.8739695 0.16026543 -0.23239203 0.052052192 0.35891953 0.53260964
0.4474948 0.03711012 0.00045696404 0.04364483 0.04607632 0.011261107 -0.060494084 -0.031576216
0.17376311 -0.0466878 0.066118725 0.09320538 0.28115082 0.04154483 0.24498072 -0.7941034
0.14707498 0.12210202 -0.10341379 0.26334772 -0.14030923 -0.24013366 0.23664138 -0.25944537
-0.04556689 -0.06549437 -0.048760727 -0.007283583 -0.11028113 0.015195121 0.0042610597 0.019233618
-0.058663763 0.12848453 0.19964969 -0.069539756 0.021050666 0.7882869 0.0016048058 0.12063397
00000000: f5f3 6e3e 0dbf a23c a2d7 833c 8f4f 2f3e
00000010: fefd 8fbd bcc8 123f 20c9 4e3e 7ff2 453d
00000020: d293 8bbe b870 133e 79fa 703d 84d4 1c3c
00000030: 4b6c 513c 5444 bfba 1bca b9ba 8c28 06bd
00000040: be95 8ebc b0e3 aebc d224 853e 2149 7a3e
00000050: b034 b8bd b93a 6fbe 6e1f 8bbd a628 483e
00000060: d44b 5fbd 0a9b 4b3f 3bc5 9a3e be2f e03d
00000070: f635 d23c dfc8 c93e 3af8 74be a115 9b3e
00000080: 3953 333e 49e0 d1be 7aff 81bb 51d9 78bd
00000090: b0f3 b93c b16d 44bd 3068 ee3c ca9f 293c
000000a0: 3d5c ea3e 4870 273d 6326 753c 058b 333e
000000b0: 8994 b5be 833c 463e f265 bc3e 5dde 363a
000000c0: 1f83 cebe 3267 5e3d 1b15 84bd 8f67 99bf
000000d0: f5b6 49bf 00ea 55bc d500 b43e 4cb5 e03e
000000e0: 6fdf 92be 1a65 f33a 7b42 1bbd cf7e 333c
000000f0: 95d9 cfbc 3be9 413c b8e3 10bc eb68 d53d
00000100: 13f3 ed3d 91cb b0bd 7efe 1a3e 1e58 30be
00000110: 249c 5dbd fd9b 23bf ab67 5ebd 7d7d 0bbe
00000120: f19c 893e fc0c 6e3e a1ae 8d3e d77a a13e
00000130: 34a3 9d3d 6694 1bbd 2047 19bf 9a0e 3bbe
00000140: a274 1dbe dfe5 aebd e1c1 c13b 88ea 613d
00000150: 1078 713c 5510 cbbb a8ed a7be 4ecf 723e
00000160: d760 c43d 057a 483e 7f3d 323e 7eaf 0cbe
00000170: d540 113f c497 cf3d 2c94 9ebe a6f8 ebbc
00000180: 0c18 c83d 8feb 8a3e 3950 4cbe 84c3 1bbe
00000190: e9b2 d43e 49d5 95bc 0d42 9c3e 4906 5a3d
000001a0: 559b 3fbd c236 dabc c585 213d 2eca 0a3c
000001b0: 0831 aa3c c71b e53c ffec d83d 2cb2 963d
000001c0: 66e2 8c3e ffa7 45be 92bf 89bc 2a57 6f3e
000001d0: 56b9 e93e a4f8 9d3d fa03 45bf 20dd 0ebd
000001e0: 5850 c03e 4a7d d93e c5b3 f03e 2afc 72bd
000001f0: bde2 9b3e f074 8dbe da4b d7bb c59a d2bd
00000200: 1e7f d43b 9e5a aebc ae12 3a3d 86a5 45bc
00000210: 2536 e13d e0cc 9f3e ce16 1f3e 5693 da3e
00000220: 0d09 c53e 0bc2 ec3c 20c5 823d a964 3b3c
00000230: 8ff2 883e 6610 883d 3d35 88be 876b d8be
00000240: 33ee b4be 4a40 abbe 9687 f93e e599 0d3f
00000250: 3863 0c3f 95ac 8e3d a6f4 3e3d 8480 153d
00000260: bba1 1f3a 601a 2cbd 0e6e 033c b35f 28be
00000270: 0870 1ebe d71a c4be 8349 543e 5352 09be
00000280: 1f28 5ebd 9785 ec3e 5a58 813e 3742 103f
00000290: fd39 0dbe d7c1 4b3e b2a2 f9bc 9944 2fbd
000002a0: 2050 aebd d685 90be ad45 7abe 1be6 173e
000002b0: 46f1 b93a 37d5 3a3d 6f7b 27bb 0470 5d3d
000002c0: e56f c53b 2dd3 923c 2bdc 38be 7566 dd3e
000002d0: 8665 113e a9cc ed3d 7929 3bbe ac2e 46bc
000002e0: 9f2d b1be 2ab8 8b3e 63da 5bbe 959a bebd
000002f0: aa7b 29be 9691 28bf 6639 293e 8dd2 11be
00000300: 8cf3 cfbe 6a38 4e3d 639c 6c3e e3b6 a7bd
00000310: 6928 b33c 3979 6b3a 959c 853d 1c68 5abb
00000320: a85a 2ebc ac59 fabe 065a e23e d497 8fbd
00000330: 630e 06be 4779 a2be b1ed 6f3d 4c2c abbe
00000340: fd3c 6c3e 7bd5 ad3e 77bc 5fbf 9f1c 243e
00000350: 2df8 6dbe ae34 553d 4dc4 b73e 1b59 083f
00000360: 0a1e e53e c800 183d ad94 ef39 ecc4 323d
00000370: 86ba 3c3d 8280 383c a5c8 77bd 1056 01bd
00000380: f5ee 313e b53b 3fbd 4169 873d 76e2 be3d
00000390: 00f3 8f3e e92a 2a3d 3adc 7a3e 5c4a 4bbf
000003a0: d39a 163e a010 fa3d 9cca d3bd 83d5 863e
000003b0: 39ad 0fbe 99e5 75be 1e52 723e 06d6 84be
000003c0: 59a4 3abd ea21 86bd 54b9 47bd 1fab eebb
000003d0: 13db e1bd f5f4 783c 5ca0 8b3b d28f 9d3c
000003e0: 6a49 70bd 7391 033e f870 4c3e dc6a 8ebd
000003f0: 7272 ac3c 2ccd 493f 5958 d23a f10e f73d

layers.0.bias f4 [128]
-0.0897499 -0.18058378 -0.20799161 -0.0072530825 -0.300983 0.14667523 0.013495076 -0.32287556
0.1462312 0.08411556 -0.2227471 -0.5065289 -0.15681733 -0.31901845 -0.07577174 0.030746035
-0.047445808 0.012939447 -0.2763568 -0.37362716 0.34054154 -0.058858167 -0.03078651 -0.27847466
0.09691464 -0.10435843 0.1498955 -0.06949979 0.35705665 0.021403335 0.41611755 -0.16862607
0.49271512 -0.05758749 -0.206088 0.13312481 -0.21267329 0.11348078 0.1336816 -0.40192842
0.07812639 -0.3051712 0.041197922 -0.34780255 0.08795697 0.00276942 -0.5877847 -0.3788368
0.33638823 0.15520358 -0.23500104 -0.23565064 0.41373622 0.4333709 0.098956764 -0.2824275
0.035312407 -0.5765046 0.017048508 0.4570614 -0.08716172 0.19573134 -0.5328183 0.1662937
-0.15517427 0.27298912 -0.11060109 0.09780725 -0.33486918 -0.2476167 0.3161992 -0.051542386
0.64471316 -0.40650854 0.14464152 -0.2422032 -0.5686748 -0.40135032 -0.05703494 0.33833596
-0.064426996 -0.008440204 0.1673037 -0.13916612 -0.44257385 -0.27684742 -0.14027269 0.32893872
0.10532364 -0.17243819 -0.14418618 -0.32099172 -0.039085735 -0.14804156 -0.011755464 -0.065050624
-0.36195868 0.39634022 -0.10414429 0.2034364 -0.043652408 -0.16503322 -0.33535746 0.54087216
0.20244102 -0.06562545 0.15672636 0.004675287 -0.24619873 -0.22474375 0.3660868 0.4586451
0.34216186 0.13598219 0.19150732 -0.62623006 0.341413 0.21860187 0.0696163 0.45711222
0.17721553 -0.05183558 -0.1738905 -0.30190504 0.03313679 -0.40987206 -0.0055536814 -0.5370172
00000000: ccce b7bd f4ea 38be c1fb 54be 44ab edbb
00000010: 721a 9abe 0832 163e 741a 5d3c f24f a5be
00000020: a2bd 153e c744 ac3d d117 64be e1ab 01bf
00000030: b994 20be 6356 a3be 372e 9bbd 1cdf fb3c
00000040: 8956 42bd f9ff 533c a37e 8dbe 0f4c bfbe
00000050: 765b ae3e 4315 71bd fe33 fcbc 3b94 8ebe
00000060: 2f7b c63d dfb9 d5bd 357e 193e e855 8ebd
00000070: 21d0 b63e 0c56 af3c 5c0d d53e 50ac 2cbe
00000080: 2845 fc3e dce0 6bbd bc08 53be df51 083e
00000090: 07c7 59be 9c68 e83d d4e3 083e 90c9 cdbe
000000a0: bb00 a03d 663f 9cbe 27bf 283d 2d13 b2be
000000b0: c922 b43d 287f 353b 0f79 16bf e6f6 c1be
000000c0: 143b ac3e b0ed 1e3e 1da4 70be 674e 71be
000000d0: 3cd5 d33e cae2 dd3e d8a9 ca3d 569a 90be
000000e0: bea3 103d ce95 13bf 50a9 8b3c f403 ea3e
000000f0: d881 b2bd cc6d 483e c866 08bf e548 2a3e
00000100: 01e6 1ebe 3bc5 8b3e d382 e2bd 2b4f c83d
00000110: f973 abbe 3b8f 7dbe dde4 a13e 1c1e 53bd
00000120: ec0b 253f e321 d0be e81c 143e 1e04 78be
00000130: ac94 11bf ca7d cdbe 789d 69bd 5f3a ad3e
00000140: 4df2 83bd c848 0abc a951 2b3e 9081 0ebe
00000150: 0a99 e2be f2be 8dbe a5a3 0fbe a86a a83e
00000160: ecb3 d73d a393 30be 8ba5 13be 0759 a4be
00000170: 5d18 20bd 3598 17be fd99 40bc 4339 85bd
00000180: a652 b9be 1bed ca3e 9a49 d5bd a251 503e
00000190: decc 32bd 78fe 28be f9b3 abbe 9976 0a3f
000001a0: b34c 4f3e a366 86bd e07c 203e 2633 993b
000001b0: 851b 7cbe 3a23 66be bb6f bb3e 88d3 ea3e
000001c0: d72f af3e ea3e 0b3e 7f1a 443e 9d50 20bf
000001d0: afcd ae3e 2bd9 5f3e fe92 8e3d 9d0a ea3e
000001e0: fd77 353e 8c51 54bd 5a10 32be 4c93 9abe
000001f0: 71ba 073d c0da d1be a8fb b5bb f679 09bf

layers.1.weight f4 [128, 128]
0.0844293 -0.13805202 -0.056072623 -0.02393514 -0.010799102 0.08178228 0.047866732 0.11417097
0.029025657 0.08199445 -0.1500775 0.050573118 -0.02315063 -0.019120406 0.087648 0.08094202
0.011416775 -0.055833597 -0.018380815 0.039720364 -0.0377742 0.03512627 -0.0027672888 0.077885866
0.036158197 -0.21053848 -0.20072328 0.025613403 0.007308672 -0.12708169 0.0017168171 0.07237427
0.04833759 -0.019960115 0.1568569 0.016908566 0.09864277 -0.032042123 0.022682177 -0.0018355693
0.11027991 0.13557628 0.009933352 0.10299733 -0.016701125 0.017508691 0.11180251 0.016533518
-0.0025839347 0.08934228 -0.13900979 -0.10151264 -0.0229564 -0.07050251 -0.048732206 -0.16482201
0.10560473 0.03358817 0.054873914 -0.036594734 0.0033272728 -0.069988266 0.21488659 -0.09606112
0.1513322 -0.0055025457 0.08274743 -0.0968944 0.015710408 -0.09304264 -0.0053224135 0.09803497
-0.05487312 0.0021239317 -0.005841766 -0.05987181 0.05880912 -0.13095048 -0.03936329 -0.021098016
0.16016972 0.035208803 -0.1167851 0.15441851 0.041532487 0.11270102 0.0022195354 -0.1136887
-0.0024497162 -0.04869647 0.10299938 0.18355304 0.008405696 -0.09271852 0.09079506 -0.10265574
-0.14562948 -0.068080276 0.06521374 0.049672984 -0.06803141 0.036433518 -0.0055853077 -0.024972353
-0.034458753 -0.021650014 0.0033232206 0.069521405 -0.091197394 -0.021265946 -0.021345694 -0.09691859
0.054328464 -0.0828015 -0.032414507 0.09501217 0.008735749 0.032504074 -0.081719756 0.103606835
0.09306407 0.049832564 -0.10547315 0.03240618 -0.15345724 0.17254747 0.083143644 0.15409659
-0.12346038 0.07767971 0.040190663 -0.19475277 -0.10170985 -0.040085476 0.14225893 -0.09725312
-0.16529943 0.110510774 -0.10264625 0.06949535 -0.028721357 -0.010665455 -0.035329934 0.10918837
-0.19034302 -0.09781014 0.05725319 0.08360826 -0.003605283 -0.05340862 -0.10571374 -0.061758064
0.12324173 -0.061868794 -0.008752222 -0.0036206949 -0.004451507 0.027346633 -0.029077126 0.12220673
0.09923284 0.04971403 0.107240476 -0.10386776 0.0009950344 0.12380512 0.10304395 -0.0635122
0.032204226 0.16206507 0.0144824125 0.19409612 -0.18599045 0.11894871 -0.15908006 -0.062046435
-0.04514573 0.045394104 0.009562091 -0.038501374 -0.19004217 -0.010991015 -0.0021708163 -0.011758789
-0.0009702635 -0.07076682 -0.19666216 0.08524138 0.06139139 -0.0035336674 0.01583158 -0.084146984
0.041912403 -0.09842586 -0.017450629 0.060415853 0.090101585 0.03697785 -0.026012067 -0.09943117
0.00901797 -0.18951409 0.02655852 0.022790393 0.0023873125 -0.045379825 -0.052976277 0.052347478
0.11242694 0.012728535 0.08408687 -0.017889041 0.19757077 0.08970754 0.1774742 0.06462293
-0.021676326 0.04530022 -0.1325302 -0.009704756 -0.012835492 0.03239892 -0.17089586 -0.09071077
-0.07310951 0.09723019 -0.072545685 0.011712415 -0.040884715 0.023627518 0.024832992 0.19265656
0.092220455 -0.030881682 0.010938679 0.008255423 0.07725717 0.014743214 -0.03855134 0.024405882
0.028981782 -0.07699457 0.06291888 0.027843174 -0.11355081 0.12502728 -0.07959424 0.014663805
0.06355666 -0.09386056 -0.008702271 -0.059554216 -0.038545813 -0.033197697 -0.028190933 -0.037491754
00000000: 45e9 ac3d 825d 0dbe 68ac 65bd a013 c4bc
00000010: b7ee 30bc 787d a73d e80f 443d 78d2 e93d
00000020: 37c7 ed3c b5ec a73d ebad 19be c225 4f3d
00000030: 64a6 bdbc 66a2 9cbc cb80 b33d eec4 a53d
00000040: 6d0d 3b3c c5b1 64bd 5d93 96bc d2b1 223d
00000050: 1fb9 1abd 90e0 0f3d 675b 35bb a082 9f3d
00000060: 9e1a 143d 6697 57be 678a 4dbe 33d3 d13c
00000070: 967d ef3b b421 02be d306 e13a f638 943d
00000080: a3fd 453d 6583 a3bc 189f 203e d583 8a3c
00000090: 3805 ca3d 9a3e 03bd f9cf b93c 7c97 f0ba
000000a0: 6fda e13d 82d4 0a3e 7fbf 223c 44f0 d23d
000000b0: ccd0 88bc 636e 8f3c b7f8 e43d 4d71 873c
000000c0: 3b57 29bb 16f9 b63d 9558 0ebe dce5 cfbd
000000d0: 0f0f bcbc 9f63 90bd 6c9b 47bd 1ac7 28be
000000e0: 4b47 d83d c093 093d 78c3 603d 5ce4 15bd
000000f0: 600e 5a3b 0256 8fbd 3b0b 5c3e b1bb c4bd
00000100: d4f6 1a3e b34e b4bb 7c77 a93d 9270 c6bd
00000110: 1db3 803c 248d bebd a467 aebb 8fc6 c83d
00000120: a3c2 60bd a931 0b3b 496c bfbb 253c 75bd
00000130: d5e1 703d e217 06be 673b 21bd bfd5 acbc
00000140: 8803 243e 1b37 103d 072d efbd e31f 1e3e
00000150: f81d 2a3d cbcf e63d a075 113b 9fd5 e8bd
00000160: 6b8b 20bb f375 47bd 57f1 d23d 54f5 3b3e
00000170: 0bb8 093c 35e3 bdbd c3f2 b93d 2c3d d2bd
00000180: e51f 15be ac6d 8bbd c88e 853d e675 4b3d
00000190: 0d54 8bbd 503b 153d f504 b7bb d292 ccbc
000001a0: 9f24 0dbd 5f5b b1bc 64ca 593b 3d61 8e3d
000001b0: b3c5 babd ec35 aebc 2add aebc 417d c6bd
000001c0: 8687 5e3d d593 a9bd 13c5 04bd be95 c23d
000001d0: 6320 0f3c fe22 053d b05c a7bd d22f d43d
000001e0: 6098 be3d 3b1d 4c3d 4f02 d8bd 58bc 043d
000001f0: e523 1dbe 49b0 303e 3747 aa3d 7fcb 1d3e
00000200: ccd8 fcbd 8a16 9f3d f79e 243d 456d 47be
00000210: 414d d0bd ab30 24bd 53ac 113e a52c c7bd
00000220: 4144 29be 7953 e23d 3238 d2bd 9453 8e3d
00000230: 0d49 ebbc 29be 2ebc 1fb6 10bd 279e df3d
00000240: 48e9 42be af50 c8bd 5282 6a3d cf3a ab3d
00000250: 9d46 6cbb ffc2 5abd 7280 d8bd 06f6 7cbd
00000260: 2966 fc3d 226a 7dbd 7b65 0fbc 2e49 6dbb
00000270: f2dd 91bb 0c06 e03c 2733 eebc 8647 fa3d
00000280: 963a cb3d f0a0 4b3d e5a0 db3d 9fb8 d4bd
00000290: d06b 823a 8a8d fd3d b508 d33d af12 82bd
000002a0: 94e8 033d 63f4 253e a447 6d3c 22c1 463e
000002b0: 4874 3ebe 629b f33d e2e5 22be 6724 7ebd
000002c0: bbea 38bd 2bef 393d 51aa 1c3c 9eb3 1dbd
000002d0: 6a9a 42be a813 34bc 4144 0ebb f0a7 40bc
000002e0: 4859 7eba 32ee 90bd ce61 49be 0893 ae3d
000002f0: 8a75 7b3d 1a95 67bb 3bb1 813c 4155 acbd
00000300: 57ac 2b3d 7f93 c9bd 9ff4 8ebc 9d76 773d
00000310: 2e87 b83d 1676 173d 4217 d5bc 92a2 cbbd
00000320: 1cc0 133c fb0f 42be 4191 d93c ebb2 ba3c
00000330: 7574 1c3b 32e0 39bd a7fd 58bd 4f6a 563d
00000340: 1840 e63d 588b 503c bd35 ac3d 0a8c 92bc
00000350: fe4f 4a3e 96b8 b73d ccbb 353e 0759 843d
00000360: 8d92 b1bc b98c 393d ffb5 07be b200 1fbc
00000370: f54b 52bc bbb4 043d 53ff 2ebe 91c6 b9bd
00000380: 70ba 95bd 9f20 c73d d592 94bd 6ee5 3f3c
00000390: bb76 27bd 7f8e c13c 8f6e cb3c c347 453e
000003a0: 14de bc3d 95fb fcbc 2538 333c c141 073c
000003b0: 0239 9e3d 858d 713c 03e8 1dbd d8ee c73c
000003c0: 346b ed3c 54af 9dbd 9ddb 803d 5e17 e43c
000003d0: 548d e8bd 2707 003e 4e02 a3bd 7540 703c
000003e0: ff29 823d f739 c0bd f893 0ebc 1fef 73bd
000003f0: 37e2 1dbd 4ffa 07bd acf0 e6bc f490 19bd

layers.1.bias f4 [128]
-0.016841913 -0.031415656 -0.084534384 -0.032812905 -0.0480407 -0.14158839 0.13506378 0.09415883
-0.12811115 -0.18393616 0.087549284 -0.13992806 -0.13685764 -0.060515486 0.055810478 0.041169163
-0.13456501 0.018632922 -0.07325612 0.04916889 0.07652347 -0.07788621 -0.010031655 -0.023699356
0.2585414 0.015143428 -0.119872466 -0.10551617 -0.082080126 -0.010234629 0.024547903 0.11157791
-0.029541615 0.057800684 0.07081171 -0.013776116 0.09685077 -0.08623714 0.1540218 0.108186424
-0.15528372 -0.042043373 0.18476562 -0.04326117 -0.16816351 0.068954065 -0.0583237 -0.2048876
-0.102757215 0.029115712 0.019169504 -0.0669612 -0.1125784 -0.06055711 -0.005112734 -0.10005172
0.07958463 -0.091009386 0.053883884 -0.1327913 -0.05346838 0.06622999 -0.069440246 -0.048111327
-0.14260797 0.05055707 0.06497679 0.039332148 0.011906243 -0.073304795 -0.058883443 -0.07536437
-0.032251835 0.008244653 0.12804018 -0.14917995 -0.20080039 0.085890345 -0.05892969 -0.19460028
-0.015337384 -0.017749524 0.16641414 0.16002455 0.10681861 -0.010981855 -0.0693417 0.07000029
0.029123526 -0.030375168 -0.088972375 0.09694347 0.023731025 -0.04228097 -0.10344091 0.054805458
0.023841836 -0.018864503 -0.19394298 -0.0020479048 -0.054051388 0.1412974 -0.09462212 -0.09539892
0.11272297 -0.014719009 -0.08874597 -0.09112232 0.049946524 -0.045402527 0.14574143 0.05224476
-0.017097402 0.04288038 0.08649826 -0.12269716 0.0056496053 -0.10177109 -0.19816 -0.0394669
-0.00909252 -0.11121166 0.1518392 0.19047529 0.032139193 -0.11112821 0.10826193 -0.14008503
00000000: 0df8 89bc b4ad 00bd 5d20 adbd d366 06bd
00000010: 53c6 44bd 8cfc 10be 294e 0a3e 58d6 c03d
00000020: 922f 03be c359 3cbe 0a4d b33d 4d49 0fbe
00000030: 6924 0cbe 16df 77bd 8799 643d ffa0 283d
00000040: 69cb 09be 12a4 983c 4e07 96bd 5165 493d
00000050: 56b8 9c3d ce82 9fbd d05b 24bc 2725 c2bc
00000060: 8a5f 843e 241c 783c b27f f5bd dd18 d8bd
00000070: a019 a8bd 25af 27bc af18 c93c f682 e43d
00000080: 4201 f2bc 69c0 6c3d bb05 913d 38b5 61bc
00000090: b259 c63d 199d b0bd e4b7 1d3e d890 dd3d
000000a0: b202 1fbe ac35 2cbd 3333 3d3e a032 31bd
000000b0: 0e33 2cbe ca37 8d3d d5e4 6ebd 0ece 51be
000000c0: 6072 d2bd 1384 ee3c 5d09 9d3c f422 89bd
000000d0: 818f e6bd bb0a 78bd b988 a7bb ebe7 ccbd
000000e0: 44fd a23d 2163 babd 59b5 5c3d 71fa 07be
000000f0: a901 5bbd 97a3 873d b036 8ebd 6210 45bd
00000100: d307 12be ee14 4f3d 8d12 853d bf1a 213d
00000110: 6712 433c d320 96bd c42f 71bd a358 9abd
00000120: 801a 04bd 9514 073c f71c 033e a1c2 18be
00000130: 9e9e 4dbe 47e7 af3d 4260 71bd 4c45 47be
00000140: a749 7bbc 7367 91bc 7868 2a3e 7add 233e
00000150: b7c3 da3d 3ded 33bc 0503 8ebd 505c 8f3d
00000160: 7694 ee3c 58d5 f8bc 2637 b6bd 4c8a c63d
00000170: 9167 c23c cf2e 2dbd d4d8 d3bd b07b 603d
00000180: f44f c33c bb89 9abc fd98 46be 2436 06bb
00000190: fd64 5dbd 44b0 103e 3ec9 c1bd 8260 c3bd
000001a0: 4ddb e63d 0028 71bc 72c0 b5bd 579e babd
000001b0: ba94 4c3d 00f8 39bd 3e3d 153e 9afe 553d
000001c0: da0f 8cbc 56a3 2f3d 0026 b13d a648 fbbd
000001d0: 5320 b93b 5c6d d0bd 74ea 4abe 0ba8 21bd
000001e0: cbf8 14bc f0c2 e3bd bc7b 1b3e f40b 433e
000001f0: 63a4 033d 3097 e3bd 6eb8 dd3d 7372 0fbe

layers.2.weight f4 [64, 128]
0.15855995 -0.062338464 0.015998466 0.09365026 -0.043546483 -0.007943199 0.08392087 0.14015864
0.072068594 0.049875475 0.042399347 0.008074052 -0.091969736 0.07621695 0.076988205 -0.012413203
0.16002323 0.06581061 0.06538215 0.037942447 0.024410013 0.06704996 0.0107683735 0.11022895
0.031125203 -0.069002815 -0.1324726 -0.11282903 -0.009190079 -0.07247165 0.044513613 0.16516083
-0.17535111 0.12566067 0.084407434 -0.10820792 0.082969874 -0.015882157 0.14580218 0.09569397
-0.061375037 0.20881498 -0.020567622 -0.07917392 -0.009227888 0.14024253 -0.0064842333 0.24619138
-0.14545934 0.047528252 0.08604614 0.17920111 0.045621663 0.050261542 0.026680473 0.083350785
-0.028119149 0.0130957 0.03211773 -0.051004563 -0.047529146 -0.0112887 -0.035581205 -0.008052151
0.07014778 -0.19457857 0.09582215 0.107757345 -0.054006558 -0.0850048 0.04150553 0.07615433
0.002633937 -0.14630485 0.26009977 0.0020738393 0.0013393946 -0.05237972 0.1345004 -0.148441
0.1845006 0.078191265 0.045027275 0.06736211 0.057725597 -0.0063810386 -0.06468229 0.10397055
-0.036855463 0.00015452084 0.121137984 0.17308773 -0.032875147 0.15855326 -0.11280852 0.07804982
-0.012734153 0.11342827 0.026759977 0.03558621 -0.089619175 0.122161515 0.1423539 0.023493871
0.111774184 0.0037016983 -0.20325859 -0.016980939 -0.036206007 0.054715846 -0.07701777 0.035512168
0.09684106 -0.037855674 -0.17321523 -0.18083829 0.11866212 0.17680208 -0.11224393 -0.041179217
-0.13679397 0.031116992 0.14292929 0.07840151 0.10478243 -0.11203391 0.26463082 -0.1042286
-0.027364403 -0.022471907 0.049231697 0.27553105 0.11807447 0.090796776 -0.09296804 0.12208363
-0.03471015 0.048882514 -0.032131597 -0.09807709 0.060441233 0.00853066 0.059845574 -0.1401964
0.0685484 -0.06380513 -0.11715734 -0.16657792 -0.085843004 -0.09175032 0.08429873 0.07483613
-0.054983493 -0.0043950747 -0.070214085 -0.03765111 -0.17642018 -0.07032595 0.0908826 0.016319975
-0.07156711 0.04340398 -0.014487411 0.080735855 0.2199847 -0.19333333 -0.18706885 0.003544693
-0.059779014 0.065736994 -0.19461443 0.09470507 0.044882245 0.28171974 -0.17621754 0.20695587
0.052547652 0.23811546 0.023349846 0.21422204 0.16984224 -0.1643829 0.16160116 0.06415583
0.141433 0.11996036 0.084225714 -0.06553391 -0.028477458 0.19781776 0.04736093 -0.15030251
0.034492966 -0.040494304 -0.011629578 0.025447967 -0.037791904 -0.07300494 0.047545742 0.13035731
0.01769553 -0.11741714 0.029792693 0.11647838 -0.10846532 -0.049775336 0.1753733 -0.07788385
-0.06784122 0.3141941 0.115425915 0.04233454 -0.10663399 0.10332026 -0.016283913 0.0154438075
0.02617933 -0.039433286 0.25631934 0.08446236 -0.1129561 -0.051062666 -0.0526305 0.11166263
0.080083944 -0.016678656 0.0177596 -0.05003787 0.0695706 -0.08439776 0.20122835 0.08592883
0.045440637 -0.12522328 -0.14544095 0.12080608 -0.23578186 -0.011935491 -0.0046321624 -0.025487546
0.033486567 -0.0610116 0.037838567 -0.03850752 0.021002661 0.1929099 0.17002976 -0.11582151
-0.16444646 0.09706863 0.011146652 -0.19879371 -0.12423611 0.05424315 0.08380002 -0.03824007
00000000: 8a5d 223e 9e56 7fbd 370f 833c b5cb bf3d
00000010: cc5d 32bd 3124 02bc b5de ab3d bf85 0f3e
00000020: b398 933d 3a4a 4c3d f0aa 2d3d 0749 043c
00000030: a15a bcbd a217 9c3d feab 9d3d bf60 4bbc
00000040: 21dd 233e b7c7 863d 14e7 853d 8a69 1b3d
00000050: 82f7 c73c 7d51 893d d56d 303c b7bf e13d
00000060: 48fa fe3c 5951 8dbd e6a6 07be e812 e7bd
00000070: fc91 16bc 046c 94bd e853 363d ec1f 293e
00000080: 3e8f 33be 31ad 003e cedd ac3d 1d9c ddbd
00000090: 1cec a93d 4c1b 82bc 2b4d 153e 33fb c33d
000000a0: 6464 7bbd 98d3 553e 6e7d a8bc f025 a2bd
000000b0: 9130 17bc bd9b 0f3e b179 d4bb 9819 7c3e
000000c0: 4bf3 14be fcac 423d f538 b03d 7f80 373e
000000d0: c8dd 3a3d 0cdf 4d3d 0291 da3c d1b3 aa3d
000000e0: 215a e6bc 598f 563c e18d 033d 29ea 50bd
000000f0: ecad 42bd 3df4 38bc 99bd 11bd 2bed 03bc
00000100: a4a9 8f3d 9b3f 47be 673e c43d e2af dc3d
00000110: fb35 5dbd ff16 aebd b401 2a3d cdf6 9b3d
00000120: 219e 2c3b f0d0 15be cc2b 853e 40e9 073b
00000130: a08e af3a 1e8c 56bd 79ba 093e eb00 18be
00000140: baed 3c3e be22 a03d 856e 383d 25f5 893d
00000150: ad71 6c3d 0818 d1bb 2678 84bd 83ee d43d
00000160: c1f5 16bd df06 2239 3117 f83d e93d 313e
00000170: 17a8 06bd c95b 223e 2708 e7bd 96d8 9f3d
00000180: e9a2 50bc 154d e83d bd37 db3c d9c2 113d
00000190: 428a b7bd d12f fa3d 39c5 113e 3876 c03c
000001a0: dde9 e43d 3198 723b 0523 50be 9c1b 8bbc
000001b0: c04c 14bd b91d 603d 7ebb 9dbd 3575 113d
000001c0: 9b54 c63d 8d0e 1bbd 555f 31be ac2d 39be
000001d0: 2005 f33d 9b0b 353e 25e0 e5bd 8aab 28bd
000001e0: b813 0cbe 10e9 fe3c 0e5c 123e f990 a03d
000001f0: 2c98 d63d 0972 e5bd b17d 873e ce75 d5bd
00000200: 502b e0bc 0117 b8bc 2da7 493d 6812 8d3e
00000210: 07d1 f13d a9f3 b93d 0766 bebd fb06 fa3d
00000220: 3b2c 0ebd 0839 483d 6c9c 03bd a4dc c8bd
00000230: 3a91 773d 2ec4 0b3c a220 753d a58f 0fbe
00000240: 1b63 8c3d 44ac 82bd 30f0 efbd 6793 2abe
00000250: 75ce afbd 97e7 bbbd d0a4 ac3d af43 993d
00000260: 5f36 61bd 8f04 90bb 67cc 8fbd 0d38 1abd
00000270: 7ea7 34be 0d07 90bd a820 ba3d 78b1 853c
00000280: c791 92bd 5fc8 313d 9b5c 6dbc d758 a53d
00000290: ab43 613e 2cf9 45be fa8e 3fbe 154e 683b
000002a0: d7da 74bd 1ea1 863d 0149 47be bbf4 c13d
000002b0: 72d6 373d 923d 903e 5f72 34be 3dec 533e
000002c0: 353c 573d 8ad4 733e 2d48 bf3c 065d 5b3e
000002d0: 20eb 2d3e fe53 28be c67a 253e 2264 833d
000002e0: d0d3 103e c7ad f53d 887e ac3d a536 86bd
000002f0: 8f49 e9bc bd90 4a3e 89fd 413d e7e8 19be
00000300: 7f48 0d3d 5bdd 25bd fc89 3ebc 4178 d03c
00000310: afcb 1abd 9d83 95bd 53bf 423d 637c 053e
00000320: 37f6 903c 6678 f0bd ce0f f43c 388c ee3d
00000330: 1123 debd 39e1 4bbd 0f95 333e 9181 9fbd
00000340: 56f0 8abd 0dde a03e 6c64 ec3d fc66 2d3d
00000350: ec62 dabd 9399 d33d d765 85bc 0608 7d3c
00000360: 0976 d63c cc84 21bd 4a3c 833e 9afa ac3d
00000370: 8755 e7bd 1627 51bd 1493 57bd 61af e43d
00000380: 0d03 a43d ada1 88bc 957c 913c 82f4 4cbd
00000390: 087b 8e3d bcd8 acbd ce0e 4e3e 74fb af3d
000003a0: f61f 3a3d 883a 00be 79ee 14be 2e69 f73d
000003b0: cd70 71be 148d 43bc 65c9 97bb 42cb d0bc
000003c0: 3629 093d 4de7 79bd 9dfc 1a3d 10ba 1dbd
000003d0: c60d ac3c 2c8a 453e 481c 2e3e d433 edbd
000003e0: a764 28be ebcb c63d 72a0 363c 9490 4bbe
000003f0: 806f febd 112e 5e3d 589f ab3d 9fa1 1cbd

layers.2.bias f4 [64]
0.03810637 -0.08537974 0.01717243 0.09550075 0.013417034 0.10973145 -0.12428193 0.085424356
-0.13588634 -0.07375013 -0.05346021 0.08762605 -0.051384024 -0.048964098 -0.031902425 0.12481538
-0.08332074 0.077744685 0.10744398 -0.08708706 0.0736336 0.09738314 0.03933544 -0.09943111
0.01861197 -0.08205586 -0.04683546 0.044635475 0.058992386 0.017124686 0.08141085 -0.102386005
0.046699308 0.11184602 0.10278632 -0.040304758 0.13641852 -0.06243599 -0.029225353 0.055124823
-0.098587975 0.028190427 0.040606566 0.023430808 -0.06552364 -0.08044856 -0.07853907 -0.2109594
0.077993944 -0.13940999 0.06569424 -0.032173973 -0.080979325 0.11899525 -0.10801577 -0.13567562
0.094357416 -0.19695988 0.010139118 0.13117243 -0.04404004 -0.09387365 -0.015178914 0.016145404
00000000: 6d15 1c3d 93db aebd 32ad 8c3c e695 c33d
00000010: 1fd3 5b3c e2ba e03d 8687 febd f7f2 ae3d
00000020: ca25 0bbe 4f0a 97bd 18f9 5abd 4975 b33d
00000030: 0e78 52bd 948e 48bd 1eac 02bd 359f ff3d
00000040: 10a4 aabd 9b38 9f3d 970b dc3d b35a b2bd
00000050: 36cd 963d d070 c73d 331e 213d 8aa2 cbbd
00000060: 2178 983c e70c a8bd 8ad6 3fbd b0d3 363d
00000070: 00a2 713d 1249 8c3c bbba a63d c1af d1bd
00000080: c647 3f3d 870f e53d a281 d23d 9a16 25bd
00000090: 4cb1 0b3e e1bc 7fbd 026a efbc 91ca 613d
000000a0: 7ee8 c9bd 9cef e63c 1253 263d f7f1 bf3c
000000b0: 4231 86bd 37c2 a4bd 18d9 a0bd be05 58be
000000c0: 4abb 9f3d 7ec1 0ebe b48a 863d dbc8 03bd
000000d0: 7dd8 a5bd c8b3 f33d 5f37 ddbd 8dee 0abe
000000e0: 763e c13d daaf 49be 8b1e 263c 1152 063e
000000f0: 5463 34bd d440 c0bd fbb0 78bc 5e43 843c

readout.weight f4 [1, 64]
-0.6218373 -0.53235096 -0.026147155 0.48879743 0.62165546 0.52827185 -0.76532483 -0.72357357
0.6762615 0.5776583 -0.5002527 0.5683253 -0.53940177 -0.46171606 0.6583883 -0.57184386
-0.921952 0.48516318 0.68042797 -0.44265684 -0.54456633 0.51739746 0.48231062 0.5588829
-0.5642436 -0.80937284 -0.7654735 0.522376 -0.026389245 0.647349 0.6220224 -0.2886814
-0.4999168 0.8755658 -0.6173805 -0.6323517 0.7870765 -0.71893185 -0.55842644 0.5823676
-0.54096633 -0.39592487 -0.7086039 -0.6792234 0.5905036 0.7197262 0.29266298 0.012590505
-0.111838825 0.050364662 0.04694277 -0.70909774 -0.35563707 -0.84001994 -0.7855861 0.56504554
-0.0946428 0.05742289 -0.0020543956 0.03506718 0.050849956 0.75187427 -0.2352823 0.5980354
00000000: bb30 1fbf 2748 08bf 8f32 d6bc a843 fa3e
00000010: d024 1f3f d33c 073f 54ec 43bf 1e3c 39bf
00000020: 791f 2d3f 6ae1 133f 9010 00bf c47d 113f
00000030: 3c16 0abf 0c66 ecbe 238c 283f 5c64 12bf
00000040: 0c05 6cbf 4f67 f83e 8730 2e3f eba3 e2be
00000050: b368 0bbf 2974 043f 6bf1 f63e f312 0f3f
00000060: 4572 10bf 0f33 4fbf 12f6 43bf 6fba 053f
00000070: 422e d8bc aab8 253f dc3c 1f3f 0cce 93be
00000080: 18f5 ffbe 1525 603f a60c 1ebf cde1 21bf
00000090: d87d 493f eb0b 38bf 09f5 0ebf 0b16 153f
000000a0: c57c 0abf aab6 cabe 1167 35bf 96e1 2dbf
000000b0: 3e2b 173f fa3f 383f ecd7 953e 6848 4e3c
000000c0: c10b e5bd 2d4b 4e3d 1047 403d 6e87 35bf
000000d0: 1016 b6be 8c0b 57bf 2c1c 49bf d3a6 103f
000000e0: 16d4 c1bd 4434 6b3d 0aa3 06bb 9aa2 0f3d
000000f0: 0b48 503d d57a 403f d8ed 70be d918 193f

layers.0.weight f4 [128, 17]
0.010197399 -0.15295298 -0.5936187 0.6659519 -0.059012786 0.7297884 -0.10642151 0.116783015
-0.38560268 -1.0479224 -0.6295562 -0.0217996 0.03171181 -0.025438404 -0.08744241 -0.09920315
0.001818992 -0.46721074 -0.19149786 -0.053777438 0.9682199 0.13920125 0.77122205 -0.37810788
0.2153183 -0.37595448 -0.85712075 -0.42394188 0.14463562 0.07311147 -0.043120608 0.06816777
-0.014436061 0.023465337 -0.2168024 0.09668973 -0.37106043 -0.83761203 -0.6924124 -0.39487225
0.27265894 0.3463203 -0.54735047 -0.116249226 -0.88284004 -0.15343806 -0.019001734 0.04151745
-0.16733927 -0.11590289 -0.012198305 -0.14121865 -0.017756892 0.17599161 0.39127702 -0.15949035
-0.39577588 -0.25493655 0.24679968 -0.11102551 -0.25905654 -0.33748505 -0.11509218 0.043043908
0.047859818 -0.10241786 -0.037353568 0.0035410498 -0.5948511 -0.72591376 -0.6067451 0.22843488
-0.12778275 0.6332221 0.0678343 0.23097117 0.1771994 -0.5544452 -0.2625331 0.024274835
0.011613259 -0.0041297707 0.007955892 -0.038709853 0.011140949 0.47971642 -0.51097184 0.19829847
0.40762854 -0.29516447 -0.32707608 -0.39555 -0.23886317 -0.7874238 -1.0686325 -0.08974031
-0.112126715 0.22283345 -0.002395486 -0.26241264 -0.13404313 -0.008335613 0.28926754 0.18837214
0.3627697 -0.9430121 0.0032506103 0.3322907 0.102834 0.14197586 -0.09772248 0.58649224
0.72761583 0.07103516 0.20889595 -0.10375497 -0.17596652 -0.14579584 -0.02113112 -0.21107529
0.5169001 -0.41488248 -0.07787591 -0.11286901 -0.09886723 -0.19355586 -0.23960818 -0.06287322
0.08214069 0.272852 0.015167628 0.17587298 -0.012868108 0.10528433 0.01745536 0.04708101
-0.12797892 0.23884042 0.37817025 -0.17977569 0.23041631 -0.11177851 0.07563965 0.094852775
0.007971639 -0.5550191 0.16177936 -0.08796016 0.12784615 -0.011479391 -0.07115992 0.037720766
0.03562971 0.29653755 -0.68475336 -0.45051655 0.6070529 -0.09939274 0.049367853 -0.24122842
0.0767873 0.5760049 -0.3299921 -0.012836011 -0.26227835 -0.09297576 -0.0043479367 0.11801796
-0.009933735 0.034014642 -0.20172697 0.14366716 0.2516176 -0.038764242 -0.008748429 0.33650106
-0.34164327 0.12031288 0.014838069 0.135499 0.33906272 0.32078743 -0.036159202 -0.06556965
0.017055029 0.08291955 0.017827561 0.31508282 -0.3304956 -0.88504565 -0.2719637 0.22692603
-0.74024254 0.46389875 0.10943068 0.015944874 0.31305185 0.24924253 0.068775944 -0.029119153
0.026145808 -0.091719404 0.08963007 0.062586784 -0.02084073 -0.07611567 -0.432662 1.5878308
0.3912844 -0.33227223 -0.6083938 -0.14130794 0.0507416 -0.664058 -0.03242696 0.13965021
0.17369251 -0.017997192 0.15106334 0.036283556 0.007961205 -0.79121 0.70889777 0.26147264
0.48431125 -0.12908025 0.52417725 -0.037495457 0.11903126 0.3267769 -0.69013184 -0.073367976
-0.02740321 0.07309647 -0.008193742 -0.08668045 -0.004444396 0.0008813717 0.2994788 0.15878548
-0.6957599 -0.4317743 0.5123384 -1.0827545 -0.808435 -0.3289988 -0.5558814 0.37837905
-0.77038056 -0.26526785 -0.1738634 -0.05331536 -0.05463106 -0.020683732 -0.02415702 -0.11804059
00000000: fe12 273c b59f 1cbe 65f7 17bf d37b 2a3f
00000010: 64b7 71bd 6ad3 3a3f 85f3 d9bd ef2b ef3d
00000020: b76d c5be 5222 86bf 982a 21bf 1395 b2bc
00000030: 3ee4 013d 3364 d0bc 0215 b3bd 052b cbbd
00000040: 3e6b ee3a 3f36 efbe 0418 44be bb45 5cbd
00000050: 42dd 773f c68a 0e3e cf6e 453f 5b97 c1be
00000060: 677c 5c3e 1b7d c0be 446c 5bbf e90e d9be
00000070: 5c1b 143e 77bb 953d 3c9f 30bd 8b9b 8b3d
00000080: 3a85 6cbc 613a c03c 7301 5ebe 4405 c63d
00000090: a2fb bdbe be6d 56bf f041 31bf b22c cabe
000000a0: f499 8b3e e550 b13e 291f 0cbf 1314 eebd
000000b0: ce01 62bf de1e 1dbe 86a9 9bbc 340e 2a3d
000000c0: fc5a 2bbe 7f5e edbd 66db 47bc 9f9b 10be
000000d0: e776 91bc 2537 343e 7655 c83e 7051 23be
000000e0: 23a3 cabe 0b87 82be 0eb9 7c3e 5861 e3bd
000000f0: 0fa3 84be d7ca acbe 73b5 ebbd cf4e 303d
00000100: a808 443d 74c0 d1bd 0e00 19bd f510 683b
00000110: 2948 18bf 7cd5 39bf a653 1bbf d5ea 693e
00000120: 7bd9 02be d81a 223f b6ec 8a3d b583 6c3e
00000130: c273 353e 1ff0 0dbf bd6a 86be 05dc c63c
00000140: 8a45 3e3c 0753 87bb 6e59 023c 398e 1ebd
00000150: 8788 363c 649d f53e 0dcf 02bf c10e 4b3e
00000160: b0b4 d03e cc1f 97be 8476 a7be 8885 cabe
00000170: 8c98 74be 9b94 49bf f3c8 88bf c5c9 b7bd
00000180: b1a2 e5bd 742e 643e 96fd 1cbb f35a 86be
00000190: 9a42 09be 1892 08bc e01a 943e a0e4 403e
000001a0: f3bc b93e 3e69 71bf 3108 553b 0222 aa3e
000001b0: a29a d23d 1f62 113e b922 c8bd 5b24 163f
000001c0: 0845 3a3f e27a 913d d2e8 553e 7c7d d4bd
000001d0: 9130 34be 814b 15be 2c1b adbc 1f24 58be
000001e0: 9153 043f 7a6b d4be 687d 9fbd de27 e7bd
000001f0: e77a cabd 8233 46be d95b 75be adc3 80bd
00000200: 6139 a83d 42b3 8b3e a581 783c 0c18 343e
00000210: c2d4 52bc 509f d73d 8bfe 8e3c 04d8 403d
00000220: e80c 03be 9592 743e 889f c13e 1e17 38be
00000230: 41f2 6b3e 22ec e4bd f6e8 9a3d 2c42 c23d
00000240: 7a9b 023c bb15 0ebf 7da9 253e 7524 b4bd
00000250: 1aea 023e 0e14 3cbc 4bbc 91bd 1781 1a3d
00000260: 75f0 113d c5d3 973e ff4b 2fbf 1baa e6be
00000270: d267 1b3f 6c8e cbbd f235 4a3d 9504 77be
00000280: a942 9d3d 0f75 133f b9f4 a8be 224e 52bc
00000290: 5949 86be 136a bebd 2379 8ebb 66b3 f13d
000002a0: 1bc1 22bc f052 0b3d 8491 4ebe 7c1d 133e
000002b0: 06d4 803e 41c7 1ebd 9255 0fbc de49 ac3e
000002c0: deeb aebe 9966 f63d 5f1b 733c 40c0 0a3e
000002d0: a199 ad3e 403e a43e ac1b 14bd 6149 86bd
000002e0: fdb6 8b3c bad1 a93d 1b0b 923c 8952 a13e
000002f0: b836 a9be 5a92 62bf d33e 8bbe 4c5f 683e
00000300: 8980 3dbf 2384 ed3e 311d e03d d39e 823c
00000310: 5548 a03e 6f39 7f3e 67da 8c3d 4a8b eebc
00000320: bc2f d63c 62d7 bbbd f88f b73d 802d 803d
00000330: 2eba aabc 88e2 9bbd e085 ddbe 0a3e cb3f
00000340: 6e56 c83e 961f aabe b2bf 1bbf 07b3 10be
00000350: 6dd6 4f3d b5ff 29bf 22d2 04bd 7700 0f3e
00000360: 73dc 313e d96e 93bc 59b0 1a3e 119e 143d
00000370: b76f 023c bd8c 4abf 537a 353f bedf 853e
00000380: a5f7 f73e 9d2d 04be 7b30 063f d694 19bd
00000390: a9c6 f33d 4d4f a73e 7bac 30bf f341 96bd
000003a0: b27c e0bc 9ab3 953d 0b3f 06bc 8585 b1bd
000003b0: 4ca2 91bb db0b 673a 4955 993e a998 223e
000003c0: 521d 32bf 8511 ddbe 9c28 033f b397 8abf
000003d0: 99f5 4ebf 8872 a8be 3e4e 0ebf e6ba c13e
000003e0: a937 45bf 30d1 87be 3f09 32be 3561 5abd
000003f0: d2c4 5fbd ee70 a9bc f1e4 c5bc 44bf f1bd

layers.0.bias f4 [128]
0.058619 0.5187859 0.026753034 0.81312877 0.7657264 -0.28325874 -0.09606818 0.13938539
-0.69204956 0.08446113 0.30110404 0.63938874 0.45029202 0.085616924 0.49012756 0.26518324
-0.11378169 -0.00072673697 0.6947893 -0.10270974 0.19797462 0.8871817 -0.30264685 0.86170965
-0.31473076 0.59526366 0.5751242 0.66475827 -0.46539572 0.6602345 0.20413224 0.60785943
-0.24015917 -0.009003615 -0.11570941 -0.54864955 -0.23270638 1.2136867 -0.06700686 -0.24775462
0.023657672 0.05406795 -0.14184403 0.08376312 -0.099520616 0.050954737 0.2006821 0.7323466
-0.3665769 0.22437777 -0.32442656 0.71089196 0.45772743 -0.24113107 0.40553552 -0.4422352
0.16431546 -0.31426984 -0.3800863 0.78707844 0.69257396 0.5225709 -0.12371327 0.46391788
-0.47834387 0.1837311 -0.1843732 -0.13315015 -0.20651561 0.106490575 0.13629082 0.6984195
0.53706455 -0.5462158 0.2473087 0.2258541 -0.22596732 0.16964819 0.53244925 0.18439738
0.39182484 -0.31170037 0.0044581066 -0.23269196 0.6033549 -0.22195765 0.7149956 0.0575345
0.4842269 0.07569293 -0.31900337 -0.1871075 -0.3635074 0.025097562 0.3039455 -0.43384445
-0.14164339 -0.7044709 -0.32245728 0.37763456 0.28884763 0.036005784 0.084641896 -0.15391114
1.0769826 0.23932095 -0.11198644 -0.016793778 -0.0975555 0.41517183 0.13546142 1.0978713
0.26953775 0.5742226 -0.11604824 -0.17143348 -0.56278 0.5578736 0.25203547 0.21241207
0.46408936 0.087621935 0.26765746 0.040921144 0.19872907 -0.25705314 -0.18339723 0.11409872
00000000: 7a1a 703d 27cf 043f 2e29 db3c 3529 503f
00000010: a506 443f 4a07 91be 65bf c4bd 0bbb 0e3e
00000020: 292a 31bf f5f9 ac3d 4f2a 9a3e fbae 233f
00000030: ad8c e63e ed57 af3d 00f2 fa3e 19c6 873e
00000040: 6006 e9bd 7e82 3eba b6dd 313f 7c59 d2bd
00000050: dcb9 4a3e 571e 633f 87f4 9abe 0199 5c3f
00000060: 6424 a1be 3363 183f 573b 133f 992d 2a3f
00000070: 5948 eebe 2105 293f 0b08 513e ad9c 1b3f
00000080: 49ec 75be e683 13bc 0ef9 ecbd 4c74 0cbf
00000090: 954a 6ebe 165a 9b3f e53a 89bd 63b3 7dbe
000000a0: bccd c13c 5b76 5d3d 903f 11be 008c ab3d
000000b0: 77d1 cbbd eab5 503d 9c7f 4d3e 117b 3b3f
000000c0: f8af bbbe 49c3 653e 3d1b a6be 04fd 353f
000000d0: 405b ea3e 10eb 76be 5aa2 cf3e a76c e2be
000000e0: 5042 283e fae7 a0be ac9a c2be f97d 493f
000000f0: 874c 313f 35c7 053f 625d fdbd a586 ed3e
00000100: 7de9 f4be 0124 3c3e 54cc 3cbe 8358 08be
00000110: d478 53be bb17 da3d d28f 0b3e 9fcb 323f
00000120: 107d 093f ccd4 0bbf 7e3e 7d3e 4c46 673e
00000130: fa63 67be 41b8 2d3e 984e 083f abd2 3c3e
00000140: 449d c83e 3197 9fbe 4f15 923b cd46 6ebe
00000150: 7775 1a3f de48 63be f409 373f 4ca9 6b3d
00000160: 97ec f73e e504 9b3d 6954 a3be 1c99 3fbe
00000170: a41d babe 6799 cd3c bf9e 9b3e dc20 debe
00000180: f70a 11be 3458 34bf 1f19 a5be 5159 c13e
00000190: d6e3 933e cd7a 133d bb58 ad3d e29a 1dbe
000001a0: 91da 893f 8d10 753e 2659 e5bd 1b93 89bc
000001b0: 2ecb c7bd 6791 d43e 66b6 0a3e 0c87 8c3f
000001c0: da00 8a3e 4100 133f b3aa edbd 428c 2fbe
000001d0: 5a12 10bf ced0 0e3f cb0a 813e 8d82 593e
000001e0: 1f9d ed3e 2173 b33d 660a 893e ee9c 273d
000001f0: a27f 4b3e 789c 83be 7ccc 3bbe 97ac e93d

layers.1.weight f4 [128, 128]
0.30140954 0.268217 0.02490539 0.11589633 0.16639513 -0.069882736 -0.043372646 -0.19066526
-0.082868464 0.09565347 -0.044788916 -0.059707753 0.07734324 -0.047939144 -0.054418758 -0.086635426
-0.3075255 0.12315452 -0.12907113 0.024654048 -0.10867206 0.024615215 -0.32091042 -0.16729371
-0.07562842 -0.019406013 0.42344728 -0.09163192 0.082618915 -0.0812408 -0.103376806 -0.16369098
0.11086016 -0.0071208463 0.05070159 0.0026350515 -0.056570813 0.22835734 0.051428705 -0.14914602
-0.0064265607 0.048135225 -0.108365655 0.108588785 -0.09726931 -0.094250776 0.13503224 -0.0067029903
0.114906125 -0.00838309 0.042314045 -0.006230015 -0.13177003 0.037032593 0.16503166 -0.024057396
0.005592061 -0.05192438 -0.056542818 -0.108357586 0.020816023 -0.16697212 0.009086297 0.12263362
-0.115423605 -0.10813292 -0.13233688 0.030430073 0.032009963 -0.09397728 0.017534805 -0.08457692
0.005811314 0.24507262 -0.040359516 -0.042831074 0.014284572 0.08292101 0.1541257 0.3206078
-0.0060080094 -0.025046246 -0.09616995 -0.0661707 0.059657242 0.08264303 0.2631854 -0.099077545
-0.020574074 0.0029419598 0.026963547 -0.17307924 -0.2128863 0.05544127 0.19537096 0.00080139504
-0.054268755 0.03580315 -0.09876968 0.18319312 -0.07218491 -0.13922772 -0.03624379 -0.12516424
0.2654795 0.10261476 0.15847093 0.052975792 0.048816375 0.0871054 -0.16554406 0.16646916
0.076093294 0.29425853 -0.0741808 0.06920928 -0.037773214 0.12845398 0.15087177 0.059981212
-0.07133527 0.05163188 0.21162546 -0.03544834 -0.07861571 -0.0034220014 0.047683418 -0.01133717
0.09122778 0.06013592 0.035657443 0.0013576996 0.24382533 -0.06685081 0.02065608 -0.012953489
-0.02859902 0.07144239 -0.037136193 0.03442847 0.16543804 0.066926554 0.052881964 0.07115129
-0.04932918 0.046936043 -0.0418142 0.1244972 0.025406918 -0.03267767 -0.08004346 -0.08398785
0.018708209 0.13269444 -0.012651735 0.091198124 -0.04726121 0.14989589 0.052017663 0.06378856
0.009895417 -0.06534019 -0.104054034 -0.070241794 0.12739797 -0.009621128 -0.056613036 -0.12172414
0.04830784 -0.059938084 -0.037371285 -0.13781601 -0.09980913 -0.05313653 -0.07517427 0.0021384708
0.018360987 0.057011154 0.1694006 -0.2543258 -0.19523919 0.08258097 0.04524197 0.1574837
-0.017429125 -0.14166504 -0.02643178 -0.042847265 0.06489738 0.17517552 0.023025159 0.07774569
-0.0120912185 -0.12973604 0.006808946 -0.07105995 0.12751487 0.097489245 0.06244714 0.0024126158
0.023095995 0.11720522 -0.15670869 -0.06649825 -0.03556074 0.15179342 -0.042212684 0.073691964
-0.09408911 0.254046 0.00037261104 0.2002292 0.041783944 0.017975498 -0.03314859 0.025027733
0.15239832 -0.123724535 0.060628545 0.05310744 0.023143213 0.0291827 -0.074167095 0.06528258
-0.014771393 0.04734592 -0.15693925 -0.027146412 0.11580614 -0.29763305 -0.06766071 0.11868447
-0.13943833 0.20085646 0.086857595 0.0059128115 0.1393317 0.021474926 0.019549668 -0.14281213
0.07805753 -0.12080946 -0.066263914 -0.092049636 -0.1154901 -0.112311654 0.16523679 0.003641108
-0.06651826 -0.10135877 0.03143407 0.07011642 -0.047992937 -0.011722569 0.067285836 -0.025893431
00000000: 5a52 9a3e bd53 893e 6306 cc3c 0e5b ed3d
00000010: 7c63 2a3e ae1e 8fbd 84a7 31bd c13d 43be
00000020: f1b6 a9bd f7e5 c33d 9574 37bd 1e90 74bd
00000030: 2266 9e3d d65b 44bd 34e6 5ebd ea6d b1bd
00000040: fb73 9dbe 7038 fc3d 392b 04be 49f7 c93c
00000050: 758f debd d9a5 c93c 5f4e a4be 0b4f 2bbe
00000060: 13e3 9abd 5cf9 9ebc 15ce d83e 84a9 bbbd
00000070: 1b34 a93d 9461 a6bd 38b7 d3bd 9c9e 27be
00000080: a70a e33d fd55 e9bb 78ac 4f3d d4b0 2c3b
00000090: ccb6 67bd 82d6 693e e8a6 523d bcb9 18be
000000a0: e695 d2bb 7129 453d d0ee ddbd cc63 de3d
000000b0: 2235 c7bd 8d06 c1bd e445 0a3e c2a4 dbbb
000000c0: e753 eb3d 3a59 09bc 7e51 2d3d 2725 ccbb
000000d0: b9ee 06be 7daf 173d 0ffe 283e 0414 c5bc
000000e0: 9c3d b73b a9ae 54bd 7199 67bd 95ea ddbd
000000f0: 5d86 aa3c bdfa 2abe b1de 143c 5627 fb3d
00000100: 3663 ecbd cb74 ddbd 5283 07be 7d48 f93c
00000110: e11c 033d 2977 c0bd 27a5 8f3c aa36 adbd
00000120: d66c be3b 51f4 7a3e 0550 25bd a36f 2fbd
00000130: d609 6a3c 7ed2 a93d 21d3 1d3e b526 a43e
00000140: d6de c4bb c92d cdbc c0f4 c4bd 8184 87bd
00000150: 275b 743d c040 a93d 3dc0 863e 2be9 cabd
00000160: f68a a8bc e5cd 403b a8e2 dc3c af3b 31be
00000170: defe 59be 6316 633d 530f 483e b614 523a
00000180: ea48 5ebd 53a6 123d c247 cabd fa96 3b3e
00000190: afd5 93bd b691 0ebe 5e74 14bd 0e2b 00be
000001a0: eeec 873e b027 d23d 3446 223e 25fd 583d
000001b0: aef3 473d 5164 b23d 6284 29be e476 2a3e
000001c0: cdd6 9b3d 0ea9 963e 1aec 97bd 98bd 8d3d
000001d0: 16b8 1abd 7189 033e 217e 1a3e dcae 753d
000001e0: 3a18 92bd f37b 533d 58b4 583e 4732 11bd
000001f0: 4601 a1bd a843 60bb b04f 433d 8abf 39bc
00000200: a1d5 ba3d 1551 763d 8a0d 123d d7f4 b13a
00000210: 59ad 793e 14e9 88bd f136 a93c df3a 54bc
00000220: 7e48 eabc 6350 923d 1f1c 18bd de04 0d3d
00000230: 9768 293e ca10 893d c29a 583d c4b7 913d
00000240: 650d 4abd 0240 403d 5e45 2bbd 63f8 fe3d
00000250: 2b22 d03c 05d9 05bd d3ed a3bd d201 acbd
00000260: f541 993c 0de1 073e 3949 4fbc 15c6 ba3d
00000270: f894 41bd 4f7e 193e 7910 553d 94a3 823d
00000280: 6320 223c 14d1 85bd 481a d5bd eeda 8fbd
00000290: 9d74 023e f0a1 1dbc 12e3 67bd 824a f9bd
000002a0: 71de 453d a381 75bd a212 19bd a41f 0dbe
000002b0: bb68 ccbd b1a5 59bd f8f4 99bd 9625 0c3b
000002c0: c869 963c 8784 693d 5a77 2d3e fe36 82be
000002d0: c8ec 47be 3620 a93d a54f 393d 6843 213e
000002e0: 86c7 8ebc a410 11be 7687 d8bc 9d80 2fbd
000002f0: ebe8 843d 3661 333e 429f bc3c 2239 9f3d
00000300: 3f1a 46bc 86d9 04be 941d df3b e187 91bd
00000310: 4293 023e 71a8 c73d 93c8 7f3d fa1c 1e3b
00000320: d033 bd3c 4a09 f03d 3e78 20be 3c30 88bd
00000330: 23a8 11bd bc6f 1b3e 35e7 2cbd d0eb 963d
00000340: cbb1 c0bd 5112 823e 025b c339 e208 4d3e
00000350: a425 2b3d 5a41 933c d1c6 07bd f606 cd3c
00000360: 4e0e 1c3e 4a63 fdbd a355 783d 3087 593d
00000370: d696 bd3c 8f10 ef3c ebe4 97bd e0b2 853d
00000380: b603 72bc cced 413d afb4 20be 2762 debc
00000390: c52b ed3d 5c63 98be b391 8abd d810 f33d
000003a0: ecc8 0ebe 51ad 4d3e 65e2 b13d 42c0 c13b
000003b0: f8ac 0e3e 2fec af3c a026 a03c 583d 12be
000003c0: a0dc 9f3d f36a f7bd 60b5 87bd 8584 bcbd
000003d0: 1386 ecbd a703 e6bd d533 293e a89f 6e3b
000003e0: ba3a 88bd 3095 cfbd 03c1 003d 3399 8f3d
000003f0: 3e94 44bd 0510 40bc 28cd 893d 761e d4bc

layers.1.bias f4 [128]
0.22189236 -0.061003353 0.07911026 0.068344265 0.039853424 0.02922538 -0.39160946 0.019426571
0.010491058 -0.038033415 0.058422837 0.023383478 -0.00078686397 0.14683543 -0.032548502 -0.04649163
0.058458466 0.039179813 0.1076099 -0.071371965 0.24124245 -0.20481779 0.1273496 0.08040861
-0.26395383 0.016875079 -0.021849345 -0.2440578 0.066459544 0.10132761 0.012179794 0.06943896
-0.04065738 -0.24726929 0.057478026 -0.04905105 -0.0746148 0.21871655 0.1312552 -0.36324847
-0.41408435 -0.14126588 0.017801482 0.041956477 0.19579346 -0.06452309 0.09758143 0.055062458
0.03529068 -0.14231186 -0.054327335 0.032975867 0.029323714 0.032714818 0.014256278 -0.029604698
-0.23844378 0.048364207 -0.011970034 0.16335101 0.08062651 -0.053037167 0.05617173 -0.10316846
0.22785036 0.14026147 -0.41842723 0.039901998 0.09520547 0.13164307 -0.014797547 -0.0056046103
0.023434937 0.13225618 0.07753315 -0.018213315 -0.024903301 -0.049215104 0.033276156 0.17575148
0.25124696 0.04210045 0.10389958 0.10983418 0.076278694 -0.12479798 0.03687652 -0.017021658
0.1589628 -0.18168274 -0.027557567 -0.30027512 0.1267408 -0.09155885 -0.34619206 0.112398945
-0.057662796 -0.1129411 0.03374703 -0.14980681 -0.22842862 0.038828038 -0.05610977 0.008605057
-0.05971717 0.005912113 -0.14919496 -0.13580102 0.11694091 -0.046232212 0.00044447678 -0.15842435
0.10119354 -0.12733772 0.103580944 -0.3903138 -0.018194586 0.044283193 0.010761595 -0.616938
0.110347025 -0.03892782 -0.112799905 -0.114706494 0.061431013 0.0022294177 -0.42672154 0.09517597
00000000: c037 633e a7de 79bd 8f04 a23d 14f8 8b3d
00000010: 583d 233d 106a ef3c 0981 c8be 7924 9f3c
00000020: b0e2 2b3c edc8 1bbd c94c 6f3d b58e bf3c
00000030: 8c45 4eba 075c 163e 9451 05bd 026e 3ebd
00000040: 2572 6f3d 037b 203d 9462 dc3d 772b 92bd
00000050: 4308 773e c1bb 51be ef67 023e 45ad a43d
00000060: f524 87be 9b3d 8a3c 66fd b2bc 4aea 79be
00000070: f11b 883d da84 cf3d c28d 473c 0336 8e3d
00000080: 5a88 26bd 2934 7dbe 146e 6b3d c1e9 48bd
00000090: a5cf 98bd 3bf7 5f3e c367 063e b4fb b9be
000000a0: dd02 d4be 01a8 10be 6ad4 913c 8eda 2b3d
000000b0: 157e 483e af24 84bd c6d8 c73d 2c89 613d
000000c0: f68c 103d 33ba 11be 5786 5ebd b411 073d
000000d0: 4938 f03c f9ff 053d 2a93 693c 8d85 f2bc
000000e0: 9b2a 74be 8c19 463d f61d 44bc 7d45 273e
000000f0: 831f a53d 803d 59bd 5414 663d fc49 d3bd
00000100: 9b51 693e b4a0 0f3e 183c d6be 4770 233d
00000110: 16fb c23d 71cd 063e 6971 72bc e1a6 b7bb
00000120: a0fa bf3c 2a6e 073e b3c9 9e3d 1734 95bc
00000130: 0202 ccbc c795 49bd 944c 083d 32f8 333e
00000140: 71a3 803e 8571 2c3d 4ec9 d43d bef0 e03d
00000150: 0138 9c3d 1596 ffbd d50b 173d 0171 8bbc
00000160: 25c7 223e 0a0b 3abe 68c0 e1bc a9bd 99be
00000170: 57c8 013e 3583 bbbd 1640 b1be 6b31 e63d
00000180: d32f 6cbd aa4d e7bd 533a 0a3d f566 19be
00000190: 31e9 69be 260a 1f3d 5cd3 65bd 3afc 0c3c
000001a0: fe99 74bd 66ba c13b 90c6 18be 6c0f 0bbe
000001b0: b77e ef3d fd5d 3dbd aa08 e939 fe39 22be
000001c0: 8f3e cf3d d264 02be 3f22 d43d 36d7 c7be
000001d0: d00c 95bc 4b62 353d 6751 303c a6ef 1dbf
000001e0: 9ffd e13d c772 1fbd a303 e7bd 3deb eabd
000001f0: 169f 7b3d 6c1b 123b 3f7b dabe 9eeb c23d
