Gym-DDPG-solution/results/DDPG_HalfCheetah-v4_5500-eps0.5-t32-l0.0001-s1.pth (torch, 193979 bytes, 13 tensors)

layers.0.weight f4 [128, 23]
000000 6b 0c 06 3f 06 c6 87 be e4 f7 5a be da 32 69 be
       0.523627 -0.26518267 -0.21383625 -0.22773305
000010 93 3f 31 be c3 2d a6 3e 49 f3 77 bd c8 91 77 3c
       -0.17309408 0.32456788 -0.06053475 0.015110441
000020 65 42 62 3e 48 65 54 bd dd 7d b2 bb a8 5d 2a 3c
       0.2209564 -0.0518544 -0.005447133 0.010398306
000030 ca ce 2e 3d be ff 9d bb 94 38 98 bc 65 27 a8 ba
       0.04267768 -0.0048217466 -0.018581666 -0.0012829123
000040 41 cd d0 bb 75 e5 b7 3b 3a 2e a5 3c 9f 03 86 3c
       -0.0063721244 0.00561207 0.020163644 0.016359149
000050 e6 5a 2b bd 52 5d b8 3b 2f 04 b7 bc bf e1 17 3d
       -0.041834734 0.005626359 -0.022340862 0.037080523
000060 75 bd 8e be 96 9a c0 be 7b a8 08 be f1 a6 d4 bd
       -0.2787892 -0.3761794 -0.1334552 -0.10383404
000070 6c 30 39 be 80 0d a7 bc 63 7a 3d 3e b3 29 b7 be
       -0.18084878 -0.02039218 0.18503718 -0.35774
000080 3d d0 82 3d 8a 52 63 be f2 54 90 bd 06 12 14 bd
       0.063873746 -0.22199455 -0.07047452 -0.03615
000090 80 30 c2 ba 2c cd 4c bd 6d a2 89 bc 9d 9c 23 3c
       -0.001481548 -0.050000355 -0.016801083 0.00998607
0000a0 b8 0d 8d 3d 38 b8 ba bd 5f 69 96 3e c1 88 9b bd
       0.06887382 -0.09117168 0.29377267 -0.07594443
0000b0 f7 95 85 bd ff 75 61 3e 87 73 30 3e 4b a4 37 3d
       -0.06522744 0.22017668 0.1723157 0.044834416
0000c0 50 c2 ab be 3e 58 f6 bc a0 12 dd bd 08 73 df bd
       -0.33546686 -0.030071374 -0.10794568 -0.10910612
0000d0 a2 86 a5 3b cf 7e c0 3b e3 17 88 bd e9 3c 3d 3e
       0.00505145 0.0058744918 -0.06645181 0.18480267
0000e0 7c da 79 3c 96 2d 45 bc d4 f4 30 3c e2 45 7c bb
       0.015249845 -0.012034794 0.010800559 -0.0038493802
0000f0 2b 36 ae bc c3 c1 48 bc 9c 87 cf 3b d5 75 e2 3d
       -0.021266064 -0.012253228 0.0063333046 0.11057631
000100 35 45 8a be fe 19 61 bd fd c7 4e bd 56 99 90 bd
       -0.27005926 -0.05495643 -0.050483692 -0.070604965
000110 22 93 0f be 97 5e 32 bf 5a d8 0c 3e 18 1d 84 be
       -0.1402097 -0.6967558 0.13754407 -0.25803447
000120 4a 3f 93 be 5c a4 fe 3d 44 f1 94 3e 63 41 da 3b
       -0.28759223 0.12433693 0.2909032 0.0066606267
000130 bd 56 d5 3d 27 58 9a 3e c9 83 94 be 84 b3 19 bc
       0.10416935 0.3014538 -0.29006794 -0.009381179
000140 ac f8 1c bd 3b 15 86 bc c8 4d 3c bc a7 0c 30 bc
       -0.03832309 -0.016367545 -0.011493154 -0.010745204
000150 86 ef 01 bc b8 d7 43 3b a0 9c f5 be fb 1d 07 3e
       -0.007930642 0.0029883217 -0.47971058 0.1319503
000160 2b f8 fb bd a2 bd ae 3d 46 ff d0 3c 4b 18 8c bc
       -0.12303194 0.08532263 0.025512349 -0.017101428
000170 0d 92 93 3e 66 ab cc bd 70 9c 05 3f 46 29 c8 3e
       0.28822365 -0.09993629 0.5219183 0.3909399
000180 40 6f 45 3e 99 70 99 be 1b 03 f2 3d d1 36 88 bd
       0.1928072 -0.29968718 0.118169986 -0.066510804
000190 a0 c5 c6 3e aa 75 93 3e 42 ff 94 3e 43 54 9f 3d
       0.3882265 0.28800708 0.29100996 0.077797435
0001a0 51 d5 71 3d 82 9d fc 3b 8c fe 80 3d 90 10 9c 3c
       0.059041325 0.007709206 0.06298551 0.019050866
0001b0 c7 60 11 bb f8 8c 1f 3e 8a ad e9 bc 2c 49 88 3d
       -0.0022182928 0.15581119 -0.028525133 0.066545814
0001c0 6b fd d6 3e e2 e2 81 3b d0 3d 2d 3d 29 55 2a 3f
       0.41990218 0.003963814 0.042295277 0.66536194
0001d0 70 fd 64 3d 93 f0 5e 3e 88 7d 84 3c ff c9 2e be
       0.05590576 0.2177146 0.01617314 -0.17069243
0001e0 50 ae 0e bc 88 22 da 3b 1e cd 46 3e 58 c3 c1 be
       -0.0087085515 0.0066569485 0.19414183 -0.37844348
0001f0 3d 34 ea 3d b1 28 94 3d 2f 45 4f bd 84 8a 21 bd
       0.11435745 0.07234324 -0.050603088 -0.03943874
000200 4e 7f d0 3b ce 16 f8 3c 85 eb 65 3d 2f e2 ce bb
       0.006362832 0.030284312 0.056132812 -0.0063135843
000210 21 97 25 3e 61 64 94 bd 60 a8 20 3d 48 86 f6 3e
       0.16170932 -0.07245708 0.039223075 0.48149323
000220 11 5e c9 3d 1e f3 f0 bc b7 b3 01 bd e8 d4 8c be
       0.09832395 -0.029412802 -0.03166553 -0.27506185
000230 71 ef 82 be 43 6b 37 3e 58 2e 28 3e e7 97 1b 3f
       -0.25573304 0.17912011 0.16423929 0.6077866
000240 ff da 31 3f 55 ea 89 3e 18 e9 df 3d c3 da a6 bd
       0.69474787 0.26936594 0.10933131 -0.08147194
000250 08 bc 3a be 09 5a 15 3d a9 7f cd bb 4c 20 5b 3c
       -0.1823579 0.036462817 -0.006271322 0.013374399
000260 e7 39 e2 bc 37 da 4b 3d d1 f0 95 3c 46 86 d1 bd
       -0.0276155 0.049768653 0.018303307 -0.10230689
000270 c0 58 4f 3d 5f c6 b1 bd e5 3d 4e 3e ce c7 14 3e
       0.050621748 -0.086804144 0.20140798 0.14529344
000280 31 d5 bf 3c 9d 79 a9 3e 81 0e cc 3c 8b e4 8a 3e
       0.023417087 0.33100596 0.02490926 0.2712749
000290 81 25 11 be 1f c3 5b 3e 56 24 b5 bd 53 42 31 bd
       -0.14174463 0.21461152 -0.08844821 -0.043276142
0002a0 18 46 4a be c5 ce 96 bc c4 47 ec bd 03 36 4c 3e
       -0.19753301 -0.018409142 -0.11537126 0.19942479
0002b0 e9 ae 51 3d 1b 74 30 3d 3e 17 9f ba 5b 64 24 3e
       0.051192198 0.043079477 -0.0012137664 0.16053908
0002c0 15 d0 73 3d 24 52 37 3c 9b 54 6c be c2 62 1f 3e
       0.059524614 0.011189017 -0.2307915 0.15565017
0002d0 27 06 1a be 17 41 8d 3d 22 ce b7 bd ec 1b b9 bd
       -0.1504141 0.068971805 -0.089748636 -0.09038529
0002e0 8f 5d 9b be 18 38 76 3f 4b 10 ec be ef 25 fb be
       -0.30344817 0.9617934 -0.4610618 -0.4905238
0002f0 61 8e 5f be 56 e3 ed be a2 14 d2 bd b0 4e 14 be
       -0.21831657 -0.46462506 -0.10257842 -0.14483142
000300 25 37 6d 3b ca 93 ce 3e ad be 3d 3e 50 24 a4 bd
       0.0036196199 0.4034713 0.18529768 -0.080147386
000310 0d e2 3a 3d c5 d9 5e bd 10 99 48 3d 5e 0e a5 3c
       0.045625735 -0.0544069 0.048974097 0.020148452
000320 52 ab af 3c b0 76 b4 bd 99 a5 13 bd f3 8c e3 bd
       0.021443997 -0.088117 -0.036046598 -0.11110868
000330 3c 25 48 be a0 4b b0 bd 56 33 f9 bd 6c b4 29 3f
       -0.19545454 -0.08608174 -0.12167995 0.66290927
000340 f2 bb 06 3d 65 45 93 3c a1 1f 06 3f 06 df 71 3d
       0.032894082 0.017977426 0.5239201 0.059050582
000350 90 40 4c bf bb 99 6d bd 28 8a 8e 3d 68 cf 8e 3e
       -0.79786015 -0.058007937 0.06959945 0.27892613
000360 05 89 5a 3f 36 b1 b8 be da 5a 50 bd 41 cb 88 3d
       0.85365325 -0.360727 -0.050867893 0.066793926
000370 b7 54 3b bc f8 be 35 3d d2 12 d0 bc 8b 57 5a bc
       -0.011433772 0.044371575 -0.0253996 -0.013326536
000380 8e bb 36 3d d3 f6 1f 3c db 2d 8e 3d 23 ba 2b 3e
       0.04461246 0.009763437 0.0694234 0.16770224
000390 9c 52 61 bc aa 03 de 3b e4 f2 9a be b9 c6 23 bf
       -0.013752606 0.006775339 -0.30263436 -0.639751
0003a0 6b 6e 06 3f ec a4 8e 3e 3c 92 81 be f0 e6 44 be
       0.52512234 0.278602 -0.2530688 -0.1922872
0003b0 5d 01 1d 3d 26 e8 d8 3d fe a2 ba 3e 9f fe fd be
       0.03833138 0.10591154 0.36452478 -0.49608323
0003c0 25 d9 bd be af d2 43 3d 71 2b 6b 3d 84 c9 9b bb
       -0.3707973 0.047808345 0.057414476 -0.004754247
0003d0 a4 08 0f bd 22 f8 19 3c 77 5a 3b 3b 44 23 4b bd
       -0.03492035 0.009397538 0.0028587857 -0.04959418
0003e0 5e 7a fc 3c 43 0e 85 3c 19 d7 0f 3e 63 01 2b 3d
       0.030820068 0.016242152 0.14046897 0.04174937
0003f0 5e 26 0c bc 22 bc 19 3f d4 32 72 be 9c aa 19 bf
       -0.008554069 0.6005269 -0.23652202 -0.60025954

layers.0.bias f4 [128]
000000 f5 6c 0a 3d 85 58 36 bd 2a f6 e0 be a0 32 5a be
       0.033795316 -0.044518013 -0.43937808 -0.21308374
000010 6e 12 8c be a4 60 92 be cc ad 6f 3e 99 d4 d4 be
       -0.2735781 -0.28589356 0.23406142 -0.4156845
000020 07 20 c2 3d a0 12 c0 be a8 7a c1 bd a5 bc 64 be
       0.09478765 -0.3751421 -0.09447223 -0.22337587
000030 42 91 67 be aa ee ab be 90 3f 22 3e d6 5c 69 3e
       -0.22614005 -0.33580524 0.1584456 0.2278932
000040 b0 4c 96 3e a3 f0 d6 be 2e 9f c2 be b4 ac 77 bd
       0.29355383 -0.41980466 -0.3801207 -0.060467437
000050 f4 f1 99 3e fb b4 d4 3d 85 11 1b be 6b 54 93 be
       0.30067408 0.10386082 -0.15143402 -0.28775343
000060 1c 90 64 be 51 a3 50 be 38 34 08 be 8b 53 b7 3d
       -0.22320598 -0.203748 -0.1330117 0.089514814
000070 f7 7f 9f 3e c8 6c 2f 3d 12 3a f4 3d 79 80 51 be
       0.31152317 0.04282835 0.119251385 -0.20459165
000080 86 66 93 3c 3d 8d 82 3c 16 ef a7 be fe cf 8e bc
       0.017993223 0.015936488 -0.32799596 -0.017433163
000090 3e 4c ab be 86 59 a8 3e f7 7c 6f 3e 4c 3e 03 be
       -0.33456606 0.328808 0.23387514 -0.12816733
0000a0 1a b0 6b be 29 b3 75 bd 5d 74 65 bd 00 55 ae be
       -0.23016396 -0.059985314 -0.056019176 -0.34049225
0000b0 82 5f c2 bd 38 0a a9 bd 23 85 52 be 12 a0 b8 be
       -0.09490873 -0.08253902 -0.205586 -0.36059624
0000c0 f9 24 94 3c 0a 3f c4 3e f7 19 bd be db 7b d7 be
       0.018084036 0.38329345 -0.36933872 -0.42086682
0000d0 5f ad be 3e e1 06 28 bc 7f 47 04 3f 9c db 97 be
       0.37241647 -0.010255546 0.51671594 -0.29659736
0000e0 ee 24 54 bc 31 9f b8 bd 5e 8f b3 3e 01 f2 a2 3e
       -0.012948258 -0.09014738 0.35070318 0.3182526
0000f0 42 9f 7b be 9f 6d 32 3e 98 e9 1f bf 82 45 e6 3d
       -0.24572471 0.1742463 -0.6246581 0.11243726
000100 d1 f3 80 be c4 5e c8 3e d6 58 41 be 0e 31 28 be
       -0.25186017 0.391348 -0.18881544 -0.16424963
000110 47 0d 91 be 8b 1c d0 be 2e fb 5e 3d 93 1e 26 3e
       -0.28330442 -0.40646777 0.054438762 0.162226
000120 2c 1c ce 3e 81 31 a9 be 65 66 48 be d6 dc 38 be
       0.40255868 -0.3304558 -0.1957031 -0.18052992
000130 1d 8a 4f be d6 58 c1 bd 45 f2 02 3e da 0b 7c be
       -0.2026753 -0.09440772 0.12787731 -0.24613896
000140 fe 4a 3e 3e 69 7a f9 bd df 53 b4 3e 94 9c 69 3e
       0.18583295 -0.12181551 0.3522024 0.22813636
000150 e3 57 25 3c 2f 54 51 be 16 93 ea bd 6c e7 85 3e
       0.010091755 -0.2044227 -0.11453836 0.26153123
000160 26 b1 97 3e 62 b3 31 bd 24 d6 4d 3e 18 db 07 3d
       0.2962734 -0.043383963 0.2010122 0.03316793
000170 27 a4 20 be 06 4b eb be 2d 37 0c be 9e 5f da bc
       -0.15687619 -0.45955676 -0.13692923 -0.026656922
000180 d4 8a 2d be fd 59 3a 3e 83 f4 34 be a0 a9 8e 3e
       -0.1694749 0.1819839 -0.17671399 0.2786379
000190 ba f1 e4 bc c5 9b 47 be fe 57 b6 be a5 96 af 3e
       -0.027947295 -0.19493015 -0.35614008 0.3429462
0001a0 e7 9d ba 3e 1a c5 66 3d c2 25 77 bd c5 57 54 3e
       0.36448595 0.056340314 -0.060338743 0.20736606
0001b0 ee 5a 98 bd a6 b6 f9 bd ec 2e 81 3e 11 35 0b 3f
       -0.074392185 -0.121930405 0.2523111 0.5437785
0001c0 eb c3 f2 3c 76 49 1c bd f4 f3 87 3e aa 42 09 bf
       0.029634437 -0.038155995 0.2655331 -0.53617346
0001d0 2d f6 7f 3e e9 24 ba 3e 1b e9 0e 3b 64 e7 9a 3e
       0.24996252 0.36356285 0.0021806422 0.30254662
0001e0 80 4b 6c 3e a9 ee 0f bd a9 63 d5 3d 2d f4 f4 3e
       0.23075676 -0.035139713 0.10419399 0.4784254
0001f0 42 0a 85 3e fd ee ab be 82 8f b5 3e 54 f0 8c be
       0.2598439 -0.3358077 0.3546105 -0.27527106

layers.1.weight f4 [128, 128]
000000 0b ec 27 3e 98 4b c9 bd 8b 9f e4 bd 63 3e 94 3d
       0.16398637 -0.098288715 -0.11163243 0.07238462
000010 c4 15 51 3d 28 d6 c3 3d ce cb 88 3c 6a e5 96 3d
       0.051046148 0.095623314 0.016698744 0.07367976
000020 d4 2b df 3c 85 a8 06 3e 1b d1 da bd ba ef 4b bd
       0.027242579 0.13150223 -0.10684415 -0.049789168
000030 41 17 11 3e a0 03 92 bd dc cf 6b 3d 7a c3 8f 3d
       0.14169027 -0.07129598 0.057571277 0.07019706
000040 46 58 07 3d 2d 0e aa bd 38 99 00 bd 22 01 8d 3d
       0.03304317 -0.08303485 -0.03139612 0.06884982
000050 21 eb 3c 3d d8 b6 83 bc d8 45 58 3d a8 30 8c 3c
       0.046122674 -0.016078398 0.052800983 0.017113045
000060 94 d1 9a 3d 9f 23 c4 bd 55 0a 4b be d3 95 39 3d
       0.07559505 -0.09577107 -0.1982816 0.0453089
000070 5e 04 1b 3c 0a 3c a8 bd b3 2d 1d bd 02 59 76 3d
       0.00946149 -0.082145765 -0.03837366 0.06014348
000080 f6 c6 7a bd 90 46 08 3e c7 6b e4 3d 41 89 bf bd
       -0.0612249 0.13308167 0.111533694 -0.09352351
000090 5a bc 5f 3c f2 a8 e0 3c b3 f7 c1 bb 1d a8 cd 3c
       0.013655746 0.02742431 -0.0059194206 0.025104577
0000a0 1b 03 49 3d 98 29 1d 3d 88 83 3c 3d 51 9e c7 3d
       0.049075227 0.038369745 0.046023875 0.09746993
0000b0 b0 cd 90 bd 19 80 08 bd c6 ed a1 3d 5d bf d3 3c
       -0.07070482 -0.03332529 0.0790668 0.025848085
0000c0 7b 43 db bc ad 7b 30 bd ea 0e 5d bc 30 dc 5f 3d
       -0.026765576 -0.043086696 -0.013492325 0.054653347
0000d0 47 95 e2 3d c4 44 bc bd ef 3a 2f bd 9c 0b 9c bd
       0.11063629 -0.091928035 -0.042780813 -0.07619402
0000e0 0d cf 06 be 2a b4 16 3e 29 4c ab 3c be 04 59 bd
       -0.13164921 0.14717165 0.02091034 -0.052983038
0000f0 77 56 46 bd 09 11 40 3e 97 a4 bf 3d 2a 0b a6 3c
       -0.048422303 0.18756498 0.09357565 0.020268995
000100 68 8b 1c bc 0c 3a 6f bd 3f dd 9d 3d e6 14 13 bd
       -0.009554721 -0.058404967 0.07708215 -0.035908602
000110 0e 73 09 3d aa d8 3c 3d fe 19 8f bc db 0e f9 3d
       0.03355699 0.046105064 -0.017468449 0.121610366
000120 54 c1 5f bd c7 a8 42 3c ef a2 fc 3c a5 47 75 bd
       -0.05462773 0.01188106 0.030839412 -0.05988278
000130 c9 4f 51 be 7b 48 de bc e1 b3 2d 3d f9 90 28 3d
       -0.20440592 -0.02713417 0.042407874 0.04115388
000140 3d 71 06 bc 4f cd ea 3d 83 7d 76 3d 53 4a 81 3d
       -0.008205709 0.11464941 0.06017829 0.06313004
000150 48 13 51 3c 6e 9f 22 3d c9 09 1b 3d 46 80 9b bd
       0.012760945 0.039702825 0.03785113 -0.075928256
000160 a7 2f fd bd 49 b4 41 bd 8c 1c 5d 3d 75 6f b5 3d
       -0.123626046 -0.047291074 0.053982303 0.08859149
000170 80 66 af bd 28 7d 3e 3b dc 68 e1 3d b8 0d 71 bc
       -0.08564472 0.0029066298 0.110063285 -0.014712743
000180 6f 4f cf bd 83 07 e1 bd bc 4d 45 bd 2a 58 f2 3b
       -0.10122573 -0.10987761 -0.048169836 0.007395764
000190 e0 39 b0 bd cb 63 bb bb 76 a8 9d bd 8f f8 32 3e
       -0.08604789 -0.0057186834 -0.07698147 0.1747763
0001a0 19 0b bc bd 8e 0b d8 3d bd c1 0c 3e 39 66 c5 3c
       -0.09181804 0.10549079 0.1374578 0.024096595
0001b0 33 d3 10 be 8d 0f 91 bc 24 1e ed 3c ac 3e e9 bd
       -0.14143066 -0.01770761 0.028945036 -0.11388907
0001c0 52 04 c2 bc 83 53 38 bd e0 00 c5 3c b1 c9 86 3d
       -0.0236837 -0.045001518 0.024048269 0.06581438
0001d0 e1 47 9f bc 8c 6a 0e 3d 17 de 5b 3c 8c 37 ef 3d
       -0.019443454 0.03476958 0.01341965 0.116805166
0001e0 f9 a5 b5 3d dc 34 61 bb 47 b6 02 bd 82 7a 23 3c
       0.088695474 -0.0034363782 -0.031912114 0.009977939
0001f0 81 9e 7d bc 54 4e 8e 3d 83 0f 9b 3d 62 14 60 3d
       -0.015479685 0.06948534 0.07571318 0.05470694
000200 1e 3c 64 bd 11 8c d7 3d ed 1d 24 3e b1 f3 ce bd
       -0.055721395 0.105247624 0.16027041 -0.10105074
000210 5c f9 df bc 9e bc 88 3d 72 a7 53 3c 06 2e c7 3d
       -0.027340584 0.06676601 0.01291834 0.09725575
000220 1d 32 fa bd 27 8d 1d 3e 4a 3d 3e 3c b4 ad bf 3d
       -0.122165896 0.15385877 0.011611292 0.09359303
000230 8d 61 29 bd 0f af ca bd 56 13 c4 bb aa 1d 75 bd
       -0.041352797 -0.09896671 -0.0059837503 -0.059842743
000240 71 cf 82 3c ff 19 25 3d 0c 5a c5 3d 75 9e 92 bd
       0.015968056 0.040307995 0.09636316 -0.071591295
000250 98 66 e1 bc b6 62 c1 3d 49 9b 87 bd db 58 b9 bd
       -0.02751474 0.09442656 -0.06621415 -0.09050151
000260 98 05 d1 3d be 20 9b 3c 6a f1 23 bb 0c 2c 04 be
       0.10206145 0.018936511 -0.002501572 -0.12907428
000270 2d a3 8e bc 72 9b 90 bd fa 45 59 3d 32 f1 23 3e
       -0.017411793 -0.07060899 0.05304525 0.16009977
000280 06 24 af 3d 38 6b 37 3c 8e 8c 96 3d a7 91 bb bd
       0.08551793 0.011194997 0.073510274 -0.0915864
000290 28 7d 07 bc 9d 9e d4 3d 1f 3c 7f 3a d6 33 7c bc
       -0.008269586 0.103818156 0.0009736437 -0.015393218
0002a0 18 bf 71 bb 52 87 dc 3c f8 5e 44 3d 58 3b aa 3d
       -0.0036887582 0.026919995 0.04794213 0.083121
0002b0 00 34 03 be 6f 25 f0 3d be 1d ef bd 95 46 37 bc
       -0.12812805 0.1172589 -0.11675595 -0.011186262
0002c0 9b 0b bf bd f6 69 6f bd 74 bc 47 bd 16 20 12 3c
       -0.093283854 -0.05845066 -0.048763707 0.008918783
0002d0 3c b8 0a 3e 51 5a 6b be ae 65 73 bd 06 56 a4 3d
       0.13546842 -0.22983672 -0.05942314 0.0802422
0002e0 21 4e 1e bc c2 6e 9f bc 5e 27 72 bd db 68 f9 3d
       -0.009662182 -0.019461993 -0.059119575 0.12178203
0002f0 5b 75 60 3d e3 38 43 3c 5f d5 4c bc 72 55 dd bc
       0.05479942 0.011915418 -0.0125020435 -0.027018283
000300 9e 38 da 3d 6e e9 01 be 56 ce 4d bd 35 60 87 bd
       0.1065533 -0.12686703 -0.050245605 -0.06610147
000310 43 87 89 3d 35 fe 05 be 0a ce 76 bc 02 ac 13 bc
       0.06715252 -0.13085254 -0.015063772 -0.009013178
000320 87 d7 50 bc 22 f6 c3 bd c4 fb 5c 3d e9 85 cc 3c
       -0.012746698 -0.095684305 0.05395104 0.024966197
000330 35 eb 04 3e 13 ba a6 bd 6a 05 d0 bd c5 27 43 3d
       0.1298035 -0.081409596 -0.10157283 0.04764535
000340 e1 2a 9c 3d eb 58 30 3a 06 67 9f bd 6a 06 67 bc
       0.07625366 0.0006727117 -0.07783322 -0.01410065
000350 46 d2 00 3e b5 a9 d5 3d c2 9c 7f bb 4b d4 60 bd
       0.12580213 0.1043276 -0.0039003347 -0.05488996
000360 b8 93 05 bc d9 78 21 3d a6 64 66 bc e5 82 4d 3d
       -0.008152895 0.03942189 -0.014062082 0.05017366
000370 75 89 34 3c be 2c ee 3c 63 90 fe ba d7 ef 21 3c
       0.0110191 0.02907407 -0.0019421693 0.009883842
000380 85 84 4f 3d 47 f5 2d be 9e 5e 89 bc ed a9 d9 3d
       0.05066349 -0.16988097 -0.01676875 0.10628114
000390 5b b7 2a 3c 0c 8f 50 3e d6 1d 0e be f6 1b 12 3d
       0.010419692 0.20367068 -0.13878569 0.035671197
0003a0 49 0d ca bd 82 6d 1b bb bb 36 5f bc f5 ad 75 bd
       -0.09865815 -0.0023716395 -0.013623889 -0.05998035
0003b0 2d 1c d7 bd cf e8 6d 3d 01 dc d8 bd bf 1f 90 3d
       -0.10503421 0.05808335 -0.105888374 0.07037305
0003c0 8a 15 67 3b c0 4d 83 bd bb 8d 5c bd ff 6d b6 3c
       0.003526064 -0.06411314 -0.053846102 0.022269247
0003d0 45 ae 82 bd a6 14 6a 3d 27 41 4d bd 60 56 80 bd
       -0.063808955 0.057148598 -0.050110962 -0.06266475
0003e0 84 41 85 3d 15 b4 31 bd 18 b7 ff bd 7d 17 9c 3c
       0.06506637 -0.04338463 -0.12486094 0.019054169
0003f0 8a 5e 5c bd 2a 1c e9 bd 0a 2a 1a bd f4 f8 71 3d
       -0.053801097 -0.11382325 -0.037637748 0.05907531

layers.1.bias f4 [128]
000000 38 3c da bd 0a 25 e3 bd a3 0f dd 3c 5f bd b9 bd
       -0.10656017 -0.11091049 0.026984995 -0.09069323
000010 ba 82 ad 3a 05 97 1b bd ae 56 1c 3e cb 0b 76 3d
       0.0013237812 -0.03798582 0.1526744 0.06006984
000020 b3 b3 af bd fb ab be bd 25 89 ad 3d f8 bc e2 bd
       -0.08579197 -0.093101464 0.08473424 -0.11071199
000030 18 cd 2f 3d 9a 71 52 bd 16 13 83 3d 53 e6 b3 3d
       0.042920202 -0.05137787 0.06400125 0.08784165
000040 da 5c d2 bd 5e 60 b1 bd e8 17 3d bd 29 56 8e 39
       -0.10271616 -0.08660959 -0.046165377 0.00027148545
000050 27 d4 c7 3c dd 89 a6 bc f0 3d 88 bb be 26 2c bd
       0.024393154 -0.02032941 -0.004157774 -0.042029135
000060 e8 f8 02 3e f8 72 ee 3d fa 3c 13 be 60 ed 56 be
       0.12790263 0.11643022 -0.1437873 -0.20988989
000070 cc d1 13 bc b0 85 5d bc 15 b2 e2 bd f6 09 4c 3d
       -0.009022187 -0.013520643 -0.11069123 0.049814187
000080 1c 7d a6 3c 0f 4c af 3d 77 36 88 3d 0f c5 d1 3d
       0.020323329 0.08559429 0.06651013 0.10242664
000090 a4 07 6a bc 86 45 1c be 20 0b 3d bc 90 21 1d 3e
       -0.014284048 -0.15260896 -0.011538297 0.15344834
0000a0 68 ad 3d bd 27 ef 01 3d 3c 96 9f 3c cf dd 1b bd
       -0.04630795 0.031722214 0.019480817 -0.03805333
0000b0 17 67 a4 bd f7 c3 2e bd 5c c2 8b 3b cf 6b 20 be
       -0.08027475 -0.042667355 0.004265113 -0.15666126
0000c0 25 11 ec bd c0 f7 09 bd 4d b5 7a bd ab a6 c4 bd
       -0.115267076 -0.03368354 -0.06120806 -0.09602102
0000d0 70 1e f9 bc 1a 74 e8 bd a4 e9 86 3d ba be af bd
       -0.030410022 -0.113502696 0.06587532 -0.085813
0000e0 50 9e c4 3d 70 bf 8a bd b4 0e 57 3d 5b 34 f2 bd
       0.09600508 -0.06774795 0.052504256 -0.11826392
0000f0 5f 36 10 be 82 d7 99 3d 04 2b 2d be 23 df 30 be
       -0.14083241 0.07511808 -0.1691094 -0.1727262
000100 fa 5e 1d be fa 86 80 3c 52 d2 a4 3d 18 69 dd 3d
       -0.15368262 0.015689362 0.08047928 0.10811061
000110 65 80 cb bd 8e d7 1d 3d 18 cb ce bd 1d fa 53 bd
       -0.09936599 0.038535647 -0.10097331 -0.0517522
000120 d2 b8 5f 3d 91 18 03 3e e5 43 e8 bd 10 30 3a be
       0.054619618 0.1280234 -0.11341075 -0.18182397
000130 9f 02 2b be 27 3c 8b ba 0d eb d5 bb 63 86 ba bd
       -0.16700219 -0.0010622785 -0.0065282644 -0.091076635
000140 32 88 5c 3d c2 34 8f 3d 53 da 1b 3e 2b 74 5a 3e
       0.053840823 0.06992485 0.15220003 0.21333377
000150 48 4f 35 3c 4c 22 2b bd 35 9c 2e bd e5 64 9e bd
       0.011066265 -0.041780755 -0.04262944 -0.07734088
000160 ae 26 95 bd 37 91 f7 3d bc 4f ed bd fe 25 12 3d
       -0.07282768 0.120882444 -0.11587474 0.035680763
000170 32 2e a5 3d 7f 48 8f 3c 4a 33 a1 bd 35 c1 ee 3d
       0.08065452 0.017490624 -0.07871111 0.11657945
000180 2d 20 9b bd 89 d1 fd bd 08 16 7a be ec 36 0a be
       -0.075744964 -0.12393481 -0.24422467 -0.13497514
000190 2c 62 e6 bc cd e4 2b 3d 4a a9 31 bd 81 76 41 bd
       -0.028122984 0.04196625 -0.043374337 -0.047232155
0001a0 bd d2 e3 3d 86 c6 a4 3c b6 d3 c7 bd 5e 8d ca bd
       0.111241795 0.020114195 -0.097571775 -0.09890245
0001b0 eb 79 55 bd 41 2c f4 bc 40 96 45 3c 61 ef 81 3d
       -0.052118223 -0.029806258 0.012059748 0.06344486
0001c0 10 f5 32 3d 36 a2 66 3d d0 d6 f5 3d 60 3a 2b bd
       0.04369074 0.05630704 0.12003863 -0.041803718
0001d0 f3 5e 8f bd b6 ea b9 bd a2 22 2b be 9b 02 08 bd
       -0.07000532 -0.09077971 -0.1671243 -0.03320561
0001e0 45 ee 32 bd 16 e8 88 bd c3 c6 50 3e 4b 0a 36 3e
       -0.043684263 -0.06684892 0.20388322 0.17777364
0001f0 ba 52 d9 bd ca 91 07 be e6 8d 70 3d d7 0f 85 bd
       -0.10611482 -0.13239208 0.058729075 -0.06497162

layers.2.weight f4 [64, 128]
000000 57 4e f4 3d 1e 7a c5 3c 56 8e d4 bd 72 fa e0 3d
       0.11929005 0.024106082 -0.10378711 0.10985269
000010 7d 28 11 bd f5 d9 cc bd 39 a3 e1 3d 5b fb 4d 3d
       -0.035439003 -0.100025095 0.110174604 0.05028854
000020 a3 3d 00 3d 09 14 1e 3e 24 9b 12 3e 03 7b 38 3e
       0.03130878 0.1543733 0.14316994 0.18015675
000030 71 9c 53 3d 80 05 90 bd 27 30 85 3d f2 5d eb bb
       0.051662866 -0.07032299 0.06503325 -0.00718283
000040 ae 13 62 bd 2e 94 23 3e 1d 07 7a 3e 2f 2e b4 3c
       -0.05519455 0.15974495 0.24416776 0.021994678
000050 56 02 80 3d 80 09 bf 3d 92 58 0d 3c b7 11 a1 3b
       0.062504455 0.09327984 0.008627074 0.004915442
000060 01 a1 7b 3d 37 f9 00 be c4 e0 9b 3b 1c e0 a5 bc
       0.061432842 -0.12595068 0.0047570188 -0.020248465
000070 f0 26 bc bd 70 08 89 bd 7b 4b 98 3d ce e8 2d bd
       -0.09187114 -0.066910625 0.07436272 -0.042458348
000080 f0 43 c2 bd 9e 71 25 3e 41 e3 db 3d 92 bc 6c be
       -0.09485614 0.16156623 0.107367046 -0.23118809
000090 89 a0 53 3e 0b 87 fc 3c c6 b5 10 3e 77 82 dc 3d
       0.20666708 0.030826112 0.14131841 0.10767072
0000a0 36 cb 4b be 18 34 18 3e 00 8c 25 bb 55 af de 3c
       -0.19901738 0.14863622 -0.0025260448 0.027183214
0000b0 fb 20 a2 3d 40 45 fd 3d 04 66 b6 3d 21 97 f9 3c
       0.07916447 0.12366724 0.08906177 0.030467572
0000c0 b0 e4 1b be 7a 8a 48 3d cb 81 9b 3e 45 4d 39 3d
       -0.15223956 0.048960187 0.30372462 0.045239706
0000d0 42 45 d7 bd 7a 31 6e bb b4 6c fe 3d 67 f2 c4 3d
       -0.10511257 -0.0036345408 0.12423077 0.09616547
0000e0 2d 1d a7 3c c1 c5 ad 3d bf b4 cb 3d 58 91 2d bd
       0.020399654 0.08484984 0.09946584 -0.04237494
0000f0 58 69 6b 3d ef 21 95 bd 4a e1 bf bd ce 0a 86 3b
       0.05747351 -0.07281863 -0.09369142 0.0040906435
000100 71 69 11 3e 3c be b4 bd 7b c2 c4 3d c4 c7 b9 3d
       0.14200379 -0.08825347 0.09607407 0.090713054
000110 68 1b 67 3d db dd 7e be 16 41 60 bc c6 d0 9e 3d
       0.05642262 -0.24889319 -0.013687393 0.07754664
000120 84 3a f8 3d 6b 69 3e bc 0f 68 62 3e d8 81 b6 3c
       0.12120536 -0.011621813 0.22110008 0.022278711
000130 21 72 04 bd 6a 4c 17 3d 10 c5 df 3d c7 e8 d9 bd
       -0.032335404 0.03693811 0.109262586 -0.10640102
000140 00 a4 07 3d a5 16 5d 3d da 14 ad bc 83 b3 87 bd
       0.033115387 0.053976674 -0.021128107 -0.06626036
000150 9d 76 e4 3d bc d1 fd 3c dc 79 31 3d ec 4f c8 3d
       0.11155436 0.030983798 0.043329105 0.09780869
000160 01 ea 00 3d 1c ed 46 be 47 2c e1 3c 7e 5e 7c 3d
       0.031473164 -0.19426388 0.027486933 0.061613552
000170 20 be 30 bd 33 c4 f7 3d 56 d6 41 bd a2 a4 aa 3d
       -0.043150067 0.12097969 -0.047323547 0.083321825
000180 39 57 ee bd f1 e2 50 3d ba 4f bf bc 47 0c 78 3e
       -0.1163773 0.05099768 -0.023353446 0.24223433
000190 7a 57 14 be 13 52 0c 3c c3 a2 48 3e ba f0 3c 3c
       -0.14486495 0.00856449 0.19593339 0.011532003
0001a0 ff 00 ec 3d 64 3f 39 3c 4f a9 09 be 20 54 33 3b
       0.115236275 0.011306617 -0.13443492 0.0027363375
0001b0 48 43 fc 3d 78 ec 1f 3e a2 78 56 3c 91 c1 7a 3c
       0.123175204 0.1561755 0.013090285 0.015304939
0001c0 5d 64 95 bd ab c6 39 bb 53 12 72 3c e3 d7 b4 3d
       -0.072945334 -0.0028347175 0.014774877 0.088302396
0001d0 10 2e cf 3d b3 d0 d2 bd dc b8 bc bd 17 c9 ef 3c
       0.101162076 -0.102937125 -0.09214947 0.029270692
0001e0 87 20 ca 3d 19 14 0c 3d 59 e1 40 3b c6 fe a2 bd
       0.09869485 0.034198854 0.0029431193 -0.079587504
0001f0 9d b2 e6 3c 5f 11 6f 3d b4 56 b0 bd 80 24 08 3e
       0.028161341 0.058366176 -0.08610287 0.13295174
000200 fc de c3 bd aa b8 a3 3c fb 3a cc bc 86 d4 11 3e
       -0.09564015 0.019985516 -0.024930468 0.14241228
000210 63 5d b7 3b 22 0a 59 3d c3 6a 6a 3b ad 47 b2 bd
       0.0055958494 0.05298818 0.0035769201 -0.08705077
000220 4b d3 af bd 73 dc a9 bd 61 3e eb bb 2d b2 b4 3c
       -0.08585223 -0.082940005 -0.007179067 0.022057617
000230 ac 65 f6 bc 5d f6 69 be e2 39 86 bc 75 fc f2 bc
       -0.030077778 -0.22847886 -0.016385023 -0.029661397
000240 79 cb c7 bd 9f fd 07 be dd cd 2b bc ab f5 30 3d
       -0.09755606 -0.13280343 -0.010486093 0.043203037
000250 e8 e0 85 bd c1 1b 83 bc f6 1f a8 3c 79 02 b0 3b
       -0.06537038 -0.016004445 0.020523053 0.0053713885
000260 8d 60 cb 3c 87 eb 91 3d 1f 48 7e bd 0f 02 3c bd
       0.024826312 0.071250014 -0.0620805 -0.0459004
000270 56 a7 e4 bd 3b ac be bc 1d c5 07 3e 87 82 fd 3d
       -0.11164729 -0.023275485 0.13258786 0.12378412
000280 c8 06 48 3d b2 aa dd 3d 81 cd f4 3d 91 75 b0 3b
       0.048834592 0.10823573 0.11953259 0.0053851088
000290 2a a3 db 3c 75 77 3d 3b 87 f2 9a 3c f3 ec a1 3d
       0.026811201 0.0028910313 0.018914474 0.079065226
0002a0 fe ad be bd 8d 18 07 bd 9c d3 ed 3c 06 ae 37 3d
       -0.0931053 -0.032982398 0.029031567 0.044843696
0002b0 11 2e 4e 3d ad 8e c9 3d ae 98 cb bd 6e d7 de bd
       0.0503369 0.09841666 -0.09941231 -0.10880934
0002c0 c1 ee 03 3d cb 96 ec 3d 15 8c 81 bb 92 91 d9 3d
       0.032210115 0.11552199 -0.0039534667 0.106234685
0002d0 f4 51 cb 3c 58 53 eb bd 56 cb f9 bd c8 14 44 3d
       0.024819352 -0.11490506 -0.121969864 0.04787138
0002e0 8a df bc bc 17 46 72 3d fe 44 d3 bc 1c 5e ae bd
       -0.02305581 0.059148874 -0.025789734 -0.08514044
0002f0 ea 60 5d 3d e1 ec cc bc e8 60 0e bd 99 4a 92 bd
       0.054047503 -0.025015296 -0.034760386 -0.071431346
000300 5c 8b c8 3c 2e d4 f9 bb be 39 05 be 33 02 3c 3d
       0.024480514 -0.0076241707 -0.13010308 0.045900535
000310 01 57 3f 3d b4 64 c5 bd 34 87 74 bd 5f 6f e1 3c
       0.046713833 -0.09638348 -0.059699252 0.027518926
000320 49 c7 81 3d 91 51 4a 3d 2d 63 d5 3b bb 83 32 3d
       0.06336839 0.049394194 0.006512067 0.04358266
000330 2c 31 53 be d6 2d 13 3d f7 b5 b2 3d 3f f5 35 be
       -0.20624226 0.035932384 0.08726113 -0.17769335
000340 99 24 04 be 7d 50 8a 3d f4 ed 96 3d ad 59 02 bd
       -0.12904586 0.06753633 0.07369605 -0.031823803
000350 b4 8e af bd d8 7e e8 bd 40 d2 c1 bd 86 b1 2c 3e
       -0.0857214 -0.113523185 -0.0946393 0.16864595
000360 f3 49 04 bd 4e 74 75 bd a3 0d 2b 3d c6 8e b3 3d
       -0.032297086 -0.05992537 0.041761052 0.08767466
000370 0a 28 c2 bd 0a af 32 be af 7f 49 bc c9 70 3a 3e
       -0.09480293 -0.17449585 -0.012298509 0.18207087
000380 48 e8 a3 bd b4 ea 76 be 40 af 0f ba a6 27 f9 3d
       -0.080032885 -0.2411297 -0.00054811314 0.121657655
000390 92 8e 90 bc 01 30 e6 3d 88 5a 52 3d 6e a0 65 3e
       -0.017646108 0.11239625 0.05135587 0.2242448
0003a0 a7 f7 44 3e 95 f0 f2 3d ef d6 83 bd b3 11 0b 3d
       0.19235097 0.11862294 -0.0643748 0.033952426
0003b0 8c b8 43 be 8f 79 a1 3d 80 4b eb 3d 1b 09 88 bd
       -0.19113368 0.078845136 0.1148901 -0.06642362
0003c0 5c 93 7b bd 17 b8 fd 3d a3 54 15 bc b9 91 25 3e
       -0.06141983 0.12388628 -0.009114417 0.1616887
0003d0 0c b1 91 3d b0 57 45 3d 09 6d 22 3d 47 f7 6f bd
       0.07113847 0.04817933 0.039654765 -0.05858543
0003e0 88 5d 61 bd 3b e7 51 be 36 57 38 3d 38 dd a9 3c
       -0.05502084 -0.20498364 0.045005046 0.020735368
0003f0 43 fd 41 bd ae a5 c1 3c cb 0e 5d 3c b8 54 4a 3d
       -0.04736067 0.023638573 0.013492296 0.0493972

layers.2.bias f4 [64]
000000 43 0e 50 3d 00 b7 e5 bc 7b d6 9e 3b 74 0a 2b 3d
       0.05079485 -0.028041363 0.0048473454 0.041758016
000010 9e f4 17 bd d0 94 e4 3c c5 66 94 bd c8 33 ff 3b
       -0.03709852 0.02790299 -0.07246164 0.007788155
000020 5a cc 9e bd b5 42 1b bd d8 af 85 bc 97 04 83 bc
       -0.07753821 -0.037905414 -0.0163192 -0.0159934
000030 64 dd e0 bb d3 65 db bb a2 01 31 bd f6 7d 8a 3d
       -0.0068623293 -0.006695488 -0.043214448 0.067623064
000040 a9 49 37 bd 6e 62 46 3d 0b ca 67 3d 49 0e 3e bd
       -0.044747982 0.048433714 0.056589168 -0.046400342
000050 d7 af ed 3d 51 b1 6a 3d 24 b1 ad bd 18 b2 ca bd
       0.116058044 0.05729801 -0.084810525 -0.0989725
000060 a2 58 4b 3d 62 7f 11 bd 08 6a 38 bc ea 5e aa bc
       0.049645074 -0.035521872 -0.011255749 -0.020797212
000070 79 73 76 3d 5b 69 98 bd af 65 41 3d fc cf ac bd
       0.060168717 -0.0744197 0.047216114 -0.08438107
000080 49 c5 5d 3d dd 63 43 3d e2 55 a7 3d 62 34 2e 3c
       0.054143224 0.04770266 0.08170678 0.010632606
000090 59 65 a7 3d c2 9f 3f 3b f7 67 d0 bb 3d 99 79 3d
       0.081736274 0.002923951 -0.00636005 0.060937155
0000a0 45 7d 88 bd 0e b2 88 3d e7 e8 42 3d 5f d7 22 3c
       -0.06664518 0.06674586 0.047585394 0.009939044
0000b0 7d 28 c3 bd 7c 9e a5 bb 29 a9 c1 bd 10 c0 f1 bd
       -0.09529207 -0.005054293 -0.09456093 -0.11804211
0000c0 80 72 35 3d 6a e6 36 bd d3 96 9e ba 01 07 8d 3a
       0.04429865 -0.044653334 -0.0012099392 0.0010759534
0000d0 a2 0a 1d bd 89 d0 f9 3d aa bf 83 bd 07 1f b4 bd
       -0.03834022 0.12197978 -0.064330414 -0.087949805
0000e0 9d 89 3c 3c 49 79 cd bd fd 5e 1a bd 69 bb ca 3d
       0.011507419 -0.10032899 -0.037688244 0.09899027
0000f0 81 b8 c7 bd 45 b5 b6 bd 1a a9 bd bc c2 6f b4 bc
       -0.09751988 -0.08921293 -0.023151923 -0.022025947

readout.weight f4 [1, 64]
000000 97 98 cb be 1a a9 ce be 4a 85 8e be 55 d8 ed 3e
       -0.39764854 -0.4036339 -0.27836066 0.4645411
000010 0e 16 18 3f 1f 00 f7 3e 1c d6 0a bf ef 3b bc be
       0.5940865 0.4824228 -0.54232955 -0.36764476
000020 77 f5 ea 3e e7 9e f3 3e 57 1a de be a4 8c bc 3e
       0.458904 0.4758217 -0.4337947 0.3682605
000030 b3 1a 49 bd e3 3c b6 be bc 9a fa 3e 38 7c d1 be
       -0.049097728 -0.35593328 0.48946178 -0.40915084
000040 38 0b d0 be 69 fa 96 3e 95 fe c5 3e 28 9c 87 be
       -0.4063356 0.29487923 0.38670793 -0.26486325
000050 3e d5 ba be 7d 54 fb 3e 1e e3 cc 3e 5d 31 04 3f
       -0.36490816 0.49087897 0.40017027 0.5163782
000060 76 84 df be 9d c0 ef be f4 aa d8 be e5 64 04 3f
       -0.43655747 -0.4682664 -0.42317927 0.5171645
000070 97 84 c2 be 1f cf e9 3e 67 bc 93 3e 5a 94 57 be
       -0.37991783 0.45665833 0.28854677 -0.21052685
000080 47 15 fd be d2 00 ee 3e e3 d4 bb be 41 a6 e6 be
       -0.49430296 0.46485 -0.36685857 -0.45048717
000090 d6 1e c9 3d d0 62 1f bf d8 87 c7 be 0c c0 b7 3e
       0.098203346 -0.6226015 -0.38970828 0.35888708
0000a0 40 37 26 bf 22 bc 12 bf 27 28 8d bd 95 35 e8 be
       -0.64928055 -0.5731832 -0.06892424 -0.4535338
0000b0 8e 0d 30 3f d3 a2 0f 3f 4e c1 00 3f e5 ff 12 3f
       0.6877068 0.56107825 0.5029496 0.57421714
0000c0 15 cd 31 be 8b 9a e3 3e 68 df 06 3f ee 28 96 be
       -0.17363389 0.44453844 0.5268464 -0.29328102
0000d0 50 cb c7 be 9c 01 f1 be 5a 55 f6 be f8 bd b4 3e
       -0.39022303 -0.4707154 -0.48111993 0.35301185
0000e0 1a a4 10 be 43 22 c4 3e b9 7d 2f 3f e2 98 a3 3e
       -0.141251 0.3830739 0.6855121 0.31952578
0000f0 dd a2 c9 3d f3 ea 4a 3f 9b e9 12 be b0 46 14 3f
       0.09845517 0.79264754 -0.14346926 0.5792036

layers.0.weight f4 [128, 17]
000000 e0 35 8c 3d 58 17 6a 3e 13 b8 27 3f c4 5a e9 be
       0.06846213 0.22860467 0.6551525 -0.4557706
000010 ae d3 d7 bc 76 9b b5 3e cc 85 2d bd ad a6 80 bc
       -0.026346054 0.3547017 -0.042363927 -0.015704477
000020 da 16 26 3e 68 48 c3 be ec fc b6 3d 40 0a 37 3c
       0.16219655 -0.3814118 0.0893496 0.011171877
000030 00 9f 56 3d a7 df 20 bc 5d d9 6f bd 27 94 f4 bb
       0.052397728 -0.009818948 -0.058556903 -0.00746395
000040 0b 8f ca 3b aa 6c f2 be 2c f7 12 bf fb 49 fc bd
       0.006181603 -0.4734853 -0.57408404 -0.12318798
000050 b6 b1 2b 3f 83 1a 4c bb a8 52 38 bf 69 c9 15 bf
       0.6706804 -0.0031143732 -0.72001123 -0.5851045
000060 6f 0e bf ba 7b d9 ff 3c 3a 56 e8 be 9d ed 97 3e
       -0.0014576445 0.031231632 -0.45378286 0.29673472
000070 4f 3a 43 3c 61 47 a1 3c 8a 11 03 bc d1 db 9a 3c
       0.011915757 0.019687356 -0.007999787 0.018903645
000080 79 34 48 3c f1 0b 11 3d 9f 49 0f 3e a4 cb 27 bd
       0.012219542 0.03541178 0.13992928 -0.04096569
000090 34 f2 09 3f f5 bf 1d 3f b3 7e 8c 3d d6 70 84 3f
       0.538852 0.6162103 0.068601035 1.0346935
0000a0 98 93 c2 3e a5 16 5f 3e 5c 44 06 bf 9c ea e7 bd
       0.3800323 0.21785982 -0.5244806 -0.11324045
0000b0 25 56 ab bc d3 15 a8 3c 7c 06 5c 3d d3 37 d9 3a
       -0.0209151 0.02051822 0.05371712 0.0016572423
0000c0 97 f1 a4 3d 2c f7 8a 3c 93 b4 d1 3c 5f fc bb 3e
       0.08053892 0.016963564 0.0255988 0.3671598
0000d0 5d 33 2a be 1a 09 8d 3e 74 e9 33 3f 05 5c 39 3e
       -0.16621156 0.27546006 0.70278096 0.18101509
0000e0 4b 88 ce be df 5f c3 bc a5 19 1c 3e b9 78 8c be
       -0.40338358 -0.023849426 0.15244158 -0.27435854
0000f0 24 27 d7 be a0 06 b2 be f9 17 8b 3c 5a 13 11 3d
       -0.4202205 -0.3477068 0.016979204 0.035418846
000100 c8 53 9e 3c f9 6d 07 bd 84 d8 f8 bc 66 5e 75 38
       0.01932706 -0.033063862 -0.03037668 5.8500467e-05
000110 d2 dd f8 bd 30 4c 0d bf 54 36 56 3d 58 b0 91 bd
       -0.12151684 -0.5519438 0.052297905 -0.07113713
000120 ba 31 0e be d2 d4 08 be 87 44 cc be c9 90 86 3d
       -0.13886157 -0.13362435 -0.39896032 0.06570584
000130 8c 67 0b 3f 51 c0 d9 bd dc 8d f2 bd fe 5a 0b be
       0.54454875 -0.106323846 -0.11843464 -0.1360893
000140 f9 c4 9e bd 51 06 88 ba 57 bc 3b 3d b6 cb d3 3c
       -0.07752413 -0.0010377859 0.04583391 0.025853973
000150 4a 86 a0 ba fd 4d 6b 3e 20 b3 be be 4e 9b 9d 3e
       -0.0012247053 0.22978969 -0.37246037 0.3078255
000160 54 f9 3a be 4f 39 68 be f8 ee e4 be 2f 2a c8 be
       -0.18259174 -0.22678111 -0.4471357 -0.39094684
000170 c9 eb 39 3c 4d 97 c2 be 94 f8 3a 3e 45 26 24 3e
       0.0113477195 -0.38006058 0.18258888 0.16030224
000180 3a 48 09 be d0 b5 39 3e c3 c7 9f 3b ef 7e 39 be
       -0.13406458 0.18135762 0.0048761084 -0.18114828
000190 63 21 17 be f3 e0 da bc 45 67 31 3f b8 8a 07 bd
       -0.1475883 -0.026718592 0.692982 -0.033091277
0001a0 69 27 dd 3e 32 af 9e 3c bd f7 37 bd 0f c3 03 bf
       0.4319413 0.019370649 -0.044913996 -0.5146951
0001b0 e5 f3 2b 3e 88 54 72 bc 81 f5 01 3f 7f f5 74 bd
       0.16792257 -0.014790662 0.50765234 -0.059804436
0001c0 9c a7 9e 3b f0 85 03 3e eb 46 20 bd 57 a7 5c 3c
       0.004841758 0.12844062 -0.039130133 0.013467631
0001d0 92 79 b2 bb 18 86 d3 bc 7a ac d8 3c a7 11 83 bd
       -0.005446621 -0.025820777 0.02644943 -0.06399851
0001e0 45 06 60 be 0d 64 27 bf 25 2c f6 be 78 e5 01 be
       -0.21877392 -0.6538704 -0.48080555 -0.12685192
0001f0 30 d0 6b 3e f3 b3 8b 3d df e2 0a 3e ee 97 14 3f
       0.23028636 0.06821432 0.13563107 0.58044326
000200 38 25 02 3f 4e 24 37 3e e0 64 16 3c 31 b8 c7 bb
       0.5083804 0.17884943 0.009179324 -0.0060949554
000210 11 18 e8 bc 9b 1a 92 3d a4 60 68 3d f0 7c 0a 3c
       -0.028331788 0.07133981 0.05673279 0.008452639
000220 49 a8 6e 3e a6 13 df 3e 95 f1 76 be 89 33 01 3e
       0.23306383 0.43569678 -0.24115594 0.12617315
000230 85 3a 0a be 7d 38 c9 bd d4 56 9d 3e 6a 5f 0e 3e
       -0.13498886 -0.098252274 0.30730307 0.13903585
000240 2c b2 c8 be 9a c4 98 3d 50 4d 95 3e 7c a3 42 3c
       -0.39198434 0.07459374 0.29160547 0.011879798
000250 e1 8a 04 3d 04 31 51 3c 43 b4 b1 bc 5e 93 8a b7
       0.032359008 0.012768034 -0.0216924 -1.6519505e-05
000260 22 8d a8 bb 79 13 da 3e 4a 80 72 be 90 a7 e6 bf
       -0.0051437775 0.4259298 -0.23681751 -1.8019886
000270 67 67 28 bf 9d 7a 38 bd 03 90 af 3e f4 3a 97 be
       -0.6578278 -0.045038808 0.3428956 -0.29537165
000280 53 1a e1 bd 0e f0 87 3e 1d dd a0 be e6 22 bc bd
       -0.10991349 0.26550335 -0.31418696 -0.09186344
000290 96 88 34 be ec 49 c0 bd 32 76 22 bc 0a f6 0e bd
       -0.17630228 -0.093890995 -0.009915875 -0.03490261
0002a0 f8 82 23 bd 83 1d 0c bd 41 2d a2 3d 97 52 ab bd
       -0.039919823 -0.034207832 0.07918788 -0.08365362
0002b0 fe 7d 2f 3f 1c 62 8f bd f5 c4 ac 3d 27 ad 16 3e
       0.68551624 -0.07001135 0.08436004 0.1471449
0002c0 09 c7 de be 61 12 90 bc 7a fc fd 3e bd f9 bd be
       -0.43511227 -0.017586889 0.49606687 -0.37104598
0002d0 8c 13 fe 3e ec 0d 10 3d 8c 9f b1 bc 3a de 98 3c
       0.49624288 0.035169527 -0.021682523 0.018660653
0002e0 57 20 60 bb 83 72 f5 3c c2 c8 11 bc f9 f4 a5 3e
       -0.0034198964 0.02996183 -0.008897962 0.32413462
0002f0 77 42 a9 be 3b 6c 42 3d fa 3a ab be df 87 d8 3d
       -0.3305852 0.047466498 -0.33443433 0.1057279
000300 85 78 8e 3f 63 fa 43 3e af fa 9d bd 7f 62 b8 be
       1.113053 0.19138484 -0.0771383 -0.36012647
000310 cd 9e b4 3d 56 54 23 bd b0 19 0d 3d 88 8f 1a 3c
       0.08819351 -0.03987535 0.034448326 0.009433635
000320 ce e7 34 3c 74 c8 2b 3c 14 c9 a5 bb 04 b6 09 3c
       0.011041595 0.0104848035 -0.005059371 0.008405212
000330 9b 68 9d 3e b6 59 d6 be c7 8d 22 3f 7d 33 4c 3f
       0.3074387 -0.4186532 0.63497585 0.79766065
000340 b1 7b eb 3d cb 4a 0d bf b3 fe 29 3d b6 e3 18 be
       0.11498202 -0.5519225 0.041502666 -0.14930615
000350 5f ed b4 3e df ba f4 3e 42 a5 d7 3e 44 13 d9 3c
       0.3533735 0.4779882 0.4211827 0.026498444
000360 5e 84 90 3d 2f 35 78 bb b9 3d a4 3d d1 2e 59 3d
       0.07056497 -0.0037873497 0.08019585 0.053023163
000370 a3 19 d0 3b 65 78 fe 3c f8 80 43 3e a7 13 ca 3e
       0.0063507124 0.031063268 0.19092166 0.3946812
000380 93 a1 52 be 3f e9 ab 3e c2 10 60 bc 69 de 2c 3f
       -0.20569448 0.3357639 -0.01367587 0.6752687
000390 3a 2e 14 be a7 d6 84 3e e1 d7 88 3c 88 1d ec bc
       -0.14470759 0.25945017 0.016704502 -0.028822675
0003a0 42 35 5f 3d 4e a1 0b 3d 28 b5 d3 3c af 14 92 3d
       0.05449415 0.03408938 0.025843218 0.07132851
0003b0 b7 f1 aa bb b6 c1 2c bd e5 18 3a 3f 10 60 42 bd
       -0.005216803 -0.042176925 0.72694236 -0.047454894
0003c0 fb 1c 22 bf a5 e5 1e bf 39 5d a6 bd eb aa fc be
       -0.6332547 -0.6206916 -0.081232496 -0.4934915
0003d0 8a 56 ff bd 7c 99 75 be c9 6e a3 be 93 ef 80 3f
       -0.12467678 -0.23984331 -0.3192046 1.0073112
0003e0 e2 94 9a bd 6e 56 b0 bd 63 43 88 bd d8 6d 05 bd
       -0.075479284 -0.08610235 -0.06653478 -0.03257546
0003f0 a8 01 3e 3c c0 b3 73 bc 21 95 1a 3d 60 67 cd 3d
       0.011597075 -0.014874399 0.037739877 0.10029483

layers.0.bias f4 [128]
000000 29 db 7a 3e bf 56 00 3f a5 2e 0a be 67 ee 20 3f
       0.24497665 0.50132364 -0.13494356 0.62863773
000010 fd a0 e0 3e 2a 89 b5 be 62 3a b2 3e 07 b2 23 3f
       0.43872824 -0.3545621 0.34810168 0.63943523
000020 af 12 e9 be da 24 ae 3d 77 eb 88 3d b1 50 02 3f
       -0.45522067 0.08503123 0.06685536 0.50904375
000030 c1 33 09 3f 8a 7d d2 3e 4c 18 89 3e bc 56 87 be
       0.53594595 0.41111404 0.2677635 -0.2643336
000040 22 89 fd be 28 b4 ed bb 88 08 d0 3e 1b b9 29 3e
       -0.49518687 -0.0072541423 0.4063151 0.16574518
000050 01 5d 11 3e b4 be 1b 3f 42 ad e3 be 21 2d f0 bd
       0.14195634 0.60837865 -0.44468123 -0.11727358
000060 08 b8 b9 be 35 4f e4 3e a5 4c d7 3e 0e ba 60 3f
       -0.36273217 0.4459168 0.42050663 0.87783897
000070 a7 b6 95 bd ae 42 6f 3f f5 5f a0 3d 98 27 30 be
       -0.07310229 0.9346112 0.07830802 -0.17202604
000080 b6 61 0c bd a8 25 cf 3d 65 9c bf 3d 47 27 5c be
       -0.034272872 0.10114604 0.09356002 -0.21499358
000090 55 17 eb be e5 c5 11 3f aa 1c 17 bf 0e 71 97 3c
       -0.45916238 0.5694259 -0.5902811 0.018486526
0000a0 40 37 1f 3c 93 05 ea 3e 9e ec 09 bd 7b c5 53 be
       0.0097177625 0.45707378 -0.03367292 -0.20680802
0000b0 fc 06 e4 bd 32 ed af bc bd 3e c3 3d ed e8 c5 3e
       -0.11134145 -0.021475408 0.09533451 0.3865427
0000c0 56 d0 b5 bc 94 73 ba 3e 1e e3 b2 3d 5c 3f 68 3e
       -0.022194069 0.36416304 0.087347254 0.2268042
0000d0 18 bc 0e 3f 4a 5f c7 be cc e9 82 3e c1 1f e8 be
       0.5575576 -0.38939887 0.25568998 -0.45336726
0000e0 3f ef ac bd 6d 03 1a 3d 40 22 bc 3c ef ce 09 3d
       -0.0844407 0.037600923 0.02296555 0.033644613
0000f0 8c 4a cd 3e 78 03 25 3f c5 9a f2 be ae b3 6c 3f
       0.40095937 0.6445842 -0.47383705 0.9246167
000100 32 19 97 3d b1 3c aa be 22 4e 98 3e 28 64 75 be
       0.073778525 -0.3324943 0.2974711 -0.23963988
000110 36 c0 f2 be 1d 92 67 be be 0c f5 3e e0 a8 49 3f
       -0.4741227 -0.22614332 0.47861284 0.7877331
000120 e5 85 0a bd 65 31 5e be 7c 68 bc be 00 72 d9 3d
       -0.033819098 -0.2169853 -0.36798465 0.10617447
000130 44 04 9d be 7d 1f 99 bd 16 f3 16 3e fd f5 0b bf
       -0.30667317 -0.07476709 0.14741167 -0.54672223
000140 7f 3d 58 be d5 ec d7 bd e0 6b 40 3d 67 ae 62 bd
       -0.21117209 -0.10543219 0.046977878 -0.055342104
000150 ac 53 10 3f 60 15 0c 3d ca a0 13 3f 64 f2 2d be
       0.56377673 0.034200072 0.5766722 -0.16986996
000160 82 c3 4d be 0c 35 97 3e 19 f5 ea bd cc 48 aa be
       -0.20094112 0.2953266 -0.1147253 -0.33258665
000170 c0 8a 1f 3d 0d 98 5e 3e 36 c6 2f 3f 41 96 a0 be
       0.03895068 0.2173769 0.6866182 -0.31364635
000180 d8 f6 90 3e 9f 49 ba be 93 c0 14 be 12 7f 18 3e
       0.28313327 -0.36384293 -0.14526586 0.14892223
000190 5e e8 05 3f dd 41 b3 be 5d f8 d7 3e 7e c1 71 3e
       0.5230769 -0.35011187 0.42181674 0.23608968
0001a0 d6 75 51 3f b1 69 22 be a8 d9 8c be 23 eb bf be
       0.8182043 -0.1586063 -0.2750981 -0.37484083
0001b0 06 d2 f7 3e 8e 4c 52 3f 19 d0 98 3e 49 0d 5c 3e
       0.48402423 0.82148063 0.29846266 0.21489443
0001c0 0b 0e 42 be 4f 03 f9 3e a6 4c 15 be ce d9 a3 3e
       -0.1895067 0.48635337 -0.1458002 0.3200211
0001d0 e1 6b fc be ae 53 a3 3e b3 55 96 3e a6 bb ae be
       -0.49301055 0.3189978 0.29362258 -0.3412754
0001e0 2b f4 d4 3e eb f2 1b be 78 8f 8e bd 1a 91 96 3e
       0.41592535 -0.15229385 -0.06960958 0.2940758
0001f0 ae 84 93 3e 27 f0 01 bf 15 f9 0d bd e1 96 50 3e
       0.28812164 -0.5075707 -0.03466137 0.20370056

layers.1.weight f4 [128, 128]
000000 60 57 e9 3d 44 fb 91 bd 0c 97 b9 3d 9c 46 48 3e
       0.113936186 -0.07128003 0.09062013 0.19558185
000010 e2 6e aa bd 83 4b 92 bd 3a f2 2c 3d 90 f7 6a 3d
       -0.083219305 -0.07143309 0.042223193 0.057365
000020 02 cd 0a 3c 76 e4 80 3d 11 65 cb 3d fa af 23 3e
       0.008471729 0.062935755 0.09931386 0.15985098
000030 c5 ec e9 3c 40 45 79 3b 1d 71 cc bd ec 95 9d bc
       0.028555283 0.003803566 -0.09982512 -0.019236527
000040 38 f5 dc b9 b6 fa 24 3e 06 3e 72 bd 55 94 35 be
       -0.00042144372 0.16111264 -0.05914118 -0.17732365
000050 09 c8 58 bd dc 60 4e 3d eb 8f 15 3d ea 5d 06 bd
       -0.052925143 0.05038534 0.036514204 -0.032804407
000060 22 b3 9a bd 91 28 75 bd f8 35 26 be 16 6f 18 be
       -0.07553698 -0.05985314 -0.16231525 -0.14886126
000070 a3 ff b9 3c 72 54 1e 3e 03 c0 98 3d 19 46 ab bb
       0.022704905 0.15461901 0.07458498 -0.005226862
000080 8d 2a 66 3c 0d 6e 27 be de 51 24 bd 89 e3 60 be
       0.014048231 -0.16350575 -0.040117137 -0.21961798
000090 c2 6b bd bd 0b 9a 78 3c 83 5c 91 3d dc 94 45 bc
       -0.09249069 0.015173445 0.07097723 -0.012059417
0000a0 e1 9a a9 bd df 24 87 3d 45 cd 18 bd 2f 8e 12 3c
       -0.08281494 0.065988295 -0.037305135 0.008945032
0000b0 ed 68 23 3d 96 22 55 bd fa 76 7f 3e 3c a7 b5 bc
       0.039894987 -0.052034937 0.2494773 -0.02217447
0000c0 cd f9 91 bd 75 ed a2 3c 06 42 e4 bd 1c 9a 4f 3d
       -0.07127724 0.019888619 -0.111454055 0.05068408
0000d0 52 a9 0c be a5 a6 bd 3c 5d fb 27 bb 78 5c 02 3d
       -0.13736466 0.023150751 -0.0025632002 0.031826466
0000e0 7e 23 87 be 69 b2 95 3c e6 cb 1b 3d 05 17 84 3b
       -0.26394266 0.01827355 0.03803625 0.0040310645
0000f0 ae 87 e1 3d 05 bf cf 3d d6 f4 94 bd 0b e4 8b 3e
       0.11012207 0.10143856 -0.07273261 0.2732242
000100 75 eb b6 bd 1f 67 aa 3d 03 74 94 bd b5 b8 71 bc
       -0.089316286 0.0832045 -0.0724869 -0.01475351
000110 56 84 ae 3c 53 73 89 be 40 8b 52 bd 31 7c f8 3c
       0.021303337 -0.26845798 -0.05140233 0.030332657
000120 36 9b 58 3d 45 f5 79 bd dd 96 f8 3d 88 88 8e bb
       0.052882396 -0.061024923 0.1213815 -0.004349772
000130 af 47 1f 3d 3d 6b 63 3d 6f 0f 4e 3a 1f 51 e4 bc
       0.038886722 0.055522192 0.0007860576 -0.027870713
000140 c5 11 bf be cd aa 30 3d c3 2a 06 bd 82 68 56 3e
       -0.37318245 0.04313164 -0.032755625 0.20938304
000150 e2 26 10 bd 04 a6 12 be ba f3 07 be 85 4b 91 bd
       -0.03519333 -0.14321142 -0.13276568 -0.07094482
000160 8b 57 a4 bd 91 64 5d 3c 3b a6 72 be 0f 5e 7a bd
       -0.0802451 0.013512746 -0.23696224 -0.061124858
000170 0b 6c 98 3d 44 6e 6a 3e c5 27 0a 3e 44 11 cc bc
       0.074424826 0.22893625 0.13491733 -0.024910577
000180 dc d6 b3 3d ef e2 4b 3d aa f8 04 3e d6 d1 f4 bc
       0.087812155 0.049776968 0.12985483 -0.029885214
000190 eb b7 30 3c eb db 70 3d 44 0b 0c 3e 52 29 cc 3c
       0.010786037 0.05880348 0.13676172 0.024922047
0001a0 28 9e 58 bc 83 a8 6c 3d 20 0b f6 3d d9 dd 93 3d
       -0.013221301 0.057777893 0.12013841 0.072200485
0001b0 10 93 0b 3e ba a0 e1 3c 4b d4 95 be c3 70 3d 3c
       0.13630319 0.02754246 -0.2926353 0.011562529
0001c0 68 66 d0 3d b5 81 03 be 3d ae d6 bd e8 a8 1e 3e
       0.101757824 -0.12842448 -0.10482452 0.1549412
0001d0 ab ea 39 bc be 33 33 3e 90 0f 9b bd c0 d2 97 3e
       -0.011347453 0.17500207 -0.07571328 0.29652977
0001e0 4f 68 31 be e3 6c 4e 3e f5 9e dc 3c 41 32 9c bd
       -0.17324947 0.20158724 0.026931265 -0.07626773
0001f0 4b e4 5b 3c 7d a7 38 bd ee a3 b8 3c 1d 76 42 3c
       0.0134211285 -0.045081604 0.022539105 0.011868981
000200 d8 26 2e 3e ae b3 27 be 8d 11 f4 bc 48 11 46 3d
       0.17007005 -0.16377136 -0.029793525 0.048356324
000210 67 7c 82 3d 25 18 b3 3c 31 6c 04 3e 50 cf a5 bc
       0.06371384 0.021862099 0.12931897 -0.020240456
000220 1d 4a 63 be da ce 24 3d f4 39 43 bd 59 87 15 3d
       -0.2219624 0.04023633 -0.04766269 0.03650603
000230 d7 23 b2 3d c1 ca 11 be b2 75 0e bd 1d aa 89 3d
       0.08698242 -0.142375 -0.03478021 0.067219
000240 1e 5a c9 bd 7a e0 85 bd 43 4c 9f 3b 99 78 e3 bd
       -0.098316416 -0.06536956 0.004861386 -0.111069866
000250 97 d3 5f 3c c6 14 b5 3d 82 17 96 3d 5b bb cc 3c
       0.013661287 0.08841853 0.073287025 0.024991682
000260 88 1f d0 3c c3 5b d9 3d 68 59 76 3c 6e c8 09 3e
       0.02540566 0.10613205 0.015035965 0.13455364
000270 9a 3f c8 bd b5 99 2b 3f f0 10 a4 bd 65 70 bb bd
       -0.09777756 0.67031413 -0.08011043 -0.09152297
000280 bf f6 0d be 8c 70 9d 3e 02 8f 97 bc 40 43 4e be
       -0.13863657 0.3074993 -0.018500809 -0.20142841
000290 76 d5 2e be 23 ec 72 3d 4e 62 1c bd cb f3 53 be
       -0.17073616 0.05930723 -0.03817969 -0.20698468
0002a0 36 fc 23 bc 97 84 73 3e b8 27 ac 3c dc 5e c5 bd
       -0.010008862 0.23781048 0.021015033 -0.096372336
0002b0 09 16 28 be 03 a6 6c bd ab bf 9c 3b 06 f1 ab 3d
       -0.16414656 -0.05777551 0.004783591 0.08395581
0002c0 41 d9 ae bd 7e fd 31 3e 7f 77 cb bd a7 3f 6c 3d
       -0.08537532 0.17381856 -0.099349014 0.05767789
0002d0 42 6e 31 bd 6b 6b 14 3d f1 c4 0d bd 0d 74 8d 3e
       -0.04331804 0.036235254 -0.034611646 0.27627602
0002e0 06 a9 18 3c ec d5 51 be cc 0e dd 3c 4d 84 50 3e
       0.009317642 -0.20491761 0.026984595 0.20362969
0002f0 8e 46 5d 3d 87 44 1d bd 6d 2b a7 3d 9f 1a 08 3e
       0.054022364 -0.03839543 0.0816258 0.13291405
000300 88 65 06 3e 81 0b b7 bc 53 4b 9b 3d 9c 78 8e be
       0.13124669 -0.022344353 0.07582726 -0.27826393
000310 19 05 b7 bd c5 b3 12 bd a9 00 39 3e 33 c7 f2 3d
       -0.08936519 -0.035815973 0.18066658 0.118544005
000320 dd c7 5d 3e 4c 7f 9a bd 63 94 8b bd 18 ef 96 bd
       0.21658273 -0.07543811 -0.06815412 -0.07369822
000330 5f 4c 5a be fb 2c bd 3d 3a c2 99 3d 68 51 60 3e
       -0.21318196 0.09237095 0.07507749 0.21906054
000340 07 10 ae 3c 3a d8 bf bc 0d 2c 2e bd b0 6a 59 bd
       0.021247877 -0.023418535 -0.04252248 -0.05308026
000350 5b a9 9d 3e 80 c7 18 3e 23 89 86 bd c3 43 eb bd
       0.3079327 0.14919853 -0.065691255 -0.11487534
000360 27 65 c0 bd a7 7b 2b 3d c5 c5 b5 3d a9 b6 39 3d
       -0.09394293 0.04186597 0.08875612 0.045340214
000370 c8 29 75 3e 43 82 23 3e d5 45 4a 3d 1e 7e 09 3e
       0.2394172 0.1596766 0.049383003 0.13427016
000380 37 93 8f 3d fc d4 33 be 47 e1 2a be 44 07 a5 3d
       0.07010501 -0.17561716 -0.16687499 0.080580264
000390 ff 19 11 3d cd 85 06 bd e8 70 c0 3c 06 f0 db 3c
       0.035425182 -0.032842446 0.023491338 0.02684785
0003a0 a6 f8 fe 3c e0 3f 12 bc fd cc b1 bc 6d eb a0 bc
       0.031124424 -0.008926362 -0.021704191 -0.01964351
0003b0 1e ef 10 3e a7 60 91 be ea 16 97 3d d7 b0 88 3d
       0.14153716 -0.28394052 0.073774174 0.066743545
0003c0 41 c8 39 bc 2f 4a 48 3d 47 10 7b bd 6e e9 0e be
       -0.011339248 0.048898872 -0.06129482 -0.13956234
0003d0 96 a6 85 be 67 96 cb bd 5f da 74 bc 80 cf 69 bb
       -0.26103657 -0.09940796 -0.014944642 -0.0035676658
0003e0 40 f3 eb 3d 72 fe 0b 3e 89 73 04 3e 08 79 8f 3d
       0.11521006 0.13671282 0.12934698 0.07005507
0003f0 05 04 09 be 4f 83 80 bc f3 1f 25 3d e4 d3 ce 3c
       -0.1338044 -0.015687613 0.040313672 0.025247522
