Gym-DDPG-solution/results/DDPG_HalfCheetah-v4_500-eps0.5-t32-l0.0001-s1.pth (torch, 193979 bytes, 13 tensors)

layers.0.weight f4 [128, 23]
0.2545787 -0.23103504 -0.115053564 -0.036381908 -0.23046163 0.19045915 0.020347046 0.11168196
0.15555225 -0.051402263 0.056329455 0.008722627 0.04399311 -0.036146015 -0.004532109 -0.016407466
0.025091454 -0.050370548 0.09303562 0.028943034 -0.06707907 -0.057961255 -0.024328811 -0.048051186
-0.21526791 -0.0016196789 -0.017898336 0.12619105 -0.21331389 0.038772874 0.0600787 -0.038409922
0.07554537 -0.21622157 -0.15887386 -0.077279076 0.08543008 -0.06498729 0.05045724 -0.046219002
0.21248369 -0.19188802 0.26617455 -0.038338806 -0.11744879 0.18064271 0.0043180287 0.028932475
-0.17773259 -0.01183999 -0.20683569 -0.16882809 0.017781256 -0.029564979 0.06656805 0.21187119
-0.011839666 -0.06914574 0.049784273 -0.007066279 -0.028829854 0.035569385 0.0830171 0.18214923
-0.21604314 -0.049807705 -0.013139899 -0.05398633 -0.20073476 -0.20626949 0.11820107 -0.0043754107
-0.036379494 0.12733787 0.2269637 0.10618408 0.14647153 0.18389465 -0.29260343 0.06289255
-0.20161784 -0.083839186 -0.020410614 0.019369654 0.023528568 -0.008544968 -0.26189515 0.17851707
-0.03320211 0.10495477 0.1760119 -0.15317963 0.07990734 -0.021851985 -0.16036195 -0.085769765
0.03108236 0.0008120637 -0.018739253 -0.11908542 0.21869199 0.06630077 0.13836484 0.062106133
-0.14485082 -0.1440987 0.17784601 0.03373944 0.12448417 0.030382348 0.054117452 0.11140587
0.23509024 -0.090337366 0.05820522 0.24831438 0.10380287 0.06957858 -0.19720548 -0.196691
-0.065104954 -0.018300267 0.1614331 -0.22193694 0.12580824 -0.107332855 -0.15155031 -0.009443086
0.067996375 0.11267097 -0.05065745 0.05864732 0.15555333 0.15183681 0.16267265 0.17093675
0.12066788 0.031104451 -0.06958446 -0.21620041 0.028365135 0.035448886 -0.048069857 0.22094654
0.07677314 0.10444732 0.056145515 0.17407183 0.13614732 0.12822637 -0.010584206 0.18643917
-0.04819277 0.028870238 -0.15840946 -0.16978894 -0.16368611 -0.052976698 0.15245922 0.012090556
-0.10871146 0.19723073 -0.0020515954 0.24672176 -0.17317198 0.11116822 0.07867036 -0.052235246
-0.1575913 -0.17633182 -0.039943963 0.08252162 0.03472734 0.04781987 0.10935963 0.17548946
0.105420515 0.011768493 -0.15369922 0.22524168 -0.06617102 -0.033795126 -0.22045523 -0.03296413
-0.3782753 0.5803657 -0.19450076 -0.13113794 -0.02093758 -0.28648993 0.14872064 -0.05754815
0.057591856 0.06406453 0.12828407 -0.09947832 0.07243297 0.08198841 0.09785367 -0.08992536
0.037877057 -0.036822464 0.19235143 -0.050675653 0.08758473 -0.00056631345 -0.034430582 0.008745803
0.030871421 -0.043157984 0.19680487 0.11470927 -0.4930447 0.14540376 0.16338293 0.2306416
0.18380034 -0.19850023 -0.047659747 0.21248351 -0.15548928 0.1283175 -0.12675865 -0.06746379
0.007932617 -0.10534498 -0.046290524 0.007850374 0.1102491 0.1608364 0.033950854 -0.3534563
0.22217536 0.025816668 -0.16964647 -0.20208554 -0.13041067 0.10974461 0.18331672 -0.18364133
-0.2180518 -0.006685295 0.048720255 0.0058163456 -0.059877716 -0.0073081297 -0.12884682 -0.10049643
-0.10724553 0.09417725 0.10623068 -0.043934546 0.005565022 0.25929844 -0.18093649 -0.14093547
00000000: 2458 823e 7394 6cbe 34a1 ebbd 3205 15bd
00000010: 22fe 6bbe b907 433e d9ae a63c 83b9 e43d
00000020: 1749 1f3e 2e8b 52bd b7b9 663d 59e9 0e3c
00000030: 1f32 343d d80d 14bd 1682 94bb f368 86bc
00000040: 988c cd3c 5951 4ebd 7689 be3d f119 ed3c
00000050: c060 89bd c868 6dbd 374d c7bc 52d1 44bd
00000060: 316f 5cbe 684b d4ba 889f 92bc 3a38 013e
00000070: f56e 5abe 4ed0 1e3d 1515 763d b953 1dbd
00000080: 88b7 9a3d 3069 5dbe d4af 22be 7e44 9ebd
00000090: f7f5 ae3d 0e18 85bd 40ac 4e3d 2350 3dbd
000000a0: 5395 593e 4b7e 44be 0848 883e 2709 1dbd
000000b0: fe88 f0bd 67fa 383e 407e 8d3b cc03 ed3c
000000c0: 88ff 35be 84fc 41bc bccc 53be 45e1 2cbe
000000d0: ffa9 913c 4132 f2bc d454 883d c3f4 583e
000000e0: 29fb 41bc 489c 8dbd 98ea 4b3d 3f8c e7bb
000000f0: 962c ecbc 34b1 113d df04 aa3d 5485 3a3e
00000100: 6a3a 5dbe 2a03 4cbd bb48 57bc c520 5dbd
00000110: 6a8d 4dbe 4f38 53be 6713 f23d 9b5f 8fbb
00000120: aa02 15bd dc64 023e 2c69 683e 0a77 d93d
00000130: a2fc 153e e14e 3c3e 1ed0 95be cfcd 803d
00000140: e874 4ebe e1b3 abbd 2934 a7bc 1cad 9e3c
00000150: fcbe c03c 3200 0cbc 1f17 86be 2ecd 363e
00000160: f0fe 07bd 87f2 d63d 773c 343e 1fdb 1cbe
00000170: 76a6 a33d ef02 b3bc ec35 24be 0fa8 afbd
00000180: 6fa0 fe3c ace0 543a 1083 99bc 0fe3 f3bd
00000190: cbf0 5f3e b3c8 873d 83af 0d3e 0063 7e3d
000001a0: c653 14be 9c8e 13be 441d 363e 5e32 0a3d
000001b0: 8ef1 fe3d 67e4 f83c 43aa 5d3d c328 e43d
000001c0: 7fbb 703e cc02 b9bd 9968 6e3d 2046 7e3e
000001d0: 9996 d43d 377f 8e3d 3cf0 49be 5e69 49be
000001e0: bf55 85bd 71ea 95bc b84e 253e 7043 63be
000001f0: e0d3 003e 54d1 dbbd 0130 1bbe 2cb7 1abc
00000200: af41 8b3d 0ac0 e63d 307e 4fbd 2c38 703d
00000210: 5f49 1f3e 1c7b 1b3e a993 263e 0b0a 2f3e
00000220: b920 f73d c3ce fe3c 4c82 8ebd a463 5dbe
00000230: 005e e83c da32 113d e6e4 44bd cf3f 623e
00000240: 3c3b 9d3d 7ae8 d53d d7f8 653d e33f 323e
00000250: 346a 0b3e c64d 033e 6169 2dbc e9e9 3e3e
00000260: c865 45bd 4781 ec3c 1736 22be 27dd 2dbe
00000270: 559d 27be 18fe 58bd 451e 1c3e 7817 463c
00000280: 1da4 debd daf6 493e 0f74 06bb a1a4 7c3e
00000290: ff53 31be 2aac e33d ed1d a13d a0f4 55bd
000002a0: 9d5f 21be 5490 34be 489c 23bd 1801 a93d
000002b0: 413e 0e3d c5de 433d f1f7 df3d 82b3 333e
000002c0: b6e6 d73d a3d0 403c 5463 1dbe c1a5 663e
000002d0: ac84 87bd c26c 0abd 04bf 61be 6505 07bd
000002e0: 4dad c1be d992 143f 352b 47be 0649 06be
000002f0: 4a85 abbc cfae 92be 394a 183e 9cb7 6bbd
00000300: 70e5 6b3d 4434 833d e65c 033e 4abb cbbd
00000310: bd57 943d 8ae9 a73d 8167 c83d ca2a b8bd
00000320: f924 1b3d 27d3 16bd c6f7 443e 4691 4fbd
00000330: 9f5f b33d a774 14ba 1507 0dbd 8e4a 0f3c
00000340: 10e6 fc3c 6dc6 30bd 3787 493e b2ec ea3d
00000350: 5b70 fcbe b9e4 143e db4d 273e 502d 6c3e
00000360: 2836 3c3e a543 4bbe de36 43bd 4795 593e
00000370: 9538 1fbe aa65 033e 05cd 01be 752a 8abd
00000380: cff7 013c 1cbf d7bd 229b 3dbd db9e 003c
00000390: 48ca e13d 4cb2 243e 0d10 0b3d 39f8 b4be
000003a0: f081 633e 7a7d d33c ceb7 2dbe 83ef 4ebe
000003b0: 608a 05be c8c1 e03d 61b7 3b3e 790c 3cbe
000003c0: f948 5fbe 5210 dbbb e48e 473d 0b97 be3b
000003d0: 5642 75bd 0979 efbb 6cf0 03be 13d1 cdbd
000003e0: 8ba3 dbbd 01e0 c03d 798f d93d b6f4 33bd
000003f0: ca5a b63b c4c2 843e 6a47 39be 6351 10be

layers.0.bias f4 [128]
-0.052770987 -0.20989658 -0.38658437 0.10260047 -0.13469107 -0.16147423 -0.049828067 -0.29209983
0.2895554 -0.050946273 -0.26830506 -0.26285344 -0.2086137 -0.17290832 0.08268889 0.09791523
-0.026741492 -0.187849 -0.2491173 -0.008097094 0.18294269 0.17255071 -0.27864152 -0.1361478
-0.25741398 0.097045034 -0.06637756 0.095132165 0.28211236 -0.10468261 0.0054428545 -0.2309304
-0.0438786 -0.14796354 -0.26319894 0.13682546 -0.2847057 -0.10268102 0.025330106 -0.265409
-0.13817723 0.04741844 -0.04345809 -0.14851743 -0.009327238 -0.19735001 0.02417178 -0.22468756
0.044624403 0.28957292 -0.3167711 -0.18898456 0.28751257 0.20319563 0.2020331 -0.18083547
0.06589219 -0.07652402 0.3274262 0.1608823 -0.14047882 0.116153836 -0.16515873 0.1206619
-0.20745905 0.28728393 -0.168125 -0.29983127 -0.20828412 -0.16236523 -0.08265443 0.0857534
0.14643654 -0.26933968 -0.18756695 -0.119890116 -0.16384257 -0.15497983 0.15669923 0.11309216
-0.08551857 -0.09709818 0.03979466 -0.058979463 -0.007378679 -0.09564487 -0.15914726 0.24283527
0.29334024 -0.043990985 0.0437377 -0.13383757 -0.12700322 -0.34120357 -0.12412427 -0.15835501
-0.2276649 0.17316447 0.045689646 0.17839055 -0.0016767181 -0.121336795 -0.20580201 0.20730041
0.34336323 0.03342939 -0.2898304 0.18714023 -0.06170019 -0.21914862 0.19287932 0.3670814
0.21308672 0.19458628 0.28177294 -0.30444217 0.12554765 0.33102584 -0.17863779 0.06263715
-0.04874057 0.07731185 0.20474495 -0.003090628 -0.14512762 -0.117705025 -0.036615856 -0.09976685
00000000: 6426 58bd 21ef 56be 63ee c5be 3220 d23d
00000010: 75ec 09be 8059 25be 8418 4cbd 1c8e 95be
00000020: 9b40 943e 0aad 50bd 485f 89be ba94 86be
00000030: d49e 55be e10e 31be cb58 a93d c887 c83d
00000040: f910 dbbc 7d5b 40be 9b18 7fbe aca9 04bc
00000050: 5455 3b3e 22b1 303e 1aaa 8ebe 546a 0bbe
00000060: c4cb 83be 8cbf c63d f5f0 87bd a7d4 c23d
00000070: 0871 903e d663 d6bd f959 b23b 0579 6cbe
00000080: 0cba 33bd c183 17be 03c2 86be f91b 0c3e
00000090: f2c4 91be 6d4a d2bd 1581 cf3c b0e3 87be
000000a0: 557e 0dbe d739 423d 1c01 32bd f414 18be
000000b0: 46d1 18bc 1f16 4abe e603 c63c 7f14 66be
000000c0: 14c8 363d e742 943e d22f a2be 2b85 41be
000000d0: d934 933e 8412 503e c4e1 4e3e ef2c 39be
000000e0: 7cf2 863d a0b8 9cbd 68a4 a73e 54be 243e
000000f0: aed9 0fbe 10e2 ed3d 5f1f 29be 961d f73d
00000100: 2570 54be e116 933e f628 2cbe 7c83 99be
00000110: 6f48 55be 1243 26be ba46 a9bd 7b9f af3d
00000120: 76f3 153e e4e6 89be 8d11 40be f388 f5bd
00000130: 59c6 27be 08b3 1ebe c375 203e dd9c e73d
00000140: 5c24 afbd 69db c6bd baff 223d 7394 71bd
00000150: d8c8 f1bb 75e1 c3bd 80f7 22be cfa9 783e
00000160: b130 963e e42f 34bd 4d26 333d b70c 09be
00000170: 220d 02be 3cb2 aebe de34 febd d127 22be
00000180: fd20 69be 0752 313e 1125 3b3d 03ac 363e
00000190: 53c5 dbba 6d7f f8bd c3bd 52be 8f46 543e
000001a0: 4ecd af3e 42ed 083d a664 94be b0a1 3f3e
000001b0: 57b9 7cbd 7f68 60be 2882 453e 18f2 bb3e
000001c0: 6833 5a3e a041 473e 8b44 903e d8df 9bbe
000001d0: 908f 003e 387c a93e d3ec 36be e847 803d
000001e0: 31a4 47bd ad55 9e3d a9a8 513e 228c 4abb
000001f0: 569c 14be 550f f1bd 82fa 15bd 9052 ccbd

layers.1.weight f4 [128, 128]
0.11697988 -0.08241499 -0.08818382 0.020583736 0.0047418326 0.066491656 0.02038271 0.010533034
0.01755252 0.037379626 -0.101671435 -0.037506778 0.080044195 -0.08827409 0.04300597 0.06612791
0.02820178 -0.06581326 -0.048958108 0.008229297 -0.042031266 0.031860095 0.040721815 0.01474845
0.0599399 -0.090255745 -0.11376736 0.057078663 -0.043571856 -0.083500445 -0.022983002 0.06521646
-0.045439713 0.034551505 0.038807776 -0.04135157 0.028589867 0.012504444 -0.058707803 -0.021485385
0.03270513 0.02563391 0.0044832127 -0.024224909 -0.076886624 -0.04657204 0.04978349 -0.002561932
-0.010009687 0.0062655187 -0.065796226 0.016863694 -0.004924136 -0.09552505 -0.04503147 -0.051080965
-0.11748084 0.06835363 0.034345705 -0.057046242 -0.05268997 0.043462493 0.059756976 0.0076030404
-0.013016991 -0.07055796 0.06795492 -0.020971535 -0.0129881315 -0.007158148 0.035322033 -0.00075217534
-0.0495803 -0.019586315 0.0018801859 -0.06781634 -0.01043341 -0.033740655 0.084793605 0.044665214
-0.018355858 0.056979455 0.015573596 0.07225466 0.0117245745 0.04019008 0.03079436 -0.04553826
-0.081732735 -0.043453775 0.057647623 0.041133307 -0.029642085 -0.034484863 0.08617875 0.02185197
-0.047503546 -0.02565768 -0.0023057777 -0.0005430349 -0.020844635 0.0038215572 -0.06821504 0.037425626
-0.042124916 0.09157314 0.08925934 0.06674001 -0.072354846 -0.048220195 -0.028369082 -0.08448028
0.035156086 -0.04712393 0.006029696 0.06151842 -0.067333505 0.038242992 -0.01284302 0.07714144
0.07241153 -0.025741115 -0.04728628 0.062000588 -0.03181702 0.10128753 0.08497396 0.05015234
-0.06867778 0.08057971 0.1314357 -0.0019397548 -0.04953617 -0.007441486 0.061104894 0.08324425
-0.09764051 0.07207041 -0.033991676 0.045766924 -0.037970245 -0.04153367 -0.010867538 -0.005718153
-0.0650676 0.015488249 0.06602286 0.025927335 -0.04297979 0.08210788 -0.077824354 -0.024240918
0.07811038 0.04150971 0.020578315 -0.084210634 -0.013932875 -0.064799644 0.005139169 0.10167296
0.036898613 -0.011064469 0.054424226 -0.08776957 -0.0066009155 0.08501925 0.03061751 -0.058700483
0.031485222 0.018196357 -0.008998528 0.05876012 -0.07659929 0.08280976 -0.088363715 0.04940196
-0.0842248 -0.029771274 -0.03646328 -0.035675146 0.019036785 -0.0806927 -0.07001215 0.06699554
0.034742396 0.006222747 -0.022325354 0.037297916 0.028295837 -0.008493448 0.002657264 -0.008323698
0.11388863 -0.09173472 -0.061265558 -0.07152192 0.028574063 -0.03445931 -0.029408522 -0.024186734
0.026435245 -0.080080464 -0.0012753366 0.06064593 0.0527654 -0.07809041 -0.023562558 0.047322873
0.046793766 0.04414191 0.016963081 -0.024398493 0.060456153 0.0700651 0.008164952 -0.031761106
0.028899418 0.0633393 -0.045775615 0.026390033 -0.013219552 0.013392316 -0.07951149 -0.010864927
0.007845344 -0.07692777 -0.0624445 0.0405377 -0.053845223 0.072345935 -0.044495817 0.09181846
-0.04764363 -0.052865136 0.014510649 -0.025958905 0.026780272 0.026237443 -0.06627983 0.039123707
0.029945204 -0.052866023 -0.009827512 0.03762725 -0.0798927 0.07671811 -0.098611616 -0.055139355
0.0540627 -0.015512783 -0.07793661 -0.039010826 -0.0006023398 -0.030547462 -0.041760094 0.056157757
00000000: 2693 ef3d 31c9 a8bd b899 b4bd 399f a83c
00000010: 6061 9b3b c72c 883d a4f9 a63c bf92 2c3c
00000020: 4dca 8f3c 611b 193d 1d39 d0bd b5a0 19bd
00000030: 36ee a33d 0cc9 b4bd 0727 303d 126e 873d
00000040: 6b07 e73c 1ac9 86bd 4c88 48bd 2cd4 063c
00000050: fa28 2cbd bb7f 023d ebcb 263d 7ca3 713c
00000060: 8a83 753d 01d8 b8bd ddfe e8bd 51cb 693d
00000070: 6778 32bd 4802 abbd d946 bcbc 3590 853d
00000080: fe1e 3abd e185 0d3d e7f4 1e3d 4460 29bd
00000090: 4c35 ea3c 71df 4c3c 9877 70bd 1e02 b0bc
000000a0: d0f5 053d 35fe d13c eae7 923b 5173 c6bc
000000b0: bc76 9dbd 53c2 3ebd c6e9 4b3d 16e6 27bb
000000c0: acff 23bc fb4e cd3b 2cc0 86bd bb25 8a3c
000000d0: a65a a1bb a3a2 c3bd eb72 38bd 463a 51bd
000000e0: cb99 f0bd fdfc 8b3d 15ae 0c3d 52a9 69bd
000000f0: 70d1 57bd ba05 323d bbc3 743d ed22 f93b
00000100: 3845 55bc b180 90bd f32b 8b3d 7fcc abbc
00000110: 2ccc 54bc e68e eabb d6ad 103d a22d 45ba
00000120: b614 4bbd 7b73 a0bc 9270 f63a 4be3 8abd
00000130: e5f0 2abc a433 0abd 45a8 ad3d dff2 363d
00000140: 065f 96bc 4a63 693d 6528 7f3c 40fa 933d
00000150: 6e18 403c 5a9e 243d 7444 fc3c 5486 3abd
00000160: 7e63 a7bd 96fc 31bd ea1f 6c3d 667b 283d
00000170: f5d3 f2bc 0040 0dbd 7c7e b03d e702 b33c
00000180: 1493 42bd 0e30 d2bc 881c 17bb 755a 0eba
00000190: 5ec2 aabc 1773 7a3b 54b4 8bbd 9d4b 193d
000001a0: 2d8b 2cbd b38a bb3d 9acd b63d fdae 883d
000001b0: c72e 94bd 8a82 45bd 4766 e8bc ff03 adbd
000001c0: d4ff 0f3d 0605 41bd c294 c53b bdfa 7b3d
000001d0: 26e6 89bd afa4 1c3d 886b 52bc 55fc 9d3d
000001e0: 7f4c 943d 08df d2bc 42af 41bd 54f4 7d3d
000001f0: 9052 02bd d66f cf3d d406 ae3d 8a6c 4d3d
00000200: f0a6 8cbd fa06 a53d 1597 063e 5f3f feba
00000210: 70e6 4abd b6d7 f3bb 2049 7a3d f67b aa3d
00000220: bff7 c7bd a799 933d db3a 0bbd 1976 3b3d
00000230: b086 1bbd 361f 2abd c20d 32bc 585f bbbb
00000240: 2942 85bd 6dc2 7d3c fe36 873d 9065 d43c
00000250: 940b 30bd 2d28 a83d 6062 9fbd e494 c6bc
00000260: 56f8 9f3d 1606 2a3d db93 a83c a076 acbd
00000270: b746 64bc adb5 84bd 7966 a83b ea39 d03d
00000280: 0023 173d bf47 35bc f0eb 5e3d 88c0 b3bd
00000290: 7e4c d8bb 931e ae3d 93d1 fa3c eb6f 70bd
000002a0: a6f6 003d 8710 953c 906e 13bc 74ae 703d
000002b0: 17e0 9cbd 2a98 a93d 09f8 b4bd b659 4a3d
000002c0: 0d7e acbd e3e2 f3bc 855a 15bd 1a20 12bd
000002d0: 08f3 9b3c 3742 a5bd 8862 8fbd f534 893d
000002e0: 0b4e 0e3d 2fe8 cb3b a9e3 b6bc b3c5 183d
000002f0: accc e73c 1a28 0bbc 7e25 2e3b 1f60 08bc
00000300: 713e e93d 6adf bbbd 98f1 7abd 167a 92bd
00000310: 2714 ea3c 3525 0dbd 24ea f0bc 4223 c6bc
00000320: ba8e d83c 3a01 a4bd 3229 a7ba de67 783d
00000330: 8820 583d dded 9fbd 4406 c1bc a1d5 413d
00000340: d2aa 3f3d 26ce 343d 29f6 8a3c 59df c7bc
00000350: dfa0 773d 4b7e 8f3d 4ac6 053c ef17 02bd
00000360: 79be ec3c 09b8 813d 367f 3bbd e92f d83c
00000370: d296 58bc 726b 5b3c ecd6 a2bd cf02 32bc
00000380: c289 003c 4f8c 9dbd cec5 7fbd dc0a 263d
00000390: cf8c 5cbd 1b2a 943d 3f41 36bd 510b bc3d
000003a0: f825 43bd 1d89 58bd 13be 6d3c c5a7 d4bc
000003b0: 4d62 db3c e8ef d63c b8bd 87bd 2e40 203d
000003c0: a54f f53c 0b8a 58bd 9303 21bc 081f 1a3d
000003d0: c99e a3bd 621e 9d3d e3f4 c9bd ced9 61bd
000003e0: da70 5d3d 5429 7ebc 3b9d 9fbd d1c9 1fbd
000003f0: 57e6 1dba ac3e fabc a20c 2bbd ad05 663d

layers.1.bias f4 [128]
-0.112867385 -0.08082704 -0.0071544936 -0.07938924 0.051261287 -0.016798217 0.1448572 0.08013929
-0.11234099 -0.11134677 0.085445434 -0.09457909 0.054096002 0.034010552 0.12264254 0.029538468
-0.13946937 0.015693123 -0.01594301 -0.050210584 0.086655796 -0.12104218 -0.020390613 -0.07951348
0.15910356 0.04808087 -0.07057876 -0.15713471 -0.051824756 -0.014843438 0.020985875 -0.022909405
-0.0012867183 0.1224127 0.09484144 0.084111094 0.024387762 -0.15849039 -0.030046487 0.12606859
-0.046432626 0.074885584 0.10247477 -0.044115346 -0.111214235 -0.015861427 -0.013929385 -0.17269178
-0.12583934 -0.07832563 -0.034286074 -0.12335671 -0.07866604 -0.10511235 0.07196854 -0.06924598
0.1386693 -0.07623811 0.063200325 -0.14918435 -0.14080474 0.06860685 -0.12045339 -0.16646919
-0.14846048 -0.028161393 0.111977644 0.092132166 -0.08535449 -0.054625116 -0.11193136 -0.062363565
0.09552889 0.10940225 -0.05379165 -0.1226676 -0.17832644 0.03151581 0.030097501 -0.17359106
-0.03466858 0.09974497 0.15057719 0.041717216 0.025928164 0.038880076 0.045040708 -0.009065864
-0.0022385877 0.060542062 -0.07801254 0.08557738 0.050719336 0.0450806 -0.06916633 0.017832574
0.015152608 -0.049163908 -0.10518106 -0.1256661 -0.084337614 -0.041236836 -0.05920724 -0.11442265
0.08559385 -0.09087901 -0.0816642 -0.07924333 0.10044914 -0.012223903 0.04703612 -0.07565249
0.011668542 0.07381727 0.10700279 0.0032038959 -0.0191768 -0.114641316 -0.15869404 -0.041026596
-0.014255967 -0.007985398 0.12056297 0.023238981 -0.111313224 -0.13389838 0.015982931 -0.06431352
00000000: 0427 e7bd a688 a5bd 3e70 eabb d396 a2bd
00000010: 5bf7 513d 6a9c 89bc 7255 143e 1120 a43d
00000020: 0813 e6bd c609 e4bd 04fe ae3d afb2 c1bd
00000030: c593 5d3d a64e 0b3d 032c fb3d a8fa f13c
00000040: 0fd1 0ebe dd8e 803c ea9a 82bc 9da9 4dbd
00000050: 9878 b13d f6e4 f7bd 370a a7bc f7d7 a2bd
00000060: 0bec 223e 72f0 443d 998b 90bd ece7 20be
00000070: 3246 54bd e431 73bc 92ea ab3c 81ac bbbc
00000080: 1aa7 a8ba 82b3 fa3d 3b3c c23d 7042 ac3d
00000090: d8c8 c73c 4e4b 22be 0d24 f6bc 2018 013e
000000a0: 2330 3ebd 9d5d 993d 4bde d13d 4bb2 34bd
000000b0: 4ac4 e3bd d3ef 81bc 1338 64bc 1dd6 30be
000000c0: 07dc 00be 3069 a0bd 8e6f 0cbd 71a2 fcbd
000000d0: a91b a1bd 2545 d7bd 3e64 933d d6d0 8dbd
000000e0: 53ff 0d3e ba22 9cbd 2c6f 813d c8c3 18be
000000f0: 1e2f 10be c081 8c3d 44b0 f6bd e676 2abe
00000100: 0606 18be b9b2 e6bc 8954 e53d caaf bc3d
00000110: 56ce aebd 96be 5fbd 453c e5bd f070 7fbd
00000120: a7a4 c33d 490e e03d a254 5cbd 2739 fbbd
00000130: 359b 36be b916 013d 098f f63c dbc1 31be
00000140: a400 0ebd 1747 cc3d e830 1a3e acdf 2a3d
00000150: 4d67 d43c b740 1f3d 9b7c 383d fd88 14bc
00000160: 45b5 12bb f4fa 773d 0ac5 9fbd 3243 af3d
00000170: 14bf 4f3d 6fa6 383d 14a7 8dbd 9e15 923c
00000180: a542 783c 1860 49bd 2b69 d7bd 9dae 00be
00000190: 33b9 acbd f5e7 28bd 4a83 72bd 6c56 eabd
000001a0: d44b af3d c61e babd 8f3f a7bd 544a a2bd
000001b0: 47b8 cd3d c446 48bc f2a8 403d b1ef 9abd
000001c0: 6a2d 3f3c 822d 973d 4724 db3d 74f8 513b
000001d0: aa18 9dbc 11c9 eabd b180 22be 810b 28bd
000001e0: dc91 69bc 30d5 02bc b8e9 f63d ad5f be3c
000001f0: 30f8 e3bd a81c 09be a3ee 823c cfb6 83bd

layers.2.weight f4 [64, 128]
0.05595078 -0.0355456 -0.10474871 0.0833924 -0.049141183 -0.045044713 0.112414725 0.060282644
0.045606125 0.07681815 0.0850031 0.1170348 -0.036108512 -0.016139627 0.068323255 -0.0066049164
0.05629146 0.05136949 0.059579022 0.046869483 0.02489018 0.051206537 0.0073607 0.018997932
0.024891065 -0.08924215 -0.05788983 0.02298275 -0.07424601 -0.04352784 0.015022496 -0.07905283
-0.08071609 0.08661423 0.033611476 -0.10739876 0.07504807 -0.045518614 0.08202863 0.08883201
-0.08984006 0.1207104 0.0015652097 -0.01965408 -0.021816228 0.07340755 0.07099684 0.043409806
-0.1280037 0.0005341196 0.085456334 0.05628242 -0.08095133 -0.037133966 0.08672849 0.08675523
0.026675358 0.031038705 0.078569815 -0.06134798 -0.045940965 -0.0312564 -0.13186039 -0.042808376
0.045914356 -0.091594145 0.09955596 0.08444228 -0.0104408655 -0.07547958 -0.052115478 0.06142137
0.09602466 -0.0539098 0.09307474 0.0074702757 -0.017766388 -0.0044879415 0.091187 -0.09539543
0.077690795 0.001561666 0.050888494 -0.0065616965 0.067205384 -0.02693456 -0.036054756 0.054069042
0.023165315 -0.05338006 0.060343876 0.023388518 0.066849604 0.09877359 -0.085379586 0.039542828
-0.0057248445 0.050444186 0.010221308 0.12730367 -0.114123 0.04591645 0.019910922 -0.012795138
0.06164081 -0.000910661 -0.07100477 -0.0064758207 0.047819886 0.07909935 -0.009373534 0.057591416
-0.08436524 -0.017070316 -0.03262481 -0.013333217 0.011852066 0.03883595 -0.12727006 0.033451274
0.010066536 0.055512752 0.0062756706 0.02800529 0.04543973 -0.06797383 0.06830491 0.12754229
-0.10394742 -0.0057174857 -0.0030545637 0.10003944 0.06260832 -0.017019652 0.022585455 0.019291546
-0.036593396 -0.050185326 -0.046979778 -0.023963653 -0.04754877 -0.079948656 -0.024101678 -0.041636795
-0.07633484 -0.06941201 -0.06284581 -0.046249337 -0.04739862 -0.057045788 0.025173802 -0.02588734
-0.039327282 0.0056884214 -0.0663239 -0.008230845 -0.08608468 -0.0119931875 0.06365087 -0.018729439
0.069954164 0.08046846 -0.015819995 0.056938063 0.029485941 -0.09732781 -0.054888565 0.034071423
-0.10553825 -0.043635383 -0.02196455 0.015965752 0.016186943 0.08307234 -0.037049543 -0.052254368
0.045020368 0.03947231 -0.030400092 0.0658844 0.0035655322 -0.076053545 -0.05358611 0.05002686
0.050985895 0.02555852 0.062052667 -0.10748459 0.019091388 0.031509135 -0.04264204 -0.09398888
0.028816434 -0.02629439 -0.0029032019 0.05384202 0.031803567 -0.013553372 -0.040483765 0.046017025
0.025673332 -0.014115169 0.058148567 0.0105150435 -0.13126639 -0.03956796 0.056288492 -0.1095826
-0.088031024 0.06319945 0.114007406 0.0014655307 -0.025503682 0.0034673864 0.03982284 0.094062485
0.062345427 -0.013710188 0.068550564 -0.027427815 -0.07341159 -0.04509956 -0.040239528 0.02864326
-0.00033795988 -0.072103165 0.020183288 0.14072344 0.015254056 0.0432699 0.0099265035 0.057736624
0.07710755 -0.06612506 -0.02870617 0.04967077 -0.09025901 0.031084443 0.076249726 -0.010686525
-0.029466787 0.08342163 -0.042043995 0.09305688 0.024211999 0.07508151 0.034974616 -0.035563264
-0.024555834 -0.071003415 -0.005179652 -0.07752438 -0.013061101 0.025634455 -0.0012921558 0.029699402
00000000: a52c 653d 4398 11bd 7e86 d6bd a2c9 aa3d
00000010: 4448 49bd ce80 38bd b139 e63d efea 763d
00000020: 7dcd 3a3d d652 9d3d 1b16 ae3d f1af ef3d
00000030: 85e6 13bd 4037 84bc 10ed 8b3d 0e6e d8bb
00000040: e091 663d d068 523d 2209 743d 37fa 3f3d
00000050: 7ee6 cb3c f2bd 513d 0732 f13b 8da1 9b3c
00000060: 59e8 cb3c 97c4 b6bd e31d 6dbd 5246 bc3c
00000070: 4b0e 98bd 404a 32bd ea20 763c 73e6 a1bd
00000080: 7a4e a5bd cd62 b13d 30ac 093d e2f3 dbbd
00000090: cdb2 993d ba71 3abd a0fe a73d 8fed b53d
000000a0: 11fe b7bd 0437 f73d b927 cd3a 9801 a1bc
000000b0: f2b7 b2bc b356 963d cb66 913d 7bce 313d
000000c0: 6713 03be 2904 0c3a bb03 af3d 6588 663d
000000d0: d0c9 a5bd c919 18bd b59e b13d baac b13d
000000e0: 4886 da3c e244 fe3c 36e9 a03d 0548 7bbd
000000f0: 982c 3cbd b606 00bd 6906 07be d657 2fbd
00000100: b110 3c3d b695 bbbd ffe3 cb3d 13f0 ac3d
00000110: 2a10 2bbc 0a95 9abd 0a77 55bd f994 7b3d
00000120: 94a8 c43d 86d0 5cbd f89d be3d 37c9 f43b
00000130: d18a 91bc 950f 93bb 40c0 ba3d ae5e c3bd
00000140: 5a1c 9f3d d1b0 cc3a 7470 503d 8003 d7bb
00000150: faa2 893d dea5 dcbc 27ae 13bd 8077 5d3d
00000160: 30c5 bd3c 0da5 5abd 242b 773d 4799 bf3c
00000170: 72e8 883d cf49 ca3d 7edb aebd a9f7 213d
00000180: 7a97 bbbb 909e 4e3d 4677 273c e55b 023e
00000190: 52b9 e9bd e312 3c3d 3b1c a33c b3a2 51bc
000001a0: 137b 7c3d 6db9 6eba f36a 91bd 1f33 d4bb
000001b0: c9de 433d d7fe a13d 7393 19bc fae4 6b3d
000001c0: afc7 acbd 0cd7 8bbc 98a1 05bd 9173 5abc
000001d0: 2b2f 423c 7212 1f3d 1553 02be 3404 093d
000001e0: 1dee 243c 5761 633d 24a4 cd3b 5a6b e53c
000001f0: 031f 3a3d dd35 8bbd 72e3 8b3d 729a 023e
00000200: 63e2 d4bd bf59 bbbb 132f 48bb 7ae1 cc3d
00000210: ca38 803d cc6c 8bbc 2205 b93c 4e09 9e3c
00000220: f5e2 15bd 218f 4dbd de6d 40bd 6c4f c4bc
00000230: 80c2 42bd 1fbc a3bd e270 c5bc 588b 2abd
00000240: 7155 9cbd e227 8ebd 4eb5 80bd f26f 3dbd
00000250: 0e25 42bd d8a8 69bd 4a39 ce3c b011 d4bc
00000260: a515 21bd f065 ba3b d3d4 87bd abda 06bc
00000270: 2a4d b0bd 137f 44bc 635b 823d 7b6e 99bc
00000280: 2144 8f3d a6cc a43d ef98 81bc e337 693d
00000290: 808c f13c ce53 c7bd d5d2 60bd 7a8e 0b3d
000002a0: 7024 d8bd 04bb 32bd 00ef b3bc 9cca 823c
000002b0: 7b9a 843c d521 aa3d 43c1 17bd ad08 56bd
000002c0: 4767 383d b8ad 213d 9d09 f9bc 66ee 863d
000002d0: b4ab 693b f6c1 9bbd 1c7d 5bbd f7e8 4c3d
000002e0: 96d6 503d 1a60 d13c f02a 7e3d e120 dcbd
000002f0: 8b65 9c3c b90f 013d 6ba9 2ebd 3e7d c0bd
00000300: 7110 ec3c 5567 d7bc a543 3ebb 7389 5c3d
00000310: 7544 023d f60e 5ebc 4ed2 25bd 597c 3c3d
00000320: e150 d23c 4f43 67bc 312d 6e3d 4a47 2c3c
00000330: b26a 06be 0312 22bd c38e 663d d86c e0bd
00000340: 9c49 b4bd b76e 813d b77c e93d 0d17 c03a
00000350: 19ed d0bc 173d 633b 461d 233d d5a3 c03d
00000360: eb5d 7f3d b2a0 60bc 3d64 8c3d 4cb0 e0bc
00000370: d158 96bd 51ba 38bd 34d2 24bd 45a5 ea3c
00000380: 3530 b1b9 d3aa 93bd 6c57 a53c ce19 103e
00000390: 26ec 793c c73b 313d c6a2 223c 3d7d 6c3d
000003a0: 90ea 9d3d 936c 87bd 3429 ebbc 9473 4b3d
000003b0: b7d9 b8bd cda4 fe3c d128 9c3d 8916 2fbc
000003c0: 5564 f1bc f6d8 aa3d 5336 2cbd 9b94 be3d
000003d0: 3e58 c63c 56c4 993d 8b41 0f3d c9aa 11bd
000003e0: 5129 c9bc 3d6a 91bd 12ba a9bb 1ac5 9ebd
000003f0: 3afe 55bc 59ff d13c 8e5d a9ba 294c f33c

layers.2.bias f4 [64]
0.07461919 0.004574806 0.08820697 0.025797013 -0.047188748 0.014833724 -0.027972545 0.05143986
-0.0846872 -0.07290602 0.009287327 -0.038335215 0.0023105438 -0.009574545 -0.04533996 0.064652555
-0.018582027 0.024409138 0.0023870007 -0.017521176 0.05963871 0.023059681 -0.068902224 -0.12912738
0.07617535 -0.02909695 0.014416485 -0.02812301 0.11731572 -0.08444337 0.026296288 -0.039995305
0.095765926 0.024659842 0.14164954 0.04626541 0.019240709 0.027570136 0.018823221 0.03409229
-0.0303976 0.094580956 0.057098944 0.002582429 -0.107639 -0.04265361 -0.116293885 -0.1422251
0.09993028 -0.08891312 -0.017342094 0.024408026 0.014029308 0.13873275 -0.039857533 -0.11429489
0.0900007 -0.12953144 -0.050795555 0.034164123 -0.14472798 -0.12189085 0.017980527 -0.017959217
00000000: f2d1 983d 41e8 953b dba5 b43d 4254 d33c
00000010: fd48 41bd 2609 733c ae26 e5bc 9ab2 523d
00000020: 7c70 adbd c04f 95bd df29 183c 6305 1dbd
00000030: 7e6c 173b 8dde 1cbc 65b6 39bd 8f68 843d
00000040: 5639 98bc acf5 c73c 3a6f 1c3b 9288 8fbc
00000050: b847 743d a8e7 bc3c 9c1c 8dbd f839 04be
00000060: d201 9c3d ba5c eebc 1f33 6c3c 3a62 e6bc
00000070: 3943 f03d a5f0 acbd 506b d73c 1ed2 23bd
00000080: ed20 c43d 7003 ca3c 940c 113e cc80 3d3d
00000090: b19e 9d3c c4da e13c 2833 9a3c 5ba4 0b3d
000000a0: 6304 f9bc a9b3 c13d 95e0 693d f83d 293b
000000b0: d671 dcbd 8db5 2ebd 7d2b eebd 75a3 11be
000000c0: 3fa8 cc3d 1518 b6bd 0211 8ebc 57f3 c73c
000000d0: 2fdb 653c f50f 0e3e a741 23bd 7013 eabd
000000e0: 4952 b83d e4a3 04be 000f 50bd aeef 0b3d
000000f0: 9233 14be e9a1 f9bd e64b 933c 351f 93bc

readout.weight f4 [1, 64]
-0.18795717 -0.1461813 -0.10818529 0.11807139 0.17722677 0.20394462 -0.18643995 -0.16699976
0.18911305 0.20689689 -0.18325908 0.08815575 -0.07953148 -0.1688259 0.26533848 -0.1348804
-0.14689228 0.10942853 0.15332066 -0.04027648 -0.17785445 0.14889482 0.1437959 0.15914555
-0.14469641 -0.19505002 -0.23638928 0.18963811 -0.15514567 0.22450073 0.10369076 -0.010535278
-0.2259894 0.15498321 -0.14119817 -0.19228755 0.11772025 -0.23975381 -0.16020337 0.19271027
-0.25437376 -0.17204395 -0.11521299 -0.17831786 0.22128978 0.24851176 0.14282171 0.17406249
-0.17957725 0.168702 0.27525914 -0.13384266 -0.20272319 -0.2788607 -0.1261959 0.18152115
-0.16923967 0.16115536 0.18518229 0.11154136 0.13626237 0.1841259 -0.16424319 0.27259988
00000000: d877 40be 8db0 15be 4090 ddbd 6acf f13d
00000010: ef7a 353e dcd6 503e 1dea 3ebe fc01 2bbe
00000020: daa6 413e c7dc 533e 45a8 3bbe 008b b43d
00000030: 67e1 a2bd b2e0 2cbe 72da 873e 161e 0abe
00000040: ee6a 16be 111c e03d 1700 1d3e f3f8 24bd
00000050: 7a1f 36be e277 183e 3b3f 133e 0df7 223e
00000060: 4c2b 14be 31bb 47be 0810 72be 7e30 423e
00000070: 82de 1ebe 85e3 653e d25b d43d 299c 2cbc
00000080: c469 67be ebb3 1e3e 4196 10be 07e7 44be
00000090: 5017 f13d 0682 75be 5a0c 24be d755 453e
000000a0: 473d 82be 4a2c 30be caf4 ebbd f598 36be
000000b0: ca99 623e de79 7e3e db3f 123e 703d 323e
000000c0: 19e3 37be 38c0 2c3e c4ee 8c3e 0d0e 09be
000000d0: ab96 4fbe d4c6 8ebe 7f39 01be aee0 393e
000000e0: 2a4d 2dbe e905 253e 6da0 3d3e cc6f e43d
000000f0: 5d88 0b3e 808b 3c3e 5e2f 28be 3692 8b3e

layers.0.weight f4 [128, 17]
0.27574137 0.13325389 0.38185677 0.06613028 -0.10276272 0.084928066 -0.28543797 -0.3306565
-0.22775148 -0.15750653 0.048007715 -0.047921326 0.02959228 -0.108694665 -0.002860731 0.10662433
-0.011148162 -0.072249904 -0.4094682 -0.0005270416 0.18321778 0.24345836 -0.21294226 -0.14060077
0.16543151 -0.35302845 -0.14639369 -0.06519315 -0.06866916 0.15234028 0.016672168 0.13134357
0.05854641 -0.15676278 0.17691188 -0.04330371 0.19354506 0.21350902 0.2507793 0.152621
0.03146657 0.30960456 -0.18840003 0.34557107 -0.1860344 -0.09107134 0.16347776 0.10951618
0.1922155 0.015148318 0.1334943 -0.17103758 -0.21624334 0.15109968 -0.069862984 0.09998422
-0.1037366 0.083490096 0.11544547 0.24299951 0.0006628412 -0.1739635 0.082841285 0.20349503
0.0046401187 -0.12117677 -0.12813708 -0.1309112 -0.05357098 -0.25961277 -0.13463753 0.31633204
-0.2039584 -0.0904747 -0.25299802 0.23486063 0.0772312 0.05152846 0.024008844 -0.08559188
-0.14889075 -0.03080371 0.068995275 -0.0087937135 -0.1419508 0.4020043 -0.4040244 0.17290413
-0.12554197 -0.10314172 -0.077721134 -0.21239983 0.09122232 -0.448757 -0.22605674 -0.14513366
-0.043759737 0.1436372 0.11900492 -0.12729666 -0.14639638 0.058294777 0.20299657 -0.075455144
0.1064893 -0.21722947 0.045378875 -0.25375724 0.3172022 -0.19062142 -0.23786315 0.26567852
0.029026223 0.1650975 0.093766235 -0.21849613 -0.23565228 -0.1586247 0.15859321 -0.10680204
-0.12371944 -0.23431052 -0.1858625 -0.022203628 0.19002333 -0.14509411 0.0068148784 0.11597944
0.06792187 0.23580661 0.03496671 0.030768363 0.024034144 0.20690951 0.19706312 0.15604593
0.20326123 0.28959718 -0.20677368 0.11866748 -0.12287947 -0.025707552 0.022726018 0.09084899
-0.073678516 0.26911125 0.06842396 -0.07951014 0.12026923 -0.0017124433 -0.2250803 -0.041685212
-0.06286122 0.40856016 -0.3605668 -0.37358984 0.03895644 -0.04352182 0.032233585 -0.1939817
-0.022026911 0.06824125 -0.028788755 -0.03598557 -0.08144032 -0.092489086 0.14489129 0.13008256
0.10447248 -0.1321327 0.049087904 -0.095542416 0.22862527 -0.24110599 -0.18193372 0.009310313
-0.2932703 0.13798979 -0.19454288 -0.39859563 0.27075446 0.13612649 -0.21630636 -0.19515437
0.08612476 0.15006763 0.14716299 0.06456102 -0.233341 -0.2453872 -0.088531256 0.051897302
0.40411314 -0.2633363 0.10399353 -0.001352355 0.0311098 -0.028992526 0.0048396406 -0.15312198
0.07668804 -0.14621808 0.2166728 0.09061506 0.20147799 -0.34317377 0.15133157 0.096376
-0.15356441 -0.3947568 -0.05401303 -0.0060990234 -0.0468903 -0.03283126 0.29793656 -0.02583208
0.07920312 -0.20260328 0.1326336 0.26368973 0.064156964 -0.079076506 0.23188779 0.20989029
0.091852374 -0.003953401 -0.044418383 0.3953096 -0.027342813 0.2728609 0.0152164055 -0.19849925
0.15087816 0.22279386 0.14133841 -0.09245292 -0.016889948 0.101149276 0.27417466 -0.2682264
-0.036751993 -0.2542143 -0.3310001 -0.38344884 -0.028013023 -0.59276927 -0.3704807 0.4167233
-0.04885502 -0.17962526 -0.0100270435 0.047635682 -0.009918991 0.0131353475 0.17092763 -0.019165754
00000000: f92d 8d3e b573 083e bb82 c33e 506f 873d
00000010: 4375 d2bd c4ee ad3d ed24 92be cf4b a9be
00000020: af37 69be 6449 21be bda3 443d 2749 44bd
00000030: 826b f23c 4f9b debd 1a7b 3bbb db5d da3d
00000040: c8a6 36bc c2f7 93bd d1a5 d1be 2a29 0aba
00000050: 719d 3b3e 264d 793e 890d 5abe a6f9 0fbe
00000060: e166 293e 25c0 b4be 3ae8 15be fc83 85bd
00000070: 6ba2 8cbd 17ff 1b3e 1294 883c ee7e 063e
00000080: 5cce 6f3d 6c86 20be 6328 353e 3b5f 31bd
00000090: ad30 463e 1ca2 5a3e 2566 803e ae48 1c3e
000000a0: 17e3 003d 7d84 9e3e f0eb 40be b1ee b03e
000000b0: cd7f 3ebe 9c83 babd b766 273e 054a e03d
000000c0: 24d4 443e a730 783c bbb2 083e 7a24 2fbe
000000d0: e56e 5dbe e0b9 1a3e 5314 8fbd 87c4 cc3d
000000e0: db73 d4bd dbfc aa3d ad6e ec3d ddd4 783e
000000f0: 85c2 2d3a 7d23 32be b1a8 a93d 0061 503e
00000100: 230c 983b 872b f8bd 5e36 03be 960d 06be
00000110: 3e6d 5bbd f7eb 84be 6cde 09be 46f6 a13e
00000120: 79da 50be cd4a b9bd f588 81be 4e7f 703e
00000130: 642b 9e3d 820f 533d 32ae c43c cc4a afbd
00000140: d176 18be 1058 fcbc 654d 8d3d 8213 10bc
00000150: 8d5b 11be 82d3 cd3e 49dc cebe c80d 313e
00000160: 138e 00be f73b d3bd 422c 9fbd 577f 59be
00000170: c5d2 ba3d 7ac3 e5be 6b7b 67be eb9d 14be
00000180: 693d 33bd a115 133e dab8 f33d 0e5a 02be
00000190: efe8 15be 81c6 6e3d 55de 4f3e 3a88 9abd
000001a0: 1017 da3d 6771 5ebe 33df 393d 78ec 81be
000001b0: 5468 a23e 4332 43be 6692 73be 0407 883e
000001c0: 67c8 ed3c 520f 293e 8308 c03d 73bd 5fbe
000001d0: d54e 71be 836e 22be 4266 223e 07bb dabd
000001e0: 9e60 fdbd 19ef 6fbe bd52 3ebe 62e4 b5bc
000001f0: 7a95 423e 8d93 14be 584f df3b a186 ed3d
00000200: 9f1a 8b3d 4a77 713e 4139 0f3d ef0d fc3c
00000210: 41e3 c43c 16e0 533e eaca 493e 81ca 1f3e
00000220: b623 503e 1546 943e 7bbc 53be f007 f33d
00000230: 3ba8 fbbd a598 d2bc ea2b ba3c 090f ba3d
00000240: c3e4 96bd f3c8 893e dc21 8c3d 36d6 a2bd
00000250: b74f f63d 1074 e0ba 737b 66be 1dbe 2abd
00000260: 62bd 80bd cc2e d13e 369c b8be 2b47 bfbe
00000270: ca90 1f3d f043 32bd 5d07 043d 24a3 46be
00000280: c871 b4bc 12c2 8b3d 65d6 ebbc 9b65 13bd
00000290: 2fca a6bd eb6a bdbd 625e 143e 5d34 053e
000002a0: abf5 d53d cb4d 07be 6610 493d beab c3bd
000002b0: be1c 6a3e 7de4 76be d54c 3abe 488a 183c
000002c0: 8627 96be 324d 0d3e 4036 47be ba14 ccbe
000002d0: 54a0 8a3e be64 0b3e 6a7f 5dbe 8cd6 47be
000002e0: 2e62 b03d 54ab 193e e5b1 163e 9138 843d
000002f0: f1f0 6ebe c846 7bbe e04f b5bd 4492 543d
00000300: ebe7 ce3e 04d4 86be 8ffa d43d 8141 b1ba
00000310: fbd9 fe3c bc81 edbc d995 9e3b 02cc 1cbe
00000320: 9e0e 9d3d 31ba 15be 79df 5d3e 6394 b93d
00000330: 3f50 4e3e 79b4 afbe aaf6 1a3e c860 c53d
00000340: fd3f 1dbe 901d cabe c43c 5dbd 51da c7bb
00000350: 0b10 40bd 127a 06bd 248b 983e cc9d d3bc
00000360: 3f35 a23d 3c77 4fbe 1ad1 073e 5702 873e
00000370: ba64 833d ddf2 a1bd fe73 6d3e 7bed 563e
00000380: 191d bc3d 888b 81bb 0df0 35bd 0566 ca3e
00000390: 09fe dfbc 6db4 8b3e 3b4e 793c 6343 4bbe
000003a0: ce7f 1a3e 1324 643e 04bb 103e f557 bdbd
000003b0: ca5c 8abc 5a27 cf3d 9f60 8c3e f854 89be
000003c0: 4289 16bd 6028 82be d878 a9be 6853 c4be
000003d0: 917b e5bc babf 17bf a5af bdbe c25c d53e
000003e0: 341c 48bd afef 37be 7848 24bc a21d 433d
000003f0: 4383 22bc a435 573c a707 2f3e 8001 9dbc

layers.0.bias f4 [128]
0.12287443 0.11063996 -0.27917862 0.32691795 0.16679822 -0.45935842 0.14318189 0.13499954
-0.35890922 -0.27567938 0.10555373 0.13998348 0.19407831 0.3235572 -0.04174606 -0.19185886
-0.37260696 0.12834346 0.16758071 0.012637364 0.075658 0.313131 -0.412846 0.056673974
-0.33736047 0.21094944 0.21504223 0.27352223 0.037411418 0.22850424 0.05274064 0.013601443
-0.2888613 -0.107221894 -0.03834995 -0.25084385 -0.29378724 0.088624425 -0.29783455 0.028913585
-0.10335991 0.13020986 -0.1216387 -0.059239358 -0.32520586 0.08739718 -0.02115103 0.29539645
-0.17575905 0.14811394 0.04172182 0.16104573 0.017565813 -0.37488002 0.050610878 -0.5137069
0.013432616 -0.12608716 -0.22471358 -0.21267484 0.17219444 -0.0115109375 -0.49633923 0.19578631
-0.08218593 -0.34080565 0.26682508 -0.23941235 -0.21208924 -0.34254447 0.2569966 0.20659688
-0.3382852 -0.06062242 -0.34862867 0.0561408 -0.19378598 -0.19345252 -0.0811746 -0.36064222
0.10588533 -0.25050724 -0.1175729 -0.19765179 0.16873883 -0.07990859 0.2728638 0.010845906
-0.30044806 0.24027228 -0.13397872 -0.2159446 -0.036717914 0.09103854 0.21212693 -0.41403592
-0.08006921 -0.12207327 -0.13615018 0.15510489 0.21642415 -0.4552057 0.22583985 -0.06641629
0.28856587 -0.27079418 -0.12159042 -0.36044738 0.20156062 0.16461375 0.32302627 0.24262229
-0.28151122 0.11834997 -0.08135495 -0.1821798 -0.1807989 -0.07506022 0.19348665 -0.28665432
0.053786717 -0.34357917 -0.09485742 0.15611131 -0.084171526 -0.31476218 -0.09981672 0.06811817
00000000: 97a5 fb3d 3497 e23d 80f0 8ebe ca61 a73e
00000010: 27cd 2a3e 0731 ebbe 469e 123e 523d 0a3e
00000020: f3c2 b7be d925 8dbe 8e2c d83d d457 0f3e
00000030: 77bc 463e 4aa9 a53e ebfd 2abd a676 44be
00000040: 57c6 bebe 786c 033e 479a 2b3e f20c 4f3c
00000050: 95f2 9a3d b552 a03e 8d60 d3be f822 683d
00000060: 83ba acbe 2103 583e 0834 5c3e 1b0b 8c3e
00000070: b73c 193d 04fd 693e 9206 583d 96d8 5e3c
00000080: a1e5 93be 2797 dbbd d614 1dbd 9b6e 80be
00000090: 486b 96be b980 b53d c57d 98be 2fdc ec3c
000000a0: 5cae d3bd bc55 053e b61d f9bd f8a4 72bd
000000b0: 6281 a6be 4bfd b23d ed44 adbc 343e 973e
000000c0: 2efa 33be 2eab 173e 80e4 2a3d 2ce9 243e
000000d0: 2ee6 8f3c 46f0 bfbe 5a4d 4f3d 4c82 03bf
000000e0: 7a14 5c3c fe1c 01be 511b 66be 6fc7 59be
000000f0: bd53 303e 5f98 3cbc 2d20 febe 357c 483e
00000100: 1951 a8bd 147e aebe 4c9d 883e 8328 75be
00000110: ec2d 59be fd61 afbe 0f95 833e 228e 533e
00000120: b833 adbe 374f 78bd 757f b2be e5f3 653d
00000130: d56f 46be 6b18 46be de3e a6bd 19a6 b8be
00000140: 68da d83d 7c42 80be 10ca f0bd 3b65 4abe
00000150: dfc9 2c3e 1da7 a3bd ceb4 8b3e 07b3 313c
00000160: 54d4 99be f009 763e b831 09be 9520 5dbe
00000170: 8665 16bd 6a72 ba3d cd37 593e 84fc d3be
00000180: 53fb a3bd 8d01 fabd f46a 0bbe d1d3 1e3e
00000190: 4b9e 5d3e b910 e9be 9042 673e 4405 88bd
000001a0: e8be 933e 89a5 8abe 6604 f9bd 8f8c b8be
000001b0: e865 4e3e 8290 283e b363 a53e fa71 783e
000001c0: 3d22 90be 7861 f23d 6d9d a6bd 578d 3abe
000001d0: 5923 39be 2cb9 99bd 5d21 463e 5bc4 92be
000001e0: 764f 5c3d 9ce9 afbe 9b44 c2bd a5db 1f3e
000001f0: 1f62 acbd 8228 a1be b56c ccbd 8a81 8b3d

layers.1.weight f4 [128, 128]
0.0343593 0.04551387 0.06169077 -0.04651927 0.059788745 -0.015860263 -0.051745437 -0.06763707
0.048721205 0.052240364 0.032787915 0.09337787 -0.004999059 -0.05573905 -0.04285666 -0.023885341
0.085192904 0.0884665 0.018489243 -0.112040795 -0.056494534 0.0074240766 0.1348186 0.058310557
0.04187535 -0.07128198 0.11013188 -0.0753151 0.082477905 0.08436463 -0.05835624 -0.053614285
-0.024617145 -0.12140659 0.06705128 -0.054642048 0.067778915 -0.015653938 0.11680793 -0.050714947
-0.041561086 0.015827782 -0.05248207 0.05988564 0.12605205 -0.0017441905 0.0125069115 0.0050215605
-0.085734926 -0.058977257 -0.09606838 0.033627957 0.022100445 0.09624864 -0.07353734 -0.06986401
-0.052957695 -0.1259565 -0.014047909 -0.014489143 -0.08808575 -0.060923964 -0.012227083 0.059361205
0.013683173 0.02353235 -0.067314304 -0.060716677 0.118167005 -0.008846534 -0.07928637 -0.021898424
-0.010402899 0.14931105 0.053250603 -0.034953106 0.033556513 0.087257795 -0.0074382834 0.06983585
0.05465725 0.09608591 -0.07628132 0.02857367 -0.0064604045 -0.030628813 0.07448937 0.04699405
-0.06522441 0.01967018 -0.078937605 0.022413857 -0.06683945 0.020782534 0.0565155 -0.012202212
-0.055622105 -0.0065388633 -0.11463047 -0.13995616 -0.0048953593 -0.05717579 0.013697956 -0.059737463
-0.10538797 0.10093453 0.055876218 0.009080965 0.066064276 0.009882719 -0.13261063 0.06366013
0.040961854 0.019076906 -0.10470317 0.09685355 -0.06233986 0.049082298 0.08464809 0.026329946
-0.0062074414 0.043611977 0.14131121 0.06205014 0.016133517 0.047104318 -0.039193705 0.009777521
0.1550065 0.06382103 0.026446534 -0.034022354 -0.034954526 0.062433418 -0.05993882 -0.049625657
-0.017073741 0.07068555 -0.011047059 0.048620563 0.12242383 -0.017062856 0.020723611 0.0903713
-0.026163999 0.013219521 0.05746992 0.027249085 0.025620982 -0.057415243 0.007072099 -0.0557348
-0.048354406 0.054581255 0.047068104 0.13431297 -0.0046711434 0.0737713 -0.015590443 0.052987874
-0.009302856 -0.077684805 0.079682246 0.09883396 -0.037581604 0.07071942 -0.031052835 -0.080282696
-0.01602421 0.11873538 -0.08233463 -0.07161585 -0.07671509 -0.035348937 0.038456462 -0.0048668664
0.049503163 0.07039074 -0.012054488 0.042676933 0.014596254 0.08286342 0.035354957 0.14411433
-0.0596011 -0.048322603 -0.058200017 0.23206921 -0.061869398 0.0858992 -0.041374367 0.06040234
0.067438096 0.080099 0.042230915 -0.14740293 0.0639926 -0.026965015 0.0093680285 0.07762616
0.19346666 -0.010563505 -0.0435036 -0.06561822 -0.084235564 0.020974267 0.043052666 0.054570388
-0.07183548 0.10001221 0.0039650137 -0.042650662 0.17767894 0.1326248 -0.070627816 -0.04980646
0.07465418 -0.030992588 -0.0104241725 -0.020276196 0.10276555 -0.04259605 -0.008165016 -0.00090491486
-0.02598904 -0.018884115 -0.053934205 0.008223332 0.020704951 -0.07688588 0.028388828 0.039321344
0.050768543 -0.025680803 0.08345017 -0.11800403 0.14013512 -0.0048977067 -0.05368977 -0.036121298
0.06721785 0.024734966 0.006829622 -0.07260944 -0.022024434 0.0032384836 0.034065396 0.03643129
0.016353145 0.1360894 0.07348913 0.06871825 -0.062217034 -0.024494376 0.062709086 -0.10744905
00000000: 56bc 0c3d c06c 3a3d 76af 7c3d fd8a 3ebd
00000010: 0be5 743d 62ed 81bc 06f3 53bd 4e85 8abd
00000020: e38f 473d fef9 553d 9f4c 063d e63c bf3d
00000030: 25cf a3bb a14e 64bd 778a 2fbd 31ab c3bc
00000040: 9e79 ae3d ed2d b53d c176 973c a575 e5bd
00000050: d066 67bd ab45 f33b e30d 0a3e 0dd7 6e3d
00000060: 7d85 2b3d 49fc 91bd d38c e13d ce3e 9abd
00000070: 2dea a83d 5dc7 ac3d f406 6fbd a79a 5bbd
00000080: e5a9 c9bc 05a4 f8bd 2e52 893d 57d0 5fbd
00000090: accf 8a3d b03c 80bc ff38 ef3d 7aba 4fbd
000000a0: f53b 2abd 44a9 813c 70f7 56bd a54a 753d
000000b0: ca13 013e 529d e4ba cae9 4c3c e78b a43b
000000c0: cb95 afbd 2392 71bd 80bf c4bd 78bd 093d
000000d0: fe0b b53c 021e c53d bf9a 96bd dd14 8fbd
000000e0: 2bea 58bd befa 00be 3329 66bc df63 6dbc
000000f0: 4d66 b4bd 688b 79bd 1a54 48bc bc24 733d
00000100: 632f 603c eac6 c03c 15dc 89bd 0db2 78bd
00000110: 8b01 f23d 0ef1 10bc e460 a2bd 5364 b3bc
00000120: ec70 2abc ffe4 183e 4e1d 5a3d fd2a 0fbd
00000130: 8e72 093d 37b4 b23d d8bc f3bb 1906 8f3d
00000140: 48e0 5f3d b1c8 c43d 6139 9cbd 5413 ea3c
00000150: cdb1 d3bb 47e9 fabc e28d 983d d57c 403d
00000160: 6094 85bd 5b23 a13c 0aaa a1bd 449d b73c
00000170: 1fe3 88bd 2240 aa3c cc7c 673d c9eb 47bc
00000180: 01d4 63bd f643 d6bb 61c3 eabd ab50 0fbe
00000190: 4069 a0bb 2931 6abd 646d 603c 45af 74bd
000001a0: a6d5 d7bd c3b6 ce3d 76de 643d 54c8 143c
000001b0: b54c 873d 21eb 213c 15cb 07be 3e60 823d
000001c0: 9ec7 273d 2c47 9c3c 9e6e d6bd 275b c63d
000001d0: 1558 7fbd 850a 493d fa5b ad3d e6b1 d73c
000001e0: cb67 cbbb 79a2 323d e3b3 103e 4a28 7e3d
000001f0: 702a 843c 75f0 403d 9489 20bd e531 203c
00000200: 06ba 1e3e 9ab4 823d 67a6 d83c 065b 0bbd
00000210: 7a2c 0fbd 2fba 7f3d 6882 75bd 4644 4bbd
00000220: 3bde 8bbc 96c3 903d b9fe 34bc 5b26 473d
00000230: 58b9 fa3d 67c7 8bbc 90c4 a93c 9714 b93d
00000240: e255 d6bc b196 583c 9465 6b3d 7939 df3c
00000250: 18e3 d13c 3f2c 6bbd 11bd e73b 2c4a 64bd
00000260: 450f 46bd 9890 5f3d 7cca 403d 5789 093e
00000270: 6410 99bb 6815 973d 0f6f 7fbc d009 593d
00000280: 026b 18bc 3619 9fbd 7230 a33d 7669 ca3d
00000290: 2bef 19bd 58d5 903d 8462 febc 416b a4bd
000002a0: 3445 83bc 892b f33d 0f9f a8bd 55ab 92bd
000002b0: cd1c 9dbd 0cca 10bd 8684 1d3d 3c7a 9fbb
000002c0: d4c3 4a3d 0529 903d 3080 45bc 02ce 2e3d
000002d0: 2025 6f3c 4cb4 a93d 5cd0 103d b592 133e
000002e0: 4820 74bd eced 45bd 2463 6ebd 8da3 6d3e
000002f0: c46a 7dbd ebeb af3d 2b78 29bd 7268 773d
00000300: fc1c 8a3d f20a a43d 53fa 2c3d cbf0 16be
00000310: 8d0e 833d bce5 dcbc 5c7c 193c 77fa 9e3d
00000320: 201c 463e 8d12 2dbc d530 32bd d862 86bd
00000330: b283 acbd 3ad2 ab3c fe57 303d 3385 5f3d
00000340: 7b1e 93bd 34d3 cc3d f2ec 813b 76b2 2ebd
00000350: 78f1 353e ccce 073e 51a5 90bd dc01 4cbd
00000360: 4ae4 983d 2be4 fdbc 26ca 2abc 441a a6bc
00000370: bf76 d23d 3279 2ebd 8fc6 05bc cf37 6dba
00000380: f8e6 d4bc dcb2 9abc 1dea 5cbd 28bb 063c
00000390: 6e9d a93c 5876 9dbd b08f e83c 6b0f 213d
000003a0: adf2 4f3d 8c60 d2bc ece7 aa3d 19ac f1bd
000003b0: 957f 0f3e f17c a0bb cee9 5bbd edf3 13bd
000003c0: 83a9 893d fca0 ca3c 06cb df3b 42b4 94bd
000003d0: 966c b4bc bd3c 543b 2888 0b3d fa38 153d
000003e0: 08f7 853c 055b 0b3e 7881 963d 27bc 8c3d
000003f0: 4ad7 7ebd 6ea8 c8bc 9f6d 803d 3f0e dcbd

layers.1.bias f4 [128]
-0.043547075 -0.05278191 0.023025446 -0.0555359 0.04604951 0.02107334 0.010308645 -0.0175917
0.045984983 -0.086386584 -0.10159116 -0.09452973 0.032837123 0.027878582 0.019064594 -0.07507771
0.032898534 0.0043160277 -0.012860761 0.012673688 0.093955375 0.10909014 0.053558297 -0.062582836
-0.031698957 0.037876856 0.051370025 -0.06616682 -0.13756427 0.0967412 0.035519898 -0.020385286
-0.025102472 -0.26976076 -0.046215862 -0.019290376 0.03455682 0.023454834 0.044124257 0.053662308
0.020355674 -0.2357475 0.014444317 -0.0304053 0.07839729 -0.008300306 0.1342547 0.11263996
0.015935317 -0.039989397 -0.063720986 0.09438615 -0.05681308 -0.053416204 0.07459776 -0.11651555
-0.0345896 -0.0027891204 -0.081975 -0.23625435 0.013359984 -0.12435548 0.033561036 -0.051965583
0.120405525 0.06932283 -0.0019057194 0.032997254 -0.019554416 0.016938483 -0.08823968 0.007327123
-0.054513074 0.00015743695 0.017996974 0.07488518 0.10444473 8.117499e-05 0.04218984 -0.17159663
0.13343011 -0.004058475 0.100963295 -0.035577893 0.048681084 0.09648832 0.068896085 -0.025631879
-0.030491395 0.02100102 -0.06858518 -0.0021499693 0.05726459 0.16128156 -0.0385216 0.10478935
-0.035018124 -0.076308765 0.10592549 0.054841697 0.024473622 0.13396902 0.0108279195 -0.011153042
-0.08579055 -0.17034508 -0.034236036 -0.17061861 0.066347405 0.023065701 -0.20585613 0.003887763
-0.09296981 -0.15205152 0.1093683 0.06597708 -0.12295896 -0.02132115 0.031624123 -0.11401184
0.008967612 0.053297114 -0.2257425 -0.021800054 0.049373686 0.011889765 0.0181792 -0.18368605
00000000: 6b5e 32bd d831 58bd dc9f bc3c 9d79 63bd
00000010: 699e 3c3d ffa1 ac3c 97e5 283c 781c 90bc
00000020: c05a 3c3d 73eb b0bd 070f d0bd ce98 c1bd
00000030: 3880 063d a061 e43c 5a2d 9c3c 58c2 99bd
00000040: 9dc0 063d 776d 8d3b f1b5 52bc 4da5 4f3c
00000050: ad6b c03d a76a df3d f25f 5b3d 6e2b 80bd
00000060: c4d6 01bd c324 1b3d 6069 523d 7882 87bd
00000070: a6dd 0cbe 4020 c63d 507d 113d 0bff a6bc
00000080: b3a3 cdbc 151e 8abe d84c 3dbd da06 9ebc
00000090: 748b 0d3d 5a24 c03c a3bb 343d 02cd 5b3d
000000a0: f1c0 a63c cb67 71be dba7 6c3c 8914 f9bc
000000b0: c28e a03d 02fe 07bc 107a 093e c8af e63d
000000c0: c88a 823c eccb 23bd 2680 82bd 874d c13d
000000d0: d5b4 68bd f3ca 5abd b6c6 983d b49f eebd
000000e0: d3ad 0dbd adc9 36bb 82e2 a7bd a9ec 71be
000000f0: d6e3 5a3c 16ae febd 4c77 093d ddd9 54bd
00000100: 2c97 f63d 21f9 8d3d 55c9 f9ba 2128 073d
00000110: 9530 a0bc 93c2 8a3c 01b7 b4bd 5d18 f03b
00000120: 1a49 5fbd a915 2539 646e 933c 675d 993d
00000130: 1ee7 d53d 7e3c aa38 41cf 2c3d 07b7 2fbe
00000140: e7a1 083e f5fc 84bb d8c5 ce3d 20ba 11bd
00000150: d165 473d ab9b c53d 6419 8d3d f2f9 d1bc
00000160: 17c9 f9bc 550a ac3c 6376 8cbd 80e6 0cbb
00000170: 468e 6a3d fe26 253e d3c8 1dbd cc9b d63d
00000180: 2a6f 0fbd c547 9cbd 77ef d83d b0a1 603d
00000190: e87c c83c 2d2f 093e 9667 313c 40bb 36bc
000001a0: f5b2 afbd f16e 2ebe 163b 0cbd a5b6 2ebe
000001b0: 26e1 873d 48f4 bc3c f3cb 52be d7c9 7e3b
000001c0: f566 bebd 65b3 1bbe 7dfc df3d fe1e 873d
000001d0: e8d1 fbbd b1a9 aebc 4c88 013d 0a7f e9bd
000001e0: e4ec 123c 134e 5a3d 0b29 67be 0796 b2bc
000001f0: 103c 4a3d 4acd 423c 8cec 943c 3218 3cbe
