Gym-DDPG-solution/results/DDPG_HalfCheetah-v4_3500-eps0.5-t32-l0.0001-s1.pth (torch, 193979 bytes, 13 tensors)

layers.0.weight f4 [128, 23]
0	0x3ef6e572	0.48221928
1	0xbe8f6a2b	-0.28010687
2	0xbe3e60e6	-0.18591651
3	0xbe3a8891	-0.18216158
4	0xbe3b9f71	-0.18322541
5	0x3ea28c0d	0.31747475
6	0xbc9029fa	-0.017598141
7	0x3d2365a8	0.03989187
8	0x3e67a6dd	0.22622247
9	0xbd0caf00	-0.03434658
10	0x3d6a477e	0.057197087
11	0x3c283896	0.010267397
12	0x3d3a100e	0.045425467
13	0xbc05f731	-0.008176611
14	0xbc9b2436	-0.018938165
15	0x3bdf7cfd	0.0068203197
16	0xbbd8eb31	-0.006619834
17	0xbbe639d0	-0.0070259348
18	0x3cf978ee	0.030453172
19	0x3cac0ab8	0.021001205
20	0xbd1ef5ce	-0.038808636
21	0xbbf49915	-0.007464538
22	0xbcc7257a	-0.024309862
23	0x3ddcc85b	0.10780402
24	0xbe81020e	-0.2519688
25	0xbef1b0e6	-0.47205275
26	0xbe120123	-0.14258246
27	0xbd843eaa	-0.06457265
28	0xbe8367a8	-0.2566502
29	0x3cd58ed6	0.026069086
30	0x3e2debbc	0.16984457
31	0xbeae91a4	-0.3409549
32	0x3d7e5c33	0.062099647
33	0xbe99b640	-0.30021858
34	0xbdabad10	-0.083826184
35	0xbd05d7f6	-0.03267666
36	0x3d444918	0.04792127
37	0xbd21eec1	-0.039534334
38	0xbb6c7c3a	-0.0036084787
39	0x3ca6b5ed	0.02035042
40	0x3d8a6230	0.06757009
41	0xbe04175d	-0.12899537
42	0x3e968a93	0.294026
43	0xbdcee723	-0.101026796
44	0x3c469965	0.012121533
45	0x3e3a84b1	0.1821468
46	0x3dc67e33	0.09692039
47	0x3bca1460	0.0061669797
48	0xbeb89d97	-0.36057732
49	0xbd600595	-0.054692823
50	0xbe344b85	-0.17606933
51	0xbdcb7101	-0.09933663
52	0x3d832316	0.064031765
53	0x3d20b5b5	0.03923579
54	0xbdcb5901	-0.099290855
55	0x3de63303	0.112401985
56	0xbcfa2ef0	-0.03053996
57	0xbd2a5cd9	-0.041592453
58	0x3c11b9e8	0.008894421
59	0x3bb9f8f7	0.005675431
60	0xbc3a6c99	-0.011378431
61	0xbbb28abc	-0.0054486673
62	0x3c46bc8a	0.012129912
63	0x3dee53b6	0.1163706
64	0xbe79874f	-0.24368022
65	0xbd418b3f	-0.047251936
66	0xbcdcb122	-0.026939932
67	0xbd01867a	-0.031622387
68	0xbe37b0fe	-0.17938611
69	0xbf077d40	-0.5292549
70	0x3e3c6e6f	0.18401502
71	0xbe6f2fe1	-0.23358108
72	0xbe488a83	-0.19584088
73	0x3e50ed73	0.2040308
74	0x3ea44f9b	0.32091984
75	0xbd805ab0	-0.06267297
76	0x3d330945	0.043710012
77	0x3ecf1fab	0.40453848
78	0xbea698f8	-0.3253858
79	0x3c916013	0.017746007
80	0xbd155ede	-0.036467426
81	0xbd133670	-0.035940588
82	0x3c4dacd6	0.012553414
83	0xbc1084ec	-0.008820754
84	0xbcd552f5	-0.026040534
85	0xbbe6950a	-0.00703681
86	0xbefecc0c	-0.4976505
87	0x3dba0f64	0.09084967
88	0xbdb6f8c1	-0.08934165
89	0x3ddf7000	0.10910034
90	0x3d44b36b	0.04802267
91	0xbda9d95b	-0.082934104
92	0x3e05a218	0.13050115
93	0xbdb2cb3f	-0.08730172
94	0x3ebbe926	0.36701316
95	0x3ed6731e	0.41884702
96	0x3ea7d761	0.3278151
97	0xbea34a40	-0.31892586
98	0x3d782f5a	0.060592033
99	0xbe63989c	-0.22226185
100	0x3ed3f803	0.41400155
101	0x3e5383d0	0.20655751
102	0x3e4da775	0.20083411
103	0x3da6adc3	0.08138611
104	0x3d3bc47c	0.04584168
105	0xbd01b7f3	-0.03166957
106	0x3d80e08f	0.06292831
107	0xbb90d3e1	-0.004419789
108	0x3d1b0db0	0.03785485
109	0x3d7116d5	0.058859665
110	0xbd19eeeb	-0.037581366
111	0x3e2140b1	0.15747334
112	0x3ece6ea6	0.40318793
113	0xbd768916	-0.06018933
114	0x3d32d097	0.043655958
115	0x3f0ace55	0.5422109
116	0x3dc37cac	0.09545264
117	0x3e6dc3ff	0.23219298
118	0xbc0e6c3b	-0.008692796
119	0xbe29baa7	-0.16575108
120	0xbe1df4da	-0.15425435
121	0xbe15ae79	-0.14617337
122	0x3de70462	0.11280133
123	0xbec95873	-0.39325294
124	0x3d9ac872	0.07557763
125	0x3db0ab53	0.086264275
126	0xbd597fca	-0.053100385
127	0xbc7cd3d5	-0.015431364
128	0x3be4d019	0.006982815
129	0x3d9d19e1	0.07670952
130	0x3d6d9ebc	0.05801271
131	0x3d376872	0.04477734
132	0x3e83a479	0.2571142
133	0xbcad0c45	-0.021124015
134	0x3d15300d	0.036422778
135	0x3ed97e08	0.42478967
136	0x394bd52c	0.00019439001
137	0xbcf4ff2d	-0.029906834
138	0xbd83bf0a	-0.06432922
139	0xbe93b47f	-0.28848645
140	0xbe8b8ed3	-0.27257404
141	0xbdd16318	-0.10223979
142	0xbd3012d8	-0.04298672
143	0x3f11470b	0.5674903
144	0x3eef6b4b	0.46761546
145	0x3e1bfb9d	0.15232702
146	0x3e319326	0.17341289
147	0x3d5e634f	0.054293927
148	0xbc572922	-0.013132365
149	0x3d089271	0.033342782
150	0x3a420692	0.0007401492
151	0x3da4c8be	0.08046101
152	0xbd5c0685	-0.053717155
153	0x3d2b28a8	0.04178682
154	0xbbc2a916	-0.005940567
155	0xbe14073c	-0.14455885
156	0xbd6ccb42	-0.05781103
157	0xbd71dade	-0.05904662
158	0x3e6fa6f2	0.23403528
159	0x3d2219d0	0.039575398
160	0xbd8e5926	-0.069505975
161	0x3e5ed685	0.2176152
162	0x3cb1dc63	0.021711534
163	0x3e952d77	0.2913625
164	0xbe87c892	-0.2652021
165	0x3d930a9b	0.07179757
166	0x3de7891b	0.11305448
167	0xbd8e2b48	-0.06941849
168	0xbe876c17	-0.26449654
169	0xbdd59d39	-0.104303785
170	0xbe03b906	-0.1286355
171	0x3e803237	0.2503831
172	0x3ce49947	0.02790512
173	0x3d5507f0	0.052009523
174	0x3c7599f6	0.01499032
175	0x3e1b8d73	0.15190677
176	0x3da70e59	0.081570335
177	0x3c6b1c4e	0.01435001
178	0xbdf0eb74	-0.11763659
179	0x3e2dff24	0.1699186
180	0xbe25b7a0	-0.16183329
181	0x3da74f33	0.08169403
182	0xbe3cf266	-0.18451843
183	0xbc98ea0f	-0.018666295
184	0xbe882110	-0.26587725
185	0x3f69cec3	0.9133112
186	0xbeb51610	-0.35368395
187	0xbe86b2bb	-0.26308236
188	0xbd4b32f8	-0.049609154
189	0xbef9fa76	-0.488239
190	0xbce29a7a	-0.02766155
191	0x3dbbafe9	0.091644116
192	0x3dc57437	0.09641307
193	0x3e563b69	0.209211
194	0x3e63a5a5	0.22231157
195	0xbda0faef	-0.07860362
196	0x3d76e700	0.060278893
197	0xbd627464	-0.05528678
198	0x3d9a449a	0.07532616
199	0xbcc3c408	-0.023897186
200	0x3b652f9b	0.0034971002
201	0xbe283a71	-0.16428544
202	0x3e2d1c77	0.1690539
203	0xbd9bb127	-0.076021485
204	0xba92530d	-0.0011163667
205	0xbd29f676	-0.04149481
206	0xbcae856d	-0.021303857
207	0x3f0636cc	0.52427363
208	0x3daba2b7	0.08380645
209	0x3d9784fd	0.073984124
210	0x3efe1d63	0.49631795
211	0x3dab5776	0.08366291
212	0xbf5730e9	-0.84059006
213	0xbd4f1c75	-0.050564248
214	0x3d60bec3	0.054869425
215	0x3e372de3	0.17888598
216	0x3f1a5e2c	0.60299945
217	0xbec1bac6	-0.3783781
218	0xbc14c5ad	-0.009080333
219	0x3de09679	0.109662004
220	0xbcbfb516	-0.023401778
221	0x3d7f1c39	0.062282775
222	0xbd88e186	-0.0668364
223	0xbbe72c70	-0.007054858
224	0xbc8d8711	-0.017276319
225	0xbc9bbe2f	-0.019011585
226	0xbd36ec2d	-0.04465883
227	0x3e09a652	0.13442352
228	0x3d5958d6	0.053063236
229	0x3be5ac7d	0.0070090876
230	0xbda8278b	-0.08210667
231	0xbf239f13	-0.63914603
232	0x3efb564a	0.4908927
233	0x3e51425b	0.20435469
234	0xbe9beaa7	-0.30452463
235	0xbdaec1bf	-0.08533048
236	0x3d97be53	0.07409348
237	0x3d587e72	0.052854963
238	0x3eab5e13	0.3347021
239	0xbee602a6	-0.44923896
240	0xbec48622	-0.38383585
241	0x3ccbac41	0.02486241
242	0x3d4b06a2	0.049566872
243	0xbc9b8841	-0.01898587
244	0xbd6ea271	-0.058260385
245	0x3a989312	0.001164051
246	0xbbb3d7ab	-0.005488356
247	0xbc0f955b	-0.008763636
248	0x3d57cf42	0.05268789
249	0x3dcea3a5	0.100898065
250	0x3e2a1d90	0.1661284
251	0x3da0b198	0.07846373
252	0xbd01d12b	-0.03169362
253	0x3f1a360f	0.60238737
254	0xbe8ca7d4	-0.27471793
255	0xbed2853f	-0.41117284

layers.0.bias f4 [128]
0	0x3c7c5702	0.015401604
1	0xbd8385cd	-0.06422005
2	0xbee0bb6f	-0.43893
3	0xbe3b9b6e	-0.1832101
4	0xbe3f634c	-0.18690223
5	0xbe1c48e6	-0.15262184
6	0x3e26309d	0.16229482
7	0xbeae6989	-0.34064892
8	0x3e2c690c	0.16836947
9	0xbeaf2b78	-0.34212852
10	0xbe302ec4	-0.1720534
11	0xbe6fd77c	-0.23422045
12	0xbe8d3607	-0.27580282
13	0xbe968661	-0.29399398
14	0x3e15ed90	0.14641404
15	0x3e57668f	0.21035217
16	0x3e8c3ecc	0.2739166
17	0xbea67bb5	-0.32516256
18	0xbeb2d451	-0.3492761
19	0xbd3c50ac	-0.045975372
20	0x3e6a4f52	0.22881821
21	0x3e239e35	0.1597832
22	0xbe3308cc	-0.17483824
23	0xbe81001d	-0.251954
24	0xbe73a255	-0.23792394
25	0xbe16c24a	-0.14722553
26	0xbdfa61b8	-0.122256696
27	0x3dbd17be	0.09233044
28	0x3e983cbb	0.29733834
29	0x3d8cb52d	0.06870494
30	0x3dbe1474	0.09281245
31	0xbe53eedf	-0.20696591
32	0xbcfe2e4e	-0.03102794
33	0x3d629588	0.055318385
34	0xbea16795	-0.3152434
35	0xbd85a03d	-0.06524704
36	0xbeab57f7	-0.3346555
37	0x3e31933d	0.17341323
38	0x3e226d8b	0.158621
39	0xbe034982	-0.1282101
40	0xbe554a33	-0.20829086
41	0xbd58289b	-0.0527731
42	0xbd217744	-0.03942038
43	0xbeaacf27	-0.3336117
44	0xbd8b120e	-0.06790553
45	0xbdf556a3	-0.11979415
46	0xbe2eddfe	-0.17076871
47	0xbeaefcc2	-0.34177214
48	0x3cf29403	0.029611593
49	0x3eb7029e	0.35744184
50	0xbeb0710a	-0.34461242
51	0xbeaef35f	-0.34170052
52	0x3ecd1e1a	0.40062028
53	0x3ccba2a4	0.024857827
54	0x3ec47dbb	0.38377175
55	0xbe943c7f	-0.28952405
56	0x3b71bc65	0.0036885974
57	0xbda562c2	-0.08075477
58	0x3eb2836d	0.34865895
59	0x3e694a61	0.2278228
60	0xbdfe4261	-0.124150045
61	0x3e111438	0.14167869
62	0xbefe697f	-0.49689862
63	0x3e10a08d	0.14123745
64	0xbe54e63b	-0.20790951
65	0x3ebb1241	0.36537364
66	0xbe0ef6e4	-0.13961369
67	0xbe4b7656	-0.1986936
68	0xbe8eb559	-0.27872732
69	0xbeadc1c5	-0.33936897
70	0x3cc28af7	0.023747904
71	0x3e1ef438	0.1552285
72	0x3e951f6d	0.29125538
73	0xbea72507	-0.32645437
74	0xbe3d7a71	-0.18503739
75	0xbe002c51	-0.12516905
76	0xbe3d2a24	-0.18473107
77	0xbb97331b	-0.0046142465
78	0x3e2447a0	0.16042948
79	0xbe2dcbbc	-0.1697225
80	0x3e11ed23	0.14250617
81	0xbe0f44f5	-0.13991149
82	0x3ea4a425	0.32156482
83	0x3d99eef0	0.07516277
84	0xbce31ffc	-0.027725212
85	0xbe226fa3	-0.15862899
86	0xbdc1c91f	-0.09462189
87	0x3e554862	0.20828393
88	0x3e8b0e5e	0.271594
89	0xbda21f49	-0.079161234
90	0x3e060cf7	0.13090883
91	0x3c75d235	0.015003731
92	0xbe0cf5e7	-0.1376568
93	0xbed803b1	-0.42190316
94	0xbe02ee8f	-0.12786315
95	0xbd3cb273	-0.04606862
96	0xbe292145	-0.16516598
97	0x3e35952d	0.17732687
98	0xbe47c604	-0.1950913
99	0x3e7f0ebb	0.24907963
100	0x3ad016ba	0.0015875914
101	0xbe3c90cc	-0.1841461
102	0xbe950b11	-0.29110005
103	0x3ea45790	0.32098055
104	0x3eb75704	0.35808575
105	0x3d7097fd	0.058738697
106	0x3ccc8ed9	0.024970459
107	0x3e32651d	0.17421384
108	0xbd8bb64c	-0.0682188
109	0xbe21f956	-0.1581777
110	0x3e585897	0.21127544
111	0x3eea46cf	0.45757148
112	0x3d75e4a6	0.06003251
113	0x3c5fbb79	0.013655537
114	0x3e8b5cda	0.27219278
115	0xbeecd928	-0.46259427
116	0x3e6a76e4	0.22896916
117	0x3ece62e3	0.4030982
118	0xbd7d077c	-0.061774716
119	0x3e7d35e7	0.24727593
120	0x3dfb9f21	0.12286211
121	0x3bb65b82	0.005565108
122	0x3e0564b3	0.13026695
123	0x3ed57c73	0.4169651
124	0x3e3b6128	0.18298781
125	0xbe863f64	-0.26220238
126	0x3e6a4520	0.22877932
127	0xbe55de74	-0.2088564

layers.1.weight f4 [128, 128]
0	0x3e2c854d	0.16847725
1	0xbdb37c7a	-0.087639764
2	0xbddae8de	-0.10688947
3	0x3d356af2	0.044291444
4	0x3c0c26db	0.008554186
5	0x3dd0aec4	0.10189584
6	0x3c10e2c6	0.0088431295
7	0x3d537c02	0.051631935
8	0x3c9ab5bb	0.018885484
9	0x3da3a4d9	0.079904266
10	0xbddbcb28	-0.10732108
11	0xbd2fcb20	-0.042918324
12	0x3dcd1808	0.10014349
13	0xbd89f679	-0.06736464
14	0x3d3b3a4c	0.045709893
15	0x3d883560	0.066508055
16	0x3c8a5501	0.016886236
17	0xbd854a52	-0.06508316
18	0xbc7bf710	-0.0153787285
19	0x3d0d9521	0.03456605
20	0xbbbfbed6	-0.005851607
21	0x3c98e2fa	0.018662918
22	0x3d568e23	0.052381646
23	0x3c6ad713	0.014333504
24	0x3d8a67af	0.06758057
25	0xbdbb1682	-0.091351524
26	0xbe1e6acd	-0.15470429
27	0x3d26efa9	0.0407559
28	0xbcb0172b	-0.021495422
29	0xbd966de5	-0.073451795
30	0xbd57d460	-0.05269277
31	0x3d572c17	0.05253228
32	0xbd800a8c	-0.06252012
33	0x3db6d506	0.0892735
34	0x3d9c99de	0.07646535
35	0xbd8f9079	-0.07009978
36	0x3cae2e4e	0.021262314
37	0x3c018c9d	0.00790706
38	0xbc82eb12	-0.01598123
39	0x3b879b75	0.004138405
40	0x3d18a2b0	0.037264526
41	0x3d1420ab	0.036163967
42	0x3d55fe19	0.05224428
43	0x3d57fb3c	0.05272983
44	0xbda607b0	-0.08106935
45	0xbd171758	-0.036887497
46	0x3d8c3d61	0.068476446
47	0xbc1a163e	-0.009404717
48	0xbcbd227f	-0.023087738
49	0xbc7f23b1	-0.015572474
50	0xbd223b20	-0.039607167
51	0x3cb5e94d	0.022205973
52	0x3d83eef1	0.06442059
53	0xbdcbff56	-0.09960811
54	0xbd17be0f	-0.03704649
55	0xbd9b280e	-0.07575999
56	0xbe06a4ed	-0.13148852
57	0x3de00acd	0.1093956
58	0x3caf7727	0.021419121
59	0xbdca0202	-0.09863664
60	0xbd2799b8	-0.040918082
61	0x3de923bf	0.11383771
62	0x3db53734	0.0884842
63	0x3ccde182	0.025131945
64	0xb9b82838	-0.0003512518
65	0xbd85c5e8	-0.06531888
66	0x3d9686b5	0.07349912
67	0xbcccf47b	-0.025018921
68	0xbcabf505	-0.020990858
69	0x3cec6bd2	0.028860006
70	0x3be1248b	0.0068708113
71	0x3dbd582a	0.092453316
72	0xbd2eb282	-0.042650707
73	0x3c89163f	0.01673424
74	0xbc24b69b	-0.010053302
75	0xbd7ee86d	-0.062233377
76	0xbe036f9d	-0.12835546
77	0xbcb50775	-0.022098282
78	0x3d8f9e5b	0.07012626
79	0x3d09a58c	0.033605143
80	0xbc2e480b	-0.010637294
81	0x3d9cc5c2	0.07654907
82	0x3cfbe370	0.0307481
83	0x3d92610d	0.07147417
84	0xbd13d51b	-0.036091905
85	0x3d2b63b8	0.041843146
86	0x3d29ea05	0.041482944
87	0xbd8fe698	-0.07026404
88	0xbdbdd604	-0.09269336
89	0xbd059cd6	-0.032620274
90	0x3d387dfd	0.045042027
91	0x3daf0c0f	0.08547222
92	0xbd1686a7	-0.03674951
93	0xbc0602cb	-0.008179377
94	0x3db95014	0.09048477
95	0xb7e1e958	-2.693075e-05
96	0xbdbac9e1	-0.091205366
97	0xbd5f0f74	-0.054458097
98	0xbd20abe6	-0.039226435
99	0x3c859d5a	0.016310383
100	0xbd6c3251	-0.057665173
101	0xbc10f8a1	-0.00884834
102	0xbd9dad3c	-0.076990575
103	0x3de1b355	0.11020533
104	0xbd828771	-0.0637349
105	0x3dcdd513	0.10050406
106	0x3e0baac4	0.1363936
107	0x3d34cd41	0.044141058
108	0xbde60bde	-0.11232732
109	0xbd1e806e	-0.0386967
110	0xbb00051d	-0.0019534298
111	0xbda9b7b4	-0.08286992
112	0xbb643b6b	-0.0034825455
113	0xbd8e8d0e	-0.06960498
114	0x3d0d1341	0.03444219
115	0x3d774c11	0.060375277
116	0xbd249f23	-0.040190827
117	0x3d2a5225	0.041582245
118	0xbb8aece8	-0.004239667
119	0x3ddd6db6	0.10811941
120	0x3dad31fe	0.08456801
121	0x3b890330	0.004181288
122	0xbce7cdce	-0.028296378
123	0x3ce93e36	0.028472047
124	0x3bd42031	0.006473564
125	0x3d586d00	0.052838326
126	0x3db89b1b	0.09013959
127	0x3d51cf5c	0.051223144
128	0xbd59a8fc	-0.05313967
129	0x3dc6394d	0.09678898
130	0x3e2fedcf	0.1718056
131	0xbd79f2dd	-0.061022628
132	0xbd30f15b	-0.043198925
133	0x3d284ed4	0.0410908
134	0x3cbd5552	0.023111973
135	0x3db27460	0.08713603
136	0xbde67c37	-0.11254161
137	0x3dfd5c29	0.12371094
138	0x3c6fdb04	0.01463962
139	0x3d9126b7	0.070874624
140	0xbce077f2	-0.027400944
141	0xbda88e12	-0.08230223
142	0xbbaa5f5d	-0.0051993565
143	0xbd054d8f	-0.03254467
144	0xbc20840e	-0.009797109
145	0x3d20de1f	0.03927433
146	0x3da9beea	0.08288367
147	0xbd8757a4	-0.06608513
148	0xbcbd7adf	-0.023129879
149	0x3da27791	0.07932962
150	0xbd77e97a	-0.060525395
151	0xbdcd1e72	-0.100155726
152	0x3dce9536	0.100870535
153	0x3cee0fda	0.029060293
154	0x3baacc71	0.0052123596
155	0xbe16b43e	-0.14717194
156	0xbd026d3b	-0.03184245
157	0xbd3be1b3	-0.04586954
158	0x3d404002	0.046936043
159	0x3e17936b	0.14802329
160	0x3d8e0cf0	0.069360614
161	0xbc8025d7	-0.015643043
162	0x3dc5532e	0.09635006
163	0xbda20fb9	-0.07913155
164	0xbb74a5d5	-0.003733029
165	0x3db37f2a	0.08764489
166	0xb89d9d48	-7.515639e-05
167	0xbbb1e546	-0.005428943
168	0xbd0f73e1	-0.03502262
169	0xbcd36ccb	-0.025808712
170	0x3a97c434	0.0011578859
171	0x3d9ce982	0.076617256
172	0xbe03ac5c	-0.12858719
173	0x3dbc0201	0.0918007
174	0xbdd12ff7	-0.10214227
175	0xbce4c83d	-0.027927512
176	0xbd9efa21	-0.07762552
177	0xbca8233e	-0.020524617
178	0xbd4c1d33	-0.049832534
179	0xbd095458	-0.033527702
180	0x3d8e8c87	0.06960397
181	0xbded1556	-0.11576335
182	0xbd4ef12e	-0.050522976
183	0x3d979dd9	0.07403154
184	0xbbbb3d78	-0.0057141148
185	0x3c135c6d	0.008994204
186	0xbd3db61d	-0.046316255
187	0x3d843d3b	0.06456991
188	0x3d303d68	0.04302731
189	0xbc0f028c	-0.008728635
190	0xbc43905e	-0.011936275
191	0xbd19b8c2	-0.037529714
192	0x3dca88b1	0.09889353
193	0xbded1258	-0.115757644
194	0xbd31a484	-0.043369785
195	0xbd82101e	-0.0635073
196	0x3d07dc2a	0.03316895
197	0xbdb8caca	-0.09023054
198	0xbb28f390	-0.002577994
199	0xbd17201f	-0.036895867
200	0xbb96296d	-0.004582575
201	0xbde99d8d	-0.114070036
202	0x3d07d3bf	0.03316092
203	0x3d020556	0.03174337
204	0x3dd90dac	0.10598311
205	0xbd9863b5	-0.074408926
206	0xbd8dd583	-0.0692549
207	0x3d6deecf	0.058089074
208	0x3d8f950a	0.07010849
209	0x3c40dbab	0.011771123
210	0xbd04f971	-0.03246445
211	0xbca52638	-0.020159826
212	0x3d96d4c7	0.07364803
213	0x3dc199fd	0.09453199
214	0xba8779b4	-0.0010335953
215	0xbd599845	-0.05312373
216	0xbbf8c121	-0.007591382
217	0x3d303c1e	0.043026082
218	0xbc37be26	-0.0112147685
219	0x3d1d53db	0.03841005
220	0x3c4e2555	0.012582143
221	0x3d01c6e5	0.03168382
222	0xbb2a1862	-0.0025954475
223	0x3c9e674b	0.019336363
224	0x3d741aca	0.05959586
225	0xbe0844ee	-0.13307545
226	0xbcfff46f	-0.031244485
227	0x3d9b86d5	0.075940765
228	0xba182aa3	-0.0005804693
229	0x3e362bda	0.17790166
230	0xbe145135	-0.14484103
231	0x3da12047	0.078674845
232	0xbda2c195	-0.07947079
233	0xbc92ac44	-0.017904408
234	0xbccf1607	-0.025279058
235	0xbd52515c	-0.05134712
236	0xbd56b047	-0.052414205
237	0x3d49a514	0.049229696
238	0xbde7ed2d	-0.113245346
239	0x3d968dd9	0.07351274
240	0x3c86ba33	0.016446209
241	0xbd0dc87e	-0.034615032
242	0xbd5af6e0	-0.053458095
243	0x3b822b73	0.0039724647
244	0xbda283f9	-0.07935328
245	0x3d888168	0.06665307
246	0xbd7beaae	-0.061503105
247	0xbd7a580a	-0.061119117
248	0x3d7b0539	0.061284278
249	0xbd24e9c8	-0.040262014
250	0xbe0fdbfd	-0.14048763
251	0x39c76c31	0.00038036847
252	0xbd1b8189	-0.03796533
253	0xbd8375fa	-0.064189866
254	0xbd220894	-0.039558962
255	0x3d33e3b4	0.043918326

layers.1.bias f4 [128]
0	0xbdd53fe3	-0.10412576
1	0xbdd53edc	-0.1041238
2	0x3c8dabdd	0.017293865
3	0xbdb72329	-0.08942253
4	0x3cce690b	0.025196573
5	0xbd08b61f	-0.03337681
6	0x3e1c6920	0.15274477
7	0x3d86785e	0.06565927
8	0xbdb95b5d	-0.09050629
9	0xbdb27e29	-0.087154694
10	0x3db77e24	0.08959606
11	0xbdde20f3	-0.10846128
12	0x3d3c75f0	0.04601091
13	0xbc914c2a	-0.017736513
14	0x3d894d92	0.067042485
15	0x3d5a7120	0.05333054
16	0xbdf031e0	-0.11728263
17	0xbd8de225	-0.06927899
18	0xbd25cc78	-0.0404782
19	0x3bf2f64e	0.0074146157
20	0x3d017b7f	0.031611916
21	0xbd219fe3	-0.03945912
22	0xbc416338	-0.011803441
23	0xbd4e30fc	-0.050339684
24	0x3e3e6d87	0.18596469
25	0x3df538d7	0.11973732
26	0xbe2a1622	-0.16610005
27	0xbe540c61	-0.20707847
28	0xbcb5f5e3	-0.022211974
29	0xbc633284	-0.013867024
30	0xbdc3c6b4	-0.09559384
31	0x3d2fdb4a	0.04293374
32	0x3bf93d57	0.007606189
33	0x3dde588a	0.10856731
34	0x3db04081	0.08606053
35	0x3db27370	0.08713424
36	0x3b8448f8	0.004037019
37	0xbe10ee4a	-0.141534
38	0xbca581ce	-0.020203497
39	0x3df16172	0.11786164
40	0xbd331437	-0.04372045
41	0x3d40aafd	0.047038067
42	0x3d9fa688	0.07795435
43	0xbd03429d	-0.03204595
44	0xbdb7d548	-0.08976227
45	0xbd0a40c5	-0.033753175
46	0x3a2e5cdd	0.0006651411
47	0xbe38feec	-0.18065995
48	0xbdd4afed	-0.10385118
49	0xbd3e9b5b	-0.046534877
50	0xbd5b0677	-0.053472962
51	0xbdc2e2f0	-0.09515941
52	0xbd187f81	-0.037230972
53	0xbe020310	-0.12696481
54	0x3d6f3340	0.058398485
55	0xbd9a1cb3	-0.07525005
56	0x3dc6ea07	0.09712606
57	0xbda9f4cf	-0.08298647
58	0x3d5d8434	0.054081157
59	0xbdf45b8c	-0.11931524
60	0xbe08755d	-0.1332602
61	0x3d988be4	0.07448557
62	0xbe1e676b	-0.15469138
63	0xbe347963	-0.1762443
64	0xbe0f1d62	-0.13976052
65	0x3a9b74d9	0.0011860385
66	0x3daa0136	0.08301012
67	0x3db8c04d	0.090210535
68	0xbdacef9d	-0.0844414
69	0x3ce60662	0.028079215
70	0xbda1f696	-0.07908361
71	0xbd67565f	-0.056478854
72	0x3d6bc939	0.057564948
73	0x3dec30a7	0.11532717
74	0xbde0eace	-0.109822854
75	0xbe2766bd	-0.16347785
76	0xbe332116	-0.1749309
77	0xbaec2313	-0.0018015824
78	0x3c5e6abb	0.013575251
79	0xbe07139d	-0.13191076
80	0x3cbd2c7b	0.023092499
81	0x3d8f77e1	0.07005287
82	0x3e1646fe	0.14675519
83	0x3e6b25d7	0.22963654
84	0x3c339042	0.010959687
85	0xbca1a88a	-0.019733686
86	0xbb076f26	-0.0020665615
87	0xbd8acec7	-0.06777721
88	0xbd46d4ae	-0.04854267
89	0x3dd5ef08	0.10445982
90	0xbdb95b42	-0.09050609
91	0x3d80b0bb	0.06283709
92	0x3da69a9a	0.08134957
93	0x3ceb6974	0.028736807
94	0xbd941ab9	-0.072316594
95	0x3dab143b	0.08353468
96	0xbd97ce63	-0.07412412
97	0xbdea35bf	-0.114360325
98	0xbe596c18	-0.2123264
99	0xbdfbae1d	-0.12289069
100	0xbd3d8a0a	-0.046274222
101	0x3d011b2a	0.031520046
102	0xbd32ca8c	-0.043650195
103	0xbd92ebe3	-0.07173898
104	0x3dc4a7a4	0.096022874
105	0x3b79e471	0.0038130546
106	0xbdd0bfb5	-0.10192815
107	0xbdc33593	-0.09531703
108	0xbc89e2e1	-0.016831817
109	0xbc84171c	-0.0161243
110	0x3c81da41	0.015851142
111	0x3d74d2fc	0.059771523
112	0x3cff8cf7	0.031195147
113	0x3d7fc24a	0.062441148
114	0x3ddf6fe0	0.1091001
115	0xbc9848be	-0.018589374
116	0xbd4a4a44	-0.04938723
117	0xbdb671c0	-0.08908415
118	0xbe23ba93	-0.15989141
119	0xbd336bf7	-0.043804135
120	0xbd157d11	-0.036496226
121	0xbce4314b	-0.027855536
122	0x3e258d0e	0.1616709
123	0x3e329d53	0.17442827
124	0xbdd33829	-0.10313446
125	0xbdfe553c	-0.12418601
126	0x3d2ffc37	0.04296514
127	0xbd7582d2	-0.059939213

layers.2.weight f4 [64, 128]
0	0x3d984a11	0.07436002
1	0xbbdab00b	-0.006673818
2	0xbdd5a165	-0.10431174
3	0x3dbf86b1	0.09351862
4	0xbd89f38b	-0.06735905
5	0xbd1a3cc5	-0.03765561
6	0x3dda82bf	0.10669469
7	0x3d5de53c	0.054173693
8	0x3b0c51f7	0.002141116
9	0x3dcbd421	0.0995257
10	0x3dba7573	0.09104433
11	0x3e1b9dab	0.15196864
12	0x3c3902c4	0.011292163
13	0xbd80988b	-0.06279095
14	0x3da67af1	0.08128918
15	0x3a7399c1	0.00092926255
16	0x3d458947	0.04822662
17	0x3d9898ec	0.074510425
18	0x3db1f347	0.086889796
19	0x3d2ac940	0.041695833
20	0x3d62e636	0.055395328
21	0x3dbe6a14	0.092975765
22	0x3cb481f3	0.02203462
23	0x3d1554dd	0.036457885
24	0x3d24c568	0.040227324
25	0xbe028255	-0.1274503
26	0x3c282e76	0.010264983
27	0x3c034717	0.008012555
28	0xbdbca7a5	-0.09211663
29	0xbd4c5969	-0.049889956
30	0x3da4d80e	0.08049022
31	0xbd1c219a	-0.038117982
32	0xbd88bcb5	-0.06676618
33	0x3dcbb749	0.09947068
34	0x3e02ebea	0.12785307
35	0xbe214d25	-0.15752085
36	0x3dc0211a	0.093813136
37	0x3c73428f	0.014847412
38	0x3e0ce829	0.13760437
39	0x3ded79fa	0.11595531
40	0xbe1ae1c3	-0.15125184
41	0x3e062b17	0.13102375
42	0x3b0e2b89	0.002169343
43	0x394d6796	0.00019588912
44	0x3c939c2d	0.018018806
45	0x3dfc7cfb	0.12328526
46	0x3dbce968	0.09224206
47	0x3c9c9ef1	0.019118758
48	0xbe2598ab	-0.1617152
49	0x3d2f462d	0.042791534
50	0x3e0e0cdc	0.13872093
51	0x3d8fdb75	0.0702428
52	0xbdce41bb	-0.10071131
53	0xbd38cb62	-0.045115836
54	0x3dc45c00	0.0958786
55	0x3db9d012	0.090728894
56	0x3c9f9e95	0.019484797
57	0x3d6a36a8	0.05718103
58	0x3daea234	0.085270315
59	0xbd7bcb83	-0.06147338
60	0x3c21938d	0.009861839
61	0x3c22adad	0.009929103
62	0xbe0f5d90	-0.14000535
63	0xbd3a5b17	-0.045497026
64	0x3de1742d	0.11008487
65	0xbdb7f42b	-0.08982118
66	0x3db765e8	0.08954984
67	0x3dbfe194	0.093691975
68	0xbb8712c4	-0.00412211
69	0xbe3c2087	-0.18371783
70	0xbd62fa48	-0.055414468
71	0x3dcfe0a9	0.101502724
72	0x3e076b7a	0.13224593
73	0xbc44705f	-0.011989682
74	0x3e2cf478	0.16890132
75	0x3cb8a6ac	0.022540413
76	0xbd3279eb	-0.0435733
77	0x3c9d957b	0.019236317
78	0x3dd6a537	0.10480731
79	0xbde3ec40	-0.111290455
80	0x3cb60d43	0.02222312
81	0x3c189737	0.009313396
82	0x3cde64c0	0.02714765
83	0xbd97cea2	-0.07412459
84	0x3d9f2178	0.077700555
85	0xbcd12d47	-0.025534285
86	0xbc86f886	-0.016475927
87	0x3d8640b0	0.06555307
88	0x3c317ec3	0.010833445
89	0xbdc2d701	-0.09513665
90	0xba84cd63	-0.0010132011
91	0x3d5c56ad	0.053793598
92	0x3cae34c3	0.021265393
93	0x3de8e709	0.113721915
94	0xbd6afbed	-0.05736916
95	0x3d443e93	0.047911238
96	0xbdaddb5c	-0.08489105
97	0x3c69c629	0.0142684365
98	0xbba5ea36	-0.0050633205
99	0x3e2ec6a2	0.1706796
100	0xbe03e807	-0.1288148
101	0x3ce1c4aa	0.027559597
102	0x3db796b5	0.08964292
103	0xba8333a7	-0.00100099
104	0x3d878a8f	0.06618225
105	0x3ca0dd49	0.019636767
106	0xbde66f55	-0.11251704
107	0xbc6b553b	-0.014363582
108	0x3d894a5b	0.06703635
109	0x3dfc2bcc	0.12313041
110	0x3c42c7b9	0.011888438
111	0x3d25bf3c	0.04046558
112	0xbd95064b	-0.07276591
113	0xbc052004	-0.008125309
114	0x3cb64f89	0.022254722
115	0x3a0c0ff2	0.0005342952
116	0x3d88116f	0.0664395
117	0xbc150f16	-0.009097835
118	0xbdeb8f35	-0.11501924
119	0x3bcb4c8e	0.0062041944
120	0x3d16288d	0.036659766
121	0x3d17af12	0.037032194
122	0x3c7304bf	0.0148326745
123	0xbd4f8115	-0.05066021
124	0x3ce40aba	0.027837146
125	0xbd0d62c9	-0.034518037
126	0x3d33ae3c	0.043867335
127	0x3e0d6791	0.13809039
128	0xbd93f0d9	-0.072236724
129	0x3ca07945	0.019589076
130	0xbd02da1e	-0.031946294
131	0x3e11ed16	0.14250597
132	0x3d0d4570	0.03449005
133	0xbc10d0de	-0.00883886
134	0x3b82814e	0.0039826995
135	0xbc628902	-0.0138266105
136	0xbda813d7	-0.08206909
137	0xbd5f0715	-0.054450113
138	0xbcdd5f5c	-0.02702301
139	0x3ca3923e	0.019967195
140	0xbcfffb45	-0.031247744
141	0xbe30f8ed	-0.17282458
142	0xbd2aaa0f	-0.041666087
143	0xbd83b918	-0.06431788
144	0xbd94957d	-0.07255075
145	0xbdbc1536	-0.09183733
146	0xbcb4de57	-0.022078676
147	0xbd31f2c0	-0.043444395
148	0xbd42205c	-0.04739414
149	0xbd095b4b	-0.03353433
150	0x3c8d506e	0.017250266
151	0xbcfbdd27	-0.030745102
152	0xbd38996e	-0.045068197
153	0x3a5d344c	0.0008438274
154	0xbbdad642	-0.0066783736
155	0xbd13452f	-0.03595465
156	0xbded66d6	-0.1159188
157	0xbd62013c	-0.05517696
158	0x3dd10dff	0.10207748
159	0x3d3aafeb	0.045577925
160	0x3d6300d3	0.055420708
161	0x3d7a6a3b	0.061136466
162	0x3d930de7	0.07180386
163	0x3a78bcfc	0.000948861
164	0x3d647b69	0.055781756
165	0xbd25f862	-0.04052008
166	0xbc615d42	-0.013755145
167	0x3d3cef4e	0.046126656
168	0xbde26b24	-0.11055592
169	0xbcd8a6d7	-0.026446743
170	0xbcfd0973	-0.030888295
171	0x3d1de552	0.038548775
172	0x3d451c91	0.048122946
173	0x3e0856a3	0.133143
174	0xbd247bcf	-0.040157136
175	0xbd7c48ec	-0.06159298
176	0x3d22bf08	0.039732963
177	0x3dfc9820	0.12333703
178	0x3cad1b1c	0.02113109
179	0x3dab5f39	0.08367772
180	0x3c6bfc93	0.01440348
181	0xbd5329c3	-0.0515535
182	0xbc9b1829	-0.018932419
183	0x3db6f3bc	0.089332074
184	0x3c9da7ca	0.019245047
185	0x3d9cf2db	0.076635085
186	0x3d7e5656	0.062094055
187	0xbda2a1b6	-0.07941
188	0x3d4565a6	0.048192643
189	0x3d2b338e	0.041797213
190	0xbd8aebdc	-0.06783268
191	0xbdaef795	-0.08543316
192	0x3d5130cb	0.051071923
193	0xbc2f1213	-0.010685462
194	0xbd5ae413	-0.053440165
195	0x3d5eeb62	0.054423697
196	0x3dac28e8	0.0840624
197	0xbd85ec83	-0.06539252
198	0xbccc45b9	-0.02493559
199	0x3d0ddfae	0.034637146
200	0x3cf43efa	0.029815186
201	0x3ca8a963	0.020588582
202	0x3db576d5	0.08860556
203	0x3d51917c	0.051164135
204	0xbe02fc2b	-0.12791507
205	0x3c441039	0.011966758
206	0x3da2b727	0.0794509
207	0xbde4d3a2	-0.11173178
208	0xbdfb01f5	-0.12256233
209	0x3d1394ba	0.03603051
210	0x3db2d176	0.08731358
211	0xbcf9402a	-0.030426104
212	0x3a7ca659	0.0009637825
213	0xbcbdb92d	-0.023159588
214	0x3c4ddc10	0.012564674
215	0x3e1365bb	0.14394276
216	0x3c811388	0.015756384
217	0xbd94b7a7	-0.072615914
218	0x3d71c548	0.059026033
219	0x3d285759	0.041098926
220	0xbdf82e8d	-0.12118254
221	0xbdb0b241	-0.08627749
222	0xbce3a9e1	-0.027790966
223	0x3db20811	0.08692945
224	0xbd746b65	-0.059672732
225	0xbe2cb1a7	-0.16864644
226	0x3c9f8490	0.01947239
227	0x3e30e306	0.17274103
228	0x3cda4348	0.02664341
229	0x3d860d59	0.065455146
230	0x3cee2ed3	0.029075062
231	0x3e086896	0.13321146
232	0x3daa1c2b	0.08306154
233	0x3cfbdfb2	0.030746315
234	0xbd7823c2	-0.060580976
235	0x3d18536c	0.037188932
236	0xbdfb302c	-0.122650474
237	0x3d841515	0.064493336
238	0x3dd79ac0	0.10527563
239	0xbd0e4025	-0.03472914
240	0xbd6e540f	-0.058185633
241	0x3de67715	0.11253182
242	0xbc1d0207	-0.009583003
243	0x3dc736e9	0.0972727
244	0x3d917f48	0.07104355
245	0x3ddb4161	0.107058294
246	0x3d60eee2	0.054915316
247	0xbdacec9c	-0.08443567
248	0xbd804944	-0.06263974
249	0xbdec641e	-0.11542533
250	0x3c9ca93d	0.019123668
251	0xbda9ba5e	-0.082875
252	0xbb6b68c6	-0.0035920604
253	0x3d5a04f5	0.053227384
254	0xbd16e7c7	-0.036842134
255	0x3d5dff53	0.054198574

layers.2.bias f4 [64]
0	0x3d8c311e	0.06845306
1	0xbce9abd2	-0.028524313
2	0x3c784524	0.015153203
3	0x3d18df12	0.03732211
4	0xbd17852d	-0.03699224
5	0x3cc2fd75	0.023802498
6	0xbd85e9d1	-0.065387376
7	0x3c9992dd	0.018746788
8	0xbdd044b0	-0.10169351
9	0xbd6fdf31	-0.05856246
10	0xbb03259c	-0.002001143
11	0xbca72f6a	-0.020408351
12	0xbcac3a4c	-0.021023892
13	0xbc2abf97	-0.010421655
14	0xbd257859	-0.040397976
15	0x3d9036a4	0.07041672
16	0xbca316b8	-0.019908294
17	0x3cbdace6	0.023153733
18	0x3d005811	0.031333987
19	0xbd0889bc	-0.03333448
20	0x3db29117	0.0871908
21	0x3d47b39b	0.04875527
22	0xbd9b7f88	-0.07592684
23	0xbde3277e	-0.11091517
24	0x3d8a12cd	0.06741867
25	0xbcd93f04	-0.026519306
26	0xbbd61a4a	-0.0065338956
27	0xbcda1082	-0.0266192
28	0x3d985ab0	0.07439172
29	0xbd9d3d3a	-0.07677694
30	0x3d01b9d9	0.03167138
31	0xbd76d175	-0.060258348
32	0x3d97e1b8	0.07416099
33	0x3d24d6a1	0.04024375
34	0x3dd327a0	0.10310292
35	0x3cd4b4e3	0.02596516
36	0x3d968299	0.07349128
37	0x3a0421fd	0.0005040465
38	0x3c1d3563	0.009595248
39	0x3d2ee027	0.042694237
40	0xbd7b2a16	-0.061319433
41	0x3d8e47bb	0.06947275
42	0x3d60a3ac	0.05484359
43	0x3b77b3d2	0.003779639
44	0xbdd34b14	-0.103170544
45	0xbcd7f09c	-0.026359849
46	0xbdba8883	-0.09108069
47	0xbe0197c8	-0.12655556
48	0x3d8ccc82	0.06874944
49	0xbd7ade47	-0.061247136
50	0xbbbc75c9	-0.005751346
51	0x3cc5c5de	0.024142202
52	0xbd1447df	-0.036201354
53	0x3e1471d7	0.14496551
54	0xbd7242eb	-0.05914585
55	0xbdde30c1	-0.10849143
56	0x3d28dff7	0.041229215
57	0xbde7e1c3	-0.113223575
58	0xbd353c90	-0.04424721
59	0x3db020ee	0.08600031
60	0xbdd84d03	-0.10561564
61	0xbdc9a533	-0.098459624
62	0xbd211317	-0.039324846
63	0xbcf0ee1c	-0.029410414

readout.weight f4 [1, 64]
0	0xbe955991	-0.29169896
1	0xbea2c273	-0.31788978
2	0xbe188a20	-0.1489644
3	0x3e8142b8	0.25246215
4	0x3ecefda0	0.40427876
5	0x3ec139dc	0.37739456
6	0xbebf1f7c	-0.37328708
7	0xbe9508e2	-0.2910834
8	0x3e8bf9a6	0.27338904
9	0x3ec34d47	0.38144895
10	0xbeae0b0c	-0.33992803
11	0x3e3c1458	0.18367136
12	0xbdada024	-0.0847781
13	0xbe82d90b	-0.25556216
14	0x3ec7484e	0.38922352
15	0xbe939726	-0.28826255
16	0xbe9ae609	-0.30253628
17	0x3e2c7d3c	0.16844648
18	0x3e769004	0.24078375
19	0xbe31ee4c	-0.1737606
20	0xbe9776e6	-0.295829
21	0x3eb71690	0.357594
22	0x3e9049c1	0.2818127
23	0x3ec92eed	0.39293614
24	0xbea16f3d	-0.3153018
25	0xbea30dfe	-0.31846613
26	0xbe9aef5b	-0.3026074
27	0x3ea6f55f	0.32609078
28	0xbe8565b5	-0.2605416
29	0x3eaf5897	0.34247276
30	0x3e52c31c	0.20582241
31	0xbde3813e	-0.11108635
32	0xbed52fa1	-0.416379
33	0x3ebc4d3d	0.36777678
34	0xbe831ce7	-0.25607988
35	0xbe9d2aca	-0.30696708
36	0x3e094b86	0.13407716
37	0xbed55a05	-0.41670242
38	0xbe99d903	-0.3004838
39	0x3e8f76ff	0.28020474
40	0xbef9e2e6	-0.48805922
41	0xbec17870	-0.377872
42	0xbddce9f6	-0.10786812
43	0xbea0292d	-0.31281415
44	0x3eed6bd8	0.4637134
45	0x3eed4e83	0.46348962
46	0x3eac1c5d	0.3361539
47	0x3edd924e	0.43275684
48	0xbe49da2a	-0.19712129
49	0x3ea38495	0.3193709
50	0x3ed31ceb	0.41233
51	0xbe55afd4	-0.20867854
52	0xbe9f2ecf	-0.310904
53	0xbec1281d	-0.37725917
54	0xbea2c28e	-0.31789058
55	0x3e89455a	0.26810724
56	0xbe3569b5	-0.17716105
57	0x3e7fca63	0.24979548
58	0x3edd4b26	0.43221396
59	0x3e4442c2	0.19166091
60	0x3e080f18	0.13287008
61	0x3ee7e26b	0.4528993
62	0xbe354742	-0.17702964
63	0x3eea04bd	0.4570674

layers.0.weight f4 [128, 17]
0	0x3e21f58c	0.15816325
1	0x3e70090c	0.23440951
2	0x3f014a4f	0.5050401
3	0xbe83b887	-0.2572672
4	0xbda2c397	-0.07947462
5	0x3ed04bf3	0.40682945
6	0xbe21195a	-0.15732327
7	0xbd25ab6d	-0.040446687
8	0x3e339665	0.1753784
9	0xbeab1d74	-0.33420908
10	0x3e05c15c	0.13062042
11	0xbbd8c0cd	-0.0066147805
12	0x3d137778	0.036002606
13	0xbd32a7c9	-0.043617044
14	0xbd16f8aa	-0.03685824
15	0x3bd901d1	0.006622531
16	0x3d06a29d	0.032869924
17	0xbe6ea276	-0.23304161
18	0xbf14c281	-0.5810929
19	0x3e20469e	0.15651938
20	0x3ec9b9a8	0.39399457
21	0x3cc68afb	0.024236193
22	0xbeb9ec04	-0.36312878
23	0xbeed7385	-0.46377197
24	0xbc723747	-0.014783687
25	0xbea04333	-0.3130127
26	0xbf0ae819	-0.542604
27	0x3e8a8f4a	0.27062446
28	0xbe1a43a4	-0.15064865
29	0x3d10bc90	0.035336077
30	0xbd422ce1	-0.04740608
31	0x3cf09822	0.029369418
32	0xbd716167	-0.05893078
33	0x3b30356e	0.0026887315
34	0x3de0f060	0.10983348
35	0xbd7b18ab	-0.061302822
36	0x3f3603f4	0.7109978
37	0x3ebf5315	0.37368074
38	0xbd830b82	-0.06398679
39	0x3f44711d	0.767351
40	0x3d96c0e8	0.07361013
41	0x3edd3bee	0.43209785
42	0xbee1850e	-0.44046825
43	0x3e2959f0	0.16538215
44	0xbe5f257c	-0.21791643
45	0x3cb3859d	0.021914298
46	0x3db28ba1	0.08718038
47	0xbd74fe82	-0.05981303
48	0x3df96273	0.12176981
49	0x3d016fd9	0.031600807
50	0x3c47f89c	0.012205269
51	0x3e787671	0.24263932
52	0xbe491ae2	-0.19639161
53	0x3e5228f2	0.20523432
54	0x3ef2b3f6	0.47402924
55	0xbd5a953a	-0.05336497
56	0xbe18e83f	-0.14932345
57	0x3dad1a43	0.08452275
58	0x3ea6b3ba	0.32558995
59	0xbeacfae0	-0.33785152
60	0xbec2cc0c	-0.380463
61	0xbe9d400b	-0.30712923
62	0x3d3f54a8	0.046711594
63	0xbae31559	-0.0017325088
64	0xbd132635	-0.03592511
65	0x3b9309d6	0.0044872565
66	0xbdddd6fb	-0.1083202
67	0xbcf3f5ca	-0.029780287
68	0xbd7282f3	-0.059206914
69	0xbf0dafa3	-0.55346125
70	0xbe69df4a	-0.22839084
71	0x3da09031	0.07840002
72	0xbee6c34a	-0.4507087
73	0xbb9c8c89	-0.0047774953
74	0xbee9ba45	-0.45649925
75	0xbb1f326a	-0.0024291524
76	0x3eaae2d8	0.33376193
77	0xbdb3f026	-0.08786039
78	0xbccaf79d	-0.024776274
79	0xbe193dc9	-0.14964975
80	0xbd8e0d21	-0.06936098
81	0xbd01aef1	-0.031660978
82	0xbb45401c	-0.0030098027
83	0x3d773b1b	0.0603591
84	0x3d258f42	0.040419824
85	0x3ea68df7	0.32530186
86	0xbed11afd	-0.40840903
87	0x3ea430b5	0.3206841
88	0xbe9b2df5	-0.303085
89	0xbe168934	-0.14700776
90	0xbbe1c098	-0.006889414
91	0xbeab15ef	-0.33415172
92	0x3d9153f6	0.070960924
93	0xbedaf520	-0.4276514
94	0x3e4d8003	0.20068364
95	0xbddc4c84	-0.10756782
96	0xbe50411f	-0.20337342
97	0x3e3de175	0.18543036
98	0x3d8a16b7	0.06742614
99	0xbe3d451e	-0.18483397
100	0xbd7f8bc8	-0.062389165
101	0x3d04eb0f	0.03245073
102	0x3ef9c707	0.48784658
103	0xbda63035	-0.081146635
104	0x3edda58b	0.43290362
105	0x3d358a67	0.044321444
106	0x3d751451	0.05983383
107	0xbedcbdab	-0.43113455
108	0x3cb2b9db	0.021817138
109	0x3d952769	0.072829075
110	0x3eb768b6	0.35822076
111	0xbc89d1b1	-0.016823621
112	0x3bad8169	0.005294968
113	0x3e4a54ad	0.19758864
114	0xbd5b6dfc	-0.053571686
115	0xbd6f3464	-0.058399573
116	0xbd02c37d	-0.031924713
117	0xbda66832	-0.081253424
118	0x3d9ff5ad	0.07810531
119	0x3cab1198	0.020882413
120	0xbeb144b6	-0.34622735
121	0xbf22ba54	-0.63565564
122	0xbef0be0e	-0.4702
123	0xbdf5d337	-0.12003177
124	0x3edcf8d3	0.43158588
125	0x3e0a48f5	0.13504393
126	0x3e0bdd5d	0.13658662
127	0x3ec3f6ba	0.38274175
128	0x3ec8e70d	0.39238778
129	0x3e352244	0.17688853
130	0xbd85943f	-0.06522416
131	0xbd03d14b	-0.03218202
132	0xbc0db449	-0.00864894
133	0x3d3c3b5a	0.04595504
134	0x3db20013	0.086914204
135	0x3d60e367	0.054904368
136	0x3d9dcab6	0.0770468
137	0x3ebb8aa3	0.3662921
138	0xbe2ff6bb	-0.17183964
139	0x3de447e1	0.11146522
140	0x3d0f20ff	0.034943577
141	0xbe1c62fa	-0.15272132
142	0x3edd341c	0.4320382
143	0x3e4475c6	0.19185552
144	0xbf13748b	-0.57599705
145	0x3e844861	0.2583647
146	0x3e2d52de	0.16926143
147	0xbcfdd08a	-0.030983228
148	0x3d065c9a	0.032803155
149	0xbc0439cb	-0.00807042
150	0xbd028be7	-0.031871703
151	0x3c5b6f63	0.013393256
152	0x3c1887f6	0.009309759
153	0x3f04ff72	0.5195228
154	0xbeafe64a	-0.34355384
155	0xbf976960	-1.1829033
156	0xbf13a52b	-0.576739
157	0xbe0fa22f	-0.14026712
158	0x3e7f4b51	0.24931075
159	0xbd6fa0cc	-0.058502957
160	0xbd0deb3c	-0.034648165
161	0x3ed62957	0.41828415
162	0xbe1bc62e	-0.15212318
163	0x3dbd9bd8	0.092582405
164	0xbe4a1045	-0.19732769
165	0xbde41406	-0.11136632
166	0xbd17e84f	-0.03708678
167	0xbc210f8b	-0.009830366
168	0xbd23bf68	-0.03997746
169	0x3cc040a7	0.023468329
170	0x3d13c93d	0.036080588
171	0xbd62c345	-0.055362005
172	0x3f1d4252	0.6142932
173	0xbd36457a	-0.04449985
174	0x3c2c225f	0.010506242
175	0x3e87b392	0.2650419
176	0xbebff1ba	-0.3748911
177	0xbe2fa124	-0.17151314
178	0x3ee181d3	0.4404436
179	0xbee5405f	-0.44775674
180	0x3f0ab52c	0.54182696
181	0xbc6b2f22	-0.014354499
182	0xbd29d242	-0.041460283
183	0xbc09f320	-0.008419782
184	0xbd700173	-0.058595132
185	0xbbb5e730	-0.0055512413
186	0xbcbf95c1	-0.023386838
187	0x3e8cc6d2	0.27495438
188	0xbeb90168	-0.36133885
189	0x3e09bcaa	0.13450876
190	0xbe81de1b	-0.25364766
191	0xbcb7390d	-0.022366071
192	0x3f81771e	1.0114477
193	0xbb54c058	-0.0032463279
194	0x3dfda741	0.12385417
195	0xbe47c516	-0.19508776
196	0x3e817054	0.25281012
197	0xbdf926db	-0.12165614
198	0x3d969f3a	0.07354589
199	0xbce1837b	-0.027528515
200	0x3b7a8df7	0.003823159
201	0x3c323756	0.010877451
202	0xbbc79560	-0.006090805
203	0xbca64a87	-0.02029921
204	0x3ed8d770	0.42351866
205	0xbee0e9e4	-0.43928444
206	0x3f241c54	0.64105725
207	0x3ef1edea	0.47251827
208	0x3d3f1af8	0.04665658
209	0xbee5543f	-0.44790837
210	0x3d699622	0.057027943
211	0xbe1820b9	-0.14856233
212	0x3e47cf43	0.19512658
213	0x3e7f0f93	0.24908285
214	0x3eb2c0fc	0.3491286
215	0xbd3ef11b	-0.046616655
216	0x3dc7d1f3	0.097568415
217	0xbd2f5e7a	-0.04281471
218	0x3e0567da	0.13027897
219	0x3ddf2aed	0.10896859
220	0x3d59fe44	0.053221002
221	0x3cbdd2f1	0.023171874
222	0x3e6203eb	0.22071807
223	0x3eacd064	0.3375274
224	0xbdc5cd20	-0.09658265
225	0x3e93e629	0.28886536
226	0xbc7d3c7e	-0.015456317
227	0x3f2e7ac7	0.68156093
228	0xbd8ba3c3	-0.068183444
229	0x3e9406c3	0.2891141
230	0x3dd66a79	0.10469527
231	0xbc47e9d2	-0.012201743
232	0x3d5fa8a3	0.054604184
233	0x3d3ee549	0.046605382
234	0x3cc506d5	0.02405111
235	0x3da05d82	0.07830335
236	0xbc6cdbd4	-0.014456708
237	0xbc0af14e	-0.008480383
238	0x3f4078c2	0.7518426
239	0xbdbe16a9	-0.09281666
240	0xbee85db4	-0.4538399
241	0xbf17141f	-0.5901508
242	0xbe155628	-0.14583647
243	0xbee309a9	-0.44343308
244	0x3ebca8c5	0.3684751
245	0xbedb8b23	-0.4287959
246	0xbefa9003	-0.48937997
247	0x3f2ad51b	0.66731423
248	0xbe2f6744	-0.17129236
249	0xbdfa8cdd	-0.12233899
250	0x3b1b02c2	0.0023652767
251	0xbc701636	-0.014653733
252	0x3d4c8635	0.049932677
253	0xbc572224	-0.013130698
254	0x3d8c32fa	0.068456605
255	0x3d230381	0.039798263

layers.0.bias f4 [128]
0	0x3e72e5fc	0.23720545
1	0x3eb589ef	0.35456797
2	0xbddbf907	-0.107408576
3	0x3f02f405	0.51153594
4	0x3eb8324b	0.3597587
5	0xbec1945c	-0.37808502
6	0x3e9c2a5b	0.30501065
7	0x3ef1005f	0.47070596
8	0xbedea8ae	-0.43488067
9	0x3bd432ee	0.006475798
10	0x3df8264f	0.12116682
11	0x3ec5f260	0.3866148
12	0x3ef7bf0b	0.48387942
13	0x3ed50f9c	0.41613472
14	0x3e639549	0.22224917
15	0xbeb25f8b	-0.34838519
16	0xbf017d22	-0.5058156
17	0x3be1c650	0.006890096
18	0x3eb2aafc	0.34896076
19	0x3e0fd39d	0.14045568
20	0x3e10ccbe	0.14140603
21	0x3f0d42bd	0.5517996
22	0xbee6fba0	-0.4511385
23	0xbc1e6f16	-0.00967004
24	0xbebfc074	-0.37451518
25	0x3ebde85b	0.37091336
26	0x3ed28982	0.41120535
27	0x3f392838	0.72326994
28	0xbd23ff7c	-0.04003857
29	0x3f43fa02	0.76553357
30	0x3d0567a9	0.03256956
31	0xbe5a4d06	-0.21318445
32	0xbdfd8a2a	-0.12379868
33	0x3dec377f	0.115340225
34	0x3c314e08	0.010821827
35	0xbe819282	-0.2530709
36	0xbee76d2b	-0.45200476
37	0x3f0e25bb	0.5552632
38	0xbedf425d	-0.4360532
39	0x3d7a39d7	0.061090317
40	0xbcb040d6	-0.021515291
41	0x3ed665c1	0.41874507
42	0xbdb20584	-0.08692458
43	0xbe0490c2	-0.12945846
44	0xbe127a67	-0.14304505
45	0x3ac64411	0.0015126487
46	0x3e277257	0.16352211
47	0x3ecdb089	0.40173748
48	0xbc36fa5a	-0.011168087
49	0x3e94e5de	0.29081625
50	0x3cc7b0dc	0.024376325
51	0x3e93e80a	0.2888797
52	0x3ed59a3e	0.4171924
53	0xbec93fb0	-0.39306402
54	0x3e3906f9	0.18069066
55	0xbf01ef4c	-0.50755763
56	0xbd5efd49	-0.05444077
57	0x3d8b1982	0.067919746
58	0xbcffe57e	-0.03123736
59	0xbda2d6a3	-0.07951095
60	0x3e9aec88	0.30258584
61	0x3eefe337	0.4685304
62	0xbef16d6f	-0.47153804
63	0x3f222b7a	0.6334759
64	0x3a30f5fb	0.0006750521
65	0xbebfb334	-0.3744141
66	0x3ea40a5b	0.3203915
67	0xbe3bf024	-0.18353325
68	0xbed0b870	-0.40765715
69	0xbe865905	-0.26239792
70	0x3edb7032	0.42859036
71	0x3f05c74a	0.52257216
72	0xbdbab398	-0.09116286
73	0xbe56b878	-0.20968807
74	0xbec504b6	-0.38480157
75	0x3e2277ac	0.15865964
76	0xbe8becaa	-0.27328998
77	0xbe525298	-0.2053932
78	0x3d8719f7	0.06596749
79	0xbef94efa	-0.48693067
80	0xbe71cc37	-0.23613058
81	0xbe5170b9	-0.20453157
82	0xbd8296a6	-0.0637639
83	0xbe16bd54	-0.1472066
84	0x3ef4f5e1	0.4784384
85	0x3d7e14e0	0.062031627
86	0x3ef5908c	0.47961843
87	0xbdd5bf68	-0.104368985
88	0xbe464e42	-0.1936579
89	0x3e8e1de9	0.27757195
90	0xbdd576d8	-0.10423058
91	0xbe998975	-0.29987684
92	0xbc700e7e	-0.014651893
93	0x3e1217c1	0.14266874
94	0x3f02f08c	0.51148295
95	0xbf05a21c	-0.52200484
96	0x3e9b0148	0.30274415
97	0xbe99bba8	-0.30025983
98	0xbe629652	-0.22127655
99	0x3e025ab6	0.12729916
100	0x3ef532fe	0.47890466
101	0xbf0e40de	-0.5556773
102	0x3ed4dcf9	0.4157484
103	0x3e2fef9c	0.17181247
104	0x3f3a786a	0.7283999
105	0xbe9d65ab	-0.3074163
106	0xbe631e83	-0.22179608
107	0xbef4d8dd	-0.47821704
108	0x3ebd7935	0.37006536
109	0x3f167afe	0.5878142
110	0x3ecfd935	0.40595403
111	0x3e657b58	0.22410333
112	0xbe784d03	-0.24248128
113	0x3ecc33be	0.39883226
114	0xbdc79298	-0.097447574
115	0x3d38626f	0.04501575
116	0xbeeee630	-0.46659994
117	0x3e3cd01a	0.1843876
118	0x3e041c7d	0.12901492
119	0xbeb9d2f8	-0.3629377
120	0x3ec2c2f0	0.3803935
121	0xbe75e51c	-0.2401318
122	0xbde0fe42	-0.10985996
123	0x3e86634b	0.2624763
124	0x3e5e196d	0.21689387
125	0xbed9746d	-0.42471638
126	0xbcb9c3bf	-0.022676347
127	0x3e938d9d	0.2881898

layers.1.weight f4 [128, 128]
0	0x3da18b5c	0.07887909
1	0xbd803a92	-0.062611714
2	0x3d9c8f56	0.07644527
3	0x3b8f9953	0.0043822913
4	0xbcb72283	-0.022355324
5	0xbd927879	-0.071518846
6	0xbc0d42d2	-0.008621888
7	0xbd1169d9	-0.035501335
8	0x3e0a0696	0.13479075
9	0x3d1e153f	0.03859448
10	0x3cf88199	0.030335234
11	0x3da83b8c	0.08214483
12	0x3d2aa7ad	0.041663814
13	0xbc9a9c6a	-0.018873412
14	0x3b2fc775	0.0026821767
15	0xbd502f7f	-0.050826546
16	0x3c5c4f45	0.013446634
17	0x3e40da24	0.18833214
18	0xbd9cef61	-0.076628454
19	0xbe325bca	-0.17417827
20	0xbc30f248	-0.010799952
21	0x3b7396fb	0.0037168849
22	0x3da94f21	0.08267046
23	0xbd7ba2c9	-0.06143454
24	0x3d17f3d9	0.037097786
25	0xbcff3588	-0.031153455
26	0xbe67c29d	-0.22632833
27	0xbe29a79e	-0.16567847
28	0x3dab5864	0.083664685
29	0x3eaaaf11	0.3333669
30	0xbcb9a529	-0.022661762
31	0x3d2540fc	0.040345177
32	0x3e19dae0	0.150249
33	0xbe85899c	-0.2608155
34	0x3d0f5300	0.034991264
35	0xbe4ffd0c	-0.20311373
36	0x3cd3dbd2	0.025861654
37	0x3cea4bb2	0.028600547
38	0x3ccbdcbf	0.024885533
39	0xbc489ceb	-0.012244443
40	0x3bd64594	0.006539056
41	0x3c5020ec	0.012703162
42	0xbcfd7877	-0.030941231
43	0x3ddac4e0	0.10682082
44	0x3e2d31bb	0.16913502
45	0xbd460f34	-0.048354343
46	0x3e337be4	0.1752773
47	0x3b955079	0.004556712
48	0xbd9c86ee	-0.07642923
49	0x3c335298	0.010944985
50	0xbde05c88	-0.10955149
51	0xbcbd1b2a	-0.023084242
52	0xbd93d253	-0.072178505
53	0x3d0f4a72	0.034983106
54	0x3daf49fa	0.08559032
55	0x3d3ee75c	0.04660736
56	0xbeaec306	-0.34133166
57	0xbd291c19	-0.04128656
58	0xbde62d23	-0.11239078
59	0xbc803160	-0.015648544
60	0xbe33bfd8	-0.17553651
61	0x3cc86975	0.024464348
62	0x3d7da9a5	0.061929364
63	0x3e2a767b	0.16646759
64	0xbd6f3ab6	-0.0584056
65	0x3e00a371	0.12562348
66	0xbdd3199a	-0.103076175
67	0x3d1aabe3	0.03776158
68	0x3d4a739e	0.049426667
69	0xbdf4d659	-0.11954946
70	0xbe2c6752	-0.16836289
71	0xbdd53edf	-0.10412382
72	0x3dcf9976	0.10136692
73	0x3db36c71	0.08760918
74	0x3dcf50c4	0.10122827
75	0x3ceffb0b	0.029294511
76	0x3b72a274	0.00370231
77	0x3b08976b	0.0020842205
78	0xbd612c3c	-0.054973826
79	0x3cc4ca41	0.024022223
80	0xbe5e3feb	-0.2170407
81	0x3c84118b	0.016121646
82	0xbe05cbba	-0.13065997
83	0x3e3066d1	0.17226721
84	0xbb723e6d	-0.0036963478
85	0xbde98bfc	-0.11403653
86	0xbde4b5da	-0.11167498
87	0xbc1dd09b	-0.009632255
88	0x39ec590e	0.0004507978
89	0x3d9f72ac	0.07785544
90	0xbe5a2d13	-0.21306257
91	0x3d296c30	0.04136294
92	0xbc95204b	-0.018203875
93	0xbd8c51bf	-0.06851529
94	0x3dc258f5	0.094896235
95	0xbc381d6d	-0.011237484
96	0x3c8c69b6	0.01714025
97	0x3e0223b5	0.12708934
98	0xbcc787c0	-0.024356723
99	0xbcd54004	-0.026031502
100	0xbe0bce8e	-0.13653013
101	0xbe1f14c6	-0.15535268
102	0x3d8536a6	0.06504564
103	0x3d3848de	0.044991367
104	0xbcb8662a	-0.022509653
105	0x3dcf62dd	0.101262785
106	0x3e4959e9	0.19663204
107	0x3d95fd46	0.07323699
108	0x3ddaf277	0.10690778
109	0x3d103e0e	0.03521543
110	0xbe2d040e	-0.16896078
111	0xbbacbdb3	-0.0052716373
112	0x3d805d55	0.06267802
113	0xbd55209c	-0.05203305
114	0xbda1354e	-0.07871495
115	0x3de6bab2	0.11266078
116	0xbe039964	-0.12851483
117	0x3d4d0e7a	0.050062634
118	0x3bb363a6	0.0054745255
119	0x3e8705d0	0.26371622
120	0xbe518d0d	-0.20463963
121	0x3e643921	0.22287418
122	0x3dbebb93	0.09313121
123	0xbce5a279	-0.028031575
124	0xbcebb210	-0.02877143
125	0x3d19b705	0.037528057
126	0x3c16ee04	0.009212021
127	0x3d50acce	0.05094605
128	0x3de42915	0.11140648
129	0xbd49b49b	-0.049244504
130	0x3c81e9f3	0.015858626
131	0x3aa695ca	0.0012709436
132	0x3bcca6ef	0.006245486
133	0x3c14395a	0.009046877
134	0xbc0f2089	-0.008735784
135	0x3bfe3e17	0.0077588665
136	0xbe7cbe70	-0.24682021
137	0x3d879b30	0.066213965
138	0xbcf4560c	-0.029826187
139	0x3dd7aa9a	0.105305865
140	0x3da8fc9a	0.08251305
141	0xbe08c6c0	-0.13357067
142	0x3d89f73b	0.067366086
143	0x3d8ac6d2	0.06776203
144	0xbda75e77	-0.081723146
145	0xbd898230	-0.067142844
146	0x3d5b10e1	0.053482894
147	0xbd4c2a03	-0.049844753
148	0x3cd6df40	0.0262295
149	0x3d2631d2	0.040574856
150	0x3cc97329	0.024591045
151	0xbce11d98	-0.027479932
152	0x3d62f2b9	0.05540726
153	0x3ddc5a26	0.10759382
154	0x3c4cfa50	0.012510851
155	0x3e040846	0.12893781
156	0xbe4549d6	-0.19266447
157	0x3ece4729	0.40288666
158	0xbbf6f133	-0.0075360774
159	0xbd8dfd9b	-0.06933137
160	0xbd8b1600	-0.067913055
161	0x3e7d9f49	0.24767794
162	0x3d8fd461	0.0702293
163	0x3ddb3438	0.10703319
164	0xbe1a6142	-0.15076163
165	0x3d965c9e	0.07341884
166	0xbc794f7f	-0.015216707
167	0xbe4ff730	-0.20309138
168	0x3d085560	0.033284545
169	0x3e5df4b4	0.21675378
170	0xbc60c737	-0.0137193715
171	0xbe79739f	-0.24360512
172	0xbe4324be	-0.19056985
173	0xbd917f16	-0.07104318
174	0x3db66673	0.089062594
175	0x3bc2d42f	0.0059457044
176	0xbe176783	-0.1478558
177	0x3d841d3e	0.0645089
178	0xbe198fd8	-0.14996278
179	0x3e14d40e	0.14534017
180	0xbd4d5177	-0.05012652
181	0x3d05caa4	0.032663956
182	0xbd5e6c21	-0.05430234
183	0x3e6c55c5	0.23079593
184	0x3bf287c4	0.0074014384
185	0xbe08e9ae	-0.13370392
186	0x3d8736bb	0.06602236
187	0x3ea0236f	0.31277034
188	0x3da83766	0.082136914
189	0x3e1576b9	0.1459607
190	0xbdafda00	-0.08586502
191	0x3db4c7c8	0.08827168
192	0x3e3d6fc6	0.1849967
193	0x3d756f20	0.05992043
194	0x3d862ddf	0.06551718
195	0xbe8892a7	-0.26674387
196	0xbd96d67c	-0.073651284
197	0xbcb7f3c6	-0.022455107
198	0x3e2e51d0	0.17023396
199	0x3e0cd671	0.13753678
200	0x3e1ac53e	0.15114304
201	0xbd417bd4	-0.047237232
202	0xbdc61c3e	-0.096733555
203	0xbe27d4ec	-0.16389817
204	0xbe5e3e81	-0.21703531
205	0x3d86f1b5	0.06589071
206	0x3ce1897d	0.02753138
207	0x3e0b7b97	0.13621365
208	0x3a2cf8e4	0.0006598367
209	0x3baf3f71	0.005348139
210	0xbcb4d775	-0.022075394
211	0xbcf30a9d	-0.029668147
212	0x3e84f68b	0.25969347
213	0x3d6c6075	0.057709176
214	0xbd226730	-0.03964919
215	0xbe0ee367	-0.13953935
216	0xbd683a73	-0.056696367
217	0xbd47684b	-0.048683446
218	0x3d94a078	0.072571695
219	0x3d380261	0.044924144
220	0x3da1b515	0.07895867
221	0x3df505b8	0.119639814
222	0x3d756ae2	0.059916385
223	0x3dc9d862	0.09855725
224	0x3d8fe820	0.07026696
225	0xbe0ac64a	-0.13552204
226	0xbd9ed0cb	-0.07754668
227	0x3d8249ec	0.06361756
228	0x3d8a4020	0.06750512
229	0x3afa8b45	0.0019114992
230	0x3d9bfb0f	0.07616245
231	0x3d92576d	0.071455814
232	0x3db74438	0.089485586
233	0xbca21294	-0.01978425
234	0xbcb0ec62	-0.021597091
235	0xbd1b60d6	-0.037934147
236	0x3e3df1c4	0.18549258
237	0x3dc56ed2	0.09640278
238	0xb8f38486	-0.00011611827
239	0x3d5e84d1	0.054325882
240	0xbb91099f	-0.0044261958
241	0x3b654585	0.0034984064
242	0xbd4b9440	-0.04970193
243	0xbdad7fb9	-0.08471627
244	0xbe2f2bb3	-0.17106514
245	0xbde67b71	-0.11254013
246	0xbd130c6e	-0.035900526
247	0xbc9e0c8f	-0.019293098
248	0x3e1213f7	0.14265428
249	0x3e66bfc4	0.2253409
250	0x3e07a178	0.13245189
251	0x3d9e319b	0.07724305
252	0xbadc5071	-0.0016808641
253	0xbbfc3148	-0.0076963045
254	0x3cfc547d	0.030802006
255	0xbd9fd4de	-0.07804273
