Gym-DDPG-solution/results/DDPG_HalfCheetah-v4_5000-eps0.5-t32-l0.0001-s1.pth (torch, 193979 bytes, 13 tensors)

layers.0.weight f4 [128, 23]
000000 82 65 05 3f b6 5a 87 be 9e 73 4c be 41 b5 69 be
       0.52108014 -0.26436394 -0.1996598 -0.22823049
000010 81 37 3c be 53 09 a0 3e 17 b6 39 bd 3e 19 c0 3c
       -0.18380548 0.31257114 -0.04533967 0.023449536
000020 27 43 61 3e 88 ee 52 bd 4d af e5 3b 24 94 0e 3c
       0.21998273 -0.051497012 0.007009423 0.008702312
000030 37 bb 30 3d 8c 3c a2 bb c5 fe 88 bc 9d f7 4b ba
       0.043147292 -0.0049510654 -0.016723046 -0.00077807327
000040 87 a2 01 bc 37 f4 b1 3b 9f ce b3 3c ee 85 a1 3c
       -0.007912285 0.005430724 0.02194911 0.019717183
000050 a1 17 3b bd b2 ea 7d 3b 3c 0c f8 bc 37 15 73 3d
       -0.04567683 0.0038744626 -0.030279271 0.059346404
000060 f7 ae 8f be 05 54 c9 be c0 2e 04 be dc e8 e2 bd
       -0.28063175 -0.39321914 -0.12908459 -0.11079571
000070 04 0a 37 be ee 69 96 bc bc 21 31 3e cd f5 bc be
       -0.17874914 -0.018361058 0.17298025 -0.3690628
000080 99 b6 93 3d 7d 3b 71 be 09 c5 9c bd 48 47 0a bd
       0.07212562 -0.23557849 -0.07654769 -0.033759385
000090 08 0c e0 3a 8c 57 52 bd cf 06 63 bc df c9 c3 3b
       0.0017093429 -0.051353022 -0.013856604 0.0059749926
0000a0 c1 57 93 3d 7e fc ab bd 7e 2b 9a 3e 2e 8f ab bd
       0.07194472 -0.083977684 0.30111307 -0.08376919
0000b0 1c 9d 1d bd c3 08 54 3e 99 da 25 3e c7 72 1b 3d
       -0.03847991 0.20706467 0.1619667 0.037951257
0000c0 a4 61 af be 34 c4 bd bc c0 44 f0 bd 49 c0 ec bd
       -0.3425418 -0.023164846 -0.11731863 -0.11560113
0000d0 88 48 3c 3c 90 ef 5b 3b 87 e5 87 bd e2 3d 31 3e
       0.011491902 0.0033559538 -0.06635576 0.17308763
0000e0 e1 44 32 bb e8 15 82 bc 91 b0 4c 3c d6 06 dd bb
       -0.00272017 -0.015879586 0.012493269 -0.0067451997
0000f0 97 25 96 bc d3 6f 14 bc 15 01 5f 3c 26 07 e3 3d
       -0.018328471 -0.009059864 0.013611098 0.11085348
000100 19 04 88 be 11 2d 87 bd e8 8b 21 bd a8 c5 95 bd
       -0.26565626 -0.066003926 -0.039440066 -0.073130906
000110 3c 6f 1e be 1f c6 2c bf 2a 23 11 3e 84 e0 7d be
       -0.1547212 -0.6748981 0.1417357 -0.24792677
000120 cc 22 92 be c1 2a e9 3d f2 fe 91 3e 5c a1 2c bc
       -0.28542173 0.11385108 0.2851482 -0.010536518
000130 53 38 d7 3d 49 a4 9e 3e a1 6e 99 be d3 1b 04 bc
       0.1050879 0.30984715 -0.29967216 -0.008063274
000140 72 5b 1b bd c6 19 91 bc a7 21 bf bb a4 55 28 bc
       -0.037929006 -0.017712485 -0.005832869 -0.010274325
000150 db fc 5d bc 02 5b 69 ba 85 b2 f7 be fd 51 10 3e
       -0.013549055 -0.0008901806 -0.48378387 0.14093776
000160 b0 15 01 be 72 c1 bb 3d 7f 20 ad 3c 6f c6 08 bd
       -0.1260593 0.09167756 0.02113366 -0.033392366
000170 15 71 66 3e a6 e5 c3 bd 0e 4b f8 3e f7 50 d5 3e
       0.22504075 -0.09565286 0.48494762 0.41663334
000180 ae fb 84 3e 5c 54 98 be 51 5f 99 3d 42 4b 06 be
       0.25973266 -0.2975186 0.07488883 -0.13114646
000190 72 86 d0 3e 76 e7 9c 3e d2 2b 97 3e 80 67 a2 3d
       0.40727574 0.3064534 0.2952562 0.07929897
0001a0 4d 3d 81 3d 5c 3c a1 b8 3f d0 53 3d 62 2c cb 3c
       0.0631052 -7.688321e-05 0.05171227 0.024801437
0001b0 9a c6 26 3c 05 18 03 3e 95 1b 05 bd e2 f9 b4 3d
       0.010179186 0.12802131 -0.032497007 0.08836724
0001c0 18 cd cc 3e e5 4c f3 bc ad 8c 28 3d a6 28 27 3f
       0.40000224 -0.029699752 0.041149784 0.652964
0001d0 97 dc 70 3d 95 0f 5d 3e 21 1a ae 3c 71 8e 29 be
       0.05880412 0.21587975 0.021252694 -0.16558243
0001e0 3c c3 c0 bc 9d 72 6e bd d9 99 32 3e 9f e7 c8 be
       -0.023530595 -0.058214772 0.174415 -0.39239213
0001f0 40 31 f4 3d 87 0d b7 3d 25 7f 3a bd e2 be 24 bd
       0.11923456 0.08938127 -0.04553141 -0.040221103
000200 1e e3 d6 3b 98 cc 3f 3d 1a 77 72 3d c0 d3 24 bc
       0.006557836 0.046825975 0.059195615 -0.010060251
000210 00 75 33 3e 80 4b b9 bd 23 e4 0e 3d f1 7f f4 3e
       0.175251 -0.090476036 0.034885537 0.47753862
000220 36 f6 b1 3d 7e 2f 9b bc 23 69 b5 bc 5b cb 88 be
       0.08689539 -0.018943544 -0.02214486 -0.26717648
000230 41 85 86 be ce be f8 3d ff 73 ed 3d 99 8f 17 3f
       -0.2627354 0.12145768 0.1159439 0.5920349
000240 77 61 30 3f b2 f9 8c 3e b9 41 e8 3d 60 20 be bd
       0.6889872 0.27534252 0.113406606 -0.09283519
000250 a9 ba 38 be a8 ee 63 3d 37 44 7d bb 6d c6 8c 3c
       -0.18039955 0.055647522 -0.0038645396 0.01718446
000260 b9 74 fd bc e3 83 39 3d da eb 22 3c 6c 7e e7 bd
       -0.030939447 0.045291793 0.009943927 -0.1130341
000270 77 49 e6 3c 55 3c 92 bd 99 31 58 3e 5a f0 f6 3d
       0.028111203 -0.07140414 0.2111267 0.12057562
000280 4b 25 83 3c 20 55 97 3e 4f f9 c5 3c 0e 34 8f 3e
       0.016008994 0.29557133 0.024166731 0.27969402
000290 25 12 40 be 93 67 1e 3e 1c 39 95 bc a8 da 51 bd
       -0.18756922 0.15469198 -0.018215708 -0.051233917
0002a0 1c 2d 69 be 6d 43 98 bd 0c 74 fb bd ce eb 72 3e
       -0.22771114 -0.074347354 -0.122779936 0.23722765
0002b0 91 08 10 3d fb e5 20 3d 2c 22 c3 3b d7 cf 13 3e
       0.03516442 0.039281826 0.0059550013 0.14434753
0002c0 c4 fc 71 3d a7 4f 08 3c 3b c5 5d be de 54 03 3e
       0.059078947 0.008319772 -0.21657269 0.12825343
0002d0 65 19 1b be 67 bd 9a 3d 2b 34 0c be ff 02 b9 bd
       -0.15146406 0.07555657 -0.13691776 -0.090337746
0002e0 9f fe 96 be 53 cc 71 3f 8f 7f e1 be 46 15 f3 be
       -0.29491135 0.944524 -0.44042632 -0.47477168
0002f0 08 1d 2c be a1 04 f3 be bc 81 80 bd db f3 9c bd
       -0.1680795 -0.4746447 -0.06274745 -0.07663699
000300 2e 25 06 3d 86 52 c2 3e 42 13 52 3e fa 98 b7 bd
       0.0327503 0.37953585 0.20515159 -0.08964725
000310 ec b3 3a 3d f1 5f 65 bd 72 7d 33 3d 66 97 c7 3c
       0.045581743 -0.0559997 0.043820806 0.024364185
000320 e7 0e af 3c 51 19 bf bd 2a 82 6d 3b d8 1d dc bd
       0.02136941 -0.093310006 0.0036240914 -0.1074788
000330 fc 05 1b be 14 13 09 bd d3 65 c2 bd fd 3f 1f 3f
       -0.15139002 -0.03346546 -0.09492078 0.62207013
000340 79 0b 23 3d 15 2c 12 3d 15 13 06 3f e0 fd b6 3d
       0.039805863 0.03568657 0.52372867 0.089351416
000350 87 72 49 bf 57 8e af bd 7d 8b 5c 3d 99 31 8c 3e
       -0.7869038 -0.08572071 0.053843964 0.2738159
000360 1e 5b 5b 3f 3d bd b5 be a1 18 55 bd f7 f2 b4 3d
       0.8568591 -0.3549594 -0.05202544 0.08835404
000370 7e fa 1f bc 3a 27 3e 3d cb 81 fb bc 73 06 82 bb
       -0.009764312 0.046424128 -0.030701539 -0.003968054
000380 c4 f0 2f 3d 59 54 fc 39 de ed 8d 3d 88 1a 2a 3e
       0.04295422 0.0004812803 0.06930135 0.16611683
000390 54 36 78 bc 2e 98 35 3b 0b 49 82 be 31 2c 25 bf
       -0.015149672 0.0027709114 -0.25446352 -0.64520556
0003a0 a0 b8 05 3f 6d 97 7d 3e b4 f1 76 be 3d 7a 35 be
       0.5223484 0.24764796 -0.2411564 -0.17722411
0003b0 99 61 45 3d 73 d9 8d 3d 32 45 b3 3e 06 41 f5 be
       0.04818878 0.06926241 0.3501373 -0.4790117
0003c0 2d 07 bb be 44 a5 26 3d 6d 07 5a 3d a3 41 10 bc
       -0.36528912 0.040684953 0.053229738 -0.0088047115
0003d0 66 7a 10 bd ce 1d a3 3c 46 cb 1e b9 3a 27 2d bd
       -0.03527298 0.019911673 -0.0001514378 -0.042273737
0003e0 72 fa 5e 3d b3 67 d5 3c c1 53 15 3e f1 ab 57 3d
       0.054438062 0.026050424 0.14582731 0.05265421
0003f0 5b 74 b2 bc 7b 3a 18 3f 4e 09 7c be 0d b8 14 bf
       -0.021783998 0.59464234 -0.24612924 -0.5809334

layers.0.bias f4 [128]
000000 84 39 06 3d 1f 3c 57 bd c2 0f e0 be ef 00 58 be
       0.032769695 -0.05254757 -0.43762022 -0.21094106
000010 6b 35 80 be d1 1c 89 be 19 d6 67 3e a5 44 c9 be
       -0.25040755 -0.26779798 0.22640266 -0.39310184
000020 f2 4d c8 3d 99 06 bd be be 80 e9 bd 52 54 6b be
       0.09780492 -0.36919096 -0.11401509 -0.22981384
000030 4f b8 67 be 24 30 a6 be 9e 54 30 3e d1 bf 65 3e
       -0.22628902 -0.32458603 0.17219779 0.22436453
000040 9d 9b 94 3e c0 d9 d2 be 00 ef bd be a7 41 5f bd
       0.29024974 -0.41181755 -0.37096405 -0.05450597
000050 7c 0f 96 3e 39 c7 e6 3d b8 00 25 be d3 d3 95 be
       0.2930869 0.112684675 -0.16113555 -0.29263172
000060 ff 17 69 be 1d ad 3f be 21 e3 05 be 69 9e c0 3d
       -0.2276306 -0.18718381 -0.13074924 0.09405214
000070 a6 62 9e 3e c9 e9 c5 3c c5 a0 e2 3d 7e 8f 49 be
       0.30934638 0.024159329 0.110658206 -0.19683644
000080 b6 7d 7f 3c 37 9c c7 3c 1b 04 a0 be f3 c1 b5 ba
       0.015593937 0.024366481 -0.31253132 -0.0013867005
000090 84 c8 aa be 0d cc 92 3e 13 65 63 3e 3a ff 05 be
       -0.33356106 0.28671303 0.22206526 -0.13085642
0000a0 4e 09 6a be 31 e8 72 bd da ef 49 bd 47 4d b0 be
       -0.22855112 -0.059303466 -0.049301006 -0.34433958
0000b0 b1 fa b4 bd ef ef bf bd 91 93 46 be c6 ca b6 be
       -0.08836878 -0.093719356 -0.1939223 -0.3570158
0000c0 cf e2 ca 3c 49 ac c4 3e 73 96 b9 be 2c e8 d3 be
       0.024766354 0.38412693 -0.36247596 -0.4138807
0000d0 52 0b b8 3e 98 d0 9c bb fa f8 fb 3e 28 cd 96 be
       0.35946137 -0.0047856085 0.49213392 -0.29453397
0000e0 ae 00 5f bc 94 b4 ba bd 10 59 b1 3e 42 9b 99 3e
       -0.013611002 -0.09116474 0.34638262 0.30001265
0000f0 c8 48 76 be 9e ae 2b 3e 34 c1 15 bf c7 16 fa 3d
       -0.24051201 0.1676583 -0.5849793 0.12211376
000100 87 5a 74 be 7e 75 c1 3e ab dd 36 be 12 10 32 be
       -0.23862658 0.37784952 -0.17857997 -0.17388943
000110 79 2d 90 be 7d 20 c9 be 02 93 4d 3d f9 24 26 3e
       -0.28159693 -0.392826 0.050189026 0.16225041
000120 39 37 c2 3e 8f 41 a8 be 8d c8 45 be e8 8b 28 be
       0.37932757 -0.32862517 -0.19314785 -0.1645962
000130 fa e3 4c be 7f 6e 8c bd 7d 5b 11 3e a1 41 5d be
       -0.20008841 -0.06857013 0.14195056 -0.21607067
000140 86 56 2d 3e a3 15 08 be 55 06 b0 3e 13 a6 62 3e
       0.16927537 -0.13289504 0.3437983 0.22133665
000150 39 2a 07 bb 4a dc 44 be 87 83 db bd 7a c9 7d 3e
       -0.0020624532 -0.19224659 -0.10718446 0.24783888
000160 95 5b 94 3e 79 97 54 bd c9 3a 34 3e fe 78 1a 3d
       0.28976122 -0.051902268 0.1760055 0.037713043
000170 f9 ce 1b be f6 87 e3 be ce 8d 0c be 9e 13 13 bd
       -0.15215673 -0.44439667 -0.13725969 -0.03590738
000180 a9 71 32 be 2a 71 25 3e 28 b5 38 be 60 1e 8d 3e
       -0.1742617 0.1615645 -0.18037856 0.27562237
000190 a8 c9 00 bd 62 31 40 be a7 35 b0 be 83 f1 ab 3e
       -0.031442314 -0.18768838 -0.34415933 0.33582696
0001a0 25 a6 bb 3e a8 30 73 3d 72 c1 50 bd e3 4e 4e 3e
       0.36650196 0.059372574 -0.050965734 0.2014728
0001b0 14 cf a0 bd a6 ce f2 bd 14 d4 75 3e d6 6b 07 3f
       -0.07851997 -0.11855821 0.24006683 0.5289892
0001c0 87 c2 1c 3d ac cf 1b bd f2 20 89 3e 26 0c 06 bf
       0.038271453 -0.03803985 0.26782948 -0.5236229
0001d0 a1 e9 7c 3e 30 1a ba 3e d8 cd 94 bc 09 1a 96 3e
       0.24698497 0.36348104 -0.01816456 0.29316738
0001e0 5e 01 5a 3e 44 6f 06 bd 02 9b db 3d 35 16 ef 3e
       0.21289584 -0.032820955 0.10722925 0.4669663
0001f0 db b4 6c 3e 12 08 a1 be e3 4d a1 3e 31 8c 84 be
       0.23115866 -0.3145147 0.31504735 -0.25888208

layers.1.weight f4 [128, 128]
000000 f2 44 27 3e 82 dd ca bd 1f fa ed bd 52 39 95 3d
       0.16334894 -0.099055305 -0.116199724 0.072863236
000010 94 28 44 3d ab 58 c4 3d b4 7d 42 3c 7b 4e 96 3d
       0.04789026 0.095872246 0.01187079 0.07339188
000020 30 40 dc 3c 65 58 ff 3d 0d 0f e9 bd 62 00 42 bd
       0.026886076 0.12468032 -0.11379824 -0.047363646
000030 77 d0 06 3e 55 9a 82 bd 93 d9 6d 3d a1 dd 93 3d
       0.1316546 -0.06377093 0.058068823 0.07220007
000040 74 1b 09 3d a2 0f a3 bd b2 49 eb bc 2d 5a 7b 3d
       0.033473447 -0.07961966 -0.028721664 0.061365295
000050 65 67 05 3d be 24 e3 bb 72 be 4d 3d f8 bb bd 3c
       0.032569308 -0.0069318702 0.05023045 0.02316092
000060 39 22 93 3d 4e d5 bc bd d7 10 3e be bc 47 2b 3d
       0.07184262 -0.09220372 -0.18561111 0.041816458
000070 fc 86 78 3b 94 94 9f bd ed 47 38 bd 20 0e 75 3d
       0.0037922254 -0.07792011 -0.04499047 0.059827924
000080 1d 01 86 bd 9a 91 ff 3d e0 8b c7 3d b7 bc af bd
       -0.06543181 0.12478943 0.09743476 -0.085809164
000090 22 84 3d 3c b8 ac d6 3c a1 d4 61 ba d2 c4 b2 3c
       0.011567147 0.026205406 -0.0008614753 0.021822367
0000a0 76 bd 1e 3d 88 f6 0c 3d 7d d1 40 3d 7d 43 a6 3d
       0.038754903 0.034414798 0.047074784 0.08118341
0000b0 ff f4 91 bd 93 3c 0b bd c7 46 9f 3d da 0b a7 3c
       -0.071268074 -0.033993315 0.077771716 0.020391393
0000c0 26 64 b7 bc 2e 48 0a bd 4b b3 fa bc 34 21 53 3d
       -0.022386622 -0.033760242 -0.030603072 0.051545337
0000d0 d8 43 d5 3d e2 24 9e bd 5d 4f 16 bd 6e 30 9a bd
       0.10413331 -0.077218786 -0.03669678 -0.075287685
0000e0 2d 7f 04 be f4 41 0e 3e 0b 1d 9d 3c e6 25 7e bd
       -0.12939139 0.13892347 0.019178888 -0.06204786
0000f0 df d1 4e bd 6b e9 2a 3e 81 4f c4 3d 25 ac d8 3c
       -0.050493117 0.16690604 0.09585477 0.026449272
000100 ef 45 55 bb 9c 93 60 bd 95 ff a3 3d 54 e9 02 bd
       -0.0032542904 -0.05482827 0.08007733 -0.0319608
000110 8a 90 6b 3c 77 1b 36 3d d0 22 86 bc fe 8d da 3d
       0.0143777225 0.044459786 -0.016374022 0.10671614
000120 a2 ab 5e bd 9b 46 56 3c d5 85 a7 3c eb f7 7a bd
       -0.0543629 0.013078357 0.020449558 -0.06127159
000130 e6 b5 4f be 8a 29 ba bc 60 e5 57 3d ba aa 16 3d
       -0.20284232 -0.022724885 0.052708983 0.03678391
000140 e7 94 da bb de f0 d7 3d fc 46 60 3d 5e b5 83 3d
       -0.0066705826 0.10543989 0.054755196 0.064310774
000150 a9 19 2c bc 73 77 35 3d ba e3 1a 3d 8a 7b 95 bd
       -0.010504165 0.04430337 0.037814833 -0.07298954
000160 68 4f fc bd 77 a5 40 bd ab fc 13 3d 3b b6 ab 3d
       -0.12319833 -0.0470328 0.036129635 0.08384367
000170 32 f2 a7 bd ab bc 66 3b 1c b8 dc 3d 2c 31 4c bc
       -0.08200492 0.003520767 0.107773036 -0.012462895
000180 9b 9f ce bd f3 24 c5 bd f0 36 52 bd c8 19 cc 3b
       -0.10089036 -0.09626188 -0.051321924 0.0062286593
000190 f6 97 a5 bd f5 1d 22 bc db 2a ab bd a7 1c 34 3e
       -0.08085625 -0.009894838 -0.083577834 0.17589055
0001a0 60 41 a4 bd 6b 75 d4 3d d6 8e 09 3e 0a 6e bf 3c
       -0.08020282 0.10373958 0.13433394 0.0233679
0001b0 c3 3a 07 be cc 01 b8 bc 27 32 fa 3c f7 de d4 bd
       -0.1320601 -0.022461794 0.030541493 -0.1039409
0001c0 61 be a1 bc a3 f9 22 bd 65 60 e8 3c 42 63 82 3d
       -0.0197441 -0.039788853 0.028366277 0.06366588
0001d0 31 80 f4 bc 8c fe 27 3d 25 2f 17 3c 0f a6 eb 3d
       -0.029846283 0.04101424 0.009227549 0.115062825
0001e0 6c 48 bc 3d 2b ae 02 bb 07 46 00 bd c9 93 40 3c
       0.09193501 -0.0019940238 -0.031316783 0.011753985
0001f0 f1 41 81 bc 9d 6e 9c 3d 82 33 94 3d ff 3f 58 3d
       -0.015778514 0.07638285 0.07236387 0.052795406
000200 eb dc 61 bd 2a c7 de 3d 97 1d 2e 3e bd cb bd bd
       -0.055142324 0.10877831 0.17003475 -0.092673756
000210 00 22 0b bd 9d 01 78 3d 1f a6 d0 3b b5 67 c1 3d
       -0.03396797 0.060548414 0.0063674594 0.09443609
000220 9c 94 ed bd 87 d6 15 3e ee c4 72 3c da 30 b0 3d
       -0.116006106 0.14632617 0.0148174595 0.08603068
000230 87 e5 0b bd 21 fa c9 bd f1 8b 81 bc 52 40 4d bd
       -0.03415444 -0.098621614 -0.0158138 -0.05011017
000240 96 b6 86 3c 77 cd 17 3d a1 38 cd 3d 79 d0 95 bd
       0.016444486 0.03706118 0.10020567 -0.07315154
000250 ad 6a c2 bc f1 a8 b9 3d 7e e3 7a bd b1 9f c6 bd
       -0.023732508 0.09065426 -0.06125211 -0.096984275
000260 c3 f8 d3 3d bd 26 a8 3c 2e 13 85 bb f5 54 0b be
       0.10350182 0.020526284 -0.0040611243 -0.13606627
000270 e5 e5 d2 bc 45 30 5c bd 09 b7 43 3d 9e 9d 1a 3e
       -0.025744388 -0.05375697 0.047781978 0.15099189
000280 a9 48 a9 3d 5e 42 21 3b ba 9b a0 3d 62 5e b0 bd
       0.08265812 0.0024606208 0.078422025 -0.08611752
000290 86 46 c3 bb 9d 85 c2 3d b3 8b 3c bc 12 16 65 bc
       -0.005959335 0.09498141 -0.011507916 -0.013982313
0002a0 99 17 5a bc fd ad bb 3c 73 56 28 3d 40 ee a3 3d
       -0.01331129 0.022910113 0.04109807 0.08004427
0002b0 69 14 fd bd 28 a3 d4 3d e8 cb f2 bd 88 d8 9d bc
       -0.123574086 0.10382682 -0.11855298 -0.01926829
0002c0 06 ec b2 bd 8f 96 5a bd 16 d5 29 bd 15 83 82 bc
       -0.08736424 -0.05336624 -0.04146298 -0.015931645
0002d0 bf e7 f3 3d d9 26 54 be 20 2d 80 bd 64 90 9c 3d
       0.119094364 -0.20717944 -0.06258607 0.07644728
0002e0 f7 b5 fd bb de b4 35 3b 90 aa 65 bd de 42 dc 3d
       -0.007742639 0.0027726213 -0.056070864 0.107549414
0002f0 cb 70 4a 3d 1f d3 fd 3b 41 9d 06 bc 18 80 de bc
       0.049423974 0.007746115 -0.008216203 -0.02716069
000300 0e 77 da 3d 3e 60 06 be c4 70 5a bd 27 70 76 bd
       0.10667239 -0.13122651 -0.053330198 -0.06016555
000310 ad 9f 8f 3d d9 9f fd bd f1 b7 d6 bb f3 62 8a bc
       0.070128776 -0.12384004 -0.0065526892 -0.016892886
000320 fb ee 93 bc 62 53 c9 bd e6 49 59 3d d8 41 f7 3c
       -0.01805829 -0.09830357 0.05304899 0.030182764
000330 02 52 ff 3d a6 03 ab bd dd f4 c6 bd 15 89 50 3d
       0.124668136 -0.08350305 -0.09714673 0.05091198
000340 e2 04 92 3d 21 6a 39 3c 25 83 8b bd 09 04 56 bc
       0.071298376 0.011316807 -0.06812123 -0.0130624855
000350 09 c1 05 3e 18 e2 ce 3d c3 e6 01 bb 87 e2 4a bd
       0.13061918 0.10101718 -0.0019821383 -0.04953244
000360 8d af ee 3a d2 98 4c 3d a1 b6 68 3b f6 a9 58 3d
       0.0018210277 0.04995043 0.0035509246 0.052896462
000370 29 a8 9a 3c 81 01 91 3c e3 3a 26 3a 21 04 94 3c
       0.018879013 0.017700912 0.0006341172 0.018068375
000380 e3 76 60 3d 2f cd 19 be f5 db aa bc 21 b7 cf 3d
       0.05480088 -0.15019678 -0.020856837 0.10142351
000390 67 2f 13 3c ff be 4a 3e 97 df 18 be 60 5d 48 3d
       0.00898347 0.19799422 -0.14929043 0.048917174
0003a0 12 a8 c6 bd ea 1a a5 3b 4e 8e 89 bc df 88 68 bd
       -0.097000256 0.005038609 -0.016791489 -0.056771155
0003b0 9d 6e c7 bd ae 35 70 3d 58 3c d7 bd d4 47 89 3d
       -0.09737895 0.058644943 -0.105095565 0.06703153
0003c0 b4 cf 83 3b e7 b8 88 bd ef e3 54 bd 95 4f 96 3c
       0.004022563 -0.06675892 -0.051975187 0.018348495
0003d0 ce 21 86 bd dc 31 65 3d 50 33 4a bd d8 ef 6e bd
       -0.065494165 0.055955753 -0.04936534 -0.0583342
0003e0 74 19 61 3d bd 08 4b bd 2b 3c 05 be 02 70 7e 3c
       0.054955915 -0.04956888 -0.13011234 0.015529634
0003f0 38 7d 58 bd 35 9c ee bd df f8 fb bc ef 51 6e 3d
       -0.052853793 -0.11650888 -0.03075832 0.058183607

layers.1.bias f4 [128]
000000 7d 64 d7 bd 55 19 de bd b4 9f c4 3c 44 f6 bb bd
       -0.105172135 -0.108446755 0.024001934 -0.09177831
000010 1d 0f 81 3b 6f 9a 1e bd f8 11 1c 3e 9c d1 80 3d
       0.003938569 -0.038721498 0.1524123 0.0628998
000020 d8 bf b2 bd 37 f3 b5 bd 7d 84 ae 3d 1f 4c db bd
       -0.087279975 -0.0888428 0.08521364 -0.10707878
000030 a1 c5 35 3d e0 40 3f bd db ba 84 3d 32 c5 a7 3d
       0.044377927 -0.04669273 0.06480952 0.08191909
000040 f9 a3 da bd bf e0 ad bd 6e 4e 2d bd b8 9a 6c 3b
       -0.106758066 -0.084901325 -0.042311125 0.0036102962
000050 50 78 ec 3c e2 d0 c3 bc 1b e2 9b bb 69 9d 31 bd
       0.028865963 -0.023903314 -0.0047571785 -0.04336301
000060 9e 07 0a 3e 51 59 ed 3d 21 3f 16 be ca 0e 58 be
       0.13479468 0.115893014 -0.1467252 -0.21099392
000070 a0 d4 27 bc 20 96 9d bc c9 0a cc bd ca e8 5d 3d
       -0.010243565 -0.019236624 -0.099629946 0.054177083
000080 1b 21 84 3c 0b c8 b9 3d 28 e2 96 3d 84 00 ca 3d
       0.016129067 0.09071358 0.07367355 0.098633796
000090 c3 35 0c bc 68 79 18 be 25 78 7a bc 73 4e 11 3e
       -0.00855774 -0.14890063 -0.015287434 0.14190082
0000a0 b0 64 42 bd fa ad 0f 3d 79 63 0f 3d f9 b9 1d bd
       -0.047459304 0.035078026 0.035006974 -0.038507435
0000b0 7b c8 a1 bd 6d ab 21 bd ef c6 90 3a c7 13 28 be
       -0.07899567 -0.039470125 0.0011045615 -0.16413794
0000c0 1b 96 ea bd d9 4b 13 bd 69 9a 72 bd 55 3f c2 bd
       -0.114544116 -0.035961006 -0.05922929 -0.09484736
0000d0 45 30 06 bd ef 5e e8 bd f1 58 83 3d 2c 72 9b bd
       -0.032760877 -0.11346232 0.064134486 -0.07590136
0000e0 d0 7c c7 3d ea 60 82 bd dd b3 58 3d 7a 0b ef bd
       0.09740603 -0.06366141 0.052905906 -0.11672111
0000f0 77 7c 10 be 12 22 9e 3d ed 22 2b be ab 28 32 be
       -0.1410998 0.07721342 -0.16712542 -0.17398326
000100 b9 f9 17 be cb 15 26 3c 28 18 a7 3d 96 ad d5 3d
       -0.14841355 0.010137032 0.08158904 0.104334995
000110 e1 86 c1 bd 56 7b fa 3c d8 ad cc bd 72 b3 5a bd
       -0.09449554 0.03057639 -0.099940956 -0.05339379
000120 c1 4f 61 3d fc 51 07 3e a4 76 e6 bd 92 7a 32 be
       0.0550077 0.13214868 -0.11253098 -0.1742957
000130 76 fa 25 be 07 e5 50 39 ea c9 19 39 c4 5d d2 bd
       -0.16208825 0.00019921745 0.00014666436 -0.102717906
000140 77 9f 00 3d 72 6a 92 3d 09 f1 17 3e e0 13 5e 3e
       0.031402078 0.07149209 0.14838041 0.21687269
000150 f3 89 43 3c d2 7d 2d bd 81 ee 06 bd 41 d0 9a bd
       0.011934745 -0.04235632 -0.0329423 -0.075592525
000160 c1 8c 89 bd 68 d7 ee 3d 24 83 eb bd 59 24 36 3d
       -0.067163 0.11662179 -0.114996225 0.044468258
000170 b1 a7 a1 3d bf dd a1 3c e5 17 9e bd 67 9e e2 3d
       0.07893313 0.019759057 -0.07719401 0.11065369
000180 67 fb a2 bd 80 e1 fb bd 57 22 7d be 44 c4 06 be
       -0.079581074 -0.1229887 -0.24720131 -0.13160807
000190 67 eb 05 bd 06 de 27 3d a1 6b 39 bd 4e 20 48 bd
       -0.0326952 0.040983222 -0.04526866 -0.048858933
0001a0 4f 73 db 3d 42 c8 a9 3c 6c c8 d0 bd e4 97 c6 bd
       0.10715353 0.020725373 -0.101944774 -0.096969396
0001b0 35 d7 34 bd 17 25 d3 bc 9b e2 7f 3c ef 6d 81 3d
       -0.04415055 -0.025774522 0.015617992 0.06319796
0001c0 00 98 1b 3d b7 c3 76 3d c7 15 f6 3d b9 3b 1a bd
       0.037986755 0.060245242 0.120158724 -0.037654612
0001d0 be 5b 83 bd 58 59 b7 bd 71 0f 2a be 4d 22 10 bd
       -0.06413983 -0.08952588 -0.16607453 -0.03518896
0001e0 09 23 29 bd e3 f5 6b bd 79 6a 44 3e 9a 85 34 3e
       -0.041293178 -0.057607543 0.19181241 0.1762909
0001f0 2d 3e d9 bd a5 b0 04 be bb b5 6a 3d 75 56 80 bd
       -0.10607562 -0.1295801 0.057302218 -0.0626649

layers.2.weight f4 [64, 128]
000000 9c a6 e9 3d 92 fb a6 3c ca fe d8 bd 40 4b e1 3d
       0.11408731 0.02038363 -0.10595472 0.11000681
000010 d6 ca 0c bd f7 fe 7c bd 58 86 db 3d 84 e1 21 3d
       -0.034373127 -0.06176659 0.107189834 0.03952171
000020 d3 d1 8c 3c 84 11 07 3e c3 03 0c 3e f8 9a 33 3e
       0.017189896 0.13190275 0.1367331 0.17539585
000030 d3 ae 40 3d ee d2 97 bd d2 3c 61 3d fb 84 d9 bb
       0.047041725 -0.074132785 0.054989643 -0.006638167
000040 42 cf a9 bb 19 58 16 3e ea a7 51 3e 9e 4d ec 3c
       -0.0051821778 0.14682044 0.2047421 0.028845605
000050 a5 53 6e 3d 40 62 b2 3d 15 53 7e 3c 91 4b 0e 3d
       0.05818524 0.08710146 0.015522738 0.034740034
000060 33 12 4f 3d 5b ff f4 bd 4c b0 89 3b 67 8f 0d bc
       0.050554466 -0.11962768 0.0042019244 -0.008640147
000070 8a 73 c0 bd bf 55 8a bd c4 c0 93 3d 58 0c 2c bd
       -0.09397037 -0.06754636 0.072145015 -0.04200396
000080 9c 8b b9 bd 0a e5 e9 3d 9c 96 ec 3d 83 28 66 be
       -0.090598315 0.11420639 0.11552164 -0.22476391
000090 eb 2e 42 3e 9a 74 54 3d 2c 46 14 3e ab cd db 3d
       0.1896321 0.051869012 0.14479893 0.107325874
0000a0 c0 61 48 be 57 18 15 3e 0c 99 8a bb 58 33 91 b9
       -0.19568539 0.14560066 -0.0042296704 -0.0002769481
0000b0 fe 09 7a 3d 57 bf 04 3e 2a 48 ab 3d 57 0d ff 3c
       0.061044686 0.12963615 0.083633736 0.03113429
0000c0 34 81 1b be 44 83 4b 3d 3c 9b 86 3e 39 b5 5f 3d
       -0.15186006 0.04968573 0.2629031 0.054616187
0000d0 4f 71 cb bd b8 b4 7f bc 97 0c ec 3d 64 72 c3 3d
       -0.09933721 -0.015607052 0.11525839 0.09543303
0000e0 73 30 79 3b 71 12 a6 3d 53 4a b6 3d 61 1b 2c bd
       0.0038023263 0.08108986 0.08900895 -0.042018298
0000f0 2d ed 81 3d 02 a9 62 bd 46 8a cd bd 72 b5 03 bc
       0.06344066 -0.05533696 -0.10036139 -0.008038865
000100 f6 06 12 3e 53 2f ac bd fa 0f ac 3d 44 e4 bb 3d
       0.14260468 -0.08407464 0.08401485 0.091743976
000110 25 b1 50 3d fd d2 62 be aa b5 8c bc 3a b0 b3 3d
       0.05095019 -0.22150798 -0.017176468 0.08773847
000120 91 3a f9 3d a1 f4 38 bc a0 33 51 3e 6f f9 f1 3c
       0.12169374 -0.011288793 0.2042985 0.029537885
000130 58 e1 06 bd df 4e 11 3d 8a 7d e3 3d 17 b7 d6 bd
       -0.03292975 0.035475608 0.11107929 -0.1048414
000140 9b 2d 0a 3d 1b 17 f6 3c 10 fe 9a bc 02 22 71 bd
       0.0337349 0.030040314 -0.018919975 -0.058870323
000150 86 ad d3 3d 48 31 7b 3c bd 6a 16 3c fb 01 c2 3d
       0.10335831 0.015331574 0.009180722 0.09473034
000160 16 8c 56 3b e4 6f 30 be 09 e7 ab 3c 7d 6d 7c 3d
       0.0032737306 -0.17230183 0.02098419 0.061627854
000170 95 4c 14 bd d1 73 e9 3d ab a5 43 bd eb 9c b7 3d
       -0.036205847 0.11399043 -0.047765415 0.089654766
000180 00 ec ee bd 91 37 ca 3c d6 35 64 bc 42 9c 6b 3e
       -0.11666107 0.0246847 -0.013928851 0.23008826
000190 75 99 0c be 09 8a fa 3c 80 46 1e 3e 4e aa 86 3c
       -0.13730414 0.030583398 0.15456581 0.01643863
0001a0 34 27 c3 3d f1 f6 9a 3c 02 38 0e be a5 8f 91 bc
       0.09528962 0.018916579 -0.13888553 -0.01776869
0001b0 aa 61 cf 3d 1d bc 1d 3e 21 a5 9d 3c 19 30 0d 3c
       0.1012605 0.15403791 0.019243779 0.008617424
0001c0 3c 87 a2 bd b8 88 03 3b 2c 3e 9d 3c e2 91 83 3d
       -0.0793595 0.0020070504 0.019194685 0.06424309
0001d0 80 29 ca 3d 20 6e 90 bd 42 cb be bd 02 10 a2 3c
       0.09871197 -0.07052255 -0.09316112 0.019783024
0001e0 18 d1 8e 3d f6 a2 fa 3c b8 bf 76 3c a1 70 8a bd
       0.06973475 0.030595284 0.015060358 -0.067597635
0001f0 5d f3 08 3d 47 5b 2a 3d 55 41 29 bd ab 19 0a 3e
       0.033435214 0.041590955 -0.04132207 0.13486354
000200 63 e7 b4 bd f9 1f 91 3c c0 5b 80 bc 35 d2 02 3e
       -0.08833196 0.017715441 -0.01566875 0.127755
000210 0b cc 87 3c bf c7 ed 3c 29 de 23 3c e0 0b 95 bd
       0.016576787 0.02902591 0.010001698 -0.072776556
000220 96 76 9f bd 7d 5b 7d bd 26 8b d1 bb bf 77 c2 3c
       -0.0778629 -0.06185483 -0.0063947616 0.02373874
000230 e4 36 9a bc 19 a2 4f be 40 64 8e bc 1e da df bc
       -0.018825002 -0.20276679 -0.017381787 -0.027325686
000240 0c 5b bb bd bb 51 06 be ac 22 2a bc 8f f3 2f 3c
       -0.09148225 -0.13117115 -0.010384243 0.010739221
000250 4c 82 82 bd ee ac 08 bc 1d 8c 9d 3c f7 4d 4b bc
       -0.063725084 -0.008342011 0.01923185 -0.012408725
000260 d2 cb 86 3c 44 ee 2c 3d 09 ed ea bc ca c8 80 bd
       0.016454611 0.042219415 -0.02867748 -0.062882975
000270 0e 69 e8 bd 79 27 08 bd 29 d0 02 3e d0 b1 c9 3d
       -0.113481626 -0.03324077 0.1277472 0.09848368
000280 f6 4e 26 3d 68 9c bb 3d eb db db 3d d6 13 99 3a
       0.040602647 0.091606915 0.107353054 0.0011678885
000290 0b bd 0c 3d 02 38 23 bb 89 9b 04 3c 21 55 94 3d
       0.034359973 -0.002490521 0.008093723 0.072427996
0002a0 b6 50 c8 bd fb b3 0d bd 24 3d a5 3c ea 7c 4a 3d
       -0.097810194 -0.03459547 0.020170756 0.049435534
0002b0 72 02 45 3d 0e a6 df 3d 30 21 b3 bd d5 72 d3 bd
       0.048098035 0.10920344 -0.087465644 -0.10324637
0002c0 9f ea c8 3c bb 58 e0 3d 65 ef ef 3a dc bb ca 3d
       0.024525939 0.10954424 0.0018305598 0.098991126
0002d0 93 d1 a9 3c 70 ca bc bd ef b9 b7 bd 9b 37 53 3d
       0.020729816 -0.092182994 -0.08971011 0.0515667
0002e0 75 03 54 bc eb b3 75 3d d2 35 a6 bb 43 d9 b8 bd
       -0.012940277 0.059986036 -0.005072334 -0.090258144
0002f0 c1 3a 5b 3d 0c 70 b8 bc 0f ba 45 bd 56 8d a0 bd
       0.05352283 -0.022514366 -0.048273142 -0.07839458
000300 ef 45 da 3c a8 71 5d bc 89 0b f5 bd 76 2d f7 3c
       0.026644675 -0.013515867 -0.11965091 0.030173045
000310 50 16 9c 3d ed 77 c9 bd ac 9b 6d bd af be 7a 3c
       0.07621443 -0.09837327 -0.05800979 0.015304252
000320 0b 4d 6c 3d 55 bd 3c 3d 48 58 da 3c eb 26 34 3d
       0.05769066 0.046079 0.026653424 0.043982428
000330 da 3e 3e be 6e 41 eb 3c 25 05 a4 3d 56 1e 2a be
       -0.18578663 0.028717723 0.08008794 -0.16613135
000340 4f ce f9 bd 56 20 7e 3d 0e ad 95 3d 09 94 19 bd
       -0.12197553 0.062042557 0.07308398 -0.037494693
000350 2c d2 7c bd 05 33 b8 bd 95 fc 6e bd ea 8e 1d 3e
       -0.061723873 -0.08994106 -0.05834635 0.15386549
000360 2d d2 bc bc f8 8c 81 bd ac c2 43 3d a5 98 8b 3d
       -0.023049438 -0.06325716 0.047793075 0.06816224
000370 31 df d8 bd f0 e8 18 be 94 f8 83 bc 92 8e 27 3e
       -0.105894454 -0.14932609 -0.016109742 0.1636298
000380 79 ac ad bd b0 8a 78 be 44 b1 9a bc a8 ea 0b 3e
       -0.08480162 -0.24271655 -0.018883355 0.13663733
000390 78 a5 31 bc 48 4d c9 3d 3d dd 29 3d 1a 77 49 3e
       -0.0108426735 0.09829193 0.041470755 0.1967434
0003a0 77 30 2d 3e 26 48 ce 3d 44 16 82 bd 55 24 0d 3d
       0.16913019 0.10072355 -0.06351903 0.034458477
0003b0 73 48 3b be d2 55 94 3d bd 45 e1 3d 2f 8d 53 bd
       -0.18289356 0.072429314 0.1099963 -0.051648315
0003c0 d7 4e 6e bd 77 78 f1 3d 88 b2 2a bb 94 e8 16 3e
       -0.058180656 0.11790555 -0.0026046354 0.14737159
0003d0 54 ee 8c 3d 4b 1d 5c 3d 9a a8 19 3d ef f0 82 bd
       0.06881395 0.053738873 0.037514307 -0.06393611
0003e0 2c 2a 50 bd 90 87 21 be 6c b9 c5 3c 3a f1 92 bb
       -0.05082147 -0.15774369 0.024136268 -0.004484323
0003f0 75 94 f5 bc da f2 1b 3d f0 c9 cb 3b b6 f7 0d 3d
       -0.029978016 0.0380734 0.006219141 0.034660064

layers.2.bias f4 [64]
000000 f8 18 58 3d ef 35 b6 bc 65 f6 bb 3b d6 ff 21 3d
       0.052758187 -0.022242514 0.0057361596 0.039550625
000010 6d 6b 23 bd 90 2d c1 3c df 40 8f bd a0 3a 25 3c
       -0.03989737 0.023581296 -0.06994795 0.010084778
000020 73 75 a4 bd 0a 81 3e bd 68 48 21 bc d0 5b 9d bc
       -0.08030214 -0.04650978 -0.009843923 -0.019208819
000030 51 4b 45 bc 2c 8a dd bb 55 13 3d bd 86 e8 94 3d
       -0.012041883 -0.006760856 -0.046161015 0.07270913
000040 32 09 1f bd 53 34 37 3d 11 a4 39 3d 95 23 23 bd
       -0.03882713 0.044727635 0.04532248 -0.039828856
000050 62 f4 ce 3d 4c 75 57 3d d4 16 a8 bd 33 6d d4 bd
       0.10105206 0.052602097 -0.08207479 -0.103723906
000060 90 e8 61 3d 9b ed 0f bd 9e 1e 7e bc ea 6a cb bc
       0.05515343 -0.035138708 -0.015510229 -0.024831254
000070 98 e1 83 3d d9 b1 95 bd 6c 48 29 3d 00 9c 9e bd
       0.06439513 -0.073093124 0.041328833 -0.077445984
000080 ef 00 76 3d ee e2 33 3d 1a 34 b7 3d 52 bf 58 3c
       0.060059484 0.04391759 0.089454845 0.013229208
000090 dc a1 90 3d 72 63 91 3b 46 00 49 3b 95 08 5b 3d
       0.07062122 0.0044369036 0.003067033 0.05347498
0000a0 0e 58 85 bd f1 ce 8e 3d 20 40 46 3d 08 80 18 3c
       -0.06510936 0.06973065 0.048400998 0.009307869
0000b0 40 b1 c9 bd 6e 45 74 bc 64 4f bf bd 1c 6b fa bd
       -0.09848261 -0.014909131 -0.093413144 -0.12227461
0000c0 aa c1 8b 3d ec 43 47 bd 7f 29 a0 bb 60 e9 4c 3c
       0.06824048 -0.04864876 -0.004887759 0.012506813
0000d0 b5 a0 2f bd e4 24 03 3e 66 eb 78 bd e4 57 c8 bd
       -0.04287787 0.12807041 -0.06077137 -0.09782389
0000e0 b3 2c ab 3c b2 c2 d5 bd e2 b2 29 bd a3 9d c0 3d
       0.020895338 -0.10437526 -0.04143036 0.09405067
0000f0 82 11 be bd d4 e2 bc bd 86 a6 fa bc aa df e2 bc
       -0.09280683 -0.092229515 -0.030596983 -0.027694542

readout.weight f4 [1, 64]
000000 98 74 bd be 14 9d c0 be 99 2d 7d be df 2a dd 3e
       -0.37003016 -0.3761984 -0.24724425 0.4319677
000010 6a ce 0a 3f 75 74 e9 3e b2 bc 02 bf c4 6c b1 be
       0.5422121 0.45596662 -0.51069176 -0.34653294
000020 01 a4 cc 3e 13 ba e8 3e 39 2b d1 be bf c1 a5 3e
       0.39968875 0.45454463 -0.4085329 0.3237438
000030 d6 e4 6e bd 7f 86 a7 be 20 79 ef 3e 70 1d c3 be
       -0.058323704 -0.327198 0.467721 -0.38108397
000040 1c a3 c0 be 8b 71 7d 3e 87 c7 ba 3e 7a d0 78 be
       -0.37624443 0.24750344 0.36480352 -0.24298277
000050 4a 05 b2 be c4 fd ef 3e c6 a8 bd 3e d5 38 f9 3e
       -0.3476966 0.46873295 0.37042826 0.48676172
000060 a1 e3 d2 be 2a 97 d7 be 85 5e c5 be 1e a1 f2 3e
       -0.41189292 -0.42107517 -0.38548675 0.47388548
000070 9b 03 b3 be ee 3e db 3e 1e 0b 89 3e 55 3b 41 be
       -0.34963688 0.4282145 0.26766294 -0.1887029
000080 96 ae f1 be 17 d5 df 3e 96 16 b0 be ce 1e d3 be
       -0.4720351 0.43717262 -0.34392232 -0.4123444
000090 b7 1a dc 3d f1 78 11 bf 77 39 bc be d6 64 ad 3e
       0.10747283 -0.56825167 -0.36762592 0.33865994
0000a0 7d 0c 1d bf 13 f5 06 bf 40 f7 a0 bd be c6 d5 be
       -0.6134718 -0.52717704 -0.07859659 -0.4175319
0000b0 6e e4 23 3f 04 c8 09 3f 74 56 f0 3e 4d b5 0b 3f
       0.6402043 0.53820825 0.46940958 0.5457352
0000c0 c9 81 3a be 06 c7 d5 3e f7 44 00 3f 53 35 8b be
       -0.18213572 0.41753405 0.5010523 -0.2718912
0000d0 1a 1e bc be 37 4b e5 be e3 74 dd be cb 68 aa 3e
       -0.36741716 -0.44783947 -0.4325324 0.33283076
0000e0 95 af 19 be bc 59 a9 3e 9a aa 21 3f 3c 09 93 3e
       -0.15008385 0.33076274 0.6315094 0.28717983
0000f0 14 c7 d9 3d 10 91 36 3f c8 0e 1b be a6 96 0c 3f
       0.10633674 0.713151 -0.15142357 0.5491737

layers.0.weight f4 [128, 17]
000000 c3 9e 42 3d 3e 1f 77 3e 81 29 16 3f 48 9d e1 be
       0.04751469 0.24133012 0.5865708 -0.4406531
000010 4c fd 86 bd 75 fe b3 3e f3 32 a4 bc bd 72 4f bc
       -0.06591281 0.35155073 -0.020043826 -0.012661633
000020 61 1b 40 3e c9 01 c7 be 02 ad a9 3d 04 91 b9 39
       0.18760444 -0.3886855 0.08284952 0.00035393995
000030 dd fa 4a 3d 95 98 06 3b 93 f2 6f bd d7 8f 04 bb
       0.049555648 0.0020537723 -0.058580946 -0.0020227337
000040 20 e6 94 3a 02 9e cb be 1d 0d 0d bf 46 7c 5b 3c
       0.0011360087 -0.39768988 -0.55098134 0.013396328
000050 1f 72 23 3f f7 33 cb bd 5d 98 17 bf dc 57 1a bf
       0.6384601 -0.09922021 -0.5921686 -0.6029031
000060 45 8a cf bc d2 72 8b bd c9 6b d9 be 3a 72 b2 3e
       -0.025334487 -0.068090096 -0.42465046 0.34852773
000070 52 87 39 bd e2 59 59 3c 53 cd 43 bc 1e 9f 87 3c
       -0.045295067 0.013266059 -0.011950809 0.016555365
000080 b6 ce b8 3b 07 19 26 3d ca e6 02 3e 00 eb 0a bd
       0.0056398762 0.04055121 0.12783352 -0.03391552
000090 7a e7 1d 3f 41 f8 10 3f e1 95 b7 3d e2 03 76 3f
       0.6168133 0.56628805 0.08964134 0.96099675
0000a0 33 a4 a0 3e 2e ef 4e 3e ba 37 08 bf 14 af ac bd
       0.31375274 0.20208427 -0.5321003 -0.08431831
0000b0 43 9e 9b bd 61 c3 af 3c a7 3c 32 3d 1a d9 4a ba
       -0.075985454 0.021455469 0.043514874 -0.0007738039
0000c0 b0 61 c5 3d b7 97 9e 3c 1b e7 6b 3c 27 80 be 3e
       0.09637773 0.019359453 0.014398362 0.37207147
0000d0 1f 53 22 be 5b 50 9e 3e 1f 28 27 3f 6a b3 11 3e
       -0.1585202 0.3092068 0.65295595 0.14228597
0000e0 e5 b7 ba be 84 7f 20 3d ca 24 29 3e 0e e2 85 be
       -0.36468425 0.03918411 0.1651794 -0.2614903
0000f0 96 73 d7 be f9 c8 8f be cf fd 2b 3d 12 9d 27 3d
       -0.42080373 -0.28083017 0.041990098 0.04092128
000100 b4 11 e2 3c 0f 85 1e bd 2e 05 18 bd f3 38 2d bc
       0.027596332 -0.038701113 -0.037114315 -0.01057266
000110 57 89 b4 bd 0a 68 0c bf b5 fe 87 3c d6 09 cb bb
       -0.08815258 -0.5484625 0.016600946 -0.006196241
000120 5b 5d 50 be b9 7d dd bd 89 67 b5 be 73 d6 1a 3d
       -0.20348112 -0.10814995 -0.35430554 0.03780217
000130 71 48 f3 3e e2 53 ee bd 4d 23 fd bd 00 7b 0a be
       0.47516206 -0.11637093 -0.12360249 -0.13523483
000140 b2 25 ad bd f4 ec 97 bc 21 07 e2 3c 2d 4c e7 3c
       -0.084544554 -0.018545605 0.02759129 0.028234566
000150 0b af c6 ba 3a e1 9c 3e e5 11 c7 be d9 83 af 3e
       -0.0015158368 0.30640584 -0.3888084 0.3428028
000160 4b 13 6f be 88 d7 9e bd 47 2a 89 be 3f a4 d8 be
       -0.23347203 -0.07755953 -0.26790068 -0.4231281
000170 cd 92 13 3d be b1 c6 be 26 47 84 3e ac 0d a3 3d
       0.036028672 -0.38807482 0.25835532 0.07961592
000180 0f c8 10 be 9f a8 29 3e 89 c4 9c 3b 0d 4f 50 be
       -0.14138816 0.1656823 0.004784171 -0.20342655
000190 b6 7c 11 be 95 44 02 bd 0b 99 2b 3f 60 25 4c bd
       -0.1420773 -0.031803686 0.670304 -0.04984033
0001a0 13 b0 e6 3e d0 f4 89 3c 08 09 87 bd 41 f7 fc be
       0.4505621 0.016840369 -0.065935194 -0.4940739
0001b0 21 ee 50 3e e0 dd 24 bd 7a f4 00 3f 14 66 66 bd
       0.20403339 -0.04025066 0.5037304 -0.056249693
0001c0 de fb cc bc e4 72 14 3e bb 20 5b bd 87 ee fd bb
       -0.025022443 0.14496952 -0.05349801 -0.007749382
0001d0 3a d7 cf bb 17 85 25 bd 87 e7 0c 3d 12 ea e1 bc
       -0.0063427957 -0.040410127 0.03440049 -0.027577434
0001e0 cb 0a 81 be 56 1d 29 bf 40 d4 fc be 9f 29 3b be
       -0.25203547 -0.6606039 -0.49380684 -0.18277596
0001f0 42 a7 84 3e 24 71 5c 3d 91 51 2a 3e d3 fb 08 3f
       0.25908858 0.053818837 0.16632678 0.53509253
000200 93 d3 00 3f c8 dc 2f 3e 89 13 42 bc 18 82 86 bc
       0.50322837 0.17174065 -0.011845478 -0.016419455
000210 6c 22 da bc 2c 63 86 3d fb f1 5a 3d 4d b6 df 3b
       -0.026627742 0.06561884 0.053453427 0.006827152
000220 a9 a8 51 3e 14 e7 d5 3e 4e 8c 7a be 2b 84 2d 3e
       0.20474495 0.4177786 -0.24467584 0.1694495
000230 27 04 a2 bd 40 74 0a be 04 db 9b 3e 0c 2d 3d 3e
       -0.07910948 -0.13520908 0.30440533 0.18474215
000240 8f 92 d5 be 5d f4 26 3e ee 34 86 3e b8 b4 42 3c
       -0.41713378 0.16304155 0.26212257 0.011883907
000250 c6 b1 fe 3c 72 4c cc 3b e5 b2 aa bc b9 f4 d6 3b
       0.031090628 0.006234699 -0.020837257 0.006559935
000260 8a 74 24 bb c4 e8 dc 3e ca 67 77 be 17 46 e7 bf
       -0.0025093877 0.43146336 -0.24160686 -1.8068265
000270 1b 39 28 bf 2b 45 01 bd 1b b9 a7 3e b5 e7 76 be
       -0.65712136 -0.031560104 0.32758412 -0.24111827
000280 7c 0f 4b bd 45 7d 80 3e 13 5b 74 be e3 65 be bc
       -0.049575314 0.25095573 -0.23862867 -0.023241943
000290 55 48 26 be a3 a0 c8 bd b5 63 70 bc f8 06 0c bd
       -0.1623853 -0.09796264 -0.0146722095 -0.034186333
0002a0 ee f5 32 bd 07 22 06 bd e7 22 80 3d 83 c9 a8 bd
       -0.043691568 -0.032747295 0.06256657 -0.0824156
0002b0 0a 89 1f 3f 53 90 e7 bc 09 7b 3a 3c 84 b5 3a 3e
       0.6231848 -0.028267061 0.011381873 0.18233305
0002c0 0e c8 f3 be 4a f8 5a bd 85 dc fa 3e a3 b5 c9 be
       -0.47613567 -0.053459443 0.48996368 -0.3939639
0002d0 fe 54 01 3f 36 7a 15 3c af 15 07 bd 5c e6 35 3c
       0.5052031 0.009123376 -0.032979663 0.011102285
0002e0 84 01 0c bc 0e 35 bd 3c 77 6d e5 bc 19 2e a6 3e
       -0.008545283 0.023096588 -0.028006298 0.32457045
0002f0 27 9a af be e1 ef 6c bb 9f 86 cd be 00 bf e3 3d
       -0.34297296 -0.003615372 -0.4014177 0.11120415
000300 77 3c 8f 3f c0 88 17 3e cf ce 6f bc d9 ae ae be
       1.1190327 0.1479826 -0.014636709 -0.34117773
000310 1f 66 93 3d 45 f7 27 bd a4 89 e9 3c a7 53 59 3c
       0.071972124 -0.0410073 0.028508015 0.013264573
000320 b6 89 89 3c 85 df 48 3b 82 4a 89 ba da 9e 68 3c
       0.016789299 0.0030650806 -0.0010474476 0.014198029
000330 10 a8 8f 3e 2c c2 c6 be 83 43 2f 3f 5b 78 49 3f
       0.2805791 -0.38820016 0.6846239 0.7869927
000340 b0 42 f8 3d f4 06 05 bf 7a 86 80 3d bd 18 53 be
       0.12122095 -0.51963735 0.06275649 -0.20614906
000350 eb 90 af 3e ab 60 e6 3e 4a c8 dd 3e 54 4a e7 3c
       0.3429025 0.44995627 0.4331687 0.028233685
000360 6b a9 a7 3d 99 dd 12 3c e8 8f a4 3d fa 0b 6f 3d
       0.08186611 0.008963966 0.080352604 0.05836103
000370 ab a2 25 3b 01 1f 19 3d 63 4b 4d 3e e9 91 b4 3e
       0.002527396 0.037383083 0.20048289 0.3526757
000380 95 9c 45 be 0a 4e 97 3e 60 1b dd bc 02 80 2d 3f
       -0.19298013 0.29551727 -0.026990592 0.6777345
000390 51 6d 07 be 47 5c 80 3e 6b d6 9a 3c b1 9b 28 bd
       -0.13225295 0.25070402 0.01890107 -0.041164104
0003a0 8b 37 6b 3d 80 85 19 3d e0 5e 09 3d e1 6f 98 3d
       0.057426017 0.03748083 0.033537745 0.07443214
0003b0 9d de 85 bb 0c 8c fc bc 1d b6 38 3f 4e 79 56 bd
       -0.0040853755 -0.030828498 0.7215288 -0.05236178
0003c0 df ca 02 bf 78 10 3f bf 41 54 04 be 15 79 e8 be
       -0.51090807 -0.74634504 -0.12922765 -0.45404878
0003d0 7e 03 4e bc 84 1b 8b be 17 bc b9 be 1c cd 7f 3f
       -0.012574075 -0.2716943 -0.36276314 0.9992235
0003e0 4d 8b 0f be 55 a2 9e bd ab 1d 2a bd f8 6b 99 bc
       -0.14017983 -0.07745806 -0.0415322 -0.018728241
0003f0 c3 3a 83 3c 17 7e 3d bc a2 07 31 3d 38 4a 8b 3d
       0.01601923 -0.011565707 0.04322017 0.068012655

layers.0.bias f4 [128]
000000 ae 95 85 3e b0 64 ef 3e 63 1b 02 be c4 67 1f 3f
       0.2609076 0.46756506 -0.1270576 0.6226771
000010 d9 fd d9 3e 33 fb bf be 66 7b aa 3e ef ca 1a 3f
       0.42576483 -0.37496337 0.3329727 0.604659
000020 da 93 e4 be f5 d6 77 3d a5 6b b4 3d 64 2f ec 3e
       -0.44644052 0.060507733 0.08809594 0.46129906
000030 93 11 10 3f 75 1b d2 3e 8d b7 87 3e d1 ac 8b be
       0.56276816 0.41036573 0.26507226 -0.27280286
000040 ef a6 08 bf bb af bd 3c e5 6d cb 3e 70 5d 33 3e
       -0.5337972 0.023155084 0.3973228 0.17516112
000050 9b 98 df 3d ff f1 19 3f d6 73 de be 7c 49 d8 bd
       0.10917779 0.6013488 -0.4344775 -0.10560891
000060 0a 75 bf be 38 e0 dd 3e fe ed cc 3e a7 c5 5f 3f
       -0.3739398 0.43335128 0.40025324 0.8741097
000070 1b 4c 6b bd 50 06 6b 3f 95 95 40 3d 01 d8 46 be
       -0.057445627 0.9180651 0.047017653 -0.19418336
000080 3b 4c 54 bd 6d cc fc 3d cb e5 37 3d 0a 23 59 be
       -0.05183051 0.123436786 0.044896882 -0.21204773
000090 1e 45 f0 be 2b 58 11 3f e6 87 13 bf 4f e2 a0 3c
       -0.46927732 0.5677516 -0.5762924 0.019639162
0000a0 1b c4 06 3c 0d 79 ed 3e 12 a9 1a bc 9f f1 41 be
       0.008225466 0.46381417 -0.009439724 -0.18939827
0000b0 88 45 c8 bd 2f 08 ae bc 54 30 f6 3d ee 41 da 3e
       -0.09778887 -0.021244137 0.120209366 0.42628425
0000c0 60 43 46 bc 38 7f bd 3e c2 e2 bd 3d de f5 57 3e
       -0.012101024 0.37011123 0.09271766 0.21089885
0000d0 36 20 06 3f 96 1f cc be 29 35 7b 3e ff f1 e6 be
       0.523929 -0.39867848 0.24531998 -0.45106503
0000e0 73 76 bc bd da 21 f0 3c b1 11 a3 3c 05 98 3d bd
       -0.0920228 0.029313017 0.019905897 -0.046287555
0000f0 44 2d c7 3e 94 45 1a 3f e7 bb eb be d1 f2 69 3f
       0.38901722 0.6026242 -0.46041796 0.91386133
000100 2a 67 95 3d a2 54 b2 be 6f c8 9b 3e 9f 66 50 be
       0.072950676 -0.34830195 0.30426356 -0.20351647
000110 d1 1d f2 be 4f 1d 6a be e3 4b fc 3e 2b ac 45 3f
       -0.47288373 -0.22862743 0.49276647 0.7721583
000120 fd 4b 11 bd fc 38 66 be 9f 2f c3 be 92 0b e9 3d
       -0.03547286 -0.22482675 -0.3812227 0.1137916
000130 ff 2b 9b be 34 88 9d bd 04 93 ea 3d fe c4 08 bf
       -0.30307004 -0.07691994 0.11453822 -0.53425586
000140 6b 22 6f be e5 47 1b be 71 f2 30 3d d5 1d c1 bd
       -0.23352973 -0.15164144 0.04319996 -0.09429518
000150 c2 92 13 3f 51 1f 18 3c 18 3d 0c 3f 9e 5d 2c be
       0.5764581 0.00928481 0.5478072 -0.16832587
000160 88 54 5f be eb 79 85 3e af 8c b8 bd e0 29 b8 be
       -0.2180959 0.2606958 -0.09011208 -0.35969448
000170 8e 2d f1 3c b9 6e 58 3e d3 d5 27 3f 20 82 a2 be
       0.029440667 0.21135987 0.65560645 -0.31739902
000180 43 e8 98 3e c2 ec bb be 95 09 37 be 37 ef 12 3e
       0.29864702 -0.3670407 -0.17874749 0.14349066
000190 5a 73 04 3f 08 ab d5 be fe a4 d8 3e 9a 32 58 3e
       0.5173851 -0.4173205 0.4231338 0.21113053
0001a0 d6 5a 55 3f ee c2 55 be 45 49 8c be 0f 36 c8 be
       0.8334173 -0.20875141 -0.2739965 -0.39103743
0001b0 5d f6 e6 3e 3e 09 4b 3f 68 2d 96 3e 6d 6f 56 3e
       0.45109835 0.7931098 0.29331517 0.20940943
0001c0 c2 6b 20 be a0 1b f3 3e ae 0c 17 be 01 4f a0 3e
       -0.15666106 0.47482014 -0.1475093 0.31310275
0001d0 5b 4e 00 bf 43 ae 9b 3e 1b fe 64 3e ca cb a9 be
       -0.5011956 0.3040639 0.22362559 -0.3316329
0001e0 7c 01 d4 3e 6b 46 27 be a7 9a 86 bd ee cf 95 3e
       0.41407382 -0.16335456 -0.06572466 0.292602
0001f0 46 8e 89 3e 8b f8 00 bf 8b d0 5a bc ab 5f 69 3e
       0.2686636 -0.50379246 -0.013355385 0.227904

layers.1.weight f4 [128, 128]
000000 bc 77 00 3e 8a a8 a5 bd a2 15 02 3e 17 85 3c 3e
       0.12545675 -0.08088787 0.12703565 0.18410145
000010 cd 47 cc bc 74 b0 7a bd 01 52 48 3d 9a 6c cb 3c
       -0.024936581 -0.061203435 0.04890633 0.024832059
000020 91 6f 6b 3d 0c 37 60 3d bc 27 b0 3d d1 2b 27 3e
       0.057479445 0.054739997 0.08601329 0.16325308
000030 de 1d 42 3d 44 f6 f7 3b 8a f8 9b bd f9 73 12 bd
       0.047391765 0.007567199 -0.076157644 -0.03575513
000040 7d 22 00 bd b3 09 23 3e 89 07 ae bd 7a 81 38 be
       -0.03128289 0.15921669 -0.08497531 -0.18018141
000050 0d 6a d8 bd 4f 84 3d 3d 0b b1 97 3d 81 cf 4b bd
       -0.105671026 0.046268757 0.07406815 -0.049758438
000060 fa 1f 9d bd 7b 1e b5 bc 56 56 24 be eb 98 48 be
       -0.07672115 -0.02210926 -0.1604856 -0.19589584
000070 ab 2a 55 3d c1 99 91 3e fa 51 67 3d 77 c4 02 bb
       0.052042644 0.28437617 0.056474663 -0.0019953528
000080 3f 20 2a 3d 34 c6 4d be ad dc 65 3b cf 4d 6e be
       0.04153466 -0.2009514 0.003507416 -0.23271869
000090 c1 a4 93 bd a6 84 b8 3c 44 2a 41 3d b0 a0 aa ba
       -0.07209159 0.02252419 0.04715945 -0.0013017859
0000a0 fa 1a 61 bd 88 00 49 3d 05 38 8e bd bb d8 a5 3c
       -0.054957367 0.049072772 -0.06944279 0.020244947
0000b0 f9 6e 9d 3d 9e 9c 80 bd 2b 7a 78 3e 9b 54 4c bc
       0.07687182 -0.06279872 0.24265353 -0.012471343
0000c0 3c 5e ba bd 28 ec 19 3d ed a2 d1 bd a5 63 be 3b
       -0.09100005 0.03757873 -0.10236154 0.0058102184
0000d0 95 53 e6 bd 19 50 d9 3b b0 2c 9b bc 80 c5 34 3d
       -0.11246411 0.006631863 -0.018942207 0.044133663
0000e0 9c e9 75 be 17 15 45 3c 2f da 75 bd 3b 6c 2f 3d
       -0.24014896 0.012028954 -0.06002253 0.042827826
0000f0 8c 27 aa 3d 13 b4 b7 3d 44 18 22 bd 1a 33 83 3e
       0.08308324 0.08969893 -0.039573923 0.25624925
000100 cf 73 21 be 4a d6 bf 3d 57 54 89 bd 42 eb b5 3b
       -0.15766834 0.09367044 -0.0670554 0.0055517266
000110 04 90 1d 3d 12 72 62 be b9 e1 d7 bd da 8f a2 3c
       0.038467422 -0.22113827 -0.105411 0.019843984
000120 40 a2 c9 3d b2 4b 5d bd f4 cd e9 3d c3 21 ff 3b
       0.098454 -0.054027267 0.114162356 0.007786007
000130 6d 18 40 3d 1b 54 3b 3d 16 d7 e0 3b 7d 55 fc bc
       0.046898294 0.045734506 0.0068615777 -0.030802483
000140 6e 70 bf be f4 20 f9 ba 13 70 4f bd dc 04 59 3e
       -0.37390465 -0.0019007013 -0.05064399 0.2119326
000150 73 ef 35 bd b0 3a 0b be 90 ac d8 bd e0 96 61 bd
       -0.04441781 -0.13596606 -0.10579789 -0.055075526
000160 5f 3c 81 bd 33 7e 81 3d b7 15 6c be cf f2 81 bd
       -0.06310343 0.06322899 -0.23055159 -0.0634514
000170 86 fd 08 3d 8a 36 50 3e 27 e5 07 3e 56 f2 13 3c
       0.033444904 0.20333305 0.13271008 0.009029945
000180 02 b9 a6 3d 49 c9 89 3d 03 7b 0c 3e 09 f1 c4 bb
       0.08140756 0.06727845 0.137188 -0.006010179
000190 37 35 14 bd ec 32 6c bd de 4c f0 3d 95 73 fe 3c
       -0.036183562 -0.05766575 0.11733411 0.031060973
0001a0 7b a2 3c bc 65 23 74 3d cb 04 ee 3d fa b5 9a 3d
       -0.011513348 0.059604067 0.11622008 0.075542405
0001b0 43 34 03 3e 4d 16 5b ba 81 06 5e be fe 24 06 3c
       0.12812905 -0.000835751 -0.21682169 0.008187531
0001c0 39 d8 ba 3d 48 2d fa bd 14 5d e8 bd b0 35 0d 3e
       0.091232724 -0.12215668 -0.11345878 0.13790011
0001d0 b0 26 59 bd ae d8 dc 3d 07 48 d1 bb f6 a6 a8 3e
       -0.05301541 0.10783516 -0.00638676 0.3293988
0001e0 71 a7 39 be 49 56 1f 3e 12 20 3d 3d d4 96 81 bd
       -0.1813028 0.15560259 0.046173163 -0.06327596
0001f0 c2 55 13 b9 1c 3a 97 bc 43 69 aa 38 42 85 9a 3c
       -0.0001405096 -0.018460326 8.125838e-05 0.01886237
000200 aa fc 39 3e f4 a4 f1 bd c7 6c 1c ba 20 f3 64 3d
       0.1816279 -0.117990404 -0.0005967137 0.055895925
000210 2d 81 49 3d 5d 42 1b 3c 7f 34 d4 3d 1d 57 0b bc
       0.049195457 0.009476271 0.10361575 -0.008504656
000220 e1 1c 6c be 3e 7d 1d 3d 7e 81 f9 bc 36 df 47 3c
       -0.23057891 0.03844952 -0.030457254 0.012199214
000230 95 d0 bb 3d e4 37 1a be a8 ae d1 bc 0f 4e 87 3d
       0.09170643 -0.15060383 -0.025595978 0.06606685
000240 0f f2 bf bd 90 7f 69 bd a0 3b 51 3c 22 c8 d8 bd
       -0.09372341 -0.05700642 0.012770563 -0.10585047
000250 fc 14 04 3c 35 76 96 3d 6b ad 77 3d ab 39 72 3c
       0.008061644 0.07346765 0.06046812 0.014784257
000260 b1 ed e9 3c e1 d1 d5 3d cf ca 00 3d 52 be f6 3d
       0.028555723 0.10440422 0.031443413 0.120480195
000270 fd 84 26 be 13 ff 1b 3f 05 7a 80 bd 54 fd 3d bd
       -0.16261669 0.6093609 -0.062732734 -0.04638417
000280 f6 d1 0e be 31 ad 90 3e 47 82 2a 3c a6 c6 40 be
       -0.13947281 0.28257135 0.010407037 -0.18825778
000290 12 db 2d be 27 c2 81 3d bb c1 e0 bc c6 27 57 be
       -0.169781 0.0633586 -0.027436128 -0.21011266
0002a0 cb e2 95 bb 32 0e 86 3e f5 82 64 3c 02 6b ba bd
       -0.004574155 0.26182705 0.013947238 -0.09102441
0002b0 f8 f6 17 be 8e 43 7f bd 5f 4f 52 bc 09 9c 8c 3d
       -0.14840305 -0.062320285 -0.012836306 0.06865699
0002c0 81 31 06 be f8 64 2f 3e 82 22 cb bd 2c 4f b0 3d
       -0.13104822 0.1712836 -0.09918691 0.08608851
0002d0 5f 76 52 bd 33 88 3f 3d bf 77 60 bd 90 68 a0 3e
       -0.05138242 0.04676075 -0.0548017 0.31329775
0002e0 71 52 c2 3b e8 9a 2b be fa 6f f4 3c 17 b5 76 3e
       0.005930238 -0.16758311 0.02983855 0.24092518
0002f0 bf 6b 85 3d 8c a1 2f bc b6 40 86 3d 02 a5 fd 3d
       0.065146916 -0.010719668 0.065553114 0.12384988
000300 45 d6 0f 3e 8e 1b 89 bc 62 f0 92 3d ce 51 89 be
       0.14046581 -0.016736772 0.07174756 -0.26820225
000310 75 4f b3 bd e5 0e 1b bd b6 10 33 3e 61 c9 f1 3d
       -0.087553896 -0.037856 0.17486843 0.11805988
000320 40 fd 3b 3e dd 66 9b bd b4 5e 9a bd be 38 c5 bd
       0.18358326 -0.07587979 -0.075375944 -0.09629963
000330 58 18 54 be 8b a4 b8 3d 67 98 90 3d a4 02 45 3e
       -0.20712411 0.09015759 0.070603184 0.19239289
000340 0d 0d 5e 3c d5 e3 1d bd b2 69 05 bd 21 69 89 bd
       0.013552916 -0.038547356 -0.032571502 -0.06709505
000350 c4 d3 9d 3e c4 40 e9 3d fc be 81 bd 08 e7 e9 bd
       0.30825627 0.11389306 -0.063352555 -0.11421019
000360 d9 ad c3 bd cd ea 08 bc a9 c1 a1 3d b5 e7 5a 3c
       -0.09554643 -0.008356762 0.07898266 0.013360907
000370 21 db 81 3e c3 0c 18 3e 5c 20 6f 3d 28 9e ed 3d
       0.25362495 0.14848618 0.05838047 0.116024315
000380 b5 1a 8d 3d 41 76 32 be 29 fc 14 be 9d fb d7 3d
       0.068898596 -0.17427923 -0.14549316 0.10546038
000390 ff a7 5c 3d 90 29 8b bd 7f ad 3c 3d 15 2b f5 3c
       0.05387115 -0.06795037 0.046063896 0.02992777
0003a0 27 4f 54 3d 1e df b6 bc 9d 44 6d bc 63 87 8e bc
       0.051833298 -0.022323187 -0.014481691 -0.017398542
0003b0 2a 57 17 3e f6 b1 93 be e1 14 7d 3d 25 96 90 3d
       0.14779344 -0.2884671 0.06178749 0.07059888
0003c0 96 9f 2a bd 94 13 5d 3d ae 81 78 bd 59 d9 17 be
       -0.0416561 0.05397375 -0.060670547 -0.14829005
0003d0 3d 6b 8b be 60 32 01 be a1 e4 1f bc 4a 5b 4a 39
       -0.27230254 -0.12616873 -0.009759099 0.00019298229
0003e0 72 ae 02 3e 86 bd 42 3e f5 ac 10 3e 80 5e 96 3d
       0.12761858 0.1901761 0.14128478 0.07342243
0003f0 45 1f 2a be 58 6b e0 b9 ad bc 36 3d 0b 15 17 3c
       -0.16613491 -0.00042804587 0.04461353 0.009221326
