Gym-DDPG-solution/results/DDPG_HalfCheetah-v4_1000-eps0.1-t32-l0.0001-s1.pth (torch, 193979 bytes, 13 tensors)

layers.0.weight f4 [128, 23]
00000000: a4ff e23d dbe1 0cbd dcd0 fcbb 1410 903d
00000010: 2125 26be 2901 7c3e 1582 123d 7a92 133e
00000020: 47a1 b1be e2e8 ca3d 5bb9 993d 86af b43c
00000030: 1fc2 2d3d aa81 8ebd b7a6 413d fc77 08bd
00000040: adf0 c5bc 2ce8 813d e576 5d3e 5f6e 4e3e
00000050: 384a 0ebe e51c 07be fb77 c3bc 86da 4fbc
00000060: b1dc 49bd bcf0 4f3e 80ee 943e a306 033e
00000070: e34d aabd 0cf5 a93c 077c db3c 582e c43e
00000080: c781 163e bd28 82be 2705 bebd 326a adbd
00000090: 9af9 163e a276 62bd afff 493d 4e08 afbd
000000a0: c0d9 d23e 9c1b 7f3c 676f 403e bef8 833d
000000b0: e9b6 86be 05ff 273e f3ab ed3c 7570 58be
000000c0: f64c b0be ea12 233e 8e88 7ebe 5175 08bf
000000d0: e25d 9cbe c19f ebbd 06b8 993e 4565 c63e
000000e0: 0197 e7bc 1a7c e9bc 7d8f 4f3d 18ee f23b
000000f0: ae3c 9bbd 0d55 cc3c 04ba 4b3d c2f9 ce3d
00000100: 50c3 df3a eba0 4fbe caac 0ebd 4544 3bbe
00000110: 65b5 37bd b909 edbd 8528 423d 1dad 10be
00000120: f6f0 0b3e 59d5 e03d d16e 133d 5352 113d
00000130: e98b c53c 46fa 1bbd a9a4 b1be 0e09 453d
00000140: 9d51 91be b2ba dcbd 30b4 bcbc 34ae 753d
00000150: af9b a13d c403 06bc 93d0 66be 6db6 f73d
00000160: d827 933c 2c62 a73d 8339 c83d 4c1b 17be
00000170: a34e 1b3e f8bf fd3d c6ba 1bbe 5a5d bdbd
00000180: a1e0 d93d 152a e33d b95d e9bd 1430 afbd
00000190: 5f4a 903e b0fa 2abc 0686 1e3e c2af d33d
000001a0: a882 17be 7a12 b5bd a0f7 f93d b69f ec3c
000001b0: 157d a93d 71b8 663d b30c 1c3d c472 193e
000001c0: f730 5d3e f179 b3bd 7260 4cbd 2994 fd3d
000001d0: f4bc c53e ff04 fbbc 484b 74be 60dd d9bd
000001e0: 5f71 8db9 3950 b13d 28de b23e 84b1 903c
000001f0: aee0 dd3c 1788 efbd d2c9 19be 005d e8bd
00000200: 7b4f 163e 5b5b 183e 3f7e a4bd 5ec3 ac3d
00000210: e964 2c3e 198c f03d 29ed 0c3e 21ce 6b3e
00000220: dce6 0d3e bd52 d33d 9967 ddbc 3e7e 1ebe
00000230: 8787 29be 1beb 9f3d 6936 55be 31e5 6a3d
00000240: ddaf 563d 3017 0abe 0801 363e d4f3 353e
00000250: 1375 b63c f31d 423e 1ab6 55bd abf1 8d3e
00000260: 1d96 80bd b68e 56bc 942d 9bbd e042 acbd
00000270: 1b6f 09be f26f 73be 486c dd3d 6ec9 d6ba
00000280: f202 b5bd 4201 4d3e 6d4a 3e3e 9310 a23e
00000290: 08ec d2bd d0cd 093e 6650 1a3c f046 debd
000002a0: c67f 08be 1235 aebe d939 29be dfd8 873e
000002b0: f685 d2bc 1e40 ac3c e988 503e 72da 033e
000002c0: d89c 9f3d a789 f03c 5d35 9abd e877 963e
000002d0: b2ea 8fba 6632 d23c a538 80be a1d8 86bd
000002e0: 21ef 99be 126c 893e af18 94be 143e 77bc
000002f0: 9b2c 8abd fc7d 71be 91c7 5a3d 8b67 23be
00000300: 0dfe 00be 603b 96bd 198f c83d 87bd d8bd
00000310: 6462 e83d a727 3e3d 9582 4a3e ad1e 19be
00000320: a21f 823c 491a 7cbe aff0 3e3e fc19 b2bd
00000330: 1349 6c3a fd47 073a 3843 b6bc c98d 26be
00000340: d7e6 463e 802e c93d 3101 88be 475f f93d
00000350: 22be ffbd 47d8 263e 83d3 3e3e e5b4 d23e
00000360: c4d1 a83e 4e39 06bd daaf 09be 8397 233e
00000370: 5144 10be f630 a83d d396 b6bd 384f 27be
00000380: f37e 543e e628 21be 4ea4 0a3e bee1 a23d
00000390: fa28 863e 0545 773e 2b4a 8c3d 9b99 debe
000003a0: cff1 d73d 56e4 0d3d de94 ae3b 36c2 283e
000003b0: 58d1 ebbd d8d8 db3d e701 503e 982c 5ebe
000003c0: d200 f4bd 8abb 42bd f6cb 0a3d abb8 163c
000003d0: 98aa 15bd c79e f53b a3c4 2fbd edd9 d5bd
000003e0: f86f 5abd 54f0 f43d 082e 283e 88ce e6bd
000003f0: 6e40 7e3d ef7d dc3e 4be5 86bd 93a6 743d
0.11083916 -0.03439508 -0.0077153277 0.07034317 -0.16225101 0.24609818 0.035768587 0.14411345
-0.34693357 0.099077 0.07506057 0.022056352 0.042421456 -0.06958325 0.047278132 -0.03331755
-0.024162615 0.063431114 0.21627386 0.2015929 -0.138955 -0.13194616 -0.023860922 -0.012686377
-0.049282733 0.20306677 0.2908821 0.127955 -0.08315637 0.02074673 0.02679254 0.38316607
0.14697944 -0.25421706 -0.092783265 -0.08467521 0.14743653 -0.05528892 0.049316105 -0.08546506
0.41181755 0.015570547 0.18792497 0.06443928 -0.26311424 0.16405876 0.029012656 -0.21136649
-0.34433717 0.15925184 -0.24856779 -0.5330401 -0.30540377 -0.1150508 0.3002321 0.38749138
-0.028270246 -0.028501559 0.05067395 0.007413637 -0.07579933 0.0249429 0.049737945 0.10106231
0.0017071757 -0.20276229 -0.034832753 -0.18287762 -0.044850726 -0.1157412 0.047401924 -0.14128537
0.13666138 0.10978193 0.035994355 0.0354789 0.024114566 -0.038080476 -0.34695938 0.04810434
-0.28382578 -0.10777797 -0.023035139 0.059980586 0.078910224 -0.008179609 -0.22540502 0.12095342
0.017963335 0.08173022 0.097765945 -0.14756507 0.15166716 0.12390131 -0.15207967 -0.09246321
0.10638548 0.11092011 -0.11394829 -0.08554092 0.2818174 -0.010435745 0.15480813 0.103362575
-0.14795935 -0.08841415 0.12205434 0.02888475 0.08275811 0.05632824 0.03809805 0.14985186
0.2160071 -0.08763493 -0.049896665 0.12381775 0.38620722 -0.03064203 -0.23856843 -0.10637927
-0.00026978084 0.086578794 0.34935117 0.017662771 0.027084675 -0.11695879 -0.15018395 -0.11345863
0.14678757 0.148786 -0.08031892 0.08435701 0.16835369 0.117454715 0.13762344 0.2302785
0.13857597 0.103185154 -0.027026938 -0.15477845 -0.16555606 0.07808515 -0.20821537 0.05734748
0.05241381 -0.13485408 0.17773831 0.17768794 0.022272622 0.18956737 -0.05217562 0.2772344
-0.06278632 -0.013095548 -0.07577053 -0.08411193 -0.1342129 -0.23773172 0.10811669 -0.0016386935
-0.088384524 0.20020011 0.18583079 0.3165327 -0.10298926 0.13457417 0.009418583 -0.10853374
-0.13329992 -0.34024864 -0.16525973 0.26532647 -0.025698643 0.021026667 0.20364727 0.12876299
0.077935874 0.029362513 -0.075297095 0.29388356 -0.0010979979 0.025658797 -0.25043216 -0.065842874
-0.30065253 0.26840264 -0.28925082 -0.015090484 -0.06746789 -0.23583215 0.053412978 -0.15957467
-0.12596913 -0.07335544 0.09792919 -0.105830245 0.113468915 0.046424534 0.19776376 -0.14953108
0.015884224 -0.24619402 0.18646501 -0.086963624 0.00090135745 0.00051605684 -0.02224885 -0.16265024
0.19423996 0.09823322 -0.2656341 0.12176376 -0.12487437 0.16293441 0.18635373 0.41153637
0.32972538 -0.032769494 -0.13445988 0.15975766 -0.1408856 0.082124636 -0.08915486 -0.16338813
0.20751552 -0.15738258 0.1353924 0.07953213 0.26203138 0.24147423 0.06850084 -0.43476567
0.10544168 0.034641586 0.005327805 0.16480336 -0.115145385 0.10734719 0.20313226 -0.21696699
-0.11914219 -0.047542132 0.03388592 0.009199302 -0.036539644 0.0074957344 -0.042912137 -0.10441957
-0.053329438 0.119599015 0.1642381 -0.112698615 0.062073164 0.4306483 -0.06586703 0.05972917

layers.0.bias f4 [128]
00000000: 27be a8bd 4dcd 30be 78b3 84be 1f72 6d3d
00000010: a4de 45be c799 843d 4faa 45be a59e 84be
00000020: 55bb 843e c40b fb3d fb55 4abe b23e d8be
00000030: 32ce 1fbe 74a8 74be e186 aebd 9d45 363d
00000040: a015 5e3d 3121 92bd 5e89 1cbe e0a3 13be
00000050: e914 743e 0ed0 f53c 56b4 ebbd 2659 3fbe
00000060: 9a35 92bc b47b d33b 7d7b 643e 3d95 23bc
00000070: 3273 743e 85a4 b73c 62e6 7c3e a536 1cbe
00000080: bdfc 4e3e 470f b0bd fb37 5abe 05ec 713d
00000090: f8af 5bbe 36ca 053d 77e0 203d 6a4e a4be
000000a0: 3cd4 a83d 3f8e 4abe 26ce f13c e8f1 26be
000000b0: 9d8d 903c dce1 1bbe cee8 47be 1c4f 90be
000000c0: 2409 143e 7e5d 373e ba74 49be 8522 56be
000000d0: f807 a93e a584 9a3e 8160 413d 0ae3 10be
000000e0: f03d 343d b96d 53be d1c7 ec3c 9789 a33e
000000f0: 3ab2 adbd 9753 5c3e 4376 9bbe 77b9 883d
00000100: ab77 42be 4264 8e3e b006 eebd 4e31 99bc
00000110: 0b36 8fbe 7ff5 3abe aca2 dd3d 441e d2bc
00000120: 1651 833e cf91 a4be a79a 9c3d da8f edbd
00000130: 9ea1 85be 53c6 64be 5189 a7bc 6378 783e
00000140: eff1 2ebe e974 8cbd df8a dd3d ec89 dfbd
00000150: 0f70 86be ef2e 41be a92f 05be ba77 933e
00000160: 9a17 9e3d d88f 80be 60ca 1b3d 1855 52be
00000170: a70f a33c 58b6 3bbe f377 80bc e7e5 72bd
00000180: 4d75 8fbe 7e45 843e 73f5 89bd 7aeb 473e
00000190: 4dae cfbc 5127 48ba d270 40be f421 c63e
000001a0: a624 913e f2a8 90bd abd7 c73b 1139 f93d
000001b0: 00c1 26be ca5b 8ebe 3321 823e 74c5 973e
000001c0: caf3 af3e e91e 1a3e af75 6c3e 7a96 c2be
000001d0: e685 3d3e d7f2 9d3e cde7 0cbd 187a 233e
000001e0: eb4e 653d 9406 433c b34d 923c e3bf b33c
000001f0: 1f94 6cbb 08dd 24be fb12 60bd b15a 5bbe
-0.08239394 -0.17265816 -0.25918174 0.057970162 -0.19323212 0.06474643 -0.19303249 -0.25902286
0.25924173 0.122581035 -0.19759361 -0.42235333 -0.15606001 -0.23892385 -0.0852182 0.044499982
0.054219842 -0.07135237 -0.15286776 -0.14417982 0.23836102 0.030006435 -0.11509006 -0.18686351
-0.017847825 0.0064539555 0.22312732 -0.009984312 0.23872069 0.022417316 0.24697259 -0.1525522
0.202136 -0.08596664 -0.21310417 0.059062976 -0.21453846 0.032663547 0.039276566 -0.32091075
0.082436055 -0.19780825 0.029517245 -0.16303217 0.017645651 -0.15222877 -0.19522402 -0.28185356
0.14456612 0.17906758 -0.19673434 -0.20911606 0.33013892 0.30179325 0.047211174 -0.14149109
0.04400438 -0.20647325 0.028903874 0.3194091 -0.0848126 0.21516262 -0.30363664 0.066759996
-0.18990962 0.27810866 -0.11622369 -0.018700268 -0.2797092 -0.18257712 0.10822043 -0.025649197
0.256478 -0.32142493 0.07646685 -0.11599703 -0.26099867 -0.2234128 -0.02045122 0.24264674
-0.17084478 -0.06858236 0.10817503 -0.109149784 -0.2625737 -0.1886556 -0.13006462 0.28802282
0.077193454 -0.25109744 0.038034797 -0.20540273 0.019904925 -0.18331277 -0.015682196 -0.059301283
-0.2801918 0.25834268 -0.06736269 0.19523421 -0.025351668 -0.0007635253 -0.18793038 0.3869778
0.28348273 -0.07063474 0.0060987077 0.12169088 -0.16284561 -0.27804404 0.25415954 0.29642832
0.34365684 0.15050854 0.23091768 -0.3800543 0.1850811 0.30849335 -0.03440075 0.15964544
0.055983465 0.011903424 0.017859315 0.021942085 -0.003609903 -0.16099942 -0.0547056 -0.21421315

layers.1.weight f4 [128, 128]
00000000: ec65 a83d b3b7 f8bd 007f 68bd d6da d33c
00000010: 4468 c7bb 6299 463d 2dd2 7d3d 9687 be3b
00000020: 6597 493d 5005 813d cd29 0cbe a950 78bd
00000030: 0195 2d3d 01d7 85bd 4b5a a63d 344a 6f3d
00000040: e7ad 123d d1b3 7bbd b97b 9dbd 9bf0 4f3c
00000050: 5367 98bd 531b 143b 4020 bd3c 8548 4d3d
00000060: e00d 873d 4986 e6bd 5dc7 31be 3c6d a13c
00000070: b171 23bd aa0c 68bd 0da5 a73a d522 563d
00000080: 2042 c53b 8eb6 683c 56aa ee3d abcd d7bc
00000090: f97e e63d bbf3 6fbb 89ce 1bbd 9629 a1bc
000000a0: e834 af3d 202a 833d 3ff7 f83c 4464 cf3c
000000b0: 6024 0bbd bd84 8e3b 61b9 c73d 0f9a 4f3a
000000c0: 5783 63bd d847 6dbb b6d1 f4bd 88ac bbbc
000000d0: 9e22 05bc ed8c 64bd 85b2 b9bd 411b 94bd
000000e0: 0fe9 b1bb e8a7 563d 93cc 143d a951 8cbd
000000f0: 2b7a 6fbc 3b57 8c3d 763d ff3d f1d5 8bbb
00000100: 900f d33d 1a0f 5ebc 01b7 0e3d fc6d 8bbd
00000110: 95ce 8d3c 9f98 0cbd de67 2b3c 0279 df3d
00000120: ff98 0b3c 1c00 683a aaac 61bd 8ad6 44bd
00000130: 5717 bdbc 3050 02be ecaf 103c 2952 613d
00000140: 9657 e23c ca0b de3c 410c 4b3c 342a 003e
00000150: 8c29 bd3d df35 ea3d 3487 c33c 09f6 b6bd
00000160: 0815 c3bd b237 e4bc f87d 8d3d 9093 c73d
00000170: 0b0f 7ebd a24f 57bd fc76 e83d 9718 833c
00000180: de55 06be c66f a2bc 1247 6f3d b210 0d3d
00000190: 9d1c 78bd 86a0 603d 32e2 9cbd b034 c93c
000001a0: bd46 44bd 92f4 acb9 7223 0e3d 6e89 953d
000001b0: 0d36 aabd a304 ebbc 8dc2 2abd e33e c0bd
000001c0: 56cd ab3d a8c7 0abd 77c5 18bd 7c90 053d
000001d0: cae8 2bbd a6c5 3b3c 7501 64bd a76e f23d
000001e0: 56ef b03d 6eee 4bbc f551 43bd ca86 043d
000001f0: a41d a5bd a523 023e 28dd 823d 2d02 bd3d
00000200: 7773 a7bd 6db7 803d 0bca 573d f80f 3abd
00000210: e567 87bd a5a6 93bc 67da 8e3d 15af 763d
00000220: 4430 c9bd 2223 d13d 3784 ebbd 8943 f83c
00000230: 9397 80bd bc76 c5bc 4d1a f7bc 9e57 643c
00000240: eb1b 82bd ba2a 2bbd 466e c73d 7bf5 d33b
00000250: c131 64bc 626f 2e3d e1a7 f2bd 23df 77bc
00000260: 864d a63d 6060 47bb b14b 67bc 522e 1f3d
00000270: dda4 14bc f800 0ebd 4811 fbbc e8e0 e63d
00000280: f674 e23d c301 13bd 94bf 413d 2c4d a8bd
00000290: 70d4 be3c 76b0 953d cb73 7f3c dd52 9fbd
000002a0: ddbe 0c3c e57d 573d c814 bcbb a328 bc3d
000002b0: 9b2a dfbd ba09 b63d eadf cdbd c3a7 4f3c
000002c0: f4d2 38bd 4225 a7bb 8c3d e6bc c163 043c
000002d0: 038b dfbc 2983 b0bd 8c30 28bd eda2 5d3d
000002e0: dfdb fe3b 7aa0 cebb 29fe c6bd 087a 983d
000002f0: 52db bd3b cfec 4bbc 5652 9dbb aedb a639
00000300: 65af dc3c a7f5 a7bd 90c3 81bc ed45 2a3c
00000310: c26e 753d 0658 e8bc bcd0 5cbd fa45 b6bd
00000320: 6c6c 05bd 42f5 53be dda4 603d bcbf 4c3d
00000330: b2c4 033c a6ce 8dbd 91e7 4cbd 70c2 703d
00000340: 2437 cc3c a4d2 333d b6a2 d03c 04d6 d5bc
00000350: 84a8 673d 88b9 b03d f27b 803d 7c07 873c
00000360: 248a 003d b407 243d 60cc e4bd d896 fbbc
00000370: 4eda 74bd efd0 e63b 88e4 f1bd 9581 10bd
00000380: bda0 05bb 3d0d 81bb acfd a7bd 9e8d 3d3d
00000390: 3e1b 59bd 8979 c03c a7dc 47bc 4d69 b53d
000003a0: 9c1a 3c3d 8f2e e7bc c234 c4bc b9ad 90bc
000003b0: 246e cd3b 9b49 593c ad16 39bd 8a40 f0bb
000003c0: e506 503d f1ee 36bd b0ff b33c 8e49 f83c
000003d0: a7ae 37bd ef67 b53d 9a3b b6bd c352 573c
000003e0: e956 233c d4d0 3fbc db66 a0bc 1a5f 7cbd
000003f0: 7b2d 5abd 4c75 42bd e05f 00bd 2a28 903c
0.08222565 -0.12144413 -0.05676174 0.025861185 -0.0060854275 0.04848612 0.061968017 0.005814503
0.049216647 0.062998414 -0.1368782 -0.0606238 0.04237843 -0.06535149 0.08122691 0.058420375
0.035810377 -0.061450783 -0.07689614 0.012691642 -0.074415825 0.0022599294 0.023086667 0.05011799
0.06594443 -0.112560816 -0.17361207 0.019705407 -0.039903346 -0.056652702 0.0012790278 0.052279312
0.0060198456 0.014203681 0.11653583 -0.026343187 0.11254687 -0.003661378 -0.038038764 -0.01967315
0.08555013 0.06404519 0.030391334 0.025316365 -0.033970237 0.0043493197 0.09752155 0.000791938
-0.055545177 -0.0036206152 -0.11954062 -0.022909418 -0.008125929 -0.05579846 -0.09067253 -0.07231761
-0.005429394 0.05240622 0.03632791 -0.06851513 -0.014616529 0.068525754 0.124628946 -0.004267447
0.10305703 -0.013553405 0.034842495 -0.06808087 0.01731042 -0.03432524 0.010461776 0.10911752
0.008520364 0.0008850114 -0.055096306 -0.048056163 -0.023082418 -0.12725902 0.008831006 0.055009995
0.027629655 0.02710523 0.012393058 0.12516099 0.0923644 0.11436056 0.02386818 -0.08933646
-0.09525496 -0.027858589 0.06908792 0.09744942 -0.062026065 -0.05256618 0.113508195 0.016002936
-0.13118693 -0.019828688 0.058417387 0.03443975 -0.060574163 0.054840587 -0.07660331 0.024561256
-0.047919024 -0.00032988616 0.034701772 0.07301603 -0.083110906 -0.028688734 -0.041689444 -0.09386995
0.08388774 -0.033881813 -0.037297692 0.032608494 -0.04197005 0.011460697 -0.055665452 0.118375115
0.086394 -0.012446983 -0.047685582 0.032355107 -0.08062294 0.1270891 0.063898385 0.092289306
-0.0817632 0.06284986 0.052682918 -0.045425385 -0.06611613 -0.018023798 0.06975251 0.060225565
-0.09823659 0.10211779 -0.11499827 0.03030564 -0.062789105 -0.024104469 -0.030163908 0.013936905
-0.06352981 -0.041788794 0.0973783 0.0064684725 -0.013927878 0.04258669 -0.118484266 -0.0151288835
0.08120255 -0.0030422434 -0.014117167 0.038862534 -0.00907251 -0.034668893 -0.030647889 0.11273366
0.11057465 -0.035890352 0.047301844 -0.08217844 0.023294657 0.07309048 0.015591572 -0.07779477
0.008590427 0.052610297 -0.005739782 0.09187438 -0.10896798 0.08888574 -0.10052474 0.012674275
-0.045123056 -0.005100877 -0.02810552 0.008080424 -0.027287966 -0.08618767 -0.041061923 0.054110456
0.0077776755 -0.0063057514 -0.09716446 0.074451506 0.0057939673 -0.012446596 -0.004801075 0.0003182566
0.026939103 -0.08201151 -0.015840322 0.010392648 0.05992008 -0.028362285 -0.053910002 -0.08900066
-0.032574102 -0.20699027 0.054844726 0.04998754 0.008042501 -0.06924181 -0.050025526 0.05877918
0.024928637 0.043902054 0.025468212 -0.026103027 0.056557193 0.08629137 0.06273641 0.016483061
0.03138174 0.04004641 -0.11171794 -0.030711576 -0.059778504 0.00704395 -0.11811167 -0.03527983
-0.0020389997 -0.0039383457 -0.08202681 0.046277635 -0.053004496 0.023495452 -0.012198604 0.08857975
0.045923814 -0.028220443 -0.023950938 -0.017660962 0.0062692333 0.013262178 -0.04518764 -0.0073319124
0.050787825 -0.044661466 0.021972507 0.030308511 -0.044844296 0.088577144 -0.08898087 0.0131422905
0.009969451 -0.011707503 -0.019580295 -0.061614133 -0.05326603 -0.047475144 -0.031341434 0.017597277

layers.1.bias f4 [128]
00000000: 45ec 9ebb 28c7 00bd fbc3 7fbd 7c18 c5bc
00000010: ba6b 993c 3be0 a4bd 9025 0d3e 8666 7c3d
00000020: f748 06be 408f 11be cdd5 b33d 6f4c 04be
00000030: 1b20 99bd c334 53bb 7a83 df3d d043 5ebb
00000040: 8c14 56bd 1da2 843c 527f 8bbc 2c81 3abb
00000050: 6c07 ad3d 06fb 00be abad a7bc ed6b 30bb
00000060: 86ff 3d3e 19a1 093a 982f 77bd 79d2 f2bd
00000070: e276 c8bd d7fb 15bd 7ea1 903d b198 463d
00000080: a1d8 93bc 6ba3 9f3d 35e8 fd3d a310 a6bc
00000090: 70f7 0e3e 2e86 0fbe b8c2 b23d b527 f53d
000000a0: 4488 9fbd b1d6 9b3c f390 f03d c842 bdbc
000000b0: a637 c6bd 034b 353d 8eb2 24bd 4f0e f6bd
000000c0: f22c ffbd 447b ed3c fdb0 583d 9a17 13bd
000000d0: 2b5a 7abd 36e3 b8bd 21b3 aa3c 4d6a 29bc
000000e0: d39a db3d 5944 eabc 7550 b03d 068d 11be
000000f0: e279 e3bd 2b1e ac3d d332 96bd 8613 efbd
00000100: 3d46 1abe bace afbc de0d c93d 8b1d 053d
00000110: ccab 48bd bed9 96bd 1f30 34bd a862 31bd
00000120: 3fa5 ffbb 98f6 1d3d 0be9 763d c97a cbbd
00000130: 786c 2dbe 4788 003e 3de1 83bc 46f0 3fbe
00000140: 3584 393d f2c4 353d fbf2 0b3e 30ec 083e
00000150: b65e 803d e1cf 0b3d 2635 8dbd a664 543c
00000160: ddd5 b4bc a3d9 323d 0c3c 1dbd 7b4d f13d
00000170: 6f2f 323d 51bd 153c 11fd eabd c289 013d
00000180: e92e 893b d110 333c ffa5 2dbe 30b0 6fbc
00000190: b4a0 80bd f305 443a 9170 e8bc 5804 e5bd
000001a0: f1f8 513d 1573 b0bd 056f dabd c819 95bd
000001b0: c0b0 af3c b936 91bd d540 b63d 6194 0dbd
000001c0: 0b46 92bd 6559 86bc 50af 0e3e 94fe bcbd
000001d0: 4fc1 223b 1763 80bd c840 2dbe eb7c c6bc
000001e0: a525 71bd f3e8 6c3c 2edc 0e3e a466 0a3d
000001f0: 8b78 45bd 6edd 02be b706 913d e06a 70bd
-0.004849943 -0.03143993 -0.06244276 -0.024059527 0.018728126 -0.08050581 0.1378386 0.06162121
-0.13113771 -0.14214802 0.08781014 -0.12919782 -0.07476827 -0.0032227493 0.10913749 -0.003391493
-0.05226569 0.016190583 -0.017028484 -0.002845834 0.08448681 -0.12595758 -0.020468554 -0.0026919798
0.18554506 0.00052501407 -0.060348123 -0.11856551 -0.097883 -0.036617126 0.07062052 0.04848546
-0.018047633 0.077948414 0.123978056 -0.020271605 0.13961577 -0.14016029 0.08728546 0.11970464
-0.077896625 0.019023271 0.11746397 -0.023103133 -0.09678583 0.04426099 -0.040209346 -0.12014448
-0.124597445 0.028989442 0.052903164 -0.03591118 -0.061121147 -0.09027712 0.020837368 -0.0103402855
0.1072289 -0.028597044 0.08609096 -0.14213952 -0.11107232 0.084041916 -0.07333913 -0.11673646
-0.15065856 -0.02146088 0.09817098 0.032498877 -0.048991963 -0.0736575 -0.043991204 -0.043306977
-0.0078016813 0.03856525 0.06028084 -0.09935529 -0.16935909 0.12551986 -0.016098613 -0.18744001
0.045292098 0.044377275 0.13666908 0.13371348 0.06268065 0.034133796 -0.06894903 0.01296345
-0.022074634 0.043664586 -0.038387343 0.11782356 0.043502267 0.009139375 -0.1147405 0.031625517
0.0041865003 0.010929302 -0.16957854 -0.014629409 -0.06280652 0.0007477693 -0.028373988 -0.11182469
0.0512628 -0.086157 -0.106657065 -0.07280308 0.021446586 -0.07090516 0.088990845 -0.034565333
-0.07142266 -0.016400049 0.13934064 -0.092282444 0.002483446 -0.062689 -0.16919243 -0.024229487
-0.05887379 0.014459836 0.1395118 0.033789292 -0.04821066 -0.12779781 0.07081359 -0.058695674

layers.2.weight f4 [64, 128]
00000000: 02c3 da3d b64e c3bd 5f60 1abd 8915 8e3d
00000010: 55d4 83bd 05d4 2fbd f78a c83d 3e8e a13d
00000020: 2ce7 4c3d d2a9 953d d35e 5f3d f739 803c
00000030: b6e6 7cbd aea8 5e3c d9d8 ac3d e3ee 38bc
00000040: 8698 c53d d83f 4e3d 79c3 143d c9d3 af3c
00000050: 0422 723c 518b 9f3d 24f6 1f3c 7c93 413d
00000060: b654 903c 5e07 acbd aba3 8fbd 3819 d6bc
00000070: 4bb2 36bd c182 ddbc 7035 483b 5b3a e5bb
00000080: e75a aabd 4842 853d 7aca 183d c6da bbbd
00000090: 042f ba3d 0051 82bd 6ba4 b33d 7168 b43d
000000a0: 843a d7bd 4f3e 133e 1ca6 1e3c ba9b e9bc
000000b0: 1843 0ebc 5023 843d 5364 843c 8d3b 083e
000000c0: dd41 d0bd c11b 1fbb b585 5a3d 77d0 f43d
000000d0: ba9f 04bd fd87 22bd 12fe a93d c0ad 8b3d
000000e0: bc17 74b9 a08a 4ebc 41cd 863d 2fc6 0fbd
000000f0: 2a5e 15bd 2b8c 09bd 8b03 89bd b2d6 8abd
00000100: 6684 ab3d d78d d8bd 2b1f e53d ba21 fc3c
00000110: 147c b6bc d9b8 c4bd b5f6 e6bb 8d20 8a3d
00000120: 7570 9f3c d26f afbd 61b0 083e 5408 85bc
00000130: d0b7 a13b ac45 44bd dff2 bd3d bee9 afbd
00000140: e919 c33d e959 993c f316 953d 15cc cc3c
00000150: c1b5 173d 146d f6bc 2fa3 aabd 2e5e b43c
00000160: f906 043c cf9e b0bc 297d c43d 29f6 373d
00000170: 7354 5b3d e812 f23d 3b39 d7bd 7f8c 953d
00000180: 8de1 babc 8e43 563d 17c5 083c bbeb 723d
00000190: aac7 adbd e98b 623d 7eb9 873d 1dcf 85bc
000001a0: 5ca4 3e3d ee28 75bc 3a0c e7bd 947e c9bc
000001b0: 32e8 203c 1023 9d3c a62b 5bbd f3ee 373d
000001c0: a011 61bc 29f0 66bd 0874 65bd 9461 bebd
000001d0: 223f 2c3d 3246 9c3d 05dd 13be 2e14 873c
000001e0: 6a53 32bd f12d c23d 5f45 183d 20bd ff3c
000001f0: 2825 bc3d 0959 a2bd 374f e13d 8359 c33b
00000200: c12f 07bd 800d a9bd 4620 6a3d 309e 1a3e
00000210: 8304 7f3d cbd1 89bb b7fd f3bb 4ea9 973c
00000220: 5d4c ccbc 5334 b7bc d109 a6bd efbc dbbd
00000230: 73af b0bd 1a5d 52bd 55e1 cabb 1b1c 7abd
00000240: 7dac 67bc 14a1 1ebd b967 ffbd 0219 81bd
00000250: 81b1 32bd 3eec 79bd ee75 293d 19be 0c3d
00000260: f341 f5bc 1ed2 74bb da2b 50bd 9eaf f8bc
00000270: c471 c9bd 40c4 aabc 7a2b 883d 7844 eb3b
00000280: c5f1 713d 1cfe 1d3d af9f 0cbc 5d29 e43c
00000290: 6143 683d 08f1 f9bd b9d6 f2bd cae6 b83c
000002a0: 65a2 05be b181 9c3a a2c2 53bd a35d 5b3d
000002b0: 3b34 c93c 50e7 a83d 699e ccbd d366 883d
000002c0: 23ee 0d3d bc16 593d dfa0 40bd 25df 053e
000002d0: b633 a13d f63d e8bd 3742 dbbc fcca 503c
000002e0: bf57 373d 1f79 353d 9e41 543d 4d42 c5bd
000002f0: 95ed 2cbb 53a2 753d 1392 a23c 6506 03be
00000300: 73d6 333d ff38 bfbc 68b1 9539 4dcf d13b
00000310: 0222 5f3d ce47 3fbd bad4 903a 3665 5c3d
00000320: 2993 37bc cff4 64bd 7f20 923d fe6c 3d3c
00000330: 7b78 d7bd d53d 77bd c10d c33d 2c71 d5bd
00000340: f6bc cbbd 37a3 ce3d f67c 1d3e be42 073d
00000350: a17b 2dbd 8954 233d 216d 81bc dc69 693d
00000360: 969b 8d3d e1b6 f8bc 815a e43d 0817 5bbc
00000370: ff4f e1bd 6af0 86bd 0db3 31bd 8e1a 923d
00000380: c6cf b13c 9827 2ebd e2b7 88bc be47 ac3d
00000390: c906 dc3c 47fd ce3d 624e 993d a32d a33c
000003a0: 8630 4e3d 5b14 9dbd 7842 6abd 6cd0 0c3d
000003b0: 50fc 13be 05c4 4dbd ba02 583c c0b2 57bc
000003c0: 7c9f ae3c 20f8 363d 80bb f7bc 7cd5 c93c
000003d0: dc1e 193d 436d 133e aa9d 623d deb4 4abd
000003e0: 6a85 efbd 25c7 86bd a63d de3c 3f21 ecbd
000003f0: fa25 4ebc 672e 0a3d 6d20 e83c 02cd 36bd
0.10681726 -0.09536497 -0.037689563 0.06937701 -0.064369835 -0.042926807 0.097921304 0.07888459
0.05002515 0.07307781 0.05453379 0.01565264 -0.06174346 0.013590021 0.08439798 -0.011287424
0.09648232 0.050353855 0.03631923 0.021463292 0.014778618 0.07790244 0.009763274 0.047259793
0.017618518 -0.08399843 -0.07013639 -0.026135072 -0.044603627 -0.027039887 0.003054943 -0.006995482
-0.083181195 0.06506783 0.03730247 -0.09172587 0.09090999 -0.06363106 0.087715946 0.08808983
-0.10509208 0.14379238 0.009683158 -0.028516639 -0.008682989 0.06452048 0.01616112 0.13303967
-0.101688124 -0.0024278017 0.05335017 0.11953824 -0.03237889 -0.03968047 0.08300413 0.068202496
-0.00023278495 -0.012606293 0.06582118 -0.035101112 -0.036466755 -0.03358094 -0.06690129 -0.06779231
0.083748624 -0.10573929 0.111875854 0.0307778 -0.022275962 -0.096055694 -0.0070484527 0.0674449
0.019462803 -0.0856625 0.13348533 -0.016239323 0.0049352422 -0.047918007 0.092748396 -0.08589505
0.09526426 0.01871963 0.07279768 0.024999658 0.03703857 -0.03008131 -0.08331906 0.022017565
0.008058303 -0.0215601 0.09594185 0.04491249 0.053547334 0.11820012 -0.10508963 0.07302188
-0.02281263 0.05231052 0.008347771 0.05930684 -0.084853485 0.05530921 0.06627177 -0.01633411
0.046543464 -0.014963372 -0.11281629 -0.02459649 0.009820985 0.019181758 -0.053508423 0.044905614
-0.013737112 -0.05638138 -0.05601886 -0.09295955 0.042052396 0.07630576 -0.14439781 0.016489115
-0.04353658 0.09481419 0.037175532 0.031218112 0.091867745 -0.07927138 0.11001437 0.0059615984
-0.033004526 -0.08254528 0.057159685 0.15099406 0.062260162 -0.0042059175 -0.0074460167 0.018513348
-0.024938757 -0.022363817 -0.08107341 -0.107293956 -0.08627214 -0.05135832 -0.0061914125 -0.06106196
-0.0141402455 -0.038727835 -0.124709554 -0.06303598 -0.043626312 -0.061016314 0.041372232 0.03436098
-0.029938674 -0.0037356685 -0.05082307 -0.030357178 -0.09836152 -0.020845532 0.066489175 0.007179793
0.05906846 0.038572416 -0.008582993 0.027851755 0.056704883 -0.12204176 -0.11857361 0.022570986
-0.1305023 0.0011940507 -0.05169929 0.053556096 0.024561038 0.08247244 -0.09991152 0.06660237
0.034650933 0.053000197 -0.04702842 0.13073404 0.07871191 -0.11339943 -0.026764972 0.012743708
0.044761416 0.044304963 0.05182039 -0.096317865 -0.0026386727 0.059969258 0.019845044 -0.12795408
0.043905687 -0.023342608 0.00028551673 0.006402886 0.05447579 -0.046699338 0.0011049726 0.05380746
-0.011204519 -0.05589753 0.071351044 0.01156163 -0.10521027 -0.060361702 0.09524108 -0.104219764
-0.09948151 0.100897245 0.153797 0.033022635 -0.04235423 0.03987554 -0.015799107 0.05698572
0.06914441 -0.030360641 0.11150075 -0.01337219 -0.11001586 -0.06588824 -0.043383647 0.07133971
0.02170552 -0.04251823 -0.016689245 0.08412121 0.026858704 0.101069026 0.074856535 0.019919222
0.050339244 -0.07669898 -0.057192296 0.034378454 -0.14451718 -0.050235767 0.013184244 -0.013165176
0.021316282 0.044670224 -0.030240774 0.02463793 0.037382945 0.14397149 0.05532614 -0.049488895
-0.116953686 -0.065809526 0.027129006 -0.11529779 -0.0125822965 0.03373566 0.028335774 -0.044629104

layers.2.bias f4 [64]
00000000: 704a c53d e4c4 ba3b d6bb 223d 97dd 433d
00000010: 13f8 17bd 16a0 073d 42e4 66bd 138d 8f3d
00000020: 614a debd c6ed bbbd 2da7 c33b cd68 35bd
00000030: d064 033c 5265 383c 85ea 88bd 54d4 b93d
00000040: e451 3bbd 6ec9 c13c f7f9 803c 864f 293b
00000050: 233e ae3d 0d53 303d a239 b5bd 6e15 1abe
00000060: 07ea be3d b14b a4bc 4baa 8c3b 4558 4abd
00000070: 7f0d 2b3e ed34 a3bd d6ca c23c a2ce d0bc
00000080: 24c5 ef3d 608f 2a3d 2cb5 283e 2775 663d
00000090: b73c 573d 3920 db3c 1689 053d edd0 423c
000000a0: 895f 1ebd a4d1 dd3d d4c1 883d 38cf c13c
000000b0: 50a8 f0bd 6878 8abd fe9f 21be 0da2 38be
000000c0: a1fe a03d bb89 09be 7737 42bd 5c42 723c
000000d0: 7fee 683c 4e28 1f3e 2df2 60bd 4e28 0abe
000000e0: 6dbe cd3d d454 0bbe 45fe d7bd 53b8 4d3d
000000f0: 3ad3 afbd 5b9f 06be d17f c1bc 1390 25bd
0.096333385 0.0056997407 0.039729916 0.047818746 -0.037101816 0.033111654 -0.056370027 0.0700933
-0.108540304 -0.09176211 0.0059708566 -0.0442894 0.008019641 0.011254625 -0.06685356 0.090737015
-0.045732394 0.02365562 0.015744193 0.0025834753 0.085079454 0.043047953 -0.08848883 -0.15047237
0.09321981 -0.020055624 0.0042927614 -0.049400587 0.16704367 -0.07969079 0.02377836 -0.025489155
0.117075235 0.04164064 0.16475362 0.05626407 0.052548137 0.026748763 0.03260144 0.011890632
-0.03866533 0.108310014 0.06677595 0.02365838 -0.11750853 -0.06761247 -0.15783688 -0.18030567
0.078610666 -0.13431446 -0.047416177 0.014786329 0.014217018 0.15542719 -0.054918457 -0.13491938
0.100460865 -0.13606578 -0.10546545 0.050224613 -0.0858521 -0.13146727 -0.023620518 -0.040420603

readout.weight f4 [1, 64]
00000000: 6d30 7abe 5e72 27be 217c 12be b3ba 2d3e
00000010: 8be6 1d3e c12f 303e ff6b 26be bef8 36be
00000020: 886d 893e 3c47 5c3e 7573 36be f003 1d3e
00000030: 6f6e e8bd 53de 69bd dde4 743e 86d0 13be
00000040: 2e1b 72be 15b1 1a3e c64c 433e 490d b8bd
00000050: fe82 07be 613f 313e 4ec5 1c3e 39b9 103e
00000060: 1fa1 5cbe 44fb 1ebe ea9f 4cbe a912 463e
00000070: ce10 2bbe 9dbf 523e f23b 313e 2608 0ebd
00000080: c11b 46be 0e79 153e 5635 59be ffd0 70be
00000090: 4ed1 0c3e 927f 7ebe 88d2 55be e9fd 663e
000000a0: daab 45be f844 f6bd 50c6 44be 1d15 38be
000000b0: e30d 363e 9480 943e 7b3c 223e 565e 2b3e
000000c0: 6416 84be fd82 483e 6a7c 473e 9e68 d3bd
000000d0: 90b4 d1bd f2ee 8bbe bd33 3abe a30b 4d3e
000000e0: 8cc3 6cbe 4e10 463e 59bf 0b3e 75f7 2b3e
000000f0: fa10 2f3e f851 603e dfa6 68be 426c 7e3e
-0.24432535 -0.16352221 -0.14305164 0.16965751 0.15419976 0.17205717 -0.16252135 -0.17868325
0.26841378 0.21511549 -0.17817481 0.15333533 -0.113491885 -0.05709679 0.2391543 -0.14435014
-0.2364318 0.15106614 0.19072255 -0.08986909 -0.13233563 0.17309333 0.15309641 0.14133157
-0.21545838 -0.15525538 -0.19982877 0.19343056 -0.16705629 0.20580907 0.17308024 -0.03467574
-0.19346525 0.1459696 -0.21211752 -0.23517226 0.13751718 -0.24853352 -0.20881093 0.22557797
-0.19303837 -0.120248735 -0.19216275 -0.17976804 0.17778735 0.29004347 0.15843384 0.16735205
-0.25798333 0.19581218 0.19481054 -0.103226885 -0.10239518 -0.27330738 -0.18183799 0.2002397
-0.2312147 0.19342157 0.13647212 0.16793616 0.1709632 0.21906269 -0.22719906 0.24845985

layers.0.weight f4 [128, 17]
00000000: e642 7e3e 7b53 a9bc 490f da3e a7c2 3ebe
00000010: 9dec 423c 7f94 8b3e ad0b 1dbe 869a 51be
00000020: 35de e6be 6925 85bd b578 6cbd a15a 27be
00000030: 240c 1a3e 60e9 553c b0c0 4fbd 87f5 483e
00000040: 5a34 42be 79cf 27bc 59d6 90be 48bf 39bd
00000050: fe99 573e b75c 41bd 063e b3bd 2bc8 14be
00000060: bb90 453e 8ce1 0bbe e9c1 1ebe 7378 2bbe
00000070: 4d91 a83d c6d5 3d3e 173d 9fbe f1a5 2f3e
00000080: 8607 2e3c d6b0 cdbd d874 a03e d788 70bd
00000090: 1632 b73c b900 f4bc 7b53 4f3e d123 bcbd
000000a0: 3624 c03e cdca 143e 30e2 58bf fa63 023f
000000b0: 2f8a 9bbe ae00 8ebe cf3d 903b ebc1 853d
000000c0: ac10 763d 533f 353d b266 fa3d 9e8c 52be
000000d0: ee5f 643d dd34 f63d be8c 99be 5b92 a03e
000000e0: 0572 a9bd 79b2 293e b1d9 703e b97d 2bbe
000000f0: f802 eebd a091 52be 5f39 f5bc 5aae 373e
00000100: 99a1 a73d 793a 20be af04 0ebd 31f7 6cbd
00000110: ff69 45be e656 8ebe 0441 a8be f5bb 2e3d
00000120: 0d6e 55be df36 963d 6664 2d3e 89c3 da3d
00000130: 3522 0e3f 4fd2 983e f25c 3abe c744 23ba
00000140: 2834 aebd b3f1 03bd 96e3 62bb 1ab3 013e
00000150: 715d 2bbd f87b 023f 3613 f9be 0b75 5b3d
00000160: f53e d03d 6d77 a1be 5d38 4ebe abad d9bc
00000170: efa6 453e 98c6 20bf 5185 c3be 6d36 82be
00000180: c4b1 46be ca11 ab3e 0249 29bd 7ffb 8a3b
00000190: dce0 94be 6941 143e d7be 573e 4742 1a3e
000001a0: bcfd 773d 0cf4 adbe d47b 413d ae37 e83c
000001b0: 4933 803e 12bc 14be c134 c7bd 20ed b33e
000001c0: 7d37 913d d97d 093e fb35 d33d 8e9e adbe
000001d0: ff84 9dbe f5d5 5fbe 6f99 6b3e 462c adbe
000001e0: 7c59 c43e b866 43bd 452d c6bd 9afd 373e
000001f0: dff5 413e 222a ec3d e264 d9bd c666 593e
00000200: f5a3 b3bd 2c21 813e fbde 2b3d ce0b 3c3e
00000210: 5120 0a3c 6ac1 463e 2798 783d 81d1 8e3d
00000220: 02fb 4bbe 621a f23e 4e9b 1e3e 2619 44ba
00000230: 64b9 cd3b 4cb2 81bc c963 babe 369d 843d
00000240: 355b 4fbe 398e 853d 41cd b4bd a15f d7bd
00000250: fe96 2f3e d9e7 883d 5dac b8bd ae78 b63d
00000260: 04fb 4dbc c4ca 3d3e da50 c5be 3a15 6bbe
00000270: fca9 ce3e 8b04 69be a142 2a3e 714e 8dbe
00000280: d8b9 0d3e eb0d 153f 3822 1bbd d9f8 ddbd
00000290: 8b8c 7ebe 2e86 6dbd 6411 ee3c 277d af3e
000002a0: e1c8 9f3c 318b e7bd 5027 9cbe 6fbe 8e3e
000002b0: cc25 403e 2b41 84be 54cf 60bd 2059 123e
000002c0: 0a9c 40be 7831 d3bd 22e7 223d 4d32 d9bd
000002d0: b8e5 5c3b d6e5 043f c9b7 6dbe 8629 18be
000002e0: d10e e03d defd 113d 6877 e73d 677f 40bc
000002f0: 0cc5 8cbe f262 d7be 7fc1 03be 6f3c a03e
00000300: a520 eb3c 677c 153e 20e5 aebe 3c65 053f
00000310: 9685 433e 22c3 75be 1867 293d 4ee6 51be
00000320: 683c e23d 98c3 debd 5eb4 193e 6e9d 023e
00000330: dbeb 6c3e 0d14 a4be 06c1 d03c 7acb 8b3e
00000340: 74a5 253d 71fb a6be ef06 333c 7603 e13b
00000350: 3a42 003f 9d6e eebd 2926 4b3d ea0d 193e
00000360: 5ccb 4b3e 6c0a dabe 9737 2a3e 8297 f73d
00000370: 382c 103e 2253 d8be bdec 363f 47cd a13e
00000380: ff2b 523e 4a28 013d 938a e53d 372a 30bd
00000390: e0e5 21bd a279 843e be1e 59be b3ad a33b
000003a0: f5ed 843c c897 623e 3b46 f43d b563 98bd
000003b0: 0822 d4bc bcdc fd3c 29a7 753e c800 3cbe
000003c0: 1ed4 9dbe 93e5 a9bd 826e 22be 895d 63be
000003d0: 8a1b a0bd 8eb0 d8be fa19 39bf 6383 eb3d
000003e0: 4dcd 9ebe 21f2 ddbe 9c57 413a 7c71 dbbc
000003f0: 2393 eebd 353a 4d3d 5486 693e 2a5e a3be
0.24830207 -0.02066969 0.42589787 -0.18628941 0.011897233 0.2726173 -0.15336485 -0.20469102
-0.45091406 -0.06501276 -0.057732303 -0.16343166 0.15043694 0.013056129 -0.05072087 0.19624911
-0.18965283 -0.010242336 -0.28288534 -0.045348436 0.21054837 -0.04720756 -0.087520644 -0.14529483
0.19293492 -0.13660258 -0.15503658 -0.16745166 0.08230839 0.1853858 -0.31101295 0.17153145
0.010621911 -0.100434944 0.31339145 -0.05872425 0.02236275 -0.0297855 0.20246689 -0.09186519
0.37527627 0.14530487 -0.84720135 0.509338 -0.30378863 -0.27734894 0.0044018994 0.065311275
0.060074493 0.044249844 0.12226619 -0.20561454 0.05575555 0.120218016 -0.2999019 0.3136166
-0.082737006 0.16571988 0.23520543 -0.16747178 -0.1162166 -0.20563364 -0.029934583 0.17937604
0.08185119 -0.15647306 -0.034672435 -0.057852928 -0.19278716 -0.27800673 -0.32862103 0.04265972
-0.20842762 0.073346846 0.1693283 0.106818266 0.55520946 0.29847953 -0.18199518 -0.0006228205
-0.08506042 -0.032212924 -0.0034620515 0.12665978 -0.04183716 0.5097041 -0.4864747 0.053578418
0.10168258 -0.31536427 -0.20138688 -0.02657207 0.19301961 -0.6280303 -0.3818765 -0.2543215
-0.1940375 0.3341201 -0.04132939 0.0042414065 -0.29077804 0.14478077 0.21068893 0.15064345
0.060544714 -0.33975255 0.047237232 0.028346863 0.25039127 -0.14524868 -0.09726859 0.3514185
0.07090662 0.13426913 0.1031303 -0.3391003 -0.3076553 -0.21858962 0.23007749 -0.3382284
0.3834952 -0.047705382 -0.09676603 0.17967835 0.18941449 0.11531474 -0.10614945 0.21230611
-0.08771507 0.2522062 0.041960698 0.18363878 0.008430556 0.19409719 0.06069198 0.069735534
-0.1991997 0.47285753 0.15488932 -0.0007480554 0.006278204 -0.015832089 -0.36404255 0.06475298
-0.20249636 0.065212674 -0.088282116 -0.10516287 0.17147443 0.066848464 -0.09017251 0.089097366
-0.012572054 0.1853438 -0.38538247 -0.22957316 0.40364063 -0.2275564 0.1662698 -0.2759891
0.13840425 0.5822436 -0.03787443 -0.108384795 -0.248583 -0.05798929 0.029061027 0.3427517
0.019504966 -0.113058455 -0.30498743 0.27879664 0.18764418 -0.2583097 -0.054885224 0.14291811
-0.18809524 -0.1031217 0.039771207 -0.10605297 0.003370626 0.519132 -0.2321464 -0.1485959
0.10940326 0.035642497 0.11302072 -0.011749125 -0.27494085 -0.42067677 -0.12866782 0.31296107
0.02870209 0.14598237 -0.34159184 0.52107596 0.19093928 -0.24000219 0.041358083 -0.2049801
0.11046678 -0.1087715 0.15010211 0.12755367 0.23136847 -0.32046548 0.025482666 0.27303678
0.04044099 -0.3261371 0.010926946 0.0068668677 0.50101054 -0.116421916 0.04959694 0.14946714
0.19901794 -0.42586076 0.16622768 0.12089445 0.14079368 -0.42250925 0.71454984 0.31601927
0.20524596 0.031532563 0.112080716 -0.04300901 -0.039525867 0.25874048 -0.21203133 0.004995072
0.016226748 0.22128212 0.11927458 -0.074408926 -0.025895134 0.030989043 0.23989548 -0.18359673
-0.30825895 -0.08295741 -0.15862468 -0.2220365 -0.07817753 -0.423222 -0.7230526 0.114996694
-0.31016007 -0.43348792 0.00073754205 -0.026787512 -0.11649158 0.05010434 0.22805148 -0.3190778

layers.0.bias f4 [128]
00000000: fc95 433e 4184 853e 32de 43be 1eb9 203f
00000010: bd09 fe3e 54ee 3fbe 5c9b c1bd d113 363e
00000020: 6ffc 3dbe 7610 093e 1e05 ab3e 1079 b03e
00000030: 8799 103e ad1f 893e d0a0 b53d eda3 493e
00000040: d7e3 ecbd ed1c 373e 739d c83e a43f e43c
00000050: 8724 003a 35a1 f23e e00c dfbe 5bbc ec3e
00000060: 70ff 40be f814 eb3e 12ac b63e fa12 073f
00000070: db1e 82be 5b60 b43e 289c 3e3e 8d15 d13e
00000080: d0f7 c0be 02fe 463d 4bef ee3d 5c4f 70be
00000090: 94a7 6d3c fb23 103f 67cd abbe a12b aebc
000000a0: 1f73 eb3b 3cf4 053e e2bd fabb f4b6 45bd
000000b0: b8c9 adbe da2b 943d b2c2 95bd 805e 0e3f
000000c0: 8f9a babe 0e3c f53d 0d01 30bd 0d86 033f
000000d0: cff7 9c3e bddc a0be e2b2 973e 6196 21bf
000000e0: c1b8 5e3e f2ec 8cbd ee9c d6be a195 993e
000000f0: 9eaa ea3e 70d4 973e fc17 82bd f046 903e
00000100: a504 5dbe a793 1cbe eeb5 e23d 2be7 05be
00000110: ffcf bb3c 7452 31be eddd ee3d 2ea7 5f3e
00000120: 3165 b43d 3e21 37be f839 d3bd 8081 bc3d
00000130: b38d 24be 76fa 833e d1b8 443e 19b4 043d
00000140: d63d f23e 0e37 01bf e6b6 163e a7b5 a7bc
00000150: 3b40 863e 25b5 c4bd 2b69 cb3e 1077 003e
00000160: e9a5 483e 2323 6b3e d3b9 e5bd 7103 c5be
00000170: 8f34 83be 9d3c a4bd 309c 883e e8fd a2be
00000180: d5f4 7abd fa5e b2be df85 21be 525f 893e
00000190: bd00 503e 236e 3cbe 0a52 bb3c f338 d1bd
000001a0: 66d3 073f 8ca0 ce3d cc17 0a3c 4e43 103e
000001b0: 66d6 9dba 106b 623e 5c4e 363e 4915 e73e
000001c0: b6aa 81bd 3c69 3a3e b02b 35bd c139 83be
000001d0: 4dd5 babe 7193 8f3e 49c7 c43e dafe 733e
000001e0: 6df1 76be 2e74 2abe f178 473e 554c 583e
000001f0: bf49 94bd 041e 7bbe 5cc3 69bd 7401 fa3d
0.19100183 0.26077464 -0.1912773 0.62782466 0.49616805 -0.18743259 -0.094534606 0.17780997
-0.18553327 0.13385186 0.33402342 0.34467363 0.14121066 0.2678198 0.08868563 0.19691439
-0.115668945 0.17882128 0.39182624 0.027862377 0.00048882555 0.47388616 -0.4356451 0.46237454
-0.18847442 0.45914435 0.35678154 0.5276333 -0.25414166 0.35229763 0.18614256 0.40836754
-0.37689066 0.048582084 0.11666735 -0.23467773 0.014505286 0.563049 -0.33555147 -0.021261038
0.0071853544 0.1308145 -0.0076520303 -0.04827018 -0.33942962 0.072349265 -0.07312526 0.55612946
-0.36446044 0.11974345 -0.042969752 0.5137642 0.30657813 -0.3141841 0.29628664 -0.63120085
0.21750166 -0.06881131 -0.41916603 0.2999697 0.45833296 0.29654264 -0.06352231 0.2817912
-0.21583803 -0.152907 0.110698566 -0.13076465 0.022926329 -0.1731661 0.11663423 0.21841118
0.08808363 -0.17883775 -0.10313791 0.09204388 -0.16069679 0.25777024 0.19211127 0.032398317
0.47312802 -0.5047463 0.14718208 -0.02047236 0.2622088 -0.09604863 0.39728674 0.12545419
0.1959454 0.22962622 -0.11217084 -0.38479188 -0.25626037 -0.080193736 0.26681662 -0.3183434
-0.061268646 -0.34838086 -0.15773724 0.26830536 0.20312782 -0.18401389 0.022866268 -0.1021594
0.53056943 0.10089216 0.008428525 0.14088175 -0.0012042045 0.22111154 0.17803329 0.45133427
-0.06331389 0.18204206 -0.044231117 -0.2563 -0.3649086 0.28042176 0.38433293 0.23827687
-0.24115534 -0.16645882 0.19479729 0.21122868 -0.072406285 -0.24523169 -0.057071075 0.122073084

layers.1.weight f4 [128, 128]
00000000: d973 3cbd dc8a 293e a542 5c3c fb83 913d
00000010: f8c6 473e 56f2 f8bb 5e1a b73c c2d5 7cbd
00000020: a21f 2bbe a8e3 fb3d 5931 343c a101 193e
00000030: 67c0 553d fab8 1fbe 89a9 d73c c8c5 74bc
00000040: 6667 22bd a755 d33d b483 93bc be4d 2ebe
00000050: 6bbc babc e070 083e 19b9 7d3d 7fcf db3d
00000060: ee0a 5a3d 6b1c 9dbd 0da5 373e 3e06 6d3d
00000070: be1d 88bd a805 4a3e 6806 26bc cad4 54bd
00000080: 8647 df3c 80ac 12be b4f9 b4bc 1cd7 e6bd
00000090: 7792 35bd f7fa 253e c0f5 183e 8bdd 35be
000000a0: dbb5 8dbd 4715 083d 81dd 5abe f99e 2a3d
000000b0: 92c8 b43d f511 f9bd 0103 dd3d 4af0 823c
000000c0: 4a52 acbb 65e6 32bd 7339 d0bd 16bf b33d
000000d0: e8d9 0fbe fff3 0f3e 5c62 a5bd 4821 db3d
000000e0: cd73 f8bd dec8 9cbd be55 443e 2de2 a4bd
000000f0: b942 373d e02b 59bd 8fdf bf3c 237d 553e
00000100: cc02 48bd 8e58 e8bc fa29 1dbe f6ef b6bd
00000110: ef68 2ebd 5181 ad3b 0650 cb38 98d5 5b3d
00000120: 520b 14bd f49e 883d 945b 873d b6de 0f3d
00000130: 6288 6a3c 1a6a c03b f651 e83d a989 243c
00000140: 32e7 ff3c 00db f83d 2fbf 5bbe 051f abbc
00000150: d589 62b9 37d6 e53c ca07 d63d fc8a 20be
00000160: 9b69 2bbd f3f7 f73c a1bb d0bd fe95 003e
00000170: 9ce4 85bd 4c9c bd3d dfb2 b23d 2d31 d43c
00000180: 0fd9 f5bd 422f 843d 48b6 0dbe c2cf 513d
00000190: 8e9d ae3c fb8a 83bd 5e7e 3c3d ca2b 0fbe
000001a0: 510f 563d b45e 7d3d 1d3d be3d 961d af3a
000001b0: 4bcb b33d 0751 443b 6ea7 4ebd b4c7 3d3e
000001c0: c418 5739 a8bb 543e 691d 1cbe e705 c23d
000001d0: 9771 3dbd 6743 1d3e 8279 de3d 7747 bebd
000001e0: 630e 023d c023 373e 92fb 893e a3a9 36bd
000001f0: 8ca0 aabb 8a6b 7bbd 3b1b bbbd 653c 7ebd
00000200: a0a4 d03d dbba 653d c498 a23d e8c5 5d3d
00000210: ead1 4f3d 848a 4c3d 35ef 0dbd fc0c f7bc
00000220: eb83 84bd d057 2f3e 0350 a6bd e073 943d
00000230: eb26 1e3e ef92 2ebc ee78 be3c b3e0 093e
00000240: a9a3 62bd 1d43 d3bb 52f2 823a 6f47 b13c
00000250: 2fe7 6d3d 6d8b 2cbc 5320 afbc 0f49 85bd
00000260: 87e9 303d 18be 3d3e 891c f43b 79cb 2c3e
00000270: 8e14 a6bd 8874 fc3d e568 3f3d 1f5f 033b
00000280: b859 c3bc f3ee 49bc 7305 ac3d 3ad3 d7bb
00000290: 7ca5 003e 1f99 c73d 2a0e 0c3e 69ac 12be
000002a0: a6e3 643d c8a3 cf3d 0823 5bbd cd41 8ebc
000002b0: bf14 87bd e324 21bd 090a fe3c a49b 0d3d
000002c0: ee3d a1bc 4f28 b93d 9c1f 7eba a2f0 e83d
000002d0: 117b d0bd 98be c83c 9cc6 c93d 6dd8 da3d
000002e0: 746a ca3c 1c2a bbbd 3a0e 28bd 6f31 823d
000002f0: 0904 6dbd 3518 d53d 573b 1d3d d7b7 f13d
00000300: 86f7 bc3d ecc3 93bc 9328 563b 981f 3ebe
00000310: 4837 8e3d f5b2 d03d b96c 9e3d 3591 ad3c
00000320: c85a 033e c404 ae3c fd46 22bd 8541 3bbd
00000330: 6160 82bb e89a ec3d 03e8 843d 743d ba3d
00000340: 5bde 87bd 41da be3d 36b5 c4bb 2d99 4a3d
00000350: 98ed 103e c415 af3c 7084 4d3d 9c65 c0bb
00000360: ced3 ac3d cca0 59b9 472f 113d d25c 1ebd
00000370: 3347 aa3b b5f0 463c ae92 29bd ef75 59bd
00000380: b097 9e3d 12af 873c af43 3abc f1cc bf3d
00000390: ad2c 3f3e 842f 72bd 6d04 cf3d 3123 983d
000003a0: 7936 803d 3c4b b6bc f385 743d 4af8 09bd
000003b0: 6a68 b53c 4fd5 973c 277f 0e3d 1744 0cbd
000003c0: c19c a63d ad3a 3fbd 8dee 16bc 080f fcbd
000003d0: 483d 4bbe 5d71 323d d36c 8f3d a9e9 fd3b
000003e0: 9646 273d 2c1c 143e 00ce 203d 87ec 2d3b
000003f0: f1cf 8cbd 9480 f2bd fad6 713d de2a 05bd
-0.04600892 0.16556877 0.013443624 0.071052514 0.19509494 -0.007597248 0.02235144 -0.061727293
-0.16711286 0.12299281 0.0109980935 0.14942028 0.052185442 -0.15597907 0.026325958 -0.014939733
-0.03964939 0.10319071 -0.018007137 -0.17021844 -0.022794923 0.13324308 0.0619441 0.10732936
0.05323308 -0.07671436 0.17934056 0.05786728 -0.06646298 0.1972872 -0.010133363 -0.051960744
0.027255785 -0.14323616 -0.022091724 -0.112714976 -0.044329133 0.16209017 0.14937496 -0.17760293
-0.06919452 0.033223417 -0.2137356 0.041655514 0.08827318 -0.12161628 0.107915886 0.01598372
-0.005258833 -0.043676753 -0.101672076 0.08776681 -0.14047968 0.14057921 -0.08075401 0.10699707
-0.12131462 -0.076555 0.19173333 -0.08050952 0.044741366 -0.053020358 0.02342203 0.20848517
-0.048830792 -0.028362539 -0.15348044 -0.08932488 -0.04258054 0.0052949567 9.6947e-05 0.053670496
-0.03614361 0.06670943 0.06609264 0.035124503 0.014314743 0.0058720233 0.11343758 0.010042586
0.031238172 0.12151146 -0.2145965 -0.020888815 -0.00021604386 0.028056247 0.104507044 -0.15678018
-0.04184876 0.030269599 -0.101920374 0.12557217 -0.065377444 0.09258327 0.08725523 0.025902355
-0.12004291 0.06454326 -0.13839066 0.051223524 0.021315362 -0.06422993 0.04601895 -0.13981548
0.0522607 0.061857894 0.09289 0.0013360258 0.087790094 0.0029955523 -0.050452642 0.18533212
0.00020513224 0.2077471 -0.15245594 0.09473782 -0.046250906 0.15357743 0.108630195 -0.092909746
0.031752 0.17884731 0.26949745 -0.044595372 -0.005207127 -0.061381854 -0.09136053 -0.062069315
0.1018765 0.056086402 0.07939294 0.054143816 0.0507373 0.049936786 -0.034651954 -0.030157559
-0.06470474 0.17123342 -0.0812073 0.07248664 0.15444534 -0.010655149 0.023251023 0.13464622
-0.05533186 -0.0064472095 0.000999043 0.021640508 0.058081802 -0.010531289 -0.021377718 -0.065080754
0.04319146 0.18529546 0.0074496907 0.16874494 -0.08109389 0.12326914 0.046730895 0.002004571
-0.023846492 -0.012325036 0.08399477 -0.0065864595 0.12563127 0.097460024 0.13677278 -0.14323582
0.055881165 0.10138661 -0.053500205 -0.01736536 -0.06595754 -0.03934182 0.031010645 0.03457226
-0.01968285 0.090408914 -0.0009694041 0.11374022 -0.10179723 0.024504945 0.09852335 0.10685811
0.024708964 -0.09138891 -0.041029193 0.06357085 -0.057865176 0.10405008 0.03838667 0.11802643
0.09226899 -0.018037759 0.0032677993 -0.1856674 0.06944138 0.10190383 0.07735581 0.021187404
0.12827599 0.021242507 -0.03961848 -0.04571678 -0.0039787744 0.115529835 0.06489565 0.090937525
-0.06634208 0.093189724 -0.0060030473 0.049462486 0.14153135 0.021372683 0.05017513 -0.005871488
0.08438836 -0.00020754634 0.035445478 -0.03866274 0.005196476 0.01214235 -0.04139965 -0.053090986
0.07743776 0.016562972 -0.011368676 0.09365261 0.18669386 -0.059127346 0.10108266 0.07428587
0.0626039 -0.022252671 0.059698056 -0.033684053 0.022144515 0.01853433 0.03478923 -0.034244623
0.08135367 -0.046686817 -0.009212148 -0.123075545 -0.19847596 0.043565143 0.070031784 0.0077488017
0.0408388 0.14463872 0.039258957 0.0026538686 -0.06875599 -0.118409306 0.05904291 -0.032511584

layers.1.bias f4 [128]
00000000: 7c10 0a3e 3bde 523d 5e57 4fbd e419 773d
00000010: a5bd b03d ae63 323d 8827 a6be 285b 73bd
00000020: 2daf 7f3d 54a0 9c3c 39c2 bb3d 0934 693d
00000030: 1343 93bc 382d a43d e950 d9bd 3839 993d
00000040: 83b4 08bd 5154 8a3d 764c 5abd ec7e 9d3d
00000050: dd13 103e 6190 d3bd f43e b03d 562c 3cbd
00000060: eb56 c7bc 4093 d73d f24b 963d e68a 17be
00000070: 7de8 2c3e cdcb 573e 21c1 d83c a943 3c3e
00000080: 8415 843d f4cb 18be b988 833d 861b 39be
00000090: d957 d2bd 8d4f 62bc a2fc 343e 942f 9dbe
000000a0: 7ace 85be c0ca bcbd 09cf aa3c 1a85 f83c
000000b0: a4e0 ad3d 15fa c2bd 5b94 2e3e 8f77 1f3e
000000c0: 3e54 173e ea0e 983d b998 06be eafe 103e
000000d0: ac40 e73d aad5 613d 72ba 263e 8cc6 023d
000000e0: 1ee4 9ebe 8a37 ba3c 2a1c b23d fd13 0e3e
000000f0: c11b 313e e044 d53c 6d45 d63d b531 f3bd
00000100: 85d6 303e 9ab4 293e 73d9 82be 147c 56bd
00000110: aaa0 063d 6721 2e3e 91bc 933d 00b2 92bd
00000120: b908 5a3c 5147 da3c 9fa6 ab3c a4d7 313d
00000130: c9a4 593d c61e d63c 22e5 393d ed25 603e
00000140: c5c7 143e b70c 6cbb 4310 ba3b 71cd 33bd
00000150: 965b af3d b479 00be fe86 333e 7517 f63c
00000160: 0773 42bc 709a 07be bc0e 383c d478 08be
00000170: 8f3e 273e 0aa7 21bc d634 97be 1022 183e
00000180: 6ae1 d4bd 40b3 dbbc 595b 3e3e 38b7 87bd
00000190: e9a4 5e3c 07c1 83bd 0b9a e3bc f949 093e
000001a0: 0991 cfbd 6e46 1a3d 8d15 a7bc 3575 ab3c
000001b0: b210 3f3e c564 4cbb 1000 95bd 9a63 bd3d
000001c0: 98b6 d13d a4b1 8ebe 7d74 a13d 2528 3ebe
000001d0: 878c fd3c caaa c6bd 47d6 533d 5349 d5be
000001e0: 20ed eb3d 1b4e 6fbc 75f1 f8bd fdb1 8dbc
000001f0: 5f5b bd3c 52c8 303d 73a0 a6be 2e63 53bd
0.13482851 0.051481467 -0.05062043 0.060327426 0.08629922 0.043552093 -0.32452035 -0.059413105
0.06242292 0.01911942 0.091679044 0.05693439 -0.01797632 0.08016437 -0.106111355 0.07481617
-0.033375274 0.06754363 -0.053295575 0.07690224 0.14070077 -0.103302725 0.08605757 -0.04594072
-0.024333438 0.105261326 0.07338704 -0.1479908 0.16885562 0.21073838 0.026459279 0.18385185
0.06449416 -0.14921552 0.06422562 -0.18076906 -0.10270662 -0.013812912 0.17674497 -0.30700362
-0.26134092 -0.09218359 0.020850675 0.030336905 0.084901124 -0.095203556 0.1704878 0.15572952
0.1477823 0.0742472 -0.13144197 0.14159742 0.11291632 0.055135407 0.1628206 0.03192763
-0.31033415 0.022731561 0.08696778 0.13874812 0.17295744 0.026033819 0.10462461 -0.11874715
0.17269333 0.165728 -0.25556526 -0.052364424 0.032868065 0.1700493 0.072137006 -0.07162857
0.013307744 0.026645334 0.020953475 0.04341854 0.053135667 0.02613772 0.045384534 0.21889468
0.14529331 -0.003601832 0.005678208 -0.043897096 0.085623905 -0.12546426 0.17531964 0.030040482
-0.011868245 -0.13242507 0.011233982 -0.13327342 0.16332458 -0.009866485 -0.29532498 0.14856744
-0.10394557 -0.026818871 0.18589534 -0.06626743 0.013589122 -0.064333014 -0.027783414 0.13407125
-0.10135085 0.037664823 -0.020396018 0.020929912 0.18658713 -0.0031187993 -0.072754025 0.09247513
0.10239905 -0.27869904 0.078835465 -0.18570001 0.030950798 -0.09700544 0.051718023 -0.41657504
0.115198374 -0.014606024 -0.12155429 -0.017296785 0.023114858 0.04315979 -0.32544288 -0.051608257
