Gym-DDPG-solution/results/DDPG_HalfCheetah-v4_6000-eps0.3-t32-l0.0001-s1.pth (torch, 193979 bytes, 13 tensors)

layers.0.weight f4 [128, 23]
0	0x3ea9db70	0.3317523
1	0xbdb85d09	-0.0900212
2	0x3e05673d	0.13027664
3	0x3e683f16	0.22680315
4	0xbebde6f3	-0.37090263
5	0x3f0af7fe	0.54284656
6	0x3e80d40e	0.25161785
7	0x3e5f631c	0.21815151
8	0xbd9bf490	-0.07615006
9	0x3e0269e6	0.1273571
10	0x3d97b00e	0.07406627
11	0xbb58ee1c	-0.0033100909
12	0x3c9e817e	0.019348856
13	0xbbb1e073	-0.0054283678
14	0x3c605480	0.013692021
15	0xba8befe7	-0.0010676355
16	0xbad74044	-0.0016422351
17	0x3e363d9f	0.17796944
18	0x3e81c78e	0.2534756
19	0x3e138694	0.14406806
20	0xbe0a73e4	-0.13520771
21	0xbe0e2c22	-0.13884023
22	0xbdee85ac	-0.1164659
23	0xbe7c471a	-0.24636498
24	0xbe3439e4	-0.17600209
25	0x3eeba3c2	0.46023375
26	0x3dc983d2	0.09839596
27	0xbe23be16	-0.15990481
28	0xbef0958f	-0.46989104
29	0x3eb48d09	0.3526385
30	0x3e43ad40	0.19109058
31	0x3e865644	0.2623769
32	0x3ee0f045	0.4393331
33	0xbe812cc0	-0.25229454
34	0xbd2e7003	-0.04258729
35	0xbdb989fe	-0.09059523
36	0x3c392563	0.011300418
37	0x3d35b9af	0.044366535
38	0x3d2eb878	0.04265639
39	0xbb6aa1bf	-0.0035801975
40	0x3df01e94	0.11724582
41	0xbe37e1fd	-0.17957301
42	0x3dda865e	0.1067016
43	0xbf2e5ae7	-0.68107456
44	0xbdb5b6d1	-0.0887276
45	0xbd78431a	-0.060610868
46	0x3ed81df9	0.42210367
47	0x3e138851	0.1440747
48	0xbec01b53	-0.37520847
49	0x3d88e0f9	0.06683535
50	0xbe2694ce	-0.16267702
51	0x3d078b10	0.033091605
52	0x3ea73055	0.32654062
53	0x3ea64ae8	0.32479024
54	0x3ebf57fe	0.3737182
55	0x3ecc97c2	0.39959532
56	0x3e832a58	0.25618243
57	0x3d0a9c6d	0.033840586
58	0x3d0f8411	0.035038058
59	0x3c62cd1c	0.013842847
60	0x3d64988b	0.05580954
61	0x3d0a601d	0.033783067
62	0x3be4ea26	0.0069859205
63	0x3eae4de2	0.34043795
64	0xbe460972	-0.1933954
65	0xbbbb6a6e	-0.0057194745
66	0xbe013dcb	-0.12621228
67	0x3d474af7	0.048655476
68	0xbd1424cf	-0.036167916
69	0xbf0c7c47	-0.5487713
70	0x3d8aa40c	0.06769571
71	0xbe05844e	-0.13038751
72	0xbd896937	-0.06709521
73	0x3d92b853	0.07164063
74	0x3d0b13c2	0.03395439
75	0xbe00e546	-0.12587461
76	0x3e3ff567	0.18745957
77	0x3e9b0eac	0.3028463
78	0xbf071302	-0.5276338
79	0x3dfc5090	0.123200536
80	0xbdad58d5	-0.08464209
81	0xbd971da6	-0.07378702
82	0x3c1ed647	0.009694642
83	0x3ccd5741	0.02506602
84	0x3d5f0a57	0.05445322
85	0x3d0ecbc5	0.0348623
86	0xbecd80bb	-0.40137276
87	0x3ce18a83	0.027531868
88	0x3c878a0b	0.016545316
89	0x3e1b97ee	0.15194675
90	0x3e39d28f	0.18146728
91	0xbe2abee9	-0.16674389
92	0x3f39d320	0.72587776
93	0x3ddbbfc1	0.107299335
94	0xbeef779b	-0.4677094
95	0xbed40534	-0.4141022
96	0x3dbf50a2	0.09341551
97	0xbc056702	-0.008142235
98	0xbd965cf1	-0.07341946
99	0xbdd53af1	-0.10411633
100	0x3e71b625	0.23604639
101	0x3d9e4e8f	0.077298276
102	0x3e77d473	0.24202137
103	0x3c93dbd7	0.018049164
104	0x3c79855d	0.01522955
105	0x3c03fae5	0.008055423
106	0x3d18b052	0.037277527
107	0x3cdaf96e	0.026730265
108	0xbbbc96d7	-0.005755286
109	0x3dbbe4ac	0.09174475
110	0xbce2a052	-0.027664337
111	0x3de469a7	0.11152964
112	0x3e61dc1e	0.22056624
113	0xbde85e6e	-0.11346136
114	0x3daa4bee	0.08315264
115	0x3f40ecfd	0.75361615
116	0x3d1fb133	0.03898735
117	0xbea10ed8	-0.31456637
118	0xbe8f7254	-0.28016913
119	0xbe8c7b07	-0.27437612
120	0xbd825ff1	-0.063659556
121	0xbdce00c8	-0.10058743
122	0x3e2ebabd	0.17063423
123	0xbd0c0aeb	-0.0341901
124	0xbe1b0491	-0.1513846
125	0xbe815240	-0.25258064
126	0xbd427639	-0.047476027
127	0xbd162653	-0.036657643
128	0xbb48314d	-0.0030546964
129	0x3c0aa965	0.008463238
130	0x3bcaae2b	0.006185313
131	0x3c12351e	0.008923797
132	0x3e1fc8e2	0.15603974
133	0x3e2d19ad	0.16904326
134	0x3de6edc6	0.112758204
135	0x3e4a5a46	0.19760999
136	0x3c54443e	0.012955723
137	0x3cf936e6	0.030421685
138	0xbcdc319d	-0.026879126
139	0xbee794d9	-0.4523075
140	0xbd90d82a	-0.0707248
141	0xbe260bbb	-0.16215412
142	0xbec448ac	-0.38336694
143	0xbdbfa984	-0.093585044
144	0x3daf2287	0.085515074
145	0x3e55ad5f	0.20866917
146	0x3e98682d	0.2976698
147	0x3d9acce3	0.0755861
148	0x3d8e0b15	0.069357075
149	0x3ca41f99	0.020034598
150	0x3c322926	0.010874068
151	0x3db704c7	0.08936458
152	0x3c1ba9e1	0.0095009515
153	0x3bafd39a	0.005365801
154	0xbae3a197	-0.0017366883
155	0xbeca3a2a	-0.394975
156	0xbcc1e47a	-0.023668516
157	0xbe176155	-0.14783223
158	0x3dd03d84	0.10167983
159	0xbdc30589	-0.0952254
160	0x3d9ab1ee	0.07553469
161	0x3f1501dc	0.5820596
162	0xbd8f4ec4	-0.06997445
163	0x3f28a67a	0.65879023
164	0x3e28a819	0.16470374
165	0xbbf27b3c	-0.0073999446
166	0xbe144b3c	-0.14481825
167	0xbe8211eb	-0.25404295
168	0xbe59b88d	-0.21261807
169	0x3cd41066	0.025886726
170	0x3d8b42b9	0.06799836
171	0x3d887161	0.0666225
172	0xbcbe5949	-0.023235934
173	0x3cd8c6b6	0.02646194
174	0xbbbc6ece	-0.0057505136
175	0x3dbd573d	0.09245155
176	0x3d0f22d0	0.03494531
177	0x3c7b616f	0.015343054
178	0xbead4bc4	-0.33846867
179	0x3d5ca889	0.053871665
180	0xbda58081	-0.08081151
181	0xbb720aa7	-0.0036932619
182	0xbd946df2	-0.07247533
183	0xbbc632bf	-0.00604853
184	0xbe63f702	-0.22262195
185	0x3e00095f	0.12503575
186	0xbf8ba083	-1.0908359
187	0xbe498f18	-0.19683492
188	0x3d8f4a4f	0.06996595
189	0xbedac529	-0.42728546
190	0x3e463f51	0.19360091
191	0xbe8f29aa	-0.27961475
192	0xbe23adcc	-0.15984267
193	0xbd77316d	-0.06034987
194	0x3e56770e	0.20943853
195	0xbdb6e1b4	-0.08929768
196	0x3c3bd230	0.011463687
197	0xbcf94b28	-0.030431345
198	0x3dedd4bc	0.116128415
199	0x3d48175a	0.048850395
200	0x3cfbca1a	0.030736018
201	0xbe907ad0	-0.28218699
202	0x3d990f5a	0.07473631
203	0xbd9c0068	-0.07617265
204	0x3e59830f	0.21241401
205	0x3e564848	0.2092601
206	0x3e66aed0	0.22527623
207	0x3f08854b	0.5332839
208	0xbd254e3b	-0.04035781
209	0xbeeb75b7	-0.45988247
210	0x3f39552b	0.7239558
211	0x3e303361	0.172071
212	0xbe81bbc4	-0.25338566
213	0x3e166d40	0.14690113
214	0xbeaf8d20	-0.34287357
215	0x3eae5c5b	0.34054837
216	0xbf2a252c	-0.6646297
217	0xbe77aba5	-0.24186571
218	0x3d8a8068	0.06762773
219	0x3d32b99b	0.04363404
220	0x3c64fdc7	0.013976521
221	0x3d67d610	0.05660063
222	0xbc3038bc	-0.010755714
223	0xbca3eea7	-0.02001126
224	0x3e2f10fc	0.17096323
225	0x3e1eda90	0.15513062
226	0xbe823933	-0.25434265
227	0x3fc3c7bf	1.5295333
228	0x3e170b06	0.14750299
229	0x3e79b7d1	0.24386527
230	0x3e8f9127	0.2804043
231	0xbe9bf999	-0.30463865
232	0x3f5fb68d	0.87387925
233	0x3e5ec88f	0.21756195
234	0xbbaea93d	-0.0053302334
235	0x3dc66d5b	0.09688827
236	0x3eceb2c7	0.4037077
237	0x3e6ea5b6	0.23305401
238	0x3d0f5b29	0.034999046
239	0xbe8ab7b7	-0.27093288
240	0xbea9949f	-0.331212
241	0xbd161827	-0.036644127
242	0x3c11a1e6	0.008888697
243	0xbcd3012d	-0.025757397
244	0xbdb0dca0	-0.08635831
245	0xbd298085	-0.04138233
246	0xbce34bb2	-0.027746055
247	0xbdaa335f	-0.083105795
248	0xbd0f294d	-0.034951497
249	0x3db2ff46	0.08740096
250	0x3cf90834	0.03039942
251	0x3cc5cfca	0.024146933
252	0xbc44bcec	-0.012007933
253	0x3f5bd802	0.85876477
254	0xbdd3bd99	-0.10338897
255	0x3f0c51c9	0.54812294

layers.0.bias f4 [128]
0	0xbdec3bd0	-0.11534846
1	0xbe395e1e	-0.18102309
2	0xbeec88d1	-0.46198133
3	0x3da546fc	0.0807018
4	0xbe1f4f01	-0.15557481
5	0xbe5438df	-0.2072482
6	0xbbe2010f	-0.006897099
7	0xbe414bad	-0.18876524
8	0xbdc121b0	-0.094302535
9	0xbe196c95	-0.14982827
10	0xbe97fbaa	-0.29684192
11	0xbef5663e	-0.47929567
12	0xbdf15f83	-0.117857955
13	0xbe67ad53	-0.22624712
14	0x3d725c92	0.059170313
15	0xbd41ccdf	-0.04731452
16	0x3f1e8198	0.61916494
17	0xbe528a7f	-0.20560645
18	0xbe89412a	-0.2680753
19	0xbeea69c1	-0.4578381
20	0x3f133309	0.5749975
21	0xbe04a33e	-0.12952897
22	0xbe43d794	-0.19125205
23	0xbe763a59	-0.24045695
24	0xbe4c783d	-0.19967742
25	0xbe7a1666	-0.24422607
26	0xbeb42b75	-0.35189405
27	0xbecfcdd8	-0.40586734
28	0xbe3a7e60	-0.1821227
29	0xbce85902	-0.028362755
30	0x3e516790	0.20449662
31	0x3e525ea5	0.20543917
32	0x3e1bee13	0.15227537
33	0xbe1080f7	-0.14111696
34	0xbeb47fbe	-0.3525371
35	0x3e5724e8	0.21010172
36	0xbedfcd7d	-0.43711463
37	0xbea5bf74	-0.3237263
38	0x3e4545a3	0.19264846
39	0xbe2d75f5	-0.16939528
40	0xbdcaebb2	-0.099082366
41	0xbebb2a60	-0.36555767
42	0x3dc7a2d6	0.09747855
43	0xbe0dfb94	-0.138655
44	0xbd3007e2	-0.042976268
45	0xbd1d7b65	-0.038447756
46	0xbeee2721	-0.46514228
47	0xbf185110	-0.5949869
48	0xbe6d821a	-0.23194161
49	0x3eda5dd4	0.4264971
50	0xbeae1199	-0.339978
51	0xbee3b08e	-0.44470638
52	0x3e53aa05	0.20670326
53	0x3ecf0c06	0.4043886
54	0x3f008855	0.50208026
55	0xbea8c759	-0.3296459
56	0xbd0b89e4	-0.03406705
57	0xbe0ff753	-0.1405919
58	0x3eb24a94	0.34822524
59	0x3e5394a8	0.20662177
60	0x3c89b312	0.01680902
61	0x3e15cdfd	0.1462936
62	0xbf0a36c0	-0.5398979
63	0xbd48ef38	-0.04905626
64	0x3c0c4f08	0.008563764
65	0x3ed1b4fd	0.40958396
66	0xbd488b96	-0.048961245
67	0xbe826cae	-0.2547354
68	0xbeb9645a	-0.36209375
69	0xbe9ae35e	-0.30251592
70	0x3e987d64	0.29783165
71	0x3ed7296a	0.42023784
72	0x3f119687	0.5687031
73	0xbe93f846	-0.28900355
74	0x3a6b8f2c	0.0008985873
75	0xbed74b1c	-0.4204949
76	0xbe6b2914	-0.22964889
77	0x3d85d7bd	0.065352894
78	0x3e8cb584	0.27482235
79	0xbd2e60ae	-0.04257267
80	0x3d377499	0.04478893
81	0xbec5e040	-0.38647652
82	0x3e300343	0.17188744
83	0x3e3a9ac2	0.18223098
84	0xbe0bb1cf	-0.13642047
85	0xbe2d86dc	-0.16945976
86	0xbea226f0	-0.31670332
87	0x3e54f9e0	0.20798445
88	0x3ea2e1d4	0.31812918
89	0xbeae8c18	-0.34091258
90	0xbdbe1999	-0.09282226
91	0x3e903fe9	0.2817376
92	0x3bd9c81c	0.0066461693
93	0xbe9ba107	-0.30396292
94	0xbc2ed15d	-0.010670033
95	0xbe23d86d	-0.16000529
96	0xbed28a26	-0.41121024
97	0x3e9e7c2f	0.3095412
98	0x3e099dd6	0.13439116
99	0x3e925d26	0.28586692
100	0x3e7205e1	0.23635055
101	0xbe2592fe	-0.16169354
102	0xbebdba6b	-0.37056288
103	0x3e567d53	0.20946245
104	0x3e9178dc	0.2841252
105	0x3dc9c5cf	0.09852182
106	0xbcbf3aad	-0.023343408
107	0x3d1833d8	0.037158817
108	0xbe8a2000	-0.2697754
109	0xbe193568	-0.14961779
110	0x3e79d500	0.2439766
111	0x3f2272a0	0.63456154
112	0x3e25c4f1	0.16188408
113	0xbc364796	-0.011125466
114	0x3ea230ff	0.31678006
115	0xbf0c7624	-0.5486777
116	0x3e40779a	0.18795624
117	0x3e9aae64	0.30211174
118	0xbbde071f	-0.0067757512
119	0x3ed0a50f	0.4075093
120	0x3e2fee64	0.17180783
121	0xbe299436	-0.16560444
122	0xbe76fca7	-0.24119817
123	0x3cd80455	0.026369253
124	0x3d7551e0	0.059892535
125	0xbea8953d	-0.3292636
126	0xbdecfcec	-0.115716785
127	0xbf265c43	-0.6498453

layers.1.weight f4 [128, 128]
0	0xbc996d5f	-0.01872891
1	0xbdec4251	-0.11536086
2	0xbd6891ce	-0.056779675
3	0x3d2a30ae	0.04155033
4	0xbbdcc1af	-0.006736956
5	0x3c12a4fb	0.008950467
6	0x3d806604	0.06269458
7	0xbba3cb68	-0.004998613
8	0xbc8fd300	-0.017556667
9	0x3e42e33d	0.19031997
10	0xbdeaa824	-0.114578515
11	0x3c155f9c	0.009117033
12	0x3dd5048d	0.104012586
13	0xbd1aac23	-0.03776182
14	0x3c5b1ec5	0.013374035
15	0x3d16b5d9	0.036794517
16	0x3dc886b9	0.09791321
17	0xbdc6a940	-0.097002506
18	0xbdcac696	-0.099011585
19	0x3d0bc82d	0.03412645
20	0xbb83e4d3	-0.0040250807
21	0xbd66de16	-0.05636414
22	0x3d17dcac	0.037075683
23	0xba510251	-0.00079730625
24	0xbc38f1ae	-0.01128809
25	0xbd9f3973	-0.077746294
26	0xbe5cf81d	-0.21579023
27	0xbd0d273c	-0.034461245
28	0x3d592324	0.05301203
29	0xbda1ece7	-0.07906514
30	0xbde66634	-0.112499624
31	0x3df7ecce	0.12105714
32	0xbd83a403	-0.06427767
33	0x3ceb6a07	0.028737081
34	0x3e0075f7	0.12545
35	0xbb969279	-0.0045950976
36	0x3d5f7d29	0.05456272
37	0xbbda9261	-0.0066702818
38	0x3bdbd6c8	0.0067089535
39	0x3beef59e	0.0072924634
40	0x3dc75e86	0.09734826
41	0x3d61bce8	0.055111796
42	0x3c7d42a9	0.015457788
43	0x3b222e6e	0.0024746913
44	0xbd335a6a	-0.043787397
45	0xbd41ee34	-0.04734631
46	0x3d7e72e4	0.062121287
47	0x3c5de6b3	0.0135437725
48	0x394dc286	0.00019622789
49	0x3d03d8c7	0.032189157
50	0x3c65e982	0.014032723
51	0x3d078467	0.033085253
52	0xbd906139	-0.07049794
53	0xbd1cac27	-0.038250115
54	0xbd2ba24b	-0.04190282
55	0xbd811068	-0.06301957
56	0x3ce2abb2	0.027669761
57	0x3e48cb5e	0.19608828
58	0x3daf936f	0.085730426
59	0xbdb8bcb0	-0.09020364
60	0xbd1f00dd	-0.038819183
61	0x3e3b3963	0.1828361
62	0x3dc7a8e1	0.09749008
63	0xbc849155	-0.016182581
64	0x3b743b1e	0.0037266682
65	0xbd53abd3	-0.051677536
66	0x3cfaf477	0.030634148
67	0xbd356155	-0.044282276
68	0x3d908b26	0.070577905
69	0x3ceaa139	0.02864133
70	0x3dbf4fb5	0.09341375
71	0xbd8bbb6c	-0.06822857
72	0xbcb90440	-0.022585034
73	0xbceeb682	-0.02913976
74	0x3c773e7b	0.01509058
75	0xbd59d226	-0.05317893
76	0x3d93d140	0.07217646
77	0xbdcf4a14	-0.10121551
78	0x3e047e21	0.1293874
79	0x3db57415	0.088600315
80	0x3d31faf4	0.04345222
81	0x3e625d3c	0.22105879
82	0x3df8ee3f	0.12154817
83	0x3bdb1a63	0.006686495
84	0xbcc6cfe2	-0.024269048
85	0x3ba879be	0.005141466
86	0xbb1e7111	-0.002417628
87	0xbe1b4fee	-0.1516721
88	0xbd5d10ce	-0.053971104
89	0xbd249fda	-0.04019151
90	0xbcad23f3	-0.021135306
91	0x3dd4c8e5	0.1038988
92	0xbd9ea29e	-0.077458605
93	0xbcbfa13a	-0.023392309
94	0x3dc51ded	0.096248485
95	0x3d9dcf66	0.07705574
96	0xbe0d8b12	-0.13822582
97	0x3dc140f4	0.09436217
98	0x3c9f2608	0.019427314
99	0xbd9ea3cd	-0.07746086
100	0xbca47016	-0.020072978
101	0x3d27f793	0.04100759
102	0xbde9a246	-0.11407904
103	0x3bdd0570	0.006745033
104	0xbdc73c18	-0.09728259
105	0x3d0051a8	0.031327873
106	0x3dc1e3fb	0.09467312
107	0x3ce88405	0.028383264
108	0xbc7f88d2	-0.015596585
109	0xbd9f7a1c	-0.077869624
110	0x3cd0c021	0.02548224
111	0xbe5e2f0c	-0.21697634
112	0x3dc49ae6	0.09599857
113	0xbd05bd10	-0.032651007
114	0xbd70d15f	-0.05879342
115	0x3e0a5460	0.13508749
116	0xbd59c5ae	-0.053167038
117	0xbd03e9d0	-0.032205403
118	0xbd0f96cd	-0.035055924
119	0x3e0a747a	0.13520995
120	0x3d4503d7	0.048099365
121	0xbc94cd23	-0.018164223
122	0xbe145d9d	-0.14488836
123	0x3dbb85a1	0.09156347
124	0xbe248b59	-0.16068782
125	0x3dafb308	0.085790694
126	0x3d50ed81	0.05100775
127	0x3c86e3aa	0.01646598
128	0x3cc89021	0.024482789
129	0x3dc23ce1	0.09484268
130	0x3e0ea3f8	0.13929737
131	0xbc5038ce	-0.012708856
132	0xbd0b7f0d	-0.034056712
133	0x3cfc0f6f	0.030769078
134	0x3d0e1578	0.034688443
135	0x3def9cad	0.116998054
136	0xbdcfcd26	-0.10146551
137	0x3e3e6e68	0.18596804
138	0xbd6450f2	-0.055741258
139	0x3d7ba76d	0.061438967
140	0xbd328a8d	-0.043589164
141	0xbd207340	-0.03917241
142	0xbd13ce75	-0.036085565
143	0x3c8f1704	0.01746703
144	0xbd919ced	-0.07110009
145	0x3d10081c	0.035163984
146	0x3d95ffab	0.073241554
147	0x3cfabd32	0.030607793
148	0xbcb6db26	-0.022321295
149	0x3e38f9d8	0.18064058
150	0xbdca9cac	-0.09893164
151	0xbc09d358	-0.008412205
152	0x381f92a4	3.8045124e-05
153	0x3d87d5b8	0.066325605
154	0xbcde82c8	-0.02716197
155	0x3cc9cf4a	0.024634976
156	0xbbd85af3	-0.006602639
157	0xbdbcb2cc	-0.0921379
158	0xbd9bbe8f	-0.076047055
159	0x3d295640	0.04134202
160	0x3d958ee2	0.07302643
161	0xbaca8462	-0.001545083
162	0x3dda9584	0.10673049
163	0xbdec9bfd	-0.1155319
164	0xbbdfced1	-0.0068300744
165	0x3d8af514	0.06785026
166	0x3d1dd0ca	0.038529195
167	0xbdada1dc	-0.08478138
168	0xbd1befd2	-0.038070507
169	0x3e0b786a	0.13620153
170	0xbc546ff9	-0.0129661495
171	0x3cc741e7	0.024323417
172	0xbdfa6179	-0.12225623
173	0x3d8bee0d	0.06832514
174	0xbdee696b	-0.11641201
175	0x3dc4e8f0	0.09614742
176	0xbd3a6f14	-0.04551609
177	0xbcbccd9e	-0.023047265
178	0xbda53de9	-0.08068449
179	0x3cb2de15	0.021834413
180	0x3c04539d	0.008076576
181	0xbe1f37ed	-0.15548678
182	0xbe903749	-0.2816718
183	0x3d288237	0.041139808
184	0x3c9192b6	0.017770153
185	0x3d86e816	0.06587236
186	0xbbaf9ece	-0.005359507
187	0x3d939313	0.072057866
188	0x3d128f23	0.035781037
189	0xbdd9bb10	-0.106313825
190	0x3d6563c2	0.05600334
191	0x3d0af70c	0.03392701
192	0x3df46cf7	0.11934846
193	0xbe14105c	-0.14459366
194	0x3a81fef6	0.0009917903
195	0xbd7b5972	-0.0613646
196	0x3da7115e	0.081576094
197	0x3dc1b756	0.09458797
198	0xbd042049	-0.032257352
199	0xbe17380a	-0.14767471
200	0xbde731ac	-0.11288771
201	0xbe1bb891	-0.15207125
202	0x3d918dfd	0.0710716
203	0x3d78bcf7	0.060727086
204	0x3e29cf09	0.16582884
205	0xbd8a5165	-0.06753806
206	0x3c9c1325	0.019052098
207	0x3cd292fa	0.02570485
208	0x3cb089f4	0.021550156
209	0x3d61e5cd	0.055150796
210	0xbd0258a5	-0.03182282
211	0xbd9fe3f6	-0.07807152
212	0xbca21dc6	-0.019789588
213	0x3d91a402	0.0711136
214	0x3d95e368	0.07318765
215	0xbcea3247	-0.028588427
216	0x3d4ab4c5	0.0494888
217	0x3d6f6e48	0.05845478
218	0xbd8f7773	-0.07005205
219	0x3cfbf6ac	0.03075727
220	0x3c7770bb	0.015102561
221	0x3d45e34d	0.048312474
222	0xbdb5fffe	-0.08886717
223	0xbda293ef	-0.07938372
224	0x3df1ce3b	0.118069135
225	0xbdadb9e0	-0.084827185
226	0xbdee4cd3	-0.11635747
227	0xbd825e91	-0.06365693
228	0xbd8589db	-0.065204345
229	0x3d5dde2c	0.054166958
230	0x3c10a088	0.008827336
231	0x3d28899c	0.04114686
232	0xbcc636ca	-0.024196047
233	0xbdec03fa	-0.11524196
234	0xbcc64bd0	-0.024206072
235	0xbd1bed12	-0.038067885
236	0x3aa7bc25	0.001279716
237	0xbc47b5c9	-0.012189337
238	0xbe17b4e5	-0.148151
239	0xbd49bcd3	-0.049252342
240	0x3d58cd93	0.052930426
241	0xbd8efda8	-0.06981975
242	0x3d2be79a	0.04196892
243	0x3daca8a5	0.08430604
244	0xbd222a2c	-0.039591
245	0x3d64b888	0.055840045
246	0xbdbe00c9	-0.092774935
247	0xbc8bb82b	-0.017055592
248	0x3d3166f5	0.043311078
249	0x3d906503	0.070505165
250	0xbd8308cc	-0.06398162
251	0xbd210427	-0.0393106
252	0xbd54fa24	-0.051996365
253	0xbcfc0c54	-0.030767597
254	0x3d6e26f7	0.05814263
255	0x3df32871	0.11872948

layers.1.bias f4 [128]
0	0xbd9cf40c	-0.07663736
1	0xbdd95861	-0.1061256
2	0xbd9a675b	-0.07539245
3	0xbd315b1e	-0.043299787
4	0x3d692dbf	0.056928392
5	0xbd91b69f	-0.0711491
6	0x3e245dc2	0.16051391
7	0x3e16b708	0.14718258
8	0xbd8a1b6e	-0.06743513
9	0xbdbcfe30	-0.0922817
10	0x3dc311b3	0.0952486
11	0xbd1011d2	-0.035173245
12	0xbb939027	-0.0045032683
13	0xbbcfc72a	-0.006340881
14	0x3e0227cb	0.12710492
15	0xbc384739	-0.01124745
16	0xbca0f4d0	-0.019647986
17	0x3cc7bf15	0.024383107
18	0x3c99d76b	0.018779477
19	0x3d07d22d	0.033159424
20	0x3dc75c2a	0.09734376
21	0x3e1cbe28	0.15306914
22	0xbccd889a	-0.02508955
23	0x3e1e7031	0.15472485
24	0x3e4555fd	0.19271083
25	0x3d790c56	0.06080278
26	0xbdfaad70	-0.12240112
27	0xbdf70eb2	-0.1206335
28	0x3c133cd2	0.008986669
29	0x3e0f9e24	0.1402517
30	0xbc28696f	-0.010279044
31	0xbdc1a73a	-0.09455724
32	0xbe3289db	-0.174354
33	0x3d9cb3b6	0.07651465
34	0xbc80f430	-0.015741438
35	0x3cd6ed7b	0.026236286
36	0x3d17bc1f	0.03704464
37	0xbe2ab297	-0.16669689
38	0x3dfb3173	0.12265291
39	0x3e130dd7	0.14360748
40	0xbcd67ec5	-0.026183495
41	0x3dc1ed78	0.09469122
42	0x3e126cb7	0.14299284
43	0xbbbc31b4	-0.0057432298
44	0xbe1b6dc2	-0.15178588
45	0x3c373ff7	0.011184684
46	0x3c503402	0.012707712
47	0xbdf134dd	-0.11777661
48	0xbdb678d8	-0.08909768
49	0x3c8cff2f	0.017211525
50	0xbdfbd894	-0.122971684
51	0xbd2d572d	-0.042319465
52	0xbd5b8e62	-0.053602584
53	0xbe059ae3	-0.13047366
54	0x3d612e62	0.054975875
55	0xbdecc352	-0.11560692
56	0x3e0347f0	0.1282041
57	0xbe270a4d	-0.16312523
58	0xbc1bc7e9	-0.0095081115
59	0xbdd87f64	-0.10571173
60	0xbe503e77	-0.20336328
61	0x3da25d88	0.07927996
62	0xbdef0468	-0.11670762
63	0xbcee81d4	-0.029114641
64	0xbe1632a2	-0.14667752
65	0xbdb8e8ef	-0.090288036
66	0x3d589280	0.05287409
67	0x3c632a7f	0.013865112
68	0x3a1ce275	0.00059846725
69	0xbe03e654	-0.12880832
70	0xbe33f84f	-0.17575191
71	0x3d428c11	0.04749686
72	0x3dbb0273	0.091313265
73	0x3d5effdf	0.054443236
74	0xbd53f202	-0.05174447
75	0xbcf94eaa	-0.030433018
76	0xbe4f66ac	-0.2025401
77	0x3e3375c9	0.175254
78	0x3cf2daf5	0.029645422
79	0xbdac53b0	-0.084143996
80	0x3e042dbd	0.12908073
81	0x3c757055	0.014980395
82	0x3e5e2331	0.21693112
83	0x3de6a68f	0.11262237
84	0x3d321df3	0.043485593
85	0xbd7ab523	-0.0612079
86	0xbc1e5dfb	-0.009665961
87	0x3d6298f2	0.05532164
88	0xbcf8c124	-0.030365534
89	0x3de267ea	0.11054976
90	0xbc93b7a9	-0.018031912
91	0x3dee5f96	0.11639325
92	0x3e2fa055	0.17151006
93	0x3d481d87	0.048856284
94	0xbde78c2d	-0.11306033
95	0x3d352999	0.044229124
96	0x3ce82aca	0.028340716
97	0x3d08742e	0.033313923
98	0xbe11215d	-0.14172883
99	0x3d130bef	0.035900053
100	0xbda4fda5	-0.08056191
101	0x3bc4a555	0.0060011544
102	0xbd1c2f5a	-0.038131095
103	0xbe141242	-0.1446009
104	0x3d2d711c	0.042344198
105	0xbdd23b5f	-0.102652304
106	0xbe254f14	-0.16143447
107	0xbe03b383	-0.12861447
108	0x3e07f5c9	0.13277353
109	0x3c7830ae	0.015148325
110	0x3ccc795e	0.024960216
111	0x3ddc7caa	0.10765965
112	0xbcdb9002	-0.026802067
113	0x3d5fdb1d	0.054652322
114	0x3dccb0fa	0.09994693
115	0xbe0b17e2	-0.1358333
116	0xbd269ed9	-0.040678833
117	0xbdcefdf4	-0.101070315
118	0xbe2a3585	-0.16621979
119	0xbc892ac8	-0.016744033
120	0xbdb08b6d	-0.08620343
121	0xbc8ae102	-0.016952995
122	0x3d7fe28c	0.06247191
123	0x3d9bcd6f	0.07607543
124	0xbdbfe01b	-0.093689166
125	0xbe1ae8e3	-0.15127902
126	0x3d24bd22	0.040219434
127	0x3d25166c	0.040304586

layers.2.weight f4 [64, 128]
0	0x3d24d72a	0.04024426
1	0xbe7facf0	-0.24968314
2	0xbdbd125a	-0.09232016
3	0x3e494b35	0.19657595
4	0xbe52be96	-0.20580515
5	0xbde6cead	-0.11269889
6	0x3e67a116	0.22620043
7	0x3dcb5f36	0.099302694
8	0x3eb42d90	0.3519101
9	0x3da02bb0	0.07820833
10	0x3d37d200	0.044878006
11	0x3db89cbf	0.09014272
12	0xbe841fcc	-0.2580551
13	0xbcea49fd	-0.028599733
14	0x3d8ac977	0.067767076
15	0x3d46f2a4	0.048571244
16	0x3c2c086e	0.010500057
17	0x3d9f9adc	0.07793209
18	0x3dbfa46f	0.09357535
19	0x3d38cbe6	0.045116328
20	0xbc83cec2	-0.0160898
21	0x3e7df810	0.2480166
22	0x3d873d0b	0.0660344
23	0x3e6ad6bf	0.22933482
24	0x3d27ed14	0.04099758
25	0x3e065c51	0.13121153
26	0x3d0e9f1d	0.03481971
27	0x3e19be1c	0.15013927
28	0xbd45e851	-0.048317257
29	0xbd81bada	-0.06334467
30	0xbcc7cd01	-0.024389746
31	0x3d318977	0.043343987
32	0xbe10d00c	-0.14141864
33	0x3d41f9de	0.047357433
34	0x3d7858eb	0.060631674
35	0xbd9744b7	-0.07386153
36	0xbe2a56db	-0.16634695
37	0xbc066a7b	-0.008204098
38	0x3dda37dd	0.10655186
39	0x3e660942	0.22464469
40	0xbdcf9f23	-0.10137775
41	0x3db48be7	0.08815747
42	0x3cb3f617	0.02196793
43	0x3d825cfd	0.06365392
44	0xbe273eb5	-0.16332515
45	0x3e211cb3	0.15733604
46	0x3db4f8a3	0.08836486
47	0x3d07e5b5	0.03317805
48	0xbe0a4b06	-0.13505182
49	0xbd9aba94	-0.07555118
50	0x3de42124	0.111391336
51	0x3defc902	0.11708261
52	0xbe2176ad	-0.15767927
53	0x3e3b00a7	0.18261968
54	0x3e1d9057	0.15387093
55	0x3c5d4939	0.013506227
56	0xbd5e59b9	-0.054284785
57	0x3da7e094	0.08197132
58	0xbe30e39e	-0.17274329
59	0xbd3c3da4	-0.045957223
60	0xbd818287	-0.06323724
61	0xbdd8abda	-0.10579653
62	0xbdd10a6c	-0.10207066
63	0x3e9de470	0.30838346
64	0x3ddf3d40	0.109003544
65	0xbe0c807a	-0.13720885
66	0x3c113e48	0.008864947
67	0x3dce2fba	0.10067697
68	0xbdb15a67	-0.08659821
69	0xbde3d293	-0.11124148
70	0xbd376718	-0.044776052
71	0x3e8c77ff	0.274353
72	0x3e193140	0.14960194
73	0xbda5af59	-0.080900855
74	0x3dd23974	0.102648646
75	0xbe5a823a	-0.2133874
76	0x3c9d4ca6	0.019201588
77	0x3d21c728	0.03949657
78	0x3cece11b	0.028915932
79	0xbe108bd4	-0.1411584
80	0x3d393f78	0.045226544
81	0xbd434c56	-0.04768022
82	0x3d1738fc	0.03691958
83	0xbd429322	-0.047503598
84	0xbcd43ce9	-0.02590795
85	0xbec941a6	-0.39307898
86	0xbe8ec697	-0.27885887
87	0x3d35a242	0.044344194
88	0x3dc40125	0.09570531
89	0x3c5e0004	0.013549808
90	0x3e44e740	0.1922884
91	0x3d34560e	0.04402738
92	0x3e0d6457	0.13807808
93	0x3df7e137	0.12103503
94	0xbdd458bb	-0.103684865
95	0x3e217645	0.15767772
96	0xbda7689b	-0.08174249
97	0x3c7d29ba	0.015451843
98	0x3e130681	0.1435795
99	0x3e09d156	0.13458762
100	0xbc969dcd	-0.018385792
101	0x3dfdb94d	0.12388859
102	0xbd32b3b7	-0.04362842
103	0x3d97aed7	0.07406395
104	0xbdd9ae1e	-0.10628913
105	0xbc959066	-0.018257331
106	0xbe1fe194	-0.15613395
107	0xbdaff2e0	-0.085912466
108	0x3e093434	0.1339882
109	0x3db3b26b	0.08774265
110	0x3d05d9a3	0.032678258
111	0x3dafc0b1	0.08581675
112	0x3deac7a5	0.114638604
113	0xbc47f7ad	-0.012205047
114	0xbdaee716	-0.0854017
115	0xbe7daf9c	-0.24774021
116	0x3db89d42	0.090143695
117	0xbd168daf	-0.036756214
118	0xbe15d763	-0.14632945
119	0xbdafcb30	-0.08583677
120	0x3d96f661	0.07371212
121	0x3e4bb5d1	0.19893576
122	0x3a31cadd	0.0006782243
123	0x3dcf4a14	0.10121551
124	0x3d16b89e	0.03679716
125	0xbe1d9b5d	-0.15391298
126	0x3d002c92	0.031292506
127	0xbda13ddd	-0.078731276
128	0xbe12e18e	-0.14343855
129	0x3dfd5bdf	0.12371039
130	0xbdade608	-0.084911406
131	0x3e732865	0.23745878
132	0xbdbd68bc	-0.09248492
133	0x3d75588b	0.059898894
134	0xbdaf8f2b	-0.08572229
135	0x3c48725d	0.012234298
136	0xbe3ad2ce	-0.18244478
137	0xbda23a09	-0.079212256
138	0xbd66e24b	-0.056368154
139	0xbbec8a20	-0.007218614
140	0x3e5a9919	0.21347465
141	0xbecc5335	-0.39907232
142	0xbd083721	-0.0332557
143	0xbd9b1737	-0.07572787
144	0xbdbed39a	-0.093177035
145	0xbd984806	-0.074356124
146	0xbe0f7542	-0.14009574
147	0xbdba2433	-0.09088936
148	0xbd88a9b1	-0.06672991
149	0x3c6a0e71	0.01428567
150	0xbbd18c67	-0.006394911
151	0x3c90eae6	0.017690133
152	0xbd2f9be9	-0.042873297
153	0x3d7245c0	0.05914855
154	0xbc0806ee	-0.008302433
155	0xbdc264f1	-0.09491909
156	0xbe940c9b	-0.28915867
157	0xbdfe621a	-0.12421055
158	0x3e80df3c	0.25170314
159	0x3df10882	0.11769201
160	0x3c893063	0.016746705
161	0x3d99545f	0.07486796
162	0xbcd92583	-0.026507145
163	0x3e916314	0.28395903
164	0x3ef660ff	0.48120877
165	0x3ccf7f94	0.025329389
166	0xbd390317	-0.045168962
167	0x3bd25c6c	0.006419709
168	0xbeb9a32e	-0.3625731
169	0xbd50c71d	-0.05097114
170	0xbde983c2	-0.11402084
171	0x3e2348c5	0.15945728
172	0x3e93c3c2	0.2886029
173	0x3e5b8383	0.21436886
174	0x3ccb675b	0.024829557
175	0xbdd2d27d	-0.10294054
176	0xbbbd8242	-0.00578335
177	0xbd76adb7	-0.06022426
178	0x3d00bbb9	0.031429026
179	0xbdfada3e	-0.12248658
180	0x3bc51247	0.0060141417
181	0xbd8b610e	-0.06805621
182	0x3c67dd9b	0.014151956
183	0xbdc13962	-0.09434773
184	0x3e39c31c	0.18140835
185	0x3e04b777	0.12960611
186	0x3e9262c5	0.2859098
187	0xbe800511	-0.25003865
188	0x3b857930	0.0040732846
189	0x3dd735fa	0.10508342
190	0xbd9f2755	-0.07771174
191	0xbd9b0077	-0.07568448
192	0x3d601174	0.054704145
193	0xbd56ea22	-0.05246938
194	0x3e1a95b6	0.15096173
195	0x3e61cc2c	0.22050542
196	0xbbf15a04	-0.007365467
197	0xbdbab8cc	-0.091172785
198	0xbd03fe8c	-0.032225177
199	0x3d2e6923	0.042580735
200	0x3e3c710d	0.184025
201	0x3e5a6023	0.21325736
202	0x3e03fb7d	0.12888904
203	0x3dbf76c2	0.09348823
204	0xbd87cd26	-0.06630926
205	0x3c972c24	0.018453665
206	0x3e58bfe2	0.21166947
207	0xbdb0a1d5	-0.08624617
208	0xbdfdd22a	-0.12393601
209	0x3e89715f	0.26844308
210	0x3dc2f4a3	0.09519317
211	0xbca734b0	-0.020410866
212	0xbdcfaee8	-0.101407826
213	0x3e395455	0.18098576
214	0x3e83303e	0.25622743
215	0x3d3d3ae1	0.04619873
216	0x3e712546	0.23549375
217	0x3c85a992	0.016316209
218	0xbe3c2ef7	-0.1837729
219	0xbcbe43ee	-0.02322575
220	0xbdbc12f9	-0.09183306
221	0x3d52d9d1	0.051477257
222	0x3d4d0e71	0.0500626
223	0xbc4d1357	-0.012516818
224	0xbd2228dd	-0.03958975
225	0x3d174fb4	0.036941245
226	0x3e4fb001	0.20281984
227	0x3ded7dcb	0.11596259
228	0x3c3aee60	0.011409372
229	0xbd150170	-0.036378324
230	0xbdce4494	-0.10071674
231	0xbe17fafc	-0.14841837
232	0x3de07ffc	0.10961911
233	0xbeb028df	-0.34406182
234	0xbe1a3e63	-0.15062861
235	0x3e099ec4	0.1343947
236	0xbd0cf80d	-0.034416247
237	0x3d78040f	0.060550746
238	0x3e0e5362	0.13898996
239	0xbe78a7b9	-0.24282731
240	0xbe9b4d45	-0.3033239
241	0x3e2f1769	0.17098774
242	0x3d8a916f	0.067660205
243	0x3e91ad81	0.28452685
244	0x3d8e53e9	0.06949598
245	0x3cd7d586	0.026346933
246	0x3d266f49	0.040633474
247	0xbe873c8e	-0.26413387
248	0x3c8e1999	0.01734619
249	0xbe44ffa6	-0.19238147
250	0x3d457d9c	0.048215494
251	0xbf133e9b	-0.57517403
252	0xbc3494dc	-0.011021819
253	0x3d4b3df4	0.04961963
254	0xbe26801e	-0.1625981
255	0xbe78c5da	-0.24294224

layers.2.bias f4 [64]
0	0x3dc0acd0	0.09407961
1	0xbd5e9877	-0.05434462
2	0xbbb188f8	-0.0054179393
3	0x3d43fec2	0.047850378
4	0xbc25b754	-0.01011451
5	0x3c1da861	0.009622664
6	0xbd3beeac	-0.045881912
7	0x3ce2b021	0.027671875
8	0xbd25f289	-0.040514503
9	0xbce42d6b	-0.027853688
10	0xbcb2afbe	-0.021812316
11	0xbca36ce8	-0.019949391
12	0xbd8e112d	-0.0693687
13	0xbd303c2e	-0.04302614
14	0xbb92a9dd	-0.0044758157
15	0x3d900ec3	0.070340656
16	0xbcddf1f9	-0.02709292
17	0x3dd0f6fb	0.10203358
18	0x3d2917a1	0.0412823
19	0xbd908d83	-0.07058241
20	0x3d7ffa2d	0.062494446
21	0x3d8063aa	0.062690094
22	0xbd98134e	-0.07425557
23	0xbdd91190	-0.10599053
24	0x3d84884d	0.0647131
25	0xbdb1db3d	-0.086843945
26	0x3bb2ba72	0.005454355
27	0xb8630034	-5.4121207e-05
28	0x3ddcc68d	0.10780058
29	0xbdb4ed37	-0.08834308
30	0x3d57fd2d	0.05273168
31	0xbe081060	-0.13287497
32	0x3ddb72ea	0.107152775
33	0x3d70fe3f	0.058836218
34	0x3d897d03	0.06713297
35	0xbc246984	-0.0100349225
36	0x3d980b00	0.07423973
37	0xbcf6d85c	-0.030132465
38	0xbcc6bdb8	-0.024260387
39	0x3c70cc94	0.014697213
40	0xbd83b57e	-0.06431101
41	0x3d47cc4f	0.04877883
42	0x3a2157f2	0.00061547675
43	0x3c890cb3	0.016729688
44	0xbdadb53d	-0.08481834
45	0xbd33d258	-0.04390177
46	0xbd6126bc	-0.05496858
47	0xbe2ecca4	-0.17070252
48	0x3dd16e33	0.10226097
49	0xbd387f70	-0.04504341
50	0x3d093771	0.03350014
51	0xbd00177c	-0.031272396
52	0xbc93b86d	-0.018032277
53	0x3e2ad71c	0.1668362
54	0xbd9c5fc6	-0.07635455
55	0xbd4d5889	-0.05013326
56	0x3d975555	0.07389323
57	0xbe0393b2	-0.1284931
58	0xbd6b14a8	-0.057392746
59	0x3d46665c	0.04843746
60	0xbe22d0fb	-0.15900032
61	0xbe071082	-0.13189891
62	0x3b8505eb	0.0040595434
63	0xbc4d3a37	-0.0125260865

readout.weight f4 [1, 64]
0	0xbf0df487	-0.55451244
1	0xbf00fdca	-0.5038725
2	0xbece4983	-0.4029046
3	0x3ed45576	0.41471452
4	0x3f096d25	0.53682166
5	0x3f1da9ac	0.61587024
6	0xbf18d61e	-0.59701717
7	0xbf1f2013	-0.62158316
8	0x3dea0d0e	0.11428271
9	0x3f2e8666	0.68173826
10	0xbefacf36	-0.48986214
11	0x3f0e7cef	0.55659384
12	0xbeed6ce5	-0.46372142
13	0xbecf1de5	-0.40452495
14	0x3f16224c	0.5864608
15	0xbf157e58	-0.5839591
16	0xbf12bbec	-0.57317996
17	0x3ecd2699	0.4006851
18	0x3f1669c5	0.5875514
19	0xbed7ad3b	-0.42124352
20	0xbf326fde	-0.69701946
21	0x3ee97d30	0.45603323
22	0x3f36f84b	0.71472615
23	0x3ee5b917	0.44867775
24	0xbf369d18	-0.71333456
25	0xbf23de5e	-0.6401118
26	0xbf12ca69	-0.57340103
27	0x3f21bce0	0.63178825
28	0xbf2ae5b6	-0.6675676
29	0x3f186ad1	0.5953799
30	0x3ed58065	0.4169952
31	0x3f146081	0.57959753
32	0xbf1df0d2	-0.6169559
33	0x3f3f7d1a	0.74800265
34	0xbecbfcb8	-0.39841247
35	0xbdc506e1	-0.09620453
36	0x3ec6e344	0.38845265
37	0xbf064127	-0.52443165
38	0xbefd5e99	-0.49486235
39	0x3f451eef	0.77000326
40	0xbf0a868c	-0.5411155
41	0xbf062a34	-0.52408147
42	0xbf3d61b9	-0.7397724
43	0xbf59f952	-0.8514606
44	0x3f00a4ba	0.5025135
45	0x3f319ab6	0.69376695
46	0x3f00c14f	0.50294966
47	0x3f1df012	0.61694443
48	0xbdcd911f	-0.10037445
49	0x3f48d148	0.7844434
50	0x3f18431a	0.5947739
51	0xbed18e88	-0.40929055
52	0xbef1c9a4	-0.47224152
53	0xbf31b04e	-0.69409645
54	0xbed3b86a	-0.41351634
55	0x3ef5edb7	0.48032925
56	0xbdbda925	-0.092607774
57	0x3ee864a7	0.45389292
58	0x3f23283e	0.6373328
59	0xbd1a23eb	-0.03763191
60	0x3d41414b	0.04718141
61	0x3f34595d	0.7044886
62	0xbd4008c8	-0.046883374
63	0x3f13063c	0.5743139

layers.0.weight f4 [128, 17]
0	0x3f0edca3	0.55805415
1	0x3f0c70b4	0.5485947
2	0xbd7dba17	-0.061945047
3	0xbd900a3a	-0.070332006
4	0xbe20db55	-0.15708669
5	0xbe1060d7	-0.14099441
6	0xbe4957f5	-0.19662459
7	0xbe0f0936	-0.13968357
8	0x3df0d302	0.117589965
9	0xbe9d9199	-0.30775145
10	0xbdb50d92	-0.08840479
11	0xbd09aa8f	-0.033609923
12	0x3cfaf2f2	0.030633423
13	0xbd0b6d0e	-0.03403955
14	0xbe3599a5	-0.17734392
15	0xbc6fb75a	-0.014631117
16	0x3d85cf30	0.065336585
17	0x3eef18b5	0.46698537
18	0xbf14e3ea	-0.5816027
19	0xbf24b5a4	-0.6433966
20	0x3e946517	0.28983375
21	0xbe3e06fc	-0.18557352
22	0x3f0c206c	0.5473697
23	0xbdd44dcf	-0.10366403
24	0x3dd6422f	0.10461842
25	0xbee170f2	-0.44031483
26	0xbf2c2f31	-0.6725951
27	0x3e8d3177	0.275768
28	0x3e0564e9	0.13026775
29	0x3e25c49d	0.16188283
30	0x3cd17c52	0.025571976
31	0xbd189c65	-0.037258524
32	0x3c202b4e	0.00977595
33	0x3d315af3	0.043299627
34	0xbdc8321d	-0.09775183
35	0xbf0453d3	-0.51690406
36	0xbed22a73	-0.4104801
37	0x3f1c83af	0.61138433
38	0xbe100681	-0.14064981
39	0x3fdcab68	1.7239809
40	0x3ef079ac	0.46967828
41	0x3e022706	0.12710199
42	0xbec34670	-0.38139677
43	0x3e041f6b	0.1290261
44	0x3ec4036b	0.38283858
45	0xbda1e280	-0.079045296
46	0x3d45f688	0.048330814
47	0xbbad8603	-0.0052955165
48	0x3eb1d9bc	0.3473643
49	0x3d38b61b	0.045095544
50	0x3c54b8ca	0.01298351
51	0xbeaf6105	-0.34253708
52	0xbf32b56e	-0.6980809
53	0x3ed83df5	0.4223477
54	0xbed86ac7	-0.42268965
55	0x3e4f26b2	0.20229605
56	0x3f040452	0.5156909
57	0x3e37de22	0.1795583
58	0xbce4ed36	-0.027945142
59	0x3e13718a	0.1439878
60	0xbd8c5e4c	-0.06853923
61	0xbe827339	-0.25478533
62	0x3db3fc7b	0.08788391
63	0x3d9476e6	0.072492406
64	0xbc02f5a1	-0.007993133
65	0xbc7da19c	-0.015480425
66	0xbdf59809	-0.11991889
67	0xbd0552b3	-0.03254957
68	0x3ec9590b	0.39325747
69	0xbb72bb12	-0.0037037772
70	0x3f8c2e60	1.0951653
71	0xbf2e653d	-0.6812323
72	0x3db464c5	0.08808283
73	0x3f092483	0.5357134
74	0x3f113517	0.56721634
75	0x3e862ebe	0.26207536
76	0x3e8747e5	0.2642204
77	0x3f8d2816	1.1027858
78	0x3e9bd5a9	0.30436447
79	0x3d08d103	0.033402454
80	0xbb940fd6	-0.0045184894
81	0x3c1dc1ee	0.009628756
82	0x3d253608	0.04033473
83	0x3d1a3525	0.03764834
84	0x3c69ed4f	0.01427777
85	0x3e648321	0.22315647
86	0xbea9d1ee	-0.33167976
87	0xbda45c31	-0.080253966
88	0xbcdb2dee	-0.0267553
89	0xbf3e3500	-0.7429962
90	0xbf3d0f52	-0.738515
91	0xbf87c58d	-1.0607163
92	0xbe9b8eb9	-0.30382326
93	0xbed7c353	-0.42141208
94	0x3e380b57	0.17973076
95	0xbe8223bd	-0.2541789
96	0x3d6b2fa2	0.057418473
97	0x3e5bc0bc	0.21460241
98	0x3c930053	0.01794449
99	0x3e67fb64	0.22654492
100	0xbd075081	-0.03303576
101	0x3d8f7459	0.070046134
102	0x3f88ac75	1.067763
103	0xbd15314d	-0.03642397
104	0xbfa1de3f	-1.2645949
105	0x3e3231c1	0.17401792
106	0xbba5161a	-0.005038035
107	0xbf393bbc	-0.7235677
108	0xbec1afcf	-0.37829444
109	0xbe3f4d3f	-0.18681811
110	0xbef87ca8	-0.48532605
111	0x3d2d40a9	0.042297993
112	0xbeb9f064	-0.36316216
113	0x3bf9cf5c	0.007623596
114	0xbc86effe	-0.016471859
115	0xbccc19e5	-0.024914691
116	0x3c81c85f	0.015842615
117	0xbcf7c818	-0.03024678
118	0xbb17ccf0	-0.0023162924
119	0xbeccf900	-0.40033722
120	0x3dabbf3f	0.08386087
121	0xbf833378	-1.0250082
122	0x3e06629f	0.13123558
123	0xbe2135ba	-0.15743151
124	0x3f2f02c4	0.68363595
125	0xbe3215e1	-0.17391159
126	0xbc2a8a8e	-0.010409011
127	0x3e24f8c1	0.16110517
128	0x3eb49310	0.3526845
129	0x3f779c4c	0.96722865
130	0xbcd57143	-0.026054984
131	0x3da7999e	0.08183597
132	0x3c6594d5	0.014012535
133	0x3dcf26d1	0.101148255
134	0x3d93ff4d	0.07226429
135	0x3bcdc9eb	0.006280174
136	0x3ebaab32	0.36458737
137	0xbf5c873e	-0.86143863
138	0x3e86c1b2	0.26319653
139	0xbc9d3ea6	-0.019194912
140	0x3f3a1634	0.7269013
141	0x3bd19b1f	0.0063966657
142	0xbe17b1a5	-0.1481386
143	0xbc1384d3	-0.009003836
144	0xbf7cfe67	-0.9882569
145	0x3dcc59dd	0.099780776
146	0xbd23a7bf	-0.039954897
147	0xbd8e149a	-0.06937523
148	0x3dbb8a2e	0.09157215
149	0x3bc1fe31	0.0059201946
150	0xbdbd9846	-0.092575595
151	0xbd6bbcff	-0.057553288
152	0xbc5a8d4c	-0.013339352
153	0x3e9052c9	0.2818816
154	0xbf3f18b3	-0.74647063
155	0xbe9b9627	-0.30387995
156	0x3eec3011	0.46130422
157	0xbe35a10c	-0.17737216
158	0x3ee3b63a	0.44474965
159	0xbe676265	-0.22596128
160	0xbde481b1	-0.11157549
161	0x3e7e2825	0.24820001
162	0xbf44ee24	-0.76925874
163	0xbf1ac9ca	-0.60464156
164	0xbe082b0d	-0.13297673
165	0xbdb3452f	-0.0875343
166	0x3b773e29	0.003772626
167	0x3d5d78e3	0.054070365
168	0x3c57d6c8	0.013173766
169	0x3d70a84e	0.058754258
170	0xbe2aece0	-0.16691923
171	0xba8eb999	-0.0010889053
172	0x3f21853a	0.6309391
173	0x3ec570d1	0.38562635
174	0xbee0969c	-0.43864906
175	0x3f2b57a5	0.6693061
176	0xbe5bd07a	-0.21466246
177	0x3e880fb9	0.26574495
178	0x3f08c8df	0.53431505
179	0xbf7b0c4d	-0.98065645
180	0xbe230d4d	-0.15923043
181	0x3de8bc67	0.1136406
182	0x3e0743af	0.13209413
183	0x3d202925	0.03910174
184	0xbc8a0cea	-0.016851861
185	0x3c502486	0.01270402
186	0x3d001811	0.03127295
187	0x3f129c98	0.57270193
188	0xbd8560f5	-0.06512634
189	0x3e75c867	0.24002229
190	0xbf4d6e9a	-0.8024689
191	0x3e876dc2	0.26450926
192	0x3f0b7f1c	0.5449083
193	0x3f4268eb	0.7594134
194	0x3dda7800	0.106674194
195	0xbec2f6a3	-0.38078794
196	0x3f54cb48	0.8312268
197	0xbe721c01	-0.23643495
198	0x3d573fd1	0.052551094
199	0xbd317bfd	-0.043331135
200	0x3bd9c6b2	0.006646001
201	0xbd3cb7ef	-0.04607385
202	0xbc0a0625	-0.0084243165
203	0xbb5bf2df	-0.003356151
204	0x3f855d7b	1.0419153
205	0xbd028e0a	-0.03187374
206	0xbeaedd56	-0.3415324
207	0xbe2674b9	-0.16255464
208	0xbd62c182	-0.055360325
209	0xbfa9daf6	-1.3269947
210	0xbeb20601	-0.34770206
211	0xbe72bc64	-0.23704678
212	0x3f33fe7e	0.703102
213	0x3f44dc74	0.76898885
214	0x3f0893ec	0.5335071
215	0x3cac5249	0.02103533
216	0xbb2542cc	-0.0025216816
217	0xbcedd226	-0.02903087
218	0x3d71b860	0.059013724
219	0x3d9061dd	0.07049916
220	0x3d403c53	0.04693253
221	0xbf153902	-0.5829011
222	0x3e8e1974	0.27753794
223	0x3e17f2d0	0.1483872
224	0x3f0a82b0	0.54105663
225	0x3dae4f20	0.08511186
226	0x3f70d3af	0.94073004
227	0x3f8ce838	1.1008368
228	0x3f1e44e1	0.6182385
229	0xbef290ba	-0.47376043
230	0x3e6c339a	0.2306656
231	0xbee2935d	-0.44253054
232	0x3d2ff5f0	0.042959154
233	0x3c2c8689	0.010530123
234	0xbbdfabac	-0.006825885
235	0xbcb03011	-0.021507295
236	0xbe031a92	-0.12803105
237	0xbd27517d	-0.040849198
238	0x3f695955	0.91151935
239	0xbf75ce1f	-0.9601764
240	0xbf45a7d8	-0.77209234
241	0xbf000735	-0.50011
242	0xbed1bb15	-0.40963045
243	0xbe905254	-0.2818781
244	0x3e94db83	0.29073724
245	0xbbc14df5	-0.005899186
246	0xbea422ce	-0.32057804
247	0x3f0d1877	0.55115455
248	0x3dabb3c6	0.083838984
249	0xbe0992a7	-0.1343485
250	0x3c5b4d8f	0.013385191
251	0xb9a56ef7	-0.00031553928
252	0xbe8621db	-0.26197705
253	0xbd862133	-0.06549301
254	0xbdaa5e6d	-0.083187915
255	0xbebaf9ec	-0.365188

layers.0.bias f4 [128]
0	0x3e42fc8f	0.19041656
1	0x3f6225b1	0.8833876
2	0x3cd1864b	0.025576731
3	0x3f55b93a	0.8348576
4	0x3f56ef8a	0.8395926
5	0xbeb69f78	-0.3566854
6	0x3f0d4e8d	0.55197984
7	0x3db1c64c	0.086804
8	0xbe579886	-0.21054277
9	0x3ebda046	0.3703634
10	0x3ed1da9b	0.40987095
11	0x3f319ebd	0.6938284
12	0x3f2450fa	0.6418606
13	0x3dfe0bb1	0.12404574
14	0x3b0443de	0.0020182054
15	0xbde409c2	-0.11134674
16	0x3df39a91	0.118947156
17	0x3d5b39ac	0.053521797
18	0x3f34ee14	0.7067578
19	0x3f0a5d3d	0.5404852
20	0x3f17d78c	0.59313273
21	0x3fa985c0	1.3243942
22	0x3d92b548	0.07163483
23	0x3ebd50b7	0.36975643
24	0xbe583280	-0.21113014
25	0x3e76dd03	0.24107747
26	0x3e38d869	0.18051304
27	0x3f55f1b7	0.8357195
28	0xbe3ef76d	-0.18649073
29	0x3eda4913	0.42633876
30	0xbe351677	-0.17684351
31	0xbde26ded	-0.11056123
32	0x3dbbda80	0.09172535
33	0x3eb89a64	0.3605529
34	0x3c13b2ca	0.009014795
35	0xbe756dd0	-0.23967671
36	0xbf35eebb	-0.710674
37	0x3f282b4d	0.6569107
38	0x3e1f18e5	0.1553684
39	0xbebb660a	-0.36601287
40	0xbdfae274	-0.12250224
41	0x3ebf0ea7	0.37315866
42	0xbebbe29d	-0.3669633
43	0x3da85582	0.08219434
44	0x3ed8742d	0.42276135
45	0x3e09fe38	0.13475883
46	0x3f1f371a	0.62193453
47	0x3f83bf2c	1.0292716
48	0x3eb2e822	0.34942728
49	0x3e1297f0	0.14315772
50	0xbd5d2133	-0.05398674
51	0xbeba5de2	-0.36399752
52	0x3eafd298	0.34340358
53	0xbf0a942e	-0.54132354
54	0xba46ff90	-0.00075911824
55	0xbea04e7b	-0.31309876
56	0x3e6953d4	0.22785884
57	0xbe9e7d87	-0.30955145
58	0x3e425787	0.18978702
59	0xbe5e37b5	-0.21700938
60	0x3ee56b38	0.44808364
61	0x3ebdc9af	0.37067935
62	0xbe9fbbd4	-0.3119799
63	0x3f8e1300	1.1099548
64	0xbee5f46c	-0.44913042
65	0x3df854da	0.12125559
66	0xbecbd1e3	-0.39808568
67	0xbe9ad5cb	-0.30241236
68	0xbe3a1531	-0.18172146
69	0xbdb42e55	-0.087979
70	0x3f23a137	0.6391787
71	0x3f342eec	0.703841
72	0xbeb6cabb	-0.35701546
73	0xbdc47ea3	-0.095944665
74	0xbe52553d	-0.20540328
75	0x3eb118a8	0.34589124
76	0x3df31890	0.11869919
77	0x3e092b7b	0.13395493
78	0x3eb20679	0.34770563
79	0xbe6b28b5	-0.22964747
80	0xbec7f4bf	-0.39053914
81	0xbf005179	-0.5012432
82	0xbebc3b76	-0.36764115
83	0x3dddcf0b	0.10830506
84	0x3efe9779	0.4972494
85	0x3d859d4f	0.06524145
86	0x3e8b9707	0.27263662
87	0xbe46bdf9	-0.19408406
88	0xbebadd0d	-0.36496773
89	0x3ead1cee	0.33811134
90	0xbe674953	-0.22586565
91	0x3e80df45	0.2517034
92	0x3e139554	0.14412433
93	0x3f809d8a	1.0048077
94	0x3f2aa490	0.6665735
95	0xbe8c8039	-0.27441576
96	0xbe4fadbf	-0.20281123
97	0xbf2d0686	-0.6758808
98	0xbe64cd6b	-0.22343986
99	0x3f50bc20	0.81537056
100	0x3de8a159	0.113588996
101	0xbe0a3331	-0.1349609
102	0x3eef9855	0.46795908
103	0x3e28aaed	0.16471453
104	0x3ec6797a	0.38764554
105	0x3c2620c9	0.0101396525
106	0xbea34279	-0.31886652
107	0xbe6d7d6d	-0.23192377
108	0xbea73107	-0.32654592
109	0x3f3bc37d	0.73345166
110	0x3eec9cb9	0.4621332
111	0x3f013cb9	0.5048328
112	0x3ec61ec0	0.38695335
113	0x3efdc9e7	0.49568102
114	0xbebaacdc	-0.36460006
115	0xbc941722	-0.018077437
116	0x3d965f5b	0.07342406
117	0x3f2dbf0b	0.67869633
118	0x3e58de3f	0.2117853
119	0x3ed9222e	0.4240889
120	0x3ed4ce8f	0.41563842
121	0x3e8d0fd8	0.2755115
122	0xbe956c23	-0.29184064
123	0x3d1878f0	0.03722471
124	0x3eb7589a	0.35809785
125	0xbeeaf573	-0.45890388
126	0x3d1ca021	0.03823865
127	0x3f1d1c29	0.61371094

layers.1.weight f4 [128, 128]
0	0x3dcfecd1	0.10152591
1	0xbdc1528a	-0.09439571
2	0x3e5bc827	0.21463071
3	0xbe5e84d8	-0.21730363
4	0x3c701780	0.01465404
5	0x3e3db3f2	0.18525675
6	0x3d2a11aa	0.041520752
7	0xbdbbd196	-0.09170835
8	0x3dad14bd	0.08451221
9	0x3dc0f49c	0.094216555
10	0xbce97a1a	-0.028500605
11	0x3e0b8182	0.13623622
12	0xbea4c390	-0.32180452
13	0x3d98775f	0.07444643
14	0x3c919a50	0.017773777
15	0x3d06a020	0.03286755
16	0x3c3d67cb	0.011560391
17	0x3d7b2005	0.061309833
18	0x3d9d581b	0.076828204
19	0xbd77c78d	-0.06049304
20	0xbdfb07d9	-0.12257356
21	0xbe300556	-0.17189535
22	0x3c9abab8	0.018887863
23	0xbe041743	-0.12899499
24	0xbd9e5f07	-0.07732969
25	0xbe83a37f	-0.25710675
26	0x3e1e3c86	0.15452775
27	0xbef02596	-0.46903676
28	0x3e8b4dd3	0.27207813
29	0x3d368bba	0.044566847
30	0xbe060f46	-0.13091764
31	0x3d927e4a	0.07152994
32	0xbe159f4d	-0.1461155
33	0xbe12d609	-0.1433946
34	0x3a9cf15d	0.0011973787
35	0x3e47b592	0.19502857
36	0x3d478aff	0.04871654
37	0xbd10348b	-0.03520636
38	0xba4cc530	-0.00078113656
39	0xbc0d043f	-0.008606969
40	0x3ddba316	0.107244655
41	0x3d5aa2f2	0.053378053
42	0xbe257d76	-0.16161141
43	0x3dc06f3f	0.093962185
44	0x3d90b48f	0.07065689
45	0xbcac7cdf	-0.021055637
46	0xbd4185fc	-0.047246918
47	0x3dfb9ec4	0.122861415
48	0xbd853890	-0.06504929
49	0xbd75be9f	-0.059996244
50	0xbdbd5a27	-0.09245711
51	0xbdc16703	-0.09443476
52	0xbd8d6ee8	-0.06905919
53	0x3d2163e6	0.03940191
54	0x3cee2a48	0.029072896
55	0xbde13396	-0.10996167
56	0x3d8d65c9	0.069041796
57	0xbd445d34	-0.047940448
58	0xbcc28228	-0.023743704
59	0x3dbd77e0	0.0925138
60	0xbe064c00	-0.13114929
61	0x3c5cc02d	0.013473553
62	0xbd368401	-0.044559482
63	0xbe1f2f55	-0.155454
64	0x3e0e2f7d	0.13885303
65	0x3e199640	0.14998722
66	0x3cdbc62b	0.026827892
67	0x3de6b5df	0.11265158
68	0xbdc67698	-0.09690589
69	0xbd9fb7c0	-0.077987194
70	0xbd7a8b9f	-0.06116831
71	0xbb96195f	-0.004580661
72	0x3d803585	0.06260208
73	0x3e7118b4	0.2354458
74	0x3d9a2e72	0.0752839
75	0x3d9a15e3	0.07523706
76	0x3c860b6f	0.016362874
77	0xbd040049	-0.032226834
78	0xbd8ed148	-0.06973511
79	0x3cb34244	0.021882184
80	0x3d20f748	0.039298326
81	0x3dab7b09	0.083730765
82	0x3b1295d3	0.0022367134
83	0xbc2033e9	-0.009778001
84	0x3e228b2e	0.15873405
85	0x3d5fe143	0.054658186
86	0x3d67faca	0.056635655
87	0x3d128d12	0.035779066
88	0xbb9ac536	-0.0047232164
89	0x3c311fe9	0.010810831
90	0x3d9d30ee	0.07675348
91	0x3bc37ace	0.005965567
92	0xbd19aeb2	-0.037520118
93	0xbe37c968	-0.17947924
94	0xbdbe0248	-0.09277779
95	0xbd09bc81	-0.033627037
96	0xbb73c696	-0.0037197224
97	0x3c913eaf	0.017730085
98	0xbdf9e200	-0.12201309
99	0x3e13c6be	0.14431283
100	0x3dc25574	0.09488955
101	0x3dc9c434	0.09851876
102	0x3dcab962	0.0989864
103	0x3d4f27df	0.050575133
104	0xbd35e854	-0.04441102
105	0xbd7a1e51	-0.06106407
106	0x3ddba942	0.10725643
107	0xbe1b0f4c	-0.15142554
108	0x3e6c71d1	0.23090293
109	0x3d82e69b	0.06391641
110	0xbe119b6d	-0.14219446
111	0x3db70830	0.089371085
112	0xbdbc7375	-0.09201709
113	0xbd7675fe	-0.06017112
114	0x37f44826	2.9120663e-05
115	0xb9a7dc10	-0.00032016682
116	0xbdda4f29	-0.1065963
117	0x3b3cf4d3	0.002883245
118	0x3db91c13	0.09038558
119	0x3e3f360c	0.18672961
120	0x3c16f94b	0.0092147095
121	0xbddac5d3	-0.10682263
122	0xbd9b3c76	-0.075798914
123	0x3d5c6c1e	0.053814046
124	0xbe29e5e1	-0.16591598
125	0x3c8a0f2c	0.016852938
126	0xbd99d0b6	-0.075105116
127	0xbe8038ad	-0.2504324
128	0x3ccd83e8	0.025087312
129	0x3e20488a	0.15652671
130	0x3d9d1131	0.076692946
131	0x3e313578	0.17305553
132	0x3d0e6a19	0.03476915
133	0x3cd6ef69	0.026237207
134	0xbdd0bc42	-0.10192157
135	0xbe6593f9	-0.22419728
136	0xbccc218f	-0.024918346
137	0x3d436852	0.04770691
138	0xbd305dfa	-0.043058373
139	0xbe8298af	-0.25507113
140	0x3bad8f30	0.0052966103
141	0x3db8c886	0.09022622
142	0xbc96803b	-0.018371692
143	0xbccccfda	-0.025001455
144	0xbd8fec86	-0.07027535
145	0xbda3abe1	-0.07991768
146	0x3d932c72	0.07186212
147	0x3d6087ab	0.054816883
148	0xbd0ecc47	-0.034862783
149	0x3dee9469	0.11649401
150	0x3e12af60	0.14324713
151	0xbd8b8caf	-0.06813943
152	0x39323581	0.00016995335
153	0x3d426266	0.04745712
154	0x3cdd8159	0.027039217
155	0x3de15bce	0.110038385
156	0xbcfd75a6	-0.030939888
157	0x3dffa159	0.124819465
158	0x3d95ff78	0.073241174
159	0x3c48c189	0.012253174
160	0x3db99b06	0.090627715
161	0xbe2630ef	-0.16229604
162	0x3dc211f9	0.09476084
163	0x3d018cfd	0.031628598
164	0x3d8a6835	0.06758157
165	0x3e7960ac	0.24353284
166	0x3e1bfda3	0.15233473
167	0xbd8fad0a	-0.070154265
168	0x3d642959	0.055703495
169	0x3dc072d8	0.09396905
170	0xbdf45ce0	-0.11931777
171	0xbbb552e3	-0.0055335625
172	0xbd42bf50	-0.04754573
173	0xbbf12e5f	-0.007360264
174	0x3d09984e	0.033592515
175	0xbe3cc61c	-0.18434948
176	0x3e08852f	0.13332056
177	0x3c46096b	0.012087206
178	0xbc146ada	-0.0090586785
179	0x3d699c2c	0.057033703
180	0xbad26ba3	-0.0016053807
181	0x3d118190	0.03552395
182	0x3d557527	0.05211368
183	0x3daf6319	0.08563823
184	0xbde9c3cd	-0.11414299
185	0xbe2073ed	-0.15669222
186	0x3cd8ac10	0.026449233
187	0x3d01e2a5	0.031710286
188	0xbb895cc1	-0.0041919653
189	0x3dc569a8	0.09639293
190	0x3c56d504	0.01311231
191	0xbc7982e0	-0.015228957
192	0x3da96461	0.08271099
193	0x3c8d47a7	0.01724608
194	0xbc234e81	-0.009967447
195	0xbe96ec0f	-0.29476973
196	0x3d9b8363	0.075934194
197	0x3a4c08aa	0.00077832735
198	0xbdbea088	-0.09307963
199	0xbd754378	-0.059878796
200	0x3e20ca0a	0.15702072
201	0x3a0e3d4c	0.0005426004
202	0x3e1111e3	0.1416698
203	0xbd3d3ba7	-0.046199467
204	0x3d25b3db	0.040454727
205	0x3d032063	0.03201331
206	0xbdd3de9b	-0.10345193
207	0x3e7e5b8f	0.24839614
208	0xbd3c7e26	-0.046018742
209	0xbe02cb0b	-0.12772767
210	0x3dd2a655	0.102856316
211	0x395b35ca	0.00020905506
212	0x3e22716a	0.15863577
213	0x3dbcdd5d	0.09221909
214	0xbb244a55	-0.002506872
215	0x3d0b3159	0.03398261
216	0xbc96108b	-0.018318435
217	0xbd8ffb71	-0.070303805
218	0x3d8b0c5a	0.06789465
219	0xbc89b8e5	-0.016811797
220	0x3c8b4227	0.016999317
221	0x3e29a7f7	0.1656798
222	0x3d5b0961	0.05347574
223	0xbd93e59e	-0.072215304
224	0xbcb3b758	-0.021938011
225	0x3d5fa7e5	0.054603476
226	0xbe412120	-0.18860292
227	0xbcfbb533	-0.030726051
228	0xbd4c9d8f	-0.049954947
229	0xbcefea0b	-0.029286405
230	0xbdee8f08	-0.11648375
231	0xbb397c34	-0.002830279
232	0xbd1823cb	-0.03714351
233	0x3eda95aa	0.4269231
234	0xbd108560	-0.035283446
235	0xbe01dbce	-0.12681505
236	0x3e66fc1a	0.22557107
237	0xbdefc797	-0.117079906
238	0xbe2c7e6e	-0.16845104
239	0xbdb090aa	-0.086213425
240	0x3e043132	0.12909392
241	0xbd311278	-0.043230504
242	0x3db289ab	0.08717664
243	0xbe7cb108	-0.24676907
244	0x3cd59c8b	0.026075622
245	0x3d97891b	0.07399198
246	0x3ca13311	0.01967767
247	0x3d72931d	0.05922233
248	0x3c6a2f7d	0.014293549
249	0x3eabecad	0.33579007
250	0x3de02d2f	0.10946118
251	0x3e17c846	0.14822492
252	0x3d64e7e3	0.055885207
253	0x3ca745f2	0.020419095
254	0x3e381e6d	0.17980357
255	0xbe02b349	-0.12763704
