Gym-DDPG-solution/results/DDPG_HalfCheetah-v4_1500-eps0.1-t32-l0.0001-s1.pth (torch, 193979 bytes, 13 tensors)

layers.0.weight f4 [128, 23]
0	0x3da25e80	0.07928181
1	0xbd53a3a5	-0.051669735
2	0x3a3d00a0	0.0007209871
3	0x3d911617	0.070842914
4	0xbe0a80c7	-0.13525687
5	0x3eae04b6	0.3398797
6	0x3dcd83d7	0.10034912
7	0x3e176726	0.14785442
8	0xbeb0ae98	-0.34508204
9	0x3dc11ed9	0.09429712
10	0x3da8b5a7	0.082377724
11	0x3d019d2f	0.031644043
12	0x3c77fd47	0.01513607
13	0xbd176315	-0.036959726
14	0x3d1033b3	0.035205554
15	0xbcbe5d92	-0.023237977
16	0xbc854e43	-0.01627267
17	0x3d4e9080	0.050430775
18	0x3e4fe6d9	0.20302905
19	0x3e62a777	0.22134195
20	0xbe01bebb	-0.12670414
21	0xbe0833db	-0.13301031
22	0xbd8d3a6c	-0.06895909
23	0xbd52cc11	-0.051464144
24	0xbd080c26	-0.03321471
25	0x3ead8acf	0.33894965
26	0x3ea5cc5f	0.32382485
27	0x3e371c7a	0.17881957
28	0xbe03cc94	-0.12871009
29	0x3e9be23b	0.30446038
30	0xbdc63cd7	-0.09679573
31	0x3ed880bf	0.42285725
32	0x3df17105	0.11789135
33	0xbe9e95a0	-0.3097353
34	0xbd0d7067	-0.034531023
35	0xbd47e5de	-0.048803203
36	0x3d49615d	0.04916512
37	0xbd2cc38b	-0.04217867
38	0x3c89ee3b	0.01683723
39	0xbd6db30c	-0.05803208
40	0x3ef53029	0.47888306
41	0xbb935e5f	-0.004497334
42	0x3e4be1c6	0.19910344
43	0x3da3f8a4	0.08006409
44	0xbea514cf	-0.32242438
45	0x3dda8fdf	0.106719725
46	0x3db6ee43	0.089321636
47	0xbe1c1046	-0.15240583
48	0xbeb91a2c	-0.3615278
49	0x3e5b7771	0.21432282
50	0xbe502443	-0.20326333
51	0xbf359285	-0.70926696
52	0xbe96e161	-0.29468825
53	0xbde6f9af	-0.11278092
54	0x3ec09089	0.37610272
55	0x3eee1937	0.46503612
56	0xbd41907a	-0.047256924
57	0xbcb6ddd4	-0.022322573
58	0x3d48414f	0.048890408
59	0x3ca3d139	0.019997226
60	0xbd547777	-0.051871743
61	0x3963fa0a	0.00021741554
62	0x3cb8a22e	0.02253827
63	0x3e1b337d	0.1515636
64	0xba39db98	-0.0007089912
65	0xbddff855	-0.109360375
66	0x3be034fb	0.0068422533
67	0xbe1c971a	-0.15292016
68	0xbcb8667e	-0.02250981
69	0xbdec7690	-0.115460515
70	0x3c8da545	0.01729072
71	0xbd8402f9	-0.064458795
72	0x3e1c2c2c	0.15251225
73	0x3de4beae	0.11169182
74	0x3d51b8ad	0.05120151
75	0x3d40178b	0.046897452
76	0x3d68f0e8	0.05687037
77	0xbd9a2144	-0.07525876
78	0xbebe5355	-0.37172952
79	0x379d70b2	1.8768336e-05
80	0xbe701e40	-0.2344904
81	0xbde8e557	-0.11371868
82	0xbcc0aa46	-0.023518693
83	0x3d2a74bc	0.041615233
84	0x3d79bfa4	0.06097378
85	0x3ca4beb4	0.020110466
86	0xbe88e9d8	-0.2674091
87	0x3e14062e	0.14455482
88	0x3d04462d	0.032293487
89	0x3e383fef	0.17993139
90	0x3e3755a7	0.17903768
91	0xbe2cdbd9	-0.1688074
92	0x3e1eff05	0.1552697
93	0x3df7c4a7	0.12098055
94	0xbe2ac4fd	-0.16676708
95	0xbcd447f6	-0.02591322
96	0x3df43220	0.11923623
97	0x3dcbff5b	0.099608146
98	0xbdf59e6b	-0.119931065
99	0xbdd44768	-0.10365182
100	0x3eac1149	0.33606938
101	0xbd0c27ed	-0.034217764
102	0x3e3f2fc6	0.18670568
103	0x3d98f540	0.07468653
104	0xbe0c83d8	-0.1372217
105	0xbd8be263	-0.06830289
106	0x3df4469e	0.11927532
107	0x3cd2dc29	0.025739746
108	0x3d8c8361	0.06860996
109	0x3dba4b8d	0.090964414
110	0x3d82b660	0.063824415
111	0x3dd74c76	0.10512631
112	0x3e606d70	0.21916747
113	0xbdcd06bf	-0.10011052
114	0xbd0dec22	-0.034649022
115	0x3d716a17	0.058939066
116	0x3ee7a94c	0.4524635
117	0xbd02b69e	-0.03191244
118	0xbeb543a1	-0.3540316
119	0xbda19687	-0.07890039
120	0x3dc16ddf	0.094447844
121	0x3d92ffb7	0.0717768
122	0x3ea579d9	0.32319525
123	0xbcfa8a6e	-0.030583587
124	0x3d8429d8	0.064532936
125	0xbe0673d1	-0.13130118
126	0xbe15d8ec	-0.1463353
127	0xbdcbe334	-0.09955445
128	0x3dc76cb2	0.09737529
129	0x3e193c5b	0.1496443
130	0xbd61709b	-0.05503903
131	0x3da16570	0.07880676
132	0x3e2e4fe0	0.17022657
133	0x3e022ea6	0.12713107
134	0x3e0ea833	0.1393135
135	0x3e89e190	0.26929903
136	0x3dff54f0	0.124673724
137	0x3d62f6ac	0.055411026
138	0xbd711eb4	-0.05886717
139	0xbe03f965	-0.12888105
140	0xbc248318	-0.010041021
141	0x3df73075	0.12069789
142	0xbe3715a8	-0.17879355
143	0x3d51cb9a	0.05121956
144	0x3d2c7a86	0.042109035
145	0xbe275e74	-0.16344625
146	0x3e908788	0.28228402
147	0x3e474694	0.19460517
148	0x3d6440fc	0.055726036
149	0x3e51b4c5	0.20479114
150	0xbd17aac4	-0.03702809
151	0x3e8819b2	0.26582104
152	0xbd81489d	-0.06312678
153	0xbc872d59	-0.016501116
154	0xbd72c594	-0.059270456
155	0x3ca3c342	0.019990567
156	0xbe19f645	-0.1503535
157	0xbe83cf3a	-0.2574404
158	0x3e4b3890	0.19845796
159	0xbc81d75c	-0.015849762
160	0xbca6642d	-0.02031144
161	0x3e5d714f	0.21625255
162	0x3e37bca2	0.17943051
163	0x3ee23e67	0.44188234
164	0xbdc54a13	-0.09633269
165	0x3e60e026	0.21960506
166	0xbd1f805b	-0.03894077
167	0xbde5f664	-0.11228636
168	0xbe44b935	-0.19211276
169	0xbebc7c51	-0.36813596
170	0xbe30634e	-0.17225382
171	0x3e91de4b	0.2848991
172	0xbcf52d78	-0.029928908
173	0xbafced09	-0.0019296716
174	0x3e092622	0.13393453
175	0x3df82bfd	0.12117765
176	0x3d8fb3f0	0.07016742
177	0x3d0cfd8b	0.034421485
178	0xbd734974	-0.059396222
179	0x3e80c15f	0.2514753
180	0x3d4cda90	0.050013125
181	0x3cd0367a	0.025416601
182	0xbe5c8cbc	-0.21538061
183	0xbdd5fa87	-0.10448175
184	0xbed96ec4	-0.4246732
185	0x3eb5c840	0.3550434
186	0xbe7002c7	-0.2343856
187	0x3d9b4fd5	0.07583586
188	0xbe308665	-0.17238767
189	0xbea2a593	-0.31766948
190	0x3dc18e5b	0.0945098
191	0xbde2a4a5	-0.1106656
192	0xbe40c8a0	-0.18826532
193	0xbdf03a23	-0.11729839
194	0x3e1a4ee1	0.15069152
195	0xbd43fd24	-0.047848836
196	0x3d6482bc	0.05578874
197	0x3c1adff1	0.009452806
198	0x3e116d5d	0.14201875
199	0xbdaf5e84	-0.08562949
200	0x3c1118ac	0.00885598
201	0xbe8daa05	-0.27668777
202	0x3e77907d	0.24176212
203	0xbda12bc1	-0.078696735
204	0x3c9ae86f	0.018909661
205	0xbd685d14	-0.05672939
206	0x3c6ff93b	0.0146468235
207	0xbe051620	-0.12996721
208	0x3e681bb8	0.22666824
209	0xbc9c68bb	-0.019092908
210	0xbee5803c	-0.44824398
211	0x3deaf9c5	0.11473421
212	0xbe100d7f	-0.14067648
213	0x3d84c8ae	0.06483589
214	0x3e733e44	0.23754221
215	0x3ee00b43	0.43758592
216	0x3eb92013	0.36157283
217	0xbd85200a	-0.065002516
218	0xbdda69fb	-0.106647454
219	0x3e2ff019	0.17181434
220	0xbdaced2f	-0.08443677
221	0x3d355d9c	0.044278726
222	0xbd604595	-0.05475386
223	0xbe053482	-0.13008311
224	0x3e877b88	0.26461434
225	0xbd99f50b	-0.07517441
226	0x3e22abe5	0.15885885
227	0x3da6d324	0.08145741
228	0x3e80d573	0.2516285
229	0x3e56a959	0.20963039
230	0x3df6fadf	0.120595686
231	0xbf00c6f4	-0.5030358
232	0x3e20e843	0.15713601
233	0x3da83ee8	0.082151234
234	0x3c6ff769	0.0146463895
235	0x3e34cee8	0.17657053
236	0xbd8fbaf2	-0.07018079
237	0x3d93ac1b	0.07210561
238	0x3e6fd85a	0.23422375
239	0xbe7c84ce	-0.24660036
240	0xbe078dea	-0.1323773
241	0xbd1ffd13	-0.03905971
242	0x3b6db7bd	0.0036272847
243	0x3bf3ecfa	0.0074440213
244	0xbcb61d20	-0.022230685
245	0x3bae8fab	0.005327185
246	0xbc5b5589	-0.013387092
247	0xbdaf3d35	-0.08556596
248	0xbd7dbe3e	-0.061949007
249	0x3e0d55c3	0.13802247
250	0x3e1f54ab	0.15559642
251	0xbdd87dee	-0.10570894
252	0x3d24b270	0.040209234
253	0x3f0dfb59	0.5546165
254	0xbdb0d189	-0.08633716
255	0x3d7bcfce	0.061477475

layers.0.bias f4 [128]
0	0xbddfd07d	-0.10928438
1	0xbe101a46	-0.14072523
2	0xbe87c853	-0.26520023
3	0x3d3ad584	0.04561378
4	0xbe3e367c	-0.18575472
5	0x3e1c223d	0.15247436
6	0xbe13f0fd	-0.14447398
7	0xbe9876b0	-0.2977805
8	0x3e93e5b6	0.28886193
9	0x3e0ab7bd	0.13546653
10	0xbe4bd4ab	-0.19905345
11	0xbeec83f9	-0.46194437
12	0xbe356bc2	-0.17716888
13	0xbe73e167	-0.23816453
14	0xbd016105	-0.031586666
15	0x3caee7dd	0.021350795
16	0x3d6d9acc	0.058008954
17	0xbcb40005	-0.021972666
18	0xbe1cc198	-0.15308225
19	0xbe3754e6	-0.1790348
20	0x3e7347a0	0.23757792
21	0xbc0e0ebe	-0.008670507
22	0xbddb4c8e	-0.10707961
23	0xbe65d9eb	-0.2244641
24	0x3d0989c9	0.033578668
25	0x3cf4ebfd	0.029897684
26	0x3e6a342c	0.22871464
27	0xbcaeb142	-0.021324757
28	0x3e5b5d26	0.21422252
29	0x3c440ae1	0.011965484
30	0x3e963330	0.29335928
31	0xbe3b911a	-0.1831707
32	0x3e8793ac	0.26479852
33	0xbde37011	-0.11105359
34	0xbe814a79	-0.2525213
35	0x3d80bd74	0.06286135
36	0xbe7196e6	-0.2359272
37	0x3d21617c	0.03939961
38	0x3ceee09a	0.029159833
39	0xbec7fdc7	-0.39060804
40	0x3d8cd0cc	0.06875762
41	0xbe53455b	-0.20631926
42	0x3d5346b8	0.051581115
43	0xbe41e2b9	-0.18934144
44	0x3d017259	0.03160319
45	0xbdf6da4e	-0.12053357
46	0xbe860cc6	-0.2618162
47	0xbe96a226	-0.29420584
48	0x3e78be74	0.24291402
49	0x3e823991	0.25434545
50	0xbe70eac5	-0.23527057
51	0xbe0dacd0	-0.13835454
52	0x3eb91207	0.36146566
53	0x3ec35310	0.3814931
54	0x3dcb5278	0.09927839
55	0xbe4ad9d9	-0.19809665
56	0x3d5c2b1b	0.053752046
57	0xbe9b82b9	-0.3037317
58	0x3c2ff598	0.010739706
59	0x3ecc247e	0.3987159
60	0xbe04e4d0	-0.1297791
61	0x3e60d0cf	0.21954654
62	0xbeaef961	-0.34174636
63	0x3d79edcb	0.061017793
64	0xbe411b63	-0.18858103
65	0x3e89dea9	0.2692769
66	0xbde209a1	-0.11036993
67	0x3cb3fa71	0.021970006
68	0xbea3cf26	-0.3199398
69	0xbe367342	-0.17817405
70	0x3def53e2	0.11685921
71	0xbcf6ad81	-0.03011203
72	0x3eaba5c0	0.33524895
73	0xbeb28da8	-0.348737
74	0x3def8f52	0.11697258
75	0xbe3deef9	-0.18548192
76	0xbe93083a	-0.28717214
77	0xbe83a7fc	-0.257141
78	0xbd3d2f66	-0.04618778
79	0x3e83ccf4	0.25742304
80	0xbdb061fc	-0.08612439
81	0xbd0cc729	-0.03436962
82	0x3db1460e	0.0865594
83	0xbe275937	-0.16342627
84	0xbea328ee	-0.31867164
85	0xbe56b90b	-0.20969026
86	0xbdd69cc1	-0.10479117
87	0x3e5a4146	0.21313962
88	0x3e01e23c	0.12683958
89	0xbe8b2406	-0.2717592
90	0x3ce8e9ab	0.028431734
91	0xbe7d1493	-0.2471488
92	0x3d1b2c1f	0.037883874
93	0xbe1d7065	-0.15374906
94	0xba3dfed2	-0.0007247749
95	0xbd72b7e9	-0.05925742
96	0xbe9c4e93	-0.30528697
97	0x3e93816b	0.28809676
98	0xbda861d8	-0.08221787
99	0x3e177bf3	0.14793377
100	0xbcce2a2c	-0.025166593
101	0xbd0ab446	-0.03386333
102	0xbe66b4c9	-0.22529902
103	0x3ed8a513	0.42313442
104	0x3e8accfe	0.27109522
105	0xbda7fa75	-0.08202068
106	0x3d7c4018	0.061584562
107	0x3dc3a3d8	0.09552735
108	0xbe34b4a9	-0.17647041
109	0xbe98e245	-0.2986013
110	0x3eb8da30	0.36103964
111	0x3e97103c	0.29504573
112	0x3ebace0b	0.36485323
113	0x3e4a4702	0.1975365
114	0x3e60e937	0.21963964
115	0xbeee1853	-0.46502933
116	0x3e6ea606	0.2330552
117	0x3e9d8c14	0.30770934
118	0xbd51759d	-0.051137555
119	0x3e405124	0.18780953
120	0x3d60c15c	0.054871902
121	0xbaa76e2a	-0.001277392
122	0xbcad7d93	-0.021178043
123	0xbd9ff442	-0.0781026
124	0xbdaddfb2	-0.08489932
125	0xbe014ffc	-0.12628168
126	0x3b9d185c	0.0047941636
127	0xbe95fc99	-0.2929428

layers.1.weight f4 [128, 128]
0	0x3d7f91a7	0.062394764
1	0xbdceec5d	-0.101036765
2	0xbd2ef541	-0.04271436
3	0x3cd41205	0.025887499
4	0xbc3ef3de	-0.011654822
5	0x3d36241a	0.044468023
6	0x3d5f5572	0.054524846
7	0x3aa7524c	0.0012765615
8	0x3cd34a35	0.02579222
9	0x3d8ed7ce	0.06974755
10	0xbe150d78	-0.14555919
11	0xbd18ec23	-0.037334573
12	0x3d23d552	0.03999836
13	0xbd8671ee	-0.06564699
14	0x3da3b9d7	0.079944305
15	0x3d81893e	0.06325005
16	0x3d0ab501	0.033864025
17	0xbd599f68	-0.053130537
18	0xbd9815fd	-0.07426069
19	0x3c2e62e9	0.010643699
20	0xbd7e2375	-0.062045533
21	0xb99705e8	-0.00028805365
22	0x3cde2a4f	0.027119784
23	0x3d4f6372	0.050631948
24	0x3d6206a1	0.055182103
25	0xbe10da30	-0.14145732
26	0xbe3b9fe3	-0.1832271
27	0x3d1a93d4	0.037738636
28	0xbc667eb6	-0.014068296
29	0xbd03d921	-0.032189492
30	0x3d13e523	0.036107194
31	0x3d70c2e6	0.05877962
32	0x3acde762	0.0015709216
33	0x3c097939	0.008390718
34	0x3df2a756	0.11848323
35	0xbd2e5a4a	-0.042566575
36	0x3de053a1	0.10953451
37	0xbbd0ef5b	-0.0063761896
38	0xbd21f03e	-0.039535753
39	0xbc70aff4	-0.014690388
40	0x3dbecc1a	0.09316273
41	0x3d9ad385	0.075598754
42	0x3d48c272	0.049013563
43	0x3d51909b	0.051163297
44	0xbc8313b6	-0.01600061
45	0x3cbd5038	0.02310954
46	0x3dbc9df7	0.09209817
47	0xba3333e2	-0.0006836039
48	0xbd805425	-0.06266049
49	0xbb566c4d	-0.003271836
50	0xbe0c035f	-0.13673161
51	0xbc872ad5	-0.016499916
52	0xbcb9894b	-0.022648474
53	0xbd91bb0e	-0.07115756
54	0xbdd10a5e	-0.102070555
55	0xbd93823e	-0.07202576
56	0x3bc673f5	0.0060563036
57	0x3d63e7ac	0.05564086
58	0x3d23c3f5	0.0399818
59	0xbd90634a	-0.07050188
60	0x3a442a0e	0.0007483073
61	0x3da285ab	0.079356514
62	0x3e17e1b0	0.14832187
63	0xbc78dd9a	-0.015189553
64	0x3e075649	0.13216509
65	0xbc5e4dd9	-0.013568365
66	0x3d030d84	0.03199531
67	0xbd89e294	-0.067326695
68	0x3d1abbea	0.037776865
69	0xbcd5e181	-0.026108505
70	0x3b33c115	0.0027428318
71	0x3dc39d4f	0.095514886
72	0xbc74bdf5	-0.014937867
73	0x3cba3a92	0.022733007
74	0xbd50a1cf	-0.050935563
75	0xbd7cf912	-0.06176097
76	0xbcc7f0c8	-0.024406806
77	0xbe16bc69	-0.1472031
78	0xbb108216	-0.0022050194
79	0x3cc3f692	0.023921285
80	0x3cf1db6d	0.029523576
81	0x3ce94f47	0.028480185
82	0x3ca7b69c	0.020472817
83	0x3e1b4819	0.15164222
84	0x3dd0678d	0.10176001
85	0x3df677a1	0.12034536
86	0x3d261cf6	0.040554963
87	0xbdadefc6	-0.08492999
88	0xbd9c3498	-0.07627219
89	0xbd336952	-0.043801613
90	0x3d61e102	0.055146225
91	0x3dee0a3a	0.11623044
92	0xbda7ae70	-0.08187568
93	0xbd899037	-0.0671696
94	0x3e121949	0.14267458
95	0x3c2f7911	0.010710017
96	0xbe17ccea	-0.14824262
97	0xbcba923e	-0.022774812
98	0x3ce11b4a	0.027478833
99	0x3d40bb4e	0.047053628
100	0xbd5b3526	-0.053517483
101	0x3d01e253	0.03170998
102	0xbd9d9535	-0.076944746
103	0x3d10ecef	0.035382207
104	0xbd9af5c1	-0.07566405
105	0x3b41330c	0.002947989
106	0x3cf7493c	0.030186288
107	0x3d8410af	0.06448495
108	0xbdc0873c	-0.09400794
109	0xbd03230d	-0.03201585
110	0xbd1bd687	-0.038046386
111	0xbdcbdfff	-0.09954833
112	0x3d824cb5	0.06362287
113	0xbcfa6d7d	-0.030569786
114	0xbd178eda	-0.03700147
115	0x3d5d00d2	0.05395586
116	0xbcd72359	-0.026261972
117	0x3c972b2c	0.018453203
118	0xbd52fde2	-0.051511653
119	0x3dec94ea	0.115518406
120	0x3dcd7d91	0.100337155
121	0xbb88667a	-0.004162607
122	0xbd5d1c0a	-0.05398182
123	0x3cf1ae2e	0.029502
124	0xbda5f30c	-0.08102998
125	0x3e0c3812	0.13693264
126	0x3d984c22	0.07436396
127	0x3e0a7c83	0.1352406
128	0xbdb984b0	-0.09058511
129	0x3d31ba43	0.043390524
130	0x3d71e96d	0.059060503
131	0xbd6994e7	-0.05702677
132	0xbd8fd46a	-0.07022937
133	0xbc951821	-0.018199982
134	0x3d80afd1	0.06283534
135	0x3d55b2f0	0.0521726
136	0xbdc6c783	-0.097060226
137	0x3dd08c7c	0.10183045
138	0xbdf3bf08	-0.11901671
139	0x3cdf5bb1	0.027265402
140	0xbd4430c6	-0.047898076
141	0xbcdcb5ef	-0.026942221
142	0xbcc05888	-0.023479715
143	0x3bfa88ef	0.0076457183
144	0xbd9144f0	-0.07093227
145	0xbd759e07	-0.05996516
146	0x3daf85eb	0.08570465
147	0x3ccbd558	0.024882004
148	0xbc9668b6	-0.018360477
149	0x3d1322ec	0.035921976
150	0xbdf3b656	-0.11900012
151	0xbc2f278c	-0.010690581
152	0x3dced251	0.100987084
153	0xbc7bce48	-0.0153690055
154	0xbc6e4eb7	-0.014545134
155	0x3d10b5e4	0.035329714
156	0xbceeff98	-0.029174611
157	0xbcf7a664	-0.030230708
158	0xbd040c1f	-0.032238122
159	0x3e0b1c81	0.13585092
160	0x3df15a90	0.117848516
161	0xbced25ea	-0.028948743
162	0x3d5c8a1e	0.053842656
163	0xbdc3ccb8	-0.095605314
164	0x3cbc3964	0.022976585
165	0x3d9ca2e7	0.07648259
166	0x3cd5b09d	0.026085192
167	0xbd98ef93	-0.0746757
168	0x3ca851d4	0.020546831
169	0x3d7ef540	0.062245607
170	0xbaef14b7	-0.0018240426
171	0x3dee749b	0.116433345
172	0xbdf6c526	-0.12049322
173	0x3dc96dee	0.098354205
174	0xbdfb5330	-0.12271726
175	0x3c28c1f0	0.010300145
176	0xbd53b768	-0.05168858
177	0x3c3d4cd5	0.011553963
178	0xbd09a324	-0.03360285
179	0xbc0c1072	-0.008548843
180	0xbd520593	-0.051274847
181	0xbdcb9eb8	-0.099423826
182	0xbd132a3e	-0.035928957
183	0x3d4f34dd	0.050587524
184	0xbc061281	-0.008183123
185	0xbbdb5e99	-0.0066946265
186	0xbe026d29	-0.12736954
187	0x3da8eb67	0.082480244
188	0x3c8ae601	0.016955378
189	0x3c3fb920	0.011701852
190	0xbbff8532	-0.0077978605
191	0xbb8cd8e2	-0.0042983154
192	0x3d11f99d	0.03563844
193	0xbdb1cb6f	-0.0868138
194	0xbbe07ac1	-0.006850571
195	0x3d049ffd	0.03237914
196	0x3d83048f	0.06397354
197	0xbca3c25d	-0.01999014
198	0xbd31c2ea	-0.043398775
199	0xbd8cbbd1	-0.06871761
200	0xbd174416	-0.036930166
201	0xbe583ca0	-0.21116877
202	0x3d84e40c	0.06488809
203	0x3d409fae	0.047027282
204	0xbcb0db3b	-0.021588912
205	0xbd67a4fa	-0.05655382
206	0xbd4ea4f1	-0.05045027
207	0x3d52d773	0.051475
208	0x3d19871b	0.037482362
209	0x3d18121f	0.037126657
210	0x3d025d2f	0.031827148
211	0xbc992116	-0.018692534
212	0x3dabec8c	0.08394727
213	0x3db8f6d6	0.09031455
214	0x3daa12b0	0.083043456
215	0x3c7e9c49	0.015540191
216	0x3cbbb6c5	0.0229143
217	0x3d1aa69f	0.03775656
218	0xbe0963a5	-0.13416918
219	0xbcd8b3bf	-0.026452897
220	0xbd386d1d	-0.045025934
221	0x3c88da67	0.016705705
222	0xbdfc5ae6	-0.12322025
223	0xbd40d9a9	-0.047082577
224	0xbbb74d9d	-0.005593969
225	0xbc5f0ee1	-0.013614387
226	0xbda81a07	-0.08208089
227	0x3d5e1a41	0.054224256
228	0xbd7d13b9	-0.061786387
229	0x3cda95c8	0.02668275
230	0x3c3ab003	0.0113945035
231	0x3de8f5d5	0.11375014
232	0x3d3e861f	0.046514627
233	0xbcba811c	-0.022766642
234	0xbcb5d6cf	-0.022197155
235	0xbbb403e3	-0.0054936274
236	0xbb314378	-0.002704827
237	0x3ca0eff2	0.019645665
238	0xbcc3a224	-0.023881026
239	0xbb4d6416	-0.0031340173
240	0x3d495e9c	0.049162492
241	0xbd7eba69	-0.062189493
242	0x3ca5ddcb	0.02024736
243	0x3cffaf81	0.031211616
244	0xbd2afa6d	-0.04174273
245	0x3dbcb1ae	0.09213577
246	0xbdb4cc41	-0.08828021
247	0x3c211eeb	0.009834032
248	0x3ce66062	0.02812213
249	0xbc734091	-0.014846937
250	0xbcb16b88	-0.02165772
251	0xbd8d2c4d	-0.06893215
252	0xbd435cf0	-0.047696054
253	0xbd4fddcc	-0.05074863
254	0xbcb8e86c	-0.022571765
255	0xbbebb565	-0.007193255

layers.1.bias f4 [128]
0	0xbc88cba4	-0.016698666
1	0xbcf63dc7	-0.030058755
2	0xbd83140a	-0.064003065
3	0xbc3e73e0	-0.011624306
4	0xbbf38618	-0.0074317567
5	0xbdc589ef	-0.09645449
6	0x3e087b46	0.13328275
7	0x3dafb341	0.08579112
8	0xbe123262	-0.14277032
9	0xbe145df0	-0.1448896
10	0x3d9bd6e9	0.0760935
11	0xbe0fea14	-0.14054137
12	0xbdbb34ce	-0.09140931
13	0xbc6e949f	-0.014561801
14	0x3dbbd335	0.09171144
15	0x3c6426ba	0.013925249
16	0xbd962e51	-0.07333053
17	0x3c825923	0.015911644
18	0xbc8fe07a	-0.017563093
19	0x3cb6ba98	0.022305772
20	0x3daaa086	0.08331399
21	0xbde38f9f	-0.11111378
22	0xbbcb7e94	-0.0062101576
23	0xbc9651f7	-0.01834963
24	0x3e5a81cf	0.2133858
25	0x3cf5572c	0.029948793
26	0xbe0483b6	-0.12940869
27	0xbdf5c528	-0.12000495
28	0xbdae2ca3	-0.085046075
29	0xbcf6bc2c	-0.030119024
30	0x3d712fa4	0.058883324
31	0x3d8b9e43	0.068172954
32	0xbcc13c28	-0.023588255
33	0x3d653568	0.055959135
34	0x3dece734	0.11567536
35	0xbcc2446d	-0.023714269
36	0x3e08fc72	0.1337755
37	0xbdf55b4e	-0.119803056
38	0x3de65fc0	0.112487316
39	0x3dcca6d2	0.09992756
40	0xbdaa8e59	-0.08327932
41	0x3a468a5f	0.00075737195
42	0x3e00320c	0.12519091
43	0xbcb0478f	-0.021518497
44	0xbdda0c4c	-0.10646877
45	0x3d56499a	0.052316286
46	0xbd488379	-0.048953507
47	0xbe0b5452	-0.13606384
48	0xbde52161	-0.11188007
49	0x3d0353a3	0.032062184
50	0x3d4c63a4	0.049899712
51	0xbce84750	-0.028354317
52	0xbd9d7e63	-0.07690122
53	0xbdce2986	-0.10066514
54	0x3cd71502	0.026255134
55	0xbd00de21	-0.03146184
56	0x3dc4703e	0.09591721
57	0xbd5a03b2	-0.05322618
58	0x3d88080d	0.066421606
59	0xbe1daf5a	-0.15398923
60	0xbd9eabcd	-0.07747612
61	0x3db3427f	0.087529175
62	0xbd85daeb	-0.06535896
63	0xbddd8806	-0.1081696
64	0xbe1926fc	-0.14956278
65	0x3abefed9	0.00145718
66	0x3da923ac	0.08258757
67	0x3d1dedd6	0.038556896
68	0xbd327c06	-0.04357531
69	0xbd9c38d8	-0.076280296
70	0xbd4faad5	-0.050700027
71	0xbd6dcf39	-0.05805895
72	0xbcaa8539	-0.020815479
73	0x3cb14c7a	0.021642912
74	0x3d800932	0.06251754
75	0xbdf3a4a5	-0.11896638
76	0xbe30cc6e	-0.17265484
77	0x3df92f9b	0.12167283
78	0xbced28d1	-0.028950127
79	0xbe537c18	-0.20652807
80	0x3c751d1b	0.014960553
81	0x3cc4798d	0.023983741
82	0x3e19b22a	0.1500937
83	0x3e0b10b5	0.13580592
84	0x3d907be0	0.07054877
85	0x3c8e36c3	0.017360097
86	0xbd95c151	-0.07312263
87	0x3cb4a40b	0.022050878
88	0x3ae6a98e	0.0017598139
89	0xbc82f600	-0.015986443
90	0xbd66542d	-0.05623262
91	0x3dec1153	0.11526742
92	0x3d5d2a93	0.05399568
93	0xbb4b4026	-0.0031013577
94	0xbdd9e03a	-0.10638471
95	0x3d0d62cc	0.03451805
96	0x3c7210f9	0.014774554
97	0x3b333bee	0.0027348953
98	0xbe46cbe1	-0.19413711
99	0xbc9d434e	-0.019197132
100	0xbd56bc94	-0.052425936
101	0x3d1f9869	0.03896371
102	0xbd2cbded	-0.042173315
103	0xbdceea4d	-0.10103283
104	0x3d3d19ed	0.046167303
105	0xbd5fc0dc	-0.054627284
106	0xbdc45004	-0.09585574
107	0xbd9fe9c8	-0.07808262
108	0x3c81fd44	0.015867837
109	0xbd8ca0cc	-0.06866607
110	0x3dcbadd7	0.09945267
111	0xbc1c3506	-0.009534126
112	0xbd64bc32	-0.05584354
113	0x3a5eb4ae	0.00084955513
114	0x3e029922	0.12753728
115	0xbde5c637	-0.11219447
116	0x3c365ede	0.011131017
117	0xbda147be	-0.07875012
118	0xbe41e2e4	-0.18934208
119	0xbcb9107c	-0.022590868
120	0xbd1761b7	-0.036958423
121	0xbc8e6096	-0.01738004
122	0x3e1401d4	0.14453822
123	0x3e0aae90	0.13543153
124	0xbc09a916	-0.00840213
125	0xbdfc863c	-0.12330291
126	0x3da8e7f9	0.0824737
127	0xbd910443	-0.07080891

layers.2.weight f4 [64, 128]
0	0x3df7154a	0.120646074
1	0xbdab1b33	-0.08354797
2	0xbcecf2fb	-0.028924456
3	0x3d857598	0.0651657
4	0xbd5a900c	-0.05336003
5	0xbd268127	-0.040650513
6	0x3da870cf	0.082246415
7	0x3dce2d60	0.10067248
8	0x3d483436	0.048877917
9	0x3d998f91	0.07498086
10	0x3d4407bc	0.04785894
11	0x3b5e71f4	0.0033942433
12	0xbd7d3d53	-0.06182606
13	0x3c9dde28	0.019270971
14	0x3db5f9a8	0.08885509
15	0xbc74c48d	-0.0149394395
16	0x3dd38625	0.103283204
17	0x3d46b4e4	0.048512354
18	0x3d245fb8	0.040130347
19	0xbc301dd7	-0.010749302
20	0x3bbcf331	0.0057662954
21	0x3d993cb5	0.07482282
22	0x3c3efce6	0.011656975
23	0x3d9db3b0	0.07700288
24	0x3ca20e74	0.019782282
25	0xbdbb1033	-0.09133949
26	0xbd998f4d	-0.074980356
27	0xbd411a7d	-0.0471444
28	0xbd4999b2	-0.04921884
29	0xbce10163	-0.027466482
30	0x3be311ee	0.0069296276
31	0x3caee634	0.021350004
32	0xbdbc935f	-0.09207796
33	0x3d9a012f	0.07519757
34	0x3d5eed5b	0.05442558
35	0xbdb9a0e3	-0.0906389
36	0x3da5cadd	0.08095334
37	0xbd567f34	-0.052367404
38	0x3dd24c59	0.102684684
39	0x3dc4a22d	0.09601245
40	0xbdc9a362	-0.09845616
41	0x3e0ff4ce	0.1405823
42	0xb94686ce	-0.0001893297
43	0xbd1033dd	-0.03520571
44	0xbb644549	-0.0034831336
45	0x3d96dc79	0.073662706
46	0x39269e92	0.00015890066
47	0x3e2ed03c	0.17071623
48	0xbdcf46c2	-0.10120918
49	0x3cc0d4fc	0.023539059
50	0x3d335633	0.043783378
51	0x3de55d8f	0.111994855
52	0xbce06cdf	-0.027395664
53	0xbd05a9be	-0.032632582
54	0x3d9300f0	0.07177913
55	0x3d7af831	0.06127185
56	0x3b9d112b	0.0047933063
57	0xbc6eecba	-0.014582807
58	0x3d80d1cb	0.06290015
59	0xbcee0ba5	-0.029058287
60	0xbd117dc1	-0.03552032
61	0xbcf97a3c	-0.030453794
62	0xbd8d073c	-0.068861455
63	0xbda4d3a4	-0.0804818
64	0x3d9e3ea8	0.077267945
65	0xbdfadf57	-0.1224963
66	0x3ddee450	0.10883391
67	0x3d401005	0.046890277
68	0xbcdc56d8	-0.02689688
69	0xbdd36b32	-0.1032318
70	0x3c095301	0.008381606
71	0x3d981731	0.074262984
72	0x3c2feddb	0.0107378615
73	0xbdbb0de5	-0.091335095
74	0x3e1722c3	0.14759354
75	0xbbb21a40	-0.005435258
76	0x3c54f90e	0.012998832
77	0xbd355f72	-0.044280477
78	0x3dbecff0	0.09317005
79	0xbdd8b048	-0.10580498
80	0x3dcffcd9	0.10155649
81	0x3cdddf42	0.027083997
82	0x3d833159	0.06405897
83	0x3c8ee6b1	0.017443987
84	0x3cf433bb	0.029809823
85	0xbcffe35d	-0.031236345
86	0xbdaebd51	-0.08532203
87	0x3d044055	0.032287914
88	0xbaef7495	-0.0018268997
89	0x3ba99638	0.005175378
90	0x3db7b092	0.08969225
91	0x3d8c0d1b	0.06838437
92	0x3d47a0d0	0.048737347
93	0x3dfc9558	0.123331726
94	0xbdd74215	-0.10510651
95	0x3daf5176	0.08560459
96	0xbcf58d56	-0.02997462
97	0x3d742ac9	0.059611116
98	0x3c089a71	0.008337603
99	0x3d53c3e0	0.051700473
100	0xbdb1468f	-0.08656036
101	0x3d7c6c90	0.06162697
102	0x3daf322d	0.08554492
103	0xbbf5bb99	-0.00749917
104	0x3d6662b7	0.056246486
105	0xbca942b5	-0.020661691
106	0xbe0b3661	-0.13594963
107	0xbc8fb221	-0.017540993
108	0x3bbab942	0.005698354
109	0x3b981cf3	0.004642123
110	0xbcae8162	-0.021301929
111	0x3d065e15	0.032804567
112	0xbba3b10f	-0.0049954723
113	0xbd99f71c	-0.075178355
114	0xbd75d163	-0.06001414
115	0xbde62954	-0.112383515
116	0x3cf6f0a4	0.030144043
117	0x3dc74398	0.09729689
118	0xbe181d51	-0.14854933
119	0x3b38b7b6	0.0028185672
120	0xbd6217af	-0.055198368
121	0x3dc18fae	0.09451233
122	0x3d2fe563	0.04294337
123	0x3d29b830	0.04143542
124	0x3dc907ab	0.09815916
125	0xbd9232da	-0.071386054
126	0x3dff1ad2	0.124562874
127	0xbc429e73	-0.011878598
128	0xbd190306	-0.0373564
129	0xbd9316fe	-0.0718212
130	0x3d9ae0e0	0.07562423
131	0x3e1b522c	0.15168065
132	0x3d9b5f8d	0.07586584
133	0x3b9939dd	0.0046760873
134	0xbd04b226	-0.032396458
135	0x3d001d81	0.031278137
136	0xbcd08e6c	-0.025458537
137	0xbd061089	-0.032730613
138	0xbd924e90	-0.07143891
139	0xbde1a232	-0.110172644
140	0xbd9015ff	-0.070354454
141	0xbd4f5a64	-0.050623313
142	0x3b21f8e8	0.002471501
143	0xbd73a752	-0.05948574
144	0xbb5a9c41	-0.0033357295
145	0xbd150a61	-0.03638685
146	0xbdb57224	-0.08859661
147	0xbda3dd43	-0.08001187
148	0xbd50f185	-0.05101158
149	0xbd8608cb	-0.06544646
150	0x3d59c8aa	0.053169884
151	0x3d592175	0.053010423
152	0xbcc8e000	-0.024520874
153	0xbcabc96a	-0.020970065
154	0xbd60bd50	-0.054868042
155	0xbd536048	-0.051605493
156	0xbdd5a8d4	-0.10432592
157	0xbcef575a	-0.029216457
158	0x3d756a56	0.059915863
159	0x3c7ecde4	0.015552018
160	0x3d31becc	0.04339485
161	0x3d501151	0.050797764
162	0x3b12fe18	0.0022429284
163	0x3d583b73	0.05279107
164	0x3d3b0b03	0.0456648
165	0xbdff131d	-0.124548174
166	0xbe061882	-0.13095286
167	0x3cc37c77	0.02386306
168	0xbde1c690	-0.11024201
169	0x3a133f38	0.00056170253
170	0xbdb3e4dc	-0.08783886
171	0x3d8eb3be	0.06967877
172	0x3cb1b230	0.021691412
173	0x3dc8641e	0.09784721
174	0xbe058417	-0.1303867
175	0x3ddc97bd	0.10771129
176	0x3d0569b5	0.032571513
177	0x3dcfce21	0.10146738
178	0xbd41946a	-0.04726068
179	0x3e034a45	0.128213
180	0x3dba3bac	0.09093413
181	0xbdd7b96c	-0.10533413
182	0xbcc1420a	-0.02359106
183	0x3beb90d4	0.0071888957
184	0x3d83f6ca	0.06443556
185	0x3d1f5a4a	0.038904466
186	0x3d460349	0.048342977
187	0xbdc3cdd0	-0.0956074
188	0xbb875b31	-0.004130744
189	0x3d80e9b1	0.06294573
190	0x3c90715d	0.01763218
191	0xbe085646	-0.1331416
192	0x3d262b77	0.040568795
193	0xbd2edde8	-0.042692095
194	0xba57592c	-0.0008214887
195	0x3cbe945d	0.023264105
196	0x3d197ee3	0.037474524
197	0xbd75afd5	-0.05998214
198	0x3c284ae6	0.010271763
199	0x3d923244	0.07138494
200	0xbbd1cbf5	-0.0064024874
201	0xbd8b2625	-0.06794385
202	0x3d7d66c7	0.061865594
203	0x3cf830dd	0.030296737
204	0xbdc0f412	-0.09421553
205	0xbd51a625	-0.05118384
206	0x3dcf7c53	0.10131135
207	0xbdfa1b9d	-0.12212298
208	0xbdd711bb	-0.10501429
209	0x3de22b8d	0.11043463
210	0x3e06dd11	0.13170268
211	0x3c8e8bdb	0.017400673
212	0xbd5f00de	-0.054444186
213	0x3d0abe5f	0.03387296
214	0xbd1a5d48	-0.037686616
215	0x3d4c3cb2	0.04986257
216	0x3d83bb1f	0.06432175
217	0xbcda3b23	-0.026639527
218	0x3de669ce	0.112506494
219	0x3b20801c	0.0024490422
220	0xbde5fa73	-0.1122941
221	0xbd8c67b3	-0.068557166
222	0xbd176d2d	-0.036969353
223	0x3d9ab2f4	0.07553664
224	0x3d0a38fe	0.03374576
225	0xbd1067df	-0.03525531
226	0xbc8a442f	-0.016878216
227	0x3d6a5ca9	0.057217274
228	0x3cb04125	0.021515438
229	0x3dc0c8c3	0.09413292
230	0x3daea8ad	0.08528266
231	0x3cd3ac08	0.025838867
232	0x3d821ce9	0.063531704
233	0xbdb78fdc	-0.08962986
234	0xbd93479b	-0.07191392
235	0x3d938f96	0.07205121
236	0xbe187791	-0.14889361
237	0xbd7de3d8	-0.061984867
238	0x3d208942	0.0391934
239	0xbd245080	-0.040115833
240	0x3cf12a1c	0.029439025
241	0x3cfe350a	0.03103115
242	0xbc8c912b	-0.017159065
243	0x3c946b6c	0.018117629
244	0x3cc1dfaa	0.023666222
245	0x3e247001	0.16058351
246	0x3d883675	0.06651012
247	0xbd742c62	-0.05961264
248	0xbde9ee76	-0.11422436
249	0xbd34dcda	-0.044155933
250	0x3ca15e27	0.019698216
251	0xbddb7f85	-0.10717682
252	0xbccc882c	-0.024967276
253	0x3d5d4d8a	0.054029025
254	0x3ce2f793	0.027705943
255	0xbd241ea5	-0.040068287

layers.2.bias f4 [64]
0	0x3dba2d40	0.09090662
1	0xbb66349a	-0.0035126568
2	0x3d5f1d48	0.054471284
3	0x3d8fee08	0.07027823
4	0xbcc8dd39	-0.02451955
5	0x3d4534e3	0.04814614
6	0xbddddc68	-0.10833055
7	0x3db412f4	0.087926775
8	0xbdeae5ee	-0.11469637
9	0xbdc02756	-0.09382503
10	0xbbb312c7	-0.005464885
11	0xbd04dd34	-0.03243752
12	0x3bbb50a9	0.0057164025
13	0xb981d345	-0.00024762205
14	0xbd66d93d	-0.05635952
15	0x3ddef323	0.108862184
16	0xbd836a10	-0.06416714
17	0x3cc48095	0.023987094
18	0x3d23c4fe	0.03998279
19	0xba7d9f77	-0.0009674946
20	0x3dc4651e	0.09589599
21	0x3d6b7a02	0.057489403
22	0xbdaa9b90	-0.083304524
23	0xbe166089	-0.14685263
24	0x3daa777e	0.083235726
25	0xbd381b75	-0.04494806
26	0xbcf3d384	-0.029763944
27	0xbd30ed97	-0.043195333
28	0x3e406100	0.18787003
29	0xbd7c3cd1	-0.061581437
30	0x3d1ad0b7	0.037796702
31	0xbcfb55eb	-0.030680617
32	0x3de1863f	0.110119335
33	0x3da637af	0.081160896
34	0x3e2cdd00	0.1688118
35	0x3d6647c3	0.05622078
36	0x3dcb0196	0.09912412
37	0x3c6f3d4d	0.014602018
38	0x3ceae3ce	0.028673079
39	0x3bcc5690	0.006235905
40	0xbd6a7a84	-0.057245746
41	0x3dd72642	0.10505344
42	0x3d868237	0.06567805
43	0x3cd7a404	0.026323326
44	0xbdcb80ee	-0.09936701
45	0xbd868067	-0.065674596
46	0xbe2824b3	-0.1642025
47	0xbe466506	-0.19374475
48	0x3dc7e97d	0.09761331
49	0xbe0cc444	-0.13746744
50	0xbce01f5e	-0.027358707
51	0xbc807b50	-0.0156838
52	0xbb54f3b3	-0.003249389
53	0x3e1c2314	0.15247756
54	0xbd950962	-0.0727718
55	0xbe09650a	-0.1341745
56	0x3dd36a2d	0.10322986
57	0xbe0b612d	-0.13611288
58	0xbdc72d1d	-0.097254016
59	0x3d64f244	0.055895105
60	0xbd947869	-0.07249529
61	0xbdfcf5f7	-0.123516016
62	0xbcbd5a43	-0.02311433
63	0xbd1a5ef3	-0.037688207

readout.weight f4 [1, 64]
0	0xbe9b06af	-0.30278537
1	0xbe56eb0c	-0.20988101
2	0xbe28a7f2	-0.16470316
3	0x3e544f15	0.20733292
4	0x3e51641b	0.20448343
5	0x3e698e85	0.22808273
6	0xbe69653d	-0.22792526
7	0xbe86c6d7	-0.26323578
8	0x3ea40cce	0.3204102
9	0x3e86a204	0.26295483
10	0xbe610e7b	-0.2197818
11	0x3e5954e7	0.21223794
12	0xbe31c4fa	-0.17360297
13	0xbdc1a24a	-0.09454782
14	0x3e97533a	0.29555684
15	0xbe46ee28	-0.19426787
16	0xbe9ab9a1	-0.3021975
17	0x3e506f96	0.20355067
18	0x3e88a16f	0.26685664
19	0xbe03bd9b	-0.12865297
20	0xbe3ad041	-0.18243505
21	0x3e56a4c1	0.20961286
22	0x3e4d63c0	0.20057583
23	0x3e44c604	0.19216162
24	0xbe8a08c0	-0.269598
25	0xbe51c57e	-0.20485494
26	0xbe7e8b5c	-0.24857849
27	0x3e7ef98d	0.24899884
28	0xbe40ce91	-0.18828799
29	0x3e8377ca	0.2567733
30	0x3e7dc88f	0.24783538
31	0xbd4d9843	-0.050194036
32	0xbe576a7d	-0.21036716
33	0x3e5ff2da	0.21869984
34	0xbe7f8271	-0.24952103
35	0xbe8d5789	-0.27605847
36	0x3e4f3785	0.20236023
37	0xbea0b25f	-0.31386086
38	0xbe85b8c7	-0.26117536
39	0x3e86e503	0.26346597
40	0xbe6d76c6	-0.2318984
41	0xbe07b8fb	-0.13254158
42	0xbe6dbaf8	-0.23215854
43	0xbe786b96	-0.24259791
44	0x3e585b04	0.2112847
45	0x3eafbee5	0.34325328
46	0x3e3953c3	0.18098359
47	0x3e408630	0.18801188
48	0xbe907b47	-0.28219053
49	0x3e633f9e	0.22192237
50	0x3e5ea013	0.21740751
51	0xbe205359	-0.15656795
52	0xbdf75d17	-0.12078302
53	0xbebd9a2c	-0.37031686
54	0xbe72a803	-0.23696904
55	0x3e8342fc	0.25637043
56	0xbe8473ac	-0.258695
57	0x3e64c81c	0.2234196
58	0x3e268dc1	0.16265012
59	0x3e40e43b	0.18837063
60	0x3e495422	0.19661
61	0x3ea78764	0.32720482
62	0xbe8219df	-0.25410363
63	0x3e9aea75	0.30257002

layers.0.weight f4 [128, 17]
0	0x3dc7f531	0.097635634
1	0x3e00ed67	0.12590562
2	0x3e907574	0.2821461
3	0xbe14dc1f	-0.14537095
4	0xbe2628a6	-0.16226444
5	0x3ed190d7	0.40930817
6	0xbe42f68f	-0.19039367
7	0xbc776643	-0.015100065
8	0xbed4460d	-0.41459695
9	0xbdfeb7f3	-0.12437429
10	0xbde387be	-0.11109875
11	0xbe574670	-0.21022964
12	0x3e0640fa	0.13110724
13	0x3c5968a6	0.013269579
14	0xbd0dd692	-0.03462846
15	0x3df6be18	0.12047976
16	0xbdae05fb	-0.084972344
17	0xbda4175b	-0.08012267
18	0xbe474be1	-0.1946254
19	0xbcd56b8d	-0.02605226
20	0x3dfbd4d6	0.122964546
21	0x3d77ab0b	0.060465854
22	0x3dda3158	0.10653943
23	0xbe376a1d	-0.17911573
24	0x3e72f2a6	0.23725376
25	0xbe0afc9d	-0.13572927
26	0xbe51ecca	-0.20500484
27	0xbe0354cc	-0.12825316
28	0x3e01b1f7	0.12665544
29	0x3dc29508	0.09501082
30	0xbe86c7af	-0.26324221
31	0x3e155736	0.1458405
32	0x3d55ad0b	0.05216698
33	0xbda375b1	-0.07981432
34	0x3e1fa764	0.15591198
35	0xbd782d16	-0.060589872
36	0xbe1e4b9d	-0.15458532
37	0xbe50e6ba	-0.20400515
38	0x3de2898a	0.1106139
39	0xbdd9a443	-0.106270336
40	0x3eea144d	0.45718613
41	0x3e58600d	0.2113039
42	0xbf88149e	-1.0631292
43	0x3e3dba77	0.18528162
44	0xbef5953c	-0.4796542
45	0xbe80da9b	-0.25166783
46	0xbcfd3114	-0.030907191
47	0x3db3be4a	0.08776529
48	0xbc6d563c	-0.014485892
49	0x3d6f2f72	0.058394857
50	0x3cb3a1d5	0.021927753
51	0xbea57573	-0.3231617
52	0x3d8c7a1f	0.0685923
53	0x3dd70533	0.104990385
54	0xbeab2adf	-0.33431146
55	0x3e5c82f4	0.2153433
56	0xbdf69791	-0.12040628
57	0xbcb629b7	-0.022236688
58	0x3e96e93f	0.29474828
59	0xbe9d6b47	-0.3074591
60	0xbe49dab6	-0.19712338
61	0xbe0d3224	-0.13788658
62	0xbd8768dd	-0.06611798
63	0x3dd21e6f	0.10259711
64	0x3d8e072c	0.06934962
65	0xbe1407fb	-0.1445617
66	0xbd24f5dc	-0.040273532
67	0xbd1ebd2e	-0.038754635
68	0xbe8d02dc	-0.27541244
69	0xbf18593c	-0.5951116
70	0xbee08830	-0.43853903
71	0xbe00b893	-0.1257041
72	0x3c825e7e	0.015914198
73	0x3e14e457	0.1454023
74	0x3ec4e618	0.38456798
75	0x3e448e66	0.19194946
76	0x3f095ef4	0.5366051
77	0x3e8482dd	0.2588109
78	0xbde1e9fa	-0.110309556
79	0xbd343a36	-0.044000827
80	0xbb514dd2	-0.0031937254
81	0xbcf1bfba	-0.029510368
82	0xbc6a21cb	-0.014290283
83	0x3d852e9a	0.06503029
84	0x3b7aeeec	0.0038289381
85	0x3f0f1818	0.5589614
86	0xbf00a92a	-0.50258124
87	0xbd2f8d67	-0.04285946
88	0x3ea87e95	0.32909074
89	0xbf124278	-0.57132673
90	0xbc876ba0	-0.016530812
91	0x3d9303a4	0.07178429
92	0x3e770b82	0.24125484
93	0xbf344171	-0.70412356
94	0xbf1d8d82	-0.6154405
95	0xbe2e543c	-0.1702432
96	0xbd85d6e1	-0.065351255
97	0x3ebad487	0.3649027
98	0x3d5b80b1	0.053589527
99	0xbd937daa	-0.07201703
100	0xbe2237fa	-0.15841666
101	0x3d279604	0.04091455
102	0x3e88ad89	0.26694897
103	0xbb2166e7	-0.0024627985
104	0xbba855da	-0.0051371874
105	0xbf02685e	-0.509405
106	0x3e6655da	0.22493687
107	0x3e0c770b	0.13717286
108	0x3e9e427c	0.309101
109	0xbdebee3f	-0.11520051
110	0xbe211d2f	-0.15733789
111	0x3e6e8c67	0.23295747
112	0x3e4de016	0.20105013
113	0x3e38ae53	0.1803525
114	0x3db7e05d	0.08978341
115	0xbe690a55	-0.22757848
116	0xbead5449	-0.33853367
117	0xbe7f68c6	-0.24942312
118	0x3e1b8fa8	0.1519152
119	0xbed692f8	-0.41909003
120	0x3efd7acb	0.49507746
121	0xbdd23dc9	-0.10265691
122	0xbe833916	-0.2562949
123	0xbd96538b	-0.07340153
124	0x3e86722f	0.2625899
125	0x3ac19dac	0.0014771721
126	0xbe54309c	-0.20721668
127	0x3e47acaf	0.19499467
128	0xbd92bde3	-0.07165124
129	0x3e9e6840	0.3093891
130	0x3d431a52	0.047632523
131	0x3e471df3	0.19445018
132	0xbc96ba45	-0.018399367
133	0x3e207dac	0.1567294
134	0x3db87740	0.0900712
135	0x3c4a8cb4	0.012362648
136	0xbe1ac549	-0.15114321
137	0x3eddc470	0.43313932
138	0x3ec5adb6	0.38609093
139	0x3e875b52	0.2643686
140	0xbc963869	-0.018337445
141	0x3cdc8546	0.026919018
142	0xbe2060c1	-0.15661909
143	0xbdaaf3d4	-0.08347288
144	0xbe54c99b	-0.20780031
145	0x3e449993	0.19199209
146	0xbd9865b8	-0.07441276
147	0xbdff0c53	-0.124535225
148	0x3e0e0067	0.13867341
149	0x3e16a7c2	0.14712432
150	0xbd5c5e5c	-0.053800926
151	0x3df0d259	0.11758871
152	0x3cf84ebd	0.030310983
153	0x3e72d24e	0.23713037
154	0xbf261837	-0.648807
155	0xbecc20a0	-0.3986864
156	0x3e7dc150	0.24780774
157	0xbe569c54	-0.20958072
158	0x3d6bf827	0.057609703
159	0xbe5d9830	-0.21640086
160	0x3d6ee6b4	0.058325484
161	0x3f1afcfc	0.60542274
162	0xbd8da826	-0.069168374
163	0xbe8a1a53	-0.2697321
164	0xbe6d19e3	-0.23154406
165	0xbde75aba	-0.112966016
166	0xbc890a4f	-0.016728548
167	0x3e79b261	0.24384452
168	0x3dc71db6	0.09722464
169	0xbdbbe442	-0.09174396
170	0xbea312cc	-0.31850278
171	0x3ea0abab	0.31380972
172	0x3ced2341	0.028947474
173	0xbe9dfce2	-0.30856997
174	0xbc0e7fce	-0.008697463
175	0x3e9a5595	0.3014342
176	0xbe332eb1	-0.1749828
177	0xbdf5619d	-0.11981509
178	0x3e8d8d86	0.27647036
179	0xbe4e3980	-0.20139122
180	0x3e6cfd32	0.23143461
181	0x3ee8f99b	0.45502934
182	0xbe447eb5	-0.1918896
183	0xbde4163c	-0.11137053
184	0x3e046b84	0.12931639
185	0x3cd6eca3	0.026235884
186	0x3d691d0d	0.05691247
187	0xbd24c853	-0.040230107
188	0xbea8a8e8	-0.32941365
189	0xbf003dd6	-0.50094354
190	0xbe96a610	-0.2942357
191	0x3ecb7a2f	0.39741656
192	0xbe807cc0	-0.25095177
193	0x3e9c3f37	0.3051698
194	0xbead85ad	-0.3389105
195	0x3ee2cae4	0.44295418
196	0x3db03d17	0.08605402
197	0xbe7f724b	-0.24945943
198	0x3d816d97	0.06319731
199	0xbe11e810	-0.14248681
200	0x3db3f9f9	0.08787913
201	0xbdd0fd5a	-0.10204573
202	0x3d9584d3	0.07300725
203	0x3df09546	0.11747222
204	0x3e3231f4	0.17401868
205	0xbe99c9cc	-0.3003677
206	0x3d92d8cb	0.07170256
207	0x3eb24424	0.34817612
208	0x3df3c767	0.11903267
209	0xbe5c27a4	-0.21499497
210	0x3cdebb6c	0.02718898
211	0xbd8aa96b	-0.06770595
212	0x3e8e969c	0.2784928
213	0xbe050c47	-0.12992965
214	0x3e3697e2	0.17831376
215	0x3e1ea09d	0.15490957
216	0x3e030669	0.12795414
217	0xbebba7a2	-0.3665133
218	0x3e825f01	0.25463107
219	0x3e1cf9d1	0.15329672
220	0x3e0fd184	0.14044768
221	0xbf01003f	-0.50391
222	0x3f4ee94a	0.8082472
223	0x3eb1ec52	0.3475061
224	0x3e53de2e	0.20690224
225	0xbe24da02	-0.16098788
226	0x3db8a2ee	0.09015451
227	0xbd2b7192	-0.041856356
228	0xbd82cd93	-0.063868664
229	0x3eac9a8c	0.3371166
230	0xbea165c1	-0.31522945
231	0xbd53cec4	-0.05171086
232	0x3c231ea8	0.0099560395
233	0x3e0cf482	0.13765147
234	0x3bf49cd8	0.0074649863
235	0xbdd3a11a	-0.10333462
236	0xbc878465	-0.016542623
237	0x3c5b0d7c	0.013369914
238	0x3e43782e	0.19088814
239	0xbe0987fe	-0.13430783
240	0xbeccab1e	-0.39974302
241	0xbe095124	-0.13409859
242	0xbe09c0c5	-0.13452442
243	0xbee33d11	-0.44382527
244	0xbe901bf7	-0.28146335
245	0xbedb1f7d	-0.4279746
246	0xbf3766ea	-0.7164141
247	0x3b952671	0.0045517017
248	0xbf07a207	-0.5298161
249	0xbef4af21	-0.47789863
250	0xbd50f516	-0.051014982
251	0xbc9dec3f	-0.01927769
252	0xbdb44b46	-0.0880342
253	0x3e0aec80	0.1356678
254	0x3e0a1841	0.13485815
255	0xbe99729f	-0.2997026

layers.0.bias f4 [128]
0	0x3ea01f74	0.31273997
1	0x3efc8ddb	0.49326977
2	0xbe0b544b	-0.13606374
3	0x3f4d0d73	0.80098647
4	0x3f1c95cb	0.61166066
5	0xbe1d2a56	-0.15348181
6	0xbdce20a3	-0.10064819
7	0x3e362505	0.1778756
8	0xbed19024	-0.40930283
9	0x3dc25baa	0.0949014
10	0x3ef29d55	0.4738566
11	0x3ee89b68	0.45431066
12	0x3e4b3bb9	0.19847001
13	0x3e80227b	0.25026307
14	0x3dc831bf	0.09775113
15	0x3e0f8a5d	0.14017625
16	0xbde9b447	-0.11411338
17	0x3dab33d9	0.083594985
18	0x3ec00d67	0.37510225
19	0xbb3fe44a	-0.0029280358
20	0xbdd62957	-0.10457104
21	0x3f0954fb	0.53645295
22	0xbf039c37	-0.5141024
23	0x3f2ebf02	0.68260205
24	0xbebfcfe3	-0.37463292
25	0x3f06dc32	0.5267974
26	0x3f17b11e	0.59254634
27	0x3f019b4c	0.5062759
28	0xbeb3e50c	-0.35135686
29	0x3ec7146b	0.38882765
30	0x3e6735e1	0.22579147
31	0x3f09f83c	0.538944
32	0xbea08e19	-0.31358412
33	0x3d64774d	0.055777837
34	0x3e04e352	0.12977341
35	0xbe92d571	-0.28678468
36	0xbe1b5d34	-0.15172273
37	0x3f1ac1af	0.6045179
38	0xbe975dec	-0.29563844
39	0xbd699a8e	-0.05703216
40	0xbd21f09e	-0.03953611
41	0x3d0e06a8	0.034674317
42	0xbda302f7	-0.0795955
43	0xbdc35f1e	-0.095396265
44	0xbeee98a7	-0.4660084
45	0x3daa83ee	0.08325945
46	0xbd3c0895	-0.045906622
47	0x3f3675ae	0.71273315
48	0xbeaa51b1	-0.3326545
49	0x3e4937b0	0.1965015
50	0xbe3dafd9	-0.18524112
51	0x3f14152a	0.57844794
52	0x3ebf332e	0.37343735
53	0xbeb3f946	-0.35151118
54	0x3ea6e483	0.32596216
55	0xbf1ca858	-0.6119437
56	0x3e5e61da	0.21717015
57	0xbe3907eb	-0.18069427
58	0xbef9970c	-0.48748052
59	0x3f048ca2	0.5177709
60	0x3f0c48c8	0.54798555
61	0x3ee87a51	0.4540582
62	0xbe19227e	-0.14954564
63	0x3ea49031	0.3214126
64	0xbebb3ffd	-0.36572257
65	0xbe1c4af8	-0.15262973
66	0x3c75cfee	0.015003188
67	0xbda3a279	-0.079899736
68	0xbccfa665	-0.025347898
69	0xbe47cfdb	-0.19512884
70	0x3e4adf9c	0.19811863
71	0x3ed76acb	0.42073664
72	0x3e618a86	0.22025499
73	0xbe9646b0	-0.29350805
74	0x3d160602	0.036626823
75	0x3deef21b	0.11667272
76	0xbe536a84	-0.20646101
77	0x3e8a84d5	0.27054468
78	0x3e6c9839	0.23104943
79	0x3dba69a5	0.09102181
80	0x3efbff92	0.49218422
81	0xbf1674ff	-0.5877227
82	0x3e23d3f9	0.1599883
83	0xbd8b7c46	-0.06810813
84	0x3ea619cf	0.32441565
85	0xbdf90bac	-0.12160429
86	0x3ec84518	0.39115214
87	0x3dbe754a	0.09299715
88	0x3e78a0b8	0.2428006
89	0x3d14c020	0.036316037
90	0xbe4ef65f	-0.2021117
91	0xbec9f925	-0.39447895
92	0xbe9b6f0e	-0.30358166
93	0x3d3668d4	0.044533566
94	0x3ea660e2	0.3249579
95	0xbed4f756	-0.41594952
96	0xbdebce34	-0.115139395
97	0xbeea1cab	-0.45724997
98	0xbe8bc04c	-0.27295148
99	0x3eefcb81	0.4683495
100	0x3ea3e773	0.3201252
101	0xbe9b3bf6	-0.30319184
102	0x3d5f22e2	0.054476626
103	0xbe4ce33b	-0.20008557
104	0x3f232733	0.6373169
105	0x3e635208	0.22199261
106	0xbd998e06	-0.07497792
107	0x3df85e9b	0.121274196
108	0x3d0d4581	0.034490112
109	0x3e9735ae	0.29533142
110	0x3d602b64	0.05472888
111	0x3f344840	0.70422745
112	0x3d4333fd	0.047657
113	0x3e81ed98	0.25376582
114	0xbdd646de	-0.104627356
115	0xbe708fd3	-0.23492365
116	0xbf0167d0	-0.5054903
117	0x3eb88cc6	0.36044902
118	0x3e8ba113	0.27271327
119	0x3e6ec108	0.23315823
120	0xbe164e84	-0.14678389
121	0xbd2bc5b3	-0.041936588
122	0x3e90ac40	0.28256416
123	0x3e25829d	0.16163106
124	0xbdfbaefd	-0.12289236
125	0xbe8bc21b	-0.27296528
126	0xbe100494	-0.14064246
127	0x3e2afe27	0.16698514

layers.1.weight f4 [128, 128]
0	0xbd371783	-0.044700157
1	0x3e01b26d	0.1266572
2	0x3d920f24	0.07131794
3	0x3ddcacb5	0.10775129
4	0x3e89ca19	0.26912
5	0xbd3eac43	-0.046551
6	0xbd73cd4a	-0.05952195
7	0xbe0be4ee	-0.13661548
8	0xbe46ea41	-0.19425298
9	0x3e290602	0.16506198
10	0x3ce80c65	0.028326223
11	0x3dff30b5	0.12460462
12	0x3c8d595f	0.01725453
13	0xbe82894d	-0.25495377
14	0x3dc533b3	0.096290015
15	0xbda8bc58	-0.08239049
16	0xbde221a7	-0.11041575
17	0x3d630ae1	0.055430297
18	0xbd46170f	-0.048361834
19	0xbe89521a	-0.2682045
20	0x3ccb24b0	0.024797767
21	0x3e2be86f	0.16787885
22	0x3d941a97	0.07231634
23	0x3d477247	0.048692968
24	0xbd273e6e	-0.040831022
25	0x3b1a7486	0.0023567989
26	0x3e4ec469	0.20192112
27	0x3d16fc26	0.03686156
28	0xbdee8332	-0.11646117
29	0x3e14d3c2	0.14533904
30	0x3b74583e	0.0037284042
31	0xbd78ebb9	-0.060771678
32	0xbad1bbc6	-0.0016001395
33	0xbe2a5078	-0.16632259
34	0x3d8dde2c	0.069271415
35	0xbe41a041	-0.18908788
36	0xbd8580bf	-0.06518697
37	0x3ea9b28d	0.33144036
38	0x3ddfc9f9	0.10927195
39	0xbe9d8a11	-0.307694
40	0xbdd9fe15	-0.106441654
41	0x3d3841e9	0.04498473
42	0xbe63cac2	-0.22245315
43	0x3c978c9c	0.018499665
44	0x3db3346f	0.08750235
45	0xbda7ea14	-0.08198944
46	0x3dfa10aa	0.1221021
47	0x3b938aa1	0.00450261
48	0xbd0f4ff1	-0.034988347
49	0xbda8dfb3	-0.08245792
50	0xbd9d8953	-0.07692208
51	0x3e033526	0.12813243
52	0xbe34f0d4	-0.17669994
53	0x3da94fd4	0.08267179
54	0xbd0e7056	-0.0347751
55	0xbbb28a1b	-0.0054485924
56	0xbdae1bf6	-0.08501427
57	0xbdc68bcd	-0.09694634
58	0x3dcce413	0.10004439
59	0xbd37c827	-0.044868615
60	0x3d98b78f	0.07456886
61	0xbce7e2ec	-0.028306447
62	0x3c511141	0.012760461
63	0x3e51a5d8	0.2047342
64	0xbda7b278	-0.08188337
65	0xbce016a2	-0.027354542
66	0xbe50878d	-0.20364209
67	0xbe2c9ccb	-0.16856687
68	0xbe1f0785	-0.15530212
69	0xbc36768d	-0.011136663
70	0x3ba30e4a	0.0049760686
71	0xbd1bdaf5	-0.03805061
72	0xbb621de3	-0.0034502677
73	0x3b8c2463	0.0042767986
74	0x3c46a8a3	0.012125167
75	0x3d464056	0.0484012
76	0xbc5a77b3	-0.013334203
77	0xbd87c8bd	-0.06630085
78	0x3dfcd13a	0.12344594
79	0x3ca1c5f2	0.019747708
80	0x3d72b7b3	0.05925722
81	0x3e336424	0.1751867
82	0xbe84f830	-0.25970602
83	0xbce37cfc	-0.027769558
84	0x3d46ac5e	0.048504226
85	0xbbbfe7cf	-0.005856491
86	0x3dd9aec8	0.1062904
87	0xbe38c2fe	-0.18043134
88	0x3bc78dbf	0.0060898955
89	0xbb6575c5	-0.0035012823
90	0xbe1af6c2	-0.15133193
91	0x3dee5fa2	0.11639334
92	0xbe1914dc	-0.14949363
93	0x3d91002b	0.0708011
94	0x3dabce31	0.08388937
95	0x3db86d56	0.09005229
96	0xbe19ffb1	-0.15038945
97	0x3d6e8199	0.058229063
98	0xbe09c335	-0.13453372
99	0x3de70160	0.11279559
100	0x3d7570bb	0.05992196
101	0xbb5c6ead	-0.0033635304
102	0x3d750d27	0.059826996
103	0xbe193532	-0.14961699
104	0x3e158a2a	0.14603487
105	0x3d6ccb90	0.05781132
106	0x3d25e5ba	0.040502287
107	0x3cb8fe76	0.022582274
108	0x3db703fa	0.08936305
109	0x3d07911f	0.033097383
110	0xbdff6f66	-0.124724194
111	0x3e673ea6	0.22582492
112	0x3d1941b3	0.03741617
113	0x3e5f524a	0.21808735
114	0xbe0fdbdc	-0.14048713
115	0x3dbfed5b	0.09371444
116	0xbc9aa127	-0.018875672
117	0x3e3096ea	0.17245069
118	0x3e0bf851	0.13668944
119	0xbd889a2f	-0.06670033
120	0x3de1276b	0.109938465
121	0x3df80e18	0.12112063
122	0x3e6f68a6	0.23379764
123	0xbe22c9e0	-0.15897322
124	0xbc152050	-0.009101942
125	0xbd7af152	-0.061265297
126	0xbe063e37	-0.1310967
127	0xbdb7df1c	-0.089781016
128	0x3da68008	0.08129889
129	0x3d0d5b99	0.034511182
130	0x3d068360	0.032840133
131	0x39e19ed3	0.00043033678
132	0x3c6b5626	0.014363801
133	0x3da5055c	0.08057663
134	0x3c352610	0.011056438
135	0xbdd431f1	-0.10361088
136	0xbaf1b2a3	-0.0018440079
137	0x3e362623	0.17787986
138	0xbdabbbe3	-0.08385446
139	0x3c0461ce	0.008079959
140	0x3e14be81	0.14525796
141	0x3cbaaa7f	0.022786377
142	0x3d3dc286	0.04632809
143	0x3e2e1ee0	0.17003965
144	0xbbddf3c9	-0.006773446
145	0x3cd21e5f	0.025649248
146	0x3ce5653a	0.02800237
147	0x3cf68627	0.030093266
148	0x3c659bd7	0.014014206
149	0xbd35272a	-0.044226803
150	0xbb786d2d	-0.003790687
151	0xbdb37ac2	-0.087636486
152	0x3d9e591d	0.07731841
153	0x3e0542a0	0.13013697
154	0xbcc1d72c	-0.023662172
155	0x3e0e2710	0.13882089
156	0xbcaf7fd5	-0.02142326
157	0x3da6807f	0.081299774
158	0x3d6c0aa8	0.05762735
159	0xbc71f5d5	-0.014768084
160	0xbd8345ad	-0.06409774
161	0xbd88c682	-0.06678487
162	0x3dd0ef61	0.10201908
163	0x3c31ba4c	0.010847639
164	0x3e1c6528	0.15272963
165	0x3d4bc98e	0.049752764
166	0x3dca2a84	0.098713905
167	0xbdf374f7	-0.11887544
168	0x3dc9e18e	0.09857474
169	0x3dea0c30	0.11428106
170	0xbc7a7666	-0.015287017
171	0xbcb8651a	-0.022509146
172	0xbe1f4f1a	-0.15557519
173	0xbcd28718	-0.025699183
174	0x3c9d1c6a	0.019178588
175	0x3cac4e63	0.021033471
176	0xbc029929	-0.007971087
177	0x3da11dfb	0.078670464
178	0x3cd7850f	0.026308564
179	0x3d2fd3a4	0.042926446
180	0xbe070085	-0.13183792
181	0x3bdd1f0f	0.0067480872
182	0x3df30a52	0.11867203
183	0x3ddadc83	0.106865905
184	0x3cb41f87	0.02198769
185	0xbdbbcb75	-0.09169666
186	0xbd29aa91	-0.04142243
187	0x3d1dacc7	0.03849485
188	0xbd98fb1e	-0.07469772
189	0x3db9b8f3	0.090684794
190	0x3d212f43	0.039351713
191	0x3cfdd4e1	0.030985298
192	0x3e06e985	0.13175018
193	0xbd093976	-0.033502065
194	0x3cefecdf	0.029287754
195	0xbe2b1799	-0.1670822
196	0x3dc9e8e5	0.09858874
197	0x3d9d7f6e	0.07690321
198	0x3d907c2b	0.07054933
199	0x3d0154a7	0.03157487
200	0x3e2ef21f	0.1708455
201	0x3d9f1b42	0.07768871
202	0xbd39a466	-0.0453228
203	0xbd5edecb	-0.05441169
204	0xbc64a21b	-0.013954665
205	0x3dcd38b0	0.10020578
206	0x3d5f742f	0.05455416
207	0x3d6e0378	0.058108777
208	0xbd997ef2	-0.07494916
209	0x3d8fb3de	0.07016729
210	0x39a71769	0.00031870164
211	0x3d074fe8	0.03303519
212	0x3df748ab	0.12074407
213	0x3be7e9a0	0.007077411
214	0x3d20d79b	0.039268117
215	0x3d2046ff	0.039130207
216	0x3d5f9d26	0.054593228
217	0xbb05650b	-0.0020354416
218	0x3d1ad181	0.037797455
219	0xbd83912d	-0.064241745
220	0x3d4beba3	0.049785268
221	0xbcc041a1	-0.023468794
222	0xbd1e2bf1	-0.038616125
223	0xbd82a8ee	-0.06379877
224	0x3d9d14be	0.07669972
225	0x3cf356ba	0.02970444
226	0x3b9cf51e	0.0047899624
227	0x3d71e1b4	0.059053138
228	0x3dff0308	0.1245175
229	0xbd782b0f	-0.06058794
230	0x3dc3b4e0	0.095559835
231	0x3dd55593	0.104167126
232	0x3cc60026	0.024169993
233	0xbd0ce641	-0.034399275
234	0x3da978d5	0.08275
235	0xbd384208	-0.044984847
236	0x3d1197a8	0.03554502
237	0x3c981a6d	0.018567288
238	0x3d6f5c91	0.058437888
239	0xbd770e67	-0.06031647
240	0x3d1a2983	0.037637245
241	0xbd9d3a47	-0.07677131
242	0x3d1ffa4f	0.039057072
243	0xbdb304b1	-0.08741129
244	0xbdc98eb1	-0.09841669
245	0xbc72cc87	-0.014819271
246	0x3dc41693	0.09574618
247	0xbcaee741	-0.021350505
248	0x3b44f4e3	0.003005319
249	0x3c9563c1	0.018236043
250	0xbbcf7ec8	-0.006332252
251	0x3ca5f5b7	0.020258768
252	0xbdcc6d78	-0.09981817
253	0xbdefe93f	-0.1171441
254	0x3dc2ca54	0.09511247
255	0xbd2ef579	-0.04271457
