Gym-DDPG-solution/results/DDPG_HalfCheetah-v4_4500-eps0.3-t32-l0.0001-s1.pth (torch, 193979 bytes, 13 tensors)

layers.0.weight f4 [128, 23]
0.2840262 -0.090913594 0.11321014 0.20225309 -0.34021947 0.55272657 0.22248754 0.20620222
-0.07405756 0.1682693 0.08187048 -0.0005082909 0.02100055 -0.015134685 0.0026672124 0.00019315178
0.0029528956 0.13699506 0.24138227 0.15073483 -0.1239816 -0.10567582 -0.13646664 -0.2717571
-0.17275229 0.4950086 0.18326926 -0.17273054 -0.38949037 0.4200838 0.20558487 0.26216742
0.36893487 -0.281341 -0.05230457 -0.10627639 0.029781802 0.042168494 0.06614365 -0.0037015579
0.16046305 -0.1036175 0.053184975 -0.5280476 -0.15034615 -0.0004512578 0.30002165 0.12332186
-0.34483784 0.055528406 -0.21187216 0.029412523 0.3289364 0.3147472 0.38475788 0.5068482
0.2800673 0.04870541 0.029800076 0.018277667 0.031746123 0.04019442 0.037664164 0.3300058
-0.17966565 -0.007654053 -0.17186944 0.11784025 -0.08539585 -0.47489586 0.09372793 -0.1708397
-0.08408424 0.0079929 0.04887165 -0.19000527 0.13987318 0.27555314 -0.52164304 0.15175319
-0.06543193 -0.06434238 -0.00888319 0.035826884 0.047104154 -0.0008603286 -0.40313637 0.024689998
-0.0059486353 0.13798986 0.14777943 -0.1953787 0.6072742 0.08653099 -0.49035576 -0.3681677
0.11842705 -0.03842846 -0.11240514 -0.13757274 0.2347245 0.08875547 0.2513539 0.031100122
0.013929397 0.0067902766 0.045212395 0.036489967 -0.019174255 0.09824854 -0.01902804 0.10996972
0.27025878 -0.13730264 0.08612168 0.67144275 0.017269334 -0.26842076 -0.30838838 -0.2186625
-0.031269986 -0.09228247 0.18395448 -0.092185676 -0.09873495 -0.2600843 -0.053286567 -0.035033107
0.002144256 0.027665136 0.012640341 -0.0004446926 0.18085913 0.15654509 0.16180219 0.20596233
0.026646249 0.04358631 0.062001247 -0.463934 -0.026787046 -0.2258466 -0.22480273 -0.041087013
0.009342861 0.27197358 0.2785131 0.18497187 0.05214673 0.042424757 0.01753506 0.11065342
-0.009416303 -0.0037596694 -0.011929404 -0.38257945 -0.033251096 -0.13019876 0.113776244 -0.049805984
0.07813513 0.49986762 -0.08823367 0.61770916 0.17801933 -0.016492216 -0.13523455 -0.23963188
-0.23481855 0.020291945 0.065275215 0.04985325 -0.022235565 0.03126644 -0.00014051188 0.093561254
0.043365538 0.012114542 -0.34001452 0.05866475 -0.065459825 -0.0012204244 -0.072395295 -0.025607565
-0.1372063 0.15732081 -1.0494407 -0.23977314 0.07530227 -0.38911483 0.063459106 -0.26789975
-0.124386616 0.021554647 0.20873858 -0.13190484 0.0070847403 0.0131047545 0.17332621 0.0024503737
0.06120277 -0.20782448 0.030686282 -0.1573814 0.22721277 0.21167952 0.3217033 0.47350806
-0.05835797 -0.16943777 0.6708729 0.17823888 -0.12978067 0.10829894 -0.16578375 0.38438612
-0.35046685 -0.11089756 0.12226078 0.049923275 0.013773609 0.09611332 -0.031977147 0.019122064
0.36126927 0.16440637 -0.2690033 1.1413898 -0.0013610882 0.2663532 0.2338765 -0.28938952
0.8248355 0.22503142 -0.04713801 0.013899858 0.32293296 0.19158141 0.0504003 -0.2918197
-0.31855333 -0.030975746 0.009469307 0.010170121 -0.094344676 -0.043503847 -0.014105732 -0.0887529
-0.025287447 0.13445707 0.08824299 0.023502735 0.027563475 0.75724244 -0.09022456 0.534057
00000000: e26b 913e e830 babd b8da e73d 6f1b 4f3e
00000010: 3f31 aebe 7d7f 0d3f c6d3 633e ad26 533e
00000020: 7dab 97bd ca4e 2c3e b6ab a73d d33e 05ba
00000030: 5809 ac3c 78f7 77bc 66cc 2e3b c988 4a39
00000040: 5e85 413b 6f48 0c3e ea2c 773e 3b5a 1a3e
00000050: 11ea fdbd 906c d8bd e9bd 0bbe bf23 8bbe
00000060: fae5 30be c471 fd3e f0aa 3b3e 46e0 30be
00000070: 486b c7be 3915 d73e d784 523e cf3a 863e
00000080: 08e5 bc3e ed0b 90be 513d 56bd 70a7 d9bd
00000090: f7f8 f33c dfb8 2c3d 5276 873d d695 72bb
000000a0: 6d50 243e 6935 d4bd 7dd8 593d 212e 07bf
000000b0: 57f4 19be cc96 ecb9 709c 993e 2c90 fc3d
000000c0: 968e b0be c171 633d 04f5 58be 88f2 f03c
000000d0: 5a6a a83e 8c26 a13e fcfe c43e cec0 013f
000000e0: fb64 8f3e 537f 473d 4a1f f43c 0cbb 953c
000000f0: 3908 023d e7a2 243d bd45 1a3d 85f6 a83e
00000100: 46fa 37be dace fabb 8bfe 2fbe 3b56 f13d
00000110: 05e4 aebd 8d25 f3be 6ef4 bf3d 9af0 2ebe
00000120: 5c34 acbd a7f4 023c a42d 483d be90 42be
00000130: ea3a 0f3e 4d15 8d3e 668a 05bf 3065 1b3e
00000140: 2d01 86bd f0c5 83bd cd8a 11bc 36bf 123d
00000150: 49f0 403d ad87 61ba e467 cebe ae42 ca3c
00000160: c5ec c2bb 374d 0d3e 7e53 173e 5b11 48be
00000170: 5276 1b3f 2937 b13d e90f fbbe 7a80 bcbe
00000180: e289 f23d 2967 1dbd ab34 e6bd dedf 0cbe
00000190: 9f5b 703e 6ec5 b53d 75b1 803e afc5 fe3c
000001a0: 2038 643c f880 de3b a230 393d 8176 153d
000001b0: 5413 9dbc 8836 c93d b1e0 9bbc ce37 e13d
000001c0: 5c5f 8a3e 1099 0cbe 9060 b03d ace3 2b3f
000001d0: 6b78 8d3c 726e 89be 15e5 9dbe 10e9 5fbe
000001e0: f514 00bd 97fe bcbd 905e 3c3e d8cb bcbd
000001f0: 8d35 cabd c529 85be 0443 5abd e07e 0fbd
00000200: a586 0c3b ffa1 e23c 6f19 4f3c a125 e9b9
00000210: 2333 393e 5b4d 203e 79af 253e cae7 523e
00000220: 3c49 da3c 8f87 323d 05f5 7d3d c288 edbe
00000230: 8270 dbbc 5544 67be b032 66be db4a 28bd
00000240: cd12 193c 1f40 8b3e 4599 8e3e 4469 3d3e
00000250: cf97 553d 95c5 2d3d b0a5 8f3c 439e e23d
00000260: d646 1abc c964 76bb 8c73 43bc 74e1 c3be
00000270: 4d32 08bd d352 05be 8503 e93d 5c01 4cbd
00000280: 5005 a03d a6ee ff3e dbb3 b4bd 3022 1e3f
00000290: b34a 363e af1a 87bc ed7a 0abe 0f62 75be
000002a0: 4674 70be 4b3b a63c 03af 853d ec32 4c3d
000002b0: 5c27 b6bc 3d11 003d 5f56 13b9 0b9d bf3d
000002c0: 10a0 313d 127c 463c 6216 aebe 734a 703d
000002d0: cd0f 86bd a6f6 9fba fc43 94bd f5c6 d1bc
000002e0: cf7f 0cbe b518 213e 1354 86bf 1787 75be
000002f0: 1438 9a3d 0f3a c7be d9f6 813d 282a 89be
00000300: 69be febd 5f93 b03c 91bf 553e 1012 07be
00000310: 1c27 e83b 53b5 563c 6d7c 313e 7396 203b
00000320: c1af 7a3d f1cf 54be cc61 fb3c 9728 21be
00000330: 77aa 683e 84c2 583e 4cb6 a43e a66f f23e
00000340: c408 6fbd 1881 2dbe 54be 2b3f 4184 363e
00000350: 39e5 04be d6cb dd3d 37c3 29be 42ce c43e
00000360: 6470 b3be 431e e3bd dc63 fa3d 597c 4c3d
00000370: b4aa 613c 0fd7 c43d 78fa 02bd e0a5 9c3c
00000380: 49f8 b83e 255a 283e cdba 89be 1019 923f
00000390: 8b66 b2ba 725f 883e 527d 6f3e dd2a 94be
000003a0: 6b28 533f a36e 663e c913 41bd 3bbc 633c
000003b0: 7857 a53e eb2d 443e 8c70 4e3d 6469 95be
000003c0: 6c19 a3be d9c0 fdbc 2725 1b3c 94a0 263c
000003d0: c837 c1bd 1731 32bd ba1b 67bc 15c4 b5bd
000003e0: 9f27 cfbc 1daf 093e beb8 b43d cf88 c03c
000003f0: cccc e13c a4da 413f a7c7 b8bd f6b7 083f

layers.0.bias f4 [128]
-0.09403333 -0.1651377 -0.4232194 0.08373338 -0.123510525 -0.19676179 -0.06950313 -0.17854303
-0.11695869 -0.12904084 -0.2617225 -0.4271691 -0.1042215 -0.22199744 0.041137874 -0.044490427
0.51407874 -0.21899475 -0.25138733 -0.4331288 0.55175865 -0.12693821 -0.18213925 -0.21786463
-0.22836779 -0.23286757 -0.31333193 -0.3054699 -0.1641345 -0.0064143883 0.18949963 0.18498802
0.16416276 -0.13443314 -0.3421859 0.1733191 -0.4284301 -0.33385554 0.12935093 -0.19287354
-0.09387262 -0.3037364 0.077923946 -0.18522538 -0.036010873 -0.044328928 -0.4350672 -0.59405863
-0.11070897 0.44964227 -0.32133862 -0.39749458 0.25797454 0.37546316 0.4597275 -0.33127692
-0.034920104 -0.1320802 0.35010314 0.2269185 0.033855613 0.13381816 -0.5077967 -0.061536357
0.01744521 0.36818865 -0.065493375 -0.24257554 -0.349394 -0.273736 0.24979214 0.3619044
0.54255617 -0.30015483 0.025864977 -0.408076 -0.2260853 0.024162365 0.26388738 -0.041104846
0.06393425 -0.4034154 0.16640155 0.17396055 -0.06721185 -0.16059889 -0.2622952 0.20938513
0.33190617 -0.34302205 -0.08418526 0.2502208 -0.009187089 -0.29904935 -0.050830916 -0.18284327
-0.30987242 0.2830183 0.10061889 0.2708587 0.1962346 -0.15289028 -0.32943907 0.2009739
0.27920642 0.10601617 0.0046288273 0.013644984 -0.27150655 -0.14489006 0.26007962 0.6002935
0.16671644 0.002149429 0.33324867 -0.511978 0.17458601 0.29572472 -0.09094843 0.3641012
0.15398088 -0.104322545 -0.21122043 0.012923949 -0.016405739 -0.2587723 -0.0875023 -0.5527438
00000000: 8c94 c0bd db19 29be 37b0 d8be 687c ab3d
00000010: 16f3 fcbd ec7b 49be a857 8ebd fcd3 36be
00000020: 0a88 efbd 4823 04be 7e00 86be e9b5 dabe
00000030: 1572 d5bd 4c53 63be 3080 283d 983b 36bd
00000040: aa9a 033f 2940 60be d7b5 80be 0fc3 ddbe
00000050: 0e40 0d3f 17fc 01be b682 3abe e817 5fbe
00000060: 3fd9 69be d674 6ebe 0b6d a0be 8d66 9cbe
00000070: e012 28be ca2f d2bb 310c 423e 806d 3d3e
00000080: 481a 283e d7a8 09be fe32 afbe 907a 313e
00000090: 315b dbbe 1def aabe 9274 043e a480 45be
000000a0: 4a40 c0bd 5683 9bbe 9796 9f3d b9ab 3dbe
000000b0: 2380 13bd 4092 35bd 21c1 debe 3a14 18bf
000000c0: 62bb e2bd 8337 e63e 7f86 a4be 6984 cbbe
000000d0: 3d15 843e b53c c03e 6761 eb3e 219d a9be
000000e0: 6208 0fbd 0840 07be b840 b33e 535d 683e
000000f0: 2fac 0a3d a107 093e f7fe 01bf 8c0d 7cbd
00000100: 42e9 8e3c 3983 bc3e 6421 86bd b965 78be
00000110: c5e3 b2be 2027 8cbe 83c9 7f3e 894b b93e
00000120: f6e4 0a3f e5ad 99be cae2 d33c 56ef d0be
00000130: e882 67be 27f0 c53c 3f1c 873e 8e5d 28bd
00000140: f6ef 823d 778c cebe 2b65 2a3e b722 323e
00000150: 5ea6 89bd 0974 24be 8e4b 86be 0e69 563e
00000160: 9bef a93e 96a0 afbe 5269 acbd f11c 803e
00000170: 7285 16bc ff1c 99be 1434 50bd 443b 3bbe
00000180: 99a7 9ebe c6e7 903e 4711 ce3d fead 8a3e
00000190: b9f1 483e 458f 1cbe 3dac a8be 1acc 4d3e
000001a0: 25f4 8e3e 011f d93d 6bad 973b 368f 5f3c
000001b0: e802 8bbe 0f5e 14be 2829 853e d6ac 193f
000001c0: b7b7 2a3e 6fdd 0c3b 929f aa3e fd10 03bf
000001d0: adc6 323e 3b69 973e 2c43 babd 796b ba3e
000001e0: 2aad 1d3e 0fa7 d5bd 2b4a 58be f9be 533c
000001f0: 5465 86bc ce7d 84be 6834 b3bd 9e80 0dbf

layers.1.weight f4 [128, 128]
0.0038787897 -0.07834813 -0.074073784 0.028388161 0.016352076 0.026247323 0.061857738 0.010873677
-0.027620303 0.10318821 -0.10370889 0.013209988 0.099790506 -0.04144898 0.014046398 0.050132345
0.0930845 -0.084390365 -0.06190799 0.029491007 0.010030515 -0.045710023 0.04373914 -0.014200093
0.0121102035 -0.079836644 -0.20811163 -0.021249492 0.036992967 -0.06854466 -0.1070655 0.12314763
-0.062012006 0.045807254 0.11541602 0.0021872632 -0.025501793 -0.0040668026 0.016345497 0.024184262
0.08518742 0.07447243 0.007970359 -0.0103864195 -0.06159415 -0.059189294 0.08513995 0.011228413
-0.019723821 0.017568275 -0.00709483 0.05896561 -0.0394928 -0.05829454 -0.013070296 -0.06422702
-0.010885895 0.15714887 0.08161737 -0.100755334 -0.042461053 0.115557306 0.0986247 -0.041459925
0.00430056 -0.057392623 0.040521864 -0.04725012 0.04376116 0.023285395 0.09098147 -0.070868105
-0.019947492 -0.03083231 -0.009831143 -0.053620707 0.08692631 -0.06307981 0.12772341 0.0832214
0.048252963 0.15152602 0.09936709 0.013755255 -0.0048399027 0.021712221 -0.0020448156 -0.14558007
-0.06857059 -0.050397463 -0.0008937902 0.10428228 -0.055490006 -0.022380348 0.09039051 0.055230208
-0.08000069 0.059959188 0.004317273 -0.05752205 -0.0043896954 0.03767215 -0.10650181 -0.0099096075
-0.096615694 0.04359767 0.079814196 0.041875515 -0.016059507 -0.07119824 0.01003105 -0.22811206
0.09117141 -0.04104054 -0.054678485 0.120074995 -0.08139485 -0.036262415 -0.02657464 0.13675658
0.041858368 -0.0045854575 -0.1441939 0.07694857 -0.13356127 0.1055168 0.036119375 0.031762946
0.019817993 0.094739825 0.104712434 0.000594486 -0.03965668 -0.011688575 0.052453987 0.09075345
-0.11256874 0.15562792 -0.045514632 0.07957009 -0.07846136 -0.032676976 -0.02520846 0.025144536
-0.048032954 0.020660821 0.08760102 0.009759865 -0.0049728737 0.107465096 -0.08386181 -0.009012115
0.029935114 0.07080523 -0.053896796 0.014515519 0.00063057186 -0.06489198 -0.077969365 0.06340792
0.060512513 0.00086494506 0.08906939 -0.101110704 -0.014209006 0.06421446 0.05805873 -0.08627253
-0.0032858464 0.11846539 0.0015792507 0.010467331 -0.13988908 0.07107526 -0.09109779 0.115616016
-0.051603097 -0.025528442 -0.05446818 0.0515458 -0.016432062 -0.12328104 -0.1445114 0.030797444
-3.1660114e-05 0.06840031 0.0001959421 0.04441836 0.028248763 -0.11547079 0.054349557 0.020252647
0.12131425 -0.12779166 0.016286975 -0.05262884 0.068923995 0.08750376 -0.028521324 -0.11591746
-0.111987226 -0.12367105 0.045312766 0.04966957 0.09401573 -0.056000073 0.025161855 0.03466498
0.0153361475 0.0680847 -0.013346828 -0.07425996 -0.009385482 0.07460967 0.081801414 -0.03345869
0.060060345 0.050726447 -0.07156483 0.04218069 0.02765608 0.055892613 -0.07138103 -0.051527917
0.10858117 -0.07273243 -0.110329986 -0.04506522 -0.060542244 0.033180103 -0.013461685 0.07475522
0.0039384747 -0.096726164 -0.00303908 -0.039037008 0.03769185 -0.012892674 -0.14376207 -0.054311138
0.05350528 -0.044267204 0.014338541 0.06104095 -0.08398679 0.061351772 -0.093054056 0.010518671
0.022940883 0.041288227 -0.08331013 -0.040371355 -0.03168311 -0.022956952 0.046825 0.08544072
00000000: 4b33 7e3b fc74 a0bd ffb3 97bd 4a8e e83c
00000010: caf4 853c a004 d73c 8a5e 7d3d 8227 323c
00000020: f943 e2bc 5754 d33d 5465 d4bd b56e 583c
00000030: f75e cc3d 68c6 29bd dd22 663c 9357 4d3d
00000040: 16a3 be3d dbd4 acbd 3c93 7dbd 2097 f13c
00000050: 0757 243c 6f3a 3bbd d027 333d 82a7 68bc
00000060: e069 463c 6581 a3bd 371b 55be 6a13 aebc
00000070: f085 173d 2561 8cbd 2845 dbbd d334 fc3d
00000080: 4d00 7ebd 63a0 3b3d 3c5f ec3d 3058 0f3b
00000090: 23e9 d0bc d042 85bb fee6 853c 131e c63c
000000a0: be76 ae3d 0085 983d 1c96 023c cd2b 2abc
000000b0: 264a 7cbd 7970 72bd db5d ae3d 61f7 373c
000000c0: da93 a1bc 58eb 8f3c bf7b e8bb ec85 713d
000000d0: 34c3 21bd 41c6 6ebd cb24 56bc 7589 83bd
000000e0: c15a 32bc a2eb 203e 0227 a73d d058 cebd
000000f0: a4eb 2dbd 4fa9 ec3d bffb c93d e2d1 29bd
00000100: b6eb 8c3b 8714 6bbd 41fa 253d 5889 41bd
00000110: e73e 333d 03c1 be3c 7e54 ba3d 4c23 91bd
00000120: ec68 a3bc 0a94 fcbc cd12 21bc 63a1 5bbd
00000130: 6c06 b23d fd2f 81bd edc9 023e fb6f aa3d
00000140: e6a4 453d a329 1b3e f980 cb3d b95d 613c
00000150: 0c98 9ebb d4dd b13c 5002 06bb f112 15be
00000160: bd6e 8cbd 926d 4ebd 3f4d 6aba f391 d53d
00000170: 7d49 63bd fe56 b7bc a91e b93d 1239 623d
00000180: 67d7 a3bd c497 753d e977 8d3b 3e9c 6bbd
00000190: 6fd7 8fbb 1d4e 1a3d 9f1d dabd e85b 22bc
000001a0: 73de c5bd 7893 323d a075 a33d a985 2b3d
000001b0: 3a8f 83bc 62d0 91bd 4659 243c 3596 69be
000001c0: 14b8 ba3d 201a 28bd 8cf6 5fbd e1e9 f53d
000001d0: 58b2 a6bd e687 14bd 0fb3 d9bc eb09 0c3e
000001e0: ae73 2b3d 9b41 96bb 91a7 13be 3697 9d3d
000001f0: 49c4 08be 3119 d83d e9f1 133d dd19 023d
00000200: 5859 a23c f406 c23d 7973 d63d 48d7 1b3a
00000210: 0b6f 22bd 7081 3fbc fed9 563d f2dc b93d
00000220: 718a e6bd ed5c 1f3e 8d6d 3abd a5f5 a23d
00000230: 59b0 a0bd 4bd8 05bd f981 cebc eafb cd3c
00000240: 34be 44bd e240 a93c 2a68 b33d d7e7 1f3c
00000250: 7df3 a2bb a916 dc3d bebf abbd 8da7 13bc
00000260: 7c3a f53c 5502 913d e3c2 5cbd 80d2 6d3c
00000270: f64c 253a 16e6 84bd 67ae 9fbd 03dc 813d
00000280: f8db 773d 7bbd 623a 036a b63d 2113 cfbd
00000290: e4cc 68bc df82 833d fece 6d3d a7af b0bd
000002a0: 5b57 57bb fb9d f23d dcfe ce3a 2b7f 2b3c
000002b0: 153f 0fbe e88f 913d 7a91 babd 17c8 ec3d
000002c0: c55d 53bd 0621 d1bc 071a 5fbd b021 533d
000002d0: 889c 86bc c57a fcbd ccfa 13be ec4a fc3c
000002e0: caca 04b8 7615 8c3d cf75 4d39 07f0 353d
000002f0: f369 e73c f37b ecbd a49d 5e3d e1e8 a53c
00000300: 9b73 f83d d1db 02be 436c 853c 5791 57bd
00000310: 0628 8d3d 2c35 b33d 8da5 e9bc 2266 edbd
00000320: 8f59 e5bd 3f47 fdbd e199 393d 5272 4b3d
00000330: 528b c03d 5560 65bd 3c20 ce3c defc 0d3d
00000340: 7744 7b3c fe6f 8b3d a7ac 5abc 9b15 98bd
00000350: 91c5 19bc f4cc 983d 8087 a73d fb0b 09bd
00000360: d601 763d 89c6 4f3d 9590 92bd a9c5 2c3d
00000370: 018f e23c a7ef 643d 3830 92bd f00e 53bd
00000380: ce5f de3d bef4 94bd b0f4 e1bd 4f96 38bd
00000390: 25fb 77bd dce7 073d 668e 5cbc 4419 993d
000003a0: 520e 813b 5e18 c6bd 4d2b 47bb 45e5 1fbd
000003b0: c562 1a3d cb3b 53bc 5d36 13be 5b75 5ebd
000003c0: 5a28 5b3d 8751 35bd 33ec 6a3c 1306 7a3d
000003d0: 4401 acbd ff4b 7b3d 2093 bebd 8156 2c3c
000003e0: 85ee bb3c d81d 293d 809e aabd 6f5c 25bd
000003f0: 26c6 01bd 3810 bcbc 92cb 3f3d 8bfb ae3d

layers.1.bias f4 [128]
-0.08048989 -0.09918835 -0.07544069 -0.044575024 0.027780438 -0.06135996 0.14962745 0.13350368
-0.077368215 -0.09044079 0.094896615 -0.035159968 -0.00087864837 -0.009172325 0.13819593 -0.0018745796
-0.019745689 0.021213526 0.022069447 0.02557202 0.0939176 0.15048707 -0.014652532 0.14194869
0.18300138 0.05789755 -0.11470153 -0.123332955 0.0013362091 0.13582337 -0.010237718 -0.093931384
-0.1726536 0.07509633 0.0099116145 0.018299202 0.058697775 -0.1608358 0.110401206 0.13904785
-0.030867621 0.10065584 0.13274184 0.01619572 -0.13204385 0.019507652 0.021791982 -0.12615874
-0.09258925 0.036187902 -0.09590556 -0.050128028 -0.050426103 -0.13084109 0.05409252 -0.101677425
0.12249451 -0.14756018 0.003780308 -0.11908246 -0.19277714 0.07838592 -0.11857605 -0.027978694
-0.14557102 -0.06805712 0.0574404 0.02050719 -0.0066983327 -0.1325525 -0.17124282 0.044357926
0.093083225 0.0746378 -0.0462666 -0.024619097 -0.18875648 0.18197833 0.0270199 -0.09893916
0.10696148 0.024681889 0.21991275 0.115462124 0.044338528 -0.045258764 -0.00038007833 0.060571052
-0.027904432 0.1097426 -0.04005643 0.12358035 0.16715008 0.054825395 -0.11018816 0.04141179
0.014637692 0.03902873 -0.130992 0.034626763 -0.07898834 0.00027896307 -0.032715198 -0.15052891
0.049102724 -0.10515443 -0.15997852 -0.1169055 0.13702607 0.016084975 0.028689343 0.10229806
-0.032466695 0.063034505 0.09446849 -0.11366767 -0.03837838 -0.105025224 -0.16726166 -0.02221577
-0.111341946 -0.02789436 0.060937043 0.0731341 -0.088733375 -0.14978412 0.030231852 0.039110973
00000000: e2d7 a4bd 4323 cbbd a680 9abd 4d94 36bd
00000010: cd93 e33c 9554 7bbd f037 193e 30b5 083e
00000020: 3a73 9ebd 0539 b9bd 2859 c23d e603 10bd
00000030: 1855 66ba 8547 16bc 3c83 0d3e 74b4 f5ba
00000040: b6c1 a1bc fdc7 ad3c fcca b43c 6a7c d13c
00000050: df57 c03d 4819 1a3e 2c11 70bc ff5a 113e
00000060: b764 3b3e fb25 6d3d a3e8 eabd fd95 fcbd
00000070: bd23 af3a 4815 0b3e 1abc 27bc 195f c0bd
00000080: 1bcc 30be 1bcc 993d 5364 223c 35e8 953c
00000090: 146d 703d 24b2 24be 071a e23d 8f62 0e3e
000000a0: 18de fcbc a624 ce3d 7aed 073e e3ac 843c
000000b0: 8136 07be 83ce 9f3c 1985 b23c c22f 01be
000000c0: 6f9f bdbd c439 143d 226a c4bd 0c53 4dbd
000000d0: 9a8b 4ebd 35fb 05be 1e90 5d3d 413c d0bd
000000e0: 67de fa3d 041a 17be 0bbf 773b 81e1 f3bd
000000f0: 5f67 45be cc88 a03d 00d8 f2bd 9333 e5bc
00000100: 9210 15be 8861 8bbd a046 6b3d b2fe a73c
00000110: b07d dbbb d8bb 07be 475a 2fbe a8b0 353d
00000120: 6ba2 be3d b4db 983d 0c82 3dbd fdad c9bc
00000130: 6149 41be 8758 3a3e d658 dd3c 9da0 cabd
00000140: 9f0e db3d ac31 ca3c cf30 613e 6877 ec3d
00000150: 519c 353d 4161 39bd 4045 c7b9 5a19 783d
00000160: d697 e4bc bac0 e03d 3612 24bd b217 fd3d
00000170: 6429 2b3e 9890 603d 54aa e1bd 699f 293d
00000180: eed2 6f3c 97dc 1f3d c422 06be cbd4 0d3d
00000190: a4c4 a1bd ca41 9239 5f00 06bd 4024 1abe
000001a0: f01f 493d 355b d7bd 69d1 23be 276c efbd
000001b0: 9050 0c3e a3c4 833c ea05 eb3c a581 d13d
000001c0: ccfb 04bd 3c18 813d b278 c13d 98ca e8bd
000001d0: a632 1dbd 7717 d7bd a446 2bbe d9fd b5bc
000001e0: 3f07 e4bd b682 e4bc 1f99 793d 55c7 953d
000001f0: d8b9 b5bd 0261 19be caa8 f73c d432 203d

layers.2.weight f4 [64, 128]
0.03981757 -0.21431415 -0.10388564 0.14155704 -0.17297451 -0.05683539 0.1816728 0.07882391
0.23056786 0.035665195 0.047215357 0.09905699 -0.069407485 -0.059489597 0.08767534 0.030233894
0.01991278 0.0716766 0.05782408 0.051796474 0.020974193 0.23457643 0.016242262 0.17157142
0.04286378 0.06529248 -0.008317419 0.045327805 -0.03758828 -0.06754215 -0.0019589192 0.0068154954
-0.14068472 0.058675423 0.041768722 -0.042584114 -0.1222374 -0.03808286 0.10158733 0.20055209
-0.12804012 0.11077557 -0.004354507 0.045712203 -0.14937858 0.101326115 0.06874002 0.026691984
-0.12162217 -0.08301941 0.111197434 0.09189765 -0.094643146 0.060465083 0.115798555 0.0062575946
-0.014908759 0.07179341 -0.082408 -0.046751484 -0.045080543 -0.06334807 -0.10689385 0.1856858
0.07653811 -0.13232179 0.059119944 0.09215849 -0.045241654 -0.07205356 -0.06785633 0.23579185
0.18428297 -0.08874848 0.108474426 -0.12108889 -0.04190428 0.04223459 0.050315578 -0.12950186
0.049107183 -0.03274248 0.059156697 0.006554095 -0.02929681 -0.17589447 -0.16401798 -0.0046882494
0.07884269 0.022402605 0.20996569 0.053560622 0.09591336 0.11362657 -0.111346245 0.1816861
-0.06043396 0.06234318 0.014903156 0.1462304 -0.0808805 0.09430716 -0.012958591 -0.005857444
-0.029849641 0.022547476 -0.13583136 -0.05141319 0.1267307 0.07737334 0.007089245 0.047314607
0.07050865 -0.0059970347 -0.036081832 -0.0784722 0.066297695 -0.042906687 -0.14162275 -0.047412317
0.07238608 0.14035058 0.016189221 0.019426942 0.06129411 -0.09628695 0.043342803 -0.06717189
-0.118162565 -0.0001653833 -0.054645635 0.22085138 -0.079128295 0.0148713095 -0.0645769 0.023116438
-0.07642683 -0.069228455 -0.058283195 -0.02458851 0.06628868 -0.25199068 -0.006640967 -0.066699415
-0.10378704 -0.060523123 -0.11841333 -0.08105788 -0.052641038 0.014374969 0.00085141713 0.048385292
-0.036872387 0.0552457 -0.012098808 -0.032939978 -0.25549614 -0.099490896 0.14996445 0.08735833
0.012253303 0.057058927 -0.011061412 0.20877638 0.27255404 -0.0136652 -0.025028573 0.0035057452
-0.22058815 -0.048850294 -0.09384177 0.15280396 0.13606158 0.14689654 -0.007164494 -0.07093603
-0.026310222 -0.04874488 0.020864584 -0.10599845 0.014736702 -0.048702925 -0.011105935 -0.05071636
0.12820897 0.11326513 0.12589271 -0.2015797 -0.005579653 0.05937214 -0.06854187 -0.057872765
0.021999354 -0.047733273 0.09679365 0.18717721 -0.0018965885 -0.091391265 -0.020840311 0.093211144
0.10640688 0.066781975 0.11827888 0.020034509 -0.07693016 0.009521819 0.16966017 -0.10170193
-0.124608934 0.15310882 0.098379806 0.0001801548 -0.046444226 0.046135142 0.18197224 0.060371682
0.18741103 0.0085745985 -0.05934661 -0.029587923 -0.080726095 0.001139035 0.0134041775 0.032979075
-0.01861914 -0.0029315534 0.10737449 0.13420731 0.013505242 -0.027255554 -0.08323896 -0.072075084
0.09771121 -0.22852086 -0.112652965 0.09802428 -0.06639962 0.06465392 0.12012477 -0.15588607
-0.16100122 0.14418805 0.03291545 0.19788283 0.06203208 0.036046438 0.03544954 -0.19229475
0.030091302 -0.10853592 0.035937596 -0.34585285 -0.0006997866 0.056793 -0.11966268 -0.17622429
00000000: c017 233d 2b75 5bbe ffc1 d4bd 54f4 103e
00000010: 3b20 31be 3acc 68bd 6f08 3a3e 6e6e a13d
00000020: fb19 6c3e ab15 123d e464 413d 64de ca3d
00000030: 8325 8ebd 5dab 73bd 218f b33d 12ad f73c
00000040: 2020 a33c 2ecb 923d f1d8 6c3d 8a28 543d
00000050: 12d2 ab3c ce34 703e 7e0e 853c 6bb0 2f3e
00000060: ee91 2f3d 10b8 853d c945 08bc a6a9 393d
00000070: 2bf6 19bd 8a53 8abd 3661 00bb 8554 df3b
00000080: a80f 10be a455 703d ae15 2b3d ae6c 2ebd
00000090: 9a57 fabd c6fc 1bbd 050d d03d 875d 4d3e
000000a0: f31c 03be 4dde e23d 41b0 8ebb b83c 3b3d
000000b0: b3f6 18be 1184 cf3d 91c7 8c3d 26a9 da3c
000000c0: 0b15 f9bd 1506 aabd 7bbb e33d d634 bc3d
000000d0: 44d4 c1bd 3caa 773d cb27 ed3d 820c cd3b
000000e0: de43 74bc 6c08 933d 87c5 a8bd 7c7e 3fbd
000000f0: 60a6 38bd a2bc 81bd 2aeb dabd 6b24 3e3e
00000100: 03c0 9c3d 5d7f 07be c127 723d 97bd bc3d
00000110: 504f 39bd d190 93bd 42f8 8abd 6b73 713e
00000120: adb4 3c3e c3c1 b5bd d727 de3d 74fd f7bd
00000130: d3a3 2bbd 2dfe 2c3d b517 4e3d 239c 04be
00000140: 9d24 493d fb1c 06bd 4b4e 723d bcc3 d63b
00000150: ddff efbc ae1d 34be 54f4 27be e39f 99bb
00000160: 4778 a13d ab85 b73c 3f01 573e 6262 5b3d
00000170: 396e c43d 0cb5 e83d 8009 e4bd ec0b 3a3e
00000180: 9a89 77bd 905b 7f3d 5e2c 743c 6cbd 153e
00000190: ada4 a5bd 1d24 c13d 4550 54bc cdef bfbb
000001a0: 3c87 f4bc 7cb5 b83c 6017 0bbe a396 52bd
000001b0: b1c5 013e ea75 9e3d e64c e83b f6cc 413d
000001c0: d766 903d c682 c4bb 8bca 13bd 08b6 a0bd
000001d0: 16c7 873d ecbe 2fbd 8e05 11be 6b33 42bd
000001e0: 273f 943d 10b8 0f3e 429f 843c 4025 9f3c
000001f0: 880f 7b3d 1832 c5bd 3988 313d 6a91 89bd
00000200: 37ff f1bd be6a 2db9 1ad4 5fbd dd26 623e
00000210: 040e a2bd cba6 733c e540 84bd af5e bd3c
00000220: ab85 9cbd a6c7 8dbd 5cba 6ebd d86d c9bc
00000230: 5cc2 873d ec04 81be 789c d9bb b499 88bd
00000240: 4d8e d4bd 18e7 77bd b082 f2bd ac01 a6bd
00000250: 219e 57bd fd84 6b3c a331 5f3a a82f 463d
00000260: 8007 17bd 5149 623d 143a 46bc 12ec 06bd
00000270: 64d0 82be e2c1 cbbd 4890 193e ede8 b23d
00000280: 14c2 483c 9fb6 693d ed3a 35bc 7ac9 553e
00000290: 348c 8b3e 01e4 5fbc b908 cdbc a5c0 653b
000002a0: dce1 61be 3f17 48bd 1d30 c0bd a478 1c3e
000002b0: ba53 0b3e 0c6c 163e 22c4 eabb e946 91bd
000002c0: 8988 d7bc b6a8 47bd 34ec aa3c b715 d9bd
000002d0: 3572 713c b87c 47bd abf5 35bc f5bb 4fbd
000002e0: 3649 033e 8cf7 e73d 05ea 003e e96a 4ebe
000002f0: 86d5 b6bb 3330 733d ae5f 8cbd fe0b 6dbd
00000300: fd37 b43c f783 43bd c03b c63d 62ab 3f3e
00000310: f396 f8ba 582b bbbd 4db9 aabc 7ce5 be3d
00000320: daeb d93d fdc4 883d 333c f23d 691f a43c
00000330: 8f8d 9dbd 6701 1c3c 65bb 2d3e 1a49 d0bd
00000340: f832 ffbd 8fc8 1c3e 5a7b c93d f0e7 3c39
00000350: 4d3c 3ebd 34f8 3c3d ee56 3a3e 4c48 773d
00000360: ade8 3f3e 797c 0c3c 6e15 73bd 5f62 f2bc
00000370: b953 a5bd ac4b 953a 329d 5b3c 1115 073d
00000380: 2b87 98bc 4e1f 40bb 28e7 db3d a46d 093e
00000390: 1745 5d3c 0a47 dfbc 3079 aabd 1a9c 93bd
000003a0: d11c c83d 5f01 6abe 99b6 e6bd f4c0 c83d
000003b0: 86fc 87bd 4669 843d fa03 f63d 99a0 1fbe
000003c0: 81dd 24be 08a6 133e 5ad2 063d cca1 4a3e
000003d0: 5a15 7e3d 6ea5 133d 8933 113d eae8 44be
000003e0: 0982 f63c 1548 debd 4d33 133d a013 b1be
000003f0: e271 37ba c79f 683d b511 f5bd 2474 34be

layers.2.bias f4 [64]
0.10440888 -0.03813725 0.01701696 0.04532882 -0.048364077 -0.0020619961 -0.040707972 0.03678281
-0.049743146 -0.06422578 -0.008431099 -0.032245047 -0.051375944 -0.021754105 -0.016159493 0.069956236
-0.025912771 0.091369376 0.022819752 -0.0583488 0.07180314 0.051601656 -0.07075364 -0.13434613
0.072138876 -0.07117271 0.024501374 -0.0050127106 0.109913185 -0.10953884 0.038745206 -0.115341626
0.11298552 0.054995634 0.07465722 0.0023477501 0.060256686 -0.011554845 -0.0014895917 0.024205802
-0.04802141 0.073601805 0.009527227 0.01742553 -0.10693774 -0.053618215 -0.070319906 -0.1677588
0.08878545 -0.064415455 -0.007325981 -0.013954999 0.0049241805 0.1731978 -0.06947486 -0.07849873
0.065521464 -0.13227624 -0.06470576 0.040133063 -0.14891283 -0.13638976 0.0019819192 -0.014271276
00000000: 53d4 d53d ce35 1cbd 2767 8b3c b6aa 393d
00000010: 6919 46bd 8e22 07bb 67bd 26bd 92a9 163d
00000020: 78bf 4bbd ce88 83bd 9822 0abc 6213 04bd
00000030: 956f 52bd aa35 b2bc ea60 84bc 3745 8f3d
00000040: 0547 d4bc de1f bb3d 7df0 ba3c 27ff 6ebd
00000050: 860d 933d 425c 533d 49e7 90bd 0892 09be
00000060: 8cbd 933d ffc2 91bd 1bb7 c83c aa41 a4bb
00000070: 2a1a e13d e655 e0bd 4bb3 1e3d 3b38 ecbd
00000080: f464 e73d 1a43 613d e2e5 983d b6dc 193b
00000090: b7cf 763d 8850 3dbc 673e c3ba 3f4b c63c
000000a0: 19b2 44bd 8bbc 963d 1618 1c3c fcbf 8e3c
000000b0: 2d02 dbbd c69e 5bbd e203 90bd f6c8 2bbe
000000c0: 25d5 b53d 40ec 83bd c80e f0bb 82a3 64bc
000000d0: 055b a13b c45a 313e d648 8ebd f1c3 a0bd
000000e0: 1e30 863d 6c73 07be 7484 84bd 9162 243d
000000f0: 9b7c 18be c2a9 0bbe 16e3 013b 12d2 69bc

readout.weight f4 [1, 64]
-0.44478557 -0.37917882 -0.31346238 0.32282627 0.4606041 0.52543926 -0.48350585 -0.49954748
0.150117 0.6056262 -0.41113514 0.44361877 -0.3827247 -0.32387683 0.48315746 -0.48314536
-0.44454065 0.32279515 0.508776 -0.34299952 -0.5074297 0.3809977 0.53573555 0.3694311
-0.4831411 -0.55077404 -0.49223658 0.55317146 -0.5566407 0.5188471 0.33067155 0.4155709
-0.5361799 0.55682796 -0.31660298 -0.16164026 0.30313927 -0.44789314 -0.38580915 0.4955963
-0.46236977 -0.44612432 -0.5811046 -0.73302275 0.40933186 0.55459523 0.42193067 0.5205447
-0.16368398 0.7016213 0.51455444 -0.33124435 -0.39363536 -0.5745096 -0.33491904 0.40573907
-0.15218319 0.40113622 0.5176765 0.028977111 0.10999739 0.5480487 -0.10777313 0.4899105
00000000: efba e3be ba23 c2be 247e a0be 7c49 a53e
00000010: 4dd4 eb3e 3083 063f 148e f7be b0c4 ffbe
00000020: 45b8 193e 520a 1b3f 4e80 d2be 0022 e33e
00000030: 7ef4 c3be 2fd3 a5be 6a60 f73e d45e f7be
00000040: d59a e3be 6845 a53e 253f 023f a29d afbe
00000050: eae6 01bf 2112 c33e f725 093f 1326 bd3e
00000060: 455e f7be 87ff 0cbf 6f06 fcbe a59c 0d3f
00000070: 0180 0ebf 2ad3 043f c84d a93e b6c5 d43e
00000080: 1643 09bf 478c 0e3f c919 a2be 0685 25be
00000090: 1235 9b3e 4052 e5be c788 c5be ccbe fd3e
000000a0: bbbb ecbe 686a e4be 45c3 14bf 61a7 3bbf
000000b0: f293 d13e f4f9 0d3f 4c07 d83e 6b42 053f
000000c0: c69c 27be 749d 333f d7b9 033f dc98 a9be
000000d0: 938a c9be 1013 13bf 827a abbe 08bd cf3e
000000e0: e9d5 1bbe ba61 cd3e 7286 043f 6861 ed3c
000000f0: 5046 e13d eb4c 0c3f 29b8 dcbd 8dd5 fa3e

layers.0.weight f4 [128, 17]
0.2673806 0.53686875 -0.10077917 -0.041394226 -0.13870893 -0.18700545 -0.10881364 -0.14020357
0.16548932 -0.25583872 -0.074386194 -0.06143698 0.048019372 -0.01124269 -0.16719684 0.004316279
0.06572376 0.38206667 -0.60395116 -0.6319371 0.29837647 -0.2850252 0.55628884 -0.09544367
0.19796532 -0.48945516 -0.5266711 0.18640968 0.11344161 0.17040327 -0.017317751 -0.03692609
0.01606228 0.103140295 0.1576948 -0.54483014 -0.25191164 0.45527184 -0.19050945 1.2906284
0.29087377 0.30689183 -0.46692973 0.11015979 0.38700566 -0.06096485 0.023521548 -0.0066880696
0.37790996 0.091050304 0.0069685997 -0.31649798 -0.69905233 0.22628121 -0.48904866 0.049761917
0.31678113 0.41219375 0.09271075 0.110491335 -0.2392729 -0.18014953 0.0863047 0.053146508
0.034079622 -0.07495886 -0.13849454 -0.05482244 0.30812493 -0.073191896 0.9690378 -0.57236093
-0.09610377 0.17885938 0.9014669 0.27449518 0.34220994 0.898464 0.25105196 0.018171437
-0.029701484 -0.011175304 -0.009297098 0.005364056 0.0019387463 0.29358724 -0.35512927 -0.029955981
-0.1767692 -0.5173951 -0.6941277 -0.6674464 -0.31483555 -0.6071702 0.39783445 -0.18497953
0.12901774 0.23324463 0.010874998 0.22211224 -0.116545655 0.040617567 0.7560711 -0.11730081
-1.190396 0.11581888 0.017889915 -0.68361926 -0.27987933 -0.030161276 -0.5448804 0.13110273
-0.32826462 0.061666824 -0.034164347 -0.015505227 0.030878581 -0.07525107 0.03432001 -0.2801919
0.03523361 -0.9312977 -0.012197394 -0.20452791 0.6637453 -0.2387458 0.07639268 0.13992187
0.14475451 0.85864234 -0.07293772 0.15010539 0.012594036 0.064217545 0.10071635 -0.009141816
0.43894207 -0.8707097 0.175716 0.035820108 0.64931047 -0.05058289 -0.2729936 -0.07784928
-0.8821945 0.18295068 -0.09288393 -0.04944642 0.06810313 0.0071094944 -0.051105153 -0.09002652
0.052929945 0.4380617 -0.76613015 -0.25949055 0.5037729 -0.05532826 0.4786289 -0.29737997
0.04022961 0.27227047 -0.65726346 -0.5291165 -0.12671337 -0.07172772 0.033613235 0.11731728
0.045754056 0.007933554 -0.14342271 0.029714098 0.659669 0.38205174 -0.4481006 0.6783164
-0.3661389 0.1687044 0.56358016 -0.870114 -0.19537818 0.11816959 0.13976717 0.00989585
0.019088479 0.02419689 0.060827058 0.31973034 -0.009134654 0.11141058 -0.9234109 0.15849802
0.5720486 0.68140733 0.16339318 -0.3742541 0.75670826 -0.24978906 0.011280515 -0.063624926
0.041081086 -0.0010769719 0.011300874 -0.017137382 0.5975937 -0.041834883 -0.34599054 -0.17875308
-0.048110392 -1.3432299 -0.3149391 -0.24730833 0.6897141 0.8094898 0.52795076 0.042128738
-0.013513121 0.0031880043 0.013404947 0.0733702 0.02596798 -0.4019181 0.27263695 0.2838643
0.39628282 0.0720933 0.96559 0.99656403 0.5799567 -0.43571198 0.1945022 -0.4376284
0.054691352 0.06982686 -0.01565489 -0.01048531 -0.12541625 0.008339166 0.94183105 -0.9594773
-0.8099052 -0.5390722 -0.39357257 -0.15739267 0.051754832 -0.13112727 -0.3569057 0.630284
-0.06763317 -0.15474732 -0.0010240222 -0.018336149 -0.27103916 0.039940316 -0.06536588 -0.27799088
00000000: 1ce6 883e 3b70 093f 4f65 cebd fe8c 29bd
00000010: b709 0ebe 5b7e 3fbe b0d9 debd 8691 0fbe
00000020: 0876 293e 4bfd 82be ca57 98bd 58a5 7bbd
00000030: f6af 443d 4233 38bc a635 2bbe 936f 8d3b
00000040: 2e9a 863d 3e9e c33e 8b9c 1abf a1c6 21bf
00000050: cdc4 983e d3ee 91be f268 0e3f f977 c3bd
00000060: 6cb7 4a3e de99 fabe ebd3 06bf 2ee2 3e3e
00000070: 1354 e83d 327e 2e3e f5dd 8dbc d03f 17bd
00000080: 0b95 833c 383b d33d bf7a 213e fd79 0bbf
00000090: 90fa 80be 6419 e93e e914 43be 5033 a53f
000000a0: 68ed 943e ed20 9d3e 6a11 efbe 759b e13d
000000b0: 9b25 c63e 47b6 79bd 43b0 c03c 9827 dbbb
000000c0: 6a7d c13e 9578 ba3d da58 e43b 060c a2be
000000d0: 18f5 32bf 43b6 673e 9664 fabe 27d3 4b3d
000000e0: 2331 a23e 0f0b d33e 22df bd3d 4849 e23d
000000f0: f503 75be 1e79 38be 85c0 b03d 27b0 593d
00000100: 1397 0b3d 0884 99bd 83d1 0dbe 7f8d 60bd
00000110: 8dc2 9d3e a2e5 95bd dc12 783f 3f86 12bf
00000120: 0ed2 c4bd ea26 373e 89c6 663f a28a 8c3e
00000130: 2436 af3e bd01 663f e289 803e 44dc 943c
00000140: 8750 f3bc 9f18 37bc db52 18bc f7c4 af3b
00000150: 881d fe3a 1151 963e 81d3 b5be 3f66 f5bc
00000160: fc02 35be 0174 04bf 5ab2 31bf c4dd 2abf
00000170: 2032 a1be 826f 1bbf f5b0 cb3e 466b 3dbe
00000180: 3a1d 043e aed7 6e3e 0c2d 323c 6471 633e
00000190: 7daf eebd 9b5e 263d e08d 413f 683b f0bd
000001a0: e55e 98bf 7332 ed3d df8d 923c ac01 2fbf
000001b0: 584c 8fbe c814 f7bc 487d 0bbf cb3f 063e
000001c0: 4d12 a8be 5a96 7c3d eaef 0bbd a309 7ebc
000001d0: 14f5 fc3c 3c1d 9abd 2493 0c3d 5075 8fbe
000001e0: 1e51 103d 8769 6ebf 94d7 47bc c46f 51be
000001f0: 36eb 293f c779 74be c473 9c3d ae47 0f3e
00000200: 873a 143e fccf 5b3f 5f60 95bd 3ab5 193e
00000210: 3757 4e3c 7d84 833d 6044 ce3d 8ec7 15bc
00000220: 04bd e03e d5e6 5ebf e5ee 333e 1bb8 123d
00000230: 3639 263f 0130 4fbd d1c5 8bbe 716f 9fbd
00000240: 80d7 61bf 6c57 3b3e ee39 bebd 5488 4abd
00000250: a779 8b3d c3f6 e83b a353 51bd d35f b8bd
00000260: 12cd 583d a049 e03e 1b21 44bf f2db 84be
00000270: 43f7 003f e39f 62bd d90e f53e 3042 98be
00000280: cec7 243d 0967 8b3e 6b42 28bf 2e74 07bf
00000290: 26c1 01be fce5 92bd 08ae 093d 0b44 f03d
000002a0: 9b68 3b3d bdfb 013c 67dd 12be fb6a f33c
000002b0: 11e0 283f 499c c33e 716d e5be 25a6 2d3f
000002c0: 8f76 bbbe d9c0 2c3e ca46 103f cbbf 5ebf
000002d0: 3811 48be e602 f23d 201f 0f3e 3422 223c
000002e0: 715f 9c3c 8e38 c63c cb25 793d b2b3 a33e
000002f0: 84a9 15bc 3b2b e43d a864 6cbf 4e4d 223e
00000300: c771 123f b670 2e3f 8b50 273e 3c9e bfbe
00000310: a2b7 413f b4c8 7fbe e9d1 383c c94d 82bd
00000320: a444 283d 2e29 8dba 4d27 393c b263 8cbc
00000330: e7fb 183f 0e5b 2bbd ac25 b1be 0c0b 37be
00000340: 670f 45bd f5ee abbf b33f a1be 653e 7dbe
00000350: 1a91 303f b93a 4f3f c827 073f 2f8f 2c3d
00000360: 2366 5dbc d6ed 503b 6ca0 5b3c 1e43 963d
00000370: cdba d43c 36c8 cdbe 1297 8b3e a956 913e
00000380: 95e5 ca3e a7a5 933d e830 773f d21e 7f3f
00000390: 0b78 143f a415 dfbe 962b 473e d410 e0be
000003a0: 0a04 603d 6301 8f3d af3e 80bc 94ca 2bbc
000003b0: 1e6d 00be ffa0 083c d71b 713f 4ea0 75bf
000003c0: f255 4fbf a300 0abf 5882 c9be 8b2b 21be
000003d0: e0fc 533d 3a46 06be 58bc b6be 4b5a 213f
000003e0: 4283 8abd 1576 1ebe 7c38 86ba b135 96bc
000003f0: a5c5 8abe 7598 233d 8cde 85bd d254 8ebe

layers.0.bias f4 [128]
0.24343812 0.81736267 -0.022904854 0.78688407 0.78758234 -0.37397388 0.56971765 0.020559078
-0.26268917 0.3712966 0.43132716 0.779093 0.75269455 0.077934414 -0.05364774 -0.16571008
0.17265834 0.07764038 0.7334848 0.53772795 0.56239897 1.1889231 0.03532881 0.35988066
-0.22481336 0.2618657 0.18346065 0.805914 -0.20582323 0.41719866 -0.16216843 -0.13400218
0.004311365 0.3408085 0.054613195 -0.29541245 -0.69013345 0.5833125 0.12977964 -0.29883915
-0.17192015 0.3579577 -0.3329642 0.06496148 0.25585136 0.083202615 0.6349324 0.9324467
0.32965964 0.17865248 -0.0632252 -0.32452306 0.3431479 -0.52249044 -0.08814294 -0.21278402
0.19013865 -0.36804742 0.20941794 -0.2013251 0.40349877 0.33672592 -0.29335517 0.93569255
-0.3776559 0.1802332 -0.4445186 -0.2904354 -0.11781062 -0.12104921 0.6983732 0.6487663
-0.43043151 -0.13444228 -0.38921562 0.39123145 0.033882387 0.12995587 0.34254047 -0.21161948
-0.3653821 -0.53626335 -0.38152364 0.029869592 0.45114464 0.03397717 0.2580777 -0.17879374
-0.3680207 0.3251603 -0.2555131 0.27043414 0.21856578 0.922722 0.68973565 -0.34141648
-0.103384115 -0.6470602 -0.122018926 0.825981 0.16545258 -0.15553816 0.5129086 0.25799957
0.3456977 0.10087726 -0.31052205 -0.14791028 -0.32247025 0.7328926 0.48465127 0.51565856
0.31915998 0.18285713 -0.31882873 -0.018732226 0.057094205 0.59205943 0.16454619 0.39761296
0.4987198 0.18444154 -0.30416644 0.019634249 0.3419739 -0.49158415 0.020315925 0.67139125
00000000: d847 793e ae3e 513f f6a2 bbbc 3c71 493f
00000010: ff9e 493f 8179 bfbe 04d9 113f 836b a83c
00000020: 327f 86be 971a be3e ead6 dc3e a472 473f
00000030: 97b0 403f 149c 9f3d bcbd 5bbd e7af 29be
00000040: 59cd 303e eb01 9f3d a9c5 3b3f 8aa8 093f
00000050: 61f9 0f3f a22e 983f f1b4 103d 4742 b83e
00000060: 7935 66be 4313 863e 1cdd 3b3e 6150 4e3f
00000070: 53c3 52be 109b d53e 7b0f 26be de37 09be
00000080: 5a46 8d3b 747e ae3e 16b2 5f3d 4d40 97be
00000090: 96ac 30bf f853 153f f4e4 043e 7201 99be
000000a0: d60b 30be 3b46 b73e 497a aabe 860a 853d
000000b0: f3fe 823e 2266 aa3d ee8a 223f d4b4 6e3f
000000c0: 26c9 a83e adf0 363e 377c 81bd e327 a6be
000000d0: 15b1 af3e efc1 05bf 4984 b4bd 0ee4 59be
000000e0: b5b3 423e b670 bcbe a871 563e 2b28 4ebe
000000f0: 6497 ce3e 5767 ac3e a632 96be 8c89 6f3f
00000100: 1d5c c1be 0d8f 383e f197 e3be f3b3 94be
00000110: b246 f1bd a6e8 f7bd 96c8 323f 8c15 263f
00000120: 8561 dcbe 3dab 09be 4547 c7be 7d4f c83e
00000130: 42c8 0a3d 2713 053e 7761 af3e c7b2 58be
00000140: 5d13 bbbe 8e48 09bf 1157 c3be 13b1 f43c
00000150: 6efc e63e a52b 0b3d c322 843e b515 37be
00000160: 366d bcbe 697b a63e 9dd2 82be 5876 8a3e
00000170: b5cf 5f3e 8237 6c3f 8492 303f 24ce aebe
00000180: 0dbb d3bd bda5 25bf 0fe5 f9bd 7e73 533f
00000190: 676c 293e 6545 1fbe fa4d 033f 8518 843e
000001a0: 4aff b03e bd98 ce3d bffc 9ebe cb75 17be
000001b0: d21a a5be d99e 3b3f 3624 f83e 3302 043f
000001c0: f068 a33e e63e 3b3e 853d a3be 5374 99bc
000001d0: 9ddb 693d 3591 173f cc7e 283e ed93 cb3e
000001e0: 3458 ff3e 3ede 3c3e b4bb 9bbe 01d8 a03c
000001f0: 3417 af3e ebb0 fbbe 956d a63c 4ce0 2b3f

layers.1.weight f4 [128, 128]
0.08178571 -0.14435951 0.20772812 -0.102693275 0.024511827 0.12847069 0.07081558 -0.0821034
0.080725715 0.10591601 -0.023983255 0.05353686 -0.31670403 0.0013581085 0.005955418 0.010796285
0.022166874 0.03896237 0.06477233 -0.05787368 -0.07369986 -0.18854368 0.033877317 -0.16331942
-0.0027185045 -0.22313759 0.1385036 -0.35976306 0.23320223 0.04819322 -0.12226886 0.05985342
-0.102182716 -0.13302594 0.09524286 0.14367485 0.0811041 0.033689503 0.05587228 -0.007578311
0.12280108 0.049844194 -0.17163087 0.08774978 -0.0065938993 -0.009132867 -0.041889735 0.013579588
-0.0035154633 -0.054967694 -0.10646039 -0.079517834 -0.030693203 -0.072552636 0.07199718 -0.09350913
0.057040147 -0.065898895 -0.0015914507 0.08709817 -0.07300378 0.04322934 -0.02135581 -0.05385208
0.16164145 0.13421112 0.006151058 0.07508568 -0.09626398 -0.11470101 -0.066936165 -0.111228086
0.11506017 0.25686753 -0.026774922 0.08846765 0.0025165132 -0.037539985 -0.06878089 -0.037680674
0.05654483 0.09601763 0.0014747235 0.014115114 0.10640924 0.091441944 0.10612723 0.024286192
0.007878688 0.025468314 0.039393827 -0.059354026 -0.0051506846 -0.10883226 -0.061959248 -0.045474358
-0.005779489 0.030188708 -0.15470484 0.123047575 0.090659566 0.09682581 0.0927839 0.040842637
-0.041772794 0.15353653 0.12933096 -0.16008475 0.23514748 -0.0070653693 -0.111259304 0.061878517
-0.024212899 -0.16705088 -0.0012021612 0.047196995 -0.13585706 -0.059366193 0.0008008052 0.09618957
0.05151409 -0.0031604797 0.00049483223 0.05614153 -0.0366531 0.027816562 0.010901388 -0.24909197
0.06790182 0.13297467 0.084114045 0.15148678 0.007614864 0.04559223 -0.076984435 -0.16585316
0.008225259 0.07447201 -0.0108758025 -0.16874918 0.0051202266 0.093965486 -0.036324117 0.046223246
-0.09574996 -0.06597631 -0.016716054 0.066670954 -0.11775623 -0.032518964 0.08173009 -0.10215215
0.012545863 0.069255814 0.09783166 0.0674416 -0.09668158 0.17083709 0.06528132 -0.04996794
-0.012642757 -0.13683908 0.020767465 0.06041823 0.0022462206 0.12534972 0.15592988 -0.023558658
0.063367456 0.062651105 -0.077025175 -0.03904591 -0.00052241737 -0.032291524 0.017952273 -0.159032
0.05407504 0.060864784 -0.011627825 0.03907828 0.005893727 0.012151452 0.046966378 0.10630915
-0.103295706 -0.05790843 -0.0035044125 0.03934289 -0.059077915 0.08586719 -0.056637812 -0.062096782
0.080130056 0.0017590885 0.008128611 -0.25639334 0.05554062 0.013429855 -0.058777932 -0.029800259
0.15772058 -0.00949483 0.07812772 -0.039473422 0.01853849 0.090799965 -0.06877426 0.28333798
-0.060817637 -0.080991305 0.09665956 0.07447731 0.11660222 0.068927564 -0.003734705 0.0076526487
0.017004471 -0.06593093 0.109886795 0.03952101 -0.006832132 0.10468061 0.046699464 -0.07759762
-0.045150235 0.054062545 -0.1502051 -0.0701466 -0.023975698 -0.05070661 -0.079068355 -0.0589787
-0.022823734 0.29777822 0.016432948 -0.043693665 0.20021205 -0.14523347 -0.13384604 -0.052756175
0.16876158 0.05541222 0.075991884 -0.23720977 0.14149693 0.01002334 0.029412566 0.11836338
0.026705269 0.22550532 0.11688498 0.12298732 0.034048066 0.031805314 0.16188772 -0.13961366
00000000: 447f a73d fbd2 13be aeb6 543e da50 d2bd
00000010: 07cd c83c d28d 033e c207 913d d425 a8bd
00000020: 8653 a53d 7eea d83d 8878 c4bc 7749 5b3d
00000030: 0827 a2be 8f02 b23a ab25 c33b e7e2 303c
00000040: 4e97 b53c 0297 1f3d 5ba7 843d f40c 6dbd
00000050: f4ef 96bd 9811 41be f1c2 0a3d 353d 27be
00000060: f028 32bb 2e7e 64be e3d3 0d3e dd32 b8be
00000070: 91cc 6e3e 4166 453d 1968 fabd dc28 753d
00000080: 2c45 d1bd f437 08be b00e c33d 801f 133e
00000090: e819 a63d 01fe 093d 55da 643d 7b53 f8bb
000000a0: 227f fb3d 6d29 4c3d 01c0 2fbe 28b6 b33d
000000b0: a311 d8bb 05a2 15bc 9294 2bbd ec7c 5e3c
000000c0: b063 66bb ce25 61bd e807 dabd 3fda a2bd
000000d0: 5070 fbbc 7a96 94bd 4273 933d b781 bfbd
000000e0: eea2 693d 00f6 86bd 3998 d0ba 8660 b23d
000000f0: 0183 95bd 4011 313d 61f2 aebc 0094 5cbd
00000100: 5685 253e a46e 093e d08e c93b 85c6 993d
00000110: 0d26 c5bd 5de8 eabd d415 89bd 8dcb e3bd
00000120: aba4 eb3d 2484 833e 1557 dbbc 872e b53d
00000130: 16ec 243b 87c3 19bd ffdc 8cbd 0d57 1abd
00000140: 8d9b 673d e4a4 c43d 824b c13a 1443 673c
00000150: 16ed d93d ea45 bb3d 3c59 d93d d6f3 c63c
00000160: 9d15 013c eda2 d03c 6c5b 213d 351d 73bd
00000170: 13c7 a8bb 73e3 debd fbc8 7dbd 5243 3abd
00000180: de61 bdbb 4f4e f73c f26a 1ebe 5e00 fc3d
00000190: b9ab b93d 9c4c c63d 7c05 be3d 9c4a 273d
000001a0: f319 2bbd ae38 1d3e 566f 043e 42ed 23be
000001b0: 80ca 703e 9d84 e7bb ebdb e3bd 5474 7d3d
000001c0: 215a c6bc 630f 2bbe d691 9dba a351 413d
000001d0: 1d1e 0bbe f729 73bd 21ed 513a 0aff c43d
000001e0: 7000 533d 0d20 4fbb a1b7 013a a9f4 653d
000001f0: 9021 16bd 8fdf e33c bc9b 323c f711 7fbe
00000200: 1c10 8b3d 832a 083e fc43 ac3d 5a1f 1b3e
00000210: 1c86 f93b ebbe 3a3d 04aa 9dbd 69d5 29be
00000220: 3dc3 063c c884 983d 6c30 32bc 96cc 2cbe
00000230: 93c7 a73b fa70 c03d 99c8 14bd 9654 3d3d
00000240: 8e18 c4bd 961e 87bd 1bf0 88bc c88a 883d
00000250: 2e2a f1bd 9b32 05bd 1b62 a73d 2535 d1bd
00000260: 2a8d 4d3c fed5 8d3d f75b c83d d21e 8a3d
00000270: fe00 c6bd ebef 2e3e 36b2 853d 2fab 4cbd
00000280: 9123 4fbc 8b1f 0cbe 8820 aa3c 1b79 773d
00000290: 5435 133b ad5b 003e 15ac 1f3e 16fe c0bc
000002a0: ccc6 813d 394f 803d 60bf 9dbd 9bee 1fbd
000002b0: d6f2 08ba 1e44 04bd a510 933c 49d9 22be
000002c0: ca7d 5d3d 5a4d 793d a282 3ebc 8c10 203d
000002d0: 2a20 c13b e216 473c d15f 403d 9db8 d93d
000002e0: b38c d3bd 6431 6dbd 49aa 65bb 0326 213d
000002f0: affb 71bd 23db af3d 0dfd 67bd 3259 7ebd
00000300: 3a1b a43d 3791 e63a de2d 053c fd45 83be
00000310: 907e 633d e508 5c3c 21c1 70bd ac1f f4bc
00000320: 8181 213e 3490 1bbc 6d01 a03d e2ae 21bd
00000330: 08de 973c 55f5 b93d 85d9 8cbd ad11 913e
00000340: ea1b 79bd c5de a5bd 73f5 c53d 8f87 983d
00000350: 25cd ee3d e529 8d3d f4c1 74bb 12c3 fa3b
00000360: f64c 8b3c cc06 87bd 540c e13d c8e0 213d
00000370: 14e0 dfbb ca62 d63d f047 3f3d 80eb 9ebd
00000380: 74ef 38bd b070 5d3d 5ecf 19be 05a9 8fbd
00000390: af68 c4bc bcb1 4fbd 97ee a1bd a693 71bd
000003a0: d7f8 babc 6376 983e 649e 863c 21f8 32bd
000003b0: 6304 4d3e 15b8 14be f00e 09be dc16 58bd
000003c0: d6cf 2c3e edf7 623d a2a1 9b3d 1ee7 72be
000003d0: 92e4 103e ef38 243c 9ff2 f03c 8068 f23d
000003e0: 02c5 da3c deea 663e 6461 ef3d c7e0 fb3d
000003f0: fc75 0b3d 4a46 023d e5c5 253e e2f6 0ebe

layers.1.bias f4 [128]
-0.20586781 -0.21757194 0.13372362 0.01625913 0.013626628 -0.041232504 0.1616302 -0.06374628
-0.005243221 0.16321492 0.027588768 -0.060171947 0.21123941 0.20723267 -0.11070378 -0.10963818
0.21034846 0.0076699555 -0.06071215 -0.06491999 0.19021046 0.4080345 -0.13463716 -0.19001596
-0.20375173 0.13345663 -0.10283566 0.059518114 -0.28780907 0.21967602 0.21880944 0.011414288
0.06281962 -0.36204308 -0.034649417 0.30196482 -0.028915064 -0.042410523 0.36737406 -0.06821778
0.0013619362 -0.12452951 -0.19781746 -0.3692731 0.18732518 0.026800783 -0.053725872 -0.024043936
-0.23474668 0.108336285 0.1492583 0.07275631 -0.27389395 -0.10387293 0.116779804 -0.2496666
-0.109075576 -0.23759882 0.035008293 0.036727216 0.02377664 -0.15490083 -0.03996724 0.09227895
0.13900773 0.054570395 -0.22957695 0.041480705 0.19321285 -0.24891007 0.01090989 0.105404764
-0.15568297 0.0014914525 0.08378091 0.15388234 0.21246806 0.07142042 0.25282687 -0.03315559
0.0056555653 -0.13984942 0.32039738 -0.054008648 -0.06994924 -0.16658075 0.0057898373 -0.37045798
-0.21564573 0.11936122 -0.19633768 -0.04860193 -0.14819343 0.0276028 -0.00695931 -0.04859639
0.07089318 -0.12996449 -0.1121327 0.22210197 0.24192557 0.23732373 -0.098494634 0.16043785
-0.20813845 0.06761927 -0.06870921 -0.13172024 0.2725716 -0.28704494 0.06317481 0.03247674
-0.11610882 -0.045333203 0.16464175 0.21955964 -0.14194965 -0.08749976 -0.010265742 -0.29157057
0.17445497 0.05777766 -0.11446137 -0.14428768 0.05675783 0.02671479 0.022908915 0.099622704
00000000: 03cf 52be 2ecb 5ebe d8ee 083e de31 853c
00000010: 3842 5f3c 6ae3 28bd 6382 253e 698d 82bd
00000020: 53cf abbb d021 273e d701 e23c dc76 76bd
00000030: 254f 583e cd34 543e aab8 e2bd fb89 e0bd
00000040: 9665 573e 4054 fb3b 4ead 78bd c6f4 84bd
00000050: 88c6 423e e6e9 d03e 53de 09be 8b93 42be
00000060: 4ba4 50be dba8 083e 819b d2bd 44c9 733d
00000070: b65b 93be c0f2 603e 950f 603e fe02 3b3c
00000080: 93a7 803d b65d b9be 8cec 0dbd 229b 9a3e
00000090: 49df ecbc a8b6 2dbd 7418 bc3e c3b5 8bbd
000000a0: ff82 b23a 5409 ffbd a990 4abe 5d11 bdbe
000000b0: 2cd2 3f3e 518d db3c a90f 5cbd caf7 c4bc
000000c0: 6f61 70be 6adf dd3d 2bd7 183e 4301 953d
000000d0: d43b 8cbe 55bb d4bd 402a ef3d 9aa8 7fbe
000000e0: 0463 dfbd 1b4d 73be db64 0f3d 476f 163d
000000f0: 3ac7 c23c 539e 1ebe b0b4 23bd bffc bc3d
00000100: 0b58 0e3e 3585 5f3d 3816 6bbe ace7 293d
00000110: 97d9 453e 48e2 7ebe 65bf 323c 74de d73d
00000120: 5b6b 1fbe d77c c33a 5395 ab3d 5593 1d3e
00000130: 3a91 593e df44 923d 8672 813e 28ce 07bd
00000140: 5252 b93b b034 0fbe 200b a43e 2c38 5dbd
00000150: 8c41 8fbd 2594 2abe adb8 bd3b abac bdbe
00000160: 3cd2 5cbe a873 f43d bf0c 49be d112 47bd
00000170: 05c0 17be 441f e23c ec0a e4bb 020d 47bd
00000180: 7230 913d 6915 05be d4a5 e5bd b36e 633e
00000190: 56bb 773e fe04 733e 8eb7 c9bd d249 243e
000001a0: 3f22 55be f97b 8a3d 6ab7 8cbd ace1 06be
000001b0: 818e 8b3e 8ef7 92be cb61 813d 5506 053d
000001c0: 76ca edbd 4faf 39bd d997 283e 3ed4 603e
000001d0: 405b 11be 1333 b3bd a531 28bc bd48 95be
000001e0: 53a4 323e 45a8 6c3d b96a eabd 26c0 13be
000001f0: e67a 683d fad8 da3c 7aab bb3c fd06 cc3d
