Gym-DDPG-solution/results/DDPG_HalfCheetah-v4_5500-eps0.3-t32-l0.0001-s1.pth (torch, 193979 bytes, 13 tensors)

layers.0.weight f4 [128, 23]
00000000: e6b5 a23e 554c babd 76df fc3d 679a 623e
00000010: af08 b7be 78df 0a3f 04be 783e ae48 5e3e
00000020: b32d 9fbd 2205 1c3e bd9d 973d d76c 8dbb
00000030: cd0c b33c 6d64 2cbc aaed 413c 4b82 b63a
00000040: 687f 27bb 6acd 263e d48f 7a3e 648b 1b3e
00000050: 72df 06be 4e13 07be 7ec9 02be 302e 84be
00000060: c2bb 35be 4d36 ee3e 5460 013e 24c5 3ebe
00000070: 46a0 e8be 71e4 c53e 2065 383e 295e 863e
00000080: 20bd cd3e 9ec9 83be c6fa 25bd 5c2d cbbd
00000090: de2f c83c b3d1 5d3d aa5c 4c3d 6241 1bbc
000000a0: da85 fe3d 9155 2cbe 1a4a 8f3d 5e04 1ebf
000000b0: f9db 0fbe cfe4 8fbd 081c c93e 065a 073e
000000c0: bc73 b3be 3b40 583d fbca 35be 989c cb3c
000000d0: 5f01 aa3e 7b55 ac3e 4595 bf3e 9c78 dc3e
000000e0: 9e14 853e 8407 313d 209e 0f3d 2638 723c
000000f0: 385e 4a3d 74fb 153d 7a26 933c 365f ae3e
00000100: 18ce 4abe de43 0bbc 3aba 1fbe 5272 793d
00000110: 0caf 60bd e4d4 04bf f9fc 8e3d 9211 1bbe
00000120: 906c 90bd 2a97 503d dd05 2b3d 3ae7 2cbe
00000130: 7684 2c3e 7be9 923e 96d0 09bf 7167 093e
00000140: 40c2 98bd 5a5e 89bd feb0 fb3b 2e39 de3c
00000150: 61e3 583d 771d cf3c deaa cfbe e177 9b3c
00000160: 774b c5b9 8937 253e 5353 323e 0ab8 36be
00000170: 9ad6 303f 76cc d03d bbd9 f2be cb0a d0be
00000180: bdd2 c13d d2d0 92bc 452a afbd 0124 e7bd
00000190: aa8a 723e c9b4 a63d f03f 803e 10b4 a23c
000001a0: 9a7f 843c 3e66 193c 1c49 1e3d 2cee e83c
000001b0: 2af4 3abc 832c bf3d b9f3 eebc 46a0 dd3d
000001c0: 2a8c 753e 3cf8 eebd fdb0 a23d 2d93 393f
000001d0: ee09 003d 18dd 9abe f472 94be 3d47 80be
000001e0: 75b5 6cbd af87 c6bd 8c1b 353e 78e6 4ebd
000001f0: 32d9 0bbe 5e92 83be 513b 55bd 25d0 04bd
00000200: a5fa 1dbb 00b8 653c 63d8 0b3c 3368 a23b
00000210: a8fe 273e 2b48 2c3e c2bb 023e 174b 533e
00000220: fd5e bd3c 59ab 263d 24d7 7abb 09da e4be
00000230: 16a4 90bd d375 2cbe cbe6 a5be f713 b3bd
00000240: 6088 873d bf59 6e3e 3a91 983e 634d dd3d
00000250: 013e 973d 1f69 d83c dc94 593c 2e5d d23d
00000260: a72d 0c3c d814 e3bb 021c 85bc 6287 cabe
00000270: e396 18bc 2071 15be 2ec5 bd3d fa8e a6bd
00000280: afb5 a53d c5a6 0d3f ba37 9cbd 06bf 213f
00000290: c074 2b3e 896f b2bc ea7f 1bbe 8dd2 82be
000002a0: 47db 61be d2b0 c23c 2776 953d b09d 603d
000002b0: 79f4 9dbc 6c88 fb3c 9804 d3ba 9129 b63d
000002c0: da03 103d ab2e 053c 3ab3 b1be ea5e 803d
000002d0: 158f abbd c93f cebb 8caf a7bd f344 afbb
000002e0: 2e18 5cbe 10ce 143e 7d36 8dbf 3656 67be
000002f0: 389b 973d f831 d5be d601 273e 6aa7 99be
00000300: 0a62 17be 0708 eebc 1f43 493e 3a68 b9bd
00000310: 427c 04ba 29b1 55bc 23f5 053e 1a96 2a3d
00000320: bb1d 323d 950d 98be 0702 783d f0e3 babd
00000330: 70dd 683e 2c78 4c3e 2687 723e 18ba 073f
00000340: c950 72bd 853c a4be 6517 273f be05 2c3e
00000350: a149 27be d886 a73d 9329 96be 5c6e b73e
00000360: 10ed 1abf 2939 6bbe b299 8e3d f4ee 073d
00000370: d258 953c 14c9 343d dabe 2c3c 2f2e 8fbc
00000380: bb67 873e d0b1 013e e174 8dbe ff41 b63f
00000390: 26a6 083b 89f9 6e3e a2ce 883e 2ed4 97be
000003a0: 8c1b 583f e1df 5a3e 00a8 82bc 3880 873d
000003b0: 8ee7 cf3e 1238 543e e039 273d 1433 91be
000003c0: ca38 a8be a30e 02bd 0814 383b 17de 7cbc
000003d0: 76ac bebd 82a0 3abd c724 05bd 0102 b8bd
000003e0: 7956 1dbd 4004 c53d e72d 133d 95aa 263d
000003f0: 55fa dcbc 51ab 563f b5b6 d0bd df8b 0a3f
0.31779402 -0.090965904 0.12347309 0.22129212 -0.35748813 0.54247236 0.24291235 0.21707413
-0.07772388 0.15236333 0.07403133 -0.0043159532 0.02185669 -0.01052199 0.011836449 0.0013924328
-0.0025558118 0.16289297 0.24468929 0.15189892 -0.13171175 -0.13190958 -0.12772176 -0.25816488
-0.17747405 0.46525803 0.12634403 -0.1862989 -0.4543478 0.3865085 0.18007326 0.26243713
0.40183353 -0.2573976 -0.04052236 -0.09920761 0.024436887 0.054155063 0.04989306 -0.009476038
0.12427874 -0.16829516 0.069965556 -0.61725414 -0.14048757 -0.07026064 0.392792 0.13217935
-0.35049236 0.05279563 -0.17753212 0.024854943 0.3320417 0.33658966 0.3741857 0.43060768
0.25992292 0.043220058 0.03506291 0.014783895 0.04940626 0.036616758 0.017962683 0.34057015
-0.19805181 -0.0085000675 -0.15598384 0.06090004 -0.054854438 -0.51887345 0.069818445 -0.15143421
-0.07051957 0.05092541 0.04175364 -0.16885081 0.16847405 0.28693756 -0.538339 0.13418366
-0.07458925 -0.06707449 0.007681011 0.027126875 0.05295122 0.025282605 -0.4056005 0.018978061
-0.00037630994 0.16134466 0.17414598 -0.17843643 0.69077456 0.10195248 -0.4743174 -0.40633234
0.09464023 -0.017921839 -0.08552984 -0.11286164 0.23685709 0.08139951 0.2504878 0.019861251
0.016174126 0.009362755 0.03864394 0.028433882 -0.011410752 0.09334662 -0.02916895 0.10821585
0.2397925 -0.11668441 0.07943914 0.724902 0.03125947 -0.30246806 -0.28993952 -0.2505435
-0.05779024 -0.09693848 0.1768629 -0.05051276 -0.13657072 -0.25697607 -0.05205852 -0.032425065
-0.0024105695 0.01402092 0.008535477 0.004956269 0.16405737 0.16824405 0.12766936 0.20634113
0.023116583 0.040690754 -0.0038275206 -0.44697598 -0.07062547 -0.16841821 -0.32402644 -0.08744042
0.06617808 0.23276423 0.297983 0.10805776 0.07384873 0.026417313 0.01328012 0.10271679
0.008555806 -0.006929975 -0.016248707 -0.39556414 -0.009313318 -0.14593935 0.09266125 -0.08132739
0.08091294 0.55332595 -0.076278165 0.63182104 0.16743755 -0.0217817 -0.15185514 -0.25551262
-0.22056304 0.023765955 0.072979264 0.054837883 -0.019281613 0.0307047 -0.0016099392 0.08894647
0.035159923 0.008128802 -0.34707052 0.062681034 -0.083769 -0.006294225 -0.0818778 -0.0053487956
-0.21493599 0.14531732 -1.1032254 -0.2259148 0.074026525 -0.41639686 0.16309294 -0.3001054
-0.14783493 -0.029056562 0.19654511 -0.09053083 -0.0005053916 -0.013042727 0.13081793 0.041647054
0.043485384 -0.29697862 0.06054881 -0.09125507 0.22740722 0.19967717 0.23684368 0.5301833
-0.059159074 -0.32077423 0.6527007 0.16799065 -0.16336681 0.08180016 -0.29328594 0.35826385
-0.6051798 -0.22971024 0.06962909 0.033186868 0.01823083 0.044137076 0.010543549 -0.017478077
0.26446328 0.12665486 -0.27628234 1.423889 0.0020850985 0.23337378 0.26720148 -0.29654068
0.84417033 0.21374466 -0.01594925 0.06616253 0.4060635 0.20724514 0.04082668 -0.28359282
-0.32855827 -0.03175224 0.0028088111 -0.01543381 -0.09310238 -0.04556323 -0.032505777 -0.08984757
-0.038412545 0.09619951 0.035932448 0.040690023 -0.026974836 0.8385516 -0.101910986 0.54119676

layers.0.bias f4 [128]
00000000: 34d2 e0bd 3f13 34be 7127 e9be f7ec 9e3d
00000010: cd7f 15be e1b4 51be f36a a3bc c223 3fbe
00000020: d3aa bdbd 4c41 1fbe d0ae 90be 3d58 eebe
00000030: e665 e6bd e890 6dbe b160 7c3d 2c71 37bd
00000040: 9211 173f 1155 55be 9b00 88be d37b e7be
00000050: c840 0f3f 47b0 06be d557 43be 1e63 70be
00000060: 36c4 56be 5483 74be 9048 aebe b092 bebe
00000070: 0ed6 36be 6f22 79bc c528 4b3e 5f7c 4b3e
00000080: d2b6 1d3e d3b7 0bbe 1fa3 b2be fa8b 4f3e
00000090: 554c dbbe 3f06 aabe 62a4 2a3e 4834 33be
000000a0: d885 ccbd 40b0 acbe 8dd9 c13d 9946 16be
000000b0: 0660 23bd 490e 20bd 4355 eabe 7d36 17bf
000000c0: 00cb 49be 35b7 da3e b2fc aebe 4ba0 d9be
000000d0: 1130 6d3e 240d cd3e 27c4 f93e 53a9 a0be
000000e0: cb91 14bd 12f3 0abe cda9 b23e b7a9 5a3e
000000f0: d491 c73c 7e53 0e3e 158c 06bf fdaa 68bd
00000100: 3618 8c3c e9a3 ca3e 85ff 5abd 8b2a 82be
00000110: f8d4 b6be 1894 95be 4779 923e 7888 cf3e
00000120: c765 0f3f 1fc8 97be f53b 003c deec dcbe
00000130: 88f3 6bbe 5065 4a3d 3bc8 8b3e 361a 49bd
00000140: 2bcf 403d bcca c4be 426e 323e f2a2 333e
00000150: b1de fcbd b8b4 2cbe af1e 9cbe a03d 533e
00000160: 698c a53e 108f b1be 13b6 adbd 8778 8a3e
00000170: 8b43 803b 4406 99be 66dd a0bc 756f 2abe
00000180: 79b8 c7be 8224 943e 0f46 fc3d 0cc6 8e3e
00000190: c49a 6a3e 5b93 21be 4fbb b7be f2b6 533e
000001a0: ad35 933e 0d3c ca3d ef1c 1ebc d227 0a3d
000001b0: 559d 8bbe 6d3d 1abe 11e2 813e 8653 203f
000001c0: a147 2a3e 29f9 a6bc ef0d ab3e ae28 07bf
000001d0: cc13 3c3e 42b9 983e e81f 12bd 1e39 ca3e
000001e0: c16e 213e 4760 1bbe 6359 6cbe a47d df3c
000001f0: be77 3d3d 142f 9dbe 1552 e0bd 9914 1fbf
-0.10977593 -0.17585467 -0.45537904 0.07760041 -0.14599533 -0.20479156 -0.019948458 -0.18665984
-0.09261098 -0.15552253 -0.2825837 -0.46551695 -0.11249904 -0.23199809 0.06161565 -0.044785663
0.59011185 -0.20833232 -0.26562962 -0.45211658 0.55958223 -0.13153182 -0.19076474 -0.2347531
-0.20973286 -0.23878223 -0.34039736 -0.3722129 -0.17855093 -0.0152059635 0.19839771 0.19871663
0.15401772 -0.13644342 -0.34890077 0.2026824 -0.42831674 -0.3320789 0.1666427 -0.17500412
-0.09986466 -0.33728218 0.09465323 -0.14675368 -0.039886497 -0.039076123 -0.45768175 -0.5906752
-0.19706345 0.427179 -0.34177166 -0.42505106 0.23162867 0.40049088 0.48782465 -0.31379184
-0.03627185 -0.13569286 0.34895173 0.21353804 0.024361528 0.13899037 -0.525575 -0.056803692
0.017101388 0.3957818 -0.05346634 -0.25423083 -0.35709357 -0.2921455 0.28608152 0.40533805
0.56014675 -0.29644868 0.007826795 -0.43149465 -0.23042119 0.049413025 0.273012 -0.049097262
0.04707257 -0.38435924 0.17424873 0.17542627 -0.123471625 -0.16865814 -0.3049216 0.20628977
0.32333687 -0.3467946 -0.084819935 0.2704508 0.0039143017 -0.29887593 -0.019636821 -0.1664408
-0.3900793 0.28934103 0.1231805 0.27885473 0.22910601 -0.15778868 -0.35885093 0.20675257
0.2875189 0.09874735 -0.009650453 0.03372938 -0.27268472 -0.15062495 0.25367787 0.62627447
0.16628887 -0.02038248 0.33409068 -0.5279645 0.18366927 0.2982884 -0.03567496 0.39496702
0.15764906 -0.15173446 -0.23080973 0.02728159 0.046256773 -0.3069998 -0.10953156 -0.62140805

layers.1.weight f4 [128, 128]
00000000: 9fe0 79bc 857c d5bd 0dbd 8ebd ec79 213d
00000010: d756 acbb 0f65 233c 8cb2 713d d780 ec3b
00000020: ad06 57bc ea64 283e 458d e3bd db90 c03b
00000030: 7b6f c63d d65a 28bd 6520 0a3c 49d6 1e3d
00000040: 4696 c73d 4f25 c5bd b1bd aebd cad2 ea3c
00000050: 2cef 733a 59af 5abd 5f6f 313d a5a7 5bbb
00000060: 577f 03bc e2ee 95bd 02f7 5bbe 64ac d8bc
00000070: c935 4e3d 60b6 91bd 792f e9bd d155 fb3d
00000080: 0898 73bd b8b6 0b3d b57d fe3d 785d 10b9
00000090: 57a3 723c e4ac 18bc e9f6 b43c ee6a 2c3c
000000a0: a28c cb3d dc5f 863d 8e2d bf3b 51d4 4bbc
000000b0: d505 47bd ed3f 62bd 12d8 8d3d 0470 b23c
000000c0: cbf3 40bc abd2 063d 5170 963a 621d 213d
000000d0: 4971 6abd a700 34bd da2a b2bc 9bdf 88bd
000000e0: 25f2 243c 13eb 353e 495e b43d e96e b5bd
000000f0: 518f 2abd e09c 273e ca86 c63d 000d d7bc
00000100: 8931 f1b9 b482 4bbd 5037 083d 7b6d 4dbd
00000110: 8054 763d 2f4e 083d 2af1 bc3d cb8e 82bd
00000120: ecb7 b9bc 551a 02bd 6024 253c f478 56bd
00000130: 5849 a33d 36b4 b3bd a1db 093e 4b5d b93d
00000140: bb64 2d3d e385 413e 1ed1 e23d 484a c13b
00000150: 7124 2bbc a58c 213c 1790 c43a 0da2 14be
00000160: b881 67bd 7b8d 39bd b9e5 5cbc 007d ca3d
00000170: 2897 9fbd 94b2 b8bc 95bb bb3d 62ef 723d
00000180: 3b8b d7bd 45f8 a03d a673 4e3c 4fc7 83bd
00000190: 030c 90bc 3627 2c3d c4ce e9bd f2e1 8b3b
000001a0: 9415 c2bd 31c8 073d 78d5 a23d 4f09 033d
000001b0: ad40 c9bc ed10 a2bd fe07 ce3c 2c23 61be
000001c0: 8f22 c53d 7630 0ebd 7503 70bd 046c 043e
000001d0: 1a1f 3abd 4b1a fabc 5436 0ebd 68c2 0e3e
000001e0: f4fa 233d f800 3bbc 9dc3 0ebe b0d3 c03d
000001f0: 31e4 1bbe 7ddb cc3d 2c66 0c3d 254a 993c
00000200: 8c86 bb3c 55a5 c23d 159d 033e 31d9 84bb
00000210: 7402 22bd dbd3 563c af7c 173d 4eae e33d
00000220: 276c d7bd 5e67 363e 247f 5bbd 0263 7d3d
00000230: 9c46 63bd 12e0 02bd 6049 09bd 41c3 513c
00000240: f2e9 8dbd 2596 fb3c eb01 9e3d 9d5a b43c
00000250: 1473 65bb a777 193e 52e3 bdbd 87df eabb
00000260: 2333 113b 8556 923d 0ddc 11bd d8fb b23c
00000270: 649e 0e3a 815e aabd 6a37 a5bd f589 2f3d
00000280: bbca 833d 1dd0 92bb ed4f cb3d 67ef dcbd
00000290: 773f 9cbc 3ed5 803d 828b 2d3d c274 afbd
000002a0: c1fe 94bc 923a 093e 3561 34bc c1eb 7c3c
000002b0: 4356 02be 9940 843d 282d d5bd 4be3 e53d
000002c0: 7b3a 43bd 205a a4bc 62fa 8fbd 6a36 be3c
000002d0: 7bbe 3e3b ab5f 11be 38de 72be 5eea 0e3d
000002e0: c301 8b3c 53b2 883d 0591 073a 052a 923d
000002f0: 7831 0c3d 3bf2 dcbd 246a 753d 5823 1b3d
00000300: b2df 003e 544c 0cbe 6402 2d3b 95f5 83bd
00000310: 5eb2 9c3d 1cb5 c53d 05c1 02bd e989 07be
00000320: a22c f0bd e115 15be e370 763d 363e 663d
00000330: 2f08 103e e578 87bd 6899 c83c 9035 093d
00000340: 2f3c 9a3c af65 523d 4a01 cebc a81c a5bd
00000350: 0954 4cbc 2190 913d 2951 9f3d b001 efbc
00000360: 8b69 6b3d b539 623d 0253 88bd 0c96 043d
00000370: 39ce 7f3c d08b 423d a838 b9bd 911b 9dbd
00000380: 0adc e83d 603f b2bd 7470 e8bd 47c8 89bd
00000390: c0a0 8ebd b460 463d 17f3 04ba 9e68 6a3d
000003a0: 91b7 3abc dccb e8bd e6f1 01bd 6381 1bbd
000003b0: f8e4 713c 71d9 86bc 72b4 19be 34bc 40bd
000003c0: 0562 673d 61ae 8abd e284 013d d104 993d
000003d0: 477e 5bbd 6467 783d cead d4bd f61f 18bc
000003e0: 6056 2a3d dd5d 8b3d e68e 8abd 3c7d 20bd
000003f0: 3895 5abd 5a4f d8bc a99d 523d 25b6 dd3d
-0.015251308 -0.10424141 -0.06969652 0.039422914 -0.0052593756 0.009972825 0.059008166 0.0072175073
-0.01312415 0.16444746 -0.111109294 0.005876643 0.09689232 -0.041102253 0.008430575 0.038778577
0.09745459 -0.09626257 -0.085322745 0.028664965 0.0009305354 -0.05338988 0.043319102 -0.0033516672
-0.008025966 -0.07320954 -0.21480945 -0.02644939 0.050344262 -0.071148634 -0.11386008 0.122722276
-0.05947116 0.0341098 0.124263205 -0.0001376773 0.014809451 -0.009318564 0.022090392 0.010523541
0.09938933 0.065612525 0.005834288 -0.012440757 -0.048589546 -0.055236746 0.06925978 0.021781929
-0.011776875 0.032915752 0.0011477565 0.039334662 -0.057236943 -0.043945935 -0.021748949 -0.06683274
0.010067497 0.17765455 0.08807046 -0.08859045 -0.041640583 0.16368437 0.09693678 -0.026251316
-0.0004600401 -0.049685195 0.033255875 -0.050153237 0.06013918 0.033277687 0.09225686 -0.06374892
-0.022670709 -0.031763393 0.010079473 -0.052361444 0.079729736 -0.08774607 0.13462688 0.09050997
0.042332392 0.1889873 0.11075042 0.0058987476 -0.0104457 0.009860192 0.0014996555 -0.14514942
-0.056520194 -0.045300942 -0.0134825045 0.09887123 -0.07792503 -0.02254609 0.09166638 0.059310324
-0.10524603 0.07859854 0.012600815 -0.064344995 -0.017583853 0.042029582 -0.114163905 0.004268878
-0.09476772 0.0331499 0.07950872 0.0319913 -0.024566973 -0.079133846 0.025150295 -0.21986073
0.09625732 -0.034714185 -0.058597047 0.1293183 -0.045439817 -0.030530116 -0.03471978 0.13941348
0.04003425 -0.011413805 -0.13941808 0.09415376 -0.15223767 0.100028016 0.034277126 0.018712113
0.022891305 0.09504191 0.12852891 -0.0040542115 -0.03955312 0.013112034 0.036984142 0.1111723
-0.10518675 0.17812869 -0.053588048 0.061862 -0.05548726 -0.03195197 -0.03351724 0.0128029
-0.06929387 0.030711243 0.077152096 0.022015864 -0.003501122 0.1498705 -0.092718735 -0.00716776
0.0022155724 0.071454085 -0.035610247 0.021848604 0.0005440472 -0.083188064 -0.0806721 0.042856175
0.06435152 -0.0044803754 0.09927354 -0.1078785 -0.019073231 0.06290673 0.042369373 -0.08567192
-0.018187882 0.13401249 -0.011009504 0.0154370675 -0.12728219 0.064576335 -0.104090035 0.11224993
-0.047663193 -0.020062506 -0.070301786 0.023219306 0.0029105234 -0.1419665 -0.23717582 0.03489148
0.016968613 0.06674638 0.0005171451 0.07136921 0.034226865 -0.10788389 0.059915677 0.037875503
0.12585333 -0.13700992 0.002639913 -0.064433254 0.07651208 0.096536845 -0.03192236 -0.13236202
-0.11727263 -0.14559127 0.06016625 0.056211673 0.14065622 -0.06614856 0.024487212 0.033498347
0.018827526 0.051366504 -0.025147099 -0.08062106 -0.012471207 0.071075685 0.07779152 -0.02917561
0.0574737 0.055230815 -0.066564575 0.03236966 0.015613132 0.047496617 -0.090440094 -0.076712735
0.11370094 -0.08703494 -0.11349574 -0.06727653 -0.069642544 0.048432067 -0.00050716236 0.057228677
-0.011396305 -0.11367008 -0.031724833 -0.03796519 0.014764063 -0.016461106 -0.1501024 -0.047054484
0.056489963 -0.067715414 0.031620868 0.07471622 -0.053587224 0.060645476 -0.10384713 -0.009284964
0.04158628 0.068050124 -0.06765537 -0.039181933 -0.053364962 -0.026405025 0.051419888 0.10825757

layers.1.bias f4 [128]
00000000: 89df 97bd d153 cebd c571 9cbd 826c 2dbd
00000010: 2454 423d 8d50 93bd 7912 1d3e e0c5 143e
00000020: 81f5 90bd 154b bcbd 43a1 c83d 5ab5 19bd
00000030: 28c0 85bb ac8e cabb 3376 043e 7406 04bc
00000040: f12c 69bc e4bc a43c 4453 9d3c a3b8 023d
00000050: 395f c53d 0a2b 1c3e ba9a b4bc ccdc 163e
00000060: da90 413e 3c2f 843d 5e50 f4bd 9444 f9bd
00000070: fa9c c93b a263 0c3e d676 2bbc 1922 c3bd
00000080: 9bd0 31be 836c 963d 95a5 c8bb 8386 c63c
00000090: 30dc 393d 4e9a 29be 9c06 f23d 2b6d 103e
000000a0: 2177 d8bc f625 c73d 0071 083e 2c4b 52ba
000000b0: 993e 16be e193 4c3c 756c 963c 2a78 f7bd
000000c0: 7dbe b3bd a5fb d53c 5cc4 fabd 6581 37bd
000000d0: a7eb 54bd 51c6 06be 9fd0 4b3d 127e e7bd
000000e0: 63b7 003e 7132 24be 5766 abbb 91e1 dfbd
000000f0: 7674 4abe b0fc 9c3d 498a f3bd aa58 f3bc
00000100: f2d1 14be 797a a9bd d682 543d 330f 8f3c
00000110: b250 62ba 45ae 05be 9a0f 33be e5b8 3a3d
00000120: 9aa3 bc3d 9b4a 703d 13c1 41bd 8504 f4bc
00000130: 7163 4dbe b4fb 353e ccff dc3c d4a9 babd
00000140: b2c9 f73d ef61 9b3c 008c 633e d36d ec3d
00000150: 4b96 283d 40c2 71bd 395a d7bb 2920 653d
00000160: abc8 f2bc 324a e03d b260 d3bc aa96 f93d
00000170: dfa2 2f3e 640e 503d 2085 e7bd 3c53 363d
00000180: 9626 c43c c2bb 163d 4b37 0ebe fc5e 1b3d
00000190: 40ec 9fbd 0785 173c 410d 16bd 0a58 14be
000001a0: 3d29 373d 9187 d2bd df11 25be ab16 02be
000001b0: 5b62 083e 35ef 873c ef65 d13c 4311 de3d
000001c0: 79d9 e7bc 1aa6 6d3d a80a c63d 4d35 05be
000001d0: d12e 27bd 7f64 cfbd dee6 2abe d35d 98bc
000001e0: 8785 c7bd a937 92bc 3a2f 7c3d 72d1 9a3d
000001f0: e27d b9bd f426 18be 7471 1f3d 94ce 253d
-0.07415683 -0.100745805 -0.07638887 -0.04233981 0.047443524 -0.07193098 0.15339078 0.14528608
-0.07078076 -0.09194008 0.09796383 -0.037526466 -0.0040817447 -0.0061815586 0.12935714 -0.008058179
-0.014231906 0.020109601 0.019204743 0.031914365 0.09637303 0.15250793 -0.022046436 0.14732665
0.18902913 0.06454322 -0.11929391 -0.12171283 0.0061527463 0.13709882 -0.010465344 -0.09527988
-0.17364733 0.07344916 -0.0061232545 0.024234062 0.045376003 -0.16562769 0.11817667 0.14104144
-0.026423993 0.09724037 0.13324356 -0.0008022066 -0.14672317 0.012486429 0.018362263 -0.12083466
-0.08776567 0.02612097 -0.12244484 -0.044801135 -0.051982548 -0.13161589 0.049759503 -0.11303343
0.12569956 -0.16034867 -0.0052307057 -0.10931695 -0.19770989 0.07665384 -0.1189161 -0.029705364
-0.14533213 -0.08275313 0.051882587 0.017463302 -0.00086332404 -0.1305476 -0.1748642 0.045586485
0.09210892 0.0586649 -0.04730327 -0.029787311 -0.20057465 0.17771798 0.026977442 -0.091144234
0.12099017 0.018967597 0.22221375 0.11544385 0.041158956 -0.05902314 -0.0065720347 0.055938873
-0.029636702 0.10951652 -0.025802944 0.1218694 0.17151974 0.050794974 -0.113046885 0.044512972
0.02394418 0.036800154 -0.1388828 0.03793238 -0.07808733 0.009248025 -0.036633734 -0.14486709
0.044717062 -0.102797635 -0.16120099 -0.1270396 0.1331877 0.016593555 0.025561301 0.10843136
-0.028301941 0.058019735 0.09670001 -0.13008614 -0.040816132 -0.1012659 -0.16689631 -0.018599426
-0.09742265 -0.017848806 0.061568476 0.0755948 -0.09057213 -0.1485861 0.038926557 0.04048021

layers.2.weight f4 [64, 128]
00000000: ba35 4b3d 50d7 82be f909 b6bd c318 343e
00000010: 62f0 3cbe ed78 d4bd bf41 593e f65f a43d
00000020: 17a2 a73e 7e71 603d 1e17 403d f11d bd3d
00000030: c337 4ebe ae17 27bd 4156 9b3d bb98 303d
00000040: e804 513c 2aa6 a03d d562 983d 02ac 6f3d
00000050: e240 1dbc db5a 763e 872c 173d 7bf2 533e
00000060: 8d4c 383d 91b8 de3d 76ea 8b3c ad4b df3d
00000070: a191 36bd dd51 79bd e771 b4bc 4e76 eb3c
00000080: b84f 12be ac89 233d 37bb 6b3d a6b9 81bd
00000090: 3985 3dbe 8022 9bbc 85dc d83d 26fe 673e
000000a0: defb e5bd 2850 bc3d aa7a e43c 298a 423d
000000b0: 5f02 37be 75dd d73d 3c37 a63d 1772 103d
000000c0: 5b50 04be ec7b a9bd f679 e73d ce62 e13d
000000d0: 856d 14be c4e6 153e 5d93 023e 3e87 9e3c
000000e0: de89 30bd 95c5 993d a4de 21be 4cb3 28bd
000000f0: c4a1 64bd 8465 bfbd b854 ccbd 83d1 8d3e
00000100: ebe1 f33d a352 0abe 5336 ce3c 21b3 bc3d
00000110: 6086 8bbd a879 aebd 5b1e 41bd 5823 883e
00000120: 4d21 2a3e 0967 e7bd cb4e cd3d 7447 52be
00000130: 88b8 99bb dc7d 283d 76c7 093d b3eb 0ebe
00000140: 13f9 423d 808e 1fbd 0cd8 353d d7d2 3fbd
00000150: 2e7d 1fbd 762e aabe 29c9 77be 0e0c e33c
00000160: 5e3e ad3d 85d4 b53c af6c 6a3e 6b28 433d
00000170: c91a 083e 4f0a f43d d8bb e9bd 8488 2d3e
00000180: f02e 87bd 171d 163d 82db b13d 707f 0e3e
00000190: fab6 0fbd 6033 d43d cd14 22bd 17d8 573d
000001a0: 28dd aebd 876f 783c c88d 12be bc2d 9cbd
000001b0: 13a8 0b3e 7a1f b23d 7f99 d13c 62e3 e33d
000001c0: 46a5 d73d a41e 9dbc a672 b3bd 35b3 33be
000001d0: 1a6b a03d 00cf 43bd f362 16be 7d69 9fbd
000001e0: 6487 9c3d 3eff 573e 5d6d aabb 1d28 bd3d
000001f0: 2c53 4f3d c048 09be feb5 263d da0c 8dbd
00000200: 6ceb 0bbe 2a93 b23d 17f4 a6bd c65c 743e
00000210: 851a b8bd 31d4 5d3d 3e73 9abd c547 833c
00000220: c656 1fbe 42d1 a6bd e0d8 84bd c7f1 5ebc
00000230: b1e8 393e cf66 c4be 76ed bebc a388 98bd
00000240: 9b05 c1bd e03f 92bd c37c 09be bf56 b5bd
00000250: c222 80bd 3ca8 823c 388f adbb e0be 103d
00000260: 15bf 23bd 6c4d 773d 8bf1 efbb 771e 9dbd
00000270: a72d 94be cd83 f0bd b6e1 6d3e 0000 e93d
00000280: dcdf 463c f902 8a3d 87df b9bc 098a 863e
00000290: 26c8 d73e 2a2b 663c ea83 28bd 958c a6bb
000002a0: ab66 a4be d380 4ebd b41b c5bd 1e1c 253e
000002b0: 9918 7b3e f9ed 5b3e 9860 5f3c c3f8 b9bd
000002c0: de68 18bc a819 6bbd d7ce f13c 0b3d e8bd
000002d0: 45ca ed3b b686 89bd 31d3 113c 39d7 b1bd
000002e0: c133 243e e3d7 003e ab69 7b3e 44ea 78be
000002f0: 09de edba 6cd7 d23d 6152 9cbd 65c5 95bd
00000300: fe33 583d be38 58bd 9afa 043e e14b 5b3e
00000310: 3e43 31bc 52c1 bebd 4872 d7bc 7991 863d
00000320: 532a 293e 3944 3a3e 19be 043e df95 ab3d
00000330: 6545 87bd cbf6 953c 4a8a 533e 4913 b8bd
00000340: 4e5f fbbd 7002 763e 3099 c93d 84ac 84bc
00000350: 9c8f babd e3ca 103e 466d 6e3e 169e 763d
00000360: e08f 673e 4103 4e3c c7a7 1ebe 7824 cfbc
00000370: d9be b4bd f0e7 4c3d f4a6 153d b08d 763b
00000380: e514 07bd dbff 2d3c 6043 2b3e 3717 ed3d
00000390: 8a4d 1d3c bfe9 0fbd 9f19 d1bd f101 10be
000003a0: 0f62 ea3d dcca a8be e72a 11be 5d35 fd3d
000003b0: 572b 37bd 86a8 703d 7782 0b3e 1456 48be
000003c0: 43f5 8dbe 5c81 2e3e 3dcb 603d cfa0 773e
000003d0: 2ade 8c3d 0a77 023d 27a4 203d c7de 82be
000003e0: 48ed a83c fc82 32be cd1e 2a3d 18af 04bf
000003f0: dc54 a8bb 2bfb 4a3d 2aa1 1abe 2d0f 65be
0.049611785 -0.25554895 -0.08888621 0.17587571 -0.18451074 -0.10374627 0.21216486 0.080261156
0.32740852 0.054795735 0.046897046 0.092342265 -0.20138459 -0.040794067 0.07584811 0.043114405
0.012757517 0.07844193 0.07440726 0.05851365 -0.009597989 0.24058096 0.0369077 0.20697968
0.04499488 0.10875047 0.017079573 0.10903106 -0.044572476 -0.060869087 -0.02202697 0.028742936
-0.14288223 0.039926216 0.05755159 -0.06334238 -0.18507852 -0.01893735 0.10588936 0.22655544
-0.112296805 0.09194976 0.027890522 0.04749504 -0.17871998 0.105402865 0.08116004 0.035265055
-0.12921278 -0.08275589 0.11302559 0.110051736 -0.14494903 0.14638811 0.12751527 0.019351598
-0.04310023 0.07508389 -0.15807587 -0.041186616 -0.055818334 -0.093455344 -0.09977096 0.27698907
0.11908325 -0.13508086 0.025172388 0.092138536 -0.06812739 -0.08519298 -0.04714809 0.26589465
0.16614266 -0.11298949 0.10024794 -0.2053507 -0.0046911873 0.041135654 0.033637486 -0.139571
0.047600817 -0.038954258 0.04439549 -0.046831932 -0.03893774 -0.33238572 -0.2419783 0.027715709
0.08459161 0.022196064 0.22893022 0.047645967 0.13291468 0.11916029 -0.114127815 0.16946608
-0.066007495 0.036648836 0.08684446 0.13915801 -0.03508661 0.103613615 -0.03957062 0.052696314
-0.08538276 0.015163309 -0.14311898 -0.07625911 0.13638334 0.0869741 0.025585888 0.11127354
0.1052957 -0.01917965 -0.08762102 -0.17548831 0.07832928 -0.047804832 -0.14686184 -0.07783792
0.07643011 0.21093461 -0.0052010254 0.092361666 0.05061643 -0.13406658 0.040700905 -0.06887217
-0.13664025 0.087194756 -0.08152025 0.23863515 -0.08989433 0.05415744 -0.07541512 0.016025433
-0.15560445 -0.081453815 -0.06486678 -0.013607449 0.18155171 -0.38359687 -0.02330659 -0.074479364
-0.09424897 -0.071410894 -0.13426499 -0.08854436 -0.062566295 0.015949361 -0.005296614 0.035338283
-0.039977152 0.06037657 -0.0073224953 -0.07671826 -0.2894108 -0.11743889 0.23230633 0.11376953
0.012138333 0.06738848 -0.022689594 0.26277187 0.4214489 0.014048377 -0.041141428 -0.0050826767
-0.3210958 -0.050415825 -0.096244246 0.16124007 0.24521102 0.21477498 0.01363387 -0.09080651
-0.009302346 -0.057397515 0.029517574 -0.11339768 0.0072567784 -0.06715147 0.00890045 -0.086836286
0.16035368 0.12582354 0.24552028 -0.24308115 -0.0018147837 0.10294995 -0.076329 -0.07313041
0.05278396 -0.05278849 0.12986222 0.21415664 -0.010819254 -0.09314217 -0.02629961 0.065707155
0.16520052 0.18190087 0.12963142 0.08378195 -0.06605033 0.018306157 0.20658222 -0.08988053
-0.12274037 0.24024367 0.09843671 -0.016195543 -0.091094226 0.14139895 0.23283872 0.060209356
0.22613478 0.012574018 -0.1549369 -0.025285944 -0.08825464 0.05002588 0.036536172 0.0037621073
-0.03297891 0.010620083 0.1672492 0.115766935 0.009601006 -0.035135027 -0.10209965 -0.1406324
0.114444844 -0.3296727 -0.14176522 0.12363694 -0.044719066 0.058754466 0.13623987 -0.19564086
-0.27726182 0.17041534 0.054881323 0.24182437 0.06878312 0.031851806 0.039219048 -0.2556059
0.020620957 -0.17432779 0.04153328 -0.5182967 -0.005137069 0.04955594 -0.15100542 -0.2236907

layers.2.bias f4 [64]
00000000: b8f7 d03d 8349 4ebd dc5b 983b 04e3 593d
00000010: 6a41 b7bc b340 6a3b 00e5 3bbd d03b 083d
00000020: 99f4 41bd 7372 24bd 0449 b1bc 9147 ddbc
00000030: 1853 81bd ad60 0dbd 36dd febb d0e2 923d
00000040: 2157 debc 1c8e cb3d 15a6 093d 9429 8bbd
00000050: 0d26 893d 47b5 6a3d 530d 9bbd 1513 f7bd
00000060: ede4 883d 88cf a1bd f301 243c 9682 2f3b
00000070: 84b7 de3d f8b1 c2bd 9eca 423d ad71 05be
00000080: 08b0 dc3d 9167 6d3d 26df 993d 046d e8ba
00000090: f93a 923d b156 98bc b164 91bc c991 853c
000000a0: 18c3 61bd 76a3 703d a1df a23b ece0 883c
000000b0: 68cb c9bd 5dfe 4bbd e0ba 6cbd 5426 2dbe
000000c0: ec08 ad3d 4fcf 42bd 2ccd 9e3c 934f d8bc
000000d0: 81cb d0bb 2711 2c3e e778 98bd 004d 74bd
000000e0: c37a 8c3d 5cf7 02be 9e8a 75bd 3b09 293d
000000f0: f434 1dbe eee0 06be d218 7dba 2b8c 51bc
0.102034986 -0.050363075 0.0046496224 0.053195015 -0.022370059 0.003574413 -0.04587269 0.033260167
-0.047352407 -0.04014821 -0.021641262 -0.027011665 -0.06314677 -0.034516025 -0.0077778352 0.07172167
-0.027141156 0.099392146 0.033605654 -0.0679504 0.06696711 0.057301786 -0.07570901 -0.120641865
0.06684289 -0.079009116 0.01001023 0.0026780716 0.108748466 -0.09506601 0.047556512 -0.13031645
0.10775763 0.057960097 0.07513265 -0.0017732685 0.071401544 -0.018596025 -0.017748209 0.016304867
-0.055117697 0.05874964 0.0049705063 0.016708814 -0.0985325 -0.049803127 -0.057795405 -0.16909152
0.08448967 -0.047560986 0.019384943 -0.026405131 -0.006371916 0.16803418 -0.07444935 -0.059643745
0.068593524 -0.12789673 -0.05994665 0.04126857 -0.15352231 -0.13171741 -0.00096548826 -0.012789766

readout.weight f4 [1, 64]
00000000: b615 04bf b1b6 eebe e48d bdbe 9191 c23e
00000010: fbd4 013f d3e6 143f be83 0fbf 8d59 14bf
00000020: 0185 f93d e50a 273f d979 ebbe 6c05 043f
00000030: 1fb3 ddbe ef52 bfbe 98f9 0c3f 4cf2 0bbf
00000040: e556 08bf 3168 bd3e 8fa3 0e3f 80b0 c7be
00000050: fcdd 22bf ec6b da3e 0c45 263f f7c1 d63e
00000060: 42bd 25bf a48d 1bbf bf43 0bbf 209b 193f
00000070: 1c36 22bf 1aee 103f 1868 c43e 5a84 043f
00000080: d866 16bf d58f 313f e331 bcbe 287e fcbd
00000090: 436e b63e f144 fdbe 2a14 ebbe 1611 293f
000000a0: 60b9 02bf 153a fdbe 2dab 2ebf 21f3 4ebf
000000b0: 06f1 f13e 3b37 253f c987 f13e f541 153f
000000c0: ab70 febd b0ce 403f b79f 103f 08aa c1be
000000d0: d640 e2be eab4 29bf 783b c4be 2908 e73e
000000e0: 9bba f0bd 7c20 dd3e 852d 1b3f c54f 19bc
000000f0: 95cd 943d 2a7a 293f 78e1 94bd 0f4c 0b3f
-0.5159563 -0.46623757 -0.37022316 0.38001683 0.5071561 0.5816471 -0.560604 -0.57949144
0.121835716 0.65251 -0.459914 0.51570773 -0.4330072 -0.3736796 0.5506835 -0.5466659
-0.5325759 0.36993554 0.5571832 -0.39001846 -0.6361997 0.42660463 0.6494911 0.41944858
-0.6474191 -0.60763 -0.5440025 0.60002327 -0.63363814 0.56613314 0.38360667 0.5176445
-0.5875068 0.69360095 -0.3675681 -0.1232875 0.35630998 -0.4946666 -0.4591382 0.66041696
-0.5106411 -0.49458376 -0.68229944 -0.80839735 0.472542 0.645374 0.47173908 0.5830377
-0.124238335 0.7531538 0.56493706 -0.37825036 -0.4419009 -0.6629168 -0.3832662 0.45123413
-0.11754342 0.43188846 0.6061633 -0.009357397 0.07265774 0.6620203 -0.07269567 0.5441293

layers.0.weight f4 [128, 17]
00000000: 27af ea3e c61b 0c3f 88d4 a0bd de33 8ebd
00000010: f55f 1abe baf8 2fbe a5d1 45be 002f 06be
00000020: 113c 043e ce11 92be b589 c7bd c574 45bd
00000030: 4da9 403d ccf5 29bd 24eb 29be 5812 1bba
00000040: b0e3 8e3d fc93 db3e c818 14bf aff1 25bf
00000050: fe7d 953e e809 60be efcf 093f b8c7 b9bd
00000060: 2241 0e3e 1541 e9be e413 26bf cb33 833e
00000070: 8b88 033e b862 373e f847 44bb ad88 3cbd
00000080: 4649 8f3c 1954 893d cf68 15bd 4716 09bf
00000090: 02db bcbe 3615 053f c686 20be b43c d13f
000000a0: 2163 ce3e e18c 3e3e ae9c f4be 4c1d 0c3e
000000b0: b0e6 d73e d346 89bd e0cb 173d 5c22 2a3b
000000c0: 3ea1 b53e 90ef 563d 2913 d63c 858a a2be
000000d0: 0a49 33bf 4713 e03e 7dbe e7be d45f eb3d
000000e0: c5d3 e23e cc03 7b3e aca0 143d f522 0a3e
000000f0: c3ac 56be 1744 56be e788 e23d 4bdf 6d3d
00000100: 94b0 693c 0a0e ebbc dbb7 f8bd e5ab 25bd
00000110: 2273 bc3e d2fd bcbc 94af 8c3f bd63 1cbf
00000120: e952 4b3d cdb5 dc3e 2afb 383f 637f 8d3e
00000130: 9967 973e fed6 863f af85 8f3e 587f 033d
00000140: b37c fbbb 8eb5 093c 1f9d 2d3d 446f c63c
00000150: d58c 013c 4386 8c3e 7c86 b2be 1a6c 59bd
00000160: 5064 a0bd 2fe3 21bf 5604 33bf 28be 79bf
00000170: b020 94be 9470 f4be 7b2d 913e 79fa 80be
00000180: c92d 7c3d adb8 5f3e 49d1 db3c 0a64 613e
00000190: af7b 40bd 224f ab3d a82f 7c3f 1c82 7cbd
000001a0: 3dc4 a0bf 7b59 233e 3593 c63c f024 38bf
000001b0: 0110 c4be 0961 1abe 40ef 02bf 66e4 a43d
000001c0: f8ad b8be 11ac e43c 9e84 abbc da4f 3fbc
000001d0: 4130 ca3c e256 2abd da68 923b 9712 b9be
000001e0: ec33 943d 376e 7fbf 65be ad3d 85b3 17be
000001f0: a317 2e3f c471 3bbe 860a afbc 6fb3 163e
00000200: 6930 9b3e 52cd 803f 0af2 1fbd 7852 9c3d
00000210: 05ad 1d3c cfb1 a73d 661b bd3d 8bd8 463c
00000220: 5455 b83e c1e4 5dbf 02f4 853e ed0f 4bbd
00000230: 67cf 393f a7d5 a33c 6aa5 15be 9c8b 933b
00000240: 0361 67bf d6f2 dd3d 7d14 17bd c81c a3bd
00000250: 11e2 d63d d17f eb3b 5fb9 a5bd 7ec7 1dbd
00000260: e266 e63b a27d a43e 1a25 44bf 94d4 85be
00000270: 8b0f d63e 4975 33be 18ec 053f b2b4 6fbe
00000280: 2d35 dabd 2fea 6f3e 4191 3bbf 6805 09bf
00000290: 5ff9 12be ecef b6bd bd63 833c 7824 9a3d
000002a0: de9b 853c 8cdb fd3c f3be 1abe 733c 2bbc
000002b0: 7c83 223f af5d c13e 5bfb f5be 71a2 2e3f
000002c0: 0324 77be 3724 923e a8fe 0d3f 8d35 71bf
000002d0: 697d 2fbe 5a08 d73d f0bc 0b3e 949f 0b3d
000002e0: f759 13bc 878e a23c 696f 263d 5bac fd3e
000002f0: 8e68 1abd a7ce 4d3e 77d4 51bf ffe5 6a3e
00000300: 1dcf 023f d98a 2f3f 86bb c83d 5dc8 bebe
00000310: 92cd 513f 5cb0 55be e0c9 723d 2bdd 4bbd
00000320: 20ce 793c 52ba 1bbd afba f03b 651a a1bc
00000330: c1be 653f c7d8 0dbd 1f00 b2be fde4 0fbe
00000340: bce4 2dbd a18a adbf 9692 b1be 915e 79be
00000350: f28c 313f 4b73 4a3f 8b17 0b3f f41a de3c
00000360: 092b ddbb 2743 9abc d3d9 633d 5d0a a73d
00000370: a0e8 2e3d 3097 0abf 6d6f 863e c914 603e
00000380: 3f89 f73e 3c37 a83d 89da 743f 652e 8c3f
00000390: 7658 153f 1af0 f1be 96c3 523e afc2 dfbe
000003a0: b8e0 5f3d 4afc 7c3b 907c b3bc 5ff4 30bc
000003b0: 717c 0bbe 615c d0bc 2eb4 6f3f 710d 76bf
000003c0: 272d 47bf 09c9 f7be ea2a f2be e352 4ebe
000003d0: 0cad 393e 254f b6bd e6ab b0be 424f 063f
000003e0: e76a b13c 4910 03be f10c 7fbb 97af e13b
000003f0: 6b6c 8abe 2b75 00bd e859 b0bd caf2 98be
0.45836756 0.5472988 -0.07853037 -0.06943487 -0.15075667 -0.17184725 -0.19318254 -0.13103867
0.12913539 -0.2852921 -0.097430624 -0.048207063 0.047036458 -0.041494176 -0.16593605 -0.0005915514
0.06977022 0.4288634 -0.57850313 -0.64821905 0.29197687 -0.21878779 0.53832906 -0.090712965
0.13892034 -0.45557466 -0.648741 0.25625452 0.12845056 0.17908752 -0.0029950123 -0.04602878
0.017490994 0.067054935 -0.036476906 -0.5354962 -0.3688584 0.5198549 -0.15676412 1.634665
0.40310004 0.18608429 -0.47775787 0.13683051 0.42168188 -0.06702962 0.037059665 0.0025960421
0.3547458 0.05247456 0.026132183 -0.31746307 -0.70033324 0.43764707 -0.4526252 0.11492887
0.44302192 0.24513167 0.03628604 0.13489898 -0.20964341 -0.20924412 0.11061268 0.058074277
0.014263291 -0.028693218 -0.12144443 -0.040447135 0.3680659 -0.02307025 1.0991082 -0.6108969
0.049639616 0.43107453 0.72258246 0.2763625 0.29571226 1.053436 0.2803168 0.032103866
-0.0076747774 0.008405102 0.04238617 0.024222977 0.007907112 0.27446184 -0.34868228 -0.05308161
-0.07831633 -0.6323728 -0.6992849 -0.9755578 -0.2893119 -0.4774214 0.2835501 -0.25191095
0.0615671 0.21847792 0.026833193 0.22010818 -0.046992954 0.08364703 0.9851022 -0.06164752
-1.2559887 0.15952103 0.024240116 -0.7193136 -0.3829346 -0.15076078 -0.51146317 0.08051376
-0.36070228 0.027914079 -0.02093726 -0.011676753 0.024681212 -0.041586764 0.0044680657 -0.36146995
0.07236466 -0.9977755 0.084835805 -0.14814575 0.68004817 -0.18305117 -0.021367323 0.14716886
0.30310372 1.0062659 -0.039049186 0.07632917 0.009623771 0.08188211 0.092337415 0.012136589
0.360026 -0.86677176 0.26162726 -0.049575735 0.72582096 0.019999338 -0.14613882 0.0045027267
-0.90382403 0.10837333 -0.036884774 -0.07964474 0.104923375 0.0071868678 -0.08091997 -0.03852033
0.0070313076 0.321271 -0.7661911 -0.26138747 0.41808733 -0.1752521 0.52313375 -0.23408774
-0.10654674 0.23429178 -0.73268515 -0.53523874 -0.1435294 -0.0893248 0.01603877 0.07526487
0.016309675 0.030988477 -0.15111904 -0.010451424 0.6348188 0.37766787 -0.48043332 0.68216616
-0.24134831 0.28543255 0.554667 -0.94222337 -0.17137684 0.1049964 0.13646293 0.034087732
-0.008993617 0.019843353 0.040633593 0.4954556 -0.037697367 0.20098363 -0.8196482 0.22939299
0.5109728 0.6857124 0.09801392 -0.3726224 0.819543 -0.20868057 0.059274554 -0.04977147
0.015246898 -0.038019486 0.007346473 -0.019665906 0.8974419 -0.034630563 -0.34765717 -0.14052196
-0.042454466 -1.3557931 -0.3468215 -0.2435248 0.6935569 0.79082173 0.543328 0.027112462
-0.006749515 -0.018830849 0.055627655 0.081562735 0.042702317 -0.54136944 0.26256886 0.21882929
0.48346898 0.0821366 0.9564596 1.0951658 0.58338106 -0.47253495 0.20582423 -0.4370322
0.054657668 0.0038602524 -0.021909982 -0.01080045 -0.1362169 -0.025434675 0.9363431 -0.9611426
-0.7780327 -0.48395565 -0.47298366 -0.20148806 0.18132418 -0.08901814 -0.34506148 0.5246469
0.02165742 -0.12799181 -0.0038917626 0.006887387 -0.2703584 -0.03136174 -0.08610898 -0.29872733

layers.0.bias f4 [128]
00000000: 5428 5a3e b9b2 623f 4769 6e3c 5261 543f
00000010: ff76 523f 7da3 c3be d941 0e3f 6cb0 843d
00000020: 7b87 52be 381d c33e b810 cf3e 40f1 393f
00000030: 4b8e 2d3f 5288 d13d 0be2 09bd 8cca 12be
00000040: 75ac 193e 3345 703d 3d46 363f c1af 093f
00000050: b1d6 153f b227 a53f 230d 633d e393 b63e
00000060: 0c91 56be 8080 743e bfe1 463e efd5 503f
00000070: 08c1 43be 81a2 d03e aa50 3bbe 76a0 f0bd
00000080: e4c0 b53d b8fb b43e 7966 193c 297e 86be
00000090: f6c2 33bf 0e38 213f 446e 2c3e 0aee b3be
000000a0: 96d7 0ebe c528 cf3e 3b21 bdbe 49b5 b33d
000000b0: 4915 c13e fa64 f03d 88ff 1e3f aaab 813f
000000c0: 5ccf b03e 070f 163e fe25 66bd ffb7 b4be
000000d0: d49d b43e b627 0cbf 61b2 e7bc d7d7 93be
000000e0: de87 523e 7812 a3be b907 393e 4108 69be
000000f0: 543d df3e 45b0 b63e bb02 9abe 1d32 883f
00000100: 2a6d dabe 6185 203e 1839 d4be c69f 94be
00000110: dd3f 27be 161d 03be c83c 293f 04a2 313f
00000120: cf4c bfbe 8d9b c9bd 28a2 7cbe 5f49 b83e
00000130: 0350 c83d 2abc 103e 3408 a93e 4681 6abe
00000140: 80c3 c3be 712b 03bf 4c7b c1be 2c78 a23d
00000150: be67 003f 5097 2b3d 89f5 8c3e 3e43 54be
00000160: 0dd0 c3be d260 a83e dd57 79be 7692 823e
00000170: 4cf1 263e 6fe6 7c3f f856 2e3f e302 9abe
00000180: a384 3cbe f4b7 29bf 5bdf 49be a7b8 4d3f
00000190: 87f0 fc3d 9094 16be 7026 f73e 2948 3a3e
000001a0: 971d bd3e c4ae 893d 6b68 a1be 7b6b 5abe
000001b0: 8ca1 b2be 1886 3a3f 3683 f43e e3f6 043f
000001c0: 38eb be3e f764 de3e c19b b2be 518e 29bb
000001d0: 01dd b03d 3dc3 283f eb49 383e 02a8 d03e
000001e0: c80a e23e 5ee6 903e 2ce7 96be 899d db3c
000001f0: 0669 a43e aea7 e7be 693d 0d3d e520 223f
0.21304446 0.8855396 0.014551467 0.82961 0.82212824 -0.3821067 0.55569226 0.06478962
-0.20559494 0.3810823 0.40442443 0.72633743 0.67795247 0.10231079 -0.033662837 -0.14335078
0.15007193 0.058659744 0.71200925 0.53783804 0.5853072 1.2902739 0.05543245 0.35659704
-0.20953768 0.23877144 0.19422053 0.81576437 -0.19116604 0.4074898 -0.1829249 -0.117493555
0.088746816 0.35348296 0.00936281 -0.26268128 -0.7021936 0.6297616 0.16838938 -0.35142547
-0.13949427 0.40460792 -0.36939415 0.08774812 0.37711552 0.1173801 0.6210866 1.0130513
0.34533203 0.1465417 -0.056188576 -0.35296628 0.35276663 -0.54748094 -0.0282833 -0.2887561
0.20559642 -0.31850028 0.18069352 -0.22757055 0.43601477 0.35681358 -0.30080208 1.0640293
-0.4266141 0.1567588 -0.4144981 -0.29028147 -0.16332956 -0.12804064 0.6610837 0.6938784
-0.37363288 -0.09844122 -0.24671233 0.35993478 0.09780886 0.14134279 0.3301407 -0.22900876
-0.38235092 -0.5123816 -0.3778938 0.07933077 0.501583 0.04189235 0.27531078 -0.20728776
-0.38244668 0.32886368 -0.24349923 0.25502366 0.16302985 0.98789114 0.68101454 -0.30080327
-0.18409972 -0.66296315 -0.1971411 0.8035988 0.123505645 -0.1470511 0.48271513 0.1819159
0.36936638 0.06722787 -0.31524977 -0.21330063 -0.34888875 0.7286086 0.47756356 0.5193922
0.37288833 0.43436405 -0.34884456 -0.002587218 0.08635903 0.6592291 0.17996947 0.4075318
0.4414885 0.28300756 -0.29473245 0.026808517 0.32111377 -0.45245117 0.034482393 0.63331443

layers.1.weight f4 [128, 128]
00000000: abbe be3d d68d 31be f3f3 6b3e 63bd 61be
00000010: 612b dc3c 2b23 353e 3526 313d 9516 99bd
00000020: c06d b03d 7f9a e03d 3054 a3bc fb60 043e
00000030: d06d aabe 9641 873d 0e16 11bd 5037 0a3d
00000040: f503 eb3b bba3 8b3d 3412 b93d afd6 77bd
00000050: 0701 fdbd deed 52be b0ae a03c 1640 2cbe
00000060: 33c5 85bd 5c00 56be 1ad5 0d3e c394 e8be
00000070: 39f9 8d3e fbef f23d bd8f 05be 6909 ad3d
00000080: f486 2fbe 27a9 0bbe a050 21bc 5285 383e
00000090: a70d b53d 6f07 d93c 123f 173c 842a 22bc
000000a0: 80c0 e93d cf02 553d fba2 31be c8fa d93d
000000b0: 63ea 3a3d c6c3 c6bc 4613 2bbd fb8f ed3d
000000c0: 2f14 0cbd f517 6fbd 2830 c5bd 75d0 b5bd
000000d0: 7425 3dbd 088d c73a cee8 b23d f413 c1bd
000000e0: 832f 7f3d 744d 35bc ed6e 42bc d166 5e3d
000000f0: ce21 e1bd 0a45 6d3c c40e 04bd f711 edbd
00000100: 2e34 143e 837f 1a3e cb3b c13c 42af ba3d
00000110: bc49 acbd 508b b4bd 437c 91bd e69b 52bd
00000120: 7b15 8d3d e692 653e 37d2 e6bb 387c bb3d
00000130: e117 0b3d 6bd7 0ebd 564b 80bd 85f3 bdba
00000140: 1211 5b3d b83d bd3d 9104 723b addf 6d3d
00000150: 79e8 3e3e 2380 6c3d 4e69 7c3d 57e0 0f3d
00000160: 9d4d a93b 3e23 c93c 4748 813d b786 22bc
00000170: ae81 afbc 9e4e 36be d573 c9bd 8aa0 9fbd
00000180: 8559 88bb 2d85 703c 6767 00be 0651 0e3e
00000190: 5487 a13d de5a bf3d 7585 bc3d a305 403d
000001a0: 41b7 05bd 37cd 883b c35d f23d a183 2ebe
000001b0: f0cd 743e 01ab 553d d29e 1bbe 2339 b73d
000001c0: 4c33 83bd 4d61 68bd ad22 37bc 1481 53bb
000001d0: 0437 e4bd 73f2 c23b b9c4 9d3d 589e 1c3e
000001e0: bfdb 5d3c 4b70 acbd 6ef4 5bbd c6af 723d
000001f0: 6aa7 0abe 7db4 bc3c 5188 ee3c 7be2 81be
00000200: f9a7 303d 1dfb 363e 39e2 533d c472 513e
00000210: 66ca b93c 2550 853c e151 b8bd 60f4 6abe
00000220: dc37 c7bb 1762 493d 6a83 bfbc 74ab 5cbe
00000230: 905f e63b 7785 c83d 5874 b4bc 6851 4d3c
00000240: d6b2 a8bd 4585 9fbd 0632 713d 19fa 6d3d
00000250: 0598 5dbd 2e21 873d 2f0b e93d 5ddd acbd
00000260: 9fc0 a9bb a5c1 723d 9228 673d 2e56 103e
00000270: 7c84 dcbc 8ae6 a93d 2fbe 853d f489 9839
00000280: c340 793d de43 0cbe 0460 073c e51d 143d
00000290: 967a 573d d1b2 6b3e 3aac 323e ae88 53bd
000002a0: 716c 7b3d 5d0b b93d 3a2c d0bd 4068 98bb
000002b0: 7c33 81bd 4f0f b0bc 000c 023d 9ee5 4ebe
000002c0: df05 dc3d 794f ec3c 8830 3bbc 2cf5 5d3d
000002d0: f10d bb3b 2726 6a3b d99b 503d 6236 ad3d
000002e0: 7602 e0bd 3c41 10be 6cf4 833c f905 38bd
000002f0: 7e8c d4bb 017d b33d 11e4 91bb 9fdb 003d
00000300: e1ce ab3d 5988 a53c dbf0 4dbb fb52 92be
00000310: d7a9 953d 817b 35bc 885e 9fbd 8471 0ebd
00000320: 7728 313e d465 6cbc dae7 e13d 9ae0 00bd
00000330: 31bb 263d 4086 6a3d 2e42 dcbd 4631 843e
00000340: 9f24 3bbd 58da f7bd 4ffa ca3d 208b 2dbc
00000350: f154 1e3e 7717 cd3d 787c a6bb e277 033d
00000360: a266 14bd 55c7 50bd c138 843d 137e 383a
00000370: 34cf 883c 9174 653e 2950 573d 0380 9dbd
00000380: dcad fbbc df1c 3e3d 1908 45be c321 4ebd
00000390: f3f9 13bd d58a 10bd dd06 cebd 926e b2bc
000003a0: 2847 24bd 70fb e13e 7245 a7bc 85f3 c6bd
000003b0: b0b6 793e af9b e5bd 0f5c 22be 3c3c 95bd
000003c0: af49 fe3d ac5e 84bd 4394 b23d fdc8 94be
000003d0: 8d61 bc3d b144 603d 9b1e 383c 7544 b13d
000003e0: 12b1 093d ee41 a53e c895 c63d 0b9a 113e
000003f0: 0ffc 463d a667 cc3c 6f42 733e ee6b ffbd
0.09313711 -0.17339262 0.23042278 -0.22044902 0.026876153 0.17689197 0.043249328 -0.0747501
0.08614683 0.10966968 -0.019937605 0.1292762 -0.33286905 0.066043064 -0.035421424 0.033744156
0.0071721026 0.068183385 0.09036675 -0.060507473 -0.123537116 -0.20598552 0.019614547 -0.16821322
-0.065317534 -0.20898575 0.13850823 -0.45425996 0.27729204 0.11862179 -0.13043113 0.084490605
-0.17141324 -0.13638745 -0.009845883 0.18019608 0.088404946 0.026492802 0.009231346 -0.009897832
0.114136696 0.05200463 -0.17347328 0.10643536 0.045633685 -0.024263274 -0.041766427 0.11599728
-0.034198936 -0.058372457 -0.09628326 -0.08877651 -0.046178296 0.0015224526 0.0873581 -0.09427634
0.06230117 -0.01106583 -0.011867267 0.054297272 -0.10992776 0.014481792 -0.032240644 -0.11575692
0.1447303 0.15087704 0.023588082 0.09115459 -0.08412501 -0.08815634 -0.07103779 -0.051418208
0.06888863 0.22419319 -0.0070441025 0.09154552 0.03395832 -0.034873407 -0.06264369 -0.001449213
0.053483076 0.092402875 0.0036928991 0.058074642 0.18643369 0.05773939 0.061623864 0.035126057
0.005166723 0.024552938 0.06312614 -0.009919814 -0.02142414 -0.17803428 -0.09836546 -0.07794292
-0.004161062 0.014680189 -0.12539445 0.13898095 0.0788714 0.093435034 0.092051424 0.046880376
-0.032645468 0.004174854 0.1183429 -0.170424 0.23906684 0.052165035 -0.15197304 0.08946445
-0.064062685 -0.05673342 -0.011177701 -0.0032272981 -0.11143306 0.0059493124 0.077035375 0.15294778
0.013541161 -0.08419856 -0.053699903 0.059249662 -0.13540426 0.023035282 0.029117735 -0.25368103
0.04312894 0.1786923 0.051729415 0.20453936 0.022679519 0.016273567 -0.08999992 -0.22944784
-0.006079657 0.04916581 -0.023378093 -0.21549779 0.007030435 0.097910814 -0.022028133 0.012531616
-0.08237235 -0.07789091 0.058885597 0.05809984 -0.054100055 0.065981254 0.11379086 -0.08440659
-0.005180433 0.059266705 0.056435175 0.14095375 -0.026918642 0.08295925 0.06530415 0.00029094482
0.060852777 -0.13697764 0.008262638 0.036161322 0.05260714 0.23017432 0.17448512 -0.05164402
0.061382715 0.090353705 -0.101646855 -0.0046510994 -0.06308648 -0.021491675 0.031749725 -0.2020478
0.10743307 0.02884649 -0.011425145 0.054188892 0.005708449 0.0035728307 0.050929878 0.08457638
-0.109379694 -0.14087385 0.01610776 -0.04492757 -0.0064864745 0.08764077 -0.0044522365 0.031459447
0.083890684 0.020206617 -0.0031424079 -0.28578934 0.07307785 -0.011076809 -0.07781702 -0.034776226
0.17300592 -0.014428575 0.1103055 -0.031464197 0.040705863 0.057256937 -0.1075481 0.25818843
-0.04568922 -0.12102193 0.09911024 -0.010592252 0.1546209 0.10014241 -0.005080756 0.03209675
-0.03623069 -0.050971348 0.064561374 0.00070378295 0.016700365 0.22407748 0.05256668 -0.07690432
-0.030722551 0.046414252 -0.1924137 -0.050325166 -0.036127042 -0.03528865 -0.10059903 -0.02178124
-0.040106922 0.44137144 -0.020418856 -0.097144164 0.24386096 -0.11211335 -0.1585543 -0.072868794
0.12416398 -0.0646337 0.08719685 -0.29059592 0.09198294 0.05475301 0.011237766 0.08655635
0.033616133 0.32276863 0.09696537 0.14218919 0.048580226 0.024951767 0.23755811 -0.12471758

layers.1.bias f4 [128]
00000000: 9cd5 56be 6d57 43be 0f2b e63d 2c7b 773c
00000010: 515c 153d 4057 1cbd 80df 143e c745 8abd
00000020: 9c85 f5bc 56fc 5b3e 55ff f9b9 4dfa 90bd
00000030: f6a7 573e 4189 453e 6c29 dfbd 9b29 ecbd
00000040: 88d9 473e df67 dabc 73ec c5bd e340 47bd
00000050: 6a5d 483e 3291 c33e 8e4a 14be 81e8 34be
00000060: abcb 4cbe 1874 1a3e 819b d2bd 250f 273d
00000070: 2e83 93be 7304 603e 0668 573e 1149 533d
00000080: f036 b73d 7212 afbe 0ec7 41bd 1376 a33e
00000090: ffc7 01bd 694a 0fbd f203 c33e bb7d 2dbd
000000a0: cff7 b9bc 021c d9bd e5bb 49be 685c acbe
000000b0: c671 1e3e 4da4 d33c 96b1 16bd a0b4 4dbc
000000c0: 4d6c 61be b909 f03d 3de8 083e 4ea2 f53d
000000d0: d4e7 77be 3439 d0bd 699f 0d3e c9af 6bbe
000000e0: bdfa d5bd d5ed 54be 56cd 243d e827 593d
000000f0: c738 753c 1e0d 0fbe de46 4dbd 2b11 773d
00000100: fcfb 223e 53b6 893d 485e 72be 790b 033d
00000110: 2bd7 403e 12a6 6fbe 61aa 103c f041 c33d
00000120: d4b6 14be f682 1bbd c300 823d 4ca6 153e
00000130: 98c2 5a3e c006 963d e508 7b3e 8d72 1dbc
00000140: eb5d 07bc 34bd ebbd 39b9 a03e 15f9 8abd
00000150: 7393 96bd 71a6 3dbe c617 4d3c a3bf c0be
00000160: fe32 4ebe 012b c03d aec2 4bbe 3771 59bd
00000170: 3ea3 06be 9c5c 373d 4f89 863c 67a0 91bc
00000180: d379 5c3d 842c cabd 3ad1 f2bd 0d91 6b3e
00000190: 7123 4d3e 4321 5f3e 53b9 c3bd ab22 313e
000001a0: 0c64 4bbe 11f8 513d 64e2 62bd 583f 01be
000001b0: 6ade 8b3e a457 9bbe 62c9 853d c826 8f3c
000001c0: fc1c dabd e097 c3bd 7d1d 5d3e 1226 623e
000001d0: 9d6d 12be f451 01be 35bd 573c 45f1 8ebe
000001e0: d66a 303e e993 8f3d a690 05be f374 12be
000001f0: 10a8 9b3d 840a bc3b 3e05 58bb 1d80 d33d
-0.20979923 -0.19076319 0.112386815 0.01510505 0.036464993 -0.038169146 0.14538383 -0.0675159
-0.029970936 0.21482977 -0.00047683218 -0.07078991 0.21060166 0.1929064 -0.108965725 -0.11531373
0.19516575 -0.026660858 -0.0966424 -0.048645865 0.19566885 0.38196713 -0.14481565 -0.17666818
-0.19999568 0.15083349 -0.10283566 0.040785927 -0.2881102 0.21876697 0.21035776 0.051583353
0.08946025 -0.3419376 -0.047308974 0.3192602 -0.03168487 -0.034983072 0.38088948 -0.042356234
-0.022701172 -0.10601045 -0.19700582 -0.3366425 0.15473089 0.02583518 -0.036790453 -0.012555271
-0.2201397 0.117206044 0.13369842 0.11993848 -0.24209529 -0.10167161 0.13830341 -0.23016275
-0.10448215 -0.2079385 0.040234886 0.053016573 0.01496715 -0.13969848 -0.050116412 0.060319107
0.15916437 0.06724229 -0.23668778 0.031993363 0.1883208 -0.23403195 0.008829684 0.09534061
-0.14522868 -0.03796669 0.063478015 0.14614218 0.21363294 0.07325506 0.24515112 -0.009609831
-0.008262138 -0.11510697 0.31391314 -0.0678579 -0.073523425 -0.18520524 0.012517875 -0.37646207
-0.2013664 0.09383202 -0.19898483 -0.053086486 -0.1314821 0.044766054 0.016422896 -0.017776681
0.053827118 -0.09871772 -0.11856313 0.23004551 0.20033051 0.21790032 -0.09556832 0.17298381
-0.19862384 0.051261965 -0.055391684 -0.1262182 0.27318126 -0.30340302 0.06532551 0.017474547
-0.106500596 -0.09550452 0.2159328 0.22084835 -0.14299627 -0.12628919 0.013167669 -0.2791845
0.17228255 0.070106335 -0.1304346 -0.14302425 0.07600415 0.0057385582 -0.003296211 0.1032717
