Gym-DDPG-solution/results/DDPG_HalfCheetah-v4_4000-eps0.3-t32-l0.0001-s1.pth (torch, 193979 bytes, 13 tensors)

layers.0.weight f4 [128, 23]
0	0x3e8a4d12	0.27011925
1	0xbdb712f6	-0.089391634
2	0x3dd61ff4	0.10455313
3	0x3e3ea9cf	0.18619464
4	0xbeaccb2b	-0.33748755
5	0x3f06b47b	0.5261914
6	0x3e6bd254	0.23029453
7	0x3e5a6625	0.21328028
8	0xbd970fd4	-0.07376066
9	0x3e208e32	0.15679243
10	0x3db1435e	0.086554274
11	0xbafe34c2	-0.0019394385
12	0x3cb83e78	0.022490725
13	0xbc7203ce	-0.014771415
14	0x3a340473	0.0006867118
15	0xb9bfc4b7	-0.00036576923
16	0x3b802a99	0.003911328
17	0x3e058d98	0.13042295
18	0x3e6b8a86	0.23002061
19	0x3e1de87a	0.15420714
20	0xbdfe5ddf	-0.12420248
21	0xbdd5764d	-0.10422955
22	0xbe0e2a37	-0.13883291
23	0xbe8b466d	-0.27202168
24	0xbe2d46a4	-0.16921479
25	0x3eff6c4b	0.49887308
26	0x3e4e53ae	0.20149109
27	0xbe362db5	-0.17790873
28	0xbeb9cc81	-0.36288837
29	0x3ece7ae5	0.40328136
30	0x3e7606f9	0.24026097
31	0x3e796e12	0.24358395
32	0x3eb1bbbe	0.34713548
33	0xbe9c70b1	-0.30554727
34	0xbd641f27	-0.05569377
35	0xbdb7ab0c	-0.089681715
36	0x3d074766	0.033027075
37	0x3d23f483	0.040028106
38	0x3d8ec70e	0.069715604
39	0xbcc1dca5	-0.023664782
40	0x3e4368f7	0.1908301
41	0xbde37583	-0.11106398
42	0x3db4b177	0.08822911
43	0xbef2b91d	-0.47406855
44	0xbe38c9b0	-0.18045688
45	0x3c8cd094	0.017189302
46	0x3e81f281	0.25380328
47	0x3df1c47f	0.11805057
48	0xbeaec669	-0.3413575
49	0x3d312fc1	0.043258432
50	0xbe6a2bd1	-0.22868277
51	0x3cf7cc26	0.030248713
52	0x3ea76139	0.32691363
53	0x3e9f27aa	0.3108495
54	0x3eb92a2f	0.36164996
55	0x3f03c36d	0.5147007
56	0x3e91eb1a	0.2849968
57	0x3d553aea	0.052058138
58	0x3d0783f6	0.033084832
59	0x3c622254	0.01380213
60	0x3cc3f7c3	0.023921853
61	0x3d0add84	0.03390266
62	0x3d1647d2	0.036689587
63	0x3eab0b80	0.3340721
64	0xbe29c832	-0.16580275
65	0xbc664f3d	-0.014056978
66	0xbe460f10	-0.19341683
67	0x3defaa8e	0.117024526
68	0xbdeb92d6	-0.11502616
69	0xbee67938	-0.45014358
70	0x3dc81531	0.09769667
71	0xbe29622e	-0.16541359
72	0xbdb21a8e	-0.08696471
73	0x3c020a53	0.007937032
74	0x3d70c632	0.058782764
75	0xbe41fd70	-0.18944335
76	0x3e23340e	0.15937826
77	0x3e86a363	0.2629653
78	0xbf00e9e2	-0.50356877
79	0x3e1c7a3e	0.15281007
80	0xbd9534ca	-0.07285459
81	0xbd84db89	-0.064871855
82	0xbc498822	-0.012300523
83	0x3d0bb2b2	0.034105964
84	0x3d38007b	0.044922333
85	0xbc655b5d	-0.0139988335
86	0xbecddc87	-0.40207312
87	0x3d3bbffa	0.04583738
88	0xbce2ad6e	-0.027670588
89	0x3decbbb4	0.11559239
90	0x3e1d6cbe	0.15373513
91	0xbe413373	-0.18867283
92	0x3f0f8b8c	0.56072307
93	0x3da8540e	0.08219157
94	0xbeff1a01	-0.49824527
95	0xbeafe41e	-0.34353727
96	0x3e0f21b3	0.13977699
97	0xbd2fbc1b	-0.042904
98	0xbde4d257	-0.11172932
99	0xbdea160a	-0.11429985
100	0x3e69fae2	0.2284961
101	0x3d98b9ab	0.07457288
102	0x3e711c17	0.23545872
103	0x3d1edf31	0.03878707
104	0x3c2029f4	0.009775627
105	0x3a5514ec	0.0008128423
106	0x3d544f9f	0.051833745
107	0x3d34e625	0.044164795
108	0xbc2e2f91	-0.010631458
109	0x3de85985	0.113451995
110	0xbc60994f	-0.013708427
111	0x3e078580	0.1323452
112	0x3e8cb923	0.27484998
113	0xbe1119a6	-0.1416994
114	0x3dd22892	0.102616444
115	0x3f24e367	0.6440949
116	0x3c7f808a	0.015594611
117	0xbe8525c0	-0.26005363
118	0xbe9da373	-0.30788764
119	0xbe5d3d38	-0.21605384
120	0xbcfad5f0	-0.030619591
121	0xbdb83bf7	-0.089958124
122	0x3e42a883	0.19009595
123	0xbdc6594a	-0.09684999
124	0xbdbc8575	-0.092051424
125	0xbe8707bc	-0.26373088
126	0xbd64818c	-0.055787608
127	0xbd0f85bb	-0.035039645
128	0x3bd1d0ad	0.00640305
129	0x3d0d1e67	0.034452822
130	0x3c777c2b	0.015105288
131	0xbaa40f36	-0.001251674
132	0x3e3928a8	0.18081915
133	0x3e20b3c5	0.15693577
134	0x3e24df38	0.16100776
135	0x3e4fc590	0.20290208
136	0x3cc99468	0.024606898
137	0x3d5c697e	0.053811543
138	0x3d9b977a	0.07597251
139	0xbef06bb0	-0.4695716
140	0xbcdc4112	-0.026886497
141	0xbe4b9041	-0.19879247
142	0xbe6b4463	-0.22975306
143	0xbcd9440d	-0.026521707
144	0x393cf3ce	0.00018019901
145	0x3e795d34	0.2435196
146	0x3e8615bd	0.2618846
147	0x3e5f6cd8	0.21818864
148	0x3d2cd4f3	0.04219527
149	0x3d39642f	0.04526156
150	0x3c271d44	0.010199849
151	0x3de9e590	0.11420739
152	0xbc91bdda	-0.017790724
153	0x3a673f8a	0.0008821419
154	0xbcea87f0	-0.028629273
155	0xbebd0c3e	-0.36923403
156	0xbd70f723	-0.058829438
157	0xbdefa888	-0.11702067
158	0x3e00ccc4	0.12578112
159	0xbca76ede	-0.020438608
160	0x3dbdfe72	0.09277047
161	0x3ef21d29	0.47287872
162	0xbdb3ba93	-0.087758206
163	0x3f1f0ced	0.621291
164	0x3e37d3e0	0.17951918
165	0x3b8915d2	0.0041835094
166	0xbe03181f	-0.1280217
167	0xbe70a52d	-0.2350051
168	0xbe758125	-0.23975046
169	0x3cc0a267	0.02351494
170	0x3d83bbd3	0.06432309
171	0x3d443a2e	0.047907047
172	0xbcac064c	-0.020999096
173	0x3cefff3a	0.029296506
174	0x3bbd038a	0.005768244
175	0x3dc56215	0.09637848
176	0x3d3d733e	0.04625248
177	0x3c8016b1	0.01563582
178	0xbead65a0	-0.33866596
179	0x3d735c35	0.059414107
180	0xbd6d42cd	-0.057925034
181	0x3b111c0e	0.0022141966
182	0xbd979c35	-0.07402841
183	0xbd024a19	-0.031808946
184	0xbe0fdc30	-0.14048839
185	0x3e55103d	0.20806976
186	0xbf672675	-0.90293056
187	0xbe8554d3	-0.26041278
188	0x3dfcb62b	0.12339433
189	0xbe93025c	-0.28712738
190	0x3daee66a	0.08540042
191	0xbe0d9d42	-0.1382952
192	0xbdafb6e3	-0.08579805
193	0xbd19a427	-0.037510063
194	0x3e575c16	0.21031222
195	0xbe0cd3b3	-0.13752632
196	0x3c03da89	0.008047708
197	0x3afb0a51	0.0019152855
198	0x3e458efd	0.19292827
199	0xbcfa82a0	-0.030579865
200	0x3d66d54e	0.056355767
201	0xbe51a8f9	-0.20474614
202	0x3da4e33f	0.08051156
203	0xbe0d33bf	-0.13789271
204	0x3e57fce2	0.21092561
205	0x3e805ec3	0.25072297
206	0x3eab7d9d	0.33494273
207	0x3ee8c333	0.45461425
208	0xbda053e5	-0.078285016
209	0xbe26fa26	-0.16306362
210	0x3f30acae	0.6901349
211	0x3e12dd54	0.14342242
212	0xbdac3ee9	-0.08410437
213	0x3e4407a0	0.19143534
214	0xbddd5ec2	-0.10809089
215	0x3ec6f4d8	0.38858676
216	0xbe512dc9	-0.20427622
217	0xba7e3870	-0.0009697741
218	0x3e0210d5	0.12701733
219	0x3d9534c6	0.07285456
220	0x3bddb131	0.0067655076
221	0x3ddb43ae	0.10706268
222	0xbd40d40a	-0.047077216
223	0x3d31ab90	0.043376505
224	0x3ec2e5a2	0.3806582
225	0x3e592953	0.2120717
226	0xbe84d0d4	-0.25940573
227	0x3f7d8eb0	0.9904585
228	0x3da5a47f	0.08088016
229	0x3e84fd8a	0.25974685
230	0x3e620d59	0.22075404
231	0xbe8f49ce	-0.27985996
232	0x3f4baf01	0.7956391
233	0x3e699aec	0.22813004
234	0xbd996736	-0.07490389
235	0xbca3ee9b	-0.020011237
236	0x3e7b19ad	0.24521513
237	0x3e266db0	0.1625278
238	0x3d55ea4e	0.052225403
239	0xbe9cdc92	-0.30637032
240	0xbea3f04d	-0.32019272
241	0xbcc1dc9b	-0.023664763
242	0x3c961734	0.018321611
243	0x3c09b301	0.008404494
244	0xbda1ef28	-0.079069436
245	0xbd22942b	-0.039692085
246	0xbcb2388d	-0.021755481
247	0xbda954a1	-0.08268095
248	0xbc7ce73d	-0.015435991
249	0x3e11ee24	0.14251
250	0x3de59dba	0.112117246
251	0x3c575d9e	0.013144879
252	0x3d105ca5	0.035244603
253	0x3f329941	0.69765097
254	0xbdb7d27b	-0.08975693
255	0x3efe20ff	0.4963455

layers.0.bias f4 [128]
0	0xbdb5baff	-0.08873557
1	0xbe22f23a	-0.15912715
2	0xbecf6604	-0.4050752
3	0x3daa24a3	0.08307769
4	0xbde05f21	-0.109556444
5	0xbe43ff8c	-0.19140452
6	0xbda613b0	-0.08109224
7	0xbe2f7676	-0.17135033
8	0xbd971e04	-0.07378772
9	0xbe02c02e	-0.12768623
10	0xbe82c60a	-0.25541717
11	0xbed1a131	-0.40943292
12	0xbdc929c2	-0.09822418
13	0xbe4d3a86	-0.20041856
14	0x3ccfa39e	0.025346573
15	0xbd3db701	-0.046317104
16	0x3ef2f72a	0.47454196
17	0xbe65befb	-0.22436135
18	0xbe7f23e4	-0.24916035
19	0xbed675df	-0.41886804
20	0x3f076f39	0.5290409
21	0xbdfe91f4	-0.12430182
22	0xbe195fd7	-0.14977966
23	0xbe4986c0	-0.1968031
24	0xbe7180c5	-0.23584278
25	0xbe5cb267	-0.2155243
26	0xbe9a6c81	-0.30160907
27	0xbe828bba	-0.25497228
28	0xbe0eace1	-0.13933136
29	0xbc3a3cec	-0.011367064
30	0x3e2fd517	0.17171131
31	0x3e37775b	0.17916624
32	0x3e16432c	0.14674062
33	0xbe109adb	-0.14121573
34	0xbeab1f63	-0.33422384
35	0x3e1d0ba2	0.15336469
36	0xbed33a15	-0.4125525
37	0xbeab585c	-0.3346585
38	0x3e0b3d02	0.13597491
39	0xbe50e6e8	-0.20400584
40	0xbdb20974	-0.08693209
41	0xbe8eb098	-0.27869105
42	0x3d90b904	0.07066539
43	0xbe449aae	-0.1919963
44	0xbd15dee0	-0.036589503
45	0xbd2a2dfa	-0.041547753
46	0xbecddf62	-0.4020949
47	0xbf14c42d	-0.5811184
48	0xbd86a5ec	-0.06574616
49	0x3ee9018f	0.45509002
50	0xbea4bf5c	-0.32177246
51	0xbebbcc34	-0.36679232
52	0x3e880139	0.26563433
53	0x3eb73506	0.3578264
54	0x3ee7651b	0.45194325
55	0xbe95f621	-0.29289344
56	0xbd1d92e5	-0.038470168
57	0xbe11e2b9	-0.14246644
58	0x3eb55f45	0.35424247
59	0x3e6958f8	0.22787845
60	0x3cc60223	0.02417094
61	0x3e075772	0.13216951
62	0xbef78809	-0.48345974
63	0xbd859d29	-0.065241165
64	0xb8175cdb	-3.6087684e-05
65	0x3eb61ec1	0.35570338
66	0xbd8dc22a	-0.069217995
67	0xbe7aef1d	-0.24505277
68	0xbea5e512	-0.3240133
69	0xbe84c93a	-0.25934774
70	0x3e6a68da	0.2289156
71	0x3eaad2c8	0.33363938
72	0x3f036614	0.51327634
73	0xbe9aecd2	-0.30258805
74	0x3d0408bb	0.03223489
75	0xbecb7cfd	-0.39743796
76	0xbe6c1095	-0.230532
77	0x3bd2e000	0.0064353943
78	0x3e845a20	0.2585001
79	0xbd0c36c7	-0.034231927
80	0x3d630756	0.055426918
81	0xbecc3f65	-0.39892116
82	0x3e28bc23	0.16478018
83	0x3e20ed45	0.15715511
84	0xbd33cefb	-0.043898564
85	0xbe25f2ab	-0.16205852
86	0xbe76ce8f	-0.24102233
87	0x3e6d3aa3	0.231669
88	0x3eac9592	0.33707863
89	0xbeab73a3	-0.3348666
90	0xbdb2811b	-0.08716031
91	0x3e692125	0.2276655
92	0xbbc101c3	-0.0058901026
93	0xbe986da4	-0.2977115
94	0xbd93ce7b	-0.072171174
95	0xbe444353	-0.19166307
96	0xbe8a96ed	-0.27068272
97	0x3e8718d3	0.26386127
98	0x3db82553	0.08991494
99	0x3e8b9597	0.27262565
100	0x3e3c17df	0.18368481
101	0xbe244c11	-0.16044642
102	0xbe987081	-0.29773334
103	0x3e50ece0	0.2040286
104	0x3e8e0c2c	0.2774366
105	0x3dce0a1f	0.10060524
106	0x3ba5294d	0.005040324
107	0x382bc186	4.094981e-05
108	0xbe88b116	-0.26697606
109	0xbe1934ae	-0.14961502
110	0x3e8985e3	0.2685996
111	0x3f14b433	0.5808746
112	0x3e314f0e	0.17315313
113	0x3c4f57cd	0.012655211
114	0x3eab3b96	0.33443898
115	0xbefdcd37	-0.4957063
116	0x3e2b00d2	0.16699532
117	0x3e959f25	0.2922298
118	0xbdebe903	-0.11519053
119	0x3eb535da	0.35392648
120	0x3e151f75	0.14562781
121	0xbda8eabe	-0.082478985
122	0xbe4fbc3b	-0.20286648
123	0xbc472ba2	-0.012156399
124	0xbd63c78a	-0.055610217
125	0xbe6b41bc	-0.22974294
126	0xbd9fb55d	-0.07798264
127	0xbeff1beb	-0.49825987

layers.1.weight f4 [128, 128]
0	0x3c31469f	0.01082006
1	0xbd89e7e7	-0.06733685
2	0xbd9f8f4e	-0.07791005
3	0x3cc2b434	0.023767568
4	0x3c8939eb	0.01675125
5	0x3d280e7b	0.041029435
6	0x3d8c23fe	0.068428025
7	0x3bbe47e6	0.005806911
8	0xbcec8347	-0.028871192
9	0x3dafc97f	0.08583354
10	0xbdca83e5	-0.09888438
11	0x3babc338	0.0052417777
12	0x3ddab25f	0.10678553
13	0xbd2a9441	-0.041645292
14	0x3c9c13cb	0.019052407
15	0x3d5c598e	0.053796344
16	0x3dbe7f41	0.093016155
17	0xbda6bd73	-0.08141603
18	0xbd54e971	-0.05198044
19	0x3cfde4f1	0.030992957
20	0x3c1fd803	0.009756091
21	0xbd162120	-0.036652684
22	0x3d54bba1	0.05193675
23	0xbd0494a5	-0.03236832
24	0x3cdad351	0.026712092
25	0xbdb0a322	-0.08624865
26	0xbe561078	-0.2090472
27	0xbcafadee	-0.02144524
28	0x3cfc182b	0.030773243
29	0xbd75ed50	-0.060040772
30	0xbdd16bfe	-0.10225676
31	0x3df62592	0.12018885
32	0xbd8340bf	-0.06408834
33	0x3d556f3f	0.052108046
34	0x3dde5d85	0.10857681
35	0xbb81e1ad	-0.00396367
36	0xbccf4b22	-0.02530438
37	0xb9075492	-0.00012906108
38	0x3c23ca01	0.009996892
39	0x3cea6bc0	0.028615832
40	0x3dbe9257	0.09305256
41	0x3d9dc2db	0.07703181
42	0x3c0ee2d8	0.008721076
43	0xbc474c69	-0.012164214
44	0xbd61a333	-0.05508728
45	0xbd740a37	-0.059580054
46	0x3dbc253c	0.091867894
47	0xba795138	-0.0009510699
48	0xbcc58026	-0.024108957
49	0x3cc5e6fd	0.024157995
50	0xbbeea2ab	-0.007282575
51	0x3d4c3cbf	0.04986262
52	0xbcdb8856	-0.026798408
53	0xbd89fc63	-0.06737592
54	0xbcef3f38	-0.02920495
55	0xbd7cf1f2	-0.061754175
56	0xbcaa7eba	-0.020812381
57	0x3e1072f8	0.14106357
58	0x3d9e0ae4	0.07716921
59	0xbddd8f4f	-0.108183496
60	0xbd2361b4	-0.0398881
61	0x3deb6ea3	0.11495712
62	0x3db5de24	0.088802606
63	0xbd1960b4	-0.03744574
64	0x3b0e76d3	0.0021738305
65	0xbd70f9e2	-0.058832057
66	0x3d26d4e1	0.04073036
67	0xbd32ff0f	-0.043700274
68	0x3d3db022	0.04631055
69	0x3c3e36ef	0.011609777
70	0x3dbbee7f	0.09176349
71	0xbd9bb91f	-0.076036684
72	0xbc76d456	-0.015065273
73	0xbcb735f0	-0.022364587
74	0xbc97c055	-0.018524328
75	0xbd5606a9	-0.052252445
76	0x3dac72de	0.08420347
77	0xbd731d75	-0.059354264
78	0x3df8d15d	0.12149308
79	0x3da60a19	0.08107395
80	0x3d654b50	0.055980027
81	0x3e14d142	0.1453295
82	0x3dc0abe0	0.094077826
83	0x3c9fe817	0.019519849
84	0x3b5ff53e	0.0034173275
85	0x3cc01d78	0.023451552
86	0xbbc45b65	-0.0059923404
87	0xbe130ef3	-0.14361171
88	0xbd947568	-0.07248956
89	0xbd4935bb	-0.049123507
90	0x3abc0b7a	0.0014346682
91	0x3dd507e2	0.10401894
92	0xbd5a427f	-0.053286072
93	0xbcd7b78b	-0.026332637
94	0x3dc37543	0.0954385
95	0x3d9aec78	0.07564634
96	0xbda1c737	-0.07899325
97	0x3d312ced	0.043255735
98	0x3b514493	0.0031931743
99	0xbd66db5c	-0.05636154
100	0x3b997b78	0.004683908
101	0x3d1df42c	0.03856294
102	0xbde21fc9	-0.11041219
103	0xbc1590b8	-0.009128742
104	0xbdcd5dfe	-0.10027693
105	0x3d54de60	0.051969886
106	0x3da7e732	0.08198394
107	0x3d4894aa	0.048969902
108	0xbc88fb33	-0.016721344
109	0xbd86a8f5	-0.06575195
110	0x3ba0001a	0.0048828246
111	0xbe660149	-0.22461428
112	0x3da74edc	0.08169338
113	0xbd0ae8b5	-0.033913333
114	0xbd849803	-0.064743064
115	0x3dfda0a7	0.12384158
116	0xbddbefd2	-0.107391015
117	0xbd084345	-0.03326728
118	0xbc979a11	-0.018506082
119	0x3e0a12db	0.13483755
120	0x3d432a11	0.04764754
121	0xbb4cf924	-0.003127643
122	0xbe1378ed	-0.14401598
123	0x3d8d5987	0.069018416
124	0xbdffac00	-0.12483978
125	0x3dd54af5	0.104146875
126	0x3d085b04	0.033289924
127	0x3d01d38b	0.031695884
128	0x3c05ca86	0.008165961
129	0x3dc3a075	0.09552089
130	0x3dc255d1	0.094890244
131	0x3aa8673a	0.0012848147
132	0xbd24c820	-0.040229917
133	0xbcaf5ffa	-0.02140807
134	0x3d72950a	0.059224166
135	0x3d9e6870	0.077347636
136	0xbdc5dd6a	-0.09661372
137	0x3e0d8225	0.13819177
138	0xbd510968	-0.05103436
139	0x3daf4309	0.08557708
140	0xbdb89e15	-0.09014527
141	0xbcc13fde	-0.023590025
142	0xbc939484	-0.018015154
143	0x3cf0bd8e	0.029387262
144	0xbd2359b6	-0.039880477
145	0x3c5dfbe7	0.013548828
146	0x3db810b3	0.0898756
147	0x3b667a13	0.0035167977
148	0xbc1a23e5	-0.009407972
149	0x3dbfd78b	0.093672834
150	0xbdb2fd65	-0.087397374
151	0xbcb56bb2	-0.02214608
152	0x3d1c5550	0.038167298
153	0x3d94b971	0.07261933
154	0xbd796726	-0.060889386
155	0x3c6f311f	0.014599114
156	0xbb1159f0	-0.002217885
157	0xbd7ed5f5	-0.062215764
158	0xbd9ff1c3	-0.07809784
159	0x3d855e21	0.06512094
160	0x3d68ca6f	0.05683368
161	0x3a2536bb	0.0006302406
162	0x3d99fb63	0.07518651
163	0xbdcf07f7	-0.10108941
164	0xbbc1270a	-0.0058945464
165	0x3d7717b2	0.060325332
166	0x3d8304b7	0.06397384
167	0xbdb5f4d8	-0.08884591
168	0x3c59bf2b	0.013290207
169	0x3df44361	0.11926914
170	0x3b8d5a9f	0.0043137814
171	0x3c4a1822	0.012334855
172	0xbe05ccf9	-0.13066472
173	0x3d9a953b	0.07547995
174	0xbdb241d5	-0.08703963
175	0x3dccfe29	0.10009415
176	0xbd5ccd73	-0.05390687
177	0xbcd07faf	-0.02545151
178	0xbd135a9f	-0.035975095
179	0x3d14e420	0.03635037
180	0xbcf9755a	-0.030451465
181	0xbdd4ee32	-0.10396995
182	0xbdf77b40	-0.12084055
183	0x3d13c3c0	0.036075354
184	0xbbd46b5e	-0.0064825257
185	0x3d870228	0.06592208
186	0x3b2fcc69	0.0026824719
187	0x3d1bd437	0.03804418
188	0x3ceb1a60	0.0286991
189	0xbdd3bac7	-0.10338359
190	0x3d701668	0.05861512
191	0x3cd3ecec	0.02586981
192	0x3df3f86a	0.119126156
193	0xbdf68293	-0.12036624
194	0x3c908c21	0.017644944
195	0xbd4cca64	-0.049997702
196	0x3d81b63d	0.06333587
197	0x3d98f9a2	0.07469489
198	0xbcf53831	-0.02993402
199	0xbde2567d	-0.110516526
200	0xbdc0df20	-0.09417558
201	0xbde63b9e	-0.1124184
202	0x3d114e1a	0.035474874
203	0x3d284597	0.04108199
204	0x3d9d5937	0.07683032
205	0xbd5e2b1e	-0.05424034
206	0x3cac61ec	0.021042787
207	0x3d174f97	0.036941137
208	0x3c5fe33b	0.013665016
209	0x3d7c8be6	0.061656855
210	0xbc400154	-0.011719067
211	0xbd9429d4	-0.072345406
212	0xbb4ab8f7	-0.0030933002
213	0x3d882094	0.06646839
214	0x3d9d7924	0.07689121
215	0xbcfbb6b1	-0.030726762
216	0x3d8152c7	0.06314617
217	0x3d3c1a8c	0.045923755
218	0xbd86dd90	-0.065852284
219	0x3d4d9cef	0.05019849
220	0x3d0ad062	0.033890136
221	0x3d59859d	0.05310594
222	0xbd8cb61b	-0.06870671
223	0xbd08e1c6	-0.03341844
224	0x3dcf11ce	0.10110818
225	0xbda2a61c	-0.07941839
226	0xbdd6e26d	-0.10492406
227	0xbd131bcb	-0.035915177
228	0xbd6ba313	-0.057528567
229	0x3cd41996	0.025891107
230	0xbc7d3e66	-0.0154567715
231	0x3dab94ec	0.08378014
232	0x3c4b34ca	0.012402723
233	0xbdb9a568	-0.09064752
234	0x3b3d9f8b	0.0028934206
235	0xbd186fab	-0.03721587
236	0x3d281478	0.041035146
237	0xbc5ac2e4	-0.01335213
238	0xbe084be9	-0.13310207
239	0xbd4bea22	-0.049783833
240	0x3d52bc70	0.05144924
241	0xbd154366	-0.03644123
242	0x3c1c1c5b	0.009528245
243	0x3d51f78d	0.051261473
244	0xbddddc88	-0.108330786
245	0x3d6e9526	0.058247708
246	0xbdb02cc2	-0.08602287
247	0x3c490f95	0.012271781
248	0x3c8bdff7	0.017074568
249	0x3d031bff	0.03200912
250	0xbdad5a0f	-0.08464443
251	0xbd3d3c08	-0.04619983
252	0xbc68bc37	-0.01420503
253	0xbccc1c3a	-0.024915803
254	0x3d36d080	0.044632435
255	0x3d994996	0.074847385

layers.1.bias f4 [128]
0	0xbdae9632	-0.08524741
1	0xbdc23fab	-0.094848
2	0xbd99e7b4	-0.07514897
3	0xbd2df567	-0.042470362
4	0x3ccacb54	0.024755158
5	0xbd6fa167	-0.058503535
6	0x3e16ac97	0.14714275
7	0x3e0b1c16	0.13584933
8	0xbda958f3	-0.08268919
9	0xbdbeb427	-0.09311705
10	0x3db56425	0.08856992
11	0xbd092815	-0.03348549
12	0xbb534584	-0.003223748
13	0xbc36bcba	-0.011153394
14	0x3e0f0692	0.1396735
15	0xbb5474d5	-0.003241827
16	0xbce20b8b	-0.027593395
17	0x3ce8636f	0.028367726
18	0x3cd055e9	0.02543159
19	0x3caa15c5	0.020762334
20	0x3dc151da	0.0943944
21	0x3e134611	0.14382197
22	0xbc6e1b17	-0.014532826
23	0x3e10606e	0.14099285
24	0x3e33c14f	0.1755421
25	0x3d54319d	0.051805127
26	0xbdee36a3	-0.11631515
27	0xbdfe0c14	-0.124046475
28	0xb9c30a9e	-0.0003720121
29	0x3e087f6f	0.13329862
30	0xbc2803e4	-0.010254834
31	0xbdbd8183	-0.09253218
32	0xbe250ce5	-0.161182
33	0x3d9cb6c0	0.07652044
34	0x3c3ea1de	0.011635272
35	0x3c8e1c2e	0.017347421
36	0x3d9cf504	0.076639205
37	0xbe2268ad	-0.15860243
38	0x3dd00cc1	0.101586826
39	0x3e0d5041	0.13800146
40	0xbd08449f	-0.033268567
41	0x3dcb8146	0.09936766
42	0x3e022e90	0.12713075
43	0x3cbe14e7	0.023203326
44	0xbdfd3e51	-0.123654015
45	0x3ca95d89	0.020674484
46	0x3c9a2d05	0.018820295
47	0xbdf19584	-0.11796096
48	0xbdc49ded	-0.096004345
49	0x3d035c44	0.032070413
50	0xbdbb55c1	-0.09147216
51	0xbd617fb8	-0.055053443
52	0xbd3a0c6d	-0.045422006
53	0xbe0475f3	-0.12935619
54	0x3d5dc0fa	0.054139115
55	0xbdc49191	-0.09598077
56	0x3dfe8d59	0.12429304
57	0xbe112c6a	-0.14177099
58	0x3c0a4310	0.0084388405
59	0xbe052505	-0.13002403
60	0xbe45a076	-0.19299492
61	0x3da096b5	0.07841245
62	0xbdf4bb31	-0.119497664
63	0xbcf3a095	-0.029739657
64	0xbe13f050	-0.1444714
65	0xbd76eee4	-0.060286418
66	0x3d77140f	0.060321864
67	0x3cb54fc6	0.022132766
68	0xbc1f2965	-0.009714459
69	0xbe09e50f	-0.13466285
70	0xbe2c73fa	-0.16841117
71	0x3d3af592	0.04564435
72	0x3dc564e6	0.096383855
73	0x3da35586	0.07975297
74	0xbd309abd	-0.04311632
75	0xbcc36b45	-0.023854861
76	0xbe3b0243	-0.18262582
77	0x3e2eb51f	0.1706128
78	0x3cefc146	0.029266965
79	0xbddd7140	-0.10812616
80	0x3dc8d4d8	0.09806222
81	0x3cdba791	0.0268133
82	0x3e5d276a	0.21597067
83	0x3deb7a62	0.11497952
84	0x3d23be42	0.039976366
85	0xbcef7958	-0.029232666
86	0x39b30ec2	0.00034152536
87	0x3d68f353	0.056872677
88	0xbce0987d	-0.027416462
89	0x3dd9a2ec	0.10626778
90	0xbd4d0fc9	-0.050063882
91	0x3dfea47d	0.124337174
92	0x3e2875cb	0.16451184
93	0x3d5dde94	0.054167345
94	0xbdde32d5	-0.10849539
95	0x3d2bfb3c	0.041987643
96	0x3ca16060	0.019699275
97	0x3d2a3254	0.041551903
98	0xbe01f6b8	-0.12691772
99	0x3d06ea1b	0.032938104
100	0xbda61abf	-0.0811057
101	0xbbe83fe0	-0.0070876926
102	0xbd051221	-0.032487992
103	0xbe1ac9d5	-0.15116055
104	0x3d49d7d5	0.0492781
105	0xbddad0ff	-0.10684394
106	0xbe1e79f1	-0.15476204
107	0xbddfa760	-0.10920596
108	0x3e0dfcdf	0.13865994
109	0x3c836b94	0.016042508
110	0x3cdbdb44	0.026837952
111	0x3dd58c0f	0.10427105
112	0xbd0f3c80	-0.034969807
113	0x3d863250	0.06552565
114	0x3dc0df7e	0.09417628
115	0xbde5425d	-0.111942984
116	0xbd15161f	-0.03639805
117	0xbde1dd60	-0.11028552
118	0xbe289c46	-0.16465864
119	0xbcc6784b	-0.024227282
120	0xbdd6a3fe	-0.10480498
121	0xbcec61eb	-0.028855285
122	0x3d7a191b	0.0610591
123	0x3d95ee48	0.07320839
124	0xbdace7bc	-0.08442637
125	0xbe1c6e22	-0.15276387
126	0x3cbd4e7c	0.023108713
127	0x3d18cb61	0.037303332

layers.2.weight f4 [64, 128]
0	0x3cff5077	0.031166298
1	0xbe2d91e7	-0.16950189
2	0xbde5c8f6	-0.11219971
3	0x3e061db7	0.13097273
4	0xbe2e6858	-0.17031991
5	0xbd21cb59	-0.039500568
6	0x3e314d77	0.17314707
7	0x3d9d30c1	0.07675315
8	0x3e3e10c2	0.1856108
9	0x3cded59a	0.027201463
10	0x3d45d432	0.04829807
11	0x3dcc5022	0.099762216
12	0xbd6d646d	-0.0579571
13	0xbd8845a0	-0.06653905
14	0x3db75339	0.0895142
15	0x3cfc6ee0	0.030814588
16	0x3cb460d4	0.022018827
17	0x3d8e63ec	0.06952652
18	0x3d1a7b2f	0.037715133
19	0x3d49f9ad	0.049310375
20	0x3cd61053	0.02613083
21	0x3e584ad1	0.2112229
22	0x3c1f2caf	0.009715243
23	0x3e1f0a7d	0.15531345
24	0x3d42dd3a	0.04757426
25	0x3d02d31c	0.03193961
26	0xbc95bfef	-0.018279998
27	0x3cffd7f4	0.031230904
28	0xbd6e6933	-0.058205795
29	0xbd981437	-0.07425731
30	0x3b17eb86	0.0023181154
31	0x3ae33f09	0.0017337512
32	0xbe047f89	-0.12939276
33	0x3d91e1c1	0.07123137
34	0x3d179547	0.037007596
35	0xbd2647a1	-0.040595654
36	0xbd9be9ef	-0.07612979
37	0xbd13ca66	-0.036081694
38	0x3dbd3cf7	0.09240144
39	0x3e33a8b8	0.1754483
40	0xbe05f8be	-0.13083169
41	0x3de3b8b4	0.11119214
42	0xbc3f7d49	-0.011687585
43	0x3d4f27d4	0.050575092
44	0xbdc7f4d2	-0.09763493
45	0x3e01b1a4	0.12665421
46	0x3d81eac6	0.063436076
47	0x3c24b2a6	0.010052359
48	0xbe008705	-0.12551506
49	0xbd9bd607	-0.07609182
50	0x3ddc25d0	0.107494
51	0x3d90e9a7	0.07075816
52	0xbda5cb75	-0.08095447
53	0x3d812321	0.063055284
54	0x3de18dc3	0.11013367
55	0x3b46db6e	0.0030343193
56	0x3c369f88	0.011146434
57	0x3d920dff	0.07131576
58	0xbd151f36	-0.03640672
59	0xbd73c2b3	-0.05951185
60	0xbd5d8bdc	-0.05408846
61	0xbd834a9c	-0.06410715
62	0xbde48380	-0.11157894
63	0x3dfdafd7	0.123870544
64	0x3d3e356b	0.046437662
65	0xbe07a765	-0.1324745
66	0x3dac0d61	0.08400989
67	0x3dca459d	0.09876559
68	0xbd1475a2	-0.036244996
69	0xbd9671eb	-0.07345947
70	0xbd931690	-0.07182038
71	0x3e4461ca	0.19177929
72	0x3e23b698	0.15987623
73	0xbd505b68	-0.05086842
74	0x3dd7cf82	0.10537626
75	0xbda88aec	-0.08229622
76	0xbd160df3	-0.036634397
77	0x3d1f84cc	0.038945004
78	0x3d813f9d	0.063109614
79	0xbdfa9af6	-0.12236588
80	0x3d3d3c9e	0.046200387
81	0xbca00bd6	-0.019536894
82	0x3d7410ec	0.05958645
83	0x3c1305c8	0.008973546
84	0xbc9c121d	-0.019051606
85	0xbddf0362	-0.10889317
86	0xbdd75ad7	-0.10515373
87	0xbb46ff7e	-0.0030364688
88	0x3da0bec4	0.07848886
89	0x3c95b06b	0.0182726
90	0x3e24f574	0.16109258
91	0x3d5bdfde	0.053680293
92	0x3d940c4d	0.07228909
93	0x3df16381	0.11786557
94	0xbdd9d8c6	-0.106370494
95	0x3e31db50	0.17368817
96	0xbd80831b	-0.062750064
97	0x3d4f684a	0.050636567
98	0x3cb31b61	0.021863641
99	0x3df8c066	0.12146072
100	0xbdeff34c	-0.11716327
101	0x3dae7f6a	0.08520396
102	0xbc9a1be0	-0.01881212
103	0xbcbdac96	-0.023153584
104	0xbc6d6446	-0.014489239
105	0x3d062901	0.032753948
106	0xbe07c979	-0.1326045
107	0xbd41d012	-0.047317572
108	0x3e0de78f	0.13857864
109	0x3d9583e9	0.073005505
110	0x3b7c3e48	0.003848927
111	0x3c34fa74	0.011046041
112	0x3d5aa3ba	0.053378798
113	0x3a584854	0.0008250524
114	0xbcc52618	-0.024066016
115	0xbd55bb8f	-0.052180823
116	0x3d5e0138	0.05420038
117	0xbc4e8738	-0.012605481
118	0xbe108264	-0.1411224
119	0xbd4e3c01	-0.050350193
120	0x3d8c20ba	0.068421796
121	0x3debb54d	0.1150919
122	0x3c9385aa	0.018008072
123	0xbb9deffa	-0.004819867
124	0x3d6d63ea	0.057956614
125	0xbdd78daf	-0.10525071
126	0x3d31e3c3	0.0434301
127	0xbd85afc9	-0.06527669
128	0xbdee1108	-0.11624342
129	0xbcb9505b	-0.022621324
130	0xbd35960b	-0.044332545
131	0x3e581970	0.21103454
132	0xbd97cffb	-0.07412716
133	0x3c3e0a70	0.011599168
134	0xbd778f7b	-0.060439568
135	0x3cd1906f	0.025581567
136	0xbd45d0c2	-0.04829479
137	0xbda0efb6	-0.07858221
138	0xbd514dd5	-0.051099617
139	0xbcb856f6	-0.022502404
140	0x3d140b45	0.03614356
141	0xbe4d276f	-0.20034574
142	0xbc314125	-0.010818754
143	0xbd879cb4	-0.066216856
144	0xbdd0174f	-0.10160696
145	0xbd6e69f8	-0.05820653
146	0xbde7d779	-0.11320395
147	0xbd92cb9c	-0.07167742
148	0xbd4c8631	-0.049932662
149	0x3c8023e2	0.01564211
150	0x3a047dd5	0.0005054151
151	0x3d213e26	0.03936591
152	0xbd22707a	-0.039658047
153	0x3d4f8388	0.050662547
154	0xbc81e6a6	-0.015857052
155	0xbcac1260	-0.021004856
156	0xbe70f836	-0.23532185
157	0xbdc5dea4	-0.09661606
158	0x3e088a08	0.13333905
159	0x3d8c44f9	0.06849093
160	0x3c61f1da	0.013790572
161	0x3d5f5db7	0.054532733
162	0xbbfddfd2	-0.0077476287
163	0x3e316763	0.17324595
164	0x3e36daed	0.17856951
165	0xbd0cab2a	-0.034342922
166	0xbcb3bf29	-0.021941738
167	0x3ce01faf	0.027358858
168	0xbe406e8d	-0.18792172
169	0xbd5c58be	-0.05379557
170	0xbdb84b53	-0.08998742
171	0x3e074b52	0.13212326
172	0x3dc85558	0.09781903
173	0x3e0ae2d7	0.13563095
174	0xbcddc1b9	-0.027069913
175	0xbd85f3f6	-0.065406725
176	0xbc3bdbb7	-0.011465958
177	0xbd325791	-0.04354054
178	0x3c96ce66	0.018408965
179	0xbd9ae62f	-0.07563435
180	0x3c958fc4	0.01825703
181	0xbd63f94a	-0.055657662
182	0xbc8d3f15	-0.017241994
183	0xbcfecb6c	-0.031102858
184	0x3dd0b161	0.10190082
185	0x3de148e5	0.11000232
186	0x3dbbdb88	0.09172732
187	0xbe29a9ed	-0.16568728
188	0x39f13007	0.00046002885
189	0x3d3fb235	0.04680081
190	0xbd731af7	-0.059351888
191	0xbd4aa648	-0.049474984
192	0x3c8c9ca0	0.017164528
193	0xbd20627c	-0.039156422
194	0x3da2d88b	0.079514585
195	0x3e36115a	0.17780057
196	0x3acb8c76	0.0015529532
197	0xbd93989e	-0.07206844
198	0xbca7e3ab	-0.020494303
199	0x3dc2d9b2	0.09514178
200	0x3da45b97	0.08025282
201	0x3c94623f	0.018113254
202	0x3de5e87f	0.11225986
203	0x3c083ac2	0.00831479
204	0xbda1b357	-0.078955345
205	0x3bb40cb1	0.005494677
206	0x3e14ee65	0.14544065
207	0xbdd7d9fd	-0.10539625
208	0xbe01e7b3	-0.12686042
209	0x3e02844a	0.12745777
210	0x3dcafabc	0.09911105
211	0x3c47d474	0.012196649
212	0xbd31e351	-0.043429676
213	0x3c8c4b3c	0.017125718
214	0x3e0ecfbd	0.13946433
215	0x3d85986b	0.06523212
216	0x3e3815eb	0.17977111
217	0x3bc1703f	0.0059032734
218	0xbc6adbb2	-0.014334606
219	0xbcc4801b	-0.023986867
220	0xbdc9f4a4	-0.098611146
221	0xbca3965e	-0.019969162
222	0x3c11bbb3	0.008894849
223	0x3cfacd98	0.030615613
224	0xbb680935	-0.0035405878
225	0x3a7c37be	0.00096213433
226	0x3d9904ca	0.074716166
227	0x3e0d4a15	0.13797791
228	0x3cd6e0f9	0.026230322
229	0xbc89ca25	-0.016820023
230	0xbd73047c	-0.05933045
231	0xbd57b17b	-0.052659493
232	0x3dcb446b	0.09925159
233	0xbe3b15aa	-0.18269983
234	0xbdcce18b	-0.100039564
235	0x3dae04db	0.0849702
236	0xbd8ba246	-0.068180606
237	0x3d817ffd	0.0632324
238	0x3de344f0	0.11097133
239	0xbe1644c8	-0.14674675
240	0xbdeffb74	-0.11717883
241	0x3e13530b	0.14387147
242	0x3cea0ef5	0.028571585
243	0x3e3c9bc3	0.18418793
244	0x3d6d75c9	0.057973657
245	0x3d0dfe95	0.034666616
246	0x3d1de206	0.03854563
247	0xbe201c60	-0.15635824
248	0x3cffdd7c	0.031233542
249	0xbda0316e	-0.07821928
250	0x3cf2d757	0.029643698
251	0xbe95d5a2	-0.2926455
252	0x3b9a7e3a	0.0047147544
253	0x3d51e727	0.051245835
254	0xbdda8437	-0.10669749
255	0xbe2ef283	-0.17084698

layers.2.bias f4 [64]
0	0x3dd41895	0.10356251
1	0xbd0b3ec4	-0.033995405
2	0x3c992f33	0.018699264
3	0x3d08c0b5	0.033386905
4	0xbd66b75c	-0.05632721
5	0xbb91ccf8	-0.004449483
6	0xbd185d7a	-0.03719852
7	0x3d1a572f	0.0376808
8	0xbd53cc70	-0.05170864
9	0xbd9c9240	-0.076450825
10	0x3ad38365	0.0016137181
11	0xbd1868e9	-0.037209425
12	0xbd3dca0a	-0.046335258
13	0xbc64d469	-0.013966658
14	0xbc97a2fa	-0.01851033
15	0x3d893afb	0.06700703
16	0xbcb2962a	-0.02180012
17	0x3da8746a	0.08225329
18	0x3c92c33d	0.017915362
19	0xbd418f9c	-0.047256097
20	0x3d8a6973	0.06758394
21	0x3d1efe00	0.038816452
22	0xbd8ab6e7	-0.06773167
23	0xbe10b9da	-0.14133397
24	0x3da61905	0.08110241
25	0xbd8d0f0b	-0.06887635
26	0x3ce33420	0.027734816
27	0xbc439130	-0.011936471
28	0x3de85c12	0.11345686
29	0xbdebdc95	-0.11516682
30	0x3d11928b	0.035540145
31	0xbddf04fd	-0.10889623
32	0x3dee6a79	0.11641402
33	0x3d53edd9	0.0517405
34	0x3d9c5078	0.07632536
35	0x3b6bd27b	0.003598361
36	0x3d5b3484	0.05351688
37	0x3a0cddf0	0.00053736474
38	0x3b9e820b	0.0048372797
39	0x3cd91a2d	0.02650174
40	0xbd22d990	-0.039758265
41	0x3da34ef5	0.07974044
42	0x3c4ba829	0.012430229
43	0x3c911f0e	0.017715003
44	0xbde57168	-0.11203271
45	0xbd5e8324	-0.054324284
46	0xbda0aac4	-0.07845071
47	0xbe2c8c7c	-0.16850466
48	0x3dcdc856	0.10047977
49	0xbd952bf0	-0.07283771
50	0xbc85d4e0	-0.016336858
51	0xbbabf4f8	-0.0052477084
52	0x3c87f666	0.016596984
53	0x3e2f5554	0.17122394
54	0xbd8c9230	-0.068638206
55	0xbdbe455a	-0.092905715
56	0x3d775753	0.060386013
57	0xbe053be8	-0.13011134
58	0xbd8a62b6	-0.06757109
59	0x3d20a99b	0.03922425
60	0xbe08cf4c	-0.13360327
61	0xbe0fca72	-0.1404207
62	0x3c0736e2	0.008252831
63	0xbc9537ca	-0.018215079

readout.weight f4 [1, 64]
0	0xbecebc98	-0.4037826
1	0xbeab228e	-0.334248
2	0xbe8d8da3	-0.27647123
3	0x3e9581f6	0.29200715
4	0x3edaeb55	0.4275767
5	0x3ef85986	0.485058
6	0xbee2761d	-0.44230738
7	0xbee41351	-0.44545987
8	0x3e2f4802	0.17117313
9	0x3f12ea2b	0.5738856
10	0xbec33d6d	-0.38132802
11	0x3eca0716	0.3945853
12	0xbeb218e4	-0.34784615
13	0xbe95b48c	-0.2923931
14	0x3ee0d287	0.4391062
15	0xbee453d9	-0.4459522
16	0xbecad405	-0.39614883
17	0x3e96ea10	0.2947545
18	0x3ef3b970	0.47602415
19	0xbea13eda	-0.31493264
20	0xbed852a2	-0.42250544
21	0x3eb51467	0.35367128
22	0x3ef4aca8	0.47787976
23	0x3ead25f1	0.3381801
24	0xbec6a9f5	-0.38801542
25	0xbf02f976	-0.511619
26	0xbee430ba	-0.44568425
27	0x3f057f2d	0.5214718
28	0xbefdbc03	-0.49557504
29	0x3ef68f3a	0.48156148
30	0x3e98c3a7	0.2983677
31	0x3eb9ae38	0.3626573
32	0xbeffeab3	-0.4998375
33	0x3ef3e9ae	0.4763922
34	0xbe92bd68	-0.2866013
35	0xbe3ae3fb	-0.1825103
36	0x3e8b55de	0.2721395
37	0xbed70eb7	-0.42003414
38	0xbeaf7b04	-0.3427354
39	0x3ed84d0d	0.42246285
40	0xbedd5d57	-0.43235275
41	0xbed4e917	-0.41584083
42	0xbf0574fa	-0.5213162
43	0xbf29d5ff	-0.6634216
44	0x3ebdf246	0.37098902
45	0x3f01d2db	0.50712365
46	0x3ec79400	0.38980103
47	0x3ef6ec35	0.48227087
48	0xbe3d5a22	-0.18491414
49	0x3f298604	0.66220117
50	0x3ef7ace4	0.48374093
51	0xbe9b356a	-0.3031419
52	0xbeba9fef	-0.36450145
53	0xbf053766	-0.52037656
54	0xbe9c6fbf	-0.30554006
55	0x3ec1c85e	0.3784818
56	0xbe319a23	-0.17343955
57	0x3ebd42d1	0.3696504
58	0x3ee99eb4	0.45628893
59	0x3d49ac8d	0.049236823
60	0x3e060f06	0.13091668
61	0x3ef95f22	0.48705393
62	0xbe046a09	-0.12931074
63	0x3eea823f	0.45802495

layers.0.weight f4 [128, 17]
0	0x3e33e442	0.17567542
1	0x3f09e541	0.5386544
2	0xbdcfbfd1	-0.10144008
3	0xbd3c4a7f	-0.045969483
4	0xbe1c945b	-0.15290968
5	0xbe258d57	-0.16167198
6	0xbdd0f390	-0.10202706
7	0xbdbe1cd4	-0.09282842
8	0x3e336bc3	0.17521577
9	0xbe7dad67	-0.24773179
10	0xbd723beb	-0.059139173
11	0xbd6ece08	-0.058301955
12	0x3d4da171	0.05020279
13	0x3c9ad9e6	0.01890273
14	0xbe3ba203	-0.18323521
15	0xbc6ac415	-0.014328976
16	0x3d5b3423	0.05351652
17	0x3ea45eac	0.3210348
18	0xbf1b2e4f	-0.60617536
19	0xbf1c72f5	-0.6111291
20	0x3e999139	0.2999361
21	0xbeb8d93d	-0.3610324
22	0x3f0eed48	0.5583081
23	0xbe0058ea	-0.12533918
24	0x3e4e292c	0.20132893
25	0xbef83f8d	-0.48485985
26	0xbedf5095	-0.43616167
27	0x3e165883	0.14682202
28	0x3d997ec5	0.074948825
29	0x3e37bcdf	0.17943142
30	0xbc5092f5	-0.01273035
31	0x3baaac48	0.005208526
32	0xbc834079	-0.016021954
33	0x3ddd3285	0.108006515
34	0x3e733b51	0.23753096
35	0xbf0af4f1	-0.5428
36	0xbe059ed0	-0.13048863
37	0x3ec10adb	0.37703595
38	0xbdc41995	-0.09575192
39	0x3f8d4f68	1.1039858
40	0x3e5e6e00	0.21721649
41	0x3e8a9e50	0.27073908
42	0xbed261af	-0.41090152
43	0x3dcd2903	0.10017588
44	0x3ebb2114	0.36548674
45	0xbd809d99	-0.06280059
46	0x3c6cc9b7	0.014452389
47	0xbbb5fead	-0.0055540414
48	0x3ec55c22	0.38546854
49	0x3dd64889	0.10463054
50	0x3ce92023	0.028457707
51	0xbe90e582	-0.283001
52	0xbf376606	-0.7164005
53	0x3e3d340c	0.18476886
54	0xbecdaa30	-0.40168905
55	0x3d922272	0.07135476
56	0x3e87d826	0.26532096
57	0x3ecae94d	0.3963112
58	0x3c4c41a3	0.012466821
59	0x3dded4ae	0.10880409
60	0xbe1104c7	-0.14161979
61	0xbe0e7319	-0.13911094
62	0x3dcb4ac9	0.099263735
63	0x3d81e23f	0.06341981
64	0x3c814882	0.015781645
65	0xbdb0226a	-0.08600314
66	0xbe0b3964	-0.13596112
67	0xbd4b0fd1	-0.04957563
68	0x3e86dbb6	0.263395
69	0xbda1165f	-0.07865595
70	0x3f75da4a	0.9603621
71	0xbf156fc6	-0.5837368
72	0xbe20dcd7	-0.15709244
73	0x3d5137bf	0.051078554
74	0x3f526778	0.8218913
75	0x3ea39637	0.31950542
76	0x3eb5816b	0.354503
77	0x3f536773	0.82579726
78	0x3e51a27c	0.20472139
79	0x3cc2ab65	0.023763368
80	0xbcb287d6	-0.021793287
81	0x3b9b18d3	0.004733184
82	0xbc85a02b	-0.016311726
83	0xbc10441f	-0.008805304
84	0xbc3c1fe2	-0.011482211
85	0x3eb05139	0.34436968
86	0xbec1459e	-0.37748426
87	0xbc8275ed	-0.015925372
88	0xbe7e4660	-0.24831533
89	0xbf00327f	-0.5007705
90	0xbf285d49	-0.6576734
91	0xbf1053b2	-0.5637771
92	0xbe5cbb20	-0.21555758
93	0xbf218950	-0.6310015
94	0x3ec64333	0.38723144
95	0xbe26a5be	-0.16274163
96	0x3e312319	0.17298545
97	0x3e7917ce	0.24325487
98	0xbae7f4ab	-0.0017696818
99	0x3e480355	0.19532521
100	0xbe11aecc	-0.14226836
101	0x3d59b868	0.05315438
102	0x3f298a08	0.66226244
103	0xbe0f6e03	-0.1400681
104	0xbf8da1e3	-1.1065029
105	0x3d99d4d9	0.075113006
106	0xbd8d5adf	-0.06902098
107	0xbf12d684	-0.57358575
108	0xbe8e991c	-0.27851188
109	0x3cf38635	0.02972708
110	0xbf0d3e75	-0.55173427
111	0x3e166355	0.1468633
112	0xbe900d3d	-0.281351
113	0x3d9d62cb	0.07684859
114	0xbd0be890	-0.034157336
115	0xbd4becba	-0.049786307
116	0x3cd8bb7d	0.026456589
117	0xbd833b44	-0.064077884
118	0x3d0c386a	0.03423349
119	0xbe843cfd	-0.2582778
120	0x3d15e310	0.036593497
121	0xbf77465b	-0.9659173
122	0xbdae03c2	-0.084968105
123	0xbe68e7a5	-0.22744615
124	0x3f1ba46b	0.60797757
125	0xbe538b06	-0.20658502
126	0x3e4d4463	0.20045619
127	0x3e3f7baf	0.18699525
128	0xbc97ed79	-0.018545853
129	0x3f3e55d7	0.7434973
130	0xbdb2ba34	-0.08726922
131	0x3e151054	0.1455701
132	0x3cec13a8	0.028817967
133	0x3d958300	0.07300377
134	0x3ddf2c6e	0.10897146
135	0xbb3c56a1	-0.0028738158
136	0x3ef325c2	0.47489744
137	0xbf5d9ee5	-0.8657058
138	0x3decfdba	0.11571832
139	0x3d49e9af	0.049295124
140	0x3f2214d1	0.63313013
141	0xbdb73abf	-0.08946752
142	0xbea93580	-0.3304863
143	0xbd81efa9	-0.0634454
144	0xbf5fd420	-0.8743305
145	0x3e752fb3	0.23943977
146	0xbe021a42	-0.12705329
147	0xbd178be9	-0.036998663
148	0x3d686d94	0.056745127
149	0x3d060b82	0.03272582
150	0xbd53a596	-0.051671587
151	0xbd476fa8	-0.048690468
152	0x3d83f6a1	0.06443525
153	0x3ef239ce	0.47309726
154	0xbf416ae7	-0.75553745
155	0xbe95b622	-0.2924052
156	0x3efa2518	0.48856425
157	0x3d328942	0.04358793
158	0x3ecc1bf4	0.39865077
159	0xbe8c4957	-0.27399704
160	0x3e308d47	0.17241393
161	0x3e92c39e	0.2866487
162	0xbf1955b2	-0.59896386
163	0xbef2a23b	-0.47389397
164	0xbdf81f09	-0.121152945
165	0xbd893fe6	-0.06701641
166	0x3c8e56fa	0.017375458
167	0x3e171b1f	0.1475644
168	0x3d8c9241	0.06863833
169	0xbbdc3812	-0.0067205513
170	0xbdd65540	-0.10465479
171	0x3d560eb1	0.052260105
172	0x3f2720bf	0.6528434
173	0x3ece8f93	0.40343913
174	0xbec9b49e	-0.39395612
175	0x3f2c1135	0.67213756
176	0xbedf2b93	-0.43587932
177	0x3ddd7c4c	0.10814723
178	0x3f176f6c	0.5915439
179	0xbf55dd9d	-0.8354128
180	0xbe2d4c5f	-0.16923665
181	0x3de6c50d	0.11268053
182	0x3e130114	0.1435588
183	0xbbcaf64f	-0.006193913
184	0x3cc145a8	0.023592785
185	0x3d141f25	0.036162514
186	0x3d49623c	0.04916595
187	0x3e90ece4	0.28305733
188	0xbd4c398e	-0.049859576
189	0x3e6cdfa8	0.23132193
190	0xbf6d2b6a	-0.9264437
191	0x3e51d11f	0.2048993
192	0x3f148657	0.58017486
193	0x3f3c32fc	0.73515296
194	0x3e35b082	0.17743114
195	0xbec084fd	-0.37601462
196	0x3f33e254	0.70267224
197	0xbe94fd88	-0.2909968
198	0x3a62775c	0.0008639002
199	0xbd6a7fff	-0.057250973
200	0x3cf0bb7d	0.029386276
201	0x3c181b7d	0.0092838975
202	0x3c495c88	0.012290128
203	0xbcb3e618	-0.021960303
204	0x3eececc7	0.46274397
205	0xbd602ee7	-0.05473223
206	0xbebbe709	-0.36699703
207	0xbe3cb7fe	-0.18429562
208	0xbe14198d	-0.14462872
209	0xbfa2200a	-1.2666028
210	0xbe91da1d	-0.2848672
211	0xbe86c461	-0.263217
212	0x3f2abd3a	0.66694987
213	0x3f42d6b8	0.76108885
214	0x3efeb0ee	0.49744362
215	0x3d3350b5	0.04377814
216	0xbc45b17e	-0.012066243
217	0x3cae0e45	0.021247039
218	0xbcba6c34	-0.022756673
219	0x3d7ecf3f	0.062209364
220	0x3c3c0f9d	0.011478332
221	0xbeb01713	-0.34392604
222	0x3e92613b	0.28589806
223	0x3e8db069	0.27673653
224	0x3ebeb31b	0.37246022
225	0x3db99a9d	0.09062693
226	0x3f726ecb	0.94700307
227	0x3f80a8fc	1.005157
228	0x3f18bb1d	0.5966051
229	0xbed30114	-0.4121176
230	0x3e6f3d4d	0.23363228
231	0xbedb5538	-0.42838454
232	0x3d6998d4	0.057030514
233	0x3d988d53	0.074488305
234	0x3b05c9db	0.0020414505
235	0xbd21727b	-0.039415818
236	0xbdedc1be	-0.11609219
237	0x3c1b1d4c	0.009467434
238	0x3f6bbc44	0.92084146
239	0xbf70f60b	-0.9412543
240	0xbf63fe90	-0.89060307
241	0xbf116312	-0.56791794
242	0xbed6dd42	-0.4196568
243	0xbe43886d	-0.19095011
244	0x3dbce713	0.092237614
245	0xbdf31cef	-0.11870753
246	0xbe9217f6	-0.28533906
247	0x3f2442c4	0.64164376
248	0xbd710e97	-0.058851805
249	0xbe23230b	-0.15931337
250	0xbd6300fa	-0.055420853
251	0xbcd96f48	-0.02654232
252	0xbe81710d	-0.25281563
253	0x3d5596ff	0.052145954
254	0xbd898dd3	-0.06716504
255	0xbe974a7f	-0.29549024

layers.0.bias f4 [128]
0	0x3e85f5e0	0.2616415
1	0x3f4c83ff	0.7988891
2	0xbc2efab3	-0.010679889
3	0x3f404b38	0.75114775
4	0x3f470af3	0.7775108
5	0xbebd3c64	-0.36960137
6	0x3f149c7b	0.5805127
7	0x3c81c678	0.015841708
8	0xbe8f3e33	-0.27977142
9	0x3ec14ca9	0.377538
10	0x3ed9cb1d	0.42537776
11	0x3f3df04f	0.74194807
12	0x3f4095c7	0.7522854
13	0x3d949274	0.07254496
14	0xbd38d702	-0.045126922
15	0xbe3cb403	-0.18428044
16	0x3e29cead	0.16582747
17	0x3d2aa9de	0.041665904
18	0x3f3602e6	0.7109817
19	0x3f0e1b44	0.55510354
20	0x3f042e17	0.5163283
21	0x3f910c6e	1.1331918
22	0xbc994f12	-0.018714461
23	0x3eb46519	0.3523338
24	0xbe2db944	-0.16965204
25	0x3e92f5ad	0.2870306
26	0x3e37b6ac	0.17940778
27	0x3f37b9ee	0.7176808
28	0xbe4f3d0e	-0.20238134
29	0x3ed83bba	0.42233068
30	0xbe130d64	-0.14360577
31	0xbdeb0e37	-0.11477321
32	0xbd428203	-0.04748727
33	0x3eb82323	0.35964307
34	0x3d290954	0.04126866
35	0xbe92751e	-0.28604978
36	0xbf2ce245	-0.6753276
37	0x3f155c19	0.58343655
38	0x3dd65938	0.10466236
39	0xbe8ca816	-0.2747199
40	0xbe35b0de	-0.1774325
41	0x3ebc8a93	0.36824474
42	0xbe94bcf3	-0.29050407
43	0x3d0845c8	0.033269674
44	0x3e63ce44	0.22246653
45	0x3ded087e	0.115738854
46	0x3f266cf0	0.65009975
47	0x3f642627	0.89120716
48	0x3ea97c2d	0.3310255
49	0x3e3a25db	0.18178503
50	0xbd972da7	-0.07381754
51	0xbe9dcf0a	-0.3082202
52	0x3ea854da	0.32877237
53	0xbf0026cf	-0.5005922
54	0xbdcfb0d3	-0.101411484
55	0xbe688f5f	-0.22710942
56	0x3e57c1b6	0.21069989
57	0xbebe713c	-0.37195766
58	0x3e62ee29	0.22161163
59	0xbe4846b5	-0.19558223
60	0x3eb73b65	0.35787502
61	0x3ea9c683	0.33159265
62	0xbe9e9c3f	-0.3097858
63	0x3f54864b	0.83017415
64	0xbeac04b7	-0.33597347
65	0x3e39e338	0.18153083
66	0xbee21f23	-0.4416438
67	0xbe9c1769	-0.3048661
68	0xbdcaef0e	-0.09908877
69	0xbda83bfc	-0.08214566
70	0x3f32cd77	0.69844764
71	0x3f1c0f9d	0.60961324
72	0xbedf3af8	-0.43599677
73	0xbe18c9b8	-0.149207
74	0xbedfbe6b	-0.43699965
75	0x3ed3cfb2	0.41369396
76	0x3d3da752	0.046302147
77	0x3df7a963	0.12092855
78	0x3eb11fe9	0.34594658
79	0xbe33fd7f	-0.1757717
80	0xbea9687b	-0.33087525
81	0xbf0bc0a7	-0.5459084
82	0xbebb3452	-0.36563355
83	0xbd7ae58d	-0.061254073
84	0x3eea72fe	0.45790857
85	0x3d0e0632	0.034673877
86	0x3e88ef76	0.26745194
87	0xbe187d48	-0.14891541
88	0xbea5cc45	-0.32382408
89	0x3ea3f0f6	0.32019776
90	0xbe82c19f	-0.25538346
91	0x3e7c3e98	0.24633253
92	0x3e4acf68	0.19805682
93	0x3f576f9f	0.84154695
94	0x3f2a4c7c	0.66522956
95	0xbeb0f18d	-0.3455929
96	0xbdd2a719	-0.102857776
97	0xbf24290c	-0.6412513
98	0xbe062268	-0.13099062
99	0x3f51653d	0.817951
100	0x3e349320	0.17634249
101	0xbe0511b4	-0.12995034
102	0x3f07c603	0.53036517
103	0x3e82d622	0.25553995
104	0x3eb4fbe2	0.3534842
105	0x3db55431	0.08853949
106	0xbe953c64	-0.29147637
107	0xbdd696af	-0.10477959
108	0xbe87a6e5	-0.26494518
109	0x3f3eda01	0.745514
110	0x3efe9784	0.49724972
111	0x3efd3a13	0.4945837
112	0x3e86c0c8	0.26318955
113	0x3e180274	0.14844686
114	0xbe9765af	-0.29569766
115	0xbbbea050	-0.0058174506
116	0x3d6affc0	0.05737281
117	0x3f040a4b	0.51578206
118	0x3e30d06e	0.1726701
119	0x3ec6a8c5	0.38800636
120	0x3f029a44	0.5101664
121	0x3e2265fc	0.15859216
122	0xbe980056	-0.29687756
123	0x3c12add0	0.008952573
124	0x3ebbb318	0.36660075
125	0xbef51270	-0.4786563
126	0x3ccfe028	0.02537544
127	0x3f2b8f3a	0.6701542

layers.1.weight f4 [128, 128]
0	0x3d9eacbb	0.077477895
1	0xbdd3d4fe	-0.103433594
2	0x3e3e26fc	0.18569559
3	0xbd93bc2c	-0.07213625
4	0x3c055cac	0.0081397705
5	0x3db092dc	0.08621761
6	0x3d8311ef	0.06399905
7	0xbdbfba0c	-0.093616575
8	0x3db2e092	0.0873424
9	0x3db9d64a	0.090740755
10	0xbcec4111	-0.02883962
11	0x3d325872	0.04354138
12	0xbe8fbe45	-0.28074852
13	0xbcb0480a	-0.021518726
14	0xbcd8c778	-0.026462302
15	0x3ce36f5b	0.02776306
16	0x3ce13f37	0.027495963
17	0x3d540a66	0.05176773
18	0xbceb345b	-0.028711488
19	0xbd5ca578	-0.05386874
20	0xbda47acd	-0.08031235
21	0xbe155ee4	-0.14586979
22	0xbcd7845f	-0.026308237
23	0xbe0ca8eb	-0.13736312
24	0x3cfe8190	0.03106764
25	0xbe4fd0e9	-0.20294537
26	0x3e0c0f28	0.13677657
27	0xbea0a4c3	-0.31375703
28	0x3e61bc9c	0.22044605
29	0xbc0e5d1b	-0.00868919
30	0xbde6ac88	-0.112633765
31	0x3bdc279a	0.006718588
32	0xbdf7ce24	-0.12099865
33	0xbde1fde3	-0.11034753
34	0x3dabde8a	0.08392055
35	0x3dfa61a4	0.12225655
36	0x3daacecc	0.083402246
37	0x3d2eeebb	0.04270814
38	0x3d7ef8d2	0.062249012
39	0x3be93582	0.0071169743
40	0x3ddf2fae	0.10897766
41	0x3d5d5843	0.05403925
42	0xbde34113	-0.11096396
43	0x3d947764	0.072493345
44	0x3cafb561	0.021448793
45	0xbce81a7b	-0.02833294
46	0xbd8d0af5	-0.068868555
47	0xbcfb5a01	-0.030682566
48	0xbbe4ac1d	-0.0069785253
49	0xbd313aa5	-0.04326882
50	0xbde6e49b	-0.11274072
51	0xbd9a6b8a	-0.07540043
52	0xbd08ca09	-0.0333958
53	0xbd8609fe	-0.065448746
54	0x3d9a9918	0.075487316
55	0xbd806957	-0.06270092
56	0x3d82540c	0.06363687
57	0xbe0af41e	-0.13569686
58	0x3c7f5ae1	0.015585632
59	0x3d9e9f1d	0.07745192
60	0xbde11eba	-0.10992189
61	0x3cf50c75	0.029913167
62	0xbc891bac	-0.016736828
63	0xbc3a6aaa	-0.01137797
64	0x3e3712a3	0.17878203
65	0x3df571ab	0.11984571
66	0xbb97b969	-0.004630257
67	0x3dd1a1e0	0.10235953
68	0xbd9b513d	-0.07583854
69	0xbdea9476	-0.11454098
70	0xbd22fde5	-0.039792914
71	0xbdc110a1	-0.09427
72	0x3e0d5d34	0.13805085
73	0x3e83fa2b	0.257768
74	0x3c03d736	0.008046916
75	0x3d9afc80	0.07567692
76	0xbd316107	-0.043305423
77	0xbcbea2b0	-0.023270935
78	0xbd9b3f2d	-0.07580409
79	0xbcbdce0b	-0.023169538
80	0x3ccfc594	0.025362767
81	0x3dedbc59	0.1160819
82	0x3b5e9c19	0.0033967553
83	0xbce210f6	-0.027595978
84	0x3b75ccd9	0.0037506132
85	0x3da6a0c5	0.08136133
86	0x3df10ece	0.11770402
87	0x3c4c6c8e	0.012477053
88	0x3cb9ee90	0.022696763
89	0x3ccc0d45	0.024908671
90	0x3ca8b83a	0.020595659
91	0xbd86bb57	-0.06578701
92	0x3bf2d57a	0.0074107023
93	0xbddeb3fc	-0.10874173
94	0xbd67078d	-0.056403685
95	0xbb8912f4	-0.0041831676
96	0xbb9cd432	-0.004786038
97	0x3d327e09	0.043577228
98	0xbe22270f	-0.15835212
99	0x3dc41248	0.09573799
100	0x3d976490	0.07392228
101	0x3dbd88f7	0.092546396
102	0x3da929f7	0.08259957
103	0x3cb3a307	0.021928323
104	0xbd80fdd9	-0.062984176
105	0x3e1f3c6f	0.15550397
106	0x3e0e6923	0.13907294
107	0xbe11f657	-0.14254127
108	0x3e43496f	0.19070981
109	0xbdb513f2	-0.08841695
110	0xbdcbc676	-0.09949963
111	0x3d8ff9a4	0.07030037
112	0xbb3f30b1	-0.002917331
113	0xbe33ed24	-0.1757093
114	0xbc00899d	-0.00784531
115	0x3cfa295c	0.0305373
116	0xbe0e6033	-0.13903885
117	0xbd62b173	-0.05534501
118	0x3bebd21f	0.0071966792
119	0x3dd3d04b	0.10342463
120	0x3d9d3a6d	0.076771595
121	0x3d178a35	0.03699704
122	0x3d10e9f7	0.035379376
123	0x3d81092e	0.06300579
124	0xbc83ee7a	-0.016104925
125	0x3d47ac87	0.04874852
126	0xbd27f865	-0.04100837
127	0xbe6da71f	-0.23208283
128	0x3d85d7aa	0.06535275
129	0x3de1357c	0.109965295
130	0x3dd4b8f7	0.10386842
131	0x3df2edfb	0.118617974
132	0xbbbfe92f	-0.005856655
133	0x3cdb0264	0.026734538
134	0xbdae42bb	-0.085088216
135	0xbdd9c181	-0.10632611
136	0xbc0a352b	-0.008435528
137	0x3d4cc44d	0.049991895
138	0xbcf9d2e2	-0.030496065
139	0xbe546473	-0.20741443
140	0x3c3b2e2f	0.011424585
141	0x3db04a22	0.0860789
142	0xbcd5461a	-0.026034404
143	0x3d692093	0.05691583
144	0xbdbeb44a	-0.09311731
145	0xbd3d534e	-0.046222024
146	0xbd380832	-0.04492969
147	0x3d97f2cb	0.07419356
148	0xbdb55025	-0.08853177
149	0xbda8f736	-0.08250277
150	0x3d3bd92e	0.045861416
151	0xbdbf76c1	-0.093488224
152	0xbae4ddd7	-0.0017461133
153	0x3dca3304	0.09873012
154	0x3db660f2	0.089052096
155	0x3df95b0f	0.12175571
156	0xbda6b9f0	-0.081409335
157	0x3dde44da	0.10852976
158	0x3d775de2	0.060392268
159	0xbd0f8a4c	-0.035044
160	0xbd66ea86	-0.056376003
161	0xbe087cd6	-0.13328871
162	0x3ca69729	0.02033575
163	0x3d66f0fa	0.056382157
164	0x3c4901d5	0.012268503
165	0xbb917975	-0.0044395276
166	0x3de40aa9	0.11134846
167	0xbd14925b	-0.036272388
168	0x3da1d361	0.079016455
169	0x3d7eb691	0.062185828
170	0xbd76d134	-0.060258105
171	0xbd9ccd78	-0.076563776
172	0x3ce994cf	0.02851334
173	0xbc9b9454	-0.018991627
174	0xbc1992f9	-0.00937342
175	0xbdbd3d89	-0.092402525
176	0x3c978fef	0.01850125
177	0x3d8f16a8	0.06986743
178	0xbbb50567	-0.0055243257
179	0x3d19e420	0.037571073
180	0xbc31b0dc	-0.010845389
181	0xbc43676b	-0.011926512
182	0x3cf2d495	0.029642383
183	0x3df8826d	0.12134252
184	0xbde47fcc	-0.11157188
185	0xbbb1a6ba	-0.0054214867
186	0xbc8c26ca	-0.01710834
187	0x3da7e88b	0.08198651
188	0xbd82af2e	-0.06381069
189	0x3d989981	0.074511535
190	0xbd8df22a	-0.06930955
191	0xbd0bc172	-0.03412003
192	0x3db7655a	0.08954878
193	0x3c54f2e0	0.012997359
194	0x3d162298	0.036654085
195	0xbe73c395	-0.23805077
196	0x3d6666f4	0.056250528
197	0x3cca8663	0.024722284
198	0xbd2fd4cd	-0.042927552
199	0xbd9ab5ee	-0.075542316
200	0x3e0eef59	0.13958491
201	0x3d510132	0.05102653
202	0x3d2b57e3	0.041831862
203	0xbd8277e2	-0.06370522
204	0xbc4c57b6	-0.012472084
205	0x3dbae722	0.09126116
206	0xbd28d649	-0.041219983
207	0x3e513e0b	0.20433824
208	0xbdad8822	-0.08473231
209	0xbd1e500f	-0.03865057
210	0x3dda9ed8	0.10674828
211	0x3d67ca26	0.05658927
212	0x3dcfd996	0.10148923
213	0x3d7424b4	0.059605315
214	0xbad6616f	-0.0016355942
215	0x3bd22966	0.0064136265
216	0x3d144390	0.036197245
217	0xbdbe9c1d	-0.0930712
218	0x3dcebf92	0.10095133
219	0x3cad6de7	0.02117057
220	0xbc89899e	-0.016789254
221	0x3ce763e8	0.028245881
222	0x3d25b78e	0.040458255
223	0xbbea01f0	-0.0071413442
224	0xbd84d806	-0.06486516
225	0x3d5f071f	0.05445015
226	0xbdca5507	-0.09879499
227	0xbdb24624	-0.087047845
228	0xbc9365d6	-0.017992895
229	0xbd3e2316	-0.04642018
230	0xbd970217	-0.073734455
231	0xbd27d6fd	-0.040976513
232	0x3bc6b0a5	0.006063538
233	0x3e76126d	0.24030466
234	0x3cd4a683	0.025958305
235	0xbd0259a2	-0.03182376
236	0x3e416413	0.18885832
237	0xbe0270d1	-0.12738349
238	0xbdde6953	-0.10859933
239	0xbb9a05e2	-0.0047004083
240	0x3e3f56bd	0.18685432
241	0x3d7db3b0	0.06193894
242	0x3d94ed3b	0.072718106
243	0xbdd8fb42	-0.105947986
244	0x3de34dfe	0.1109886
245	0x3d04d17e	0.03242635
246	0x3d6db325	0.058032174
247	0x3dc11a76	0.09428875
248	0xb9e368ce	-0.000433749
249	0x3e6621c9	0.22473826
250	0x3df57651	0.11985458
251	0x3dfa9cb2	0.122369185
252	0xbba590c7	-0.005052659
253	0x3d19a41f	0.037510034
254	0x3e0a03bf	0.13477992
255	0xbe08d8e2	-0.13363984
