Gym-DDPG-solution/results/DDPG_HalfCheetah-v4_4000-eps0.1-t32-l0.0001-s1.pth (torch, 193979 bytes, 13 tensors)

layers.0.weight f4 [128, 23]
000000 7b 75 44 3e a7 c7 8d bc 0b 6c 8e bc 80 df 26 3e
       0.1918544 -0.017307116 -0.017385503 0.16296196
000010 7a 48 ed bd cf f3 07 3f 92 60 0a 3e 01 54 8e 3d
       -0.115860894 0.531064 0.13513401 0.06949616
000020 cf 2c 9d be e2 4f 2a 3e ed 88 94 3d 48 26 79 3b
       -0.3069825 0.16632035 0.07252679 0.0038017202
000030 c7 33 48 3c c8 39 b0 bb 86 63 1d 3c 14 40 ef bc
       0.012219376 -0.005377982 0.009606248 -0.02920536
000040 cb 99 78 bc 60 1e f8 3c bd c7 75 3e b1 a9 58 3e
       -0.015173386 0.030287921 0.24001975 0.21158482
000050 ea b2 6e bd 5b 19 40 be 28 64 62 bd 49 ca 07 3e
       -0.058276094 -0.18759672 -0.055271298 0.1326076
000060 ce 29 4f bd c5 26 3d 3f 87 4c a5 3e 4d ad cd 3d
       -0.050576977 0.7388728 0.32284948 0.1004282
000070 93 30 29 bc 0b 27 c9 3e aa 25 29 be d4 c5 a8 3e
       -0.010326522 0.392876 -0.16518274 0.3296343
000080 79 30 1e 3e 28 ed c8 be 05 a8 1b bc df 27 93 bd
       0.15448178 -0.39243436 -0.009500508 -0.07185339
000090 0a b2 b3 3c 16 36 70 bd 7d 72 b2 3c 82 42 02 bd
       0.021935482 -0.05864533 0.021783108 -0.031801708
0000a0 36 d0 e2 3e 97 81 81 3d 85 24 3b 3d 5e b7 b4 3d
       0.44299477 0.063235454 0.045689125 0.08824037
0000b0 d4 4e b8 be 2c 0b 3e 3e 56 87 95 3e d4 a7 91 bc
       -0.3599764 0.18558949 0.29204816 -0.017780222
0000c0 8f c0 db be 10 45 02 3e 53 4a be 3b b6 53 85 bf
       -0.42920348 0.12721658 0.0058072 -1.0416172
0000d0 f0 41 2d bf 8c b5 71 bd c0 16 b8 3e 0a e2 eb 3e
       -0.6767874 -0.059011027 0.35954857 0.46070892
0000e0 5a 02 85 be d7 6b 09 3c 9b 1c 9e bc a9 ec 22 3a
       -0.25978357 0.008387527 -0.01930075 0.00062150747
0000f0 b6 d5 c1 bc 0e e5 0b b9 05 a9 42 bc b8 1a 08 3e
       -0.023661476 -0.00013341403 -0.011881118 0.13291442
000100 53 3e 77 3d 88 43 cf bd ab 20 13 3e 32 2d e4 bd
       0.06036217 -0.101203024 0.1436793 -0.11141433
000110 d9 09 85 bd 21 3e f0 be 17 94 80 bd 44 81 c5 bd
       -0.06496019 -0.469224 -0.06278246 -0.09643796
000120 76 64 63 3e f7 29 5d 3e 1e f9 8e 3e 29 5c 78 3e
       0.22206292 0.2159804 0.27924436 0.24253906
000130 a5 e1 60 3e 42 32 88 bd d1 98 1e bf e9 59 52 be
       0.21961077 -0.06650211 -0.6195193 -0.2054211
000140 c6 15 1f be 26 5a bc bd aa bb 44 bc 83 8e 1a 3d
       -0.1553565 -0.09196882 -0.012007633 0.037733566
000150 26 92 0a 3d 81 69 f0 3a de bc 98 be ce fc 5a 3e
       0.033830784 0.001834199 -0.29831594 0.213855
000160 8f f8 4a 3e 86 93 b2 3d 89 2e 59 3e 14 71 d9 bd
       0.1982138 0.08719544 0.21209158 -0.10617271
000170 be d2 d9 3e 27 72 b5 3d c7 8a 9f be 12 1b f9 3c
       0.42543596 0.088596635 -0.31160566 0.030408416
000180 e1 d0 49 3e b2 49 36 3e 2b 8c 7d be d8 f6 25 be
       0.19708587 0.1780155 -0.24760501 -0.16207445
000190 55 5a d1 3e 70 b8 9c bd a8 f8 8b 3e 60 7d 87 3d
       0.4088923 -0.07652366 0.27338147 0.0661571
0001a0 04 ca 8b bd d8 e3 4d bc 9e eb 5e 3d c5 f9 66 3c
       -0.06825641 -0.012566529 0.05442392 0.014097636
0001b0 06 ea e8 3c 6e 3f a2 3d f0 c9 c7 3d fa 1b e2 3d
       0.028431904 0.079222545 0.097553134 0.11040492
0001c0 42 4c 8f 3e b8 cb 34 be 38 fc f0 3b 1e c7 09 3e
       0.27987868 -0.17655838 0.0073542856 0.13454863
0001d0 08 5c d8 3e 0d da 80 3c c4 05 2f bf 41 c1 a5 bd
       0.42257714 0.015728975 -0.6836817 -0.08093501
0001e0 53 36 73 3e df 29 a9 3e 9d 20 d5 3e 3d d2 dc bd
       0.23751192 0.33039758 0.41626444 -0.10782287
0001f0 cd 02 6b 3e 2c c9 85 be 95 57 f5 bc 3c 47 f2 bd
       0.22950287 -0.26130044 -0.029948989 -0.11829993
000200 90 48 e4 bc cf 76 2d bc 20 26 81 3d 64 f1 ad bc
       -0.027866632 -0.010587408 0.063061 -0.021233268
000210 04 41 12 3e 0c 2b 99 3e b2 c4 b3 3d 10 f2 e2 3e
       0.14282614 0.29915655 0.08777751 0.44325304
000220 80 03 81 3e e4 43 a7 bd 9e 0c cb bc c0 1f 60 bc
       0.25197983 -0.08167246 -0.02478629 -0.013679445
000230 20 ec 97 3e 59 13 10 3d 96 d3 bf be 34 a1 99 be
       0.29672337 0.0351747 -0.37466115 -0.300058
000240 cb 95 6d be be 5c 0a be 5f 61 d6 3e 03 7f 15 3f
       -0.23201673 -0.13511941 0.41871163 0.5839693
000250 e8 46 e3 3e 44 d7 9c 3d 9c 07 20 3d 8a 39 85 3d
       0.44390035 0.07658246 0.039069757 0.06505115
000260 b3 de 9c bb f6 ca 27 3c 1b d1 ad 3b 79 b6 e3 bd
       -0.00478729 0.010241261 0.0053044683 -0.11118788
000270 91 41 03 be d6 00 af be d8 1f 8b 3e 70 2e d9 bd
       -0.1281798 -0.34180325 0.27172732 -0.106045604
000280 2b df 8c bd 2d cd c6 3e 78 54 67 3e b3 84 1a 3f
       -0.068785034 0.38828412 0.22590816 0.6035873
000290 17 19 18 be ab 28 36 3e 10 bf 2d bd f9 11 65 bd
       -0.14853321 0.17788951 -0.04241854 -0.055925343
0002a0 fb b2 c9 bd e9 41 92 be 17 e3 7c be ae ec 48 3e
       -0.09848591 -0.2856591 -0.24696003 0.19621536
0002b0 2a c7 d9 bb 22 e9 40 3d 48 5b 80 3c 0b 36 90 3d
       -0.0066460567 0.047097333 0.015668526 0.07041558
0002c0 41 58 59 3b 2a 19 86 3c 9e dd 37 be 5a b1 e5 3e
       0.0033164176 0.016369421 -0.17955634 0.4486187
0002d0 f7 47 d0 3d 44 33 d4 3d ad c5 4c be bd 77 01 bd
       0.10169976 0.10361341 -0.19997282 -0.031608332
0002e0 5a fa b5 be 33 03 a1 3e b6 ba 52 be 69 55 cf bd
       -0.35542566 0.31447753 -0.20579037 -0.101237126
0002f0 7e e4 5c be 85 46 22 bf 6d a8 74 3e 0f d2 0e 3d
       -0.21571538 -0.63388854 0.23892374 0.034868296
000300 40 a8 c2 be f1 16 23 3d de 03 42 3e 4c 1d 6b bd
       -0.3801899 0.0398168 0.18946788 -0.057400987
000310 f5 1f d4 3c ec ea 6d bc 3b a0 9e 3d 28 a5 95 3b
       0.025894145 -0.014521342 0.07745405 0.0045668073
000320 16 0d 79 3c ca 25 d7 be 7d 0b c0 3e 0d 58 a2 bd
       0.015200874 -0.42021018 0.37508765 -0.079269506
000330 d2 44 da bd a7 20 65 be 8f 86 15 bc a0 c9 9e be
       -0.10657658 -0.22375737 -0.00912632 -0.31013203
000340 0a 36 68 3e 6c f4 b1 3e b7 e1 58 bf 3d b2 6a 3d
       0.22676864 0.34756792 -0.84719414 0.057298888
000350 d0 bc 27 be b9 f7 d1 3d af b4 a5 3e 6c 82 0e 3f
       -0.1638062 0.102523275 0.32364413 0.5566776
000360 ac 89 0c 3f 1b a2 00 3d 40 bf 77 bc a8 7b 2a 3d
       0.5489757 0.031404596 -0.015121281 0.041621834
000370 19 3b be 3c a8 27 cf bc ff 4e 92 bd d7 54 24 bc
       0.02322154 -0.025287464 -0.071439736 -0.010029993
000380 fc 81 24 3e 22 4b c9 bc b6 1b 1d 3d 87 61 86 3d
       0.1606521 -0.024571959 0.038356505 0.065615706
000390 46 88 82 3e 7f a3 d0 3c c1 d6 71 3e 75 4e 40 bf
       0.25494593 0.025468586 0.23617078 -0.75119716
0003a0 0c e0 47 3e 1d 48 eb 3d 2e 49 ba bd 57 65 57 3e
       0.19519061 0.11488364 -0.09095989 0.21034752
0003b0 45 16 0e be 02 62 1e be ea ed 79 3e 99 70 8e be
       -0.13875683 -0.15467075 0.24407163 -0.2782028
0003c0 36 1c 49 bd 58 b6 65 bd b5 ed 0f bd 90 45 c5 3b
       -0.04909917 -0.0560821 -0.035138804 0.0060202554
0003d0 eb 94 ab bd 7c 0a 8b 3a 7d 27 92 bc b0 c2 9d bd
       -0.08378013 0.0010607983 -0.017841095 -0.07703149
0003e0 80 6f 63 3c 2d 7c bf 3d 9d 74 fb 3d d0 6b 6a bd
       0.013881564 0.093498565 0.122781016 -0.057231724
0003f0 c0 f4 da 3c 44 e4 21 3f 8c dc d6 bc 46 b4 11 3e
       0.026728034 0.6323893 -0.026228212 0.14228925

layers.0.bias f4 [128]
000000 b5 40 c8 bd f3 ed 28 be 97 da 58 be 35 ae 11 bd
       -0.09777967 -0.1649702 -0.21177135 -0.035566527
000010 59 3f 7a be 1c 7f e0 3d 6e 72 a6 3c 31 78 9e be
       -0.24438228 0.10961744 0.020318236 -0.30951074
000020 2e 6b 31 3e e8 91 cb 3d 28 47 68 be 0c 81 eb be
       0.17326042 0.09939939 -0.22683394 -0.45996892
000030 c0 85 47 be f3 70 76 be 52 6b 24 bd fd b9 a7 3d
       -0.19484615 -0.24066524 -0.04014141 0.08189771
000040 22 76 a8 bc be 43 4b bb 89 8d 66 be 09 bf 84 be
       -0.020564143 -0.003101572 -0.22514929 -0.25926998
000050 bd b4 9a 3e 16 80 ef bc 74 37 c9 bc 00 94 8c be
       0.30216017 -0.02923588 -0.024562575 -0.27456665
000060 be f1 b7 3d 1d 57 92 bd 39 d7 2c 3e 29 b9 3f bd
       0.089816555 -0.07145522 0.16878976 -0.04680744
000070 8a 64 9d 3e a6 78 af bb 0d d2 bb 3e 55 07 2d be
       0.30740768 -0.0053549586 0.36683694 -0.16897328
000080 9b 5e fd 3e 35 5f ab bd 4f 04 06 be cf 6a f0 3d
       0.4948624 -0.08367769 -0.13087581 0.11739122
000090 a6 dc 59 be 97 06 c3 3d d5 1d 24 3e bf fa c5 be
       -0.21275577 0.09522741 0.16027005 -0.38667867
0000a0 92 69 b1 3d cd 9f 8f be c4 43 08 3c a6 e0 92 be
       0.08662714 -0.28051606 0.008316938 -0.28687018
0000b0 d1 55 96 3d 35 b1 4b bc 8d 7d 01 bf c2 12 ab be
       0.07340587 -0.012432386 -0.505822 -0.3341275
0000c0 04 4c 93 3e 51 ef fd 3d 26 6e 82 be 5d 4c 4c be
       0.28768933 0.123991616 -0.25474662 -0.19951005
0000d0 83 9f cb 3e d1 37 cc 3e 68 70 ce 3d ce f3 a1 be
       0.39770135 0.39886335 0.100800335 -0.3163132
0000e0 bc ce 00 3d 52 b6 fe be 30 33 42 3b 9a 87 e8 3e
       0.031447157 -0.49748474 0.002963256 0.45415956
0000f0 0b 7c bc bd bd 3d 42 3e 0d 63 f0 be b7 97 ee 3d
       -0.09203347 0.18968864 -0.4695057 0.11650031
000100 5c fd 28 be 2c 69 83 3e 08 a8 da bd db bb 87 3d
       -0.16502899 0.25666177 -0.10676581 0.066276275
000110 a9 3b b1 be d7 26 71 be ec 13 80 3e 8c 2a 32 bd
       -0.3461583 -0.23549972 0.250152 -0.043497607
000120 e2 8f 12 3f bf b4 c4 be bf 25 21 3e 0c 87 55 be
       0.572508 -0.38419148 0.15737055 -0.20852298
000130 09 a8 02 bf 00 73 b7 be 7f 62 87 bd 2f f4 8b 3e
       -0.5103765 -0.35829926 -0.066105835 0.27334735
000140 ec 38 2f bc 4f 62 8f bc 77 19 05 3e 23 12 19 be
       -0.010694724 -0.017502932 0.12997995 -0.14948325
000150 67 83 b8 be bf a7 84 be 0f 4b f4 bd 1e b8 8f 3e
       -0.36037752 -0.2590923 -0.11928379 0.28070158
000160 54 b8 1d 3e bd e0 80 be fc 79 8b bd d5 e2 8c be
       0.15402347 -0.25171462 -0.06810376 -0.2751681
000170 30 94 3d bc 60 04 2f be 5e 36 ac bc e0 50 b3 bd
       -0.011570975 -0.17091513 -0.021022018 -0.0875566
000180 2c b8 a4 be 4d 59 a7 3e a2 14 d1 bd ff 6b 41 3e
       -0.32171762 0.3268532 -0.102090135 0.18888853
000190 dd 50 a0 bd aa be e8 bd f4 3d 8f be 7b 45 02 3f
       -0.078279234 -0.11364491 -0.27976954 0.5088727
0001a0 75 f8 0c 3e 32 60 18 bd ca 70 e8 3d f6 5c 18 3c
       0.13766654 -0.037201114 0.11349638 0.009299507
0001b0 0b c1 5d be 79 d4 76 be d3 a8 ab 3e 67 99 c9 3e
       -0.21655671 -0.2410449 0.3352724 0.3937485
0001c0 3a ba a4 3e c3 81 11 3e 2c 3c 48 3e e3 1f 02 bf
       0.3217333 0.14209656 0.19554204 -0.50829905
0001d0 7a 45 b8 3e 15 50 8a 3e d3 c5 0b 3d 94 3d c5 3e
       0.35990506 0.27014223 0.034124207 0.38523543
0001e0 77 5d 16 3e eb 20 55 bd ae e3 19 be 47 08 46 be
       0.14684092 -0.052033346 -0.15028259 -0.19339095
0001f0 46 ce b1 3c af f2 a3 be b4 9e 24 3c d7 e3 ec be
       0.021704804 -0.3202109 0.010047603 -0.46267578

layers.1.weight f4 [128, 128]
000000 b7 be ce 3d 93 bb 09 be 19 3c a2 bd 16 30 a7 bd
       0.1009497 -0.1345046 -0.07921619 -0.081634685
000010 74 9b 6a bc 00 20 f1 3c a1 82 29 3d f2 5f 9a 3d
       -0.0143192895 0.029434204 0.041384343 0.07537831
000020 80 49 20 3c 72 59 9d 3d 8a 36 19 be 03 24 88 3d
       0.009783149 0.07683076 -0.14962211 0.06647494
000030 ac e7 a5 3b 8b dc 20 bc f3 94 c4 3d 98 08 c7 3d
       0.005063018 -0.009818207 0.09598722 0.09718436
000040 40 b4 95 3c 46 42 ad bd d7 80 4f bd 24 39 8e 3c
       0.018274426 -0.08459906 -0.05065998 0.017361231
000050 2e d2 4a bd 07 80 a4 3c 64 4d f9 3b d6 7c ae 3d
       -0.04951685 0.02008058 0.0076081026 0.08519904
000060 7c bd 35 3d 6d 68 53 be 12 d5 4e be 21 f7 8f 3d
       0.04437016 -0.20645304 -0.20198467 0.07029558
000070 9e 4d 31 3b 17 2d a3 bd 5b 60 cc 3c 4d 50 a9 3d
       0.002705432 -0.079675846 0.02494829 0.08267269
000080 d8 98 81 3d 34 91 37 bc e6 cf 09 3e 10 09 ee bc
       0.06327981 -0.011204053 0.13458213 -0.029057056
000090 87 e4 f8 3d 2c 34 e7 bc 36 7d a7 bc d5 48 9f bc
       0.12152963 -0.02822312 -0.020445447 -0.019443909
0000a0 d7 67 d3 3d ee 4a c8 3d b6 83 5f 3c 14 95 e1 3d
       0.1032254 0.09779917 0.013642242 0.110147625
0000b0 62 64 88 bd 39 bc aa 3c 19 ee d8 3d c8 b0 65 3c
       -0.066597715 0.020841705 0.105922885 0.014019199
0000c0 23 bc 6b bc db d9 a0 3d 04 12 06 be 05 18 ba bd
       -0.014388117 0.07854053 -0.1309281 -0.090866126
0000d0 ed 90 5f bc 51 32 c2 bd 52 fa f8 bc 48 46 22 be
       -0.013645393 -0.09482253 -0.0303928 -0.15847123
0000e0 21 8d b4 3d 55 2c 5a 3d bb ec ee 3c 1f cc 67 bd
       0.08815981 0.053264935 0.029165616 -0.05659115
0000f0 84 b3 25 bc fb d0 f0 bc 3b e9 46 3e c1 63 bd bd
       -0.010113601 -0.029396525 0.19424908 -0.09247542
000100 af fa 16 3e 10 ea d0 bc 60 0d 8e 3d 27 5d 9a bd
       0.14744066 -0.025502235 0.06936145 -0.07537299
000110 7e fe 94 3c d3 1f 55 bd be 4e 29 bc 45 eb af 3d
       0.018187758 -0.052032303 -0.010333715 0.08589796
000120 0b e8 09 bd 76 82 c8 3c f8 a2 7c bd 09 23 82 bd
       -0.03366856 0.024476271 -0.061678857 -0.06354339
000130 0c da c9 bc d2 17 1c be 40 f4 21 bd 08 26 16 3c
       -0.024640106 -0.15243462 -0.039539576 0.009164341
000140 19 cf f8 3d 8b 5a da 3c 84 87 86 bd e0 50 2a 3e
       0.12148876 0.026654502 -0.06568816 0.16632414
000150 89 cc 69 3d bb ba f7 3d e5 a6 11 3d f4 0b f4 bd
       0.057079826 0.12096163 0.035559554 -0.119163424
000160 b4 41 f7 bc e0 d5 b8 bc aa e5 5d 3d 2e 05 3a 3e
       -0.030182697 -0.022562921 0.054174103 0.18166038
000170 d7 0b a8 bc 03 b7 b2 bd 8b cd bd 3d d8 8a d6 bd
       -0.020513458 -0.08726313 0.0926772 -0.10475701
000180 a7 b7 e7 bd 60 15 04 bd dd 44 10 3d 06 8a 90 3d
       -0.11314326 -0.032246947 0.035221923 0.07057576
000190 66 0f 10 bd 30 81 df 3c bb 44 2b bd b1 55 fa bb
       -0.035170935 0.027283281 -0.041813593 -0.0076396097
0001a0 13 b2 f9 bc 68 43 c3 bc 95 c3 d8 3c 3e 8f 84 3d
       -0.03048042 -0.023835853 0.026460448 0.06472634
0001b0 b9 8c 8d bd f9 65 95 bc bf ba 4f bd 22 45 b5 bd
       -0.06911606 -0.0182371 -0.050715204 -0.08851077
0001c0 87 73 4a 3d 58 5a aa bd 3a ab f2 bc e0 e2 b4 3d
       0.04942658 -0.08318013 -0.029622663 0.088323355
0001d0 72 e8 a2 bc 55 4c 88 3c 48 6b 77 bd ec 81 fd 3d
       -0.01988623 0.01663796 -0.060405046 0.12378296
0001e0 f5 a9 e0 3d 0a c8 45 3d ed d0 f7 bd 5e e1 28 3d
       0.10969917 0.048286475 -0.12100396 0.041230552
0001f0 06 4b ec bd 97 48 12 3e 27 e5 c3 3d d9 26 15 3e
       -0.11537747 0.14285503 0.09565192 0.145656
000200 31 f9 d2 bd 38 7f 63 3d ec c0 7a 3d c3 d0 d0 bd
       -0.10301436 0.055541247 0.06121914 -0.10196068
000210 d4 ee c5 bd e5 c9 06 bd f4 b2 ca 3d 83 a2 6b bd
       -0.096646935 -0.032907385 0.09897414 -0.05752803
000220 7f e0 f0 bd db f3 d8 3d 09 6b d1 bd 7f ad 42 3d
       -0.11761569 0.10593387 -0.102254935 0.04752874
000230 33 0b 9c bc 92 bf fe bc 2e 4c 3d bd 36 1b 3f 3d
       -0.019048309 -0.031097207 -0.04621523 0.04665681
000240 73 2c 21 be 12 a3 a7 bd 93 fd bb 3d c2 04 8b 3d
       -0.15739612 -0.081854 0.09179225 0.06788017
000250 c7 3a d6 bb 9a df 1a bd ca 46 cf bd f1 9e 04 bd
       -0.0065377685 -0.0378109 -0.10120924 -0.03237814
000260 6f 54 f6 3d f1 ce 10 bd 6b 61 43 bc f8 63 2f 3c
       0.12027823 -0.035353605 -0.011925082 0.010704987
000270 c4 58 62 bc c4 35 65 3c 90 cf d9 bc 64 66 f5 3d
       -0.013815109 0.0139898695 -0.026588231 0.1198242
000280 90 d6 b7 3d fd a7 18 3d ae bb ba 3d 85 cf c2 bd
       0.089764714 0.03726958 0.09117828 -0.095122375
000290 b7 5a 18 3d b8 48 d5 3d a9 df 91 3d a0 2d 64 bd
       0.037195887 0.104142606 0.07122738 -0.055707574
0002a0 c7 02 12 3d e8 1a c4 3d c2 de 17 3c db 2b 2c 3e
       0.03564718 0.095754445 0.009269418 0.16813605
0002b0 82 2f 3c be 19 f4 e8 3d 55 c1 20 be 12 42 1d bd
       -0.18377498 0.11374683 -0.1569875 -0.038393088
0002c0 67 55 6d bd ca e9 d0 3c ec 53 db 3b fb 23 67 bc
       -0.057942774 0.025502104 0.006693354 -0.0141076995
0002d0 cb ab 23 be fc f6 5e bd 97 7d a5 bc 0e 59 3a 3c
       -0.15983503 -0.05443476 -0.020201487 0.011373771
0002e0 66 a2 e2 bc f2 3b 51 bd fc ee 27 be f4 29 90 3d
       -0.027665328 -0.05108256 -0.16399759 0.07039252
0002f0 c6 c9 3b 3d 45 4d 1b 3d 40 82 52 3b d8 94 2d bd
       0.045846723 0.037915487 0.0032121092 -0.042378277
000300 95 3c 2a 3d 74 07 a0 bd 5e 50 27 bc d4 b7 5e 3d
       0.04156168 -0.078139216 -0.010212032 0.05437453
000310 b8 81 bc 3d 9f 4c a6 3c 65 35 f4 bc 5e fa 88 bd
       0.092044294 0.020300208 -0.029810617 -0.06688379
000320 81 6d 4a bc d6 29 43 be 39 c7 51 3d 3d c9 37 3d
       -0.012355209 -0.19058928 0.051215384 0.04486965
000330 fb a0 7d 3c ef a1 0c bd 7b 8d 31 bd bd c8 37 3d
       0.015480275 -0.03433412 -0.043347817 0.044869173
000340 d7 4c 89 3d c7 2d 87 3b 3e ff a9 3d cd 54 5b bc
       0.06704109 0.00412533 0.08300637 -0.013386917
000350 c3 c3 2d 3e 65 01 c6 3d 19 cb 0a 3e 44 2e b8 3c
       0.16969208 0.09668235 0.13554038 0.022482999
000360 76 9c 8e bc ac c1 a6 3c bb 83 fd bd 55 32 0b bc
       -0.01740859 0.020356022 -0.12378641 -0.008495887
000370 d1 fb 99 bc c1 80 48 3d 2e e7 1b be 4e 37 c3 bd
       -0.018796833 0.048950914 -0.15224907 -0.09532033
000380 e4 61 7b bd 9a e9 e5 3c 3a 14 cd bd 3d fb 4e 3c
       -0.061372653 0.028065491 -0.100136235 0.012633142
000390 59 a2 90 bd dc 8f d3 3c 65 c8 97 3c 02 ac 4b 3e
       -0.07062215 0.025825433 0.018528173 0.19889835
0003a0 b1 19 92 3d 8c 94 33 bd c6 96 45 3c 0e 23 0f 3c
       0.071338065 -0.043842837 0.012059873 0.008736385
0003b0 e1 dc 0b 3d bf 76 9a 3c 0f 75 40 bd 61 50 83 3c
       0.034146193 0.01885545 -0.046986636 0.016029539
0003c0 30 d5 12 3d 6a 9d 8d bd a1 77 fe 3c b1 fd 34 3d
       0.035847843 -0.0691479 0.031062903 0.04418725
0003d0 8b c7 c1 bd 2e 61 d5 3d fd 0b 9c bd 1b 0b 97 3c
       -0.09461888 0.10418926 -0.07619474 0.018437913
0003e0 e4 a2 65 3d 45 3b b1 bd 53 bf b3 bc 40 13 64 bd
       0.056063548 -0.08653883 -0.021941816 -0.05568242
0003f0 ea 53 38 bd c3 f3 42 bd c5 25 b0 bc 91 bb fc bc
       -0.0450019 -0.04759575 -0.021502385 -0.030851157

layers.1.bias f4 [128]
000000 3b 7b bf bc 94 15 0b bd 35 7d bd bd e0 c5 db bc
       -0.02337419 -0.033956125 -0.09252397 -0.026827753
000010 c9 51 19 bd bc 18 04 be 85 67 01 3e 22 9c c1 3d
       -0.037431512 -0.1290006 0.12637146 0.09453608
000020 37 5a 09 be 37 54 1b be 01 8f ac 3d 7c cb 14 be
       -0.1341332 -0.15168844 0.08425713 -0.14530748
000030 7d 9b f2 bd 5e ec 13 bd 7f c9 8a 3d e9 09 01 3d
       -0.11846063 -0.03611409 0.067767136 0.03150359
000040 fb 26 0b be d0 8d ea 3c 34 77 3e bd a5 49 15 3d
       -0.13589089 0.028632075 -0.0465004 0.036447186
000050 24 42 97 3d 24 89 b0 bd 77 8f 8b bc 1f 48 c8 bc
       0.07385662 -0.086199075 -0.017036183 -0.024448453
000060 ff 37 67 3e 03 5b 01 3d 24 be f5 bd c9 f1 d0 bd
       0.22579955 0.031580936 -0.11999157 -0.10202367
000070 b5 31 c2 bd a2 20 85 bc 89 5d 13 3d 9a ee c2 3d
       -0.09482137 -0.016250912 0.035977874 0.09518166
000080 22 39 21 bd 57 8b 5c 3d 6a 91 68 3d fc a8 64 bc
       -0.039361127 0.053843822 0.056779303 -0.013956305
000090 7a 17 df 3d 50 f4 ce bd 01 57 08 3e af a8 d5 3d
       0.1089315 -0.10105193 0.1331444 0.104325645
0000a0 d7 17 da bd bd 5f 14 bd 11 f3 18 3e 3e be 00 bd
       -0.10649078 -0.036224116 0.14936472 -0.03143143
0000b0 9c b2 1f be 6e 38 73 3d f9 1f 77 bd 2c 2e 5d be
       -0.15595478 0.059379987 -0.060333226 -0.21599644
0000c0 3b f3 d7 bd f4 eb d5 3c 3f 75 c0 3c a1 04 5a bd
       -0.105444394 0.026113488 0.023493407 -0.05322707
0000d0 f4 5f cf bd c3 2e aa bd 97 10 57 3c 8e fd b6 bd
       -0.101257235 -0.083097 0.013126514 -0.089350805
0000e0 04 8f a2 3d d5 32 a5 bd 8d 40 4a 3d 02 ff 17 be
       0.07937434 -0.08066336 0.049377967 -0.14843372
0000f0 29 66 7e bd a3 30 92 3d df 73 8b bd a6 c8 8c bd
       -0.062109146 0.07138183 -0.0680921 -0.06874208
000100 29 94 14 be 99 76 15 3d f0 2e 76 3d ff 45 1e 3d
       -0.14509644 0.036490057 0.060103357 0.038640972
000110 7e 52 e7 bb 5c 59 a0 bd 52 75 76 bd 18 1b 7a bd
       -0.0070593944 -0.07829544 -0.06017048 -0.061060995
000120 6c e7 11 bd 81 d9 5c 3c 51 7b ca 3d ee 2f 0d be
       -0.03562109 0.013479591 0.09886802 -0.13787815
000130 8a 2e 35 be f3 34 cd 3d 06 2a 59 bd 23 78 50 be
       -0.17693534 0.10019865 -0.053018592 -0.20358329
000140 ae 6b 5e bc c0 b0 29 bb 1b d0 20 3e b5 7c 11 3e
       -0.0135754775 -0.0025892705 0.15704386 0.14207728
000150 df cd c1 3d 5b 7d e1 bb ac 3a 96 bd 22 dc 52 3d
       0.09463095 -0.0068813986 -0.073354095 0.051479466
000160 74 6c 72 3c 81 cc 24 bd d4 4e 9f bd f6 de ea 3d
       0.014796365 -0.040234093 -0.07778707 0.11468308
000170 cf 29 32 3d 2b 15 03 bd 97 b9 d0 bd dc 69 36 3d
       0.043496903 -0.03200261 -0.101916485 0.04453455
000180 ac fb f4 3c c3 13 80 bc a9 8a 3e be 54 75 43 bc
       0.029905163 -0.015634423 -0.18607582 -0.011929829
000190 86 d7 6e bd 92 6c c6 3d 65 a3 a3 bd 35 9a c8 bd
       -0.058311008 0.09688677 -0.079901494 -0.09795038
0001a0 9c b9 b8 3d 74 c2 af bc f5 e5 b0 bd 35 99 b4 bd
       0.09019777 -0.021455027 -0.08637611 -0.088182844
0001b0 11 dc 10 3d 74 82 56 bd 72 58 01 3e 3c d6 46 3d
       0.03536612 -0.052370504 0.12631395 0.048544154
0001c0 cb 74 51 bd 8a 41 e4 3c d1 51 d8 3d be 86 f2 bd
       -0.051136773 0.027863283 0.1056248 -0.11842106
0001d0 bb a8 b3 3b ff 3b b2 bd 6d 9f 49 be e5 9a 18 bd
       0.0054827607 -0.087028496 -0.19689722 -0.037257094
0001e0 b0 82 95 bc 43 c2 8e bd 20 2b 16 3e 4c 9e 49 3e
       -0.018250793 -0.06970646 0.14664888 0.19689292
0001f0 d2 6d ac 3c fc fe f6 bd bc c0 d2 3d f2 90 f1 bd
       0.02104846 -0.12060353 0.102906674 -0.11795224

layers.2.weight f4 [64, 128]
000000 0b bc 19 3e 34 c6 a2 bd e3 74 be bc ed cc c7 3d
       0.15013139 -0.079479605 -0.023249095 0.09755883
000010 1f 66 53 bd 14 cc fb bc c3 8f 59 3d 4b e1 e3 3d
       -0.051611062 -0.03073696 0.053115617 0.111269556
000020 e4 24 83 3d 67 61 a6 3d 5f 9a 9a 3c 8c a9 de 3b
       0.06403521 0.08124047 0.018872438 0.006795114
000030 29 b3 44 bd 3c 9a 05 3d c5 e6 9e 3d 91 af 8c bc
       -0.048022423 0.032617792 0.077588595 -0.01717356
000040 0a ff 03 3e d0 e4 d1 3c 2b 5e 54 3d f1 9a 0b 3d
       0.12890258 0.025621802 0.051847618 0.03408331
000050 62 82 67 3b 57 a9 8d 3d d7 77 a3 bc bd 97 d6 3d
       0.0035325517 0.06917065 -0.019954605 0.104781605
000060 8b b0 36 3d 34 61 c5 bd f6 14 cb bd 4c f5 b4 bd
       0.04460196 -0.09637681 -0.09916107 -0.08835849
000070 42 76 3c bd c2 8b a2 bd d2 d3 c5 3b 4b 64 a3 3d
       -0.046011217 -0.07936813 0.006037214 0.07978114
000080 60 4f 05 be b0 71 ac 3d 2d 72 b9 3d da 78 a2 bd
       -0.1301856 0.08420122 0.090549804 -0.07933207
000090 2d c3 98 3d 48 8a a2 bc 81 46 1b 3e f9 3a d2 3d
       0.07459102 -0.019841328 0.15163614 0.102651544
0000a0 ad aa 10 bd f6 a9 26 3e f1 5a 9b bd 78 6d 6e bd
       -0.03531902 0.16275772 -0.07585705 -0.058209866
0000b0 5e ef d6 bc 1e 05 e0 3d 0f 2a 42 bd 7d 2c 52 3e
       -0.026237186 0.10938476 -0.04740339 0.20524783
0000c0 bb 56 d6 bd b7 fa 7b 3d 2b f1 66 3d 0e ff 12 3e
       -0.10465761 0.061518397 0.05638234 0.14355108
0000d0 d0 ed 32 3b 11 1f bd 3b 28 2c 22 3d 33 6e 8c 3d
       0.0027302392 0.0057715257 0.039592892 0.06856956
0000e0 fb a8 b4 bc 73 e6 e2 3b 48 34 8c 3d 63 f3 35 bd
       -0.022053232 0.0069244443 0.06845909 -0.044421565
0000f0 71 e1 02 bd d9 67 2d bd 88 54 3a bd 28 af cc bc
       -0.03195328 -0.042335365 -0.04549077 -0.024985865
000100 1d e2 9d 3d 96 b9 18 be f7 74 b4 3d f5 33 c4 3d
       0.07709143 -0.14914545 0.08811372 0.095802225
000110 28 cf 0d bd 2b b1 c3 bd 43 87 bf 3c 5e 32 50 3d
       -0.034621388 -0.095552765 0.023379928 0.050829284
000120 84 ac 42 3d a3 bd d5 bd a4 25 50 3e dc c3 0c bc
       0.047527805 -0.10436561 0.20326859 -0.008591618
000130 03 79 98 bb e1 2a ae bd 4b f9 d7 3d db b6 08 be
       -0.0046530976 -0.08504272 0.10545596 -0.13351004
000140 aa 0b 06 3e 26 11 59 3d 38 e8 8e 3d 22 48 18 ba
       0.13090387 0.05299487 0.06977886 -0.00058090885
000150 de 39 71 3d 8c 95 ba bc a2 11 94 bd 56 39 d3 3d
       0.058893077 -0.022776388 -0.07229926 0.1031367
000160 32 07 46 bd 2b d5 2a 3a fb 87 c5 3d 71 1a 0b 3e
       -0.048346706 0.000651675 0.09645077 0.13584305
000170 d2 96 51 3d b3 e8 06 3e d5 61 f4 bd 5d 52 c4 3d
       0.051169224 0.13174705 -0.119327225 0.09586022
000180 5e 94 22 bd 2f f6 bc 3d a0 53 71 3b ac 22 57 bc
       -0.039692275 0.09226643 0.0036823526 -0.013130825
000190 a8 ef a0 bd be 11 99 3d 89 af de 3d 2d f5 8f 3c
       -0.07858211 0.07474087 0.108733244 0.017572964
0001a0 3e 02 aa 3d db 60 04 3c eb fc 1d be fe 60 79 bc
       0.08301209 0.008079733 -0.15428512 -0.015220879
0001b0 0b a9 95 bc 28 28 1b 3d f2 a6 1b bd 54 1f ab 3c
       -0.018269083 0.037880093 -0.03800101 0.020888962
0001c0 e3 4b 98 3d 4d 79 60 bd 06 ea 0a be 84 df 29 be
       0.07436349 -0.05480318 -0.13565835 -0.1658917
0001d0 54 9d e1 3d 38 10 fd 3d 5d bd 0c be 03 49 f3 3b
       0.11016336 0.12356609 -0.13744111 0.007424475
0001e0 92 f9 ec bd 56 70 4a 3d f8 e4 b6 3d 55 2e 86 3d
       -0.11571039 0.04942354 0.08930391 0.06551806
0001f0 00 52 f1 3d fa 30 73 bd cb 38 38 3e 7f 1d 30 bd
       0.117832184 -0.05937288 0.17990415 -0.04299688
000200 52 c5 32 bd 24 07 81 bd fb dc 9b 3d 95 20 7b 3e
       -0.04364521 -0.0630019 0.07610508 0.24524148
000210 e0 73 f2 3d 5c a9 63 3d 13 87 f5 bd 64 a7 a8 3d
       0.11838508 0.055581436 -0.11988654 0.08235052
000220 67 c2 f7 bc 49 98 29 3d df 31 43 bc e2 c0 fc bd
       -0.030244065 0.041404996 -0.011913746 -0.12341477
000230 50 3f 5c 3d e3 0e bc bc 41 e8 b0 3c 20 49 dc bd
       0.053771317 -0.022956317 0.021595122 -0.10756135
000240 d1 8c 15 3d f7 29 1f bd 85 46 f1 bd eb 86 28 be
       0.036511246 -0.03885838 -0.11781029 -0.16457717
000250 36 0a 11 bd 87 32 ae bd 4f ae 38 3d d6 57 c1 3d
       -0.03541013 -0.08505731 0.04508811 0.094405815
000260 9e 0b de bc b8 47 13 bd 60 55 3f bd 29 40 67 bd
       -0.027105149 -0.03595707 -0.04671228 -0.056457672
000270 c8 2b 21 be 39 f7 9b bd a9 60 82 3d 79 28 23 bc
       -0.15739357 -0.07615513 0.06366093 -0.00995838
000280 b9 e3 01 bc eb 20 88 3d 50 ef 84 3c 84 67 d0 3d
       -0.0079278285 0.066469036 0.016227394 0.10175994
000290 d2 32 1f 3e 9c 9f 3c be 29 9d 24 be 87 7e d1 3c
       0.1554673 -0.18420261 -0.16075577 0.025573028
0002a0 bc 97 84 bd 4e e4 e0 3c 47 71 38 be 4a ad a8 3d
       -0.064742535 0.027452614 -0.18011962 0.08236177
0002b0 f4 90 c3 3c ef 53 2c 3e c0 7d 3e be c5 5e 2e 3e
       0.02387283 0.16828893 -0.18602657 0.17028339
0002c0 0e 49 0b 3d c3 76 86 3e 36 97 9b bc a7 c3 2b 3e
       0.034005217 0.26262483 -0.018993001 0.16773854
0002d0 cc bf 05 3e 55 da 06 be 50 22 ce 3d d4 85 e3 3c
       0.13061446 -0.13169225 0.10065138 0.027773775
0002e0 ce 92 d9 3d e1 e3 b6 3d 3e a5 c0 3d 3e 39 be bd
       0.10623704 0.08930183 0.094065174 -0.09288262
0002f0 a1 b1 b3 bc 8f 65 11 3e 66 96 98 3d 48 5b 17 be
       -0.021935286 0.14198898 0.07450561 -0.14780915
000300 06 0b 04 3d 3f f2 75 bd 54 07 36 bc 2f 62 73 3c
       0.032237075 -0.060045477 -0.011110146 0.014854952
000310 2a cb 55 3b aa b1 9e bd 05 04 be 3c 75 9d db 3d
       0.0032622316 -0.077487305 0.023195276 0.10723392
000320 20 26 fc 3c 85 1c ad bd 0a 4f 4e 3d 9e a4 9e 3d
       0.030779898 -0.08452705 0.050368346 0.07746242
000330 23 43 0d be 2f dc 0b bd ec 3c 10 3e 64 9e e1 bd
       -0.13795142 -0.03414553 0.1408574 -0.11016539
000340 88 80 bb bd f2 8f 8b 3e 91 86 08 3e 2a 20 6c 3d
       -0.09155375 0.2725826 0.13332583 0.05764786
000350 31 10 8c bd a2 e5 ec 3d be 89 14 bd 08 71 bf 3c
       -0.06839026 0.115672365 -0.036264174 0.023369327
000360 cb d5 35 3d 36 70 75 3a 6c 30 1e 3e 87 fa 08 3d
       0.044393342 0.0009362729 0.15448159 0.033442046
000370 b8 af c4 bd 73 6c a9 bd d2 1c 2b bd cf c2 f5 3d
       -0.09603828 -0.08272638 -0.041775532 0.120000474
000380 77 80 2a 3d 71 12 14 bd c5 6f 80 bc af 7c e8 bb
       0.04162642 -0.0361504 -0.015678296 -0.0070949416
000390 f4 1c e0 3c f7 2c 9b 3d 04 c2 20 3e 7c e9 54 3d
       0.027357556 0.07576936 0.15699011 0.05198048
0003a0 cd 09 83 3d eb 88 f4 bd b1 6a e4 bd dd 9d bb 3d
       0.06398354 -0.119401775 -0.11153162 0.091609694
0003b0 eb 78 4b be 9f f7 70 bd a0 0c 95 3d b7 3c 4b bd
       -0.19870345 -0.0588299 0.07277799 -0.04961845
0003c0 bf 17 01 3d a9 22 95 bc ad 11 f8 3c 21 79 10 bd
       0.031516787 -0.018205004 0.030281866 -0.035271768
0003d0 cc 97 9f 3c 9e fd 43 3e 94 67 0d 3e 8a d6 a8 bd
       0.019481562 0.19139716 0.13809043 -0.08244045
0003e0 65 94 3e be 9e 8a 08 3d fb c8 be bc 4f 54 4e be
       -0.18611296 0.03333532 -0.023289194 -0.20149349
0003f0 3f 5b bf bd 07 a8 9f 3d 9d 23 2e 3d 3c 83 05 bd
       -0.09343576 0.077957205 0.042514432 -0.032595858

layers.2.bias f4 [64]
000000 c1 18 91 3d f4 e7 43 bd f9 04 82 3b d5 b5 96 3d
       0.070847996 -0.04782863 0.003967878 0.073589005
000010 5b 10 b6 bb 4f ac b0 3d ee b7 0a be 69 84 c1 3d
       -0.005556149 0.08626615 -0.13546726 0.09449083
000020 49 be f9 bd 89 85 93 bd ef ea 3d bd 0b 20 3b 3c
       -0.12194497 -0.07203204 -0.04636663 0.011421214
000030 53 aa ca bc b4 bd 12 bd 32 95 19 bd d9 d9 f7 3d
       -0.02473942 -0.035825446 -0.0374958 0.12102098
000040 8c 3e a4 bd 2e 89 7e 3d f3 b7 84 3d fd 30 6b bd
       -0.08019742 0.062142543 0.06480398 -0.057419766
000050 73 d0 ad 3d 75 e8 a4 3d a4 64 4c bc 56 ed f8 bd
       0.08487024 0.0805215 -0.0124751665 -0.12154643
000060 72 c6 4a 3d 7c 7e 8b bd 18 17 3d bd b8 c4 a7 3c
       0.04950566 -0.06811234 -0.046164602 0.020479545
000070 cc c4 d2 3d 68 59 0e bd ba 91 6d 3d 8e 24 d2 bd
       0.10291442 -0.034753233 0.058000304 -0.102608785
000080 d2 35 75 3d 04 35 d8 3d 19 00 06 3e 9f fa 83 3c
       0.05986578 0.10556987 0.13085975 0.016110716
000090 22 ca 03 3e 12 0c a1 bc b1 69 72 bb ec 0e 8e 3c
       0.12870076 -0.019659076 -0.0036989267 0.0173411
0000a0 f6 ff a3 bd c7 e0 4f 3d ec cf 36 3d 7c 09 b5 3c
       -0.08007805 0.050751474 0.044631884 0.022099249
0000b0 0a ac 85 bd eb b6 98 bd 85 33 cb bd 6a 90 5f be
       -0.065269545 -0.07456764 -0.09921936 -0.21832433
0000c0 7a 31 c3 3d ee ab 1b be f3 b4 74 3d 4f 0a 13 bd
       0.09530921 -0.15202305 0.05974288 -0.035898503
0000d0 ab 99 8f bd 8a 68 09 3e 99 93 c1 bd 0a d6 03 be
       -0.07011732 0.13418785 -0.0945198 -0.12874618
0000e0 26 71 ea 3d c4 a7 3e be eb a9 aa bb d3 83 00 3e
       0.114473626 -0.18618685 -0.005208244 0.12550287
0000f0 86 03 21 bd 9b 15 d4 bd 3f ae b8 bb fe 8a 04 bb
       -0.03931 -0.103556834 -0.005636006 -0.0020224447

readout.weight f4 [1, 64]
000000 92 c5 fa be ca 91 cf be b8 66 ed bd dd e1 b9 3e
       -0.4897886 -0.40540916 -0.11591858 0.36305133
000010 78 31 f3 3e 93 19 cc 3e 7a 85 0f bf fc 4d 0f bf
       0.4749868 0.39863262 -0.56063044 -0.5597837
000020 e8 1e 01 3f 08 2c dd 3e 53 cd bd be e8 61 e4 3e
       0.50437784 0.43197656 -0.37070712 0.44605947
000030 8c 70 c5 be 35 8d 9f be 31 49 00 3f 82 88 d7 be
       -0.3856243 -0.3116242 0.5011168 -0.42096335
000040 ad c2 28 bf 00 26 b7 3e 48 20 0d 3f 6c 60 99 be
       -0.6592205 0.3577118 0.5512738 -0.29956377
000050 22 fd c6 be 72 6f ba 3e 78 ac b7 3e d7 dc d1 3e
       -0.38865 0.3641315 0.3587377 0.409888
000060 5a ff dd be df 07 21 bf 0b 87 f8 be ed 80 cb 3e
       -0.4335888 -0.62902635 -0.4854053 0.397468
000070 49 95 f1 bd c1 bb 04 3f 6d bd f2 3e 81 78 1d be
       -0.11796052 0.5184899 0.47410145 -0.15378
000080 ef 91 ad be ab fb 1f 3f d2 12 fb be fc d9 01 bf
       -0.339004 0.6249339 -0.49037796 -0.5072324
000090 2a e8 07 3f 76 3a 16 bf 5e 6e dc be 4c 75 db 3e
       0.5308863 -0.58682954 -0.43052953 0.42862928
0000a0 be 35 cd be bb e7 81 be 7f ad 02 bf 48 96 f2 be
       -0.40080065 -0.2537211 -0.51045984 -0.4738028
0000b0 a8 9c db 3e 43 5d 04 3f dc 03 22 3e 36 c9 ef 3d
       0.42892957 0.51704806 0.15821785 0.117083
0000c0 7f c6 57 be a2 e6 1d 3e 2b f7 14 3e 9c ed eb be
       -0.21071814 0.1542001 0.14547412 -0.4607972
0000d0 b6 cf 5d be ac 3e 32 bf ae 94 0b bf 14 1a d6 3e
       -0.21661267 -0.6962688 -0.5452374 0.4181677
0000e0 e2 57 48 be df 82 25 3e 41 8b c4 3d c6 ed 04 3e
       -0.19564775 0.16163205 0.09596873 0.12981328
0000f0 05 10 11 3e 68 72 15 3f d5 9a 4b be 84 33 ed 3e
       0.14166267 0.58377695 -0.19883282 0.46328366

layers.0.weight f4 [128, 17]
000000 f8 bc 10 3e 9b f0 1c be 03 01 1c bf bf 6d 34 3f
       0.14134586 -0.15326159 -0.60939044 0.7047996
000010 0c 6a 66 3e 68 ac 42 3f 9f 92 39 be cc c2 ef 3d
       0.22501391 0.7604432 -0.18122338 0.117070764
000020 72 28 dd be 87 3c 71 bf dd 0f 18 bf d0 f2 37 3b
       -0.4319492 -0.9423298 -0.59399205 0.0028068312
000030 17 29 bc bb db d1 7d bb 9d 2d 3a bd 08 c3 8a bd
       -0.005742203 -0.003872982 -0.045453656 -0.067754805
000040 74 f3 1b 3c 8e bd 86 be 27 3f 37 be 84 d5 c0 bd
       0.009518493 -0.26316494 -0.17895184 -0.09415725
000050 98 76 78 3f 88 53 ea 3e d4 15 2d 3f ac 10 d9 be
       0.9705596 0.45766854 0.6761143 -0.42395532
000060 d9 0e 70 3e 2c 38 be be 5d 9f 5e bf 61 01 a9 be
       0.23443164 -0.3715223 -0.8696192 -0.33008865
000070 c6 a0 0f 3e d8 00 91 3d ab 75 96 bd 27 be 45 3d
       0.14026174 0.07080239 -0.07346662 0.048277047
000080 18 d8 f0 bc 50 f7 11 3d b2 0e 21 3c 2f a6 e0 3c
       -0.029399917 0.035636246 0.009830164 0.027422993
000090 be 01 40 be 49 33 7b bf 47 1a 5d be bd 01 e2 bd
       -0.18750665 -0.9812513 -0.21592055 -0.11035488
0000a0 d9 eb b0 3e 20 bd 0d 3f 3c 39 20 bf 14 b3 c1 3e
       0.34554937 0.55366707 -0.6258733 0.37831938
0000b0 b6 16 28 bf a7 e6 3c be d4 25 45 bc 40 27 67 3b
       -0.65659654 -0.18447362 -0.012032945 0.0035271198
0000c0 53 33 c4 bd c2 2b fa bd f9 3d 46 3d 2b 79 34 be
       -0.09580102 -0.122153774 0.048398945 -0.17624347
0000d0 ee 86 d9 3c c7 36 74 3c 43 d8 70 3e 41 9e 3f 3d
       0.026553597 0.014905638 0.23519997 0.046781782
0000e0 d2 3c 28 be 98 de c8 bc be c1 a8 3e d0 a7 ef bd
       -0.16429451 -0.024520203 0.32960314 -0.117019296
0000f0 ea 19 f3 bd 44 44 ce be bd 31 a6 bd fd 07 30 3d
       -0.11870177 -0.40286458 -0.081149556 0.04297637
000100 d9 ae 8f 3d 16 0d ec bd 98 97 39 bd a8 fa 56 bb
       0.070157714 -0.115259334 -0.045310587 -0.0032803211
000110 16 29 cb be 32 ff 2b bf 8e 90 45 bf 53 88 09 3e
       -0.39679784 -0.6718627 -0.771737 0.1343091
000120 11 9a b7 3e ec 6d 1a 3f b8 35 a2 bb 84 ff 84 3e
       0.3585973 0.6032398 -0.0049502514 0.25976193
000130 cc 2b 86 3e 3f 97 06 bf 59 04 4f be ce fc fe 3c
       0.2620529 -0.52574533 -0.20216502 0.031126406
000140 a9 2e 04 bc 5a e9 54 3b 59 79 9e 3c 33 8c bd bc
       -0.008067765 0.0032487721 0.019344972 -0.023138141
000150 d6 50 81 3b c5 1a 03 3f 13 db f7 be 16 47 a0 3e
       0.003946404 0.5121272 -0.48409328 0.31304234
000160 4a 06 e7 3d 3c 2d ad be e0 a4 b5 be f3 58 0c be
       0.112804964 -0.33823574 -0.35477352 -0.13705806
000170 4c f0 99 be dc 4b 3f bf fd 52 71 bf 5f 10 0d be
       -0.30066144 -0.7472513 -0.94267255 -0.13775776
000180 08 6c f1 bd 93 ce 77 3e 35 a5 c7 3d 5e 79 42 be
       -0.117881835 0.24199896 0.097483076 -0.1899161
000190 5a a1 d5 bd 8a df 4a 3c b1 b4 43 3e 14 b1 57 3e
       -0.10431166 0.012382397 0.19111897 0.21063644
0001a0 f5 fb c1 3e 32 a0 7b bf cb 9e 8f bd c8 d0 5d 3e
       0.3788754 -0.98291314 -0.07012709 0.21661675
0001b0 45 bb 8e 3d d6 59 2f be 79 dd 78 bd 26 20 dd 3e
       0.069693126 -0.17124113 -0.060758088 0.4318859
0001c0 ab 18 25 3f 51 68 7c 3d d4 7e 58 3e 6b 5d 02 be
       0.64490765 0.06162292 0.21142131 -0.12730949
0001d0 2c 02 7c be 11 69 04 be d5 64 61 bd 36 71 ab be
       -0.24610204 -0.12930705 -0.0550278 -0.3348481
0001e0 c5 b7 06 3f 00 11 08 bf 0a 41 ec bd 3f 08 60 be
       0.5262416 -0.5315094 -0.11535843 -0.21878146
0001f0 f5 37 22 3d 70 19 ec bd f4 2e 23 be 05 ae 92 bd
       0.039604146 -0.11528289 -0.1593588 -0.07162098
000200 7b 1f e8 3d 7e c2 47 3e 43 90 01 3d 92 5c 22 3e
       0.113341294 0.19507787 0.03163172 0.15855625
000210 fe de 58 3c 2d 9c 19 3e 6c 06 60 3d 37 c5 94 3c
       0.013236759 0.15000983 0.054693624 0.018160446
000220 f3 75 57 bc 3d 0e 8a 3e fe f2 bd 3e a5 1f 4f bd
       -0.01315068 0.26963988 0.3709945 -0.050567288
000230 7b b8 11 3e 76 28 1f be e5 26 25 3e 2e dd 21 3c
       0.1423053 -0.15542778 0.16128118 0.0098793935
000240 06 c1 11 bd 9e 47 ff be a9 bc cc 3d f9 02 b3 bd
       -0.035584472 -0.49859327 0.099969216 -0.08740801
000250 9b 6b 1e 3e f1 7b 24 3d e6 e9 e1 bc a5 13 15 3d
       0.15470736 0.040157262 -0.027577352 0.036395688
000260 45 92 db 3c 63 24 85 3e 9c 41 24 bf 58 40 d1 be
       0.026803145 0.26004323 -0.6416261 -0.40869403
000270 45 f6 04 3f 40 19 de bb 07 a3 1b 3d 10 8e ec bd
       0.5193828 -0.0067779124 0.037997272 -0.11550534
000280 f6 ed 65 be df 91 24 3f 99 c3 3f be 75 3a f5 bd
       -0.22454056 0.6428508 -0.18726958 -0.119740404
000290 f3 b4 6e be b6 74 03 be ee 82 15 bd 3b d5 4e 3e
       -0.23311214 -0.1283749 -0.036501817 0.20198528
0002a0 12 85 00 3d 3c 18 ff 3d 72 c9 34 be 15 6c 45 3e
       0.031376906 0.12455794 -0.1765497 0.19279511
0002b0 04 41 bc 3d 3c 5d 06 3e d3 2c 03 3c 80 03 a0 3e
       0.09192088 0.13121504 0.008006292 0.3125267
0002c0 96 85 bb be ed 64 98 bd 07 9e d9 3d c1 71 4e bd
       -0.36625355 -0.07441125 0.106258444 -0.050401453
0002d0 e2 28 b0 3e f5 89 ab 3e 1a 41 b1 bd be 6f eb bc
       0.3440619 0.3350369 -0.08654995 -0.028739806
0002e0 0a 4d 0f 3d e6 46 b9 3d eb 84 fb 3c 67 dc ec 3d
       0.03498558 0.09046726 0.030703029 0.11565476
0002f0 70 fe 9f be aa 50 61 bf a0 d9 97 bd ee 76 72 3e
       -0.31248808 -0.8801371 -0.074145555 0.2367818
000300 0a e6 1b bf cb b8 ca 3e 5f 01 a9 3d 54 59 bf 3d
       -0.60897887 0.3959411 0.08252215 0.0934321
000310 56 6f a1 3e 9e 66 46 3e c9 be d2 3d 70 2b f4 bc
       0.31530255 0.19375083 0.10290296 -0.029805869
000320 c6 7c 86 3c a7 fc d3 bd ec 07 02 3e 56 d4 2a 3d
       0.016416918 -0.10350924 0.12698334 0.041706406
000330 6c 32 a3 3d 36 c0 0d be 80 b8 b5 be c1 1f c2 3f
       0.079686016 -0.13842854 -0.35492325 1.516594
000340 76 a9 43 3f ad 97 04 be 87 63 20 bf e6 e0 dc 3d
       0.7643045 -0.12948485 -0.62651867 0.107850835
000350 43 99 b5 bd 6c 02 ec be 46 4f b8 3d 44 66 24 3e
       -0.08867123 -0.46095598 0.08999495 0.16054636
000360 7c e1 3a 3e f6 c3 ad bd dd 92 3d 3e c9 d6 8b 3d
       0.18250078 -0.08484642 0.18513055 0.068280764
000370 44 72 54 3d 8a 99 25 bf 1d 6b 3e 3f 23 10 db 3e
       0.051866785 -0.64687407 0.7438219 0.4278575
000380 51 31 ed 3e d4 d6 01 3d 05 8e 04 3f 61 57 91 bd
       0.46326688 0.031699017 0.51779205 -0.07096744
000390 30 a0 f8 3d 4b 3a ab 3e 4f 1f 22 bf 2f 9a 0a be
       0.12139928 0.33442912 -0.63329023 -0.13535379
0003a0 aa 82 be 3b ff a2 98 3d 22 5f 92 bc 50 31 8d bd
       0.005813916 0.07452964 -0.017867628 -0.06894171
0003b0 4b 93 81 bc d0 fd 5e 3b 69 f6 82 3e 71 eb c0 3d
       -0.015817305 0.0034025796 0.2557862 0.09419907
0003c0 03 b7 07 bf ee f6 06 bf dd 6a dd 3e 42 24 7d bf
       -0.5301363 -0.52720535 0.43245593 -0.9888345
0003d0 02 cd 36 bf 30 65 d3 be a4 77 2c bf 78 24 94 3e
       -0.7140657 -0.41288137 -0.6737006 0.28934073
0003e0 e7 84 1a bf a3 33 8e be 39 b4 1a be 80 15 b9 bd
       -0.6035904 -0.2777377 -0.15107812 -0.09037304
0003f0 d9 73 43 bd b6 ea ae bc ce 30 96 3b cd f4 8e be
       -0.047717903 -0.021352153 0.0045834547 -0.27921143

layers.0.bias f4 [128]
000000 cb be 2b 3d 39 49 01 3f 44 1c 75 bd 8e c8 56 3f
       0.04193 0.50502354 -0.05984141 0.8389977
000010 b4 72 3e 3f 3c 46 78 be aa 75 79 bd 0d 07 3c 3e
       0.74393773 -0.24245542 -0.06090323 0.18362065
000020 aa 99 2f bf b6 35 fc 3d 48 9a bd 3e 1e 46 16 3f
       -0.6859385 0.12314932 0.3703177 0.5870074
000030 9d 4a c5 3e 30 46 dd 3d 51 f4 dc 3e 63 32 68 3e
       0.38533488 0.10804403 0.4315515 0.22675471
000040 3f b3 ff bd 65 09 eb 3c e2 56 28 3f e5 82 d5 bd
       -0.1248536 0.028691003 0.6575757 -0.10425357
000050 0d 58 66 3e 36 1b 61 3f c0 4d 9a be 85 59 64 3f
       0.22494526 0.87932146 -0.30137444 0.89199096
000060 b3 84 b2 be 68 d6 18 3f 42 5c fe 3e 2d a8 20 3f
       -0.34866866 0.5970216 0.49679762 0.62756616
000070 28 de f4 be a9 76 10 3f cd a2 58 3e af 2e 0b 3f
       -0.47825742 0.5643106 0.21155854 0.5436811
000080 ec 36 59 be 84 92 3a 3d 7b ab e4 bd 42 5b 01 bf
       -0.21212357 0.045549884 -0.1116552 -0.50529873
000090 12 4d 4e be e9 db 7f 3f 8f aa 2d be 75 d3 5c be
       -0.20146587 0.9994493 -0.16959594 -0.2156504
0000a0 40 ac 74 bd be a9 ca 3c 44 45 00 be fd 51 a3 3d
       -0.059734583 0.024739143 -0.12526423 0.079746224
0000b0 f1 82 03 be 93 c8 aa 3d 77 ca 32 3e a4 70 34 3f
       -0.12842919 0.08339038 0.17460047 0.70484376
0000c0 ac 90 b5 be b0 b5 57 3e 0d 59 9b be 33 43 2e 3f
       -0.35461938 0.21065402 -0.30341378 0.6807129
0000d0 2f c1 ee 3e cf cd 74 be 73 8e c2 3e 4a fc f8 be
       0.46631762 -0.23906635 0.37999305 -0.4862998
0000e0 0e 4d 35 3e 80 a7 41 be 37 5f c9 be ad 48 4b 3f
       0.17705175 -0.18911552 -0.39330456 0.7940777
0000f0 fd f7 36 3f 5f e1 08 3f 1f f0 06 be 94 77 de 3e
       0.7147215 0.5346889 -0.13177536 0.43450606
000100 8b 86 f8 be a1 df 4b 3e f4 6e 12 be 73 0c f1 bd
       -0.48540148 0.19909526 -0.14300138 -0.117699526
000110 a0 a9 34 be 40 78 14 3d 30 8f 1a 3e 3f f8 21 3f
       -0.17642832 0.03624749 0.15093684 0.6326942
000120 7c 1e 15 3f e3 73 05 bf 21 73 7a 3e 2e 1b 87 3e
       0.5824964 -0.52129954 0.2445798 0.26387924
000130 d4 a2 7f be b2 66 41 3e 28 75 01 3f 9f d0 48 3e
       -0.24964458 0.18886831 0.5056939 0.19610833
000140 0f 74 de 3e a9 fe b3 be e7 34 8c 3c b3 74 1e be
       0.4344792 -0.35155228 0.01711507 -0.15474205
000150 64 f1 01 3f e5 01 1f be a9 4e 33 3f 1f 07 85 3d
       0.5075896 -0.15528066 0.700419 0.06495499
000160 91 7a fc 3e 7e 24 1f 3d 47 b8 95 be b9 11 85 be
       0.4931226 0.03885316 -0.29242155 -0.25990084
000170 25 54 a1 be e6 d8 02 3d 2e b7 6a 3e 15 d2 d4 be
       -0.3150951 0.03194513 0.2292144 -0.4156653
000180 da 01 c6 bd e7 82 30 bf 28 72 b8 be 4d 7b d6 3e
       -0.09668322 -0.6894974 -0.36024594 0.41890946
000190 63 70 a1 3e 3b c2 4b bd 51 a0 de 3d 41 d7 17 be
       0.31531057 -0.04974578 0.10870422 -0.14828207
0001a0 a1 72 68 3f 9d cf 7c 3e 57 17 92 bd 7e c7 d5 3c
       0.9079991 0.24688573 -0.07133358 0.026096102
0001b0 d2 89 6c bd c8 4a d1 3e 7a ef e4 3d d6 8e 88 3f
       -0.057748623 0.40877366 0.11178489 1.066859
0001c0 52 98 78 3e 01 6f 0b 3f 05 c9 bd bd 4d aa 2b be
       0.24276856 0.54466254 -0.09266857 -0.16764183
0001d0 e0 9e 15 bf 6c 53 08 3f 23 b7 6b 3e 37 36 77 3e
       -0.5844555 0.5325229 0.2301908 0.24141775
0001e0 38 aa 89 3e 68 6c 91 3d c6 21 ac 3e 62 3d 66 3d
       0.2688768 0.07100755 0.33619517 0.056210883
0001f0 bf df 04 3e 6f ce 80 be 3d b3 09 be 11 3e 1a 3e
       0.12975977 -0.25157496 -0.1344728 0.15062739

layers.1.weight f4 [128, 128]
000000 7a 68 72 3e 04 a1 6c 3e b5 e5 62 3c 9d 4e fa 3d
       0.23672667 0.23108298 0.013848712 0.122220255
000010 6a a0 96 3e a4 ac 77 bd 58 2a 12 3c ce fe 37 be
       0.2941926 -0.060467377 0.008921228 -0.17968294
000020 4e 2c a9 bd 3a 76 df 3d e0 af 3d bd 3c f3 54 bd
       -0.082604036 0.10911222 -0.046310306 -0.05198978
000030 01 10 a3 3d b7 4b b2 bd 8b 28 3f bd e4 8f 29 bd
       0.07962037 -0.08705848 -0.046669524 -0.04139699
000040 6d 1b 73 be 7d 7d cd 3d f1 23 fe bd 95 67 b5 bc
       -0.23740931 0.100337006 -0.12409199 -0.022144118
000050 92 d4 9c bc ac 0e c0 3d 89 f5 93 be 75 d1 05 be
       -0.01914433 0.093777984 -0.28898266 -0.13068183
000060 a6 d7 78 bd c1 9e 90 bc 92 be ca 3e 1e 88 aa bd
       -0.060752533 -0.017653825 0.3959852 -0.083267435
000070 07 b2 83 3d a2 77 21 bd e1 71 74 bd 32 77 9c bd
       0.064304404 -0.03942073 -0.059678916 -0.07639922
000080 dd 6f e8 3d 24 4e 91 3b 61 31 f6 3d 69 5e 2b 3d
       0.11349461 0.004434364 0.12021137 0.041838083
000090 11 d3 32 bd 04 71 88 3e fb fc b1 3b bd cd 43 be
       -0.04365832 0.26648724 0.005431769 -0.19121452
0000a0 54 41 50 bc 22 87 6f 3d 40 1c 06 be cc 68 07 3e
       -0.012710888 0.058478482 -0.13096714 0.1322357
0000b0 b1 4b 8e bd 7c c2 d3 bd f6 4c 3c 3e e2 dd 3a bd
       -0.06948031 -0.10339829 0.18388733 -0.04562176
0000c0 63 d6 d1 3d 2d 2f 4c bb ab 17 3c 3c e1 c1 74 3c
       0.10245969 -0.0031156049 0.011480252 0.014938802
0000d0 fd 7e 42 be 27 9d 8f bc db c9 b1 3d 28 e1 cc 3a
       -0.18993755 -0.01753099 0.08681079 0.0015631067
0000e0 82 98 7f bb 17 0b 63 bd b2 7c 9f bd 0b 49 ef bd
       -0.0039000814 -0.055430498 -0.077874556 -0.11683854
0000f0 b8 da 6c bd c7 07 10 be ac 91 03 3d 23 1b 31 3e
       -0.057825774 -0.14065467 0.032121345 0.17295508
000100 ec 96 cd bd f0 27 c6 bd a9 a0 1b be 97 c2 a3 bc
       -0.10038552 -0.09675586 -0.15198006 -0.019990249
000110 e3 f1 21 3c 4d c2 b8 bd 9b b1 d1 39 fa 29 c1 3b
       0.00988433 -0.09021435 0.00039995913 0.0058948966
000120 e7 c2 bb 3d 79 21 ae 3e f4 4f ab 3b 4d d9 17 3d
       0.09168034 0.34009913 0.005228037 0.03707247
000130 84 09 fe 3c 5e 6a 87 3d 87 45 25 3e ac 1f 93 3e
       0.031010397 0.06612085 0.16139804 0.287351
000140 68 2f 51 bc fe b0 4d 3d 8d 5a 25 be 2c b8 57 bd
       -0.01276765 0.05021762 -0.16147824 -0.052665874
000150 ec a2 1e 3e 1d 2f 9c 3d aa 34 7a 3e f9 3e aa bd
       0.15491837 0.07626174 0.24434152 -0.08312792
000160 9a 76 6a 3c 47 d1 23 3c ab f2 e9 3c 50 ac 43 bb
       0.014310503 0.009998626 0.028558096 -0.0029857345
000170 4f 72 69 be be f1 9c 3d ad 94 01 3e 63 8c e0 3c
       -0.22797512 0.07663296 0.12654372 0.027410692
000180 51 95 d0 bd 13 b2 5d 3d e5 08 83 bd 06 ba 2f 3e
       -0.1018473 0.054124903 -0.06398181 0.17160806
000190 ba 1d 5e bd 5b 1f e4 bd 69 cb 1c 3e 9d e9 f4 bd
       -0.05422757 -0.11138793 0.1531197 -0.11958621
0001a0 25 e5 5b 3e c7 f8 00 3e 04 5d 13 3e ad 87 1b 3d
       0.2147413 0.12594901 0.14390951 0.037971187
0001b0 42 0e b1 3d 70 ab a7 3d b0 5c 2f be 88 42 55 3e
       0.086452976 0.08186996 -0.17125201 0.20826161
0001c0 88 3c ce 3d 57 36 bc 3e bf 2c 14 be bc df b1 3d
       0.10070139 0.36760208 -0.14470194 0.08685252
0001d0 c9 8f 66 bc 32 19 2a 3e 23 9f 0d 3e 04 37 88 3d
       -0.014072367 0.16611174 0.13830237 0.066511184
0001e0 73 14 0b bd 34 d3 ba 3d 08 91 72 3e 9b 90 5e bd
       -0.03395505 0.09122315 0.23688138 -0.054337125
0001f0 d7 08 ff bc a1 1a bd bc 3b a0 89 3d 59 19 11 bd
       -0.031132145 -0.023083987 0.06720015 -0.035424564
000200 b3 cf 0e 3e e6 6d 2f 3d 67 5e c0 bd 14 28 b6 bd
       0.13946418 0.042829417 -0.09393006 -0.08894363
000210 22 e1 b3 bc 1d a1 c8 bd d7 a2 2c 3d 16 a3 85 bd
       -0.021957938 -0.09796355 0.042147484 -0.06525247
000220 f0 74 10 be cf f3 37 3e f6 a0 31 bd 70 bc 3b 3d
       -0.14107108 0.179641 -0.043366395 0.045834005
000230 7e 2d 37 3e a6 a2 4d 3d 97 ff b0 bd f3 0a 99 3d
       0.17888448 0.05020394 -0.086425 0.074727915
000240 9b c8 c9 bc ba 33 42 3d c6 21 72 bd 0c 44 a3 3d
       -0.024631789 0.04741261 -0.05911424 0.07971963
000250 bb 31 92 bd 74 68 88 bd ba 4f d9 bd 87 77 ce bd
       -0.071383916 -0.06660548 -0.1061091 -0.10081392
000260 d5 72 9e 3d b4 39 00 3e 8a ea 88 bd ca 8f c3 3d
       0.07736746 0.12522012 -0.0668536 0.0954891
000270 45 7d 83 bd 95 96 d1 3d 2b 4a c4 bb 60 18 26 bd
       -0.06420378 0.10233799 -0.005990287 -0.04055059
000280 ca 4a 2f 3b 6c 1c b3 bd 6a 26 45 bd a6 6a 61 bd
       0.0026747459 -0.087456554 -0.048132338 -0.05503335
000290 f8 74 e7 3d 6f 70 6e bd b0 a5 1b 3d 6c c9 91 bd
       0.11301607 -0.058212694 0.03799981 -0.07118496
0002a0 f1 e9 b0 bc f7 fe 79 bd 3c 69 0b bd 9a e7 45 bd
       -0.021595927 -0.06103417 -0.034035906 -0.048316576
0002b0 f5 31 f2 bd b5 be 2b bd f0 1b f5 3c 94 2e 8a bc
       -0.11825935 -0.04192992 0.029920548 -0.016867913
0002c0 0c f1 17 3d 00 36 f3 3c 60 af bf 3d 60 fe 98 bd
       0.037095115 0.029688835 0.09359622 -0.07470393
0002d0 b3 8d 0a be 65 c8 7e bb 0e 23 a4 3d c9 d2 12 3e
       -0.13530616 -0.0038876769 0.08014499 0.1433822
0002e0 d8 e3 dc ba 44 55 53 be c2 56 59 bd 16 17 08 3b
       -0.0016852571 -0.20637995 -0.053061254 0.0020765713
0002f0 b9 24 0f 3c 2c 62 15 3e 31 98 16 3c bf a4 d7 3c
       0.008736783 0.14588231 0.009191559 0.026323674
000300 83 39 05 bd ee 87 c0 bd 35 87 78 3c cf e3 af bd
       -0.03252555 -0.094009265 0.015168955 -0.08588373
000310 50 45 0a 3e ad 9b 0c 3e 10 fd 57 3d e2 69 98 3b
       0.13503003 0.1373126 0.052731574 0.004651294
000320 2d c5 1d 3e 1f 1f 34 3d eb c6 11 be be 19 5d be
       0.15407248 0.043974992 -0.14236037 -0.21591851
000330 8d fe d7 bc 1c b6 eb 3d 7b f3 ee 3a 8e 7f 8a 3d
       -0.026366496 0.11509344 0.0018230522 0.067626104
000340 10 70 b4 bd 88 0e 09 3e 35 89 4d 3d 07 39 21 3e
       -0.08810437 0.1338445 0.05017968 0.1574441
000350 71 b0 a6 3d b2 bb 0b 3d 8b 0c ca 3c 55 52 35 3d
       0.08139122 0.034114547 0.024664184 0.04426797
000360 b4 98 f0 3d 9c 03 1b bd ee d5 7e 3d 68 b8 fa 3c
       0.11747876 -0.03784524 0.062215738 0.03060551
000370 d0 ba 47 3d 7e c0 e9 bc 0f 5e aa bd cf c8 3e 3e
       0.048762143 -0.02853417 -0.083187215 0.1863129
000380 e6 cc 2c 3d c2 f2 16 bb 9e 7d eb bd dd 74 06 3d
       0.042187594 -0.0023032879 -0.11498569 0.032826293
000390 75 ba 0a 3e a6 e0 8b be 08 ea 6d 3d 5c 1e a4 3d
       0.1354769 -0.2731983 0.058084518 0.08013603
0003a0 36 79 60 be fc fe cc 3d b7 72 ea 3d 80 f9 27 bc
       -0.21921238 0.10009572 0.11447661 -0.0102523565
0003b0 66 fc 88 3d e6 38 9c bb 3f 22 01 3d 5d 19 a8 bd
       0.06688766 -0.004767525 0.0315268 -0.08207963
0003c0 ed c4 8e 3d 20 57 2a be f1 5f 14 bd 3d fb f2 bd
       0.06971154 -0.16634798 -0.03622431 -0.11864326
0003d0 9e 8e 37 be 47 b2 65 bd 9e a9 0b 3e dd d0 8e 3c
       -0.17925498 -0.05607822 0.13638923 0.017433578
0003e0 19 25 16 be 7c 60 07 be 08 90 df 3c 58 a2 97 3d
       -0.14662589 -0.132204 0.02729036 0.074040115
0003f0 46 63 ad bc 9e f1 2e bc e7 10 5e 3d ae 39 17 bc
       -0.021165501 -0.010677723 0.054215338 -0.0092300605
