Gym-DDPG-solution/results/DDPG_HalfCheetah-v4_500-eps0.1-t32-l0.0001-s1.pth (torch, 193979 bytes, 13 tensors)

layers.0.weight f4 [128, 23]
0	0x3dc45be5	0.0958784
1	0xbd7c2a45	-0.06156375
2	0xbc35328a	-0.011059413
3	0x3d4bf579	0.049794648
4	0xbe3c3f22	-0.18383458
5	0x3e1ca0e5	0.15295751
6	0xbcd5b9e4	-0.026089616
7	0x3db0475b	0.0860736
8	0xbe3546a4	-0.17702729
9	0xba5befcb	-0.0008389919
10	0x3d4e1d74	0.050321057
11	0x3d5252c3	0.05134846
12	0x3d33bbe5	0.043880362
13	0xbd97d226	-0.074131295
14	0x3d24f738	0.04027483
15	0xbcd41259	-0.025887655
16	0x3b9f7042	0.004865677
17	0x3cd9daba	0.026593555
18	0x3e61519e	0.2200379
19	0x3dff6206	0.12469868
20	0xbdbf212c	-0.09332499
21	0xbe1ac6e5	-0.15114935
22	0xbc9a8738	-0.018863305
23	0xbd86c6e3	-0.065809034
24	0xbd97285e	-0.07380746
25	0x3deea0e1	0.11651779
26	0x3e77da61	0.24204399
27	0x3dec55e3	0.11539819
28	0xbe11ccc5	-0.1423827
29	0x3c7ef136	0.015560439
30	0x3d748c62	0.059704192
31	0x3e9a752e	0.30167526
32	0x3dfa141e	0.12210868
33	0xbe15aa78	-0.1461581
34	0xbdccc444	-0.09998372
35	0xbe1adb59	-0.15122737
36	0x3e25fa32	0.16208723
37	0xbd708b14	-0.058726385
38	0x3d8c66f8	0.06855577
39	0xbe0db5bd	-0.13838859
40	0x3eb169bc	0.3465098
41	0xbc58b73f	-0.013227283
42	0x3e133467	0.14375459
43	0x3d1d1dbb	0.03835843
44	0xbe28058b	-0.16408364
45	0x3e3fafad	0.18719359
46	0x3dc94521	0.098276384
47	0xbe1991e8	-0.14997065
48	0xbe96f5ab	-0.29484305
49	0x3d800282	0.06250478
50	0xbe879ba0	-0.2648592
51	0xbe9ebcf1	-0.31003526
52	0xbda7e0a9	-0.081971474
53	0xbdc43574	-0.09580508
54	0x3eae79d6	0.34077328
55	0x3e86f9fb	0.26362595
56	0xbcb20391	-0.021730216
57	0xbcd2c1e0	-0.025727212
58	0x3d22a341	0.039706472
59	0x3bf96991	0.0076114614
60	0xbe0083fd	-0.1255035
61	0x3de78fdd	0.113067366
62	0x3da282be	0.07935093
63	0x3e22e5dc	0.15907997
64	0x3c52db79	0.012869709
65	0xbe59fc88	-0.2128774
66	0xbcd434be	-0.025904056
67	0xbd19f7b3	-0.03758974
68	0xbdd37deb	-0.10326751
69	0xbdc2eea5	-0.09518174
70	0x3de423f0	0.11139667
71	0xbe1720db	-0.14758627
72	0x3de08634	0.10963097
73	0x3d0ed5f1	0.034872
74	0x3c7bb68c	0.015363347
75	0x3cb4b2fb	0.022058
76	0x3cee44ca	0.029085536
77	0x3d030d08	0.03199485
78	0xbe84e6b4	-0.25957263
79	0x3d2f1c32	0.0427515
80	0xbe828865	-0.25494686
81	0xbdf4be87	-0.11950403
82	0xbc32c72a	-0.010911742
83	0x3d4df26e	0.050280027
84	0x3d9c7d66	0.07641105
85	0xbd8628f6	-0.065507814
86	0xbe4daa47	-0.20084487
87	0x3e43b830	0.1911323
88	0x3d653095	0.055954535
89	0x3d7e8cca	0.062145986
90	0x3dc32eb5	0.09530393
91	0xbe2de19c	-0.16980594
92	0x3dfda7fb	0.12385555
93	0x3d8186f7	0.063245706
94	0xbe2e7ccf	-0.17039798
95	0xbde26d36	-0.110559866
96	0x3dcb4935	0.099260725
97	0x3d826ef8	0.06368822
98	0xbdc75088	-0.09732157
99	0xbdcdd0c8	-0.100495875
100	0x3e5b2ecc	0.2140457
101	0xbd37f8af	-0.044914898
102	0x3e283046	0.16424665
103	0x3dcb2d9d	0.099208094
104	0xbe192a2a	-0.1495749
105	0xbdd4a548	-0.103830874
106	0x3e27f9d5	0.16403897
107	0x3cafdd62	0.021467868
108	0x3da0144a	0.0781637
109	0x3cd06219	0.025437402
110	0x3cc58bcd	0.024114514
111	0x3e28fd90	0.16502976
112	0x3e5087a3	0.20364241
113	0xbddd317b	-0.10800453
114	0xbd3f1f8f	-0.046660956
115	0x3e0d3316	0.13789019
116	0x3e9fdade	0.3122167
117	0x3dc2804c	0.09497127
118	0xbe44f315	-0.19233353
119	0xbe02dffd	-0.12780757
120	0xbd3e1096	-0.046402536
121	0x3d78f0a3	0.060776364
122	0x3ea9aa7e	0.33137888
123	0x3cf6051b	0.030031731
124	0x3d5437cb	0.05181102
125	0xbdde7579	-0.1086225
126	0xbe3ed04a	-0.18634143
127	0xbdd7d557	-0.10538738
128	0x3def332a	0.11679681
129	0x3e122441	0.14271642
130	0xbdbe28d8	-0.09285134
131	0x3dbc7c0c	0.092033476
132	0x3e5e7d56	0.217275
133	0x3e0556db	0.13021414
134	0x3e49d918	0.19711721
135	0x3e821ef0	0.25414228
136	0x3e1191ba	0.14215747
137	0x3d7f0d71	0.062268678
138	0xbdb001fe	-0.0859413
139	0xbdca547e	-0.09879397
140	0xbe37c88d	-0.17947598
141	0x3d2f8caa	0.042858757
142	0xbe4c3009	-0.19940199
143	0x3cfab2fa	0.03060292
144	0x3d5a2669	0.053259287
145	0xbdd0abb0	-0.10188997
146	0x3e21ed4a	0.15813175
147	0x3e0e9223	0.13922934
148	0x3d44b4b4	0.048023894
149	0x3e2f48fd	0.17117687
150	0xbd025d83	-0.03182746
151	0x3e956ed3	0.29186115
152	0xbdc0e7d5	-0.094192185
153	0xbcdd9c53	-0.02705208
154	0xbddc37dd	-0.107528426
155	0xbe198679	-0.14992703
156	0xbe02882d	-0.1274726
157	0xbe2ab4aa	-0.1667048
158	0x3d9b26ad	0.07575736
159	0xbd3ddc45	-0.046352644
160	0xbe0051aa	-0.12531152
161	0x3df0e2e0	0.11762023
162	0x3e0c6293	0.13709478
163	0x3e3fd10a	0.18732086
164	0xbdcf5692	-0.10123934
165	0x3de7de2e	0.11321674
166	0xbd49257e	-0.04910802
167	0xbd7763e1	-0.060397986
168	0xbe150743	-0.14553551
169	0xbe8eaae8	-0.27864766
170	0xbdf31fda	-0.118713096
171	0x3e6b350d	0.22969456
172	0xba9a4cc3	-0.0011772144
173	0x3c946ee3	0.018119281
174	0x3e884356	0.26613873
175	0x3e0ce0d4	0.1375764
176	0x3decb895	0.11558644
177	0x3d166552	0.03671772
178	0xbdfed347	-0.12442642
179	0x3e82ffed	0.2558588
180	0xbd259141	-0.040421728
181	0xbd3cc84f	-0.046089467
182	0xbe7c705a	-0.24652234
183	0xbd082c74	-0.03324552
184	0xbe4bd9e1	-0.19907333
185	0x3e7a7e9a	0.24462357
186	0xbe801227	-0.2501385
187	0xbdbcae9f	-0.09212994
188	0xbd524380	-0.051333904
189	0xbe52e413	-0.20594816
190	0x3d6a3f47	0.057189252
191	0xbdfc528f	-0.12320434
192	0xbd117364	-0.035510436
193	0x3d3a3ae7	0.04546633
194	0x3ddb80dc	0.10717937
195	0xbe1f7f25	-0.15575846
196	0x3de3a6a6	0.1111577
197	0x3db47f40	0.088133335
198	0x3e3e613f	0.18591784
199	0xbe3a6a2f	-0.18204568
200	0x3bf6f707	0.007536772
201	0xbe4b2bd7	-0.19840942
202	0x3e4fb0b2	0.20282248
203	0xbdf8b6a3	-0.1214421
204	0x3c9e2281	0.019303562
205	0x3cc0acd1	0.023519905
206	0xbd637a0c	-0.055536315
207	0xbe327617	-0.1742786
208	0x3e348aa6	0.17631015
209	0x3d9d6823	0.07685878
210	0xbd9e0909	-0.07716567
211	0x3dafff36	0.085935995
212	0xbe0d14bc	-0.13777441
213	0x3e451706	0.19247064
214	0x3e3c42a5	0.18384798
215	0x3eb6305b	0.35583767
216	0x3e704b6e	0.23466274
217	0xbd8a3442	-0.06748249
218	0xbdfa4361	-0.12219883
219	0x3e11e042	0.14245704
220	0xbe381c0c	-0.17979449
221	0x3e06d629	0.13167633
222	0xbe1491f9	-0.14508809
223	0xbe340088	-0.17578328
224	0x3e3a9d57	0.18224083
225	0xbe177e1c	-0.147942
226	0x3d88e004	0.066833526
227	0x3e08d8bc	0.13363928
228	0x3e7e323d	0.24823852
229	0x3e5d2ed9	0.21599902
230	0x3d9408e8	0.07228261
231	0xbeb25a4a	-0.3483451
232	0x3dc2c444	0.09510091
233	0x3c97973e	0.018504735
234	0xbdaa850b	-0.08326157
235	0x3dc8ebe6	0.09810619
236	0xbe05d3d6	-0.1306909
237	0x3e0e1d96	0.13878474
238	0x3e448734	0.19192201
239	0xbe4c1a3f	-0.19931887
240	0xbdfe6683	-0.12421896
241	0xbd94a327	-0.07257681
242	0x3d88e32e	0.06683956
243	0x3ba2d4e5	0.0049692267
244	0xbd17a66f	-0.037023958
245	0xbcc233d6	-0.023706358
246	0xbdacc775	-0.08436481
247	0xbe2e8518	-0.17042959
248	0xbd2556c0	-0.040365934
249	0x3e0b2cdf	0.13591336
250	0x3e4b5878	0.19857967
251	0xbdc259bf	-0.09489774
252	0x3caf6564	0.021410652
253	0x3e7ce0c6	0.2469512
254	0xbd87abf1	-0.06624592
255	0xbda1eb94	-0.07906261

layers.0.bias f4 [128]
0	0xbd38ce1e	-0.045118444
1	0xbe175772	-0.14779451
2	0xbe9e84d5	-0.30960718
3	0x3b0b4780	0.0021252334
4	0xbe280370	-0.16407561
5	0x3d650db6	0.05592128
6	0xbe0a4777	-0.13503824
7	0xbe5aea88	-0.21378529
8	0x3e4649ec	0.19364136
9	0x3e06031b	0.13087122
10	0xbe725990	-0.23666978
11	0xbe9a65e8	-0.30155873
12	0xbe2aa91f	-0.16666077
13	0xbe5c82b2	-0.21534231
14	0xbce12223	-0.027482098
15	0x3e0a9c1c	0.13536114
16	0x3d279f60	0.040923476
17	0xbe3e8bf7	-0.1860808
18	0xbe1ac0a5	-0.1511255
19	0xbdda63b1	-0.10663546
20	0x3e69fd1e	0.22850463
21	0x3d6f7e74	0.058470204
22	0xbe35a4bc	-0.17738622
23	0xbe17b443	-0.14814858
24	0xbdbd9386	-0.092566535
25	0x3d6102e9	0.054934416
26	0x3e10e602	0.14150241
27	0x3b3aa12d	0.0028477416
28	0x3e564bd4	0.20927364
29	0xbd46becd	-0.048521806
30	0x3e136ced	0.1439702
31	0xbe0f78f4	-0.14010984
32	0x3d81ad12	0.06331839
33	0xbe1c7223	-0.15277915
34	0xbe2e0956	-0.16995749
35	0x3dd50632	0.10401572
36	0xbe406860	-0.18789816
37	0xbd82d1bc	-0.0638766
38	0x3cac90ad	0.02106508
39	0xbe874781	-0.2642174
40	0xbce465d3	-0.027880585
41	0xbe18b061	-0.14911033
42	0x3c5d25c7	0.013497776
43	0xbdd83922	-0.10557772
44	0xbcd8e3c7	-0.0264758
45	0xbe3889da	-0.18021336
46	0xbdd33526	-0.10312872
47	0xbe6da3b9	-0.23206986
48	0x3e3d5823	0.18490653
49	0x3e68f652	0.22750214
50	0xbe827438	-0.25479293
51	0xbe271421	-0.16316272
52	0x3ea69420	0.32534885
53	0x3e6fd2ee	0.23420307
54	0x3dacc09c	0.08435175
55	0xbe1e87b6	-0.15481457
56	0x3d617157	0.05503973
57	0xbd91a180	-0.07110882
58	0x3dc43868	0.09581071
59	0x3e5d3417	0.21601902
60	0xbcbcfd66	-0.023070049
61	0x3de6b448	0.11264855
62	0xbe64644f	-0.2230389
63	0x3d029974	0.031884626
64	0xbe32d739	-0.17464913
65	0x3e79b185	0.24384125
66	0xbe1c69a9	-0.15274681
67	0xbde0f613	-0.10984435
68	0xbe2c5e81	-0.16832925
69	0xbe200b6f	-0.15629362
70	0x3d9d1994	0.07670894
71	0xbda6ed96	-0.08150785
72	0x3e0fc952	0.14041641
73	0xbe8a6235	-0.2702805
74	0x3c024e84	0.00795329
75	0xbd82b23c	-0.06381652
76	0xbe12d407	-0.14338695
77	0xbe220adb	-0.15824454
78	0x3cc11e92	0.023574147
79	0x3e348ca1	0.1763177
80	0xbdf71589	-0.120646544
81	0xbd81824d	-0.06323681
82	0x3d07eb67	0.03318348
83	0xbd9a17e7	-0.0752409
84	0xbe3cee06	-0.18450174
85	0xbda7e2b0	-0.08197534
86	0xbdf261ba	-0.11835046
87	0x3e5c07fd	0.21487422
88	0x3df4027f	0.119145386
89	0xbe5d495f	-0.2161002
90	0x3d88f94a	0.06688173
91	0xbe3c9912	-0.18417767
92	0xbc741c68	-0.014899351
93	0xbe5d7710	-0.2162745
94	0xbd1c0d06	-0.038098358
95	0xbd9d3884	-0.07676795
96	0xbe7678ca	-0.24069515
97	0x3e7bbb21	0.24583103
98	0xbbcda00e	-0.0062751835
99	0x3e384c7c	0.17997926
100	0x3c589289	0.01321853
101	0x3dbae75a	0.09126158
102	0xbe35f8f8	-0.17770755
103	0x3e50610d	0.20349522
104	0x3e5d6150	0.21619153
105	0xbca5e10e	-0.020248916
106	0xbd982d5c	-0.074305266
107	0x3e35bd7d	0.17748065
108	0xbd5c6b94	-0.053813532
109	0xbe7257bc	-0.2366628
110	0x3e455436	0.19270405
111	0x3e8fe87c	0.2810706
112	0x3e8074ba	0.25089055
113	0x3e2b6975	0.16739447
114	0x3e65e70c	0.22451419
115	0xbe97847c	-0.29593265
116	0x3defa33a	0.11701055
117	0x3e874709	0.26421383
118	0xbdc877f1	-0.09788502
119	0x3df0198f	0.11723625
120	0xbca3ca05	-0.019993791
121	0x3d21373c	0.039359316
122	0x3db7b65c	0.08970329
123	0x3d3993c8	0.04530695
124	0xbd9e1250	-0.077183366
125	0xbe21d387	-0.15803348
126	0x3d8f3e6a	0.069943264
127	0xbdc8a752	-0.09797539

layers.1.weight f4 [128, 128]
0	0x3d932c28	0.071861565
1	0xbdda1f50	-0.10650504
2	0xbd965991	-0.07341302
3	0x3d0ebeae	0.034849815
4	0x3aebc5af	0.0017987991
5	0x3d8dbef6	0.069211885
6	0x3d3d523f	0.046221014
7	0xbb76c746	-0.0037655397
8	0x3d4ff03c	0.050766215
9	0x3d85c115	0.06530968
10	0xbe0f6209	-0.14002241
11	0xbd9d5d4b	-0.0768381
12	0x3d586ec0	0.052839994
13	0xbd7cff1e	-0.061766736
14	0x3db29fbf	0.087218754
15	0x3d38bc90	0.045101702
16	0x3d5f4091	0.054504935
17	0xbd8fd7f5	-0.070236124
18	0xbda61b96	-0.0811073
19	0x3c91ce8a	0.01779868
20	0xbdbb1799	-0.0913536
21	0x3c8b30de	0.016991075
22	0x3ce772b0	0.02825293
23	0x3d36b683	0.04460765
24	0x3dd5538a	0.104163244
25	0xbdc88574	-0.09791079
26	0xbe28cae6	-0.1648365
27	0x3d50bbc4	0.050960317
28	0xbd79b496	-0.060963236
29	0xbd5b4e63	-0.053541552
30	0xbcd4b943	-0.025967246
31	0x3d9bdb8f	0.07610237
32	0xbb98e07c	-0.0046654325
33	0x3c2812de	0.010258405
34	0x3e1bd45c	0.15217727
35	0xbd135a44	-0.035974756
36	0x3ddeda2e	0.10881458
37	0x3cfe83e9	0.031068759
38	0xbd543433	-0.051807594
39	0xbb2faa4c	-0.0026804386
40	0x3daf6f39	0.08566136
41	0x3d41d8f2	0.047326036
42	0xb9ca3879	-0.00038570518
43	0x3ca55d90	0.020186216
44	0xbd27f8ea	-0.041008867
45	0x3bb31afb	0.005465863
46	0x3dbb3506	0.09140973
47	0x3c2ebc58	0.010665022
48	0xbd68146f	-0.056660112
49	0x3a282371	0.00064139726
50	0xbdf54052	-0.11975159
51	0xbd10cb72	-0.03535027
52	0xbcda6df7	-0.026663763
53	0xbd949956	-0.07255809
54	0xbdba18a2	-0.090867296
55	0xbd66d4f2	-0.056355424
56	0xbc230e24	-0.009952102
57	0x3d80bbd9	0.06285829
58	0x3c95e7c9	0.018299
59	0xbd75e896	-0.060036264
60	0xbcf15344	-0.02945865
61	0x3d6b22b2	0.057406135
62	0x3de99796	0.11405866
63	0x3cb3b14a	0.021935124
64	0x3dc57b0f	0.09642612
65	0xbce1aed0	-0.027549177
66	0x3d53bfb0	0.05169648
67	0xbd73c2f5	-0.059512097
68	0x3bc0a04e	0.005878485
69	0xbd176bdd	-0.0369681
70	0x3c5f2f71	0.013622151
71	0x3dc885c5	0.097911395
72	0x3c3d2698	0.011544846
73	0xbc7d95cf	-0.015477612
74	0xbd3145ae	-0.043279342
75	0xbd3ba3f0	-0.04581064
76	0xbcbcf3b7	-0.023065431
77	0xbe03d05c	-0.12872452
78	0x3d042d7c	0.03226994
79	0x3d725815	0.059166033
80	0x3c47f0b5	0.012203385
81	0x3ca47155	0.020073572
82	0x3c3c2a46	0.011484688
83	0x3dfd967c	0.12382218
84	0x3dd65ec0	0.10467291
85	0x3dc1c775	0.094618715
86	0x3cab07ae	0.020877685
87	0xbd9032ef	-0.07040965
88	0xbdc570f0	-0.09640682
89	0xbb00d28e	-0.001965675
90	0x3ced06ee	0.028933968
91	0x3d9f1de7	0.07769375
92	0xbd31e622	-0.043432362
93	0xbd352b73	-0.04423089
94	0x3d96a81e	0.073562846
95	0x3d5209d8	0.05127892
96	0xbdbd37b3	-0.092391394
97	0xbd0f527e	-0.03499078
98	0x3d86af53	0.06576409
99	0x3c9f60bb	0.019455304
100	0xbd6f5456	-0.05843004
101	0x3d734193	0.05938871
102	0xbdabda2a	-0.08391221
103	0x3ce46999	0.027882384
104	0xbd3d57ec	-0.046226427
105	0x3d0717a8	0.032981545
106	0x3cb7c05c	0.022430591
107	0x3d762c64	0.060100928
108	0xbdc48b22	-0.0959685
109	0xbc550738	-0.013002209
110	0xbd3727ef	-0.044715818
111	0xbdd2d7ad	-0.10295043
112	0x3d817523	0.0632117
113	0xbc87a965	-0.016560266
114	0xbd5472c1	-0.05186725
115	0x3cd00c74	0.025396563
116	0xbd34526c	-0.044023916
117	0x3c981fc1	0.018569829
118	0xbd1c37ab	-0.038139027
119	0x3de7ff02	0.11327936
120	0x3dabfa0a	0.083973005
121	0x3b3542bf	0.0027658192
122	0xbd3e4b58	-0.046458572
123	0x3d47b966	0.048760794
124	0xbd5bd0b8	-0.053665847
125	0x3dee0364	0.116217405
126	0x3d77d371	0.06050438
127	0x3d3a617d	0.04550313
128	0xbd1a5c68	-0.03768578
129	0x3d8ca1ca	0.06866796
130	0x3d5937d7	0.05303177
131	0xbcf072bb	-0.029351583
132	0xbd56a2b4	-0.05240126
133	0xbcf2416e	-0.029572215
134	0x3d8f9e9d	0.07012675
135	0x3d93ac43	0.07210591
136	0xbdc1b28b	-0.094578825
137	0x3dadd372	0.084875956
138	0xbd9f131c	-0.07767317
139	0x3d2891c1	0.041154627
140	0xbd4552b7	-0.048174586
141	0xbcc20ed9	-0.02368872
142	0xbd2b39c6	-0.041803144
143	0x3cc63f68	0.024200156
144	0xbd81a151	-0.06329597
145	0xbd01c806	-0.031684898
146	0x3de27f0c	0.110593885
147	0x3b324509	0.0027201793
148	0xbc6fbb65	-0.014632081
149	0x3d04162c	0.032247707
150	0xbdd01544	-0.10160306
151	0xbc128a87	-0.00894416
152	0x3d840a1b	0.0644724
153	0x398fae28	0.00027404842
154	0xbceb5f6d	-0.028732026
155	0xbc4842b2	-0.012222933
156	0xbc1d9642	-0.009618344
157	0xbd01abb5	-0.031657893
158	0x3c36d5e0	0.01115939
159	0x3dbea602	0.09309007
160	0x3dc60271	0.096684344
161	0xbcb1e861	-0.021717252
162	0x3d3197e0	0.04335773
163	0xbdb6c616	-0.08924501
164	0x3c02e73c	0.007989701
165	0x3da19af9	0.07890887
166	0x3c85df39	0.016341792
167	0xbda9bb5a	-0.082876876
168	0xbc362002	-0.01111603
169	0x3d051986	0.032495044
170	0xbb9c17d5	-0.004763583
171	0x3d383d66	0.04498043
172	0xbdbbc717	-0.09168833
173	0x3d81b99f	0.063342325
174	0xbdd5fb89	-0.10448367
175	0x3cbe0bac	0.023198925
176	0xbd34194f	-0.04396945
177	0xbc9f4a49	-0.019444602
178	0xbca580e7	-0.020203067
179	0x3ba44cc9	0.0050140363
180	0x3c1e4f79	0.009662502
181	0xbd97041c	-0.07373831
182	0xbd29a763	-0.041419398
183	0x3d2b39f8	0.04180333
184	0xbb3ff6b3	-0.0029291331
185	0x3b160f82	0.0022897427
186	0xbd250824	-0.040290967
187	0x3d87e66c	0.06635746
188	0x3baf966e	0.005358509
189	0xbc853f87	-0.016265644
190	0xbd0f6200	-0.03500557
191	0x3c353e96	0.011062285
192	0x3cf4f031	0.029899688
193	0xbda49f6e	-0.08038221
194	0xbd10202d	-0.035186935
195	0x3bb29800	0.0054502487
196	0x3d845cfd	0.064630486
197	0xbd2094aa	-0.039204277
198	0xbd57a137	-0.05264398
199	0xbd94b265	-0.072605886
200	0xbca7c26c	-0.02047845
201	0xbe23f4a8	-0.16011298
202	0x3d41f265	0.047350306
203	0x3d8fd449	0.07022912
204	0x3c814054	0.015777744
205	0xbd9b7443	-0.075905345
206	0xbd46844e	-0.04846602
207	0x3d5f5b18	0.054530233
208	0x3c960417	0.018312497
209	0x3d5afb95	0.053462584
210	0x3d0d9437	0.034565177
211	0xbcc45241	-0.023965003
212	0x3d1bc70a	0.038031615
213	0x3dcc2f9c	0.09970018
214	0x3d77659a	0.06039963
215	0x3bf5d8fe	0.007502674
216	0x3ce5a44c	0.028032444
217	0x3d21198e	0.03933101
218	0xbd8d3aba	-0.06895967
219	0xbc564302	-0.013077499
220	0xbd67c31a	-0.056582548
221	0x3c0ff535	0.008786489
222	0xbdb5e3f1	-0.08881367
223	0xbd649724	-0.0558082
224	0x3a1e7634	0.00060448353
225	0xbcd91b95	-0.02650241
226	0xbdaf0975	-0.08546726
227	0x3d8840e5	0.06653003
228	0xbcd0ab85	-0.025472412
229	0x3c50c6dd	0.012742725
230	0xbd36d04d	-0.044632245
231	0x3db3e3bb	0.087836705
232	0x3d0e6058	0.03475985
233	0xbd1f8de1	-0.038953666
234	0xbb9501d4	-0.004547337
235	0xbce8a75a	-0.028400112
236	0x3c7c4bb0	0.015398905
237	0x3cd06c61	0.025442304
238	0xbd64f589	-0.055898223
239	0x3bd5f182	0.006529034
240	0x3d075148	0.0330365
241	0xbd62854b	-0.0553029
242	0x3d10b499	0.03532848
243	0x3d4f7bfd	0.050655354
244	0xbd41fb46	-0.047358774
245	0x3dafb39d	0.085791804
246	0xbda83a9b	-0.08214303
247	0xbbac1be0	-0.0052523464
248	0x3c08d832	0.008352326
249	0xbc64702d	-0.01394276
250	0xbd428984	-0.047494426
251	0xbd3ca006	-0.046051048
252	0xbd13257f	-0.03592443
253	0xbd34b8f7	-0.04412171
254	0xbcd7a84d	-0.02632537
255	0x3d11cfbe	0.03559851

layers.1.bias f4 [128]
0	0xbc7903da	-0.015198672
1	0xbd26d6ed	-0.040732313
2	0xbd3d4c88	-0.046215564
3	0xbcddcc63	-0.027074998
4	0x3d23e0c9	0.040009294
5	0xbd9db487	-0.077004485
6	0x3e03f487	0.12886249
7	0x3d81bede	0.06335233
8	0xbde3f844	-0.11131337
9	0xbe0ad03b	-0.13555996
10	0x3dd79c47	0.105278544
11	0xbdc924d7	-0.0982148
12	0xbd497b42	-0.049189813
13	0xbb5331f0	-0.003222581
14	0x3e09edaa	0.13469568
15	0xbb02a5b3	-0.001993519
16	0xbd5570ca	-0.052109517
17	0x3cbe79b0	0.023251384
18	0x3b0b2165	0.0021229621
19	0xbb72fb30	-0.003707599
20	0x3d9e1375	0.07718555
21	0xbdf2a399	-0.1184761
22	0xbd0678a9	-0.032829914
23	0x3cd77053	0.026298678
24	0x3e241496	0.16023478
25	0xbb57a6cf	-0.0032905822
26	0xbd3f8619	-0.046758745
27	0xbe0d06a8	-0.1377207
28	0xbdc50bea	-0.09621413
29	0xbd4e68a7	-0.050392773
30	0x3d6b1b0c	0.05739884
31	0xbc278ee4	-0.010226939
32	0xbcccb199	-0.024987029
33	0x3dc2f1bb	0.09518763
34	0x3deff303	0.11716273
35	0xba59affc	-0.0008304117
36	0x3e0cb646	0.13741407
37	0xbe16097a	-0.14652053
38	0x3ca5d8c1	0.020244958
39	0x3de6235c	0.11237213
40	0xbd4b11cf	-0.04957753
41	0x3cff401f	0.031158505
42	0x3dc91846	0.09819083
43	0xbcf9a28c	-0.030473016
44	0xbddbb655	-0.107281365
45	0x3d2ce17c	0.042207226
46	0xbd14278f	-0.03617054
47	0xbd7b50d8	-0.061356395
48	0xbdf3ca87	-0.119038634
49	0xbc7ec8aa	-0.015550772
50	0x3d0d7688	0.03453687
51	0xbd52858a	-0.051396884
52	0xbd5048ad	-0.05085056
53	0xbdb887a3	-0.09010246
54	0x3ca34803	0.019931799
55	0xbb892e6c	-0.004186442
56	0x3e0719c1	0.13193418
57	0xbc4ec778	-0.012620799
58	0x3d9a9ae9	0.07549078
59	0xbe0ab726	-0.13546428
60	0xbe13e121	-0.14441349
61	0x3d94ea5b	0.07271262
62	0xbdabcb4b	-0.083883844
63	0xbdf02754	-0.11726251
64	0xbe12e1f5	-0.14344008
65	0xbcd795fc	-0.026316635
66	0x3df3476c	0.11878857
67	0x3cf9c859	0.030491041
68	0xbd75c95a	-0.060006477
69	0xbd9457cc	-0.072433084
70	0xbd97ea37	-0.0741772
71	0xbd4daa7e	-0.050211422
72	0x3c34d4ac	0.011037033
73	0x3db24361	0.08704258
74	0x3d001df2	0.031278558
75	0xbdab1716	-0.08354013
76	0xbe1e0ba2	-0.15434125
77	0x3e020089	0.12695517
78	0xbc4ce1fc	-0.012505051
79	0xbe289899	-0.16464461
80	0x3cd249d4	0.02566997
81	0x3d625721	0.055258874
82	0x3df8b3e7	0.12143689
83	0x3e038be2	0.1284633
84	0x3d0beda0	0.034162164
85	0x3d398997	0.04529723
86	0xbd97771d	-0.07395766
87	0xbc95ee59	-0.01830213
88	0xbd48fdd0	-0.04907018
89	0x3d540210	0.05175978
90	0xbd483426	-0.048877858
91	0x3de5c039	0.11218304
92	0x3d0c02a3	0.034182202
93	0x3ca5b7c5	0.02022923
94	0xbdbe7837	-0.09300273
95	0x3d1db0d4	0.038498715
96	0x3d5f76e8	0.054556757
97	0x3b06c247	0.0020562576
98	0xbe0a826b	-0.13526313
99	0xbd193650	-0.037405312
100	0xbd9d30dc	-0.07675335
101	0xbd61f990	-0.055169642
102	0xbca9f3f7	-0.020746214
103	0xbdfa9396	-0.12235181
104	0x3d6d29d4	0.05790122
105	0xbddf6fc8	-0.109099925
106	0xbdd0da51	-0.101978905
107	0xbd78339a	-0.060596086
108	0x3cebf49e	0.028803166
109	0xbd0f99df	-0.035058852
110	0x3d72fd45	0.059323568
111	0xbd7714c2	-0.06032253
112	0xbda392c0	-0.07986975
113	0xbbe6642a	-0.0070309835
114	0x3e08bdde	0.13353679
115	0xbd0a491c	-0.03376113
116	0xbcf1a036	-0.02949534
117	0xbd21f6c3	-0.03954197
118	0xbe09baa5	-0.13450105
119	0x3c706455	0.0146723585
120	0xbd67a917	-0.05655774
121	0x3d501159	0.050797794
122	0x3ddc532e	0.10758053
123	0x3cbf1644	0.023326047
124	0xbdbac82f	-0.09120213
125	0xbdf15db7	-0.11785453
126	0x3ccd2a54	0.025044598
127	0xbbc5f68b	-0.006041353

layers.2.weight f4 [64, 128]
0	0x3de939cd	0.11387978
1	0xbd9bd660	-0.07609248
2	0xbd718764	-0.05896701
3	0x3d93315a	0.071871474
4	0xbd8d1126	-0.068880364
5	0xbd469d94	-0.048490122
6	0x3dba7db1	0.09106005
7	0x3d776050	0.060394585
8	0x3d80a72d	0.06281886
9	0x3d958af2	0.07301892
10	0x3daa7671	0.08323372
11	0x3ca52289	0.02015807
12	0xbd7a4a65	-0.061106104
13	0x3ca23c36	0.019804101
14	0x3d8ba79c	0.06819078
15	0xbca00803	-0.01953507
16	0x3dd2939a	0.10282059
17	0x3d871892	0.06596483
18	0x3d0bde74	0.034147695
19	0x3cc84a37	0.02444945
20	0x3c031244	0.00799996
21	0x3d977e58	0.07397145
22	0x3c691c9c	0.014228012
23	0x3d215959	0.03939185
24	0x3ccbbc0f	0.024869947
25	0xbdc8dfe6	-0.0980833
26	0xbd55ea91	-0.052225653
27	0x3c81725d	0.015801603
28	0xbd3d2991	-0.04618222
29	0xbcefae40	-0.029257894
30	0x3c6218ef	0.01379989
31	0xbd36f130	-0.044663608
32	0xbd9ad9cc	-0.07561073
33	0x3d8ecf15	0.069730915
34	0x3c209ffb	0.009803767
35	0xbde40815	-0.11134354
36	0x3dbd3187	0.09237962
37	0xbd7c189c	-0.061546907
38	0x3d87d8e4	0.066331655
39	0x3dbc5c75	0.09197322
40	0xbdd6e27d	-0.10492418
41	0x3e14d90f	0.14535926
42	0x3c17d1e6	0.009266352
43	0xbd192c64	-0.03739585
44	0xbb7e110b	-0.0038767483
45	0x3d704360	0.058658004
46	0x3ca3e4e3	0.020006603
47	0x3dcb2b67	0.09920388
48	0xbdc3973f	-0.09550332
49	0xbc9c5f85	-0.019088516
50	0x3d58aa01	0.052896503
51	0x3df45433	0.11930122
52	0xbce4d6fd	-0.027934546
53	0xbd1eeb95	-0.038798887
54	0x3dc39fe6	0.095519826
55	0x3d89aac3	0.06722023
56	0x3aca6e7f	0.0015444307
57	0xbcce5e61	-0.025191488
58	0x3d998acd	0.07497177
59	0xbd407719	-0.04698858
60	0xbd27a564	-0.040929213
61	0xbd5aa819	-0.053382967
62	0xbd8fbad0	-0.070180535
63	0xbd4f9e1e	-0.0506879
64	0x3d9abe04	0.07555774
65	0xbdbc8f7f	-0.09207057
66	0x3df14aa1	0.117818125
67	0x3cf34715	0.02969698
68	0xbc4de420	-0.012566596
69	0xbdbc3d17	-0.091913395
70	0xbc6fb809	-0.01463128
71	0x3d4f2fdb	0.050582748
72	0x3d11392e	0.03545492
73	0xbd958950	-0.07301581
74	0x3de24381	0.110480316
75	0xbd012dde	-0.031537883
76	0x3be6a761	0.007038996
77	0xbd4fa8d7	-0.050698128
78	0x3dc692bb	0.09695955
79	0xbd6b26e8	-0.05741015
80	0x3db5bce6	0.0887392
81	0x3c4c77c2	0.012479724
82	0x3d7bfc06	0.061519645
83	0x3cca1100	0.02466631
84	0x3d19b225	0.037523407
85	0xbcc021ff	-0.02345371
86	0xbda4a9ac	-0.08040175
87	0x3cce7c1b	0.025205662
88	0xbc01884c	-0.007906031
89	0xbcffac62	-0.031210128
90	0x3de4a18f	0.11163627
91	0x3d379e1b	0.044828515
92	0x3d8c6c9f	0.06856655
93	0x3de09182	0.109652534
94	0xbdbc8838	-0.09205669
95	0x3d8e1e07	0.06939321
96	0xbc60c6a7	-0.013719237
97	0x3d4890d3	0.04896624
98	0x3c07db25	0.008291994
99	0x3da27fe2	0.07934548
100	0xbdaaa20b	-0.083316885
101	0x3d52e53f	0.051488157
102	0x3d6e9fe4	0.058257952
103	0xbca109b4	-0.019657947
104	0x3ce1553e	0.027506467
105	0xbbbd192e	-0.005770824
106	0xbde185b3	-0.11011829
107	0xbce1d07f	-0.027565239
108	0x3cd08629	0.025454598
109	0x3c89bb5b	0.01681297
110	0xbd65cea5	-0.056105275
111	0x3d3002c8	0.042971402
112	0xbcc460c4	-0.023971923
113	0xbd6e518c	-0.058183238
114	0xbd34f42e	-0.04417818
115	0xbd79c027	-0.060974266
116	0x3d598648	0.053106576
117	0x3d7052b0	0.058672607
118	0xbe07e433	-0.13270645
119	0x3d068916	0.03284558
120	0xbd2853b0	-0.041095436
121	0x3dc1af45	0.09457258
122	0x3caf980d	0.021434808
123	0x3cf8e462	0.030382339
124	0x3da6e6ce	0.08149491
125	0xbd9d4943	-0.07679989
126	0x3da48f24	0.080351144
127	0x3c62f55a	0.013852442
128	0xbd1b3353	-0.037890743
129	0xbd49710b	-0.04918007
130	0x3d153f24	0.03643717
131	0x3e07a309	0.13245787
132	0x3d826858	0.06367558
133	0xbcebcaf5	-0.0287833
134	0xbc4145b5	-0.011796405
135	0xbc5a5bf7	-0.01332759
136	0xbca4455b	-0.020052603
137	0xbd1e28b2	-0.03861303
138	0xbd8ed128	-0.06973487
139	0xbdd27ca2	-0.10277678
140	0xbdac292c	-0.084062904
141	0xbd340e7e	-0.043959133
142	0xbc8b34e0	-0.016992986
143	0xbd83fa18	-0.06444186
144	0xbcc168b8	-0.023609504
145	0xbd1c7126	-0.038193844
146	0xbdbce770	-0.09223831
147	0xbd69e8df	-0.05710685
148	0xbd674e59	-0.056471203
149	0xbda65158	-0.08120984
150	0x3d191b5a	0.0373796
151	0x3ce24e0f	0.027625112
152	0xbd1b4e89	-0.037916694
153	0xbb28153d	-0.0025647425
154	0xbd66c583	-0.056340706
155	0xbc0c3655	-0.008557876
156	0xbdb4050f	-0.08790027
157	0xbc7bd7ef	-0.015371307
158	0x3d63b4d5	0.055592377
159	0xbbb5df07	-0.0055502686
160	0x3d9d3d9a	0.07677765
161	0x3d55c19a	0.052186586
162	0xbc975949	-0.018475192
163	0x3d2e7622	0.04259313
164	0x3d936bc1	0.07198287
165	0xbe097ddc	-0.13426918
166	0xbdc87b49	-0.0978914
167	0x3c34d165	0.011036252
168	0xbde35a26	-0.11101179
169	0xbb53da74	-0.0032326253
170	0xbd1134e1	-0.03545082
171	0x3d2417b4	0.040061668
172	0x3d25f275	0.04051443
173	0x3d91cdcb	0.0711933
174	0xbdb2c888	-0.087296546
175	0x3cbda403	0.023149496
176	0x3d4a9ac2	0.049463995
177	0x3d08a89a	0.033363916
178	0xbd71a726	-0.058997296
179	0x3e0b58f7	0.13608156
180	0x3d7c735a	0.061633445
181	0xbdd80dd1	-0.1054951
182	0xbd27f777	-0.041007485
183	0xbb32e2fe	-0.0027295942
184	0x3d08936f	0.03334373
185	0x3c2cf7ac	0.010557096
186	0x3d7fe74f	0.062476452
187	0xbdbd4a26	-0.09242658
188	0x3b60afc8	0.0034284461
189	0x3ce47ad6	0.027890604
190	0x3b4539b7	0.0030094215
191	0xbdd66bbc	-0.104697675
192	0x3d2e7f23	0.042601716
193	0xbc4445d5	-0.01197954
194	0x3c01d597	0.007924459
195	0x3bd2f1b3	0.006437504
196	0x3d4b6a6f	0.04966205
197	0xbd762842	-0.060096987
198	0xbcc87dc6	-0.024474036
199	0x3d3101a5	0.04321446
200	0x3a6d46ce	0.0009051383
201	0xbd2a153c	-0.041524157
202	0x3d8ecd1c	0.06972715
203	0xbc593ce7	-0.013259149
204	0xbdd01b6b	-0.101614796
205	0xbd71b235	-0.059007842
206	0x3daf387c	0.085556954
207	0xbd9af03f	-0.075653546
208	0xbdb9f605	-0.090801276
209	0x3db2c0ea	0.08728202
210	0x3df34cf9	0.11879916
211	0x3d3f22fc	0.046664223
212	0xbcd58ab4	-0.026067115
213	0x3c991518	0.018686816
214	0x36bca5b0	5.622125e-06
215	0x3d8f0bfd	0.069847085
216	0x3d4f2025	0.050567765
217	0xbc5eb8c6	-0.013593858
218	0x3dddfb47	0.10838943
219	0xbc471b1e	-0.012152461
220	0xbdc81f04	-0.09771541
221	0xbd727474	-0.05919309
222	0xbd24beeb	-0.040221136
223	0x3d409fec	0.047027513
224	0x3cd5ee78	0.026114687
225	0xbd12db32	-0.035853572
226	0xba8a5054	-0.0010552504
227	0x3dc7d160	0.09756732
228	0x3d411fcd	0.04714947
229	0x3d85644c	0.06513271
230	0x3d428538	0.04749033
231	0x3c2c156a	0.010503152
232	0x3d4fe76c	0.05075781
233	0xbd9e9243	-0.07742741
234	0xbd5134c7	-0.051075723
235	0x3d44c6ef	0.04804128
236	0xbde1b21c	-0.110203
237	0xbcd0408c	-0.025421403
238	0x3ce35b9b	0.027753642
239	0xbb9bb281	-0.004751504
240	0xbbcea1f7	-0.006305929
241	0x3d09948c	0.03358893
242	0xbd1af784	-0.037833706
243	0x3d524006	0.05133059
244	0x3d4912f2	0.049090333
245	0x3dd4b953	0.1038691
246	0x3d384a39	0.04499266
247	0xbcbcfe24	-0.023070402
248	0xbdb34aba	-0.08754487
249	0xbd667e83	-0.056272995
250	0x3c05230c	0.008126032
251	0xbde47301	-0.11154748
252	0xbc2b4574	-0.010453571
253	0x3cee2e7c	0.0290749
254	0xba293144	-0.00064541795
255	0xbd332257	-0.04373392

layers.2.bias f4 [64]
0	0x3da57c59	0.08080358
1	0x3b40f739	0.0029444231
2	0x3db5e069	0.088806935
3	0x3d3e7e42	0.046507128
4	0xbd472829	-0.048622284
5	0x3cec04ea	0.028810937
6	0xbd1629eb	-0.03666107
7	0x3d5f8cd0	0.05457765
8	0xbdb02075	-0.08599941
9	0xbd9f2091	-0.077698834
10	0x3bd67818	0.006545078
11	0xbd102863	-0.035194766
12	0xbc34a8e2	-0.011026593
13	0x3c173750	0.009229496
14	0xbd897da4	-0.06713417
15	0x3d881b56	0.06645839
16	0xbceb8f25	-0.02875478
17	0x3d0df97b	0.03466175
18	0x3c4556fa	0.012044663
19	0xbc7490c6	-0.014927095
20	0x3d96de59	0.07366628
21	0x3d10bce0	0.035336375
22	0xbd8edbdf	-0.06975531
23	0xbe13fe4c	-0.14452475
24	0x3d9d7029	0.076874085
25	0xbcdf03fa	-0.027223576
26	0x3c497760	0.012296528
27	0xbd0d4c1e	-0.03449642
28	0x3e068d65	0.13139875
29	0xbdba99a1	-0.09111334
30	0x3ca1b8c7	0.019741429
31	0xbd0d5e78	-0.03451392
32	0x3dd65b3a	0.10466619
33	0x3d0a52da	0.03377042
34	0x3e1778cf	0.14792179
35	0x3d2d8b96	0.042369448
36	0x3d40b781	0.047050003
37	0x3cde5d14	0.027143992
38	0x3cd6281f	0.026142178
39	0x3ccfbef2	0.025359605
40	0xbcee89b0	-0.029118389
41	0x3dcdbcb8	0.10045761
42	0x3d667a26	0.056268834
43	0xbb709aa3	-0.0036713264
44	0xbdde80fa	-0.10864444
45	0xbd62210f	-0.05520731
46	0xbe03b3e9	-0.12861599
47	0xbe223b48	-0.15842927
48	0x3dc2d29d	0.095128275
49	0xbdd389a8	-0.1032899
50	0xbd17fb00	-0.037104607
51	0x3ce1b788	0.027553335
52	0x3cf1c2ce	0.029511835
53	0x3e193276	0.14960656
54	0xbd154181	-0.036439423
55	0xbdf56ebe	-0.11984013
56	0x3dcfbe5a	0.101437286
57	0xbe088a85	-0.13334091
58	0xbd9d9ca9	-0.07695896
59	0x3c99e497	0.018785758
60	0xbe1aabc0	-0.1510458
61	0xbe0087ee	-0.12551853
62	0x3c6151d3	0.013752419
63	0xbccfba3f	-0.025357364

readout.weight f4 [1, 64]
0	0xbe490575	-0.19630988
1	0xbdfe9227	-0.1243022
2	0xbdba91af	-0.09109818
3	0x3e0c8f98	0.13726652
4	0x3ddcff4c	0.107908815
5	0x3e13050e	0.14357397
6	0xbdfa945d	-0.12235329
7	0xbdcfe91c	-0.10151884
8	0x3e59d592	0.21272877
9	0x3e223e54	0.15844089
10	0xbe039868	-0.12851107
11	0x3dd7d68e	0.1053897
12	0xbd2584b1	-0.040409748
13	0xbd19fe98	-0.037596315
14	0x3e4c87a3	0.19973616
15	0xbd978447	-0.07398277
16	0xbe3ff84c	-0.18747061
17	0x3dd2a86c	0.1028603
18	0x3e0dd3fa	0.13850394
19	0xbd732499	-0.059361074
20	0xbdcca233	-0.099918745
21	0x3e10304d	0.14080925
22	0x3dcbeaa9	0.09956867
23	0x3dc73660	0.09727168
24	0xbe39fade	-0.18162104
25	0xbdf5fa1f	-0.120105974
26	0xbe3878f3	-0.18014888
27	0x3e19667d	0.14980502
28	0xbe087881	-0.13327219
29	0x3e2d7084	0.16937453
30	0x3dd2535b	0.10269805
31	0xbc8bc30d	-0.01706078
32	0xbe2b8b66	-0.16752395
33	0x3dc0b0ae	0.09408699
34	0xbe36ee8b	-0.17864434
35	0xbe4bd685	-0.19906051
36	0x3deb6232	0.11493339
37	0xbe445268	-0.1917206
38	0xbe174266	-0.14771423
39	0x3e455c53	0.192735
40	0xbe1e5a73	-0.15464191
41	0xbdac55e0	-0.08414817
42	0xbe1c74a5	-0.15278871
43	0xbddaa97e	-0.10676859
44	0x3e1d0e9c	0.15337604
45	0x3e6804e0	0.2265811
46	0x3e092309	0.13392271
47	0x3e019a5b	0.12656538
48	0xbe4b4960	-0.19852209
49	0x3e17d271	0.14826371
50	0x3e1c5d33	0.15269928
51	0xbd85a361	-0.06525303
52	0xbd8cf1c2	-0.06882049
53	0xbe521ba3	-0.20518355
54	0xbe0a6014	-0.13513213
55	0x3e201035	0.15631182
56	0xbe31ba6b	-0.17356269
57	0x3e0b61bb	0.136115
58	0x3db9f916	0.090807125
59	0x3deb70fd	0.1149616
60	0x3df8710a	0.121309355
61	0x3e0f75e7	0.1400982
62	0xbe2977f1	-0.1654966
63	0x3e3880fd	0.18017955

layers.0.weight f4 [128, 17]
0	0x3e9923b9	0.29910067
1	0x382f6ee6	4.1826534e-05
2	0x3e4e17f7	0.2012633
3	0xbac6a6be	-0.0015155894
4	0xbdeaf6dd	-0.11472867
5	0xbcca7f60	-0.02471894
6	0xbe848cfc	-0.25888813
7	0xbe6bd2d1	-0.23029639
8	0xbee28b90	-0.44247103
9	0xbdec3af8	-0.11534685
10	0xbdfcdf19	-0.1234724
11	0xbdbb284c	-0.091385454
12	0x3e1a59d4	0.15073329
13	0x3d0d26e9	0.034460936
14	0xbc91038d	-0.017701888
15	0x3e63038f	0.22169326
16	0xbdfe1f98	-0.1240837
17	0xbdcc9da9	-0.09991009
18	0xbe85b683	-0.26115808
19	0x3cb0ef9b	0.021598628
20	0x3c3423f5	0.010994901
21	0x3cb2e770	0.021838874
22	0x3c4700a9	0.0121461535
23	0x3e016f96	0.12640223
24	0x3e0c035d	0.13673158
25	0xbe65d032	-0.22442701
26	0xbdef026f	-0.11670386
27	0xbdf69ff8	-0.1204223
28	0x3cdb95fe	0.02680492
29	0x3e7aae04	0.24480444
30	0xbe92c64d	-0.28666916
31	0x3e19bc5c	0.1501326
32	0xbd6dae9c	-0.05802785
33	0xbe4295d1	-0.19002463
34	0x3e223111	0.1583903
35	0x3d0d96d1	0.034567658
36	0x3e33accb	0.17546384
37	0xbbbfc73d	-0.0058526085
38	0x3e981d20	0.2970972
39	0x3cfdaab5	0.030965189
40	0x3ecd5549	0.4010413
41	0x3d52e471	0.05148739
42	0xbf1daf8c	-0.6159599
43	0x3ee7154e	0.45133442
44	0xbd883df9	-0.06652445
45	0xbe921091	-0.28528264
46	0xbb80eab0	-0.003934227
47	0x3e0163ac	0.12635678
48	0x3e2d339e	0.16914222
49	0xbdeb3212	-0.114841595
50	0x3e29a574	0.16567022
51	0xbe896a03	-0.26838693
52	0xbda9aed3	-0.08285298
53	0x3e52ae45	0.20574291
54	0xbe620084	-0.22070509
55	0x3e8caddb	0.2747639
56	0xbc9f58bf	-0.019451497
57	0x3db826fa	0.08991809
58	0x3e8d475c	0.27593505
59	0xbde17f47	-0.11010604
60	0xbe0139c1	-0.12619688
61	0xbe8ec827	-0.2788708
62	0x3d5709e0	0.052499652
63	0x3e7b927e	0.24567601
64	0x3d14ba51	0.036310498
65	0xbda03f37	-0.07824557
66	0xbddfd1a7	-0.1092866
67	0xbe02123e	-0.12702271
68	0xbdb7f019	-0.08981342
69	0xbe57d018	-0.21075475
70	0xbdebdcbd	-0.11516712
71	0x3e841e59	0.25804403
72	0xbe419202	-0.18903354
73	0x3d301b59	0.04299483
74	0xbc29b969	-0.010359147
75	0x3db55d72	0.08855714
76	0x3ea53140	0.32264137
77	0x3ea7d3c2	0.32778746
78	0x3c961282	0.018319372
79	0x3bfa9cde	0.0076480946
80	0xbe2e2925	-0.17007883
81	0xbda2e668	-0.07954103
82	0xbd214c3a	-0.039379336
83	0x3dbb4c4a	0.0914541
84	0xbd31d2d3	-0.04341395
85	0x3ded58b7	0.11589187
86	0xbe4fca2d	-0.20291968
87	0x3e4ee802	0.20205691
88	0xbc667c0c	-0.014067661
89	0xbdcaf264	-0.099095136
90	0xbd85a343	-0.0652528
91	0x3d39a4bd	0.045323122
92	0x3ecbdfcb	0.39819178
93	0xbea00c75	-0.31259504
94	0xbe9372a1	-0.28798392
95	0xbe575ba6	-0.21031055
96	0xbe8342f9	-0.25637034
97	0x3ea09420	0.3136301
98	0x3da9a849	0.08284051
99	0x3e3ed18f	0.18634628
100	0xbebfae82	-0.37437826
101	0x3d8ee015	0.06976334
102	0x3dd7c9a2	0.10536505
103	0x3e736190	0.23767686
104	0x3e72fcc0	0.23729229
105	0xbeb872ab	-0.36024985
106	0x3da801ac	0.08203444
107	0x3d7920cf	0.060822304
108	0x3eb71037	0.35754558
109	0xbddbea14	-0.10738006
110	0xbdd90e55	-0.10598437
111	0x3e97befc	0.29637897
112	0x3d080bf0	0.03321451
113	0x3e07c54b	0.13258855
114	0x3e012a27	0.12613736
115	0xbeb5a6fb	-0.35478958
116	0xbeacc43d	-0.33743468
117	0xbe1c6d4e	-0.15276071
118	0x3e578480	0.21046638
119	0xbe87f3c2	-0.2655316
120	0x3e80a905	0.25128952
121	0xbddfc756	-0.10926692
122	0xbde4a778	-0.11164755
123	0x3e5ccd6a	0.21562734
124	0x3e11e2e0	0.14246702
125	0x3d1657a4	0.036704674
126	0xbe434561	-0.19069435
127	0x3e1c6c7a	0.15275756
128	0x3d74ca52	0.05976326
129	0x3e8318d5	0.25604883
130	0xbd9af6bf	-0.07566594
131	0x3e311517	0.17293201
132	0xbd32e4fc	-0.043675408
133	0x3e72aeeb	0.23699538
134	0x3e145b45	0.14487942
135	0xbcb8f57c	-0.022577994
136	0xbe061fb4	-0.13098031
137	0x3ee928c9	0.4553893
138	0x3e69aab3	0.22819023
139	0x3dc453c0	0.095862865
140	0x3c8df8a6	0.017330479
141	0x3d542db9	0.051801417
142	0xbe5891d2	-0.21149376
143	0x3e92fcad	0.287084
144	0xbea54f34	-0.3228699
145	0xbc1922e7	-0.0093467
146	0xbe133835	-0.1437691
147	0xbd034260	-0.032045722
148	0x3e407a2a	0.18796602
149	0x3d46b590	0.048512995
150	0xbda69896	-0.08134572
151	0x3dd398bd	0.10331867
152	0xbd6c3b90	-0.05767399
153	0x3c8422ba	0.01612984
154	0xbdf12549	-0.1177469
155	0xbd88aee4	-0.06673983
156	0x3e8cf0e6	0.2752754
157	0x3cee0d40	0.029059052
158	0x3e1ad4ea	0.15120283
159	0xbe0efb4a	-0.13963047
160	0x3d128aa0	0.035776734
161	0x3f067c26	0.52533185
162	0x3ce4fce9	0.027952628
163	0xbbe0765a	-0.006850046
164	0xbe446641	-0.19179632
165	0xbdd9b167	-0.1062954
166	0x3db72076	0.08941738
167	0x3ebc0e98	0.36729884
168	0xbb69faec	-0.003570254
169	0xbe136439	-0.143937
170	0xbe0a1d05	-0.13487633
171	0x3e3f8499	0.18702926
172	0x3e5ce73a	0.21572581
173	0xbe9fca19	-0.31208876
174	0xbdfeafbb	-0.12435862
175	0x3d490cc6	0.049084447
176	0xbdda6eb5	-0.10665647
177	0xbe1da19a	-0.15393677
178	0xbdd40cc4	-0.10353997
179	0xbd5985d2	-0.053106137
180	0xbd1b123b	-0.037859183
181	0x3ec9874a	0.3936103
182	0xbe83ec22	-0.25766093
183	0xbe273c3c	-0.16331571
184	0x3e260555	0.16212972
185	0x3d342e57	0.043989506
186	0x3e8ff032	0.28112942
187	0x3c8aae09	0.01692869
188	0xbe85ab25	-0.26107135
189	0xbe7373d4	-0.23774654
190	0x3dfec60c	0.12440118
191	0x3e4a4c1d	0.19755597
192	0x3e24e95d	0.16104646
193	0x3c1772c3	0.00924367
194	0xbebc1aae	-0.36739105
195	0x3e8053bd	0.25063887
196	0x3e47e986	0.19522676
197	0x3c0436f0	0.008069739
198	0x3d788309	0.06067184
199	0xbe8ddb76	-0.27706498
200	0x3c6c2f0f	0.0144155165
201	0xbe3e4cc3	-0.1858397
202	0x3e48bb8d	0.19602795
203	0x3e1a69e2	0.15079454
204	0x3ddee9db	0.10884448
205	0xbe0288d4	-0.12747508
206	0x3d4214b7	0.047383036
207	0x3e250880	0.16116524
208	0xbb6f4da9	-0.0036514795
209	0xbe76c541	-0.24098684
210	0xbd8adccf	-0.06780397
211	0xbde6accc	-0.11263427
212	0x3ec00833	0.37506256
213	0xbe014d9a	-0.12627259
214	0x3e0190f0	0.12652946
215	0x3e1cfbcc	0.15330428
216	0x3e72e9b8	0.23721969
217	0xbee65e8c	-0.4499401
218	0x3e572c95	0.210131
219	0x3e3b1375	0.18269141
220	0x3de4cf0b	0.11172303
221	0xbe8d48ba	-0.27594548
222	0x3efda3da	0.4953907
223	0x3e82bba6	0.2553379
224	0x3d622882	0.055214413
225	0x3e0c551d	0.13704343
226	0x3df6921a	0.120395854
227	0xbd3fb875	-0.04680677
228	0xbd139359	-0.036029194
229	0x3e51815e	0.20459506
230	0xbd8884b3	-0.06665935
231	0xbdd60f17	-0.10452097
232	0xbc8e425e	-0.01736563
233	0x3e6f2c52	0.2335675
234	0x3e0e53fa	0.13899222
235	0xbdedaca3	-0.116051935
236	0xbd2a00c7	-0.041504648
237	0x3ab08711	0.0013467987
238	0x3ce4e0d7	0.027939243
239	0xbd1ecaa3	-0.03876747
240	0xbe299ad9	-0.16562976
241	0xbdf84fe0	-0.1212461
242	0xbe0feaa7	-0.14054357
243	0xbe9665ae	-0.2937445
244	0xbd5e1221	-0.054216508
245	0xbea15c5e	-0.31515783
246	0xbeb2536f	-0.3482928
247	0x3e5e45f9	0.2170638
248	0xbe1439c2	-0.14475158
249	0xbee2255a	-0.44169122
250	0xbcebf120	-0.0288015
251	0x3dd777c4	0.1052089
252	0xbdc56471	-0.09638298
253	0x3d9648a5	0.073380746
254	0x3e8e1e5b	0.27757534
255	0xbe5de2bf	-0.21668528

layers.0.bias f4 [128]
0	0x3da70c9f	0.08156704
1	0x3e8d1c43	0.27560624
2	0xbe2489d8	-0.16068208
3	0x3ed3c6b6	0.41362542
4	0x3e9db198	0.30799556
5	0xbe12d1e2	-0.14337876
6	0x3c57f6f8	0.0131814405
7	0x3dd018cc	0.1016098
8	0xbe06540c	-0.13117999
9	0x3e264106	0.16235742
10	0x3e90707f	0.28210828
11	0x3e681ffb	0.2266845
12	0x3e6ded99	0.23235168
13	0x3e7f2594	0.24916679
14	0x3d9339d9	0.07188768
15	0x3de43cd4	0.111444145
16	0xbd8aff87	-0.06787019
17	0x3e3c0cb0	0.18364215
18	0x3e9aeb30	0.3025756
19	0x3d794a39	0.0608618
20	0x3bfcf9e5	0.0077202194
21	0x3ebe6940	0.37189674
22	0xbeccd324	-0.40004838
23	0x3ea6a6f6	0.32549256
24	0xbd086faf	-0.033309635
25	0x3e9a2236	0.30104226
26	0x3e5c8df9	0.21538533
27	0x3ec8253f	0.39090917
28	0xbc55e1c1	-0.013054312
29	0x3ebc21cc	0.36744535
30	0x3db6a358	0.08917874
31	0x3e32c991	0.17459704
32	0xbe7cc8c1	-0.24685957
33	0x3a84410e	0.0010090189
34	0x3d0ede2c	0.03487985
35	0xbe64d26f	-0.22345899
36	0x3c423276	0.011852851
37	0x3eaf621d	0.34254542
38	0xbec03bcc	-0.3754562
39	0xbd082b36	-0.033244334
40	0xbc87c031	-0.016571136
41	0x3e7dcf6f	0.24786161
42	0xbc8eb491	-0.017420085
43	0xbddac760	-0.10682559
44	0xbe809666	-0.25114745
45	0x3d9eb3e4	0.07749155
46	0xbd81ca34	-0.06337395
47	0x3ed1dace	0.40987247
48	0xbe656d5a	-0.22404996
49	0x3e0c2528	0.13686049
50	0x3d2bf760	0.041983962
51	0x3e871dab	0.26389822
52	0x3e8284ca	0.25491935
53	0xbeb79ac2	-0.35860258
54	0x3e24a569	0.16078724
55	0xbeb0c227	-0.34523126
56	0x3e720214	0.23633605
57	0xbda6165d	-0.08109734
58	0xbe7be02e	-0.24597237
59	0x3e00696e	0.12540218
60	0x3ebe7872	0.37201267
61	0x3dd8af80	0.10580349
62	0xbddbaf31	-0.107267745
63	0x3e69f19c	0.22846073
64	0xbdb2c731	-0.08729399
65	0xbde1ebaa	-0.110312775
66	0x3e541489	0.20710959
67	0xbe3bfcde	-0.1835818
68	0xbc40228e	-0.0117269885
69	0xbe6fc7a2	-0.23415998
70	0x3e1deea6	0.15423068
71	0x3e69c4c9	0.22828974
72	0x3d336e0d	0.043806124
73	0xbda456bc	-0.08024356
74	0xbe721a8e	-0.23642942
75	0x3d9cdcfd	0.07659338
76	0x3d670904	0.056405082
77	0x3e167a14	0.14695007
78	0x3d1ca158	0.038239807
79	0x3c97ad51	0.01851526
80	0x3e8b8f4f	0.27257773
81	0xbe9f486f	-0.3110995
82	0x3d310c0d	0.043224383
83	0xbc2f9835	-0.010717441
84	0x3e03b14e	0.12860605
85	0x3c914e74	0.017737605
86	0x3ea1a3a8	0.31570172
87	0x3d8ffe15	0.07030884
88	0x3e213fd8	0.1574701
89	0x3e93cce5	0.2886726
90	0xbbf87172	-0.007581883
91	0xbe6995c3	-0.22811036
92	0x3b4a70d8	0.0030890014
93	0xbdc18a89	-0.094502516
94	0x3e8faf1e	0.2806329
95	0xbe89653b	-0.26835045
96	0xbd1bb90a	-0.038018264
97	0xbe1efad6	-0.15525374
98	0xbdc11dc8	-0.094295084
99	0x3e28aa53	0.16471224
100	0x3e13e349	0.14442171
101	0xbe5230f6	-0.2052649
102	0x3d83e2bb	0.0643973
103	0xbd3deeb0	-0.04637021
104	0x3eaa69a6	0.33283728
105	0xbd6e932d	-0.058245827
106	0x3ce3817b	0.027771702
107	0x3d744ba4	0.05964245
108	0x3d9d0064	0.0766609
109	0x3e6df3bb	0.23237507
110	0x3e78077c	0.24221605
111	0x3e873bd9	0.26412848
112	0x3d5d1074	0.05397077
113	0x3e44dc8a	0.19224754
114	0x3c12be88	0.008956559
115	0xbea39309	-0.31948116
116	0xbe47e48b	-0.19520776
117	0x3e133076	0.14373955
118	0x3e827582	0.25480276
119	0x3e2c49a2	0.16824964
120	0x3c14bac5	0.009077732
121	0xbe080f0c	-0.1328699
122	0x3df35472	0.11881341
123	0x3e63fbfd	0.22264095
124	0xbd62c030	-0.055359066
125	0xbe465e5f	-0.19371937
126	0xbd6e16ea	-0.05812732
127	0x3da2ff09	0.079588

layers.1.weight f4 [128, 128]
0	0x3b292e89	0.002581509
1	0x3d9403a2	0.072272554
2	0x3c8d1a8f	0.017224578
3	0xbce52944	-0.027973779
4	0x3c08c003	0.00834656
5	0xbc11a698	-0.008889817
6	0x3cc9651a	0.024584342
7	0xbd07c846	-0.03314998
8	0xbcccb8f5	-0.024990538
9	0x3d0c96ac	0.03432338
10	0xbcc44499	-0.023958491
11	0x3d155c76	0.03646513
12	0xba91d05a	-0.0011124716
13	0xbcf3805c	-0.029724292
14	0xbae666d2	-0.001757825
15	0xbd0a96df	-0.033835288
16	0xbc501407	-0.012700087
17	0x3df588ba	0.11988969
18	0xbce1fd2d	-0.027586544
19	0xbdbd8fac	-0.09255919
20	0xbd91ca1b	-0.07118627
21	0x3e005c8e	0.12535307
22	0xbd9d5d77	-0.07683843
23	0xbc1a3e1b	-0.009414221
24	0x3ca6d36d	0.020364488
25	0xbdce75f7	-0.10081094
26	0x3ddbe123	0.10736301
27	0xbd341669	-0.043966684
28	0x3d5c37e8	0.053764254
29	0x3da82eab	0.08212026
30	0xbc850b4a	-0.016240735
31	0xbcf5144d	-0.029916907
32	0xbd5daf66	-0.05412235
33	0xbdc9baf4	-0.098501116
34	0xbd982249	-0.074284144
35	0xbdceadd6	-0.1009175
36	0xbc9b642c	-0.018968664
37	0x3bf93679	0.0076053706
38	0xbd1ea516	-0.038731657
39	0xbce27b1b	-0.027646592
40	0xbdbbcad6	-0.09169547
41	0x3d5d59c2	0.054040678
42	0xbd802d48	-0.06258637
43	0x3db555a4	0.08854225
44	0x3db3122e	0.08743702
45	0xbcef495b	-0.029209783
46	0x3dc1a28a	0.0945483
47	0xbd8fd901	-0.07023812
48	0x3b9b3019	0.0047359583
49	0x3d2e9592	0.04262311
50	0xbd7d8f39	-0.061904166
51	0x3de8e284	0.113713294
52	0xbd882112	-0.06646933
53	0x3d8d3c1d	0.06896231
54	0xbd637797	-0.05553397
55	0x3d83e2ea	0.06439765
56	0xbdfb6244	-0.12274602
57	0x3be77000	0.007062912
58	0x3d7aa98a	0.06119684
59	0xbe1a4d0d	-0.15068455
60	0xbd7b7d09	-0.06139854
61	0x3c59622e	0.013268037
62	0xbcc1f607	-0.023676885
63	0x3d80b939	0.062853284
64	0xbb2ec532	-0.002666783
65	0x3bd37f12	0.006454357
66	0xbcfa54f0	-0.03055808
67	0xbb84e2c4	-0.004055353
68	0x3c63d5da	0.013905967
69	0xbe070d80	-0.13188744
70	0xbd4be4e5	-0.049778838
71	0x3d36d23e	0.044634096
72	0x3c53697e	0.012903569
73	0x3c827f84	0.015929945
74	0x3dbc13a0	0.09183431
75	0x3d172afc	0.036906227
76	0xbcdd5bfa	-0.027021397
77	0x3d049b79	0.032374833
78	0x3db068a0	0.08613706
79	0x3d2a9c8d	0.041653205
80	0x3d979769	0.07401926
81	0x3e062c65	0.13102873
82	0xbe02e35a	-0.1278204
83	0x3c94d2dd	0.018166954
84	0xbc860ff4	-0.016365029
85	0x3d093092	0.033493586
86	0x3dae0d1a	0.08498593
87	0xbd0f07ca	-0.034919538
88	0x3cfa7988	0.030575529
89	0x3c90e4c3	0.017687207
90	0xbd943d97	-0.0723831
91	0x3d5a8c64	0.053356543
92	0xbd8efee5	-0.06982211
93	0x3ca36924	0.019947596
94	0x3d5ece2b	0.054395836
95	0x3d047eea	0.032347597
96	0xbe02b2c9	-0.12763514
97	0x3d7baeff	0.061446186
98	0xbcedbaa1	-0.029019656
99	0xbca8e52d	-0.020617092
100	0xbd4dbdc5	-0.050229806
101	0xbd8e225e	-0.06940149
102	0x3d74c1c6	0.05975511
103	0xbdaadbc0	-0.08342695
104	0xbcb644a8	-0.022249535
105	0x3debac95	0.11507527
106	0x3d2c3ba0	0.04204905
107	0xbd5ab8b7	-0.053398814
108	0x3e1695d3	0.14705591
109	0x3c6351b8	0.013874464
110	0xbd930b4e	-0.071798906
111	0x3de597e8	0.112106144
112	0xbd0208f1	-0.03174681
113	0x3e112bbb	0.14176838
114	0xbdd9a723	-0.10627582
115	0x3dc37183	0.09543135
116	0x3d2e3e46	0.042539857
117	0x3e156ed1	0.14593054
118	0x3e123709	0.14278807
119	0xbe076517	-0.13222156
120	0x3dad3c8e	0.084588155
121	0x3df4b9a6	0.11949472
122	0x3dc2caae	0.09511314
123	0x3d922989	0.071368285
124	0xba92d953	-0.0011203684
125	0x3dbd3b43	0.09239819
126	0xbdd4828b	-0.103764616
127	0xbdaf12a6	-0.08548479
128	0x3db7edfa	0.08980937
129	0x3dba84aa	0.09107335
130	0x3dee0a41	0.116230495
131	0x3d2a5e85	0.041594047
132	0x3d220177	0.03955218
133	0x3d8af7ef	0.06785571
134	0xbd3b37c2	-0.04570747
135	0xbccb9552	-0.024851475
136	0xbdc79a37	-0.09746211
137	0x3e3cea03	0.18448643
138	0xbd8690b5	-0.065705694
139	0x3dc72b92	0.09725107
140	0x3e2e0bed	0.16996737
141	0xbc253c52	-0.010085182
142	0x3ce2267a	0.027606238
143	0x3e180496	0.148455
144	0xbc33e282	-0.010979297
145	0x3c1c0822	0.009523423
146	0x3bdac671	0.006676488
147	0x3d0428af	0.03226536
148	0x3db2af76	0.08724873
149	0xbc8485f3	-0.016177153
150	0xbd61dc08	-0.05514148
151	0xbd4256c8	-0.047446042
152	0x3d8e7297	0.0695545
153	0x3e500527	0.20314465
154	0x3d0086d2	0.031378575
155	0x3e1f0d2f	0.15532373
156	0xbd9d25f4	-0.076732546
157	0x3dfab90a	0.12242325
158	0x3ce3a5dc	0.027789049
159	0x3d558db1	0.05213708
160	0xbc6c826f	-0.014435395
161	0x3cbe3c28	0.023222044
162	0x3d945002	0.07241823
163	0xbb594838	-0.0033154618
164	0x3e184b62	0.14872506
165	0x3d6262a2	0.055269845
166	0x3dc9b45b	0.09848853
167	0xbe01c250	-0.1267178
168	0x3d6dd85d	0.05806767
169	0x3dedbed8	0.11608666
170	0xbce50892	-0.027958188
171	0xbcce21d0	-0.025162607
172	0xbdd3a2db	-0.103337966
173	0xbd0d365a	-0.03447566
174	0x3cb17cdd	0.021665985
175	0x3d210f98	0.039321512
176	0x3baa8996	0.00520439
177	0x3df792b7	0.120885305
178	0xbceeb6c9	-0.029139893
179	0x3de1f36e	0.11032759
180	0xbd8c02bf	-0.06836461
181	0x3c7746d5	0.015092571
182	0x3de313b5	0.11087743
183	0x3d6d72b1	0.057970706
184	0x3d0fd7c9	0.035117898
185	0xbdae8312	-0.085210934
186	0xbc74ab73	-0.014933455
187	0x3dedcd6c	0.11611447
188	0xbd5a7138	-0.05333063
189	0x3de4eb75	0.11177722
190	0x3d240dec	0.04005234
191	0x3db529f3	0.08845892
192	0x3dc8c4c0	0.09803152
193	0x3bfc703a	0.007703808
194	0xbc0e1042	-0.008670868
195	0xbe415a27	-0.18882047
196	0x3d92be9b	0.07165261
197	0x3debed77	0.11519902
198	0x3d87653b	0.06611105
199	0x3d59201b	0.053009134
200	0x3e159ece	0.1461136
201	0x3c570811	0.013124482
202	0xbd0cfd4d	-0.034421254
203	0xbd56cf3b	-0.052443724
204	0xbabbe042	-0.0014333802
205	0x3de73574	0.11289492
206	0x3d5b23bc	0.053500876
207	0x3daa6a4b	0.08321055
208	0xbd96536e	-0.07340132
209	0x3df85071	0.12124718
210	0x3c6fe558	0.014642082
211	0x3d23b69f	0.039969083
212	0x3e118522	0.14210942
213	0x3ccc9241	0.024972083
214	0x3d0ad99f	0.033898946
215	0x3d1be590	0.038060725
216	0x3dca0f14	0.09866157
217	0xbd2f8175	-0.04284807
218	0x3d4c3924	0.04985918
219	0xbd121c36	-0.035671435
220	0x3cad8384	0.021180876
221	0xbba04e3a	-0.004892138
222	0xbd8f159e	-0.06986545
223	0xbd37adba	-0.044843413
224	0x3db31f3e	0.08746193
225	0xbc3c78a5	-0.011503373
226	0xbc9c3e33	-0.019072628
227	0x3ddf0e0e	0.108913526
228	0x3e5a1058	0.21295297
229	0xbccaa61f	-0.024737416
230	0x3dd0f35b	0.10202666
231	0x3da01f3b	0.07818457
232	0x3cbfdbda	0.023420263
233	0x39099855	0.00013122086
234	0x3d063c1e	0.032772176
235	0xbc7d1f0d	-0.015449298
236	0x3dc7d820	0.097580194
237	0x3d04505c	0.0323032
238	0xbc1519cc	-0.009100389
239	0xbca57e99	-0.020201968
240	0x3d91dd60	0.07122302
241	0xbd9f7905	-0.077867545
242	0xbc1daf28	-0.00962428
243	0xbdf1a7f3	-0.11799612
244	0xbe2c4913	-0.1682475
245	0x3d09d63d	0.03365158
246	0x3d8091a4	0.06277779
247	0x3cecf865	0.028927037
248	0x3d76fc28	0.06029907
249	0x3df19033	0.11795082
250	0x3d3f5f75	0.046721894
251	0x3d48939c	0.048968896
252	0xbda3a062	-0.07989575
253	0xbdbeb1ca	-0.09311254
254	0x3d80e753	0.062941216
255	0xbd0b4e6d	-0.03401034
