Gym-DDPG-solution/results/DDPG_HalfCheetah-v4_3500-eps0.3-t32-l0.0001-s1.pth (torch, 193979 bytes, 13 tensors)

layers.0.weight f4 [128, 23]
000000 84 50 82 3e 28 22 af bd 97 23 c1 3d b4 be 23 3e
       0.25452054 -0.08551437 0.09430616 0.15990716
000010 55 c7 a6 be f3 62 00 3f 2b 31 6b 3e 58 68 5e 3e
       -0.32573953 0.50150985 0.22967975 0.21719491
000020 d8 d3 8a bd 7c be ff 3d e9 cc a8 3d 67 fd 96 3a
       -0.06778687 0.12487504 0.082422085 0.0011519612
000030 fd 03 c0 3c 39 3e 1a bc 09 58 25 bb cd b6 4c bb
       0.023439402 -0.009414249 -0.0025229475 -0.0031236887
000040 94 5f 2e 3b 11 d3 f7 3d 6e 83 67 3e 58 87 20 3e
       0.0026607262 0.121008046 0.2260873 0.1567663
000050 e6 a7 04 be 50 f3 d1 bd 1a 43 0b be 28 63 82 be
       -0.12954673 -0.10251486 -0.13599816 -0.25466275
000060 58 5f 30 be 06 ad 00 3f dc 61 67 3e c7 60 4c be
       -0.17223871 0.5026401 0.22595924 -0.19958793
000070 f0 a4 ab be 0c 47 c8 3e 94 e6 91 3e 6d 8a 70 3e
       -0.33524275 0.39116704 0.2849623 0.23490305
000080 e3 e6 a6 3e 2a 2b 92 be 1a ab 8c bd f5 87 8e bd
       0.32598028 -0.28548557 -0.068685725 -0.069595255
000090 fa 8f 81 3c 03 48 12 3d da 17 9d 3d 20 79 b9 bc
       0.015815724 0.035713207 0.07670565 -0.022640765
0000a0 bc 89 5b 3e 4c b3 da bd 58 37 a1 3d 93 40 e5 be
       0.2143926 -0.106787294 0.07871884 -0.4477583
0000b0 da f5 64 be bd 37 81 3c 5f 19 59 3e 38 6d e2 3d
       -0.2235941 0.015773648 0.21201085 0.11055988
0000c0 b8 78 b0 be 0d 40 f1 3b ad 11 7e be eb 5e 18 3d
       -0.344671 0.007362372 -0.2481143 0.037199896
0000d0 d2 ba a7 3e f6 f2 9b 3e dd bf ac 3e f7 86 03 3f
       0.3275972 0.30458802 0.3374013 0.51377815
0000e0 3d 8b 8e 3e 80 98 3b 3d ba 81 3c 3d 73 70 04 3c
       0.27840605 0.045799732 0.046022154 0.008083451
0000f0 cb 4d a8 3c c0 70 2f 3d f6 42 13 3d ee 2b ac 3e
       0.020544907 0.042832136 0.03595253 0.33627266
000100 34 8d 22 be b6 1b 11 bd 6a b1 6d be 48 4b e5 3d
       -0.15874177 -0.035426818 -0.2321221 0.111959994
000110 56 05 30 be ba 63 d6 be 9b 83 d1 3d 64 f6 2b be
       -0.17189535 -0.4187296 0.1023018 -0.1679321
000120 a6 8c 9d bd ff ba be bc e3 c3 94 3d 71 05 39 be
       -0.07692842 -0.023282526 0.07263925 -0.18068482
000130 94 05 33 3e cc e9 82 3e 5e 3d 01 bf 6a e9 15 3e
       0.17482597 0.25568998 -0.50484264 0.14639822
000140 8d 5d 92 bd f0 d9 89 bd 5d 1c 00 bd 26 13 da 3c
       -0.0714675 -0.067310214 -0.03127705 0.026620459
000150 9e ad 2c 3d 82 4b 99 bc 54 72 ca be 39 a9 8f 3d
       0.04215776 -0.018712763 -0.3954035 0.070146985
000160 33 9f 61 bd 6c fc b8 3d fa a5 1f 3e 04 f6 49 be
       -0.055083465 0.09032521 0.15590659 -0.19722754
000170 b4 62 04 3f bd 2e a9 3d 41 63 fd be 82 89 ad be
       0.5171311 0.08260868 -0.49489787 -0.33893973
000180 c7 88 24 3e c4 50 1b bd 54 37 e5 bd 16 1a ce bd
       0.16067801 -0.03791882 -0.111921936 -0.10063569
000190 7c 40 69 3e cf ea 8b 3d 45 0b 5a 3e 49 92 38 3d
       0.22778505 0.068318956 0.21293361 0.045061383
0001a0 0c a3 27 3c c9 67 c1 bb 1c 35 7c 3d 57 aa 47 3d
       0.0102317445 -0.0059022647 0.061574087 0.048746433
0001b0 42 3e 0c bb 20 cd 06 3e 84 20 d1 bb d8 d8 17 3e
       -0.0021399413 0.13164186 -0.00638205 0.14828813
0001c0 fe 8b 8e 3e dc bd 01 be f5 3c eb 3d 6c 3f 1c 3f
       0.2784118 -0.12670082 0.11486236 0.61034274
0001d0 c4 9e 8a 3c f0 c0 83 be 51 b8 9b be 39 fd 5d be
       0.016921408 -0.25733137 -0.3041406 -0.21678628
0001e0 f6 b6 e7 bc 7a 47 ba bd 41 10 46 3e 7e c1 b6 bd
       -0.028285485 -0.09095664 0.19342138 -0.089236245
0001f0 db 1a a0 bd be 8e 87 be 28 a7 68 bd 21 ad 19 bd
       -0.07817622 -0.2647609 -0.056800038 -0.037518624
000200 2e f9 1d 3c 9d 13 29 3d 4b 1d a5 3c 38 70 7e 3b
       0.009641929 0.04127847 0.02015557 0.0038824212
000210 88 75 2e 3e 25 fc 22 3e 31 0b 2a 3e dd aa 46 3e
       0.17037022 0.15916498 0.16605832 0.19401117
000220 3f c6 01 3d e7 54 97 3d bd ed 98 3d 62 de f4 be
       0.031683203 0.07389241 0.0746722 -0.47825915
000230 8a ed b9 bc c6 58 26 be 30 6c 4e be a7 f5 85 bc
       -0.022696275 -0.16244802 -0.20158458 -0.016352488
000240 dd 53 7b 3b 25 7f 1d 3e 1e 1b 70 3e f2 5d 73 3e
       0.0038349547 0.15380533 0.23447844 0.23766306
000250 a9 17 49 3d 30 9e 2b 3d 86 1d 36 3c 94 e2 e1 3d
       0.04909483 0.041898906 0.011115437 0.110295445
000260 0b 83 38 bc cf 7c 3d bb 5e a2 3b bd 5b 20 b4 be
       -0.011261712 -0.0028913503 -0.045809142 -0.35180935
000270 46 a5 87 bd a0 41 ad bd 44 94 0e 3e 12 11 ca 3c
       -0.0662332 -0.084597826 0.13923746 0.024666343
000280 9a fc 3d 3d 4a 98 ea 3e e7 ce bf bd c1 c5 1c 3f
       0.046383478 0.45819312 -0.09365635 0.6123925
000290 e0 f6 3b 3e b1 58 d6 bc 3d 49 f1 bd 36 84 70 be
       0.18355894 -0.026165338 -0.11781547 -0.23487934
0002a0 26 02 7a be 13 46 6e 3c 95 ef 6d 3d 69 31 39 3d
       -0.24414882 0.014543074 0.05808981 0.045213137
0002b0 81 da 96 bc 2e b4 ef 3c 18 8c 26 3b ab 76 ca 3d
       -0.018414738 0.029260721 0.0025413092 0.09885915
0002c0 c9 b5 49 3d d6 b6 54 3c 24 4b ab be 74 f2 51 3d
       0.04924563 0.012983045 -0.33455765 0.051256612
0002d0 dd 03 89 bd b4 37 81 3c 66 ea bd bd 8b 23 57 bd
       -0.0669019 0.015773632 -0.092732236 -0.05252413
0002e0 92 76 f4 bd af 8d 77 3e 6a 5e 51 bf ee 5a 3a be
       -0.11936678 0.24175142 -0.8178469 -0.1819875
0002f0 87 f1 8e 3d 0e 20 1c be a0 20 9e 3d 0d db be bd
       0.069796614 -0.15246603 0.077210665 -0.09319124
000300 a7 9b f4 bd a9 99 af bd 5e b1 6b 3e 73 a4 08 be
       -0.11943751 -0.0857423 0.23016879 -0.13343982
000310 b3 7c 5b 3c 0c c7 07 bd 1b 6b 65 3e 47 2a f2 bc
       0.01339643 -0.03314881 0.22404139 -0.029561175
000320 cf cf d3 3d d2 e0 26 be f1 23 14 3e aa 7d 16 be
       0.10342371 -0.162967 0.14466836 -0.14696375
000330 5d a9 8d 3e 72 2e 4f 3e 1c c0 b2 3e 92 a3 db 3e
       0.27668276 0.20232561 0.34912193 0.42898232
000340 2e 21 bf bd 95 2d df bd 07 d2 12 3f ad 14 fd 3d
       -0.093325004 -0.10897366 0.57351726 0.12357459
000350 d6 91 ed bc db 1a 57 3e 51 0d 3c bd 9c 67 b8 3e
       -0.029000204 0.21006338 -0.045911137 0.36016548
000360 18 e7 03 be 82 d2 94 3c 7f 5e 03 3e e8 03 87 3d
       -0.12881124 0.018166784 0.12829016 0.06592542
000370 ad 81 03 3c 92 e3 b3 3d ff 26 81 bd 9a 98 14 bc
       0.008026523 0.0878364 -0.06306266 -0.009069586
000380 49 23 d5 3e 8a 6b 5c 3e 5d 4d 87 be 34 32 59 3f
       0.41628483 0.21525398 -0.2642621 0.8484223
000390 c5 66 0b 3e db 65 98 3e 7d 00 5f 3e c1 b5 8c be
       0.13613422 0.2976521 0.2177753 -0.27482417
0003a0 7b c3 3a 3f fa b8 59 3e dd 1c 07 be 3a 05 55 bb
       0.7295453 0.21261969 -0.13194604 -0.0032504336
0003b0 77 63 2d 3e fd 5e 36 3e 90 e5 54 3d 9a 9a 9a be
       0.16932474 0.17809673 0.05197674 -0.30196077
0003c0 e0 b7 ab be 1d 6b 94 bc df 10 8b 3c 39 72 f3 3b
       -0.33538723 -0.018117482 0.016975818 0.007429388
0003d0 c8 cb a5 bd 4b ff ec bc 22 22 14 bd 42 dd b6 bd
       -0.08095509 -0.028930327 -0.036165364 -0.0892892
0003e0 a4 3c ee bc 0b b4 10 3e 40 9a ed 3d 43 b9 92 3c
       -0.02908165 0.14131181 0.116016865 0.017910605
0003f0 be e1 0b 3d d3 d1 1f 3f 1c 83 a5 bd 35 68 e8 3e
       0.03415083 0.6242954 -0.08081648 0.45392004

layers.0.bias f4 [128]
000000 15 e1 ae bd 83 3e 1b be 15 da cb be f2 78 b3 3d
       -0.08539025 -0.15160565 -0.3981482 0.08763303
000010 2a a3 d3 bd 0c 6e 41 be 0e 71 b2 bd 29 86 2f be
       -0.103338555 -0.18889636 -0.0871297 -0.17141022
000020 54 cd bd bc 33 1f e7 bd 48 a1 88 be a7 ce c1 be
       -0.023169197 -0.11285248 -0.26685548 -0.37852976
000030 87 00 d1 bd 1e 83 2d be 11 65 94 3c 29 b1 36 bd
       -0.10205179 -0.16944548 0.018114598 -0.044602547
000040 17 1e e0 3e dd 6b 7e be 6c bf 79 be dc 42 d0 be
       0.43772957 -0.24845834 -0.24389428 -0.4067601
000050 8b e0 fc 3e aa 38 fc bd 87 a4 f1 bd fe c0 2e be
       0.49390063 -0.12315495 -0.11798959 -0.17065808
000060 35 fc 75 be b4 48 3a be 6a ef 95 be 99 57 49 be
       -0.2402199 -0.18191797 -0.2928422 -0.19662322
000070 73 e2 c4 bd 2c c2 92 3c f6 b4 03 3e f0 34 34 3e
       -0.09613504 0.017914854 0.12862 0.17598319
000080 23 08 05 3e 23 db 0d be 45 76 aa be c0 5b 21 3e
       0.12991385 -0.13853125 -0.33293357 0.15757656
000090 61 06 be be 36 61 ab be 2f b2 0e 3e f9 12 56 be
       -0.37114242 -0.33472604 0.13935159 -0.20905675
0000a0 93 52 92 bd 49 9e 81 be a8 b9 91 3d b6 12 46 be
       -0.07144656 -0.25316074 0.07115489 -0.19343075
0000b0 c1 5f 15 bd 3f 72 0b bd 86 32 b1 be db d3 0b bf
       -0.03646827 -0.0340445 -0.3460886 -0.5462014
0000c0 98 1f 04 bd b2 81 e6 3e fa 2a a4 be b5 9a ae be
       -0.032256693 0.45020825 -0.3206404 -0.34102407
0000d0 62 68 86 3e bc 86 b2 3e 0a 54 e3 3e 07 a6 8c be
       0.26251513 0.3486842 0.44400054 -0.2747042
0000e0 61 24 2f bd 6a 47 19 be 16 db b7 3e 3c 9f 60 3e
       -0.042759303 -0.14968649 0.35909337 0.21935743
0000f0 61 18 9b 3c d5 c2 04 3e 3f e3 e8 be aa c8 6d bd
       0.018932523 0.12964948 -0.45485875 -0.058052696
000100 34 be bf bc 1f 77 ab 3e ba b3 96 bd 37 99 86 be
       -0.023406126 0.3348932 -0.07358499 -0.2628877
000110 e4 62 a7 be 53 5e 74 be b1 4f 58 3e 79 33 9d 3e
       -0.32692635 -0.23864107 0.2112415 0.30703333
000120 41 db f2 3e 8e af 9d be a8 aa da 3c a3 78 bf be
       0.47432902 -0.30798 0.026692703 -0.37396726
000130 ae 9c 72 be a3 3c 25 bc d3 b4 83 3e 79 ba 16 bd
       -0.23692581 -0.010085258 0.25723895 -0.036798928
000140 f0 71 52 3d f2 b4 ca be 27 a0 25 3e ae 5f 08 3e
       0.05137819 -0.39591175 0.16174375 0.13317749
000150 5e e5 08 bd 8c 1f 28 be 90 e8 65 be b3 2d 6b 3e
       -0.033421867 -0.16418284 -0.22451997 0.22966652
000160 ce 6c ae 3e 0b a7 a9 be f8 ee c4 bd 2e 5c 42 3e
       0.34067386 -0.33135256 -0.09615892 0.18980476
000170 9b 73 00 bc d6 e5 92 be 26 e8 b1 bd b4 f2 49 be
       -0.0078400625 -0.28690976 -0.08686857 -0.1972149
000180 19 64 72 be 07 21 6a 3e 79 f5 87 3d 64 17 8b 3e
       -0.23670997 0.22864161 0.06638617 0.27166283
000190 41 5d 37 3e 9e 31 33 be 64 a5 8c be 00 fd 5c 3e
       0.17906667 -0.17499396 -0.27469933 0.21580887
0001a0 f2 19 90 3e 7c d4 b9 3d 61 31 2f 3b d6 67 02 3d
       0.28144795 0.09073731 0.0026732313 0.031837307
0001b0 64 ab 88 be fd 0e 26 be c1 a2 87 3e 14 66 0f 3f
       -0.2669326 -0.16216655 0.2649136 0.56015134
0001c0 7b 9c 3c 3e 29 4a d1 3c 04 fe ac 3e 8e 93 ed be
       0.18419068 0.025548058 0.3378755 -0.46401638
0001d0 6f b2 26 3e 3a eb 98 3e 17 e7 03 be 56 4d b1 3e
       0.16279005 0.29866964 -0.12881123 0.34629315
0001e0 21 13 00 3e 64 cc 90 bd ae 01 4a be 5a 4e fa bc
       0.12507297 -0.070702344 -0.19727203 -0.030554939
0001f0 57 b3 9e bd c3 08 49 be 42 e6 93 bd e6 3a e3 be
       -0.0774905 -0.19632249 -0.072216526 -0.44380873

layers.1.weight f4 [128, 128]
000000 55 17 ad 3c 26 0d 8a bd d5 38 99 bd 56 e2 a7 3c
       0.02112929 -0.06740789 -0.07481543 0.020493668
000010 15 f6 b8 3a 86 bb 34 3d 95 36 8d 3d 24 9b d6 3b
       0.0014111424 0.04412415 0.06895176 0.006549256
000020 3d 3c f5 bc ae 8c a5 3d 76 36 b8 bd b4 c3 d5 3b
       -0.02993595 0.08083473 -0.089947626 0.006523574
000030 05 ca cb 3d ce 60 4b bd 32 e6 bc 3c 3e b0 68 3d
       0.099506415 -0.049652867 0.023058984 0.056808703
000040 6b 32 bc 3d 2d fe 9f bd b0 84 4f bd 13 74 09 3d
       0.09189304 -0.07812152 -0.05066365 0.033557963
000050 ab b1 80 bb 6d 46 d3 bc d7 b8 6b 3d 65 f5 1b bd
       -0.0039274297 -0.025790418 0.057549324 -0.038075823
000060 9e 91 1b 3d 39 cd bf bd 97 9c 5a be 3a cc b4 bc
       0.03798067 -0.09365315 -0.21348797 -0.022070039
000070 1e bf b3 3c 7c ca 73 bd 2c ae c1 bd 71 d3 eb 3d
       0.021941718 -0.059519276 -0.09457049 0.115149386
000080 09 40 8a bd ee 90 6e 3d a2 aa d8 3d f5 05 fd bb
       -0.06750495 0.058243684 0.105794206 -0.0077216574
000090 17 05 50 bc 03 79 64 3b b8 d3 d7 3b f3 cf de 3c
       -0.012696526 0.0034862168 0.006586518 0.027198767
0000a0 29 14 bc 3d 99 a8 a9 3d aa bc 41 3c 4e 03 85 bb
       0.09183533 0.082841106 0.011824766 -0.004059232
0000b0 8a ed 45 bd f0 e7 67 bd 17 83 c5 3d 18 81 d7 3a
       -0.048322238 -0.056617677 0.09644144 0.0016441671
0000c0 f9 a4 d3 bc de 14 81 3c e7 a3 9a 3a 1d 89 3d 3d
       -0.025835501 0.01575702 0.0011798114 0.04627334
0000d0 c0 36 c7 bc 05 d9 9f bd b5 27 22 bd 75 54 60 bd
       -0.024318099 -0.07805065 -0.03958865 -0.054768045
0000e0 a8 b6 f1 bc 0d 7e 0b 3e 4e 3b 96 3d 76 db d1 bd
       -0.029506043 0.13622303 0.0733553 -0.10246937
0000f0 5f 4a f5 bc dc 23 f4 3d 47 32 93 3d 85 2b 00 bd
       -0.02994269 0.11920902 0.07187324 -0.031291503
000100 1e e3 19 3c a5 cd 7c bd c8 78 35 3d 67 dc 20 bd
       0.009392528 -0.061719555 0.04430464 -0.039272692
000110 46 8b 22 3d 1c 59 c4 3b 50 7b c2 3d af 3d 91 bd
       0.039683603 0.005992068 0.09496176 -0.07091843
000120 b2 6b 4b bc fb 9c 92 bc 73 8f 83 bc 0f 36 3c bd
       -0.012415813 -0.01789712 -0.016059613 -0.04594999
000130 18 93 8f 3d 51 8a 7c bd 78 d3 e5 3d fb b4 a2 3d
       0.07010478 -0.061655346 0.11221975 0.079446755
000140 7b e8 75 3d 39 16 1e 3e 26 14 a3 3d 0c 2f d2 3c
       0.060036164 0.15438165 0.079628274 0.0256572
000150 92 a3 54 3b 97 c1 db 3c ab 7d 70 bb d3 85 13 be
       0.0032446128 0.02682571 -0.0036695998 -0.14406519
000160 4c 04 99 bd 87 d2 3f bd 10 8f af b9 75 7d e1 3d
       -0.07471523 -0.046831634 -0.0003348519 0.11010257
000170 a7 35 58 bd 72 6c d1 bc 30 dc bc 3d 9a 6c 99 3d
       -0.05278554 -0.025564406 0.09221685 0.07491417
000180 0f b8 a7 bd cb b6 de 3c 03 41 cf 3b 85 1b 4f bd
       -0.08189403 0.027186772 0.0063248887 -0.050563354
000190 ca c9 99 3b 24 97 22 3d 21 b6 e5 bd 53 b9 7c bc
       0.0046932446 0.03969492 -0.11216379 -0.015425044
0001a0 ff 00 d0 bd dc d0 6c 3d c2 b2 aa 3d 7f 19 5b 3d
       -0.1015644 0.05781637 0.083348766 0.05349111
0001b0 5e f4 d9 bb ba cf 75 bd ee c6 05 3b df ee 61 be
       -0.0066514453 -0.060012557 0.002041276 -0.22063778
0001c0 0c 8e 8c 3d 3c 2c ce bc 69 da 90 bd 2a 2f ec 3d
       0.06863031 -0.025167577 -0.070729084 0.11532433
0001d0 d0 f0 df bd 52 13 06 bd 8b f4 6c bb 44 dd 06 3e
       -0.10934603 -0.03273327 -0.00361565 0.13170344
0001e0 d8 3b 41 3d e3 cf c9 bb 22 a2 0d be 57 44 79 3d
       0.047176212 -0.006158815 -0.1383138 0.06085619
0001f0 04 1f ec bd c2 88 d4 3d 61 a5 02 3d c6 5b dc 3c
       -0.11529353 0.10377647 0.031896 0.02689923
000200 e5 72 8a bb 93 58 c3 3d 90 61 c0 3d 5c bb 0a b9
       -0.0042251223 0.095383786 0.093936086 -0.00013230502
000210 1b 27 19 bd 8a 89 d1 bc 0a bf 75 3d 1b 48 aa 3d
       -0.03739081 -0.025578279 0.059996642 0.08314534
000220 0d 6f ba bd b4 e8 f4 3d 86 e8 74 bd 81 bc 89 3d
       -0.091032125 0.11958447 -0.059792064 0.067254074
000230 e1 8e d3 bd d1 28 97 bc 26 99 4d bc 65 96 11 3d
       -0.10329986 -0.01845208 -0.01254872 0.035543818
000240 3e 71 0d bd 45 39 3c 3b 4a 5c bd 3d a4 36 9c 38
       -0.034531824 0.0028720659 0.09246118 7.448837e-05
000250 2b 87 11 bc 8c 0d 8b 3d e9 dd c5 bd 1a 1d ff bc
       -0.008882324 0.06789693 -0.09661467 -0.031141806
000260 b7 6b 1b 3d eb 2e 94 3d 4e a5 89 bd fd 24 6e 3c
       0.03794452 0.072355114 -0.067209825 0.014535186
000270 d3 b2 1c bc 41 26 7c bd 3a f1 9c bd 06 ce 88 3d
       -0.009564119 -0.06155992 -0.07663198 0.06679921
000280 f2 dc 79 3d a6 d1 97 3a 30 b1 60 3d 17 2c c5 bd
       0.061001725 0.0011582866 0.05485648 -0.0962755
000290 72 39 2a bc 87 81 68 3d 19 a4 8b 3d 25 2d b4 bd
       -0.010389673 0.056764152 0.068184085 -0.08797673
0002a0 f9 cf 98 3c 9a 8e f0 3d 7a f6 3b 3c e5 e8 70 3c
       0.018653857 0.11745949 0.011472339 0.014703964
0002b0 81 9d 06 be 7a 19 a3 3d c3 fe b1 bd 81 8f 9c 3d
       -0.1314602 0.07963844 -0.0869117 0.07644559
0002c0 3b 50 4d bd 19 0e a6 bc 4c 97 c0 bc 32 a9 35 3c
       -0.05012534 -0.020270394 -0.023509644 0.011087703
0002d0 a4 b8 11 bd 52 c7 bf bd 1d 4f a2 bd 39 45 0f 3d
       -0.035576478 -0.09364189 -0.07925246 0.034978125
0002e0 1f a1 7c bc db d3 3b 3d ef f8 b8 3b a8 59 0d 3d
       -0.015419274 0.045856338 0.0056449096 0.03450933
0002f0 b1 99 d8 3c 52 5d b3 bd 3d 95 5e 3d 3a 8f 17 3d
       0.026440473 -0.08758034 0.054341543 0.037001826
000300 d2 cf de 3d 89 d6 ea bd ef 2b 6c 3c cc f9 3e bd
       0.10879482 -0.114667006 0.014414771 -0.046624944
000310 8d 1c 75 3d c7 cd 89 3d 08 8d f1 bc 98 a2 c8 bd
       0.05984168 0.06728702 -0.029486194 -0.09796637
000320 a9 e5 a7 bd c9 df d4 bd 09 ba fb 3c 79 9d 14 3d
       -0.08198101 -0.10394246 0.030728357 0.03628299
000330 97 8e 8b 3d 4e 95 64 bd 20 78 a2 3c 04 20 0f 3d
       0.06814306 -0.05580645 0.01983267 0.03494264
000340 b0 c6 8a 3c 14 cd 6a 3d ea 8a 45 bc 1e 0b 8f bd
       0.016940445 0.057324484 -0.0120570455 -0.06984542
000350 b8 f9 ae bb 3c 1c 82 3d 59 0b a8 3d d3 6b c7 bc
       -0.0053398274 0.063530415 0.082052894 -0.024343407
000360 31 2b 7b 3d 62 a8 16 3d 82 0c 8f bd aa 2b 50 3d
       0.061320487 0.036781676 -0.069848076 0.05082289
000370 d4 ed 82 3c c7 ed 44 3d 08 07 91 bd 3c ab da bc
       0.015982546 0.048078325 -0.07081419 -0.026692979
000380 23 3a c6 3d fe 71 a5 bd 41 99 d8 bd af 5c d6 bb
       0.096790574 -0.08078383 -0.10576106 -0.0065418105
000390 93 b4 6a bd dd 5f 93 3c a5 a4 c5 bc 0a ec b5 3d
       -0.057301115 0.017990047 -0.02412636 0.088829115
0003a0 fa 23 92 3c a0 20 ae bd d7 ab 11 bc b1 80 2f bd
       0.01783942 -0.085023165 -0.0088910675 -0.04284734
0003b0 af 29 33 3d d6 4c 53 bc 0e 85 fa bd 0b 59 20 bd
       0.043740924 -0.012896737 -0.122324094 -0.039147418
0003c0 cd 04 47 3d 6c 16 0d bd 49 b7 4a 3c a1 99 32 3d
       0.048588563 -0.03444521 0.0123728 0.043603543
0003d0 59 f7 ce bd eb 59 6d 3d 07 fb ad bd ed 1f 74 3c
       -0.101057716 0.05794708 -0.08495145 0.01490019
0003e0 c5 54 ad 3c e5 47 c4 3c 8e 23 ac bd 7f 4e 4f bd
       0.021158585 0.023960063 -0.08405219 -0.05061197
0003f0 aa 48 58 bc 9c 04 d6 bc 8b 08 06 3d a6 69 82 3d
       -0.013200918 -0.026125245 0.03272299 0.06367807

layers.1.bias f4 [128]
000000 12 62 b8 bd d8 a9 b8 bd e6 cf a0 bd 5c 10 1e bd
       -0.090030804 -0.0901677 -0.078521535 -0.03858982
000010 e1 43 dd 3c 55 1c 64 bd 36 c8 14 3e 44 b1 09 3e
       0.027009906 -0.055691082 0.145295 0.13446528
000020 94 e8 a2 bd 4f aa c0 bd 99 aa ae 3d ed 7b 0a bd
       -0.07954517 -0.09407484 0.08528633 -0.03380959
000030 60 b5 ac bb 1d f5 7a bc 15 6b 09 3e 47 b4 80 3b
       -0.005270645 -0.015317229 0.13419755 0.0039277407
000040 37 3c 42 bd 82 a3 41 3d 86 6f e6 3c 41 35 84 3c
       -0.047420707 0.047275074 0.02812935 0.016138675
000050 21 1f bd 3d 84 24 08 3e e6 99 30 bc 6b ad 08 3e
       0.09234453 0.1329518 -0.01077888 0.13347404
000060 fd 93 2a 3e 35 0e 2a 3d aa d6 e5 bd e1 62 f9 bd
       0.16658016 0.041517455 -0.112225845 -0.12177063
000070 96 66 47 bb 3a 35 03 3e 6b 39 2a bc 1d cb b9 bd
       -0.0030426136 0.12813273 -0.010389666 -0.09071944
000080 a7 99 0d be c1 53 99 3d b0 25 2e 3c 90 ab 55 3c
       -0.13828145 0.07486678 0.010629103 0.013041392
000090 d7 ea b0 3d 9c e7 20 be 4a ef be 3d 3b 4d 10 3e
       0.08638542 -0.15713352 0.093229845 0.14091961
0000a0 a3 13 19 bd 71 15 c8 3d 0b b7 ff 3d 1e 14 cf 3c
       -0.037372243 0.097697146 0.124860846 0.025278147
0000b0 e2 51 f4 bd f9 01 af 3c b6 ae 88 3c 58 06 ed bd
       -0.119296804 0.021363245 0.016684871 -0.115734756
0000c0 09 a9 c6 bd 04 c5 a1 3c 21 64 a9 bd c7 80 6d bd
       -0.0970021 0.019747265 -0.08271051 -0.05798414
0000d0 ee 38 3a bd b0 fb 03 be 53 f4 5c 3d 0b 46 b5 bd
       -0.04546445 -0.1288898 0.053943943 -0.0885125
0000e0 6d 22 04 3e ea b3 fd bd a3 7c 48 3c 0c 34 0b be
       0.12903757 -0.123878315 0.012236747 -0.13594073
0000f0 c4 fe 46 be 34 2f 9b 3d 88 5a f5 bd c8 6f 25 bd
       -0.19433123 0.07577363 -0.11980158 -0.040389806
000100 05 10 13 be 1c 20 51 bd 9c 1c 80 3d 6a ba cc 3c
       -0.1436158 -0.051056013 0.06255457 0.024991233
000110 d3 dc 74 bc b2 5b 09 be 62 9a 28 be 44 cc 2f 3d
       -0.014945227 -0.13413885 -0.16465142 0.042919412
000120 7f 9d c8 3d a7 f6 a7 3d 9c b6 24 bd 3c 8a ca bc
       0.09795665 0.08201342 -0.040213212 -0.024724118
000130 ee 59 39 be 14 eb 2c 3e 30 3e c9 3c 0e bc 02 be
       -0.18100712 0.1688655 0.024565786 -0.1276705
000140 58 b9 ad 3d 6b 37 ee 3c 28 b9 59 3e d5 4f e9 3d
       0.08482617 0.02907916 0.21262038 0.1139218
000150 b2 e8 15 3d 55 aa 91 bc d0 6e 01 b9 a3 2a 62 3d
       0.03659887 -0.017781416 -0.0001234368 0.055216443
000160 b9 ba ee bc 64 3d d2 3d d9 23 66 bd b2 47 01 3e
       -0.02914177 0.102656156 -0.05618653 0.12625006
000170 9a 05 25 3e 2c cf 4a 3d 87 ab da bd 47 48 28 3d
       0.16115418 0.04951398 -0.106772475 0.041084554
000180 79 64 cd 3c 77 a1 3e 3d 06 04 ff bd 55 5b 0d 3d
       0.025072323 0.046540704 -0.12451939 0.03451093
000190 31 bf 9c bd ef e5 38 bc c7 35 1b bd 89 41 18 be
       -0.07653654 -0.011285289 -0.037893083 -0.1486875
0001a0 a3 b8 54 3d ef 1b d9 bd 6a 89 17 be ae 17 d4 bd
       0.051933896 -0.10601031 -0.14798513 -0.10356079
0001b0 41 20 0d 3e 3a 21 8e 3c 46 3b ce 3c 6a 63 d2 3d
       0.13781835 0.017349828 0.025174748 0.10272868
0001c0 a1 1a 1a bd ab 51 86 3d 3e 44 ba 3d 74 2c dc bd
       -0.03762305 0.06558546 0.090950474 -0.10750666
0001d0 9e 30 03 bd f7 18 ec bd af c1 1f be 3c 5e d4 bc
       -0.032028787 -0.11528199 -0.15601228 -0.02592384
0001e0 1c 13 a8 bd 48 5d eb bc c5 e4 70 3d 54 fb 93 3d
       -0.0820677 -0.028731003 0.05881192 0.072256714
0001f0 c5 43 a5 bd 85 e5 19 be 3e d7 9a 3c 7e 8f 16 3d
       -0.08069567 -0.15028961 0.018901464 0.03675794

layers.2.weight f4 [64, 128]
000000 c6 11 ee 3c 90 3f 0c be 50 30 e5 bd 00 d5 f6 3d
       0.02906121 -0.13696122 -0.111908555 0.12052345
000010 39 e5 2d be 9b 9c 2d bd 89 5c 2d 3e 07 69 94 3d
       -0.16981973 -0.04238568 0.1692983 0.07246595
000020 27 0e 05 3e 7d 89 c1 3c b4 57 35 3d c7 bb c8 3d
       0.1299368 0.02362513 0.044273093 0.09801441
000030 e0 24 13 bd ae 9d 8e bd bd 1b af 3d bd e1 f3 3c
       -0.03592384 -0.06963669 0.085502125 0.029770726
000040 63 5e d2 3c 27 60 84 3d c1 8f 11 3d 65 84 3e 3d
       0.025679773 0.06463652 0.035537485 0.04651298
000050 80 b7 c8 3c 8b 9c 38 3e f5 28 c4 3b 74 75 0b 3e
       0.024501562 0.18028466 0.005986328 0.13619024
000060 da 84 2f 3d 9c 56 f7 3b ae cf d2 bc d7 cb ca 3c
       0.042851306 0.0075481664 -0.025733795 0.024755402
000070 0a 78 98 bd a1 b8 ac bd 76 97 c9 3b e3 d1 dd bb
       -0.07444771 -0.08433653 0.0061520888 -0.006769405
000080 d7 cd f4 bd ca 7c 9c 3d 1a c0 02 3d d1 6a 55 bd
       -0.11953323 0.07640989 0.031921484 -0.05210382
000090 b0 f0 8d bc 46 43 e4 bc cb 78 c3 3d 95 49 03 3e
       -0.017326683 -0.02786411 0.09544524 0.12821038
0000a0 29 a2 04 be dc 81 e1 3d 55 10 0e bc 72 64 1e 3d
       -0.12952484 0.11011097 -0.008670886 0.03867001
0000b0 6b 93 14 bd 1b 65 07 3e b4 23 3c 3d 89 a7 1e 3c
       -0.0362734 0.13222162 0.045932487 0.009683498
0000c0 d0 c5 fb bd af 58 86 bd a0 26 d4 3d 9e 4e 68 3d
       -0.12293589 -0.06559884 0.1035893 0.0567156
0000d0 fa 57 9a bd 2d 0f 8e 3d 86 ce e0 3d ea 15 12 3c
       -0.075363114 0.06936488 0.10976891 0.0089163575
0000e0 7a 64 8d 3c 75 cc 9b 3d 47 46 cc 3b fe 65 7d bd
       0.017259825 0.076073565 0.0062339636 -0.061864845
0000f0 32 d0 63 bd 23 e6 43 bd f4 d7 db bd d6 f9 92 3d
       -0.055618472 -0.047826897 -0.10734549 0.07176559
000100 c1 f3 0f 3d 64 43 06 be 84 10 cf 3d d2 73 d6 3d
       0.03514457 -0.13111645 0.10110572 0.1047131
000110 79 2f ff bc 59 f5 96 bd 2a 52 89 bd 13 4e 26 3e
       -0.031150566 -0.07371015 -0.06705125 0.1624072
000120 dc f3 08 3e 7b 7a b6 bc 99 a6 e0 3d 0a 68 3b bd
       0.13374275 -0.0222752 0.10969276 -0.045753516
000130 b5 86 8b bc ba 59 f8 3c 20 76 8f 3d 3e bd e6 bd
       -0.017032007 0.030316222 0.070049524 -0.11266564
000140 c3 cc 52 3d a7 70 85 bc d9 d5 75 3d ff ef dc 3b
       0.051464807 -0.016289068 0.060018394 0.006742477
000150 1b e7 96 bc 84 c1 be bd d7 54 68 bd b2 4e a8 3b
       -0.018420747 -0.09314254 -0.056721535 0.0051363343
000160 b6 33 9e 3d a7 aa 7d 3c c4 8e ed 3d 42 cd 43 3d
       0.07724707 0.015482581 0.11599496 0.04780317
000170 ba f4 90 3d 89 c7 e6 3d 46 d8 e8 bd 2c 6e 17 3e
       0.07077928 0.11268527 -0.11369376 0.14788121
000180 5e 68 4b bd 04 87 18 3d 28 51 3d 3d 6a d7 dd 3d
       -0.04966008 0.037238136 0.046219975 0.108321026
000190 ef 22 04 be 54 05 9a 3d 57 c6 ac bc c1 9a f4 bc
       -0.12903951 0.075205475 -0.02109067 -0.029858949
0001a0 2d 47 0c 3c 38 e2 a7 3c 53 cb fd bd 25 53 39 bd
       0.0085618915 0.020493612 -0.12392297 -0.04524531
0001b0 7a 63 fc 3d 92 a0 88 3d 1f 22 c8 ba d1 af 94 bb
       0.12323661 0.06671251 -0.0015268958 -0.0045375605
0001c0 d5 8a 03 3d 43 06 ed 3b fb 02 04 bd 9f a7 26 bd
       0.032114822 0.0072334125 -0.032229405 -0.0406872
0001d0 0d fb 23 3d 4a eb 98 bb b5 2e 0e be 2a 27 46 bd
       0.040034343 -0.0046667205 -0.13885005 -0.048377194
0001e0 ce b8 7e 3d bb 0f c6 3d a7 45 ed 3c b0 c2 84 bc
       0.062187962 0.09670969 0.028963877 -0.016206115
0001f0 19 c8 6b 3d 9e 1c e3 bd 93 52 33 3d 23 c3 54 bd
       0.057563875 -0.11089443 0.04377992 -0.05194391
000200 42 9f d1 bd f5 7f 00 bd 05 b2 36 bd 21 dc 50 3e
       -0.10235454 -0.03137203 -0.044603366 0.20396473
000210 51 f8 95 bd 84 c0 46 3b ca a0 5c bd b6 87 a4 3c
       -0.07322753 0.003032715 -0.053864278 0.020084243
000220 56 7c fb bc 72 fd af bd 12 82 3c bd 76 e6 82 bc
       -0.030698936 -0.08593263 -0.046022482 -0.015979033
000230 f2 18 c6 3c 7d 3b 39 be f1 14 b3 bc 21 4e 92 bd
       0.024181817 -0.18089099 -0.021860572 -0.07143808
000240 2e 29 b6 bd 0c 72 78 bd 91 13 df bd c4 f6 93 bd
       -0.08894573 -0.06065564 -0.10892404 -0.07224801
000250 8d f4 3f bd 9d 1e db 3c 89 c4 bc 3b 04 b9 25 3d
       -0.04686408 0.026747996 0.0057607335 0.040459648
000260 b6 7a 34 bd c9 6e 5d 3d 54 16 a5 bc 49 93 90 bc
       -0.04406234 0.05406073 -0.020152248 -0.017648356
000270 4e 4b 65 be 06 12 cd bd 5d 39 0d 3e 2f 97 7b 3d
       -0.22392008 -0.10013203 0.13791414 0.061423477
000280 a7 c0 51 3c fd 49 3e 3d 92 01 38 bc 9c 9b 07 3e
       0.01280228 0.04645728 -0.011230843 0.13242954
000290 3f 95 01 3e 91 3a 6b bd 43 e3 d5 bc 38 4d e8 3c
       0.12654589 -0.0574289 -0.026109343 0.028357133
0002a0 32 5d 2e be 2e c5 61 bd ae 4f a3 bd 8b ac f1 3d
       -0.17027739 -0.055119686 -0.07974182 0.11800488
0002b0 8a 58 98 3d 5b b1 0c 3e bf 81 51 bd 85 6f 60 bd
       0.074387625 0.1373953 -0.051149126 -0.054793853
0002c0 eb f2 64 3c f0 d3 ee bc 28 3b 9d 3c a2 07 01 bd
       0.013973932 -0.029153794 0.019193247 -0.03150142
0002d0 aa 46 03 3d 5e ed 87 bd 0b 24 4c bc 89 98 72 bc
       0.032049812 -0.06637071 -0.012459765 -0.014806875
0002e0 4c ad 9d 3d 36 a4 e6 3d ac 30 aa 3d 33 6e 06 be
       0.076990694 0.112617895 0.08310065 -0.13127975
0002f0 2d ee 20 3c b0 59 50 3d bd 3d 6e bd 9c eb 20 bd
       0.0098224105 0.050866783 -0.058164347 -0.039287195
000300 64 62 12 3c fb fc fa bc 7e 52 6f 3d d1 b6 38 3e
       0.008934591 -0.030638209 0.05842828 0.18038489
000310 95 29 6a bb bd 93 73 bd 48 71 6c bc 63 66 c7 3d
       -0.0035730351 -0.059467066 -0.014431305 0.097363256
000320 48 ed 84 3d 92 39 b8 3a de 14 ec 3d 6e cc 2b 3c
       0.0649057 0.0014055243 0.115274176 0.010485752
000330 b1 b9 ab bd 8f 0f 85 3b c0 c1 f0 3d c8 e0 d1 bd
       -0.08385027 0.0040606926 0.11755705 -0.10247952
000340 8f 5c f8 bd 39 e2 00 3e da e8 c9 3d 54 07 39 3c
       -0.12127029 0.12586297 0.09858866 0.011293251
000350 22 58 23 bd 2c 1b 32 3c 0d 55 de 3d cc 5b 9a 3d
       -0.039878972 0.010870736 0.10856066 0.0753704
000360 40 04 38 3e 06 0f be 3a 1b 24 8a 3c e9 1a e3 bb
       0.17970371 0.0014500327 0.01686292 -0.006930698
000370 bb 8c ee bd ca d1 a8 bc 41 53 d4 3a 4d 02 03 3d
       -0.11647936 -0.020607848 0.0016199128 0.031984616
000380 70 7a a0 3b 43 6e 88 bb aa 3d 37 3d 8e e3 0b 3e
       0.004897408 -0.004163535 0.04473654 0.13661024
000390 e4 59 fe 3c 6c 59 44 bc fb 3a c4 bc bc 6c 67 bd
       0.031048723 -0.01198421 -0.023953905 -0.05650018
0003a0 6e 55 c6 3d dd 1c 19 be 6d ed c8 bd ae 7b 8f 3d
       0.09684263 -0.14952417 -0.098109104 0.07006012
0003b0 8b 25 90 bd 1a 6c 86 3d df 88 e5 3d a9 5f 02 be
       -0.07038411 0.065635875 0.11207747 -0.12731804
0003c0 5e 7c cd bd ef 1a 1d 3e 6c ed b8 3c 79 88 22 3e
       -0.10033487 0.15342306 0.02257415 0.15872373
0003d0 b7 c5 61 3d aa 49 1f 3d 9f 6f 2e 3d ad 92 0a be
       0.055120196 0.03888861 0.04258692 -0.13532515
0003e0 4a f7 d2 3c f6 25 80 bd c5 01 e3 3c f2 c6 86 be
       0.025752682 -0.062572405 0.027710805 -0.26323658
0003f0 72 77 9d 3b 2a 2f 54 3d a1 51 c6 bd 7d c9 2c be
       0.0048054988 0.05180279 -0.09683538 -0.16873737

layers.2.bias f4 [64]
000000 2b 93 cc 3d 23 93 0d bd 22 c9 a0 3c 79 07 c8 3c
       0.099890076 -0.03456415 0.019627158 0.024417626
000010 9c b6 75 bd 1b e6 02 bb 0a 8c 0b bd 83 87 1f 3d
       -0.059988603 -0.001997358 -0.0340691 0.038947593
000020 da 40 61 bd 3f 15 a7 bd 04 bb 53 3c 58 a9 15 bd
       -0.054993488 -0.08158349 0.012923006 -0.036538452
000030 d5 8a 2f bd 42 f6 23 bc a3 bf aa bc cd 8b 87 3d
       -0.04285701 -0.010007443 -0.020843333 0.06618462
000040 0f 2c b0 bc 60 8a 98 3d c1 4d 3a 3c 59 96 16 bd
       -0.021505384 0.07448268 0.011371077 -0.036764476
000050 c5 0d 84 3d 89 f5 00 3d 5d 39 8b bd 9c 68 13 be
       0.06447939 0.03148416 -0.067980506 -0.14395374
000060 57 1d b1 3d 81 64 84 bd 28 5a 10 3d 26 5b 94 bc
       0.08648174 -0.06464482 0.03524223 -0.01810987
000070 ac 7d ea 3d 4f 4e f0 bd 15 18 df 3c 9a 6d d8 bd
       0.11449751 -0.11733686 0.027233163 -0.1056778
000080 42 76 ef 3d 3f 55 42 3d 79 6d b4 3d e4 15 39 3c
       0.11692478 0.04744458 0.08809943 0.011296723
000090 ae 03 3e 3d 36 7f 32 3c d2 c1 0a 3c 2d ee e6 3c
       0.046390228 0.010894587 0.008469062 0.028189743
0000a0 a4 22 12 bd a3 c5 ad 3d 6b 2f 81 3c 33 96 9a 3c
       -0.035677567 0.08484962 0.015769681 0.018870449
0000b0 88 15 ed bd 3c 55 5c bd 90 f1 af bd 01 62 2c be
       -0.115763724 -0.053792223 -0.08590996 -0.1683426
0000c0 28 3d bf 3d 38 04 9e bd 7c fd b7 bc aa 38 6b 3b
       0.093378365 -0.077156484 -0.022459738 0.0035891929
0000d0 b1 40 bc 3c 80 8d 2b 3e b0 38 85 bd d7 2f d7 bd
       0.022980066 0.16753197 -0.06504953 -0.105071716
0000e0 77 5a 74 3d 05 45 09 be 59 96 89 bd 7c 92 11 3d
       0.059656586 -0.13405235 -0.0671813 0.03554009
0000f0 85 8e 04 be ff 4e 14 be 34 39 93 3c dd 77 b9 bc
       -0.12944992 -0.1448326 0.017971613 -0.022640163

readout.weight f4 [1, 64]
000000 f9 61 b8 be 1c b1 98 be 60 a6 73 be b1 80 84 3e
       -0.36012247 -0.29822624 -0.23793936 0.25879434
000010 fe 13 c3 3e 05 3e e2 3e 74 47 cf be f4 7d c8 be
       0.3810119 0.44187942 -0.40484202 -0.39158595
000020 e9 e9 44 3e a1 bb 08 3f 83 82 b2 be d8 09 b0 3e
       0.19229855 0.534113 -0.34865198 0.3438251
000030 5f 8b 9e be 23 bd 84 be 22 46 cb 3e 11 ea d0 be
       -0.30965707 -0.2592555 0.39701945 -0.40803578
000040 fa 6c b3 be aa 7d 87 3e d2 d6 df 3e 92 21 91 be
       -0.3504408 0.26463062 0.43718582 -0.28345925
000050 b5 5f bd be 32 6a a6 3e 7a 9d d8 3e b4 e5 9b 3e
       -0.3698708 0.32502896 0.42307645 0.30448687
000060 35 0b 9e be c4 11 f0 be 50 b5 c4 be c0 07 f7 3e
       -0.30867925 -0.46888554 -0.3841958 0.482481
000070 52 e5 d9 be 71 a8 da 3e 14 78 87 3e 88 df a0 3e
       -0.4255777 0.42706636 0.264588 0.3142054
000080 14 0f e8 be fb 26 d2 3e 67 6b 81 be 03 da 4e be
       -0.45324004 0.41045365 -0.25277254 -0.20200352
000090 54 0c 76 3e 73 4c c8 be e7 21 9a be 13 ed bb 3e
       0.2402814 -0.39120826 -0.3010399 0.3670431
0000a0 26 5f cc be 37 ef c4 be 36 69 e8 be ce 06 11 bf
       -0.39916342 -0.38463756 -0.4539277 -0.5665101
0000b0 2a 95 ab 3e 71 c2 ec 3e 5e 88 b6 3e 06 85 e4 3e
       0.3351224 0.46242097 0.35650915 0.4463274
0000c0 38 87 52 be 8e 26 1c 3f 71 4e e7 3e fd 7b 8c be
       -0.20559394 0.6099633 0.45177034 -0.27438346
0000d0 0d b3 aa be 29 fc ee be 90 4e 8c be cd dc b2 3e
       -0.3333973 -0.46676758 -0.27403688 0.34934083
0000e0 9e 9d 46 be ca f9 a5 3e ba 0f cc 3e e8 a2 91 3d
       -0.19396064 0.32417136 0.39855748 0.0711115
0000f0 65 c1 19 3e 03 a7 e1 3e 30 37 1a be 8d 28 d8 3e
       0.1501518 0.44072732 -0.15060115 0.42218438

layers.0.weight f4 [128, 17]
000000 d6 6c 0b 3e cf 93 05 3f ed f1 a6 bd 57 91 9d bc
       0.13615736 0.52178663 -0.081516124 -0.019234343
000010 0f fb 23 be 91 2c 25 be 41 2f 14 be 50 a7 23 bd
       -0.1601374 -0.16130282 -0.14471151 -0.039954484
000020 63 53 4d 3e a1 96 65 be 5a b1 9c bd 85 5f 49 bd
       0.20051341 -0.22420742 -0.076510146 -0.04916336
000030 4f bf 91 3d 1b 49 8a 3c 86 ea 44 be ea 0e 03 bd
       0.07116567 0.016880563 -0.19230089 -0.031996645
000040 13 87 67 3d 1c ab 52 3e c2 50 22 bf b1 4f 02 bf
       0.0565253 0.20573086 -0.63404477 -0.5090285
000050 b2 05 52 3e fb f6 b8 be 14 a2 1b 3f 54 15 df bd
       0.20509985 -0.3612593 0.60794187 -0.1089274
000060 55 bb 85 3e ae d5 ff be 8e 8b ac be dc c7 d9 3d
       0.26119485 -0.49967712 -0.33700222 0.10633823
000070 1f fd aa 3d 93 78 36 3e 0e 8e 3b bc eb cf d6 bb
       0.0834906 0.17819433 -0.011447443 -0.0065555475
000080 06 cc 0d bb 29 eb f5 3d 71 2b 99 3e 78 f0 0a bf
       -0.00216365 0.12007744 0.29915956 -0.54273176
000090 36 10 97 3d 31 1f 70 3e 33 c6 ba bd f7 dc 6b 3f
       0.07376139 0.23449399 -0.09119835 0.9213404
0000a0 80 5a 14 3e 9b 78 8b 3e 35 94 f3 be cb 64 4d 3d
       0.14487648 0.27240452 -0.4757401 0.05014495
0000b0 c7 ef a4 3e b8 86 89 bd b3 43 88 3c 3d 8f 8f bc
       0.32214186 -0.06715149 0.016633844 -0.017524356
0000c0 c4 2b c7 3e c0 7a b7 3d 05 2d 97 3d 64 c0 7a be
       0.38900578 0.089589596 0.07381634 -0.24487454
0000d0 8d 8f 3c bf 23 8d 14 3e 80 ec 9b be 77 30 7a 3d
       -0.7365654 0.14506964 -0.30453873 0.061081376
0000e0 43 eb 75 3e 37 81 94 3e 5a 3d 83 bd 7b 0c da 3d
       0.24015526 0.29004833 -0.06408186 0.10646912
0000f0 20 1a 8b bd 38 5a 08 be de 01 b9 3d 19 d5 87 3d
       -0.06792092 -0.13315666 0.09033559 0.06632442
000100 10 1a c2 3c 03 01 ec bd 7d a6 09 be ba f1 55 bd
       0.023694068 -0.115236305 -0.13442416 -0.05223248
000110 5a 99 76 3e c4 b7 e1 bd ab fd 73 3f f7 93 fb be
       0.24081936 -0.11021379 0.9530894 -0.49136326
000120 4f a8 8b be 50 7c 8b 3d 5e 03 37 3f 66 ab d2 3e
       -0.27276847 0.0681082 0.7148951 0.41146392
000130 ea 1d c1 3e f9 44 38 3f 57 cb 0c 3e 4e d0 41 3d
       0.37718135 0.71980244 0.13749443 0.047317795
000140 62 9b 06 bd dc 3d 8d 3c 47 df 8a bb 24 d1 57 bc
       -0.03286303 0.01724141 -0.0042380425 -0.013172422
000150 63 af 02 bc 05 79 d0 3e e5 c0 d3 be d8 13 30 bd
       -0.007976386 0.4071733 -0.41358104 -0.042987674
000160 53 b2 99 be 75 fb ff be b4 f1 18 bf 9d 38 e7 be
       -0.30018863 -0.49996534 -0.5974381 -0.4516038
000170 33 2e 7d be e5 5a 2c bf ea e3 9a 3e ce 32 3e be
       -0.24724655 -0.67326194 0.3025201 -0.18574068
000180 02 31 23 3e eb f5 78 3e 62 1d 1a bd 10 62 47 3e
       0.15936664 0.2431256 -0.037625678 0.19471002
000190 42 c2 34 be 64 d0 16 3d 5d 77 0d 3f b8 36 0a be
       -0.17652228 0.03681983 0.5526026 -0.13497436
0001a0 c5 da 71 bf 0d e9 87 bd 5a ba 9b bd ae 67 0e bf
       -0.9447444 -0.06636248 -0.07603903 -0.5562695
0001b0 50 77 9c be 8c e8 cd 3d 66 cc 00 bf 29 60 f7 3d
       -0.30559778 0.100541204 -0.5031189 0.12078888
0001c0 73 a8 4d be f2 bc 95 3d 1a af 47 bc 62 88 a0 bd
       -0.2008379 0.07311429 -0.012187744 -0.07838513
0001d0 a8 f0 78 3c 03 0e 04 be dc 4e 39 3d 9c ed 88 be
       0.015194096 -0.1289597 0.04524122 -0.26743782
0001e0 03 7f 9f 3d 3f 52 76 bf 6c 84 0e be 28 8a 8e be
       0.077878974 -0.9621925 -0.13917702 -0.2783978
0001f0 a6 93 02 3f 20 46 17 be 28 3e 61 3e 5d 30 85 3e
       0.51006544 -0.14772844 0.21996367 0.2601346
000200 fa 35 88 bd 60 17 31 3f 0a a9 cb bd 44 2a 0f 3e
       -0.0665092 0.6917629 -0.09944351 0.13980967
000210 af cd 81 3d 31 d7 6b 3d 6a a9 c0 3d 97 26 c3 bc
       0.06338059 0.05757827 0.09407313 -0.023822112
000220 0c 98 f0 3e c0 20 5d bf 24 d7 0e 3d 28 f4 1c 3d
       0.46991003 -0.863781 0.034873143 0.038318783
000230 81 ec 1a 3f e3 f4 da bd 6c 8e 92 be e0 8f 05 bd
       0.60517126 -0.1069124 -0.28624284 -0.032607913
000240 61 51 56 bf 3d 86 8c 3e 9e a8 a0 bd 7a d1 03 bd
       -0.83717924 0.27446166 -0.07844661 -0.032182194
000250 6d e2 5d 3d 0b 4e 5c 3c fa aa 80 bd 67 64 96 bd
       0.054171015 0.013446341 -0.06282611 -0.07343369
000260 37 98 86 3d bf a8 f1 3e d0 24 42 bf ff 05 77 be
       0.065720014 0.47199056 -0.7583742 -0.24123381
000270 eb 2c ac 3e 3b ef a4 3d 9b 49 e2 3e 76 e5 78 be
       0.3362802 0.08053442 0.44196782 -0.24306282
000280 2f 04 c8 3d 82 31 53 3e 42 79 bf be 84 3f c9 be
       0.09766423 0.20624354 -0.373972 -0.3930627
000290 aa bb 17 be 2c 31 19 bd 02 8f f6 bb 85 eb 44 3e
       -0.14817682 -0.03740041 -0.007524372 0.19230469
0002a0 66 3c 9d 3d 56 a5 6a 3c 55 cd e5 bd 11 09 d0 3d
       0.07677536 0.014321646 -0.112208046 0.10157979
0002b0 66 8d 0f 3f d3 a9 d7 3e f9 8d 01 bf 4e e8 33 3f
       0.5607513 0.42121753 -0.5060726 0.70276344
0002c0 d3 8a cc be 55 4d dd 3d 2d b0 1f 3f 83 dc 46 bf
       -0.39949664 0.108057655 0.623782 -0.77680224
0002d0 3d 93 bb bd 9f 80 ba 3d 50 d8 04 3e de df 07 bd
       -0.09158943 0.09106564 0.12973142 -0.03317248
0002e0 93 8d 8b 3c ee 13 50 3d 52 28 67 3d cd b2 fa 3d
       0.017035281 0.050800256 0.056434937 0.12241135
0002f0 d0 57 bf bd a4 33 32 3e 1e a1 57 bf 45 e0 69 3e
       -0.09342921 0.17402512 -0.8423022 0.22839458
000300 de d9 2b 3f 0d c4 3c 3f eb 3b 47 3e e9 29 6b be
       0.67129314 0.7373665 0.1945645 -0.22965206
000310 3a e6 2c 3f 45 ef 84 be ac 03 49 3d 07 ed 83 bd
       0.675388 -0.25963798 0.049075767 -0.06441694
000320 9c 6b ad 3c aa d0 0c 3c 79 c8 bf bb a3 21 f2 bb
       0.021169476 0.008594671 -0.0058527556 -0.0073892637
000330 23 db b4 3e 3d 98 8c bd d8 f7 c1 be c4 0a 0b be
       0.35323438 -0.06864975 -0.37884402 -0.13578326
000340 c2 ac 86 be e4 cc a0 bf 47 db 8c be 72 81 97 be
       -0.2630368 -1.2562528 -0.27511045 -0.29590946
000350 79 08 2b 3f da 96 28 3f df 52 eb 3e 8a fc f3 3b
       0.66809803 0.6585518 0.45961663 0.0074458765
000360 29 60 c5 3b a9 7c b6 3c cd 5c f6 bb 3e c5 94 3d
       0.006023426 0.02227624 -0.007518387 0.072641835
000370 72 97 c2 3b 92 a2 93 be 79 b2 8f 3e 46 5e 9b 3e
       0.005938464 -0.2883497 0.2806585 0.30345362
000380 da a0 9c 3e cf d8 25 3d 2c 90 71 3f ee d6 7d 3f
       0.3059147 0.040489968 0.94360614 0.9915608
000390 ef 6f 27 3f 3f f3 e0 be 16 dc 9b 3e b5 ca c2 be
       0.6540517 -0.43935582 0.3044135 -0.38045278
0003a0 d4 ef 47 3d d1 78 a0 3d 25 95 b8 3c 78 0f c9 bd
       0.048812702 0.07835544 0.022532055 -0.098174036
0003b0 70 d1 f1 bd 42 d2 84 bc 6f e7 52 3f 22 17 7a bf
       -0.11807525 -0.01621354 0.8238439 -0.9769155
0003c0 5f 23 6a bf e3 35 0c bf d3 92 e5 be de df e2 bd
       -0.9146022 -0.54769725 -0.4483858 -0.110778555
0003d0 42 7f f8 3d 64 d6 5c bd d7 8d 33 be 1d 6c 1b 3f
       0.121336475 -0.053915396 -0.17534576 0.6071184
0003e0 36 9e 92 3c f8 5f 25 be e4 6a b4 bd 8d 55 1a bc
       0.017897706 -0.1614989 -0.0880945 -0.009419811
0003f0 69 bb 6e be 6d 69 8c 3d c3 0c c6 3a ad ec b6 be
       -0.23313679 0.06856046 0.0015110004 -0.35727444

layers.0.bias f4 [128]
000000 67 f3 81 3e eb 6b 40 3f 07 de cf 3c a0 e4 34 3f
       0.25381014 0.7516467 0.025374426 0.70661354
000010 60 e6 36 3f 2d 31 c4 be a3 e7 1c 3f 45 90 4d 3d
       0.71445274 -0.38318768 0.6129095 0.050186414
000020 58 e7 9e be ef 17 b8 3e a9 42 e0 3e cf 42 1e 3f
       -0.31035876 0.3595576 0.43800858 0.6182069
000030 80 a1 3c 3f cf a7 4d 3d ae b3 a4 bd 25 43 4e be
       0.7368393 0.050208863 -0.08042084 -0.20142801
000040 91 15 13 3e 7e 3c 9f 3c ba 12 38 3f a5 e8 04 3f
       0.14363696 0.019438025 0.71903574 0.5191749
000050 8f 16 01 3f 96 68 7e 3f 2e dc c2 bd d7 75 b9 3e
       0.50425047 0.99378335 -0.09514652 0.36222717
000060 b8 14 0e be 68 3d a2 3e 62 e5 4e 3e f6 35 28 3f
       -0.13875091 0.31687474 0.2020469 0.6570734
000070 5e 86 34 be 2b 06 df 3e a1 70 ee bd f3 39 e2 bd
       -0.17629382 0.43559393 -0.11642576 -0.11046209
000080 af 35 c1 bd 5c 5d c6 3e 33 4b 9c 3c 98 e7 85 be
       -0.094340675 0.38743103 0.019078827 -0.26153255
000090 4a 2f 30 bf bf d1 09 3f bf 2c 78 3d 01 f3 83 be
       -0.6882216 0.5383567 0.06058955 -0.25771335
0000a0 ce 01 1c be b3 da aa 3e 07 1c 8e be 42 a4 27 bd
       -0.15235063 0.3336998 -0.27755758 -0.040928133
0000b0 2e 1b 6c 3e bc 91 21 3e a8 0e 16 3f d9 86 49 3f
       0.23057243 0.1577825 0.58616114 0.78721386
0000c0 9f fa c8 3e 2e 3a 29 3e de 7f 9c bd bf 19 ab be
       0.3925371 0.165261 -0.07641576 -0.3341808
0000d0 bb b4 ab 3e 5c 2b fb be b6 59 e2 bd 01 da 7f be
       0.33536324 -0.49056518 -0.11052267 -0.24985506
0000e0 c0 17 3c 3e fe 6d db be 10 a2 41 3e 26 c4 35 be
       0.18368435 -0.42857355 0.18909478 -0.17750606
0000f0 cb 31 a7 3e d5 99 96 3e fc f8 95 be 54 e1 40 3f
       0.32655177 0.2941424 -0.29291523 0.75343823
000100 50 82 ad be 08 0d 14 3e 07 a6 d7 be 44 7b a8 be
       -0.33888483 0.14458096 -0.42118856 -0.32906544
000110 04 fb 81 bd 48 92 59 bc 91 be 2f 3f e6 a9 13 3f
       -0.063467056 -0.013279505 0.68650156 0.5768112
000120 cb ac be be 6d c0 12 be 58 7a fb be 3d 50 c6 3e
       -0.37241206 -0.14331217 -0.49116778 0.38733092
000130 0c 28 5a 3b 46 79 ff 3d 6b fd a2 3e 25 7a 07 be
       0.003328803 0.12474303 0.31833968 -0.13230188
000140 f5 05 a5 be 8f 99 0c bf a4 f5 a9 be 45 14 28 be
       -0.32231107 -0.5492181 -0.3319522 -0.16413982
000150 89 40 da 3e 1b 48 0d 3d e5 f7 94 3e a1 98 08 be
       0.4262736 0.034492593 0.2909538 -0.13339473
000160 d1 08 a5 be ff 7f 88 3e 07 dc 54 be e6 dd 19 3e
       -0.3223329 0.26660153 -0.20787059 0.15026054
000170 96 32 32 3e 2a 48 4a 3f 2b 80 22 3f 27 ca b8 be
       0.1740211 0.79016364 0.6347682 -0.3609173
000180 36 28 e7 bd 5e 3e 0f bf 16 c3 00 be a0 93 2d 3f
       -0.112869665 -0.5595454 -0.1257442 0.6780338
000190 9f 7a 1e 3e 2f 79 ed bd 4d 46 06 3f f7 e5 62 3e
       0.15476464 -0.115953796 0.5245102 0.22158037
0001a0 74 76 b8 3e 67 f0 59 3d 73 14 81 be b0 74 81 bd
       0.36027873 0.05320778 -0.25210914 -0.063210845
0001b0 ce 7a 52 be 1b 60 3c 3f d3 b8 02 3f 30 df f7 3e
       -0.20554659 0.73584145 0.5106327 0.48412466
0001c0 3d a1 93 3e 4e 08 d3 3d 15 fe 8e be 0a 0a fd bc
       0.28833953 0.10304318 -0.27928224 -0.030888576
0001d0 09 09 42 3c fb 57 e1 3e 31 d3 5d 3e 58 d4 c7 3e
       0.011842974 0.44012436 0.21662594 0.39029193
0001e0 fa 85 f6 3e 5e 17 97 3d 3c de 6c be cd 5f 2d 3d
       0.4814909 0.07377504 -0.2313165 0.04232769
0001f0 ae 81 a6 3e 65 2c e5 be 91 42 55 3d be 5a 29 3f
       0.32520813 -0.44760433 0.052065436 0.66154087

layers.1.weight f4 [128, 128]
000000 29 f5 95 3d ec cc 85 bd 1a fa f0 3d a4 08 83 bd
       0.07322151 -0.06533226 0.11766453 -0.063981324
000010 5f a2 65 bb 5c e1 52 ba 0b fc 27 3d 5a 86 c3 bd
       -0.0035039408 -0.00080444454 0.04101185 -0.0954711
000020 38 ac 8f 3d 19 63 a1 3a 63 a0 de bc 3d e6 00 3d
       0.0701527 0.0012312859 -0.027176088 0.031469572
000030 ec d0 84 be a0 16 b9 bc 4c 42 f0 bb a2 c2 48 3d
       -0.25940645 -0.022593796 -0.007332122 0.04901374
000040 45 1b 07 3d f3 d7 87 3d de 9d c8 bd b8 8a 41 bd
       0.03298499 0.06632986 -0.09795736 -0.047251433
000050 71 39 fb bd e0 b6 fe bd 1b b6 6e bd 6f f5 10 be
       -0.122668155 -0.124372244 -0.058279138 -0.14156125
000060 36 00 ab 3c 4a 6b 4c be 1d 1c 20 3e 00 4e 8a be
       0.020874124 -0.19962803 0.15635724 -0.27012634
000070 24 e7 6a 3e f2 78 d7 bd 15 e8 d5 bd 62 f6 13 bd
       0.22939736 -0.10521115 -0.10444657 -0.03612364
000080 cb c2 e0 bd 6b 3b aa bd 92 bd 76 3d 2a 34 e7 3d
       -0.10974654 -0.08312114 0.060239382 0.112892464
000090 4c 54 b5 3d c2 8a 18 3c b9 7e 65 3d 95 f8 88 3c
       0.08853969 0.009310426 0.056029055 0.016720096
0000a0 d5 fb 99 3d 33 a6 8a 3d c9 0e 23 bd ea a1 88 3d
       0.07518736 0.06769981 -0.039809022 0.06671508
0000b0 6e 89 78 3d 30 2a 70 bd 64 a3 a6 bd 05 38 bb bd
       0.06067794 -0.058633983 -0.08136633 -0.09141544
0000c0 47 a6 94 bc ed 3f 1d bd 65 ec ed bd 37 ff 69 bd
       -0.018145693 -0.038391043 -0.11617354 -0.057128157
0000d0 ab fd 21 bd f6 40 cc bd 76 43 6e 3d 19 09 aa bc
       -0.039548557 -0.09973328 0.058169805 -0.020756291
0000e0 ba a3 5b 3d 8c c5 c3 bd 1d b2 a4 3c 50 a4 74 bb
       0.05362294 -0.095591635 0.020104462 -0.0037329383
0000f0 ce 62 8e bd bb 06 68 3c 29 13 f3 bc 4f 3e 9b 3c
       -0.06952439 0.014161761 -0.029672222 0.01895061
000100 10 aa 46 3e af 13 00 3e 4d 3c ed bc bb 78 c4 3d
       0.19400811 0.12507509 -0.028959418 0.0959334
000110 98 d7 56 bd d8 7d db bd 19 3c f5 bc 41 39 44 bd
       -0.0524517 -0.10717362 -0.029935883 -0.047906164
000120 53 ea 07 3e a3 66 7a 3e 3c 3b 91 3d 83 64 95 3d
       0.13272981 0.24453215 0.07091376 0.07294562
000130 61 98 2a bd 03 24 8d bc cb 4b a8 bd 93 3f d6 bc
       -0.041649226 -0.017229086 -0.08217581 -0.026153361
000140 46 46 87 3c b4 84 fa 3d 7c a8 a6 ba 96 d8 e8 bc
       0.016513001 0.12232342 -0.0012715007 -0.028423589
000150 df b6 8f bd 3a 43 a6 3d d8 26 f6 3d 5f 3a 41 bc
       -0.07017302 0.08118291 0.120191276 -0.011793702
000160 30 24 04 3d 0a f1 20 3d ce 59 f9 3c 2c d2 bc bc
       0.032261074 0.039292373 0.03043833 -0.023049437
000170 17 67 f4 3c 40 55 ac bd b7 a4 64 bd 7e 36 e5 3c
       0.029834313 -0.08414698 -0.055821147 0.027980085
000180 b6 12 9f bb f4 1f 26 3d 7c bd 14 be fd a7 58 3d
       -0.0048545254 0.040557817 -0.14525408 0.05289458
000190 ec 69 59 3d c4 75 ab 3d f9 71 4f 3d d6 42 6e 3c
       0.05307953 0.083720714 0.050645802 0.014542302
0001a0 ef 14 84 bd 46 8c f7 3d 16 fc 17 3e b2 2f 02 be
       -0.06449305 0.12087302 0.14842257 -0.12713507
0001b0 ff a5 12 3e 4c d2 07 be 6c 86 b7 bd 97 44 af 3d
       0.14321135 -0.13263816 -0.08961186 0.08558004
0001c0 0a ef b4 ba 3d 9c 3e be 92 85 e3 bc 02 82 68 bd
       -0.0013804149 -0.18614288 -0.027773652 -0.05676461
0001d0 93 cb a5 bd dd 23 93 bc 4b ec 7a 3c eb ec 0c 3e
       -0.08095469 -0.017961437 0.015315126 0.13762252
0001e0 7a 0b b1 3d 51 f2 86 3d 44 f6 91 3d 83 64 88 3d
       0.08644767 0.06589187 0.071270496 0.06659796
0001f0 c0 be 8a bc 5e 0c b1 3d 3f 94 c1 bd cd 80 72 be
       -0.01693666 0.08644937 -0.09452104 -0.23681946
000200 6c 9d 85 3d 80 7f a4 3d 84 45 ee 3d 9b 52 91 3d
       0.065241665 0.08032131 0.11634353 0.07095834
000210 3d f5 2b bd d5 03 29 3d ba 7d 99 bd 57 6c 94 bd
       -0.041981924 0.04126342 -0.074946836 -0.07247227
000220 1a ca eb bc 3e 06 b8 3c ae 12 15 bd 08 6c 0a be
       -0.028782893 0.022463914 -0.036394767 -0.13517773
000230 0b 79 06 3d 64 d8 69 3d de 9e 49 bd 3c 20 77 3d
       0.03283028 0.05709113 -0.049223773 0.060333475
000240 09 0c c8 bd 20 50 11 bd 86 27 67 bd 99 40 93 3d
       -0.097679205 -0.035476804 -0.056434177 0.071900554
000250 75 19 34 bc dc 99 fa bd 8c e4 79 3d 78 98 a2 bd
       -0.010992398 -0.122363776 0.061008975 -0.07939237
000260 96 31 c0 bc 34 38 e6 3d cc 93 a4 3d 49 0e 7f 3d
       -0.023461144 0.11241189 0.080360025 0.062269483
000270 f1 2c 9a bd 38 19 8b 3d 50 b5 64 3d d1 29 a1 bb
       -0.07528103 0.067919195 0.055836976 -0.004918315
000280 ef b5 0e be 02 e4 03 be fc 8d 67 bc 64 8b 59 3d
       -0.1393659 -0.12879947 -0.014132973 0.05311145
000290 54 32 7c 3a 97 81 0c bd e3 01 18 3e 3f eb 38 bd
       0.00096205366 -0.034303274 0.1484447 -0.045146223
0002a0 37 b3 95 3d 71 1a 9b 3d c1 9e 9f bd 3a 36 8c bd
       0.07309573 0.07573403 -0.07793952 -0.068462804
0002b0 9d 6b 2e 3d a8 f1 9f bc fc c1 18 bd 49 05 aa bd
       0.042583097 -0.01952441 -0.037294373 -0.08301789
0002c0 0d 32 fb 3c 86 8f 8e 3d bd f5 5c bc 89 a2 ed 3c
       0.030663515 0.06960969 -0.013486323 0.029008167
0002d0 a9 c1 7b bc e7 7e b5 bb 61 de 47 bc 82 98 06 3e
       -0.015365996 -0.0055388096 -0.012199015 0.13144115
0002e0 88 88 e7 bd 20 9f ab 3c de e0 d3 bc 65 c6 04 3e
       -0.11305338 0.0209499 -0.025864061 0.12966307
0002f0 38 d0 0a bd bb 51 8a 3d 4f 2d 71 bd 83 d4 c9 bd
       -0.03388998 0.0675387 -0.0588811 -0.098549865
000300 12 8a ac 3d e9 51 44 3c e7 5d 36 3d b3 d2 44 be
       0.08424772 0.0119824195 0.044523146 -0.19221
000310 82 85 50 3d d3 7f 95 3c ff 22 19 bd 19 5a f8 bd
       0.050908573 0.018249428 -0.03738689 -0.1212656
000320 94 88 0b 3e 42 b5 34 3d 1f 21 c2 3c 55 7d af bd
       0.13626319 0.044118173 0.023697434 -0.08568827
000330 4c 35 3e 3c 33 7c bd 3d 83 a3 54 bc f9 02 13 3e
       0.011609387 0.09252205 -0.012978437 0.14356603
000340 ee 22 c3 bd 7d 39 b2 ba d2 8b c7 3d 97 95 da 3c
       -0.09528147 -0.0013597455 0.097434655 0.026682658
000350 7f 34 dd 3d 04 92 70 3d 44 34 27 bb 8c 71 79 bc
       0.108010285 0.058733 -0.002551333 -0.015224826
000360 90 5d 43 3d 94 1a c4 bd e7 a1 9a 3d 26 b5 19 3c
       0.04769665 -0.09575382 0.07550412 0.009381568
000370 17 d0 2b bc 95 09 ee 3c 41 ae 16 3d dd 88 ad 3c
       -0.010486624 0.029057303 0.036787275 0.021183426
000380 3d 81 b0 bd d6 76 33 3d c1 d4 c5 bd bc 36 29 be
       -0.086184 0.043814503 -0.0965972 -0.16524786
000390 fd 5d 9d ba 3d 77 57 bd d3 7a 85 bd da ba 65 bd
       -0.001200616 -0.05260395 -0.065175675 -0.0560864
0003a0 dd a3 cb 3c ac 73 a8 3d 77 82 25 3d a6 a7 f6 bc
       0.02485841 0.08225188 0.040407624 -0.030109238
0003b0 69 7b 52 3e 22 ac d9 bd 3d ba c6 bd ed f1 1a bc
       0.2055489 -0.10628535 -0.09703491 -0.009457094
0003c0 2f 68 3f 3e 67 40 aa 3d 91 4c 78 3d c8 cd 33 bd
       0.18692087 0.08313065 0.060619894 -0.04389742
0003d0 c2 3b ba 3d 32 cd 82 3c fc fe 42 3d 5b d8 81 3d
       0.09093429 0.015966985 0.047606453 0.06340095
0003e0 80 7f 0a bb 79 f2 d9 3d 2e ab f7 3d fe 39 e9 3d
       -0.0021133125 0.10641951 0.12093197 0.11388014
0003f0 23 b1 0d be ed a2 07 3d e9 f4 fb 3d a2 32 14 be
       -0.13837104 0.033114363 0.12302572 -0.1447244
